mixed/dsgps/results/70_ite_lamb_0_gamma_1/ckpt/best_model.pt (torch, 77701 bytes, 93 tensors)

laynorm.weight f4 [10]
00000000: 0000 803f 0000 803f 0000 803f 0000 803f
00000010: 0000 803f 0000 803f 0000 803f 0000 803f
00000020: 0000 803f 0000 803f
1.0 1.0 1.0 1.0 1.0 1.0 1.0 1.0
1.0 1.0

laynorm.bias f4 [10]
00000000: 0000 0000 0000 0000 0000 0000 0000 0000
00000010: 0000 0000 0000 0000 0000 0000 0000 0000
00000020: 0000 0000 0000 0000
0.0 0.0 0.0 0.0 0.0 0.0 0.0 0.0
0.0 0.0

phi_to.mlp.mlp.0.weight f4 [10, 23]
00000000: 707c 14bf 60d0 203f e368 4d3f 1715 843c
00000010: f26c 0cbf 2098 693e aa85 0a3e 3660 a13d
00000020: 96a2 ca3e b9c1 c6be 5bf0 2bbc dff2 c4bb
00000030: b6ac 0d3f 1cb3 733e b17f 2abe efa8 33be
00000040: 354d 0d3d 18cd ffbd 3f6e afbd 8f83 65be
00000050: c863 7f3b d7ed 00ba 70be fa3d 2818 0abf
00000060: 6b91 b5be 7e35 aa3e 8aac 8ebc 0680 31be
00000070: 8e64 2ebe 2275 d53e 31de bebe ad4a ab3e
00000080: 0593 d1be 5348 3ebe 8c38 6b3e 355f 3e3e
00000090: 527f e63c 4ff5 7bbe 281b 2e3e c535 6cbe
000000a0: ee8b 7f3e 94a5 43bd d375 29be e5b5 3f3b
000000b0: 753f 24ba 00aa fa3c fcc2 86bd a09e 943d
000000c0: 277d cdbe 8564 00be ebec 18be d340 6cbe
000000d0: 540f 7cbd 610a 84bc 5d20 d73b ae62 083f
000000e0: f1f1 46be 04a0 8b3d 3db7 8dbe abe0 22be
000000f0: 5b94 64be 4b35 023f 1ac7 74be 56e1 55be
00000100: bb12 db3c 976d 183e 447c f63b 5eb2 96bb
00000110: 6ade 0f3e d7a2 6dbe 682c 37bc 6e6d fc3e
00000120: 036c 053e b2c5 89be d275 183e 5824 833d
00000130: 4861 16be 132b 873e 7f46 18bc 5543 7cbe
00000140: 0cd7 9e3e c7b5 bcbe 0fa1 b9bd 4dca c43e
00000150: bbde 073d 5978 8cbe 5eb9 ae3e aa72 06be
00000160: 6025 2ebd d135 35bb 5a69 cf3a 15bf 55be
00000170: 7310 86be bb22 c4be b465 fcbe 47e5 a9bd
00000180: 582e 4b3e c3c6 89be 18b4 eabe ab44 dcbc
00000190: cbc6 183e d223 053d 7ca5 db3d 2d19 c23e
000001a0: 3ca8 a0be 75a4 07bf bc22 4fbe 029c 44be
000001b0: 3da0 0fbe 041b 9d3d 2f4c 06be 2887 a03d
000001c0: 6538 5b3b 15cd cf39 266a 50bd ed98 9fbe
000001d0: e7ae 7d3e e880 553e ae11 d6bd 8b86 703e
000001e0: 02e2 babe 6898 323e f7a1 b2be 121e 1e3f
000001f0: af75 753e ba36 8f3e 3328 973d 6e81 69be
00000200: fede 1cbe 2dae 4e3d 4796 ff3d 28c6 a1be
00000210: 072d 7a3e 7dd9 8d3e 5715 81be 89e7 b63a
00000220: eec6 cab9 2387 17be 9e32 81be 4841 fb3e
00000230: 62bb a4bd bfa1 d6bd 0b12 5b3e 86d8 adbe
00000240: 36c9 d9bd 19ce f83e ae76 483e 6837 053e
00000250: f114 553e 3df6 b23e 2afc 133d e104 933e
00000260: 5d42 a2be 98a6 233e d69b 8abe 5248 003e
00000270: 3306 1d3e 6966 c2bd fb47 abb9 1c0e 413a
00000280: 15a4 14be ca2d 98bd 806e c63e ec53 fa3e
00000290: 5940 88be cfc4 23be 6e86 f53d 7df2 1a3d
000002a0: 0c0d 36be 6653 973e 9ff3 96be 9d74 07bf
000002b0: 69d2 0e3e a607 f73e 0de2 6a3e 069d e2be
000002c0: c12a d63d 5e67 573e a369 97be a84f 813e
000002d0: 2c7f 78be 4d8a fc3a 351a 28bb f189 55be
000002e0: 788e 283f a7b8 9fbe 2196 81be 9d66 213e
000002f0: 3432 083e 6a3f 4b3e 38d5 70bc 0385 e63e
00000300: c697 c83c bc1b 90be 72bd 90be bb3c 1ebf
00000310: 0d74 613e ccf7 bc3e 2f8e 0bbf b060 2fbe
00000320: 7177 d3bc 9681 8ebe 00e3 0a3e 0544 f53d
00000330: 673d 81ba 7257 9ab9 45d4 e0bc 71d9 5e3d
00000340: a629 e63e 8c1a c3bd a1eb 933d 7cad 47bd
00000350: 847d 83bd e5f1 60be 22fa bb3c 592e e13e
00000360: 4ff2 943e 69ac 7b3e 1e72 c1be 6d75 abbd
00000370: b0a1 0a3b aaf1 6b3f d2e1 23bd 6fe7 7a3e
00000380: 6b30 ef3e 6c2c 63be be16 a1be 78f6 0239
00000390: 049e 3fbb c462 f8bd
-0.58002377 0.62817955 0.8023817 0.016123338 -0.5485374 0.22811937 0.13527551 0.07879679
0.39577168 -0.38819674 -0.010494317 -0.006010398 0.5534166 0.23798794 -0.16650273 -0.17544912
0.03449746 -0.124902904 -0.0856595 -0.22413467 0.0038969386 -0.00049182534 0.12243354 -0.5394311
-0.35462508 0.33243936 -0.017416257 -0.17333993 -0.17030546 0.41690928 -0.37278894 0.3345541
-0.4093248 -0.18582277 0.2297079 0.18591006 0.028136883 -0.24605297 0.17002547 -0.23067386
0.24955723 -0.04776533 -0.16548853 0.0029252705 -0.00062655594 0.03059864 -0.06580159 0.07256818
-0.40134546 -0.12538345 -0.14934127 -0.23071603 -0.061538056 -0.01611823 0.0065651373 0.53275573
-0.19428231 0.0681763 -0.27678862 -0.15906017 -0.22322218 0.5086257 -0.23904076 -0.2088674
0.02674233 0.14885555 0.007522138 -0.0045988997 0.14049688 -0.2320665 -0.011180021 0.49302238
0.13029484 -0.26908642 0.14888695 0.064034164 -0.14685547 0.2640005 -0.009294151 -0.2463506
0.31023443 -0.36857435 -0.090639226 0.38435593 0.033171397 -0.27435568 0.341258 -0.13129678
-0.042516112 -0.0027650485 0.0015824244 -0.20873673 -0.26184425 -0.38307747 -0.49296343 -0.08295684
0.19841897 -0.26909456 -0.45840526 -0.026888212 0.14919583 0.032504864 0.10724923 0.37909833
-0.31378353 -0.52985317 -0.20228094 -0.19200137 -0.1402597 0.076711684 -0.13114999 0.07838279
0.0033450362 0.00039634915 -0.05088248 -0.3117136 0.24773751 0.20849955 -0.10452591 0.23488824
-0.36500555 0.17440951 -0.34889194 0.61764634 0.23970674 0.2797144 0.07380714 -0.2280328
-0.1531944 0.050459076 0.12479835 -0.31596494 0.24431239 0.27704993 -0.25211594 0.0013954501
-0.00038676657 -0.14797644 -0.2523393 0.49073243 -0.08043553 -0.10480069 0.21393602 -0.33954257
-0.10634081 0.4859474 0.19576523 0.13009417 0.2080877 0.3495349 0.036129154 0.2871466
-0.31691256 0.15981519 -0.27072018 0.12527588 0.15334396 -0.094921894 -0.0003266929 0.0007364468
-0.14515717 -0.074306086 0.3875618 0.48892152 -0.26611593 -0.15993045 0.11988531 0.03782891
-0.17778414 0.29555815 -0.29482743 -0.5291231 0.13947453 0.48248023 0.22937794 -0.44260424
0.104573734 0.21035525 -0.29572782 0.25256085 -0.24267262 0.0019267291 -0.0025650386 -0.20853402
0.6584239 -0.31195566 -0.25309852 0.157618 0.13300401 0.1984841 -0.014699273 0.45023355
0.024486434 -0.2814616 -0.28269535 -0.6181142 0.22016926 0.36907804 -0.5451383 -0.17126727
-0.02581379 -0.2783324 0.13563156 0.11975864 -0.0009860218 -0.0002943832 -0.027444968 0.054406587
0.4495365 -0.09526548 0.07222677 -0.048749432 -0.064204246 -0.21967275 0.022946421 0.43980673
0.29091117 0.24577488 -0.37782377 -0.083720066 0.0021153502 0.92165625 -0.04001028 0.24502347
0.46716627 -0.22184914 -0.31462663 0.00012489583 -0.0029238472 -0.12128213

phi_to.mlp.mlp.0.bias f4 [10]
00000000: 16c6 1bbd b2fa 183d 235b 663d 0ef8 053e
00000010: ae7b 8d3d 25b0 feb9 0f3b 49bc 0cd6 d23d
00000020: e3d8 ecbd 5ec8 013d
-0.038030706 0.037348457 0.05623926 0.13082907 0.06908356 -0.00048577893 -0.012282147 0.102947325
-0.11564805 0.031685226

phi_to.mlp.mlp.2.weight f4 [10, 10]
00000000: 487b 8a3e 06a8 0e3f f649 ffbe b2b6 10be
00000010: cf05 993e 88f2 ec3e 03c0 ce3e e186 ac3e
00000020: 2282 fdbe bf8e f4bc c1b7 d23c d22a 623d
00000030: b16b 2cbe 94f7 c73e 9b54 acbe 55f7 9fbe
00000040: a79a b13e d455 fc3c 89d7 98be 28fd 56bf
00000050: b6a6 fcbe b5e8 81bd 940c 5a3e 92f9 7fbe
00000060: b9a4 4d3e c956 f7be 99d5 fabe 6e4e 51be
00000070: 7fd0 313f 0bc7 60bf f11e 4c3e 560e f1bd
00000080: 2136 e5bd ef24 a83e d715 ccbe 9ed0 e6be
00000090: c82b 49bd 8ad5 103d ddf1 a93e 375b eabb
000000a0: ac27 ca3e 3578 babe dc3d fabe 1c6c ecbe
000000b0: 8d69 10bf 31f6 9d3b 5f09 d6bd 6c2b 4e3d
000000c0: 394d 1bbe a614 a6bd ad78 693e 3775 db3e
000000d0: 5f82 dabc 40f6 923e 8ec5 b23e 0a0a ad3e
000000e0: 1206 b5bd 941b 283e 219d febe b3a7 223e
000000f0: cd83 d8be af10 f0be 7ef5 d4be ae36 64be
00000100: 4630 cd3e cc23 b5bd e849 c6bc 5eca 6d3d
00000110: 68a0 843e ee85 e83e 8f9a 1dbd df3f 813e
00000120: 064b 1d3d a688 693d 5dcc 81be 6a33 ccbd
00000130: 181c 1abf 417c d53d b4a4 dfbe c5a0 8abd
00000140: 0893 99be 8fc0 b33e 4213 c1be 556f 6fbe
00000150: 1fc1 963e b7b0 efbc 8ac8 973e d966 ba3d
00000160: 5d55 943e 3ae3 0c3f 2269 7c3e 1636 373d
00000170: b45f a7bd db89 11be a2cf 8d3e ab46 9f3e
00000180: 0daf ccbe 434a 08bf c794 463e db8a 973e
0.2704718 0.55725133 -0.49861115 -0.14132193 0.29887244 0.46278787 0.40380868 0.33696654
-0.49513346 -0.029853223 0.025722386 0.055216618 -0.16837956 0.39056075 -0.336583 -0.31243387
0.34688303 0.030802645 -0.2985194 -0.83980036 -0.4934594 -0.063432135 0.2129386 -0.24997547
0.20082368 -0.483084 -0.48991087 -0.20440075 0.69458765 -0.87803715 0.19933678 -0.117703125
-0.11191965 0.32840678 -0.39860412 -0.45081037 -0.04911402 0.035359897 0.3319234 -0.007151987
0.39483392 -0.36419836 -0.4887532 -0.4617623 -0.5641106 0.004820608 -0.10451006 0.05033438
-0.15166177 -0.08109407 0.2279994 0.42862865 -0.026673494 0.287035 0.34916347 0.33796722
-0.088390484 0.1641677 -0.49729255 0.15884285 -0.42288056 -0.4688773 -0.41593546 -0.22286484
0.40075892 -0.08844718 -0.024205163 0.05805432 0.2590363 0.4541468 -0.038477477 0.25244042
0.038401626 0.057015084 -0.2535123 -0.09970744 -0.6019912 0.1042409 -0.43680346 -0.067689456
-0.29994988 0.35107848 -0.37710005 -0.23382314 0.29444215 -0.029259069 0.29645187 0.09101648
0.28971377 0.5503422 0.2464948 0.044729315 -0.08172551 -0.14212744 0.27697474 0.31108603
-0.39977303 -0.53238314 0.19392692 0.29598126

phi_to.mlp.mlp.2.bias f4 [10]
00000000: 38d2 00bd 1811 c73c dc03 65bb 5fd7 c53d
00000010: 0593 2cbd 2c16 fa3d 5245 9dbd e5ff c83d
00000020: 861a 3d3c 16aa 25bd
-0.03145048 0.024300143 -0.0034944927 0.096602194 -0.042132396 0.1221126 -0.076792374 0.09814433
0.011541968 -0.04044541

phi_from.mlp.mlp.0.weight f4 [10, 23]
00000000: 986a d0be 9784 953d 8e8f 603e 7240 bfbe
00000010: 7428 cdbd a0bf 2ebd e83e 793c 299e 92be
00000020: 1ef4 a3be 3c56 adbe a75b 17be 21cc 123e
00000030: d4ca 543e 1dda 90bd 7987 c1be 0917 85be
00000040: 66c6 bdbe 2c63 833d 976b 3a3d 2d1a 7cbe
00000050: f1dd 1fbb fb00 993a dd8d 8abc d03e 843e
00000060: 2338 26bf 9660 a3be 7935 023c 0ebf bc3e
00000070: 0356 a43e 4e51 16be 0a31 093f e59f 0ebe
00000080: 1871 0dbf e91e 5f3e 7f71 413e ad8d d9bd
00000090: a1f4 a43e a8f1 81bd 5189 553e 3b1e fa3e
000000a0: f1dd 9b3d bb0c 843d e8d8 eb3e 2451 b43a
000000b0: 4a35 ca39 a0bd 01be c82e 0c3e 1105 c4be
000000c0: 1c1b 783e d20e 593d 0185 fdbe 93ef a13e
000000d0: acbb 083e a89d 403e 28fe 8e3d d70b 04bf
000000e0: ebf5 61be da43 65be 0786 213e 70e3 d4be
000000f0: c78f 283f 3743 9c3e 0c15 f4be 8367 55be
00000100: 8e58 bcbe 37d4 25be af7f 17bb 3ddb 9abb
00000110: 913e 393e d992 b23e a627 83bd 3f66 f73d
00000120: 7d16 3bbe b0b7 e33e e8b0 ab3e a440 5dbc
00000130: 0d53 0b3f eb2a 5b3d 9655 f1be 6696 be3e
00000140: e580 243e 1309 c23e 509d 453c b333 05bf
00000150: 90a3 753e 81cc b43e 944a 03bf c7b0 983e
00000160: a728 873f cc70 593b b551 85bb df79 b2be
00000170: 4bb1 133e 9673 e93e 5d43 84bd e065 43be
00000180: db97 91be fa28 943e 6470 e63e 3fea a13e
00000190: ad86 93bd 5cc1 4bbe a053 103e 4aee 1a3d
000001a0: 3d2a 0bbe 2136 583e 3c21 813d 04b4 903e
000001b0: 9078 d1be 85fe e2be 1329 c93e 4eb1 d03e
000001c0: 8bf0 2d3a 5a88 b8ba 7f2b c6bd ae37 89be
000001d0: 400d 3c3e ddfa 01bd 4c44 d03e d2a2 97be
000001e0: 5e5e f3bd 1266 bcbe 9556 5b3e 3b41 c73e
000001f0: 0627 823c d2d9 32be 18f6 f53e 1e36 f93d
00000200: bc2f 88be 4c01 14bd cd5b 89bd 5529 ce3e
00000210: 38f8 71be 339c adbe 18ba 50bd d7d4 b0ba
00000220: 12d1 113b 5a01 d5bd c531 dabe 21c6 633e
00000230: 712b 90bd 7c42 6cbd 2dce c6bc a601 fd3d
00000240: 82f5 cebe be13 8bbe 3380 86bd 3df8 44bf
00000250: 9759 c13d 319e 333e 23d7 833e 3025 623d
00000260: a335 2abe 9bd5 97be 8759 c5be 9700 1bbe
00000270: fd39 6fbe 324b 11be b8db 81bb 87eb 673b
00000280: 4342 5ebd aa19 003e 0133 b4be 069d 96be
00000290: 5524 7cbe b6e0 0fbf cb76 56be ad91 ecbd
000002a0: b57b 22be 20dd 0b3f 94b5 09be e61e 03b8
000002b0: d5d7 5c3e cbc0 0a3e 5af3 693b 25bd 593e
000002c0: ef9a 063f 25f2 ca3e 32fb 55be b1f4 223e
000002d0: ae41 abbe 828b d23a ebcf 2dba 2256 533d
000002e0: c151 ce3e e149 a6be c5c6 6cbe 6dc8 f33d
000002f0: d4a2 69be 21dc 313d 91d4 1dbf 0e10 8d3e
00000300: de44 463e 40c9 253f d00a ef3e 8c16 8f3e
00000310: 07a8 16bf 4bec 34bf bcf7 113e 2343 70be
00000320: 6155 4d3d 54b4 103e 9214 8bbe 597b 623f
00000330: 5a8b 613b f1e3 d5ba fa3c 62be 553a c8be
00000340: 5c41 bdbd 2186 8e3e 8e40 ac3c cb22 98be
00000350: 94d7 b83e 9a0a 9bbe b3ea bcbd f91f 25bf
00000360: 1958 523e 0861 bcbe 2469 0b3e 2d24 ec3e
00000370: 3e88 97bd 1b2b 7c3e fba9 b4be 8f4a 9cbe
00000380: 889f 65be a10d 7b3e c25c 1c3f a137 fb3a
00000390: e1ac 903b 36b8 0a3d
-0.40706325 0.0730068 0.21929762 -0.37353855 -0.100174814 -0.042663217 0.015212752 -0.28636292
-0.32022184 -0.33854854 -0.14781056 0.14335681 0.20780498 -0.07072852 -0.3779867 -0.25994137
-0.37065428 0.064154 0.045512762 -0.2461936 -0.0024393762 0.0011673266 -0.016913349 0.25829172
-0.6492941 -0.31909627 0.007947319 0.36864513 0.32096872 -0.14679453 0.5359045 -0.13928182
-0.5525069 0.21789135 0.18890952 -0.10622726 0.32217887 -0.063449204 0.20853163 0.4885119
0.07610691 0.06447741 0.46063924 0.0013757092 0.00038568146 -0.12669992 0.1368972 -0.38285115
0.24229091 0.05299265 -0.49515536 0.31628093 0.13352841 0.18810141 0.0698207 -0.51580566
-0.22066467 -0.22389165 0.15773784 -0.4157977 0.65844387 0.3052003 -0.47672307 -0.20840268
-0.36786312 -0.16194235 -0.0023116877 -0.0047258423 0.18090273 0.3487766 -0.06404047 0.12080049
-0.18270297 0.4447608 0.33533406 -0.013504181 0.544236 0.053507727 -0.4713561 0.3722412
0.16064794 0.37897548 0.012061432 -0.5203201 0.23988175 0.35312274 -0.5128567 0.2982237
1.0559281 0.0033178804 -0.004068578 -0.34858605 0.144231 0.45595998 -0.06458161 -0.19081831
-0.2843617 0.28937513 0.45007622 0.31624028 -0.07203422 -0.1989798 0.140944 0.037824906
-0.13590331 0.21114399 0.06305167 0.2826234 -0.40912294 -0.44334808 0.3928915 0.40760273
0.000663527 -0.0014078722 -0.09676265 -0.26800293 0.1836443 -0.031733382 0.40677106 -0.2961641
-0.118832335 -0.36796623 0.21419747 0.38916954 0.015887748 -0.17465904 0.48039317 0.12168525
-0.26598918 -0.03613405 -0.06706963 0.4026591 -0.23629844 -0.33908233 -0.050958723 -0.0013491166
0.002224986 -0.104006484 -0.42616096 0.22243549 -0.07039536 -0.057680592 -0.024268234 0.1235383
-0.40421683 -0.271635 -0.06567421 -0.7694128 0.09440916 0.17540814 0.25750074 0.055211246
-0.16622023 -0.29655156 -0.38544866 -0.15136944 -0.23361965 -0.14188841 -0.00396296 0.0035388188
-0.05426241 0.1250979 -0.35195163 -0.29416674 -0.24623235 -0.56202257 -0.20943753 -0.11551223
-0.15867503 0.54634285 -0.13448173 -3.126161e-05 0.21566708 0.13550107 0.0035698027 0.21263559
0.5258016 0.39637867 -0.20896605 0.15913655 -0.33448547 0.0016063305 -0.00066304085 0.051595815
0.40296748 -0.3247824 -0.231227 0.119034626 -0.2281602 0.043422822 -0.61652476 0.2755131
0.19362208 0.6476021 0.46687937 0.2794689 -0.5885014 -0.70673054 0.1425466 -0.2346311
0.05013025 0.1413129 -0.2716413 0.88469464 0.0034415335 -0.0016318542 -0.22093573 -0.39107004
-0.09240982 0.27836707 0.021026876 -0.29714045 0.36101973 -0.30281526 -0.09224453 -0.6450191
0.20541419 -0.3679278 0.13614327 0.4612135 -0.07399033 0.24625818 -0.35285935 -0.30525634
-0.22424138 0.24516918 0.6107904 0.0019166359 0.00441514 0.033867083

phi_from.mlp.mlp.0.bias f4 [10]
00000000: f3c8 9b3d 2fae b33d c772 143d af1b 09be
00000010: 482e 063e dc67 ed3d 608f e93d 1b0b 9bbc
00000020: 5c35 c93c dcda 4aba
0.076066874 0.08773457 0.036242273 -0.13389467 0.13103592 0.11592075 0.114043 -0.018926194
0.024561577 -0.0007738301

phi_from.mlp.mlp.2.weight f4 [10, 10]
00000000: 8dfc 9fbe dc91 3fbf 1d98 7f3e 6338 fbbd
00000010: cd0a c43e 8da5 0d3e 89a4 0abf c48a 1fbe
00000020: 2dc8 55be 9e4e 34be c41a 6fbd 59e3 d7bc
00000030: 7f0a 66be 90f7 79bd 1251 fbbe 30ba c13e
00000040: be4a ba3e 0639 063f 4a99 2b3f f74d dabd
00000050: 8da9 5cbe f10c 2bbe d7c7 e53e d019 113f
00000060: 1efe b4be b37f dfbe 37df 8dbe 3dfd 1a3f
00000070: 4531 47be d1a8 e3be 61f1 163e 7dfb 793f
00000080: befe 9d3d bc5d 883e 1cbc ff3e 33fd b0be
00000090: 218e f4be 548e 08bd a02b cabc 8186 363e
000000a0: c033 a2be 8838 703f b938 37bd 9d82 083f
000000b0: 10bb 39be a325 12bf 5ea9 91be 3ee9 59be
000000c0: bf66 ea3e ed10 04bf 4943 bebd 0b8c 3e3e
000000d0: e25d bdbd 35d6 eebe b2c5 013f a2ad 95be
000000e0: 8ef7 bc3e 6ebf 1f3e b765 cfbe 537d c1bc
000000f0: bd67 373e dcc7 d5bc d7bd f3bd 42f9 9d3e
00000100: 7032 93bd 62d9 73be 7c34 85bd e4b1 0abd
00000110: 5443 323e e453 a9bc d3f7 cdbe 0431 a93e
00000120: 2788 86bc 1b8a 953e 9696 bbbe 98c3 81bd
00000130: 4f22 10bf 82f8 c1be 3138 05bf 4205 bb3d
00000140: d30c 09be fb89 05bf 6578 f43e ef24 1fbd
00000150: f422 cd3d d574 133f 72fb d1be 8cd3 2bbe
00000160: 0821 2abf 2e54 6e3e 55d2 62bd 3610 113e
00000170: dbcf 783e 6e6b 68bc df0c fe3e 48b7 813d
00000180: ef5a e2be 307e 3d3e f436 cc3e 9296 a03c
-0.31247368 -0.7483194 0.2496037 -0.12266614 0.3828949 0.13832684 -0.5415731 -0.15580279
-0.20877142 -0.17608115 -0.058375135 -0.026353525 -0.22464941 -0.06102711 -0.4908529 0.37837362
0.3638515 0.5243076 0.67030776 -0.10659402 -0.21549053 -0.16704156 0.44879028 0.5668001
-0.35350126 -0.43652114 -0.27709362 0.6054266 -0.19452389 -0.44464734 0.14740516 0.97649366
0.07714604 0.26634014 0.49948204 -0.34568176 -0.47764686 -0.03333886 -0.024679005 0.17824747
-0.31680107 0.9383626 -0.04473183 0.533243 -0.18137765 -0.5708868 -0.2844953 -0.21280381
0.45781514 -0.51588327 -0.092901774 0.1860811 -0.09246422 -0.46647802 0.50692284 -0.29234034
0.3690762 0.15600368 -0.4050729 -0.02361933 0.17910667 -0.026096277 -0.119014435 0.3085423
-0.071873546 -0.23813394 -0.06504151 -0.033861056 0.17408496 -0.020669885 -0.40228137 0.33045208
-0.016422344 0.2920693 -0.36638325 -0.06336135 -0.5630235 -0.3788491 -0.52038866 0.09131862
-0.13383798 -0.52163666 0.47748104 -0.038853582 0.100164324 0.57600147 -0.4101215 -0.16779917
-0.6645665 0.232743 -0.05537637 0.1416634 0.2429804 -0.0141857695 0.49619195 0.06333786
-0.44210002 0.18505168 0.39885676 0.019603048

phi_from.mlp.mlp.2.bias f4 [10]
00000000: 6636 023d 23f0 f1bc f907 c3bd 9baf d9bc
00000010: 489a c4bd 7c68 683d e27d 25bd 1ecd d53c
00000020: 4f0b 4a3d ef6b 66bd
0.03179016 -0.029533451 -0.09523005 -0.026572993 -0.09599739 0.05674027 -0.040403254 0.026098784
0.04932719 -0.056255277

z_k.mlp.0.weight f4 [10, 33]
00000000: 738e f63e 5a00 9dbe 42b7 2dbd 2ea8 edbe
00000010: b43e 723e e5bc bebd 695a d2bc f348 58bd
00000020: 7fcb 0abe a79a 833e f308 b1be efef d5be
00000030: 3e81 7a3e 13b9 353e 39d6 36bd 6377 27bf
00000040: 161e 1c3f 1b10 03bf 1b42 1f3e f8d6 5e3e
00000050: a075 363d 26ff e6bc f25c 823e d451 b4bd
00000060: 0899 ad3e 67db ecbe edde d13e 8488 993e
00000070: efbb 823e e7eb f2bd b4a9 d3bc 0b07 f0bd
00000080: e51d 253e 88d1 4b3d 3c8c 05bf 7eb6 47bf
00000090: 0e1e 17bd f2f9 833e ab67 b13d 14ac 1c3d
000000a0: 65ea 623e 38c9 4abf 7763 aabe 46f2 95be
000000b0: ea0c 94bc f21d cd3e bb6c 3c3d c707 8dbe
000000c0: b4d3 343e 01d9 303e 53de 543f 5b77 c9be
000000d0: ca0a 913e 1972 79be 5786 b23e 5a86 b13e
000000e0: ae66 ac3e e333 f7bd 31a0 06bf c333 0f3f
000000f0: 27b1 643d a53d 78bf 148e 573e a52c 323d
00000100: f037 19bc 3165 cfbe 9ce9 b93d f579 33be
00000110: f77e 09bf dbcf 3abe 0797 7a3e 139c eebd
00000120: 43cd 3c3d 4275 9bbd cd67 a5be 3ab1 90be
00000130: daf8 9ebe dbcc 89bf 8b76 943e 191d 94bf
00000140: 9520 99bc 8527 01bf 8aea 2b3f 97d9 663d
00000150: 173f cd3e 1b47 303e f770 8f3e 0110 1d3e
00000160: 7aa5 a93d 974c a13d 2945 103e 0445 44bf
00000170: 7cdc f63e 0766 45be 251d eabe 65b6 1a3f
00000180: 9b23 853c b37d 29be 04e7 1ebd d418 9d3e
00000190: 7878 de3e 210c 333e d90e 353f 84be 02bf
000001a0: 2b67 6f3e ace0 933e c6d9 82bd 3cdc 413e
000001b0: eaf1 df3e 09f4 a13d c82c 213e 7840 bebd
000001c0: 6126 503f 4c79 1abf b7ad ecbd 0e8d 28bf
000001d0: 12f4 683e c53c 56bf 3a0a 173e 5742 79be
000001e0: 638f 573c 18a4 f7bc c84f 7b3e 62c8 363f
000001f0: 5b4b bfbe ca7d 673e 54a2 e33c ae09 a0be
00000200: c7c1 193f e621 8d3b ac38 a63e dbae 72be
00000210: bbe3 1a3f 2920 8ebe f372 3fbf ac15 da3e
00000220: 21c1 923f 5e7f e6be 2f0b cdbe a316 f6be
00000230: f4b1 8dbe 3071 3b3f 04c5 f83c 06f1 efbe
00000240: 8080 3e3f 3dc2 7abe d420 36be d24c 5cbf
00000250: 6f38 8b3e cbf1 1ebf 46c7 8b3e f143 d73d
00000260: 00bc febe dae6 0dbf 80df d63e ba54 923e
00000270: 9735 4c3f d094 e4bc c92e a23e d7c8 fb3e
00000280: 189d 58be 638a e33d ea9c 043d 387c 78be
00000290: 7775 ddbe 3215 e93e 492a 4ebd efde 39bf
000002a0: fd1c 52be 6397 453f e6b5 e23c b52d 77be
000002b0: 01cd 47be 783f 8bbc f8c3 8ebe 1f70 80be
000002c0: 046a c1be e27e 053e 3c51 dfbe 3f32 503e
000002d0: 011e 76be a0ed 113f c462 49be 6c25 503e
000002e0: 0056 1a3f a66e 7abc c59a 803e d180 143f
000002f0: 7bb5 71bd 0514 b53e 5542 14bd d548 083e
00000300: b780 c53e 24ae adbe e1d8 0bbe 5c9d 233d
00000310: 8b31 54be 2875 03be 2a01 c43e ab35 0cbe
00000320: 9d50 5dbc ce47 90be 26df 1e3d 4c3d 8fbd
00000330: 413d b5bd c619 6abc 40e6 f6bc fc9e 823e
00000340: b449 de3d 4aeb 20bd ee1e 9c3e d296 063d
00000350: ede1 34be 5263 67be 2915 7a3e 6b6c 84be
00000360: 0634 c8bd eed4 203e 684b 55be 2302 d33e
00000370: ef24 bcbd d7e0 713e 0338 273d 374a e43d
00000380: 82a6 39bd ae41 0e3e 2e92 14bf ddde 193d
00000390: 61b5 c83b 61fa 95be ca57 b7bb 31fb 3a3d
000003a0: 2940 a7bf c23a 67bf df2c a23c be9b dabe
000003b0: b8f1 0dbf 7ec5 d4be b2f0 383e 8b82 f23c
000003c0: cb39 903e c774 aabe b972 f63e 2172 213e
000003d0: 8cbd 39be 34de 81be 0955 283e 75a2 d2bd
000003e0: 0cc8 b8be a080 063e 31b6 283e c915 2bbd
000003f0: 9809 80be a9a3 8a3e d848 c43e 84bd f93e
0.48155555 -0.3066433 -0.042411096 -0.46417373 0.23656732 -0.093133725 -0.025677877 -0.052803945
-0.1355419 0.25703928 -0.3457714 -0.41784617 0.24463364 0.17746381 -0.044637892 -0.65416545
0.6098341 -0.5119645 0.15552561 0.21761692 0.04454577 -0.028197836 0.25461537 -0.0880467
0.33905816 -0.4626114 0.4099039 0.29986966 0.25534007 -0.11861401 -0.025837757 -0.11720093
0.16124685 0.04976037 -0.52167106 -0.78012836 -0.036893897 0.2577663 0.08662351 0.038250044
0.22159727 -0.79213285 -0.3327901 -0.29286402 -0.018072564 0.4006191 0.04600213 -0.27544996
0.17658883 0.1727028 0.8315174 -0.39348873 0.28328544 -0.24359931 0.34868118 0.34672815
0.33672088 -0.120704435 -0.5258818 0.5593836 0.05583301 -0.9696906 0.21050292 0.043499608
-0.009351715 -0.4050689 0.090777606 -0.17526992 -0.5370936 -0.18243353 0.24471675 -0.116508625
0.04609419 -0.075907245 -0.32305756 -0.28260213 -0.31049234 -1.0765642 0.2899669 -1.157138
-0.018692294 -0.50450927 0.67154753 0.056359854 0.40087196 0.17214625 0.28015873 0.15338136
0.08283515 0.078759365 0.14088883 -0.7666781 0.4821509 -0.19277202 -0.4572536 0.6043456
0.01625233 -0.16551857 -0.038794532 0.30683005 0.43451285 0.17485096 0.7072578 -0.51071954
0.23379199 0.2888235 -0.06389193 0.18931669 0.43739253 0.07907874 0.15739739 -0.0928964
0.8130856 -0.60341334 -0.11556571 -0.6584023 0.22749355 -0.83686477 0.14749995 -0.24341713
0.013156745 -0.030229613 0.24542153 0.7139951 -0.3736218 0.22606578 0.027787365 -0.31257385
0.60061306 0.0043070195 0.32465112 -0.23699515 0.6050374 -0.2775891 -0.74784774 0.4259466
1.1465188 -0.45019048 -0.40047595 -0.48064145 -0.2767483 0.73219585 0.030367382 -0.46863574
0.74414825 -0.24488159 -0.1778596 -0.8605472 0.27191493 -0.62087697 0.2730047 0.10511006
-0.49752808 -0.55430377 0.41967392 0.28580266 0.7976927 -0.02790299 0.3167632 0.49176666
-0.21153677 0.111103795 0.032376207 -0.24266136 -0.4325368 0.45523983 -0.050333295 -0.72605795
-0.2051887 0.7718412 0.027674627 -0.2413853 -0.19511797 -0.016998038 -0.27883887 -0.25085542
-0.37776196 0.13036683 -0.43616664 0.20331667 -0.24034883 0.5700321 -0.19666582 0.20326775
0.60287476 -0.01528517 0.2511808 0.5800906 -0.059010964 0.35366836 -0.03619607 0.13309033
0.38574764 -0.3392192 -0.13656951 0.03994499 -0.20722024 -0.1283766 0.38282138 -0.13692348
-0.013507989 -0.28179783 0.03878703 -0.06994113 -0.08849574 -0.014288371 -0.030139089 0.2551192
0.108539015 -0.03928689 0.30492347 0.032858677 -0.17664309 -0.22596481 0.24422134 -0.25863966
-0.09775548 0.15706226 -0.20829546 0.41212568 -0.09186732 0.23620926 0.0408249 0.11146968
-0.04532481 0.13892242 -0.5803555 0.037566055 0.0061251377 -0.29292586 -0.005595182 0.04564971
-1.3066455 -0.9032403 0.019796787 -0.42696947 -0.5544696 -0.41556925 0.18060568 0.029603263
0.28169093 -0.3329222 0.481344 0.15766193 -0.18138713 -0.2536484 0.16438688 -0.102848925
-0.36090124 0.13135004 0.1647575 -0.041768823 -0.2500732 0.27077988 0.38336825 0.487774

z_k.mlp.0.bias f4 [10]
00000000: 52b0 c2be dcd6 73be 3265 c3be c96b 10bd
00000010: 920a f6be 7e1a a3be 9b68 da3c e554 c9be
00000020: 6f2e 9e3e a03f 86be
-0.38025147 -0.23812431 -0.38163143 -0.035259042 -0.4805494 -0.3185615 0.026661208 -0.39322582
0.308948 -0.26220417

r_k.mlp.0.weight f4 [10, 33]
00000000: ba22 12be fb06 06be e627 cc3e 68a1 a93e
00000010: 931b b1be 2a98 b83e f98f 6bbd 7b58 afbc
00000020: 9c9b 433e 6b9f 103e c3fa d7be 2e03 313d
00000030: b8d5 063d 9f11 be3e 0ead acbe e5a3 ad3e
00000040: cbe2 c7bd 6c30 a93d 1e08 8b3e 82ad 48be
00000050: 4975 803e 7f4e 9dbe 1b74 5abd f186 dbbe
00000060: 76d9 9c3e 7c22 bbbe ee22 88be 4d36 e83d
00000070: 39b7 77bd e111 a7be d92b a8bc 407b b2be
00000080: 8c98 953e 0a3e fcbe c5cb 9dbd 1d65 303e
00000090: 93a4 23be 72fd 85be 16b0 b43e 2423 c3be
000000a0: 9f00 243f f664 6d3e 5c4a 8e3e 5dee a2be
000000b0: af5c 163d e623 f43e c279 a6be 6956 223d
000000c0: b5f9 ed3d 51de 693e 27f5 0b3c 59e5 8cbe
000000d0: 27b1 a13e be2f 59be 26d3 1d3f f62f acbe
000000e0: d779 a7bf b868 4e3e 435d 033e 7614 6c3d
000000f0: 4fa7 203d 34b2 cb3e 972a dcbd 0adb 033e
00000100: 13e5 5e3e c537 40be 3734 bcbe 5198 153f
00000110: 9828 4f3e 383b 25bf 8041 273e fe2f 13be
00000120: a451 283e 5eb8 d3bd c7f9 6abe c301 cabe
00000130: 2e0f 833e 5b8e b5be 9960 823e cd7c 10bf
00000140: 1574 bfbe 0d36 1c3e 09ac bf3e 822d 763e
00000150: 9b6f 92bd d932 ab3e faef f4be 47ae b83b
00000160: 7099 8fbe f4f9 263d d386 04be 3f47 a33d
00000170: f7b1 6a3e 38d6 24bd e5a4 2cbd 3c25 c1bd
00000180: bdf2 983e c3b9 dd3d fde5 a43e 5c5a a73e
00000190: 6231 9bbe 72fd 5abc 8cb2 b13e a59d a3be
000001a0: bf50 0a3e 348b 75be a710 393d 11d1 9c3e
000001b0: 1d35 273f 431b c9be 09c6 0f3e 3b4c 74bd
000001c0: 82f0 06be 3705 b13e 21a8 92bc fc29 0a3d
000001d0: e480 d63d 5510 933e dcf0 093e b510 a83e
000001e0: e404 15bf a9e4 9b3e 740d 5a3e b0e6 9d3e
000001f0: 0e99 b53e fcb0 71be e410 b43e e95a 95bd
00000200: 0453 cd3e 2f8c c53d 1761 803e 95d7 ae3d
00000210: d25b e1bd 712c 18be be75 95be e371 7c3e
00000220: fac9 7ebd ef5a 77be 7eda 4a3e 30f7 833e
00000230: 24a7 87be 93f3 cc3e 4827 233e 45a5 d63e
00000240: 1161 8cbe 436b 02bf 571b 53be 4076 233e
00000250: 3507 bb3e f78a 853e 96bf 0f3e 91c4 293c
00000260: c40c 27bd ec85 9e3d 4d69 cebd c1cf 66be
00000270: ebd4 0dbf 4654 47be 12d4 a93d 2c04 bcbe
00000280: 0554 91be f50f 3fbe 8ccd b7be 1870 41be
00000290: ee2a 733e 0e75 39bd e9fa 26be 5d6c 113e
000002a0: 8ddc 553c 55e6 e8bd 496d 93bd 2f01 14bf
000002b0: b777 debd da34 e13e 1cfd 95be 5f80 82be
000002c0: a33a 63be 71d3 b63e 3622 17bf 2bf6 1dbe
000002d0: 2a11 f13d b4c9 72bd 7a8d c13e 10d8 04bd
000002e0: 32f7 f53e 5eaa 44be 0b58 86be 9910 1bbe
000002f0: 6df2 0cbe 1be8 743e af28 543e fbe3 46be
00000300: 8b13 b83d 768b 46bd 2b1d 14be f4da 18be
00000310: 877e 1cbe 2e0c d73d aa07 c0be bb28 d23d
00000320: 47d0 8a3d 326e de3e 43bd 923f feb2 0abe
00000330: 9d1e d8be 8292 013e 3330 b23e fdf2 1fbe
00000340: 83fb 6b3e 451b 403f 4e02 81be 798a b93e
00000350: c18b 5dbe c7fc 66bd b1c3 ef3d 454a 9e3e
00000360: 9e58 46be 9873 133c 3b00 d9bd 064e d2be
00000370: 89f1 95bd 9bda a6be fd89 463e 0511 cbbe
00000380: faf2 d93e 548f 7cbd d685 6e3c 775f 4bbd
00000390: d350 e23a 1570 a63e 6b8a dabd a233 7d3c
000003a0: 736b bbbe 5aba 79be 0ec8 ab3e 1e09 4b3e
000003b0: 0e4f 413e 707d 11be 4ba3 c4be d094 233e
000003c0: e48f ec3e 1c3c 153f 68ee 64bc 2ce8 03be
000003d0: db34 5ebc 82d6 15bf cf77 2d3f a602 0abf
000003e0: feb5 35be 2882 1d3e 7baa f7be b7f5 8cbe
000003f0: 42ef 55bd 01ab 18be 1f20 d53e 0c2e 73bf
-0.1427106 -0.130886 0.3987419 0.33130956 -0.3459135 0.36053592 -0.05751035 -0.021404495
0.19102329 0.14123313 -0.42183504 0.043215923 0.03291866 0.3712282 -0.3372578 0.33914104
-0.09760054 0.08261189 0.2715463 -0.19597438 0.2508948 -0.3072395 -0.053333383 -0.4287639
0.3063466 -0.36549747 -0.2658915 0.11338482 -0.06047747 -0.32630828 -0.02052872 -0.34859657
0.29217947 -0.49266082 -0.077048816 0.17226072 -0.15980749 -0.26169926 0.35290593 -0.38112748
0.6406345 0.23183045 0.27791107 -0.31822482 0.036709484 0.47683638 -0.3251477 0.03963319
0.116198935 0.22838713 0.008542336 -0.27518728 0.3158047 -0.21209618 0.6165031 -0.3363034
-1.3084058 0.20157135 0.12828545 0.0576367 0.039222058 0.39784396 -0.10750311 0.12876526
0.21767072 -0.18771274 -0.36758587 0.5843554 0.20230329 -0.64543486 0.1633358 -0.14373776
0.16437393 -0.103378996 -0.22946845 -0.3945447 0.2559752 -0.3546017 0.25464323 -0.5644043
-0.3739325 0.15254994 0.3743594 0.24040797 -0.07150193 0.3343723 -0.47839338 0.00563601
-0.2804675 0.040765718 -0.12942056 0.079725735 0.2291945 -0.040243357 -0.042149443 -0.0943093
0.29872695 0.10826447 0.32206717 0.32686126 -0.30311114 -0.01336609 0.34706533 -0.3195621
0.13507365 -0.23978883 0.045181897 0.30628255 0.6531542 -0.39278612 0.14040388 -0.05964301
-0.13177684 0.3457429 -0.017902436 0.033731446 0.10473803 0.28723398 0.13470787 0.32825246
-0.5821059 0.3044789 0.21294194 0.30840063 0.35468334 -0.2360267 0.35169137 -0.0729273
0.40102398 0.096458785 0.25074074 0.08537213 -0.110038415 -0.14860703 -0.29191393 0.2465282
-0.06220434 -0.24155782 0.1980991 0.25774527 -0.26494706 0.40029582 0.15932953 0.41922966
-0.27417806 -0.5094492 -0.20615898 0.15963078 0.36528936 0.26082584 0.14037928 0.0103618065
-0.04078366 0.07740387 -0.10078678 -0.2254019 -0.5540301 -0.19465742 0.08292402 -0.36721933
-0.28384414 -0.18658431 -0.35899007 -0.18890417 0.23746845 -0.045277648 -0.16306652 0.14201494
0.013053072 -0.11372057 -0.07198579 -0.57814306 -0.108626775 0.43985635 -0.2929467 -0.25488564
-0.22190337 0.35708192 -0.59036577 -0.15425937 0.11770852 -0.05927439 0.3780325 -0.032432616
0.48040158 -0.19205615 -0.26239046 -0.1514305 -0.13764353 0.23916666 0.20718645 -0.19422905
0.089881025 -0.048472844 -0.14464252 -0.14927274 -0.15282641 0.1050037 -0.37505847 0.10261675
0.06778007 0.43443447 1.1464008 -0.13544843 -0.42210856 0.12653545 0.34802398 -0.15620036
0.23045163 0.7504161 -0.2519707 0.3623846 -0.21635343 -0.05639341 0.11707247 0.30916038
-0.19369742 0.008999728 -0.10595747 -0.41075152 -0.0732146 -0.32588658 0.19388576 -0.39661422
0.4256819 -0.061660126 0.014558276 -0.04965159 0.0017266519 0.32507387 -0.106709324 0.015454205
-0.36605415 -0.24387494 0.33551067 0.19827697 0.18877813 -0.14208007 -0.38405833 0.15974736
0.4620353 0.58294845 -0.013972856 -0.12881535 -0.013562406 -0.5853044 0.6776094 -0.5391029
-0.17745206 0.15381682 -0.48372254 -0.27531216 -0.052230127 -0.14908983 0.4162607 -0.94992137

r_k.mlp.0.bias f4 [10]
00000000: b8f7 efbd 2072 6d3e 4510 8fbc a2d6 b8bd
00000010: 0c0e 2fbd cfef 053e 1524 7fbd b5c7 0d3f
00000020: 2962 2fbe c1b7 363e
-0.117171705 0.23188066 -0.017463813 -0.09025313 -0.042738006 0.13079761 -0.06229027 0.55382854
-0.17127289 0.17843534

correction.mlp.0.weight f4 [10, 33]
00000000: 1f06 c7bd 7f95 283f a0d0 e93d f540 52bd
00000010: 64cd e8bd fffd b43e f00e 583e b43c 6bbd
00000020: 3322 d6bd 5c12 8abe 3a9a 22be 53a4 a3be
00000030: a85e 97be fd0d 7f3e f7c3 70be 4a58 59be
00000040: 385e 5cbe f59b 923e 5d8e 1b3d 1def 693e
00000050: 9cd8 913d cb45 0abf d1af 7a3e 4fa2 2b3f
00000060: bb62 16bd 833f 8cbd 1bb5 96bd 989e 9ebd
00000070: f4fe d1be 0ffd 26be 0703 82bc 8680 e63d
00000080: ea4b 1d3e 836a 02bf 69e0 0fbe 5979 ff3d
00000090: 5afe 673e 032a a1be 1a4c 093f 914e 623e
000000a0: 5c40 2b3d d1d0 b03d 2f78 3abe 976f 583d
000000b0: b0e1 7dbe b6dc eb3d 2ef5 f9bd 0ffa 99be
000000c0: 9cdb 2ebe ae82 57bd 7026 2b3e 4fe3 0a3f
000000d0: c6e2 a93e cb00 04bf 9a43 053f 1906 6d3e
000000e0: 06b9 3b3e e015 403d 7e6e 63be 735b cbbe
000000f0: 7184 f1be 65af d03d f07e 133d f594 9d3c
00000100: 9dca 693e 7ee2 93be c0b7 093e 67e1 ce3d
00000110: d4f8 0b3e 62fd 533e 1dda 97be 4a2e df3e
00000120: 5ad3 b83e 48a2 123e 9724 b83d fb39 e7be
00000130: 602b 9dba 5944 86be 6d59 90be 49e7 8fbc
00000140: d2b8 cabc e601 25be d27a 783e 1dfb e43d
00000150: 065f 603e 4049 8dbd a96c 783d 843e 1ebe
00000160: 3ae5 b33e d082 98bd 2edb 9abe e542 8cbc
00000170: c430 f1bd e008 86be 9a3c 72bd 5fd5 bebb
00000180: 93de af3b cb4d 13bd aa94 b7bd cb99 333e
00000190: 82f4 8ebe 296b 1f3f aaa1 4fbe 3ec8 353d
000001a0: d7ad fdbe c340 283e 5298 94bd c1ca 1bbe
000001b0: 2374 003f 945f 82be f9a3 9b3c 30b4 183d
000001c0: 7c0d 81be 77c9 6e3e aa00 513e 4dd4 d8bd
000001d0: 3cf0 4bbe 8b73 433d 67ec 8ebe dfee 39be
000001e0: dd68 99be 4670 2b3d 5af8 5c3e 62e5 19be
000001f0: da21 9a3e 9cdc 833e 3c1f 213e 0508 8dbe
00000200: 8aea 583e 2f1e 34bc 750d b23d 4014 a43e
00000210: 9562 dabe 9de0 013d 2e46 963d 54b6 9fbe
00000220: 9298 02be 175f 77be 58a9 143f cbbc d73e
00000230: 3b59 81be 0ebb 41be 55ab 4bbe 60fc a13e
00000240: 306c 833e 2af3 9f3e 0876 a53e 575e c9be
00000250: 510d 8e3e dcb8 8dbc acb8 3f3e f8fe 4c3d
00000260: 45bc 743c e2d5 b7bd de80 d63d 345e b4bd
00000270: d80e dfbe 1cb5 983e 5415 b1be 4358 953e
00000280: 3fe8 3abe 8a43 113e 0bee 7dbc bd91 8dbe
00000290: f6f4 b5be 16ac 073e 40e2 243f 9b24 a4be
000002a0: 9dbc aabe 0cef 37bc 95ce 653e 069b 543b
000002b0: f340 a6be 2267 013e 22e8 9fbd cfb7 82be
000002c0: 38cf 5abc bd2a 7bbe 5d2d acbe 305d 98be
000002d0: a84e 9abe 5ea7 6a3e a706 ae3c 8ac6 d23e
000002e0: db32 97bc 94ab 7bbe 6bbb e23d 3f08 e8bd
000002f0: 2da9 863d 6e9d 89be a06c 8a3e e7c6 b33b
00000300: cd10 313e 7580 f83b c8bc c83d 2b34 8a3c
00000310: 1b03 80be 8d86 423d 6b08 4c3b 86f0 b7be
00000320: 2b44 ecbe e286 11be 1501 abbe 75b9 7fbe
00000330: 8c6b 2bbe f0fa f63d 0114 a43e c3bd 76be
00000340: b1ea 68be d17e 0f3d 3408 383e 2a5c 02be
00000350: 1519 f4bd b87a 9f3e 1ee1 e43d 1974 8ebe
00000360: 8717 203d 2fdb 7c3e e364 c0be 43fc c83e
00000370: 5ca2 113e d55a c03c 06dd 68be e340 9bbe
00000380: cd26 a2bd 0fdc 7dbe f23d d9bd 613c 94be
00000390: 46b1 903c 859d cfbe a03a 373c bb90 893d
000003a0: 740e 73be 6fbc 39be 05d0 75be 66a5 febe
000003b0: 5100 8dbe 7deb 223f d599 3ebf a913 303e
000003c0: d135 d53c 5b47 333e 36ac e43d b7f9 453e
000003d0: 00ad d3be bcdb ae3e 7070 a03e 69b3 32be
000003e0: 6be1 4abd f21a 993e 9976 3d3e 601d 953e
000003f0: 08e9 83bd fc6d 923e 7d81 0ebf 14c4 5cbe
-0.097179644 0.6585311 0.11416745 -0.05133148 -0.113673 0.35350034 0.21099448 -0.057430938
-0.10455742 -0.26967132 -0.15879145 -0.31961307 -0.29564404 0.2490768 -0.23512255 -0.21225086
-0.21520317 0.2863461 0.037977565 0.2284512 0.07121393 -0.54012746 0.24481131 0.6704454
-0.03671525 -0.068480514 -0.07358762 -0.07745093 -0.41014826 -0.16307472 -0.015870584 0.11254983
0.1536099 -0.50943774 -0.1405045 0.12474317 0.22655621 -0.31477365 0.53631747 0.22100283
0.041809425 0.086335786 -0.18209909 0.052840795 -0.24793124 0.11516707 -0.122049674 -0.30073592
-0.17075962 -0.05261486 0.16713881 0.54253095 0.33180827 -0.5156371 0.52056277 0.23146857
0.183323 0.04689586 -0.22210118 -0.39718208 -0.47171357 0.10189704 0.03600973 0.019236067
0.22831197 -0.28883737 0.13449001 0.10101586 0.13669139 0.20702127 -0.29658595 0.43590003
0.36098748 0.14319718 0.08991354 -0.45161423 -0.0011991076 -0.2622402 -0.28193226 -0.01756634
-0.024746332 -0.16114005 0.24265602 0.111807086 0.21911249 -0.06898737 0.0606505 -0.15453535
0.35135823 -0.074468255 -0.30245346 -0.017121742 -0.117768794 -0.26178646 -0.059139825 -0.0058237757
0.005367109 -0.03596286 -0.08963902 0.17539136 -0.2792092 0.6227289 -0.20276514 0.04438042
-0.49546692 0.16430955 -0.07255615 -0.15214063 0.5017721 -0.25463545 0.018999087 0.037281215
-0.252056 0.2331904 0.2041041 -0.10587368 -0.19915861 0.047717612 -0.27914736 -0.18157528
-0.29962817 0.04185512 0.21579114 -0.15028909 0.30103952 0.2575425 0.15734571 -0.2754518
0.2118322 -0.010993524 0.08693973 0.320467 -0.42653337 0.03170835 0.073376045 -0.31193793
-0.12753513 -0.24157368 0.580709 0.42136225 -0.2526339 -0.18919012 -0.19889577 0.3163786
0.25668478 0.31240207 0.32316613 -0.39329788 0.27744535 -0.017300062 0.1872279 0.050047845
0.014937465 -0.08976342 0.10473798 -0.0880703 -0.43566012 0.29825675 -0.34586585 0.291689
-0.18252657 0.1418592 -0.015498648 -0.27650252 -0.35538453 0.1324924 0.6440773 -0.32059178
-0.33347026 -0.011226427 0.22442086 0.0032441034 -0.32471427 0.12636998 -0.07807948 -0.2553086
-0.013355069 -0.24528022 -0.3362836 -0.29758596 -0.30138135 0.22915408 0.021243406 0.41167098
-0.018456867 -0.2457717 0.110709034 -0.11329698 0.065752365 -0.26877922 0.27036 0.0054863575
0.17291565 0.0075836726 0.09801632 0.016870579 -0.2500237 0.0474916 0.0031132947 -0.35925692
-0.46145758 -0.1421161 -0.33399263 -0.2497309 -0.16740245 0.12059581 0.32046512 -0.24095826
-0.22745778 0.03503305 0.17971879 -0.1273047 -0.119188465 0.31148314 0.1117575 -0.2782295
0.039084937 0.24692987 -0.3757697 0.3925496 0.14222091 0.023480812 -0.22740564 -0.30322942
-0.07917557 -0.24790977 -0.10607518 -0.28952315 0.017662656 -0.40549865 0.011183411 0.06717058
-0.23735982 -0.18138288 -0.24005134 -0.49735564 -0.27539304 0.63640577 -0.7445348 0.17195
0.026026638 0.17507689 0.11165659 0.1933354 -0.41342926 0.3415202 0.31335783 -0.17451252
-0.04953138 0.2990337 0.18502273 0.29123974 -0.064409316 0.28599536 -0.55666333 -0.21559173

correction.mlp.0.bias f4 [10]
00000000: b0d6 563b 2d3f 173d 7b6d d53d 86d1 523d
00000010: d616 0a3e 212d 29bd a66b f0bd 5003 d4bc
00000020: dbd0 163d eba7 383d
0.0032781772 0.036925483 0.10421272 0.05146935 0.13485274 -0.041302804 -0.11739282 -0.025880486
0.036820274 0.045082014

phi_neumann.mlp.mlp.0.weight f4 [10, 23]
00000000: b126 65be 6212 553e bb63 f2bd 9c90 64bd
00000010: d9a2 bd3e 62e5 0b3e de3e 9ebe 6eaa e53d
00000020: a942 963e c863 883e 2b05 fb3c 7d6b 8fbd
00000030: c77c f4be a49a 09bf 48a9 0c3f e0fb d73e
00000040: 780b 013f 1f16 273e 173b cebe e9a2 18bf
00000050: e31f 96bb adac c8bb 7ece c93c bf68 7d3e
00000060: 3750 623e e984 bb3d 8787 413e 7d3f babe
00000070: 6059 02bd 77a0 c3be 3665 39bd aed3 783e
00000080: 8d63 c83e 3fb0 413e 0b03 463e 6a0f 1c3c
00000090: 2992 cebe c3b5 d63d 66eb 63be bb36 253e
000000a0: 3be6 5fbe a44b 043e 4ef5 c1be 615c 5b3b
000000b0: 08e1 4fbb 2e2d 7f3c 76e6 c8bb 3d27 0d3d
000000c0: ba5a e0be c36d 863e 167b 3e3e b232 153e
000000d0: 750d 8bbe 4dac a73e fd71 8dbe 76b1 d8be
000000e0: 1872 cbbe 6006 03bf cded 9dbe 034d 683e
000000f0: 1f8e 6bbb 7d29 8cbb d94c 8b3e 5a1f 2c3f
00000100: d887 34be a6eb e53e d0a2 adbd afd9 b33d
00000110: d636 99bd fe5d 093e 8388 823e 25cb d73c
00000120: f51a 58be 7b87 89be 2df8 a0bd bf0e cabe
00000130: ca24 6cbd b6af b03e dfc3 2fbe 80e4 b53d
00000140: fd8f 28be 575b cdbd 50ad e4bc 9e76 1b3e
00000150: 9542 913e 5f23 033e 0882 783d 276e d73d
00000160: 05c5 9ebe f0f7 29bb 8d05 ae3a 5514 e0bc
00000170: cff5 a6be 22c4 0abd fc7d 2c3e 85e7 ab3e
00000180: 45ae 7f3e ca2a e1be b1b2 01be a8cd cdbe
00000190: 0690 01bd 2b8b bebd 6125 e53d 4e92 b1be
000001a0: dca0 aaba 4a12 4ebf 5f5a 593e eec5 acbc
000001b0: 0c34 21bf 7527 683e 1b77 c2bd 0586 09bd
000001c0: 6182 bf39 e023 623b baee 1ebd 89d9 bb3d
000001d0: 7e13 353e ef59 333f 3674 25bd 0dee 04be
000001e0: a91c 293e 20d6 973e 85c2 123e 55b9 8d3e
000001f0: f828 093e e3b3 e0be f00f df3e d499 483c
00000200: ac33 14be daa0 81be 2e1c 4f3e 656f c23d
00000210: 0b15 10be 8bb0 31bd d8a1 36be ac79 cd39
00000220: acc7 a2ba 027a 553b b783 a13e 42d5 a3be
00000230: ec04 0dbe 925d ae3d bb5a abbb 25e5 72be
00000240: 2ff5 56be ee7b 5e3e 5e68 68be bd38 a83d
00000250: ca04 e13e d39e 73bf a62d f6bd d3b8 d1be
00000260: f7b8 c13e cc92 923e 06bc 30be 1a62 a1be
00000270: fc7a babe 1422 cfbe 858b 27be 05d5 233e
00000280: c99f c2bd b072 ec3e 5071 8f3e b853 653d
00000290: 3524 83bd 5b68 d4bc c747 6abe 592c 60bd
000002a0: bcb9 f83d f9e5 d5be a770 90be 87e8 373e
000002b0: 32ab 83bd ab86 72be 1418 f63e 9626 213f
000002c0: 5e01 8bbe 0c3f d9be b577 e2be f8ff b33e
000002d0: ec1a 2d3e 9d80 703b 7916 223b c1c0 d3bc
000002e0: d112 e4bd 4b39 933e b6c9 22bf 3013 1d3b
000002f0: 7744 a13e 51fd 1a3f 3700 bb3e 7221 e03e
00000300: d358 b8bc d643 eb3d ef15 473e 082f a43d
00000310: a4eb 4f3f e1e8 a63d 7149 553f 657b 12bf
00000320: 5909 0fbd 0d4c e13e 658c 14be d921 713e
00000330: 5c0d b7bb ee1a 603b 3e5c 8b3c 4432 82be
00000340: 9f44 9d3e f339 0dbf 3fe3 cdbe f5eb 6cbe
00000350: 1e0c 3e3c 36ae 0a3f fbdc a9be 7bd4 6ebb
00000360: c5b8 d1be 6969 ac3d ae55 23be e251 223e
00000370: 360a a33e c504 d13d 884c bdbd 3f2e e0be
00000380: 8c2a 5dbe d1f6 d63c 37b3 253f ae2a 8b3a
00000390: 6acb 37b8 4e20 003d
-0.22378041 0.20807794 -0.11835428 -0.055801973 0.37038305 0.13661721 -0.3090734 0.112141475
0.29347733 0.26638627 0.030642113 -0.07002924 -0.47751448 -0.5375159 0.549458 0.42184353
0.50408125 0.16317032 -0.40279457 -0.5962358 -0.004581438 -0.0061241 0.024634596 0.24746989
0.22100912 0.0915621 0.18899356 -0.36376563 -0.031823516 -0.38208362 -0.045262538 0.242995
0.3913845 0.18914889 0.19337098 0.009525159 -0.40345886 0.10483887 -0.22257766 0.1613416
-0.2186517 0.1291948 -0.37882465 0.003347181 -0.0031719822 0.0155747365 -0.0061309887 0.03446125
-0.4381922 0.26255617 0.18601641 0.1457012 -0.27158704 0.32748643 -0.2762603 -0.42322892
-0.39735484 -0.511816 -0.3084549 0.22685628 -0.0035942865 -0.0042774067 0.27207068 0.6723534
-0.17629945 0.44906348 -0.0847832 0.08781754 -0.07481162 0.13414761 0.25494775 0.026341984
-0.21104033 -0.26861176 -0.07859836 -0.39464375 -0.057652272 0.34509057 -0.17164563 0.088814735
-0.16461177 -0.10027187 -0.027914673 0.15181968 0.2837111 0.12806462 0.060670882 0.10519057
-0.3100969 -0.0025935136 0.0013276801 -0.027353445 -0.32609412 -0.033878453 0.16844934 0.33575073
0.24968822 -0.43977958 -0.12665822 -0.40195966 -0.031631492 -0.09303888 0.1118877 -0.34681934
-0.001301791 -0.80496657 0.2122588 -0.021090474 -0.6297004 0.22671302 -0.09495374 -0.033575077
0.000365275 0.0034506246 -0.038801886 0.09172351 0.17683217 0.700591 -0.04039403 -0.12981434
0.16514839 0.29655552 0.14332016 0.2768046 0.13394535 -0.43887243 0.43566847 0.012243707
-0.14472836 -0.25318033 0.20225593 0.09493903 -0.14070527 -0.043381255 -0.17835176 0.000391913
-0.0012419126 0.0032573943 0.31545803 -0.3199864 -0.13771409 0.08513941 -0.005229322 -0.23720224
-0.20991968 0.21726963 -0.22696063 0.08213947 0.43948966 -0.9516422 -0.120204255 -0.40961322
0.3783643 0.28627622 -0.17259225 -0.31520158 -0.36421955 -0.40455687 -0.16361816 0.15999229
-0.09503133 0.4618125 0.28016138 0.055988044 -0.0640339 -0.025928667 -0.22878943 -0.054729793
0.12144801 -0.41777018 -0.28210947 0.17959796 -0.06429137 -0.23684184 0.48065245 0.629495
-0.2714948 -0.42430913 -0.44231954 0.35156226 0.16904801 0.0036697753 0.0024732633 -0.025848748
-0.111364014 0.2875465 -0.63589036 0.0023967735 0.31497547 0.6054278 0.365236 0.43775517
-0.022503292 0.11487548 0.19441961 0.08016783 0.81218934 0.08149887 0.8331519 -0.57219535
-0.034921024 0.44003335 -0.14506681 0.23548068 -0.0055863094 0.003419574 0.017011758 -0.25428975
0.30716416 -0.5516655 -0.40212438 -0.23136885 0.011599569 0.54172075 -0.33176407 -0.0036442566
-0.4096128 0.08418543 -0.15950653 0.15851548 0.31843728 0.10205988 -0.09243113 -0.43785283
-0.21598262 0.026240738 0.64726585 0.0010617578 -4.3820044e-05 0.03128081

phi_neumann.mlp.mlp.0.bias f4 [10]
00000000: e88d 31be 948d 073d 0474 0cbd 52f7 f23e
00000010: 5008 73bd 29bb c5bb 6c8d 1b3e 6279 633e
00000020: 0831 e83d ea1e c53d
-0.17339289 0.033094004 -0.03429033 0.47454315 -0.0593341 -0.006034274 0.15190667 0.22214273
0.11337477 0.09625037

phi_neumann.mlp.mlp.2.weight f4 [10, 10]
00000000: 4388 08bd 2fe5 0f3f efbb e6be 81d6 793e
00000010: c846 63be a618 d6be e7a6 763e 24a5 6e3c
00000020: af77 ab3e 39f3 23bd 2300 24bf 4f2b 91be
00000030: 65c8 cebd b8cf bc3c c4d2 d7be f59e e3be
00000040: 3236 343e 8851 b2bd 9b3b 953e 4a16 b0be
00000050: 280f 1cbe 50ce a03e aae5 b13e 499b 03be
00000060: 7857 c93d 644b f93e 8a91 c0be 8850 febd
00000070: d7ab c8be b663 8fbe 6bbb 403e 5e09 dbbc
00000080: 690b 93bd e454 2ebc 6981 fe3e ce1a cbbe
00000090: 3dd8 9a3d bb92 663e 9ee0 e13e 6354 f1be
000000a0: b474 a03c 78b5 183d 096d 27be 3c5c a23e
000000b0: 0d07 283e 5915 453d a18c cdbd 700f 24be
000000c0: 4ee1 18bf b6b4 f23d 6b78 8b3e eacb b73e
000000d0: dbd1 45be 3475 29bf 7c3d e53e 2db0 c33e
000000e0: f9da 673e 89ab 64be 6cd2 b03e 1294 3b3e
000000f0: c166 7ebd b925 bf3e 19f5 43be 0aa5 cabd
00000100: 27f6 fdbe 88f3 a8bc 3928 a73b 06e7 043f
00000110: d214 b23c baf7 f73e 4717 e3be 1c9b b23e
00000120: 7cca 153f 7043 d33e 57ab 983e 3484 e9be
00000130: 7aff 7abe 9e8d e03e 7b39 c7bd a9e9 8a3e
00000140: 8714 e33e 7176 db3e f970 f4be 06ed 5c3e
00000150: 63cd b63e 8c94 3a3f ef30 ce3d 3996 d63a
00000160: 8a63 51be 17c1 4fbe fafb 4d3e 00fe 013e
00000170: 997a f5bd e117 85bd 4055 7dbe 05d5 10bf
00000180: 872f a63e 8cbc 48be 3ec5 88bd 3a76 00bf
-0.033333074 0.5620908 -0.45065257 0.24398233 -0.2219497 -0.4181568 0.24087106 0.01456574
0.3348975 -0.040026877 -0.6406271 -0.28353354 -0.10096816 0.023048267 -0.4215299 -0.44457212
0.17598799 -0.08706957 0.29147038 -0.34392005 -0.15240157 0.31407404 0.34745532 -0.12852205
0.098311365 0.4869033 -0.37611037 -0.12417704 -0.39193603 -0.2800576 0.18821494 -0.026737865
-0.07179911 -0.010640357 0.49708107 -0.39668888 0.075607754 0.2251691 0.44116682 -0.47134694
0.019586898 0.037282437 -0.16350187 0.31710994 0.1640894 0.04811606 -0.100365885 -0.16021514
-0.5971879 0.11850874 0.2724031 0.35897762 -0.19318335 -0.6619446 0.4477347 0.3822035
0.22642125 -0.2233106 0.3453554 0.18318203 -0.062109713 0.37333468 -0.19136466 -0.0989476
-0.49601862 -0.020623937 0.0051012305 0.51915014 0.021738444 0.48431188 -0.44353697 0.34883964
0.5851209 0.41262388 0.29818222 -0.45608675 -0.24511519 0.43858045 -0.097277604 0.27131394
0.443516 0.428638 -0.4774244 0.21574792 0.35703573 0.72882915 0.10067927 0.0016371674
-0.20448127 -0.20288502 0.20115653 0.1269455 -0.11986274 -0.06498695 -0.24739552 -0.5657504
0.32458135 -0.19603175 -0.06678246 -0.501804

phi_neumann.mlp.mlp.2.bias f4 [10]
00000000: 4bcf cc3d 09a8 a4bd 599c 40bc 4295 a0be
00000010: 8389 1ebd 7599 e6bd a0f9 1dbd ba17 853e
00000020: b9ee 4f3e e689 de3b
0.100004755 -0.08039863 -0.011756026 -0.31363875 -0.03870536 -0.11259738 -0.03856814 0.25994664
0.20305909 0.006791341
