mixed/dsgps/results/70_ite_lamb_0_gamma_1/ckpt/running_model.pt (torch, 95621 bytes, 93 tensors)

laynorm.weight f4 [10]
0	0x3f800000	1.0
1	0x3f800000	1.0
2	0x3f800000	1.0
3	0x3f800000	1.0
4	0x3f800000	1.0
5	0x3f800000	1.0
6	0x3f800000	1.0
7	0x3f800000	1.0
8	0x3f800000	1.0
9	0x3f800000	1.0

laynorm.bias f4 [10]
0	0x00000000	0.0
1	0x00000000	0.0
2	0x00000000	0.0
3	0x00000000	0.0
4	0x00000000	0.0
5	0x00000000	0.0
6	0x00000000	0.0
7	0x00000000	0.0
8	0x00000000	0.0
9	0x00000000	0.0

phi_to.mlp.mlp.0.weight f4 [10, 23]
0	0xbf00318c	-0.500756
1	0x3f253bcf	0.64544386
2	0x3f1ff13f	0.6247749
3	0xbd986b52	-0.07442345
4	0xbf13b145	-0.57692367
5	0x3e002dca	0.12517467
6	0x3e227356	0.1586431
7	0x3df64633	0.12025108
8	0x3ea76824	0.3269664
9	0xbefab549	-0.48966435
10	0x3d95130d	0.07279024
11	0x3b347b7e	0.0027539427
12	0x3ee8fa1c	0.45503318
13	0x3e0c27f5	0.13687117
14	0xbdf2bc13	-0.118522786
15	0xbe9246ea	-0.28569728
16	0x3d2b9408	0.04188922
17	0xbdad597c	-0.084643334
18	0xbe124147	-0.14282714
19	0xbe8ce01e	-0.27514738
20	0x3e304245	0.1721278
21	0x3cd16ba4	0.025564022
22	0x3da4da2e	0.08049427
23	0xbf06bd26	-0.5263237
24	0xbebcec88	-0.3689921
25	0x3ea9f0b2	0.33191448
26	0xbc2c555e	-0.0105184
27	0xbe27f14e	-0.16400644
28	0xbe49f7be	-0.19723412
29	0x3edd0bcd	0.43173066
30	0xbeae75a0	-0.34074116
31	0x3ea4fb8c	0.32223165
32	0xbed3240d	-0.41238442
33	0xbe2f1c02	-0.17100528
34	0x3e71743b	0.23579495
35	0x3e0b8cac	0.13627881
36	0x3d08d9a8	0.0334107
37	0xbeaae07b	-0.3337439
38	0x3e1c43c4	0.15260226
39	0xbe63064c	-0.22170371
40	0x3e87f6c9	0.2655547
41	0xbd6c2558	-0.0576528
42	0xbe47b70e	-0.19503424
43	0x3d195e87	0.037443664
44	0xbd34b514	-0.044118002
45	0x3d0a88db	0.03382192
46	0xbd8bff9a	-0.068358615
47	0x3db54e1a	0.08852787
48	0xbecd670a	-0.40117675
49	0xbe1b43dc	-0.15162605
50	0xbe08d8f1	-0.13364007
51	0xbe671f2d	-0.22570486
52	0xbdc8184a	-0.09770258
53	0xbd0ea2df	-0.034823295
54	0x3b9e9c6f	0.0048404257
55	0x3f011480	0.50421906
56	0xbe3d6dcd	-0.18498917
57	0x3d2d7537	0.042348113
58	0xbe921dc7	-0.28538343
59	0xbe2a4def	-0.16631292
60	0xbe1c981a	-0.15292397
61	0x3f041b79	0.5160442
62	0xbe91f6e5	-0.28508678
63	0xbe729775	-0.23690589
64	0x3d2997da	0.041404583
65	0x3e3d9905	0.18515404
66	0xbdd7d087	-0.1053782
67	0x3e0286c6	0.12746724
68	0x3d914689	0.07093532
69	0xbe5ccb26	-0.2156187
70	0xbcd41717	-0.025889916
71	0x3ece8f75	0.40343824
72	0x3dcc15a8	0.09965068
73	0xbdf7c5ca	-0.12098272
74	0x3e0dd12d	0.13849325
75	0x3cdd00b0	0.026977867
76	0xbe016424	-0.12635857
77	0x3e808ca8	0.25107312
78	0xbd719feb	-0.0589904
79	0xbe60ad78	-0.21941173
80	0x3ea00c76	0.31259507
81	0xbeda0298	-0.42580104
82	0xbe040b1f	-0.12894867
83	0x3ee11f58	0.43969226
84	0xbb7b064b	-0.0038303311
85	0xbe934765	-0.28765407
86	0x3eb75d2d	0.35813275
87	0xbe0fe319	-0.14051475
88	0xbdfdb423	-0.12387874
89	0xbc2b12f3	-0.01044153
90	0x3d0c1072	0.03419537
91	0xbe617431	-0.2201698
92	0xbe69628e	-0.22791502
93	0xbed40f7b	-0.4141806
94	0xbee36e53	-0.44420108
95	0xbd99c911	-0.075090535
96	0x3e285a85	0.1644078
97	0xbe9d1b78	-0.3068502
98	0xbef43c45	-0.47702232
99	0x3c8d03a8	0.017213657
100	0x3de5de4a	0.11224039
101	0x3cb37af2	0.02190921
102	0x3e060c75	0.1309069
103	0x3eb48082	0.35254294
104	0xbe93b0f4	-0.28845942
105	0xbf04aa89	-0.51822716
106	0xbe984605	-0.2974092
107	0xbe41f904	-0.18942648
108	0xbe11ee40	-0.14251041
109	0x3e00c6ba	0.12575808
110	0xbe3586f8	-0.17727268
111	0x3cf63284	0.030053385
112	0xbbf8dad6	-0.0075944467
113	0xbb25efeb	-0.0025320004
114	0xbdbdaa90	-0.09261048
115	0xbeaedc6d	-0.34152547
116	0x3e875b70	0.2643695
117	0x3e6bde1f	0.23033951
118	0xbda7e3e7	-0.08197766
119	0x3e759c2a	0.23985353
120	0xbea164f3	-0.3152233
121	0x3e4615ee	0.19344303
122	0xbeb43ce7	-0.35202715
123	0x3f2320a6	0.6372169
124	0x3e8c5a81	0.274128
125	0x3e7bf052	0.24603394
126	0x3dd34b1d	0.10317061
127	0xbe627259	-0.22113933
128	0xbe10b60e	-0.14131948
129	0x3ddfab41	0.10921336
130	0x3e2c560b	0.16829698
131	0xbe9e5d58	-0.3093059
132	0x3e745cb9	0.23863496
133	0x3e93898e	0.28815883
134	0xbe78d83d	-0.24301238
135	0x3d6a2d96	0.05717238
136	0xbb3de374	-0.0028974684
137	0xbdfcc73c	-0.123426884
138	0xbe8f79a3	-0.2802249
139	0x3f0215ef	0.5081472
140	0xbe0da995	-0.13834222
141	0xbdc27e7b	-0.094967805
142	0x3e5e52db	0.21711294
143	0xbe9e60b6	-0.3093316
144	0xbdd0fdc9	-0.10204656
145	0x3eef03f3	0.466827
146	0x3e677f62	0.22607186
147	0x3e23e1a9	0.16004051
148	0x3e32c5f8	0.17458332
149	0x3eafa53e	0.34305757
150	0xbcbf5a1c	-0.023358397
151	0x3ea0891d	0.3135461
152	0xbea21f80	-0.31664658
153	0x3e3e6fb1	0.18597294
154	0xbe946a49	-0.2898734
155	0x3ddd3a1f	0.10802101
156	0x3e433070	0.19061446
157	0xbcb5aded	-0.02217766
158	0x3d8f300c	0.06991586
159	0xbde13465	-0.109963216
160	0xbdafe120	-0.08587861
161	0xbd8c09fb	-0.06837841
162	0x3ecd7659	0.40129355
163	0x3eca037c	0.39455783
164	0xbe940e87	-0.28917333
165	0xbe807e9e	-0.250966
166	0x3dd7099e	0.10499881
167	0x3d36a136	0.044587336
168	0xbe397565	-0.18111189
169	0x3e908ed4	0.2823397
170	0xbea5cd7f	-0.32383344
171	0xbf064e37	-0.52463096
172	0x3df7c6fc	0.120985
173	0x3efad421	0.48989967
174	0x3e64dedf	0.22350644
175	0xbee5458a	-0.44779617
176	0x3deb365f	0.1148498
177	0x3e5b0d26	0.21391734
178	0xbe9bb53d	-0.3041171
179	0x3e7f64cd	0.24940796
180	0xbe4b861f	-0.19875382
181	0x3dc327cd	0.09529076
182	0xbc328a87	-0.010897285
183	0xbe1e5abe	-0.15464303
184	0x3f1b6ba4	0.6071112
185	0xbeae945d	-0.34097567
186	0xbe52261f	-0.20522355
187	0x3e2b81ee	0.16748783
188	0x3e670927	0.22562085
189	0x3e81d2d8	0.25356174
190	0xbd3f63f6	-0.04672619
191	0x3edd296b	0.43195662
192	0x3d31ff0e	0.04345613
193	0xbe85d978	-0.26142478
194	0xbea23e44	-0.3168813
195	0xbf1c8323	-0.611376
196	0x3e62ec41	0.22160436
197	0x3ec0fcdf	0.37692925
198	0xbf053ae5	-0.5204299
199	0xbdf0f1f1	-0.11764897
200	0xbd221959	-0.039574955
201	0xbe840c08	-0.2579043
202	0x3e182258	0.14856851
203	0x3dd98452	0.10620941
204	0xbdd12484	-0.10212043
205	0xbd055563	-0.032552134
206	0xbd5a4651	-0.053289715
207	0x3bba3bd8	0.0056834035
208	0x3ef7f0eb	0.48425993
209	0xbce6e4e9	-0.028185325
210	0x3dd77c2d	0.105217315
211	0x3a04fded	0.0005073238
212	0xbac1f19d	-0.0014796738
213	0xbe372a74	-0.17887288
214	0xbc8be8b1	-0.01707873
215	0x3ee91602	0.45524603
216	0x3eadeceb	0.33969817
217	0x3e459c6e	0.19297954
218	0xbe966030	-0.2937026
219	0xbcf2e2d8	-0.029649183
220	0x3c459809	0.012060174
221	0x3f54bad8	0.830976
222	0x3d4c8d2b	0.049939316
223	0x3e955a94	0.29170668
224	0x3ef55c84	0.47922146
225	0xbe5911f8	-0.21198261
226	0xbe911630	-0.2833724
227	0xbd2c62a8	-0.042086273
228	0x3c2a0482	0.010377051
229	0xbdbe2812	-0.092849866

phi_to.mlp.mlp.0.bias f4 [10]
0	0xbde46b32	-0.111532584
1	0x3ca75e96	0.020430844
2	0x3d600e39	0.054701064
3	0x3ddc551a	0.10758419
4	0x3d0c1587	0.034200218
5	0x3d05dca3	0.03268112
6	0x3cb9cbcb	0.022680184
7	0x3dd0c594	0.10193935
8	0xbdad3a3c	-0.08458373
9	0x3da7a32c	0.081854194

phi_to.mlp.mlp.2.weight f4 [10, 10]
0	0x3e9b7934	0.30365908
1	0x3f169bb0	0.5883131
2	0xbf07c8f0	-0.5304098
3	0xbe1247c1	-0.14285184
4	0x3e85c443	0.26126298
5	0x3ed74700	0.42046356
6	0x3ecbba3f	0.39790532
7	0x3ea92d82	0.33042532
8	0xbefc3770	-0.49261045
9	0xbc2bfb04	-0.0104968585
10	0x3cf3cafb	0.029759875
11	0x3d57ab8d	0.052653838
12	0xbe3a93e5	-0.1822048
13	0x3ed6f1a4	0.41981232
14	0xbeb431c2	-0.35194212
15	0xbe9917d9	-0.29901007
16	0x3eb84c35	0.3599564
17	0x3d05522b	0.032549065
18	0xbe949c99	-0.29025725
19	0xbf4b6108	-0.7944493
20	0xbef45039	-0.47717455
21	0xbd4801f2	-0.04882998
22	0x3e5373dc	0.20649666
23	0xbe78979f	-0.24276589
24	0x3e36f3ed	0.17866488
25	0xbefa198a	-0.4884761
26	0xbefc231f	-0.49245545
27	0xbe42c863	-0.19021754
28	0x3f302b2c	0.68815875
29	0xbf5a5aab	-0.852946
30	0x3e344f65	0.17608412
31	0xbe142f0b	-0.1447107
32	0xbddac91c	-0.1068289
33	0x3e85da52	0.26143128
34	0xbeb7cfb4	-0.35900652
35	0xbeffbb26	-0.4994747
36	0xbdb8d1fb	-0.090244256
37	0x3c9f8d7d	0.019476647
38	0x3ea90d53	0.33017978
39	0xbe8a5c56	-0.27023572
40	0x3ece2d89	0.40269116
41	0xbeb708cd	-0.35748902
42	0xbef0e1ee	-0.4704737
43	0xbeef018a	-0.46680862
44	0xbf0e8918	-0.5567794
45	0x3a6cae75	0.00090286817
46	0xbdd40ca1	-0.10353971
47	0x3d743668	0.0596222
48	0xbe1dd138	-0.15411842
49	0xbdb7dc3a	-0.08977552
50	0x3e546507	0.20741664
51	0x3ed87a25	0.4228069
52	0x3bd6e233	0.0065577268
53	0x3e9a8f8e	0.3018765
54	0x3eb02d25	0.34409443
55	0x3ec1cc2a	0.37851077
56	0xbd875d3f	-0.06609582
57	0x3e3a7846	0.18209943
58	0xbf030a01	-0.5118714
59	0x3e20848b	0.15675561
60	0xbecac620	-0.39604282
61	0xbee286a3	-0.44243345
62	0xbedc2292	-0.42995125
63	0xbe4fc34f	-0.20289348
64	0x3ec70f1a	0.3887871
65	0xbda5fb32	-0.08104552
66	0xbc54e266	-0.012993431
67	0x3d8f21ec	0.06988892
68	0x3e84828d	0.25880852
69	0x3f214ad1	0.63004786
70	0xbd76b1b9	-0.060228083
71	0x3e55a858	0.20865
72	0x3b526f1a	0.0032109679
73	0x3c65b57b	0.014020319
74	0xbe8578f5	-0.26068845
75	0xbe32c160	-0.17456579
76	0xbf275c48	-0.65375185
77	0x3d77b34d	0.06047373
78	0xbed67acc	-0.41890562
79	0xbe0cbd9a	-0.13744202
80	0xbe826acd	-0.25472108
81	0x3ecac561	0.39603713
82	0xbeb6c14c	-0.3569435
83	0xbe3a4dc2	-0.18193725
84	0x3e838824	0.25689805
85	0xbd1aa86b	-0.037758272
86	0x3e9c2992	0.30500466
87	0x3dda5731	0.10661162
88	0x3e9b011b	0.3027428
89	0x3f3ae923	0.7301199
90	0x3e7d1ed5	0.24718793
91	0x3d5401ca	0.05175952
92	0xbdede7e5	-0.11616496
93	0xbdda42e6	-0.10657291
94	0x3e80b824	0.25140488
95	0x3ea3a267	0.3195984
96	0xbec868ae	-0.39142364
97	0xbf08db28	-0.53459406
98	0x3e439799	0.19100799
99	0x3f0acc95	0.5421842

phi_to.mlp.mlp.2.bias f4 [10]
0	0xbd677e8e	-0.056517176
1	0x3ce29f5d	0.027663881
2	0x3b554922	0.0032544811
3	0x3d8488a5	0.064713754
4	0xbcd41056	-0.025886696
5	0x3e2977ae	0.1654956
6	0xbd9aa653	-0.07551255
7	0x3d19751f	0.03746521
8	0x3d6e9a92	0.05825288
9	0xbd3f79ab	-0.04674689

phi_from.mlp.mlp.0.weight f4 [10, 23]
0	0xbecbc840	-0.39801216
1	0x3d80ee06	0.06295399
2	0x3e3897ef	0.18026708
3	0xbec50975	-0.38483778
4	0xbe2ccc8a	-0.168749
5	0xbd654a77	-0.05597922
6	0x3b71ccba	0.0036895708
7	0xbe85c5bb	-0.2612742
8	0xbeacd99e	-0.3375978
9	0xbeb26118	-0.34839702
10	0xbe0b3690	-0.13595033
11	0x3dff1c87	0.12456613
12	0x3e2adc24	0.1668554
13	0xbd992bab	-0.07479032
14	0xbeed9453	-0.46402225
15	0xbe7cb43d	-0.2467813
16	0xbebb31c7	-0.36561415
17	0x3dfacd7c	0.12246224
18	0x3ce82d22	0.028341834
19	0xbe836976	-0.25666398
20	0xbc0c509c	-0.008564141
21	0x3d22f275	0.039782006
22	0xbd150489	-0.03638128
23	0x3e833fc5	0.2563459
24	0xbf1a6a92	-0.60318863
25	0xbec0e219	-0.376725
26	0xbcd6bfc5	-0.02621449
27	0x3eea636f	0.45778987
28	0x3ea05833	0.3131729
29	0xbde155bf	-0.11002683
30	0x3f126b70	0.57195187
31	0xbe156e99	-0.14592971
32	0xbf2939e7	-0.66103977
33	0x3e38e557	0.18056236
34	0x3e951735	0.29119268
35	0xbd8d101b	-0.068878375
36	0x3e9e665b	0.30937466
37	0x3d884c60	0.066551924
38	0x3e81453c	0.25248134
39	0x3f13616c	0.5757053
40	0x3d0801e3	0.033204924
41	0x3d69481e	0.056953542
42	0x3ec34f18	0.3814628
43	0xbcf32ce6	-0.029684495
44	0x3ad0ad67	0.0015920819
45	0xbd89e475	-0.06733028
46	0x3e713285	0.23554428
47	0xbebe138a	-0.37124282
48	0x3e176f33	0.14788513
49	0x3c9c58e3	0.019085353
50	0xbf1213f7	-0.57061714
51	0x3e57d1a7	0.2107607
52	0x3dc96d21	0.09835268
53	0x3e808a73	0.25105628
54	0x3d7942d1	0.060854737
55	0xbf0d6b5b	-0.55241936
56	0xbdba317a	-0.09091468
57	0xbe991398	-0.2989776
58	0x3cdb99ce	0.026806738
59	0xbec94d78	-0.39316916
60	0x3f269652	0.6507312
61	0x3e636bd1	0.22209097
62	0xbf0be81d	-0.5465105
63	0xbd956cdd	-0.07296155
64	0xbec03ac2	-0.3754483
65	0xbe294adf	-0.16532467
66	0x3d3c36a0	0.045950532
67	0x3c5a4d34	0.013324071
68	0x3da59d91	0.08086694
69	0x3e957723	0.29192457
70	0xbc82e99f	-0.01598054
71	0x3d3b6d0f	0.045758303
72	0xbe767c74	-0.24070913
73	0x3edad4b9	0.4274042
74	0x3ec5b98e	0.3861813
75	0x3d814390	0.06311715
76	0x3f145bf6	0.5795282
77	0x3c072ee8	0.008250929
78	0xbf01326f	-0.5046758
79	0x3e714023	0.23559622
80	0x3e7efb2d	0.24900503
81	0x3e9f3996	0.31098622
82	0x3abbd633	0.0014330804
83	0xbeb70dc7	-0.357527
84	0x3e97f268	0.2967713
85	0x3ec84f9a	0.3912323
86	0xbf1f9fe7	-0.62353367
87	0x3ea87757	0.3290355
88	0x3f83734d	1.0269562
89	0xbcc814d6	-0.024423998
90	0x3cd6c8c0	0.026218772
91	0xbec290d0	-0.38001108
92	0x3e1750c5	0.14776905
93	0x3eee1c14	0.46505797
94	0xbdfcf89e	-0.123521075
95	0xbe5493ea	-0.2075955
96	0xbe9be55c	-0.30448425
97	0x3e8e7840	0.27826118
98	0x3ee6f09c	0.45105445
99	0x3ea88543	0.3291417
100	0xbdae55e3	-0.08512475
101	0xbe636e18	-0.22209966
102	0x3e132171	0.14368226
103	0x3d48266c	0.048864767
104	0xbe24f161	-0.16107704
105	0x3e4e6c11	0.20158412
106	0x3cd50ec1	0.026008012
107	0x3e8abbb9	0.27096346
108	0xbec8394e	-0.3910622
109	0xbee3235b	-0.44362912
110	0x3ec3def4	0.38256037
111	0x3ecd91ac	0.401502
112	0x3d2d5a6b	0.042322557
113	0xbd7bd78f	-0.06148487
114	0xbdc1228c	-0.094304174
115	0xbe8c18e8	-0.27362752
116	0x3e352e74	0.17693502
117	0x3d032164	0.032014266
118	0x3ed975cc	0.42472684
119	0xbe88cf18	-0.267205
120	0xbdd2739e	-0.102759585
121	0xbebd5ee1	-0.3698645
122	0x3e4bd0b9	0.1990384
123	0x3ece37ec	0.4027704
124	0x3d0e14fd	0.034687985
125	0xbe35c0fa	-0.17749396
126	0x3eee2dfd	0.4651946
127	0x3e0daa57	0.1383451
128	0xbe85bfc4	-0.26122868
129	0x3d3a90f0	0.04554838
130	0xbdb05b0e	-0.08611117
131	0x3ec2074e	0.37896198
132	0xbe6f9034	-0.23394853
133	0xbea8d2d3	-0.32973346
134	0xbd261cb7	-0.04055473
135	0xba8086b4	-0.000980577
136	0x3d6b916d	0.057511736
137	0xbdcfb408	-0.1014176
138	0xbecfeb0b	-0.4060901
139	0x3e2462c7	0.16053306
140	0x3d93a6b3	0.0720953
141	0xbd4507eb	-0.048103254
142	0xbcc723a2	-0.024308983
143	0x3de2d4fc	0.1107578
144	0xbeded12b	-0.43518957
145	0xbe72f9c0	-0.23728085
146	0xbdaa8ff6	-0.083282396
147	0xbf344e23	-0.7043173
148	0x3dd225d8	0.10261124
149	0x3e828b0c	0.2549671
150	0x3ebb59bb	0.36591896
151	0x3c40396b	0.0117324395
152	0xbdde3c39	-0.1085133
153	0xbeab92a6	-0.3351032
154	0xbea51cbb	-0.32248482
155	0xbdccaad9	-0.09993524
156	0xbe943647	-0.2894766
157	0xbe808e60	-0.25108624
158	0xbdd935d1	-0.10605968
159	0xbdae765f	-0.08518671
160	0xbda43ecf	-0.08019792
161	0x3de96284	0.113957435
162	0xbebee6e8	-0.37285542
163	0xbe77ddc1	-0.24205686
164	0xbe6ed7da	-0.23324528
165	0xbf0cbe6b	-0.54978055
166	0xbe488f4f	-0.19585918
167	0xbe043630	-0.12911296
168	0xbe2f7833	-0.17135696
169	0x3f1117d7	0.56677
170	0xbe059a80	-0.13047218
171	0xbcfbae51	-0.030722769
172	0x3e488079	0.19580258
173	0x3e3667dd	0.17813058
174	0x3c85033b	0.016236892
175	0x3e6fe1d9	0.23425998
176	0x3f02af79	0.51049
177	0x3ec7074a	0.3887275
178	0xbe5d1ed5	-0.21593793
179	0x3e2d0c8d	0.16899319
180	0xbebfa11d	-0.37427607
181	0x3d781280	0.060564518
182	0xbb40f9b9	-0.0029445721
183	0x3d440eca	0.047865666
184	0x3edf70f4	0.43640864
185	0xbe9c3fe3	-0.30517492
186	0xbe2c3537	-0.16817175
187	0x3db6a05c	0.08917305
188	0xbea00e09	-0.31260708
189	0xbae0f524	-0.0017162901
190	0xbf1140e7	-0.5673966
191	0x3eccad90	0.39976168
192	0x3e0e9225	0.13922937
193	0x3f4965dd	0.78671056
194	0x3ee2cfa1	0.44299033
195	0x3e967440	0.29385567
196	0xbee4bc8a	-0.44675094
197	0xbf3f2d95	-0.7467893
198	0x3e85d62f	0.26139972
199	0xbe488af2	-0.19584253
200	0x3d3b4288	0.045717746
201	0x3e810c1e	0.25204557
202	0xbe95024c	-0.29103315
203	0x3f570b1f	0.84001344
204	0xbc02b8af	-0.007978602
205	0xbd2012b3	-0.039080333
206	0xbe6703ed	-0.22560091
207	0xbed2d048	-0.4117453
208	0xbe277672	-0.16353777
209	0x3eb1e57e	0.347454
210	0x3d902fc5	0.07040361
211	0xbebeb45a	-0.37246972
212	0x3ecd07ec	0.40045106
213	0xbea51450	-0.3224206
214	0xbdf8658a	-0.12128742
215	0xbf13ddc9	-0.5776029
216	0x3e6d02a8	0.23145545
217	0xbec4bfed	-0.38427678
218	0x3de4064e	0.11134015
219	0x3f1152a1	0.56766707
220	0xbd688464	-0.056766883
221	0x3e8a0dcc	0.2696365
222	0xbe93fa9d	-0.2890214
223	0xbe88fb38	-0.26754165
224	0xbe8204d4	-0.2539431
225	0x3e889eca	0.26683646
226	0x3f284d99	0.65743405
227	0x3d5cc410	0.053897917
228	0xbbe1310e	-0.006872303
229	0xbb4650ee	-0.003026064

phi_from.mlp.mlp.0.bias f4 [10]
0	0x3d8bce03	0.06826403
1	0x3dcf83a1	0.10132528
2	0xbd7508e9	-0.05982295
3	0xbd8ab799	-0.067733
4	0x3e02ed1c	0.12785763
5	0x3df8a9ce	0.12141763
6	0x3da8deac	0.08245596
7	0xbc465d30	-0.012107179
8	0xbc1e3765	-0.009656762
9	0x3ce45290	0.0278714

phi_from.mlp.mlp.2.weight f4 [10, 10]
0	0xbe9bcc6f	-0.30429408
1	0xbf49635c	-0.78667235
2	0x3e5e9dd7	0.21739899
3	0xbe5068ca	-0.20352474
4	0x3ece6e98	0.4031875
5	0x3df0f7d8	0.117660224
6	0xbf07447f	-0.5283889
7	0xbe5b308b	-0.21405236
8	0xbe6c1183	-0.23053555
9	0xbe21b7bb	-0.15792744
10	0xbd86844d	-0.06568203
11	0xbe5b4964	-0.21414715
12	0xbe4c0922	-0.19925359
13	0xbe3e005a	-0.18554822
14	0xbef7b3d1	-0.48379377
15	0x3ec4e7d8	0.38458133
16	0x3ebbcee7	0.3668129
17	0x3f01d9d5	0.5072301
18	0x3f2ac662	0.6670896
19	0xbdb58686	-0.08863549
20	0xbe5e3e88	-0.21703541
21	0xbe428ccd	-0.18999024
22	0x3ed20ed0	0.41026926
23	0x3ef3500c	0.47522008
24	0xbe954cf1	-0.29160264
25	0xbed68e0b	-0.41905245
26	0xbea65578	-0.32487082
27	0x3f16a6f9	0.5884853
28	0xbe3e90a7	-0.18609868
29	0xbec6934b	-0.3878425
30	0x3e24e4df	0.16102932
31	0x3f8d8df3	1.1058944
32	0x3db7cda4	0.0897477
33	0x3ebf9b0e	0.37422985
34	0x3f00ef1a	0.5036484
35	0xbeb04e58	-0.34434772
36	0xbef206cd	-0.47270814
37	0x3b95d916	0.004572998
38	0x3c61f2bb	0.013790782
39	0x3e2e7ecf	0.17040561
40	0xbe8fea36	-0.28108376
41	0x3f79f5fa	0.97640955
42	0xbd0381f1	-0.032106344
43	0x3f05621e	0.5210284
44	0xbe2ad2ea	-0.1668202
45	0xbf1ad5d7	-0.60482544
46	0xbe8c0163	-0.27344808
47	0xbe45889a	-0.1929039
48	0x3ec99c67	0.39377138
49	0xbf08845b	-0.5332696
50	0xbd9a6b55	-0.07540003
51	0x3ec7c509	0.39017513
52	0xbdad8bb7	-0.08473914
53	0xbeb7544b	-0.35806498
54	0x3f011173	0.5041725
55	0xbe93f2a8	-0.2889607
56	0x3ec11d12	0.3771749
57	0x3e44d024	0.19220024
58	0xbee0e24d	-0.43922654
59	0xbd34f55a	-0.044179298
60	0x3e3e7767	0.18600236
61	0x3c449e32	0.012000607
62	0xbe3036b1	-0.17208363
63	0x3eb5da73	0.35518226
64	0xbd4470e2	-0.047959216
65	0xbe81d0ae	-0.25354522
66	0xbda77400	-0.08176422
67	0xbceb63c7	-0.028734101
68	0x3e561459	0.209062
69	0x3babffcc	0.005248999
70	0xbecf0855	-0.40436044
71	0x3ecfe6f9	0.40605906
72	0x3b29e373	0.0025922924
73	0x3ecf2d0b	0.40464053
74	0xbeacef4b	-0.33776316
75	0xbd07fc1d	-0.03319942
76	0xbf0af928	-0.5428643
77	0xbebba201	-0.36647037
78	0xbef223d5	-0.47292963
79	0x3dfec494	0.12439838
80	0xbe12340c	-0.14277667
81	0xbf1b8bfb	-0.6076047
82	0x3ee9002f	0.45507953
83	0xbdd162ed	-0.10223947
84	0x3dafeac6	0.08589701
85	0x3f0d08ab	0.5509135
86	0xbec76081	-0.38940814
87	0xbe60b8c0	-0.21945477
88	0xbf4024c1	-0.7505608
89	0x3e7b5902	0.24545673
90	0xbd97e524	-0.07416752
91	0x3e89ce91	0.2691541
92	0x3e413d42	0.18871024
93	0x3c8b9564	0.017039008
94	0x3f09a7ad	0.5377148
95	0x3cb3d053	0.021949923
96	0xbee6802c	-0.45019662
97	0x3e559447	0.20857345
98	0x3ecebba4	0.40377533
99	0x3d5c2f4e	0.05375605

phi_from.mlp.mlp.2.bias f4 [10]
0	0x3d1f5821	0.038902406
1	0xbcc3f1bb	-0.023918977
2	0xbd4e3382	-0.05034209
3	0xbcee8412	-0.02911571
4	0xbddefa82	-0.10887624
5	0x3d702f7c	0.058639035
6	0xbd3d1729	-0.046164665
7	0x3d268ae5	0.040659804
8	0x3d64d603	0.05586816
9	0xbd8141c3	-0.06311371

z_k.mlp.0.weight f4 [10, 33]
0	0x3f03b92e	0.51454437
1	0xbe9753e5	-0.29556194
2	0xbd41229c	-0.047152147
3	0xbeee428b	-0.46535143
4	0x3e6a60d5	0.22888501
5	0xbe027f07	-0.1274377
6	0xbd67c5bb	-0.056585055
7	0xbd4ec1e2	-0.05047787
8	0xbe12bb42	-0.14329246
9	0x3e759c67	0.23985444
10	0xbeb1339d	-0.3460969
11	0xbed67eb3	-0.4189354
12	0x3e817334	0.25283206
13	0x3e268453	0.16261415
14	0xbcabf954	-0.020992912
15	0xbf2d779a	-0.6776062
16	0x3f1ccb42	0.61247647
17	0xbf08ca18	-0.5343337
18	0x3e20cc80	0.1570301
19	0x3e3baf31	0.18328549
20	0x3cf6f4ed	0.030146087
21	0xbd5466e9	-0.051855955
22	0x3e84bae7	0.25923845
23	0xbdd94f9d	-0.10610888
24	0x3ea4a46f	0.32156703
25	0xbeeee608	-0.46659875
26	0x3ec45e20	0.38353062
27	0x3e9c8cbc	0.30576122
28	0x3e96c6d9	0.29448584
29	0xbe38d59a	-0.18050233
30	0x3bc6a2c3	0.006061883
31	0xbdf3c964	-0.119036466
32	0x3e2153f2	0.15754679
33	0x3e2d02ef	0.1689565
34	0xbf0b6a4f	-0.5445909
35	0xbf34ca33	-0.7062103
36	0xbd1fbc92	-0.038998194
37	0x3daac9eb	0.08339294
38	0xbd1a9694	-0.03774126
39	0x3db002ba	0.0859427
40	0x3ed72934	0.42023623
41	0xbf6c128a	-0.9221579
42	0xbec3d37e	-0.38247293
43	0xbea637da	-0.32464486
44	0x3d7df6b0	0.062002838
45	0x3ee673b7	0.45010158
46	0x3d532c49	0.051555905
47	0xbe559970	-0.20859313
48	0x3e077be0	0.13230848
49	0x3e5352ce	0.20637056
50	0x3f5955da	0.84896624
51	0xbef282cf	-0.47365424
52	0x3eadb51b	0.33927235
53	0xbe4f1333	-0.20222168
54	0x3ea07c9e	0.31345075
55	0x3eb8d2ca	0.3609832
56	0x3eab3e90	0.3344617
57	0xbd346758	-0.04404387
58	0xbf197eff	-0.59959406
59	0x3f27d585	0.6556018
60	0x3d9c28aa	0.076249436
61	0xbf887036	-1.0659244
62	0x3e5615de	0.20906779
63	0x3d51de2a	0.051237263
64	0xbd028bc7	-0.031871583
65	0xbee3ac29	-0.44467285
66	0x3e179046	0.1480113
67	0xbe252d91	-0.16130663
68	0xbf1898d4	-0.596082
69	0xbe0300f5	-0.12793334
70	0x3e8f625d	0.28004733
71	0xbe2f36ad	-0.17110701
72	0x3db26a4c	0.08711681
73	0xbddc95fa	-0.10770793
74	0xbeaac503	-0.33353433
75	0xbe7cc028	-0.24682677
76	0xbec3e7ab	-0.38262686
77	0xbf88e36d	-1.0694405
78	0x3eb54b94	0.35409224
79	0xbf8d9ea8	-1.1064043
80	0x3d08f0c4	0.033432737
81	0xbf14f0c6	-0.5817989
82	0x3f361d73	0.71138686
83	0xbd13dd3f	-0.03609967
84	0x3eb416fd	0.3517379
85	0x3e608a62	0.21927789
86	0x3eb37cc5	0.3505613
87	0x3e5809fa	0.21097556
88	0x3dfc20bf	0.12310933
89	0xbc191d33	-0.009345341
90	0x3e521b96	0.20518336
91	0xbf5a17f9	-0.8519283
92	0x3ef85188	0.48499703
93	0xbe11e67d	-0.1424808
94	0xbef539bd	-0.47895613
95	0x3f1b7321	0.6072255
96	0xbc43b1be	-0.0119442325
97	0xbe3556c3	-0.17708878
98	0xbd71c8ad	-0.05902927
99	0x3ec3fa77	0.38277027
100	0x3ed9486a	0.4243806
101	0xbdb1c5d2	-0.08680309
102	0x3f25aea8	0.6471963
103	0xbecad987	-0.39619085
104	0x3e275ca8	0.1634394
105	0x3e9a61ef	0.30152842
106	0xbd2aa5b6	-0.04166194
107	0x3df4d07b	0.11953827
108	0x3ed5e7a9	0.41778305
109	0x3c7d29ab	0.015451829
110	0x3d33601a	0.04379282
111	0xbcbeb842	-0.02328122
112	0x3f2bd39a	0.67119753
113	0xbf296952	-0.6617633
114	0xbe08ab73	-0.13346653
115	0xbf189742	-0.596058
116	0x3e4f91a8	0.20270407
117	0xbf669905	-0.9007724
118	0x3e144d7c	0.14482683
119	0xbe955d76	-0.29172868
120	0x3c901f07	0.01759292
121	0xbccbc8e5	-0.024876067
122	0x3ea3d645	0.31999412
123	0x3f39ee14	0.72628903
124	0xbec3be3f	-0.38231084
125	0x3e879a39	0.2648485
126	0x3c791904	0.015203718
127	0xbeb15b38	-0.34639907
128	0x3f2b49c6	0.66909444
129	0xbd844ba4	-0.0645974
130	0x3e9e8d53	0.30967197
131	0xbe85c905	-0.26129928
132	0x3f239151	0.6389361
133	0xbe92c052	-0.28662354
134	0xbf3b0b02	-0.7306367
135	0x3ed009c9	0.40632465
136	0x3f8e914c	1.1138091
137	0xbf02af35	-0.51048595
138	0xbed11c35	-0.40841833
139	0xbefd5383	-0.49477777
140	0xbe93ac79	-0.28842524
141	0x3f42dcbd	0.7611807
142	0x3c7f9352	0.015599089
143	0xbee828ff	-0.45343778
144	0x3f396373	0.7241737
145	0xbe98c8a9	-0.29840592
146	0xbe100ec4	-0.14068133
147	0xbf5ddc6b	-0.86664456
148	0x3ea3a1c3	0.31959352
149	0xbf12a877	-0.57288307
150	0x3e693f29	0.22778
151	0x3d9bd7dd	0.07609532
152	0xbf053241	-0.52029806
153	0xbf061062	-0.5236875
154	0x3ef96959	0.48713186
155	0x3e7d8fe3	0.2476192
156	0x3f59f7e5	0.8514388
157	0xbd7027cb	-0.0586317
158	0x3ebaa7a3	0.36456022
159	0x3f01159d	0.50423604
160	0xbe87bc0c	-0.26510656
161	0x3db1d2f0	0.08682811
162	0xbcb832f8	-0.022485241
163	0xbe7a554f	-0.24446605
164	0xbedf5fa4	-0.43627656
165	0x3f07b184	0.5300524
166	0x3b5b79ed	0.0033489421
167	0xbf5040ba	-0.81348765
168	0xbe6cd705	-0.23128898
169	0x3f53d1ca	0.8274199
170	0xbd913812	-0.07090773
171	0xbe47ff83	-0.19531064
172	0xbe2ec9ed	-0.17069216
173	0xbd9ee672	-0.07758798
174	0xbe91356d	-0.28361073
175	0xbea498bc	-0.32147777
176	0xbed0e010	-0.40795946
177	0x3e2abaf5	0.16672881
178	0xbeea73c2	-0.4579144
179	0x3e4aebe0	0.19816542
180	0xbe945407	-0.28970358
181	0x3f1cd61d	0.6126421
182	0xbe7ae42d	-0.24501105
183	0x3e5b4bb5	0.21415599
184	0x3f392125	0.723162
185	0x3e015341	0.12629415
186	0x3e3b0f3e	0.18267533
187	0x3f1c64f9	0.6109157
188	0xbdb3b38f	-0.087744825
189	0x3ed4170c	0.41423833
190	0xbd541e87	-0.051786926
191	0x3e32e034	0.17468339
192	0x3ed71219	0.42005995
193	0xbeb98e3d	-0.36241332
194	0xbe17fc1e	-0.14842269
195	0x3e1e0d5c	0.15434784
196	0xbe5a57a8	-0.213225
197	0xbe0fcce2	-0.14043
198	0x3eaaf4d3	0.3338991
199	0xbd2bcdfa	-0.04194448
200	0x3da86a3c	0.082233876
201	0xbea83999	-0.32856444
202	0x3e161b5f	0.14658879
203	0xbcce9552	-0.025217686
204	0x3c9e4178	0.019318327
205	0xbdb3606a	-0.08758624
206	0xbdb18ad3	-0.08669057
207	0x3e500156	0.2031301
208	0x3e8bf776	0.27337235
209	0xbd00c2f5	-0.031435926
210	0x3e6b3e23	0.22972922
211	0x3d38189d	0.044945348
212	0xbe22e3ef	-0.15907262
213	0xbdfc3147	-0.123140864
214	0x3e17523d	0.14777465
215	0xbe0b28d8	-0.135898
216	0xbe10fd5b	-0.14159147
217	0x3e14cb7f	0.14530753
218	0xbe52c7a7	-0.20583974
219	0x3f0286a5	0.509867
220	0xbdcc4b36	-0.09975283
221	0x3e6809a8	0.22659934
222	0xbc96af97	-0.018394275
223	0x3d461503	0.048359882
224	0xbdae19ba	-0.08501001
225	0x3b170544	0.002304391
226	0xbf087b03	-0.533127
227	0x3e2260a7	0.15857182
228	0xbd18cbc5	-0.037303705
229	0xbe8e74b7	-0.2782342
230	0x3c84ccef	0.016211001
231	0x3d655d82	0.05599738
232	0xbfa6c1f4	-1.302794
233	0xbf76585d	-0.9622858
234	0x3d79cf0d	0.060988475
235	0xbec1d193	-0.37855205
236	0xbf0b1087	-0.54322094
237	0xbecbdd07	-0.39817068
238	0x3dcd4129	0.10022194
239	0x3d1d8f55	0.03846677
240	0x3e8cda97	0.2751052
241	0xbe80078c	-0.25005758
242	0x3ed7dbe1	0.42159942
243	0x3dcdf529	0.10056526
244	0xbe24fc1d	-0.16111799
245	0xbe81299b	-0.25227055
246	0x3e56e6f5	0.2098654
247	0xbe364b28	-0.17802107
248	0xbed398f0	-0.4132762
249	0x3e1b51b5	0.15167888
250	0x3e0559e3	0.1302257
251	0xbe717de0	-0.23583174
252	0xbe6c099f	-0.23050545
253	0x3e701bd4	0.23448116
254	0x3f04b34b	0.5183608
255	0x3ef0c5ea	0.47025996

z_k.mlp.0.bias f4 [10]
0	0xbeced76a	-0.40398723
1	0xbeb67928	-0.3563931
2	0xbee00180	-0.43751144
3	0xbdd9eea9	-0.10641224
4	0xbf03dfec	-0.5151355
5	0xbecc9f03	-0.39965066
6	0x3d976827	0.07392912
7	0xbecce05a	-0.40014917
8	0x3e8fa218	0.28053355
9	0xbe8aed75	-0.2713429

r_k.mlp.0.weight f4 [10, 33]
0	0xbe032676	-0.1280764
1	0xbe23a0d5	-0.15979321
2	0x3ed3230d	0.4123768
3	0x3eb26949	0.3484595
4	0xbea40138	-0.3203218
5	0x3ebac17d	0.36475745
6	0xbd88fcf1	-0.0668887
7	0x3ad08e4a	0.0015911546
8	0x3e472362	0.19447091
9	0x3decfbf5	0.115714945
10	0xbee0a617	-0.43876716
11	0x3df9c60d	0.12195978
12	0x3d76e696	0.060278498
13	0x3ec56466	0.3855316
14	0xbea7d1a3	-0.32777128
15	0x3ea6a7ca	0.32549888
16	0xbdc591ab	-0.096469246
17	0x3d9393ea	0.07205947
18	0x3e8caef7	0.27477238
19	0xbe3cecba	-0.18449679
20	0x3e86bc1d	0.26315394
21	0xbe9fb4fe	-0.31192774
22	0xbd352f4b	-0.044234555
23	0xbeeebdfe	-0.46629328
24	0x3ea15bda	0.3151539
25	0xbebc1b68	-0.3673966
26	0xbe827a44	-0.25483906
27	0x3dfc5e22	0.12322642
28	0xbd8e88d5	-0.069596924
29	0xbeaae725	-0.33379474
30	0xbdc16e5e	-0.09444879
31	0xbeb2c710	-0.34917498
32	0x3e94fb95	0.29098192
33	0xbf07fe80	-0.5312271
34	0xbd61eb09	-0.055155788
35	0x3e547bdd	0.20750375
36	0xbe651bd4	-0.22373897
37	0xbe9f959a	-0.31168824
38	0x3ecbd958	0.39814258
39	0xbeaec3ce	-0.34133762
40	0x3f3112bd	0.6916922
41	0x3e296c12	0.16545132
42	0x3e36181c	0.17782634
43	0xbe80a945	-0.25129142
44	0x3df85b9e	0.121268496
45	0x3eda1efa	0.42601758
46	0xbe931b41	-0.2873173
47	0x3d8e8e54	0.06960741
48	0x3e1a7c2a	0.15086427
49	0x3e6340eb	0.22192733
50	0x3dd9ff85	0.106444396
51	0xbe6b3b29	-0.22971787
52	0x3e8ccc0e	0.2749943
53	0xbeb93c12	-0.36178643
54	0x3f3a920b	0.72879094
55	0xbebead82	-0.3724175
56	0xbfb3ec9b	-1.4056581
57	0x3e1aa7c6	0.15103063
58	0x3dfbb1fe	0.12289809
59	0x3d976f69	0.07394297
60	0xbae0aa63	-0.0017140623
61	0x3ed1ac4d	0.40951768
62	0xbdff9be1	-0.124809034
63	0x3e25a863	0.16177516
64	0x3e610f92	0.21978596
65	0xbe3bb3d4	-0.18330318
66	0xbed8f1e3	-0.42372045
67	0x3f31785f	0.69324297
68	0x3e1936ed	0.14962359
69	0xbf1a6472	-0.6030952
70	0x3d89aa6a	0.06721957
71	0xbd6e5e2d	-0.05819528
72	0x3e8ab4d3	0.27091083
73	0xbe5039c5	-0.20334537
74	0xbe444916	-0.19168505
75	0xbe7e1ac5	-0.248149
76	0x3e8b705f	0.2723417
77	0xbee58b1b	-0.44832692
78	0x3e52dcea	0.20592085
79	0xbf15202f	-0.58252233
80	0xbee67114	-0.45008147
81	0x3e522747	0.20522796
82	0x3ea24fae	0.31701416
83	0x3e335d46	0.1751605
84	0xbdc6a19f	-0.096987955
85	0x3e800093	0.25000438
86	0xbef5b919	-0.4799278
87	0x3e0e67b6	0.1390675
88	0xbec6853c	-0.38773525
89	0x3e64b53a	0.22334757
90	0xbe481b11	-0.19541575
91	0x3ca4df12	0.0201259
92	0x3e1f6fc9	0.15569986
93	0xbe184214	-0.14868957
94	0x3cd640d0	0.026153952
95	0x3d25b1c1	0.040452722
96	0x3ee37752	0.44426972
97	0x3de0161b	0.10941716
98	0x3ea62c7d	0.32455817
99	0x3e9d0008	0.30664086
100	0xbe8603fc	-0.26174915
101	0x3d2de27b	0.042452317
102	0x3eaf7499	0.34268644
103	0xbe82c174	-0.25538218
104	0x3e28f3e0	0.16499281
105	0xbe57e187	-0.21082126
106	0x3d423520	0.047413945
107	0x3e9dd560	0.30826855
108	0x3f2b35dd	0.66879064
109	0xbebbf323	-0.36708936
110	0x3e1b1b37	0.151471
111	0xbdbc09fd	-0.091815926
112	0xbe0959b1	-0.13413121
113	0x3eaff52e	0.34366745
114	0x3c96e9d1	0.01842204
115	0x3cc93e65	0.024565885
116	0x3dd67a0e	0.10472499
117	0x3e9977f8	0.2997434
118	0x3d22b579	0.039723847
119	0x3eaadf10	0.33373308
120	0xbf26515a	-0.6496788
121	0x3e9970cb	0.29968867
122	0x3e7e27c7	0.24819861
123	0x3e9c67c3	0.30547914
124	0x3eb86e98	0.36021876
125	0xbe739172	-0.23785952
126	0x3eaf0629	0.34184387
127	0xbd928035	-0.0715336
128	0x3ed9a789	0.42510632
129	0x3dd95a75	0.106129564
130	0x3e8109a7	0.25202677
131	0x3db3fdb2	0.08788623
132	0xbe03a63e	-0.12856385
133	0xbe4988c6	-0.19681081
134	0xbe82adcf	-0.2552323
135	0x3e72b5b0	0.23702121
136	0xbe0be31b	-0.13660853
137	0xbe860d34	-0.26181948
138	0x3e2c8136	0.16846165
139	0x3e9b2287	0.3029978
140	0xbe8bc597	-0.27299187
141	0x3ecbdfba	0.39819127
142	0x3e1e88e4	0.15481907
143	0x3f07f955	0.53114825
144	0xbea589d4	-0.32331717
145	0xbf09cf0b	-0.5383155
146	0xbe2f3193	-0.17108755
147	0x3e42c60b	0.1902086
148	0x3ebf5df4	0.37376368
149	0x3ea82205	0.32838455
150	0x3dba3d21	0.09093691
151	0x3d8e7b27	0.06957083
152	0xbd2eae6c	-0.04264681
153	0x3c6916f9	0.0142266685
154	0xbdd7daaa	-0.10539754
155	0xbe5674fd	-0.20943065
156	0xbf0be426	-0.54645
157	0xbe478892	-0.19485691
158	0x3d3e47e0	0.046455264
159	0xbebc08ba	-0.36725408
160	0xbe90335d	-0.28164187
161	0xbe2d90a9	-0.16949715
162	0xbe8ff819	-0.2811897
163	0xbe416e3d	-0.18889709
164	0x3e732ee1	0.23748352
165	0xbd2b2bee	-0.04178994
166	0xbe33eb71	-0.17570283
167	0x3e11f9fa	0.14255515
168	0x3ca1c31b	0.019746354
169	0xbdcf4095	-0.1011974
170	0xbd8faf8d	-0.070159055
171	0xbf0f2125	-0.5590995
172	0xbdd60590	-0.1045028
173	0x3ee06cd2	0.43833023
174	0xbe8d2768	-0.27569127
175	0xbe897dc4	-0.26853764
176	0xbe587660	-0.21138906
177	0x3ec21775	0.3790852
178	0xbf1ab241	-0.60428244
179	0xbe2bcda6	-0.16777667
180	0x3df2c6ab	0.11854299
181	0xbd884814	-0.06654373
182	0x3ec46f46	0.38366145
183	0xbd41b4b7	-0.047291484
184	0x3ef8588c	0.48505056
185	0xbe705b9d	-0.23472448
186	0xbe47f2c9	-0.19526209
187	0xbe1cbc52	-0.15306213
188	0xbe1ef5b4	-0.15523416
189	0x3e81089b	0.25201878
190	0x3e4d2c14	0.20036346
191	0xbe31c2fd	-0.17359538
192	0x3daee228	0.0853923
193	0xbd9bf0ea	-0.0761431
194	0xbe163d51	-0.14671828
195	0xbe060c8a	-0.13090721
196	0xbe1c8b61	-0.15287544
197	0x3dd6d480	0.1048975
198	0xbebf4c21	-0.3736277
199	0x3d1977cb	0.03746776
200	0x3e043a1d	0.12912793
201	0x3eec41ce	0.46143955
202	0x3f9c354e	1.2203767
203	0xbe03f2aa	-0.12885538
204	0xbee15770	-0.44012022
205	0x3e085e3f	0.13317202
206	0x3ebf0c7f	0.3731422
207	0xbe1542d2	-0.14576271
208	0x3e6d1cec	0.23155564
209	0x3f2f4048	0.6845746
210	0xbe852c57	-0.2601039
211	0x3ec2ce03	0.380478
212	0xbe6f6073	-0.23376636
213	0xbd67d225	-0.056596894
214	0x3de02650	0.109448075
215	0x3e8b9a6a	0.27266246
216	0xbe0b1a52	-0.13584259
217	0x3c7b6b6e	0.015345437
218	0xbdc7be83	-0.09753134
219	0xbf073850	-0.528203
220	0xbd4406d0	-0.04785806
221	0xbe8d0c5d	-0.27548495
222	0x3e5d83fa	0.21632376
223	0xbebffa0d	-0.3749546
224	0x3ede2ba4	0.4339267
225	0xbd06f3ab	-0.032947224
226	0xbbfae2ef	-0.007656447
227	0xbd6a87bf	-0.057258364
228	0xbd348ea6	-0.044081353
229	0x3ea5a4f7	0.3235242
230	0xbde0a20c	-0.10968408
231	0x3d7e86e0	0.062140346
232	0xbea932e5	-0.33046642
233	0xbe90483a	-0.28180104
234	0x3ea99639	0.33122423
235	0x3e515b3b	0.20444958
236	0x3e7f62c3	0.24940018
237	0xbe00e894	-0.12588722
238	0xbede5935	-0.43427435
239	0x3e294579	0.16530408
240	0x3f043689	0.51645714
241	0x3f0cfaea	0.55070364
242	0xbd9b9b47	-0.07597976
243	0xbdd4e89e	-0.10395931
244	0xbd050036	-0.032470904
245	0xbf27ea82	-0.65592206
246	0x3f3613b1	0.71123797
247	0xbf0fee70	-0.562232
248	0xbe5f47ce	-0.21804735
249	0x3e1b0a86	0.15140733
250	0xbedbbdb5	-0.42918172
251	0xbea33208	-0.31874108
252	0xbc745e73	-0.014915097
253	0xbe5c86bf	-0.21535777
254	0x3eede78f	0.46465728
255	0xbf6d8498	-0.92780447

r_k.mlp.0.bias f4 [10]
0	0xbe05d601	-0.13069917
1	0x3e8de610	0.27714586
2	0x3d71d862	0.05904425
3	0xbd98ca6b	-0.07460483
4	0xbd3a59d0	-0.045495808
5	0x3e03144b	0.1280071
6	0xbd96639c	-0.07343218
7	0x3f1ada89	0.6048971
8	0xbe43498c	-0.19071025
9	0x3deea9c7	0.11653476

correction.mlp.0.weight f4 [10, 33]
0	0xbdc9b610	-0.09849179
1	0x3f2b1ee9	0.6684404
2	0x3d8c87c9	0.068618365
3	0xbca7e2c0	-0.020493865
4	0xbe024a28	-0.12723601
5	0x3ebb5e59	0.3659542
6	0x3e5ef299	0.21772231
7	0xbd8225e1	-0.06354881
8	0xbdd129ef	-0.10213076
9	0xbe8a9851	-0.27069333
10	0xbe2612e8	-0.1621815
11	0xbeada493	-0.33914623
12	0xbe952a59	-0.2913387
13	0x3e7c6110	0.24646401
14	0xbe7784e4	-0.24171788
15	0xbe59e16f	-0.21277402
16	0xbe56f89d	-0.20993276
17	0x3e92569f	0.28581712
18	0x3d13ceb7	0.03608581
19	0x3e768112	0.24072674
20	0x3d7b2cc7	0.061322
21	0xbf202fdf	-0.62573045
22	0x3e70667b	0.23476593
23	0x3f329b89	0.6976858
24	0xbd18a5d5	-0.037267525
25	0xbd78d588	-0.060750514
26	0xbd99c029	-0.07507355
27	0xbd9c373c	-0.076277226
28	0xbed2cad5	-0.41170374
29	0xbe20eb64	-0.15714794
30	0x3b38aeb2	0.0028180298
31	0x3de5767f	0.11204242
32	0x3e1c6b15	0.15275224
33	0xbf05a8e4	-0.5221083
34	0xbe2e3ff2	-0.1701658
35	0x3e29edb1	0.16594578
36	0x3e962c5a	0.29330713
37	0xbeaf18f0	-0.34198713
38	0x3f0c2543	0.54744357
39	0x3e424b0a	0.18973938
40	0x3d508f19	0.05091772
41	0x3e0d4c19	0.1379856
42	0xbe30a8f3	-0.17251949
43	0x3d3120c2	0.04324413
44	0xbe6a6519	-0.22890128
45	0x3e034969	0.12820973
46	0xbdb88afd	-0.09010885
47	0xbe9d68aa	-0.30743915
48	0xbe2c2b81	-0.1681347
49	0xbd695f59	-0.056975696
50	0x3e3226b4	0.17397577
51	0x3f11b290	0.5691309
52	0x3ea2bc37	0.31784222
53	0xbf08887d	-0.53333265
54	0x3ee4f0eb	0.44715056
55	0x3e6c8dd5	0.2310098
56	0x3e4a1650	0.19735074
57	0x3d457b9e	0.048213594
58	0xbe506fdb	-0.2035517
59	0xbeccd0bd	-0.40003005
60	0xbeeb51cc	-0.45960844
61	0x3dcd57ff	0.100265495
62	0x3cb54f23	0.022132462
63	0x3ba8091d	0.0051280395
64	0x3e689321	0.22712375
65	0xbe949b98	-0.2902496
66	0x3dc0476c	0.09388623
67	0x3e00a78d	0.12563916
68	0x3e5db2c3	0.21650223
69	0x3e4a37b9	0.19747819
70	0xbe92a7a8	-0.28643537
71	0x3f06b3e9	0.5261827
72	0x3ec24e6a	0.3795045
73	0x3e12b219	0.14325751
74	0x3df1a5c2	0.11799194
75	0xbf00a69d	-0.5025423
76	0x3c083182	0.008312585
77	0xbe944835	-0.2896134
78	0xbe92c436	-0.28665322
79	0xbcf3e0ce	-0.029770281
80	0xbd88aa0b	-0.06673058
81	0xbe06cfa9	-0.13165154
82	0x3e63dad5	0.22251447
83	0x3d9010f0	0.070344806
84	0x3e733d24	0.23753792
85	0xbd9b4e3a	-0.0758328
86	0x3c6ce7bf	0.014459549
87	0xbde7bc5c	-0.113152236
88	0x3e9bd5ff	0.30436704
89	0x3abb609d	0.0014295761
90	0xbe93f53a	-0.2889803
91	0xbdad0d3f	-0.08449792
92	0xbda1b4d2	-0.07895817
93	0xbe993d3c	-0.2992953
94	0xbe157989	-0.14597143
95	0x3d34f15d	0.044175494
96	0x3d821805	0.063522376
97	0xbc7eb4b3	-0.015546012
98	0xbd708832	-0.058723636
99	0x3e27167f	0.16317175
100	0xbeb15eef	-0.3464274
101	0x3f157456	0.5838064
102	0xbe615ceb	-0.22008102
103	0xbd2d33e3	-0.04228581
104	0xbee98453	-0.45608768
105	0x3e26ef83	0.16302304
106	0xbde67319	-0.11252422
107	0xbe1aa97c	-0.15103716
108	0x3f007bf2	0.50189126
109	0xbe80c148	-0.25147462
110	0xbd3fac0a	-0.04679493
111	0x3ceb719a	0.028740693
112	0xbe8a2dc8	-0.26988053
113	0x3e4ae8ba	0.1981534
114	0x3e61a4f3	0.2203558
115	0xbdeecf30	-0.11660612
116	0xbe43315a	-0.19061795
117	0x3d47382f	0.048637565
118	0xbe946c40	-0.28988838
119	0xbe88b818	-0.26702952
120	0xbe8b60f8	-0.2722242
121	0x3d04ead5	0.032450516
122	0x3ea0e815	0.31427065
123	0xbe1f89d7	-0.15579925
124	0x3e9540c2	0.2915097
125	0x3e7ab23b	0.24482052
126	0x3e13c8ad	0.1443202
127	0xbe9090ce	-0.28235477
128	0x3e704832	0.2346504
129	0x3ac0b937	0.0014703636
130	0x3de07855	0.109604515
131	0x3eb1c6a8	0.34721875
132	0xbf07830d	-0.5293434
133	0xbe1fa449	-0.15590014
134	0x3dc9a2e6	0.098455235
135	0xbeb0ac1f	-0.34506318
136	0xbe44b228	-0.19208586
137	0xbe55029f	-0.20801781
138	0x3f274939	0.65346104
139	0x3ee2d6e8	0.44304585
140	0xbe74b67c	-0.23897737
141	0xbe4b7758	-0.19869745
142	0xbe567cb7	-0.20946012
143	0x3ea3bb5b	0.31978878
144	0x3e82ed5a	0.2557171
145	0x3ea4e525	0.32206073
146	0x3e8ed8e6	0.27899855
147	0xbeb0fbb9	-0.3456705
148	0x3e94ce42	0.29063612
149	0xbc8ebde1	-0.017424526
150	0x3e498dd7	0.19683014
151	0xbdaa360b	-0.08311089
152	0x3bf6c671	0.0075309803
153	0xbe18ea72	-0.14933184
154	0x3da3d047	0.0799871
155	0xbd38317b	-0.044969063
156	0xbee7e2b0	-0.45290136
157	0x3ebf0766	0.37310332
158	0xbeb10c2b	-0.34579596
159	0x3e99d9c4	0.30048954
160	0xbe471af4	-0.19443876
161	0x3e32e228	0.17469084
162	0xbd871c61	-0.0659721
163	0xbe8c227d	-0.27370062
164	0xbeb2f924	-0.34955704
165	0x3e08105b	0.13287489
166	0x3f266692	0.6500026
167	0xbeb1bc07	-0.34713766
168	0xbeb9ff7d	-0.36327735
169	0xbc61e18d	-0.013786686
170	0x3e5c50af	0.21515153
171	0xb9324f23	-0.00017004884
172	0xbe9f1728	-0.31072354
173	0x3df280e4	0.1184099
174	0xbdbddbac	-0.09270415
175	0xbe816932	-0.2527557
176	0xbca2e53c	-0.019884698
177	0xbe7bd68b	-0.2459356
178	0xbea92a55	-0.3304011
179	0xbe9a73c9	-0.30166462
180	0xbe9a0503	-0.3008195
181	0x3e6a9ccd	0.22911377
182	0x3c757186	0.014980679
183	0x3ecbdd66	0.3981735
184	0xbc04e1ed	-0.0081105055
185	0xbe48cdd6	-0.1960977
186	0x3da5ff4c	0.08105335
187	0xbde812b9	-0.11331696
188	0xbd1367d5	-0.035987694
189	0xbe87dff2	-0.26538044
190	0x3e8fa9eb	0.28059325
191	0x3c0995fb	0.008397575
192	0x3e32950e	0.17439672
193	0x3a939bdb	0.0011261659
194	0x3d264d56	0.040601097
195	0x3d1e4030	0.038635433
196	0xbe8114ac	-0.25211084
197	0x3d34ddc8	0.04415682
198	0xbcead100	-0.028664112
199	0xbe7295d3	-0.23689966
200	0xbf03df64	-0.5151274
201	0xbe60c476	-0.21949944
202	0xbe9956bd	-0.2994899
203	0xbe836b67	-0.2566788
204	0xbe493c82	-0.19651988
205	0x3dc37ba3	0.09545066
206	0x3e9eb7cb	0.30999598
207	0xbe896277	-0.26832935
208	0xbe65e307	-0.22449885
209	0x3d674b37	0.056468215
210	0x3e21e53a	0.15810099
211	0xbe5204da	-0.20509663
212	0xbe193660	-0.14962149
213	0x3ea8a5d3	0.32939014
214	0x3de13543	0.10996487
215	0xbe848617	-0.25883552
216	0x3c8b649b	0.017015746
217	0x3e5d3f8d	0.21606274
218	0xbe551332	-0.20808104
219	0x3ed1ee6a	0.41002208
220	0x3de625fc	0.11237714
221	0xbdc8ec27	-0.098106675
222	0xbe95081c	-0.2910775
223	0xbe9f280a	-0.31085235
224	0xbe22365a	-0.15841046
225	0xbe827139	-0.25477007
226	0x3ce01b73	0.027356839
227	0xbe946667	-0.28984377
228	0xbc1d0692	-0.009584086
229	0xbec6c60d	-0.38822976
230	0x3d06739a	0.03282509
231	0x3d8d5768	0.06901437
232	0xbe9725a1	-0.29520896
233	0xbe6161bb	-0.22009937
234	0xbe7f97d3	-0.2496026
235	0xbf153860	-0.58289146
236	0xbe8bb201	-0.27284244
237	0x3f215f69	0.6303621
238	0xbf473172	-0.7780982
239	0x3e044a35	0.12918933
240	0x3cd0e737	0.025500877
241	0x3e2cce49	0.16875567
242	0x3e0f4fbf	0.13995264
243	0x3e40c36e	0.1882455
244	0xbee06572	-0.43827397
245	0x3eaf1923	0.34198865
246	0x3ea67fda	0.32519418
247	0xbe2f798f	-0.17136215
248	0xbcba94c2	-0.022776011
249	0x3e862818	0.26202464
250	0x3e43b07f	0.19110297
251	0x3eb1d4b7	0.347326
252	0x3ab2a9c2	0.0013630914
253	0x3e8c3016	0.27380437
254	0xbf23374b	-0.63756245
255	0xbe5f6c69	-0.21818699

correction.mlp.0.bias f4 [10]
0	0x3a8c841f	0.0010720527
1	0x3d123b19	0.03570089
2	0x3e23c63b	0.15993588
3	0x3daa7794	0.08323589
4	0x3e558b0a	0.2085382
5	0xbd47c12c	-0.048768207
6	0xbdb669b4	-0.0890688
7	0xbcbde7dc	-0.023181848
8	0x3d2d94d9	0.04237828
9	0x3d0da756	0.034583412

phi_neumann.mlp.mlp.0.weight f4 [10, 23]
0	0xbe5323a8	-0.2061907
1	0x3e3c9007	0.18414317
2	0xbe3ed7e0	-0.18637037
3	0xbd2eeea6	-0.04270806
4	0x3e9c16f1	0.30486253
5	0x3e0a3c4d	0.13499565
6	0xbeac055f	-0.33597848
7	0x3e1a588b	0.15072839
8	0x3e9a8bbe	0.3018474
9	0x3e8e2930	0.277658
10	0x3d3cbbc6	0.046077512
11	0xbdbf313f	-0.09335565
12	0xbf0a4b6a	-0.5402132
13	0xbf040943	-0.5157663
14	0x3f139047	0.57642025
15	0x3ee56660	0.44804668
16	0x3ef20ae8	0.47273946
17	0x3e3e7254	0.185983
18	0xbec788b8	-0.38971496
19	0xbf10f79d	-0.5662783
20	0x3c7889b0	0.015169546
21	0x3c044bca	0.00807471
22	0xbb4c6f75	-0.0031194363
23	0x3e6ecca7	0.23320256
24	0x3e588fa5	0.21148546
25	0x3d705254	0.058672264
26	0x3e459444	0.1929484
27	0xbea70afb	-0.32625565
28	0xbd23d654	-0.03999932
29	0xbec66549	-0.3874915
30	0xbd4e7201	-0.05040169
31	0x3e7d9ac6	0.24766073
32	0x3ebfa685	0.37431732
33	0x3e31859e	0.17336127
34	0x3e4b945c	0.19880813
35	0x3c9d1650	0.019175678
36	0xbed0050e	-0.40628856
37	0x3e5f948d	0.21834011
38	0xbe4d8299	-0.2006935
39	0x3e2c3875	0.16818412
40	0xbe5f5175	-0.21808417
41	0x3dfbf6b7	0.123029165
42	0xbecffaa9	-0.40620926
43	0xbbc7fda0	-0.0061032325
44	0xbaa3d71d	-0.0012500022
45	0x3cfd5f00	0.030929089
46	0x3d152bc8	0.036418706
47	0x3be67c99	0.007033896
48	0xbeb1f36b	-0.34756026
49	0x3e829d98	0.2551086
50	0x3e25bb62	0.16184762
51	0x3e321580	0.17391014
52	0xbea4bbe6	-0.32174605
53	0x3ecebefc	0.40380085
54	0xbea5ab64	-0.32357323
55	0xbecb2b95	-0.39681688
56	0xbeb41fda	-0.3518055
57	0xbeeb1690	-0.4591565
58	0xbe337e1f	-0.1752858
59	0x3e294090	0.16528535
60	0xbe3187fb	-0.17337029
61	0xbbe1e791	-0.00689406
62	0x3e8be0fa	0.2732008
63	0x3f40f4b9	0.7537342
64	0xbe77e0cf	-0.24206851
65	0x3ed6633c	0.41872585
66	0xbd8cc044	-0.06872609
67	0x3c4177e0	0.011808366
68	0xbdcc9d6d	-0.09990964
69	0x3e245627	0.1604849
70	0x3e78b062	0.24286035
71	0xbc3a1b90	-0.0113591105
72	0xbe62baf1	-0.22141625
73	0xbea9227e	-0.33034128
74	0xbd877639	-0.06614346
75	0xbec7e54a	-0.3904212
76	0xbcc1dc07	-0.023664488
77	0x3ea8bddd	0.32957354
78	0xbe2ccb17	-0.16874348
79	0x3dc69865	0.09697036
80	0xbe0f1519	-0.13972892
81	0xbdcac49a	-0.0990078
82	0xbceb3305	-0.028710851
83	0x3d95f9c1	0.073230274
84	0x3ea51762	0.32244402
85	0x3e11215b	0.1417288
86	0x3d63a7d2	0.055579968
87	0x3dc8242c	0.09772524
88	0xbe89f89a	-0.2694748
89	0xbd279f4b	-0.040923398
90	0xbd86a4b0	-0.065743804
91	0xbd2d70c9	-0.04234389
92	0xbe9e4bf1	-0.30917314
93	0x3c0efb1a	0.008726859
94	0x3e64be13	0.22338133
95	0x3e901312	0.2813955
96	0x3e41e991	0.18936755
97	0xbee5955a	-0.4484051
98	0xbe163b72	-0.14671114
99	0xbeaeb99b	-0.3412598
100	0xbd117e73	-0.035520982
101	0xbdb27810	-0.08714306
102	0x3dff0721	0.124525316
103	0xbed2cd62	-0.4117232
104	0x3c16e772	0.009210454
105	0xbf4af6e6	-0.7928299
106	0x3e910191	0.28321508
107	0x3b6fbba5	0.003658035
108	0xbf28a8d8	-0.65882635
109	0x3eb3f91e	0.35151
110	0xbdd21663	-0.10258176
111	0xbd891769	-0.06693918
112	0x3d598732	0.053107448
113	0x3d62ca35	0.05536862
114	0xbd8f0088	-0.06982523
115	0x3dc1046b	0.09424671
116	0x3e398b9c	0.18119663
117	0x3f268170	0.65041256
118	0xbd380b7b	-0.044932824
119	0xbd9aa491	-0.0755092
120	0x3e0f1e7e	0.13976476
121	0x3e969ea7	0.29417917
122	0x3dff0476	0.12452023
123	0x3e864e12	0.26231438
124	0x3db88465	0.09009627
125	0xbed72fa7	-0.42028543
126	0x3ed90757	0.42388412
127	0xbcfa008a	-0.030517835
128	0xbe29df31	-0.16589047
129	0xbe6642c7	-0.22486411
130	0x3e38cf72	0.18047884
131	0x3de2fc1b	0.110832416
132	0xbe083ee1	-0.13305236
133	0xbdadbd2e	-0.08483349
134	0xbe4dbbec	-0.20091218
135	0x3d865f11	0.06561101
136	0x3d06baa6	0.032892846
137	0xbc3d894a	-0.011568377
138	0x3eba3ce4	0.3637458
139	0xbe94f10c	-0.29090154
140	0xbe4ead03	-0.20183186
141	0x3d0a48b9	0.03376076
142	0xbe12c88b	-0.14334314
143	0xbe892d46	-0.26792353
144	0xbe557c88	-0.20848286
145	0x3e892a16	0.26789922
146	0xbe869c21	-0.26290992
147	0x3d6855bc	0.056722388
148	0x3eee408c	0.4653362
149	0xbf7f0cd5	-0.99628955
150	0xbe68f5a3	-0.22749953
151	0xbebd083c	-0.36920345
152	0x3f26a540	0.650959
153	0x3e3035bf	0.17208003
154	0xbe38190c	-0.17978305
155	0xbec44a27	-0.38337824
156	0xbec31622	-0.38102823
157	0xbef2e982	-0.47443777
158	0xbe22ccdb	-0.15898459
159	0x3e1b5a71	0.1517122
160	0xbdd63a98	-0.104603946
161	0x3ef440c1	0.47705653
162	0x3e88aa5f	0.26692483
163	0x3da2effc	0.0795593
164	0xbdc7384d	-0.097275354
165	0x3cda436c	0.026643477
166	0xbe80fdde	-0.25193685
167	0xbd16dc71	-0.036831323
168	0x3e17fef2	0.14843348
169	0xbee26097	-0.44214317
170	0xbea48521	-0.3213282
171	0x3e373d7f	0.17894553
172	0xbba8c217	-0.0051500904
173	0xbe7832d7	-0.24238144
174	0x3eeb628e	0.4597363
175	0x3f268305	0.6504367
176	0xbe895a9c	-0.26826942
177	0xbece374f	-0.40276572
178	0xbedb4ba9	-0.42831162
179	0x3eadd2f6	0.33950013
180	0x3e0dca08	0.138466
181	0xbbdb5a0f	-0.0066940854
182	0xbc7209df	-0.014772861
183	0xbd0f4cfb	-0.034985524
184	0xbe0f618d	-0.14002056
185	0x3eb27286	0.34853
186	0xbf315bc3	-0.6928064
187	0x3ca2e3f2	0.019884083
188	0x3e7a9240	0.24469852
189	0x3f1725ca	0.59042037
190	0x3ed3f498	0.41397548
191	0x3eaaa2f5	0.3332745
192	0xbd9b6e9a	-0.07589455
193	0x3daaf5e1	0.08347679
194	0x3e76dcab	0.24107616
195	0x3d9ef97e	0.077624306
196	0x3f3c7223	0.7361166
197	0x3dbc8f5b	0.092070304
198	0x3f50a7e6	0.8150619
199	0xbf2549fa	-0.64566004
200	0x3d016c8f	0.03159767
201	0x3eba6824	0.36407578
202	0xbe6e2035	-0.23254474
203	0x3e43d27c	0.19123262
204	0x3d8deb62	0.06929661
205	0xbd2d397f	-0.04229116
206	0xbd361016	-0.044448934
207	0xbe748e91	-0.2388251
208	0x3e9d49e6	0.30720443
209	0xbf038b02	-0.51383984
210	0xbedbda5b	-0.4294003
211	0xbe299b4e	-0.1656315
212	0xbc2b29be	-0.010446964
213	0x3f0f96ff	0.56089777
214	0xbe99d658	-0.30046344
215	0xbcfc378a	-0.030788202
216	0xbee311c4	-0.44349492
217	0x3dbd0f45	0.09231428
218	0xbe1f4598	-0.15553892
219	0x3e3d18c8	0.18466485
220	0x3e9d783f	0.30755803
221	0x3e04b8b3	0.12961082
222	0xbdd52f60	-0.10409427
223	0xbed7b750	-0.42132044
224	0xbe483fe0	-0.19555616
225	0x3ca11fdb	0.01966851
226	0x3f1f26ee	0.62168777
227	0x3cd94f3f	0.026527045
228	0xbd616a26	-0.05503287
229	0x3c6b5141	0.014362634

phi_neumann.mlp.mlp.0.bias f4 [10]
0	0xbe4d8bed	-0.20072909
1	0x3d3f316f	0.046678003
2	0xbdc05ace	-0.093923196
3	0x3eec6b77	0.4617574
4	0xbd87ce18	-0.06631106
5	0xbc84ce2a	-0.016211588
6	0x3dec799f	0.11546635
7	0x3e68669a	0.2269539
8	0x3d06bdb3	0.032895755
9	0x3dbe0b2d	0.09279475

phi_neumann.mlp.mlp.2.weight f4 [10, 10]
0	0xbdc5cf88	-0.09658724
1	0x3f0b9a6c	0.54532504
2	0xbee63ad3	-0.44966754
3	0x3e74a1b5	0.23889811
4	0xbe9abf4f	-0.30224082
5	0xbedac51a	-0.42728502
6	0x3e187ae3	0.14890628
7	0x3c56df9b	0.013114835
8	0x3e989ea5	0.29808536
9	0xbd84cf0b	-0.06484803
10	0xbf14961b	-0.5804154
11	0xbe7b90ee	-0.24567005
12	0xbdcdd07d	-0.100495316
13	0x3d78cfde	0.060745113
14	0xbecbbca0	-0.39792347
15	0xbedfc800	-0.43707275
16	0x3e977183	0.2957879
17	0xbd928cb3	-0.071557425
18	0x3e9f6395	0.31130663
19	0xbe9f754e	-0.31144184
20	0xbe2a9f77	-0.16662394
21	0x3ea5fcdc	0.3241948
22	0x3ebe14d8	0.37125278
23	0xbde18370	-0.11011398
24	0x3d47ecf8	0.048809975
25	0x3ef59262	0.47963244
26	0xbed20a9b	-0.41023716
27	0xbdd9b12c	-0.10629496
28	0xbece806c	-0.40332353
29	0xbe918f2e	-0.2842955
30	0x3e53eafa	0.20695105
31	0x3ba2edf5	0.0049722143
32	0xbcf13b9d	-0.029447371
33	0x3c80f37a	0.015741099
34	0x3f074f47	0.5285534
35	0xbed04c61	-0.40683272
36	0x3e1faf77	0.15594278
37	0x3e7597cd	0.23983689
38	0x3ee5633e	0.44802278
39	0xbee889ad	-0.45417538
40	0x3c98f726	0.018672537
41	0x3d5849c7	0.052804735
42	0xbe2f5d14	-0.1712535
43	0x3ec1d64b	0.37858805
44	0x3e133c66	0.14378509
45	0x3defe0cc	0.117127985
46	0xbce23ef0	-0.027617902
47	0xbdef6558	-0.11689252
48	0xbf20751a	-0.6267868
49	0x3e099f04	0.13439566
50	0x3e8db092	0.27673775
51	0x3ec9f793	0.39446697
52	0xbe2055ed	-0.15657778
53	0xbf1aff37	-0.60545677
54	0x3edaec41	0.42758372
55	0x3ec7063c	0.38871944
56	0x3e888653	0.2666498
57	0xbe37f4f5	-0.17964537
58	0x3eaad22e	0.3336348
59	0x3e38a5bb	0.18031971
60	0x3b56bd50	0.0032766648
61	0x3ec75dae	0.3893866
62	0xbe2b7d3e	-0.16746995
63	0xbd9a699e	-0.07539676
64	0xbee4a221	-0.44654945
65	0xbbc511e5	-0.006014096
66	0x3dfaa433	0.1223835
67	0x3f07ad9e	0.52999294
68	0x3d5cc357	0.053897228
69	0x3f01adbe	0.50655735
70	0xbee928ce	-0.45538944
71	0x3ea6cc1b	0.32577595
72	0x3f0d8144	0.5527537
73	0x3ed8f9d3	0.423781
74	0x3eaac6e4	0.33354867
75	0xbedaa41a	-0.42703325
76	0xbe812639	-0.25224474
77	0x3ee35b03	0.44405374
78	0xbde7a273	-0.113102816
79	0x3e8712e6	0.26381606
80	0x3ed32076	0.41235703
81	0x3ed00c6b	0.40634474
82	0xbf019c6f	-0.50629324
83	0x3e65c401	0.22438051
84	0x3ebe2194	0.37134993
85	0x3f3804b7	0.71882194
86	0x3d187610	0.03722197
87	0x3c55d5aa	0.01305143
88	0xbe55cd55	-0.20879109
89	0xbe562d82	-0.20915797
90	0x3e1ed942	0.15512565
91	0x3e04911b	0.12945978
92	0xbda0b5e5	-0.07847194
93	0xbd44f824	-0.048088208
94	0xbe99d7e6	-0.3004753
95	0xbf0d16d7	-0.55112976
96	0x3e88ae74	0.26695597
97	0xbe3ddc73	-0.18541126
98	0xbdd13f30	-0.1021713
99	0xbf0372c9	-0.51347023

phi_neumann.mlp.mlp.2.bias f4 [10]
0	0x3dcb9049	0.099396296
1	0xbd827e16	-0.06371705
2	0xbac6bfca	-0.0015163359
3	0xbea04033	-0.3129898
4	0xb8820379	-6.19953e-05
5	0xbdb0f125	-0.08639745
6	0xbcc56d9e	-0.024100121
7	0x3e935981	0.28779224
8	0x3e5f654d	0.21815987
9	0x3ccea5e5	0.025225589
