dirichlet/psignn/results/constant_dataset/ckpt/best_model.pt (torch, 114893 bytes, 66 tensors)

autoencoder.encoder.mlp.mlp.0.weight f4 [10, 1]
0.022108093 0.00956327 -0.017096043 -0.12694892 -0.004970333 0.12065795 -0.024824142 0.00394524
-0.012477895 0.021049486
00000000: 081c b53c 43af 1c3c 000d 8cbc e6fe 01be
00000010: 2dde a2bb 841b f73d 005c cbbc 1247 813b
00000020: 1670 4cbc f96f ac3c

autoencoder.encoder.mlp.mlp.0.bias f4 [10]
-0.87411046 -0.9196722 -0.8692575 -0.114983045 -0.8572434 0.10483718 -5.1063113 -1.0055869
-0.97223467 -1.8685199
00000000: b4c5 5fbf a36f 6bbf a987 5ebf 3b7c ebbd
00000010: 4e74 5bbf e0b4 d63d e766 a3c0 12b7 80bf
00000020: 5fe4 78bf a92b efbf

autoencoder.encoder.mlp.mlp.2.weight f4 [10, 10]
-0.051384415 0.30770898 0.6011256 -0.000589138 -0.081512935 0.0010954839 -0.20200981 0.22689156
0.4285364 0.21555118 0.06379509 -0.00084106566 0.12864797 0.006922131 -0.20564105 0.004912581
-0.38226062 0.4184285 0.07896774 0.268682 0.24447162 0.47585255 0.3717981 0.086575136
-0.2853554 -0.07745695 0.498639 -0.04964368 0.36943763 0.26787055 -0.13740957 -0.49001303
0.20928577 0.0016391362 0.68898237 0.0064110127 0.23406123 0.038694456 -0.5294477 0.0011875366
-0.78469944 0.022816602 -0.24289016 0.061119255 -0.14795339 -0.10135997 0.5747307 0.14997171
0.1654283 -0.31758696 0.48519602 0.25288555 -0.20006408 -0.26111263 -0.050552625 0.28095323
-0.032494668 -0.46736598 0.21616471 0.42387044 -0.13161352 -0.2195499 -0.13828799 -0.0004748816
0.37956408 -0.001385377 -0.17001009 -0.12512554 -0.56298274 -0.1092814 0.2866787 -0.5665082
0.098686226 0.00045188205 -0.46731603 -0.0015834664 0.10298694 0.2035634 -0.49405935 0.19834208
0.01702067 -0.9463037 -0.21719934 -0.0044059316 -0.50439894 -0.01471576 -0.024874263 0.07541988
-0.90976274 -0.42013854 0.29977646 -0.82631564 -0.31734312 0.0015903714 0.6254811 -0.0015248152
-0.29849106 0.34600198 0.11549448 -0.2076124
00000000: 7778 52bd 088c 9d3e 5ee3 193f 6270 1aba
00000010: 41f0 a6bd 5796 8f3a a9db 4ebe 4356 683e
00000020: 1f69 db3e 73b9 5c3e 00a7 823d f67a 5cba
00000030: 4bbc 033e 0bd3 e23b 9193 52be b7f9 a03b
00000040: aab7 c3be 433c d63e d7b9 a13d b090 893e
00000050: c556 7a3e f2a2 f33e 525c be3e 4e4e b13d
00000060: 1a1a 92be c0a1 9ebd 9c4d ff3e 2c57 4bbd
00000070: ee26 bd3e 5426 893e 18b5 0cbe fde2 fabe
00000080: 024f 563e 49d8 d63a 2661 303f 7913 d23b
00000090: bfad 6f3e 147e 1e3d e289 07bf 1ea7 9b3a
000000a0: 10e2 48bf e2e9 ba3c 33b8 78be 2f58 7a3d
000000b0: 1881 17be d195 cfbd 8d21 133f 2f92 193e
000000c0: 0966 293e c29a a2be 9d6b f83e 377a 813e
000000d0: 99dd 4cbe 8eb0 85be 4510 4fbd 1ad9 8f3e
000000e0: 2119 05bd 984a efbe 485a 5d3e 8c05 d93e
000000f0: b2c5 06be b0d1 60be 5e9b 0dbe 88f9 f8b9
00000100: 3956 c23e 8a95 b5ba 2017 2ebe e920 00be
00000110: a31f 10bf edce dfbd 8dc7 923e ae06 11bf
00000120: 011c ca3d 95ea ec39 0c44 efbe 518c cfba
00000130: d1ea d23d ed72 503e 59f5 fcbe 301a 4b3e
00000140: ef6e 8b3c f640 72bf 8169 5ebe a25f 90bb
00000150: 4a20 01bf 5f1a 71bc 1cc5 cbbc bd75 9a3d
00000160: 36e6 68bf 661c d7be 4d7c 993e 6c89 53bf
00000170: cc7a a2be 0274 d03a 881f 203f 4fdc c7ba
00000180: d2d3 98be 2c27 b13e 5f88 ec3d 5898 54be

autoencoder.encoder.mlp.mlp.2.bias f4 [10]
0.20451146 0.3154176 0.31813192 0.429318 -0.6543233 -0.021083284 -0.30467924 -0.025874231
-0.1098214 0.38582483
00000000: 746b 513e 6a7e a13e 30e2 a23e 92cf db3e
00000010: bb81 27bf dab6 acbc ebfe 9bbe 32f6 d3bc
00000020: 0bea e0bd d58a c53e

autoencoder.decoder.mlp.mlp.0.weight f4 [10, 10]
-0.2772941 -1.0184693 0.027567422 -0.5262427 1.4798813 0.7753039 -0.7896129 0.35555995
0.40696946 -0.3988519 0.13344622 -0.16682123 -1.750043 -0.09683123 -1.3386458 4.823291
-0.15235743 0.38133565 -0.14463201 0.3735153 0.10592656 -0.27691117 2.0214493 -0.1935961
-0.21959451 -4.271724 -0.23781529 0.68627924 -0.41462374 0.1820169 1.224693 0.21398264
-0.6537912 -0.8751472 0.2479091 -0.1744439 -0.72413117 0.32270414 0.02446479 0.5799317
-0.06861654 0.46382734 1.7581501 0.3123094 0.20904958 -4.99143 0.15494117 -0.6179467
0.28113186 -0.03757565 -0.581308 -0.5884544 -1.4357523 -1.4412011 1.1901083 0.017270008
1.3822967 -0.20384759 -1.112029 -0.41497138 0.76771045 -0.84079075 -0.016172437 -0.8617476
-0.34709683 -0.00781253 -0.3814151 0.28274283 0.12645741 0.00059684605 1.5416867 -0.87432206
-1.3252245 1.1304126 1.0248814 0.4254758 1.1154697 -1.7668753 -2.9140208 -1.2912924
-0.13731009 0.275058 -3.4980204 0.24560991 -1.6412009 4.493314 0.17708652 -0.7009887
-0.20643409 -0.36557588 -0.5677293 -1.0072708 -0.70532644 -0.6092708 1.3151165 0.6397282
0.10150598 0.82373506 -0.6227173 -1.8919643
00000000: 7ef9 8dbe 345d 82bf 13d5 e13c d7b7 06bf
00000010: c06c bd3f 517a 463f 1224 4abf f40b b63e
00000020: 4d5e d03e 5136 ccbe 20a6 083e 2fd3 2abe
00000030: 6901 e0bf 744f c6bd bf58 abbf 6658 9a40
00000040: 9603 1cbe 6d3e c33e 6a1a 14be 663d bf3e
00000050: 06f0 d83d 4dc7 8dbe 6d5f 0140 0e3e 46be
00000060: 62dd 60be f7b1 88c0 da85 73be ffaf 2f3f
00000070: 9049 d4be a362 3a3e bdc2 9c3f 441e 5b3e
00000080: dc5e 27bf a609 60bf e2db 7d3e 6ca1 32be
00000090: a960 39bf 7a39 a53e 626a c83c 6776 143f
000000a0: d486 8cbd c77a ed3e 100b e13f 05e7 9f3e
000000b0: 1811 563e cbb9 9fc0 e6a8 1e3e c131 1ebf
000000c0: 84f0 8f3e ede8 19bd 9ad0 14bf f3a4 16bf
000000d0: bbc6 b7bf 4779 b8bf 7855 983f d579 8d3c
000000e0: 19ef b03f 6cbd 50be f756 8ebf 2177 d4be
000000f0: ac88 443f 103e 57bf 0f7c 84bc 7e9b 5cbf
00000100: adb6 b1be 2000 00bc d748 c3be abc3 903e
00000110: 0d7e 013e a975 1c3a fd55 c53f 92d3 5fbf
00000120: f5a0 a9bf 5cb1 903f 502f 833f f7d7 d93e
00000130: b6c7 8e3f f828 e2bf 517f 3ac0 1249 a5bf
00000140: 049b 0cbe 67d4 8c3e 91df 5fc0 2a81 7b3e
00000150: df12 d2bf 3ac9 8f40 2b56 353e ff73 33bf
00000160: 7563 53be c32c bbbe b556 11bf 40ee 80bf
00000170: 4690 34bf 2cf9 1bbf bd55 a83f 3ac5 233f
00000180: 5ee2 cf3d 4de0 523f 676a 1fbf e32b f2bf

autoencoder.decoder.mlp.mlp.0.bias f4 [10]
-1.7705518 -0.57223177 -1.1142787 -1.7149005 -0.50224364 -5.11588 -2.8092039 -2.6024952
0.3892351 -3.2712283
00000000: 71a1 e2bf c87d 12bf afa0 8ebf dc81 dbbf
00000010: 0a93 00bf 4ab5 a3c0 ffc9 33c0 488f 26c0
00000020: d349 c73e ce5b 51c0

autoencoder.decoder.mlp.mlp.2.weight f4 [1, 10]
0.14322318 2.6104226 -2.8540878 -0.3127172 -2.8755038 -0.33562306 -0.020968491 0.7808332
2.3653104 0.15277536
00000000: 19a9 123e 2a11 2740 60a9 36c0 781c a0be
00000010: 4108 38c0 c9d6 abbe 1dc6 abbc afe4 473f
00000020: 3f61 1740 2571 1c3e

deqdss.f.laynorm.weight f4 [10]
0.08275962 0.7004248 1.7833027 0.33657283 1.3982482 2.31462 0.1878777 0.12881945
0.7791785 0.16058545
00000000: e07d a93d 0a4f 333f 4343 e43f 4653 ac3e
00000010: ccf9 b23f bc22 1440 0363 403e 3fe9 033e
00000020: 3e78 473f 8370 243e

deqdss.f.laynorm.bias f4 [10]
0.34263283 1.0484879 0.29772907 0.5394715 -0.80353224 -0.029846247 -0.74833053 -0.11239764
-0.0055440553 0.38036332
00000000: 926d af3e da34 863f f26f 983e ce1a 0a3f
00000010: 4ab4 4dbf 1e80 f4bc 9792 3fbf bc30 e6bd
00000020: e8aa b5bb fbbe c23e

deqdss.f.phi_to_list.0.mlp.mlp.0.weight f4 [10, 23]
-0.16848363 0.073548086 -0.41752467 0.17895147 0.24428906 0.32375225 0.20798065 0.29902157
-0.44971988 -0.28707072 -0.17234685 -0.519182 -0.052578002 -0.01670614 0.119929574 -0.42752284
0.17102902 0.14182143 -0.17728116 -0.038287427 -0.016489431 0.11560116 0.176055 0.029106822
0.013059665 -0.53075975 -0.1453417 -0.17469761 0.25322658 -0.24116656 0.25840002 0.20863388
0.2070119 0.012004256 0.02614964 0.3303095 -0.009376691 0.5581881 -0.3319757 -0.001210573
0.13778497 -0.61672175 -0.0912182 -0.00038555622 -0.00354296 -0.3836785 0.26378107 -0.17361102
0.048643935 -0.004623564 0.24785113 0.5379423 0.36803707 -0.10897682 -0.34008175 -0.31754142
-0.011817091 0.046446413 0.36701095 -0.21848716 0.9497156 0.10855555 0.11630552 -0.3733368
-0.28041205 -0.3930605 -0.069205046 0.042001873 -0.37612876 0.24788491 -0.50821245 0.002496529
0.07722013 0.115193516 -0.17658454 0.040293545 0.48296225 -0.063848875 -0.07542645 -0.1764035
-0.9593011 0.43769315 -0.3268446 0.30010575 0.4165639 -0.18430457 0.107354775 0.12565939
0.13827562 -0.0032381462 0.0150429495 -0.42401922 0.4989107 -0.749038 0.11465806 -0.5086705
0.68750864 0.6987366 -0.20669764 -0.0055043236 0.13030079 -0.46747905 0.31045595 -0.891167
0.2601377 -0.27580827 -0.04236705 -0.33935574 -0.55558324 0.14701968 -0.18870889 -1.0175394
-0.009077191 0.21692707 -0.6641418 0.45872453 -0.63029355 -0.4254331 -0.3278949 0.49216136
0.6654533 -0.38397154 0.123845086 -0.33545613 -0.43603924 1.1347955 -0.48806834 0.5266052
0.020169593 0.25902268 0.24182074 -0.49676126 -0.44420403 0.04090719 -0.8983186 0.03096249
0.061592635 -0.6257767 0.037672833 0.43706992 -0.68809384 0.19187479 -0.73395616 0.60615355
0.0075531686 0.32251728 0.014823225 0.04523672 0.006249877 0.0026193666 0.53843606 -0.11078266
0.5740929 -0.71554244 -0.011642224 0.47287312 -0.5028456 -0.1017408 -0.0010661833 0.00085920596
0.15126336 -0.075026736 0.08481911 0.35545173 -0.13197154 0.12408512 -0.78283167 0.051310383
0.009456139 -0.118256025 -0.10245901 -0.14041498 -0.6868636 -0.6356579 -0.31515145 0.30797687
0.5632407 0.0842328 -0.020094078 0.08827799 -0.16239238 0.0026530393 0.023188625 0.04124776
-0.010137171 0.009203306 0.6984657 -0.21484356 0.26962796 -0.72700745 0.003243236 -0.12821707
0.057446256 -0.11299424 -0.17989846 -0.42293373 -0.8063443 -0.38022718 0.5703816 0.6037977
0.24581307 -0.06735066 0.037898723 -0.24978468 -0.0039568334 0.020219544 0.060687017 0.015224966
0.47060195 -0.50609845 0.20065223 0.4020023 0.17981018 -0.034042742 -0.16433918 -0.004532757
-0.07850757 -0.028573165 0.019628359 0.058275092 0.6623692 0.2761931 -0.55775917 -0.41440883
-0.36504886 -0.37787777 -0.111396335 0.015616222 0.027513452 -0.07688418
00000000: f986 2cbe 61a0 963d cbc5 d5be 0e3f 373e
00000010: e926 7a3e dbc2 a53e e1f8 543e 5b19 993e
00000020: af41 e6be effa 92be b17b 30be 1de9 04bf
00000030: 085c 57bd 51db 88bc a39d f53d 46e4 dabe
00000040: 3b22 2f3e a339 113e 3189 35be 47d3 1cbd
00000050: d814 87bc 4dc0 ec3d c347 343e 6e71 ee3c
00000060: 35f8 553c dfdf 07bf 74d4 14be eee3 32be
00000070: eaa6 813e 5ef4 76be 024d 843e 1fa4 553e
00000080: edfa 533e 80ad 443c c537 d63c 541e a93e
00000090: b1a0 19bc 6ae5 0e3f b8f8 a9be 17ac 9eba
000000a0: 8117 0d3e 7ae1 1dbf 9cd0 babd 7b24 cab9
000000b0: 0131 68bb 8271 c4be 500e 873e 16c7 31be
000000c0: dd3e 473d 4481 97bb b0cc 7d3e 96b6 093f
000000d0: 5b6f bc3e 3d2f dfbd 321f aebe ca94 a2be
000000e0: 799c 41bc 983e 3e3d dce8 bb3e 19bb 5fbe
000000f0: 9020 733f 5f52 de3d 9731 ee3d 0026 bfbe
00000100: 2b92 8fbe 3a3f c9be 60bb 8dbd 280a 2c3d
00000110: f393 c0be 8bd5 7d3e 361a 02bf ce9c 233b
00000120: 9625 9e3d 94ea eb3d 94d2 34be d80a 253d
00000130: d446 f73e 33c3 82bd 2f79 9abd 1ea3 34be
00000140: c294 75bf 5119 e03e 2d58 a7be 76a7 993e
00000150: dd47 d53e 56ba 3cbe d2dc db3d dbac 003e
00000160: 2098 0d3e 1437 54bb b476 763c 0c19 d9be
00000170: 3971 ff3e f4c0 3fbf d8d1 ea3d 3b38 02bf
00000180: 9100 303f 67e0 323f 8ca8 53be 9d5d b4bb
00000190: 926d 053e 6a59 efbe 15f4 9e3e 8523 64bf
000001a0: c530 853e be36 8dbe 1289 2dbd 09c0 adbe
000001b0: b43a 0ebf 548c 163e e73c 41be bb3e 82bf
000001c0: 80b8 14bc 2122 5e3e 3205 2abf f1dd ea3e
000001d0: eb5a 21bf 5ed2 d9be d7e1 a7be 93fc fb3e
000001e0: 265b 2a3f eb97 c4be 7ea2 fd3d e8c0 abbe
000001f0: 8940 dfbe fb40 913f 18e4 f9be 99cf 063f
00000200: b43a a53c 9f9e 843e db9f 773e 7e57 febe
00000210: b66e e3be 4c8e 273d 35f8 65bf 0ca5 fd3c
00000220: 8f48 7c3d e732 20bf d44e 1a3d a1c7 df3e
00000230: eb26 30bf d37a 443e 8de4 3bbf e12c 1b3f
00000240: 9280 f73b fc20 a53e 1ddd 723c 244a 393d
00000250: c5cb cc3b aea9 2b3b f2d6 093f 05e2 e2bd
00000260: c1f7 123f ca2d 37bf 07bf 3ebc 6d1c f23e
00000270: 7dba 00bf 7b5d d0bd 2dbf 8bba 563c 613a
00000280: c8e4 1a3e 9ea7 99bd a4b5 ad3d c5fd b53e
00000290: 8c23 07be 5720 fe3d a867 48bf d62a 523d
000002a0: eced 1a3c 3730 f2bd 08d6 d1bd f2c8 0fbe
000002b0: 4bd6 2fbf 7aba 22bf 885b a1be 25af 9d3e
000002c0: 8b30 103f 3f82 ac3d 569c a4bc 17cb b43d
000002d0: 304a 26be 9dde 2d3b 12f6 bd3c 69f3 283d
000002e0: 6016 26bc 77c9 163c a6ce 323f f3ff 5bbe
000002f0: ad0c 8a3e 291d 3abf 798c 543b 564b 03be
00000300: c44c 6b3d 8669 e7bd 4d37 38be c58a d8be
00000310: 946c 4ebf 23ad c2be 8704 123f 7c92 1a3f
00000320: 6cb6 7b3e 25ef 89bd b13b 1b3d 8ec7 7fbe
00000330: 53a8 81bb 75a3 a53c f392 783d 2372 793c
00000340: bdf2 f03e ab8f 01bf c777 4d3e 3fd3 cd3e
00000350: 2920 383e 6770 0bbd 8848 28be 8687 94bb
00000360: 94c8 a0bd 4512 eabc a7cb a03c ddb1 6e3d
00000370: 0791 293f 2f69 8d3e 4ec9 0ebf 652d d4be
00000380: afe7 babe 3279 c1be c323 e4bd 2fdb 7f3c
00000390: e463 e13c 7475 9dbd

deqdss.f.phi_to_list.0.mlp.mlp.0.bias f4 [10]
-0.85849994 -0.6879985 -0.91112876 -1.0114015 -1.2715209 -2.0331256 -0.4170003 -0.3312291
-0.15714817 -0.70030695
00000000: a7c6 5bbf ab20 30bf bc3f 69bf 9b75 81bf
00000010: 32c1 a2bf bb1e 02c0 1081 d5be dc96 a9be
00000020: 73eb 20be 5147 33bf

deqdss.f.phi_to_list.0.mlp.mlp.2.weight f4 [10, 10]
-0.10095771 0.040260013 0.10085745 -0.33312356 -0.36990622 0.24245578 0.86993146 0.49009442
-0.36482474 0.6750065 -0.18217318 -0.06293174 0.27144238 -0.31674123 0.43914312 0.23667635
-0.7579713 0.28474241 0.36669415 0.68526757 0.08199431 0.3788453 0.023733161 -0.18645583
-0.011381343 0.44157442 -0.25397712 -0.3072973 0.1378442 -0.3400263 0.23395342 0.32906625
0.26671198 0.027146654 -0.071412496 0.39374447 -0.6485363 0.07778575 -0.024127007 0.46427652
0.100402825 -0.042736273 0.1519743 -0.2742583 -0.09551378 0.91363627 -0.4989739 0.004774243
0.23358913 -0.34286374 0.051728714 0.33496976 0.307155 0.49449873 0.13934 1.1802695
-0.16206045 -0.18053077 0.30908182 -0.022634652 0.60257006 -0.35838562 -0.37334526 0.18224643
0.10089046 -0.9540208 1.9345751 0.15108268 -0.26564425 0.32761845 -0.041316442 0.36330613
0.7587644 -0.35285434 0.10048511 0.3242362 -0.5735731 0.38392687 -0.16476007 0.028062284
-0.22255753 0.08422015 -0.070516564 0.7319438 -0.3720913 0.19347031 0.5866176 -0.54923445
-0.63313985 0.2615501 0.40624166 -0.19582455 -0.077531226 0.33862466 -0.13210411 -0.0813269
0.35263965 0.39681306 -0.052033607 -0.15999022
00000000: eac2 cebd afe7 243d 5a8e ce3d 2c8f aabe
00000010: 5964 bdbe 5446 783e d4b3 5e3f a8ed fa3e
00000020: 4fca babe 3acd 2c3f 9b8b 3abe 5be2 80bd
00000030: 7ffa 8a3e e82b a2be 5ed7 e03e 495b 723e
00000040: 680a 42bf c2c9 913e 56bf bb3e b26d 2f3f
00000050: a2ec a73d 03f8 c13e 0c6c c23c 47ee 3ebe
00000060: d078 3abc 0b16 e23e 4a09 82be 1256 9dbe
00000070: 0827 0d3e ed17 aebe 7c91 6f3e 5f7b a83e
00000080: 798e 883e a962 de3c b740 92bd e098 c93e
00000090: 7a06 26bf 234e 9f3d 00a6 c5bc a7b5 ed3e
000000a0: ff9f cd3d 3b0c 2fbd 279f 1b3e 956b 8cbe
000000b0: bb9c c3bd 11e4 693f 8279 ffbe 4171 9c3b
000000c0: fd31 6f3e d68b afbe 7de1 533d 2881 ab3e
000000d0: 6c43 9d3e f02e fd3e 25af 0e3e 1213 973f
000000e0: 2df3 25be 0fdd 38be f93f 9e3e 4e6c b9bc
000000f0: 0842 1a3f 527e b7be 1c27 bfbe cf9e 3a3e
00000100: a89f ce3d b53a 74bf 28a0 f73f 6bb5 1a3e
00000110: 8602 88be 9bbd a73e 6e3b 29bd 4303 ba3e
00000120: 623e 423f 53a9 b4be 23cb cd3d 4a02 a63e
00000130: b0d5 12bf 1092 c43e ddb6 28be e0e2 e53c
00000140: 1fe6 63be 9d7b ac3d fd6a 90bd ab60 3b3f
00000150: c082 bebe 151d 463e 922c 163f a19a 0cbf
00000160: 7415 22bf e5e9 853e e8fe cf3e 3b86 48be
00000170: b1c8 9ebd 3660 ad3e 4d46 07be b88e a6bd
00000180: 2f8d b43e 152b cb3e 3121 55bd 7ad4 23be

deqdss.f.phi_to_list.0.mlp.mlp.2.bias f4 [10]
-0.055941343 -0.06101669 -0.03462243 0.009732239 -0.007352656 -0.12833495 -0.14610384 -0.017222166
-0.047210637 0.031587128
00000000: c022 65bd a3ec 79bd 40d0 0dbd f873 1f3c
00000010: 8dee f0bb 3d6a 03be 3f9c 15be 8015 8dbc
00000020: f15f 41bd 8161 013d

deqdss.f.phi_from_list.0.mlp.mlp.0.weight f4 [10, 23]
-0.049136773 0.017683804 0.2053929 -0.063033074 -0.08777874 -0.14981292 0.010872299 0.07832651
0.010636588 0.07568074 -0.043615516 0.23213688 -0.07703133 0.16840573 -0.5718267 0.6769175
-0.014700171 0.10304699 -0.30408728 0.0025850232 0.01438048 -0.022946483 -0.04386211 -0.06570709
-0.10943733 -0.6269042 -0.23955676 0.33555162 0.6715118 0.18637778 0.0042838748 -0.20172584
-0.06514594 0.0016890875 0.07089225 -0.009283603 -0.12497821 0.53892714 -0.3426529 0.053940807
-0.007827994 0.08852471 0.0346867 0.00043556886 0.00070466223 0.10168359 -0.019885544 0.1598249
-0.26011524 -0.1421756 -0.25715488 0.014530617 0.032622214 0.023750454 -0.09580359 0.007954112
0.08625249 0.37115347 0.41953442 0.22142713 -0.21410622 -0.72900045 -0.013306613 -0.09821813
0.021594608 0.2953962 -0.0030234607 0.0060194307 0.08704765 -0.043878563 -0.74862766 0.9466384
-0.36885157 0.82224095 -1.0636731 0.115725376 0.076009445 -0.3858848 0.18640266 0.031202815
-0.1919835 -0.2376503 -0.11549709 -0.9834561 1.2133896 -0.06966435 -0.0842528 0.32172897
-0.01889703 -0.0030269308 -0.002535694 -0.13992776 0.05887293 0.059371345 -1.0243473 0.71396554
-0.26604757 0.9480795 -0.5961402 0.4942111 0.33165973 -0.0790668 0.29473388 -0.47425085
0.35637558 0.50870544 0.5010918 -1.0270967 -0.29026055 -0.37502468 0.049474135 -0.083059244
-0.18263005 -0.16362937 -0.17224863 -0.014701833 -0.058513705 -0.26896185 -0.27020648 0.67968845
0.16555917 0.33075038 -0.062162243 -0.3280139 -0.064341344 -0.01633268 0.06699201 -0.043398507
-0.1344551 0.253806 0.28686386 -0.0044782655 0.016982943 -0.2414999 -0.10669127 0.057924613
0.1174768 -0.33546832 0.017728502 -0.08298286 0.30739206 0.0055555636 0.08366263 -0.3071181
-0.009492207 -0.010925184 0.04391435 0.0898491 -0.061971396 0.018860625 0.25270057 -0.021356178
0.28334668 -1.0922811 -0.017266564 0.10532703 -0.17610373 -0.1449765 0.00909495 -0.014936028
-0.063933685 -0.16674803 -0.6564539 0.04964028 -0.55299675 0.67229813 -0.4686577 0.5596348
0.03737633 -0.5875881 0.10132444 0.0061365226 -0.03696168 -0.34220168 -0.10184685 0.25153574
0.042158015 0.09543847 -0.023615198 -0.03138146 0.01931795 0.1385147 -0.20264715 -0.013297874
0.067313276 -0.058741342 -0.927998 0.044307183 -0.2203922 0.9641229 0.0143886525 0.09596514
0.11295873 0.0722366 -0.029583752 -0.3480718 1.0142629 -0.095762365 -0.03927405 -1.0123414
0.05444494 0.029421467 0.06538844 -0.071284905 0.0019905537 0.0020221686 -0.1382514 -0.019667035
0.08345241 -0.35134193 -0.002477776 -0.19083658 0.45264405 0.0035044528 0.020254971 -0.025448669
-0.069001175 0.051579054 -0.044905275 -0.32613832 -0.015193617 -0.1958499 0.97461647 0.02154461
-0.0981806 0.08855947 0.060161572 -0.010220078 0.016762875 0.065847546
00000000: a443 49bd a0dd 903c 8452 523e 7c17 81bd
00000010: 57c5 b3bd 8f68 19be ba21 323c a669 a03d
00000020: 1545 2e3c 81fe 9a3d 2fa6 32bd 4ab5 6d3e
00000030: 9ac2 9dbd 8d72 2c3e 3c63 12bf 774a 2d3f
00000040: fcd8 70bc 4d0a d33d 54b1 9bbe 7e69 293b
00000050: 1b9c 6b3c 43fa bbbc c1a8 33bd 7091 86bd
00000060: ae20 e0bd cb7c 20bf 5e4e 75be 6ccd ab3e
00000070: 33e8 2b3f d1d9 3e3e bf5f 8c3b 3891 4ebe
00000080: 3c6b 85bd 5f64 dd3a f52f 913d 411a 18bc
00000090: 93f4 ffbd 21f7 093f 3370 afbe 09f1 5c3d
000000a0: fd40 00bc 714c b53d a413 0e3d 105d e439
000000b0: 15b9 383a 7c3f d03d 02e7 a2bc 23a9 233e
000000c0: d32d 85be 7b96 11be cea9 83be d311 6e3c
000000d0: df9e 053d 5090 c23c ac34 c4bd f751 023c
000000e0: 25a5 b03d d407 be3e 37cd d63e cbbd 623e
000000f0: a93e 5bbe c69f 3abf fb03 5abc 9626 c9bd
00000100: 2de7 b03c 2c3e 973e 4125 46bb a53e c53b
00000110: 0a46 b23d 02ba 33bd 10a6 3fbf e556 723f
00000120: 1dda bcbe 627e 523f 7126 88bf 6d01 ed3d
00000130: d7aa 9b3d b192 c5be 57e0 3e3e 0c9d ff3c
00000140: 5397 44be 9a5a 73be bd89 ecbd c7c3 7bbf
00000150: 5a50 9b3f 2fac 8ebd bb8c acbd a9b9 a43e
00000160: f2cd 9abc 795f 46bb e32d 26bb 3949 0fbe
00000170: be24 713d 5e2f 733d d01d 83bf 72c6 363f
00000180: 6337 88be 57b5 723f a59c 18bf 3d09 fd3e
00000190: 4ecf a93e c6ed a1bd 5ce7 963e 02d1 f2be
000001a0: dc76 b63e 853a 023f 8d47 003f e877 83bf
000001b0: 089d 94be 3c03 c0be 64a5 4a3d f71a aabd
000001c0: 5f03 3bbe 758e 27be f261 30be f5df 70bc
000001d0: 11ac 6fbd 5eb5 89be 8158 8abe 1000 2e3f
000001e0: 5888 293e 1d58 a93e d69d 7ebd 70f1 a7be
000001f0: 65c5 83bd 1dcc 85bc 1b33 893d a2c2 31bd
00000200: 99ae 09be dcf2 813e d2df 923e 6abe 92bb
00000210: d01f 8b3c c04b 77be f480 dabd 5c42 6d3d
00000220: ad97 f03d 81c2 abbe 5d3b 913c ebf2 a9bd
00000230: 7e62 9d3e 720b b63b 5057 ab3d 953e 9dbe
00000240: 3485 1bbc 8bff 32bc 89df 333d ce02 b83d
00000250: b8d5 7dbd 9981 9a3c f861 813e 27f3 aebc
00000260: d112 913e decf 8bbf 9c72 8dbc b3b5 d73d
00000270: 8954 34be b874 14be fc02 153c 3eb6 74bc
00000280: aaef 82bd ffbf 2abe 5d0d 28bf 9b53 4b3d
00000290: 3291 0dbf bb1b 2c3f e7f3 efbe 3a44 0f3f
000002a0: ec17 193d 2c6c 16bf 3083 cf3d e214 c93b
000002b0: 2165 17bd 0f35 afbe 1595 d0bd 4bc9 803e
000002c0: e2ad 2c3d 3f75 c33d a974 c1bc d989 00bd
000002d0: ad40 9e3c ccd6 0d3e bc82 4fbe 53df 59bc
000002e0: 8bdb 893d c39a 70bd 4791 6dbf 737b 353d
000002f0: 7eae 61be c2d0 763f 62be 6b3c 5f89 c43d
00000300: e856 e73d c8f0 933d a059 f2bc 7836 b2be
00000310: 5ed3 813f 0f1f c4bd d4dd 20bd 6794 81bf
00000320: a801 5f3d 4a05 f13c 60ea 853d d2fd 91bd
00000330: f373 023b 5c86 043b c691 0dbe c31c a1bc
00000340: 19e9 aa3d 17e3 b3be 2f62 22bb aa6a 43be
00000350: f6c0 e73e f6aa 653b c1ed a53c ba79 d0bc
00000360: 7d50 8dbd 8f44 533d 98ee 37bd 9afb a6be
00000370: a6ee 78bc e08c 48be 7780 793f 527e b03c
00000380: e912 c9bd ab5e b53d fb6b 763d 1d72 27bc
00000390: 4c52 893c 14db 863d

deqdss.f.phi_from_list.0.mlp.mlp.0.bias f4 [10]
0.49399537 1.0221641 0.23500912 0.1802259 -1.055702 1.0645745 0.129347 1.1023474
0.046727303 -0.06354077
00000000: f6ec fc3e 46d6 823f 3ba6 703e 238d 383e
00000010: 3e21 87bf fa43 883f 8a73 043e b819 8d3f
00000020: 2165 3f3d aa21 82bd

deqdss.f.phi_from_list.0.mlp.mlp.2.weight f4 [10, 10]
-0.07058828 0.25184634 -0.24793792 -0.123798355 0.24464977 -0.34155098 0.6301751 0.55145043
1.2222078 -0.48756668 -0.1406123 -0.5569952 -0.6671839 0.0030286033 -0.24243627 -0.3909281
-0.72156566 0.07002722 0.4669917 0.1693594 0.59377277 0.53471786 -0.012167551 -0.084922284
0.6190372 0.16693753 -0.55844855 -0.052974354 0.23601614 0.7312539 -0.108632304 0.12764597
0.48769766 -0.083408445 -0.32040933 -0.12549862 -0.41227365 0.10764402 0.6700489 0.065494426
0.37789592 -0.077183045 -0.27816144 -0.005911547 -0.6303828 -0.27768925 -0.6205729 0.010697897
-0.49973693 0.287797 -0.57303315 0.32232112 0.40710565 -0.26010773 0.7287242 -0.04287885
0.25512585 -0.23115562 -0.32489246 -0.4291922 -0.53861225 0.29062712 -0.2887974 0.033719234
1.0527307 -0.10141099 -0.09888722 0.13001794 0.4133481 -0.07985358 -0.03146873 0.35450917
-0.13884917 0.1408453 0.14418316 0.13473375 0.15959857 0.15641472 0.24688143 0.5291644
-0.33672905 -0.14639874 -0.48728094 0.14504029 0.12972991 -0.09898246 -0.27597868 -0.008590295
-0.092912056 -0.05154274 -0.44628468 -0.22512412 -0.34457257 -0.3853672 0.10583178 0.25563508
0.2606426 0.49194947 -0.5971864 0.48669985
00000000: 9790 90bd 01f2 803e 70e3 7dbe fe89 fdbd
00000010: 7885 7a3e c5df aebe 2853 213f db2b 0d3f
00000020: 4e71 9c3f 57a2 f9be acfc 0fbe 3d97 0ebf
00000030: 90cc 2abf 887b 463b 3741 78be ba27 c8be
00000040: 87b8 38bf 6e6a 8f3d 8919 ef3e 8d6c 2d3e
00000050: 7e01 183f 45e3 083f 685a 47bc bceb adbd
00000060: 3979 1e3f acf1 2a3e 7cf6 0ebf a3fb 58bd
00000070: 37ae 713e 7533 3b3f 9d7a debd a0b5 023e
00000080: 82b3 f93e 0cd2 aabd b10c a4be b682 00be
00000090: 8815 d3be 7874 dc3d 5388 2b3f f121 863d
000000a0: 937b c13e 2512 9ebd 2d6b 8ebe a7b5 c1bb
000000b0: c460 21bf 492d 8ebe dedd 1ebf 3b46 2f3c
000000c0: 85dd ffbe 215a 933e 4db2 12bf 4607 a53e
000000d0: 2770 d03e d72c 85be ab8d 3a3f bca1 2fbd
000000e0: db9f 823e 0fb4 6cbe 4e58 a6be 14bf dbbe
000000f0: 7ee2 09bf 14cd 943e 41dd 93be 2e1d 0a3d
00000100: e1bf 863f 91b0 cfbd 6285 cabd 6c23 053e
00000110: 5da2 d33e 468a a3bd 5be5 00bd 3a82 b53e
00000120: 7a2e 0ebe c039 103e c0a4 133e a5f7 093e
00000130: cf6d 233e 2e2b 203e 7cce 7c3e 5177 073f
00000140: c067 acbe 8de9 15be e37c f9be 7185 143e
00000150: ebd7 043e 51b7 cabd 144d 8dbe 4fbe 0cbc
00000160: ad48 bebd 7b1e 53bd 6d7f e4be f086 66be
00000170: d16b b0be da4e c5be 55be d83d 9ae2 823e
00000180: f272 853e cde0 fb3e 35e1 18bf b930 f93e

deqdss.f.phi_from_list.0.mlp.mlp.2.bias f4 [10]
0.7261912 -1.6934911 1.0740384 -1.4463328 -0.064928785 -0.2473457 1.7801824 -1.811224
0.60889 1.6753998
00000000: abe7 393f 51c4 d8bf 177a 893f 6f21 b9bf
00000010: 62f9 84bd 3148 7dbe 04dd e33f 30d6 e7bf
00000020: 37e0 1b3f 8073 d63f

deqdss.f.alpha.0.weight f4 [1, 32]
-0.26325312 0.08184343 0.4983765 -0.43536597 -0.3169107 0.043101247 0.6525411 -0.39209533
-0.07429172 -0.25677025 0.1246312 -0.1338153 -0.07730503 -0.13943036 0.13876846 0.2815372
0.13005857 0.6681504 -0.465817 0.18090354 0.019298187 -0.9462873 0.21763362 0.10544715
-0.08316274 -0.10085182 -0.090037584 0.17086726 -0.45751685 0.040440995 0.8608177 0.48943862
00000000: 1dc9 86be 879d a73d 342b ff3e 4ae8 debe
00000010: 1f42 a2be ef8a 303d ef0c 273f b8c0 c8be
00000020: 4226 98bd 6477 83be a53e ff3d e106 09be
00000030: 1952 9ebd d5c6 0ebe 5219 0e3e a525 903e
00000040: 132e 053e e80b 2b3f 917f eebe c73e 393e
00000050: 3b17 9e3c e23f 72bf 59db 5e3e adf4 d73d
00000060: 3a51 aabd 668b cebd a065 b8bd d4f7 2e3e
00000070: a63f eabe 75a5 253d 8c5e 5c3f b397 fa3e

deqdss.f.update_list.0.mlp.0.weight f4 [10, 32]
0.2959865 -0.19855988 0.2802602 0.004909035 0.2357319 -0.114472724 0.01805289 -0.20899121
-0.3165521 0.07124035 0.2615737 0.048112772 -0.107978985 0.12412061 -0.026359964 0.029646749
-0.17638226 -0.42514616 0.2906393 -0.14503825 -0.35007155 0.36394528 -0.15969652 0.14568302
-0.19762847 0.15282446 0.14466122 -0.2810202 -0.22904463 0.12951156 0.017391302 -0.24144308
-0.27630907 0.1290306 0.79758376 -0.6103575 -0.16768114 -0.5307927 -0.37340203 0.8230688
0.28458354 0.34862527 0.15182619 0.048889436 0.047640014 0.07751061 0.21477689 0.36055782
-0.28770947 0.34023365 -0.12535135 -0.0059716445 0.6164446 -1.0162826 0.37042287 -0.7318908
-0.62304276 0.16185072 0.95191765 -0.9539856 -0.1627801 0.688811 0.11289714 1.5434723
0.37985206 0.6120204 -1.2060869 0.42629972 -0.32277796 1.2241838 -0.3572399 -0.1695719
0.55023545 0.114607014 0.23120014 -0.20453374 0.06490527 0.078698225 0.33402684 0.58682346
-0.4101428 0.30290642 0.11953607 0.023038698 -0.5428811 -0.34335396 0.7661028 -0.15939692
0.31801623 -0.6544936 0.06318009 0.64567477 -0.43403795 0.71118873 0.13897383 -0.59766126
0.25825897 0.08598348 1.3906441 1.0178977 0.29694188 -0.6009831 -0.5551642 0.033011016
-0.1107987 -0.5599409 0.20238747 0.28593093 -0.11956356 -0.23485923 0.03873135 0.33544976
0.1351761 0.31148055 -0.7681432 0.12902215 0.39110124 -0.34072265 -0.21593717 -0.15046133
-0.55900574 -0.16303265 -0.53608733 0.18405527 -1.1178535 0.48321727 0.007997578 -1.1491612
-0.034789175 0.2635772 0.11489121 0.6070703 -0.26582986 0.9083514 -0.4524611 0.3486309
0.7568155 0.111708574 -0.4053766 -1.418231 0.11469843 -0.124077 -0.016838837 0.22233582
-0.13582136 0.19366091 -0.013270063 0.062426955 1.1460557 -0.21601091 0.10122325 1.1182336
-0.52177364 0.025912961 0.42912054 0.86713433 -0.40798333 -0.19862893 -0.16821757 -0.21165504
-0.15271406 -0.2662196 0.42515615 -0.4212496 -0.61366343 0.32302845 -0.21743117 0.049656603
-0.43165272 0.3767542 0.14938088 -0.053164367 0.13801238 -0.013706416 0.04253161 0.33893332
0.4532463 0.32988518 -0.48939 -0.14925389 0.114899606 -0.3244726 0.8774497 -0.3328627
0.28174427 -0.36609772 0.7977777 -0.60107267 0.053255033 0.450163 -0.30731145 1.2262092
0.25595772 -0.9180416 -0.41220987 -0.30896282 -0.66264707 0.28395462 -0.5436623 -0.09461202
0.82145554 0.32897466 -0.021533905 0.27490067 -0.33394969 -0.443462 -0.049223017 0.048730884
-0.2525113 -0.3044306 -0.16902846 0.43539017 0.0925875 -0.19466038 0.45485014 -0.27197468
0.13533802 -0.41641524 0.86868656 -0.31085196 -0.13850667 0.036403216 0.21091498 1.1799815
-0.75267375 -0.31474823 -0.029500928 -0.039226137 0.5733304 0.7742947 -0.3505757 0.51817656
0.06056378 -0.34504575 0.14123423 0.3740501 -0.16447993 -0.28917557 -0.17494811 -0.118139796
-0.114627905 -0.029965026 -0.01102389 -0.043274716 -0.101634234 0.6152748 -0.6664671 0.7151146
-0.086991616 0.84003264 -0.2344621 0.656537 -0.24722685 -0.3544098 -0.2928917 -0.74483395
00000000: 8b8b 973e 4853 4bbe 447e 8f3e f8db a03b
00000010: b463 713e ad70 eabd a8e3 933c cb01 56be
00000020: 1e13 a2be 76e6 913d fdec 853e e611 453d
00000030: 1624 ddbd f232 fe3d daf0 d7bc bddd f23c
00000040: 8d9d 34be c2ac d9be adce 943e e884 14be
00000050: 943c b3be 0957 ba3e 7c87 23be ee2d 153e
00000060: 1e5f 4abe 047e 1c3e 1222 143e e1e1 8fbe
00000070: ad8a 6abe ae9e 043e 3478 8e3c db3c 77be
00000080: 6278 8dbe 9920 043e 732e 4c3f 6440 1cbf
00000090: 9bb4 2bbe 08e2 07bf 8d2e bfbe a3b4 523f
000000a0: efb4 913e 037f b23e 5378 1b3e 4a40 483d
000000b0: 2d22 433d e2bd 9e3d 79ee 5b3e 099b b83e
000000c0: a84e 93be 1b33 ae3e 1b5c 00be c9ad c3bb
000000d0: 50cf 1d3f 8c15 82bf 11a8 bd3e 325d 3bbf
000000e0: bb7f 1fbf 32bc 253e e0b0 733f 6638 74bf
000000f0: d4af 26be eb55 303f 9e36 e73d 8090 c53f
00000100: f87b c23e 5ead 1c3f 0e61 9abf f543 da3e
00000110: 2743 a5be 0eb2 9c3f 26e8 b6be 42a4 2dbe
00000120: 3bdc 0c3f 15b7 ea3d bbbf 6c3e 4b71 51be
00000130: 0eed 843d 892c a13d 9105 ab3e 103a 163f
00000140: 3dfe d1be 8d16 9b3e 54cf f43d a7bb bc3c
00000150: 41fa 0abf 17cc afbe 501f 443f f238 23be
00000160: 06d3 a23e e48c 27bf 9064 813d f14a 253f
00000170: 393a debe 7710 363f 284f 0e3e 5400 19bf
00000180: 853a 843e 1b18 b03d a000 b23f 794a 823f
00000190: c408 983e 07da 19bf 3e1f 0ebf 8f36 073d
000001a0: 6eea e2bd 4958 0fbf a93e 4f3e 8a65 923e
000001b0: bddd f4bd f07e 70be c4a4 1e3d 12c0 ab3e
000001c0: 9b6b 0a3e 617a 9f3e 08a5 44bf 621e 043e
000001d0: 6c3e c83e 3373 aebe a21e 5dbe 8912 1abe
000001e0: 001b 0fbf 08f2 26be 053d 09bf fc78 3c3e
000001f0: d315 8fbf 4168 f73e 4608 033c b717 93bf
00000200: 187f 0ebd 97f3 863e 154c eb3d f668 1b3f
00000210: da1a 88be b889 683f fba8 e7be c07f b23e
00000220: a9be 413f 77c7 e43d 868d cfbe 9888 b5bf
00000230: 03e7 ea3d 151c febd 9af1 89bc 00ac 633e
00000240: c114 0bbe 0c4f 463e ae6a 59bc 68b3 7f3d
00000250: f4b1 923f f731 5dbe 234e cf3d 4722 8f3f
00000260: f592 05bf 6b47 d43c b0b5 db3e 84fc 5d3f
00000270: 31e3 d0be 6265 4bbe 3a41 2cbe 19bc 58be
00000280: 1361 1cbe ef4d 88be 11ae d93e 07ae d7be
00000290: 0c19 1dbf fc63 a53e 47a6 5ebe b964 4b3d
000002a0: 9601 ddbe ede5 c03e 4df7 183e e1c2 59bd
000002b0: 1e53 0d3e e090 60bc a035 2e3d ab88 ad3e
000002c0: e60f e83e b6e6 a83e 5391 fabe 03d6 18be
000002d0: 7c50 eb3d 4621 a6be 8ba0 603f fb6c aabe
000002e0: c940 903e 2971 bbbe 293b 4c3f e6df 19bf
000002f0: f321 5a3d c47b e63e ed57 9dbe 6cf4 9c3f
00000300: e40c 833e c604 6bbf 2c0d d3be 6030 9ebe
00000310: 3da3 29bf 8062 913e 742d 0bbf f2c3 c1bd
00000320: e94a 523f 5e6f a83e df67 b0bc c8bf 8c3e
00000330: 74fb aabe 740d e3be 139e 49bd 099a 473d
00000340: 2949 81be 54de 9bbe cc15 2dbe 76eb de3e
00000350: 849e bd3d 0d55 47be 1ee2 e83e 4440 8bbe
00000360: 0d96 0a3e 6134 d5be 3e62 5e3f fd27 9fbe
00000370: b1d4 0dbe 8a1b 153d 19fa 573e a209 973f
00000380: 3aaf 40bf ae26 a1be eeab f1bc 96ab 20bd
00000390: c8c5 123f 2d38 463f a87e b3be 38a7 043f
000003a0: ba11 783d d6a9 b0be b59f 103e 7f83 bf3e
000003b0: 6d6d 28be d20e 94be 9925 33be 47f3 f1bd
000003c0: 09c2 eabd 3779 f5bc 8c9d 34bc d440 31bd
000003d0: 9c25 d0bd a682 1d3f 969d 2abf c011 373f
000003e0: a928 b2bd 610c 573f d516 70be cf12 283f
000003f0: 0929 7dbe 3475 b5be e7f5 95be 70ad 3ebf

deqdss.f.update_list.0.mlp.0.bias f4 [10]
-0.10566717 1.9155964 -1.1882564 -1.4354618 0.15399368 1.5736145 0.9887093 -1.7544158
-2.0529785 0.8980562
00000000: 0768 d8bd 4332 f53f c918 98bf 36bd b7bf
00000010: 85b0 1d3e 336c c93f 0d1c 7d3f b290 e0bf
00000020: 0064 03c0 03e7 653f

deqdss.f.update_list.0.mlp.2.weight f4 [10, 10]
0.044184163 -1.2837745 0.5860256 1.1334312 0.22336625 -0.9704464 -0.52569056 0.43583935
0.30167803 -1.2048932 0.4652973 -0.9116204 0.24855667 1.1390834 0.011918628 -0.60020804
-0.14621162 -0.37429705 -0.35504535 -0.734171 0.34830773 0.30409825 -0.24950089 0.42390904
-0.24299742 -0.2679278 0.028120968 -0.632109 -0.23133655 -0.17300844 0.19180964 -0.32211077
0.10132691 0.67604226 -0.10762263 -0.26340514 -0.07724847 0.014061931 -0.5422888 -0.076845445
0.08068757 0.49558455 -0.61392426 0.021609243 -0.22754095 -0.06887812 -0.4634751 0.48494267
0.659672 0.15153813 0.12248587 -0.6390704 0.30900884 -0.08655762 -0.18471885 0.32306942
0.13284107 0.057987645 -0.34491873 0.6404625 0.41776165 1.7296817 -0.97788095 -0.8766397
-0.53228474 1.7970642 1.3580369 -0.3805193 -1.012126 0.78564054 -0.45580867 0.5890488
-0.40282425 -0.106267326 -0.6216818 -0.0940473 0.69590724 0.46237963 -0.298526 0.60795355
0.4101421 -0.14441834 -0.34113863 0.34608772 -0.23534484 0.21365803 -0.27256724 0.3465873
0.3723608 -0.062224887 0.09726674 0.023725562 -0.04953884 0.61271745 -0.54597425 0.50926757
-0.3936624 0.020886628 -0.25023797 -0.4197218
00000000: 74fa 343d b952 a4bf c605 163f 4614 913f
00000010: 1fba 643e 2d6f 78bf a893 06bf 5626 df3e
00000020: 8b75 9a3e f139 9abf 733b ee3e f45f 69bf
00000030: a485 7e3e 7ccd 913f 5946 433c 3ca7 19bf
00000040: 80b8 15be dda3 bfbe 81c8 b5be a1f2 3bbf
00000050: 6455 b23e c4b2 9b3e 297d 7fbe 9b0a d93e
00000060: 51d4 78be d52d 89be f25d e63c e5d1 21bf
00000070: 7de3 6cbe 2029 31be bf69 443e b4eb a4be
00000080: 7c84 cf3d 1b11 2d3f 4169 dcbd 0add 86be
00000090: 7234 9ebd 0364 663c 70d3 0abf 2561 9dbd
000000a0: 863f a53d 42bd fd3e 242a 1dbf de05 b13c
000000b0: 7f00 69be f90f 8dbd 9c4c edbe 684a f83e
000000c0: 44e0 283f d02c 1b3e dfd9 fa3d 1e9a 23bf
000000d0: 6836 9e3e 1f45 b1bd f026 3dbe 5b69 a53e
000000e0: 7d07 083e 7484 6d3d 3099 b0be 5af5 233f
000000f0: dbe4 d53e 3666 dd3f 6856 7abf 766b 60bf
00000100: d043 08bf 3306 e63f 27d4 ad3f 6dd3 c2be
00000110: 588d 81bf bd1f 493f c15f e9be e7cb 163f
00000120: fb3e cebe afa2 d9bd 8a26 1fbf df9b c0bd
00000130: fa26 323f 06bd ec3e 66d8 98be d8a2 1b3f
00000140: 25fe d13e 67e2 13be b9a9 aebe 6932 b13e
00000150: 3dfe 70be 2cc9 5a3e ef8d 8bbe e473 b13e
00000160: 13a6 be3e 86df 7ebd c933 c73d 1c5c c23c
00000170: 3de9 4abd 0ddb 1c3f f8c4 0bbf 5c5f 023f
00000180: 1e8e c9be 6f1a ab3c 311f 80be c7e5 d6be

deqdss.f.update_list.0.mlp.2.bias f4 [10]
-3.578689 -1.8107638 0.05302524 -0.44700468 0.6606066 -0.2705651 4.053159 1.7448148
-0.45762578 0.51426494
00000000: 3e09 65c0 1cc7 e7bf fe30 593d ccdd e4be
00000010: 841d 293f 8287 8abe 7bb3 8140 1756 df3f
00000020: ed4d eabe dea6 033f

exp_avg f4 [10]
0.00012957334 0.00039478706 0.00014532398 5.7384983e-05 -0.00014271672 0.0013873474 0.00014660775 2.864704e-05
0.0001024137 -4.4880117e-06
00000000: 14de 0739 6cfb ce39 1c62 1839 a8b0 7038
00000010: 3aa6 15b9 a7d7 b53a b8ba 1939 0d4f f037
00000020: f0c6 d638 ba97 96b6

exp_avg_sq f4 [10]
5.2546365e-08 1.3124804e-06 5.0332466e-07 4.7282146e-08 1.4305339e-06 3.224778e-05 2.9999802e-07 7.994692e-08
3.822434e-08 2.9885522e-10
00000000: 57af 6133 7c28 b035 351c 0735 4513 4b33
00000010: c500 c035 ca41 0738 6a0f a134 49af ab33
00000020: 1b2c 2433 224c a42f

exp_avg f4 [10]
-7.700513e-05 -0.00037688593 -0.0033294663 -0.00018168362 -0.0024469544 0.0058969487 6.2159386e-05 4.3576136e-05
-0.0006332007 -0.0004216998
00000000: d07d a1b8 c698 c5b9 2d33 5abb 5382 3eb9
00000010: 155d 20bb 313b c13b 915b 8238 85c5 3638
00000020: 61fd 25ba 9717 ddb9

exp_avg_sq f4 [10]
1.8880396e-08 1.2269173e-06 0.00011085467 4.951744e-07 9.6421056e-05 0.0010004271 5.415493e-08 1.8021922e-07
1.5363672e-06 4.4074056e-07
00000000: 6e2e a232 8fac a435 a67a e838 20ec 0435
00000010: a935 ca38 c320 833a fa97 6833 4882 4134
00000020: 2d35 ce35 ec9e ec34

exp_avg f4 [10, 23]
-6e-45 6e-45 6e-45 6e-45 -6e-45 -6e-45 6e-45 6e-45
6e-45 6e-45 6e-45 6e-45 6e-45 6e-45 -6e-45 -6e-45
-6e-45 6e-45 6e-45 6e-45 -6e-45 6e-45 6e-45 6e-45
6e-45 6e-45 6e-45 -6e-45 -6e-45 -6e-45 6e-45 -6e-45
6e-45 6e-45 6e-45 6e-45 6e-45 -6e-45 -6e-45 -6e-45
-6e-45 -6e-45 6e-45 6e-45 6e-45 -6e-45 6e-45 6e-45
-6e-45 6e-45 -6e-45 6e-45 -6e-45 -6e-45 6e-45 6e-45
6e-45 6e-45 -6e-45 6e-45 -6e-45 6e-45 -6e-45 -6e-45
6e-45 6e-45 -6e-45 -6e-45 6e-45 6e-45 6e-45 -6e-45
6e-45 -6e-45 6e-45 -6e-45 -6e-45 6e-45 6e-45 6e-45
6e-45 -6e-45 6e-45 -6e-45 6e-45 -6e-45 -6e-45 6e-45
6e-45 -6e-45 6e-45 6e-45 6e-45 6e-45 -6e-45 6e-45
-6e-45 6e-45 -6e-45 6e-45 6e-45 6e-45 6e-45 6e-45
6e-45 6e-45 -6e-45 -6e-45 -6e-45 -6e-45 6e-45 6e-45
6e-45 6e-45 6e-45 6e-45 6e-45 -6e-45 6e-45 -6e-45
6e-45 -6e-45 -6e-45 -6e-45 6e-45 6e-45 6e-45 -6e-45
6e-45 -6e-45 6e-45 -6e-45 -6e-45 -6e-45 6e-45 -6e-45
6e-45 -6e-45 -6.876908e-06 -1.05469935e-05 -1.0239627e-05 -1.4583866e-05 2.4507524e-05 -8.652494e-06
1.0496534e-05 8.542107e-07 5.1484885e-06 -1.2614719e-05 -6.890731e-06 -1.1170193e-05 -1.2321832e-05 -1.4921367e-05
2.3402372e-05 6.7334645e-07 1.0484245e-05 8.139138e-07 4.7567128e-06 -1.2794005e-05 -1.5495685e-05 -4.204186e-05
5.5906476e-06 6e-45 6e-45 6e-45 6e-45 -6e-45 -6e-45 -6e-45
6e-45 -6e-45 6e-45 6e-45 6e-45 6e-45 6e-45 -6e-45
-6e-45 -6e-45 6e-45 -6e-45 6e-45 -6e-45 6e-45 6e-45
6e-45 6e-45 6e-45 6e-45 -6e-45 -6e-45 -6e-45 6e-45
-6e-45 6e-45 6e-45 6e-45 6e-45 6e-45 -6e-45 -6e-45
-6e-45 6e-45 -6e-45 6e-45 6e-45 6e-45 6e-45 6e-45
6e-45 6e-45 6e-45 -6e-45 -6e-45 -6e-45 6e-45 -6e-45
6e-45 6e-45 6e-45 6e-45 6e-45 -6e-45 -6e-45 -6e-45
6e-45 -6e-45 6e-45 -6e-45 6e-45 -6e-45
00000000: 0400 0080 0400 0000 0400 0000 0400 0000
00000010: 0400 0080 0400 0080 0400 0000 0400 0000
00000020: 0400 0000 0400 0000 0400 0000 0400 0000
00000030: 0400 0000 0400 0000 0400 0080 0400 0080
00000040: 0400 0080 0400 0000 0400 0000 0400 0000
00000050: 0400 0080 0400 0000 0400 0000 0400 0000
00000060: 0400 0000 0400 0000 0400 0000 0400 0080
00000070: 0400 0080 0400 0080 0400 0000 0400 0080
00000080: 0400 0000 0400 0000 0400 0000 0400 0000
00000090: 0400 0000 0400 0080 0400 0080 0400 0080
000000a0: 0400 0080 0400 0080 0400 0000 0400 0000
000000b0: 0400 0000 0400 0080 0400 0000 0400 0000
000000c0: 0400 0080 0400 0000 0400 0080 0400 0000
000000d0: 0400 0080 0400 0080 0400 0000 0400 0000
000000e0: 0400 0000 0400 0000 0400 0080 0400 0000
000000f0: 0400 0080 0400 0000 0400 0080 0400 0080
00000100: 0400 0000 0400 0000 0400 0080 0400 0080
00000110: 0400 0000 0400 0000 0400 0000 0400 0080
00000120: 0400 0000 0400 0080 0400 0000 0400 0080
00000130: 0400 0080 0400 0000 0400 0000 0400 0000
00000140: 0400 0000 0400 0080 0400 0000 0400 0080
00000150: 0400 0000 0400 0080 0400 0080 0400 0000
00000160: 0400 0000 0400 0080 0400 0000 0400 0000
00000170: 0400 0000 0400 0000 0400 0080 0400 0000
00000180: 0400 0080 0400 0000 0400 0080 0400 0000
00000190: 0400 0000 0400 0000 0400 0000 0400 0000
000001a0: 0400 0000 0400 0000 0400 0080 0400 0080
000001b0: 0400 0080 0400 0080 0400 0000 0400 0000
000001c0: 0400 0000 0400 0000 0400 0000 0400 0000
000001d0: 0400 0000 0400 0080 0400 0000 0400 0080
000001e0: 0400 0000 0400 0080 0400 0080 0400 0080
000001f0: 0400 0000 0400 0000 0400 0000 0400 0080
00000200: 0400 0000 0400 0080 0400 0000 0400 0080
00000210: 0400 0080 0400 0080 0400 0000 0400 0080
00000220: 0400 0000 0400 0080 31c0 e6b6 fef2 30b7
00000230: ddca 2bb7 3aad 74b7 8295 cd37 2e2a 11b7
00000240: 451a 3037 ea4c 6535 2ec1 ac36 cea3 53b7
00000250: ee36 e7b6 9d67 3bb7 deb9 4eb7 c956 7ab7
00000260: 3650 c437 04c0 3435 7de5 2f37 bb7b 5a35
00000270: da9b 9f36 d5a5 56b7 bbfc 81b7 1a56 30b8
00000280: 4c97 bb36 0400 0000 0400 0000 0400 0000
00000290: 0400 0000 0400 0080 0400 0080 0400 0080
000002a0: 0400 0000 0400 0080 0400 0000 0400 0000
000002b0: 0400 0000 0400 0000 0400 0000 0400 0080
000002c0: 0400 0080 0400 0080 0400 0000 0400 0080
000002d0: 0400 0000 0400 0080 0400 0000 0400 0000
000002e0: 0400 0000 0400 0000 0400 0000 0400 0000
000002f0: 0400 0080 0400 0080 0400 0080 0400 0000
00000300: 0400 0080 0400 0000 0400 0000 0400 0000
00000310: 0400 0000 0400 0000 0400 0080 0400 0080
00000320: 0400 0080 0400 0000 0400 0080 0400 0000
00000330: 0400 0000 0400 0000 0400 0000 0400 0000
00000340: 0400 0000 0400 0000 0400 0000 0400 0080
00000350: 0400 0080 0400 0080 0400 0000 0400 0080
00000360: 0400 0000 0400 0000 0400 0000 0400 0000
00000370: 0400 0000 0400 0080 0400 0080 0400 0080
00000380: 0400 0000 0400 0080 0400 0000 0400 0080
00000390: 0400 0000 0400 0080

exp_avg_sq f4 [10, 23]
7e-43 1.205e-42 1.739e-42 7e-43 3.904e-42 4.005e-42 7e-43 7e-43
1.103e-42 7e-43 7e-43 1.233e-42 1.867e-42 7e-43 3.841e-42 5.042e-42
7e-43 7e-43 1.085e-42 7e-43 7e-43 1.207e-42 7e-43 7e-43
1.506e-42 1.4197e-41 7e-43 1.3738e-41 5.5e-41 7e-43 7e-43 1.781e-42
7e-43 7e-43 1.71e-42 1.6542e-41 7e-43 1.3161e-41 6.6513e-41 7e-43
7e-43 1.8e-42 7e-43 1.666e-42 2.245e-42 7e-43 7e-43 3.17e-42
1.9083e-41 1.017e-42 1.14946e-40 3.18952e-40 2.595e-42 7e-43 4.956e-42 7e-43
7e-43 3.049e-42 1.7265e-41 1.016e-42 1.12279e-40 2.95646e-40 2.438e-42 7e-43
4.926e-42 7e-43 7.27e-43 7e-43 2.158e-42 7e-43 7e-43 7e-43
7e-43 7e-43 7e-43 7e-43 7e-43 7e-43 7e-43 7e-43
7e-43 7e-43 7e-43 7e-43 7e-43 7e-43 7e-43 7e-43
7e-43 7e-43 7e-43 7e-43 7e-43 2.044e-42 1.094e-42 7e-43
8.712e-42 5.675e-42 7e-43 7e-43 1.659e-42 7e-43 7e-43 2.066e-42
1.036e-42 7e-43 8.771e-42 5.55e-42 7e-43 7e-43 1.65e-42 7e-43
7e-43 9.05e-43 7e-43 5.54e-42 5.315e-42 4.8515e-40 7.0403e-41 3.306699e-39
1.146804e-38 2.4427e-41 1.56e-42 1.4411e-41 1.5875e-41 5.119e-42 5.097e-42 4.61036e-40
6.9579e-41 3.250435e-39 1.1001915e-38 2.2515e-41 1.474e-42 1.4296e-41 1.5846e-41 8.941e-41
1.90109e-40 8.9099e-41 3.1869414e-09 7.8737274e-09 7.564535e-09 1.4310617e-08 3.6999513e-08 7.0471495e-09
7.09413e-09 5.444244e-11 1.1443972e-09 1.1273604e-08 3.1853966e-09 7.891401e-09 7.957163e-09 1.43031e-08
3.6052718e-08 6.758426e-09 7.0998203e-09 5.3864854e-11 1.1264818e-09 1.1283732e-08 9.42864e-08 1.0012385e-07
8.416497e-08 1.0062e-40 3.324243e-39 1.5599701e-37 3.11184e-39 4.8577026e-38 8.317527e-37 1.00718e-39
1.1765e-41 8.97366e-40 1.381194e-39 8.7625e-41 2.932352e-39 1.459366e-37 2.95846e-39 4.9708827e-38
7.594069e-37 9.272e-40 1.134e-41 9.02295e-40 1.377021e-39 6.237858e-39 2.5292804e-38 1.878866e-38
2.787687e-39 1.4732485e-37 5.63106e-36 2.905869e-37 1.2079624e-36 3.7497572e-35 2.2552541e-38 1.63928e-40
1.101815e-38 1.1716184e-37 2.417338e-39 1.3213886e-37 5.3363196e-36 2.8357884e-37 1.24678775e-36 3.485297e-35
2.0566397e-38 1.68086e-40 1.0287493e-38 1.1734585e-37 1.7997417e-37 3.8062863e-37 1.054945e-36 7.63314e-40
3.5771952e-38 1.0268291e-36 5.5706535e-38 1.6747917e-37 7.4825144e-36 6.116345e-39 6.0138e-41 2.003867e-39
2.1548799e-38 8.36886e-40 3.8143781e-38 1.0569307e-36 5.6476016e-38 1.6471961e-37 7.77705e-36 6.52055e-39
6.2372e-41 2.08236e-39 2.1543158e-38 1.1604929e-38 9.556224e-39 1.5572526e-37
00000000: f401 0000 5c03 0000 d904 0000 f401 0000
00000010: e20a 0000 2a0b 0000 f401 0000 f401 0000
00000020: 1303 0000 f401 0000 f401 0000 7003 0000
00000030: 3405 0000 f401 0000 b50a 0000 0e0e 0000
00000040: f401 0000 f401 0000 0603 0000 f401 0000
00000050: f401 0000 5d03 0000 f401 0000 f401 0000
00000060: 3304 0000 9327 0000 f401 0000 4c26 0000
00000070: 5199 0000 f401 0000 f401 0000 f704 0000
00000080: f401 0000 f401 0000 c404 0000 1d2e 0000
00000090: f401 0000 b024 0000 69b9 0000 f401 0000
000000a0: f401 0000 0505 0000 f401 0000 a504 0000
000000b0: 4206 0000 f401 0000 f401 0000 d608 0000
000000c0: 3235 0000 d602 0000 6c40 0100 1c79 0300
000000d0: 3c07 0000 f401 0000 d10d 0000 f401 0000
000000e0: f401 0000 8008 0000 2130 0000 d502 0000
000000f0: fd38 0100 2438 0300 cc06 0000 f401 0000
00000100: bb0d 0000 f401 0000 0702 0000 f401 0000
00000110: 0406 0000 f401 0000 f401 0000 f401 0000
00000120: f401 0000 f401 0000 f401 0000 f401 0000
00000130: f401 0000 f401 0000 f401 0000 f401 0000
00000140: f401 0000 f401 0000 f401 0000 f401 0000
00000150: f401 0000 f401 0000 f401 0000 f401 0000
00000160: f401 0000 f401 0000 f401 0000 f401 0000
00000170: f401 0000 b305 0000 0d03 0000 f401 0000
00000180: 4918 0000 d20f 0000 f401 0000 f401 0000
00000190: a004 0000 f401 0000 f401 0000 c205 0000
000001a0: e302 0000 f401 0000 7318 0000 790f 0000
000001b0: f401 0000 f401 0000 9904 0000 f401 0000
000001c0: f401 0000 8602 0000 f401 0000 710f 0000
000001d0: d10e 0000 6748 0500 41c4 0000 bb01 2400
000001e0: 3be0 7c00 1844 0000 5904 0000 2c28 0000
000001f0: 412c 0000 450e 0000 350e 0000 2e05 0500
00000200: f5c1 0000 e464 2300 ddcc 7700 c33e 0000
00000210: 1c04 0000 da27 0000 2c2c 0000 3df9 0000
00000220: f211 0200 5ff8 0000 4401 5b31 0545 0732
00000230: 2df5 0132 c2da 7532 65e9 1e33 6223 f231
00000240: a1c0 f331 bd70 6f2e e648 9d30 d6ad 4132
00000250: 17e6 5a31 c092 0732 f9b3 0832 b3b9 7532
00000260: 62d8 1a33 be37 e831 aef2 f331 6fe6 6c2e
00000270: 8ed2 9a30 61da 4132 7f7a ca33 ab03 d733
00000280: 2ebe b433 7d18 0100 a332 2400 0655 5402
00000290: 8be2 2100 3f3d 8401 f183 8d03 9cf7 0a00
000002a0: cc20 0000 7ec5 0900 350a 0f00 43f4 0000
000002b0: 34ee 1f00 7ca3 4602 fc36 2000 ff51 8701
000002c0: d634 8103 a818 0a00 9c1f 0000 3bd3 0900
000002d0: 93fe 0e00 9cec 4300 06b5 0901 2497 cc00
000002e0: f05a 1e00 3887 4802 d084 ef04 61c3 c502
000002f0: 2f86 cd03 0d5f 4706 4f93 f500 f7c8 0100
00000300: 1ffa 7700 f178 1f02 8e52 1a00 acdb 3302
00000310: 60fb e204 67fe c002 4421 d403 684f 3906
00000320: bff2 df00 8ed4 0100 5805 7000 10b9 1f02
00000330: d8f7 7402 6e85 0103 567d b303 cf4f 0800
00000340: d3c2 4201 b7b4 ae03 caa5 9701 f9f5 6302
00000350: af22 1f05 e299 4200 a4a7 0000 f7d1 1500
00000360: 49a5 ea00 e61c 0900 acac 4f01 d3d3 b303
00000370: 0abe 9901 6834 6002 4a66 2505 a400 4700
00000380: dead 0000 c6ac 1600 8f95 ea00 d25d 7e00
00000390: dd0e 6800 55f6 5302

exp_avg f4 [10]
6e-45 6e-45 6e-45 6e-45 6e-45 6e-45 -3.3693712e-05 6e-45
6e-45 6e-45
00000000: 0400 0000 0400 0000 0400 0000 0400 0000
00000010: 0400 0000 0400 0000 5952 0db8 0400 0000
00000020: 0400 0000 0400 0000

exp_avg_sq f4 [10]
1.84e-42 8.582e-42 1.9828e-41 7e-43 1.892e-42 7.37466e-40 7.614714e-08 9.839872e-38
5.15378e-36 8.196441e-37
00000000: 2105 0000 ec17 0000 4637 0000 f401 0000
00000010: 4605 0000 c107 0800 5586 a333 f3ee 0502
00000020: b237 db04 8974 8b03

exp_avg f4 [10, 10]
-6e-45 -6e-45 6e-45 6e-45 6e-45 -6e-45 1.2490621e-09 6e-45
6e-45 -6e-45 6e-45 6e-45 -6e-45 -6e-45 6e-45 6e-45
1.2202797e-06 6e-45 6e-45 -6e-45 6e-45 6e-45 -6e-45 -6e-45
-6e-45 6e-45 -1.3864282e-07 6e-45 6e-45 6e-45 6e-45 6e-45
6e-45 6e-45 -6e-45 -6e-45 -1.2740988e-07 -6e-45 -6e-45 6e-45
6e-45 6e-45 -6e-45 6e-45 6e-45 6e-45 3.1796933e-08 6e-45
6e-45 6e-45 6e-45 6e-45 -6e-45 -6e-45 6e-45 6e-45
9.412658e-09 6e-45 6e-45 6e-45 6e-45 -6e-45 -6e-45 -6e-45
6e-45 -6e-45 -3.0325347e-07 -6e-45 -6e-45 6e-45 6e-45 6e-45
-6e-45 -6e-45 6e-45 6e-45 -8.080619e-08 -6e-45 -6e-45 -6e-45
-6e-45 -6e-45 6e-45 6e-45 -6e-45 -6e-45 -1.2730067e-06 -6e-45
-6e-45 -6e-45 -6e-45 -6e-45 -6e-45 -6e-45 6e-45 6e-45
1.8767514e-07 6e-45 6e-45 -6e-45
00000000: 0400 0080 0400 0080 0400 0000 0400 0000
00000010: 0400 0000 0400 0080 77ab ab30 0400 0000
00000020: 0400 0000 0400 0080 0400 0000 0400 0000
00000030: 0400 0080 0400 0080 0400 0000 0400 0000
00000040: 7ec8 a335 0400 0000 0400 0000 0400 0080
00000050: 0400 0000 0400 0000 0400 0080 0400 0080
00000060: 0400 0080 0400 0000 d9dd 14b4 0400 0000
00000070: 0400 0000 0400 0000 0400 0000 0400 0000
00000080: 0400 0000 0400 0000 0400 0080 0400 0080
00000090: 29ce 08b4 0400 0080 0400 0080 0400 0000
000000a0: 0400 0000 0400 0000 0400 0080 0400 0000
000000b0: 0400 0000 0400 0000 1991 0833 0400 0000
000000c0: 0400 0000 0400 0000 0400 0000 0400 0000
000000d0: 0400 0080 0400 0080 0400 0000 0400 0000
000000e0: 4fb5 2132 0400 0000 0400 0000 0400 0000
000000f0: 0400 0000 0400 0080 0400 0080 0400 0080
00000100: 0400 0000 0400 0080 d7ce a2b4 0400 0080
00000110: 0400 0080 0400 0000 0400 0000 0400 0000
00000120: 0400 0080 0400 0080 0400 0000 0400 0000
00000130: ac87 adb3 0400 0080 0400 0080 0400 0080
00000140: 0400 0080 0400 0080 0400 0000 0400 0000
00000150: 0400 0080 0400 0080 2ddc aab5 0400 0080
00000160: 0400 0080 0400 0080 0400 0080 0400 0080
00000170: 0400 0080 0400 0080 0400 0000 0400 0000
00000180: c083 4934 0400 0000 0400 0000 0400 0080

exp_avg_sq f4 [10, 10]
7e-43 7e-43 5.014e-42 7e-43 7e-43 4.7898e-41 2.3821889e-14 2.144662e-39
8.826495e-38 2.211945e-38 1.205e-42 1.299e-42 1.5113e-41 7e-43 7e-43 4.98487e-40
4.0644852e-11 8.38548e-40 2.414076e-39 9.22665e-40 7.6e-43 7e-43 6.8e-42 7e-43
7e-43 8.392e-42 1.3085518e-13 3.37426e-40 1.2893276e-38 1.9903807e-38 1.023e-42 7e-43
1.4646e-41 7e-43 7e-43 1.4598e-40 2.8718694e-13 1.69029e-40 2.90884e-39 7.947188e-39
7e-43 7e-43 3.883e-42 7e-43 7e-43 1.4632e-41 6.512962e-15 1.86643e-40
2.961269e-39 6.4720416e-38 7e-43 7e-43 2.839e-42 7e-43 7e-43 6.2134e-41
1.3961163e-13 5.90902e-40 4.573415e-39 3.2969722e-38 7e-43 7e-43 6.01e-42 7e-43
7e-43 3.1546e-41 2.9953205e-13 1.86324e-40 1.999773e-39 5.4236725e-38 1.281e-42 1.103e-42
1.1653e-41 7e-43 1.42e-42 3.7454e-40 4.1682524e-13 1.983815e-39 5.1558944e-38 4.3766455e-38
2.906e-42 2.808e-42 3.9305e-41 7e-43 3.896e-42 1.110685e-39 5.527862e-11 8.646317e-39
1.8361881e-37 1.098715e-37 7e-43 7e-43 1.1066e-41 7e-43 7e-43 6.9219e-41
2.6140277e-13 2.35372e-40 2.777465e-39 1.361719e-39
00000000: f401 0000 f401 0000 fa0d 0000 f401 0000
00000010: f401 0000 8585 0000 8991 d628 725a 1700
00000020: b147 f001 07dc f000 5c03 0000 9f03 0000
00000030: 212a 0000 f401 0000 f401 0000 946d 0500
00000040: 09c2 322e 8821 0900 7649 1a00 040c 0a00
00000050: 1e02 0000 f401 0000 f512 0000 f401 0000
00000060: f401 0000 6517 0000 7054 132a 9bac 0300
00000070: 3565 8c00 b7bb d800 da02 0000 f401 0000
00000080: d428 0000 f401 0000 f401 0000 ef96 0100
00000090: 00ac a12a 2fd7 0100 aaac 1f00 8789 5600
000000a0: f401 0000 f401 0000 d30a 0000 f401 0000
000000b0: f401 0000 ca28 0000 79a7 ea27 4908 0200
000000c0: d03e 2000 8c2f b001 f401 0000 f401 0000
000000d0: ea07 0000 f401 0000 f401 0000 34ad 0000
000000e0: 5030 1d2a 326f 0600 d2cc 3100 1681 3301
000000f0: f401 0000 f401 0000 c110 0000 f401 0000
00000100: f401 0000 f057 0000 1e9f a82a 6507 0200
00000110: 8ec6 1500 7ba5 9301 9203 0000 1303 0000
00000120: 7c20 0000 f401 0000 f503 0000 1114 0400
00000130: d9a6 ea2a 129a 1500 575b 8c01 8949 6e01
00000140: 1a08 0000 d407 0000 916d 0000 f401 0000
00000150: dc0a 0000 2318 0c00 311e 732e 6a26 5e00
00000160: d1ed 7902 a18c 1502 f401 0000 f401 0000
00000170: d91e 0000 f401 0000 f401 0000 f4c0 0000
00000180: 1c28 932a 1f90 0200 713e 1e00 ebd3 0e00

exp_avg f4 [10]
1.4957681e-06 -0.00032846688 1.8298928e-06 3.940748e-06 1.1297881e-06 4.8743304e-06 8.5396e-06 -2.3981316e-05
0.0003864349 -2.7340782e-06
00000000: 33c2 c835 1436 acb9 a39a f535 c43a 8436
00000010: 39a3 9735 2e8e a336 4d45 0f37 7c2b c9b7
00000020: 6a9a ca39 1b7b 37b6

exp_avg_sq f4 [10]
3.1889688e-10 3.9153606e-06 7.20474e-10 1.2380686e-09 6.9983674e-10 8.836293e-09 6.6550704e-10 4.6007187e-08
5.4256348e-06 1.2527788e-09
00000000: bf50 af2f b160 8336 da0a 4630 ab28 aa30
00000010: a25e 4030 6dce 1732 e5ee 3630 7099 4533
00000020: d90d b636 3c2e ac30
