dirichlet/psignn/results/constant_dataset/ckpt/running_model.pt (torch, 115853 bytes, 66 tensors)

autoencoder.encoder.mlp.mlp.0.weight f4 [10, 1]
000000 08 1c b5 3c 43 af 1c 3c 00 0d 8c bc 17 ea 01 be
       0.022108093 0.00956327 -0.017096043 -0.12686954
000010 2d de a2 bb 65 f2 f6 3d 00 5c cb bc 12 47 81 3b
       -0.004970333 0.12057952 -0.024824142 0.00394524
000020 16 70 4c bc f9 6f ac 3c
       -0.012477895 0.021049486

autoencoder.encoder.mlp.mlp.0.bias f4 [10]
000000 b4 c5 5f bf a3 6f 6b bf a9 87 5e bf fb 76 eb bd
       -0.87411046 -0.9196722 -0.8692575 -0.11497303
000010 4e 74 5b bf 30 ae d6 3d e7 66 a3 c0 12 b7 80 bf
       -0.8572434 0.104824424 -5.1063113 -1.0055869
000020 5f e4 78 bf a9 2b ef bf
       -0.97223467 -1.8685199

autoencoder.encoder.mlp.mlp.2.weight f4 [10, 10]
000000 77 78 52 bd 08 8c 9d 3e 5e e3 19 3f 9c a4 15 ba
       -0.051384415 0.30770898 0.6011256 -0.00057084276
000010 41 f0 a6 bd cd 2b 8c 3a a9 db 4e be 43 56 68 3e
       -0.081512935 0.0010694206 -0.20200981 0.22689156
000020 1f 69 db 3e 73 b9 5c 3e 00 a7 82 3d f6 7a 5c ba
       0.4285364 0.21555118 0.06379509 -0.00084106566
000030 4b bc 03 3e 00 df e2 3b 91 93 52 be 24 2c a1 3b
       0.12864797 0.0069235563 -0.20564105 0.004918592
000040 aa b7 c3 be 43 3c d6 3e d7 b9 a1 3d b0 90 89 3e
       -0.38226062 0.4184285 0.07896774 0.268682
000050 c5 56 7a 3e f2 a2 f3 3e 52 5c be 3e 2e 45 b1 3d
       0.24447162 0.47585255 0.3717981 0.08655773
000060 1a 1a 92 be ab 8d 9e bd 9c 4d ff 3e 2c 57 4b bd
       -0.2853554 -0.07741865 0.498639 -0.04964368
000070 ee 26 bd 3e 54 26 89 3e 18 b5 0c be fd e2 fa be
       0.36943763 0.26787055 -0.13740957 -0.49001303
000080 02 4f 56 3e f0 c5 d6 3a 26 61 30 3f 87 b7 d1 3b
       0.20928577 0.0016385894 0.68898237 0.006400052
000090 bf ad 6f 3e 14 7e 1e 3d e2 89 07 bf 1e a7 9b 3a
       0.23406123 0.038694456 -0.5294477 0.0011875366
0000a0 10 e2 48 bf e2 e9 ba 3c 33 b8 78 be c3 5a 7a 3d
       -0.78469944 0.022816602 -0.24289016 0.061121713
0000b0 18 81 17 be 63 85 cf bd 8d 21 13 3f 2f 92 19 3e
       -0.14795339 -0.101328634 0.5747307 0.14997171
0000c0 09 66 29 3e c2 9a a2 be 9d 6b f8 3e 37 7a 81 3e
       0.1654283 -0.31758696 0.48519602 0.25288555
0000d0 99 dd 4c be b1 a4 85 be 45 10 4f bd 0f d0 8f 3e
       -0.20006408 -0.26102212 -0.050552625 0.28088424
0000e0 21 19 05 bd 98 4a ef be 48 5a 5d 3e 8c 05 d9 3e
       -0.032494668 -0.46736598 0.21616471 0.42387044
0000f0 b2 c5 06 be b0 d1 60 be 5e 9b 0d be 8b e1 00 ba
       -0.13161352 -0.2195499 -0.13828799 -0.0004916421
000100 39 56 c2 3e 80 fb b3 ba 20 17 2e be e9 20 00 be
       0.37956408 -0.0013731569 -0.17001009 -0.12512554
000110 a3 1f 10 bf ed ce df bd 8d c7 92 3e ae 06 11 bf
       -0.56298274 -0.1092814 0.2866787 -0.5665082
000120 01 1c ca 3d c3 c3 e5 39 0c 44 ef be 4b 7c cc ba
       0.098686226 0.00043824138 -0.46731603 -0.0015601007
000130 d1 ea d2 3d ed 72 50 3e 59 f5 fc be 30 1a 4b 3e
       0.10298694 0.2035634 -0.49405935 0.19834208
000140 ef 6e 8b 3c f6 40 72 bf 81 69 5e be 9e c5 8f bb
       0.01702067 -0.9463037 -0.21719934 -0.0043875715
000150 4a 20 01 bf 26 47 71 bc 1c c5 cb bc bd 75 9a 3d
       -0.50439894 -0.014726436 -0.024874263 0.07541988
000160 36 e6 68 bf 66 1c d7 be 4d 7c 99 3e 6c 89 53 bf
       -0.90976274 -0.42013854 0.29977646 -0.82631564
000170 cc 7a a2 be 07 af d1 3a 88 1f 20 3f 5f d1 ca ba
       -0.31734312 0.0015997597 0.6254811 -0.0015473774
000180 d2 d3 98 be 2c 27 b1 3e 5f 88 ec 3d 58 98 54 be
       -0.29849106 0.34600198 0.11549448 -0.2076124

autoencoder.encoder.mlp.mlp.2.bias f4 [10]
000000 fd b7 51 3e 92 a7 a1 3e 69 f2 a2 3e 43 e6 db 3e
       0.20480342 0.31573159 0.3182557 0.42949113
000010 66 7e 27 bf 64 2b ab bc 75 28 9c be c3 88 d4 bc
       -0.65427244 -0.020894714 -0.30499616 -0.02594412
000020 3d d2 e0 bd b2 96 c5 3e
       -0.109776 0.38591534

autoencoder.decoder.mlp.mlp.0.weight f4 [10, 10]
000000 7e f9 8d be 34 5d 82 bf 13 d5 e1 3c d7 b7 06 bf
       -0.2772941 -1.0184693 0.027567422 -0.5262427
000010 c0 6c bd 3f 51 7a 46 3f 12 24 4a bf f4 0b b6 3e
       1.4798813 0.7753039 -0.7896129 0.35555995
000020 4d 5e d0 3e 51 36 cc be 7d 83 08 3e 08 ea 2a be
       0.40696946 -0.3988519 0.13331409 -0.16690838
000030 0a 27 e0 bf fc 81 c6 bd fb 66 ab bf 19 65 9a 40
       -1.7511914 -0.09692761 -1.3390802 4.824841
000040 0e dd 1b be 80 32 c3 3e 03 81 14 be 55 25 bf 3e
       -0.15221044 0.38124466 -0.14502339 0.3733317
000050 25 68 d9 3d 01 9e 8d be 02 70 01 40 49 fc 45 be
       0.10615567 -0.2765961 2.0224614 -0.1933452
000060 32 a0 60 be e7 be 88 c0 a6 c5 73 be 3e a4 2f 3f
       -0.2193611 -4.2733035 -0.23805866 0.6860999
000070 75 6d d4 be 2c ab 3a 3e bd c2 9c 3f 44 1e 5b 3e
       -0.4148976 0.1822936 1.224693 0.21398264
000080 dc 5e 27 bf a6 09 60 bf e2 db 7d 3e 6c a1 32 be
       -0.6537912 -0.8751472 0.2479091 -0.1744439
000090 a9 60 39 bf 7a 39 a5 3e 62 6a c8 3c 67 76 14 3f
       -0.72413117 0.32270414 0.02446479 0.5799317
0000a0 55 6c 8c bd 4a 8f ed 3e 56 29 e1 3f b9 f0 9f 3e
       -0.068566 0.46398383 1.759074 0.31238344
0000b0 ad 76 56 3e ed c6 9f c0 79 98 1e 3e 2c 38 1e bf
       0.20943709 -4.993033 0.15487851 -0.6180446
0000c0 3d db 8f 3e 81 89 19 bd 9a d0 14 bf f3 a4 16 bf
       0.28096953 -0.03748465 -0.581308 -0.5884544
0000d0 bb c6 b7 bf 47 79 b8 bf 78 55 98 3f d5 79 8d 3c
       -1.4357523 -1.4412011 1.1901083 0.017270008
0000e0 19 ef b0 3f 6c bd 50 be f7 56 8e bf 21 77 d4 be
       1.3822967 -0.20384759 -1.112029 -0.41497138
0000f0 ac 88 44 3f 10 3e 57 bf 0f 7c 84 bc 7e 9b 5c bf
       0.76771045 -0.84079075 -0.016172437 -0.8617476
000100 ad b6 b1 be 20 00 00 bc d7 48 c3 be ab c3 90 3e
       -0.34709683 -0.00781253 -0.3814151 0.28274283
000110 0d 7e 01 3e a9 75 1c 3a fd 55 c5 3f 92 d3 5f bf
       0.12645741 0.00059684605 1.5416867 -0.87432206
000120 f5 a0 a9 bf 5c b1 90 3f 50 2f 83 3f f7 d7 d9 3e
       -1.3252245 1.1304126 1.0248814 0.4254758
000130 b6 c7 8e 3f f8 28 e2 bf 51 7f 3a c0 12 49 a5 bf
       1.1154697 -1.7668753 -2.9140208 -1.2912924
000140 8a cb 0c be ff be 8c 3e 31 f3 5f c0 34 59 7b 3e
       -0.13749519 0.27489468 -3.4992182 0.24545747
000150 59 20 d2 bf 19 d6 8f 40 8a 8a 35 3e f9 70 33 bf
       -1.6416122 4.494885 0.1772863 -0.7009426
000160 eb ad 53 be 1a 4b bb be b5 56 11 bf 40 ee 80 bf
       -0.20671813 -0.36580735 -0.5677293 -1.0072708
000170 46 90 34 bf 2c f9 1b bf bd 55 a8 3f 3a c5 23 3f
       -0.70532644 -0.6092708 1.3151165 0.6397282
000180 5e e2 cf 3d 4d e0 52 3f 67 6a 1f bf e3 2b f2 bf
       0.10150598 0.82373506 -0.6227173 -1.8919643

autoencoder.decoder.mlp.mlp.0.bias f4 [10]
000000 71 a1 e2 bf 7a 88 12 bf b1 98 8e bf dc 81 db bf
       -1.7705518 -0.57239497 -1.1140348 -1.7149005
000010 f7 8e 00 bf 4a b5 a3 c0 ff c9 33 c0 48 8f 26 c0
       -0.5021815 -5.11588 -2.8092039 -2.6024952
000020 fb 2d c7 3e ce 5b 51 c0
       0.38902268 -3.2712283

autoencoder.decoder.mlp.mlp.2.weight f4 [1, 10]
000000 19 a9 12 3e b3 2a 27 40 b2 c3 36 c0 78 1c a0 be
       0.14322318 2.6119812 -2.8556943 -0.3127172
000010 3a 22 38 c0 c9 d6 ab be 1d c6 ab bc af e4 47 3f
       -2.877089 -0.33562306 -0.020968491 0.7808332
000020 0f 7a 17 40 25 71 1c 3e
       2.3668249 0.15277536

deqdss.f.laynorm.weight f4 [10]
000000 b0 3f a9 3d 43 45 33 3f 18 43 e4 3f 9f 40 ac 3e
       0.082641006 0.7002756 1.7832975 0.33643052
000010 26 fa b2 3f a5 22 14 40 e5 4a 40 3e 28 d9 03 3e
       1.3982589 2.3146145 0.1877857 0.12875807
000020 65 73 47 3f 35 77 24 3e
       0.77910453 0.16061099

deqdss.f.laynorm.bias f4 [10]
000000 c0 7c af 3e ab 39 86 3f a3 74 98 3e 73 23 0a 3f
       0.34274864 1.0486349 0.29776487 0.5396034
000010 0a b3 4d bf f1 76 f4 bc ad 98 3f bf 94 51 e6 bd
       -0.80351317 -0.029841872 -0.7484234 -0.112460285
000020 da 0c b4 bb 55 cd c2 3e
       -0.005494696 0.3804728

deqdss.f.phi_to_list.0.mlp.mlp.0.weight f4 [10, 23]
000000 f9 86 2c be 61 a0 96 3d cb c5 d5 be 0e 3f 37 3e
       -0.16848363 0.073548086 -0.41752467 0.17895147
000010 e9 26 7a 3e db c2 a5 3e e1 f8 54 3e 5b 19 99 3e
       0.24428906 0.32375225 0.20798065 0.29902157
000020 af 41 e6 be ef fa 92 be b1 7b 30 be 1d e9 04 bf
       -0.44971988 -0.28707072 -0.17234685 -0.519182
000030 08 5c 57 bd 51 db 88 bc a3 9d f5 3d 46 e4 da be
       -0.052578002 -0.01670614 0.119929574 -0.42752284
000040 3b 22 2f 3e a3 39 11 3e 31 89 35 be 47 d3 1c bd
       0.17102902 0.14182143 -0.17728116 -0.038287427
000050 d8 14 87 bc 4d c0 ec 3d c3 47 34 3e 6e 71 ee 3c
       -0.016489431 0.11560116 0.176055 0.029106822
000060 35 f8 55 3c df df 07 bf 74 d4 14 be ee e3 32 be
       0.013059665 -0.53075975 -0.1453417 -0.17469761
000070 ea a6 81 3e 5e f4 76 be 02 4d 84 3e 1f a4 55 3e
       0.25322658 -0.24116656 0.25840002 0.20863388
000080 ed fa 53 3e 80 ad 44 3c c5 37 d6 3c 54 1e a9 3e
       0.2070119 0.012004256 0.02614964 0.3303095
000090 b1 a0 19 bc 6a e5 0e 3f b8 f8 a9 be 17 ac 9e ba
       -0.009376691 0.5581881 -0.3319757 -0.001210573
0000a0 81 17 0d 3e 7a e1 1d bf 9c d0 ba bd 7b 24 ca b9
       0.13778497 -0.61672175 -0.0912182 -0.00038555622
0000b0 01 31 68 bb 82 71 c4 be 50 0e 87 3e 16 c7 31 be
       -0.00354296 -0.3836785 0.26378107 -0.17361102
0000c0 dd 3e 47 3d 44 81 97 bb b0 cc 7d 3e 96 b6 09 3f
       0.048643935 -0.004623564 0.24785113 0.5379423
0000d0 5b 6f bc 3e 3d 2f df bd 32 1f ae be ca 94 a2 be
       0.36803707 -0.10897682 -0.34008175 -0.31754142
0000e0 79 9c 41 bc 98 3e 3e 3d dc e8 bb 3e 19 bb 5f be
       -0.011817091 0.046446413 0.36701095 -0.21848716
0000f0 90 20 73 3f 5f 52 de 3d 97 31 ee 3d 00 26 bf be
       0.9497156 0.10855555 0.11630552 -0.3733368
000100 2b 92 8f be 3a 3f c9 be 60 bb 8d bd 28 0a 2c 3d
       -0.28041205 -0.3930605 -0.069205046 0.042001873
000110 f3 93 c0 be 8b d5 7d 3e 36 1a 02 bf ce 9c 23 3b
       -0.37612876 0.24788491 -0.50821245 0.002496529
000120 96 25 9e 3d 94 ea eb 3d 94 d2 34 be d8 0a 25 3d
       0.07722013 0.115193516 -0.17658454 0.040293545
000130 d4 46 f7 3e 33 c3 82 bd 2f 79 9a bd 1e a3 34 be
       0.48296225 -0.063848875 -0.07542645 -0.1764035
000140 c2 94 75 bf 51 19 e0 3e 2d 58 a7 be 76 a7 99 3e
       -0.9593011 0.43769315 -0.3268446 0.30010575
000150 dd 47 d5 3e 56 ba 3c be d2 dc db 3d db ac 00 3e
       0.4165639 -0.18430457 0.107354775 0.12565939
000160 20 98 0d 3e 14 37 54 bb b4 76 76 3c 0c 19 d9 be
       0.13827562 -0.0032381462 0.0150429495 -0.42401922
000170 39 71 ff 3e f4 c0 3f bf d8 d1 ea 3d 3b 38 02 bf
       0.4989107 -0.749038 0.11465806 -0.5086705
000180 91 00 30 3f 67 e0 32 3f 8c a8 53 be 9d 5d b4 bb
       0.68750864 0.6987366 -0.20669764 -0.0055043236
000190 92 6d 05 3e 6a 59 ef be 15 f4 9e 3e 85 23 64 bf
       0.13030079 -0.46747905 0.31045595 -0.891167
0001a0 c5 30 85 3e be 36 8d be 12 89 2d bd 09 c0 ad be
       0.2601377 -0.27580827 -0.04236705 -0.33935574
0001b0 b4 3a 0e bf 54 8c 16 3e e7 3c 41 be bb 3e 82 bf
       -0.55558324 0.14701968 -0.18870889 -1.0175394
0001c0 80 b8 14 bc 21 22 5e 3e 32 05 2a bf f1 dd ea 3e
       -0.009077191 0.21692707 -0.6641418 0.45872453
0001d0 eb 5a 21 bf 5e d2 d9 be d7 e1 a7 be 93 fc fb 3e
       -0.63029355 -0.4254331 -0.3278949 0.49216136
0001e0 26 5b 2a 3f eb 97 c4 be 7e a2 fd 3d e8 c0 ab be
       0.6654533 -0.38397154 0.123845086 -0.33545613
0001f0 89 40 df be fb 40 91 3f 18 e4 f9 be 99 cf 06 3f
       -0.43603924 1.1347955 -0.48806834 0.5266052
000200 b4 3a a5 3c 9f 9e 84 3e db 9f 77 3e 7e 57 fe be
       0.020169593 0.25902268 0.24182074 -0.49676126
000210 b6 6e e3 be 4c 8e 27 3d 35 f8 65 bf 0c a5 fd 3c
       -0.44420403 0.04090719 -0.8983186 0.03096249
000220 8f 48 7c 3d e7 32 20 bf 10 54 1a 3d fa c7 df 3e
       0.061592635 -0.6257767 0.037677824 0.43707258
000230 4d 26 30 bf f9 7b 44 3e ce e4 3b bf 38 2e 1b 3f
       -0.6880844 0.19187917 -0.73396003 0.606174
000240 68 4d f7 3b ae 20 a5 3e 51 a6 72 3c ef 4d 39 3d
       0.0075470693 0.32251495 0.014810161 0.04524034
000250 7c f6 cc 3b 13 0b 2c 3b 35 d8 09 3f 17 df e2 bd
       0.006254969 0.0026251718 0.5384553 -0.11077707
000260 b5 f7 12 3f b2 2f 37 bf 71 d8 3e bc 6d 1c f2 3e
       0.5740922 -0.7155715 -0.011648283 0.47287312
000270 06 bb 00 bf 44 5b d0 bd 32 75 8b ba cd 7b 5e 3a
       -0.50285375 -0.101736575 -0.0010639785 0.00084870757
000280 82 d1 1a 3e 9e a7 99 bd a4 b5 ad 3d c5 fd b5 3e
       0.15118983 -0.075026736 0.08481911 0.35545173
000290 8c 23 07 be 57 20 fe 3d a8 67 48 bf d6 2a 52 3d
       -0.13197154 0.12408512 -0.78283167 0.051310383
0002a0 ec ed 1a 3c 37 30 f2 bd 08 d6 d1 bd f2 c8 0f be
       0.009456139 -0.118256025 -0.10245901 -0.14041498
0002b0 4b d6 2f bf 7a ba 22 bf 88 5b a1 be 25 af 9d 3e
       -0.6868636 -0.6356579 -0.31515145 0.30797687
0002c0 8b 30 10 3f 3f 82 ac 3d 56 9c a4 bc 17 cb b4 3d
       0.5632407 0.0842328 -0.020094078 0.08827799
0002d0 30 4a 26 be 9d de 2d 3b 12 f6 bd 3c 69 f3 28 3d
       -0.16239238 0.0026530393 0.023188625 0.04124776
0002e0 60 16 26 bc 77 c9 16 3c a6 ce 32 3f f3 ff 5b be
       -0.010137171 0.009203306 0.6984657 -0.21484356
0002f0 ad 0c 8a 3e 29 1d 3a bf 79 8c 54 3b 56 4b 03 be
       0.26962796 -0.72700745 0.003243236 -0.12821707
000300 c4 4c 6b 3d 86 69 e7 bd 4d 37 38 be c5 8a d8 be
       0.057446256 -0.11299424 -0.17989846 -0.42293373
000310 94 6c 4e bf 23 ad c2 be 87 04 12 3f 7c 92 1a 3f
       -0.8063443 -0.38022718 0.5703816 0.6037977
000320 6c b6 7b 3e 25 ef 89 bd b1 3b 1b 3d 8e c7 7f be
       0.24581307 -0.06735066 0.037898723 -0.24978468
000330 53 a8 81 bb 75 a3 a5 3c f3 92 78 3d 23 72 79 3c
       -0.0039568334 0.020219544 0.060687017 0.015224966
000340 bd f2 f0 3e ab 8f 01 bf c7 77 4d 3e 3f d3 cd 3e
       0.47060195 -0.50609845 0.20065223 0.4020023
000350 29 20 38 3e 67 70 0b bd 88 48 28 be 86 87 94 bb
       0.17981018 -0.034042742 -0.16433918 -0.004532757
000360 94 c8 a0 bd 45 12 ea bc a7 cb a0 3c dd b1 6e 3d
       -0.07850757 -0.028573165 0.019628359 0.058275092
000370 07 91 29 3f 2f 69 8d 3e 4e c9 0e bf 65 2d d4 be
       0.6623692 0.2761931 -0.55775917 -0.41440883
000380 af e7 ba be 32 79 c1 be c3 23 e4 bd 2f db 7f 3c
       -0.36504886 -0.37787777 -0.111396335 0.015616222
000390 e4 63 e1 3c 74 75 9d bd
       0.027513452 -0.07688418

deqdss.f.phi_to_list.0.mlp.mlp.0.bias f4 [10]
000000 a7 c6 5b bf ab 20 30 bf bc 3f 69 bf 9b 75 81 bf
       -0.85849994 -0.6879985 -0.91112876 -1.0114015
000010 32 c1 a2 bf bb 1e 02 c0 68 80 d5 be dc 96 a9 be
       -1.2715209 -2.0331256 -0.4169953 -0.3312291
000020 73 eb 20 be 51 47 33 bf
       -0.15714817 -0.70030695

deqdss.f.phi_to_list.0.mlp.mlp.2.weight f4 [10, 10]
000000 ea c2 ce bd af e7 24 3d 5a 8e ce 3d 2c 8f aa be
       -0.10095771 0.040260013 0.10085745 -0.33312356
000010 59 64 bd be 54 46 78 3e 5b b8 5e 3f a8 ed fa 3e
       -0.36990622 0.24245578 0.87000054 0.49009442
000020 4f ca ba be 3a cd 2c 3f 9b 8b 3a be 5b e2 80 bd
       -0.36482474 0.6750065 -0.18217318 -0.06293174
000030 7f fa 8a 3e e8 2b a2 be 5e d7 e0 3e 49 5b 72 3e
       0.27144238 -0.31674123 0.43914312 0.23667635
000040 1f 09 42 bf c2 c9 91 3e 56 bf bb 3e b2 6d 2f 3f
       -0.7579517 0.28474241 0.36669415 0.68526757
000050 a2 ec a7 3d 03 f8 c1 3e 0c 6c c2 3c 47 ee 3e be
       0.08199431 0.3788453 0.023733161 -0.18645583
000060 d0 78 3a bc 0b 16 e2 3e 4f fe 81 be 12 56 9d be
       -0.011381343 0.44157442 -0.25389335 -0.3072973
000070 08 27 0d 3e ed 17 ae be 7c 91 6f 3e 5f 7b a8 3e
       0.1378442 -0.3400263 0.23395342 0.32906625
000080 79 8e 88 3e a9 62 de 3c b7 40 92 bd e0 98 c9 3e
       0.26671198 0.027146654 -0.071412496 0.39374447
000090 e9 05 26 bf 23 4e 9f 3d 00 a6 c5 bc a7 b5 ed 3e
       -0.6485277 0.07778575 -0.024127007 0.46427652
0000a0 ff 9f cd 3d 3b 0c 2f bd 27 9f 1b 3e 95 6b 8c be
       0.100402825 -0.042736273 0.1519743 -0.2742583
0000b0 bb 9c c3 bd 11 e4 69 3f 2d 86 ff be 41 71 9c 3b
       -0.09551378 0.91363627 -0.49907055 0.004774243
0000c0 fd 31 6f 3e d6 8b af be 7d e1 53 3d 28 81 ab 3e
       0.23358913 -0.34286374 0.051728714 0.33496976
0000d0 6c 43 9d 3e f0 2e fd 3e 25 af 0e 3e 12 13 97 3f
       0.307155 0.49449873 0.13934 1.1802695
0000e0 40 e3 25 be 0f dd 38 be f9 3f 9e 3e 4e 6c b9 bc
       -0.1619997 -0.18053077 0.30908182 -0.022634652
0000f0 08 42 1a 3f 52 7e b7 be 1c 27 bf be cf 9e 3a 3e
       0.60257006 -0.35838562 -0.37334526 0.18224643
000100 a8 9f ce 3d b5 3a 74 bf 61 a6 f7 3f 6b b5 1a 3e
       0.10089046 -0.9540208 1.934765 0.15108268
000110 86 02 88 be 9b bd a7 3e 6e 3b 29 bd 43 03 ba 3e
       -0.26564425 0.32761845 -0.041316442 0.36330613
000120 62 3e 42 3f 53 a9 b4 be 23 cb cd 3d 4a 02 a6 3e
       0.7587644 -0.35285434 0.10048511 0.3242362
000130 e1 d2 12 bf 10 92 c4 3e dd b6 28 be e0 e2 e5 3c
       -0.57353026 0.38392687 -0.16476007 0.028062284
000140 1f e6 63 be 9d 7b ac 3d fd 6a 90 bd ab 60 3b 3f
       -0.22255753 0.08422015 -0.070516564 0.7319438
000150 c0 82 be be 15 1d 46 3e 8b 2a 16 3f a1 9a 0c bf
       -0.3720913 0.19347031 0.58658665 -0.54923445
000160 74 15 22 bf e5 e9 85 3e e8 fe cf 3e 3b 86 48 be
       -0.63313985 0.2615501 0.40624166 -0.19582455
000170 b1 c8 9e bd 36 60 ad 3e 4d 46 07 be b8 8e a6 bd
       -0.077531226 0.33862466 -0.13210411 -0.0813269
000180 a0 83 b4 3e 15 2b cb 3e 31 21 55 bd 7a d4 23 be
       0.35256672 0.39681306 -0.052033607 -0.15999022

deqdss.f.phi_to_list.0.mlp.mlp.2.bias f4 [10]
000000 fa 6f 65 bd 3b ef 79 bd e4 f0 0d bd 70 8e 1f 3c
       -0.056014992 -0.061019164 -0.03465356 0.00973855
000010 68 71 f1 bb 10 71 03 be b4 b7 15 be 4c 41 8d bc
       -0.0073682554 -0.12836099 -0.14620858 -0.01724305
000020 fd 5c 41 bd bc 7d 01 3d
       -0.04720782 0.03161405

deqdss.f.phi_from_list.0.mlp.mlp.0.weight f4 [10, 23]
000000 d9 42 49 bd 59 d8 90 3c 4b 58 52 3e 22 1a 81 bd
       -0.049136017 0.017681288 0.20541494 -0.063038126
000010 0d bf b3 bd 14 68 19 be 83 15 32 3c 33 69 a0 3d
       -0.087766744 -0.14981109 0.010869387 0.07832565
000020 e1 f2 2d 3c 08 ff 9a 3d 5f a4 32 bd c6 b5 6d 3e
       0.010616989 0.075681746 -0.043613788 0.23213872
000030 f0 c1 9d bd c2 72 2c 3e 43 63 12 bf 22 4b 2d 3f
       -0.07703006 0.16840652 -0.5718271 0.6769277
000040 3a dc 70 bc 51 06 d3 3d 82 b0 9b be f9 85 29 3b
       -0.014700944 0.10303939 -0.30408102 0.0025867207
000050 f9 93 6b 3c be f8 bb bc f9 a9 33 bd bd 84 86 bd
       0.014378541 -0.022945758 -0.04386327 -0.065682866
000060 dc 10 e0 bd 02 7b 20 bf 36 46 75 be a1 c9 ab 3e
       -0.10940716 -0.62687695 -0.23952565 0.33552268
000070 5b e9 2b 3f c8 d2 3e 3e e1 ad 8b 3b b9 91 4e be
       0.6715295 0.18635094 0.0042626713 -0.20172776
000080 af 5c 85 bd 70 7b e0 3a 4e 3a 91 3d d4 cd 17 bc
       -0.065118186 0.0017126631 0.07091199 -0.009265382
000090 6c e8 ff bd bc f5 09 3f 4a 6e af be 35 d8 5c 3d
       -0.12495503 0.53890586 -0.3426383 0.05391713
0000a0 8e 8a 00 bc 9f 3f b5 3d a3 2a 0e 3d d1 85 e0 39
       -0.007845534 0.088500254 0.03470863 0.0004282431
0000b0 26 6f 38 3a 20 2c d0 3d 00 ec a2 bc c7 a9 23 3e
       0.00070356054 0.10164666 -0.019887924 0.15982734
0000c0 a6 30 85 be 7e 95 11 be bb aa 83 be e5 03 6e 3c
       -0.26013678 -0.14217183 -0.25716195 0.014527296
0000d0 10 a3 05 3d f6 99 c2 3c da 29 c4 bd 3d 4b 02 3c
       0.03262621 0.023755055 -0.09578295 0.0079525085
0000e0 bf a3 b0 3d 4e 07 be 3e f7 cc d6 3e 55 bd 62 3e
       0.08624982 0.37114948 0.4195325 0.22142537
0000f0 30 3e 5b be 44 a0 3a bf b9 fd 59 bc 40 22 c9 bd
       -0.21410441 -0.72900796 -0.013305121 -0.09820986
000100 5e e2 b0 3c d3 3d 97 3e 36 de 45 bb 0e 09 c5 3b
       0.021592315 0.29539356 -0.0030192262 0.0060130423
000110 1a 42 b2 3d e8 88 33 bd 25 a3 3f bf 84 59 72 3f
       0.08704014 -0.043831736 -0.74858314 0.9466784
000120 c3 d4 bc be 6d 7c 52 3f 92 26 88 bf ee e8 ec 3d
       -0.36881074 0.8222111 -1.0636771 0.11567865
000130 50 8a 9b 3d cb 95 c5 be 54 ec 3e 3e 1c 00 00 3d
       0.075947404 -0.38590845 0.1864484 0.031250104
000140 ae 8a 44 be b7 50 73 be 69 72 ec bd 0a c6 7b bf
       -0.19193527 -0.23761259 -0.115452595 -0.9834906
000150 42 50 9b 3f 42 c3 8e bd 37 ae ac bd e2 b5 a4 3e
       1.2133868 -0.06970836 -0.08431666 0.32170016
000160 cb 69 9a bc 22 4c 45 bb fd 04 26 bb e9 2f 0f be
       -0.018849274 -0.0030105193 -0.0025332563 -0.1398312
000170 be 24 71 3d 5e 2f 73 3d d0 1d 83 bf 72 c6 36 3f
       0.05887293 0.059371345 -1.0243473 0.71396554
000180 63 37 88 be 57 b5 72 3f a5 9c 18 bf 3d 09 fd 3e
       -0.26604757 0.9480795 -0.5961402 0.4942111
000190 4e cf a9 3e c6 ed a1 bd 5c e7 96 3e 02 d1 f2 be
       0.33165973 -0.0790668 0.29473388 -0.47425085
0001a0 dc 76 b6 3e 85 3a 02 3f 8d 47 00 3f e8 77 83 bf
       0.35637558 0.50870544 0.5010918 -1.0270967
0001b0 08 9d 94 be 3c 03 c0 be 64 a5 4a 3d f7 1a aa bd
       -0.29026055 -0.37502468 0.049474135 -0.083059244
0001c0 5f 03 3b be 75 8e 27 be f2 61 30 be c9 68 70 bc
       -0.18263005 -0.16362937 -0.17224863 -0.01467342
0001d0 8b 7a 6f bd e3 b0 89 be fb 52 8a be 70 ff 2d 3f
       -0.058466475 -0.26892766 -0.27016434 0.6796789
0001e0 5f 98 29 3e 56 52 a9 3e bc a0 7e bd e3 ed a7 be
       0.16562031 0.3307063 -0.062165007 -0.3279868
0001f0 22 ab 83 bd 90 83 85 bc 47 3b 89 3d f8 c4 31 bd
       -0.06429125 -0.016298085 0.067007594 -0.043400735
000200 16 a6 09 be e3 ec 81 3e ac ec 92 3e ec e4 93 bb
       -0.13442263 0.25376043 0.2869619 -0.0045133736
000210 20 cd 8a 3c 92 48 77 be e5 6f da bd e1 12 6d 3d
       0.016943514 -0.24148777 -0.106658734 0.057879332
000220 32 7a f0 3d 72 b0 ab be 6d 43 91 3c 79 f0 a9 bd
       0.11742057 -0.33533055 0.017732346 -0.0829782
000230 4c 62 9d 3e 70 3d b6 3b 2e 56 ab 3d f1 42 9d be
       0.30739057 0.005561523 0.08366047 -0.30715135
000240 6c 8a 1b bc ad 12 33 bc e4 d1 33 3d 38 04 b8 3d
       -0.009493452 -0.010929746 0.04390134 0.0898518
000250 d1 d0 7d bd 8e 8d 9a 3c b5 62 81 3e 5a e5 ae bc
       -0.06196672 0.018866327 0.2527062 -0.021349598
000260 3b 11 91 3e 78 cf 8b bf 7c 7d 8d bc 99 b4 d7 3d
       0.28333458 -1.092269 -0.01727175 0.10532493
000270 0c 57 34 be eb 72 14 be e0 17 15 3c e2 b9 74 bc
       -0.17611331 -0.14496963 0.0090999305 -0.014936896
000280 66 ec 82 bd be aa 2a be c0 06 28 bf 41 93 4b 3d
       -0.06392746 -0.16666695 -0.656353 0.04970098
000290 8f 8b 0d bf 43 17 2c 3f d3 fa ef be c0 3e 0f 3f
       -0.55291075 0.67222995 -0.4687105 0.55955124
0002a0 c5 c2 18 3d 98 6f 16 bf 01 ae cf 3d cd ce cb 3b
       0.03729512 -0.5876403 0.101406105 0.006219721
0002b0 d9 15 17 bd 64 29 af be aa 6a d0 bd b0 bf 80 3e
       -0.03688607 -0.34211266 -0.101765946 0.25146246
0002c0 87 63 2c 3d 37 49 c3 3d 6d 2c c2 bc 51 cb 00 bd
       0.042087104 0.09535449 -0.023702824 -0.031443898
0002d0 52 ec 9e 3c e0 e3 0d 3e 6f 7a 4f be 09 11 59 bc
       0.019399796 0.13856459 -0.20261548 -0.01324869
0002e0 6f e2 89 3d e6 8c 70 bd 4b 90 6d bf 68 8e 35 3d
       0.06732642 -0.05872812 -0.927983 0.044325262
0002f0 d0 b5 61 be 2b d1 76 3f 1d 8f 6b 3c a9 83 c4 3d
       -0.22042012 0.96412915 0.014377383 0.09595425
000300 f5 44 e7 3d b3 f7 93 3d 24 3e f2 bc 14 34 b2 be
       0.112924494 0.07224979 -0.029570647 -0.34805357
000310 ad d3 81 3f f8 16 c4 bd 7b ee 20 bd 90 94 81 bf
       1.0142723 -0.095746934 -0.039289933 -1.0123463
000320 a7 f4 5e 3d 30 ff f0 3c 5e d4 85 3d fa f6 91 bd
       0.054432537 0.029418558 0.065346465 -0.07127185
000330 02 f7 02 3b 3a 26 04 3b d5 71 0d be 6b 21 a1 bc
       0.0019983654 0.0020164386 -0.13812955 -0.019669255
000340 65 e5 aa 3d b9 df b3 be 48 da 22 bb 4e 66 43 be
       0.08344535 -0.35131624 -0.0024849344 -0.19081995
000350 e1 bc e7 3e bf d6 65 3b ea ec a5 3c 94 af d0 bc
       0.4526129 0.0035070626 0.020254571 -0.025474347
000360 07 52 8d bd b8 43 53 3d 72 ed 37 bd 45 fb a6 be
       -0.06900411 0.051578254 -0.04490418 -0.32613578
000370 27 ee 78 bc 32 8e 48 be e4 81 79 3f e0 80 b0 3c
       -0.015193499 -0.19585493 0.9746382 0.021545827
000380 52 13 c9 bd 21 60 b5 3d 6f 6d 76 3d 56 8a 27 bc
       -0.09818138 0.08856226 0.060162958 -0.010225853
000390 e8 75 89 3c 95 db 86 3d
       0.016779855 0.06584851

deqdss.f.phi_from_list.0.mlp.mlp.0.bias f4 [10]
000000 11 ed fc 3e 07 d7 82 3f c3 a5 70 3e 13 99 38 3e
       0.49399617 1.0221871 0.23500733 0.18027143
000010 3e 21 87 bf 1d 45 88 3f d1 74 04 3e 6d 1c 8d 3f
       -1.055702 1.0646092 0.12935187 1.10243
000020 e9 72 3f 3d 7a 22 82 bd
       0.046740446 -0.06354232

deqdss.f.phi_from_list.0.mlp.mlp.2.weight f4 [10, 10]
000000 5d 92 90 bd 1e f5 80 3e 6f e1 7d be ad 7d fd bd
       -0.070591666 0.2518701 -0.24793027 -0.123774864
000010 78 85 7a 3e 35 de ae be 49 53 21 3f 1c 2a 0d 3f
       0.24464977 -0.34153906 0.6301771 0.5514238
000020 aa 70 9c 3f c9 a1 f9 be 94 fb 0f be 06 98 0e bf
       1.2221882 -0.48756245 -0.14060813 -0.5570072
000030 06 cd 2a bf a5 26 46 3b 37 41 78 be f6 28 c8 be
       -0.6671909 0.0030235436 -0.24243627 -0.3909375
000040 bb b8 38 bf 31 83 8f 3d 79 19 ef 3e 6d 6b 2d 3e
       -0.72156876 0.07007445 0.46699122 0.16935511
000050 cc 01 18 3f bc e1 08 3f a1 65 47 bc a9 f4 ad bd
       0.5937774 0.53469443 -0.012170226 -0.08493931
000060 39 79 1e 3f 3c f1 2a 3e 0c f6 0e bf 82 ed 58 bd
       0.6190372 0.16693586 -0.5584419 -0.05296088
000070 73 b5 71 3e bd 33 3b 3f e3 78 de bd be b2 02 3e
       0.23604374 0.7312582 -0.10862901 0.12763497
000080 5d b2 f9 3e 34 d2 aa bd b1 0c a4 be 7e 86 00 be
       0.48768893 -0.08340874 -0.32040933 -0.12551305
000090 11 18 d3 be 35 8f dc 3d d8 86 2b 3f ab 1d 86 3d
       -0.412293 0.10769502 0.6700263 0.065486275
0000a0 0e 7c c1 3e 45 1d 9e bd dc 6b 8e be 5b 24 c2 bb
       0.3778996 -0.077204265 -0.27816665 -0.005924744
0000b0 c4 60 21 bf 4c 2e 8e be 93 dd 1e bf dc 9a 2f 3c
       -0.6303828 -0.27769697 -0.62056845 0.010718074
0000c0 45 db ff be 06 5a 93 3e 79 b2 12 bf 62 0b a5 3e
       -0.49971977 0.2877962 -0.5730358 0.32235247
0000d0 eb 70 d0 3e 8a 2a 85 be ab 8d 3a 3f e4 98 2f bd
       0.4071115 -0.26009017 0.7287242 -0.042870417
0000e0 85 9f 82 3e 35 b8 6c be a2 5b a6 be e4 be db be
       0.2551233 -0.23117144 -0.32491785 -0.42919075
0000f0 91 e2 09 bf 11 cd 94 3e c2 dc 93 be c8 29 0a 3d
       -0.5386134 0.29062703 -0.28879362 0.033731252
000100 e1 bf 86 3f 2c a8 cf bd 33 7e ca bd 21 1f 05 3e
       1.0527307 -0.10139498 -0.09887352 0.13000156
000110 c2 a4 d3 3e b4 83 a3 bd 29 e2 00 bd d5 7e b5 3e
       0.41336638 -0.07984105 -0.031465683 0.35448328
000120 37 31 0e be 22 32 10 3e c0 a4 13 3e 55 f3 09 3e
       -0.13885961 0.14081624 0.14418316 0.1347173
000130 cc 65 23 3e 4a 38 20 3e 98 d2 7c 3e c9 76 07 3f
       0.15956801 0.15646473 0.2468971 0.52915627
000140 89 66 ac be 76 dc 15 be 56 7c f9 be 40 82 14 3e
       -0.33671978 -0.1463488 -0.48727673 0.14502811
000150 eb d7 04 3e 00 ac ca bd 0e 4b 8d be 82 64 0c bc
       0.12972991 -0.09896088 -0.27596325 -0.008568885
000160 d9 3e be bd ad 03 53 bd 37 80 e4 be 97 98 66 be
       -0.09289331 -0.051517177 -0.4462907 -0.22519146
000170 69 6c b0 be bf 55 c5 be 55 be d8 3d 0a e2 82 3e
       -0.3445771 -0.38541982 0.10583178 0.2556308
000180 35 73 85 3e d9 dd fb 3e c3 db 18 bf cb 31 f9 3e
       0.26064458 0.49192694 -0.5971033 0.48670802

deqdss.f.phi_from_list.0.mlp.mlp.2.bias f4 [10]
000000 c5 e7 39 3f 52 c4 d8 bf 2c 7a 89 3f 79 21 b9 bf
       0.7261928 -1.6934912 1.0740409 -1.446334
000010 1f f9 84 bd 60 48 7d be 1e dd e3 3f 37 d6 e7 bf
       -0.064928286 -0.2473464 1.7801855 -1.8112248
000020 92 e0 1b 3f 7d 73 d6 3f
       0.6088954 1.6753994

deqdss.f.alpha.0.weight f4 [1, 32]
000000 c6 c7 86 be fd a7 a7 3d 72 2d ff 3e c5 e4 de be
       -0.2632429 0.08186338 0.4983936 -0.43533912
000010 60 47 a2 be c1 95 30 3d 97 0c 27 3f b8 c0 c8 be
       -0.3169508 0.043111566 0.65253586 -0.39209533
000020 ae 2a 98 bd 32 74 83 be 0e 39 ff 3d e9 09 09 be
       -0.074300155 -0.25674587 0.12462054 -0.13382687
000030 b7 55 9e bd d5 c6 0e be 52 19 0e 3e b1 22 90 3e
       -0.077311926 -0.13943036 0.13876846 0.28151467
000040 89 27 05 3e e8 0b 2b 3f 03 80 ee be 0c 40 39 3e
       0.13003363 0.6681504 -0.4658204 0.18090838
000050 10 ae 9e 3c 06 4a 72 bf 15 ff 5e 3e 49 b4 d7 3d
       0.019370109 -0.946442 0.21776994 0.105324335
000060 12 46 aa bd 07 bd ce bd 11 2e b8 bd 7f d4 2e 3e
       -0.08314146 -0.10094648 -0.089931615 0.17073248
000070 78 48 ea be 96 22 26 3d 16 5d 5c 3f b3 97 fa 3e
       -0.45758414 0.040560327 0.8607954 0.48943862

deqdss.f.update_list.0.mlp.0.weight f4 [10, 32]
000000 8b 8b 97 3e 48 53 4b be 44 7e 8f 3e f8 db a0 3b
       0.2959865 -0.19855988 0.2802602 0.004909035
000010 b4 63 71 3e ad 70 ea bd a8 e3 93 3c cb 01 56 be
       0.2357319 -0.114472724 0.01805289 -0.20899121
000020 1e 13 a2 be 76 e6 91 3d fd ec 85 3e e6 11 45 3d
       -0.3165521 0.07124035 0.2615737 0.048112772
000030 16 24 dd bd f2 32 fe 3d da f0 d7 bc bd dd f2 3c
       -0.107978985 0.12412061 -0.026359964 0.029646749
000040 8d 9d 34 be c2 ac d9 be ad ce 94 3e e8 84 14 be
       -0.17638226 -0.42514616 0.2906393 -0.14503825
000050 94 3c b3 be 09 57 ba 3e 7c 87 23 be ee 2d 15 3e
       -0.35007155 0.36394528 -0.15969652 0.14568302
000060 1e 5f 4a be 04 7e 1c 3e 12 22 14 3e e1 e1 8f be
       -0.19762847 0.15282446 0.14466122 -0.2810202
000070 ad 8a 6a be ae 9e 04 3e 34 78 8e 3c db 3c 77 be
       -0.22904463 0.12951156 0.017391302 -0.24144308
000080 13 73 8d be c9 2b 04 3e 8e 2d 4c 3f 48 3d 1c bf
       -0.27626857 0.12907328 0.7975701 -0.6103101
000090 99 c5 2b be cf dc 07 bf 7e 33 bf be 43 b2 52 3f
       -0.16774596 -0.530713 -0.37343973 0.82303256
0000a0 0b b1 91 3e 23 84 b2 3e 25 7a 1b 3e 9c 45 48 3d
       0.28455386 0.34866437 0.15183313 0.04889451
0000b0 c5 27 43 3d d0 b8 9e 3d e5 ee 5b 3e d7 9b b8 3e
       0.04764535 0.07750094 0.2147785 0.36056396
0000c0 c3 4d 93 be a6 33 ae 3e 60 5a 00 be d5 d8 c3 bb
       -0.28770265 0.3402378 -0.12534475 -0.005976776
0000d0 da ce 1d 3f a1 15 82 bf 2b a8 bd 3e 0c 5d 3b bf
       0.61643755 -1.0162851 0.37042364 -0.73188853
0000e0 23 80 1f bf d8 bd 25 3e fd b0 73 3f 65 38 74 bf
       -0.62304896 0.16185701 0.9519194 -0.9539855
0000f0 0d b2 26 be e7 55 30 3f 58 34 e7 3d b4 91 c5 3f
       -0.16278858 0.68881077 0.11289281 1.543509
000100 27 77 c2 3e 07 ab 1c 3f 9c 60 9a bf 97 3e da 3e
       0.3798153 0.61198467 -1.2060733 0.42625877
000110 12 3b a5 be 90 af 9c 3f d8 e3 b6 be 59 9a 2d be
       -0.3227163 1.2241077 -0.35720706 -0.1695341
000120 78 de 0c 3f 6d a5 ea 3d 2f be 6c 3e 4b 72 51 be
       0.5502696 0.11457334 0.23119424 -0.20453756
000130 d7 ea 84 3d 9f 31 a1 3d 8e 05 ab 3e c6 39 16 3f
       0.06490105 0.078707926 0.33402675 0.58681905
000140 07 ff d1 be 31 16 9b 3e 48 cc f4 3d 0b c4 bc 3c
       -0.41014883 0.30290368 0.11953026 0.0230427
000150 c3 f9 0a bf cc cb af be 4b 1f 44 3f c2 39 23 be
       -0.54287356 -0.34335172 0.7661025 -0.15940002
000160 f8 d3 a2 3e 58 8d 27 bf d7 64 81 3d df 4a 25 3f
       0.31802344 -0.6545005 0.06318062 0.6456737
000170 06 39 de be 80 10 36 3f 1d 4e 0e 3e 70 02 19 bf
       -0.4340288 0.71118927 0.13896985 -0.59769344
000180 10 38 84 3e 1c 13 b0 3d ed fe b1 3f 15 4a 82 3f
       0.25824022 0.08597395 1.3905922 1.0178858
000190 d1 08 98 3e 92 d4 19 bf 0c 1e 0e bf 50 4c 07 3d
       0.29694226 -0.6008998 -0.555146 0.03303176
0001a0 96 dd e2 bd 63 59 0f bf cf 3d 4f 3e da 64 92 3e
       -0.110774204 -0.5599577 0.20238422 0.2859257
0001b0 3e e0 f4 bd f0 7e 70 be dc 9b 1e 3d 88 bf ab 3e
       -0.11956833 -0.23485923 0.038722858 0.33544564
0001c0 b4 6a 0a 3e 81 79 9f 3e 35 a5 44 bf a4 1f 04 3e
       0.13517267 0.31147388 -0.76814586 0.12902695
0001d0 20 3d c8 3e 66 72 ae be 26 20 5d be 9d 10 1a be
       0.39109135 -0.34071654 -0.21594295 -0.150454
0001e0 c6 1a 0f bf b3 ef 26 be 41 3d 09 bf c0 79 3c 3e
       -0.5590023 -0.16302375 -0.5360909 0.18405819
0001f0 85 15 8f bf 21 67 f7 3e 1e d2 02 3c 35 18 93 bf
       -1.1178442 0.4832087 0.007984666 -1.1491762
000200 4f 3c 0e bd 49 fb 86 3e 16 65 eb 3d 24 6d 1b 3f
       -0.034725484 0.2636359 0.1149389 0.6071341
000210 8f 25 88 be 5b 88 68 3f 5f b1 e7 be 14 79 b2 3e
       -0.26591155 0.9083306 -0.4525251 0.34858
000220 7f ba 41 3f ea e8 e4 3d 08 9b cf be e7 8b b5 bf
       0.75675195 0.11177237 -0.40547967 -1.418332
000230 77 b2 ea 3d 6e e7 fd bd a1 ac 8a bc 3d 91 63 3e
       0.11459821 -0.12397657 -0.016928019 0.22223373
000240 d4 2f 0b be c0 35 46 3e 21 18 5b bc 0e 0e 80 3d
       -0.13592464 0.19356441 -0.013372452 0.06252681
000250 56 b3 92 3f 07 43 5d be 06 95 cf 3d c4 1f 8f 3f
       1.1460979 -0.216076 0.10135846 1.1181569
000260 b4 94 05 bf 23 d7 d3 3c 94 bf db 3e 05 f7 5d 3f
       -0.5218003 0.025859421 0.429196 0.86705047
000270 9d e9 d0 be 8a 54 4b be 54 3f 2c be a0 bb 58 be
       -0.40803233 -0.19856468 -0.16821033 -0.21165323
000280 6d 5f 1c be 16 4d 88 be 7e b5 d9 3e 3a ae d7 be
       -0.15270777 -0.26621312 0.4252128 -0.42125112
000290 e1 17 1d bf 87 5a a5 3e 1f a9 5e be 0b 49 4b 3d
       -0.6136456 0.3229563 -0.21744202 0.049630206
0002a0 46 04 dd be 9d e6 c0 3e 36 f9 18 3e ae bb 59 bd
       -0.43167323 0.37675944 0.14938816 -0.0531575
0002b0 f3 54 0d 3e 4f ae 60 bc 77 3c 2e 3d 90 89 ad 3e
       0.13801937 -0.013713433 0.042538133 0.33894014
0002c0 c2 10 e8 3e a3 e7 a8 3e 76 90 fa be c5 d7 18 be
       0.45325285 0.32989225 -0.4893834 -0.1492606
0002d0 00 51 eb 3d da 20 a6 be 4f a0 60 3f 3d 6d aa be
       0.11490059 -0.3244694 0.8774461 -0.33286467
0002e0 ea 40 90 3e f3 71 bb be e5 3a 4c 3f 8e df 19 bf
       0.28174525 -0.36610374 0.79777366 -0.6010674
0002f0 72 25 5a 3d fa 7b e6 3e 48 55 9d be a1 f4 9c 3f
       0.053258367 0.45016462 -0.30729127 1.2262155
000300 62 0d 83 3e 49 03 6b bf ce 07 d3 be 2a 2f 9e be
       0.25596148 -0.9180189 -0.41216892 -0.30895358
000310 57 a1 29 bf 67 5b 91 3e 5d 2e 0b bf 13 c5 c1 bd
       -0.6626181 0.28390047 -0.5436762 -0.09461417
000320 40 4b 52 3f 1b 71 a8 3e b3 5d b0 bc bd c0 8c 3e
       0.8214607 0.32898793 -0.021529054 0.27490798
000330 8d fa aa be 81 0d e3 be 9c 91 49 bd ab a0 47 3d
       -0.3339428 -0.4434624 -0.04921113 0.04873721
000340 6a 48 81 be 1b dd 9b be 87 14 2d be 86 ea de 3e
       -0.2525056 -0.30442128 -0.16902362 0.43538302
000350 a2 9e bd 3d 5b 53 47 be 74 e1 e8 3e 75 40 8b be
       0.092587724 -0.19465391 0.45484507 -0.27197614
000360 d6 97 0a 3e b5 35 d5 be 28 62 5e 3f e3 27 9f be
       0.13534483 -0.41642538 0.86868525 -0.3108512
000370 10 d0 0d be 01 1c 15 3d a4 f5 57 3e df 09 97 3f
       -0.13848901 0.03640366 0.21089798 1.1799887
000380 3a af 40 bf ae 26 a1 be ee ab f1 bc 96 ab 20 bd
       -0.75267375 -0.31474823 -0.029500928 -0.039226137
000390 c8 c5 12 3f 2d 38 46 3f a8 7e b3 be 38 a7 04 3f
       0.5733304 0.7742947 -0.3505757 0.51817656
0003a0 ba 11 78 3d d6 a9 b0 be b5 9f 10 3e 7f 83 bf 3e
       0.06056378 -0.34504575 0.14123423 0.3740501
0003b0 6d 6d 28 be d2 0e 94 be 99 25 33 be 47 f3 f1 bd
       -0.16447993 -0.28917557 -0.17494811 -0.118139796
0003c0 09 c2 ea bd 37 79 f5 bc 8c 9d 34 bc d4 40 31 bd
       -0.114627905 -0.029965026 -0.01102389 -0.043274716
0003d0 9c 25 d0 bd a6 82 1d 3f 96 9d 2a bf c0 11 37 3f
       -0.101634234 0.6152748 -0.6664671 0.7151146
0003e0 a9 28 b2 bd 61 0c 57 3f d5 16 70 be cf 12 28 3f
       -0.086991616 0.84003264 -0.2344621 0.656537
0003f0 09 29 7d be 34 75 b5 be e7 f5 95 be 70 ad 3e bf
       -0.24722685 -0.3544098 -0.2928917 -0.74483395

deqdss.f.update_list.0.mlp.0.bias f4 [10]
000000 07 68 d8 bd 8b 33 f5 3f ed 19 98 bf c5 bd b7 bf
       -0.10566717 1.9156355 -1.1882912 -1.4354788
000010 89 c1 1d 3e 6d 6c c9 3f 89 1c 7d 3f b2 90 e0 bf
       0.15405859 1.5736214 0.98871666 -1.7544158
000020 00 64 03 c0 1b e7 65 3f
       -2.0529785 0.89805764

deqdss.f.update_list.0.mlp.2.weight f4 [10, 10]
000000 74 fa 34 3d d6 53 a4 bf f3 03 16 3f 7c 13 91 3f
       0.044184163 -1.2838085 0.58599776 1.1334071
000010 00 bf 64 3e a2 71 78 bf 12 96 06 bf 56 26 df 3e
       0.22338486 -0.9704839 -0.5257274 0.43583935
000020 8b 75 9a 3e 2c 3b 9a bf 73 3b ee 3e c8 60 69 bf
       0.30167803 -1.2049308 0.4652973 -0.911633
000030 65 84 7e 3e ff cc 91 3f c8 83 43 3c 28 a8 19 bf
       0.24855192 1.1390685 0.011933275 -0.6002221
000040 24 bb 15 be dd a3 bf be 81 c8 b5 be 5c f3 3b bf
       -0.1462217 -0.37429705 -0.35504535 -0.7341821
000050 64 55 b2 3e 83 b5 9b 3e 8c 7a 7f be a8 09 d9 3e
       0.34830773 0.3041192 -0.24949092 0.4239018
000060 75 cb 78 be ef 2a 89 be 7a 88 e6 3c e5 d1 21 bf
       -0.24296363 -0.26790568 0.028141249 -0.632109
000070 7d e3 6c be e6 23 31 be bf 69 44 3e c3 ef a4 be
       -0.23133655 -0.1729885 0.19180964 -0.32214174
000080 14 7c cf 3d 02 0f 2d 3f 91 58 dc bd fd e0 86 be
       0.10131088 0.67601025 -0.1075908 -0.26343527
000090 f0 42 9e bd 03 64 66 3c 70 d3 0a bf 6a 6f 9d bd
       -0.07727611 0.014061931 -0.5422888 -0.07687266
0000a0 86 3f a5 3d 1d be fd 3e 9d 29 1d bf bb 21 b1 3c
       0.08068757 0.49559107 -0.6139162 0.02162253
0000b0 26 fe 68 be 3a 0d 8d bd a2 4b ed be 68 4a f8 3e
       -0.227532 -0.068872884 -0.46346766 0.48494267
0000c0 44 e0 28 3f 22 2f 1b 3e df d9 fa 3d f1 99 23 bf
       0.659672 0.15154698 0.12248587 -0.6390677
0000d0 56 36 9e 3e 79 3e b1 bd 80 2f 3d be be 69 a5 3e
       0.3090083 -0.08654494 -0.18475151 0.32307237
0000e0 22 08 08 3e 74 84 6d 3d 30 99 b0 be 64 f5 23 3f
       0.13284352 0.057987645 -0.34491873 0.6404631
0000f0 db e4 d5 3e 7e 65 dd 3f f4 56 7a bf 18 6f 60 bf
       0.41776165 1.7296598 -0.9778893 -0.87669516
000100 45 3d 08 bf ad 05 e6 3f 9e d3 ad 3f 6d d3 c2 be
       -0.5321849 1.7970482 1.3580205 -0.3805193
000110 58 8d 81 bf dd 1e 49 3f c1 5f e9 be 8e c9 16 3f
       -1.012126 0.7856272 -0.45580867 0.589013
000120 c6 40 ce be 6f ba d9 bd 41 21 1f bf 6e ab c0 bd
       -0.40283793 -0.106312625 -0.62160116 -0.094076976
000130 08 25 32 3f 06 bd ec 3e 66 d8 98 be 13 a1 1b 3f
       0.69587755 0.46237963 -0.298526 0.60792655
000140 25 fe d1 3e 95 e7 13 be 83 a9 ae be 3d 31 b1 3e
       0.4101421 -0.1444381 -0.34113702 0.34607878
000150 c4 f4 70 be ce c3 5a 3e a1 90 8b be e4 73 b1 3e
       -0.2353087 0.21363756 -0.2725878 0.3465873
000160 13 a6 be 3e 28 f3 7e bd c9 33 c7 3d 9f 15 c2 3c
       0.3723608 -0.06224361 0.09726674 0.02369195
000170 df fd 4a bd a1 d8 1c 3f 6b c1 0b bf 47 5d 02 3f
       -0.049558517 0.6126805 -0.5459201 0.5092358
000180 11 92 c9 be 6f 1a ab 3c 31 1f 80 be a4 e9 d6 be
       -0.39369252 0.020886628 -0.25023797 -0.4197513

deqdss.f.update_list.0.mlp.2.bias f4 [10]
000000 4f 0a 65 c0 f3 c7 e7 bf 98 5b 59 3d 9c e2 e4 be
       -3.5787542 -1.8107895 0.053065866 -0.4470414
000010 82 20 29 3f 58 89 8a be 7e b3 81 40 e0 55 df 3f
       0.6606523 -0.2705791 4.0531607 1.7448082
000020 9b 51 ea be e5 a4 03 3f
       -0.45765385 0.51423484

exp_avg f4 [10]
000000 21 77 12 39 bd d4 39 3a b0 85 8b b9 d7 7e 0f 39
       0.00013968024 0.00070888904 -0.0002661175 0.00013684794
000010 89 b6 8b b9 5c 68 f9 ba e7 b5 80 39 be f1 0c 39
       -0.00026648145 -0.0019028294 0.0002454959 0.00013441496
000020 bf 21 a0 37 49 da ea b6
       1.90892e-05 -6.999155e-06

exp_avg_sq f4 [10]
000000 14 85 60 33 5a 6b aa 35 7c 9f 08 35 30 3a 4c 33
       5.2275098e-08 1.269723e-06 5.089603e-07 4.7550373e-08
000010 eb c0 c2 35 ee 62 09 38 78 5e a7 34 18 b6 aa 33
       1.4510273e-06 3.275548e-05 3.117491e-07 7.9493645e-08
000020 16 8e 26 33 2d 2d bc 2f
       3.8779113e-08 3.42291e-10

exp_avg f4 [10]
000000 e5 89 ae b8 f0 76 33 ba 09 d5 9f b9 90 05 e4 b9
       -8.3226514e-05 -0.0006846031 -0.00030485567 -0.00043491693
000010 b7 2a 7a 39 35 18 a1 ba f6 5e da 38 66 8d 55 39
       0.0002385777 -0.001229054 0.00010412738 0.00020365938
000020 c4 76 66 b8 8d 77 7e b9
       -5.4946882e-05 -0.00024267864

exp_avg_sq f4 [10]
000000 2b 49 a1 32 74 6e 9f 35 ab d0 e7 38 14 b9 05 35
       1.877614e-08 1.1878569e-06 0.00011053806 4.9815685e-07
000010 e4 eb c9 38 45 25 83 3a e9 cf 71 33 0d 43 40 34
       9.628365e-05 0.0010005614 5.630128e-08 1.7905786e-07
000020 de c5 d0 35 30 3e f2 34
       1.5554795e-06 4.512126e-07

exp_avg f4 [10, 23]
000000 04 00 00 80 04 00 00 00 04 00 00 00 04 00 00 00
       -6e-45 6e-45 6e-45 6e-45
000010 04 00 00 80 04 00 00 80 04 00 00 00 04 00 00 00
       -6e-45 -6e-45 6e-45 6e-45
000020 04 00 00 00 04 00 00 00 04 00 00 00 04 00 00 00
       6e-45 6e-45 6e-45 6e-45
000030 04 00 00 00 04 00 00 00 04 00 00 80 04 00 00 80
       6e-45 6e-45 -6e-45 -6e-45
000040 04 00 00 80 04 00 00 00 04 00 00 00 04 00 00 00
       -6e-45 6e-45 6e-45 6e-45
000050 04 00 00 80 04 00 00 00 04 00 00 00 04 00 00 00
       -6e-45 6e-45 6e-45 6e-45
000060 04 00 00 00 04 00 00 00 04 00 00 00 04 00 00 80
       6e-45 6e-45 6e-45 -6e-45
000070 04 00 00 80 04 00 00 80 04 00 00 00 04 00 00 80
       -6e-45 -6e-45 6e-45 -6e-45
000080 04 00 00 00 04 00 00 00 04 00 00 00 04 00 00 00
       6e-45 6e-45 6e-45 6e-45
000090 04 00 00 00 04 00 00 80 04 00 00 80 04 00 00 80
       6e-45 -6e-45 -6e-45 -6e-45
0000a0 04 00 00 80 04 00 00 80 04 00 00 00 04 00 00 00
       -6e-45 -6e-45 6e-45 6e-45
0000b0 04 00 00 00 04 00 00 80 04 00 00 00 04 00 00 00
       6e-45 -6e-45 6e-45 6e-45
0000c0 04 00 00 80 04 00 00 00 04 00 00 80 04 00 00 00
       -6e-45 6e-45 -6e-45 6e-45
0000d0 04 00 00 80 04 00 00 80 04 00 00 00 04 00 00 00
       -6e-45 -6e-45 6e-45 6e-45
0000e0 04 00 00 00 04 00 00 00 04 00 00 80 04 00 00 00
       6e-45 6e-45 -6e-45 6e-45
0000f0 04 00 00 80 04 00 00 00 04 00 00 80 04 00 00 80
       -6e-45 6e-45 -6e-45 -6e-45
000100 04 00 00 00 04 00 00 00 04 00 00 80 04 00 00 80
       6e-45 6e-45 -6e-45 -6e-45
000110 04 00 00 00 04 00 00 00 04 00 00 00 04 00 00 80
       6e-45 6e-45 6e-45 -6e-45
000120 04 00 00 00 04 00 00 80 04 00 00 00 04 00 00 80
       6e-45 -6e-45 6e-45 -6e-45
000130 04 00 00 80 04 00 00 00 04 00 00 00 04 00 00 00
       -6e-45 6e-45 6e-45 6e-45
000140 04 00 00 00 04 00 00 80 04 00 00 00 04 00 00 80
       6e-45 -6e-45 6e-45 -6e-45
000150 04 00 00 00 04 00 00 80 04 00 00 80 04 00 00 00
       6e-45 -6e-45 -6e-45 6e-45
000160 04 00 00 00 04 00 00 80 04 00 00 00 04 00 00 00
       6e-45 -6e-45 6e-45 6e-45
000170 04 00 00 00 04 00 00 00 04 00 00 80 04 00 00 00
       6e-45 6e-45 -6e-45 6e-45
000180 04 00 00 80 04 00 00 00 04 00 00 80 04 00 00 00
       -6e-45 6e-45 -6e-45 6e-45
000190 04 00 00 00 04 00 00 00 04 00 00 00 04 00 00 00
       6e-45 6e-45 6e-45 6e-45
0001a0 04 00 00 00 04 00 00 00 04 00 00 80 04 00 00 80
       6e-45 6e-45 -6e-45 -6e-45
0001b0 04 00 00 80 04 00 00 80 04 00 00 00 04 00 00 00
       -6e-45 -6e-45 6e-45 6e-45
0001c0 04 00 00 00 04 00 00 00 04 00 00 00 04 00 00 00
       6e-45 6e-45 6e-45 6e-45
0001d0 04 00 00 00 04 00 00 80 04 00 00 00 04 00 00 80
       6e-45 -6e-45 6e-45 -6e-45
0001e0 04 00 00 00 04 00 00 80 04 00 00 80 04 00 00 80
       6e-45 -6e-45 -6e-45 -6e-45
0001f0 04 00 00 00 04 00 00 00 04 00 00 00 04 00 00 80
       6e-45 6e-45 6e-45 -6e-45
000200 04 00 00 00 04 00 00 80 04 00 00 00 04 00 00 80
       6e-45 -6e-45 6e-45 -6e-45
000210 04 00 00 80 04 00 00 80 04 00 00 00 04 00 00 80
       -6e-45 -6e-45 6e-45 -6e-45
000220 04 00 00 00 04 00 00 80 e2 49 97 37 93 00 fc 37
       6e-45 -6e-45 1.8035007e-05 3.0041008e-05
000230 59 60 50 38 5c 34 1f 38 75 81 23 b8 ae 9e ac b8
       4.9680795e-05 3.7957318e-05 -3.8982795e-05 -8.2311555e-05
000240 74 f5 e1 b7 88 ec 18 b6 94 45 0a b7 74 02 13 38
       -2.6936388e-05 -2.2787444e-06 -8.241641e-06 3.5049816e-05
000250 7a 20 97 37 34 39 f6 37 27 7a 49 38 6a a2 1d 38
       1.8015726e-05 2.9352123e-05 4.8035898e-05 3.7582977e-05
000260 03 02 27 b8 99 d6 99 b8 ed 7b e2 b7 04 6c 1b b6
       -3.9817776e-05 -7.3355804e-05 -2.6999007e-05 -2.3159673e-06
000270 27 9f 13 b7 6f 43 12 38 a9 b3 93 b8 e0 0a 0e 38
       -8.798938e-06 3.4871915e-05 -7.0429705e-05 3.3865566e-05
000280 3f b3 17 39 04 00 00 00 04 00 00 00 04 00 00 00
       0.00014467257 6e-45 6e-45 6e-45
000290 04 00 00 00 04 00 00 80 04 00 00 80 04 00 00 80
       6e-45 -6e-45 -6e-45 -6e-45
0002a0 04 00 00 00 04 00 00 80 04 00 00 00 04 00 00 00
       6e-45 -6e-45 6e-45 6e-45
0002b0 04 00 00 00 04 00 00 00 04 00 00 00 04 00 00 80
       6e-45 6e-45 6e-45 -6e-45
0002c0 04 00 00 80 04 00 00 80 04 00 00 00 04 00 00 80
       -6e-45 -6e-45 6e-45 -6e-45
0002d0 04 00 00 00 04 00 00 80 04 00 00 00 04 00 00 00
       6e-45 -6e-45 6e-45 6e-45
0002e0 04 00 00 00 04 00 00 00 04 00 00 00 04 00 00 00
       6e-45 6e-45 6e-45 6e-45
0002f0 04 00 00 80 04 00 00 80 04 00 00 80 04 00 00 00
       -6e-45 -6e-45 -6e-45 6e-45
000300 04 00 00 80 04 00 00 00 04 00 00 00 04 00 00 00
       -6e-45 6e-45 6e-45 6e-45
000310 04 00 00 00 04 00 00 00 04 00 00 80 04 00 00 80
       6e-45 6e-45 -6e-45 -6e-45
000320 04 00 00 80 04 00 00 00 04 00 00 80 04 00 00 00
       -6e-45 6e-45 -6e-45 6e-45
000330 04 00 00 00 04 00 00 00 04 00 00 00 04 00 00 00
       6e-45 6e-45 6e-45 6e-45
000340 04 00 00 00 04 00 00 00 04 00 00 00 04 00 00 80
       6e-45 6e-45 6e-45 -6e-45
000350 04 00 00 80 04 00 00 80 04 00 00 00 04 00 00 80
       -6e-45 -6e-45 6e-45 -6e-45
000360 04 00 00 00 04 00 00 00 04 00 00 00 04 00 00 00
       6e-45 6e-45 6e-45 6e-45
000370 04 00 00 00 04 00 00 80 04 00 00 80 04 00 00 80
       6e-45 -6e-45 -6e-45 -6e-45
000380 04 00 00 00 04 00 00 80 04 00 00 00 04 00 00 80
       6e-45 -6e-45 6e-45 -6e-45
000390 04 00 00 00 04 00 00 80
       6e-45 -6e-45

exp_avg_sq f4 [10, 23]
000000 f4 01 00 00 f4 01 00 00 f4 01 00 00 f4 01 00 00
       7e-43 7e-43 7e-43 7e-43
000010 f7 03 00 00 0f 04 00 00 f4 01 00 00 f4 01 00 00
       1.422e-42 1.456e-42 7e-43 7e-43
000020 f4 01 00 00 f4 01 00 00 f4 01 00 00 f4 01 00 00
       7e-43 7e-43 7e-43 7e-43
000030 f4 01 00 00 f4 01 00 00 e8 03 00 00 fd 04 00 00
       7e-43 7e-43 1.401e-42 1.79e-42
000040 f4 01 00 00 f4 01 00 00 f4 01 00 00 f4 01 00 00
       7e-43 7e-43 7e-43 7e-43
000050 f4 01 00 00 f4 01 00 00 f4 01 00 00 f4 01 00 00
       7e-43 7e-43 7e-43 7e-43
000060 f4 01 00 00 6a 0d 00 00 f4 01 00 00 08 0d 00 00
       7e-43 4.812e-42 7e-43 4.675e-42
000070 0b 34 00 00 f4 01 00 00 f4 01 00 00 f4 01 00 00
       1.867e-41 7e-43 7e-43 7e-43
000080 f4 01 00 00 f4 01 00 00 f4 01 00 00 b9 0f 00 00
       7e-43 7e-43 7e-43 5.64e-42
000090 f4 01 00 00 89 0c 00 00 f3 3e 00 00 f4 01 00 00
       7e-43 4.497e-42 2.2582e-41 7e-43
0000a0 f4 01 00 00 f4 01 00 00 f4 01 00 00 f4 01 00 00
       7e-43 7e-43 7e-43 7e-43
0000b0 f4 01 00 00 f4 01 00 00 f4 01 00 00 21 03 00 00
       7e-43 7e-43 7e-43 1.122e-42
0000c0 0f 12 00 00 f4 01 00 00 c3 6c 00 00 c5 2d 01 00
       6.478e-42 7e-43 3.9016e-41 1.08255e-40
0000d0 54 02 00 00 f4 01 00 00 ee 04 00 00 f4 01 00 00
       8.35e-43 7e-43 1.768e-42 7e-43
0000e0 f4 01 00 00 f6 02 00 00 65 10 00 00 f4 01 00 00
       7e-43 1.062e-42 5.881e-42 7e-43
0000f0 40 6a 00 00 ba 17 01 00 1c 02 00 00 f4 01 00 00
       3.8115e-41 1.00347e-40 7.57e-43 7e-43
000100 e9 04 00 00 f4 01 00 00 f4 01 00 00 f4 01 00 00
       1.761e-42 7e-43 7e-43 7e-43
000110 f4 01 00 00 f4 01 00 00 f4 01 00 00 f4 01 00 00
       7e-43 7e-43 7e-43 7e-43
000120 f4 01 00 00 f4 01 00 00 f4 01 00 00 f4 01 00 00
       7e-43 7e-43 7e-43 7e-43
000130 f4 01 00 00 f4 01 00 00 f4 01 00 00 f4 01 00 00
       7e-43 7e-43 7e-43 7e-43
000140 f4 01 00 00 f4 01 00 00 f4 01 00 00 f4 01 00 00
       7e-43 7e-43 7e-43 7e-43
000150 f4 01 00 00 f4 01 00 00 f4 01 00 00 f4 01 00 00
       7e-43 7e-43 7e-43 7e-43
000160 f4 01 00 00 f4 01 00 00 f4 01 00 00 f4 01 00 00
       7e-43 7e-43 7e-43 7e-43
000170 f4 01 00 00 f4 01 00 00 f4 01 00 00 f4 01 00 00
       7e-43 7e-43 7e-43 7e-43
000180 60 08 00 00 6e 05 00 00 f4 01 00 00 f4 01 00 00
       3.004e-42 1.948e-42 7e-43 7e-43
000190 f4 01 00 00 f4 01 00 00 f4 01 00 00 f4 01 00 00
       7e-43 7e-43 7e-43 7e-43
0001a0 f4 01 00 00 f4 01 00 00 6e 08 00 00 58 05 00 00
       7e-43 7e-43 3.024e-42 1.917e-42
0001b0 f4 01 00 00 f4 01 00 00 f4 01 00 00 f4 01 00 00
       7e-43 7e-43 7e-43 7e-43
0001c0 f4 01 00 00 f4 01 00 00 f4 01 00 00 56 05 00 00
       7e-43 7e-43 7e-43 1.914e-42
0001d0 2e 05 00 00 07 cb 01 00 a1 42 00 00 ab 38 0c 00
       1.858e-42 1.64668e-40 2.3902e-41 1.122355e-39
0001e0 93 62 2a 00 2a 17 00 00 f4 01 00 00 98 0d 00 00
       3.892453e-39 8.31e-42 7e-43 4.877e-42
0001f0 16 0f 00 00 0b 05 00 00 07 05 00 00 34 b4 01 00
       5.412e-42 1.809e-42 1.803e-42 1.5648e-40
000200 d8 41 00 00 6e 03 0c 00 84 a9 28 00 48 15 00 00
       2.362e-41 1.103256e-39 3.73423e-39 7.634e-42
000210 f4 01 00 00 7f 0d 00 00 0e 0f 00 00 99 54 00 00
       7e-43 4.841e-42 5.4e-42 3.0348e-41
000220 e1 b3 00 00 4c 54 00 00 10 ca 68 31 e5 f5 0f 32
       6.4528e-41 3.024e-41 3.3875303e-09 8.3796055e-09
000230 a3 9f 0b 32 cf 64 82 32 56 68 27 33 0a 77 fa 31
       8.127162e-09 1.5179834e-08 3.897761e-08 7.289491e-09
000240 b9 68 01 32 24 10 80 2e fd df a5 30 81 8d 4d 32
       7.532599e-09 5.823633e-11 1.2068991e-09 1.1964745e-08
000250 e4 aa 68 31 e7 16 10 32 15 49 12 32 09 41 82 32
       3.3857583e-09 8.387111e-09 8.514935e-09 1.5163566e-08
000260 18 3b 23 33 36 61 f0 31 bd 82 01 32 dc 91 7d 2e
       3.800514e-08 6.995971e-09 7.538515e-09 5.765509e-11
000270 03 94 a3 30 0b ab 4d 32 7b 69 d1 33 a7 6f f3 33
       1.1901878e-09 1.1971461e-08 9.751508e-08 1.1335879e-07
000280 53 75 c4 33 34 5f 00 00 46 49 0c 00 59 23 90 01
       9.1483024e-08 3.4152e-41 1.128312e-39 5.2947967e-38
000290 4e 80 0b 00 7c 89 b3 00 78 21 c0 02 f9 b8 03 00
       1.056218e-39 1.6487874e-38 2.8231075e-37 3.41862e-40
0002a0 39 0b 00 00 08 51 03 00 d3 1a 05 00 eb 52 00 00
       4.026e-42 3.04575e-40 4.688e-40 2.9745e-41
0002b0 7a d6 0a 00 b3 d7 86 01 32 ef 0a 00 45 b8 b7 00
       9.95295e-40 4.953334e-38 1.004162e-39 1.6871999e-38
0002c0 56 6b af 02 48 6d 03 00 c7 0a 00 00 ba 55 03 00
       2.5775547e-37 3.14709e-40 3.866e-42 3.0626e-40
0002d0 dd 16 05 00 fb 0d 17 00 f4 7a 5d 00 03 71 45 00
       4.67379e-40 2.117232e-39 8.584808e-39 6.37719e-39
0002e0 92 4d 0a 00 0e 20 88 01 e9 97 22 04 8a 3f 06 02
       9.46182e-40 5.0004506e-38 1.9112762e-36 9.863e-38
0002f0 4d 84 0b 03 10 57 87 05 41 5a 53 00 1b 9b 00 00
       4.1000303e-37 1.272732e-35 7.654723e-39 5.5641e-41
000300 ea b8 28 00 b4 82 58 01 2d ef 08 00 02 30 74 01
       3.739755e-39 3.976671e-38 8.20484e-40 4.4850166e-38
000310 4c 15 1a 04 c1 02 03 02 4c 00 10 03 f4 96 7b 05
       1.8112392e-36 9.62515e-38 4.2318137e-37 1.1829689e-35
000320 0f 03 4c 00 0a 9f 00 00 93 05 26 00 d3 d9 58 01
       6.980595e-39 5.7052e-41 3.491749e-39 3.9829216e-38
000330 e9 4a a6 01 be d8 2f 02 ff af f3 02 3b d2 02 00
       6.108626e-38 1.2919171e-37 3.5806658e-37 2.59087e-40
000340 e3 35 84 00 5e 31 ed 02 17 e3 cd 00 5c bf 9a 01
       1.2141616e-38 3.4852356e-37 1.8907741e-38 5.6845253e-38
000350 95 0d 58 04 0c 9b 16 00 e5 38 00 00 f1 67 07 00
       2.5396915e-36 2.076001e-39 2.041e-41 6.80136e-40
000360 8b a4 4f 00 d6 17 03 00 f6 f9 8c 00 4b 25 f4 02
       7.314031e-39 2.84057e-40 1.2946639e-38 3.5873983e-37
000370 24 bb d0 00 9f 32 98 01 bb 8e 60 04 7c 19 18 00
       1.9168917e-38 5.590862e-38 2.6396612e-36 2.213194e-39
000380 09 3b 00 00 43 b2 07 00 2b 9f 4f 00 0a e4 2a 00
       2.1178e-41 7.06797e-40 7.312103e-39 3.938896e-39
000390 ad 51 23 00 1d e3 8f 01
       3.243542e-39 5.2855795e-38

exp_avg f4 [10]
000000 04 00 00 00 04 00 00 00 04 00 00 00 04 00 00 00
       6e-45 6e-45 6e-45 6e-45
000010 04 00 00 00 04 00 00 00 11 9a b8 38 04 00 00 00
       6e-45 6e-45 8.802501e-05 6e-45
000020 04 00 00 00 04 00 00 00
       6e-45 6e-45

exp_avg_sq f4 [10]
000000 f4 01 00 00 42 08 00 00 cd 12 00 00 f4 01 00 00
       7e-43 2.962e-42 6.744e-42 7e-43
000010 f4 01 00 00 bc b9 02 00 fd 35 ad 33 49 d6 35 01
       7e-43 2.503e-40 8.065761e-08 3.3398192e-38
000020 ed cf 14 04 74 55 bd 02
       1.7492791e-36 2.7820102e-37
