dirichlet/dsgps/results/constant_dataset/70_ite_gamma_0_9/ckpt/best_model.pt (torch, 52173 bytes, 69 tensors)

laynorm.weight f4 [10]
000000 00 00 80 3f 00 00 80 3f 00 00 80 3f 00 00 80 3f
       1.0 1.0 1.0 1.0
000010 00 00 80 3f 00 00 80 3f 00 00 80 3f 00 00 80 3f
       1.0 1.0 1.0 1.0
000020 00 00 80 3f 00 00 80 3f
       1.0 1.0

laynorm.bias f4 [10]
000000 00 00 00 00 00 00 00 00 00 00 00 00 00 00 00 00
       0.0 0.0 0.0 0.0
000010 00 00 00 00 00 00 00 00 00 00 00 00 00 00 00 00
       0.0 0.0 0.0 0.0
000020 00 00 00 00 00 00 00 00
       0.0 0.0

phi_to.mlp.mlp.0.weight f4 [10, 23]
000000 62 f2 82 be a3 49 c7 3e 38 9f 40 3d 61 ff 76 3d
       -0.25575548 0.38923368 0.047026843 0.060302142
000010 12 dc 82 be f6 4d 6e 3d 86 3c 47 bd c5 1c 15 3e
       -0.25558525 0.058179818 -0.048641704 0.14561756
000020 71 e6 70 3d c6 1b cd 3d 88 ff 71 bd 0d 2a 00 3c
       0.058813516 0.10015063 -0.059081584 0.007822526
000030 63 d3 45 be 9d 12 95 3e 49 75 90 be 81 f8 9f bd
       -0.19318919 0.29115763 -0.2821448 -0.0781107
000040 e9 e6 50 be 05 2d 97 be 5e 82 07 3e a3 48 39 3e
       -0.20400585 -0.29526535 0.13233325 0.18094115
000050 ce df 9c 3e ca bf 2f 3e ac 74 77 3e 41 57 cd be
       0.306395 0.17163005 0.241656 -0.40105632
000060 a3 e0 d9 be 39 b0 87 3d 94 ef 24 3e c8 50 7f 3e
       -0.42554197 0.06625409 0.16107017 0.2493316
000070 a7 4a a7 be 40 98 b7 3e 36 57 b6 be 39 bb 5e 3e
       -0.32674143 0.35858345 -0.35613412 0.21751107
000080 eb 5d a6 bd 93 e1 48 be 95 24 86 3e cb f0 ad 3e
       -0.08123382 -0.196173 0.26199785 0.33972773
000090 d6 67 96 3e dd 71 77 3e fc 80 b5 bc f6 fe 3a be
       0.29376096 0.24164529 -0.022156231 -0.18261322
0000a0 f1 43 f0 3c 43 4c f3 3e b4 3e 6f 3e d4 06 82 be
       0.029329272 0.4751912 0.23363763 -0.25395834
0000b0 79 8d ed bc 8f 8d a5 3d 4d 7b fe bc 06 c6 bc bd
       -0.028998123 0.08083641 -0.031064654 -0.092174575
0000c0 70 3a c4 be 80 1a df 3d 24 ac e6 3d a8 3b ed be
       -0.38325834 0.10893726 0.11263302 -0.46334577
0000d0 5c ad 23 3c 2e c9 f9 3d ee a3 35 3e 00 18 32 3e
       0.009990063 0.12196575 0.17738315 0.17391968
0000e0 49 4c 60 be 6a 65 42 3e af 38 c1 3d 20 05 9f bd
       -0.219041 0.18983999 0.0943464 -0.077646494
0000f0 f6 cd 31 bd 18 c4 be 3e 9a 4e cb bb c5 49 13 be
       -0.04340931 0.37258983 -0.0062044384 -0.1438361
000100 97 4a 55 3d 98 19 99 be 2e e3 45 be 3f 2d 40 3c
       0.052073088 -0.2990234 -0.19324943 0.0117295375
000110 56 54 f4 3d 9e 14 63 3e 74 b4 87 bd b1 3e a3 3d
       0.11930148 0.22175834 -0.066262156 0.07970942
000120 93 82 11 3e 43 43 80 be c2 72 09 be 43 5c 84 3e
       0.14209966 -0.25051317 -0.13422683 0.2585164
000130 bd b0 83 3c 79 5b 3c 3e 6b 16 0b be d7 df 3f bd
       0.016075486 0.18394269 -0.1358277 -0.04684433
000140 d9 50 e8 3e e1 56 1a bf 18 b4 61 bd 6d 71 59 3e
       0.45374182 -0.60288817 -0.05510339 0.21234675
000150 41 77 7b be b1 00 13 3e 73 8e bb 3e 0f e8 dd be
       -0.2455721 0.14355733 0.36632118 -0.4334111
000160 35 2c 2c 3e 0e 62 c1 3d 79 71 d5 bc 63 b1 3b bd
       0.16813739 0.094425306 -0.026055085 -0.045823466
000170 c9 34 98 be 55 1d ce be a6 9e b5 be 15 46 80 be
       -0.29727772 -0.40256754 -0.35472602 -0.25053468
000180 1b f7 3b bd fa 1d 9d be 38 fd 8d be 2f 76 12 3d
       -0.045889955 -0.30686933 -0.27732253 0.03575724
000190 fd 8c c1 be 7c e8 d3 3d ab a2 16 3e 5e c5 9d 3e
       -0.37802878 0.10347077 0.1471049 0.30814642
0001a0 09 f2 d7 3d 99 a7 c5 be 90 f8 c6 be 3f a1 ba be
       0.105442114 -0.3860443 -0.38861513 -0.36451146
0001b0 37 87 93 3c cb b4 07 3e 7d 5a 0a 3e b6 4b c7 3d
       0.018008811 0.13252561 0.13511081 0.097312376
0001c0 dd 84 1c 3e 78 53 0d 3d d3 4a 52 bd 5c 15 2b be
       0.15285058 0.03450343 -0.05134089 -0.16707367
0001d0 47 f5 75 3d de 32 fe 3c e5 af 45 be e7 54 ae 3e
       0.060048368 0.031030115 -0.1930538 0.3404915
0001e0 cb 2e bc be 26 ad 5d 3e 2a 58 b2 be 4a 7e 3d 3c
       -0.3675445 0.21648082 -0.3483289 0.011565754
0001f0 4a ea ab 3e bf c1 b6 3e f9 49 7e 3d 11 00 0d be
       0.33577186 0.35694692 0.062082265 -0.13769557
000200 e7 09 fd bd 74 54 af bd 78 62 ed 3d 54 bb 23 be
       -0.12355404 -0.0856103 0.11591047 -0.15989429
000210 f0 2c 3c 3e e8 90 37 3e bf 9f 30 be d1 08 81 be
       0.18376517 0.17926371 -0.17248438 -0.2520204
000220 ba bf 8e be b0 8c 79 be 50 f0 86 be 9e 7c c0 3e
       -0.2788065 -0.24370074 -0.2635522 0.37595075
000230 c5 ea cc be 06 2e 20 3e b2 de b5 3e 4f ce a0 be
       -0.40022865 0.15642557 0.35521466 -0.314074
000240 94 83 74 be 23 50 64 3d 05 44 a8 3e d1 fc 6e 3e
       -0.23878318 0.055740487 0.32864395 0.2333863
000250 24 40 55 3e c5 00 a3 3e 39 d1 f2 bd 4f 44 b4 3e
       0.20825249 0.31836525 -0.11856312 0.35208365
000260 b0 45 69 be a1 0e 38 3e 07 77 4c be 72 c7 71 bd
       -0.2278049 0.1797433 -0.1996728 -0.059028096
000270 b8 e6 a3 3e 4b 9a 7a 3e 83 e6 84 3e ad cf e3 3d
       0.32011962 0.2447292 0.25957116 0.111235954
000280 89 78 ed 3d 6f f4 27 3e 8b bf bf 3e 4f a8 82 3e
       0.11595256 0.16401838 0.37450823 0.25519034
000290 8b b2 fc be 24 56 14 3e df 2b 10 3f 7d 0f 6d 3d
       -0.49354967 0.14485985 0.5631694 0.0578761
0002a0 3a 63 b1 be 86 bf 16 3e 06 2a 53 be 06 ae b7 be
       -0.34646016 0.14721498 -0.206215 -0.35874957
0002b0 24 cd 1b 3e 38 a4 6f 3e 81 c6 d5 bc 11 65 7b bb
       0.15214974 0.23402488 -0.02609563 -0.00383598
0002c0 7d 6a ec 3e 94 38 9a 3e 7e 8a ab be 8a 68 b2 bd
       0.46174994 0.3012129 -0.335041 -0.087113455
0002d0 33 93 6d bd a5 39 da 3b 80 a4 51 3c 86 bf 7e be
       -0.05800171 0.006659704 0.0127955675 -0.24877748
0002e0 0b 82 d1 3d 4f 7b cb bc db e4 85 bd fa f2 ff 3d
       0.10229882 -0.024839072 -0.06537791 0.12497516
0002f0 80 db b8 be eb 66 97 3e fe df 32 be c5 87 0d 3e
       -0.36104965 0.29570708 -0.17468259 0.13821323
000300 5c 75 52 bd 07 ac b1 be b3 32 d8 be 36 60 c1 be
       -0.051381454 -0.3470156 -0.4222618 -0.37768716
000310 47 82 ee 3e 5a 62 b4 3e 47 df f1 3c 17 18 21 be
       0.4658377 0.35231286 0.029525412 -0.15731846
000320 eb a4 63 3d 25 c0 98 be 99 f8 9a 3d d2 bb 65 3d
       0.0555772 -0.29834095 0.075669475 0.056087323
000330 d0 66 9d 3e 99 cb da 3d 2f 76 1a be 8d ca 0a 3e
       0.30742502 0.106833644 -0.15084146 0.1355383
000340 f1 ba 05 3f 2f ef ae be c6 a7 2a 3e d9 e7 e3 be
       0.52238375 -0.34166858 0.16665563 -0.44512823
000350 00 2b d5 3e 61 3e 68 be b2 f1 c2 3c 41 7f b2 3e
       0.4163437 -0.22680046 0.02379689 0.34862712
000360 b2 27 72 be 86 6f ac 3e 8a be a7 be e0 f3 62 3e
       -0.23647955 0.33678836 -0.32762557 0.22163343
000370 77 ff 54 3d 00 9c 20 be f2 8e 5a 3e 5c fa 8e 3e
       0.052001443 -0.1568451 0.21343592 0.27925384
000380 71 8d 00 be 61 e5 b8 be 9e 74 0f be a8 aa 47 3e
       -0.12553956 -0.36112502 -0.1400933 0.19498694
000390 cb c2 b4 bd 0a e7 19 be
       -0.08826216 -0.1502954

phi_to.mlp.mlp.0.bias f4 [10]
000000 53 e2 5f bc fe ae 92 bd 9a b5 4b bd 7e 6d 1e 3e
       -0.0136648 -0.07162283 -0.049733736 0.15471455
000010 7b dd be 3d c2 2b 9f 3c 03 91 28 bd 1b 75 1f 3d
       0.09319588 0.019430045 -0.04115392 0.03893004
000020 22 8d eb 3c 5f 5a 8c 3d
       0.02875382 0.068531744

phi_to.mlp.mlp.2.weight f4 [10, 10]
000000 73 90 98 3b 09 15 d9 3e 6d c9 f2 be 2f 80 c2 be
       0.0046558916 0.4239886 -0.474193 -0.3798842
000010 83 9c c5 3d 8e 9c 30 3e 0d 0c a1 3e 62 75 6b 3e
       0.09648993 0.17247221 0.31454507 0.22993997
000020 51 9f 01 bf 26 66 de bd 78 1b 1f be 93 ef cc 3d
       -0.5063372 -0.10859327 -0.15537822 0.10006633
000030 27 75 04 be 2a 77 1a 3f 60 cd b9 bd 16 2c a5 be
       -0.12935315 0.6033808 -0.09072375 -0.32260197
000040 9e 05 2a 3e 9d cf f8 bd 9d 83 92 be 4a 8e b5 be
       0.16603705 -0.12148974 -0.28616038 -0.3546012
000050 5a 87 c3 be da 19 d1 3c 0b 75 da 3d 0e da b5 be
       -0.38189203 0.025525022 0.106668554 -0.35517925
000060 f9 ea 4d 3e cc c7 3c be 99 36 1a bf 45 9c b6 bd
       0.20109166 -0.18435591 -0.6023956 -0.08916525
000070 b6 85 af 3e 50 80 b1 be 74 04 24 3e 84 d3 27 be
       0.342817 -0.34668207 0.16017324 -0.1638928
000080 b1 b3 7f bd cd 1c e7 3d 39 8e c1 be 70 a9 9b be
       -0.062427226 0.1128479 -0.3780382 -0.30402708
000090 a5 a1 7c bd 85 b6 17 3e 36 ab fd 3e 21 13 d0 3e
       -0.061677594 0.1481572 0.49544686 0.40639594
0000a0 db 53 ab 3e 25 26 89 be ff ee dc be 42 cd 4e be
       0.33462414 -0.26786914 -0.4315109 -0.20195487
0000b0 b1 c1 c9 be f1 8e 65 3d 61 3b f7 bd c3 b1 65 bd
       -0.39405587 0.056044523 -0.120718725 -0.05607773
0000c0 a2 50 36 bd e4 5a 1b 3e 41 bf 68 3e 21 54 ea 3e
       -0.04451049 0.15171391 0.22729208 0.4576731
0000d0 a5 b3 4a bd 1c 8a 19 3d 29 bb 0f 3f 67 42 f2 3e
       -0.04948773 0.037485227 0.5614496 0.47316286
0000e0 1b 88 48 be 5b ac 6d 3e 35 37 83 be f1 a4 25 3d
       -0.1958317 0.2321028 -0.25628057 0.040440504
0000f0 11 eb da bd 5c 18 b8 be 3f 39 e1 be 6f f9 ad be
       -0.106893666 -0.35956085 -0.43988988 -0.33979365
000100 3d e0 33 3e 14 e5 e1 3d 10 8f 0c be ae 2c e6 3e
       0.17566009 0.11030021 -0.13726449 0.44955963
000110 5d c2 92 3e ad 92 b9 3e 05 aa 02 bb 1d de 03 3d
       0.28663912 0.36244717 -0.0019937765 0.032194246
000120 f1 38 0b bd d3 33 1b be e4 39 69 be 30 94 80 be
       -0.03398985 -0.15156488 -0.2277599 -0.25113058
000130 2c 4d 0a bf 55 e6 d3 3d f5 7f 9b be a2 19 da bd
       -0.54024005 0.10346667 -0.3037106 -0.1064942
000140 d8 d4 88 bd 64 09 13 3f 9a e5 ac be 23 68 71 be
       -0.06681222 0.57436204 -0.33768922 -0.23574881
000150 0f d7 96 3e 8e a8 05 3e da 33 eb 3e e1 a5 94 3e
       0.29460952 0.1305258 0.45937997 0.29032806
000160 5f 9a f5 3e f1 a6 8e be 93 2b 4d 3e 2b 2c a5 3d
       0.47969338 -0.2786174 0.20036153 0.08065065
000170 ee 8f d2 bd f3 c1 99 be 78 01 54 3e 4a 19 b5 3e
       -0.10281359 -0.30030784 0.20703685 0.35370857
000180 99 db b4 be 9b bf 06 bf 70 0b 43 3e 5a 04 c7 be
       -0.3532379 -0.52636117 0.19047332 -0.38870507

phi_to.mlp.mlp.2.bias f4 [10]
000000 41 f7 ba bd dc 00 a3 bd a3 cb 67 b9 57 91 10 3e
       -0.09129191 -0.07959148 -0.00022105737 0.14117943
000010 01 48 c8 3d bf 45 2f 3c 93 df 49 bd b0 b4 89 bd
       0.09779359 0.010697781 -0.049285483 -0.067239165
000020 35 2e d0 3d 00 1f 0e 3d
       0.10165063 0.034697533

phi_from.mlp.mlp.0.weight f4 [10, 23]
000000 c4 6e dc be 1d 71 99 bd 6d 46 95 3e 68 3a de be
       -0.43053257 -0.07492278 0.29155293 -0.43403935
000010 a9 af b2 3d 56 98 69 be a7 57 a7 3d 9e 5f f8 bc
       0.08724911 -0.22812018 0.08171015 -0.030319031
000020 c3 14 d7 bd ee 13 42 bd 4b c4 b9 3d db ed b3 3e
       -0.10502007 -0.047382288 0.09070643 0.35142407
000030 d7 d1 a8 b9 37 a2 c7 be d9 c5 b1 be 80 b5 5c be
       -0.000321998 -0.38990948 -0.34721258 -0.21553612
000040 c5 13 5a be 5c cb f3 3d 61 bd 6c be 72 8b 5a 3c
       -0.21296604 0.11904022 -0.23119117 0.01333891
000050 c1 16 85 3d 64 fe 24 3c 8a 0f e8 bd 48 1a 70 3d
       0.064984806 0.010070417 -0.11331089 0.058618814
000060 95 fa b6 bd 00 5c 3e 3e 9c 14 90 be 13 27 06 bd
       -0.089345135 0.18589783 -0.28140724 -0.032752108
000070 b1 e2 d7 3e 9d f6 d1 bd 12 c0 7e bc 09 2c be be
       0.4216514 -0.10252116 -0.015548723 -0.3714297
000080 89 63 50 be 1e 9c 9a 3e 44 82 18 3e 4f aa 0a 3f
       -0.2035047 0.30197233 0.14893442 0.5416612
000090 31 ca d8 3d ad 91 df be b1 74 00 3f 68 79 9a 3e
       0.1058544 -0.4366583 0.50178057 0.3017075
0000a0 09 9f 19 3e 04 a2 0b 3d 38 fc f4 3e 3e 99 33 3e
       0.15002073 0.034090057 0.47848678 0.17538926
0000b0 58 6c fd bc 9d c0 23 bd 6f 45 c9 3e 95 48 b7 3d
       -0.030935451 -0.039978612 0.39310786 0.08949391
0000c0 f0 76 de bb d6 26 a4 be 78 4a 2a bd 4f bd ee 3e
       -0.006789081 -0.3206088 -0.041574925 0.46628806
0000d0 1d 42 da 3d 72 5b 08 3f 05 a6 f2 bc f4 4a 0c bf
       0.10657141 0.53264534 -0.02962018 -0.5480187
0000e0 ba 15 9d be a2 6e 48 be 1f 49 1d be e1 87 b9 be
       -0.3068064 -0.19573453 -0.15359925 -0.3623648
0000f0 60 d0 79 3e 0d 82 ba 3e c1 89 fd bd 3a f3 99 be
       0.24395895 0.36427346 -0.1237979 -0.3006838
000100 3c 5b da be e0 21 c6 be 5e eb 7f 3e b4 92 ba bc
       -0.4264773 -0.3869772 0.24992129 -0.022775032
000110 b0 f7 47 3e 20 15 c7 3e b8 30 26 3e 30 51 78 be
       0.19528079 0.38883305 0.16229522 -0.2424972
000120 58 50 d9 bd 90 e2 01 3e 19 44 af 3e a4 15 0d 3e
       -0.106110275 0.12684083 0.34231642 0.13777786
000130 f3 02 27 3e 56 b2 87 3e f7 14 a7 be a0 71 8e 3e
       0.16309719 0.26503247 -0.32633182 0.27821064
000140 57 14 a3 3e bd 6b eb 3e 34 98 95 bd 88 56 95 bd
       0.31851456 0.45980635 -0.07304421 -0.07291895
000150 0b 83 7f 3e 80 d9 af 3e 66 8b c7 3d 76 c3 90 3e
       0.24952333 0.34345627 0.09743385 0.28274125
000160 ca 32 db 3e 62 06 1c be 06 70 34 3c be d9 01 bf
       0.42812186 -0.1523681 0.011013037 -0.50722873
000170 72 37 04 bc 57 14 8b 3e e7 c2 02 bf cb 2c 06 be
       -0.00806986 0.27163956 -0.5107865 -0.13103025
000180 aa 03 fd be 20 4d 7c 3e fc ce bd 3e 36 e5 91 3e
       -0.49416858 0.24638796 0.3707198 0.28495187
000190 76 b6 32 be d2 f4 90 bc 32 7a c2 3e 08 5b 41 3e
       -0.17452416 -0.017694864 0.37983853 0.18882382
0001a0 19 05 45 be ba 71 bd bd 66 5d 30 3e b4 37 a6 3e
       -0.19240226 -0.09250207 0.17223129 0.32464373
0001b0 2c 18 68 be 9c 02 4b be 68 10 f0 3e d2 30 67 3e
       -0.22665471 -0.19825214 0.46887517 0.22577217
0001c0 c7 74 7d 3d cd 8d be bd 73 e0 30 3e 0a 1a 69 3c
       0.061878946 -0.0930439 0.1727312 0.0142274
0001d0 7b b0 80 3e 72 b6 8e 3d 53 41 83 3e f2 5f a3 be
       0.25134644 0.069683924 0.25635776 -0.31909138
0001e0 4c 6f 80 3d 23 f8 1c bf e3 3b f1 3e d1 b1 56 3d
       0.06271228 -0.61316127 0.47116002 0.052415673
0001f0 51 8f b2 bd 5a c2 6d be 54 57 a5 3e 06 50 9a 3e
       -0.08718742 -0.2321867 0.3229319 0.30139178
000200 71 f5 06 be 29 4f e6 be 76 1f 43 bd a5 89 3d 3e
       -0.13179566 -0.4498227 -0.047637425 0.18509538
000210 3c 52 ae be 31 ba d9 be e1 d2 dd bd 92 d3 6b 3e
       -0.34047115 -0.42524865 -0.108312376 0.23029926
000220 e6 65 0a be d7 0d e3 bd 91 25 de be f8 9f ee 3d
       -0.13515434 -0.11086624 -0.43388036 0.11651605
000230 e5 36 3b 3e 1b 2e ad 3d ae b1 9e 3e 3d 82 2a 3e
       0.1828266 0.084560595 0.30994934 0.16651244
000240 32 18 46 3e eb 52 ad be 8c 7b 98 be 4f 95 10 bf
       0.19345167 -0.33852324 -0.2978176 -0.56477827
000250 d0 bb 8a 3e ae 2b db bd 73 e5 0c 3f 58 3e 36 be
       0.27096415 -0.107016906 0.5503761 -0.1779722
000260 a9 21 ab be 23 0d 2d be aa 78 c4 be 6f cf e2 3d
       -0.33424118 -0.16899543 -0.3837331 0.11074721
000270 92 a1 37 be 08 cf 46 bd 4e 47 18 3e ba 4d d9 bc
       -0.17932728 -0.048537284 0.1487095 -0.02652632
000280 16 01 53 be df 29 8c 3e 9f 98 e6 bc 78 d1 84 3e
       -0.20605883 0.27375695 -0.028148947 0.25941062
000290 94 71 20 bd 1e f7 ad be 4e 43 38 be 03 89 8f 3e
       -0.039170817 -0.33977598 -0.17994425 0.2803422
0002a0 7e 13 c9 be 88 7c 0c 3e 65 13 11 be cc 1a ab 3d
       -0.39272684 0.1371938 -0.14167555 0.083547205
0002b0 53 82 7c 3e fa 39 d4 3e 86 4c 33 3e aa 28 ad 3e
       0.2465909 0.41450483 0.1750966 0.33820087
0002c0 ac 8d fc 3e 98 12 aa 3e de fb ba be d3 2f 32 3e
       0.49326837 0.3321731 -0.36520284 0.17401056
0002d0 16 0d 9d be 32 17 db bd f7 86 61 3d 85 dc 42 3e
       -0.30674046 -0.106977835 0.055060353 0.19029434
0002e0 c0 93 89 3e 12 58 d3 3c 6e df 16 3e a8 e8 0d 3d
       0.26870537 0.025798831 0.14733669 0.034645706
0002f0 51 cc ce 3b 82 39 a2 be 33 5a 3a be 45 2b 59 be
       0.0063109775 -0.316845 -0.18198471 -0.21207912
000300 49 0c e1 be 67 a4 f6 bd e5 08 c7 3e d7 cf 44 3e
       -0.43954685 -0.12043076 0.38873973 0.1921991
000310 d7 10 19 3e 22 c2 c0 be 40 3b 6c bd 7e 39 06 bf
       0.1494783 -0.37648112 -0.057673693 -0.52431476
000320 37 cf 14 b7 a4 73 e1 bc 62 8e 8e 3e 5d 09 04 3e
       -8.869733e-06 -0.027520962 0.27843004 0.12894197
000330 1d 16 6e be bc d2 f2 3d 0b c4 10 bd 3b 9d cc be
       -0.23250623 0.11856601 -0.03534321 -0.39963707
000340 dd bb 91 bd 2e d9 09 be af d3 8b 3e 46 f6 c4 bd
       -0.0711591 -0.13461754 0.2730994 -0.096172854
000350 e1 5f a4 3e b3 84 1d bf cc e1 c2 3d 9a e1 f3 be
       0.321044 -0.6153061 0.095157236 -0.47633058
000360 ff 13 6b be f7 64 3f be 01 e4 b6 3e f8 00 84 3e
       -0.22956847 -0.18690859 0.35720828 0.2578199
000370 95 b4 e8 bd 3d 51 81 3e b2 84 66 be 8c 7d b9 be
       -0.11362568 0.25257292 -0.22511557 -0.36228597
000380 38 17 3a 3e 27 65 bd 3d e4 9b 46 3e 8e 12 05 bd
       0.1817292 0.09247809 0.19395405 -0.0324884
000390 c4 6d f4 3d 4a b6 35 3e
       0.11934999 0.17745319

phi_from.mlp.mlp.0.bias f4 [10]
000000 45 31 c4 bc 29 56 eb 3d c6 08 3c 3e cb 00 cc bd
       -0.023949275 0.11491043 0.18362722 -0.09961089
000010 52 69 97 3d d0 9b 52 3e 71 f3 30 3e 2a 19 4e 3d
       0.07393135 0.2056725 0.17280366 0.050316967
000020 5e 39 33 3d bc d4 df 3d
       0.04375588 0.10929248

phi_from.mlp.mlp.2.weight f4 [10, 10]
000000 7d f0 37 be 14 a7 9b be a6 ae b2 3e 08 b1 b6 3d
       -0.17962833 -0.30400908 0.3489887 0.08920485
000010 8f 8c e2 3e e2 df 3f 3d 0f a8 1b bf ee b4 84 bc
       0.44247863 0.04684437 -0.6080331 -0.016199555
000020 63 99 0f bd 0b ec a2 be ba 20 10 be 86 6c 81 3e
       -0.03505839 -0.31820711 -0.14074984 0.2527811
000030 9d bf 76 be e9 f9 fd bd d9 2f 87 be 06 7f b0 3e
       -0.24096532 -0.12401182 -0.26403692 0.3447191
000040 fc 93 b8 3e 68 96 ed 3e 70 06 25 3f f2 f4 7c be
       0.36050403 0.46403813 0.6446295 -0.24702814
000050 86 10 8e be 40 bd e0 3e 16 41 ab 3e 68 67 29 3e
       -0.2774698 0.43894386 0.33448094 0.16543353
000060 e4 07 4d be 0e bc f6 be 23 0f 92 bd 41 f2 19 3f
       -0.20022541 -0.4819035 -0.07131793 0.60135275
000070 92 a5 24 be fa 8d df be c0 8e c0 3e bb 3f d2 3e
       -0.16078785 -0.43663007 0.3760891 0.41064247
000080 75 ff 02 3d 78 50 e2 3d 67 44 ad 3e c4 12 0f be
       0.031981904 0.110505044 0.3384125 -0.13972002
000090 20 6e 9e be 63 c8 46 3d 70 15 88 be 19 dd 98 3e
       -0.30943394 0.048530947 -0.26578856 0.29856184
0000a0 f3 90 53 be a8 24 1f 3f d9 d1 5d bd b9 81 12 3f
       -0.20660762 0.6216531 -0.054155204 0.5722919
0000b0 67 af 84 be 86 fd 00 bf 43 0c 81 bd f6 21 f2 bd
       -0.2591507 -0.50386846 -0.06301167 -0.11822884
0000c0 27 74 fb 3e e2 4a c8 be 30 2d d3 bd 3b 81 3a 3e
       0.49112055 -0.3911963 -0.10311353 0.1821336
0000d0 35 de 16 3c cf ac e1 bd 65 22 00 3f a1 4c 9d be
       0.009208252 -0.11019289 0.5005248 -0.30722526
0000e0 5f 4d 02 3f 58 cf 1f 3e 19 59 a0 be 31 b9 86 3c
       0.5089931 0.15606439 -0.31317976 0.016445728
0000f0 79 2e 39 3e b1 a2 32 be 0a cf 44 be d2 8e ab 3d
       0.18084134 -0.17444874 -0.19219604 0.0837685
000100 d8 4d a0 be 25 26 9c be 45 e4 9a be 7a 52 9e 3b
       -0.3130939 -0.30497852 -0.3025228 0.0048316093
000110 75 f5 84 3d d4 a5 f3 bd 11 c4 13 bf 3c 4b b6 be
       0.0649213 -0.118968636 -0.5772105 -0.35604274
000120 e0 32 73 3e 56 78 f6 3e a3 aa bb be 00 bb 59 bd
       0.23749876 0.48138684 -0.36653623 -0.053156853
000130 99 be 03 bf 52 27 cb be 82 33 e3 be 46 44 83 3e
       -0.51462704 -0.39678437 -0.44375235 0.25638026
000140 43 36 0d be b4 98 0b be 3f 68 25 3f 3f 65 65 bd
       -0.1379023 -0.1363247 0.6461219 -0.05600476
000150 87 2a 19 3e 34 c5 25 3f 19 eb 17 bf cb e7 28 be
       0.14957629 0.64754033 -0.59343106 -0.16494672
000160 df c8 d6 be 33 54 51 3e 0a d3 92 be 68 c2 0f bf
       -0.41950127 0.20442276 -0.28676635 -0.56156015
000170 fe ef 20 be 4b 10 c5 3b fc 9b 04 3f 10 55 14 3e
       -0.1571655 0.006013905 0.51800513 0.14485574
000180 58 73 a4 be 02 65 2c 3e 25 b4 fb 3d 28 b9 c2 3d
       -0.3211925 0.16835406 0.12290219 0.09507972

phi_from.mlp.mlp.2.bias f4 [10]
000000 0f 70 8c 3d c8 07 f8 3d 2e 67 5d 3d 30 cd ed bd
       0.06857311 0.12110859 0.054053478 -0.11611402
000010 b7 87 03 3d 11 f7 10 3d 62 1a 48 be 98 9c ff 3b
       0.03211185 0.03539187 -0.19541314 0.00780065
000020 c8 58 39 3e b8 27 24 bd
       0.18100274 -0.04007694

z_k.mlp.0.weight f4 [10, 32]
000000 94 55 02 bf df ee 8f be fc 26 36 3f e7 68 64 3c
       -0.5091183 -0.28111932 0.71153235 0.013941026
000010 f7 de 01 be ed b2 d8 be af dd bf bd 90 42 82 3e
       -0.1268271 -0.4232401 -0.09368455 0.25441408
000020 ac ec 7f 3e d7 b4 8b 3e 04 4d d0 3d 3d fd 00 be
       0.24992627 0.27286407 0.101709396 -0.12596603
000030 76 09 9b 3e 5b b0 c8 be a7 a1 04 3d fb fe 47 3d
       0.30280656 -0.3919705 0.032380726 0.048827153
000040 40 51 66 be d4 f0 33 be 2c b2 5a 3d 54 d1 52 3e
       -0.22491932 -0.17572337 0.053392574 0.20587665
000050 8c 1e 33 bf b0 5e 91 3d 80 97 32 3c 87 cf 77 3e
       -0.69968486 0.07098138 0.010900378 0.24200259
000060 e1 77 65 be 0c 47 4a be 84 0a d6 3e 7b 41 e2 be
       -0.22409011 -0.19753665 0.41804898 -0.44190583
000070 3e 3c 22 bf 41 84 87 be 0b ab 84 3b 51 62 4f be
       -0.6337317 -0.2646809 0.00404871 -0.20252348
000080 a0 ad 82 bd 5c a9 29 be 48 dc c9 bc 02 21 8f bd
       -0.063807726 -0.16568512 -0.024641171 -0.069887176
000090 b2 23 aa 3e 77 79 2a be 54 df e5 3e 0f a3 8e 3d
       0.33230358 -0.16647898 0.44896948 0.06964695
0000a0 84 37 65 bd 41 b6 02 3e cb c8 a4 3e af b2 5a bc
       -0.055961147 0.12764837 0.32184443 -0.013348266
0000b0 e9 3a 06 3e 9a ae 01 bf bc 44 41 be e4 c6 43 3e
       0.1310841 -0.50657046 -0.18873876 0.1911884
0000c0 70 fa f4 3d f4 d6 a6 3e 78 b1 a2 be 16 8a 27 bd
       0.1196183 0.3258587 -0.31776023 -0.040903173
0000d0 04 42 9e be 9d d7 1a be 93 8f 8d 3c 7f ec 1e 3e
       -0.3090974 -0.15121312 0.017280376 0.15519904
0000e0 9b 0e 6a be 4c 2b d1 be f1 9c 97 3e 91 2c f1 3e
       -0.22857134 -0.40853345 0.29611924 0.47104314
0000f0 bc c9 14 be 4f 17 e6 3e 44 fd 64 3e d8 26 25 be
       -0.1453008 0.44939658 0.22362238 -0.16128099
000100 ad 35 aa 3e eb bc 1a 3e 14 9b 5e bd 5e 5f e1 be
       0.33244076 0.15111129 -0.054347113 -0.44018072
000110 4e d6 5f be 95 ee 92 bd 0f 37 a1 bc b6 aa 0d be
       -0.21859095 -0.07174412 -0.019679574 -0.13834652
000120 e4 73 ca 3e 0e 6d 89 3e e9 be 9b bd 03 7f 8c be
       0.39541543 0.26841015 -0.076047726 -0.27440652
000130 10 3f 4f be 11 3d bd be f5 9c d6 bd 90 50 08 3e
       -0.202389 -0.36960652 -0.10479156 0.13311982
000140 c8 27 a3 be 7a 3c 21 3e a8 9f 39 be 74 08 48 3d
       -0.31866288 0.15745726 -0.1812731 0.048836187
000150 94 0c b2 bd 4a f5 05 be 42 45 3f be 0a 90 ce bd
       -0.08693805 -0.13081852 -0.18678764 -0.10086067
000160 fc 3e 17 3c ba ce 7a be 31 84 17 3e 68 b1 8a be
       0.009231325 -0.24492922 0.14796521 -0.27088475
000170 86 0b cc 3e 9d 61 be 3e 3a f6 f5 bd 38 0a c3 38
       0.39852542 0.37183848 -0.120098546 9.300228e-05
000180 b2 84 24 be 0e b5 ff 3d ac 4d 69 bd dc df 9c 3d
       -0.16066244 0.12485705 -0.05695884 0.07659885
000190 0f a2 2b 3d a5 f0 93 be 24 fe 59 3e 83 aa d7 be
       0.041902598 -0.28894535 0.21288353 -0.42122278
0001a0 4c d1 c4 bb 59 b7 c1 3e 5d a9 df bc 50 20 c4 3d
       -0.0060063954 0.37835196 -0.027302438 0.095764756
0001b0 86 66 5f 3e 02 ef 5c 3e dc 76 65 3c 3d 65 01 be
       0.21816453 0.21575549 0.014005389 -0.12636276
0001c0 f4 13 fd 3d 5b e4 c2 3c be 0d 45 bb a6 05 64 3e
       0.123573214 0.023790529 -0.0030068005 0.2226778
0001d0 fc 99 06 be 01 42 a9 bd 9d 85 0a be f2 c3 e1 3d
       -0.13144678 -0.08264542 -0.13527532 0.11023702
0001e0 f2 16 10 3c eb 78 0b 3d 89 c6 95 3d e4 d2 61 be
       0.008794533 0.034050863 0.07313258 -0.22053105
0001f0 e3 5d 2e be 46 9a bf 3b ed 33 a2 3e 6c 43 70 bb
       -0.17028002 0.0058472482 0.3168024 -0.003666128
000200 94 1d 4c bd 7d 81 9e be 23 7c 1a bd 6b 1d 5f bd
       -0.049832895 -0.30958167 -0.037716042 -0.054471415
000210 dc d8 31 be b6 e0 15 bf 9f 73 7f 3e 98 8b 90 be
       -0.17367882 -0.58546007 0.2494645 -0.28231502
000220 73 1e 02 bc 4e d1 81 3e 89 e2 18 3e ae d1 d6 3e
       -0.00794183 0.25355 0.14930166 0.41956848
000230 d5 ea 0c 3f 4a 83 00 bf ce 11 a1 3d 12 10 b1 be
       0.55045825 -0.5020033 0.07864724 -0.34582573
000240 e0 b7 13 bf 6f 76 c5 bd 38 dd 86 be 26 de 00 3e
       -0.57702446 -0.0964173 -0.26340652 0.12584743
000250 49 5c 27 bd de 49 30 be 26 da d7 be 69 4f 45 3e
       -0.040859494 -0.17215678 -0.42158622 0.19268574
000260 8b 21 48 3e 52 be 72 3e 54 15 ef 3e a0 9d d6 3d
       0.19544046 0.23705414 0.4669596 0.10479283
000270 f4 2d 75 be b3 75 1b be 59 68 2c 3d d9 61 ae be
       -0.23943311 -0.15181617 0.0420917 -0.34059027
000280 93 ad fe be 8a 51 ed bd 70 4a a9 be 37 3d a8 be
       -0.49741802 -0.11587818 -0.33064604 -0.32859203
000290 ba d4 b1 3d d1 e5 90 be 7d 48 e8 3e cf a5 cc bd
       0.086831525 -0.28300336 0.45367804 -0.09992563
0002a0 3a a5 82 3d 34 be 94 3e 05 a6 b0 bd 66 c7 e3 3e
       0.06379171 0.29051363 -0.08625416 0.44488066
0002b0 08 e4 cd 3e 42 99 d8 be d6 3f e2 be 9a cb 21 3e
       0.40213037 -0.42304426 -0.44189328 0.15800324
0002c0 00 ba bd be 6b ee 82 be d9 40 f5 be b7 7e fe 3e
       -0.3705597 -0.25572523 -0.47901037 0.4970605
0002d0 ce e3 58 3e dc 01 b9 be 65 c7 8f be 30 61 90 bd
       0.2118065 -0.3613423 -0.28081813 -0.07049787
0002e0 4f c5 7c bd dd 98 40 be 95 00 8b 3d 1b cb 1e bd
       -0.061711606 -0.18808313 0.067872204 -0.038767915
0002f0 4a 91 cb be ee fa 0e 3e 89 cc 37 3c 18 20 b2 3e
       -0.39759284 0.1396291 0.011218199 0.3479011
000300 97 6c df bd e9 b6 c2 3d db 5f fe 3e 4f ba 89 be
       -0.10909384 0.095075436 0.49682507 -0.26899955
000310 e9 d8 c4 3d d9 72 64 3e b9 b5 66 3e ae 1d 10 bd
       0.09611685 0.22309436 0.22530259 -0.035184555
000320 6c c8 9f 3e c7 09 09 3e 07 c5 24 3e 77 ec df 3d
       0.31207597 0.13382636 0.16090785 0.10933774
000330 a0 65 3d 3d df f6 89 3c 98 f6 5e 3b 94 31 fd bd
       0.046239495 0.01684135 0.0034021493 -0.12362972
000340 05 c1 a4 3d 73 7e 4e 3e fa bb 06 bf 55 18 08 be
       0.08044628 0.20165424 -0.5263058 -0.13290532
000350 74 a3 12 3e 3b 9a c1 bd f0 70 d3 3e 36 05 3b be
       0.14320165 -0.09453245 0.41297102 -0.18263707
000360 74 cc 2f 3f df c5 95 3e fb e7 be 3e 29 7c bb bd
       0.68671346 0.29252526 0.37286362 -0.09154541
000370 54 f6 b2 be 2c 83 8f 3d 0c 83 23 bd 31 7f d7 be
       -0.34953558 0.07007441 -0.039919898 -0.42089227
000380 3e 8f f4 3d 11 e6 4b bd 78 2d a5 3c c7 95 87 be
       0.11941384 -0.049779955 0.020163283 -0.2648146
000390 e7 ae 89 be 8f 30 56 3d e0 0a 0e 3e 2e 69 49 3f
       -0.26891252 0.052292403 0.13871336 0.78676116
0003a0 23 a2 64 3d 8c b6 c8 3e 5e c8 48 be ec 1c 1f 3f
       0.055818688 0.39201772 -0.19607684 0.62153506
0003b0 77 93 8f be 86 61 73 be 17 2c 88 3d 13 44 e7 be
       -0.28042194 -0.23767671 0.066490345 -0.45169124
0003c0 a3 a5 5d be 72 7d a7 bd 83 d8 10 bd 1d f7 04 3e
       -0.21645217 -0.08178224 -0.03536273 0.12984891
0003d0 eb d5 e1 bd 76 14 08 bf 20 6a d6 be 4f 35 27 3d
       -0.1102713 -0.5315622 -0.41877842 0.040822323
0003e0 7e 4c 30 be b7 d9 76 be 13 9b db 3e ab 76 28 be
       -0.1721668 -0.24106489 0.4289175 -0.16451518
0003f0 ca f8 a0 3e 47 ea ef 3e a9 85 9e bc 2d ee 05 be
       0.3143981 0.46858427 -0.019350844 -0.13079138

z_k.mlp.0.bias f4 [10]
000000 5a 1d 9d be b5 f4 31 be dd 4d d4 bc 4d 73 1e bd
       -0.30686456 -0.17378505 -0.025916034 -0.03868418
000010 72 b4 fe bd cb 89 15 bd 66 74 86 be b3 50 13 be
       -0.12436761 -0.036508363 -0.2626068 -0.14386253
000020 d3 43 6e be f2 e5 1a be
       -0.2326806 -0.1512678

r_k.mlp.0.weight f4 [10, 32]
000000 43 93 94 3e 19 de 86 bc c5 c5 34 3e a7 5e 13 be
       0.29018602 -0.016463326 0.17653568 -0.14391576
000010 0a 46 d9 be 71 ac 3a 3e 74 7e 56 3e 99 75 5b bd
       -0.42436248 0.18229844 0.20946676 -0.053578947
000020 12 4a e2 be 67 cf 9a bd 06 12 52 bd ee 0b cf bd
       -0.44197136 -0.0755909 -0.05128672 -0.10109697
000030 eb d4 c0 be c1 5a 7e 3d 8e be bb 3e 36 97 37 be
       -0.37662444 0.06209827 0.3666882 -0.17928776
000040 c9 19 62 be cd cb ea bc 1f 14 a1 bd 9c 4f 14 bd
       -0.22080149 -0.028661633 -0.07865166 -0.036208734
000050 1a 60 8a be bd 6c a9 3e 45 96 a4 3d 84 c7 99 be
       -0.27026445 0.33090773 0.08036474 -0.3003503
000060 a8 ce 65 be 40 38 8a bd 7c cd a2 3d 3a ab 39 be
       -0.22442114 -0.0674901 0.07949349 -0.18131724
000070 93 31 13 3e 8c 4b 1d 3e bd bc 9f be 03 12 9d 3d
       0.1437438 0.1536085 -0.31198683 0.07669451
000080 fa fd 8c 3d bc fc 48 3e 05 26 94 be 9e df 7d 3e
       0.0688438 0.1962766 -0.28935257 0.24792334
000090 f3 fe cf bb 8f 9b 56 3d 8e 5a 4f 3e 6a 2d db 3c
       -0.006347531 0.052394446 0.20249388 0.026755054
0000a0 43 1d c7 be 9d ec a3 be 28 4a e1 bc 0f 9a 97 3e
       -0.38889512 -0.3201646 -0.02750118 0.29609725
0000b0 1f 81 a1 be 90 47 bb 3e 5e b6 71 be ad 74 9a 3e
       -0.31543824 0.36578035 -0.23604724 0.30167142
0000c0 15 2e b7 3d 9f 45 b5 be 3c e2 a7 3e d8 51 ba be
       0.08944336 -0.3540468 0.3278979 -0.36390567
0000d0 51 01 c5 bd 02 6c 05 be 28 00 9a 3e 4e f3 50 be
       -0.09619392 -0.13029483 0.30078244 -0.20405313
0000e0 73 99 be be 52 bc 8e 3d aa 1a 34 be 07 79 88 be
       -0.37226447 0.06969513 -0.17588297 -0.26654837
0000f0 8f 58 b3 bd a1 30 97 be b7 b1 e3 3e 14 4a 97 be
       -0.087571256 -0.29529288 0.44471523 -0.29548705
000100 58 47 42 3d 9b 4a ad 3d 3b f2 02 3d d3 5c e5 3c
       0.04743132 0.084614955 0.03196929 0.027998364
000110 08 fe db 3d ec 5c 8c be f1 02 68 3e 0a d3 29 3d
       0.10741812 -0.27414644 0.22657372 0.04146103
000120 6d cf 8d 3e ca 61 1b be 33 cc 7e be da 8f ba 3e
       0.27697316 -0.15174022 -0.24882583 0.36437875
000130 13 27 4e be 6d c1 25 be b3 2d b1 3e c8 a9 b4 3d
       -0.20132093 -0.16187067 0.34605178 0.08821446
000140 de e2 07 bf b6 3f 49 be 7a e4 33 3e e1 99 aa 3e
       -0.53080547 -0.1965321 0.17567626 0.33320525
000150 99 a5 cb bc f4 44 af be 60 17 8c be 85 97 a0 3e
       -0.024859237 -0.34232295 -0.27361584 0.313656
000160 f8 05 e0 3d d1 7d 94 3e 6f 5c eb 3b 1c 02 94 3e
       0.109386384 0.2900224 0.00718265 0.2890786
000170 29 14 2d 3e 44 2a 3e bd 9a a2 8b 3d aa 3a 47 be
       0.16902222 -0.046427026 0.06818123 -0.19455972
000180 f9 25 a5 be 15 07 a8 3e 46 d5 00 3e d7 f2 bb 3c
       -0.32255533 0.32817903 0.12581357 0.022942943
000190 d2 1e 16 3e fa 5f 54 bd 09 20 20 be d4 2c 32 be
       0.14660195 -0.051849343 -0.1563722 -0.17399913
0001a0 51 6e 8f bd 80 43 1c be 23 72 97 3e 48 08 7f be
       -0.07003463 -0.15260124 0.29579267 -0.24905503
0001b0 bc d7 17 3e 55 76 e5 be b2 13 e6 be 91 67 5b 3e
       0.1482839 -0.44816843 -0.449369 0.21426226
0001c0 b2 9b b5 3e 3a ef 71 bb 4b 24 6d 3e 4c 77 86 3e
       0.3547035 -0.0036916272 0.23158376 0.2626289
0001d0 24 87 b6 be 93 00 59 3d de 5d ba be 07 1e f7 bd
       -0.3564998 0.052979063 -0.3639974 -0.12066274
0001e0 8c 17 48 be 6f a5 ba bd d6 9c 21 3e 1f ed 84 3c
       -0.19540232 -0.09113585 0.15782484 0.01622635
0001f0 16 60 06 3e fb ac 26 bd f2 df cb b9 56 9d 0b 3e
       0.13122591 -0.04069231 -0.0003888603 0.13634238
000200 ce 64 c2 3e 82 0a 85 3e 9d 71 d8 3d b2 e1 af bd
       0.37967533 0.2598458 0.10568545 -0.0858797
000210 27 32 74 3e 9d e5 10 be 1c 51 83 3e cd 92 3d be
       0.23847257 -0.1415009 0.2564782 -0.18513031
000220 23 ef f7 3d b9 c1 3f 3e 74 28 38 3e a5 9c c9 be
       0.121061586 0.18726243 0.17984182 -0.39377323
000230 f4 55 68 be c7 64 37 3d 3e dc 6f 3d fd 35 c9 3e
       -0.22689039 0.044773843 0.05855965 0.39299002
000240 3f b8 e0 bb 51 61 12 be 06 97 ed bc 56 73 82 3e
       -0.0068579013 -0.14294936 -0.029002678 0.2547862
000250 22 74 79 3c a8 a8 4b 3e 1c 72 02 3e 16 da d5 3e
       0.015225442 0.19888556 0.12738842 0.4176795
000260 79 eb 75 3e 84 12 ab 3e cd a7 4d 3e f9 36 78 be
       0.24015607 0.33412564 0.20083542 -0.2423972
000270 0c c4 e8 3e 60 dd 3b be 62 4f a6 3e b9 99 71 be
       0.45462072 -0.18346167 0.3248244 -0.23593797
000280 a1 35 76 3e 87 fb a6 3d c7 8e 92 bb f8 42 d1 3e
       0.24043895 0.08153444 -0.004472587 0.40871406
000290 47 df a5 be 29 bd 7d 3e 88 45 0b 3c 12 c4 71 be
       -0.3239691 0.2477919 0.008500464 -0.23609951
0002a0 d4 2a 82 3e e0 9b 59 3e f1 4f 9f be 61 c5 9c 3e
       0.254233 0.21250868 -0.31115678 0.30619338
0002b0 e0 2c 83 3e 4d ca 6e 3e ad 6f 9c be a7 2a 7e be
       0.25620174 0.23319359 -0.30553952 -0.24820958
0002c0 fd b3 8c bd 39 4b 93 3d f8 d7 e5 3e 66 53 53 bc
       -0.068702675 0.07192082 0.44891334 -0.012898302
0002d0 c4 ab a3 3e 54 37 8b be ec fa cb bb de e9 b9 bd
       0.31966984 -0.2719065 -0.0062249806 -0.0907781
0002e0 72 d9 db bc e9 50 c6 3d 04 b5 c8 be 11 cf 24 be
       -0.026837084 0.09683401 -0.39200604 -0.16094615
0002f0 d5 ab 5c 3e 09 89 b6 be e4 c3 b2 be 1b 85 4e be
       0.21549924 -0.35651425 -0.34915078 -0.20167963
000300 16 99 d8 bd cd 54 5f be 2d 0f 94 3e e2 a9 44 3c
       -0.10576074 -0.21809693 0.28917828 0.012003394
000310 9c b9 b9 3d c3 7b 1b 3d 9d 21 7e be b2 5a 53 3d
       0.09068605 0.037959825 -0.2481751 0.051600166
000320 1e 52 30 be ae d1 95 be f7 ee bc bc 09 1c cc 3e
       -0.17218825 -0.29261535 -0.023063166 0.3986514
000330 df 7e aa be 38 52 53 bd 65 ae 00 be 22 48 36 3e
       -0.3329992 -0.05159208 -0.12566526 0.17800954
000340 37 e0 ba be 10 96 fa 3c 47 94 3c 3d ed 0e 43 be
       -0.36499187 0.030589134 0.046039846 -0.19048662
000350 8e 5a 63 3e 95 9e 1b be 34 15 91 3e 7a da d5 bd
       0.22202513 -0.15197213 0.2833649 -0.10442062
000360 36 64 11 be b3 a8 81 bd 8c c9 2b 3e 87 47 b4 3e
       -0.14198384 -0.06331005 0.16776103 0.3521082
000370 95 e8 45 be 42 b0 c3 bd 33 69 f9 3c 64 77 10 be
       -0.19327004 -0.09555103 0.03044567 -0.14108044
000380 91 e9 83 3d 79 41 9b bd 8e 85 6c bd 52 3e 04 3d
       0.06441034 -0.07580847 -0.057744555 0.032285996
000390 a9 c5 8a be 46 df c6 3e c5 e8 d4 bd 53 bb 31 3e
       -0.27103928 0.3884222 -0.1039596 0.17356615
0003a0 a5 2a c2 3e 8c b6 a6 be 1b 31 21 be f9 e8 e6 3c
       0.3792316 -0.32561147 -0.15741388 0.028187262
0003b0 85 8b 4c 3e 1b 38 4a 3e 79 34 ae 3d 0b 09 9f 3e
       0.19975097 0.19747965 0.08506102 0.31061587
0003c0 f4 72 58 be ec bb 48 3d a8 0e 0c 3e 40 d7 59 be
       -0.21137601 0.04900734 0.13677466 -0.21273518
0003d0 87 29 70 3e 98 19 39 3e 4c e1 7b be 5c fb ac 3e
       0.23453341 0.1807617 -0.24597663 0.33785522
0003e0 70 a9 69 bd c5 04 1c be 89 6c 4b be ec 3e 91 be
       -0.057046354 -0.15236194 -0.19865622 -0.28368318
0003f0 86 ca 98 3d cf 48 7b be fe 99 91 3e 56 28 4b be
       0.07460503 -0.24539493 0.284378 -0.19839606

r_k.mlp.0.bias f4 [10]
000000 6a d6 93 3e f0 da 09 3d 30 88 d8 3d 71 47 25 3e
       0.28874522 0.03365606 0.10572851 0.16140534
000010 ca 3e a2 3c 6e b9 f5 3d 9c 55 3e bd 53 78 4d 3d
       0.01980533 0.119982585 -0.046468362 0.05016358
000020 76 1e 9c 3e 70 3a 14 3e
       0.3049199 0.14475417

correction.mlp.0.weight f4 [10, 32]
000000 83 52 d4 3c 45 dd 04 bf 5e bc f8 bd 82 b3 a2 3d
       0.02591825 -0.5190013 -0.12145303 0.07944395
000010 64 83 b4 bd e2 f2 78 be 16 82 14 bd 98 5f 5b 3e
       -0.08814123 -0.24311402 -0.036256872 0.21423185
000020 6b 1b 60 3e 70 d1 22 be 54 0b 46 be b5 2a f5 3c
       0.21885459 -0.15900207 -0.19340259 0.02992759
000030 1c ca 47 3e a2 c6 7d 3b 37 ad 24 bc 8a 65 c0 3e
       0.19510692 0.003872313 -0.010051063 0.37577468
000040 33 7f 3f 3e 31 eb 77 3e 91 61 a7 3e c2 12 34 3e
       0.18700866 0.24210812 0.32691625 0.1758528
000050 54 3b b5 3d 7c 89 8f be 15 a2 9f be 76 85 bd 3d
       0.088492066 -0.2803458 -0.31178346 0.09253971
000060 e6 73 85 3d 2e fc 55 3e dc ce 8b bd 63 e5 64 be
       0.065162465 0.2089698 -0.06826565 -0.22353129
000070 11 84 07 3a 9c 2e 87 be 43 35 7e 3e d0 91 ac be
       0.0005169521 -0.26402748 0.24825005 -0.33704996
000080 cc 78 d1 3d 34 35 94 bd f2 8e 1f be 52 f5 6b bd
       0.10228118 -0.0723671 -0.15581873 -0.057607003
000090 96 b9 89 be 2a c1 67 3e 1e 7d 8c 3e 43 9b 9e 3d
       -0.26899403 0.2263228 0.27439207 0.077444576
0000a0 35 fc 15 bd f9 b1 9f bd 19 50 89 3e 90 ba 34 bd
       -0.036617476 -0.077976175 0.26818922 -0.044123232
0000b0 b2 a5 13 be a7 51 7b be f4 34 4f 3e 3b e2 d3 3d
       -0.14418676 -0.24542867 0.20235044 0.103458844
0000c0 0b d5 9b 3d 29 80 ad be df ae aa bc e7 0c cb bd
       0.07608994 -0.3388684 -0.020835338 -0.0991457
0000d0 d0 c5 ca 3d 1c 9a 97 be 5b 4d 3a be 26 e1 83 3e
       0.09901011 -0.29609764 -0.18193571 0.25757712
0000e0 59 40 bd 3e d4 28 05 bd 71 ae a7 be 06 81 86 be
       0.36963156 -0.03250964 -0.32750276 -0.26270312
0000f0 d0 4d 89 bc 5d 8d f8 bd 0d 70 02 be 4f 2d d2 3e
       -0.016760737 -0.12136338 -0.12738056 0.41050193
000100 e4 e8 7d be 18 13 7d be bb 27 91 be 0b a5 66 3e
       -0.24795872 -0.24714315 -0.28350624 0.22523896
000110 80 0d ba bc 52 37 02 3e 12 db 05 be 60 6d 33 3d
       -0.022711515 0.12716416 -0.1307185 0.04380548
000120 36 5a c0 3d 95 8d 10 3f af 89 3c 3c 0c ff 5d be
       0.09392206 0.5646604 0.011507436 -0.21679324
000130 89 61 b7 bd de 31 32 be 97 28 b7 be aa 83 88 bd
       -0.0895415 -0.17401835 -0.35773155 -0.06665738
000140 5e 00 6c 3d 1c e6 f7 3d c6 a3 2e 3e d2 25 87 be
       0.057617538 0.12104437 0.17054662 -0.26396042
000150 a6 99 82 bd 67 87 85 be d9 7f b3 bd 8e 8b 8b 3e
       -0.06376962 -0.26079866 -0.087646194 0.2725491
000160 a9 45 b1 3d 6c 2b d7 3e eb f0 ba be f4 a4 c0 bb
       0.08655865 0.42025316 -0.3651193 -0.005879039
000170 bb e5 a1 be 34 59 77 3e ae a4 82 3c 30 a5 b4 be
       -0.31620583 0.24155122 0.015947666 -0.35282278
000180 c9 64 e1 3d 60 e1 6b bd e7 31 32 be 30 2b 14 bf
       0.11005551 -0.05758798 -0.17401849 -0.578784
000190 56 8f 11 be a1 76 19 be d2 9c 10 3c a5 ab b4 be
       -0.14214835 -0.1498666 0.008826451 -0.35287204
0001a0 90 f7 ac 3e 62 33 98 3e 85 ef a9 3c 94 91 da 3d
       0.33782625 0.29726702 0.020744095 0.10672298
0001b0 bf 94 31 be f0 dc 9c be bb e9 56 be 9d f2 b6 3d
       -0.17341898 -0.30637312 -0.20987599 0.089329936
0001c0 4e ad 97 3e c9 5f 8d 3e 01 71 a4 3e 42 76 a5 be
       0.29624408 0.2761214 0.32117465 -0.32316786
0001d0 a0 97 d8 3e d0 ed 38 3e 2d 6b 51 3e 1d f0 88 3e
       0.4230318 0.18059468 0.2045104 0.26745692
0001e0 7e db d5 bd 47 66 05 be 28 11 81 3e 3f 9e 51 3e
       -0.104422554 -0.13027297 0.25208402 0.20470522
0001f0 c1 01 d0 3d df a5 c9 be 7c 2f 9a 3c de ee 3f be
       0.101565845 -0.39384362 0.01882147 -0.18743464
000200 ad d3 a1 be f5 69 d4 3d ac ae 40 3e 1c 83 34 be
       -0.31606808 0.10371772 0.18816632 -0.1762814
000210 be 29 c0 3e de 9f aa 3e 6e 37 77 be e9 4b 43 be
       0.37531847 0.33325094 -0.24142238 -0.19071926
000220 c9 d6 4f 3d d5 15 9d bd 8b 30 82 3e 16 bd 84 3e
       0.050741944 -0.0767018 0.2542766 0.2592551
000230 85 96 77 be d3 44 c9 bd 24 64 ed bd 0f 38 b1 be
       -0.24178512 -0.0982758 -0.11591366 -0.34613082
000240 a3 86 00 bd af 65 64 3d f8 b1 9a 3e c3 89 9f bd
       -0.0313784 0.055761036 0.30213904 -0.07789948
000250 b8 b5 2d be 9e 62 30 3e 93 2a 86 be 49 a3 2f 3e
       -0.16963851 0.1722512 -0.26204357 0.17152132
000260 a4 09 2a be bd 16 06 3e 14 82 63 be 6e 06 48 3d
       -0.1660524 0.13094611 -0.2221759 0.048834257
000270 a0 90 96 be 70 eb c3 bd 14 14 0f 3c cd 36 9e be
       -0.29407215 -0.095663905 0.008732814 -0.30901185
000280 3d 36 93 3e ee 49 65 3d ce e4 be be 2a 52 f9 3d
       0.28752318 0.055978708 -0.3728394 0.12173875
000290 72 cd 81 3e ab ac b9 be ce 78 8b be 12 ad 28 3e
       0.25352055 -0.36264548 -0.27240604 0.16472271
0002a0 03 32 6f be e9 75 03 be 94 eb b9 bd 12 01 a7 3c
       -0.23358922 -0.12837948 -0.09078136 0.020386253
0002b0 4b ac 8d 3d 0d 96 69 be e8 da 5e 3e f8 05 e4 3e
       0.06917628 -0.22811146 0.21763194 0.44535804
0002c0 4b 06 7f 3e c3 21 b0 be 52 46 86 3e 79 3f fa 3d
       0.24904744 -0.34400758 0.26225525 0.12219138
0002d0 71 32 eb 3d 55 95 90 3e 24 ff c6 be 6d 3e 91 3e
       0.1148423 0.2823893 -0.38866532 0.2836794
0002e0 67 39 d8 3c 4e 28 52 be 7c c6 ef 3d e3 a4 b8 be
       0.02639456 -0.20523188 0.1170778 -0.360633
0002f0 42 ef 82 bd 39 ae b8 3d b5 8f 80 be 85 11 21 bd
       -0.06393291 0.09017605 -0.2510964 -0.03932335
000300 b6 40 c1 be e7 d5 92 3e a7 37 b8 3e 22 7a 33 be
       -0.37744683 0.2867882 0.3597996 -0.17527059
000310 63 06 84 3e 34 bd d1 be 4c 20 6a bd b1 3a 13 3f
       0.25786123 -0.40964663 -0.057159707 0.5751143
000320 f2 bb b9 3c a1 45 e3 3e c5 65 6c be bb 38 0b be
       0.022672627 0.4438906 -0.23085697 -0.1359586
000330 7b d8 1d 3e d3 69 0b bd 3a 79 c9 3d d5 ab 08 3e
       0.15414612 -0.03403647 0.09837575 0.13346799
000340 97 6b ec 3d 2c 10 a5 3e 4c b9 63 be 74 9b 0c 3e
       0.11543959 0.322389 -0.22238654 0.13731176
000350 7a da a6 3d f3 ab 04 be b3 ca cb be f1 3a 52 3d
       0.0814714 -0.12956218 -0.39803085 0.051325742
000360 36 32 52 3e ae bd 67 be 44 48 b4 bd d8 29 c8 bd
       0.20526966 -0.22630951 -0.08802846 -0.09773606
000370 1c 7a 70 3e fc 23 89 ba 1f 05 d0 bc 03 25 85 3e
       0.23484081 -0.0010462995 -0.025393067 0.260048
000380 bd 7b 36 3e 14 eb c2 be b5 4e ad 3e f1 5c df bd
       0.1782064 -0.38069975 0.3384911 -0.10906399
000390 e2 c2 b4 bd 88 1e 86 be f5 57 66 be 89 77 9c 3d
       -0.088262334 -0.26195168 -0.2249449 0.07639987
0003a0 79 33 a3 3c af 92 e1 3d 63 29 7d bd 53 77 43 be
       0.019922005 0.11014306 -0.061807048 -0.19088487
0003b0 74 ec 30 be 4d 85 5a bd 2a 9b 6b 3d 1e 65 81 be
       -0.172777 -0.05334978 0.057521023 -0.2527246
0003c0 48 e2 1f 3e 86 3c 97 3d e9 6b 92 3e 2b 28 2e 3e
       0.15613663 0.07384591 0.28597954 0.1700751
0003d0 ec 83 db bd cd 4b d7 3e 93 4c 80 be ab 3c aa bd
       -0.107185215 0.4205002 -0.25058421 -0.08312353
0003e0 00 26 3e be d2 45 07 be 70 65 b4 bd 67 4f 14 3d
       -0.18569183 -0.13210228 -0.0880841 0.036208536
0003f0 79 33 8d be e4 11 41 be 1e c8 ae 3c a0 2d 8c 3e
       -0.27578333 -0.18854481 0.021335658 0.2737856

correction.mlp.0.bias f4 [10]
000000 89 cc 09 bd 0b 57 8e 3d f8 c5 05 be 23 35 b1 bd
       -0.033642326 0.06950196 -0.130638 -0.08652713
000010 98 04 e3 bd ee fa 1a 3c 8f 22 a8 bd ef ea 62 3d
       -0.110848606 0.00945924 -0.082097165 0.05539983
000020 c8 1f cd bc c9 74 93 bc
       -0.025039569 -0.018000023

autoencoder.encoder.mlp.mlp.0.weight f4 [10, 1]
000000 ea 2f af 3e a3 dd 79 be 21 e4 e4 bc 6a c8 01 3c
       0.34216243 -0.24400954 -0.027940812 0.007921318
000010 a2 c4 a3 be e4 2d 39 3e 04 ac c2 3e 24 b8 b5 3b
       -0.31985956 0.18083912 0.38021863 0.005545633
000020 d3 c2 80 be 3d 1a 5e 3c
       -0.2514864 0.01355606

autoencoder.encoder.mlp.mlp.0.bias f4 [10]
000000 c3 3c ad bd 68 bb 7f 3d 93 ba 42 bf 7e af 3a bf
       -0.08458855 0.062434584 -0.7606594 -0.7292403
000010 9e 39 1c 3e 82 03 b8 3b db 7b d1 bc bd 4a 1f 3e
       0.15256354 0.0056156525 -0.025571754 0.15555854
000020 7b 8d 3b bc d1 de a8 3e
       -0.011447306 0.32982495

autoencoder.encoder.mlp.mlp.2.weight f4 [10, 10]
000000 72 fe e2 3e 59 7c 92 be ea 2e e8 3e ad c7 c5 be
       0.4433475 -0.28610495 0.45348293 -0.38628903
000010 6c e7 67 3e de 24 f7 3a 4b be c1 3e 66 d3 ff 3e
       0.22646874 0.0018855592 0.37840495 0.49965972
000020 56 ce e6 3c e5 3d b1 3e 22 04 0a 3e 08 9d a4 be
       0.02817456 0.34617534 0.13478139 -0.32151055
000030 a4 40 3f 3f 94 0d df 3e 42 0b 8e 3e 44 17 ef be
       0.7470801 0.43565047 0.27742964 -0.46697438
000040 02 24 e5 3d 1f b2 b3 be 00 ea 13 bd a8 f8 55 3e
       0.111885086 -0.35096833 -0.03611183 0.20895636
000050 f3 5e 05 be 78 ac 7f be 2c 4e cf 3e 4c e3 e8 bd
       -0.13024502 -0.24968135 0.40489328 -0.113714784
000060 45 cc 37 be a4 78 26 3f 15 2a ba bd 2f f0 1e 3f
       -0.17949016 0.65027833 -0.09090058 0.6208524
000070 b7 dc 62 bd 2e 72 03 be e7 d0 05 3d a6 fd 9d 3c
       -0.05538627 -0.12836525 0.032669928 0.019285988
000080 cb 14 b4 bb b6 e1 db 3e 8d 4e 98 3e 89 c5 9a 3d
       -0.005495643 0.4294564 0.2974743 0.07557208
000090 fa 31 92 be 99 ba 0b bf 7f 1a be be 0b 91 96 be
       -0.28553754 -0.545816 -0.3712959 -0.29407534
0000a0 96 b7 82 be cf 13 b8 bd c5 e0 0d 3f 23 20 04 3f
       -0.2553069 -0.08988153 0.55421096 0.51611537
0000b0 ef 29 fe 3d 46 66 2c be ec 2b a5 3e 84 09 ab bd
       0.12410342 -0.16835889 0.32260072 -0.08351424
0000c0 e7 d4 b6 bd bf 7d 95 be 6d 60 10 3e bc 0d 9e be
       -0.08927327 -0.291975 0.14099284 -0.30869853
0000d0 db d2 28 be 85 f2 f0 be f5 63 b6 3e 39 8c d9 3e
       -0.16486685 -0.47060028 0.35623136 0.42489794
0000e0 41 8c a3 be 95 e0 c7 3e e1 fe e4 bd 25 44 5f bc
       -0.31942943 0.3903853 -0.11181427 -0.013627087
0000f0 4e 3b cd be 3b 33 2a bf 90 fc 59 3f de 0d a7 3e
       -0.40084308 -0.6648442 0.85151005 0.32627767
000100 72 e7 a1 3e 4a f7 12 3f c4 e9 b1 be 66 4c 1f 3e
       0.3162189 0.57408583 -0.34748662 0.15556487
000110 d3 46 82 3e cf fa 6b bd 20 87 dc 3e d8 4f 25 be
       0.2544466 -0.057612237 0.43071842 -0.16143739
000120 df 88 7a bf ab 0d 5e bf ba 3f 30 be 26 60 94 bd
       -0.978651 -0.86739606 -0.1721181 -0.07244901
000130 c5 f8 be be 9b 5b 66 3e 71 ca f9 bd 62 fa b8 3e
       -0.3729917 0.22495882 -0.12196816 0.36128527
000140 3f 78 3a be ba e8 0b bd 63 6e c7 bc 70 75 46 bf
       -0.18209933 -0.034157492 -0.024344629 -0.77522945
000150 11 f2 fb be af fc 39 3e 18 6f 13 3d 0e 22 c7 bd
       -0.4920812 0.18162797 0.03599462 -0.09723292
000160 42 44 e9 be 03 74 8b 3e 0c 49 6f 3e 35 a1 e5 bd
       -0.4555989 0.27236947 0.23367709 -0.112123884
000170 71 56 16 be 87 f5 03 3e 97 c4 d3 3d 96 2c 8a be
       -0.14681412 0.1288663 0.10340231 -0.2698714
000180 91 2e 6f bd a4 bc 2c bf 80 12 3a bd bf ef 94 bd
       -0.05839402 -0.6747534 -0.0454278 -0.072722904

autoencoder.encoder.mlp.mlp.2.bias f4 [10]
000000 b7 a1 a8 3d 8e b5 00 3e f0 3f 00 3c 0f d7 88 bd
       0.0823397 0.12569258 0.007827744 -0.06681644
000010 bc 40 36 be e8 14 00 3e d0 46 65 bd d2 09 f5 bc
       -0.17798132 0.12507975 -0.055975735 -0.02991191
000020 25 9d 91 be 58 97 10 be
       -0.28440204 -0.14120233

autoencoder.decoder.mlp.mlp.0.weight f4 [10, 10]
000000 1d 71 21 be c9 81 ef be 34 5c 8d bf dd 18 49 bf
       -0.15765806 -0.46778706 -1.1043763 -0.78553563
000010 a6 a3 83 bf 84 b1 df 3e d3 ae 91 bf 77 44 53 3f
       -1.0284317 0.4369012 -1.1381477 0.82526344
000020 a7 0c 59 3e 19 03 bb 3f 62 31 46 3b 2f 77 cc 3e
       0.21196233 1.461032 0.0030241837 0.3993468
000030 9b f3 60 be 5c df 14 be a9 15 4a be 18 4d 9c 3d
       -0.21967928 -0.1453833 -0.19734825 0.07631892
000040 88 83 84 3e ab 02 60 bf 43 c3 5c bf b7 d1 a9 3e
       0.258816 -0.8750407 -0.86235446 0.33167812
000050 29 f1 81 3f 06 91 d6 3c de 3c 3a 3e 2f 7f 86 3e
       1.0151721 0.0261922 0.18187281 0.26268908
000060 d1 79 62 3e 4b 40 73 3e 2b 6f 9b be 80 be e4 be
       0.22116782 0.23754995 -0.30358252 -0.4467659
000070 46 8f 2a 3e 5c a2 b1 3e 30 68 2a bd 67 c1 15 3f
       0.16656217 0.34694183 -0.041603267 0.58498234
000080 07 c1 14 bf cf 94 ec bc 01 6e 95 3e 18 15 ec 3e
       -0.58107036 -0.028879551 0.2918549 0.46109843
000090 91 d5 1d 3e d0 75 90 bf 28 c3 a9 bf b2 0b c8 3e
       0.154135 -1.1285954 -1.3262682 0.39071423
0000a0 cb f8 0c be 4c be 90 bd 56 00 5c be 94 fd 8f be
       -0.13766782 -0.07067546 -0.21484503 -0.28123152
0000b0 12 e8 90 3e 21 40 f7 bd 96 4c 7d 3e 08 aa 55 be
       0.28302056 -0.120727785 0.24736246 -0.20865643
0000c0 a3 c8 33 3e 60 a2 18 be 6e 22 96 3e 23 3e f4 3d
       0.17557006 -0.14905691 0.29323143 0.11925914
0000d0 29 db a7 be a7 92 9d 3e 0b 9c 9e bd f5 d6 4e bf
       -0.32784393 0.3077595 -0.077446066 -0.8079675
0000e0 f6 3d 16 bd 86 82 2f 3d 74 59 22 3f 2c 22 1f 3e
       -0.036680184 0.042849086 0.63417745 0.1554038
0000f0 6f 67 db be 67 bf f3 3e b7 3a 03 bf 58 b1 be 3e
       -0.4285235 0.47606966 -0.51261467 0.37244678
000100 2d d9 b5 3c b3 7c 3e 3c 95 ee 4f 3f ca cc 34 bf
       0.022198284 0.01162641 0.8122342 -0.70624983
000110 fe 5f 58 bf 32 28 27 3f 34 13 91 bd c9 40 86 3e
       -0.8452147 0.6529571 -0.07083741 0.26221302
000120 67 92 77 3e b3 32 61 3e 07 aa c8 3e 46 3a 40 bc
       0.24176942 0.21991996 0.3919222 -0.0117326435
000130 a8 05 9b be 98 ed ca be dc 53 66 3d d9 b9 84 3e
       -0.30277753 -0.39634395 0.05623232 0.2592304
000140 7e e4 ab 3f 20 b1 1d 3f a7 ec 2e 3f fe 2a e4 bd
       1.3429105 0.61598396 0.6832985 -0.111410126
000150 31 dd 38 3e 24 84 0a 3d d7 30 52 3e c8 3e e6 be
       0.18053128 0.033817425 0.20526443 -0.44969773
000160 f7 97 04 bd e9 d6 7d bf 13 52 27 3e 16 7e e8 3c
       -0.032371487 -0.9915605 0.16339903 0.028380435
000170 f4 60 04 be 91 bd 75 3e e6 19 bd 3e d9 69 02 bd
       -0.1292761 0.23998095 0.3693382 -0.031839225
000180 2e 8d 1c 3d c5 8a e4 be b6 13 14 3f ad c8 04 3f
       0.038220577 -0.44637123 0.57842577 0.51868707

autoencoder.decoder.mlp.mlp.0.bias f4 [10]
000000 18 c8 a4 bd 42 e1 14 3f 2e bc 06 be 74 dc 24 3f
       -0.08045977 0.58156216 -0.13157722 0.64398885
000010 6b 64 21 be 45 45 2b bf b9 59 70 3e 6a 31 d0 be
       -0.15760963 -0.6690257 0.23471726 -0.406627
000020 77 86 20 3e 3c 05 95 be
       0.15676294 -0.29105556

autoencoder.decoder.mlp.mlp.2.weight f4 [1, 10]
000000 f0 94 80 3f fa 6d 5f bf 12 3d 83 3f 5b 68 3a bf
       1.0045452 -0.87277186 1.0253012 -0.72815484
000010 85 0f ec be 5e 9d fb bd 85 f7 f3 be 59 99 bc bd
       -0.4610559 -0.12285875 -0.4764978 -0.09208936
000020 0b 0d 88 3f d0 ce ce be
       1.062898 -0.4039216

exp_avg f4 [10]
000000 00 00 00 00 00 00 00 00 00 00 00 00 00 00 00 00
       0.0 0.0 0.0 0.0
000010 00 00 00 00 00 00 00 00 00 00 00 00 00 00 00 00
       0.0 0.0 0.0 0.0
000020 00 00 00 00 00 00 00 00
       0.0 0.0

exp_avg_sq f4 [10]
000000 00 00 00 00 00 00 00 00 00 00 00 00 00 00 00 00
       0.0 0.0 0.0 0.0
000010 00 00 00 00 00 00 00 00 00 00 00 00 00 00 00 00
       0.0 0.0 0.0 0.0
000020 00 00 00 00 00 00 00 00
       0.0 0.0

exp_avg f4 [10]
000000 00 00 00 00 00 00 00 00 00 00 00 00 00 00 00 00
       0.0 0.0 0.0 0.0
000010 00 00 00 00 00 00 00 00 00 00 00 00 00 00 00 00
       0.0 0.0 0.0 0.0
000020 00 00 00 00 00 00 00 00
       0.0 0.0

exp_avg_sq f4 [10]
000000 00 00 00 00 00 00 00 00 00 00 00 00 00 00 00 00
       0.0 0.0 0.0 0.0
000010 00 00 00 00 00 00 00 00 00 00 00 00 00 00 00 00
       0.0 0.0 0.0 0.0
000020 00 00 00 00 00 00 00 00
       0.0 0.0
