dirichlet/dsgps/results/constant_dataset/70_ite_gamma_0_9/ckpt/final_model.pt (torch, 80909 bytes, 69 tensors)

laynorm.weight f4 [10]
1.0 1.0 1.0 1.0 1.0 1.0 1.0 1.0
1.0 1.0
00000000: 0000 803f 0000 803f 0000 803f 0000 803f
00000010: 0000 803f 0000 803f 0000 803f 0000 803f
00000020: 0000 803f 0000 803f

laynorm.bias f4 [10]
0.0 0.0 0.0 0.0 0.0 0.0 0.0 0.0
0.0 0.0
00000000: 0000 0000 0000 0000 0000 0000 0000 0000
00000010: 0000 0000 0000 0000 0000 0000 0000 0000
00000020: 0000 0000 0000 0000

phi_to.mlp.mlp.0.weight f4 [10, 23]
-0.15182087 0.3811216 0.21974874 0.18391582 -0.17356934 0.0501975 -0.19237106 0.04175161
0.18284951 0.12171904 0.03849522 -0.0021125055 -0.09121974 0.38356692 -0.21562763 -0.09700794
-0.35834748 -0.2996077 0.3012272 0.20132639 0.23001131 0.058068044 0.18730253 -0.3309364
-0.43412778 -0.0065252767 0.32073608 0.1797121 -0.39439502 0.53398067 -0.31823128 0.27882797
-0.17812097 -0.035316695 0.21390676 0.26856038 0.4314869 0.1984905 -0.10706518 0.026943795
-0.021236526 0.27398875 0.13660058 -0.19059528 0.0060941903 0.02936444 -0.10348224 -0.14576443
-0.442507 0.06531018 0.13075939 -0.48519546 0.027089393 0.27076563 0.17400973 0.21025081
-0.2792158 0.13604797 0.10881625 -0.15857753 -0.022092773 0.35070065 0.038968418 -0.014680728
0.08712315 -0.26809353 -0.17053917 -0.02563939 0.10769038 0.24905822 -0.114868924 -0.00055186346
0.1797612 -0.121111564 -0.21905942 0.25439656 0.18960115 0.13661346 -0.069972105 -0.07760844
0.44154412 -0.6723796 -0.01722366 0.32220238 -0.29975444 0.15482327 0.48558572 -0.39806017
0.2332362 -0.026315251 0.061069753 -0.09617083 -0.3391774 -0.47142693 -0.3044642 -0.3012071
-0.003214076 -0.3542396 -0.24261245 0.06093016 -0.3771251 0.14907444 0.10651904 0.20675658
0.13318333 -0.45831686 -0.33597782 -0.42759988 0.14317949 0.12515037 0.11610681 0.1487624
0.053766016 0.0018539671 -0.16435057 -0.28216058 0.08241302 0.04148426 -0.061209366 0.3213199
-0.3587705 0.22871153 -0.35837713 0.107780255 0.36104363 0.2845095 0.022887576 -0.19979577
-0.011390421 -0.034166656 0.081376635 -0.15255214 0.15635708 0.19493993 -0.14304975 -0.17426167
-0.2424124 -0.31430164 -0.26816785 0.47888324 -0.47587308 0.44243887 0.3770989 -0.36124453
-0.06644243 0.08806497 0.1534208 0.15826567 0.15472637 0.37846738 -0.14550829 0.54251885
-0.29877022 0.09841152 -0.021459334 -0.02326066 0.14877966 0.17873304 0.25732857 0.18126062
0.16847503 0.15130965 0.3173837 0.24918564 -0.6539246 0.1924592 0.50046825 0.10697547
-0.36328477 0.112616085 -0.16552739 -0.3406682 0.08190234 0.2255788 -0.13975243 0.036106896
0.3799937 0.39763942 -0.30428424 -0.10581075 -0.012348665 0.031758536 0.03851967 -0.29029265
0.061241794 0.075774625 0.09723761 0.077742636 -0.4053446 0.35113835 -0.2923393 0.074293695
0.085944094 -0.3955597 -0.45482427 -0.30261096 0.5930638 0.2908654 -0.027197786 -0.12348396
-0.07482359 -0.2868096 0.13901839 0.014881364 0.22217475 0.018605646 -0.095555976 -0.024420604
0.57406807 -0.4826472 0.2429383 -0.40883145 0.37333244 -0.08571733 0.033889506 0.2834107
-0.2141305 0.19770347 -0.32533014 0.1403569 0.13659361 -0.15942448 0.10467246 0.43224472
0.027236747 -0.32537806 -0.10478574 0.09219191 0.01038266 -0.20072168
00000000: ee76 1bbe 5f22 c33e d005 613e 6e54 3c3e
00000010: 29bc 31be e59b 4d3d ebfc 44be bc03 2b3d
00000020: e73c 3b3e d547 f93d 2aad 1d3d f671 0abb
00000030: 6ad1 babd e262 c43e 7dcd 5cbe 19ac c6bd
00000040: 5279 b7be 2e66 99be 743a 9a3e 8128 4e3e
00000050: 1688 6b3e c2d8 6d3d 3ccc 3f3e 7f70 a9be
00000060: ff45 debe fdd1 d5bb 8537 a43e 7306 383e
00000070: 25ee c9be f5b2 083f 36ef a2be 8ac2 8e3e
00000080: 5865 36be 3da8 10bd 600a 5b3e bf80 893e
00000090: daeb dc3e 1841 4b3e fd44 dbbd 3cb9 dc3c
000000a0: 39f8 adbc 4148 8c3e 06e1 0b3e 692b 43be
000000b0: c6b1 c73b b28d f03c 7fee d3bd 4543 15be
000000c0: 4790 e2be 58c1 853d cae5 053e 8a6b f8be
000000d0: 93ea dd3c cba1 8a3e 9b2f 323e fd4b 573e
000000e0: 60f5 8ebe 2950 0b3e 0edb de3d 2662 22be
000000f0: e7fb b4bc 098f b33e 599d 1f3d 7087 70bc
00000100: 9f6d b23d 8e43 89be d2a1 2ebe b309 d2bc
00000110: c68c dc3d 1e09 7f3e 6640 ebbd eeaa 10ba
00000120: 5213 383e 5709 f8bd 1d51 60be 4440 823e
00000130: ce26 423e 66e4 0b3e 894d 8fbd 2cf1 9ebd
00000140: 1212 e23e 1221 2cbf a218 8dbc b6f7 a43e
00000150: 6a79 99be fe89 1e3e b19e f83e 8bce cbbe
00000160: 78d5 6e3e 1593 d7bc 4724 7a3d 36f5 c4bd
00000170: a9a8 adbe df5e f1be bbe2 9bbe d137 9abe
00000180: 3fa3 52bb e55e b5be 666f 78be e791 793d
00000190: 8b16 c1be f8a6 183e a826 da3d ffb7 533e
000001a0: 3661 083e 82a8 eabe 4905 acbe 5fee dabe
000001b0: a59d 123e 6b27 003e 68c9 ed3d 2c55 183e
000001c0: c139 5c3d d000 f33a 844b 28be 5a77 90be
000001d0: 28c8 a83d 66eb 293d acb6 7abd 0b84 a43e
000001e0: c4b0 b7be 5b33 6a3e 357d b7be e5bb dc3d
000001f0: b6da b83e 3bab 913e ba7e bb3c 4397 4cbe
00000200: e39e 3abc 56f2 0bbd cba8 a63d a136 1cbe
00000210: 121c 203e 559e 473e a27b 12be a771 32be
00000220: f53a 78be 25ec a0be 4c4d 89be 2f30 f53e
00000230: a3a5 f3be 5987 e23e 1b13 c13e 0bf5 b8be
00000240: f812 88bd 685b b43d 581a 1d3e 6510 223e
00000250: 9770 1e3e 7ac6 c13e 2000 15be 84e2 0a3f
00000260: 69f8 98be fb8b c93d 7ccb afbc 248d bebc
00000270: b259 183e cb05 373e 92c0 833e 629c 393e
00000280: b884 2c3e ebf0 1a3e 1e80 a23e 852a 7f3e
00000290: 9a67 27bf 0614 453e b01e 003f f515 db3d
000002a0: 7600 babe 43a3 e63d 0380 29be 106c aebe
000002b0: 6abc a73d 21fe 663e 431b 0fbe d3e4 133d
000002c0: 898e c23e 6597 cb3e 25cb 9bbe 4eb3 d8bd
000002d0: 0e52 4abc 3d15 023d cdc6 1d3d 3da1 94be
000002e0: add8 7a3d ba2f 9b3d 8324 c73d 8837 9f3d
000002f0: 5489 cfbe 68c8 b33e 7fad 95be 4b27 983d
00000300: 7503 b03d cd86 cabe bade e8be d3ef 9abe
00000310: 07d3 173f 4fec 943e e4cd debc 29e5 fcbd
00000320: 1c3d 99bd b5d8 92be d65a 0e3e f7d0 733c
00000330: c781 633e de6a 983c dab2 c3bd b80d c8bc
00000340: 20f6 123f 891d f7be d1c4 783e 5b52 d1be
00000350: 6e25 bf3e 918c afbd b9cf 0a3d 351b 913e
00000360: 0745 5bbe c772 4a3e ac91 a6be b8b9 0f3e
00000370: 32df 0b3e 2c40 23be 845e d63d 2e4f dd3e
00000380: 991f df3c f497 a6be e899 d6bd 1dcf bc3d
00000390: 081c 2a3c fc89 4dbe

phi_to.mlp.mlp.0.bias f4 [10]
-0.0349634 -0.01217392 -0.08143766 0.08442378 0.011562461 -0.014840219 0.04317569 -0.027577914
0.08331389 0.039175544
00000000: c835 0fbd 1f75 47bc cac8 a6bd 60e6 ac3d
00000010: 7a70 3d3c 6424 73bc fed8 303d 14eb e1bc
00000020: 79a0 aa3d 8976 203d

phi_to.mlp.mlp.2.weight f4 [10, 10]
-0.1267153 0.46973577 -0.41301528 -0.20026425 0.107108265 0.24795625 0.43084687 0.24948809
-0.59298337 -0.0036115833 -0.24963605 0.12250135 -0.045587182 0.6287035 -0.0054642004 -0.3037233
0.06863612 -0.050364677 -0.32223666 -0.39229396 -0.33869147 -0.061706014 0.06475713 -0.45636842
0.20718744 -0.22162344 -0.6977568 -0.115220815 0.36710903 -0.34846517 0.09675639 -0.122814596
-0.059475906 0.09549271 -0.45046303 -0.29949903 -0.13836563 0.05615898 0.410942 0.3247766
0.31598586 -0.12713854 -0.55404633 -0.19400552 -0.42655534 0.085570164 -0.14712687 -0.13243662
-0.078567 0.12177715 0.3322596 0.6037917 -0.08720275 0.061812967 0.52141845 0.32041582
-0.023976948 0.13051905 -0.14146414 0.08911772 -0.13909572 -0.3171397 -0.42450893 -0.3018999
0.26189163 0.0754075 -0.19390312 0.5226685 0.29618773 0.33966964 0.048156932 0.018036848
-0.07901637 -0.19028756 -0.137509 -0.24035029 -0.605212 0.16538332 -0.21297249 -0.10586179
-0.025984 0.6441636 -0.22037816 -0.110270776 0.31230775 0.031734716 0.5544571 0.30071753
0.5490948 -0.24486943 0.2543731 0.11250047 -0.25533924 -0.41029587 0.146727 0.33090118
-0.43823212 -0.5473343 0.21583086 -0.42216122
00000000: a8c1 01be 3581 f03e bd76 d3be 1212 4dbe
00000010: 945b db3d 3ee8 7d3e f697 dc3e ce79 7f3e
00000020: c2cd 17bf 50b0 6cbb 98a0 7fbe fde1 fa3d
00000030: a0b9 3abd b6f2 203f 090d b3bb 9f81 9bbe
00000040: 1891 8c3d 314b 4ebd 34fc a4be c1da c8be
00000050: f868 adbe 72bf 7cbd 639f 843d 1fa9 e9be
00000060: f228 543e 41f1 62be 31a0 32bf e4f8 ebbd
00000070: b7f5 bb3e 076a b2be 3728 c63d 3886 fbbd
00000080: 029d 73bd af91 c33d 17a3 e6be f057 99be
00000090: b8af 0dbe f506 663d fd66 d23e 1e49 a63e
000000a0: e6c8 a13e 9b30 02be fbd5 0dbf 62a9 46be
000000b0: 7665 dabe 693f af3d 6da8 16be 779d 07be
000000c0: bce7 a0bd 4c66 f93d ee1d aa3e 1892 1a3f
000000d0: 5b97 b2bd 982f 7d3d ae7b 053f 8b0d a43e
000000e0: 4e6b c4bc c9a6 053e fadb 10be 5a83 b63d
000000f0: 1c6f 0ebe 2260 a2be 3c59 d9be a092 9abe
00000100: a916 863e 3f6f 9a3d 8a8e 46be 9acd 053f
00000110: eba5 973e 2ee9 ad3e 3440 453d 03c2 933c
00000120: 56d3 a1bd beda 42be 29cf 0cbe 631e 76be
00000130: 2cef 1abf 3f5a 293e 7615 5abe 11ce d8bd
00000140: 66dc d4bc e8e7 243f d0aa 61be a5d5 e1bd
00000150: cde6 9f3e 43fc 013d e7f0 0d3f a6f7 993e
00000160: 7a91 0c3f 0dbf 7abe 313d 823e a566 e63d
00000170: d3bb 82be 4d12 d2be 9a3f 163e e16b a93e
00000180: f65f e0be 1a1e 0cbf c402 5d3e 8425 d8be

phi_to.mlp.mlp.2.bias f4 [10]
-0.08001999 -0.12908778 -0.044803645 0.08443196 0.025129339 -0.05465702 -0.09370734 -0.020447973
0.11469976 -0.032472964
00000000: 85e1 a3bd 962f 04be 0784 37bd aaea ac3d
00000010: 0bdc cd3c 0ae0 5fbd a2e9 bfbd 8282 a7bc
00000020: b5e7 ea3d 5f02 05bd

phi_from.mlp.mlp.0.weight f4 [10, 23]
-0.3517504 -0.11438056 0.39666092 -0.43965128 0.009563313 -0.27335215 -0.06296922 -0.018953722
-0.1672772 -0.03465837 0.14401868 0.3306766 0.17382379 -0.4375639 -0.3958427 -0.23733222
-0.35504574 0.19533582 -0.20308273 0.033229273 -0.0020513048 -0.092776 -0.09658373 0.039293986
-0.12942557 0.1951089 -0.42016786 -0.02182663 0.3720563 0.013311893 -0.07464708 -0.5320372
-0.15545371 0.28592616 0.059147324 0.58276147 0.004356185 -0.3720602 0.45842648 0.4041268
0.13124329 -0.0793843 0.5314254 0.08473014 0.060121767 -0.123145066 0.34435636 0.113812484
-0.030438112 -0.33936256 -0.030649919 0.451325 0.036193393 0.5682948 -0.017395012 -0.52821624
-0.37817565 -0.19433346 -0.22575018 -0.33003414 0.25730523 0.32577777 -0.07464641 -0.3156076
-0.43032172 -0.350853 0.22255696 -0.004090353 0.12943782 0.39293274 0.13524328 -0.22662269
-0.11373561 0.054307662 0.32567492 0.16070987 0.26820296 0.05307666 -0.35853323 0.26261666
0.27095494 0.5077973 -0.07507957 -0.09254691 0.23804177 0.46095842 0.186406 0.14174138
0.40508872 -0.13458669 0.13967818 -0.45254058 -0.04233034 0.37755817 -0.5522393 -0.019437797
-0.5574742 0.31698316 0.29854903 0.24478622 -0.13596791 -0.08939885 0.37643906 0.27935883
-0.19677652 -0.059686366 0.11179088 0.39648715 -0.28733402 -0.2563117 0.4645713 0.14229271
0.13508002 -0.005243947 0.25514734 0.028071092 0.2619904 0.14043647 0.28193888 -0.36477116
0.099497564 -0.71194124 0.33902818 0.14055124 -0.08947469 -0.25047246 0.33341464 0.2780286
-0.083749086 -0.46171668 -0.03084556 0.14737818 -0.44364676 -0.36158127 -0.112741046 -0.00081002933
-0.094600864 -0.11982265 -0.4075889 0.13715188 0.17148897 0.1289573 0.34551576 0.1735985
0.25923994 -0.3135846 -0.31748238 -0.5660145 0.30433777 -0.087683156 0.5975637 -0.13389353
-0.30839494 -0.16181399 -0.40687183 0.17155345 -0.15145585 -0.06440549 0.07220738 -0.025944155
-0.17514116 0.2758214 0.003786855 0.2059494 -0.036022753 -0.22170937 -0.1734575 0.53758776
-0.24580011 0.11298278 -0.14548558 0.12862852 0.239004 0.36038578 0.21138428 0.40418714
0.4695977 0.4538713 -0.20579611 0.14482437 -0.2901241 -0.03934077 0.054183528 0.1614367
0.24360572 -0.105057955 0.21936093 -0.055564284 -0.03200365 -0.34790474 -0.07505954 -0.22514695
-0.4824387 -0.063293986 0.33921942 0.04778218 0.14182504 -0.40501437 -0.011927734 -0.5204014
0.05819651 -0.005479237 0.24558619 0.17490585 -0.17026687 0.042978916 -0.014108451 -0.3243851
0.0053767757 -0.12874705 0.27458423 -0.17578386 0.38087624 -0.8263855 0.054062817 -0.4020541
-0.29613432 -0.1041286 0.44209382 0.33893833 -0.09542132 0.15837973 -0.12876175 -0.5001459
0.15088056 0.16619831 0.11379624 0.0627009 0.019961324 0.2888623
00000000: a118 b4be 5b40 eabd 2417 cb3e f919 e1be
00000010: 71af 1c3c d0f4 8bbe 02f6 80bd d644 9bbc
00000020: b74a 2bbe eff5 0dbd a279 133e 714e a93e
00000030: ddfe 313e 6008 e0be e5ab cabe 3807 73be
00000040: 8ec8 b5be 1d06 483e ebf4 4fbe 6b1b 083d
00000050: 2f6f 06bb 5801 bebd b1cd c5bd bbf2 203d
00000060: 2388 04be a1ca 473e 3e20 d7be c3cd b2bc
00000070: 2a7e be3e 201a 5a3c 91e0 98bd 9733 08bf
00000080: 422f 1fbe ea64 923e 7744 723d db2f 153f
00000090: 54be 8e3b ad7e bebe e0b6 ea3e b5e9 ce3e
000000a0: a464 063e 3c94 a2bd 7f0b 083f ff86 ad3d
000000b0: 3e42 763d 7b33 fcbd 7a4f b03e 8516 e93d
000000c0: 5959 f9bc eec0 adbe 8a15 fbbc 1214 e73e
000000d0: 863f 143d c57b 113f fc7f 8ebc 2e39 07bf
000000e0: 3da0 c1be 5aff 46be 0e2b 67be 3cfa a8be
000000f0: 83bd 833e 58cc a63e 38e0 98bd 5297 a1be
00000100: 2153 dcbe 01a3 b3be f9e5 633e 5e08 86bb
00000110: 598b 043e 7b2e c93e 377d 0a3e c70f 68be
00000120: 37ee e8bd b671 5e3d ddbe a63e 2191 243e
00000130: e651 893e e966 593d ab91 b7be b175 863e
00000140: 9bba 8a3e 01ff 013f 51c3 99bd 3c89 bdbd
00000150: 39c1 733e be02 ec3e 37e1 3e3e a724 113e
00000160: ca67 cf3e 18d1 09be cc07 0f3e 66b3 e7be
00000170: 9462 2dbd 4e4f c13e 8e5f 0dbf 043c 9fbc
00000180: a1b6 0ebf 9e4b a23e 6bdb 983e 3da9 7a3e
00000190: 2c3b 0bbe bf16 b7bd 9fbc c03e 1f08 8f3e
000001a0: c97f 49be b179 74bd 9ef2 e43d 5d00 cb3e
000001b0: 721d 93be 4a3b 83be 4adc ed3e 2eb5 113e
000001c0: 6b52 0a3e 6ad5 abbb aca2 823e 59f5 e53c
000001d0: 9b23 863e 94ce 0f3e 4b5a 903e 49c3 babe
000001e0: 61c5 cb3d c841 36bf 1a95 ad3e aaec 0f3e
000001f0: 823e b7bd ed3d 80be 53b5 aa3e c459 8e3e
00000200: a484 abbd 2166 ecbe d4af fcbc 4eea 163e
00000210: ab25 e3be 2e21 b9be c7e4 e6bd 2658 54ba
00000220: 19be c1bd 9465 f5bd 7eaf d0be 8b71 0c3e
00000230: ce9a 2f3e 620d 043e 71e7 b03e cec3 313e
00000240: 19bb 843e 298e a0be 0d8d a2be 54e6 10bf
00000250: 29d2 9b3e 3a93 b3bd eff9 183f 631b 09be
00000260: f1e5 9dbe 91b2 25be 8151 d0be b5ab 2f3e
00000270: 3e17 1bbe 07e7 83bd 76e1 933d d688 d4bc
00000280: 3458 33be 7638 8d3e e22c 783b 66e4 523e
00000290: 988c 13bd c807 63be d89e 31be 5a9f 093f
000002a0: 06b3 7bbe 8463 e73d 2cfa 14be 32b7 033e
000002b0: 77bd 743e 7c84 b83e 1f75 583e 9ef1 ce3e
000002c0: 1c6f f03e d261 e83e 37bc 52be d74c 143e
000002d0: 258b 94be ca23 21bd 8cef 5d3d aa4f 253e
000002e0: c773 793e a028 d7bd 27a0 603e 6097 63bd
000002f0: 4216 03bd 9220 b2be d1b8 99bd ec8c 66be
00000300: 3502 f7be 47a0 81bd 2bae ad3e 3fb7 433d
00000310: 953a 113e 0b5e cfbe 8b6c 43bc 0739 05bf
00000320: 775f 6e3d 2c8b b3bb f27a 7b3e 851a 333e
00000330: 705a 2ebe a90a 303d 2227 67bc ce15 a6be
00000340: aa2f b03b 44d6 03be 4e96 8c3e af00 34be
00000350: 3602 c33e 008e 53bf f970 5d3d 09da cdbe
00000360: eb9e 97be 6041 d5bd 1f5a e23e 5389 ad3e
00000370: 416c c3bd 4c2e 223e 1fda 03be 9009 00bf
00000380: 6f80 1a3e e42f 2a3e 010e e93d 5469 803d
00000390: ee85 a33c c2e5 933e

phi_from.mlp.mlp.0.bias f4 [10]
-0.0273799 0.039549414 0.16745536 -0.10005424 0.18243493 0.21689878 0.1885944 0.009249179
-0.052937884 0.2285912
00000000: d04b e0bc 91fe 213d 6b79 2b3e 3de9 ccbd
00000010: 39d0 3a3e b71a 5e3e e41e 413e de89 173c
00000020: 65d5 58bd d013 6a3e

phi_from.mlp.mlp.2.weight f4 [10, 10]
-0.112966314 -0.30504528 0.35599864 0.04971044 0.3699457 0.070964605 -0.6365927 -0.059477743
-0.0064994427 -0.35976005 -0.124380045 0.2803683 -0.29153177 -0.07169842 -0.32962602 0.2579997
0.296859 0.4975253 0.63793975 -0.41606358 -0.26254642 0.47024035 0.35282752 0.2540685
-0.106265046 -0.5800987 -0.07617506 0.6214046 -0.17091495 -0.59141195 0.44462556 0.51119894
0.10008304 0.1178944 0.35395932 -0.09801221 -0.24198192 0.038200166 -0.16967829 0.3111479
-0.17384602 0.6473535 -0.037885528 0.521471 -0.2798475 -0.4595873 -0.058274724 -0.16660942
0.47068775 -0.33557382 -0.18523754 0.15584889 0.03330004 -0.11171676 0.53559005 -0.29148594
0.5365608 0.12789947 -0.3371452 0.06314797 0.27666295 -0.12768556 -0.1925634 0.09680629
-0.32928237 -0.34073216 -0.29200423 0.016278014 0.07579363 -0.20787086 -0.565473 -0.33098504
0.25219828 0.53783804 -0.37321398 -0.028190838 -0.54789716 -0.3714924 -0.3987259 0.2438827
-0.13654996 -0.19012128 0.5957694 -0.12520875 0.10394343 0.68061036 -0.65174675 -0.20281945
-0.45525423 0.21553284 -0.37555903 -0.5762463 -0.118311346 0.015362812 0.63841504 0.17123225
-0.3150471 0.19130337 0.08560986 0.19566299
00000000: e25a e7bd e52e 9cbe 7445 b63e 2d9d 4b3d
00000010: 8669 bd3e e455 913d bdf7 22bf ef9e 73bd
00000020: 47f9 d4bb 7832 b8be f7ba febd 6f8c 8f3e
00000030: a743 95be 9fd6 92bd bec4 a8be 8918 843e
00000040: e7fd 973e a3bb fe3e 0550 233f 4906 d5be
00000050: 7c6c 86be 58c3 f03e cfa5 b43e 4415 823e
00000060: 7da1 d9bd 5981 14bf ab01 9cbd 5f14 1f3f
00000070: 5404 2fbe c666 17bf f6a5 e33e efdd 023f
00000080: 56f8 cc3d 9f72 f13d 283a b53e a0ba c8bd
00000090: 1cca 77be c777 1c3d 25c0 2dbe c74e 9f3e
000000a0: b104 32be f5b8 253f db2d 1bbd 207f 053f
000000b0: 2c48 8fbe 074f ebbe 7ab1 6ebd a99b 2abe
000000c0: fcfd f03e 55d0 abbe e9ae 3dbe da96 1f3e
000000d0: 9f65 083d c2cb e4bd 6e1c 093f a53d 95be
000000e0: 0c5c 093f 14f8 023e 4c9e acbe b953 813d
000000f0: c4a6 8d3e 01c0 02be 572f 45be 6042 c63d
00000100: b397 a8be 7274 aebe 9481 95be 7859 853c
00000110: b139 9b3d 19dc 54be d7c2 10bf df76 a9be
00000120: 2220 813e c1af 093f e715 bfbe 79f0 e6bc
00000130: fd42 0cbf 4034 bebe cd25 ccbe 63bc 793e
00000140: c1d3 0bbe 27af 42be 5884 183f b936 00be
00000150: 4be0 d43d 7b3c 2e3f e0d8 26bf e7af 4fbe
00000160: 1517 e9be a4b4 5c3e 4649 c0be e184 13bf
00000170: 384d f2bd 4eb4 7b3c 2b6f 233f 8257 2f3e
00000180: da4d a1be 08e5 433e 3954 af3d e15b 483e

phi_from.mlp.mlp.2.bias f4 [10]
0.052049007 0.021967782 0.032148607 -0.11329209 0.033147566 0.09295978 -0.26044548 0.02335606
0.18583918 0.06095127
00000000: 5731 553d c7f5 b33c 42ae 033d af05 e8bd
00000010: bec5 073d b261 be3d 1c59 85be 3555 bf3c
00000020: a04c 3e3e 0aa8 793d

z_k.mlp.0.weight f4 [10, 32]
-0.42440298 -0.3630076 0.77448237 -0.03966254 -0.14463024 -0.45297483 -0.0810148 0.26021436
0.17154603 0.31039193 0.014354107 -0.14001305 0.27069688 -0.34922174 0.08373197 0.032525558
-0.1766157 -0.18120933 -0.0023250077 0.18856338 -0.73027545 0.11524224 0.092409514 0.34107098
-0.15079804 -0.036959916 0.37809098 -0.51763284 -0.7333855 -0.29395297 0.09332691 -0.22346982
-0.048017073 -0.23701817 0.0179178 -0.062130656 0.31360373 -0.1752274 0.5385451 0.08555136
-0.035770155 0.15766439 0.28728834 0.038420368 0.1711471 -0.52016103 -0.16743211 0.16817781
0.09437032 0.36726734 -0.36804906 -0.008849644 -0.32245514 -0.13949235 0.14284818 0.121189296
-0.13838889 -0.4625742 0.3742517 0.5091302 -0.2230343 0.3799197 0.18182024 -0.16514803
0.18453148 0.1416741 -0.0799245 -0.42130452 -0.2221344 -0.019128358 0.008649626 -0.12471235
0.4850819 0.26171216 -0.11116133 -0.31001183 -0.1672277 -0.28303286 -0.0069461023 0.11983048
-0.2234102 0.1588235 -0.156807 0.033399448 -0.078953356 -0.17702198 -0.21726766 -0.15317823
-0.12414576 -0.14148523 0.13049312 -0.23517495 0.4227293 0.43952093 -0.021916747 0.010269923
-0.09091103 -0.009720144 0.0729245 -0.22415566 0.10570532 -0.27481264 0.1108441 -0.47150356
0.003863243 0.4380303 -0.1540293 0.1061467 0.38528398 0.1578566 0.11289614 -0.16216773
0.19868074 0.17798823 -0.11929397 0.3188771 -0.21207362 -0.069331914 -0.11717134 0.2828226
0.10317798 0.050507355 0.070845075 -0.28891686 -0.25874746 -0.16985495 0.22581989 -0.03396315
-0.16739528 -0.4052304 0.0716145 -0.11252854 -0.27392927 -0.6693324 0.19490321 -0.0044070426
0.1006252 0.36578837 0.02818637 0.3240232 0.7222884 -0.48373944 0.15344742 -0.35273665
-0.53211987 -0.033441674 -0.2916501 0.29138425 -0.09872065 -0.15437002 -0.5561182 0.21078633
0.21349938 0.18558693 0.48650312 0.09017549 -0.26039612 -0.1965929 0.08458837 -0.3543919
-0.5618528 -0.16589767 -0.32637227 -0.3362844 0.13747238 -0.3711306 0.5224063 -0.112209804
0.09807505 0.34633178 -0.041924316 0.45738333 0.38397756 -0.42339468 -0.35191032 0.18733154
-0.3498384 -0.2599089 -0.42491812 0.53843844 0.23933172 -0.39980772 -0.28867787 -0.12605456
-0.04005511 -0.24619406 0.12338046 -0.0108234985 -0.41412312 0.2025792 0.03563839 0.33373547
-0.15972653 -0.0075072427 0.57167864 -0.28546974 0.19554204 0.16127238 0.37314975 0.014190786
0.26043454 0.18140711 0.33351102 0.15695433 0.14379178 -0.09461896 -0.06273475 -0.11052785
0.04283702 0.27091742 -0.49372417 -0.06486525 0.08585076 -0.090092905 0.48194653 -0.11233458
0.7472858 0.3725257 0.39972875 -0.12156487 -0.48985898 0.001349566 -0.076264024 -0.441413
0.069395095 -0.071082555 -0.045414962 -0.31568575 -0.30556294 0.057972666 0.07361345 0.74185014
0.056924414 0.39292747 -0.20148432 0.6705098 -0.26006097 -0.26339802 0.023441462 -0.31504667
-0.32576266 -0.05296911 -0.087762445 0.16214813 -0.041734375 -0.6010581 -0.4102662 0.083100356
-0.25494567 -0.21304466 0.37866262 -0.112590574 0.3967449 0.3663394 -0.071031325 -0.11623073
00000000: 594b d9be 22dc b9be 7a44 463f 3075 22bd
00000010: f319 14be 51ec e7be 16eb a5bd d13a 853e
00000020: c3a9 2f3e b1eb 9e3e 7d2d 6b3c 955f 0fbe
00000030: c898 8a3e 31cd b2be ab7b ab3d 8539 053d
00000040: bfda 34be f08e 39be 285f 18bb c216 413e
00000050: 55f3 3abf 2004 ec3d 3341 bd3d dba0 ae3e
00000060: cd6a 1abe 4863 17bd 2495 c13e 9683 04bf
00000070: 27bf 3bbf 0181 96be 2e22 bf3d 46d5 64be
00000080: 8dad 44bd e4b4 72be 5ac8 923c b77c 7ebd
00000090: ab90 a03e d06e 33be 17de 093f 8d35 af3d
000000a0: ba83 12bd c672 213e 7517 933e ad5e 1d3d
000000b0: 2f41 2f3e 4629 05bf 5373 2bbe ce36 2c3e
000000c0: 3a45 c13d 770a bc3e ed70 bcbe 19fe 10bc
000000d0: d718 a5be 15d7 0ebe cb46 123e 1832 f83d
000000e0: d1b5 0dbe 87d6 ecbe eb9d bf3e 5b56 023f
000000f0: 1b63 64be d684 c23e 162f 3a3e 911c 29be
00000100: d2f5 3c3e 0413 113e 75af a3bd 3ab5 d7be
00000110: 3377 63be 13b3 9cbc 29b7 0d3c 3069 ffbd
00000120: a85c f83e 23ff 853e 8da8 e3bd dfb9 9ebe
00000130: bd3d 2bbe afe9 90be 219c e3bb af69 f53d
00000140: a5c5 64be a1a2 223e 0492 20be dccd 083d
00000150: 4cb2 a1bd 4045 35be 6a7b 5ebe c1da 1cbe
00000160: 2240 febd 81e1 10be fd9f 053e b4d1 70be
00000170: fa6f d83e e308 e13e c08a b3bc 2e43 283c
00000180: 902f babd 3d41 1fbc 7159 953d 1089 65be
00000190: 087c d83d 3eb4 8cbe 3b02 e33d ea68 f1be
000001a0: 762e 7d3b 8245 e03e dbb9 1dbe 7163 d93d
000001b0: f143 c53e 29a5 213e 1736 e73d 4c0f 26be
000001c0: f772 4b3e 8c42 363e 6650 f4bd dc43 a33e
000001d0: d429 59be e4fd 8dbd 87f7 efbd 20ce 903e
000001e0: fa4e d33d cde0 4e3d 3917 913d e9ec 93be
000001f0: 8c7a 84be 75ee 2dbe 543d 673e f21c 0bbd
00000200: ab69 2bbe 5c7a cfbe 9faa 923d 5d75 e6bd
00000210: 7540 8cbe 5e59 2bbf b594 473e f468 90bb
00000220: 9614 ce3d 9d48 bb3e 1ae7 e63c 5ee6 a53e
00000230: e5e7 383f b2ac f7be 5221 1d3e e699 b4be
00000240: 0239 08bf 23fa 08bd 2953 95be 5130 953e
00000250: 0d2e cabd 2d13 1ebe c35d 0ebf 5fd8 573e
00000260: 959f 5a3e 800a 3e3e f016 f93e edad b83d
00000270: a452 85be a64f 49be ab3c ad3d db72 b5be
00000280: 96d5 0fbf 14e1 29be 441a a7be 782d acbe
00000290: 8fc5 0c3e d404 bebe 6bbc 053f 41ce e5bd
000002a0: 92db c83d 6652 b13e d5b8 2bbd 262e ea3e
000002b0: b598 c43e 30c7 d8be 972d b4be d7d3 3f3e
000002c0: 051e b3be c812 85be de8e d9be 1ad7 093f
000002d0: 6013 753e 99b3 ccbe 96cd 93be 7214 01be
000002e0: d410 24bd 4c1a 7cbe e5ae fc3d 0b55 31bc
000002f0: f207 d4be ec70 4f3e 8ff9 113d 60df aa3e
00000300: 5a8f 23be 51ff f5bb 8859 123f 1729 92be
00000310: 2c3c 483e 9624 253e 7c0d bf3e 7880 683c
00000320: ad57 853e c9c2 393e f5c1 aa3e a3b8 203e
00000330: 273e 133e 96c7 c1bd 147b 80bd 6d5c e2bd
00000340: df75 2f3d b0b5 8a3e 6ac9 fcbe 12d8 84bd
00000350: 86d2 af3d a182 b8bd b2c1 f63e ac0f e6bd
00000360: 1f4e 3f3f b0bb be3e 3fa9 cc3e 01f7 f8bd
00000370: ccce fabe ece3 b03a 5030 9cbd e200 e2be
00000380: 041f 8e3d bb93 91bd 0a05 3abd 90a1 a1be
00000390: bf72 9cbe bf74 6d3d a6c2 963d e4e9 3d3f
000003a0: 9329 693d ca2d c93e e851 4ebe 88a6 2b3f
000003b0: b626 85be 1bdc 86be 4f08 c03c cc4d a1be
000003c0: 5dca a6be 23f6 58bd ccbc b3bd 290a 263e
000003d0: aaf1 2abd f2de 19bf 690e d2be 8530 aa3d
000003e0: 3d88 82be 6128 5abe 11e0 c13e e395 e6bd
000003f0: 2622 cb3e d690 bb3e df78 91bd 610a eebd

z_k.mlp.0.bias f4 [10]
-0.34118468 -0.21649548 -0.008663535 -0.090068124 -0.1644375 -0.08238966 -0.32538775 -0.12325473
-0.27288437 -0.19888128
00000000: c2af aebe feb0 5dbe 80f1 0dbc a375 b8bd
00000010: 4e62 28be e9bb a8bd 3999 a6be fa6c fcbd
00000020: 80b7 8bbe 89a7 4bbe

r_k.mlp.0.weight f4 [10, 32]
0.31207585 -0.0035218704 0.19361116 -0.18241893 -0.429099 0.17814031 0.21749835 -0.052308135
-0.46138865 -0.10699925 0.043443996 -0.12778118 -0.4141356 0.020760117 0.3269899 -0.13654597
-0.18109332 -0.04690135 -0.05258771 -0.07373689 -0.3213449 0.38037106 0.09169753 -0.26071882
-0.1842356 -0.022796186 0.047723107 -0.23936254 0.058046456 0.099665605 -0.29853907 0.08266173
0.009772816 0.17298582 -0.30676395 0.17492631 0.011257967 -0.051443074 0.3920446 0.073710166
-0.2540081 -0.25670666 -0.0046083825 0.27769694 -0.32287806 0.3417769 -0.19304955 0.3190443
0.11284889 -0.3207097 0.24627759 -0.3789437 0.08430902 -0.17523715 0.5268454 -0.1720635
-0.28989938 0.14608952 -0.058001 -0.27267173 -0.25183454 -0.19177563 0.83310086 -0.29713127
0.09232717 0.18917361 0.0162701 0.11087711 -0.04240045 -0.17124403 0.10318588 0.044137735
0.11479982 -0.24727604 -0.39386976 0.23710468 -0.13164128 -0.11750296 0.47909653 0.06445726
-0.51286983 -0.21449566 0.19805934 0.499755 -0.22710018 -0.15515254 -0.4722603 0.36733672
0.093447246 0.3015386 -0.0803998 0.15710893 0.19450213 -0.24166258 0.045974035 -0.18490095
-0.19858776 0.4581414 0.17524044 0.0150172 0.1656499 0.045648318 -0.22937782 -0.19309288
-0.11729751 -0.20121399 0.40011013 -0.31704783 -0.022299698 -0.38461772 -0.5066602 0.2998746
0.45202994 -0.08539361 0.3582296 0.07298106 -0.4934171 0.1734848 -0.4088984 -0.05782868
-0.10891163 -0.062943876 0.07219063 -0.074421085 0.032415815 -0.111082196 0.018956177 0.14664616
0.012303161 0.16621296 -0.019318674 -0.166137 0.08895357 -0.19771975 0.4383881 -0.28772172
0.18229796 0.28271207 -0.046581905 -0.12214647 -0.010377925 -0.065793216 0.15795068 0.20350586
-0.32096106 0.030076057 -0.26015964 0.4935525 0.1888228 -0.07781455 0.29536486 0.03514153
-0.06638259 0.56034833 0.38379622 -0.0757246 0.6058639 0.011012504 0.27519545 -0.23758383
0.33965757 0.19165075 -0.08986201 0.40628466 -0.3652478 0.29981545 0.06709993 -0.14539304
0.16186787 0.11261883 -0.20792456 0.27653164 0.103721656 0.2644003 -0.26165017 -0.2021532
-0.013478227 0.035353824 0.42474097 -0.16981536 0.4489229 -0.25552827 0.11904321 -0.02430707
0.03352195 0.2614891 -0.45180693 -0.16551091 0.2814474 -0.28742716 -0.21612522 -0.19926949
-0.13447581 -0.23515105 0.27118397 -0.0026707554 0.15880865 0.026109952 -0.2812939 0.06936251
-0.16820368 -0.28994563 0.017803937 0.37146512 -0.2944087 -0.08850346 -0.11925743 0.190358
-0.3586065 0.04429649 0.09397161 -0.14409584 0.12760189 -0.16753009 0.23661362 -0.12425089
-0.12290682 -0.13546889 0.21499053 0.39013645 -0.21738613 -0.15557538 0.14711039 -0.14109726
0.08302629 -0.05456011 -0.099443056 -0.0094337445 -0.35136512 0.41217268 -0.118669435 0.17286287
0.38738647 -0.3803076 -0.15378128 -0.021319298 0.14806004 0.27793056 0.09329959 0.34162864
-0.16873018 0.04688432 0.1534753 -0.2939285 0.27021173 0.1975493 -0.23053643 0.3941646
-0.050655875 -0.13449869 -0.27003214 -0.30388403 0.097083315 -0.23534372 0.26601097 -0.19746572
00000000: 68c8 9f3e 2ecf 66bb 0142 463e 07cc 3abe
00000010: ddb2 dbbe 6a6a 363e e3b7 5e3e 0e41 56bd
00000020: 223b ecbe 6c22 dbbd 55f2 313d 12d9 02be
00000030: 9509 d4be 1f11 aa3c 386b a73e b5d2 0bbe
00000040: 8770 39be a11b 40bd 3666 57bd 5e03 97bd
00000050: 5287 a4be ffbf c23e eacb bb3d f07c 85be
00000060: 42a8 3cbe 11bf babc 4e79 433d 741b 75be
00000070: 1fc2 6d3d 7b1d cc3d 1dda 98be 8e4a a93d
00000080: 291e 203c 3223 313e 2a10 9dbe e21f 333e
00000090: 5673 383c f9b5 52bd 12ba c83e 5bf5 963d
000000a0: 5a0d 82be 0e6f 83be ea01 97bb 4b2e 8e3e
000000b0: 4650 a5be 62fd ae3e c8ae 45be c659 a33e
000000c0: 521d e73d 1034 a4be 3130 7c3e e904 c2be
000000d0: 35aa ac3d 5e71 33be 57df 063f 6a31 30be
000000e0: b16d 94be 7e98 153e 7592 6dbd a19b 8bbe
000000f0: 75f0 80be d560 44be 1946 553f 9721 98be
00000100: 0716 bd3d bab6 413e df48 853c 8a13 e33d
00000110: 18ac 2dbd 985a 2fbe 1e53 d33d c5c9 343d
00000120: 2b1c eb3d ee35 7dbe 4ca9 c9be 92cb 723e
00000130: f9cc 06be 64a5 f0bd 244c f53e 2b02 843d
00000140: 704b 03bf c0a4 5bbe 11d0 4a3e e3df ff3e
00000150: f38c 68be 4fe0 1ebe 1acc f1be 8f13 bc3e
00000160: 4561 bf3d 4463 9a3e a6a8 a4bd 2ae1 203e
00000170: 912b 473e 6576 77be 454f 3c3d ad56 3dbe
00000180: 975a 4bbe 8291 ea3e 3b72 333e b40a 763c
00000190: 21a0 293e bbf9 3a3d 05e2 6abe 24ba 45be
000001a0: ad39 f0bd 0a0b 4ebe 3cdb cc3e 1854 a2be
000001b0: dbad b6bc 9dec c4be 7cb4 01bf 2a89 993e
000001c0: 7870 e73e d8e2 aebd df69 b73e 1877 953d
000001d0: 2ba1 fcbe 00a6 313e 225b d1be c4dd 6cbd
000001e0: 100d dfbd b8e8 80bd aed8 933d 156a 98bd
000001f0: 72c6 043d 107f e3bd fc49 9b3c 692a 163e
00000200: 3393 493c bb33 2a3e 3242 9ebc d11f 2abe
00000210: 4a2d b63d 0c77 4abe 6874 e03e 4350 93be
00000220: 51ac 3a3e a3bf 903e abcc 3ebd ee27 fabd
00000230: 2c08 2abc 98be 86bd d3bd 213e d763 503e
00000240: 0255 a4be 1062 f63c a533 85be eab2 fc3e
00000250: c45a 413e 3c5d 9fbd 103a 973e 91f0 0f3d
00000260: 98f3 87bd fd72 0f3f f080 c43e 8015 9bbd
00000270: e619 1b3f ca6d 343c 6be6 8c3e 2d49 73be
00000280: 99e7 ad3e 1840 443e 9309 b8bd 8b04 d03e
00000290: c201 bbbe 6981 993e b06b 893d eae1 14be
000002a0: b1c0 253e b3a4 e63d 2dea 54be 8e95 8d3e
000002b0: 056c d43d 7a5f 873e 03f7 85be 4001 4fbe
000002c0: c8d3 5cbc 2ccf 103d a677 d93e 14e4 2dbe
000002d0: 39d9 e53e 9ad4 82be edcc f33d 9f1f c7bc
000002e0: 504e 093d e6e1 853e 3d53 e7be b17b 29be
000002f0: e019 903e a729 93be ee4f 5dbe 4d0d 4cbe
00000300: 07b4 09be 70cb 70be a0d8 8a3e d707 2fbb
00000310: bc9e 223e 8ae4 d53c c105 90be ef0d 8e3d
00000320: 963d 2cbe c173 94be 90d9 913c ad30 be3e
00000330: bdbc 96be 4d41 b5bd 3d3d f4bd 35ed 423e
00000340: 459b b7be 3c70 353d 3074 c03d dc8d 13be
00000350: 12aa 023e 028d 2bbe d74a 723e 4077 febd
00000360: 92b6 fbbd 5bb8 0abe 7a26 5c3e f7bf c73e
00000370: 789a 5ebe 274f 1fbe 1ba4 163e cd7b 10be
00000380: b009 aa3d 6c7a 5fbd cda8 cbbd fe8f 1abc
00000390: 21e6 b3be 4c08 d33e f608 f3bd f702 313e
000003a0: 8557 c63e aeb7 c2be d778 1dbe cfa5 aebc
000003b0: 0d9d 173e ea4c 8e3e db13 bf3d f3e9 ae3e
000003c0: 9bc7 2cbe c609 403d a128 1d3e cc7d 96be
000003d0: 3159 8a3e 5d4a 4a3e be11 6cbe f1cf c93e
000003e0: 897c 4fbd 06ba 09be a741 8abe b096 9bbe
000003f0: 9ed3 c63d f2fd 70be 9732 883e 7434 4abe

r_k.mlp.0.bias f4 [10]
0.31481153 -0.11799654 0.1824282 0.22410016 -0.130985 0.22941844 -0.059848923 0.12582305
0.4517069 0.0801174
00000000: fa2e a13e 2ca8 f1bd 75ce 3a3e 837a 653e
00000010: ef20 06be abec 6a3e 2524 75bd c2d7 003e
00000020: 2046 e73e 9714 a43d

correction.mlp.0.weight f4 [10, 32]
-0.018859526 -0.5791158 0.19425906 0.20304279 -0.0365316 -0.25449982 0.16591418 0.2958757
0.36679783 -0.15810749 -0.15646003 0.049238127 0.14943533 0.041980818 -0.0529958 0.35122645
0.10443376 0.19067696 0.43628192 0.18557741 0.02393 -0.28162634 -0.46697226 -0.08642619
-0.068798706 0.10105351 -0.029882947 -0.16381651 0.033357657 -0.20316704 0.07132066 -0.33456007
0.099747345 -0.083557375 -0.18991987 -0.058554865 -0.26502243 0.20231281 0.28151104 0.11923523
-0.061337415 -0.08273742 0.27073362 -0.010389604 -0.13728681 -0.26863322 0.2052919 0.08230577
0.058765728 -0.33384752 -0.08389225 -0.09806916 0.11152769 -0.3086488 -0.1555892 0.24750319
0.39436334 -0.05322896 -0.28735593 -0.25158665 -0.035285097 -0.14528255 -0.14981557 0.41037673
-0.19700146 -0.21887667 -0.2572384 0.25176767 -0.07493117 0.1385747 -0.10767506 0.020131059
0.07311532 0.5028148 -0.06601886 -0.28217417 -0.07850798 -0.11656513 -0.21846017 -0.053602766
0.074215904 0.117157765 0.13331865 -0.21884465 -0.05246972 -0.22549672 -0.13839097 0.25886706
0.04017576 0.49198192 -0.4229757 -0.032955468 -0.26540586 0.24719535 -0.033179015 -0.28939462
0.114029184 -0.08313243 -0.31075737 -0.77437025 -0.0841449 -0.1878668 0.03420265 -0.4326626
0.20990598 0.30255222 -0.015265227 0.12521252 -0.05038421 -0.31454882 -0.31916502 0.079761714
0.3832396 0.34999716 0.2926461 -0.36264062 0.36280763 0.22457579 0.21113202 0.27774712
-0.036611386 -0.19320232 0.26702556 0.13951007 0.045966264 -0.48631832 0.008361892 -0.20368627
-0.445971 0.0445183 0.080532834 -0.24096647 0.3538994 0.2839272 -0.25735772 -0.10958065
0.15472245 -0.00082164124 0.18193221 0.18236092 -0.24905546 -0.036708347 -0.123573326 -0.30430165
0.008329365 0.038407937 0.322981 -0.04746999 -0.17448077 0.09226561 -0.30236608 0.20620266
-0.18107726 0.12125403 -0.17371751 0.030835468 -0.35687277 -0.07898744 0.024505163 -0.31179786
0.18863823 0.010277649 -0.47107193 0.12469956 0.246336 -0.37754235 -0.26419437 0.10270699
-0.23357882 -0.09159405 -0.1193851 0.093157835 0.065206856 -0.23872998 0.19592935 0.44918644
0.20642708 -0.35046837 0.27924022 0.11882123 0.17390922 0.21723798 -0.43828982 0.29490435
-0.024087597 -0.19777451 0.119212076 -0.33589616 -0.05286299 0.18552472 -0.04522416 -0.041056547
-0.31529877 0.10893057 0.40749314 -0.2946734 0.18933696 -0.49473116 -0.079679765 0.42999017
0.0031064858 0.49285853 -0.29553014 -0.18695599 0.18729438 -0.04382501 0.16024461 0.13090329
0.09842942 0.25921768 -0.2403063 0.25911626 0.026660781 -0.104385786 -0.44141307 0.082854345
0.21643971 -0.33946416 -0.079302505 -0.11709062 0.22376177 -0.053355183 -0.0640088 0.21593183
-0.017241172 -0.57110965 0.43774477 -0.17906852 0.031804103 -0.31817457 -0.181422 -0.18242036
0.027353471 0.30223057 -0.117363006 -0.10645053 -0.10019375 -0.08107013 0.13725714 -0.2203653
0.14169641 0.16904171 0.18551397 0.30452675 -0.20456076 0.3735144 -0.08799369 -0.20800072
-0.13244458 -0.10363981 0.06553183 0.068567075 -0.42096302 -0.17877227 0.031856686 0.21959867
00000000: 4b7f 9abc ef40 14bf d9eb 463e 73ea 4f3e
00000010: 29a2 15bd cd4d 82be 68e5 293e 057d 973e
00000020: edcc bb3e eee6 21be 0f37 20be ebad 493d
00000030: 9305 193e 14f4 2b3d 2012 59bd f4d3 b33e
00000040: 5ee1 d53d d240 433e 5860 df3e 0108 3e3e
00000050: d908 c43c 5431 90be fd16 efbe 3700 b1bd
00000060: 56e6 8cbd 25f5 ce3d 15cd f4bc 84bf 27be
00000070: 0aa2 083d 050b 50be 9110 923d 754b abbe
00000080: 5648 cc3d 2120 abbd 5b7a 42be 3ad7 6fbd
00000090: 05b1 87be 172b 4f3e 3722 903e 9a31 f43d
000000a0: f13c 7bbd 3d72 a9bd 999d 8a3e 2839 2abc
000000b0: ea94 0cbe 4b8a 89be 0a38 523e ed8f a83d
000000c0: 55b4 703d 10ee aabe b3cf abbd 7cd8 c8bd
000000d0: a168 e43d 3707 9ebe c652 1fbe 7a71 7d3e
000000e0: fee9 c93e 9c06 5abd 5120 93be f7cf 80be
000000f0: 1b87 10bd f3c4 14be 4169 19be e61c d23e
00000100: c0ba 49be 3521 60be c0b4 83be b1e7 803e
00000110: 8375 99bd 87e6 0d3e be84 dcbd e4e9 a43c
00000120: 7cbd 953d 79b8 003f e534 87bd 2279 90be
00000130: cbc8 a0bd b3b9 eebd 06b4 5fbe 938e 5bbd
00000140: 82fe 973d 69f0 ef3d af84 083e d018 60be
00000150: 7dea 56bd 9de8 66be 5db6 0dbe 398a 843e
00000160: 568f 243d 0ee5 fb3e 4590 d8be 50fc 06bd
00000170: 47e3 87be c720 7d3e b8e6 07bd 882b 94be
00000180: 2288 e93d 5641 aabd 971b 9fbe 213d 46bf
00000190: 2954 acbd 2860 40be 1418 0c3d f485 ddbe
000001a0: 98f1 563e 20e8 9a3e 011b 7abc b637 003e
000001b0: ac5f 4ebd 8b0c a1be 9969 a3be 1c5a a33d
000001c0: fb37 c43e d432 b33e b6d5 953e 08ac b9be
000001d0: ecc1 b93e 32f7 653e fe32 583e df34 8e3e
000001e0: d2f5 15bd d4d6 45be 93b7 883e badb 0e3e
000001f0: 1f47 3c3d b7fe f8be 5100 093c 2293 50be
00000200: 5056 e4be d258 363d 66ee a43d eabf 76be
00000210: 4d32 b53e e85e 913e 64c4 83be d26b e0bd
00000220: 906f 1e3e 6963 57ba 704c 3a3e d2bc 3a3e
00000230: 6508 7fbe 7e5b 16bd 0314 fdbd 6dcd 9bbe
00000240: e477 083c a451 1d3d c45d a53e e46f 42bd
00000250: 16ab 32be c1f5 bc3d bacf 9abe ca26 533e
00000260: 516c 39be 0854 f83d 01e3 31be aa9a fc3c
00000270: 07b8 b6be 2bc4 a1bd 0dbf c83c f8a3 9fbe
00000280: 612a 413e 9663 283c 5730 f1be 7c62 ff3d
00000290: 813f 7c3e 3b4d c1be 7c44 87be 0b58 d23d
000002a0: 492f 6fbe a995 bbbd 2d80 f4bd 89c9 be3d
000002b0: 2c8b 853d a275 74be b4a1 483e c4fb e53e
000002c0: 9f61 533e 9770 b3be 93f8 8e3e 8c58 f33d
000002d0: 4215 323e a273 5e3e 8667 e0be b4fd 963e
000002e0: 5a53 c5bc 6785 4abe 7625 f43d 95fa abbe
000002f0: dd86 58bd 31fa 3d3e f83c 39bd e92a 28bd
00000300: d76e a1be fe16 df3d f1a2 d03e 6fdf 96be
00000310: 8ce1 413e 674d fdbe 252f a3bd ac27 dc3e
00000320: 2f96 4b3b f457 fc3e ba4f 97be 6471 3fbe
00000330: 19ca 3f3e db81 33bd 2a17 243e 830b 063e
00000340: 5d95 c93d 2eb8 843e db12 76be e3aa 843e
00000350: b667 da3c 37c8 d5bd e500 e2be 8aaf a93d
00000360: 5fa2 5d3e 3fce adbe 5a69 a2bd 35cd efbd
00000370: ce21 653e f78a 5abd 0c17 83bd 3c1d 5d3e
00000380: 5c3d 8dbc 3e34 12bf 1520 e03e bd5d 37be
00000390: 0545 023d c7e7 a2be b0c6 39be 67cc 3abe
000003a0: 6314 e03c f7bd 9a3e 045c f0bd bc02 dabd
000003b0: 6132 cdbd 1908 a6bd 238d 0c3e 71a7 61be
000003c0: dd18 113e 4519 2d3e 60f7 3d3e eeea 9b3e
000003d0: 6078 51be 483d bf3e 0936 b4bd 24fe 54be
000003e0: 8d9f 07be 1c41 d4bd 8d35 863d e56c 8c3d
000003f0: 7788 d7be 1410 37be 287c 023d 79de 603e

correction.mlp.0.bias f4 [10]
-0.049000032 0.042139366 -0.049042404 -0.11275881 -0.14516641 0.004082576 -0.15700671 -0.10513364
0.09491714 -0.007323443
00000000: 42b4 48bd 549a 2c3d b0e0 48bd 17ee e6bd
00000010: 81a6 14be 21c7 853b 5ec6 20be 4e50 d7bd
00000020: eb63 c23d 7ef9 efbb

autoencoder.encoder.mlp.mlp.0.weight f4 [10, 1]
0.36910835 -0.20129646 -0.016175427 -0.006266182 -0.32120728 0.11182567 0.44212675 -0.012248966
-0.22122666 -0.031307098
00000000: c5fb bc3e a920 4ebe 5482 84bc 8b54 cdbb
00000010: 4875 a4be db04 e53d 705e e23e e3af 48bc
00000020: 3e89 62be df3b 00bd

autoencoder.encoder.mlp.mlp.0.bias f4 [10]
-0.039806973 0.14958984 -0.7630306 -0.73234147 0.014118803 -0.0064225676 -0.037552096 -0.009347193
-0.09259067 0.35199282
00000000: a30c 23bd 142e 193e f955 43bf bb7a 3bbf
00000010: 8d52 673c 6774 d2bb 3ad0 19bd f824 19bc
00000020: 2da0 bdbd 6738 b43e

autoencoder.encoder.mlp.mlp.2.weight f4 [10, 10]
0.46217826 -0.28569505 0.4684658 -0.3451758 0.24438405 0.010018595 0.39784005 0.45047688
0.04771746 0.28181458 0.098840415 -0.308225 0.7449743 0.4334284 0.2488636 -0.49844092
0.07825253 -0.35440978 -0.05902609 0.24360166 -0.14135906 -0.35705653 0.41137603 -0.09824077
-0.23941024 0.64894384 -0.09803416 0.60985386 -0.102954686 -0.21044278 0.11574085 0.026604453
-0.0011146099 0.42930344 0.31416124 0.14052081 -0.21054591 -0.44937608 -0.35870168 -0.1464376
-0.24742346 -0.004013828 0.55430746 0.515075 0.18255843 -0.17326611 0.33112797 -0.0030906037
-0.029174924 -0.22149737 0.10202397 -0.26361185 -0.16514711 -0.4683608 0.37532613 0.39695913
-0.35964796 0.35331264 -0.08103797 0.0007867466 -0.49723366 -0.6965754 0.85019284 0.32029733
0.3109906 0.46991998 -0.4433435 0.059420362 0.27529714 -0.17972767 0.4179372 -0.16672193
-0.975631 -0.86304754 -0.20186706 -0.07692699 -0.3788859 0.26485485 -0.16488782 0.4692273
-0.17453896 0.03867426 -0.019951036 -0.76506567 -0.4286243 0.18433137 0.052031662 -0.0039716237
-0.40416518 0.36202756 0.16590694 -0.07601077 -0.15639438 0.11792361 0.12894309 -0.27565652
-0.1251449 -0.5824711 -0.015863687 -0.00459081
00000000: a1a2 ec3e 9f46 92be c0da ef3e e2ba b0be
00000010: d03f 7a3e 0825 243c b1b1 cb3e e8a4 e63e
00000020: 6273 433d 004a 903e d86c ca3d abcf 9dbe
00000030: a3b6 3e3f 54ea dd3e 19d6 7e3e a633 ffbe
00000040: dd42 a03d 3375 b5be 57c5 71bd b772 793e
00000050: 6ec0 10be 1dd0 b6be e19f d23e 7532 c9bd
00000060: f527 75be 2f21 263f 22c6 c8bd 621f 1c3f
00000070: e8d9 d2bd 507e 57be 8a09 ed3d 95f1 d93c
00000080: 1a18 92ba a9cd db3e bed9 a03e b0e4 0f3e
00000090: 5999 57be 9f14 e6be bfa7 b7be bdf3 15be
000000a0: 935c 7dbe 6e86 83bb 18e7 0d3f f5db 033f
000000b0: 99f0 3a3e ac6c 31be 9b89 a93e ba8b 4abb
000000c0: 4000 efbc 35d0 62be f1f1 d03d 22f8 86be
000000d0: 531c 29be fdcc efbe bf2a c03e 3a3e cb3e
000000e0: c723 b8be 65e5 b43e 3cf7 a5bd ac3d 4e3a
000000f0: 6995 febe c452 32bf 3da6 593f 03fe a33e
00000100: 293a 9f3e 5a99 f03e ebfd e2be c462 733d
00000110: bff3 8c3e 880a 38be ddfb d53e 27b9 2abe
00000120: f4c2 79bf aff0 5cbf 3db6 4ebe e68b 9dbd
00000130: 55fd c1be 0e9b 873e 5ad8 28be 903e f03e
00000140: 57ba 32be e768 1e3d 5b70 a3bc 58db 43bf
00000150: a574 dbbe 5dc1 3c3e 271f 553d 6524 82bb
00000160: bdee cebe ad5b b93e 82e3 293e 89ab 9bbd
00000170: d925 20be ef81 f13d a809 043e da22 8dbe
00000180: fc25 00be d31c 15bf 90f4 81bc 816e 96bb

autoencoder.encoder.mlp.mlp.2.bias f4 [10]
0.008743612 0.1630702 -0.076761946 0.07549406 -0.10815179 0.1383862 -0.17541365 0.071208455
-0.18623632 -0.074429594
00000000: 5e41 0f3c e0fb 263e 5e35 9dbd a19c 9a3d
00000010: b07e ddbd 1db5 0d3e a39f 33be bdd5 913d
00000020: bcb4 3ebe 8b6e 98bd

autoencoder.decoder.mlp.mlp.0.weight f4 [10, 10]
-0.21759063 -0.4761226 -1.0776626 -0.72825587 -1.0495297 0.44267744 -1.0518909 0.79623824
0.031643447 1.464248 0.12140432 0.3926347 -0.19264609 -0.139846 -0.2343034 0.13184829
0.25036502 -0.91523266 -0.83675915 0.2766702 0.9514134 0.06908913 0.11094143 0.36197978
0.2952742 0.18785064 -0.32473186 -0.33157033 -0.045781493 0.40987712 0.062493928 0.55793
-0.5687566 -0.094102435 0.24844827 0.50478953 0.15654314 -1.1791193 -1.299733 0.37941477
-0.20840994 0.071940586 -0.43601838 -0.1532377 0.11677208 -0.16107063 0.11916771 -0.2957559
0.49476182 -0.23683362 0.29541704 0.33925796 -0.6985973 0.4342011 -0.42667836 -0.63681155
0.15067033 -0.029083587 1.0560186 -0.1488348 -0.12876232 0.48550415 -0.49210614 0.3702466
-0.065731004 0.06876192 0.83966637 -0.74765515 -0.82177687 0.57785916 0.06985748 0.419345
0.29538435 0.14613707 0.1622323 0.07327654 -0.31566715 -0.65848154 0.18657199 0.040644046
1.2812046 0.6389455 0.5982193 -0.05990968 0.24654779 -0.010669146 0.18439284 -0.39778978
-0.089726955 -0.9432446 0.29565704 0.38335383 -0.5555604 0.4191969 0.12992318 0.18928738
0.27575526 -0.4902691 0.9246463 0.12187191
00000000: 14d0 5ebe 57c6 f3be d9f0 89bf fa6e 3abf
00000010: fd56 86bf 9ea6 e23e 5ca4 86bf 45d6 4b3f
00000020: 8f9c 013d 7a6c bb3f d4a2 f83d 6a07 c93e
00000030: 0445 45be ca33 0fbe 3bed 6fbe 3d03 073e
00000040: d82f 803e b04c 6abf d935 56bf b7a7 8d3e
00000050: d48f 733f 9a7e 8d3d 4335 e33d 6a55 b93e
00000060: 2e2e 973e eb5b 403e 4143 a6be 96c3 a9be
00000070: 6085 3bbd 6adb d13e a2f9 7f3d 80d4 0e3f
00000080: 089a 11bf c7b8 c0bd 3969 7e3e e339 013f
00000090: d84c 203e 62ed 96bf a75d a6bf a742 c23e
000000a0: 6a69 55be 9655 933d cd3d dfbe 58ea 1cbe
000000b0: 3326 ef3d b3ef 24be 330e f43d 516d 97be
000000c0: 6c51 fd3e 8384 72be e740 973e 38b3 ad3e
000000d0: 46d7 32bf 9b4f de3e 9675 dabe 1506 23bf
000000e0: 5349 1a3e b440 eebc 9e2b 873f 2668 18be
000000f0: 45da 03be 0094 f83e 56f5 fbbe f690 bd3e
00000100: fa9d 86bd 0dd3 8c3d 60f4 563f 5466 3fbf
00000110: f85f 52bf 94ee 133f 7011 8f3d 63b4 d63e
00000120: 9e3c 973e f5a4 153e 3920 263e 0312 963d
00000130: 209f a1be 3f92 28bf ba0c 3f3e 5f7a 263d
00000140: 83fe a33f ef91 233f e624 193f da63 75bd
00000150: 0677 7c3e a4cd 2ebc 7ad1 3c3e 1aab cbbe
00000160: c4c2 b7bd 7a78 71bf 5c60 973e f446 c43e
00000170: 3539 0ebf faa0 d63e 950a 053e 8dd4 413e
00000180: cb2f 8d3e 8d04 fbbe 9fb5 6c3f fb97 f93d

autoencoder.decoder.mlp.mlp.0.bias f4 [10]
-0.05809584 0.5974928 -0.14388725 0.6096895 -0.063438684 -0.3450777 0.27984396 -0.14296666
0.1560268 0.14887042
00000000: e7f5 6dbd 4af5 183f 2e57 13be 9c14 1c3f
00000010: 24ec 81bd 06ae b0be b547 8f3e da65 12be
00000020: 7dc5 1f3e 7d71 183e

autoencoder.decoder.mlp.mlp.2.weight f4 [1, 10]
0.85214305 -0.8706833 0.9536097 -0.714559 -0.7478275 -0.38161877 -0.45330834 -0.14394051
0.9764216 -0.69068813
00000000: 0c26 5a3f 1ae5 5ebf c41f 743f 57ed 36bf
00000010: 9f71 3fbf 8963 c3be 0818 e8be 2465 13be
00000020: c4f6 793f f0d0 30bf

exp_avg f4 [10]
0.0 0.0 0.0 0.0 0.0 0.0 0.0 0.0
0.0 0.0
00000000: 0000 0000 0000 0000 0000 0000 0000 0000
00000010: 0000 0000 0000 0000 0000 0000 0000 0000
00000020: 0000 0000 0000 0000

exp_avg_sq f4 [10]
0.0 0.0 0.0 0.0 0.0 0.0 0.0 0.0
0.0 0.0
00000000: 0000 0000 0000 0000 0000 0000 0000 0000
00000010: 0000 0000 0000 0000 0000 0000 0000 0000
00000020: 0000 0000 0000 0000

exp_avg f4 [10]
0.0 0.0 0.0 0.0 0.0 0.0 0.0 0.0
0.0 0.0
00000000: 0000 0000 0000 0000 0000 0000 0000 0000
00000010: 0000 0000 0000 0000 0000 0000 0000 0000
00000020: 0000 0000 0000 0000

exp_avg_sq f4 [10]
0.0 0.0 0.0 0.0 0.0 0.0 0.0 0.0
0.0 0.0
00000000: 0000 0000 0000 0000 0000 0000 0000 0000
00000010: 0000 0000 0000 0000 0000 0000 0000 0000
00000020: 0000 0000 0000 0000

exp_avg f4 [10, 23]
-6e-45 -6e-45 -6e-45 6e-45 6e-45 -6e-45 6e-45 6e-45
-6e-45 6e-45 -6e-45 -6e-45 -6e-45 6e-45 6e-45 -6e-45
6e-45 6e-45 -6e-45 6e-45 -6e-45 6e-45 -6e-45 -6e-45
-6e-45 -6e-45 -6e-45 6e-45 -6e-45 6e-45 6e-45 -6e-45
6e-45 -6e-45 -6e-45 -6e-45 -6e-45 6e-45 -6e-45 6e-45
6e-45 -6e-45 6e-45 -6e-45 6e-45 -6e-45 -6e-45 -6e-45
-6e-45 6e-45 6e-45 -6e-45 6e-45 6e-45 -6e-45 -6e-45
-6e-45 -6e-45 -6e-45 6e-45 6e-45 -6e-45 6e-45 6e-45
-6e-45 -6e-45 6e-45 6e-45 -6e-45 -6e-45 -6e-45 6e-45
-6e-45 6e-45 -6e-45 6e-45 -6e-45 6e-45 6e-45 -6e-45
-6e-45 6e-45 -6e-45 6e-45 -6e-45 6e-45 -6e-45 6e-45
6e-45 -6e-45 6e-45 -6e-45 -6e-45 6e-45 -6e-45 6e-45
-6e-45 6e-45 -6e-45 6e-45 -6e-45 -6e-45 -6e-45 6e-45
-6e-45 6e-45 -6e-45 6e-45 -6e-45 6e-45 -6e-45 -6e-45
6e-45 -6e-45 6e-45 -6e-45 -6e-45 -6e-45 -6e-45 6e-45
-6e-45 6e-45 6e-45 -6e-45 6e-45 -6e-45 -6e-45 -6e-45
6e-45 6e-45 -6e-45 6e-45 6e-45 -6e-45 6e-45 6e-45
6e-45 -6e-45 -6e-45 -6e-45 -6e-45 6e-45 6e-45 -6e-45
6e-45 6e-45 -6e-45 6e-45 -6e-45 -6e-45 -6e-45 -6e-45
6e-45 -6e-45 6e-45 6e-45 -6e-45 6e-45 -6e-45 -6e-45
-6e-45 6e-45 -6e-45 6e-45 -6e-45 6e-45 -6e-45 -6e-45
6e-45 -6e-45 6e-45 6e-45 -6e-45 6e-45 -6e-45 6e-45
-6e-45 -6e-45 6e-45 -6e-45 6e-45 6e-45 -6e-45 6e-45
6e-45 6e-45 6e-45 -6e-45 -6e-45 6e-45 -6e-45 -6e-45
6e-45 -6e-45 6e-45 6e-45 6e-45 -6e-45 -6e-45 6e-45
-6e-45 -6e-45 6e-45 -6e-45 6e-45 -6e-45 6e-45 6e-45
6e-45 6e-45 6e-45 -6e-45 6e-45 -6e-45 -6e-45 6e-45
-6e-45 6e-45 6e-45 6e-45 6e-45 -6e-45 6e-45 -6e-45
-6e-45 6e-45 -6e-45 -6e-45 -6e-45 6e-45
00000000: 0400 0080 0400 0080 0400 0080 0400 0000
00000010: 0400 0000 0400 0080 0400 0000 0400 0000
00000020: 0400 0080 0400 0000 0400 0080 0400 0080
00000030: 0400 0080 0400 0000 0400 0000 0400 0080
00000040: 0400 0000 0400 0000 0400 0080 0400 0000
00000050: 0400 0080 0400 0000 0400 0080 0400 0080
00000060: 0400 0080 0400 0080 0400 0080 0400 0000
00000070: 0400 0080 0400 0000 0400 0000 0400 0080
00000080: 0400 0000 0400 0080 0400 0080 0400 0080
00000090: 0400 0080 0400 0000 0400 0080 0400 0000
000000a0: 0400 0000 0400 0080 0400 0000 0400 0080
000000b0: 0400 0000 0400 0080 0400 0080 0400 0080
000000c0: 0400 0080 0400 0000 0400 0000 0400 0080
000000d0: 0400 0000 0400 0000 0400 0080 0400 0080
000000e0: 0400 0080 0400 0080 0400 0080 0400 0000
000000f0: 0400 0000 0400 0080 0400 0000 0400 0000
00000100: 0400 0080 0400 0080 0400 0000 0400 0000
00000110: 0400 0080 0400 0080 0400 0080 0400 0000
00000120: 0400 0080 0400 0000 0400 0080 0400 0000
00000130: 0400 0080 0400 0000 0400 0000 0400 0080
00000140: 0400 0080 0400 0000 0400 0080 0400 0000
00000150: 0400 0080 0400 0000 0400 0080 0400 0000
00000160: 0400 0000 0400 0080 0400 0000 0400 0080
00000170: 0400 0080 0400 0000 0400 0080 0400 0000
00000180: 0400 0080 0400 0000 0400 0080 0400 0000
00000190: 0400 0080 0400 0080 0400 0080 0400 0000
000001a0: 0400 0080 0400 0000 0400 0080 0400 0000
000001b0: 0400 0080 0400 0000 0400 0080 0400 0080
000001c0: 0400 0000 0400 0080 0400 0000 0400 0080
000001d0: 0400 0080 0400 0080 0400 0080 0400 0000
000001e0: 0400 0080 0400 0000 0400 0000 0400 0080
000001f0: 0400 0000 0400 0080 0400 0080 0400 0080
00000200: 0400 0000 0400 0000 0400 0080 0400 0000
00000210: 0400 0000 0400 0080 0400 0000 0400 0000
00000220: 0400 0000 0400 0080 0400 0080 0400 0080
00000230: 0400 0080 0400 0000 0400 0000 0400 0080
00000240: 0400 0000 0400 0000 0400 0080 0400 0000
00000250: 0400 0080 0400 0080 0400 0080 0400 0080
00000260: 0400 0000 0400 0080 0400 0000 0400 0000
00000270: 0400 0080 0400 0000 0400 0080 0400 0080
00000280: 0400 0080 0400 0000 0400 0080 0400 0000
00000290: 0400 0080 0400 0000 0400 0080 0400 0080
000002a0: 0400 0000 0400 0080 0400 0000 0400 0000
000002b0: 0400 0080 0400 0000 0400 0080 0400 0000
000002c0: 0400 0080 0400 0080 0400 0000 0400 0080
000002d0: 0400 0000 0400 0000 0400 0080 0400 0000
000002e0: 0400 0000 0400 0000 0400 0000 0400 0080
000002f0: 0400 0080 0400 0000 0400 0080 0400 0080
00000300: 0400 0000 0400 0080 0400 0000 0400 0000
00000310: 0400 0000 0400 0080 0400 0080 0400 0000
00000320: 0400 0080 0400 0080 0400 0000 0400 0080
00000330: 0400 0000 0400 0080 0400 0000 0400 0000
00000340: 0400 0000 0400 0000 0400 0000 0400 0080
00000350: 0400 0000 0400 0080 0400 0080 0400 0000
00000360: 0400 0080 0400 0000 0400 0000 0400 0000
00000370: 0400 0000 0400 0080 0400 0000 0400 0080
00000380: 0400 0080 0400 0000 0400 0080 0400 0080
00000390: 0400 0080 0400 0000
