mixed/dsgps/results/50_ite_lamb_0_gamma_1/ckpt/best_model.pt (torch, 95941 bytes, 93 tensors)

laynorm.weight f4 [10]
00000000: 0000 803f 0000 803f 0000 803f 0000 803f
00000010: 0000 803f 0000 803f 0000 803f 0000 803f
00000020: 0000 803f 0000 803f
1.0 1.0 1.0 1.0 1.0 1.0 1.0 1.0
1.0 1.0

laynorm.bias f4 [10]
00000000: 0000 0000 0000 0000 0000 0000 0000 0000
00000010: 0000 0000 0000 0000 0000 0000 0000 0000
00000020: 0000 0000 0000 0000
0.0 0.0 0.0 0.0 0.0 0.0 0.0 0.0
0.0 0.0

phi_to.mlp.mlp.0.weight f4 [10, 23]
00000000: a0eb 89bf 1e38 b03e d93e 893e abef 7dbd
00000010: 6410 6ebe fdde a63f 5ad4 9b3e ac2c a9be
00000020: 1741 cc3c 13f4 3cbe db07 1ebe 7aa2 68be
00000030: 6bea 23be fd3f 7b3e b904 81be a83e 433f
00000040: 7615 2fbe 7971 1a3f a1ef 8dbc 5855 063f
00000050: f0be 3c3b 538c 63ba 1c39 793d be50 4cbf
00000060: 8b51 73be c815 723f 81dc b73d cad8 e83e
00000070: d6b0 9b3e 58a2 703e 2eb3 89bf da40 c13e
00000080: 2050 40bf 51ce 23be 1126 e73c a39f 57bb
00000090: ce85 77bd 7b5b 9b3e 7f97 3a3f 2889 983c
000000a0: ab09 20bf 26ae 93bd 220c 173e 7d10 79ba
000000b0: b341 35bb 3bae 313e 1c90 8dbe 9c81 07be
000000c0: a29e 9e3d 908d bdbd 8020 003e dfb5 e7be
000000d0: d1ac 293e 3138 233e d125 bfbd f252 013e
000000e0: 8183 80be 1ddb 9c3d 255a 54be f23a a8bd
000000f0: 5ca8 5cbe ad38 c53e 688a a8be a0c4 c2be
00000100: 9912 043e 2fce a0be 23b1 c1ba abbe 943b
00000110: 94a1 81bd 1ef3 2cbd 9573 ffbc d859 20be
00000120: ecd8 a13d 84fb 94bd 59ac 25bd 18f8 3bbe
00000130: 8556 8d3e f366 563e 5b68 7bbd 586a 73bd
00000140: b1a8 d83e 4edf c9be 813d 59be 7215 093f
00000150: 2233 98bd 58d3 a6be a75e 353f 4be4 f9bd
00000160: 66df 1a3e 5bcb 323a c0b3 e8ba 6018 0bbe
00000170: d087 8ebe 1b6a 6ebe df1a a13d 9039 25be
00000180: 5067 703e 5fc2 b9be e4c8 1cbf 5d83 34be
00000190: 9bf0 f13d 7a3b 0a3e a2bd 4dbd 4388 8c3e
000001a0: cfd3 2abf f694 d6be ec94 603e 152c 9bbe
000001b0: ee66 e9bd a492 9fbd 7f7f 4cbe 5cf6 2e3e
000001c0: 6ac5 443b 3608 a2ba d6dc 123e 0993 cdbe
000001d0: 2337 253d 9679 c23e c66e 1bbe b939 db3e
000001e0: e60f 54be d74a 4e3e f020 7e3e 5977 eb3e
000001f0: 50d2 293d 7aca 5a3e 92fc e63d e4a3 e8be
00000200: f0c5 9abd 897e 8abe 9298 153f 37fc 9abd
00000210: ef19 033e 407a 343e 6c46 fabd d73f 2c3a
00000220: 5a7d 54bb f610 63be b62f 10be 80dd da3e
00000230: 4883 d9bd c32f 36be 8746 ec3e 4ecc 1ebf
00000240: 2ccb a1bb f3f7 003f 5b79 9e3d 6753 cf3d
00000250: 6f71 4f3e 793f 1f3e 70ce 0abf fbc0 d73e
00000260: 421c a7be 3266 4c3e 456f 9cbe cb3f 1f3f
00000270: 547c 723d 41b6 86be f2a3 643a 2964 ccba
00000280: cfdc 3dbe 3769 debd ca90 993e 799e 14be
00000290: d4d8 a9bd 851d c63c a72a 5e3d 2676 dabd
000002a0: d5cd 213d 6965 8e3e 0833 f0be b17f 0abf
000002b0: 16ab 8c3d 410c 9b3f 76ed 6f3e 26ee 4cbe
000002c0: 793d dabd 80f7 fd3d 06ad a53c c417 6c3e
000002d0: 4607 c1be dc61 f83a e6dc 623b 39de 6abe
000002e0: 3cb9 643f f1b4 5ebd 6301 cd3e 1713 a53e
000002f0: 7553 0d3d a664 333d 565f aa3e 5527 743e
00000300: bbbc 283d ac10 c1be ba45 3cbe 0925 20be
00000310: 7607 823e a65e 083f e16d 133e 48a4 153e
00000320: a1aa ea3c 2227 c2be b8c3 223e e1e6 bb3d
00000330: 1487 5cba 2cb3 5fba 87dc 82bc f338 1a3e
00000340: 15e4 043f 5cdc 0dbf e53f 923e 7834 00bf
00000350: c953 11be 69de 82be 614c e03e bef0 6f3e
00000360: 7374 573d 8ef2 4b3f b915 8fbd 9390 733e
00000370: b623 933e 354c 923d 4ac5 1cbe 003f 983e
00000380: 01a3 aa3f abbf 86be c27e fdbe 9e08 ae39
00000390: 6219 543a e476 64be
-1.0775032 0.34417814 0.2680576 -0.061996143 -0.2324844 1.3036801 0.3043545 -0.33041894
0.024933381 -0.18452482 -0.15432684 -0.2271823 -0.16007392 0.24536128 -0.25198916 0.7626748
-0.1709803 0.60329396 -0.017326178 0.52473974 0.002880033 -0.0008680273 0.06084548 -0.798107
-0.23761575 0.94564486 0.08977605 0.45477897 0.30408353 0.23499429 -1.0757806 0.3774479
-0.7512226 -0.15996672 0.028216394 -0.0032901547 -0.06043034 0.30343232 0.72887415 0.018620089
-0.6251475 -0.072109506 0.14750722 -0.0009501053 -0.0027657568 0.1735162 -0.2764901 -0.13233036
0.077451006 -0.092555165 0.12512398 -0.45255944 0.1656983 0.15939404 -0.09333385 0.12629297
-0.2510033 0.0765898 -0.20737512 -0.08214368 -0.21548599 0.38519803 -0.32918096 -0.38040638
0.1289772 -0.31407306 -0.0014777522 0.004539331 -0.06329647 -0.042224042 -0.031183043 -0.15659273
0.07902703 -0.07274535 -0.040447567 -0.18356359 0.27605072 0.2093771 -0.061378818 -0.05942759
0.423162 -0.3942818 -0.21214868 0.5354835 -0.07431628 -0.32583117 0.70847553 -0.122017466
0.15124282 0.00068204635 -0.0017753765 -0.13583517 -0.27837992 -0.23282664 0.078664534 -0.1613524
0.2347691 -0.36281106 -0.61244035 -0.17628236 0.1181347 0.13499251 -0.050229676 0.2744771
-0.66729444 -0.41910523 0.21931809 -0.3030707 -0.113965854 -0.07791641 -0.19970511 0.17086166
0.0030024895 -0.0012362066 0.14342055 -0.4015124 0.040335786 0.37983388 -0.15178975 0.42817476
-0.2070919 0.20145737 0.24817252 0.45989493 0.041460335 0.21366301 0.11278643 -0.4543754
-0.07557285 -0.27049664 0.5843593 -0.075676374 0.12802862 0.1762476 -0.12220463 0.0006570792
-0.0032423348 -0.22174439 -0.140807 0.42747116 -0.10620743 -0.17791657 0.46147558 -0.62030494
-0.00493755 0.5037834 0.077379905 0.101233296 0.20258115 0.15551557 -0.5422125 0.4213942
-0.32638747 0.1996086 -0.30553642 0.62206715 0.0592006 -0.26310924 0.00087219395 -0.0015593815
-0.18541263 -0.10859912 0.29993278 -0.14513578 -0.0829331 0.024183998 0.054239895 -0.10667066
0.039502937 0.27811745 -0.46913934 -0.5410109 0.068685696 1.2113115 0.23430428 -0.20012721
-0.10656256 0.124007225 0.020224106 0.23055941 -0.37700862 0.0018950063 0.003461653 -0.22936334
0.89345145 -0.054371778 0.4004012 0.32241127 0.03450342 0.043797158 0.3327586 0.23843129
0.041195612 -0.37708032 -0.18385974 -0.15639128 0.25396317 0.5326942 0.14397384 0.1461345
0.028645815 -0.3792048 0.15894973 0.09174896 -0.0008412462 -0.00085334736 -0.015974296 0.15060787
0.51910526 -0.55414367 0.28564373 -0.5008006 -0.14192118 -0.2556031 0.43808272 0.2343168
0.05260129 0.79666984 -0.06986565 0.2378562 0.28738183 0.071434416 -0.15309635 0.29735565
1.3330995 -0.26318106 -0.4951077 0.00033194287 0.00080909405 -0.22310978

phi_to.mlp.mlp.0.bias f4 [10]
00000000: ce59 f03a 9cc5 ddbd 67f5 b23d 1a65 d3bc
00000010: ae8b 0e3d d27d 8a3c c735 14ba 0298 5e3d
00000020: 851d 193e 857a 103e
0.0018337311 -0.108287066 0.08738213 -0.025805045 0.034801178 0.016905699 -0.00056537654 0.054344185
0.14952667 0.14109237

phi_to.mlp.mlp.2.weight f4 [10, 10]
00000000: deee 603e f1f9 0a3f e57a dcbe 81cf f0bd
00000010: c5e5 873e 2be4 d23e 4eee a53e 661a a13e
00000020: 4763 12bf f014 6b3f 0252 133c af38 b53d
00000030: 385c 17be c95b 443e 2a44 923c 0267 f2be
00000040: 79c8 d33e eb81 ff3c f547 96be 8d2a df3e
00000050: cf9b 05bf f328 2cbc fad6 36be 89ba 273d
00000060: 61a6 f73d 57c2 b1be 1c72 afbe 917a 983b
00000070: aae7 393f 7171 9dbf a2ea 193e 9a06 23be
00000080: a1c9 f4bd 44f1 c03e 68ae 88be 1cda bbbe
00000090: f367 85bd 60cc d9bc 1f2b a63e f5fd 18bf
000000a0: af0f de3e ebbf 85be f4a3 ebbe 1f52 1ebf
000000b0: 6099 0fbf 139c f03c 9c91 88bd c986 683d
000000c0: bffa 04be 50ba 663e d8de 823e 28df c73e
000000d0: ddbf d8bd fd83 c73d bf7f 003f 101d 6e3e
000000e0: 6e1f 61be c8aa 683e 8768 0bbf 057e b83d
000000f0: b581 d1be f8f9 21bf 2e04 05bf 1176 00be
00000100: a515 a53e 08ab dfbd 55d9 9e3c 76bc 153e
00000110: 067d 8f3e aa2c f93e 136f 00bc 9b6c 983e
00000120: a4c6 b83d 790b 373e 7604 6fbe d5c1 b8bd
00000130: 8b3b 11bf 3195 823d 2a03 d5be cf11 cc3f
00000140: 3deb e8be f0dc 393f 4a02 c3be aab1 8cbe
00000150: d851 393e 62af 3e3d 1704 b63e 3649 683b
00000160: 5dcf e53e 4677 4dbe 923e 9e3e c442 383c
00000170: 0752 afbd b664 1cbb 043e 833e 0dbd a13e
00000180: 6c97 f6be e9eb efbe d0b2 203e 1bf0 8dbf
0.2196612 0.5428763 -0.4306251 -0.11758328 0.26542488 0.41189703 0.32408375 0.31465453
-0.57182735 0.91828823 0.00899172 0.08848702 -0.14781272 0.19175638 0.017854769 -0.47344214
0.41363886 0.03118988 -0.29351774 0.4358715 -0.5219087 -0.01050781 -0.17855445 0.04094938
0.12092281 -0.34718582 -0.34266746 0.004653283 0.72619116 -1.2300245 0.15030912 -0.15920487
-0.1195252 0.3768407 -0.2669556 -0.36689842 -0.06513967 -0.026586711 0.32454774 -0.5976251
0.4337134 -0.26122984 -0.46023524 -0.61844057 -0.56093407 0.029371297 -0.06668398 0.056769166
-0.12986277 0.2253201 0.2556064 0.39037442 -0.1058347 0.09741972 0.50194925 0.23253274
-0.21984646 0.22721398 -0.5445637 0.09008411 -0.4091927 -0.6327205 -0.519595 -0.12545039
0.32243076 -0.109212935 0.019390741 0.14622673 0.28025073 0.48666888 -0.007838982 0.2977036
0.09022263 0.1787547 -0.23341545 -0.090213455 -0.5673148 0.06376112 -0.41603976 1.5942935
-0.45491973 0.7260275 -0.38087684 -0.27479297 0.18097627 0.046553977 0.35549995 0.0035444028
0.44884768 -0.2006503 0.30907112 0.011246387 -0.08560567 -0.002386374 0.25633252 0.31589547
-0.481624 -0.46859673 0.15693212 -1.1088899

phi_to.mlp.mlp.2.bias f4 [10]
00000000: 5461 41bd 69be 193c 20b3 a93d f520 9a3d
00000010: 059b b9bc 610e 9c3d 3c3b a6bd 14f0 103e
00000020: 2b61 fe3c 2a5f 43bd
-0.04721196 0.009383776 0.082861185 0.07525817 -0.022656927 0.0761993 -0.08116767 0.14154083
0.031052193 -0.047698177

phi_from.mlp.mlp.0.weight f4 [10, 23]
00000000: 9533 bdbe 0c70 93bc c681 87be caf0 98be
00000010: 4a0e 08be 5bdd b0be 6343 95bd 8a4d 963e
00000020: dde9 0fbf 8aa4 53be 5869 3abe 7dc6 b53d
00000030: ffb6 c0be b93d 03be 62f3 983d 1f7c 3cbf
00000040: aef3 afbe 8005 733e 0e1a 06bd da7f 95be
00000050: 1bcc 22bc 665e 4d3b 0ceb b1bd 3c89 403e
00000060: e524 21be 0b4d c13e e64e aa3b b699 093e
00000070: aff6 873e 3e80 5f3c 24e8 1f3f 2973 c7bd
00000080: eb3f 07bf 7e39 143e 3d2d 543e 1c97 c6bd
00000090: 46aa b23e 184e 18bf 1ee7 7e3e 276c 953e
000000a0: 15da 1c3e 3345 013e 73f6 eb3e 07a1 5038
000000b0: 4363 15bb 331f eebd 240d 153e 3478 6338
000000c0: 101f b53d 58c7 4f3e cb4c b3bd bac0 ecbe
000000d0: 3590 3c3f f13a f0be 344a f93e 5f7a 5bbf
000000e0: ec28 a2be c85a 2c3d 1af6 363f e29e 4c3d
000000f0: 41a4 d83e 8633 e1bd be72 dfbd c7a1 0f3e
00000100: ed99 ae3d ab91 7bbe 8f5b 8a3b 2c3a a93b
00000110: 073d 91bd e7a5 a53e c875 bf3c 3fde 2fbe
00000120: b431 283e e9e2 68bc d39d 1f3f adfe dc3d
00000130: 6d86 923f 22d0 b8be 5a47 3fbf 6e54 d23e
00000140: 3400 dc3e 9f0a 0b3e 26e1 243e 6868 10bf
00000150: f6ad 1d3e e37b 0e3e 6d77 053f 5578 d73e
00000160: 29d4 413f b89c 5d3b 4199 81ba c973 8fbe
00000170: 2de1 403d 6118 c73e a22c 01bf 3d81 cdbd
00000180: 8f2f adbe 6074 2c3e 453d ed3e 0a1d 5d3e
00000190: e455 22be ef62 90be cd60 b93d ca5b 5b3d
000001a0: 0306 603e e0d1 393e 4616 a53d 2564 603e
000001b0: 45cb e7be 8e97 04bf b973 c93e 5c3a b63e
000001c0: 7177 1eba 4c25 54b8 94ce 31bd d29e 88be
000001d0: 2d8b 453e b10a 6c3e 7a70 d23e 427d aabe
000001e0: cb89 83bd a0f1 f8be 8d9d 2f3e a1fd 953e
000001f0: a0b4 153d 5399 10be 1cd8 e73e 3d8a 75be
00000200: cc34 0dbe 3c9c 9dbd 0b45 2dbd dd14 d53e
00000210: ec64 81be 1a95 babe d873 0e3d 6e18 5f3a
00000220: c3ef 843a 6c1e d9bd 57b4 14bf a65a 503e
00000230: 4714 63bd e4e3 bcbd 491b cebe fd14 c53e
00000240: 1645 08bf 871f 233e 24a1 e73a 4d59 fdbe
00000250: 5504 47bd 2a6b 733e b6d7 27bf 62ee cebd
00000260: 9792 53bf 0cc9 83bd e7a8 c5be 9f1d 2a3e
00000270: a46d e6be aae5 ebbd f113 96bb 2843 5ebb
00000280: 87ca 25be a68f 323e cf0f b5be b601 56bb
00000290: c691 3bbe 8b08 03bf a61c 34bd 4d88 95bd
000002a0: 5205 1abe 5a2e fc3e 26be 923d 91a9 9a3c
000002b0: f729 9c3e 6453 93be b96b 14ba 638c ba3e
000002c0: 19b4 d63e a13a cb3e 9a4d d0bd 2582 b53d
000002d0: f8f0 f6bd 3468 11ba 7994 bb39 4c55 c23d
000002e0: c1b6 f63e a1b6 94bd 422a f6b9 2472 493e
000002f0: b054 44bf 1e1a 163e a3d3 2cbf 34cc 383f
00000300: 611b 3f3e 0124 19bf 4cae 263e 26ce ef3e
00000310: 7592 41bf 6e47 a9be 4b23 863e 92fe 9fbe
00000320: e24a 0dbd 103d 7c3f 9a50 17bf 9d0a 68bd
00000330: 7739 ce3a 3186 37bb ee5a 90be 639c e1be
00000340: d420 7dbd 9308 293e b5f9 173d 557b 733d
00000350: 1b52 343e 11aa 24be d4a1 a9be da6a 43bf
00000360: db74 f43b f578 babe 3668 913e adbb dcbc
00000370: c66d 9abd ecdf 713d e9ed 91be daf5 95be
00000380: d7ab 9fbe 5875 873e 88dd c43e 98f9 91bb
00000390: 8891 473b 3c07 413e
-0.36953416 -0.017997764 -0.26466197 -0.29871207 -0.13286701 -0.3454388 -0.072882436 0.29356033
-0.5621622 -0.20668235 -0.18204248 0.08875749 -0.37639615 -0.12816514 0.074682966 -0.73626894
-0.343656 0.23732567 -0.03273969 -0.29199106 -0.009936358 0.0031336783 -0.0868741 0.18802351
-0.1573673 0.37754092 0.0051973937 0.13437542 0.26555392 0.013641415 0.62463593 -0.09738762
-0.52831906 0.14475057 0.20720382 -0.096967906 0.34895533 -0.5949416 0.24892852 0.29184076
0.15317567 0.12624054 0.46086463 4.9741033e-05 -0.002279476 -0.116270445 0.14555794 5.4232965e-05
0.08843815 0.20290887 -0.087548815 -0.4624079 0.7365754 -0.4691997 0.48689425 -0.857336
-0.31671846 0.042078763 0.7146927 0.04995621 0.42312816 -0.109961554 -0.10910557 0.14026557
0.08525453 -0.24567287 0.0042223404 0.0051644053 -0.07091718 0.32353136 0.023371592 -0.17174624
0.1642521 -0.014214256 0.62350196 0.10790763 1.1447273 -0.36096293 -0.7471825 0.4108004
0.42968905 0.1357827 0.16101512 -0.5640931 0.15398392 0.13914447 0.52135354 0.42083994
0.75714356 0.0033815335 -0.0009887592 -0.28018025 0.047089744 0.38885787 -0.5045873 -0.10034416
-0.33825347 0.16841269 0.46335807 0.21593109 -0.15853077 -0.2820048 0.090516664 0.053554334
0.21877293 0.18146467 0.08060889 0.21913202 -0.4527227 -0.51793754 0.39346102 0.355914
-0.000604502 -5.0579474e-05 -0.0434099 -0.2668367 0.19291373 0.23050953 0.41101438 -0.3329869
-0.06422766 -0.48621845 0.17149945 0.29295066 0.03654921 -0.14120989 0.45282066 -0.23978515
-0.13789672 -0.07695815 -0.042302173 0.4161748 -0.2527231 -0.3644188 0.034778446 0.0008510415
0.0010142255 -0.10601506 -0.58087677 0.2034708 -0.05543926 -0.09223154 -0.40255192 0.38492575
-0.53230417 0.15929995 0.0017671925 -0.49482194 -0.048588116 0.23771349 -0.65563524 -0.10104062
-0.82645553 -0.06434831 -0.38605425 0.16612862 -0.45005524 -0.11518414 -0.004580014 -0.003391454
-0.1619054 0.1743761 -0.35363623 -0.0032654828 -0.18317327 -0.5118491 -0.043972634 -0.07301388
-0.15041092 0.49254113 0.07165174 0.018879684 0.30500767 -0.2877456 -0.0005661804 0.36435232
0.4193428 0.39693168 -0.10171051 0.08862714 -0.1205768 -0.00055468385 0.0003577804 0.09488925
0.48186305 -0.07261396 -0.0004695226 0.19672447 -0.7669172 0.146584 -0.6751043 0.7218659
0.18662788 -0.5982056 0.16277426 0.46836966 -0.756141 -0.3306231 0.261988 -0.3124891
-0.034495242 0.98530674 -0.59107363 -0.056650747 0.0015733679 -0.0028003568 -0.28194374 -0.44064626
-0.061798885 0.16507177 0.037103374 0.05944379 0.17609446 -0.160805 -0.33131278 -0.7633492
0.0074602193 -0.36420408 0.2839982 -0.02694496 -0.07540469 0.05905144 -0.28501824 -0.29289132
-0.3118579 0.26456714 0.38450265 -0.0044548027 0.0030451734 0.18850416

phi_from.mlp.mlp.0.bias f4 [10]
00000000: 3680 353c 4ad6 e13d dd74 f63c 4315 223d
00000010: b801 d03d 5c26 063e 441f be3d 2369 c6b8
00000020: 82c8 2abd 4573 88bc
0.011077931 0.110272005 0.030085022 0.039571058 0.10156578 0.1310057 0.09283307 -9.460959e-05
-0.041695125 -0.016656527

phi_from.mlp.mlp.2.weight f4 [10, 10]
00000000: b0df 8ebe dea1 f9be b75f da3d 546f 39be
00000010: ff08 953e 3cc1 2f3e dfc6 10bf 92a9 0abe
00000020: d2de 5dbf cde4 56be 8d3f b3bd 33f6 ba3d
00000030: ad15 92be 6ff2 1dbe 93ab fabe 93fb c33e
00000040: b1d0 c13e afea 153f afca 223f 82a4 07be
00000050: 2ec1 68be cdff 143d 1354 183f 39f5 3bbe
00000060: d140 62be dd98 f5be 75e6 b8bd 3e71 2b3f
00000070: ca5c 59be 4172 f2be 5195 293e 8b6a fd3e
00000080: 14d7 4dbd fa92 4e3e 0188 f33e 4647 9ebe
00000090: f084 00bf 39f2 c9bd 3e43 363d c0b1 663e
000000a0: fd95 b9be d962 1a3f 7bc5 25bd af7b 583f
000000b0: ac96 95be 6a12 aabe 33bf a2be e2a8 c73b
000000c0: 1817 fe3e 4a3b 14bf 7c3e 18be 968b 9d3e
000000d0: 3fa2 ce3d a086 59be 7a7e 103f 2b9e afbe
000000e0: 5ecb c63e 3a00 ae3d bf53 a2be 7e3e 843b
000000f0: 5de5 383e 64e4 473d 4f1c 52be 84f9 db3e
00000100: e2ed b53c 1053 00be 1127 babc a874 bfbd
00000110: fe6f 51bd 7847 9ebd 9124 d2be efa4 b4bc
00000120: fff4 583e 4190 8b3e 9fda 3fbe f8f3 4abe
00000130: 93af debe 9420 aebe bfc1 59be 16bf 833c
00000140: a786 b5bd 3752 a9be 00c2 f93e 9128 aabd
00000150: 3d42 95bc 5a9f 133f a3b8 ecbe 3dca 07be
00000160: 014b fdbe 0df8 5c3e 8894 29be c5b7 69be
00000170: 1933 5a3d 0394 90bc 7903 163f 7a7e 133d
00000180: e070 bfbe 8fc2 5b3e ae61 0c3f 0780 753d
-0.27905035 -0.48756307 0.106627874 -0.18108875 0.29108426 0.17163557 -0.56553453 -0.13541248
-0.8666812 -0.20985718 -0.08752356 0.0912899 -0.28532162 -0.15424512 -0.48959026 0.38277873
0.3785453 0.58561224 0.6359052 -0.13246349 -0.22729942 0.036376763 0.5950329 -0.18355264
-0.22095038 -0.47968188 -0.09028331 0.6696967 -0.21226802 -0.47352794 0.16560866 0.49495348
-0.050253943 0.20173255 0.475647 -0.30913752 -0.50202847 -0.098606534 0.04449772 0.22528744
-0.36247244 0.6030708 -0.040471535 0.84563726 -0.29216516 -0.33217174 -0.31786498 0.0060931304
0.49626994 -0.5790297 -0.14867586 0.30770558 0.1008954 -0.21242762 0.5644299 -0.3430036
0.38827032 0.08496137 -0.31704518 0.00403577 0.18056245 0.048801795 -0.20518611 0.42963803
0.022208158 -0.12531686 -0.022723706 -0.09348422 -0.051132195 -0.07728475 -0.41043523 -0.022051303
0.21187209 0.27258494 -0.18735741 -0.19819629 -0.43493327 -0.3400923 -0.21265315 0.016082328
-0.088635735 -0.33070537 0.48780823 -0.08308519 -0.018220061 0.57665026 -0.46234617 -0.13260742
-0.49471286 0.21578999 -0.16560566 -0.22824009 0.053271387 -0.017648702 0.5859905 0.03600929
-0.37390804 0.21460937 0.5483655 0.05993655

phi_from.mlp.mlp.2.bias f4 [10]
00000000: 72a8 3c3d 1f05 84bd b225 8cbd d59b 23bd
00000010: 3867 16bd 3be2 ac3d 698a 6fbd 29c1 073d
00000020: b338 2c3d 93c9 1ebd
0.04605908 -0.06446289 -0.06843127 -0.039943535 -0.03671953 0.084415875 -0.058481608 0.033143196
0.04204626 -0.038766455

z_k.mlp.0.weight f4 [10, 33]
00000000: e56d 313f 92f1 14bf f626 04bf 5159 a6be
00000010: 0d8e 4e3e 9e43 2bbe 64b0 b8bd e0c7 93be
00000020: 76db 623c f2ee da3e 9ce4 d2be 367c 2abe
00000030: c4dc 903e 57c6 073e e051 4cbd be3a 33bf
00000040: e226 413f cbc6 08bf 4d43 853e 246a 44bf
00000050: 8770 743e 28ca 08be ee62 aa3e 8bc0 a23e
00000060: dbdb b83e 9e88 d1be 38c7 cd3e bec7 533e
00000070: 54ea 083e 6b76 883a 2d49 c23c f601 24be
00000080: c3d2 d33d 3a61 6c3f 5432 35bf cb4f 95bf
00000090: 883c 113e aca7 9b3f 2b52 6abf 5cd2 a43b
000000a0: e9be 873e a382 32bf 44c0 86be 73a6 86bc
000000b0: 311b 32bc 11a5 973d bf24 b9bd 8e61 e33e
000000c0: 3bba ea3e 5602 5f3e 3eed 553f 5be3 42bf
000000d0: 2806 3a3f 3254 02be ac70 683e a619 c33e
000000e0: 7845 dfbd 894c 46be 6742 32bf 4817 1d3e
000000f0: 1647 a4bd 177b 13bf e11c dd3e b30a 583d
00000100: fb33 7abd 6377 05bf 31a8 f33c b6b6 57be
00000110: 2caf 03c0 1996 af3d 0ad0 3d3d 159b 10bf
00000120: 1949 3f3d ca1f 2b3e 92a9 c1be 864f 573e
00000130: 7fbc cfbe 04a5 b13e 2cd0 733e f08b 81be
00000140: 9e9a 10bf 8e78 1cbf ef9c 043f d1da f0be
00000150: 0f23 a33e e9b6 423c b81c ab3d ba77 32ba
00000160: 664d adbd 3674 c53e 4e6c 1c3e c01a c7bf
00000170: 7ff5 f93e 7655 cbbd bc00 02bf eb73 8f3e
00000180: ca5d 79bb 57c3 b3bd 66af a53d 860e 253f
00000190: 543b 9dbe a392 66bd 1ac8 8fbe 70ca 423f
000001a0: 7c5e 9c3e ba72 f13e f96d 4a3f 86e0 933e
000001b0: 204d 29be f2bd ea3e 7d51 a5be ddb2 4ebf
000001c0: 2948 e83e bb54 afbe a273 693e 47da 12bf
000001d0: 9d69 9d3e 36da cabf 6852 af3f 1a02 423e
000001e0: b955 2f3e f49f 3e3b 91d5 63be ed57 123f
000001f0: 130a 8cbe bf9d 943f ee4c 3a3d d856 423e
00000200: 21d6 2f3f d240 b23a c1fe 9a3e 9062 90be
00000210: 98a7 953e 7e86 5fbf 0b29 233e 4556 033e
00000220: 73b4 3b3f 2ab1 b5be 3b74 54be 54cf 0fbe
00000230: 48c6 bdbe b003 8b3e 63bb 4f3e d1f8 8e3e
00000240: 9d4b 303f 1b92 2dbe e7fd cabe 0b1f 25bf
00000250: e5c0 1abc ccdd e9be ed6a 203f 7b67 df3e
00000260: d57d 283f e8d4 94be 714d 1a3e 9916 2b3e
00000270: 1286 493f e90a abbd 47e1 943e a888 253f
00000280: 1ec4 3dbc 5b05 b13e fbeb 63bd 3be3 76be
00000290: b832 d5be 0fbd 0d3f b516 a8bd 091a 343e
000002a0: fa42 03bf 5fc5 083f 5936 fabd 4314 05be
000002b0: 5563 1e3f 56fd 8c3d 52ae a2be 34c9 febd
000002c0: a085 d4be 6266 d43b ec59 c8bc 70d3 4dbd
000002d0: 7744 e9bd 10c1 f13e 134a f7be 2b94 d73d
000002e0: 60b1 8c3f fafa 823e 8bfa 533e 0173 343f
000002f0: f504 cb3d 9504 e83e 4dfb bdbb 0f68 803e
00000300: e05f a93e 9f21 6cbe d793 1dbe 803d 0c3d
00000310: 25e8 70be 9fbd 29be a907 2e3f 01f3 bcbe
00000320: 2c62 f93e a357 3fbe 052b aa3e ddc8 a5bc
00000330: faf9 f3bd 67c8 f7be f579 ffbe 754c 573f
00000340: 1f9c 0a3e 9744 bfbe 6b1b 283e 1c9d 7fbb
00000350: 48d2 1d3e 89ea 3abe 67ac c93e 982f 1b3d
00000360: ad69 053d 957a 213e fc65 8bbd 581e 913e
00000370: f3c0 afbd 142e 6e3e b63f bdbd fdae 09be
00000380: 38fb b63e e2e5 1c3e 0178 c1be 6fda d23d
00000390: 3a44 1c3c cc1e a9be b057 6cbd 6f73 28bf
000003a0: cc05 93be f7f5 0140 4189 e8be 1353 20bf
000003b0: f10a 3d3d 2739 37be a190 ad3d 42fd fcbc
000003c0: c1e5 23be eeec 04be e8bf 88be d69e 8cbd
000003d0: c4f6 3dbf 627a 2a3e 272c 573e 0ece 993e
000003e0: 526f 7abe 7d40 a2bd c0a8 643f 8f6e d03e
000003f0: c145 873e 79ef 703e 9fe2 953d 903b 5b3f
0.6930831 -0.5818111 -0.5162195 -0.32490018 0.20171376 -0.16725013 -0.09018019 -0.2886343
0.013846269 0.42760426 -0.4119004 -0.16648945 0.2829343 0.13259254 -0.04988277 -0.7001151
0.75449955 -0.53428334 0.2602791 -0.7672446 0.23871051 -0.13358366 0.33278602 0.31787524
0.36105236 -0.40924543 0.40191054 0.20681664 0.13370639 0.0010411268 0.023716534 -0.16016373
0.10342934 0.92335856 -0.7077992 -1.1664976 0.14183247 1.2160544 -0.9153163 0.0050299596
0.2651284 -0.69730586 -0.26318562 -0.016436791 -0.010870741 0.07404531 -0.09040212 0.44410366
0.45845208 0.21778235 0.8356513 -0.76128167 0.72665644 -0.1272743 0.22699231 0.38105506
-0.10901922 -0.19365133 -0.6963257 0.15340912 -0.08021371 -0.57609695 0.43186095 0.05274458
-0.06108473 -0.52135295 0.029743286 -0.21065792 -2.0575666 0.08573551 0.04634098 -0.56486636
0.04670057 0.16711345 -0.37824684 0.2102643 -0.405735 0.3469621 0.2380988 -0.25302076
-0.5648593 -0.6112145 0.5180196 -0.47041944 0.31862685 0.0118844295 0.08355087 -0.0006808002
-0.08462028 0.38565224 0.1527569 -1.5555038 0.4882011 -0.0992841 -0.5078237 0.28018126
-0.0038050287 -0.087774925 0.08090095 0.64475286 -0.30709326 -0.056292187 -0.28082353 0.76090145
0.30540836 0.47157842 0.79074055 0.28882235 -0.16533327 0.45848042 -0.32288733 -0.80741674
0.45367554 -0.34244332 0.22798017 -0.57364315 0.3074464 -1.5847843 1.3697023 0.18946114
0.17122544 0.0029087039 -0.22249438 0.57165414 -0.27351436 1.161064 0.045483522 0.18978441
0.6868611 0.001359964 0.30272487 -0.28200197 0.29229426 -0.87314594 0.15933625 0.12825878
0.7332222 -0.35486728 -0.20747463 -0.14043933 -0.3706534 0.2715125 0.20286326 0.27924207
0.68865377 -0.16950266 -0.39646837 -0.6450049 -0.009445404 -0.4567703 0.62663156 0.43633637
0.65817004 -0.29068685 0.15068604 0.16707839 0.787202 -0.0835169 0.29078123 0.64661646
-0.0115824025 0.34574398 -0.05564497 -0.24110119 -0.41640258 0.55366606 -0.08207456 0.17588057
-0.51274073 0.53426164 -0.12217397 -0.1299601 0.6187032 0.068842575 -0.3177362 -0.1244072
-0.41508198 0.0064819315 -0.02445694 -0.05025047 -0.11390012 0.47217607 -0.48298702 0.10526308
1.099163 0.25582105 0.20701043 0.7048798 0.09913055 0.45315996 -0.0057977797 0.2507939
0.3308096 -0.230597 -0.15388428 0.03423834 -0.23526056 -0.16576241 0.6798044 -0.36904147
0.48707712 -0.18685775 0.33235946 -0.02023738 -0.119129136 -0.48395082 -0.49897733 0.8410104
0.13536118 -0.37357017 0.16416709 -0.0039003557 0.15412247 -0.1825353 0.39389345 0.037887186
0.032571483 0.15769418 -0.06806561 0.28343463 -0.08581724 0.23259765 -0.092406675 -0.13445659
0.3573854 0.15322068 -0.37786868 0.10295569 0.009537751 -0.3303131 -0.057700813 -0.6580114
-0.2871536 2.0306375 -0.45417216 -0.6262676 0.046153013 -0.17892896 0.084748514 -0.030882481
-0.16005613 -0.12981007 -0.26708913 -0.06866233 -0.7420466 0.16648248 0.21012937 0.3004002
-0.24456528 -0.079224564 0.8931999 0.4070935 0.26420406 0.23528852 0.07318615 0.8563776

z_k.mlp.0.bias f4 [10]
00000000: 0099 d1be c1b9 80bf 540b cfbd efb9 b1be
00000010: 4805 2bbe 87c7 a5be 9798 06bd fca4 093f
00000020: 6aef e5be 953d d1be
-0.40937042 -1.0056688 -0.101095825 -0.3471217 -0.16701233 -0.3237879 -0.032860365 0.5376737
-0.4490922 -0.40867296

r_k.mlp.0.weight f4 [10, 33]
00000000: 7907 b23c f9b0 133a e525 7b3f 0669 7f3e
00000010: 6968 27be a080 ac3e c0d3 4bbc c8cd 07be
00000020: 9220 cd3d fcd1 7b3e afa7 dbbe 3c9d cdbd
00000030: bab0 a33d fc90 313e b835 3ebf caf3 e33e
00000040: 2a7b 26be fd15 0d3e 45f2 f63e dddf 903e
00000050: 9d2b 773d 18f1 8bbd ba03 7cbd 8037 38bd
00000060: e4aa 9d3e c31e 13bf 0d17 33be 6595 043e
00000070: e111 ad3d 438f 92bd 5fa8 ebbd 2c67 adbe
00000080: 5985 9f3e c227 0dbe 3ef9 e9bc 5919 50bc
00000090: cad4 433e 526b 0f3e 1fef 1abf 0082 25be
000000a0: b229 d33f 7a82 56bf 6899 0abf 6cda 38be
000000b0: 61fe 80be 3ce4 8b3e 304f ad3c 6422 b3be
000000c0: 873d 0d3f c049 92be 4390 753f c38b 52bf
000000d0: 70e1 a3be 7cc5 153e cadc 45bd d96a 803d
000000e0: 1ec1 06be d745 123f f37a 35bf b290 093e
000000f0: a0d4 8c3e da90 323e fbcf f23d a0f8 e13c
00000100: cb36 6d3e c964 22be 79c6 9cbc 1829 5b3e
00000110: 19a5 a5bf 5ae1 7abe 339a 763f 40a4 46bf
00000120: 3627 fe3d 5078 d33d c9c2 18bf 0813 3abf
00000130: 19c0 f6be 2d42 a63e ab52 733f 1506 f8bc
00000140: be2e fdbe e90e e3be 5d37 3a3f 5a00 bb3d
00000150: 6a22 ea3e ce6a 46be 77b1 91be 4a60 cbbe
00000160: c5c6 f9bd 60c9 9c3e 4607 0dbf ca57 b9bd
00000170: 4515 12bf 798f abbe d85c 043b e248 cb3e
00000180: 5851 b7bd dc64 de3d 9e01 a53e 79f6 d43e
00000190: 326e cabd d93b a73f 0742 083e d7bf a3be
000001a0: 5489 bb3e 46b8 48be 5cfb 7cbd 029a 673e
000001b0: 1907 ca3e 5f41 98be 1b0e d33e dc00 2abe
000001c0: 29b4 38be d747 093f d038 d63d 514b 86bd
000001d0: fdb1 133e ca87 683d 8702 ccbe c16c e73e
000001e0: d426 f63d 0b57 f43e 4afb 073f 5ead af3e
000001f0: c517 d13e 7479 adbe 35ca ca3e 5318 83be
00000200: 6193 b83e 2378 e9bc 9f1f 7e3e d99c a63d
00000210: d662 543e 7701 513f eed7 713f 82b8 5cbe
00000220: bfe0 ef3e b122 3bbe e3ed e63e 4d67 c53e
00000230: 37f8 89be a544 a43e 85f7 dd3e beb1 fb3e
00000240: 0d90 c7be 442f 39bf 0bee 40be 73c8 a33d
00000250: 8dc1 fc3e 3555 e73d ad54 283f 5906 cdbf
00000260: 6186 083d dc4c 333e 56a1 893e e424 283d
00000270: b0e0 5abe 6972 d2be 046a a33e 1960 69be
00000280: 587b c7be 9cc3 9dbe a39f 04bf 5202 41be
00000290: d431 743e 9636 af3d 17fb 39be fa15 4c3e
000002a0: 1e47 a8be 4509 5a3e 71ef f5bd 6738 ecbe
000002b0: 0204 2f3e 35bc 5c3e 9973 43be ef72 32be
000002c0: 71db 99bd 56a2 633e 2ccf 25bf b55c d5be
000002d0: c754 4f3e 5754 5fbe 849a 5a3e 3525 6cbe
000002e0: 6e1e b6bf 2497 42bf 3676 d83e 0303 3dbd
000002f0: e513 0dbf 33a8 663e d423 8cbd 6045 a8bc
00000300: b3db 9c3d 6da7 30be 5419 aabd aa87 35be
00000310: 6975 1bbe 1a7b db3d e44d d1be 02da 023f
00000320: 6b89 2fbf 4d6a debe ead2 18bf e9c5 81be
00000330: 06a1 0bbe 91eb 63bf 8960 ed3e 4a34 9abe
00000340: 05f5 d73e 710d 07bf 97b1 77be 2477 c8be
00000350: 8dd3 c7bd 2ee9 8f3d 1ecd e53e 530f 7b3e
00000360: 0c15 34bf 2ed0 4c3f de98 26bf 4754 de3d
00000370: ba38 fbbe 5909 fabe d373 983e 7af5 cdbe
00000380: cd09 fe3f 524a b7be cf4c 9fbe 813f a7bc
00000390: 3e58 8d3d 907d a33e 4ff6 f2bd d684 0f3f
000003a0: 74a6 83bf bda9 aabf 0df7 453f 17d0 4c3f
000003b0: 156a 7c3e 79e4 12bf d575 5fbf 602f da3e
000003c0: 03c8 1b40 2ece 853e f773 333e 9fd5 b13e
000003d0: 3298 373f ae16 89bf 8abc 5f3e f984 e7be
000003e0: ab61 febe e8cc ac3f dfe3 9cbe d768 36be
000003f0: 6a60 b5be 3dd7 9b3d f3ed ed3f 51eb 48be
0.021732079 0.0005633976 0.981047 0.24942407 -0.16348423 0.33691883 -0.012440622 -0.13262093
0.10015978 0.24591821 -0.4290137 -0.10039756 0.07992692 0.17340463 -0.7430072 0.44521934
-0.16257921 0.13777919 0.48231712 0.28295794 0.060344327 -0.06833094 -0.06152699 -0.044974804
0.30794442 -0.57468814 -0.17489262 0.12947614 0.08450676 -0.07156231 -0.115067236 -0.33867776
0.31156424 -0.13784698 -0.02856123 -0.012701356 0.19124141 0.14005783 -0.6052112 -0.16162872
1.6497099 -0.8379284 -0.5414033 -0.18052071 -0.25194076 0.27322567 0.021155924 -0.34987175
0.5517201 -0.28571892 0.9592325 -0.8224451 -0.32007933 0.14626116 -0.048306264 0.062703796
-0.13159606 0.5713782 -0.7089073 0.13434103 0.2750597 0.17438069 0.118560754 0.027584374
0.23165433 -0.15858759 -0.019137608 0.21402395 -1.2941009 -0.24500027 0.9632904 -0.77594376
0.12409823 0.10325682 -0.5967222 -0.7268529 -0.48193434 0.32472363 0.95048016 -0.030276338
-0.49449724 -0.44347313 0.7274073 0.091309264 0.4572938 -0.1937668 -0.28455707 -0.397219
-0.121961154 0.30622387 -0.55089223 -0.090499476 -0.57063705 -0.33507898 0.002019694 0.39704043
-0.08951062 0.10859081 0.32227796 0.41594294 -0.09884299 1.3065139 0.13306437 -0.319823
0.3662821 -0.19601545 -0.061763152 0.22617343 0.3945854 -0.29737374 0.412217 -0.1660189
-0.18037476 0.53625244 0.10460055 -0.06557334 0.14423366 0.056770124 -0.39845678 0.4520016
0.120191246 0.4772266 0.5311781 0.34311956 0.40838447 -0.33881724 0.39607397 -0.25604495
0.3604994 -0.028499668 0.2481675 0.08135385 0.20740828 0.8164286 0.9447011 -0.21554759
0.46851155 -0.18274952 0.45103368 0.38555375 -0.26947185 0.32083622 0.43352905 0.49159044
-0.3897709 -0.72337747 -0.18840806 0.07997217 0.49366418 0.11295549 0.65754205 -1.6017562
0.03333128 0.17509788 0.26880902 0.041050807 -0.21374774 -0.41102913 0.3191682 -0.22790565
-0.3896129 -0.308133 -0.51806086 -0.18848541 0.23847133 0.08555333 -0.1816219 0.19930258
-0.32866758 0.21292599 -0.120085604 -0.46136782 0.17091373 0.2155617 -0.19087066 -0.17426656
-0.07512558 0.22229895 -0.64769244 -0.41672292 0.20247184 -0.21809517 0.21348006 -0.23061068
-1.4228036 -0.7601187 0.42277688 -0.04614545 -0.5510848 0.225251 -0.06842771 -0.020540893
0.07659092 -0.17251368 -0.08305612 -0.17727533 -0.15181507 0.10716839 -0.40879738 0.51113904
-0.6856906 -0.43440476 -0.5969683 -0.25346306 -0.13635644 -0.8903132 0.46362713 -0.30118018
0.42179123 -0.52754885 -0.24188839 -0.39153397 -0.09757147 0.07026897 0.44883054 0.24517564
-0.70344615 0.80005157 -0.65077007 0.108559184 -0.49066716 -0.48835257 0.29775867 -0.40226346
1.9846741 -0.3579889 -0.31113288 -0.020416023 0.069015965 0.31931734 -0.11863386 0.56062067
-1.0285172 -1.333305 0.77330095 0.8000502 0.24649842 -0.5737987 -0.8728917 0.4261427
2.4340827 0.26133865 0.17524706 0.34733292 0.71716607 -1.0710046 0.21849266 -0.45218638
-0.4968389 1.3500032 -0.30642602 -0.1781343 -0.3542512 0.07609413 1.8588241 -0.19621016

r_k.mlp.0.bias f4 [10]
00000000: 73c1 79bc f611 f73e 5abb cabd 0775 aebd
00000010: cedd f3bd c9f8 223e 83a1 7cbe cab4 9dbe
00000020: fb0d 56be d565 4b3a
-0.015243876 0.4825589 -0.09899016 -0.08518415 -0.1190754 0.15915217 -0.24670987 -0.30801994
-0.2090377 0.00077590096

correction.mlp.0.weight f4 [10, 33]
00000000: e565 873c 9b2a b33d 4a8b 0f3e 0c22 6fbe
00000010: 4ef0 09be acd8 e63d 8f4c da3e e5d1 d0bd
00000020: aca4 9cbe f762 a5be a0dd 80bd b967 89be
00000030: 0057 b4be 2ea7 ca3e 9beb 31be 50b6 40be
00000040: 683e 87be a142 b33e fe97 35be d645 333f
00000050: afb6 613d 3fd7 64be 3a21 8c3e b67e bc3e
00000060: 49a9 01be 12ce 3abe f629 cbbc ad38 e8bd
00000070: c7c7 e8be 08ee 5fbe 4d69 463d 0bdb a73d
00000080: 68fa dc3d 6c75 a2be d334 a93d 9a3f 953f
00000090: b1b7 d43e c113 883e 4f23 0e3f 2e78 65be
000000a0: ed1b 07bf 3785 99bc 5690 51bf 9d72 11bd
000000b0: 25dd 75be b9d5 323e 1330 68bc e66d 01bf
000000c0: fa88 5fbe d6f0 22bd ba13 2c3e 5011 4d3d
000000d0: b6f4 b03e bad8 1abf e16d 8b3e f591 653e
000000e0: b502 953e a1cc 073e 829a d1bd f5b3 e1be
000000f0: cb72 b2be a697 bebd f8f8 343e d59e 5b3c
00000100: 044d 8b3e 68eb 6abe 68e5 0c3f e036 063f
00000110: 4c74 9abd 1a02 b5be ec14 7dbe d02b b93e
00000120: f4d2 923e 7d84 f93e 320f f03c 8231 47bf
00000130: 8fef e2bd 409d 023e 6586 02be f383 b53e
00000140: c38b f5bd b97b 54be d577 cd3e b1f5 d43d
00000150: 1d66 03be 8fd2 08bf 09c0 df3d 8cb5 19be
00000160: b444 423e 3dad 07be 4299 d8be 5b7d 07be
00000170: 70d1 a3be 091a 47be 9e85 233d eb03 f7bd
00000180: 689a 00bc a5bd c7bd df5e 3abe 889d b73e
00000190: 6cdb 9cbd 92b9 343f 938c 79be 2e2d 8f3e
000001a0: 3f4d c1be dac5 53bc 6fcb eb3d 7383 9abe
000001b0: dbc0 463e 22e9 4fbe 7fb8 d13d 09e5 b1ba
000001c0: 9132 94be b213 523e 1cb1 5b3e e19e 00be
000001d0: 3c47 4dbe 4175 833d 61a0 1dbe a0c5 7fbd
000001e0: a24b b9be 554d e43c a100 2d3e e9fa 04be
000001f0: 5916 a53e 05a7 413e d75c 193e 7932 91be
00000200: e33a 733e 2004 82bc 357e 393d a8d1 8b3e
00000210: b9c0 19be 8486 7fbf dc7e 4fc0 d310 64be
00000220: 4380 85be 24cc adbe 7914 a1bf 6ffb 5abf
00000230: 97e8 10bf 7977 923d ba85 9cbd 1871 9f3e
00000240: 7e7e df3b 81e8 fd3d 2775 183d 9cff 4bbe
00000250: ad2f 613e 1a2b 873c 1b9b 81bf 9520 623e
00000260: f808 ec3e c5bb 04be e22d c83e ca36 b5bd
00000270: fe31 a4be ea88 753e 16d3 9fbe acf3 813d
00000280: a150 09bf 13a3 e63d 77f3 6abc c021 80be
00000290: 7297 9dbe a30f a83c fa4f 613e bfd0 49be
000002a0: 27d1 61be d0a0 9fbd 48a2 c2bd 28c7 0bbc
000002b0: f302 b9be b0d5 d23d 897e 5dbe e15e 6cbe
000002c0: b1a0 0abd de7f 65be 5218 67be 965f b9be
000002d0: da2d 8ebe cd6e 5f3e 6c11 3b3e 564f 173d
000002e0: a6ab 93be b68f 10be 37e7 40bf cdf7 03be
000002f0: 30df 833e 8a17 8abe c5d1 c53e a322 603d
00000300: 78ac 553e 4e72 a5bd 33d8 9a3d 7f62 89bc
00000310: 3a74 81be fb32 463d 2d1d 87be 96fa d3bd
00000320: 6a5a f1be dde4 b43e 83b2 1ebf cdb3 bb3d
00000330: 644a d03d 9d9b f0bc 9eef 283e 83b0 e1be
00000340: 1135 73bd 283a 073e 4962 2c3e 60d0 a5be
00000350: 121b 06bd f550 a13e 6d73 9b3e 5f27 45be
00000360: 014c b03c 719f cbbc 04e7 583c f48c 883e
00000370: 09e0 563c 2dc7 8ebc d713 43be 75a9 5fbe
00000380: d89e 013e 11a7 61be acec 1fbe 59ff 69be
00000390: 6bae c13c 2f7c a7be ac12 ee3d dc41 b63e
000003a0: 8d57 5ebf e234 03c0 94dd 163d a34e 0f3e
000003b0: 943b 86be e3cf ac3e 12b5 86bf 67d8 5f3e
000003c0: 0cec d2bd b6eb ee3d 7b1e 043f fed5 713e
000003d0: c047 8ebe ecee 9e3e 753f 903e 2847 3bbe
000003e0: aa8c a23d 6383 0b3f 539f 4b3d 1ebf 603e
000003f0: 468a ab3d 9187 a13e e742 82be c7c5 85be
0.01652808 0.08748361 0.14017978 -0.23352832 -0.13470575 0.11271796 0.42636535 -0.10196284
-0.30594385 -0.32302067 -0.062922716 -0.26836947 -0.35222626 0.39580673 -0.17375033 -0.18819547
-0.264148 0.3501177 -0.17733762 0.70028436 0.05510586 -0.22347735 0.273691 0.36815423
-0.12662233 -0.18242672 -0.024800282 -0.11338935 -0.45464918 -0.21868145 0.048440266 0.08196076
0.10789949 -0.3173021 0.082620285 1.1660035 0.41546395 0.2657757 0.55522627 -0.22409126
-0.52776986 -0.01874028 -0.81860864 -0.035509694 -0.24010141 0.17464341 -0.014171618 -0.50558317
-0.21829596 -0.03978046 0.168044 0.05006534 0.345617 -0.6048695 0.27232268 0.2241896
0.29103628 0.13261653 -0.10234548 -0.4408261 -0.34853205 -0.093062684 0.17673099 0.013404568
0.27207196 -0.22941363 0.55037546 0.5242748 -0.07541713 -0.35353166 -0.24715012 0.3616624
0.2867657 0.48733893 0.02930412 -0.7780992 -0.110808484 0.12755299 -0.1274658 0.35452232
-0.11989548 -0.20750321 0.40130487 0.103984244 -0.12831922 -0.53446287 0.109253 -0.15010661
0.1897152 -0.13249679 -0.42304426 -0.13231413 -0.31995726 -0.19443525 0.03992235 -0.12061294
-0.007849313 -0.09752969 -0.18200253 0.35862374 -0.07659039 0.7059566 -0.24370031 0.27964157
-0.37754247 -0.012925589 0.11513411 -0.30178413 0.19409506 -0.20303777 0.10240268 -0.0013572286
-0.2894483 0.20515326 0.2145428 -0.12560607 -0.20046705 0.06418849 -0.15393211 -0.06244433
-0.36190516 0.027868906 0.16894771 -0.1298634 0.32243612 0.18911369 0.14976822 -0.2835882
0.23752932 -0.015871108 0.045286376 0.27308393 -0.15014924 -0.9981463 -3.242118 -0.22272043
-0.26074418 -0.3394481 -1.2584373 -0.8553991 -0.56604904 0.07151694 -0.07642694 0.3114097
0.006820499 0.12397862 0.0372211 -0.19921726 0.21990843 0.016500045 -1.012546 0.22082742
0.46100593 -0.12962253 0.39097506 -0.08848341 -0.3206939 0.2397801 -0.31215733 0.06345305
-0.53638655 0.11261573 -0.014340273 -0.2502575 -0.30779606 0.020515269 0.22003165 -0.19708537
-0.22052442 -0.077943444 -0.09503609 -0.008531369 -0.36135063 0.10294664 -0.216303 -0.23083068
-0.033844654 -0.22412059 -0.22567871 -0.3620574 -0.27769357 0.21819611 0.18268365 0.036940895
-0.28841895 -0.14117321 -0.75352806 -0.12887497 0.25756216 -0.26971084 0.38636604 0.054720532
0.20866573 -0.080784425 0.07560768 -0.0167706 -0.25283986 0.048388463 -0.26389447 -0.1035053
-0.47139293 0.3533086 -0.6199114 0.09165154 0.10170439 -0.029371077 0.16497657 -0.4407998
-0.05937678 0.13205779 0.16834368 -0.3238554 -0.03274066 0.31507078 0.303615 -0.192533
0.021520616 -0.024856301 0.013238672 0.2667004 0.013114938 -0.017428959 -0.19050537 -0.21841986
0.1265825 -0.22036387 -0.15617627 -0.22851314 0.02364274 -0.32711932 0.11624655 0.35597122
-0.8685234 -2.0501027 0.036832407 0.13994841 -0.2621733 0.33752355 -1.0524008 0.21859895
-0.102989286 0.11666052 0.5160901 0.23616788 -0.27789116 0.31041658 0.28173414 -0.18288863
0.07936986 0.54497355 0.04971249 0.21947905 0.08375983 0.3154874 -0.25441667 -0.26127455

correction.mlp.0.bias f4 [10]
00000000: d39d c3bd 5e77 c53d 5ac5 92bd 75db 0cbb
00000010: a456 dd3e 454a 53bc ccf6 ef3c beae b8be
00000020: cd35 d63b 55f1 ae3d
-0.09551587 0.09641908 -0.07166548 -0.0021493111 0.43230164 -0.012896125 0.029292487 -0.36070818
0.0065371753 0.08542124

phi_neumann.mlp.mlp.0.weight f4 [10, 23]
00000000: 0a85 6dbe 4ce0 373e 44d6 8b3e 7eeb 863d
00000010: 0920 d73e 346e 49be a621 11bf e0dc 80ba
00000020: 447a 0a3e 405a 943e a99a 48bd 35aa 06bd
00000030: ba02 bbbe dbd9 edbe 02b8 8abc 7a91 d2be
00000040: 38dd 003f fa8e 133f 8537 67be f228 a4bd
00000050: 5c98 91b8 f5d3 9f3a e225 d43b c6c8 153e
00000060: 8c6e 323e b865 8c3d 60d0 d13c eac7 c5be
00000070: eb13 9abe efc7 9dbe 4d82 a23d 711c 733e
00000080: abf5 993e 6386 853e e439 13be eb5a d93e
00000090: f69d 44be 1f3f 133f 68f4 cdbe 88fc 253e
000000a0: 2a49 66bd b9df c13c 947f 04bf 6186 593a
000000b0: e964 f0b9 28b4 1c3d afdc 473d dba3 59bd
000000c0: 2d49 c6be 3dd2 2f3e eb98 243f 229d 92bd
000000d0: cb98 f7be 4976 9c3f 9fc8 afbe 77c9 a1bf
000000e0: 7ff8 c1be 4e27 36be d69a 8ebe ac40 863c
000000f0: 6c61 c9be 7434 f5bd 2bd4 063c a3e4 c23e
00000100: 9ae3 40be 6d7f a43e bd53 c7bd 2d1e 913d
00000110: c96b c4bd 5e5b 333e 432a 3b3e 0214 203d
00000120: f291 223d dcf6 053e 82f7 753e b046 b3be
00000130: f560 db3d d18c 6e3e f1a7 99be ca5d e03e
00000140: 3509 173e 9c57 ca3f 29f4 823e 6d9c 65bd
00000150: 44f0 b5bd 2fe9 3ebc ee63 963e cca4 26be
00000160: 26cd bcbe 3791 d9ba 440c a73a baee de3b
00000170: bd32 70be d432 2bbe b13d 473f cf87 bb3e
00000180: 5be1 76be b6a0 b2be 1430 f2bd 0fd6 d1be
00000190: c67e 013e 3b25 783d 126e ed3d 314a 433e
000001a0: 8537 5cbe 344e 08bf 3ed5 6cbe 75a3 57bd
000001b0: c8e7 abbd bc4b f43e b53e 84be bca4 0b3e
000001c0: 6247 df39 b6d9 13ba be98 5dbd a0ab 703e
000001d0: 7d3b 7fbd 8820 723d d6eb 2a3c 1a0b 563e
000001e0: 6538 41bc e119 113e 8aa0 773e a16f 043e
000001f0: 50ab febc 047c d4be ef9b 313e e752 99bf
00000200: 0715 08be 50f9 58be e706 8ebf 156b 40be
00000210: 6744 f53e f9f2 68be 44ad 4bbd 17b5 dc39
00000220: 997d 0db9 90ea 2c3d d9a1 953e d521 a53e
00000230: 1ce3 2abf 9689 8e3e 144b 093f 3504 dfbe
00000240: c97d 57be 3975 80be 26b2 50be 394e fdbe
00000250: 03e7 f33e 6140 dcbe dcc6 9b3f 5b9c 063d
00000260: 6bd0 08bf 2a20 143f 74fc adbc a20d 4abe
00000270: 424b 1abc ee22 a43e ce0d ab3a d27e 61bb
00000280: 37df b33d cc27 f93e afec 923e bdb1 523e
00000290: d863 04be 4976 c93b e546 03be d8a6 91bd
000002a0: e09f 9e3d f175 fcbe 52fd aebe 939f a83e
000002b0: c847 4cbe 9c66 693f cd71 eb3e 1d18 b5bd
000002c0: 737d 1ebe 052d f6be 6aeb 80be 360e e13e
000002d0: 4ba1 d13d b355 c337 b62d 253a 520d 5abd
000002e0: 91df 4d3d bebe b1bc 8312 2d3e 154a a23e
000002f0: 665f 10be fa04 b83e c99a 5a3d 1d3a 27be
00000300: 3d65 713e 0f7b d73e 5d3e d33d fbcb eb3e
00000310: 14ab 91be d972 063c fa38 d83d 8b0d 0bbe
00000320: 4eda 573d 478d 3c3f 2180 f5be 20a1 3ebd
00000330: dbd7 3439 6899 023b 9a22 10be f65a 6fbe
00000340: 8868 053e 23e2 a0be bb02 08bf 904c 33be
00000350: dadc bd3d e8a5 d53e d372 1ebd e8d9 c2bd
00000360: d75e d6be 8bb4 c73d 632d 3cbe 520e 5c3f
00000370: a20c 893e 54bd e6be 6b61 24be 43b8 07bf
00000380: 35b1 e53e a9e4 c33d 6f4e 1d3f 2af6 953a
00000390: 5967 4139 81d1 c5bd
-0.23195282 0.17956656 0.2731191 0.06587885 0.42016628 -0.19670945 -0.5669197 -0.0009831451
0.13523203 0.28975105 -0.04897562 -0.032877166 -0.36525518 -0.46455273 -0.016933445 -0.41126615
0.50337553 0.5764004 -0.22579773 -0.08015622 -6.942518e-05 0.0012193905 0.0064742425 0.1462737
0.17424983 0.06855339 0.025612056 -0.38629085 -0.3009332 -0.308166 0.07935009 0.23741318
0.30070242 0.2607909 -0.14377552 0.42452177 -0.19200882 0.5751819 -0.4022553 0.16209614
-0.05622212 0.02366625 -0.5175717 0.0008297917 -0.0004585155 0.038257748 0.048794445 -0.05313478
-0.38727704 0.17170043 0.64295834 -0.07158877 -0.4835876 1.2223598 -0.3433275 -1.2639607
-0.378849 -0.17788431 -0.27852505 0.01638826 -0.3933214 -0.11972895 0.008229296 0.3806506
-0.18836823 0.32128468 -0.09732769 0.07085834 -0.09590871 0.17515323 0.1827784 0.03908158
0.039689966 0.1308245 0.24020198 -0.35014868 0.107118525 0.23295905 -0.30010942 0.43821555
0.14749606 1.5807986 0.25576904 -0.056057382 -0.08883718 -0.011652275 0.29373115 -0.16273803
-0.36875266 -0.0016599064 0.0012744744 0.006803361 -0.23456855 -0.16718608 0.7782851 0.3662705
-0.24109404 -0.34888238 -0.118255764 -0.40983626 0.12646016 0.06058238 0.1159326 0.1907127
-0.21505554 -0.5324433 -0.2312822 -0.05264612 -0.08393818 0.4771403 -0.25829092 0.1363706
0.0004258706 -0.00056400464 -0.054100744 0.2350297 -0.06231259 0.059113055 0.010432204 0.20902672
-0.011793231 0.14170028 0.24182335 0.12933208 -0.031087548 -0.41500866 0.1734464 -1.1978425
-0.13289271 -0.21188855 -1.1095856 -0.18790849 0.4790375 -0.22748937 -0.049725786 0.00042096592
-0.00013493597 0.042215884 0.29225042 0.32252374 -0.6675279 0.27839345 0.53630185 -0.43557897
-0.21044077 -0.25089434 -0.20380458 -0.49473742 0.47637185 -0.43017867 1.2170062 0.032863956
-0.5344302 0.5786158 -0.021238543 -0.19731763 -0.009417357 0.320579 0.0013050379 -0.0034407866
0.08782809 0.48663175 0.286962 0.20575614 -0.12928712 0.006148134 -0.12820013 -0.07111901
0.077453375 -0.49308732 -0.34177643 0.32934245 -0.19949257 0.91172194 0.4598526 -0.0884249
-0.15477543 -0.48081222 -0.25179607 0.43956155 0.10235842 2.3285718e-05 0.0006301062 -0.05323536
0.050262038 -0.021697398 0.16901593 0.31697145 -0.14098892 0.35941297 0.05337027 -0.16330762
0.23573776 0.42086074 0.10314629 0.46054062 -0.28450835 0.008206093 0.105577424 -0.13579385
0.052698426 0.7365307 -0.47949317 -0.04654038 0.0001724655 0.0019927863 -0.140757 -0.23374543
0.13028157 -0.3142253 -0.53129166 -0.17509675 0.0927064 0.4172814 -0.038683724 -0.095142186
-0.41869232 0.09751233 -0.18376689 0.8595935 0.2676745 -0.4506632 -0.16052787 -0.53015536
0.4486176 0.09565098 0.61447805 0.001144116 0.00018444414 -0.096591

phi_neumann.mlp.mlp.0.bias f4 [10]
00000000: edb5 8cbd ac23 cf3c dcfc eebd f441 a13d
00000010: 5578 a43c 93ca d6bc e868 b33d c02d 0d3e
00000020: 8c6a 693d 0759 0d3d
-0.06870637 0.025285564 -0.11669323 0.07873908 0.02007691 -0.026219642 0.08760244 0.13786983
0.056986377 0.03450873

phi_neumann.mlp.mlp.2.weight f4 [10, 10]
00000000: 42de 44be 7d99 2d3f 0189 c9bd 5cc0 653e
00000010: 5969 52be 4fa7 00bf 4f94 ab3d 5ce6 bfbc
00000020: ecec fc3e 48ca a43d b744 cbbe cb4a edbd
00000030: fa39 94be 2db4 75be 0cfd a7bc c3ef 0cbf
00000040: 3d6f 18be 331f 533d 14a1 463d 8263 d1bd
00000050: 5841 96be 93a0 c73e 257a df3e fd0b 08bd
00000060: 065d 983e 92d5 f53e 706c 0ebf 3f89 37be
00000070: f03c 90be cb2f 78be 83ce a73e 421a 3dbe
00000080: 50ea a8bd 1030 323e 7c33 203f eb57 9dbe
00000090: d82c 03bd 1311 943d 4926 9d3e eed7 14bf
000000a0: 68f0 ba3e 1ec7 02be ad4e a83c e2e3 d5bd
000000b0: f3df cabd 7241 843e 39c6 f8be 7c69 673e
000000c0: bcc3 6fbe 4337 1d3e a948 7f3e a4ee 4a3e
000000d0: 0d55 80be 5f64 06bf 1a3c 0e3f 5a1a 113f
000000e0: 7b6d e43a cdca 66be 6f0d c23e b9a2 e03d
000000f0: cc80 bd3d 1ddf 1d3e 7566 9abe 31f6 04be
00000100: bb40 c3be c15f b83d 7b2b 673d f83a b23e
00000110: c71e 4abe c27c a03e 8700 03bf 1d5a db3e
00000120: 96d6 6d3e 25af b93e f60f 76be 0a47 01bf
00000130: 558e c33c 3f57 ed3e e8ed 7e3d 4cdf 0a3e
00000140: 0f7a a63e 1bbb 213f 4e92 ed3d c9a0 493c
00000150: 35f6 6e3e 752f a73e 0a95 803e 5f7f e0bd
00000160: 20f6 8ebe 6771 67bd f019 ea3d d890 433e
00000170: d089 a0be 2e85 be3c 4726 7abc a892 fabe
00000180: 8aa5 883e 5694 3cbe 484f 6b3d a31f 06bf
-0.1922541 0.6781233 -0.098405845 0.2243666 -0.20548 -0.5025529 0.08377897 -0.023425274
0.49399507 0.080463946 -0.39700863 -0.11586531 -0.28950483 -0.23994513 -0.020506404 -0.5505335
-0.14886184 0.051543426 0.04849346 -0.10224058 -0.29346728 0.38989696 0.43647876 -0.033214558
0.2975847 0.48014504 -0.5563421 -0.17923449 -0.28171492 -0.24236982 0.32774743 -0.18467048
-0.082478166 0.17401147 0.6257856 -0.3073114 -0.03202519 0.07229819 0.30693272 -0.5814198
0.3651154 -0.1277127 0.020545328 -0.10443856 -0.09905996 0.2583118 -0.48588732 0.22598833
-0.2341451 0.15353112 0.24930061 0.19817597 -0.2506489 -0.52496904 0.5556046 0.56680834
0.0017427647 -0.225383 0.37900874 0.10968537 0.09253082 0.15417142 -0.30156294 -0.1298454
-0.38135323 0.090026386 0.05643795 0.34810615 -0.19738303 0.31345183 -0.5117268 0.42842188
0.2322639 0.36266437 -0.24029526 -0.5049902 0.02387158 0.46355626 0.062238604 0.13561743
0.32514998 0.63176125 0.11600171 0.012306401 0.23336108 0.32653394 0.25113708 -0.10961794
-0.27922153 -0.056504633 0.114307284 0.19098222 -0.31355143 0.023256864 -0.015267915 -0.48940015
0.26688796 -0.1841596 0.057448655 -0.52392024

phi_neumann.mlp.mlp.2.bias f4 [10]
00000000: 6622 d33c 5740 563d 185c 793d d125 5cbd
00000010: 6e51 2f3c 58ac 563d e105 35bd 4a5c 4bbc
00000020: 8b3c c1bb 57cf 643d
0.025773238 0.052307453 0.060878843 -0.053747002 0.010700567 0.052410454 -0.04419506 -0.01241214
-0.00589711 0.055861797
