mixed/dsgps/results/50_ite_lamb_0_gamma_1/ckpt/running_model.pt (torch, 96581 bytes, 93 tensors)

laynorm.weight f4 [10]
00000000: 0000 803f 0000 803f 0000 803f 0000 803f
00000010: 0000 803f 0000 803f 0000 803f 0000 803f
00000020: 0000 803f 0000 803f
1.0 1.0 1.0 1.0 1.0 1.0 1.0 1.0
1.0 1.0

laynorm.bias f4 [10]
00000000: 0000 0000 0000 0000 0000 0000 0000 0000
00000010: 0000 0000 0000 0000 0000 0000 0000 0000
00000020: 0000 0000 0000 0000
0.0 0.0 0.0 0.0 0.0 0.0 0.0 0.0
0.0 0.0

phi_to.mlp.mlp.0.weight f4 [10, 23]
00000000: 0ca8 8abf fd62 ae3e 83fa 8b3e f007 75bd
00000010: afc2 6dbe b67f a73f 7d03 9b3e 1f6f b0be
00000020: d7c9 9d3c c69b 3bbe 5ba0 1ebe ec33 69be
00000030: e5fa 31be e227 7b3e 6c32 78be f240 443f
00000040: f82d 34be 6698 1a3f 38a7 99bc 6bc3 083f
00000050: 2d41 853b 0a8e 21bb 0a54 753d 862f 4cbf
00000060: 3345 72be d958 703f e2ca b43d e2c5 e53e
00000070: 7ce3 a63e ca84 713e a25d 8bbf 1db2 c23e
00000080: 8250 41bf 077a 29be 515c ca3c 2795 c93c
00000090: 5398 85bd b2fa 9b3e 6edf 3b3f 1b1a ae3c
000000a0: 4f0f 1fbf f023 97bd 87c9 203e 1072 c23a
000000b0: 09b8 86b9 6c42 313e eca8 8ebe 8fa2 08be
000000c0: 439d ac3d 30a6 bebd 5d33 003e 17ea ebbe
000000d0: f7ee 2b3e 76d5 223e b62d c2bd a8de 013e
000000e0: a584 7fbe b4d0 9d3d 3547 56be eaa6 a6bd
000000f0: ba6f 5ebe 9db1 c33e 3c78 a9be a2e1 c0be
00000100: a303 053e b7c0 a0be 0125 27bb f21d b73a
00000110: ce07 80bd 9470 26bd 36a2 03bd ea14 24be
00000120: 055a a63d 286a 95bd a794 58bd 7327 3cbe
00000130: 10ed 8f3e e171 563e 1426 83bd a2c3 6ebd
00000140: e3c3 d93e fa14 c9be 7bdd 57be 7adf 083f
00000150: 316d 94bd 5f39 a6be 4cc0 353f 05f9 fdbd
00000160: a249 183e f86f 883a f370 7c38 52c6 0bbe
00000170: 2161 8fbe 1c2e 6cbe 2b3a a33d e0b1 24be
00000180: 13ea 753e c3ec babe ee04 1dbf ae77 3fbe
00000190: 9fa3 f63d d700 0a3e e9f2 68bd 8dcd 8a3e
000001a0: 970a 2cbf fd6c d6be c31c 653e b3e4 96be
000001b0: 9db5 e4bd 2214 a5bd a0a5 4fbe 92d0 2e3e
000001c0: 8d6a 0b39 1342 8eba fcc1 163e 39d4 d0be
000001d0: 6cda 1b3d 6e17 bb3e 85b5 1dbe 4142 e43e
000001e0: 6209 5ebe fa39 4c3e 0473 853e 9416 eb3e
000001f0: 2ea3 223d 862c 583e 958d e03d f078 e7be
00000200: fb89 99bd 5e8e 8dbe 0f41 163f 24c2 9abd
00000210: 1a74 f23d 4477 333e 91d4 f4bd 493a a73a
00000220: af09 46b8 3aec 61be e57a 0ebe 0358 da3e
00000230: edc7 cdbd 7ffa 36be e87e ec3e 6975 1fbf
00000240: 3015 3dbb 40ef 033f a4df 963d 61ac ca3d
00000250: d36d 4e3e 4222 1d3e ad9b 09bf 7d58 d93e
00000260: 6fd4 a9be 5bd2 513e 63eb 9bbe e573 213f
00000270: 691c 713d 5568 85be b3b1 163a 22ed 31ba
00000280: 4b76 3ebe 46f6 ddbd f508 993e bd31 0fbe
00000290: 3fce a6bd f9de bf3c 62ca 5b3d 3e90 dabd
000002a0: 69ea 2a3d e5f0 8d3e da65 f0be 1ffa 0abf
000002b0: 2c28 8a3d a486 9b3f 8395 713e 446d 46be
000002c0: 3227 ebbd 0df4 003e 67af 013d 0b7e 6a3e
000002d0: bc0d c1be 48e1 1fba 88b5 b03b de3c 6abe
000002e0: be1b 663f e22a 5fbd 3c0a d93e 930d a43e
000002f0: 06a5 153d f6c8 1c3d a3be ac3e 8d20 6e3e
00000300: 88c2 203d 71d9 c2be 187b 3bbe 7f4d 20be
00000310: 23af 833e 8d2f 093f 3936 133e 42f7 133e
00000320: cc8a fc3c 5b90 c2be e18f 1e3e 1468 bd3d
00000330: ccf0 303b 0887 7a3a 46d3 74bc c526 1b3e
00000340: 4107 053f 5d83 10bf aa06 923e 6cd5 ffbe
00000350: ce49 12be dce0 83be dd10 e43e 83e5 733e
00000360: 0af7 613d 040d 4c3f 7a7b 90bd 199d 753e
00000370: c88c 913e fbb5 8f3d a931 18be 3d6c 993e
00000380: c375 ab3f 99c7 85be 1286 fcbe 5ef5 8f3a
00000390: d44b d9ba a1de 63be
-1.0832534 0.34059897 0.27339563 -0.059822023 -0.23218797 1.3085849 0.302761 -0.3445978
0.019261284 -0.18321142 -0.15490858 -0.22773713 -0.17380865 0.24526933 -0.24237984 0.766616
-0.1759566 0.6038879 -0.018756494 0.53423184 0.0040666074 -0.0024651312 0.0598946 -0.79760015
-0.2365921 0.9388557 0.08827759 0.44877535 0.32595432 0.23585811 -1.088795 0.38026515
-0.7551347 -0.16550456 0.024702223 0.024607254 -0.06523194 0.30464703 0.733878 0.021252682
-0.62132734 -0.073799014 0.15701877 0.0014835019 -0.0002569559 0.17310494 -0.27863252 -0.13343261
0.08428433 -0.093090415 0.12519594 -0.46077034 0.16790377 0.15901741 -0.09481375 0.12682593
-0.24952944 0.077058226 -0.20925601 -0.08137305 -0.21722308 0.38221446 -0.33099544 -0.37672144
0.12989669 -0.3139703 -0.0025504234 0.0013970716 -0.062514886 -0.040634707 -0.03213712 -0.16023603
0.081226386 -0.07295638 -0.05287614 -0.18374424 0.28110552 0.20941879 -0.06403747 -0.05829204
0.42532262 -0.39273816 -0.21080582 0.53466 -0.07247389 -0.32465646 0.70996547 -0.12401012
0.14871839 0.0010409346 6.0186674e-05 -0.13649872 -0.2800379 -0.23064464 0.07970079 -0.16083479
0.24015073 -0.3650876 -0.6133565 -0.18697998 0.12042927 0.13476883 -0.056872282 0.27109948
-0.6720366 -0.41880026 0.22374253 -0.2947136 -0.111674525 -0.08060481 -0.20278025 0.17071751
0.00013295766 -0.0010853432 0.14722437 -0.40786913 0.0380501 0.36541313 -0.15401275 0.44581798
-0.21683267 0.19943991 0.26064312 0.45915663 0.0397064 0.21110734 0.10964505 -0.45209455
-0.07497021 -0.2764768 0.5869302 -0.07556561 0.11838551 0.17525965 -0.11954606 0.0012758459
-4.7215897e-05 -0.2206277 -0.13914068 0.42645273 -0.100478984 -0.17868994 0.46190572 -0.6228853
-0.002885174 0.5153694 0.07366875 0.0989616 0.20159082 0.153451 -0.5375317 0.42450324
-0.33169886 0.204904 -0.30453023 0.63067466 0.058864985 -0.26056162 0.0005748525 -0.00067873497
-0.18599813 -0.108379886 0.29889646 -0.13983817 -0.08144807 0.023421751 0.053659804 -0.10672043
0.041727457 0.2772285 -0.46952707 -0.54287905 0.067459434 1.2150464 0.2359219 -0.19377619
-0.11482085 0.12593098 0.031661417 0.22899644 -0.3770579 -0.0006098938 0.005392734 -0.22874781
0.8988608 -0.054484256 0.4239062 0.32041606 0.03653433 0.03827759 0.33739194 0.23254605
0.03924802 -0.3805652 -0.18308675 -0.15654562 0.25719556 0.5358818 0.14376153 0.1444979
0.030827902 -0.3800076 0.15484573 0.09248367 0.0026998995 0.00095568644 -0.01494295 0.15151508
0.51964194 -0.56450444 0.2852071 -0.49967515 -0.14285967 -0.25757492 0.44544116 0.2381802
0.055167235 0.7970736 -0.07054801 0.23985709 0.2842772 0.07017132 -0.14862694 0.29965392
1.3395313 -0.26128843 -0.49321038 0.0010983159 -0.0016578385 -0.22252895

phi_to.mlp.mlp.0.bias f4 [10]
00000000: 426e 363b 228a e0bd 1029 b33d 51e2 d9bc
00000010: d44c 0d3d 550b 8a3c 66a0 ce39 cc37 5f3d
00000020: 8e7b 1a3e 5065 0e3e
0.0027836715 -0.10963847 0.087480664 -0.026597174 0.034497097 0.016851107 0.00039410888 0.05449657
0.15086195 0.13905835

phi_to.mlp.mlp.2.weight f4 [10, 10]
00000000: 647a 603e 4cdf 0a3f f44c ddbe 273a eebd
00000010: 6ca6 873e e28f d23e 6210 a43e 9f09 a13e
00000020: b075 12bf 4427 6b3f d54c 2e3c f139 ba3d
00000030: c2e6 15be 817c 3f3e a994 9c3c fe7f f3be
00000040: e3ae d33e 1648 013d b30e 96be 4e2b dd3e
00000050: 1e9c 05bf 3326 d0bb d93f 3abe a56b 4a3d
00000060: ff99 f43d 8026 b0be a281 b0be 053f 003c
00000070: 1c32 3a3f c2c1 9dbf c422 1a3e 83c5 23be
00000080: d53a f8bd 1e66 c13e ea9a 88be 2ddd bbbe
00000090: 8def 86bd 9e90 d6bc b492 a63e c65c 1bbf
000000a0: 286d de3e a41d 85be 4976 ebbe ace6 1ebf
000000b0: 3b75 0fbf 4bd8 ed3c f4be 8abd b315 6a3d
000000c0: 92e7 07be 0c91 683e 9fe1 823e 6f15 c83e
000000d0: a9e7 d8bd 0cba c03d 028c 003f e879 6d3e
000000e0: a7f1 62be 6f8c 683e 1afb 0bbf bed3 bd3d
000000f0: 2178 d1be 3f72 22bf edc7 04bf 9d08 01be
00000100: f9ed a43e 38b0 dcbd 9781 a13c 78c9 163e
00000110: faef 8f3e e66a f63e 8f9b ebbb 1d81 983e
00000120: eee5 b73d adce 363e 3e89 6ebe 86a6 babd
00000130: d671 11bf 69a2 823d 4816 d4be e4d3 cd3f
00000140: 1e54 e9be 0211 3c3f 7893 c2be 37c7 89be
00000150: 35ae 373e c875 3b3d 7458 b73e 1197 623a
00000160: d2a2 e83e 167d 3ebe ac2c 9f3e 48c5 393c
00000170: c3ac abbd 5de4 b6bb 739b 843e 6195 a13e
00000180: 96af f6be 6c9f efbe f3d7 213e ef18 8ebf
0.21921688 0.54246974 -0.43222773 -0.116321854 0.26494157 0.411254 0.3204375 0.31452653
-0.57210827 0.9185679 0.010638435 0.09093083 -0.14638808 0.18699838 0.019113855 -0.47558588
0.41344365 0.031562887 -0.2930809 0.431971 -0.5219134 -0.00635221 -0.18188418 0.049419064
0.11943435 -0.34404373 -0.34473902 0.007827525 0.7273271 -1.2324755 0.15052325 -0.15993313
-0.12120596 0.37773222 -0.2668069 -0.3669218 -0.065886594 -0.026192006 0.325338 -0.60688436
0.43442655 -0.25999177 -0.45988682 -0.6207073 -0.56038254 0.0290338 -0.06774703 0.0571496
-0.13271931 0.22711581 0.2556276 0.39078853 -0.10591061 0.094104856 0.50213635 0.23191035
-0.22162496 0.22709821 -0.54680026 0.09268902 -0.40911964 -0.63455576 -0.5186756 -0.12600942
0.3221281 -0.107757986 0.019715114 0.14725292 0.28112775 0.48128432 -0.007190175 0.29786006
0.089794025 0.17852278 -0.23294541 -0.09113793 -0.56814325 0.063786335 -0.4142325 1.6080289
-0.4557199 0.7346345 -0.38003135 -0.269098 0.17937548 0.04576662 0.35809672 0.00086437265
0.45436722 -0.18602404 0.3108877 0.011338539 -0.08382561 -0.0055814222 0.25899848 0.3155928
-0.48180836 -0.46801317 0.15805034 -1.1101359

phi_to.mlp.mlp.2.bias f4 [10]
00000000: b5c7 44bd 1ae7 1e3c 1e08 aa3d a727 9b3d
00000010: 89d9 b7bc d509 9b3d 7f90 a5bd c3d9 103e
00000020: 208d 033d 3796 43bd
-0.048042018 0.009698654 0.083023295 0.075759225 -0.022442596 0.07570235 -0.08084201 0.1414557
0.03211701 -0.047750678

phi_from.mlp.mlp.0.weight f4 [10, 23]
00000000: e61e bdbe e154 a2bc 26dd 89be c61c 98be
00000010: 0cff 08be 1d2f b8be 5b76 9cbd bb4b 963e
00000020: b4fa 0fbf b7c8 5abe 5cf4 39be 9187 b33d
00000030: b91d c4be ef73 02be 26c7 ab3d 00b1 3fbf
00000040: c97f b0be 4eb2 6e3e 5353 f3bc 4bb7 9abe
00000050: 6fcd 66bb aca0 213b 6665 b0bd 4b68 403e
00000060: ac67 1fbe b65c c73e 58df f03b 681e 0c3e
00000070: 60f4 873e d999 6f3c 0931 223f 7b92 c6bd
00000080: 6a5b 07bf 5723 153e 83ed 553e 39de d2bd
00000090: 05e3 b23e 9c06 18bf 5e63 7d3e cb7d 953e
000000a0: f57f 223e 0734 013e 546f ec3e 6947 13b9
000000b0: 93fe 0eba ecf8 edbd c2c6 123e c929 ab3a
000000c0: 4695 913d 1c0f 533e 74fe b8bd 06e1 f3be
000000d0: 2dbe 3b3f 635b eabe ce48 f83e 4f83 5bbf
000000e0: 5c06 a4be f904 433d e625 303f 1e90 653d
000000f0: faf6 d83e d83a 0bbe 062b e0bd f704 103e
00000100: 01ba a93d 0b08 87be 5682 12bb 1441 ec3b
00000110: 7c53 8dbd 40a1 a43e 8787 b63c 0902 33be
00000120: dcb0 2d3e a21b 89bc 9766 213f 6471 d33d
00000130: f68b 933f 8a84 b7be d43d 3fbf a38b d33e
00000140: 3b67 de3e 57ca fe3d d5bd 253e da4d 10bf
00000150: 5af9 163e 8a2c 0d3e a1b6 073f fd9c d73e
00000160: 9961 413f bbbc 383a 3179 e2ba a6b3 8fbe
00000170: 6b27 3b3d 6e08 c73e 8d35 01bf 5f6d cdbd
00000180: 953d adbe 1a48 2b3e 218a ed3e 946e 5c3e
00000190: 2768 23be 2ad8 90be 5cd5 b53d a6db 5b3d
000001a0: df96 613e a007 3a3e cae1 9f3d 888b 5f3e
000001b0: 8101 e8be 2b76 04bf 8692 c93e a075 b63e
000001c0: fa11 86ba 5a9e 103b 10e9 30bd 9447 88be
000001d0: 6aca 453e 04c4 6b3e 3d81 d23e c365 aabe
000001e0: fec4 7fbd e959 f9be 3233 2f3e ab76 963e
000001f0: eead 193d 7342 0fbe 5bfa e73e bcce 77be
00000200: b1c0 0cbe 295c 9bbd 2fd6 26bd 56fb d43e
00000210: ea8a 81be 0b7c babe 2d21 103d 6d1c 27b9
00000220: ad8b 383b da2f d7bd 1c2b 14bf f1e2 4d3e
00000230: 89fd 51bd 546e bbbd c455 cfbe a699 c83e
00000240: b02b 08bf 8d54 223e fd43 19bb 6986 fbbe
00000250: 3b69 50bd 51e4 733e a58e 29bf 5391 ccbd
00000260: 0fb3 54bf e44e 49bd a466 c6be 89bf 2c3e
00000270: b5be e5be 6643 ecbd 8504 773a 0783 f5b9
00000280: 0186 22be dec0 313e 7684 b5be 0f74 23bb
00000290: e0c0 3bbe d32b 03bf cb35 1fbd ae81 94bd
000002a0: 019a 1cbe e238 fc3e c33c 933d 2ae8 943c
000002b0: 6a4b 9c3e 50c1 92be f3a0 eaba 98bb ba3e
000002c0: 6685 d43e 4276 cb3e 7ddd cdbd 5020 b43d
000002d0: b906 f8bd b72d 28bb 0990 4b3a 153b c13d
000002e0: a603 f73e 6730 94bd fedd 723b 5f75 433e
000002f0: 34cc 44bf f530 1a3e 97f3 2cbf 1a82 3c3f
00000300: 4180 443e 0733 17bf 09bd 1f3e ce25 f13e
00000310: c3d1 41bf 0313 a9be 1162 8b3e 541a a1be
00000320: f556 0fbd 7a0b 803f aae7 16bf eb36 80bd
00000330: 56b9 9e3a 268c 96b9 9a28 90be d515 e2be
00000340: b6b1 81bd 4208 2a3e 13d5 183d 0dca 7d3d
00000350: 16fa 313e 110d 25be 465a afbe 30a9 43bf
00000360: db48 113c 93ba babe 5be2 913e f3a7 01bd
00000370: 4e65 99bd 11ad 683d 998d 90be 55ab 95be
00000380: dc22 a1be 9f30 883e d616 c53e 88be 18b9
00000390: 0a75 643b 5e6a 413e
-0.36937636 -0.019815864 -0.26926535 -0.29709452 -0.13378543 -0.35973445 -0.07639762 0.29354653
-0.5624192 -0.21365629 -0.18159622 0.087660916 -0.38303927 -0.12739538 0.08387594 -0.74879456
-0.34472492 0.23310205 -0.029702818 -0.30217966 -0.0035217663 0.0024662418 -0.0861309 0.18789785
-0.15566891 0.3893792 0.0073508434 0.13683474 0.2655363 0.0146240825 0.6335607 -0.09695908
-0.5287386 0.14564262 0.20891385 -0.10296292 0.34938827 -0.59385085 0.24744937 0.29197535
0.15869124 0.12617503 0.46178687 -0.00014045615 -0.00054548046 -0.11619744 0.14333633 0.0013058718
0.0710855 0.20611233 -0.09032908 -0.47632617 0.7333706 -0.45772848 0.48493046 -0.85747236
-0.32036102 0.047612164 0.6880783 0.056045644 0.42375928 -0.13596666 -0.10945706 0.14064394
0.082874306 -0.26373324 -0.0022355518 0.0072099064 -0.06900689 0.32154274 0.022281421 -0.17481245
0.16961998 -0.01673681 0.63047165 0.10324362 1.1527088 -0.35843307 -0.7470372 0.41317472
0.43438134 0.12440937 0.16185696 -0.5636879 0.14743558 0.13786522 0.53013045 0.4211196
0.7553955 0.0007047166 -0.001727855 -0.28066748 0.04569189 0.3887362 -0.50472337 -0.100306265
-0.33836046 0.16726723 0.46394446 0.21526557 -0.159577 -0.2828992 0.08878586 0.05367627
0.22030209 0.18166971 0.07806738 0.2183057 -0.45313647 -0.5174281 0.393696 0.35636616
-0.0010228746 0.002206704 -0.043191016 -0.2661711 0.19315496 0.23023993 0.41114226 -0.33280763
-0.062443726 -0.48701409 0.17109373 0.2938741 0.037519388 -0.13990192 0.45308194 -0.24199957
-0.13745381 -0.075859375 -0.040731605 0.41598004 -0.25301296 -0.36422762 0.03518789 -0.0001593695
0.0028159425 -0.10507174 -0.5787828 0.20106103 -0.05126718 -0.09151903 -0.4049512 0.39179724
-0.5319166 0.15852566 -0.0023386471 -0.49125984 -0.050881606 0.23817565 -0.66233283 -0.09988656
-0.8308572 -0.0491475 -0.38750184 0.1686994 -0.4487206 -0.11536293 0.00094229757 -0.00046827664
-0.15871431 0.17358729 -0.35452622 -0.0024941002 -0.18335295 -0.51238745 -0.03886966 -0.07251297
-0.15293123 0.49262148 0.07189324 0.01817711 0.30526286 -0.2866311 -0.001790075 0.36471248
0.41508025 0.3973866 -0.10052011 0.087952256 -0.12110657 -0.0025662014 0.00077652984 0.09435097
0.4824497 -0.072357945 0.0037058587 0.19087742 -0.7687409 0.15057738 -0.6755919 0.7363602
0.1918955 -0.59062237 0.15599455 0.47099155 -0.75710696 -0.33022317 0.27223256 -0.314654
-0.034995038 1.0003502 -0.5894724 -0.06260475 0.0012109678 -0.00028714648 -0.28155977 -0.44157282
-0.06332724 0.16604713 0.03731258 0.06196027 0.17380556 -0.16118266 -0.3424856 -0.76430035
0.008867468 -0.3647047 0.28493008 -0.03165431 -0.074900255 0.056805674 -0.2823303 -0.29232278
-0.31471908 0.26599595 0.38493985 -0.00014566828 0.00348598 0.18888232

phi_from.mlp.mlp.0.bias f4 [10]
00000000: b275 373c 6239 df3d 6d71 f73c 0011 253d
00000010: 9630 d13d 6c61 063e b14f bb3d 8081 9539
00000020: 5930 32bd eba0 8abc
0.011197494 0.10899617 0.030205453 0.040299416 0.10214345 0.13123101 0.09146059 0.0002851598
-0.04350314 -0.016922435

phi_from.mlp.mlp.2.weight f4 [10, 10]
00000000: 90bb 8ebe 44c5 f8be 9f56 d23d b06a 3cbe
00000010: e523 953e 5783 2f3e 82de 10bf d416 0abe
00000020: 319b 5fbf 8349 5bbe 511c b2bd ceb2 bc3d
00000030: c425 92be 09d3 1fbe 0d05 fbbe f52c c43e
00000040: a512 c13e cccf 153f ebda 223f b8d4 08be
00000050: a299 6cbe ba30 043d 1405 193f 1237 39be
00000060: eba4 60be 131c f5be ab56 b3bd 5b24 2c3f
00000070: 857e 59be 3551 f0be 0fb4 293e aaa3 fe3e
00000080: be77 4fbd 7565 503e f081 f33e f34f 9ebe
00000090: 2355 00bf 763f c9bd 6a6a 293d d579 693e
000000a0: d8d4 b9be 457a 1b3f f530 20bd 6063 593f
000000b0: 1881 94be 9032 a9be b1fd a1be 8fb1 c13b
000000c0: cc93 fd3e 8077 15bf 0022 1abe 617e 9e3e
000000d0: 9fa2 ce3d 6f76 57be 3b9b 103f d5e5 afbe
000000e0: 0781 c73e a462 ad3d d2b5 a2be 0c07 933b
000000f0: d27f 393e c930 413d b0cc 52be c72d dd3e
00000100: bd1e c63c 5786 febd 936f b0bc 1c71 bcbd
00000110: 7f99 5cbd 7765 9ebd d341 d1be bdc1 9dbc
00000120: 1412 583e bf23 893e f8db 3ebe c90d 4abe
00000130: 2050 debe 7344 aebe 23ac 58be 97c0 813c
00000140: 02a0 b5bd 1df6 a8be 7f9b f93e b942 adbd
00000150: fb60 9ebc 638b 133f 3954 edbe a6c2 08be
00000160: 56f0 fbbe 75c0 5a3e 2c02 2cbe c966 69be
00000170: e9c1 573d 4c14 a6bc 78ee 153f 345b 0e3d
00000180: 0211 bfbe eb93 593e bb14 0d3f b5bf 753d
-0.27877474 -0.48588002 0.10270428 -0.18400073 0.29128948 0.17139946 -0.5658952 -0.1348527
-0.8734618 -0.21414761 -0.08696807 0.09213792 -0.28544438 -0.15607847 -0.4902729 0.3831555
0.37709537 0.585202 0.6361529 -0.13362396 -0.23105481 0.03227303 0.59773374 -0.18087414
-0.21937911 -0.4787298 -0.08756765 0.67242974 -0.2123967 -0.46936956 0.16572593 0.4973424
-0.050651304 0.20351203 0.47560072 -0.3092037 -0.5012991 -0.09826557 0.04136125 0.22800381
-0.362952 0.60733443 -0.03910919 0.8491726 -0.2900474 -0.3304639 -0.31638864 0.005911059
0.49526823 -0.5838547 -0.15052032 0.30955794 0.10089611 -0.21041273 0.5648686 -0.34355035
0.38965628 0.0846608 -0.31779343 0.004486924 0.18115166 0.047165666 -0.20585895 0.43198988
0.024184579 -0.12427967 -0.021537578 -0.092012614 -0.053857323 -0.07734197 -0.40870532 -0.01925742
0.21100646 0.26785085 -0.18638599 -0.19731821 -0.43420506 -0.34036598 -0.21159415 0.015838904
-0.0886841 -0.3300027 0.48751447 -0.08459992 -0.019333353 0.5763456 -0.4635332 -0.13355502
-0.492068 0.21362479 -0.16797704 -0.22793116 0.05267516 -0.02027335 0.58567 0.034754947
-0.37317663 0.21247832 0.5510976 0.05999728

phi_from.mlp.mlp.2.bias f4 [10]
00000000: ec98 383d 29a3 84bd a89b 8abd 5ec7 20bd
00000010: 9386 14bd 9a0f ad3d fa73 70bd f7e3 0d3d
00000020: 32ce 2c3d 3c57 23bd
0.045067713 -0.06476433 -0.0676797 -0.03925263 -0.036261152 0.084502414 -0.058704354 0.034641232
0.04218883 -0.039878115

z_k.mlp.0.weight f4 [10, 33]
00000000: ce32 333f 131b 14bf 475a 03bf 8d65 a8be
00000010: f585 4f3e 5cd4 34be 1e86 afbd 57c4 8fbe
00000020: e4f3 3c3c 7091 da3e 85b0 d3be 2549 2dbe
00000030: 952f 923e 9885 043e e23b 47bd 45b4 33bf
00000040: 4d31 423f 0b75 0bbf b04d 883e 8525 4bbf
00000050: 2357 803e b351 07be 288e ac3e 9247 a43e
00000060: 58bb b93e accc d3be 1b23 ce3e 498d 553e
00000070: f955 0a3e 2b84 983a e127 e03c d519 25be
00000080: f816 d03d 3273 6d3f a570 37bf a229 96bf
00000090: 0b13 113e 93a9 9d3f f9d1 79bf 48ef 263b
000000a0: 306a 683e 4e01 35bf 5246 90be 9463 8abc
000000b0: d441 f7bb 77f3 9d3d ed87 d7bd 6b31 e53e
000000c0: 32cf eb3e 0928 5f3e 6612 593f 6f2d 42bf
000000d0: a5c6 373f f332 05be f464 653e 5513 c23e
000000e0: b6c6 dabd 62b7 4abe b49a 33bf 77f8 1c3e
000000f0: c0b9 a9bd be73 12bf e470 dd3e 3977 473d
00000100: 09a1 7cbd 29c2 05bf 2af2 343d 886f 53be
00000110: a2af 05c0 a3ce a53d 853a 773d 8488 1bbf
00000120: bf2c 4a3d 7070 f23d c927 c8be d5d4 453e
00000130: 6ab3 d2be a216 b23e e640 733e 6a29 84be
00000140: 0610 10bf 6716 1dbf 1003 033f b6df f6be
00000150: 09ae a03e fccc 143c 3317 ab3d e705 aaba
00000160: 94c7 adbd e9b6 c83e d0fe 193e f504 cabf
00000170: 5cec f93e 92bc c5bd 8e4c 02bf 06e3 8e3e
00000180: 4327 d7b9 a790 b4bd 360c a43d f8e5 243f
00000190: 08c4 a1be 026e 0ebd 5e0b 8dbe 63ed 453f
000001a0: 2d49 9b3e 5d23 f03e 31d5 473f 290d 963e
000001b0: 2ffc 2bbe 0fc4 ec3e 381a b0be 0a6a 4fbf
000001c0: 45cf e73e e11b b0be 2f80 6c3e 3f07 12bf
000001d0: 5ba8 9c3e 5722 cdbf d919 b13f 11ff 423e
000001e0: 69f9 2e3e f5ef af3b 099e 61be 4926 113f
000001f0: 9c7f 89be 9261 943f f8e9 2a3d 1fb2 423e
00000200: f346 303f d02e 803b c7cb 9a3e 00c2 90be
00000210: d16a 953e 401a 62bf d101 0f3e 8fd5 093e
00000220: 098c 3b3f 7551 b8be 6abb 5cbe 8c4c 1cbe
00000230: b780 bbbe f359 8e3e 89d5 4d3e 93b0 8b3e
00000240: ec75 313f 60de 2ebe 040d cebe cbe2 24bf
00000250: d609 6abc df15 eebe a824 223f 1080 e73e
00000260: e0dc 283f 76ec 93be 0c50 1f3e 959d 2c3e
00000270: 9b3a 4b3f 25a0 aabd abb2 973e 28f3 253f
00000280: 1ae5 82bc 2439 b13e 2f4f 58bd 26ca 76be
00000290: 851a d5be 678c 0d3f d54a a2bd a4b2 493e
000002a0: 804a 04bf 8e10 073f 6e83 00be 6bf8 03be
000002b0: 9680 1f3f ffea 923d 80d9 a1be ec21 ffbd
000002c0: 79fb d8be 601c ac3b f80f d4bc f33e 4bbd
000002d0: 1b6b eabd 4e43 f23e 0774 fbbe 8d2f b23d
000002e0: b7e7 8f3f a259 903e a4c5 513e 97ff 343f
000002f0: ae10 c23d b356 e73e e829 8dbb 40b5 803e
00000300: 438c a73e 7af7 67be d4a6 1cbe 7d91 193d
00000310: 9507 71be 27f5 29be bdcd 2d3f 8e4c bfbe
00000320: 4462 013f f0e7 3cbe 356f b13e d01b 86bc
00000330: 91ba e7bd d0e0 f7be 6216 03bf cecc 573f
00000340: 3970 093e 0b5f c0be 8370 223e bc6c f339
00000350: 1ca2 1d3e 9382 40be 4cb8 c93e 09b4 1e3d
00000360: 81ee ff3c 0212 263e 5afc 80bd 2c48 913e
00000370: c649 b1bd 6a71 6d3e 4a75 bdbd ef4a 0ebe
00000380: dd88 ba3e 0524 1a3e baae c1be b35f d83d
00000390: b0e0 703c 96b7 a8be 80bf 66bd 2c97 29bf
000003a0: 8423 91be fd67 0140 99e8 e7be 96ef 23bf
000003b0: 6562 083d ace1 3cbe 1191 9c3d 595d d6bc
000003c0: a583 1bbe 0a60 05be 18fa 87be 5e51 9cbd
000003d0: 3bec 43bf 9268 363e fde4 533e f61d 9e3e
000003e0: f544 7ebe fee3 b2bd d54c 6a3f 97f2 d03e
000003f0: 4fc9 873e dc5e 713e 969e 9a3d 4c69 5d3f
0.69999397 -0.5785381 -0.5130963 -0.32889977 0.20265944 -0.17659134 -0.08570503 -0.28079483
0.011532757 0.42689085 -0.4134561 -0.16922434 0.28551927 0.12941587 -0.048641093 -0.70196944
0.7585648 -0.5447547 0.2662177 -0.79354125 0.2506648 -0.1321476 0.33702207 0.32085854
0.36275744 -0.4136709 0.40261158 0.20854677 0.13509358 0.0011636069 0.027362766 -0.16123135
0.10160631 0.927539 -0.71656257 -1.1731455 0.1416742 1.2317375 -0.9758602 0.0025472213
0.22696757 -0.70705116 -0.2817865 -0.016893186 -0.007545689 0.07712453 -0.10523973 0.44764265
0.46056515 0.21792616 0.847937 -0.75850576 0.7178748 -0.13007717 0.22401792 0.37905374
-0.10682432 -0.19796517 -0.70157933 0.15329157 -0.08287382 -0.5720786 0.4325019 0.048697684
-0.061677013 -0.5224939 0.04417626 -0.20648015 -2.0888448 0.080960535 0.060358543 -0.6075518
0.04935908 0.11837852 -0.39092854 0.1931947 -0.41152507 0.34782892 0.23755226 -0.25812846
-0.5627445 -0.6136231 0.5117655 -0.48217553 0.31382778 0.009082075 0.08354034 -0.001297173
-0.08485332 0.3920205 0.1503861 -1.5782763 0.4881314 -0.096551076 -0.50898063 0.2790758
-0.00041037248 -0.08816653 0.080101416 0.64413404 -0.31594872 -0.03477288 -0.27547735 0.7731535
0.30329266 0.4690198 0.7805968 0.29306915 -0.16795419 0.4624333 -0.34395003 -0.8102118
0.45275322 -0.3439627 0.23095773 -0.57042307 0.30597195 -1.6026105 1.3836013 0.19042613
0.1708733 0.0053691813 -0.22032942 0.56699044 -0.2685517 1.1592276 0.041727036 0.1901326
0.6885826 0.0039118305 0.30233595 -0.2827301 0.29183057 -0.88321304 0.13965537 0.13460372
0.7326055 -0.35999647 -0.21555868 -0.15263575 -0.3662164 0.27803 0.20100988 0.27283153
0.6932056 -0.17077017 -0.40244305 -0.6440856 -0.014284572 -0.4650106 0.63337183 0.4521489
0.6596203 -0.28891343 0.15557879 0.16856988 0.793863 -0.083313264 0.296285 0.6482415
-0.015978385 0.34613907 -0.05280989 -0.24100551 -0.41621795 0.5529236 -0.07924429 0.19697052
-0.5167618 0.52759635 -0.12550136 -0.12887733 0.6230558 0.07173728 -0.31611252 -0.12457642
-0.42379358 0.005252406 -0.02588652 -0.04962058 -0.1144621 0.47316974 -0.4911196 0.08700476
1.1242589 0.28193384 0.2048555 0.707025 0.09475838 0.45183334 -0.004307974 0.25138283
0.327242 -0.22652999 -0.15298015 0.037492264 -0.23538049 -0.16597424 0.67892057 -0.37363094
0.50540566 -0.18447852 0.34655157 -0.016370684 -0.113148816 -0.48413706 -0.5120603 0.8429688
0.13421716 -0.37572512 0.15863232 0.00046429585 0.15393871 -0.1879981 0.3939842 0.038745914
0.031241657 0.16217807 -0.06298132 0.28375375 -0.08656649 0.23187795 -0.09250887 -0.13895772
0.36432543 0.15052803 -0.37828618 0.10565128 0.014702007 -0.32952565 -0.056334972 -0.66246295
-0.2834741 2.021972 -0.45294645 -0.64037454 0.03329696 -0.18445462 0.07644857 -0.026167559
-0.15186937 -0.13024917 -0.26557994 -0.07632707 -0.76532334 0.17813328 0.20692821 0.30882233
-0.24830993 -0.08734892 0.91523486 0.4081008 0.26520774 0.23571342 0.07549779 0.86488795

z_k.mlp.0.bias f4 [10]
00000000: 5adc d3be 155b 81bf 1a31 dbbd 1415 b3be
00000010: dd33 2abe 9213 a6be c678 f0bc 854a 0b3f
00000020: a0bc eabe 1eee d1be
-0.41379052 -1.0105921 -0.10702725 -0.3497702 -0.16621347 -0.32436806 -0.029354464 0.5441058
-0.45847034 -0.41001981

r_k.mlp.0.weight f4 [10, 33]
00000000: 9f02 c13c 38bf 413b e3ce 7e3f 64f0 7d3e
00000010: 1667 27be c832 a93e 9875 42bc 2b64 07be
00000020: d315 cc3d cdba 793e 0e89 dbbe 2a41 d4bd
00000030: 23aa a83d 65bf 313e 44b8 3fbf 1779 e53e
00000040: eec8 27be 1885 0e3e 8838 f93e b937 973e
00000050: 824e 773d ec80 88bd 0609 7dbd f4ef 46bd
00000060: d232 9d3e 765a 13bf 783e 33be 2611 043e
00000070: b1d1 b13d cbd8 92bd ef3f e9bd 1a47 adbe
00000080: c2c4 9f3e 3b7a 0fbe 4415 dcbc d6d6 783c
00000090: bfde 3c3e e154 183e 7576 1bbf ccfa 1fbe
000000a0: 7909 d63f 13d1 58bf 0e59 0fbf 6f3c 3cbe
000000b0: b452 81be a958 8c3e 83cc 933c 8276 adbe
000000c0: afbd 0c3f cb76 90be 7187 763f bfe8 57bf
000000d0: 48e3 a5be a6d2 153e f150 59bd ca17 973d
000000e0: bea0 01be 387e 113f 9a4a 34bf 964d 063e
000000f0: ad50 8c3e 9033 2f3e 038d e53d a851 1d3d
00000100: d069 6d3e 28fc 21be c54d 1abc 2ede 593e
00000110: 7112 a8bf 6e10 80be 2d3c 753f a70d 53bf
00000120: 6492 023e 9182 893d 75c1 19bf 8bc4 38bf
00000130: 354e f8be cc40 a33e 316c 733f 2c52 05bd
00000140: 003f 01bf 4157 e5be 4746 3a3f d3e7 a33d
00000150: 2ad4 f23e 9505 69be a49a 8dbe c034 c8be
00000160: 2a30 f0bd 51c6 a13e 4e41 0dbf af5a bbbd
00000170: 1b1f 13bf 7214 adbe eb4b db3a 1299 cd3e
00000180: c934 a5bd a94f de3d 3ff6 a43e 634c d63e
00000190: 2fa6 d5bd 161b a73f 39bf 063e 2ef6 a3be
000001a0: 375c ba3e b442 47be 4b0c 75bd 64c9 643e
000001b0: 4350 c83e a877 98be dc1f d43e 9e88 2bbe
000001c0: 7080 34be c232 0a3f 8133 db3d b41c 8abd
000001d0: 224d 173e 1812 333d a6da c9be ccff e43e
000001e0: 397d e93d 1879 f53e 417f 0a3f 3d3d b13e
000001f0: ba55 d03e b6dc acbe d8b0 cc3e ab55 85be
00000200: 8305 b73e 8c2c d0bc 5e0d 7e3e fc55 a63d
00000210: 129e 533e bad4 533f 00f7 753f 1947 68be
00000220: dc6d f83e ab0a 3abe e3f2 ea3e 3d83 d03e
00000230: cf8e 8cbe 65b0 a03e 96a9 de3e 818f fb3e
00000240: 3178 c8be 684d 3cbf b8d4 41be f056 a83d
00000250: ba5c fd3e 4339 f13d 77b2 273f e205 cdbf
00000260: fc30 b53c 6a1b 323e bbf2 8a3e b973 003d
00000270: 5c37 59be 4bc9 d4be 2adc a43e f544 68be
00000280: 571d c8be e8d5 a0be db40 07bf d400 41be
00000290: ff34 743e 11d8 bb3d df32 38be 6807 583e
000002a0: 7be9 abbe 13d0 603e 0ecc 03be 4ec2 e9be
000002b0: cf2f 453e f0cf 593e a99a 4abe c8ff 2fbe
000002c0: de9b 93bd 6205 5e3e 501a 2bbf 321a d4be
000002d0: 3653 503e 903b 5ebe e440 693e 6630 73be
000002e0: 215b c5bf a7a0 44bf b472 dc3e 9365 3abd
000002f0: 666c 0cbf 5b75 663e 3d8a 91bd 3fc7 97bc
00000300: 31f5 993d 7ae1 2dbe 5527 aabd 726e 38be
00000310: ac94 1bbe a1f6 da3d d142 cfbe 533c 063f
00000320: 0330 3cbf c223 e0be 3c44 1ebf cb82 88be
00000330: 2ea6 0bbe 6107 71bf 1bfa ed3e 6fba 95be
00000340: 231c d93e 250a 0bbf e425 74be e9de c8be
00000350: b0fc d1bd 1508 9d3d 3372 e33e 6d16 733e
00000360: 0289 37bf 8f63 4e3f f5ad 24bf 99d5 d83d
00000370: 1e85 febe 0f57 fbbe 52c0 983e 5b14 cebe
00000380: 472b ff3f c93f b9be c5cb 9bbe 5b3d 39bc
00000390: 9223 6b3d 7f82 a33e bbcc f2bd df5a 123f
000003a0: 7ddc 83bf 5872 abbf 3e40 473f 04b4 543f
000003b0: f40d 7f3e 8436 13bf b420 67bf 6fa8 db3e
000003c0: eb33 1c40 c0be 863e 5afb 313e 6ddf b83e
000003d0: c1cc 353f 54e9 88bf 0f01 5e3e 287e e1be
000003e0: fad1 edbe d4b2 b33f 0b9b b5be 5115 2dbe
000003f0: eaea bbbe 08f3 9e3d d8a8 ec3f e969 44be
0.02356082 0.0029563438 0.99534434 0.24798733 -0.16347918 0.33046556 -0.011868857 -0.13221805
0.099651 0.24387665 -0.42878002 -0.103639916 0.08235576 0.17358167 -0.7489054 0.44818947
-0.16385242 0.13917959 0.48675942 0.295347 0.060377605 -0.06665215 -0.061776184 -0.04856868
0.30702835 -0.5755991 -0.17504299 0.12897167 0.086825736 -0.07170256 -0.113891475 -0.3384331
0.31204802 -0.14011471 -0.026865609 0.01518794 0.18444346 0.14876129 -0.60727626 -0.15623015
1.6721641 -0.8469402 -0.5599526 -0.18382429 -0.2525841 0.27411392 0.018041855 -0.33879477
0.54976934 -0.28215632 0.9630042 -0.8433952 -0.32399964 0.14631137 -0.053055707 0.07377584
-0.12658975 0.5683322 -0.7042633 0.13115534 0.274053 0.17109513 0.112085365 0.03840795
0.23184896 -0.15818846 -0.009417956 0.21276161 -1.3130628 -0.25012535 0.95794946 -0.82442707
0.12751156 0.06714357 -0.60060817 -0.721749 -0.48497167 0.31885374 0.9508696 -0.03254907
-0.50486755 -0.44793132 0.72763485 0.08003201 0.47427493 -0.22756036 -0.27657044 -0.39102745
-0.117279366 0.31596616 -0.5517777 -0.09148156 -0.5746934 -0.3380466 0.0016730999 0.40155846
-0.080667086 0.10855038 0.3221912 0.41855153 -0.10432088 1.3055141 0.13158883 -0.32023758
0.3639848 -0.19459039 -0.059826177 0.2234245 0.39123735 -0.2977879 0.41430557 -0.16751334
-0.1762712 0.539837 0.10703183 -0.06743756 0.14775518 0.043718427 -0.39424628 0.44726408
0.114008375 0.4794395 0.54100424 0.34617034 0.40690404 -0.3376214 0.3997867 -0.26041922
0.35746393 -0.025411867 0.24809787 0.08121869 0.20665768 0.8274647 0.9608002 -0.22683372
0.48521316 -0.18168132 0.45888433 0.40725127 -0.27452704 0.31384578 0.4348876 0.49132922
-0.391542 -0.7355561 -0.18928802 0.08219707 0.49484807 0.117785 0.6550669 -1.601742
0.022118084 0.1739327 0.27138314 0.03136036 -0.21212524 -0.41559824 0.32199222 -0.22682555
-0.39084885 -0.31413198 -0.52833337 -0.18847972 0.23848341 0.09172071 -0.17988156 0.21096575
-0.3357657 0.21954374 -0.1287081 -0.45656055 0.19256519 0.21270728 -0.1978556 -0.17187417
-0.07207464 0.21681741 -0.66837025 -0.41426235 0.20344242 -0.21702409 0.2277866 -0.23748931
-1.5418435 -0.76807636 0.43056262 -0.045507025 -0.548529 0.22505705 -0.07106445 -0.018527625
0.0751747 -0.16980544 -0.08308283 -0.18010882 -0.15193433 0.10691572 -0.40480664 0.524358
-0.7351076 -0.4377728 -0.6182287 -0.26662287 -0.13637611 -0.94151884 0.46479878 -0.292438
0.4240428 -0.54312354 -0.23842579 -0.39232567 -0.102532744 0.07667557 0.44423065 0.23739024
-0.7169343 0.80620664 -0.6432794 0.105876155 -0.49710935 -0.49089858 0.2983423 -0.40249905
1.9935082 -0.36181477 -0.304289 -0.011306132 0.05740697 0.31935498 -0.118554555 0.5716991
-1.0301663 -1.339427 0.778324 0.8308718 0.24907666 -0.5750506 -0.90284276 0.42901942
2.4406688 0.26317406 0.1738104 0.3610796 0.71015555 -1.0696206 0.21680091 -0.44041562
-0.46449262 1.4038949 -0.3546985 -0.16902663 -0.36702663 0.07761198 1.8489027 -0.19181027

r_k.mlp.0.bias f4 [10]
00000000: 2e0b 50bc 2cac f83e 3824 cfbd 7db7 afbd
00000010: 2a65 f3bd 1e6a 1f3e 5d60 7bbe a065 a3be
00000020: fe60 5bbe f487 393b
-0.012697978 0.48568857 -0.1011433 -0.085799195 -0.1188453 0.15567824 -0.24548478 -0.3191347
-0.21423718 0.0028309794

correction.mlp.0.weight f4 [10, 33]
00000000: 50a9 8d3c 09a0 af3d 24b5 203e f50b 66be
00000010: 0dc3 11be 5420 eb3d ea3b d33e b7ee fabd
00000020: ab60 9abe 75df a0be 8f2a 6ebd 3fbe 85be
00000030: da89 b7be 75e2 cb3e cdeb 2fbe 32e7 42be
00000040: 151f 86be 9665 b03e 734a 2dbe b7e5 303f
00000050: 2a84 4d3d be81 61be 58ff 8b3e 0d08 bd3e
00000060: af96 01be 77a9 39be 3cd2 b6bc 179a edbd
00000070: 6d0a eabe 06b4 5ebe b0f1 4b3d 8dc7 a73d
00000080: e6dc dc3d b5df a0be 2cea a93d 9f82 973f
00000090: 043f d33e 708f 893e 6a43 113f f0da 64be
000000a0: 0b19 06bf f95f 95bc 5aff 51bf d62e 11bd
000000b0: cf54 79be a168 323e 8eeb 31bc 1cbe 02bf
000000c0: 9839 60be a4ae 24bd 2032 2e3e 9e8a 6f3d
000000d0: 03e3 aa3e 6482 1bbf bf5e 8b3e 5131 643e
000000e0: b9a3 943e 5a42 073e 9e3d d2bd f3b0 e1be
000000f0: 22dc b1be 6fde bcbd 0247 353e 117c 3e3c
00000100: 7a46 8a3e 70ba 6dbe aa7d 0c3f 3b16 023f
00000110: 05ad a6bd c2c5 afbe 1c21 80be 0608 c43e
00000120: b419 903e 2d59 053f 34aa 103d c6c1 48bf
00000130: cc8d e8bd 155e 013e 8d11 02be db16 b43e
00000140: 8e85 e8bd 03d6 57be 4331 cd3e 75f6 d43d
00000150: 9e63 f4bd 5e41 09bf 5bbc df3d 96f2 17be
00000160: 89f4 3f3e c5fc 04be 3a97 d7be eb1f 08be
00000170: eb9a a2be 85a0 46be e3dd 153d 34e1 f4bd
00000180: e34d 2ebc e4dd c6bd 179e 39be add4 b73e
00000190: 25ea 9cbd f0af 353f cb5e 78be a5f0 913e
000001a0: 62e4 c1be 4788 46bc 35c0 f73d 0e7b 9abe
000001b0: c26b 473e 86fd 4ebe e168 cf3d 7cdc 34bb
000001c0: c60d 94be d736 503e 4319 5b3e 8474 00be
000001d0: 8e73 4cbe 8f05 813d 1b2f 1abe 4f0f 81bd
000001e0: 0320 b8be fe3b e13c 5c3b 2c3e a1ee 04be
000001f0: 1750 a53e 7f09 403e d313 193e 8112 91be
00000200: ce91 723e 43c7 7ebc 4046 373d d886 8b3e
00000210: c2d6 0dbe f913 82bf b585 51c0 6400 7bbe
00000220: 49c6 89be bc73 b3be 3b8b a1bf 569f 5abf
00000230: 7ddd 12bf daf9 813d 705f a0bd 19cc 9d3e
00000240: cc8b fd3b 286e fb3d 0e15 263d d047 4ebe
00000250: 92e3 613e c6f9 293c 579a 81bf 4eac 703e
00000260: 4323 ee3e 5f2f 00be 2cd8 c63e 5cfa b9bd
00000270: 5c9a a4be 9149 763e 74dd 9ebe 904f 7c3d
00000280: 3623 0abf e558 eb3d cf34 08bc 3953 80be
00000290: faf0 9dbe 53ff 943c 2526 5e3e 8ffd 33be
000002a0: 9064 68be 5c86 a8bd 0f55 d6bd aea4 b0bb
000002b0: 8b32 bbbe 49c7 d13d dd3c 5fbe dd73 6cbe
000002c0: a1ab 0dbd 1e85 64be 5ab9 64be 525a babe
000002d0: 64a2 8ebe 2a8b 603e 9019 383e eb6a 0f3d
000002e0: 5dc3 8fbe b32a 12be ed31 42bf 3b6d 03be
000002f0: 703c 823e 6cc8 8abe d44a c63e ed0f 623d
00000300: 06a3 533e f031 a7bd 489e 9a3d 3171 a7bc
00000310: 0ce9 80be e59a 4b3d 178d 88be 29ad ddbd
00000320: e6c7 e4be 7dc2 b43e 770a 1ebf 5732 b93d
00000330: 6132 bb3d d87e 0bbd 32ee 243e 231a e2be
00000340: 0bf2 66bd 57d2 023e db9a 2a3e 680e a5be
00000350: 04e4 03bd 1673 a13e 7267 9c3e 9370 44be
00000360: ed6a 9e3c e5f4 99bc 6c8c 513c cc76 893e
00000370: 41b2 753c e2a9 70bc 4cc8 44be 7e09 5fbe
00000380: f6d6 003e 9043 63be f1d3 1dbe ab71 68be
00000390: 8177 be3c 444b a7be 990e ef3d 2b86 bb3e
000003a0: b948 5fbf 44d4 04c0 8750 b13c 2002 123e
000003b0: 5257 84be caf3 ab3e 23f3 85bf 714e 5d3e
000003c0: e27c debd 653c ec3d 3102 043f f197 713e
000003d0: eb1a 8ebe 20db a03e 8532 903e 241f 3cbe
000003e0: 1d2d a03d 9864 0b3f 4064 873d d8fb 633e
000003f0: 76bf ab3d 1a18 a13e 9021 82be b24e 86be
0.017292649 0.08575446 0.156941 -0.22465499 -0.14234562 0.114807755 0.41256648 -0.122525625
-0.30151877 -0.31420484 -0.058146056 -0.2612171 -0.3584736 0.3982121 -0.17179795 -0.19033507
-0.2619559 0.34452504 -0.16922931 0.6910052 0.05017487 -0.22022149 0.2734325 0.36920205
-0.12655137 -0.18131052 -0.022317044 -0.11601656 -0.4571108 -0.21748361 0.049791038 0.08192358
0.107843205 -0.31420675 0.08296618 1.1836737 0.41259015 0.26867247 0.5674349 -0.22349143
-0.5238196 -0.01823424 -0.8203026 -0.035445057 -0.24348758 0.17422725 -0.010859383 -0.51071334
-0.2189697 -0.040205613 0.17011309 0.058481805 0.3337632 -0.60745835 0.27220723 0.22284438
0.2903116 0.13208905 -0.10265659 -0.44080314 -0.3473826 -0.09222113 0.17702869 0.011626259
0.27006894 -0.23215652 0.5487925 0.5081517 -0.081384696 -0.34330565 -0.2502526 0.3828737
0.2814461 0.52089196 0.03531857 -0.78420675 -0.113551706 0.12633546 -0.12702008 0.35173687
-0.113535985 -0.21077733 0.40076646 0.103985704 -0.11933063 -0.5361537 0.10924598 -0.14838633
0.18745627 -0.12987049 -0.42107564 -0.13293426 -0.31758818 -0.19397171 0.03658856 -0.119570166
-0.010638687 -0.09710291 -0.18126713 0.35904446 -0.07661847 0.70971584 -0.2425491 0.2850391
-0.37869555 -0.012117452 0.120972075 -0.30172008 0.194747 -0.20213899 0.10127426 -0.002759724
-0.28916758 0.2033342 0.21396355 -0.12544447 -0.19965956 0.06299888 -0.15057032 -0.06301748
-0.35961923 0.027494427 0.16819519 -0.12981655 0.32287666 0.18753622 0.14948969 -0.2833443
0.23688433 -0.015550437 0.04474473 0.27251315 -0.13851455 -1.0162345 -3.2737858 -0.24511868
-0.26909092 -0.35049236 -1.2620615 -0.8539938 -0.57369214 0.063464835 -0.07830703 0.30819777
0.0077376124 0.1227687 0.040547423 -0.20144582 0.22059467 0.010374492 -1.0125226 0.23503229
0.46511278 -0.1251807 0.388368 -0.090809554 -0.32149017 0.24051501 -0.3102833 0.061599314
-0.5395998 0.11491565 -0.008313372 -0.25063494 -0.30847913 0.018188154 0.21694238 -0.17577194
-0.22694612 -0.08228752 -0.104654424 -0.005390725 -0.36562 0.10243089 -0.21800561 -0.23091073
-0.034587506 -0.22316405 -0.22336331 -0.36397034 -0.2785827 0.21928087 0.17978501 0.035014074
-0.28078738 -0.14274101 -0.7585743 -0.12834637 0.25436735 -0.27106035 0.38728964 0.05519097
0.20667657 -0.08163822 0.07549721 -0.020439716 -0.251778 0.049708266 -0.26670143 -0.10824043
-0.4468376 0.35304633 -0.6173472 0.09042805 0.091404684 -0.034056515 0.1610649 -0.44160566
-0.056383174 0.12775551 0.16660635 -0.32237554 -0.032199875 0.31533116 0.30547673 -0.19183569
0.019338096 -0.018793533 0.012789827 0.26848447 0.014996112 -0.014688941 -0.19217032 -0.21780965
0.12582001 -0.22193742 -0.1541288 -0.22699611 0.023250343 -0.3267461 0.11672706 0.366258
-0.8722034 -2.0754557 0.021644844 0.14258623 -0.2584787 0.33584434 -1.0464824 0.21611954
-0.10863663 0.11534957 0.51565844 0.23593117 -0.27754912 0.3141718 0.28163543 -0.18371254
0.07821105 0.5445037 0.06610918 0.2226404 0.08386128 0.314637 -0.2541623 -0.26231915

correction.mlp.0.bias f4 [10]
00000000: eacf c3bd c35c bd3d f6ff 8ebd edfe 33bb
00000010: b643 dc3e ea32 38bc fd22 f53c 1700 bdbe
00000020: 57b4 c53b 5183 b13d
-0.09561141 0.092462085 -0.069824144 -0.002746518 0.4302041 -0.011242608 0.02992391 -0.3691413
0.006033461 0.08667625

phi_neumann.mlp.mlp.0.weight f4 [10, 23]
00000000: 3c41 6cbe f1c0 363e 0333 843e 7d43 883d
00000010: 2ff3 d83e 461e 48be 3e4b 11bf 87ec bd3b
00000020: 5835 0a3e 2580 943e 104d 4cbd df29 05bd
00000030: 1e5b bbbe 21a4 edbe d820 a0bc ef1f d3be
00000040: 0ddc 003f f861 143f 8de0 64be 6011 9cbd
00000050: b717 313a 1e52 52b9 33e8 ab3b dbd4 123e
00000060: 4a5e 323e 6966 7d3d 5854 d03c 59b6 c6be
00000070: 7979 9dbe cb20 9ebe d0fe a63d 3994 733e
00000080: 8858 9a3e 7fd7 843e 96c7 13be 8eb8 db3e
00000090: 0d23 45be df9e 133f ce41 cfbe efec 253e
000000a0: 5d2c 5cbd 59bb b73c 2294 04bf 98c0 4a39
000000b0: 1db8 61ba cee8 1a3d d423 4c3d 23af 80bd
000000c0: 6188 bfbe aad7 453e d0b5 1c3f f39c eabc
000000d0: d0f4 fabe bed8 973f be37 b8be 155b a9bf
000000e0: e543 c9be 2dc7 17be e163 95be 1c43 c8bc
000000f0: 5981 ebbe 12e6 25be 9f2f 053c 5d43 bb3e
00000100: 78fe 36be 4459 ac3e 72e9 adbd 36cd 823d
00000110: 7be5 9fbd 2dfa 323e c461 393e 5747 d33c
00000120: 84fe 143d ae96 063e 5b8d 773e 61ed b1be
00000130: 73aa f13d 05f5 6b3e 0b50 9bbe 2b69 e13e
00000140: 5c85 1b3e e1ab ce3f 4e9f 833e d3d3 6fbd
00000150: c828 b5bd f954 51bc b07f 9a3e 51c1 28be
00000160: e145 bcbe 5c80 253a 737a f239 572e 083c
00000170: a638 71be 933e 2cbe 665e 493f c6f1 bb3e
00000180: cf94 78be 6a3c b4be 6254 f5bd 885c cfbe
00000190: 1f88 023e bab9 7f3d c0dd ee3d b62f 453e
000001a0: cb4e 5ebe 9834 08bf a003 6cbe a81f 66bd
000001b0: 2d94 a9bd d25d fa3e 78b5 84be 1bec 0a3e
000001c0: 612a b439 0e3a 173a f5f5 60bd 55c6 6d3e
000001d0: bf55 84bd bd2b 453d 5b70 2c3c f642 563e
000001e0: 9820 6ebc 4d7f 103e 7d8b 783e 10b3 f63d
000001f0: dc7d d8bc e2c1 d5be ee26 2e3e 7495 99bf
00000200: a34e 07be 04bd 76be 1861 8dbf 6a5b 41be
00000210: 5936 ef3e 313f 60be 5ca3 01bd 3a16 603a
00000220: b9e0 6339 697d 273d 9a43 963e 37ed a33e
00000230: 000c 2bbf d7b7 8d3e 07d8 093f e8d7 e5be
00000240: 6325 56be 3bab 7fbe 81d4 51be 01f7 fcbe
00000250: ec50 f53e f387 dbbe 1503 9c3f 0dc0 0a3d
00000260: 7cae 08bf b575 173f 4b40 abbc d8d4 47be
00000270: 231f 1abc c38a a43e fe28 f23a 1e94 50bb
00000280: 27fe b63d dd86 fa3e 0ea3 913e 738d 523e
00000290: 45fa 04be b98e 233c 8c68 09be 95fa 8ebd
000002a0: 579c 9e3d ca05 fdbe c348 afbe 48db a93e
000002b0: e942 4abe d79e 6b3f 655d eb3e 0491 b5bd
000002c0: e525 1bbe d58a f5be 89ed 80be 540b e13e
000002d0: f4fe d03d 5601 e5b9 332c 60ba 94e5 58bd
000002e0: 623e 473d da0f cebc 7894 2d3e 2c2f a33e
000002f0: 4dfd 12be cbea b93e 69c4 503d a319 27be
00000300: 59e9 713e 29e9 d63e edaf d33d e2a7 ea3e
00000310: a462 95be 14cb 1a3c b1f0 df3d 0784 0ebe
00000320: 2c4b 523d bfea 3d3f fb0e f6be ac13 41bd
00000330: bb6a 6a39 4d9d b53a 8ba2 0fbe 7064 6ebe
00000340: c02e 053e 929b 9abe 9900 08bf b094 32be
00000350: 0dd9 c43d 19cc d53e fce1 14bd 1378 c4bd
00000360: df29 d7be c7e8 c63d d449 3cbe c17e 5a3f
00000370: ebfd 883e 37bd e7be 3ae0 27be 2dc2 07bf
00000380: 3fb6 eb3e ef8d c63d 6ea6 1d3f 3e67 c33a
00000390: 2957 50ba 511f c9bd
-0.2307176 0.17847039 0.2582017 0.06653497 0.42373034 -0.19542798 -0.56755435 0.0057960185
0.13496912 0.29004017 -0.04987818 -0.032510635 -0.36592954 -0.46414283 -0.019546911 -0.412353
0.5033577 0.5796199 -0.22351284 -0.076205015 0.0006755548 -0.00020057752 0.005246186 0.1433901
0.17418781 0.061865244 0.025430843 -0.38810995 -0.3075674 -0.30884394 0.081540704 0.23787011
0.3014567 0.2594566 -0.14431605 0.42914242 -0.19251652 0.57664293 -0.40479892 0.16203664
-0.053753246 0.022428202 -0.5178853 0.00019335968 -0.0008610504 0.037819676 0.049838856 -0.06283405
-0.37408736 0.1932055 0.61214924 -0.028639292 -0.49014902 1.186302 -0.35980028 -1.3230921
-0.39309612 -0.14822073 -0.29177764 -0.024446063 -0.45997122 -0.16201046 0.00812903 0.36574832
-0.1787051 0.33661854 -0.08491792 0.06386797 -0.07807442 0.17478247 0.18103701 0.025790853
0.036375538 0.13143417 0.24175017 -0.34751418 0.11800089 0.23042686 -0.30334505 0.4402555
0.15187591 1.6146203 0.25707477 -0.05855162 -0.08845669 -0.012776607 0.30175543 -0.16479994
-0.36772063 0.00063133775 0.0004624907 0.0083118295 -0.23556766 -0.16820745 0.78659666 0.36707896
-0.24275516 -0.35202342 -0.11978985 -0.40500283 0.12747239 0.062432982 0.11663389 0.19256482
-0.21709745 -0.5320525 -0.23048258 -0.056182534 -0.082802154 0.48899704 -0.259197 0.1356663
0.0003436385 0.00057688437 -0.054922063 0.23220189 -0.06461667 0.048137415 0.0105248345 0.20923981
-0.014534138 0.14111061 0.2427196 0.12045872 -0.026427202 -0.41749483 0.17007038 -1.1998734
-0.13213591 -0.24095541 -1.1045256 -0.18882528 0.4672115 -0.21899106 -0.031649932 0.0008548234
0.00021732123 0.040891085 0.2934845 0.32016918 -0.66815186 0.2767932 0.53845257 -0.44891286
-0.209127 -0.24967663 -0.2049122 -0.494072 0.479133 -0.4287716 1.218844 0.03387456
-0.5339124 0.5916398 -0.02090468 -0.19514787 -0.009406838 0.32137117 0.0018475351 -0.0031826566
0.089351945 0.48931018 0.28444713 0.20561771 -0.12986095 0.009982758 -0.13418788 -0.069813885
0.07744663 -0.4941848 -0.342352 0.3317511 -0.19752087 0.92039245 0.45969692 -0.0886555
-0.15151174 -0.47957483 -0.25181225 0.43953955 0.102048784 -0.0004367928 -0.0008551508 -0.052953318
0.048643477 -0.025154043 0.16951168 0.31871927 -0.14354439 0.36311945 0.05096856 -0.16318373
0.23624171 0.41974762 0.103362896 0.4583121 -0.2917682 0.009447832 0.1093458 -0.13917552
0.05134122 0.7418632 -0.48058304 -0.0471379 0.00022355739 0.0013856083 -0.14026849 -0.23280501
0.13006115 -0.30196816 -0.5312591 -0.17439532 0.09611712 0.41757277 -0.036348328 -0.09593215
-0.42024133 0.097123675 -0.18387538 0.8534966 0.26756224 -0.45261547 -0.1639413 -0.53030664
0.4603748 0.096950404 0.61582077 0.0014908088 -0.0007947558 -0.09820426

phi_neumann.mlp.mlp.0.bias f4 [10]
00000000: cfc3 8ebd 8a59 ca3c 560b f0bd e630 9e3d
00000010: cc2b a43c 3883 c8bc d552 b13d 4020 0c3e
00000020: 1806 6c3d 5abe 0f3d
-0.06970941 0.024700899 -0.11720912 0.077241704 0.020040415 -0.024476632 0.08658377 0.13684177
0.057623 0.035093643

phi_neumann.mlp.mlp.2.weight f4 [10, 10]
00000000: 2574 44be 0878 2d3f 61c1 b8bd 6515 653e
00000010: e1d4 53be 065d 00bf 28f6 aa3d 3de1 c7bc
00000020: 0df8 fe3e c560 a13d ebee c9be d4c0 f4bd
00000030: 22f7 94be f8da 75be 3be7 87bc 38e8 0bbf
00000040: 4acb 19be cef8 4a3d d817 613d b1f6 d2bd
00000050: a388 96be 95d0 c73e 9b15 df3e 84f3 07bd
00000060: 21e0 993e 0a42 f53e e33e 0ebf 181c 37be
00000070: 2228 8fbe c87c 7abe f938 a73e 7bf2 3cbe
00000080: 62c6 c2bd b38c 323e df4f 213f a3ec 9dbe
00000090: 7a31 06bd e173 933d b697 9c3e d364 15bf
000000a0: cc33 bb3e 99df 06be ae6b 893d 1c92 dfbd
000000b0: 1c3b d7bd 11be 833e 211e f8be cdb1 663e
000000c0: 2345 70be affb 1c3e ed80 7d3e e28e 4a3e
000000d0: 1c4f 72be caaf 06bf a8d1 0e3f 7cfc 0f3f
000000e0: 5808 213b 6296 65be f2a8 c03e 154e d93d
000000f0: a299 c53d 84cc 1c3e f4cd 9fbe 7091 05be
00000100: c096 c3be 2d73 c33d 4e02 683d 823e b23e
00000110: a1e8 48be 936f a13e 01e2 02bf 7978 da3e
00000120: 770f 673e 6cfb b83e 25e2 79be daf1 00bf
00000130: 88d7 c63c ced2 ec3e e5ec 7f3d a838 0d3e
00000140: 569b a63e 2fc0 203f 05c2 a23d d993 0f3c
00000150: 8616 6d3e 0224 a83e 313a 853e 50d7 e7bd
00000160: 311e 8ebe f97c 6ebd 2b62 e73d e3b3 453e
00000170: 12c4 a4be 1be2 c53c 2163 40bc c16f fbbe
00000180: 2e32 883e c3a3 3cbe 63df 633d f947 06bf
-0.1918493 0.6776128 -0.09021259 0.22371443 -0.20686676 -0.5014194 0.08347732 -0.024399394
0.49798623 0.078797854 -0.39440092 -0.119508415 -0.29094797 -0.24009311 -0.016589751 -0.5465121
-0.15018955 0.049553685 0.05495438 -0.10300959 -0.2940112 0.39026323 0.4357117 -0.03319122
0.3005381 0.47901946 -0.5556471 -0.1788181 -0.27960306 -0.24461663 0.32660654 -0.18451874
-0.09510495 0.17436485 0.630125 -0.30844602 -0.03276203 0.071998365 0.30584496 -0.5835697
0.36562955 -0.13171233 0.067099914 -0.1091654 -0.10509321 0.25730947 -0.48460487 0.22528763
-0.23463874 0.15330385 0.24756213 0.19781068 -0.2366299 -0.5261198 0.5578866 0.56244636
0.0024571624 -0.22420648 0.37628895 0.10610596 0.09648444 0.15312392 -0.31211817 -0.13043761
-0.3820095 0.095434524 0.056642823 0.34813315 -0.19619991 0.31530437 -0.51126105 0.42670038
0.22564493 0.3612932 -0.24402674 -0.50369036 0.024272695 0.4625458 0.06248178 0.13791144
0.32540387 0.6279325 0.079471625 0.008763277 0.23153123 0.32839972 0.2602096 -0.113203645
-0.2775741 -0.058224652 0.11298021 0.19306903 -0.3218084 0.024155667 -0.011742384 -0.491087
0.26600784 -0.18421845 0.05563296 -0.5245357

phi_neumann.mlp.mlp.2.bias f4 [10]
00000000: f975 d03c 758b 5a3d b69e 7b3d 470d 5dbd
00000010: 60ec 213c 973d 563d 946c 31bd 6f4e 58bc
00000020: e1da b4bb 2d7f 5f3d
0.025446879 0.053355653 0.061430655 -0.05396774 0.009883016 0.05230483 -0.04331644 -0.013202294
-0.0055192565 0.054564644
