mixed/dsgps/results/50_ite_lamb_0_001_gamma_0_9/ckpt/best_model.pt (torch, 80453 bytes, 93 tensors)

laynorm.weight f4 [10]
0	0x3f800000	1.0
1	0x3f800000	1.0
2	0x3f800000	1.0
3	0x3f800000	1.0
4	0x3f800000	1.0
5	0x3f800000	1.0
6	0x3f800000	1.0
7	0x3f800000	1.0
8	0x3f800000	1.0
9	0x3f800000	1.0

laynorm.bias f4 [10]
0	0x00000000	0.0
1	0x00000000	0.0
2	0x00000000	0.0
3	0x00000000	0.0
4	0x00000000	0.0
5	0x00000000	0.0
6	0x00000000	0.0
7	0x00000000	0.0
8	0x00000000	0.0
9	0x00000000	0.0

phi_to.mlp.mlp.0.weight f4 [10, 23]
0	0xbeca6f79	-0.39538172
1	0x3eb48387	0.35256597
2	0x3d4c6b66	0.04990711
3	0x3befc339	0.0073169735
4	0xbe03fc6e	-0.12889263
5	0x3ce6a660	0.028155506
6	0xbda12058	-0.07867497
7	0xbdd76508	-0.10517317
8	0x3eab4e3f	0.33458135
9	0xbe8ee188	-0.27906442
10	0xbd4aa021	-0.049469117
11	0xbd422289	-0.047396217
12	0xbd2a72dc	-0.041613445
13	0x3e8f840c	0.2803043
14	0xbe09f0fb	-0.13470833
15	0xbd95dfb8	-0.073180616
16	0xbe607a19	-0.21921577
17	0xbe9bee54	-0.30455267
18	0xbd71c585	-0.05902626
19	0xbe37106e	-0.17877361
20	0xbc690d0c	-0.014224302
21	0x3b46573d	0.00302644
22	0x3d5ed644	0.05440356
23	0xbebe3e53	-0.37156925
24	0xbebd0204	-0.369156
25	0x3dc90ae6	0.09816532
26	0x3d24c57d	0.040227402
27	0x3e931ac8	0.2873137
28	0xbeb97224	-0.36219895
29	0x3ec4b1be	0.38416857
30	0xbf17e8d6	-0.59339654
31	0x3f024e13	0.5090038
32	0xbef21b29	-0.47286347
33	0xbdc67167	-0.096895985
34	0x3ed10476	0.40823716
35	0x3e87197a	0.26386625
36	0xbd432d80	-0.047650814
37	0x3e5de63f	0.21669863
38	0x3c94a677	0.018145783
39	0xbe1949da	-0.14969578
40	0xbce0699e	-0.027394112
41	0x3ea9968d	0.33122674
42	0xbe37a529	-0.17934097
43	0xbc94a7d9	-0.018146442
44	0x3bebb1d6	0.0071928306
45	0xbd272bc5	-0.040813226
46	0xbe11d9b8	-0.1424321
47	0xbdba1006	-0.090850875
48	0xbe1883c6	-0.14894018
49	0x3c6a9da2	0.014319809
50	0x3db9a3e8	0.09064466
51	0xbe99175e	-0.2990064
52	0x3dea306f	0.11435019
53	0x3e0c3487	0.13691913
54	0x3e627b1e	0.22117278
55	0x3e9784d9	0.29593542
56	0xbeb156e6	-0.3463661
57	0x3e8d0b4c	0.2754768
58	0x3ea7688b	0.32696947
59	0xbe32d875	-0.17465384
60	0x3b4198e2	0.0029540588
61	0x3ee45bea	0.44601375
62	0xbe0c48dc	-0.13699669
63	0x3bb73250	0.0055907145
64	0x3dd8cb13	0.10585608
65	0xbe30382a	-0.17208925
66	0xbb6c6ae0	-0.0036074445
67	0x3aa32656	0.0012447338
68	0xbc6d6a35	-0.014490654
69	0xbe09cd15	-0.13457139
70	0xbd8fa1b5	-0.07013265
71	0x3eaba607	0.33525106
72	0x3e323506	0.1740304
73	0x3cf83224	0.030297346
74	0xbe7cd1d9	-0.24689426
75	0x3d400f0c	0.04688935
76	0xbf022c8e	-0.50849235
77	0x3f5a8915	0.8536542
78	0xbfb246c5	-1.3927847
79	0x3ca62a8e	0.020283964
80	0x3ecff49d	0.40616313
81	0x3e8c4798	0.27398372
82	0xbe1edac7	-0.15513144
83	0x3eb8f420	0.36123753
84	0xbed496db	-0.41521344
85	0x3df2f995	0.1186401
86	0x3ebef158	0.37293506
87	0x3d10ffb7	0.03540012
88	0x3f6ebea2	0.9325963
89	0xbc06f415	-0.008236905
90	0xbc3c396f	-0.011488303
91	0xbd0531eb	-0.03251831
92	0xbe90ad66	-0.28257293
93	0xbed30a6b	-0.41218886
94	0xbeada9a8	-0.339185
95	0xbe26c563	-0.16286235
96	0x3d92e6fd	0.07172964
97	0xbe91f2e3	-0.2850562
98	0xbecf6e14	-0.4051367
99	0xbdd08fba	-0.10183664
100	0x3d02c01b	0.031921487
101	0x3e50b2cf	0.2038071
102	0x3c8ef520	0.01745087
103	0x3ed31e5f	0.4123411
104	0x3d520288	0.051271945
105	0xbec91eda	-0.3928135
106	0xbdab3f6e	-0.08361708
107	0xbe167539	-0.14693154
108	0x3d3f405a	0.04669223
109	0x3e28b9fb	0.16477196
110	0x3c52c1a3	0.012863549
111	0xbd5beccb	-0.05369262
112	0x3b79bb71	0.0038106109
113	0xbb1e10af	-0.002411883
114	0xbc457a20	-0.012053043
115	0xbf129129	-0.57252747
116	0x3e7e9291	0.24860598
117	0xbe0f8e93	-0.14019231
118	0xbec78119	-0.3896568
119	0x3ed9a014	0.42504942
120	0xbea7dac1	-0.32784083
121	0xbeda4d44	-0.42637074
122	0xbed4edb0	-0.4158759
123	0x3f42c4ad	0.76081353
124	0xbd44f695	-0.04808672
125	0x3dcb6a57	0.09932392
126	0xbc46d91d	-0.012136725
127	0xbf00c1dd	-0.5029581
128	0xbe08557c	-0.1331386
129	0xbdae5f08	-0.085142195
130	0x3e50a53b	0.2037553
131	0xbf085ecc	-0.5326965
132	0xbd992041	-0.07476855
133	0x3ecc467b	0.39897522
134	0xbefe46a3	-0.49663267
135	0xbb8e8d6d	-0.0043503554
136	0x3a9335ec	0.001123128
137	0xbe831b48	-0.2560675
138	0xbe5557b3	-0.20834236
139	0x3ee1a081	0.44067767
140	0xbf1573d0	-0.5837984
141	0x3d0d50bb	0.03450082
142	0x3f0b7803	0.5448
143	0xbed221db	-0.41041455
144	0xbe8234df	-0.25430962
145	0x3e948ba0	0.29012775
146	0x3f23ba04	0.6395571
147	0xbc739490	-0.014866963
148	0x3e84630d	0.2585682
149	0x3e86f53b	0.2635897
150	0xbdf47c96	-0.119378254
151	0x3eb2843e	0.34866518
152	0x3db11aa4	0.086476594
153	0x3e1eea0b	0.15518968
154	0xbdc49904	-0.09599498
155	0x3e441525	0.19148691
156	0x3e9912f0	0.2989726
157	0xbe2f4a95	-0.17118295
158	0x3a9eefe6	0.0012125939
159	0xbbd62001	-0.006534577
160	0x3d951000	0.072784424
161	0xbcf78504	-0.030214794
162	0x3ed94b4a	0.42440253
163	0x3e7a9d64	0.24474102
164	0xbe9eac55	-0.30990854
165	0x3cf92f73	0.030418133
166	0x3e1b7dcc	0.15184706
167	0xbc5151f2	-0.012775885
168	0xbea7dc67	-0.3278534
169	0x3f155274	0.5832894
170	0xbec38003	-0.38183603
171	0xbecc2dc9	-0.3987868
172	0x3db64cf3	0.08901396
173	0x3d144fd2	0.036208935
174	0x3e1e470d	0.15456791
175	0xbe4487d4	-0.1919244
176	0x3e1003a5	0.1406389
177	0x3e54a014	0.2076419
178	0xbeac9dd8	-0.33714175
179	0x3e7ef714	0.2489894
180	0xbea7ec3f	-0.3279743
181	0x3d185a4d	0.037195493
182	0xba0b5d1c	-0.00053163036
183	0xbe34ac4f	-0.17643856
184	0x3ec87311	0.3915029
185	0x3eb73cb6	0.35788506
186	0xbe32e804	-0.1747132
187	0xbe86062a	-0.26176578
188	0xbe062113	-0.13098554
189	0x3e9c6a29	0.30549744
190	0xbd5455c0	-0.05183959
191	0x3e71dc6c	0.2361924
192	0xbdc704a2	-0.097176805
193	0xbf122cdd	-0.57099706
194	0xbeba3a98	-0.36372828
195	0xbf108004	-0.56445336
196	0x3ea5e04e	0.32397693
197	0x3ea8d9da	0.32978708
198	0x3e978784	0.29595578
199	0xbe8c2fb8	-0.27380157
200	0x3e0bbd81	0.13646509
201	0xbeade5f9	-0.33964518
202	0xbd911597	-0.07084196
203	0xbe3d3451	-0.18476988
204	0x3c9df8a9	0.01928361
205	0x3b88c59e	0.0041739484
206	0x3e976668	0.29570317
207	0xbc9af3a8	-0.018915012
208	0x3f14b1a9	0.5808359
209	0xbf1fe417	-0.6245741
210	0x3ea89a3f	0.3293018
211	0xbf26f856	-0.6522268
212	0x3dbb014d	0.091311075
213	0xbdb49c7f	-0.08818912
214	0xbd6398c1	-0.0555656
215	0x3f61e62c	0.8824184
216	0xbedaa14f	-0.42701194
217	0x3ecd39d0	0.4008317
218	0xbe22b477	-0.15889154
219	0x3d4a6bf8	0.049419373
220	0x3cda53cd	0.026651287
221	0xbdd861e3	-0.105655454
222	0xbe1796c9	-0.14803614
223	0x3eb19dc4	0.34690678
224	0xbcc9aa5b	-0.024617365
225	0xbc753457	-0.014966092
226	0xbec86fe6	-0.39147872
227	0xba92b8ae	-0.0011193955
228	0xbc538481	-0.012910009
229	0xbdb297c2	-0.08720352

phi_to.mlp.mlp.0.bias f4 [10]
0	0x3d0f4dc8	0.034986287
1	0x3d7ba74a	0.061438836
2	0x3d5ecfb0	0.054397285
3	0xbe29b9c5	-0.16574772
4	0x3ddc3d2d	0.10753856
5	0x3e43a219	0.19104804
6	0xbc0cbf60	-0.008590549
7	0x3d877bc3	0.066154025
8	0xbdad27a3	-0.08454826
9	0x3d132fd2	0.035934277

phi_to.mlp.mlp.2.weight f4 [10, 10]
0	0x3e7b2d28	0.24528944
1	0x3f0648b4	0.52454686
2	0xbec0635d	-0.37575808
3	0xbd688a58	-0.05677256
4	0x3eb9c844	0.36285603
5	0x3eefadc5	0.46812263
6	0x3ef20ef7	0.47277042
7	0x3ea2e3f8	0.3181455
8	0xbeb54011	-0.3540044
9	0x3e78ccf5	0.24296935
10	0x3d090315	0.033450205
11	0x3da39c08	0.07988745
12	0xbe69053a	-0.227559
13	0x3f4b4c76	0.79413545
14	0xbe877a38	-0.26460433
15	0xbec3b968	-0.3822739
16	0x3eb13571	0.34611085
17	0xbce13d51	-0.027495058
18	0xbe088fca	-0.13336101
19	0xbe5a561f	-0.21321915
20	0xbed3e6c9	-0.41387013
21	0xbcc45699	-0.023967074
22	0x3dd22747	0.10261398
23	0x3d43ae2a	0.047773518
24	0x3ddf0eb5	0.10891477
25	0xbedc25e9	-0.42997673
26	0xbf00f823	-0.50378627
27	0xbe407ae7	-0.18796884
28	0x3e8b05c8	0.27152848
29	0xbee2a793	-0.44268474
30	0x3db0aa67	0.08626252
31	0xbe767d8d	-0.24071331
32	0xbc3777df	-0.011198013
33	0x3e95343b	0.2914141
34	0xbe336f30	-0.17522883
35	0xbef7302e	-0.48278946
36	0x3d821dd2	0.06353344
37	0xbd6848ad	-0.056709934
38	0x3d09ae17	0.03361329
39	0x3e0d29d2	0.13785484
40	0x3eca475c	0.39507568
41	0xbe974050	-0.29541254
42	0xbf03d753	-0.51500434
43	0xbed41fb6	-0.41430444
44	0xbf0d1d25	-0.55122596
45	0x3d5ac4d0	0.05341035
46	0xbe1d259b	-0.15346377
47	0x3ceb7c8c	0.028745912
48	0xbd83473c	-0.06410071
49	0x3d0adcee	0.0339021
50	0x3e45213b	0.19250958
51	0x3f0d66a4	0.5523474
52	0xbe00080a	-0.12503067
53	0x3ec32f8b	0.3812221
54	0x3ed89181	0.4229851
55	0x3ed1dea0	0.40990162
56	0xbe4a7489	-0.19771017
57	0x3e860c4f	0.26181266
58	0xbf385bf0	-0.72015285
59	0x3e77d9ab	0.24204127
60	0xbea78c4c	-0.32724226
61	0xbeff854d	-0.49906388
62	0xbf05cbb4	-0.5226395
63	0xbe94af5c	-0.2904004
64	0x3e4600f2	0.19336298
65	0xbe123a01	-0.14279939
66	0xbdbb2fc7	-0.09139972
67	0x3df252bf	0.11832189
68	0xbe72260a	-0.23647323
69	0x3e94c241	0.29054454
70	0xbdadee2e	-0.08492695
71	0x3ee49c5c	0.44650543
72	0xbc903f85	-0.017608413
73	0x3c8828ad	0.016620958
74	0xbe623b10	-0.22092843
75	0xbe994b19	-0.29940107
76	0xbf5fdec2	-0.87449276
77	0x3dd27612	0.102764264
78	0xbe80a522	-0.25125986
79	0xbd80cf15	-0.06289498
80	0xbe38078f	-0.17971633
81	0x3ed3371f	0.41252992
82	0xbedae94a	-0.4275611
83	0xbe905372	-0.28188664
84	0x3e3fdc2c	0.18736333
85	0x3e1ee17e	0.15515706
86	0x3ebe8afc	0.37215412
87	0x3e576293	0.21033697
88	0xbc43fc78	-0.011962049
89	0xbe90c38c	-0.2827419
90	0x3e8fe8c9	0.28107288
91	0xbd00f9d3	-0.03148825
92	0xbd2f8426	-0.042850636
93	0xbe46e2e7	-0.19422494
94	0x3e8e6d45	0.2781774
95	0x3e4bbbc0	0.1989584
96	0xbee4c41b	-0.44680867
97	0xbf026541	-0.5093575
98	0x3d6c309f	0.057663556
99	0xbf240cfe	-0.64082325

phi_to.mlp.mlp.2.bias f4 [10]
0	0x3c7d86b4	0.01547401
1	0xbc9f189c	-0.019420914
2	0xbd489dbc	-0.048978552
3	0x3daa10f6	0.08304016
4	0x3bbae287	0.0057032737
5	0x3db9a1ef	0.090640895
6	0xbdc10634	-0.09425011
7	0x3e0c6f70	0.13714385
8	0xbcfec6a6	-0.031100582
9	0x3d0d58df	0.034508582

phi_from.mlp.mlp.0.weight f4 [10, 23]
0	0xbee7000b	-0.4511722
1	0x3de212dc	0.110387534
2	0x3ec7a208	0.38990808
3	0xbf060d3c	-0.52363944
4	0xbd7a3420	-0.061084867
5	0xbcb7ba13	-0.022427594
6	0xbb9e1ee4	-0.00482546
7	0xbf0e2dbd	-0.5553854
8	0xbe09ed6a	-0.13469473
9	0xbe4b5a5b	-0.19858687
10	0xbdb22728	-0.08698875
11	0x3e2dcdd3	0.16973047
12	0x3e3f8c4c	0.18705863
13	0xbdb27e98	-0.08715552
14	0xbeddb71c	-0.43303764
15	0xbe3fb7d3	-0.18722467
16	0xbedc1914	-0.42987883
17	0xbeb55d88	-0.3542292
18	0x3c9f1475	0.019418934
19	0xbe08dc75	-0.13365348
20	0xba1ba3f6	-0.0005937213
21	0xb9a245c5	-0.0003095103
22	0xbdb6806b	-0.089112125
23	0x3d856feb	0.06515487
24	0x3d212a94	0.039347246
25	0x3c823250	0.015893131
26	0x3e0ea4fa	0.13930121
27	0x3dcb3b07	0.09923368
28	0x3ebd161e	0.36930937
29	0x3d35ef11	0.044417445
30	0x3eee29d7	0.46516296
31	0xbe442ea0	-0.19158411
32	0xbeee3f95	-0.46532884
33	0x3e2b1fb2	0.1671131
34	0x3d49d26f	0.04927295
35	0x3e9e143b	0.3087481
36	0x3ee01e51	0.4377313
37	0xbeed7ca5	-0.4638416
38	0x3e9ff9f3	0.31245384
39	0x3e8fd724	0.28093827
40	0x3d99eca5	0.075158395
41	0x3d7b7ab9	0.061396334
42	0x3f15d3b2	0.58526146
43	0x3d2a9162	0.041642554
44	0x3c90ae2a	0.017661173
45	0x3ce59f77	0.02803014
46	0x3e80df75	0.25170484
47	0xbd94fa8c	-0.072743505
48	0xbed63fa9	-0.41845444
49	0xbd05f064	-0.032699957
50	0x3e334443	0.17506509
51	0x3e75947d	0.23982425
52	0x3f22ce52	0.6359607
53	0x3f19c748	0.60069704
54	0x3e307f54	0.17236072
55	0xbee80545	-0.4531652
56	0xbe580d58	-0.2109884
57	0xbe2f1ed6	-0.17101607
58	0xbf138f97	-0.57640976
59	0xbe4fe3b6	-0.20301709
60	0x3ec30b81	0.38094714
61	0x3ea28a04	0.31745923
62	0xbd997c60	-0.07494426
63	0x3cc2ce08	0.023779884
64	0xbdc004bc	-0.09375903
65	0xbd954b9e	-0.072898135
66	0x3e978039	0.29590014
67	0xbd96f897	-0.073716335
68	0xbd9fc83c	-0.078018636
69	0x3e1d1b4f	0.15342449
70	0x3e6a400b	0.22875993
71	0xbdf574fb	-0.11985203
72	0xbd27f45f	-0.041004535
73	0x3d47d027	0.048782494
74	0x3f02e469	0.51129776
75	0x3ede2a7a	0.43391782
76	0x3e6f5c55	0.23375066
77	0x3b1fb7cd	0.0024371028
78	0xbec0198c	-0.3751949
79	0x3ea5ea94	0.3240553
80	0x3d273b4f	0.040828045
81	0x3ecc8339	0.39943865
82	0x3e2a07db	0.16604559
83	0xbedc5aad	-0.4303793
84	0x3edce1c0	0.43140984
85	0x3e978c24	0.29599106
86	0xbe482f8c	-0.19549388
87	0x3e8acb9b	0.27108464
88	0x3f1bee25	0.60910255
89	0xbb8f64b6	-0.0043760194
90	0xbc4313e9	-0.011906602
91	0xbe369f6f	-0.17834257
92	0x3bf0d8cc	0.007350063
93	0x3ef6093e	0.48053926
94	0xbe756a78	-0.23966396
95	0xbe56fbfc	-0.20994562
96	0xbeedb433	-0.46426544
97	0x3e8f3258	0.27968097
98	0x3e778d2f	0.24174951
99	0x3eb1b575	0.34708753
100	0x3d8302ba	0.063970044
101	0xbe67070e	-0.22561285
102	0x3e496590	0.1966765
103	0x3c3cdc94	0.011527199
104	0xbd070a8e	-0.03296905
105	0x3e88e072	0.26733738
106	0x3e2650e1	0.1624179
107	0x3e1ef89d	0.15524526
108	0xbf199b3e	-0.60002506
109	0xbe920e4e	-0.2852654
110	0x3ea11e0b	0.31468233
111	0x3e7a166d	0.24422617
112	0x3d36a976	0.044595204
113	0x3b5b84c9	0.0033495894
114	0x3c97e1d7	0.018540306
115	0xbe4b0a82	-0.19828227
116	0x3dfbc9e8	0.1229437
117	0x3dc01f59	0.09380979
118	0x3eff0c78	0.498142
119	0xbe9a179a	-0.30096132
120	0xbe2c8bd3	-0.16850214
121	0xbedc804f	-0.43066642
122	0x3e2a59b7	0.16635786
123	0x3ed08103	0.40723428
124	0x3dabdc5a	0.08391638
125	0xbe9224e2	-0.28543764
126	0x3f02e517	0.51130813
127	0x3e80111f	0.25013062
128	0xbe6014d7	-0.2188295
129	0xbe28ff86	-0.16503724
130	0xbd850d97	-0.06496733
131	0x3ec1fbb5	0.3788735
132	0xbe6e7394	-0.23286277
133	0xbe8b2e70	-0.27183867
134	0xbe1198a9	-0.14218391
135	0x3cc3b613	0.02389053
136	0x394f82c2	0.0001978977
137	0xbe2026b7	-0.15639769
138	0xbed4b749	-0.41546085
139	0x3d22320f	0.03959852
140	0x3e106c5d	0.14103837
141	0xbea5d92b	-0.3239225
142	0x3de16aac	0.11006674
143	0x3e5bd115	0.21466477
144	0xbf645487	-0.8919148
145	0xbec081c7	-0.37599012
146	0x3e02a2b6	0.12757382
147	0xbea68ea7	-0.3253071
148	0x3d605e6d	0.05477755
149	0x3c4ec7a2	0.012620838
150	0x3f02043d	0.5078772
151	0xbe54cd3a	-0.20781413
152	0xbeacc486	-0.33743685
153	0xbea59004	-0.32336438
154	0xbec07af3	-0.37593803
155	0xbd5d1fac	-0.053985283
156	0xbf39fa93	-0.7264797
157	0xbea5b1cf	-0.3236222
158	0xbc64a845	-0.013956134
159	0x3c0934d8	0.008374415
160	0xbe12d954	-0.14340717
161	0x3ded640d	0.11591349
162	0xbef5b09c	-0.47986305
163	0x3d0f098b	0.03492121
164	0xbeb0b708	-0.34514642
165	0xbecd7ddc	-0.40135086
166	0xbe4ab803	-0.19796757
167	0xbd77a199	-0.060456846
168	0xbe9d0df0	-0.30674696
169	0x3f0c42be	0.5478934
170	0x3cb22255	0.021744886
171	0xbc734d11	-0.014849917
172	0x3eab5e3c	0.33470333
173	0x3e203853	0.15646486
174	0xbe2e59d1	-0.1702645
175	0x3e9f5bc6	0.31124705
176	0x3ecc2077	0.3986852
177	0x3ef98f89	0.4874232
178	0xbea389ee	-0.3194117
179	0x3e3b56a5	0.18294771
180	0xbe1ab6c1	-0.15108778
181	0x3c99a192	0.0187538
182	0x3c2ff1ee	0.010738833
183	0x3e389a8e	0.18027708
184	0x3e89fdaf	0.26951358
185	0xbe810cfc	-0.2520522
186	0x3e13e478	0.14442623
187	0x3e1b2c4f	0.15153621
188	0x3cd9c6c9	0.026584046
189	0x3d8d2379	0.068915315
190	0xbe9ba45f	-0.30398843
191	0xbdde93f6	-0.10868065
192	0xbee28e0a	-0.44248992
193	0xbdd72fbe	-0.10507153
194	0x3e923d30	0.28562307
195	0x3e5aa19f	0.21350716
196	0xbdc18a54	-0.09450212
197	0xbec39333	-0.38198242
198	0xbc04d541	-0.008107484
199	0xbeb2dea5	-0.3493549
200	0xbd461b51	-0.048365895
201	0xbd9b6f83	-0.075896285
202	0x3db9e748	0.090773165
203	0x3e976a3e	0.29573244
204	0xbce99f8f	-0.028518466
205	0x3bbb9cb1	0.005725466
206	0xbe0482a4	-0.1294046
207	0xbec9f0d7	-0.3944156
208	0xbdb19d56	-0.086725876
209	0x3d445aa5	0.047938008
210	0xbe2591a9	-0.16168846
211	0xbcf3c8b1	-0.029758783
212	0x3e7ff655	0.24996312
213	0xbf2cc91d	-0.67494375
214	0xbe52b772	-0.20577791
215	0xbed763fb	-0.42068467
216	0xbdb93afd	-0.09044454
217	0xbe61a1a3	-0.22034316
218	0x3cb53c14	0.022123374
219	0x3e961b7e	0.2931785
220	0xbe9676f1	-0.2938762
221	0x3eb24a5b	0.34822354
222	0xbecae9b8	-0.39631438
223	0xbf0f56b0	-0.5599165
224	0xbd5b1e13	-0.053495478
225	0x3db25ab7	0.08708709
226	0x3e689dbb	0.2271642
227	0xbe3d0e77	-0.18462549
228	0x3e29bce3	0.16575961
229	0xbde8a5a4	-0.113597184

phi_from.mlp.mlp.0.bias f4 [10]
0	0x3d74554b	0.059651654
1	0x3d919fa9	0.07110531
2	0x3cae6a21	0.02129084
3	0x3d97be1c	0.07409307
4	0x3e030a8f	0.12796997
5	0x3dfe009e	0.124024615
6	0x3e47d7e7	0.19515954
7	0x3d8b6c43	0.06807759
8	0x3dcc50b4	0.099763304
9	0xbd80df02	-0.06292535

phi_from.mlp.mlp.2.weight f4 [10, 10]
0	0xbe9c20b2	-0.30493695
1	0xbecacd56	-0.39609784
2	0x3d03ac2c	0.032146618
3	0xbd1638bb	-0.036675196
4	0x3ec4376d	0.38323537
5	0x3e0dfd6b	0.13866203
6	0xbf0bf9d1	-0.54678065
7	0xbde396b9	-0.111127324
8	0xbeb00415	-0.34378114
9	0xbd59bc42	-0.053158052
10	0xbd442938	-0.04789087
11	0xbdac7f0f	-0.08422672
12	0xbea6876a	-0.32525188
13	0xbe987d39	-0.29783037
14	0xbef2ce65	-0.47423092
15	0x3ebc1494	0.3673445
16	0x3ec5d371	0.3863788
17	0x3f1925cc	0.598233
18	0x3f087738	0.53306913
19	0xbe0f36f1	-0.13985802
20	0xbe8ac3ef	-0.2710261
21	0x3e82a8a9	0.25519302
22	0x3f0c0bda	0.54705584
23	0x3daab43f	0.083351605
24	0xbeda712d	-0.4266447
25	0xbedb046c	-0.4277681
26	0xbe70fca9	-0.23533882
27	0x3f04452f	0.51668066
28	0xbe88c202	-0.26710516
29	0xbe7055db	-0.23470251
30	0x3e61c505	0.22047813
31	0x3ee50f3f	0.44738194
32	0x3d7fda64	0.062464133
33	0x3e14cadc	0.1453051
34	0x3eeafaa7	0.45894358
35	0xbea4f937	-0.32221386
36	0xbef3d091	-0.4762006
37	0xbd97d700	-0.07414055
38	0xbe6f4d2f	-0.23369287
39	0x3d79539c	0.06087075
40	0xbefa5d4f	-0.48899314
41	0x3f5221d4	0.8208287
42	0xbddf5720	-0.1090529
43	0x3efd9697	0.49528953
44	0xbeb141ff	-0.34620664
45	0xbeba6945	-0.3640844
46	0xbeb27756	-0.3485667
47	0xbea23012	-0.316773
48	0x3efbd1c7	0.49183485
49	0xbec5d5fd	-0.38639823
50	0xbdea2e70	-0.114346385
51	0x3e8d769f	0.27629563
52	0x3e4c0ce7	0.19926797
53	0xbe159b23	-0.14609961
54	0x3f02ddb3	0.51119536
55	0xbeacadde	-0.337264
56	0x3eae63ed	0.34060612
57	0x3dd56b52	0.1042086
58	0xbe824ae7	-0.2544777
59	0xbddcdbd4	-0.107841164
60	0x3e3ae610	0.18251824
61	0x3e50e78e	0.20400831
62	0xbdf0c662	-0.117565885
63	0x3ec555fb	0.3854216
64	0xbd989747	-0.07450729
65	0xbe7f27c3	-0.24917512
66	0xbda62d28	-0.081140816
67	0xbdb82836	-0.08992045
68	0x3e800b55	0.25008646
69	0xbb52358e	-0.0032075378
70	0xbeded2af	-0.43520114
71	0xbe60e4e3	-0.21962313
72	0x3dfc3d3e	0.123163685
73	0x3f024899	0.50892025
74	0xbe4ff4ff	-0.20308302
75	0xbe922ef5	-0.2855145
76	0xbeb79d84	-0.35862362
77	0xbece523f	-0.40297124
78	0xbeac8cb0	-0.33701086
79	0x3d0d22c3	0.03445698
80	0xbdeb4c45	-0.11489157
81	0xbe8b0be0	-0.27157497
82	0x3ece8688	0.40337014
83	0xbca88126	-0.020569395
84	0x3d6eaf08	0.05827239
85	0x3f26ca97	0.6515288
86	0xbede5110	-0.4342122
87	0xbde85dc4	-0.113460094
88	0xbf02b062	-0.5105039
89	0x3e803390	0.2503934
90	0xbe211f56	-0.1573461
91	0xbee762b0	-0.4519248
92	0x3d9b6b98	0.07588881
93	0x3c2cf34f	0.010556056
94	0x3ef1df38	0.47240615
95	0xbcbcbbee	-0.02303883
96	0xbefa3327	-0.4886715
97	0x3da97ccf	0.082757585
98	0x3e659bc1	0.22422697
99	0xbce76301	-0.02824545

phi_from.mlp.mlp.2.bias f4 [10]
0	0xbbbd8d6f	-0.0057846825
1	0xbd1d12b7	-0.038347926
2	0xbc04fa6e	-0.008116348
3	0xbd3fbeac	-0.0468127
4	0xbdecaa86	-0.11555962
5	0x3cfb1878	0.030651316
6	0xbd032d96	-0.032025896
7	0x3bb9597c	0.0056564193
8	0x3b258fe2	0.0025262763
9	0xb9a1a187	-0.0003082866

z_k.mlp.0.weight f4 [10, 33]
0	0x3f131b0c	0.57463145
1	0xbf10b4b6	-0.56525743
2	0xbe83d90d	-0.25751534
3	0xbed42dba	-0.41441137
4	0x3ef754b3	0.48306808
5	0xbe6c25a1	-0.2306123
6	0xbe814025	-0.2524425
7	0xbc6d0f39	-0.014468961
8	0xbeebc012	-0.46044976
9	0x3dd823ea	0.10553725
10	0xbefff7b8	-0.49993682
11	0x3d9dc137	0.077028684
12	0x3eaf8520	0.34281254
13	0x3e8e6426	0.27810782
14	0x3dac9d87	0.084284835
15	0xbf35c4d5	-0.71003467
16	0x3f3547d3	0.7081272
17	0xbef8d206	-0.48597735
18	0xbc1211c2	-0.008915367
19	0x3f7d7474	0.9900582
20	0x3b90aaca	0.004414891
21	0x3ee2b41f	0.44278046
22	0x3edd81a2	0.43262964
23	0xbe834bb0	-0.25643682
24	0x3ea9d98d	0.3317379
25	0xbeca8788	-0.39556527
26	0x3de7c763	0.11317327
27	0x3eafcede	0.34337515
28	0x3dd9cfe3	0.10635354
29	0xbbc770f8	-0.006086465
30	0xbd1b369c	-0.037893876
31	0xbde9f87f	-0.1142435
32	0x3e1c8722	0.15285924
33	0xbe6c48ce	-0.23074648
34	0xbf1130e7	-0.56715244
35	0xbf608e13	-0.8771679
36	0xbbef49de	-0.007302507
37	0x3ed4a3d1	0.41531232
38	0x3ecb74bc	0.397375
39	0x3e9d8b90	0.3077054
40	0xbe71fa08	-0.23630536
41	0xbf3e41a3	-0.74318904
42	0xbede15dd	-0.43376055
43	0xbd96f9b6	-0.07371847
44	0x3db804ab	0.08985265
45	0x3e4e87d5	0.20169003
46	0x3e608a56	0.21927771
47	0xbe3163c6	-0.17323217
48	0x3e239fb2	0.15978888
49	0x3ea3fe31	0.3202987
50	0xbe8b834a	-0.27248603
51	0x3f1b15ca	0.6058012
52	0x3e426071	0.18982102
53	0xbdb3d36a	-0.087805584
54	0x3eddc863	0.43316945
55	0x3eba47de	0.36382955
56	0xbeac4702	-0.33647925
57	0xbe1f9578	-0.15584362
58	0xbe6ce261	-0.23133232
59	0xbdd0e6d6	-0.102002785
60	0x3e03642c	0.12831181
61	0xbe9669af	-0.29377505
62	0x3e179a10	0.14804864
63	0x3d05afa5	0.03263821
64	0x3d239043	0.0399325
65	0xbe9f134f	-0.3106942
66	0x3dd0958a	0.10184772
67	0xbe67c793	-0.22634725
68	0x3f65fd7a	0.898399
69	0xbe49dd44	-0.19713312
70	0x3e77ccfc	0.24199289
71	0xbd8f5eee	-0.07000528
72	0x3f2afdc6	0.6679348
73	0x3eeed8cb	0.46649775
74	0xbd9504fa	-0.0727634
75	0xbdc5a1b1	-0.09649981
76	0xbef61c05	-0.48068252
77	0x3e93dd2f	0.28879687
78	0x3eec7206	0.46180743
79	0x3e68a1c0	0.22717953
80	0x3e375488	0.1790334
81	0xbf33b20f	-0.7019357
82	0x3f230093	0.6367275
83	0xbe5f5b08	-0.2181207
84	0xbb886dcc	-0.0041634794
85	0x3d94aa2b	0.072590195
86	0x3e75d7fc	0.24008173
87	0xbc89451c	-0.016756587
88	0x3e822f2e	0.2542662
89	0xbca728de	-0.02040523
90	0x3e14f49a	0.14546433
91	0xbf074ca7	-0.5285134
92	0x3ec2d97a	0.38056546
93	0xbd12c4ad	-0.035832096
94	0xbe2f1e6f	-0.17101453
95	0x3e99f2de	0.30068105
96	0x3e403e5f	0.18773793
97	0xbdc9d160	-0.09854388
98	0x3d5babc9	0.053630624
99	0x3edfb8e3	0.43695745
100	0xbec90832	-0.39264065
101	0xbe3bc047	-0.18335067
102	0x3d41e350	0.047335923
103	0x3d89096d	0.06691251
104	0x3d8b62e9	0.06805975
105	0x3ee43129	0.44568756
106	0xbc05585e	-0.008138744
107	0x3dd484aa	0.10376866
108	0xbe352753	-0.17690782
109	0x3e275987	0.16342746
110	0x3df583da	0.11988039
111	0x3e1e7f6e	0.15478298
112	0x3c1b973b	0.009496505
113	0xbe906298	-0.2820022
114	0xbe1a054f	-0.15041088
115	0x3d0b452c	0.034001514
116	0x3f465ee9	0.7748857
117	0x3b503c53	0.0031774237
118	0x3ba0d92b	0.004908701
119	0xbec07344	-0.3758794
120	0x3e96e030	0.29467916
121	0x3d9d948f	0.07694351
122	0xbe3b2302	-0.18275073
123	0x3ea6259e	0.32450575
124	0x3d553ee3	0.052061927
125	0x3e0fadfa	0.1403121
126	0xbd4a0690	-0.049322665
127	0x3d854211	0.06506742
128	0x3ca2820c	0.019837402
129	0x3c9740af	0.01846346
130	0x3e90a511	0.28250936
131	0xbe96cecf	-0.29454657
132	0x3eba6652	0.3640619
133	0xbf54074c	-0.82823634
134	0xbf0be03e	-0.5463904
135	0x3edfafbf	0.4368877
136	0x3e466aa4	0.19376618
137	0xbe87f508	-0.26554132
138	0xbd91f11a	-0.071260646
139	0x3d127fae	0.035766296
140	0xbee31d38	-0.4435823
141	0x3eab432b	0.33449683
142	0x3db51a50	0.08842909
143	0x3f3fc80f	0.7491464
144	0x3ef0f7c0	0.47064018
145	0x3e6bbc15	0.23020966
146	0x3d5b5b37	0.053553786
147	0xbf3348c0	-0.7003288
148	0xbd29fe33	-0.04150219
149	0xbf2fc1c3	-0.6865503
150	0xbe739735	-0.2378815
151	0x3fd0360e	1.6266496
152	0x3ea3772e	0.31926864
153	0xbfa15286	-1.2603309
154	0x3e25ef82	0.16204646
155	0x3e7bd948	0.24594605
156	0x3f9f2719	1.2433807
157	0x3e791d02	0.24327472
158	0x3eb1d1b1	0.34730294
159	0x3f02822f	0.50979894
160	0xbe1220c6	-0.14270315
161	0x3ebb4dca	0.36582786
162	0x3ddef0c5	0.10885767
163	0xbe8c664c	-0.27421796
164	0xbeef230c	-0.46706426
165	0x3ebd8149	0.370127
166	0xc015e7d9	-2.3422759
167	0xbf290c0b	-0.66034
168	0xbd943394	-0.072364
169	0x3f371caa	0.7152811
170	0x3e727a8a	0.23679557
171	0xbf1453ae	-0.57940185
172	0x3edb66dd	0.42851916
173	0xbe489569	-0.19588245
174	0xbed97a62	-0.42476183
175	0xbee8a003	-0.4543458
176	0x3e90c411	0.28274587
177	0x3e6c578b	0.2308027
178	0xbd473f05	-0.048644084
179	0x3fbbb67c	1.4665065
180	0xbe97a074	-0.29614604
181	0x3f185804	0.595093
182	0x3f46ef71	0.7770911
183	0x3db171bb	0.086642705
184	0x403e894a	2.9771295
185	0x3c705838	0.0146694705
186	0xbe63c728	-0.22243941
187	0x3f5fa5ac	0.8736217
188	0xbeee2838	-0.4651506
189	0x3ee144d1	0.43997815
190	0xbdce68ed	-0.10078607
191	0xbf83fe94	-1.0312066
192	0x3f224820	0.63391304
193	0xbed71c9b	-0.42014012
194	0xbf3ed548	-0.7454419
195	0x3e3fbd35	0.1872452
196	0xbe1c8ef0	-0.15288901
197	0xbd3eb8dc	-0.046563014
198	0x3f150f20	0.58226204
199	0xbe3515a2	-0.17684034
200	0xbeff5b15	-0.49874178
201	0xbed04038	-0.40673995
202	0x3f48c327	0.7842278
203	0xbec76929	-0.38947418
204	0x3d89852b	0.06714853
205	0x3e80c805	0.25152603
206	0x3d207a6a	0.039179243
207	0xbda1c4b6	-0.07898848
208	0x3b91f2b5	0.0044539818
209	0xbda72630	-0.081615806
210	0x3ea61e84	0.32445157
211	0xbde11b15	-0.109914936
212	0xbe208976	-0.15677437
213	0xbecb9044	-0.39758503
214	0x3eee4093	0.4653364
215	0xbec1097b	-0.37702546
216	0x3ed6387b	0.41839966
217	0xbeba7243	-0.364153
218	0xbe90ed03	-0.28305826
219	0x3ecd4054	0.4008814
220	0xbd1689aa	-0.03675238
221	0x3db82be0	0.089927435
222	0xbdbe5f69	-0.09295542
223	0x3e3ac57f	0.18239401
224	0xbf0ae5c7	-0.5425686
225	0x3e93b5a7	0.28849527
226	0xbec71c9a	-0.3888901
227	0xbd1a743c	-0.037708506
228	0xbd170002	-0.03686524
229	0xbf023396	-0.50859964
230	0xbea7fbdd	-0.32809344
231	0xbdefd6f4	-0.11710921
232	0xbf4778ef	-0.77918905
233	0x3deac936	0.11464159
234	0xbe55d829	-0.2088324
235	0xbeac27a1	-0.33623984
236	0xbec96cd9	-0.39340857
237	0xbac1e41f	-0.0014792717
238	0x3e80df29	0.25170258
239	0xbd943d23	-0.072382234
240	0x3ebfeee3	0.37486944
241	0xbeca8c6f	-0.39560267
242	0x3e6bd4b6	0.23030362
243	0x3ea4a2e5	0.3215553
244	0xbe2dc557	-0.1696981
245	0x3ebade73	0.3649784
246	0x3e4198ed	0.18905993
247	0x3e91a37e	0.28445047
248	0x3ca53dde	0.020171102
249	0xbd64da8c	-0.055872485
250	0x3d967d4c	0.07348117
251	0x3dfb2603	0.122631095
252	0xbe9289b6	-0.2862069
253	0x3c340c25	0.010989224
254	0x3e5b4d31	0.21416165
255	0x3dc91cb2	0.09819926

z_k.mlp.0.bias f4 [10]
0	0xbf1ac138	-0.6045108
1	0x3d301ba4	0.04299511
2	0xbee85eb6	-0.4538476
3	0xbd5315f7	-0.05153462
4	0xbe83ebba	-0.25765783
5	0xbe2f0811	-0.17092921
6	0xbefd39f5	-0.4945828
7	0xbe3111a7	-0.1729189
8	0xbdb2798d	-0.0871459
9	0xbec6bfe2	-0.3881827

r_k.mlp.0.weight f4 [10, 33]
0	0xbd3a8d24	-0.04554476
1	0xbdc9fa21	-0.098621614
2	0xbdc303a5	-0.095221795
3	0x3ecd4f02	0.4009934
4	0xbe664b00	-0.22489548
5	0x3e91bb0c	0.28463018
6	0xbcff06db	-0.031131199
7	0x3d4e9464	0.050434485
8	0xbe829733	-0.2550598
9	0x3e470f5d	0.19439454
10	0xbedce3dc	-0.43142593
11	0xbea2e955	-0.31818643
12	0x3d5203f3	0.051273298
13	0xbe15995f	-0.14609288
14	0xbefee85e	-0.49786657
15	0x3eca7b48	0.3954718
16	0xbdbf6968	-0.093462765
17	0x3ee5f2d8	0.44911838
18	0x3e98accf	0.29819342
19	0xbeae8b97	-0.34090874
20	0x3e4b90c2	0.1987944
21	0xbd89348d	-0.066994764
22	0xbd5f770c	-0.05455689
23	0xbed8ea73	-0.4236637
24	0x3eaf8257	0.3427913
25	0xbf2acaa4	-0.66715455
26	0xbe71665e	-0.23574206
27	0x3e29b3b5	0.16572459
28	0xbe24af1d	-0.16082425
29	0xbed041c9	-0.4067519
30	0xbe3d884d	-0.18509026
31	0xbeb11cff	-0.34592435
32	0x3e983d9f	0.29734513
33	0xbe3fd25f	-0.18732594
34	0xbd98007b	-0.07421967
35	0x3eaf828f	0.34279296
36	0x3ebdd233	0.37074432
37	0x3d889c3f	0.066704266
38	0x3dd1ba22	0.1024058
39	0xbec212ad	-0.37904873
40	0xbe7e880b	-0.24856584
41	0xbe8f61b8	-0.2800424
42	0x3f87307e	1.0561674
43	0xbe671756	-0.22567496
44	0x3c85533e	0.016275045
45	0x3e93144a	0.28726417
46	0x3c56c868	0.013109304
47	0xbefc42f2	-0.49269825
48	0x3ea83592	0.3285337
49	0xbd681729	-0.056662712
50	0xbef3b361	-0.47597793
51	0xbf004db1	-0.5011855
52	0x3e3da6ae	0.18520615
53	0x3e5d7bb7	0.21629225
54	0xbcbcc583	-0.0230434
55	0xbe7e51a3	-0.2483583
56	0xbf3e9665	-0.74448234
57	0x3ec7dcdc	0.3903569
58	0xbe934ec6	-0.28771037
59	0x3d938f8e	0.07205115
60	0x3e2988da	0.16556111
61	0x3f0f9d47	0.5609936
62	0x3e148985	0.14505585
63	0xbdec87f2	-0.11549367
64	0x3e593a98	0.21213758
65	0xbe4c813c	-0.19971174
66	0xbef2a6f8	-0.47393012
67	0x3f82e8e9	1.0227329
68	0xbe684fd9	-0.2268671
69	0xbe18c8f7	-0.14920412
70	0xbcf1e564	-0.029528327
71	0x3d73c11d	0.05951034
72	0x3df0a891	0.117509015
73	0xbecf6381	-0.40505603
74	0x3d304205	0.04303171
75	0xbcabe593	-0.020983493
76	0x3ef7dc02	0.4841004
77	0xbf08603d	-0.5327185
78	0xbcf9cd7a	-0.030493487
79	0xbeca2947	-0.39484617
80	0xbfa37775	-1.277083
81	0x3eeda69a	0.4641617
82	0x3e41db93	0.18931417
83	0x3e47cc81	0.19511606
84	0x3d1d9669	0.03847352
85	0xbf54680c	-0.8297126
86	0xbee204a7	-0.44144174
87	0x3e8ea1e6	0.27857894
88	0xbf161463	-0.5862486
89	0xbdc090b8	-0.09402603
90	0xbf3af838	-0.73035
91	0x3d75bb15	0.05999287
92	0x3d6c7a82	0.05773402
93	0xbe36c15c	-0.17847198
94	0x3e34d57c	0.17659563
95	0x3e411a5e	0.18857715
96	0xbf8c29ee	-1.0950296
97	0x3de70e2f	0.11282002
98	0x3ea9b19d	0.3314332
99	0x3d83b027	0.06430083
100	0xbd783f95	-0.06060751
101	0xbe8959c5	-0.268263
102	0x3e8eaae5	0.27864757
103	0xbf1f88a9	-0.623179
104	0x3eda43f8	0.4262998
105	0xbeda0fe2	-0.42590243
106	0xbe2dc1fe	-0.16968533
107	0x3f6fb0e9	0.9362932
108	0x3ec65d65	0.3874313
109	0xbdd93b13	-0.10606971
110	0xbf108de4	-0.5646651
111	0xbe890c69	-0.2676728
112	0xbe75f149	-0.24017824
113	0x3e87d5e6	0.2653038
114	0x3e5f2954	0.21793109
115	0xbe6672a2	-0.22504666
116	0x3e3ad2c8	0.18244469
117	0x3e879eda	0.26488382
118	0xbde42d02	-0.11141397
119	0x3eb043e5	0.344268
120	0xbd8105da	-0.06299944
121	0x3e48ce0c	0.1960985
122	0x3e99c715	0.300347
123	0x3e0fc697	0.140406
124	0x3f34c975	0.706199
125	0xbe2b653c	-0.16737837
126	0x3e4abfa9	0.19799675
127	0xbd498c73	-0.04920621
128	0x3f24ac10	0.64325047
129	0xbd2c785e	-0.04210698
130	0x3e878017	0.26464912
131	0x3de9613b	0.11395498
132	0x3ea52f3d	0.32262602
133	0xbdb5be07	-0.088741355
134	0xbf63081f	-0.88684267
135	0x3ec226f5	0.37920347
136	0xbd48a397	-0.048984136
137	0xbee2e6a9	-0.44316605
138	0x3ef016c0	0.46892357
139	0x3dedd284	0.11612418
140	0xbda0a725	-0.0784438
141	0x3ee3ed14	0.44516814
142	0x3eb54893	0.35406932
143	0x3e4b4de6	0.19853935
144	0xbe99a6fb	-0.30010208
145	0xbf595c37	-0.84906334
146	0xbe47e83a	-0.19522181
147	0x3dcac36a	0.099005535
148	0x3eb4a861	0.35284713
149	0xbc0ee855	-0.008722384
150	0x3f027e11	0.5097361
151	0xbf0378ba	-0.5135609
152	0x3e832f39	0.25621966
153	0x3e8c672c	0.27422464
154	0x3e28c617	0.16481815
155	0x3df9dabf	0.12199926
156	0xbf28509d	-0.65748006
157	0xbddcd071	-0.107819445
158	0x3e99806a	0.29980785
159	0xbe965c9a	-0.29367524
160	0xbe853325	-0.26015583
161	0x3b9819c4	0.0046417434
162	0x3ecfce9c	0.40587318
163	0xbe4c7cfc	-0.19969553
164	0x3e5cde16	0.21569094
165	0xbeaa6312	-0.3327871
166	0xbee8cbb3	-0.4546791
167	0x3e97feff	0.29686734
168	0x3f0cd5dd	0.5501383
169	0xbec20ded	-0.3790125
170	0x3e7d8262	0.24756768
171	0xbf733652	-0.9500476
172	0xbede49c7	-0.43415663
173	0x3f6f0617	0.9336867
174	0x3f560077	0.8359446
175	0xbe3e5c76	-0.18589959
176	0xbe9baa6c	-0.3040346
177	0xbceaa209	-0.028641718
178	0x3d7d796d	0.06188338
179	0x3e399b47	0.1812564
180	0x3dd4dd0f	0.10393726
181	0xbf01d173	-0.5071022
182	0xbd8323c7	-0.06403308
183	0xbf93bff2	-1.1542952
184	0x3f649e2f	0.8930387
185	0x3d991a51	0.074757226
186	0xbf4e9829	-0.8070093
187	0xbe5172c0	-0.2045393
188	0x3f4931c6	0.78591573
189	0x3ef2601b	0.47338948
190	0x3f041459	0.5159355
191	0xbe2197c1	-0.15780546
192	0x3e0c6dc9	0.13713755
193	0x3deb8f6e	0.115019664
194	0xbc984624	-0.018588133
195	0xbc8ee777	-0.017444355
196	0xbe185139	-0.14874734
197	0x3de9428c	0.11389646
198	0xbdc865c5	-0.09785036
199	0xbe99cfb9	-0.30041292
200	0xbef94de4	-0.48692238
201	0x3f3efae3	0.7460157
202	0xbe8733e9	-0.26406792
203	0xbe8d5f36	-0.27611703
204	0xbf1399ce	-0.5765656
205	0xbebce932	-0.36896664
206	0xbe3caa5e	-0.18424365
207	0x3f869ad6	1.0516002
208	0x3d4cd063	0.05000342
209	0xbda158bd	-0.078782536
210	0xbe09e4c7	-0.13466178
211	0xbe86c942	-0.26325423
212	0x3edca7b0	0.43096685
213	0xbe47da96	-0.19516978
214	0x3e7fdf09	0.24987425
215	0x3f9b0dbd	1.2113568
216	0xbf08c08e	-0.53418815
217	0x3f057698	0.52134085
218	0x3df8f7cd	0.12156639
219	0xbcea1326	-0.028573584
220	0xbd938a04	-0.07204059
221	0xbe52799a	-0.205542
222	0x3e903d39	0.2817171
223	0xbd83f0ba	-0.06442399
224	0x3eaed044	0.3414327
225	0xbddd5a16	-0.10808198
226	0x3e0f2ca6	0.13981876
227	0x3e409b98	0.18809354
228	0xbeb818dd	-0.3595647
229	0x3ea537fc	0.32269275
230	0xbde432af	-0.1114248
231	0x3e2b6135	0.167363
232	0x3eab3556	0.3343913
233	0xbeb0152f	-0.34391162
234	0x3e17f33f	0.14838885
235	0x3de0aa69	0.10970003
236	0x3cd32b19	0.025777387
237	0x3e26c90a	0.16287628
238	0xbee5642c	-0.44802988
239	0x3bd0c297	0.006370853
240	0x3ebcabb9	0.36849764
241	0x3ed66c5c	0.41879547
242	0xbe0d4a4b	-0.13797872
243	0x3d3a7ead	0.045530964
244	0xbd16b64d	-0.03679495
245	0xbbeb20ce	-0.0071755415
246	0x3eacce96	0.33751363
247	0xbea6aede	-0.32555288
248	0xbf809913	-1.0046715
249	0xbce82a72	-0.028340552
250	0xbfaf2851	-1.3684179
251	0x3f12bc6f	0.57318777
252	0xbb1c40bd	-0.0023842298
253	0x3e56c379	0.20973004
254	0x3ee9679c	0.4558686
255	0xbe8b9dd2	-0.27268845

r_k.mlp.0.bias f4 [10]
0	0xbdd028a4	-0.101640016
1	0xbb69b279	-0.0035659357
2	0x3e38e588	0.18056309
3	0x3e234955	0.15945943
4	0xbea09e48	-0.3137076
5	0x3ed0abab	0.40755972
6	0xbd87fa48	-0.06639534
7	0x3d113e71	0.03545994
8	0xbeda3690	-0.42619753
9	0x3df2fe51	0.11864913

correction.mlp.0.weight f4 [10, 33]
0	0xbd32311e	-0.043503873
1	0x3ecd0915	0.40045992
2	0x3d2c3d32	0.042050548
3	0xbee92eb4	-0.45543444
4	0xbcd14852	-0.02554718
5	0x3e23fa28	0.16013396
6	0x3ec3efb6	0.38268822
7	0xbd564d6c	-0.05231993
8	0xbe23afc5	-0.1598502
9	0xbdddd9d2	-0.108325616
10	0xbe4a9bf7	-0.19786058
11	0xbe8d1574	-0.2755543
12	0xbe7969ac	-0.24356717
13	0x3ec54d60	0.38535595
14	0xbd952d5d	-0.07284043
15	0xbe72cc91	-0.23710848
16	0xbe7447b9	-0.23855485
17	0x3e4dc045	0.20092876
18	0x3c9a34b8	0.018823966
19	0xbd7b5923	-0.061364304
20	0x3dadb635	0.08482019
21	0xbe337d8b	-0.1752836
22	0x3e9f96e7	0.31169817
23	0x3ebd6882	0.36993796
24	0x38bc84ed	8.989298e-05
25	0xbea19079	-0.31555536
26	0x3e2da374	0.16956884
27	0xbd14da44	-0.036340967
28	0xbeb93794	-0.36175215
29	0xbe561661	-0.20906974
30	0x3d974340	0.07385874
31	0x3dddff32	0.1083969
32	0x3e15b534	0.14619905
33	0xbf1e780b	-0.6190192
34	0xbea02acc	-0.3128265
35	0xbe544c24	-0.2073217
36	0xbdf8a0f6	-0.12140076
37	0x3e399a2a	0.18125215
38	0x3e3f126f	0.18659376
39	0x3f6698d4	0.9007695
40	0x3e0543d8	0.13014162
41	0x3c386e62	0.011256786
42	0x3ebf54b4	0.3736931
43	0x3e1b3ea0	0.15160608
44	0xbe14e6e5	-0.14541204
45	0xbc43d6a9	-0.011953034
46	0xbec5bf79	-0.38622645
47	0xbe5471e8	-0.20746577
48	0xbe6c6ba9	-0.23087944
49	0xbce59ae8	-0.028027967
50	0x3e9e31a0	0.30897236
51	0xbd57357f	-0.052541252
52	0x3f32813d	0.6972845
53	0xbed4b394	-0.41543257
54	0x3f07f228	0.53103876
55	0x3e76e947	0.24112426
56	0x3c0d9a85	0.008642797
57	0x3dc88511	0.097910054
58	0xbea5768a	-0.32317
59	0xbd00092d	-0.03125875
60	0xbeb4751f	-0.35245606
61	0x3e445d78	0.1917628
62	0xbc453001	-0.012035371
63	0x3d4916c0	0.04909396
64	0x3e9908ab	0.29889426
65	0xbe4c2b28	-0.19938338
66	0x3e8feceb	0.28110442
67	0xbef37fff	-0.4755859
68	0xbf4b5127	-0.79420704
69	0x3f057b03	0.52140826
70	0xbd9a07e2	-0.07521035
71	0x3e52948a	0.20564476
72	0xbf267b52	-0.6503192
73	0x3e97aec1	0.29625514
74	0x3c345100	0.01100564
75	0xbef1888f	-0.47174498
76	0xbd9b2ec2	-0.07577278
77	0xbe4d8fcb	-0.20074384
78	0xbea69436	-0.3253495
79	0xbe2b469c	-0.16726154
80	0x3ece0e12	0.4024511
81	0xbe5f924f	-0.21833156
82	0x3e8c7ae2	0.27437502
83	0x3e3d7243	0.18500619
84	0xbc8f51c2	-0.01749504
85	0x3c7d5e1a	0.01546433
86	0x3d951da2	0.07281043
87	0xbed5a60c	-0.41728246
88	0x3ed09b04	0.40743268
89	0x3b0e20ae	0.002168696
90	0xbe721045	-0.23639019
91	0xbdf8e509	-0.1215306
92	0xbe8272f9	-0.25478342
93	0xbe28c161	-0.16480018
94	0x3dbad66c	0.09122929
95	0xbe1615ff	-0.14656828
96	0xbcb68f2c	-0.022285067
97	0xbda900c7	-0.082521014
98	0xbe23bd13	-0.15990095
99	0x3e9e21c3	0.30885133
100	0xbea4941d	-0.3214425
101	0x3e774d26	0.24150524
102	0xbf0f2b87	-0.5592579
103	0x3df77c9c	0.12084314
104	0xbe9aaa29	-0.30207947
105	0xbd3a2322	-0.04544366
106	0xbe7efc5a	-0.24900952
107	0xbcfc81b4	-0.030823566
108	0x3e92d7d7	0.28680298
109	0xbe746343	-0.2386599
110	0x3e67e54d	0.22646065
111	0x3d053633	0.03252239
112	0xbe85287c	-0.2600745
113	0x3e59844f	0.21241878
114	0x3e8662ab	0.26247153
115	0xbdf7dfa5	-0.12103204
116	0xbdf0bc61	-0.117546804
117	0x3d95f2fb	0.073217355
118	0xbe95c98e	-0.29255337
119	0xbe1628ca	-0.14663997
120	0xbee16ad5	-0.4402682
121	0x3d76171a	0.060080625
122	0x3e325d5f	0.17418431
123	0xbdaae71e	-0.08344863
124	0x3ea36de3	0.31919774
125	0x3eea4216	0.45753545
126	0x3e47acfe	0.19499585
127	0xbec1507c	-0.37756717
128	0x3e5b97f2	0.21444681
129	0xbcd1c5f1	-0.025607081
130	0x3dab019d	0.08349917
131	0x3ea22e21	0.3167582
132	0xbf44c89a	-0.76868594
133	0x3d077f98	0.033080667
134	0x3e112bd5	0.14176877
135	0x3d144df7	0.036207166
136	0xbea019af	-0.31269595
137	0xbe3d44e4	-0.18483311
138	0xbe15ef37	-0.14642034
139	0xbd56f37e	-0.052478306
140	0xbd444756	-0.047919594
141	0x3e41bcdb	0.18919699
142	0xbd3d6a93	-0.046244215
143	0xbde5b995	-0.112170376
144	0x3e259a96	0.16172251
145	0xbd58463d	-0.05280136
146	0x3e00886a	0.12552038
147	0xbe0948bd	-0.13406654
148	0x3c9cc3e1	0.019136371
149	0x3e5d8974	0.21634465
150	0xbe57fb9c	-0.21092075
151	0xbec515e7	-0.38493273
152	0xbe58eedb	-0.21184866
153	0xbe2608bb	-0.16214268
154	0x3daaad08	0.08333784
155	0xbd60ebc2	-0.054912336
156	0xbe3520ea	-0.17688337
157	0x3dfdf62a	0.12400468
158	0xbe38ca9d	-0.18046041
159	0x3e5ea4fd	0.21742626
160	0xbd4273f8	-0.047473878
161	0x3e649b2a	0.22324815
162	0x3cc695d0	0.024241358
163	0xbe85894e	-0.26081318
164	0xbea7d4c4	-0.32779515
165	0x3e10c27a	0.14136687
166	0x3fc78757	1.5588177
167	0xbe326c1d	-0.17424054
168	0xbf1cdfcd	-0.6127899
169	0xbe9dca17	-0.30818245
170	0x3e95ec34	0.2928177
171	0x3deb2c11	0.114830144
172	0xbf2eb965	-0.6825164
173	0x3efa6014	0.48901427
174	0xbda30299	-0.0795948
175	0xbe7c2c43	-0.2462626
176	0x3b9ffca7	0.0048824134
177	0xbe777ce0	-0.2416873
178	0xbe973dbf	-0.29539296
179	0xbdd72453	-0.10504975
180	0xbe87f818	-0.26556468
181	0x3e6f03e6	0.23341331
182	0x3dd0e31c	0.10199568
183	0x3e7f82c9	0.24952234
184	0xbe6c65c5	-0.23085697
185	0xbe9c8a6c	-0.30574358
186	0xbe02d748	-0.12777436
187	0xbe206bcc	-0.15666121
188	0x3e0c9a9e	0.13730857
189	0xbecd1830	-0.40057516
190	0x3e5cf52d	0.21577902
191	0x3e237aa2	0.1596475
192	0x3df5fb8c	0.120108694
193	0x3dc1fc16	0.0947191
194	0x3e2a0fc8	0.16607583
195	0xbdba5d6f	-0.09099852
196	0xbe7b0104	-0.24512106
197	0x3d771d3e	0.060330622
198	0xbddab10e	-0.10678302
199	0xbeb3e292	-0.35133797
200	0xbe012e3d	-0.12615295
201	0xbe633fc7	-0.22192298
202	0xbe4addb5	-0.19811137
203	0xbd8ba77e	-0.06819056
204	0xbedbd018	-0.429322
205	0xbe89bd83	-0.26902398
206	0x3f1494b9	0.5803943
207	0xbe632e1b	-0.22185557
208	0xbe4cc835	-0.19998248
209	0xbe72a743	-0.23696618
210	0x3e8573e0	0.26064968
211	0xbe1b7eeb	-0.15185134
212	0xbdb11f22	-0.08648516
213	0x3ea7c63f	0.32768437
214	0x3d23b3eb	0.039966505
215	0xbdf48fef	-0.11941516
216	0x3d7fc5ab	0.06244437
217	0x3f49e71b	0.78868264
218	0xbe5ee9d8	-0.21768892
219	0x3c7557e2	0.014974566
220	0x3d25eb61	0.040507678
221	0xbd5c2da0	-0.05375445
222	0xbe843bfc	-0.25827014
223	0xbe0033d4	-0.12519771
224	0x3c72c737	0.014818004
225	0xbe99b24e	-0.30018848
226	0xbeaf277e	-0.34209818
227	0xbe45ab4c	-0.19303626
228	0x3d4f6b5b	0.05063949
229	0xbeb7e00f	-0.3591313
230	0x3d9b6d59	0.07589216
231	0x3e50daf4	0.20396024
232	0x3f409aae	0.7523602
233	0x3ea16e93	0.31529674
234	0xbe53734a	-0.20649448
235	0x3e6b7b4d	0.22996254
236	0xbea2702a	-0.317262
237	0x3e83911c	0.25696647
238	0xbf116990	-0.568017
239	0xbdaedba4	-0.08537987
240	0xbe7bc49f	-0.24586724
241	0x3e52769b	0.20553057
242	0x3e92c474	0.28665507
243	0x3e427358	0.18989313
244	0xbe9341a8	-0.2876103
245	0x3eb47cf5	0.35251585
246	0x3e9a5c65	0.30148616
247	0xbe19c5ee	-0.1501691
248	0x3da12953	0.0786921
249	0x3e2c978c	0.16854686
250	0x3d849b40	0.06474924
251	0x3e67bb8e	0.2263014
252	0x3d81f87a	0.06346221
253	0x3e8c89fd	0.27449027
254	0xbd834e29	-0.06411392
255	0xbe251eee	-0.1612508

correction.mlp.0.bias f4 [10]
0	0xbcf9eeae	-0.03050932
1	0x3dd6b343	0.1048341
2	0xbd11531e	-0.035479657
3	0x3d441d9b	0.047879796
4	0x3e422efb	0.18963234
5	0x3c89077a	0.016727198
6	0xbc98e3af	-0.018663255
7	0xbe120bb0	-0.14262271
8	0x3d32fead	0.04369991
9	0xbe1d4854	-0.15359622

phi_neumann.mlp.mlp.0.weight f4 [10, 23]
0	0xbef7e561	-0.4841719
1	0x3e6f5f77	0.2337626
2	0x3d93564c	0.07194194
3	0xbd3e261b	-0.04642306
4	0x3e62ac3e	0.22136018
5	0x3ec2b5af	0.3802924
6	0xbebb0f1c	-0.36534965
7	0xbde134d6	-0.10996406
8	0x3e898597	0.26859733
9	0x3da7e74d	0.08198414
10	0xbdc8e902	-0.09810068
11	0xbd47f041	-0.04881311
12	0x3e8b718b	0.27235064
13	0xbf13c7ad	-0.57726556
14	0x3c35287f	0.011057018
15	0xbd6c1aa8	-0.05764261
16	0x3f00b18e	0.50270927
17	0x3d0ddfd6	0.034637295
18	0xbe9993df	-0.2999563
19	0xbe66c7ce	-0.22537157
20	0xbb5ec52b	-0.0033992033
21	0x3bc1679c	0.005902244
22	0x3e061173	0.13092594
23	0x3e8a9386	0.27065676
24	0x3cf32c67	0.029684259
25	0x3eb9ee55	0.36314645
26	0x3e178749	0.14797701
27	0xbebeca6c	-0.3726381
28	0xbe26ac58	-0.16276681
29	0xbefad58e	-0.48991054
30	0xbd36520e	-0.044511847
31	0x3e4dddea	0.20104185
32	0x3eb0189b	0.34393772
33	0x3d2b4239	0.0418112
34	0x3e697d92	0.22801808
35	0xbdb73b63	-0.08946874
36	0xbeb8af5e	-0.36071295
37	0x3e5f262a	0.21791902
38	0xbe30bff5	-0.17260726
39	0x3e4ec215	0.20191224
40	0xbe93277c	-0.28741062
41	0x3e00e83f	0.12588595
42	0xbe834445	-0.25638023
43	0xbad98975	-0.0016596752
44	0x3b853770	0.0040654466
45	0x3e094a5b	0.1340727
46	0xbddd71e3	-0.10812738
47	0x3ef88621	0.48539832
48	0xbec35208	-0.38148522
49	0x3dd37bb1	0.10326327
50	0x3efe3ec9	0.49657276
51	0x3ea361bc	0.31910503
52	0x3d2e3a9d	0.042536367
53	0x3d84b25c	0.06479332
54	0xbf0859c6	-0.53261983
55	0xbf0e7400	-0.5564575
56	0xbe9db2d2	-0.30800492
57	0xbec388c6	-0.38190287
58	0xbe3bb92d	-0.18332358
59	0x3e7a4e89	0.24444021
60	0xbda758b6	-0.08171217
61	0xbd6f0bfc	-0.05836104
62	0xbf4b5c70	-0.79437923
63	0x3f1f162f	0.62143224
64	0xbeb97e62	-0.36229235
65	0x3e96f16a	0.2948106
66	0x390b569b	0.00013288336
67	0x3a9f95c0	0.0012175366
68	0x3d92ef49	0.07174546
69	0x3e0ad589	0.1355802
70	0x3e80114c	0.25013196
71	0xbdc83ed7	-0.09777611
72	0x3d73270d	0.059363414
73	0xbd9db7eb	-0.07701095
74	0x3e45e26e	0.19324657
75	0xbf1e4177	-0.6181864
76	0xbe38b67e	-0.18038365
77	0x3ef3a0ad	0.47583523
78	0xbe6b0027	-0.22949277
79	0x3e128e37	0.14312063
80	0x3ccde829	0.025135117
81	0xbdfce500	-0.12348366
82	0x3c172285	0.009224539
83	0xbda58237	-0.08081477
84	0x3edbc49d	0.42923442
85	0xbe111623	-0.141686
86	0xbe160239	-0.14649285
87	0xbdc5146d	-0.096230365
88	0xbdacc58c	-0.084361166
89	0x3c4a4f1b	0.012347962
90	0x39979f8e	0.00028919842
91	0x3d00086d	0.031258035
92	0xbf14fc79	-0.5819774
93	0x3d6d8d47	0.05799606
94	0x3dcfaaf5	0.10140029
95	0xbd69033a	-0.056887843
96	0x3e8d9325	0.27651325
97	0xbf2026de	-0.62559307
98	0xbd9805ac	-0.07422957
99	0xbeecebc5	-0.46273628
100	0xbd6cb08e	-0.057785563
101	0xbe86af4f	-0.26305625
102	0x3e7073b0	0.23481631
103	0xbe21c9ef	-0.15799688
104	0x3f14cab6	0.5812181
105	0xbe8dd91a	-0.27704698
106	0xbd573e78	-0.05254981
107	0xbeff5d97	-0.4987609
108	0xbf0fbfbf	-0.56151956
109	0x3e991741	0.29900554
110	0x3d777ff3	0.060424756
111	0x3e795901	0.24350359
112	0x3be43d32	0.006965303
113	0xbc2df389	-0.010617145
114	0x3c279be4	0.010230038
115	0x3e255d2d	0.16148825
116	0xbd8212b0	-0.063512206
117	0x3da1fb70	0.07909286
118	0x3e683f0d	0.22680302
119	0x3eba5621	0.36393836
120	0x3e02fea4	0.1279245
121	0x3f062fbd	0.5241659
122	0x3e23ab42	0.15983298
123	0x3dfc7b21	0.123281725
124	0xbe236454	-0.15956241
125	0xbeeee76c	-0.46660936
126	0x3edc7366	0.43056792
127	0x3e7a509c	0.24444813
128	0xbe3fc384	-0.18726927
129	0xbdc8dcd7	-0.09807747
130	0xbeb64704	-0.35601056
131	0xbd06b6fd	-0.032889355
132	0xbe6093e0	-0.2193141
133	0xbd8c81de	-0.06860708
134	0x3de8b024	0.11361721
135	0xbc7aba92	-0.015303271
136	0x3bd968af	0.0066347937
137	0x3e1e4cb3	0.15458946
138	0x3e91f89f	0.28509995
139	0x3ec75c2b	0.38937506
140	0x3d1a7a7e	0.037714474
141	0x3e678e0a	0.22612777
142	0x3edfebe6	0.43734664
143	0xbf18866c	-0.5958011
144	0xbea1136f	-0.3146014
145	0xbdaeddee	-0.085384235
146	0xbe0fe7c7	-0.1405326
147	0xbeeb0622	-0.45903116
148	0x3eb754a2	0.35806757
149	0xbe7c28a8	-0.24624884
150	0xbe9fcf60	-0.31212902
151	0xbbcaf54b	-0.006193792
152	0xbee3e9e7	-0.4451439
153	0x3e783081	0.24237253
154	0x3e80672b	0.2507871
155	0xbf02a042	-0.51025784
156	0xbd4a5f66	-0.049407385
157	0x3e2c55b1	0.16829564
158	0x3bf49c10	0.007464893
159	0xbcab8000	-0.020935059
160	0x3d0ccddb	0.034376007
161	0x3e9fecfb	0.3123549
162	0xbe315846	-0.1731883
163	0xbec5f02a	-0.38659793
164	0x3df152cb	0.1178337
165	0xbe95167f	-0.29118726
166	0x3e277ee4	0.16356999
167	0x3d443488	0.04790166
168	0x3e0c52ae	0.13703415
169	0xbec0d26e	-0.37660545
170	0xbe2083c5	-0.15675266
171	0x3ed26048	0.41089082
172	0xbde8becb	-0.11364516
173	0xbebdde2a	-0.3708356
174	0x3f1943e1	0.598692
175	0x3bccc1fc	0.0062487107
176	0xbdd80dda	-0.10549517
177	0xbe615d51	-0.22008254
178	0xbeeb673f	-0.45977208
179	0x3eb71097	0.35754845
180	0x3e1073cb	0.14106672
181	0xb9b48a5f	-0.0003443537
182	0xbb7e377d	-0.0038790398
183	0xbe13d06a	-0.14434972
184	0x3dbe1155	0.092806496
185	0x3ea2fa32	0.3183151
186	0xbe828dd9	-0.25498846
187	0xbb478aef	-0.00304478
188	0x3e3abb7f	0.18235587
189	0x3e8cc500	0.2749405
190	0x3ec8d2dd	0.39223376
191	0x3eb447c9	0.35211018
192	0xbd8d922a	-0.06912644
193	0x3e8a160e	0.2696995
194	0x3e88fdee	0.26756233
195	0x3e7138bc	0.23556799
196	0x3e0e68f2	0.13907221
197	0x3e6a9fc4	0.22912508
198	0x3eb2f4ec	0.34952486
199	0xbe28fba3	-0.16502242
200	0x3daab46e	0.083351955
201	0x3f02bc67	0.5106873
202	0x3d236584	0.039891735
203	0x3e8a0080	0.26953506
204	0xbcd20c92	-0.02564076
205	0x3bf9666e	0.0076110875
206	0x3e4656b6	0.19369015
207	0xbe765dca	-0.24059215
208	0x3e8432c1	0.25819972
209	0xbed9b9b8	-0.42524505
210	0xbf086444	-0.53277993
211	0xbe2bb587	-0.16768466
212	0x3c4391c1	0.011936606
213	0x3edb086c	0.42779863
214	0xbd9ac952	-0.0755793
215	0xbe0178aa	-0.12643686
216	0xbeb78484	-0.3584329
217	0x3e67a421	0.22621204
218	0xbe031fb0	-0.12805057
219	0x3e9d302d	0.30700818
220	0x3e8a069d	0.2695817
221	0xbed6ec01	-0.41976932
222	0x3db5c118	0.0887472
223	0xbeb63a0d	-0.35591164
224	0xbdcbf90a	-0.0995961
225	0x3ce9ddca	0.02854814
226	0x3efa7105	0.48914352
227	0xbb927199	-0.0044691083
228	0x3c534a4f	0.0128961345
229	0x3e616994	0.22012931

phi_neumann.mlp.mlp.0.bias f4 [10]
0	0xbd398e9a	-0.04530201
1	0x3d51b673	0.051199388
2	0xbd7faf56	-0.062423073
3	0x3ed21134	0.4102875
4	0xbda0ebcd	-0.078574754
5	0xbd40a11e	-0.047028653
6	0x3e586919	0.21133842
7	0x3d233172	0.039842077
8	0xbc8e4f87	-0.017371906
9	0x3df8c334	0.12146607

phi_neumann.mlp.mlp.2.weight f4 [10, 10]
0	0xbda2ed09	-0.07955367
1	0x3f0a6b17	0.54069656
2	0x3d86e009	0.065857
3	0x3e4e3f8f	0.20141433
4	0xbea6b822	-0.32562357
5	0xbeb806e9	-0.35942772
6	0x3d94b50e	0.07261096
7	0xbd0b49a7	-0.034005787
8	0x3ea55fc9	0.3229964
9	0xbce41fcb	-0.027847191
10	0xbeb22d68	-0.34800267
11	0xbd0062d7	-0.03134426
12	0x3eb2a318	0.34890056
13	0xbe1b0225	-0.15137537
14	0xbf1add26	-0.60493696
15	0xbf0d839a	-0.55278933
16	0x3e99e5b5	0.30058065
17	0xbc953b77	-0.018216832
18	0xbc80c5d3	-0.01571933
19	0xbefadecc	-0.48998106
20	0xbe428d57	-0.1899923
21	0x3e8e436c	0.27785814
22	0x3f414321	0.75493056
23	0xbdd0e0cc	-0.101991266
24	0xbdbba11b	-0.09161588
25	0x3f0685a6	0.5254768
26	0xbf155ca8	-0.5834451
27	0xbe62d009	-0.22149672
28	0xbedca670	-0.43095732
29	0xbe5e56c3	-0.21712784
30	0x3ea0958f	0.31364104
31	0xbd53485f	-0.05158269
32	0x3e5b507e	0.21417424
33	0x3d720eed	0.059096266
34	0x3e66ffda	0.22558537
35	0xbedad7ae	-0.42742676
36	0x3d8d3e57	0.06896656
37	0x3e95b603	0.29240426
38	0x3e5cc5e6	0.21559867
39	0xbe76fe5a	-0.24120465
40	0x3e90b33d	0.28261748
41	0xbe3d37cd	-0.18478318
42	0x3e2ad532	0.1668289
43	0x3ead9380	0.33901596
44	0xbe620aff	-0.22074507
45	0x3e840f7c	0.25793064
46	0xbe92246c	-0.28543413
47	0x3d304e9c	0.043043718
48	0xbf1159b2	-0.5677749
49	0x3da239d1	0.07921184
50	0x3e384098	0.1799339
51	0x3e0369e1	0.12833358
52	0xbe81cc85	-0.2535135
53	0xbf030def	-0.51193136
54	0x3dfca7c9	0.1233669
55	0x3ec66d2e	0.38755172
56	0x3e5402ca	0.20704189
57	0xbe9d50d3	-0.30725726
58	0x3e4b6d3a	0.19865885
59	0x3ed5e1a4	0.41773713
60	0x3d652f67	0.05595341
61	0x3ebdf7cd	0.3710312
62	0xbecc5b57	-0.39913437
63	0xbe56a260	-0.20960379
64	0xbf0a31b7	-0.5398211
65	0xbe436379	-0.19080915
66	0x3e180e2c	0.14849156
67	0x3ed5478f	0.41656157
68	0x3d975262	0.0738876
69	0x3ea82d01	0.32846835
70	0xbeff3795	-0.49847093
71	0x3e9e41ba	0.3090952
72	0x3f0a8cfa	0.54121363
73	0x3ec467dd	0.3836049
74	0x3d96bcd6	0.07360236
75	0xbeced6a5	-0.40398136
76	0xbe2ff0c0	-0.17181683
77	0x3f172e98	0.5905547
78	0x3dad6bda	0.08467837
79	0x3dbb5164	0.091463834
80	0x3f05d2a2	0.52274525
81	0x3ee6d48e	0.4508404
82	0x3ebe4124	0.37159073
83	0xbd2b2689	-0.041784797
84	0x3e563aba	0.2092084
85	0x3f0e06d8	0.5547919
86	0x3abf4b01	0.0014594496
87	0xbc90140c	-0.017587684
88	0xbe6b29fa	-0.22965232
89	0xbe3f6672	-0.18691424
90	0x3e49ef1c	0.19720119
91	0x3dc8f3f5	0.09812156
92	0x3f0e12b6	0.554973
93	0xbdd233f2	-0.10263814
94	0xbec9db6f	-0.39425227
95	0xbec2bb6d	-0.3803362
96	0x3dc26d00	0.09493446
97	0xbe086717	-0.13320576
98	0x3da537c0	0.08067274
99	0xbec84e2b	-0.39122137

phi_neumann.mlp.mlp.2.bias f4 [10]
0	0x3ca32e21	0.019919457
1	0xbebf1327	-0.373193
2	0xbccaf184	-0.024773367
3	0xbede0ed3	-0.43370685
4	0xbe18b9cc	-0.14914626
5	0xbe4b8506	-0.19874963
6	0xbe4a74c4	-0.19771105
7	0x3e623c72	0.2209337
8	0xbbc34a8c	-0.0059598144
9	0xbc3cd09f	-0.0115243485
