mixed/dsgps/results/50_ite_lamb_0_001_gamma_0_9/ckpt/running_model.pt (torch, 96581 bytes, 93 tensors)

laynorm.weight f4 [10]
000000 00 00 80 3f 00 00 80 3f 00 00 80 3f 00 00 80 3f
       1.0 1.0 1.0 1.0
000010 00 00 80 3f 00 00 80 3f 00 00 80 3f 00 00 80 3f
       1.0 1.0 1.0 1.0
000020 00 00 80 3f 00 00 80 3f
       1.0 1.0

laynorm.bias f4 [10]
000000 00 00 00 00 00 00 00 00 00 00 00 00 00 00 00 00
       0.0 0.0 0.0 0.0
000010 00 00 00 00 00 00 00 00 00 00 00 00 00 00 00 00
       0.0 0.0 0.0 0.0
000020 00 00 00 00 00 00 00 00
       0.0 0.0

phi_to.mlp.mlp.0.weight f4 [10, 23]
000000 ca c4 d5 be de fc e4 3e 31 e2 17 3f d4 67 9d be
       -0.417517 0.44724172 0.59329516 -0.30743277
000010 94 65 05 3b 59 66 3e 3e 9f 4b 32 3e 23 c6 03 3e
       0.0020354735 0.1859373 0.1741166 0.12868552
000020 13 06 01 be 1c c4 5c be fb 09 5e 3d 70 15 cb 3d
       -0.12599973 -0.21559185 0.054208737 0.09916198
000030 97 82 8d 3e 69 8e 8c 3d dd a0 eb 3d ca 04 66 bd
       0.27638695 0.068631 0.115052916 -0.05615691
000040 65 33 e4 bc ea ad 2c be f3 27 6d be e7 00 4f bd
       -0.027856538 -0.16863218 -0.2315977 -0.05053797
000050 3e da b5 3d df a1 2d 3d 8c 79 80 3b e8 fa 78 be
       0.08879517 0.0423907 0.0039207395 -0.24314463
000060 1c 6e c7 be 27 38 09 3d 77 16 4c bd ee 5b 8c 3e
       -0.38951194 0.033500817 -0.04982611 0.27413887
000070 2e 58 5b be a4 9d 65 3e 8a 1c 28 bf c6 ea fd 3e
       -0.21420357 0.22423416 -0.6566855 0.4959318
000080 1d 87 14 bf 14 2f 26 3e d5 d2 92 3e 53 e5 65 3e
       -0.58018667 0.16228896 0.28676477 0.22450761
000090 33 19 0f be 52 8a c7 3d c2 14 3e 3d 6a ca a7 be
       -0.13974456 0.097431794 0.046406515 -0.32771617
0000a0 c6 77 8f 3c b1 03 84 3e 9f 33 99 be fa bf c8 3c
       0.017513167 0.25784066 -0.29922196 0.024505604
0000b0 d8 90 a5 bd 9f 35 14 be 37 0f c6 be d8 83 79 be
       -0.080842674 -0.1447358 -0.38683483 -0.243667
0000c0 87 27 f9 3d 30 5f 9d be 79 48 8b bc 74 32 eb bd
       0.12165742 -0.30736685 -0.017002331 -0.114842325
0000d0 62 d2 be 3e cf 5d d1 3e b0 55 b4 3d 45 56 89 3e
       0.37269884 0.40891883 0.08805406 0.2682363
0000e0 46 0b de be 74 3f 8e 3e 88 15 fa 3e 53 aa 34 be
       -0.43367976 0.27782786 0.48844552 -0.17643099
0000f0 c6 32 c7 bd 6d f9 1c 3f b5 05 23 3d 0b 1d 2f 3e
       -0.09726481 0.61318094 0.039800365 0.17100923
000100 4e 7e d9 bd ba f7 7d be da b7 07 bd dc 8a fb bd
       -0.10619794 -0.24801531 -0.03313432 -0.12282345
000110 46 69 a7 bd cc 50 43 be e6 ab 31 be 0d 32 59 3e
       -0.08174376 -0.1907379 -0.1735073 0.21210499
000120 c0 89 ee 3b 5e ba 89 3e 8b 36 e4 be ab fc 8a 3e
       0.0072796047 0.269 -0.44572863 0.27145895
000130 86 ff 01 bf 16 d6 62 3f 05 0c b0 bf 18 bf 01 be
       -0.5078052 0.8860792 -1.3753668 -0.12670553
000140 59 63 be 3e fb 64 d2 3e 43 22 2f be b9 96 1c 3f
       0.3718517 0.41092667 -0.17102914 0.61167485
000150 77 80 09 bf 26 b7 43 3e f4 ba 13 3f 64 ac 85 3b
       -0.53711647 0.19112834 0.5770714 0.0040793885
000160 a7 01 77 3f f7 98 c2 3d 88 9a bd 3d be 5e 02 3d
       0.96486896 0.09501832 0.0925799 0.031828634
000170 70 b6 89 be 1a ff dd be e8 7f e0 be 45 21 7a 3d
       -0.26897 -0.4335869 -0.43847585 0.061066885
000180 9f 01 52 3e 69 85 03 be 7a 49 55 bf 33 31 9e be
       0.20508431 -0.1284386 -0.8331524 -0.3089691
000190 d9 3c 44 3e 40 ef 57 3e ae 9b 29 bd bf 2b c0 3e
       0.19163837 0.2108736 -0.041408233 0.37533376
0001a0 6c 39 1d 3d 2e f2 e6 be 63 c1 1e 3e 05 d9 55 bd
       0.03838484 -0.45106643 0.15503459 -0.05220892
0001b0 db d5 54 be 07 d6 e7 bd 91 e1 ad 3e 3d 44 3d bd
       -0.20784704 -0.11320119 0.33961156 -0.046207655
0001c0 39 57 01 3b 65 45 9f 3d 88 f9 26 bc a3 03 1f bf
       0.0019735827 0.07776908 -0.010191329 -0.62114924
0001d0 eb 96 66 bc 4e c7 0c be e4 72 58 be 2f ad 1a 3f
       -0.014074068 -0.13747904 -0.21137577 0.6042051
0001e0 34 35 c5 be 6d 72 35 bf 90 2f cc be f3 9d 86 3f
       -0.38517153 -0.70877725 -0.39880037 1.0516952
0001f0 81 fe 62 3d a0 24 10 3b a7 93 00 be 2b c5 c8 be
       0.055418495 0.0021994486 -0.12556325 -0.39212927
000200 c2 44 6e be fc 68 ee 3b 94 b8 3d 3d c4 14 11 bf
       -0.23268417 0.0072756987 0.046318606 -0.5667231
000210 e9 75 cf bd 50 42 ec 3e 7d 54 14 bf ea 5b 18 be
       -0.101299115 0.46144342 -0.5794142 -0.14878812
000220 08 fb 78 bd 17 2b a9 bd 9d 34 91 be 32 70 b7 3e
       -0.060786277 -0.08260172 -0.28360453 0.35827786
000230 4c f3 97 be 9c 66 74 3e 75 9e c9 3e 8e 6f a8 be
       -0.29677808 0.23867267 0.39378706 -0.3289761
000240 a5 b2 ba be 9d 04 a5 3e 13 57 82 3f f7 75 2f 3e
       -0.3646442 0.32230082 1.0182823 0.17134844
000250 4b 04 fd 3c a3 24 b2 3e 41 f7 a6 be 99 8b e5 3e
       0.030885836 0.34793577 -0.32610515 0.44833067
000260 bb f4 74 3e 69 7e 8d 3e 80 b8 98 bd 5d 1d ea 3e
       0.23921482 0.27635506 -0.074570656 0.45725527
000270 88 d9 09 3e ef ea 84 be ac d6 38 3e d8 7d 5c be
       0.13461888 -0.2596049 0.18050641 -0.2153238
000280 81 3b be 3d 9a 94 84 3c 44 7e e4 3e 2d a0 d8 3e
       0.09288693 0.01618414 0.44627583 0.42309704
000290 20 3f bc be 22 f1 7b be e9 29 79 3d 60 67 10 bc
       -0.3676691 -0.24603704 0.060830984 -0.008813709
0002a0 3f 7b ca be 65 3b 2d 3f 34 19 a3 be e8 2f cb be
       -0.39547154 0.67668754 -0.31855166 -0.39684987
0002b0 cf 2c d2 3e 5a 53 38 be c9 4d 2c bc 1f f3 c9 be
       0.4104981 -0.18000546 -0.010516592 -0.394433
0002c0 57 c8 10 be 94 0b b7 3e 82 28 f8 be 4b f3 a7 3e
       -0.14138924 0.3575102 -0.48468405 0.32802805
0002d0 67 52 8a be 65 c3 19 be ce cb 61 be ff dc 0e be
       -0.27015993 -0.15015943 -0.22050402 -0.13951491
0002e0 69 f4 b9 3c 97 d6 17 3f ac e9 a7 be 07 be fe be
       0.022699552 0.59311813 -0.32795465 -0.49754354
0002f0 43 bd 1f bc ed 6e a1 3e f5 46 8c 3e 60 d1 1e 3f
       -0.009749713 0.31529942 0.27397886 0.6203823
000300 ed b5 2c be ca c7 c4 be e3 d7 e7 be 5c 6d b3 be
       -0.16866274 -0.38433677 -0.45281896 -0.35044372
000310 e7 72 86 3d ec a4 a2 3e cc a7 97 3e bc 73 02 be
       0.06564885 0.3176645 0.29620206 -0.12739462
000320 04 2a 08 3f fd 91 e1 be 6c 11 8d bd f6 b9 36 3d
       0.5318911 -0.44056693 -0.068880886 0.04461094
000330 26 cd 95 3d 83 6b 4b bd fd 66 8b 3e a3 30 53 be
       0.073145196 -0.049663078 0.2722701 -0.20624022
000340 7c 3b 45 3f 16 f8 e5 be 87 58 43 3e c4 85 40 bf
       0.7704389 -0.44915837 0.19076739 -0.7520411
000350 e7 64 06 be 0d 70 d5 3d 14 3f 2f 3e 2c a7 81 3f
       -0.13124429 0.104217626 0.17113906 1.0129142
000360 f4 3e d8 be bd c1 81 3e 01 69 dd 3d e3 f9 04 be
       -0.4223553 0.25343123 0.108110435 -0.12985949
000370 26 33 ae bc ad 06 86 be 65 6c c2 be c1 53 12 3f
       -0.021264624 -0.26176968 -0.37973323 0.5715905
000380 b8 bc 06 3e 03 d0 94 bd 33 7b d2 be f0 02 56 be
       0.13157928 -0.072662376 -0.4110962 -0.20899558
000390 19 1b 5e 3e 05 36 86 3d
       0.21690024 0.06553272

phi_to.mlp.mlp.0.bias f4 [10]
000000 b1 a4 15 bd 85 a2 4e be 10 39 c0 3d ca 61 3c be
       -0.036534015 -0.20179184 0.09385884 -0.18396679
000010 56 c7 3f 3e 51 90 89 3e 3a 3b 07 3e c7 78 a8 bc
       0.18728384 0.26867917 0.13206187 -0.020565404
000020 92 91 a1 3d c7 ae fc 3d
       0.078890935 0.12338024

phi_to.mlp.mlp.2.weight f4 [10, 10]
000000 ee 41 5b 3e d5 c5 c9 3e b7 82 1e bf ae 54 6f be
       0.21411869 0.39408746 -0.61918205 -0.23372146
000010 7e ec b3 3e 36 68 0b 3f f9 96 9f 3e 76 d5 e8 3d
       0.35141367 0.5445589 0.3116987 0.113688394
000020 37 3a 0a bf 1b e1 5a 3e 94 ce ab bd 85 1b 0c 3d
       -0.5399508 0.21374933 -0.08389011 0.034205932
000030 aa 01 a6 be ef 71 7a 3f 4b 01 11 be 15 f6 92 be
       -0.32423145 0.978301 -0.1416065 -0.2870337
000040 24 5a d9 3e d9 93 8e 3d 5e 85 4c be b3 bd 37 be
       0.42451584 0.069617935 -0.1997275 -0.17943458
000050 af 54 1a bf 58 58 15 be f0 31 ae 3a e1 a5 7a bb
       -0.60285467 -0.14584482 0.0013290029 -0.0038245844
000060 4d 8f b6 3e 74 0b ba be 93 5e 97 be c7 df ec 3d
       0.35656205 -0.36336863 -0.29564342 0.1156612
000070 9f a8 54 be 57 e6 2e be e0 c0 f7 3d d8 6d e8 bc
       -0.20767449 -0.17080055 0.12097335 -0.02837269
000080 d0 62 02 3e 4b 25 c5 3e c6 ca d7 be 15 c0 26 bf
       0.12733006 0.38505015 -0.4214689 -0.65136844
000090 c7 1a 0b 3d c2 f6 38 be 8c a3 fb 3d 3a f9 01 3d
       0.033961084 -0.1806288 0.122870535 0.03173182
0000a0 5f d3 b9 3e d4 a8 33 be d4 a8 a4 be 29 56 58 be
       0.36294076 -0.17544872 -0.32160056 -0.21126617
0000b0 10 57 b8 be 5a a3 bf 3d cf cc cc bd ad 09 65 3e
       -0.36003923 0.09357329 -0.10000002 0.22366972
0000c0 f1 f8 9b 3e f3 5a 18 3e 06 3e f9 3d d2 5e bc 3e
       0.30463365 0.14878444 0.12170033 0.36791092
0000d0 e5 ff 7d be 39 d1 0f 3f fd 7e 07 3f 26 87 f6 3e
       -0.24804647 0.56178623 0.52928144 0.48149985
0000e0 9d 4e 0d bd ba 7b 87 3e 18 b0 1f bf 71 4d 3e 3d
       -0.0344988 0.26461583 -0.6237807 0.046460573
0000f0 27 6d c4 be 1a f7 8c be a4 9f 0e bf d5 d0 8e bd
       -0.38364527 -0.27532274 -0.5571234 -0.06973425
000100 c6 32 c4 3e 7e e0 f5 bd dc 61 63 bb 52 65 77 3e
       0.38319987 -0.12005709 -0.003469578 0.24159744
000110 ba b2 20 bf 9e 0e 0a 3f ce 5a 97 3d 53 cc c7 3e
       -0.62772715 0.53928554 0.073903665 0.39023075
000120 a5 d5 84 3c ec fb 47 3e 8b 0d c6 be c2 d1 d6 be
       0.016215155 0.19529694 -0.38682207 -0.41956908
000130 86 f2 9a bf b5 9c 5c 3a 70 2f 51 bd d4 4a 05 be
       -1.2105262 0.0008415685 -0.05107063 -0.13016826
000140 35 52 49 be 2b a3 fc 3e d2 14 32 bf b3 6c bf be
       -0.19660266 0.49343237 -0.6956302 -0.37387618
000150 0f b8 8f 3e 4a 51 96 3e 56 94 12 3f 8b ea 25 3e
       0.28070113 0.29358894 0.5725759 0.16202752
000160 3b d0 54 be 0d 73 9d be 41 f6 bc 3d ab 40 e6 bd
       -0.20782559 -0.3075184 0.09226657 -0.11242803
000170 2c 16 61 be 81 23 cd be ba 3d ab 3e ed c1 d7 3e
       -0.21981114 -0.4006615 0.3344553 0.4214014
000180 b4 97 92 be c6 01 39 bf 16 f9 23 3d 89 a5 5d bf
       -0.28631365 -0.7226833 0.04003247 -0.8658071

phi_to.mlp.mlp.2.bias f4 [10]
000000 98 45 9d bc 2e 34 cc bd 8d 0b 92 3d d7 fa 01 3e
       -0.019198224 -0.0997089 0.071311094 0.12693344
000010 07 5e 91 3d cf f1 09 bd c2 21 d2 bd 5f 63 b7 bc
       0.070980124 -0.033677872 -0.10260345 -0.022386251
000020 14 00 0f be 39 fa 7b bd
       -0.13964874 -0.061517928

phi_from.mlp.mlp.0.weight f4 [10, 23]
000000 45 27 2a bf a2 cd 7e 3e b9 02 d3 3e 46 7f 34 bf
       -0.6646617 0.2488313 0.41213015 -0.70506704
000010 5b bc ee bd a0 93 bb bb c6 73 fb 3c 0f 31 da be
       -0.1165702 -0.0057243854 0.030694854 -0.42615554
000020 8d 56 69 be 8c c5 08 be 4c e3 52 be 6e 66 64 3e
       -0.22786923 -0.13356608 -0.2059452 0.22304699
000030 7b aa 2c 3e e4 e8 d2 3c 11 b7 fd be 6d 81 4f be
       0.16861908 0.025745817 -0.4955373 -0.20264216
000040 9f c7 c2 be 53 91 a8 be 89 90 b5 bd 0f 1d 0e be
       -0.38042924 -0.32923374 -0.088654585 -0.13878272
000050 ab 9d 2a be 9d 14 7b be a9 75 82 3d 66 cf aa 3d
       -0.16661708 -0.24519582 0.06370098 0.08340339
000060 3d 7b e5 bd ae 68 fb 3d 60 0e 46 be 37 7c c4 3e
       -0.112051465 0.122758254 -0.19341421 0.38376018
000070 ea 06 1c 3f 1c a7 54 bc d2 ce e4 3e bc af 35 be
       0.6094805 -0.012979295 0.4468904 -0.17742819
000080 a1 e5 23 bf e8 8b 88 3e ae 94 55 bd fd b4 12 bd
       -0.6402226 0.2666924 -0.052143745 -0.035817135
000090 1b da 8e 3e 81 48 a3 be e5 24 b9 3e 95 1f 9e 3e
       0.27900776 -0.31891254 0.3616096 0.3088347
0000a0 2d 28 5c be ef e6 3e 3e 78 d8 08 3f f1 d7 2d 3d
       -0.21499701 0.18642782 0.53455305 0.042442266
0000b0 a8 ff e3 3d c2 27 17 be 10 f6 8b 3d 66 44 e7 3c
       0.11132747 -0.1476126 0.06834042 0.028230857
0000c0 17 ac fb be 3e ac b9 be 0e 55 04 3e c6 36 7c 3e
       -0.49154732 -0.36264223 0.12923071 0.2463027
0000d0 74 d1 5c 3f c3 c3 28 3f d7 54 17 3e 74 b7 dc be
       0.862571 0.6592371 0.14778458 -0.43108714
0000e0 8c ff de be a8 67 0a bd 43 2b 16 bf 17 78 9c be
       -0.43554342 -0.03379026 -0.5865976 -0.3056037
0000f0 6d 3e 26 3f e7 7c 66 3e 81 92 fb bb af 80 bd 3c
       0.64939004 0.22508584 -0.0076773767 0.02313265
000100 12 3a 5c be 24 91 69 be f1 7a ab 3e 58 0e f7 3d
       -0.21506527 -0.22809273 0.33492234 0.12063283
000110 1f 52 8b bc fa 8b 28 3e a1 66 dd 3d d3 57 19 be
       -0.017006932 0.16459647 0.108105905 -0.14974909
000120 d0 69 3d be a3 6b 48 3d af 94 1f 3f 08 1c bc 3e
       -0.18497396 0.048930775 0.6233625 0.36740136
000130 83 ef fd 3d 34 0f f3 3d b8 35 e8 be c6 8d a2 3e
       0.12399199 0.11868134 -0.45353484 0.3174879
000140 fc 89 ad bc 72 ea 57 3e 80 12 4d 3e e9 8b f2 be
       -0.02118396 0.21085528 0.20026588 -0.47372368
000150 18 2d d9 3e ab f6 87 3e d9 49 da be 5c 51 db 3e
       0.42417216 0.2655538 -0.42634466 0.4283551
000160 7e e5 1c 3f fa 67 f5 bd 83 ad 8f bd f3 dc 9c be
       0.6128768 -0.119827226 -0.070155166 -0.3063732
000170 76 99 4d 3c 18 5a f3 3e d3 f2 bd 3d ed 9b c9 be
       0.012548795 0.47529674 0.09274831 -0.39376774
000180 46 de 1c bf b5 57 16 3e e2 04 49 3e de 29 f9 3e
       -0.6127666 0.14681895 0.19630769 0.48664755
000190 fb c5 39 3d 1c 4e 51 be 10 c4 55 3d 04 41 74 3e
       0.045354825 -0.20439953 0.052188933 0.23852926
0001a0 97 77 8e 3e 2f 59 80 3d 64 31 9c 3e 12 ab 11 3e
       0.27825615 0.062670104 0.30506432 0.14225414
0001b0 93 2e e1 be 9e 71 a8 3c 65 07 4d 3e 2f 18 f1 3d
       -0.43980846 0.02056199 0.20022352 0.11772191
0001c0 df 90 23 3e 75 13 9e 3e 12 3c 53 bb 85 f3 2c be
       0.15973233 0.3087422 -0.003223185 -0.1688977
0001d0 64 e8 c1 3d 26 46 8e 3e 2f 44 e7 3e 20 c4 64 be
       0.09468153 0.27787894 0.45169207 -0.22340441
0001e0 2b 57 34 3d 92 f2 ab be d0 3c 01 3e fc 59 d8 3e
       0.044028442 -0.33583504 0.12620854 0.42256153
0001f0 75 a7 1b 3d d3 b3 34 be 89 68 04 3f 80 aa 20 3f
       0.038001496 -0.17646722 0.5172201 0.6276016
000200 6e 2f 99 be 9a cd a6 be 3b cf b4 3e 53 f1 b7 3e
       -0.29918998 -0.32578737 0.35314354 0.35926303
000210 05 b8 64 bd e5 29 b2 be 28 32 76 be 2e 43 af ba
       -0.055839557 -0.34797588 -0.2404257 -0.0013371462
000220 fd df 11 3e 91 b6 75 be 7d ad 2b be bf 2f cc 3c
       0.14245601 -0.23995425 -0.167654 0.02492511
000230 7f 91 be bd 84 70 66 be 7d f9 5d 3e cf 64 8f 3e
       -0.09305095 -0.22503859 0.21677203 0.28006598
000240 24 5b 4f bf 25 ba 3a bf 59 c9 0d 3e 7d f3 8f be
       -0.80998445 -0.72940284 0.1384634 -0.28115454
000250 25 a9 0a 3e 95 2a 2c 3d 75 84 c6 3e 72 88 81 be
       0.13541086 0.042032797 0.38772932 -0.25299412
000260 54 4c 86 be 4f 50 75 be 98 6f aa be 36 f6 2a be
       -0.2623011 -0.23956417 -0.33288264 -0.16695485
000270 98 dd 34 bf 47 73 c5 be 47 d1 0f be cb ab b4 3d
       -0.70650625 -0.38564512 -0.14044677 0.088218294
000280 d9 1f 99 be d0 1a 49 3e 05 9d e9 be ee 3e 8c be
       -0.2990711 0.19639134 -0.4562761 -0.27391762
000290 3c 2d 8f be 0c 50 bf be a4 ed 3b 3d 7e fc ad be
       -0.279642 -0.37365758 0.04588093 -0.339817
0002a0 ad bc 09 bf 05 81 db 3e 66 ea 7e bd d5 10 e3 3d
       -0.5380352 0.42871872 -0.06223526 0.11087195
0002b0 83 d6 78 3e 78 4b 2b be 96 4e 17 be f3 24 94 3e
       0.2430058 -0.16728008 -0.14776072 0.2893444
0002c0 67 4e 13 3f d3 4e 82 3e 52 22 88 be 38 4a 77 3e
       0.5754151 0.25450763 -0.26588684 0.24149406
0002d0 cf 8a 67 be ab 1b 90 3d 72 b1 33 3e 6f 59 7d 3d
       -0.22611545 0.07036527 0.17548159 0.06185287
0002e0 c1 02 6d 3e 4b 65 b5 be b1 fc 03 bd 8a 5c 99 3e
       0.23145582 -0.35428843 -0.032223407 0.29953414
0002f0 54 7a ac 3e 1c 3e 20 bd 57 ce dd be 3d e7 4f 3d
       0.3368708 -0.039121732 -0.43321487 0.050757635
000300 60 89 1b bf b0 15 a8 be 18 4e c0 3e 97 eb 1b 3e
       -0.6075649 -0.32829046 0.3755958 0.15226589
000310 fe 23 2e be d0 55 cf be b9 e5 34 be c0 b9 9d be
       -0.17005917 -0.40495157 -0.17665757 -0.30805779
000320 8e 57 4a 3d 15 49 ca bd 36 13 36 3e 44 81 a2 3e
       0.049399905 -0.098772205 0.17780766 0.31739247
000330 3c fd e2 bc 8a 4c 98 3d e5 a2 aa be bb 1f 11 be
       -0.027708642 0.07436474 -0.33327404 -0.1417226
000340 d5 58 7f bc b5 81 32 3e ba 99 9c bd e7 87 8e bb
       -0.015585144 0.17432292 -0.076465085 -0.004349697
000350 8d 7c 85 3e 1f 37 1d bf ec d9 ce be d0 eb 2d bf
       0.26071587 -0.61412233 -0.40400636 -0.67937946
000360 21 f8 d4 bc 30 2b 02 3d 99 66 9c bd 2b 82 67 3e
       -0.025997223 0.031779468 -0.076367564 0.22608249
000370 6e aa 81 be a0 5b d2 3e 3a cf 97 be 98 16 3d bf
       -0.2532534 0.4108553 -0.2965029 -0.738626
000380 46 bc ee bd 60 72 0c bd 4c 6a bd 3d 7f 48 2e be
       -0.11657004 -0.034288764 0.0924879 -0.17019843
000390 aa 21 19 3e ca e4 cd be
       0.14954248 -0.40213615

phi_from.mlp.mlp.0.bias f4 [10]
000000 88 09 3a 3e 91 0e 8c bd 8d 07 e9 3c df e7 52 3b
       0.18167698 -0.06838716 0.028445983 0.0032181663
000010 9b 34 22 3e 01 79 86 3d 81 ff 2a bc 32 44 34 bd
       0.1584038 0.065660484 -0.010436893 -0.04401035
000020 39 70 3f 3d 92 d1 86 be
       0.046737883 -0.26331764

phi_from.mlp.mlp.2.weight f4 [10, 10]
000000 5b 73 50 be f2 f7 9c be d3 00 81 3e 60 15 1b 3e
       -0.20356505 -0.30657917 0.2519594 0.15144873
000010 e1 ad c4 3e dc ed db 3d eb ad 14 bf ef 97 b0 3c
       0.3841391 0.107387275 -0.5807788 0.021556823
000020 24 40 07 bf 5a 7d 7f be 27 c9 96 be 00 b3 b7 bc
       -0.52832246 -0.24950162 -0.29450342 -0.022424221
000030 50 e6 08 bf af ac 8d be 51 e6 e7 be 01 c7 81 3e
       -0.5347643 -0.2767081 -0.45292905 0.2534714
000040 57 d2 bd 3e 3b ba 05 3f 41 4e 06 3f d7 c9 75 bd
       0.3707454 0.5223729 0.52463156 -0.060006943
000050 11 e2 bd be 2d 8d b0 3e 4a 6b e0 3e 02 16 8f 3e
       -0.37086537 0.3448271 0.43831855 0.27946478
000060 85 98 69 be fe b5 e7 be ec 88 9d bd 0b 89 0d 3f
       -0.22812088 -0.45256037 -0.076921314 0.55287236
000070 11 01 8d be 97 21 d6 bd 74 28 c1 3e 36 51 cd 3e
       -0.27539876 -0.104556255 0.37726176 0.40101022
000080 74 48 ad 3e b9 1c ce bb 59 91 d6 3e 1d 3d 9a be
       0.3384434 -0.006290045 0.41907766 -0.3012475
000090 97 c1 c2 be ac f0 a3 3c 8f 77 51 be d1 5f f3 bc
       -0.38038322 0.020012222 -0.20455764 -0.029708775
0000a0 cb f3 12 bf c1 45 6e 3f 66 bb 81 be 9f d2 0b 3f
       -0.5740325 0.93075186 -0.25338286 0.5461826
0000b0 46 3e e6 be 05 dc d5 be 6e a0 cc be 92 63 74 be
       -0.44969386 -0.41769424 -0.39966148 -0.23866108
0000c0 2a c9 01 3f 9d 6c dd be d9 79 ba 3c e5 7b 1e 3e
       0.50697577 -0.43246928 0.02276318 0.1547695
0000d0 4b ed 88 3e 55 13 71 be 2c 35 f3 3e 1d 8e 8f be
       0.2674354 -0.23542531 0.47501504 -0.2803811
0000e0 0f 87 a4 3e b8 93 8a 3d 5d 69 68 be f9 bc 1a be
       0.32134292 0.06766456 -0.22696443 -0.1511115
0000f0 2a de 9f 3e 67 84 64 3e 84 76 45 bd ab 56 7d 3e
       0.31224185 0.22316132 -0.04820873 0.24740092
000100 64 aa 3c be 31 0c c6 be b8 57 16 be a4 2a ca bd
       -0.18424374 -0.38681176 -0.146819 -0.09871414
000110 e3 a8 d6 3e d1 18 a7 bd ef ac 5c be 86 43 d4 bd
       0.41925725 -0.0815903 -0.21550344 -0.103644416
000120 57 85 85 3d 50 a1 31 3f 7b 31 1b be 0b 80 ee bd
       0.06519573 0.6938677 -0.15155594 -0.11645516
000130 7d 34 7f be 1e 34 5b be 4c 15 98 be 7a d6 3f 3b
       -0.24922366 -0.214066 -0.29703748 0.0029272125
000140 c2 de ae bd e2 b4 7c be cd 7c f3 3e 92 b2 1a 3d
       -0.085385814 -0.24678376 0.47556153 0.037767954
000150 c4 d7 30 3c ca c2 26 3f 20 df e5 be 8d ac 31 bd
       0.01079363 0.65140975 -0.44896793 -0.043377448
000160 36 ab 40 bf 0d c4 89 3e 58 71 33 be 79 2b df be
       -0.7526125 0.26907387 -0.17523706 -0.43587855
000170 e2 c9 8e be 12 b7 91 3c 88 c5 d1 3e 61 07 02 3e
       -0.278884 0.01778749 0.40971017 0.12698127
000180 c4 4d da be 9c 92 da 3d 81 f9 dd 3e 32 90 d8 3d
       -0.42637455 0.10672495 0.4335442 0.10574378

phi_from.mlp.mlp.2.bias f4 [10]
000000 a2 cf 27 3e f4 fc 83 be c4 3e e3 3c a7 bd 2f 3d
       0.163878 -0.25778925 0.02773989 0.042905476
000010 d7 95 74 be 30 81 84 3d 53 e1 09 be 57 f3 c1 3d
       -0.23885284 0.06469953 -0.1346486 0.094702415
000020 78 4b e1 bd 43 6d f0 3d
       -0.11000723 0.1173959

z_k.mlp.0.weight f4 [10, 33]
000000 e2 eb 48 3f 41 7d eb be 24 d3 e8 be a7 b4 06 bf
       0.7848493 -0.45994 -0.45473588 -0.52619404
000010 44 62 2c 3f 82 dc 4d bd 02 a0 cf be 83 9e b1 3c
       0.6733744 -0.05025912 -0.40551764 0.02168203
000020 18 78 e0 be 4d f7 57 be 0f 4a 2d bf 4f 44 7b 3e
       -0.43841624 -0.21090432 -0.6769113 0.24537776
000030 e8 dc b4 3e cb 46 9d 3e 16 b0 e4 3e d6 9c 72 bf
       0.35324788 0.30718073 0.44665593 -0.9477056
000040 fb c0 43 3f c1 0d a7 be 9b 32 15 be a6 2a 7d 3f
       0.7646634 -0.3262768 -0.14570086 0.988932
000050 61 3e fc 3d d4 87 b5 3e c4 21 26 3f e6 07 8c be
       0.12316585 0.3545519 0.6489527 -0.27349776
000060 f0 af c9 3e da 7f aa be cb a4 6d bc 7e 58 b0 3e
       0.39392042 -0.33300668 -0.014504622 0.34442514
000070 23 e7 56 3e aa 9b d8 bd 70 81 08 3d d6 17 64 be
       0.20986609 -0.105765656 0.033326566 -0.22274718
000080 b5 43 f4 bb a0 aa 06 be fb f2 c3 be 2d e9 87 bf
       -0.0074543604 -0.13151026 -0.38271317 -1.0618035
000090 b2 90 7b 3e 93 dc 98 3e c8 95 c9 3e e5 37 bb 3d
       0.24566916 0.29855785 0.39372087 0.091415204
0000a0 32 5d 44 bf 2b 16 3b bf b8 83 ab be 5b 48 a8 3d
       -0.76704705 -0.730807 -0.3349893 0.08216926
0000b0 bc 45 0b 3e eb 84 51 3e ad db fa 3d aa d3 56 be
       0.1360082 0.2046086 0.12248931 -0.20979181
0000c0 ca f7 2d 3e 0a 85 dd 3e 89 7e c7 be eb 91 37 3f
       0.16989055 0.43265563 -0.38963726 0.7170703
0000d0 c7 38 a4 3e 66 2d 7f be ee 96 13 3f cf a4 71 bc
       0.32074568 -0.24919662 0.57652175 -0.014748766
0000e0 7d ea a5 be c0 59 82 bd 73 5e 43 be 99 1a c7 3d
       -0.32405463 -0.06364775 -0.19078998 0.0972187
0000f0 cd 61 cb bd af 7e 09 bf 5b e6 1f 3e a9 1b e5 bd
       -0.099307634 -0.5370893 0.15615217 -0.111869164
000100 f3 db e3 3c 38 98 ac be 6b 39 2c 3c 62 2e dd be
       0.02781484 -0.33709884 0.010511736 -0.4319945
000110 83 46 11 3f 41 1a 04 be c7 3a bd 3d 36 5f ba be
       0.5674822 -0.1290064 0.092397265 -0.36400765
000120 68 19 2e 3f 75 b7 2f 3f 44 b8 cf bd 24 6a c0 bd
       0.68007517 0.6863931 -0.10142568 -0.09395245
000130 85 a3 0c bf 78 90 da bc 44 eb 2a 3f 75 0c c4 3d
       -0.5493701 -0.026680216 0.66765237 0.095726885
000140 a1 7c 46 3e c3 35 39 bf 0e a3 23 3f 79 00 95 bd
       0.1938348 -0.7234766 0.63920677 -0.07275481
000150 91 9e 12 be 77 90 3f 3e bb 0e 87 3e 9d 84 81 bd
       -0.14318301 0.18707453 0.26378426 -0.06324122
000160 c1 76 12 3f 7f 6b 1a 3e 13 4a ab 3e 03 12 cc be
       0.57212454 0.15080069 0.33454952 -0.39857492
000170 56 bd 06 3f ca 20 22 3e 78 57 dc be af f3 8a 3e
       0.52632654 0.1583282 -0.43035483 0.2713904
000180 52 71 4d 3d f9 e6 0c bd cd 7c 1c 3e 85 ec 0c 3f
       0.0501569 -0.03439996 0.15281983 0.550484
000190 fc 71 45 be a3 39 04 bf 6b 97 ca bd 36 f2 e3 3d
       -0.19281763 -0.51650447 -0.09892162 0.111301824
0001a0 ff 20 61 3c 03 0f 9a 3e 9b 39 38 3c 17 9a 46 bd
       0.013740777 0.30089578 0.011244203 -0.048486795
0001b0 f4 e7 ce be 9f 09 58 bc 91 ff 6e 3e 53 b6 ab 3e
       -0.4041134 -0.013185888 0.23339678 0.3353754
0001c0 1d ad ab bc 18 c2 07 be 4d 1b a1 be ba 70 1d 3e
       -0.02095657 -0.13257635 -0.3146614 0.15375033
0001d0 3e fa 37 3f c3 b0 c1 bd a9 c0 24 3e 86 4b da be
       0.71866214 -0.09457543 0.16089119 -0.42635745
0001e0 7d 71 cd 3e e7 6d 7f be 64 56 9d be 61 22 8d 3e
       0.40125647 -0.24944268 -0.30729973 0.27565292
0001f0 27 2d a8 be 14 18 1a 3e f2 51 c4 bd bb 55 fb 3d
       -0.32846949 0.15048248 -0.09585942 0.12272211
000200 10 24 28 3e 0b e8 b1 bb c6 aa 32 3e a0 11 de be
       0.16420007 -0.005429273 0.17447957 -0.43372822
000210 1b 0d aa 3e 46 7d 8f bf fa cb 4b bf c2 c0 3b 3f
       0.33213124 -1.1210105 -0.7960812 0.73341
000220 37 41 80 3d 85 50 c7 be 18 4c c5 be a1 61 48 bd
       0.06262439 -0.3892862 -0.38534617 -0.04892123
000230 71 c3 91 be ce 07 d4 3e eb b1 a8 3e f4 20 e7 3e
       -0.28469422 0.41412205 0.3294824 0.4514233
000240 df a9 87 3e 9c 62 e6 3d cb 41 41 be f8 ef 07 bf
       0.2649679 0.11249277 -0.18872754 -0.5310054
000250 89 79 cb bc 8b dc 89 bf 45 71 ff 3d 4d 13 cf 3f
       -0.024838226 -1.0770429 0.12472776 1.6177765
000260 f2 26 af 3e 48 44 65 bf 13 a6 15 ba 8f c2 89 3d
       0.342094 -0.89557314 -0.0005708646 0.06726562
000270 41 73 80 3f 1b 8a ab 3e 26 88 d5 3d eb 42 a5 3e
       1.0035173 0.33503804 0.10426359 0.32277617
000280 73 d5 e0 be 6a 82 12 3f 0b 75 81 3e 95 9f 51 be
       -0.4391285 0.57230246 0.2528461 -0.20471032
000290 fc 3a bd be b2 01 aa 3e cc 95 18 c0 05 8b 45 bf
       -0.36959064 0.33204418 -2.3841429 -0.7716525
0002a0 ca e6 99 3d 70 30 07 3f 08 a1 af 3d d2 3d e6 be
       0.07514723 0.52808285 0.08575636 -0.4496904
0002b0 8b 4c aa 3e 44 80 42 be c7 81 a1 be 00 ec 9b be
       0.33261523 -0.18994242 -0.31544325 -0.3045349
0002c0 53 5e c0 3d 3a 8f ed 3d 6a 93 7f be 03 c0 b6 3f
       0.09392991 0.11599584 -0.24958578 1.4277347
0002d0 04 c9 04 be 1a d2 25 3f 99 b7 39 3f 2a b6 74 3e
       -0.12967306 0.64773715 0.7254577 0.23897615
0002e0 21 e7 4d 40 ad 8f ea 3d 2b 23 75 be 78 32 92 3f
       3.217232 0.11453185 -0.23939197 1.1421652
0002f0 b0 4b 02 bf ee a9 12 3f 72 16 97 be f1 ca 68 bf
       -0.5089674 0.5729054 -0.29509312 -0.90934664
000300 d0 91 6f 3f 18 6f bb be 62 57 4f bf dc b3 8e 3e
       0.9358187 -0.36608195 -0.8099271 0.27871597
000310 5d 07 0c be 1b a7 cd bc ef e2 19 3f f8 de 9a be
       -0.13674684 -0.025104096 0.601119 -0.30248237
000320 ec bf 12 bf 93 0b 9a be 88 cf 1f 3f 42 63 c2 be
       -0.573241 -0.30086955 0.6242604 -0.37966353
000330 5c 61 7d 3c 92 de 48 3e 47 14 e1 3e 92 ea 46 3d
       0.015465107 0.19616154 0.43960783 0.048563547
000340 ff f2 d3 3e 54 42 f3 bd c2 74 43 3e f4 ab 2d be
       0.4139633 -0.118778855 0.19087508 -0.16960126
000350 0b 65 7e be 67 fb dd bc f8 fc 13 3f f2 af 9e be
       -0.24843232 -0.027097417 0.57807875 -0.3099361
000360 73 99 12 3f 84 d5 df be d9 1d b3 be f0 1d 02 3f
       0.57265395 -0.43717587 -0.3498371 0.5082693
000370 d2 59 25 be 47 f9 19 3d f3 75 17 be 56 39 f5 3d
       -0.16147545 0.037591245 -0.14791088 0.119738266
000380 46 cf e7 be 9d e1 01 3e 45 99 e7 be e5 49 5a 3d
       -0.45275325 0.12683721 -0.45234123 0.053293128
000390 42 6d b2 3d dc 7d e3 be 9f f1 82 be 6e ee 67 be
       0.087122455 -0.4443196 -0.25574967 -0.22649547
0003a0 4d fb 1f bf 7b cc c1 bd d5 e1 30 be d9 bb 01 bf
       -0.6249283 -0.0946283 -0.17273648 -0.5067726
0003b0 0f 73 bf be 8b f7 2c 3b 49 79 fe 3e 61 e6 73 bd
       -0.3739247 0.0026392664 0.49701908 -0.05954588
0003c0 55 be 55 3e 83 c7 a1 be 7d 2c 5f 3e 4a 2b 2f 3e
       0.20873387 -0.31597528 0.21794315 0.17106357
0003d0 9d 5d 8a be de ee 88 3e 22 f5 45 3e 4b d2 bb 3e
       -0.27024546 0.2674474 0.19331792 0.36683878
0003e0 5e 89 05 be 96 b4 0a be 78 1a 40 be ea 5a 6c 3c
       -0.13040683 -0.1354545 -0.18760097 0.0144259725
0003f0 6b bc 87 be d1 e7 51 bd c0 de a1 3e ee f3 43 3e
       -0.2651094 -0.051246468 0.31615257 0.1913602

z_k.mlp.0.bias f4 [10]
000000 0a 2c 66 bf cb c8 87 bc d3 4b 98 be 47 e1 6e be
       -0.8991095 -0.016575238 -0.2974535 -0.23328124
000010 ed 0c 70 bd 3c d6 1c be 25 55 d7 be 05 d5 24 be
       -0.058606077 -0.15316099 -0.42057148 -0.16096886
000020 75 b8 04 be c8 ab 1b bf
       -0.1296099 -0.6080899

r_k.mlp.0.weight f4 [10, 33]
000000 3f b0 a2 bd c3 5c 77 be 7e fb ea 3d 1b c7 cd 3e
       -0.079437725 -0.2415648 0.114737496 0.40190968
000010 35 8b 76 be c7 fa f0 3e 2d 5b d9 bc 67 78 08 3e
       -0.24076541 0.47066328 -0.026532734 0.1332718
000020 8a 48 80 be 36 12 bf 3d e1 2a 13 bf 53 05 9f be
       -0.25055343 0.09329645 -0.57487303 -0.3105875
000030 cc 4c bc bc 8b 60 e0 bd af 29 b8 be 58 92 a4 3e
       -0.022985838 -0.10955914 -0.35969302 0.321429
000040 d8 eb c7 be 92 84 14 3f 7b c1 81 3e 14 e4 5b be
       -0.39047122 0.58014786 0.25342926 -0.21473724
000050 ca 9c fe 3d aa 22 86 be e6 53 fb bc 07 38 c1 be
       0.12432249 -0.26198322 -0.030679654 -0.37738058
000060 c0 bb 1a 3f 16 da ee be 41 83 69 3d 7d e2 b7 3e
       0.60442734 -0.4665076 0.05700994 0.35914984
000070 9c 23 e6 be c5 56 fd be b0 cb 32 be b3 67 b3 be
       -0.44949043 -0.49480262 -0.17460513 -0.35040054
000080 72 96 93 3e 0c 15 a5 be 3b d1 33 be a1 78 ff 3e
       0.28825718 -0.3224262 -0.17560284 0.4989672
000090 3b b1 12 3f cb cf 35 3e 80 f8 2b be 40 e2 81 be
       0.5730168 0.17755048 -0.16794014 -0.25367928
0000a0 f7 a9 f8 be 23 2f 80 be 04 6c 9c 3f 17 cc dc bd
       -0.48567173 -0.25035962 1.2220464 -0.107811145
0000b0 5a 55 10 bd d7 d6 84 3e 90 f8 da 3d f7 a5 3e bf
       -0.035237648 0.2594516 0.10691941 -0.7447199
0000c0 b6 af e3 3e d4 76 09 be e1 29 05 bf b4 ee 88 be
       0.44469994 -0.13424236 -0.5201703 -0.26744616
0000d0 86 04 09 3e 00 28 ee 3d 64 71 a9 3d fc 6e 4f be
       0.13380632 0.11628723 0.08273581 -0.20257181
0000e0 00 92 60 bf d8 a9 8d 3e 27 a3 bc be 23 b1 64 3b
       -0.8772278 0.27668643 -0.36843225 0.003489562
0000f0 08 5f 06 3e 4a b2 04 3f 95 3c 24 3e b7 36 28 bd
       0.13122189 0.5183455 0.16038735 -0.041067805
000100 52 97 7e 3e 13 3e 12 be 38 87 ba be a2 ce 7e 3f
       0.24862412 -0.14281492 -0.3643129 0.99534047
000110 bd f6 56 be f0 e4 07 be 81 db 57 be 11 cb de 3d
       -0.2099256 -0.13270926 -0.21079828 0.108785756
000120 7b 10 18 3e 9d 52 b2 be 86 3a a0 3c 61 ab a2 3d
       0.14850037 -0.34828654 0.019559156 0.07942844
000130 63 45 06 3f 85 00 36 bf 5b dd e7 bd 7a ca 71 be
       0.52449626 -0.7109454 -0.11321517 -0.23612395
000140 36 3a cb bf e1 84 29 3f d8 dc e1 3d b6 d8 f7 3d
       -1.587714 0.6621838 0.11028451 0.12101881
000150 5d 15 e5 bb 3e 02 9d bf 36 f3 0e bf c4 67 6f 3e
       -0.006991072 -1.2266309 -0.5583986 0.23379427
000160 2c 57 b4 be 67 6f 5d bb ac 52 07 bf d0 c9 6c 3e
       -0.35222757 -0.0033788325 -0.5286052 0.2312386
000170 21 73 81 3d da e6 5f 3d 13 c1 1a 3e 93 e2 70 3e
       0.06320787 0.054663517 0.15112714 0.23523931
000180 e3 28 89 bf d0 21 05 3e 8e e7 ba 3e e3 e2 60 be
       -1.0715603 0.1300118 0.36504787 -0.2196155
000190 28 d6 0f be 0e 83 6f be 70 3e b8 3e 73 a9 2b bf
       -0.14046538 -0.23389837 0.35985136 -0.67055434
0001a0 5b 27 03 3f 30 9f bc be a1 82 78 be d3 8a 5e 3f
       0.51231927 -0.368402 -0.24268581 0.8693058
0001b0 da f0 d0 3e 6c 11 9e bd f5 95 4c bf dc cb 93 be
       0.40808755 -0.07718167 -0.79916316 -0.2886647
0001c0 06 3e 6f be 10 9e 88 3e a4 7b ce 3d 38 19 e9 be
       -0.23363504 0.26683092 0.10082176 -0.45527053
0001d0 0c aa 38 3e cc 4e a2 3e 5b ed 88 bd 79 9c a7 3e
       0.18033618 0.31700742 -0.06685897 0.32736567
0001e0 07 75 91 bc c7 67 89 3e e8 81 95 3e 5c c6 3f 3e
       -0.017755998 0.26836988 0.29200673 0.18728012
0001f0 9c ad 49 3f 24 d4 2d be 26 33 c3 3e 31 4e ee bd
       0.7878053 -0.16975456 0.3812496 -0.116360076
000200 31 92 2b 3f 3e 6c c6 3d 53 11 90 3e cb d9 14 3e
       0.67019945 0.09688614 0.28138217 0.14536206
000210 4e 5f e2 3e 99 53 0e 3e bf bc 89 bf 07 eb f9 3e
       0.44213337 0.13899077 -1.0760726 0.48812124
000220 c0 bb 4c 3d 92 a2 5c bf 0f 78 1c 3f ee 1a 89 bd
       0.04998374 -0.8618556 0.61120695 -0.066945896
000230 de 34 41 bd e1 bc 0b 3f 3c c9 ae 3e a4 0f c3 3e
       -0.04716956 0.5458508 0.34137905 0.3809787
000240 b1 c3 f6 be 29 ad 3d bf 11 51 82 be d6 0c 9c 3d
       -0.48196176 -0.74092346 -0.25452474 0.07619636
000250 05 ca 07 3e 93 30 07 be d2 d8 eb 3e 55 74 26 bf
       0.13260658 -0.13202123 0.46063858 -0.6502126
000260 49 b1 ca 3e 0b f7 b4 bc ac 88 a9 3e 6b 9d 15 3e
       0.39588383 -0.022090456 0.33112085 0.14610831
000270 46 c4 49 bf f0 36 4c 3d 08 ed 72 3e a5 73 37 be
       -0.78815114 0.04985708 0.23723233 -0.17915209
000280 0f ce 05 be 8c 42 81 3e 91 35 e0 3e a3 e5 3a be
       -0.13066886 0.25246084 0.43790868 -0.18251662
000290 d6 ce 7c 3e 40 41 02 bf 67 17 b3 be 8e 4a 16 3f
       0.24688277 -0.50880814 -0.34978792 0.5870751
0002a0 be 05 bb 3e 00 de 02 bf 50 87 f4 3e 94 ca 84 bf
       0.36527818 -0.51119995 0.47759485 -1.0374322
0002b0 e3 51 07 bf e3 fb a8 3f 29 2a 8a 3f 20 54 04 be
       -0.52859324 1.320187 1.0794116 -0.12922716
0002c0 4e 1b ca be fd c2 d0 bd dc ff 25 bd f7 ba 03 3e
       -0.39473957 -0.10193441 -0.04052721 0.1286429
0002d0 b7 0e 02 3e 44 c5 c1 be a0 e1 ac bd 1a 09 93 bf
       0.12700926 -0.37845814 -0.08441472 -1.1487153
0002e0 87 6e 2e 3f e5 f6 b5 3e 30 5d 6f bf b8 a9 28 be
       0.681374 0.35539928 -0.9350157 -0.16470993
0002f0 c4 35 87 3f 3c 92 d8 3e 7c 21 fa 3e 6d c7 f3 bd
       1.0563283 0.42299068 0.48853672 -0.11903272
000300 ac e1 80 3e c8 32 f5 3e 0e da c8 bd bf b8 da bd
       0.25172174 0.47890306 -0.09807216 -0.10679769
000310 88 e9 2b be 1c 01 a1 3d a3 61 ae bd 7a b4 02 bf
       -0.16788304 0.0786154 -0.085147165 -0.51056635
000320 a8 e4 20 bf c8 b4 3d 3f 9d 36 b1 be 0d b7 b3 be
       -0.628489 0.74103975 -0.3461198 -0.35100594
000330 2e 29 21 bf 85 b5 0a bf 6d 06 63 be c3 a2 80 3f
       -0.6295346 -0.54183227 -0.2217042 1.0049671
000340 36 0a 4d 3e 76 6f 2c bd 60 0f c8 bd f6 ab a1 be
       0.20023426 -0.042098485 -0.097685575 -0.31576508
000350 72 24 a2 3e 28 60 e9 3c 1e a5 90 3e 97 4e a1 3f
       0.3166843 0.028488234 0.28250974 1.2602109
000360 cd c7 0e bf 7e 7f 17 3f 06 39 62 3e 44 f7 43 3e
       -0.5577362 0.5917891 0.22092065 0.19137293
000370 a1 ce 84 bd d3 f9 ad be ad dd 6a 3e d4 e5 63 be
       -0.06484724 -0.33979663 0.22936125 -0.22255641
000380 e7 9b 60 3e e6 56 f5 bd 25 13 1c 3e 8a c4 e4 3e
       0.21934472 -0.11979465 0.15241678 0.44681197
000390 18 e7 a1 be 10 5a b1 3e cd 80 9a bd 50 d8 fe 3d
       -0.31621623 0.34639025 -0.07544098 0.12443602
0003a0 b2 fc 07 3f b1 48 92 be ac f4 ce 3d 7b bb 97 3e
       0.5311996 -0.28571084 0.10105261 0.29635224
0003b0 22 05 28 bd cb 20 84 3e 93 e8 c0 be 83 ed ab be
       -0.04102052 0.2580627 -0.3767744 -0.33579645
0003c0 9d 5b 95 3e 24 35 d8 3e 57 44 53 bd 80 50 54 3d
       0.29171458 0.42228043 -0.051578846 0.051834583
0003d0 3d a6 09 bc 35 47 21 3c 23 71 c0 3e cd 81 6b be
       -0.008401451 0.009843637 0.37586316 -0.22998734
0003e0 a8 c5 7f bf 72 ef 86 3d c2 8a c1 bf 98 de f7 3e
       -0.99910975 0.06588639 -1.512047 0.48412013
0003f0 f6 c9 88 3d 4d b1 e8 3d 78 03 bc 3e 28 e1 e6 be
       0.06679146 0.113619424 0.36721396 -0.45093656

r_k.mlp.0.bias f4 [10]
000000 c3 5c 2c be bb cc 12 3e 53 e5 e5 3e 87 86 8d 3e
       -0.16832261 0.14335911 0.44901523 0.276417
000010 e5 63 5f be 6a 05 c9 3e b6 f8 9f bc 6f 46 e0 3d
       -0.2181545 0.39261943 -0.019527774 0.10950934
000020 3c fe e5 be c3 d4 ff 3d
       -0.44920528 0.12491753

correction.mlp.0.weight f4 [10, 33]
000000 b6 90 68 be 1b d3 c6 3e 2f c7 46 3d 2f f5 00 bf
       -0.22711453 0.38832936 0.0485298 -0.5037412
000010 8b 7b 42 3e 1b cd 83 3e fc 90 9a 3e 09 b5 c2 bc
       0.1899244 0.2574242 0.3018874 -0.023767965
000020 2a 86 5a be da 3a 01 be 11 b4 98 bd ab c3 86 be
       -0.21340242 -0.12620106 -0.0745622 -0.26321158
000030 9c 39 5c be 38 64 ad 3e fd a5 9c bd e6 89 5b be
       -0.21506351 0.33865523 -0.07648847 -0.21439323
000040 3a 50 65 be c7 eb 0e 3e 56 b7 56 3e c3 71 9e 3d
       -0.22393885 0.1395713 0.20968375 0.07736542
000050 df cd eb 3d 73 88 ec be c8 b7 da 3e e2 64 e3 3e
       0.11513876 -0.46197852 0.4271834 0.44412905
000060 2b 71 96 bd 82 02 7c 3d ae 5c 05 3e 5e a9 e4 bc
       -0.07345804 0.06152583 0.13023636 -0.027912792
000070 2b 7f fb be e9 be 6d be 05 c8 7f be 4d ec f6 3d
       -0.4912046 -0.23217358 -0.24978645 0.120567895
000080 a6 4d 2d 3e 7c 8b b8 be bf 1b 85 be 1d 33 a1 be
       0.16924152 -0.36043918 -0.2599773 -0.3148431
000090 fa 1c 95 3d 49 65 8b 3e 09 4e 16 3e d5 4c 89 3f
       0.072809175 0.27225712 0.14678206 1.0726572
0000a0 42 8b 69 be 3b 2e 97 3c 30 8c ff 3e 96 af 0c 3e
       -0.22807029 0.018454662 0.49911642 0.13738856
0000b0 4b 8b 80 be f9 a3 61 3d 19 25 04 bf 30 a0 e4 bd
       -0.25106272 0.055088017 -0.51619107 -0.11163366
0000c0 12 f2 61 be 7c 09 8f bd b0 8a 9b 3e 47 e9 08 3a
       -0.22064999 -0.06984231 0.30379248 0.00052227493
0000d0 7a 2b 5b 3f 97 84 cf be 82 ba b3 3e a1 0f 8e 3e
       0.85613215 -0.40530846 0.35103232 0.277463
0000e0 14 fa af 3d 68 9f 40 3e 62 b9 dd bd 1a 43 cc 3d
       0.085926205 0.18810809 -0.108263746 0.09973736
0000f0 f3 72 70 be dd bf 68 3d 0f 89 15 be bd bf b8 bc
       -0.2348135 0.0568236 -0.14603065 -0.022552365
000100 5e 41 83 3e b6 a3 7b be 85 c8 ba 3e 16 9a a5 be
       0.2563581 -0.2457417 0.3648111 -0.3234412
000110 ab da 82 bf ac 7a e3 3e 68 df 8a 3e 93 4e 87 bd
       -1.0222982 0.4442953 0.2712357 -0.06606784
000120 8a 3a 06 bf d8 7d 02 3f 81 9f 83 3d 48 ca 21 be
       -0.52433074 0.5097327 0.06426907 -0.1579982
000130 e1 28 44 bd 98 5f 79 be 66 35 d3 be 93 34 39 3e
       -0.047890548 -0.24352872 -0.41251677 0.18086462
000140 aa 52 bf 3e 58 38 90 be a6 ad 6e 3e 9e fc 4f be
       0.37367755 -0.28167987 0.23308429 -0.2031121
000150 3d 00 66 bd bc 09 8c be 08 1d 1c bd dc e5 a5 be
       -0.05615257 -0.27351177 -0.038113624 -0.3240193
000160 6f 78 29 3e a5 12 e5 bd 55 42 18 bf 7d 43 34 be
       0.16549848 -0.11185197 -0.59476215 -0.1760387
000170 ff 9a e1 be 08 67 a7 be 3a 9f 88 3e 8a ca 5f 3e
       -0.44063565 -0.32695794 0.2668398 0.21854606
000180 f2 1a b5 bd c2 63 07 bd e2 56 9b bd 36 af 17 3f
       -0.0884303 -0.03305412 -0.07584931 0.59251726
000190 bf fc 35 bd 24 f0 b8 bd 35 5e 49 bf 58 e2 3c 3e
       -0.04443049 -0.09030178 -0.78659374 0.18445718
0001a0 45 04 1e bf 27 a1 b3 bd de 7d c9 be 38 ba c3 bd
       -0.61725265 -0.08770972 -0.39353842 -0.09557003
0001b0 d5 06 af 3e 5b 55 c3 bd f7 fa 7c 3e e4 87 c7 3d
       0.341849 -0.09537765 0.2470511 0.09742716
0001c0 f8 a9 75 be c1 15 cb 3d d6 01 ce 3e 9d 40 80 3c
       -0.23990619 0.099162586 0.40235776 0.01565581
0001d0 87 28 70 be 65 4c 48 3e 3f 3e 85 be 7b 10 92 be
       -0.2345296 0.19560392 -0.26024053 -0.285282
0001e0 b0 7e 8e be 38 8f 91 bd 6c 24 87 bd ab 35 34 be
       -0.2783103 -0.07107395 -0.06598744 -0.17598598
0001f0 57 4c 88 3e a6 e6 bc 3e fd e5 a8 3c b5 48 f7 be
       0.26620743 0.3689472 0.02061748 -0.4829766
000200 6f b6 9b 3e a1 b3 31 be 27 01 f2 3d a4 cb b9 3e
       0.30412623 -0.17353679 0.11816626 0.36288178
000210 f9 d3 2d bf 78 4f cf be fe db c7 bd 06 6c 8d 3e
       -0.6790157 -0.40490317 -0.09758757 0.27621478
000220 4f 3b 14 bf ff 64 d4 be 4a c9 2c 3e 4c fb f5 bb
       -0.57903 -0.41483304 0.1687366 -0.0075067636
000230 4e f8 40 bd 7b 83 b1 3e 55 46 b0 bd 74 ac a9 be
       -0.0471118 0.34670624 -0.08607165 -0.33139384
000240 4f 2a 25 3e e5 34 51 3e ce aa 15 3e 68 91 2c be
       0.1612942 0.20430334 0.14615938 -0.16852343
000250 d1 28 9e bd 83 1c 99 3e 54 b9 b4 be 2d 91 af be
       -0.07722629 0.29904565 -0.35297644 -0.34290448
000260 c1 a1 80 be 25 92 23 bd 4d 3c c1 bd 84 01 14 be
       -0.25123408 -0.039934296 -0.094353296 -0.14453703
000270 32 2c 9f bd 9a 42 c5 bd 8c 7f f7 bd f8 13 29 3e
       -0.077721015 -0.09631844 -0.120848745 0.16511524
000280 1d 58 82 bd 32 05 bd 3e 39 3f 58 be 14 77 22 be
       -0.063644625 0.36918026 -0.21117868 -0.15865737
000290 37 f6 5f be ee 4f fb 3e 15 22 dd 3f 85 2e c5 be
       -0.21871267 0.4908442 1.7276026 -0.38512054
0002a0 f3 30 37 bf a5 a5 ae be 56 d4 b0 3e 6b 57 e9 bd
       -0.71559066 -0.34110752 0.34537 -0.11393627
0002b0 0a 11 6e bf 7e 57 c5 3e 4f 65 79 be 3a 9d c1 be
       -0.9299475 0.38543314 -0.24355052 -0.37815267
0002c0 f8 64 0d 3e 63 9c 9a bd 84 c6 d6 be 5b 1e 0b bc
       0.13808048 -0.0754936 -0.4194833 -0.008491124
0002d0 3d 4c c7 be 73 8f a7 3e 9e c0 c4 3d b8 59 e0 3d
       -0.38925353 0.3272663 0.09607051 0.109546125
0002e0 00 99 80 be 0f 72 bf be 7d ec f4 bc 52 ae aa be
       -0.2511673 -0.37391707 -0.029897923 -0.3333612
0002f0 db ad 08 bd bc 6d ca be 05 a1 9f bc 96 cd 44 3e
       -0.033368926 -0.39536846 -0.01948596 0.1921905
000300 66 63 9c bd 2c 48 ad 3d 8a 9e 36 3e c6 9b 49 be
       -0.07636146 0.08461031 0.17833915 -0.19688329
000310 cc 11 b0 be da 1a 8d bd eb 5a 12 3e 35 cd e9 be
       -0.34388578 -0.06889887 0.14292495 -0.45664373
000320 77 cf bd bd 54 76 b2 be ce ed 78 3d 6a 7d 03 be
       -0.092680864 -0.34855902 0.060773663 -0.1284081
000330 e6 2e 1e bf 80 a0 04 3e 2d 99 12 3f 40 f1 e2 be
       -0.6179031 0.12951851 0.5726498 -0.44324684
000340 64 46 f9 bc c1 fc a3 be 0b 73 1a 3e bb 90 6c be
       -0.030429073 -0.32028773 0.15082948 -0.23102085
000350 c1 4a 08 be 48 0a 14 3e c2 1c 3e 3d 49 48 ae be
       -0.13309766 0.14457047 0.046414144 -0.34039524
000360 b0 86 71 3e ae 41 42 3f 23 2a d0 bc 45 d1 1e 3d
       0.23586535 0.7588147 -0.025410717 0.038773794
000370 61 e0 3e bd 4d 5f 4e be 1a 59 b3 be dc 22 9c bd
       -0.046600703 -0.20153542 -0.35028917 -0.076238364
000380 a4 46 6c be a0 a7 b5 be 41 af a4 be ee e9 29 3d
       -0.23073822 -0.3547945 -0.32164958 0.04148286
000390 ba 3d 15 3c 07 9d bd be 3c b6 7a 3d 40 7b 01 3e
       0.009108955 -0.37033865 0.06120895 0.12644672
0003a0 91 88 2c 3f 05 46 ef 3e 9c 5c a8 bd 5a 1c a8 bd
       0.67395884 0.46733108 -0.08220789 -0.08208533
0003b0 5f 29 00 bf 69 92 c3 3e c6 31 33 bf ef 20 cb 3d
       -0.5006313 0.3819764 -0.69997823 0.09918391
0003c0 d1 d1 23 be f7 73 c5 3e 6a ea 00 3e 9c b4 33 3e
       -0.15998007 0.38565037 0.12589422 0.17549366
0003d0 57 30 6f be 1e 0f 46 3e 25 0b 02 3f d9 c8 2f 3e
       -0.23358284 0.19341704 0.50798255 0.17166461
0003e0 c1 be 41 3d a6 2d d7 3d ab d6 7a 3b 70 43 40 3e
       0.047301058 0.105067536 0.0038274925 0.18775725
0003f0 f0 af 86 3d 93 88 05 3d 9e c1 e8 3c 2f 06 87 be
       0.06576526 0.03260095 0.028412636 -0.26371905

correction.mlp.0.bias f4 [10]
000000 8a ca 0b 3d 73 5c 59 3d ea 43 53 3e 4f bd e4 3d
       0.034128703 0.053066682 0.20631376 0.1116892
000010 c8 fc 9d 3e 71 14 1f be da 07 19 bd 0b 59 fb bc
       0.3085692 -0.15535142 -0.037361003 -0.030682107
000020 28 45 0f 3e 2e 13 86 be
       0.13991225 -0.26186508

phi_neumann.mlp.mlp.0.weight f4 [10, 23]
000000 b6 cf 10 bf 51 7d ca 3e 1f b2 e3 3c c6 ba 6d be
       -0.5656694 0.39548734 0.027794896 -0.2321578
000010 75 6f 8c 3d 4a 9d a8 3e e7 7f 88 be 7d 50 10 be
       0.06857196 0.32932502 -0.26660082 -0.14093204
000020 44 f3 79 3e f2 9e 22 3d 94 60 dd bd 0b 2b 7b 3c
       0.24409205 0.039702363 -0.108094364 0.015330086
000030 52 96 e5 3c cc 61 39 bf 84 cc 04 be 1a 74 a4 bd
       0.02802578 -0.7241485 -0.12968642 -0.08029957
000040 0d e6 20 3f d4 ec 92 3d f8 b9 52 be ca 68 aa bd
       0.6285103 0.07174078 -0.20578754 -0.08320768
000050 15 d9 61 bb cd 77 0b 3e b4 1c 4c 3e 91 2e b5 3e
       -0.0034461666 0.13619919 0.19932824 0.3538709
000060 1e 45 02 be 42 6c 87 3e 7c 29 98 3e 02 3f fb be
       -0.12721679 0.26449782 0.2971915 -0.4907151
000070 d8 92 11 3d ac ed 02 bf 0f 91 b0 3d 75 36 b0 3d
       0.03554043 -0.5114391 0.08621418 0.08604137
000080 29 23 81 3e 35 f0 32 3d 8f 61 4f 3e 67 a3 d9 bd
       0.25222138 0.04368611 0.2025206 -0.1062687
000090 74 9b c6 be dc 18 9f 3e 02 18 cc bd a5 18 46 3e
       -0.38790476 0.31073654 -0.099655166 0.19345339
0000a0 8c 94 32 be 50 e7 de bd 79 52 bf be aa d5 95 bb
       -0.17439479 -0.10883963 -0.3736761 -0.00457259
0000b0 76 d6 64 3d 2c d4 46 3d 84 6c 81 be 71 80 20 3f
       0.05586859 0.048542187 -0.25278103 0.62695986
0000c0 0e f5 8c be 08 20 27 3e 82 92 2d 3f 4d f5 43 3e
       -0.27530712 0.16320813 0.6780168 0.19136544
0000d0 8c 78 df bd eb e2 d2 3e 28 21 f0 be dc 9f d2 be
       -0.10911664 0.4118875 -0.46900296 -0.41137588
0000e0 9e 99 0e bf 8c 79 4e be 2c 6b 31 3b e3 5c b6 3e
       -0.5570315 -0.20163554 0.0027071936 0.35617742
0000f0 cf 6b 9a 3d 60 cb ec bc b0 77 63 bf 23 cb 58 3f
       0.07540094 -0.02890557 -0.88854504 0.8468496
000100 70 a4 81 be 61 de 93 3e 95 c7 16 be 09 37 90 be
       -0.25320768 0.288806 -0.14724572 -0.28166988
000110 70 e8 ab 3e 41 b3 11 3e 8e de 45 3e 72 fd 96 3c
       0.33575773 0.14228536 0.19323179 0.018431399
000120 7d da 2d 3e cb a9 89 bd af b4 08 3e 63 e9 51 bf
       0.16977878 -0.067218386 0.13350175 -0.81996745
000130 75 02 5d 3d 8f 39 e1 3e 1e 97 ea bd 39 d5 1f 3e
       0.05395742 0.43989226 -0.114546046 0.15608682
000140 c7 5e be 3d 12 45 69 3d 5b 6e 62 3e 76 9c 30 3d
       0.09295421 0.056950636 0.2211241 0.043117963
000150 a0 70 99 3e 9a 22 0e be bd 02 81 3d 72 50 60 be
       0.2996874 -0.13880387 0.062993504 -0.21905687
000160 14 7a 6b 3d 67 81 c8 bd 2e 27 4b be 64 ca b7 3d
       0.05748947 -0.097903065 -0.19839165 0.0897415
000170 c8 ee d3 be 31 d7 99 3d e3 69 05 be 0c da d4 bd
       -0.41393113 0.07511748 -0.13028674 -0.10393152
000180 d4 e2 00 3e a2 d7 22 bf e2 d9 4e 3d 64 33 24 bf
       0.12586528 -0.6361028 0.050500758 -0.64140916
000190 62 19 f5 3d 77 5e aa bb 4c 2d 0a 3f 59 db a1 be
       0.11967732 -0.0051992494 0.5397537 -0.3161266
0001a0 d8 8b 8c 3e c6 0e b3 be 81 50 cf bd 92 01 29 bf
       0.27450442 -0.3497221 -0.10122777 -0.6601802
0001b0 e4 dd 16 bf f6 d4 99 3e 3f ae 17 3e ec 9b bb 3e
       -0.5893233 0.3004529 0.14812563 0.36642396
0001c0 6e 6d a4 3d bb da 84 bd 7b d2 c8 bd 89 52 ab 3e
       0.080286846 -0.06487032 -0.09805771 0.33461407
0001d0 81 fd 72 be c0 13 5e be df cc aa 3e f7 3e a4 3e
       -0.23729517 -0.21687222 0.3335943 0.32079288
0001e0 ce cd 1d 3e 73 b5 c2 3e fa f8 80 3e 7c 5e a9 3d
       0.1541054 0.3802906 0.25189954 0.082699746
0001f0 93 25 89 be b5 76 89 be 9c 4a e1 3e 65 0e bc 3d
       -0.2678648 -0.2684838 0.44002235 0.09182433
000200 c9 fb a0 be 27 ef 8e be ca e4 f9 be 6a fd fb 3c
       -0.31442097 -0.27916834 -0.48807365 0.030760486
000210 4f a8 09 be 3d 43 3c be ac 01 dd bc fb 92 9c 3d
       -0.13443111 -0.18385024 -0.026978336 0.07645222
000220 9d 1c dd 3d c5 33 26 3e a8 23 89 3e 33 02 b0 3e
       0.10796473 0.16230686 0.26785016 0.34376678
000230 d7 3b 5e bc 84 2b 6d 3e c7 d1 23 3f a1 97 48 bf
       -0.013564072 0.23161131 0.6399197 -0.7835637
000240 b5 93 ac be df d2 0a be dc 64 e7 bd 03 09 f9 be
       -0.33706442 -0.13557003 -0.11298534 -0.48639688
000250 04 7a 01 3e 3a d0 2c be 94 bc d1 be 5b 4a 82 3e
       0.12644202 -0.16876307 -0.40964186 0.25447354
000260 0b 55 38 be 18 82 cd 3e 98 fa 86 3e ff 60 1e bf
       -0.18001191 0.40138316 0.26363063 -0.61866754
000270 4c 93 b3 bd b6 ea 42 3e 26 9a 27 3d 2d bf 54 bd
       -0.08768329 0.19034848 0.04091849 -0.051940132
000280 dc 87 16 3e f9 34 97 3e 74 aa 9e be d8 e9 d0 be
       0.14700264 0.29532602 -0.3098942 -0.4080341
000290 ee 0a fb 3d 44 7b ca be d1 71 92 3e af 16 be bb
       0.12257944 -0.3954717 0.2860246 -0.005801044
0002a0 26 41 8d 3e c9 28 c1 be 7a 9a 4e be 3a 9d df 3e
       0.27588767 -0.3772643 -0.20176116 0.43674642
0002b0 5c f3 91 be 88 43 d6 be 4d 58 00 3f 62 da 8d be
       -0.2850598 -0.41848397 0.50134736 -0.27705675
0002c0 54 c0 b7 bd 21 ff 9e be cc 45 91 be 46 71 c6 3e
       -0.089722306 -0.31054023 -0.28373563 0.38758296
0002d0 45 f4 68 3e 65 df 09 be c3 5e d6 3c f1 25 a8 3c
       0.22749431 -0.13464125 0.026168233 0.020525904
0002e0 cf 67 9d 3d 5b 4d 7a 3e f1 78 2a be c4 b4 e0 3d
       0.076858155 0.24443571 -0.16647698 0.10971978
0002f0 d0 7c b8 3e c4 1b c7 3e aa 2e ac 3e 76 aa ae 3e
       0.36032724 0.3888837 0.33629352 0.34114426
000300 62 f5 4e be 10 d4 c1 3d 8d f4 74 3e 85 f1 88 3e
       -0.20210794 0.09464276 0.23921414 0.26746765
000310 62 a1 35 3e 70 f9 00 3f 50 ac 12 3f 84 c5 0e 3d
       0.17737344 0.5038061 0.5729418 0.034856334
000320 5a c6 2b bd 01 ab e1 3e 9e b5 87 bb 68 e6 54 3e
       -0.04193721 0.44075778 -0.0041415235 0.20791018
000330 88 03 74 3d a8 1b c9 bd af d8 51 3e 8b 1d 31 be
       0.05957368 -0.09819728 0.20492814 -0.17296426
000340 dd e1 86 3e af 19 c4 be 7b 9a 15 bf d8 f8 a4 be
       0.26344195 -0.38300845 -0.58438843 -0.32221103
000350 8c 8c 6a 3e 28 66 ff 3e 67 07 da bc 98 fa d1 be
       0.22905177 0.49882627 -0.026614858 -0.410115
000360 e6 c4 17 bf fe 89 d5 3e 6a ea 47 be e8 70 cd 3d
       -0.5928482 0.41706842 -0.19523016 0.10031301
000370 0b 3b 36 3e 59 2e 17 bf 7b ad 15 3e 71 7f 9f be
       0.1779596 -0.59055096 0.14616959 -0.31151918
000380 34 61 6d bd ee 91 a9 bd 9f 98 07 3f 42 bb fe 3c
       -0.05795403 -0.08279787 0.52967256 0.03109515
000390 ec 18 76 bd 1c 07 63 3e
       -0.06008236 0.22170681

phi_neumann.mlp.mlp.0.bias f4 [10]
000000 e4 01 8d 3d b7 1a 9a bc 87 7a 41 3e c6 87 e5 3e
       0.06885126 -0.018811567 0.18894397 0.4483015
000010 94 91 2c be 93 ff 91 bd f9 59 cf 3e 0c 92 94 3d
       -0.16852409 -0.07128825 0.4049833 0.07254419
000020 41 ae f3 3d 6d da f0 3d
       0.11898471 0.117604114

phi_neumann.mlp.mlp.2.weight f4 [10, 10]
000000 66 b6 5f 3d 4b 05 1f 3f 55 a7 05 bd 80 b4 02 3e
       0.054617308 0.6211745 -0.032630283 0.12764168
000010 4c e0 ed bd df 6a ad be c3 a0 1d 3d 7d a1 a7 3b
       -0.11615047 -0.338706 0.038483392 0.0051156865
000020 68 3f 88 3e 70 be 7f 3d 32 47 ca be 9f da fd bc
       0.26610875 0.062437475 -0.39507443 -0.030988036
000030 a7 0b 05 3f 90 b3 d2 bd 61 c3 01 bf 12 61 26 bf
       0.51970905 -0.10288155 -0.5068875 -0.6499187
000040 a3 f5 ee 3e ed dd bd bd d8 23 28 3e e6 3c f9 be
       0.4667178 -0.092708446 0.16419923 -0.48679274
000050 dd 21 a0 be 8b a7 86 3e 1e f0 24 3f 55 a9 1f be
       -0.31275836 0.262997 0.6442889 -0.15591939
000060 b6 3f b2 bd 1c c6 e1 3e 7f 09 cd be b5 68 21 be
       -0.08703558 0.44096458 -0.40046307 -0.15762599
000070 84 16 fc be 19 ec 82 be ad a3 01 3e 77 b5 ea bd
       -0.49235928 -0.25570753 0.12660094 -0.11460393
000080 fb 56 9d 3e 21 98 2b 3e 64 63 cc 3d 21 00 e8 be
       0.30730423 0.16757251 0.09979895 -0.45312598
000090 fd ad 2e 3e 0a b1 9b 3e cb ba 50 3e 7b 18 95 be
       0.17058559 0.30408508 0.20383756 -0.2912024
0000a0 34 01 ac 3e 4d a1 ab bd 4d 3e 12 3e 17 6e ae 3e
       0.33594668 -0.08380375 0.14281578 0.34068367
0000b0 f4 93 c4 bd 04 07 82 3e 61 da f9 be 96 8e 49 bc
       -0.09598532 0.25395977 -0.48799422 -0.012302062
0000c0 fc 2f 10 bf 0f 23 d7 3c 04 7a 7d 3e a1 6d 67 3e
       -0.5632322 0.026261834 0.24753577 0.22600414
0000d0 12 d7 88 be d8 90 f6 be a1 e4 4e 3e 83 c1 13 3f
       -0.26726586 -0.48157382 0.20204403 0.5771715
0000e0 e8 bf 82 3e e1 5d f3 3b 9a cd 4e 3e 07 f5 1d 3f
       0.25537038 0.0074269627 0.20195618 0.6170201
0000f0 52 ac 0a 3e 65 71 b3 3e a2 5c 9f be 4d 4f 84 be
       0.13542297 0.3504745 -0.3112536 -0.25841752
000100 64 8c ef be 4a d8 1e 3d fc a5 25 3e 6b 66 19 3f
       -0.46786797 0.038780488 0.161766 0.599219
000110 54 1f 00 3e bf c2 01 3f 15 bc 0b bf cd 56 65 3e
       0.1251195 0.50687784 -0.54583865 0.22396393
000120 8e 48 ff 3e 0e 3d c7 3e b9 18 d1 bd a9 0e ee be
       0.49860042 0.3891377 -0.102097936 -0.4649556
000130 60 f9 c7 be 89 76 db 3e 3e 65 2e 3d 8c e4 a2 bb
       -0.39057446 0.42863873 0.04257702 -0.0049710926
000140 ef 91 20 3f ef ac ef 3e 96 0b 04 3f c8 4a f1 bd
       0.62722677 0.46811625 0.5158018 -0.117818415
000150 66 1c d6 3e c8 91 09 3f da 93 29 be c1 4b ca 3c
       0.4181854 0.5373807 -0.16560307 0.024694325
000160 b2 6b 03 be dc 46 fd bd 7e 7a 85 3d d6 51 12 be
       -0.12834051 -0.12367031 0.06517504 -0.1428903
000170 ab ca 34 3f 19 76 22 3d e6 8b 25 bf 25 ff ee be
       0.70621747 0.039663408 -0.64666593 -0.46679035
000180 04 e7 24 3e ef f6 87 be bb 69 e0 3d e7 95 f1 be
       0.1610375 -0.26555583 0.109576665 -0.4718468
