mixed/dsgps/results/50_ite_lamb_0_001_gamma_1/ckpt/best_model.pt (torch, 95749 bytes, 93 tensors)

laynorm.weight f4 [10]
1.0 1.0 1.0 1.0 1.0 1.0 1.0 1.0
1.0 1.0
00000000: 0000 803f 0000 803f 0000 803f 0000 803f
00000010: 0000 803f 0000 803f 0000 803f 0000 803f
00000020: 0000 803f 0000 803f

laynorm.bias f4 [10]
0.0 0.0 0.0 0.0 0.0 0.0 0.0 0.0
0.0 0.0
00000000: 0000 0000 0000 0000 0000 0000 0000 0000
00000010: 0000 0000 0000 0000 0000 0000 0000 0000
00000020: 0000 0000 0000 0000

phi_to.mlp.mlp.0.weight f4 [10, 23]
-0.72128123 0.13390817 1.1207519 -0.15683308 -0.6922775 0.4379075 0.07456586 -0.2488259
0.17094865 -0.4876728 -0.21686576 -0.23323533 -0.07290784 0.22620384 -0.04001874 -0.04837719
-0.04960859 -0.21132262 -0.10044774 -0.2227983 0.0021040824 -0.0011832437 0.20137057 -0.58583844
-0.33047318 -0.40260464 -0.0825035 -0.30737627 -0.45553425 0.23470062 -0.9157088 0.24579278
-0.49945688 -0.20198777 0.17345975 0.28852096 -0.18601768 0.07243301 -0.16219962 -0.24287994
0.47129738 -0.1697903 0.1423411 -0.0031084786 -0.00060964667 -0.09360161 -0.33893517 -0.1255487
-0.23424117 -0.08174309 0.022601342 0.46859792 0.110632345 1.0838861 -0.02748484 0.15632965
-0.15509862 0.24073866 -0.96717215 -0.1561789 -0.44856757 0.15657902 -0.1586904 1.0413781
0.3190908 -0.19941962 0.0011310594 -0.0022817368 -0.07704613 -0.05677984 -0.22327113 -0.43489647
0.1308522 -0.047823567 -0.32546133 -0.12063053 0.0013538646 0.27372086 -0.09162842 -0.05531322
0.28846908 -0.6782196 -0.27463713 0.83987486 -0.26684114 -0.11844817 0.043681648 -0.32394642
0.30203822 0.0009049426 -0.00019505055 -0.11833186 -0.3318078 -0.17426407 -0.30163065 -0.46509314
0.086848244 -0.3774468 -0.6218584 0.2845704 0.0175277 0.043037366 0.088832766 0.23690717
-0.2876971 -0.4142607 -0.025014265 0.062060278 -0.15595314 -0.18077566 -0.053613454 0.37595117
0.00086173817 -0.0004811728 -0.054227486 -0.31029165 0.10702006 0.20631148 -0.1382693 0.1317742
-0.36944023 0.0048415144 -0.27546558 0.49112096 0.1941398 0.30304876 0.092663325 -0.9375747
-0.23531808 0.5712999 0.04139726 -0.12308565 0.2803411 0.07234396 -0.34777004 0.00046513294
-2.2961933e-05 -0.076300755 -0.17409188 0.3568911 -0.52966845 -0.037684314 0.5583742 -0.3926678
-0.14105605 0.097831406 -0.023438573 0.22813457 0.27456638 0.18219323 -0.83502454 0.31835437
0.24842426 -0.027932152 -0.28384203 -0.09962832 0.07812094 -0.09888428 0.0028892595 0.002373721
-0.17785695 -0.0011368017 0.28145885 0.18947993 -0.2559602 0.52792567 0.121235654 0.028195813
0.026807092 0.18412383 -0.4554662 -0.5082935 0.031135887 0.46606708 0.16226433 0.0086534
0.45779547 0.08264256 -0.4730373 0.19077592 -0.4626139 -0.0028817933 0.0041015595 -0.26636404
0.61978793 0.14185046 1.4348857 0.18128276 0.1308538 0.30250594 0.29591018 -0.01545276
0.0016316294 -0.58574706 -0.25743094 -0.6056759 0.4988354 0.45982483 0.13262928 -0.12552871
-0.023897545 -0.46991804 0.16266292 -0.1417847 0.0034080355 -0.00049376005 0.1427585 -0.100653805
0.73373806 -0.4146741 0.060667917 0.13479772 0.113757305 0.031929493 -0.04728055 0.03581752
-0.068917155 0.28839132 -0.6909612 -0.40757835 -0.040792365 0.053746767 -0.34435415 -0.32732102
-0.26607984 -0.36164582 0.12500872 0.0005242016 0.00032110943 -0.102590166
00000000: e3a5 38bf 391f 093e cc74 8f3f da98 20be
00000010: 1939 31bf 6935 e03e fcb5 983d 37cc 7ebe
00000020: 2a0d 2f3e 40b0 f9be 0f12 5ebe 3ed5 6ebe
00000030: b550 95bd fba1 673e b1ea 23bd 2927 46bd
00000040: 6032 4bbd f564 58be 8bb7 cdbd 3d25 64be
00000050: a5e4 093b 1217 9bba 1634 4e3e 82f9 15bf
00000060: c833 a9be 3222 cebe 98f7 a8bd 6c60 9dbe
00000070: c93b e9be 5c55 703e e46b 6abf 1ab1 7b3e
00000080: d0b8 ffbe e2d5 4ebe 6f9f 313e 05b9 933e
00000090: 6b7b 3ebe c257 943d a817 26be 85b5 78be
000000a0: e44d f13e 82dd 2dbe dec1 113e 9eb7 4bbb
000000b0: b2d0 1fba 33b2 bfbd e988 adbe d78f 00be
000000c0: ebdc 6fbe ec68 a7bd 7326 b93c 11ec ef3e
000000d0: 3693 e23d c8bc 8a3f e327 e1bc e114 203e
000000e0: 2cd2 1ebe 3284 763e 9898 77bf 5ded 1fbe
000000f0: a6aa e5be 4056 203e bc7f 22be e14b 853f
00000100: df5f a33e a834 4cbe 0e40 943a 3189 15bb
00000110: 5dca 9dbd fa91 68bd 30a1 64be c0aa debe
00000120: 1efe 053e a5e2 43bd dea2 a6be 240d f7bd
00000130: 2874 b13a 2425 8c3e aea7 bbbd 1d90 62bd
00000140: 38b2 933e cd9f 2dbf 3d9d 8cbe 0a02 573f
00000150: 679f 88be f494 f2bd 87eb 323d 4edc a5be
00000160: c1a4 9a3e ab39 6d3a 7c86 4cb9 f957 f2bd
00000170: b6e2 a9be 4872 32be 556f 9abe b020 eebe
00000180: 7edd b13d b540 c1be 1d32 1fbf 36b3 913e
00000190: 4096 8f3c f347 303d f4ed b53d cb97 723e
000001a0: 094d 93be fa19 d4be b7ea ccbc eb32 7e3d
000001b0: 2eb2 1fbe 411d 39be c899 5bbd ac7c c03e
000001c0: 45e6 613a ec45 fcb9 a41d 5ebd 8cde 9ebe
000001d0: 552d db3d 5143 533e 7896 0dbe d1ef 063e
000001e0: 4527 bdbe 91a5 9e3b d309 8dbe 3574 fb3e
000001f0: 95cc 463e 3529 9b3e 45c6 bd3d e504 70bf
00000200: 39f7 70be b640 123f 2c90 293d 5414 fcbd
00000210: de88 8f3e 1229 943d ea0e b2be 16dd f339
00000220: 609e c0b7 9243 9cbd 2445 32be 6eba b63e
00000230: 5a98 07bf de5a 1abd 9df1 0e3f c10b c9be
00000240: ff70 10be d55b c83d 4002 c0bc 1c9c 693e
00000250: f793 8c3e dd90 3a3e 2bc4 55bf 58ff a23e
00000260: ee62 7e3e f8d1 e4bc be53 91be ef09 ccbd
00000270: dffd 9f3d d783 cabd bb59 3d3b 6e90 1b3b
00000280: 2220 36be bc00 95ba 601b 903e 0707 423e
00000290: 370d 83be 2326 073f 664a f83d e8fa e63c
000002a0: 8c9a db3c f58a 3c3e de32 e9be 861f 02bf
000002b0: b010 ff3c 58a0 ee3e 9f28 263e fdc6 0d3c
000002c0: 2b64 ea3e 8140 a93d f231 f2be c35a 433e
000002d0: bbdb ecbe 78dc 3cbb 6066 863b de60 88be
000002e0: 6caa 1e3f 3f41 113e 56aa b73f 30a2 393e
000002f0: 8afe 053e 0fe2 9a3e 8a81 973e 932d 7dbc
00000300: 66dc d53a 85f3 15bf fdcd 83be 930d 1bbf
00000310: 5b67 ff3e 296e eb3e f8cf 073e 998a 00be
00000320: c9c4 c3bc 1999 f0be 1c91 263e 0230 11be
00000330: 5959 5f3b ad6f 01ba 492f 123e 9523 cebd
00000340: 42d6 3b3f 2a50 d4be ec7e 783d 6a08 0a3e
00000350: 97f9 e83d 80c8 023d 40a9 41bd 64b5 123d
00000360: 7024 8dbd 07a8 933e d5e2 30bf 1cae d0be
00000370: e515 27bd 9225 5c3d 304f b0be 9f96 a7be
00000380: 9e3b 88be a429 b9be 4902 003e 936a 093a
00000390: 945a a839 cb1a d2bd

phi_to.mlp.mlp.0.bias f4 [10]
0.08001418 0.04416379 0.041649353 -0.0006470332 0.04301059 -0.015822133 0.0045256233 0.107332885
0.022135993 0.05300804
00000000: 79de a33d 17e5 343d 8398 2a3d aa9d 29ba
00000010: df2b 303d 6b9d 81bc ae4b 943b 58d1 db3d
00000020: 8b56 b53c f51e 593d

phi_to.mlp.mlp.2.weight f4 [10, 10]
0.20275787 0.4665124 -0.40991667 0.18849853 0.23423521 0.4855808 0.41278538 0.34329408
-0.5188216 0.0496886 -0.031831104 0.07028264 -0.16758399 0.52774626 -0.09335666 -0.359019
0.30142474 0.03762786 -0.26606554 0.3814032 -0.38124207 0.052139807 0.033103526 -0.1905958
0.14455682 -0.34660232 -0.43752939 -0.10640501 0.7993817 -0.3899004 0.17106123 -0.18577068
-0.050009407 0.5645655 -0.3203437 -0.4187431 -0.034310598 -0.033266302 0.3668332 0.09903614
0.41241285 -0.33538204 -0.47185537 -0.598624 -0.56073254 0.007698412 -0.11906784 0.0035255726
-0.12500688 0.9140165 0.22814342 0.3043203 -0.10767883 0.007626089 0.5453609 0.25909516
-0.17369899 0.18294519 -0.46423554 0.30970058 -0.40883085 -0.48415655 -0.5176696 0.17171377
0.19244725 -0.07360776 -0.03793967 0.16408679 0.2483627 0.5158597 -0.011107444 0.27233022
0.09890319 0.17323412 -0.1851088 -0.05850353 -0.46355075 0.11141721 -0.53320265 -0.6732633
-0.322006 0.28654808 -0.51297677 -0.045533273 0.37979868 -0.1892578 0.4165627 0.002852864
0.05123286 1.1748031 0.2887277 -0.026076334 -0.11165128 0.151015 0.28833497 0.30498052
-0.39327562 -0.44413096 0.18444894 -0.053445425
00000000: c29f 4f3e b7da ee3e 99e0 d1be c205 413e
00000010: 5bdb 6f3e 0c9e f83e 9b58 d33e 3ec4 af3e
00000020: 7ed1 04bf 4686 4b3d 5561 02bd 58f0 8f3d
00000030: 239b 2bbe 611a 073f c731 bfbd 57d1 b7be
00000040: 5854 9a3e ac1f 1a3d be39 88be 4847 c33e
00000050: 2932 c3be 8d90 553d 9097 073d 8c2b 43be
00000060: b406 143e dc75 b1be da03 e0be dfea d9bd
00000070: 47a4 4c3f 06a1 c7be ad2a 2f3e ab3a 3ebe
00000080: aad6 4cbd 5d87 103f 1704 a4be 7f65 d6be
00000090: 4589 0cbd 3f42 08bd 90d1 bb3e 76d3 ca3d
000000a0: c727 d33e 32b7 abbe 0797 f1be 6c3f 19bf
000000b0: 2b8c 0fbf f642 fc3b d7d9 f3bd 4b0d 673b
000000c0: ce01 00be fcfc 693f 6e9e 693e dfcf 9b3e
000000d0: b886 dcbd 45e4 f93b c69c 0b3f 1fa8 843e
000000e0: 26de 31be fc55 3b3e 48b0 edbe 1391 9e3e
000000f0: 4752 d1be 5ee3 f7be ff85 04bf bcd5 2f3e
00000100: e410 453e aabf 96bd a166 1bbd 5e06 283e
00000110: cb52 7e3e 620f 043f fffb 35bc de6e 8b3e
00000120: c18d ca3d 4964 313e 298d 3dbe 66a1 6fbd
00000130: 8656 edbe b52e e43d f87f 08bf fc5a 2cbf
00000140: f8dd a4be 6eb6 923e 7252 03bf 1981 3abd
00000150: f974 c23e cccc 41be b547 d53e 1ef7 3a3b
00000160: 8cd9 513d f35f 963f 1ed4 933e 099e d5bc
00000170: 6da9 e4bd ada3 1a3e a4a0 933e 6826 9c3e
00000180: 6c5b c9be 2265 e3be 2fe0 3c3e 97e9 5abd

phi_to.mlp.mlp.2.bias f4 [10]
-0.058894414 -0.030306963 -0.0019807233 0.09311419 0.008915441 0.032744907 -0.124793865 0.105223134
0.015661716 -0.07074548
00000000: 453b 71bd 4f46 f8bc 06cf 01bb a7b2 be3d
00000010: 1212 123c 861f 063d ed93 ffbd 3a7f d73d
00000020: 004d 803c 02e3 90bd

phi_from.mlp.mlp.0.weight f4 [10, 23]
-0.3654439 -0.35575467 0.46083903 -0.5370291 0.31246594 -0.23759742 -0.17991552 0.48134273
-0.40480906 -0.4433299 -0.07781569 -0.03231402 -0.49794456 -0.37639546 -0.22827777 -0.20011507
-0.4362544 -0.16215768 -0.09471152 0.06253069 -0.0020343738 0.00031876445 -0.019196393 0.14482278
-0.55469656 -0.26106954 -0.26285598 0.63832045 0.48772103 0.095452026 0.24964419 -0.26981568
0.0019895297 0.15779436 0.36364278 -0.5625114 0.35020402 -0.048669413 -0.746513 0.26586094
0.16167517 0.44073012 0.33255845 -4.2982294e-05 0.00093074236 -0.15414646 0.11867722 0.047329303
0.18989457 0.014550217 -0.023870207 0.009322209 0.40496507 -0.35663375 0.35268176 -1.4520147
-0.31844738 -0.10519339 -0.14520666 -0.26883534 0.033342555 -0.089785405 -0.24915998 -0.15407594
0.033190228 -0.84601605 0.00035747793 -0.00065990817 0.004423144 0.3394753 -0.33498445 0.23559813
0.1337237 0.20236209 0.4235639 0.122604206 0.2070348 -0.18227161 -0.38181955 0.1073775
0.40629 -1.2684755 0.065215446 0.052779756 -0.25261873 0.22976041 -0.18404126 0.28649846
1.0212535 0.008523198 -0.0064566173 -0.45696104 0.058591444 0.4494687 -0.44495392 -0.18173586
-0.2959582 0.16493781 0.40779132 0.16800882 -0.17339058 -0.25062492 0.12633839 0.08945324
-0.076643 0.24350566 -0.090299085 0.23733844 -0.389332 -0.39550945 0.43414563 0.38546574
0.0039912974 0.001503059 -0.054428313 -0.2695519 0.16310577 0.1902576 0.44798175 -0.42884672
-0.11500595 -0.55774 0.06420049 0.3462125 0.16285568 -0.19629702 0.4556704 -0.36869037
-0.22842483 0.14382038 -0.040643822 0.37564403 -0.36322832 -0.34709302 -0.12543522 0.0028747777
-0.0001474537 -0.08927083 -0.3639823 0.21548052 -0.79777807 -0.4134767 -0.2344342 0.058281396
-0.57833385 0.1016983 0.06345252 -0.56698066 0.11063563 -0.026132176 -0.38678136 -0.39440766
-0.69617146 -0.20772798 -0.47719684 0.48186922 -0.3204278 -0.7330982 0.0028239717 -0.00088542985
-0.091075495 0.14182101 -0.35472974 -0.21830009 -0.20163918 -0.84095645 -0.06674329 -0.012462893
-0.19124313 0.45592013 0.15450564 0.002814499 0.34367532 -0.56027514 -0.10831322 0.36172688
0.5468263 0.43327978 -0.36481112 0.10660858 -0.082309276 -0.002605106 0.0029303455 0.04005431
0.22693472 -0.48283276 -0.12562129 0.19577539 0.5440913 0.1201977 -0.6977956 0.15463813
-0.4748636 -0.06505094 0.38841692 0.30480966 -0.49759007 -0.57691586 0.45282602 -0.27784476
-0.07940603 -0.2077428 -0.5060767 0.7186615 0.0007863835 -0.0018439145 -0.22482093 -0.28031147
0.058876757 0.23928891 0.08846563 0.18564166 0.11204716 -0.3076931 -0.41252822 -0.6620775
-0.11579065 -0.2773301 0.28533033 -0.27107736 0.100289896 -0.059347846 -0.3315656 -0.33690336
-0.60754764 0.2754557 0.23656517 -0.00014789093 0.0023499336 -0.06869859
00000000: 761b bbbe 7a25 b6be 18f3 eb3e bd7a 09bf
00000010: 89fb 9f3e bd4c 73be c63b 38be 8e72 f63e
00000020: 2243 cfbe 23fc e2be d55d 9fbd b55b 04bd
00000030: 97f2 febe e8b6 c0be a6c1 69be f7ea 4cbe
00000040: bd5c dfbe aa0c 26be 1df8 c1bd 1710 803d
00000050: 2153 05bb d71f a739 c141 9dbc 6c4c 143e
00000060: 9800 0ebf e8aa 85be 0f95 86be f868 233f
00000070: 92b6 f93e 5a7c c33d baa2 7f3e 4825 8abe
00000080: c562 023b d894 213e 632f ba3e bf00 10bf
00000090: f14d b33e 9459 47bd 7a1b 3fbf ed1e 883e
000000a0: 2d8e 253e 61a7 e13e 1a45 aa3e e347 34b8
000000b0: 10fd 733a 92d8 1dbe 0b0d f33d 5fdc 413d
000000c0: b973 423e 0964 6e3c 748b c3bc 2ebc 183c
000000d0: 9557 cf3e b398 b6be b492 b43e 9edb b9bf
000000e0: 890b a3be a26f d7bd 0eb1 14be c9a4 89be
000000f0: 3492 083d 69e1 b7bd cb23 7fbe 15c6 1dbe
00000100: 7af2 073d 8294 58bf e06b bb39 b0fd 2cba
00000110: 05f0 903b b5cf ad3e 1583 abbe a340 713e
00000120: deee 083e 0238 4f3e 5edd d83e ea17 fb3d
00000130: ee00 543e 69a5 3abe da7d c3be bce8 db3d
00000140: 3e05 d03e 685d a2bf ad8f 853d 962f 583d
00000150: 3e57 81be 5046 6b3e 5075 3cbe edaf 923e
00000160: 6fb8 823f e2a4 0b3c 0892 d3bb ccf6 e9be
00000170: 95fd 6f3d c320 e63e 00d1 e3be f718 3abe
00000180: d587 97be 75e5 283e 06ca d03e 810a 2c3e
00000190: 4d8d 31be e951 80be da5e 013e 4333 b73d
000001a0: 01f7 9cbd 8c59 793e baee b8bd d908 733e
000001b0: 8656 c7be 3780 cabe 5648 de3e c45b c53e
000001c0: 6ec9 823b 4a02 c53a 39f0 5ebd b502 8abe
000001d0: 3305 273e e3d2 423e dd5d e53e cc91 dbbe
000001e0: 3d88 ebbd 0cc8 0ebf 8c7b 833d c442 b13e
000001f0: a4c3 263e 1602 49be a14d e93e fcc4 bcbe
00000200: 33e8 69be a645 133e 237a 26bd 6a54 c03e
00000210: 10f9 b9be 2db6 b1be 1772 00be c466 3c3b
00000220: cd9d 1ab9 a0d3 b6bd e35b babe eda6 5c3e
00000230: 2f3b 4cbf 38b3 d3be 850f 70be 79b8 6e3d
00000240: b00d 14bf 3347 d03d 65f3 813d a525 11bf
00000250: ef94 e23d 2513 d6bc 3508 c6be cdef c9be
00000260: 4b38 32bf a5b6 54be 2553 f4be 90b7 f63e
00000270: 1d0f a4be 53ac 3bbf 6212 393b 311c 68ba
00000280: ca85 babd 8739 113e 239f b5be 0f8a 5fbe
00000290: 807a 4ebe ec48 57bf b5b0 88bd 2931 4cbc
000002a0: 3dd5 43be 5d6e e93e ba36 1e3e 7573 383b
000002b0: 36f6 af3e 316e 0fbf 52d3 ddbd 4434 b93e
000002c0: cffc 0b3f d9d6 dd3e 86c8 babe 9955 da3d
000002d0: c491 a8bd 6dba 2abb 0a0b 403b fd0f 243d
000002e0: 9361 683e db35 f7be dea2 00be 5879 483e
000002f0: 9149 0b3f 362a f63d bca2 32bf 7559 1e3e
00000300: 5221 f3be 6d39 85bd 95de c63e 0310 9c3e
00000310: 20c4 febe c2b0 13bf d0d8 e73e ab41 8ebe
00000320: a19f a2bd 87ba 54be 3e8e 01bf 33fa 373f
00000330: 4e25 4e3a 81af f1ba 7537 66be fc84 8fbe
00000340: c128 713d 2708 753e 782d b53d d918 3e3e
00000350: fb78 e53d f389 9dbe e636 d3be e97d 29bf
00000360: a623 edbd 36fe 8dbe d116 923e a7ca 8abe
00000370: ca64 cd3d ba16 73bd f7c2 a9be 997e acbe
00000380: 3e88 1bbf 8808 8d3e 243e 723e 2b13 1bb9
00000390: 5801 1a3b d9b1 8cbd

phi_from.mlp.mlp.0.bias f4 [10]
0.063136935 0.030607453 0.066598155 -0.044744268 0.11617214 0.094469756 -0.009752999 0.050851095
0.07686929 -0.081691794
00000000: f04d 813d 7bbc fa3c 9d64 883d c445 37bd
00000010: a9eb ed3d 5c79 c13d 0bcb 1fbc 3d49 503d
00000020: a56d 9d3d 074e a7bd

phi_from.mlp.mlp.2.weight f4 [10, 10]
-0.49918428 0.056777734 -0.049826324 -0.36599165 0.2880537 0.23095033 -0.6762338 -0.15452802
-0.051529087 -0.21123523 -0.023656743 -0.04978215 -0.3537926 -0.028594105 -0.49132726 0.45339555
0.2366071 0.5820211 0.8976752 -0.14525114 -0.28939617 0.12351163 0.27302995 -0.024977595
-0.27700433 -0.56324655 -0.70173264 0.6076122 -0.4076922 -0.56704843 0.21387921 1.1970552
0.06395348 0.032357857 0.54624563 -0.348118 -0.4144308 -0.09275838 -0.0033488038 0.18587278
-0.2588461 1.2159612 -0.16819547 0.535254 -0.2325962 -0.37697178 -0.2113598 -0.08051556
0.718817 -0.7344639 -0.17997862 0.5392932 0.0666151 -0.31200388 0.5885935 -0.3592025
0.5412415 0.090711966 -0.44288886 0.03452813 0.1580495 0.65222454 -0.17591558 0.24965999
0.024497762 -0.22559 -0.0405235 -0.09278334 -0.14752465 -0.04688604 -0.5877188 0.080363095
-0.03980749 0.749292 -0.18943158 -0.12854545 -0.39451963 -0.40941826 -0.6715475 -0.002680165
-0.08678325 -0.28249738 0.5115064 -0.0635442 -0.066869326 0.6105596 -0.55608284 -0.09525717
-0.6681766 0.19772117 -0.06143658 0.24167632 -0.15973203 -0.0018097116 0.63342893 0.0011579256
-0.29912663 0.21354604 0.30600774 0.026332427
00000000: 1595 ffbe c58f 683d b016 4cbd 4263 bbbe
00000010: c67b 933e 3e7e 6c3e a91d 2dbf 983c 1ebe
00000020: 2a10 53bd 0c4e 58be c9cb c1bc 5ee8 4bbd
00000030: 4e24 b5be 2f3e eabc 3f8f fbbe 7623 e83e
00000040: 2249 723e 56ff 143f 0bce 653f b7bc 14be
00000050: bc2b 94be aaf3 fc3d 95ca 8b3e d09d ccbc
00000060: 83d3 8dbe ed30 10bf c0a4 33bf 798c 1b3f
00000070: 08bd d0be 162a 11bf 2703 5b3e 1b39 993f
00000080: 0bfa 823d ac89 043d c1d6 0b3f 863c b2be
00000090: 4630 d4be 1bf8 bdbd 9b77 5bbb 6f55 3e3e
000000a0: 7a87 84be 9ea4 9b3f 6f3b 2cbe 6806 093f
000000b0: b32d 6ebe 7202 c1be b46e 58be 58e5 a4bd
000000c0: 6404 383f d305 3cbf 514c 38be 1f0f 0a3f
000000d0: 7f6d 883d f9be 9fbe 10ae 163f 64e9 b7be
000000e0: ce8e 0a3f 32c7 b93d 54c2 e2be 5e6d 0d3d
000000f0: bad7 213e 30f8 263f 3723 34be dea6 7f3e
00000100: 88af c83c 1101 67be f8fb 25bd 3105 bebd
00000110: b410 17be 940b 40bd bd74 16bf 6895 a43d
00000120: 2e0d 23bd 9ad1 3f3f 5afa 41be 6ba1 03be
00000130: 7afe c9be 459f d1be 89ea 2bbf b5a5 2fbb
00000140: 6bbb b1bd 7fa3 90be 15f2 023f 7623 82bd
00000150: c9f2 88bd a24d 1c3f 725b 0ebf 3116 c3bd
00000160: 9f0d 2bbf 6b77 4a3e eca4 7bbd ff79 773e
00000170: cb90 23be d833 edba 6628 223f 89c5 973a
00000180: 2027 99be d0ab 5a3e 0cad 9c3e 1ab7 d73c

phi_from.mlp.mlp.2.bias f4 [10]
-0.019192098 -0.04617964 0.07518724 -0.055571653 -0.047720373 0.081852935 -0.06809742 -0.038640153
-0.025510013 -0.050826624
00000000: bf38 9dbc dd26 3dbd c5fb 993d 1a9f 63bd
00000010: 7076 43bd 83a2 a73d a976 8bbd 2345 1ebd
00000020: 60fa d0bc 942f 50bd

z_k.mlp.0.weight f4 [10, 33]
0.56384945 -0.59864634 0.16346544 -0.18354225 0.6565739 -0.0836585 -0.0847082 -0.10108356
-0.2247196 0.22734882 -0.41333932 -0.077833325 0.31619966 0.36140707 -0.04302435 -0.69394755
0.64721376 -0.4985067 0.38432372 0.122235455 -0.44497392 -0.07391208 0.3075156 -0.3646339
0.42050332 -0.59504414 0.58735585 0.33977315 0.027109742 -0.27477235 -0.060984917 -0.15330198
0.11161464 0.067702025 -0.45083475 -2.8744338 -0.067650035 -0.03786675 0.589292 -0.010666158
0.68203837 -0.52018005 0.38117117 0.12794334 -0.17318353 0.17501387 -0.6917573 -0.17986819
0.063961096 0.09799308 -0.21645646 0.026127364 0.28817526 0.118823186 0.35742167 0.39777544
0.5169029 -0.07504518 -0.66506934 0.28075576 0.023964297 -0.15331757 0.26404005 0.01419495
0.00010775785 -0.39164132 0.09537598 -0.2675119 -1.0500969 -0.18537988 1.9690909 -0.50078434
0.17421198 -0.22174203 -0.2109224 -0.7493992 -0.45662773 -0.31358862 0.39825177 -0.3981131
0.21497306 -0.3827921 0.72553015 -0.034859154 0.5526389 0.6571504 -0.38620174 0.1723003
0.18472806 -0.46055093 0.40924782 -0.5116339 0.62273145 -0.0044468427 -0.5439363 -0.010273758
0.06885265 -0.09219949 0.065328956 0.45338014 -0.13802694 -3.5130641 0.5764149 -0.853185
0.8180085 1.3643135 1.8512847 0.018154386 0.6920463 0.18141192 -0.12814608 -0.01166754
0.019281987 -0.35177273 -0.33454007 -0.6093731 0.26508948 -0.71918267 0.14528425 0.5818716
0.3911377 -0.02529523 0.3627516 0.6561007 -0.17158021 0.61015743 -0.13755888 -0.529295
0.47135574 0.005531545 0.21250421 -0.42766222 0.13298258 0.30113375 1.7463747 0.67414963
2.7211409 0.10169547 0.19156931 1.9885256 0.048212133 -0.7719047 -0.0049112933 0.18885432
0.75122285 0.13063364 0.11875831 -1.3969898 0.35057896 -0.3482154 0.56540704 -1.2592556
-0.08956324 -0.2587463 0.21702906 0.29582667 0.92107195 -0.12203542 0.6211693 0.56881607
-0.23166966 0.23778169 -0.046302427 -0.23070246 -0.40588966 0.57016337 -0.3785831 -2.472977
-0.34025255 0.326504 -0.33715177 -0.030007519 0.98765737 -0.032273743 -0.14242591 -0.24633978
0.084391534 0.053015158 -0.35696283 0.10942943 -0.25952473 0.59185135 -0.24334678 0.19720984
0.6536579 0.10571999 -0.50609183 0.85636544 -0.078094564 0.54170793 -0.106256716 0.2739229
0.5838656 -0.4301182 -0.38081428 0.2887988 -0.20871268 -0.1309299 0.59611005 -0.1721345
0.9239321 -0.02846122 -1.318992 -0.10019149 0.44850153 0.25513923 -0.1136639 1.1481657
0.04235158 -0.15985918 0.3398159 -0.2515675 -0.12050382 -0.26081997 0.19426425 -0.102993764
-0.12536524 -0.020498443 -0.05633872 0.23572263 -0.520499 0.15170802 0.13113075 0.015888236
0.13969147 0.3066235 -0.3733853 -0.009934501 0.023672909 -0.3493303 -0.10308998 -0.1420144
-0.47833273 0.08349619 -0.30739495 0.6736406 -0.5919203 -0.24796458 1.2688364 -0.31813487
-0.49242455 -0.39553437 0.34833178 0.4047387 -0.76257473 0.18812433 0.20781843 0.47206903
0.31179547 0.13182731 -0.062423937 0.43131092 -0.090416834 0.11042528 -0.04738453 0.58751106
00000000: 7058 103f e340 19bf 7c63 273e 80f2 3bbe
00000010: 3a15 283f 2655 abbd 7e7b adbd e604 cfbd
00000020: e51c 66be 21ce 683e 36a1 d3be 1467 9fbd
00000030: ece4 a13e 590a b93e 4d3a 30bd 8ca6 31bf
00000040: cdaf 253f 453c ffbe 14c6 c43e 9556 fa3d
00000050: 9fd3 e3be 375f 97bd af72 9d3e 4bb1 babe
00000060: 364c d73e d054 18bf f45c 163f bff6 ad3e
00000070: 4015 de3c f6ae 8cbe 52cb 79bd 32fb 1cbe
00000080: 3796 e43d 5ca7 8a3d d0d3 e6be b9f6 37c0
00000090: 1a8c 8abd 2a1a 1bbd d7db 163f 1cc1 2ebc
000000a0: 119a 2e3f 852a 05bf de28 c33e 9403 033e
000000b0: 0657 31be d636 333e 0217 31bf 5e2f 38be
000000c0: 09fe 823d 99b0 c83d c3a6 5dbe 0e09 d63c
000000d0: b58b 933e 9259 f33d f9ff b63e 39a9 cb3e
000000e0: c053 043f 4ab1 99bd fc41 2abf 38bf 8f3e
000000f0: c650 c43c 48ff 1cbe 4230 873e f091 683c
00000100: 0efc e138 3685 c8be 7b54 c33d 52f7 88be
00000110: 9369 86bf 39d4 3dbe 2c0b fc3f 6733 00bf
00000120: a064 323e 5810 63be 0bfc 57be a0d8 3fbf
00000130: 1ccb e9be b08e a0be a8e7 cb3e 7bd5 cbbe
00000140: e621 5c3e 53fd c3be 58bc 393f 79c8 0ebd
00000150: be79 0d3f 023b 283f 3cbc c5be 7d6f 303e
00000160: 5a29 3d3e 55cd ebbe ee88 d13e 70fa 02bf
00000170: 546b 1f3f d2b6 91bb 693f 0bbf 4453 28bc
00000180: 9e02 8d3d 16d3 bcbd 30cb 853d 7121 e83e
00000190: ef56 0dbe 0bd6 60c0 ed8f 133f 556a 5abf
000001a0: 0169 513f d3a1 ae3f e6f6 ec3f 82b8 943c
000001b0: f229 313f 0cc4 393e ba38 03be 3629 3fbc
000001c0: 42f5 9d3c 8e1b b4be d648 abbe e0ff 1bbf
000001d0: cfb9 873e 5b1c 38bf 65c5 143e 8af5 143f
000001e0: 3343 c83e f137 cfbc 94ba b93e 37f6 273f
000001f0: b9b2 2fbe 4733 1c3f 3cdc 0cbe e17f 07bf
00000200: 8a55 f13e f641 b53b b49a 593e 8bf6 dabe
00000210: 962c 083e 342e 9a3e 3589 df3f 1295 2c3f
00000220: 2c27 2e40 b745 d03d bf2a 443e 0288 fe3f
00000230: 167a 453d 8c9b 45bf eaee a0bb 0763 413e
00000240: 2450 403f d3c4 053e 8f37 f33d 90d0 b2bf
00000250: 167f b33e 4a49 b2be 84be 103f 4a2f a1bf
00000260: ef6c b7bd 657a 84be de3c 5e3e 9876 973e
00000270: 5fcb 6b3f b5ed f9bd f404 1f3f ee9d 113f
00000280: d03a 6dbe 0b7d 733e 9da7 3dbd 443d 6cbe
00000290: c5d0 cfbe 3af6 113f a5d5 c1be 4145 1ec0
000002a0: 9535 aebe 882b a73e 289f acbe 54d2 f5bc
000002b0: 1dd7 7c3f 7931 04bd 19d8 11be 7f40 7cbe
000002c0: 78d5 ac3d 6c26 593d d5c3 b6be 891c e03d
000002d0: 6de0 84be 9283 173f e62f 79be 60f1 493e
000002e0: 2056 273f b983 d83d 3c8f 01bf c43a 5b3f
000002f0: 0bf0 9fbd 5fad 0a3f 1f9d d9bd 9f3f 8c3e
00000300: 3778 153f 7438 dcbe 17fa c2be 70dd 933e
00000310: c7b8 55be 7d12 06be ab9a 183f 0744 30be
00000320: d086 6c3f 8127 e9bc bbd4 a8bf 3231 cdbd
00000330: fea1 e53e 9ca1 823e 9ec8 e8bd 18f7 923f
00000340: da78 2d3d 20b2 23be 5afc ad3e 75cd 80be
00000350: b5ca f6bd 328a 85be 35ed 463e 65ee d2bd
00000360: bf5f 00be 5aec a7bc 6ec3 66bd 4661 713e
00000370: 6c3f 05bf 5959 1b3e 2447 063e 0c28 823c
00000380: 480b 0f3e c1fd 9c3e 5c2c bfbe 51c4 22bc
00000390: b0ed c13c 6cdb b2be d720 d3bd 396c 11be
000003a0: 07e8 f4be 0d00 ab3d df62 9dbe b673 2c3f
000003b0: 1788 17bf 6dea 7dbe 3b69 a23f 93e2 a2be
000003c0: 121f fcbe 7b83 cabe 8b58 b23e e939 cf3e
000003d0: 1938 43bf aaa3 403e 5bce 543e 08b3 f13e
000003e0: a8a3 9f3e bdfd 063e 3eb0 7fbd c9d4 dc3e
000003f0: 762c b9bd a626 e23d 4816 42bd 2067 163f

z_k.mlp.0.bias f4 [10]
-0.42201054 -0.31838813 -0.33066684 -0.6050885 -0.024953421 -0.30849966 -0.27675244 -0.03369047
-0.054837838 -0.38266817
00000000: c411 d8be c503 a3be 2a4d a9be 14e7 1abf
00000010: 1e6b ccbc abf3 9dbe 7fb2 8dbe 05ff 09bd
00000020: a49d 60bd 15ed c3be

r_k.mlp.0.weight f4 [10, 33]
-0.030758927 -0.26420203 -0.4855546 0.38889515 0.32771844 0.19742209 -0.21884331 -0.0798674
0.1769502 0.4162537 -0.4800253 -0.18364035 0.00021417855 0.14852582 -0.35492203 0.49706084
-0.24572878 0.16317493 -0.16889846 0.09111355 0.06525195 0.034408566 0.072418995 -0.61271137
0.33699185 -0.541469 -0.28340954 0.16572729 -0.08539715 -0.25743583 -0.35200784 -0.3497993
0.29056352 -0.3514307 0.007717764 -1.2725146 0.17153746 -1.0087148 -0.12470073 -0.55522484
0.47440472 -0.11241173 1.1859446 -0.2050467 0.1858908 0.31403056 0.53812104 -0.89800906
0.40075904 -0.0040235887 -0.84260803 -0.46722582 0.32495648 -0.0017640127 -0.5520098 -0.47397566
-1.418771 0.22939612 0.29737929 0.22499065 0.19569056 0.15429942 0.075702794 -0.10349821
0.2107277 -0.20186087 -0.4655229 0.5524966 -0.45777124 -0.6022895 0.3601209 0.34080717
0.31601688 -0.22229287 -0.013582972 -0.14720815 0.5905549 0.13604143 0.14710394 -2.498311
-1.5089424 0.44604954 0.33312285 0.43618968 1.6230326 -0.6827518 0.05440153 -0.7813608
-0.46352556 0.68450385 -0.1320603 0.6199605 0.25530866 -0.019695153 -0.15619494 0.1488519
-0.5796286 0.109543614 0.32443026 0.5177323 0.26561296 0.27552044 0.43328786 -0.8297002
0.18558425 -0.2262951 -0.87015605 0.22957139 1.2954677 -0.41670644 0.2414254 -0.02149741
-0.62073916 0.49526733 -0.19442938 0.01946445 0.098084874 0.4556634 -0.043077923 0.48891404
0.26388755 0.38970637 0.31218296 0.38175637 0.38505283 -0.1406141 0.29934695 -0.19762228
0.45441905 0.08127006 0.24426824 0.070982054 0.17836241 -0.13648295 -0.5804327 -0.21424092
0.36251956 -0.9411587 0.15578708 -0.061739713 -0.26775756 1.2186935 0.09888141 0.46883446
-0.064630665 -0.8447396 -0.35685706 0.32788143 0.4687757 0.61213 0.616869 0.0066542267
-1.215633 0.24815273 0.17152712 -0.4420732 -0.3314469 -0.27481416 0.27905983 -0.34938848
-0.84613574 -0.4492481 -1.202492 -0.18136711 0.25310186 0.081865706 -0.2306598 -0.80999255
-0.25460714 0.16802485 -0.16279274 -0.6884843 0.04801981 0.32477963 0.082839556 -0.08663907
-0.27213445 0.25166342 -1.9138967 -0.41774666 0.28809378 -0.1254697 0.41112334 -0.14307496
0.6856232 -0.91401166 2.305684 0.05245214 -2.5545278 0.32127652 -0.5111357 -0.07150475
-0.13268867 -0.0699089 -0.16032365 -0.26589295 -0.15418908 0.10214678 0.015188195 0.02263926
0.41173714 -0.20179519 1.7866424 -0.7684743 -0.08517655 0.56701696 -0.4176613 -0.18926154
0.191084 -0.17448059 -0.0714615 0.23468381 0.016680084 -0.018643927 0.44109446 1.0097557
-0.7567379 0.25689664 -0.51742226 -0.00132275 -0.0735529 -0.38759348 0.12953562 -0.6335594
0.6079916 -0.45080307 -0.28201926 -0.15003027 -0.014679908 0.3157747 -0.12546858 0.35259056
-0.4238069 -0.107768245 0.10494478 0.31834427 -0.0789175 0.24750039 -0.29893202 -0.30052865
0.54586416 0.27019677 -0.13710308 0.22003728 -0.5815938 -0.46046442 0.1893507 -0.22680011
-0.32960227 0.16028875 0.17197087 -0.18594982 0.17125775 0.38584027 -0.24295959 -0.014587012
00000000: 25fa fbbc 7d45 87be 9d9a f8be 441d c73e
00000010: b6ca a73e 0429 4a3e 7618 60be 8591 a3bd
00000020: 6f32 353e 341f d53e e0c5 f5be 370c 3cbe
00000030: 1e95 6039 2717 183e 57b8 b5be c27e fe3e
00000040: 53a0 7bbe 5417 273e b8f3 2cbe be99 ba3d
00000050: d0a2 853d ffef 0c3d 6950 943d a7da 1cbf
00000060: 328a ac3e b69d 0abf 0e1b 91be 6ab4 293e
00000070: b3e4 aebd a1ce 83be 5f3a b4be e518 b3be
00000080: bec4 943e baee b3be 4ce5 fc3b c2e1 a2bf
00000090: 84a7 2f3e 911d 81bf 1963 ffbd 3723 0ebf
000000a0: 2de5 f23e 1f38 e6bd 08cd 973f c3f7 51be
000000b0: 285a 3e3e 9dc8 a03e 4dc2 093f ece3 65bf
000000c0: 4a30 cd3e 4fd8 83bb 29b5 57bf 3938 efbe
000000d0: b260 a63e 7236 e7ba 8450 0dbf f0ac f2be
000000e0: 4a9a b5bf d1e6 6a3e 1942 983e f363 663e
000000f0: 1b63 483e ab00 1e3e 110a 9b3d dff6 d3bd
00000100: 01c9 573e 9eb4 4ebe 0459 eebe 6b70 0d3f
00000110: fe60 eabe a52f 1abf c461 b83e 477e ae3e
00000120: f7cc a13e bea0 63be 1d8b 5ebc bcbd 16be
00000130: 9b2e 173f 724e 0b3e 6aa2 163e 54e4 1fc0
00000140: 0625 c1bf 9b60 e43e 148f aa3e 4154 df3e
00000150: 88bf cf3f d2c8 2ebf 24d4 5e3d 4307 48bf
00000160: 3953 edbe a53b 2f3f d13a 07be bbb5 1e3f
00000170: d1b7 823e bb57 a1bc 91f1 1fbe a26c 183e
00000180: 8a62 14bf 6758 e03d b91b a63e 1b8a 043f
00000190: 6cfe 873e 0411 8d3e e8d7 dd3e 3b67 54bf
000001a0: cc09 3e3e e7b9 67be 8cc2 5ebf c314 6b3e
000001b0: e3d1 a53f 8c5a d5be 3838 773e 561b b0bc
000001c0: c3e8 1ebf ae93 fd3e 7f18 47be e973 9f3c
000001d0: b9e0 c83d b74c e93e 7a72 30bd f152 fa3e
000001e0: 451c 873e 9887 c73e 72d6 9f3e 9275 c33e
000001f0: a525 c53e 25fd 0fbe 0144 993e 7f5d 4abe
00000200: 9da9 e83e eb70 a63d 7421 7a3e 0a5f 913d
00000210: a3a4 363e 30c2 0bbe 3d97 14bf f961 5bbe
00000220: 2a9c b93e c7ef 70bf a686 1f3e c8e2 7cbd
00000230: 8517 89be 26fe 9b3f 5682 ca3d 120b f03e
00000240: 155d 84bd db40 58bf f8b5 b6be 13e0 a73e
00000250: 5e03 f03e 8db4 1c3f 20eb 1d3f b30b da3b
00000260: dd99 9bbf c01b 7e3e cea4 2f3e 6b57 e2be
00000270: 68b3 a9be 71b4 8cbe eee0 8e3e 0ce3 b2be
00000280: 5a9c 58bf d903 e6be 42eb 99bf 4db8 39be
00000290: 9196 813e 35a9 a73d 1532 6cbe ac5b 4fbf
000002a0: de5b 82be b50e 2c3e 24b3 26be 8240 30bf
000002b0: 6cb0 443d 8449 a63e c9a7 a93d d36f b1bd
000002c0: 3555 8bbe 07da 803e 91fa f4bf e4e2 d5be
000002d0: 0781 933e 217b 00be c27e d23e 3e82 12be
000002e0: 0185 2f3f abfc 69bf 5490 1340 0ed8 563d
000002f0: 627d 23c0 5b7e a43e cad9 02bf 1571 92bd
00000300: 8adf 07be 662c 8fbd e22b 24be 1f23 88be
00000310: bee3 1dbe 5532 d13d e8d7 783c f875 b93c
00000320: 36cf d23e 66a3 4ebe b3b0 e43f bbba 44bf
00000330: 0b71 aebd 0628 113f b4d7 d5be c7cd 41be
00000340: 86ab 433e 0aab 32be 685a 92bd f450 703e
00000350: aca4 883c 26bb 98bc 22d7 e13e ad3f 813f
00000360: 93b9 41bf f587 833e c975 04bf 2060 adba
00000370: e7a2 96bd a772 c6be fca4 043e f330 22bf
00000380: 56a5 1b3f a9cf e6be d464 90be 89a1 19be
00000390: ff83 70bc 39ad a13e d67a 00be c086 b43e
000003a0: 38fd d8be 99b5 dcbd 4aed d63d 05fe a23e
000003b0: 809f a1bd be70 7d3e 9e0d 99be e4de 99be
000003c0: c1bd 0b3f 3b57 8a3e c064 0cbe 7451 613e
000003d0: 55e3 14bf fec1 ebbe 26e5 413e 4a3e 68be
000003e0: a1c1 a8be bc22 243e 2219 303e a169 3ebe
000003f0: 315e 2f3e db8c c53e 66ca 78be 5dfe 6ebc

r_k.mlp.0.bias f4 [10]
-0.09601408 0.0922134 -0.024410827 -0.2653866 0.16157505 0.086771086 -0.15968063 -0.2542294
-0.2451465 0.23509708
00000000: 08a3 c4bd 61da bc3d 37f9 c7bc c1e0 87be
00000010: ee73 253e 0ab5 b13d 5283 23be 5b2a 82be
00000020: af07 7bbe 4abd 703e

correction.mlp.0.weight f4 [10, 33]
-0.114513144 0.17736553 1.3430614 -0.34676683 -0.8384027 0.5003286 0.19350056 0.003298435
-0.07868644 -0.42828864 -0.18139926 -0.2997944 -0.26344198 0.07235961 -0.16647023 -0.28439793
-0.07837251 0.37428278 -0.24396044 0.4727187 0.2961513 0.08277053 0.2952945 0.6170149
-0.09423967 -0.1535049 -0.11323809 -0.09528022 -0.37499556 -0.12328342 -0.015837189 0.119175464
0.1630796 -0.48516253 -0.5214794 0.9927405 -0.28122512 -0.35059038 1.2735854 0.5743839
0.66401035 0.026652813 0.059619274 0.006717594 0.18943718 0.17981923 0.27472797 -0.53057534
-0.12177782 -0.036562245 0.17474213 0.09884727 0.19519153 -0.4131185 0.057323236 0.27598554
0.21682183 0.11401955 -0.26636913 -0.27441972 -0.50659317 -0.05552107 0.10152459 0.050238285
0.21931429 -0.29973254 0.3022053 0.116764486 -1.4136802 0.655926 -0.9278323 0.40766367
-0.4038359 -0.2226874 -0.14526434 -0.39622298 -0.0024456016 -0.01378445 -0.2857306 -1.5775012
-0.050782353 -0.17414382 0.341907 0.16765337 0.24603045 -0.28058708 0.1329731 -0.13924164
0.23675998 -0.2058577 -0.3856717 -0.0038934625 -0.1575011 -0.21761993 -0.3040061 -0.16150698
0.029577116 -0.05563106 -0.10780586 0.30819964 -0.15046959 0.9756466 -0.37544265 0.5555403
-0.22002277 -0.06454963 -0.41476294 -0.20656842 0.63169825 -0.22728671 0.12117926 0.01073494
-0.11235845 0.21865398 0.17942132 -0.12827788 -0.17736825 0.053173177 -0.2554686 -0.02327885
-0.50329405 0.006880731 0.34834757 -0.13685852 0.4093596 0.2730749 0.18112473 -0.33902526
0.24679565 -0.045850854 0.0828437 0.3139867 -0.07835589 0.7993552 0.029574575 -0.08087084
-1.2647119 -0.078266256 0.7150293 -0.31600106 -0.18360966 0.3800552 -0.14218366 0.33032957
0.369605 0.29965305 0.3278423 -0.20298423 0.059531566 -0.14050922 0.9904224 0.32654297
-0.8662138 -0.5352964 0.3255665 -0.27079275 -0.4857424 0.26774278 -0.57968146 0.42640683
-0.30930445 -0.109195575 -0.011640203 -0.2648358 -0.33507636 0.036668576 0.8966084 -0.37659335
-1.087683 0.12515013 0.18738204 0.018357452 -0.45506975 0.14474826 -0.17812523 -0.15834798
0.04720606 -0.30438566 -0.80386776 -0.372282 -0.22674991 0.22942919 0.179267 0.024870036
-0.013485222 -0.40484074 -0.16005035 -0.09728014 0.4665266 -0.27609214 0.38377926 -0.030600455
0.16320726 -0.006051616 0.12421519 -0.024207577 -0.26420027 0.036429398 -0.32397223 0.42527616
-0.7588127 0.27001265 -1.945681 0.93851244 0.22706035 0.50806624 0.104290985 -0.17865965
-0.1775473 -0.01703267 0.2194233 -0.6184202 -0.11217697 0.43288445 0.14150375 -0.32109207
0.13177109 0.15515284 -0.117025964 0.17235163 0.012430647 -0.20350066 -0.20965709 -0.38645697
-0.022051182 -0.12905534 0.07256073 -0.22272795 0.06181318 -0.32945538 0.11011206 0.1500892
-0.5289622 -0.082642555 -0.4092644 0.11035893 -0.1370586 0.51517403 -0.8178102 0.2882986
0.6306892 0.15202162 0.387092 0.2042497 -0.4498029 0.30496037 0.25733802 -0.16901095
-0.06538429 0.5404661 0.1491926 0.3637487 -0.12650257 0.3130695 -0.44128078 -0.20679513
00000000: de85 eabd 4f9f 353e 70e9 ab3f 6c8b b1be
00000010: 8fa1 56bf 8915 003f 0325 463e 8e2a 583b
00000020: 5b26 a1bd a648 dbbe bac0 39be a77e 99be
00000030: dee1 86be 4631 943d 2c77 2abe 9b9c 91be
00000040: c481 a0bd fea1 bf3e c4d0 79be 2f08 f23e
00000050: 25a1 973e 9883 a93d d730 973e b0f4 1d3f
00000060: ba00 c1bd 6330 1dbe 5fe9 e7bd 4722 c3bd
00000070: 6bff bfbe 057c fcbd febc 81bc 4412 f43d
00000080: 57fe 263e 3967 f8be ad7f 05bf 3e24 7e3f
00000090: bdfc 8fbe 9580 b3be d904 a33f d30a 133f
000000a0: 95fc 293f 0057 da3c 5733 743d 431f dc3b
000000b0: d2fb 413e 8822 383e 25a9 8c3e c9d3 07bf
000000c0: a666 f9bd 4bc2 15bd 9aef 323e 7070 ca3d
000000d0: 4ae0 473e 4584 d3be c5cb 6a3d fa4d 8d3e
000000e0: 8b06 5e3e 1583 e93d 8961 88be be80 8cbe
000000f0: 17b0 01bf 106a 63bd 20ec cf3d a9c6 4d3d
00000100: ed93 603e 8b76 99be a7ba 9a3e 3822 ef3d
00000110: 79f3 b4bf c4ea 273f 6b86 6dbf 4bb9 d03e
00000120: 94c3 cebe 2a08 64be 2dc0 14be bddd cabe
00000130: 6346 20bb 2cd8 61bc 484b 92be 8feb c9bf
00000140: 2801 50bd c252 32be 6f0e af3e 53ad 2b3e
00000150: 68ef 7b3e 1ca9 8fbe 1a2a 083e 5c95 0ebe
00000160: 3571 723e 5ccc 52be c376 c5be 7629 7fbb
00000170: f847 21be c2d7 5ebe b0a6 9bbe 1662 25be
00000180: b54b f23c 65dd 63bd 52c9 dcbd 58cc 9d3e
00000190: b314 1abe fac3 793f 053a c0be e437 0e3f
000001a0: a64d 61be 9932 84bd cf5b d4be ac86 53be
000001b0: fab6 213f d9bd 68be d52c f83d 9ae1 2f3c
000001c0: 301c e6bd d4e6 5f3e 39ba 373e 475b 03be
000001d0: 06a0 35be 1ecc 593d c8cc 82be 49b3 bebc
000001e0: e1d7 00bf c177 e13b 9d5a b23e a424 0cbe
000001f0: 9597 d13e 79d0 8b3e c378 393e b894 adbe
00000200: 00b8 7c3e 1bce 3bbd f5a9 a93d ddc2 a03e
00000210: 0e79 a0bd 8ba2 4c3f 6146 f23c 9c9f a5bd
00000220: 14e2 a1bf 0f4a a0bd 290c 373f e4ca a1be
00000230: 2c04 3cbe 9896 c23e 9898 11be f520 a93e
00000240: de3c bd3e 206c 993e f2da a73e 19db 4fbe
00000250: 5fd7 733d a6e1 0fbe 538c 7d3f a430 a73e
00000260: 30c0 5dbf 2f09 09bf a7b0 a63e 59a5 8abe
00000270: 3ab3 f8be 9515 893e 0166 14bf ff51 da3e
00000280: 275d 9ebe eea1 dfbd 8db6 3ebc 8f98 87be
00000290: 218f abbe ca31 163d 2188 653f d8d0 c0be
000002a0: 3239 8bbf 5b27 003e 14e1 3f3e 5e62 963c
000002b0: e7fe e8be e338 143e 7666 36be f925 22be
000002c0: 245b 413d 70d8 9bbe 47ca 4dbf bf9b bebe
000002d0: 2131 68be 7cef 6a3e c591 373e 3fbc cb3c
000002e0: 1ff1 5cbc 4947 cfbe 3de4 23be cf3a c7bd
000002f0: 93dc ee3e f35b 8dbe b77e c43e cead fabc
00000300: ce1f 273e a24c c6bb 8964 fe3d f84e c6bc
00000310: 4245 87be fe36 153d b0df a5be ccbd d93e
00000320: 8d41 42bf 193f 8a3e 130c f9bf 5a42 703f
00000330: 8282 683e a110 023f 8396 d53d 8ef2 36be
00000340: f6ce 35be 1988 8bbc 80b0 603e c950 1ebf
00000350: 0abd e5bd 08a3 dd3e 5ce6 103e 2e66 a4be
00000360: 00ef 063e 63e0 1e3e 4fab efbd f27c 303e
00000370: eaa9 4b3c 7a62 50be 59b0 56be b0dd c5be
00000380: aea4 b4bc 1527 04be b89a 943d cc12 64be
00000390: d12f 7d3d 60ae a8be 6f82 e13d fcb0 193e
000003a0: 116a 07bf 8040 a9bd 1a8b d1be dd03 e23d
000003b0: 1759 0cbe 72e2 033f 025c 51bf e09b 933e
000003c0: d974 213f 8eab 1b3e ec30 c63e d526 513e
000003d0: 914c e6be c423 9c3e cfc1 833e 3511 2dbe
000003e0: 33e8 85bd fd5b 0a3f f2c5 183e 453d ba3e
000003f0: e489 01be a54a a03e 8eef e1be 1ac2 53be

correction.mlp.0.bias f4 [10]
-0.00015488754 0.051882833 0.13355824 0.042465948 0.5157498 -0.01694442 0.011960165 -0.14181012
0.063965164 0.058558445
00000000: 4f69 22b9 1883 543d 7ec3 083e c6f0 2d3d
00000010: 2e08 043f 06cf 8abc 91f4 433c ac36 11be
00000020: 2b00 833d fbda 6f3d

phi_neumann.mlp.mlp.0.weight f4 [10, 23]
-0.19341606 0.101627156 0.31572407 -0.16369295 0.064844325 -0.18179329 -0.21851507 -0.19978438
0.051772434 0.33632046 0.14471896 -0.3663656 1.1382157 -0.3786404 -0.04607003 -0.3855515
0.28051883 0.5808274 0.32352427 0.13900955 0.0025922463 -0.0051309504 0.30388832 0.18559091
-0.01970005 0.27173725 0.10115551 -0.4952288 -0.33876464 -0.4731022 -0.018422136 0.25351876
0.3950434 0.15688303 0.17663662 -0.23812999 -0.39303273 0.02596039 -0.40940207 0.26772153
-0.32966605 -0.05846391 -0.12329293 -7.521642e-05 0.00064239337 -0.052581202 -0.04076331 0.4483834
-0.5478445 0.09749553 0.8517315 0.5679804 -0.05763219 0.034034915 -0.19733226 -0.49409306
-0.18066522 -0.12480695 -1.0364064 0.39487782 -0.09582163 -0.24126247 0.10883847 -1.333905
0.23880053 0.09563665 -0.01357957 -0.0011835122 -0.09381722 0.23595522 0.49161664 -0.1685285
-0.04662778 0.2434102 0.2260851 -0.40300846 0.2522422 0.24612305 -0.45767578 0.2435562
-0.06525084 0.033391632 0.06014626 0.512242 -0.17428526 0.17714405 -0.084866956 -0.20191999
-0.67582244 -0.0024617973 0.0028719525 -0.07857545 -0.36768985 0.07168258 0.17742044 0.42379022
0.35637775 0.45285833 -0.07279746 -0.32019308 -0.05028631 -0.2512035 0.21872668 0.033799786
-0.55353963 -0.26241645 0.36414832 -0.6510772 -0.30314207 -0.6601867 -0.2653946 0.28543308
0.0014932299 0.00013695161 -0.044092316 0.031210843 -0.09287829 0.08934982 -0.23516071 -0.19474731
-0.28190637 0.07671617 -0.20832558 0.4765367 -0.18254453 -0.38481364 0.26396984 -0.55164075
-0.24215701 0.12689254 0.30717853 -0.07135911 0.5409805 -0.16467331 -0.26083446 -0.00045696384
-0.00073788053 -0.06165177 0.3142217 -0.19594188 -0.3129562 0.34440792 -0.13153443 -0.11763321
-0.20774421 -0.9681387 -0.15026881 -0.3113256 0.34879285 0.23138162 1.0144483 0.16800147
-0.4284292 0.82968295 0.07601726 0.026861181 -0.07600236 -0.27910042 -0.0033280347 0.0029419297
0.08251879 0.38980108 0.60522085 -0.20171319 -0.22278178 -0.15724555 -0.31720755 -0.0040877853
0.068562806 -0.41067326 -0.49134955 0.26875383 -0.11990601 -0.06199752 0.37834975 0.1184537
-0.27870634 -0.39888853 -0.25406304 0.45008993 -0.118988015 0.0010275507 -0.0008346558 -0.10596787
-0.073921844 -0.017509073 -0.8318939 0.27327722 -0.21111818 0.81425875 0.37262484 1.2357969
-0.31848526 -0.58609194 0.32383382 0.006022819 -1.0143133 0.007170653 -0.47934625 -0.1484654
0.19482067 1.2469953 -0.45333183 -0.49854037 -0.081818916 0.016478611 -0.10742799 -0.05685329
0.41711137 -0.34652057 -0.37258458 -0.3649042 -0.12670949 0.4582078 -0.20251115 0.030111356
-0.20985262 0.19637185 -0.16399471 0.33831355 0.2883236 -0.35061774 0.04883994 -0.37162983
0.10916684 0.16437684 0.36821562 -0.00035851038 0.00066383934 -0.03148814
00000000: dc0e 46be e621 d03d 96a6 a13e 209f 27be
00000010: 1acd 843d 0528 3abe 6ac2 5fbe 4794 4cbe
00000020: 550f 543d 3232 ac3e 3531 143e 4694 bbbe
00000030: 0db1 913f 28dd c1be eeb3 3cbd 0267 c5be
00000040: 2aa0 8f3e 1bb1 143f f9a4 a53e 8558 0e3e
00000050: ade2 293b 8821 a8bb 4097 9b3e 8b0b 3e3e
00000060: 0062 a1bc 2521 8b3e 9f2a cf3d a18e fdbe
00000070: 8f72 adbe 743a f2be 05ea 96bc 36cd 813e
00000080: 2143 ca3e f2a5 203e 3be0 343e 59d8 73be
00000090: 963b c9be e2aa d43c 269d d1be cc12 893e
000000a0: fdc9 a8be da77 6fbd 0181 fcbd 82bd 9db8
000000b0: 4a66 283a 635f 57bd 6ef7 26bd 8292 e53e
000000c0: 8a3f 0cbf bdab c73d 130b 5a3f 2a67 113f
000000d0: bb0f 6cbd 3268 0b3d 7811 4abe c4f9 fcbe
000000e0: 4e00 39be c99a ffbd f7a8 84bf 6d2d ca3e
000000f0: 213e c4bd 820d 77be b4e6 de3d 66bd aabf
00000100: 2088 743e 26dd c33d d87c 5ebc 1420 9bba
00000110: 3e23 c0bd 3f9e 713e 2db5 fb3e bc92 2cbe
00000120: c5fc 3ebd 8640 793e da82 673e 2057 cebe
00000130: e425 813e ae07 7c3e 7b54 eabe cc66 793e
00000140: 3ba2 85bd aac5 083d ed5b 763d 4b22 033f
00000150: d677 32be 4065 353e bace adbd 1dc4 4ebe
00000160: b302 2dbf 1b56 21bb 5e37 3c3b 2aec a0bd
00000170: d841 bcbe 51ce 923d b4ad 353e 08fb d83e
00000180: 2577 b63e 0cdd e73e d616 95bd 59f0 a3be
00000190: 05f9 4dbd bf9d 80be e3f9 5f3e a571 0a3d
000001a0: c6b4 0dbf 735b 86be a671 ba3e ffac 26bf
000001b0: 7035 9bbe ff01 29bf cde1 87be 4924 923e
000001c0: 7bb8 c33a ab9a 0f39 259a 34bd e2ad ff3c
000001d0: f936 bebd 0afd b63d f8cd 70be d76b 47be
000001e0: 0856 90be 5e1d 9d3d 4d53 55be 9efc f33e
000001f0: f4ec 3abe 4b06 c5be 0e27 873e 5438 0dbf
00000200: 02f8 77be 1ef0 013e 8146 9d3e ba24 92bd
00000210: b37d 0a3f 1fa0 28be 188c 85be a694 efb9
00000220: 536e 41ba 9186 7cbd abe1 a03e fda4 48be
00000230: cc3b a0be 3c56 b03e f6b0 06be aee9 f0bd
00000240: e6ba 54be f0d7 77bf 11e0 19be 1266 9fbe
00000250: fa94 b23e 4eef 6c3e 71d9 813f 9408 2c3e
00000260: 125b dbbe 1a66 543f f0ae 9b3d fb0b dc3c
00000270: 20a7 9bbd 40e6 8ebe 281b 5abb 64cd 403b
00000280: 9dff a83d 0294 c73e c1ef 1a3f e78d 4ebe
00000290: e820 64be fa04 21be 0769 a2be d4f2 85bb
000002a0: a86a 8c3d c443 d2be 2b92 fbbe 1a9a 893e
000002b0: 4891 f5bd 1df1 7dbd 0fb7 c13e da97 f23d
000002c0: 99b2 8ebe 1e3b ccbe 8d14 82be 3072 e63e
000002d0: fdaf f3bd e1ae 863a cdcc 5aba af05 d9bd
000002e0: 5664 97bd 306f 8fbc 00f7 54bf feea 8b3e
000002f0: 5d2f 58be 4373 503f afc8 be3e 982e 9e3f
00000300: 8010 a3be 1f0a 16bf 8ccd a53e 115b c53b
00000310: 05d5 81bf ccf7 ea3b df6c f5be 5007 18be
00000320: 127f 473e 8b9d 9f3f 1c1b e8be af40 ffbe
00000330: ad90 a7bd 27fe 863c 3503 dcbd ffde 68bd
00000340: 9f8f d53e 256b b1be 68c3 bebe b9d4 babe
00000350: 22c0 01be 369a ea3e 155f 4fbe 17ac f63c
00000360: 9be3 56be b415 493e 3bee 27be 6f37 ad3e
00000370: 279f 933e 2b84 b3be 640c 483d 4446 bebe
00000380: dd92 df3d 6752 283e c286 bc3e 73f6 bbb9
00000390: 8105 2e3a b5f9 00bd

phi_neumann.mlp.mlp.0.bias f4 [10]
-0.098156705 0.025567526 -0.15858468 0.14131102 -0.049828734 -0.0006089109 0.057024498 0.17797594
-0.7402274 0.02723762
00000000: 6206 c9bd fd72 d13c 0664 22be d6b3 103e
00000010: 3719 4cbd 529f 1fba 8592 693d 533f 363e
00000020: 8b7f 3dbf 6e21 df3c

phi_neumann.mlp.mlp.2.weight f4 [10, 10]
-0.12724303 0.6761265 -0.41525486 0.31031585 -0.18083161 -0.42526105 0.18415333 -0.07779546
0.6244865 -0.053648252 -0.3861126 -0.14163539 0.27349693 -0.048731487 -0.35845047 -0.43345007
0.31884313 0.060181092 0.5457733 -0.15231384 -0.25087118 0.42827663 0.36532465 -0.019946175
0.4168485 0.4529907 -0.48885643 -0.23030876 -0.4202404 -0.25174212 0.104749985 0.31141278
-0.17322938 0.12851757 0.7398004 -0.410937 -0.11895902 0.22537373 0.35145202 -0.22163652
0.16985206 0.24385676 0.06582503 0.42769367 -0.2835907 0.2337374 0.01975605 -0.13067882
0.34134433 -0.039368518 0.08947053 0.7312391 -0.4449083 -0.6584626 0.61008126 0.29897058
0.0086317 -0.27528185 -0.06479585 0.06853401 0.06162006 0.23490654 -0.29517353 -0.32417879
-0.90766287 -0.119245045 -0.0084909275 0.5441262 0.056640062 0.35699528 -0.46838087 0.25785682
0.65672255 0.29794037 -0.20836046 -0.30633628 0.10816737 0.49889675 0.14271082 0.07396735
0.49792695 0.45239764 -0.09363205 0.04028383 0.3603077 0.48554423 0.1301072 -0.17543076
0.026622906 -0.14546287 0.08543712 0.2689082 -0.12462528 -0.035240404 -0.091695935 -0.42431682
0.27784348 -0.22215255 0.14660607 -0.5110878
00000000: ff4b 02be a016 2d3f 499c d4be b8e1 9e3e
00000010: ec2b 39be d1bb d9be b192 3c3e 3a53 9fbd
00000020: 59de 1f3f 45be 5bbd 8db0 c5be de08 11be
00000030: ca07 8c3e ab9a 47bd d286 b7be 2bed ddbe
00000040: 683f a33e 7380 763d cdb7 0b3f 29f8 1bbe
00000050: 3072 80be 1347 db3e d50b bb3e 2966 a3bc
00000060: 2b6d d53e 66ee e73e 644b fabe 0fd6 6bbe
00000070: c029 d7be 58e4 80be 2987 d63d 7f71 9f3e
00000080: 0b63 31be 1c9a 033e 8f63 3d3f 5666 d2be
00000090: c9a0 f3bd 5fc8 663e 85f1 b33e aff4 62be
000000a0: b3ed 2d3e 96b5 793e 46cf 863d aafa da3e
000000b0: cd32 91be db58 6f3e 71d7 a13c abd0 05be
000000c0: afc4 ae3e e240 21bd 533c b73d 7c32 3b3f
000000d0: 05cb e3be 0191 28bf 492e 1c3f ac12 993e
000000e0: f96b 0d3c bef1 8cbe b0b3 84bd 8f5b 8c3d
000000f0: 5165 7c3d 578b 703e fc20 97be c3fa a5be
00000100: 985c 68bf bf36 f4bd 881d 0bbc db4b 0b3f
00000110: 69ff 673d 16c8 b63e 9ecf efbe cf05 843e
00000120: f81e 283f a48b 983e 725c 55be 1cd8 9cbe
00000130: db86 dd3d 656f ff3e c922 123e 327c 973d
00000140: 48f0 fe3e aaa0 e73e 29c2 bfbd a800 253d
00000150: 407a b83e 4199 f83e d23a 053e 1fa4 33be
00000160: 4818 da3c 38f4 14be a8f9 ae3d 56ae 893e
00000170: 8a3b ffbd 3e58 10bd 14cb bbbd 0e40 d9be
00000180: 8041 8e3e f57b 63be e71f 163e a6d6 02bf

phi_neumann.mlp.mlp.2.bias f4 [10]
0.06110622 0.024791855 -0.014048163 -0.15206979 0.008175974 -0.021763507 -0.1739551 0.070276774
-0.04231478 0.05082223
00000000: 844a 7a3d 4a18 cb3c 442a 66bc 2fb8 1bbe
00000010: 85f4 053c 6249 b2bc 4921 32be 45ed 8f3d
00000020: 4352 2dbd f82a 503d
