mixed/dsgps/results/50_ite_lamb_0_001_gamma_1/ckpt/final_model.pt (torch, 96581 bytes, 93 tensors)

laynorm.weight f4 [10]
1.0 1.0 1.0 1.0 1.0 1.0 1.0 1.0
1.0 1.0
00000000: 0000 803f 0000 803f 0000 803f 0000 803f
00000010: 0000 803f 0000 803f 0000 803f 0000 803f
00000020: 0000 803f 0000 803f

laynorm.bias f4 [10]
0.0 0.0 0.0 0.0 0.0 0.0 0.0 0.0
0.0 0.0
00000000: 0000 0000 0000 0000 0000 0000 0000 0000
00000010: 0000 0000 0000 0000 0000 0000 0000 0000
00000020: 0000 0000 0000 0000

phi_to.mlp.mlp.0.weight f4 [10, 23]
-0.7217855 0.13633417 1.144873 -0.15903953 -0.6927302 0.4353226 0.07718542 -0.2515823
0.16829585 -0.48704818 -0.21868773 -0.23083213 -0.06836041 0.2213743 -0.060221374 -0.043205537
-0.051652532 -0.1989672 -0.10133695 -0.22483486 0.0011997059 -0.0026177126 0.20386294 -0.5859641
-0.33007702 -0.41976923 -0.078049235 -0.3065185 -0.45426643 0.2337778 -0.9402347 0.2456984
-0.49834296 -0.20051442 0.17207828 0.27555382 -0.1894561 0.07410787 -0.1690286 -0.24239
0.47345853 -0.171794 0.14441496 0.003052387 0.0014854535 -0.089491405 -0.3399309 -0.12654004
-0.219304 -0.082828894 0.024310712 0.4674806 0.10976026 1.0782726 -0.029049296 0.16097337
-0.15159798 0.23829101 -0.96790725 -0.15452366 -0.44359672 0.14475924 -0.15738568 1.0783594
0.31605783 -0.20309818 -1.336295e-05 0.0039145215 -0.07847236 -0.050978094 -0.22288246 -0.4279951
0.12893954 -0.033732012 -0.3621602 -0.122472174 0.015198577 0.27338165 -0.09101129 -0.050705247
0.29018614 -0.6885108 -0.27893952 0.8391697 -0.28877574 -0.123417094 0.04331192 -0.32441407
0.29523647 -0.00039457314 -0.0015927614 -0.12448562 -0.3346174 -0.17084478 -0.30155075 -0.4723203
0.09241272 -0.3711252 -0.62295973 0.2864161 0.01694097 0.04030552 0.090315714 0.22797708
-0.2738727 -0.4118423 -0.034407295 0.06619713 -0.15603934 -0.17965752 -0.05412311 0.37948066
0.0011808452 0.0018415939 -0.057735935 -0.31327772 0.10787778 0.21034254 -0.13752466 0.12861797
-0.3664465 0.006221873 -0.2765768 0.49010572 0.200208 0.30253386 0.090562224 -0.9490251
-0.23766986 0.5809452 0.044065326 -0.12186472 0.27662686 0.06922293 -0.34356806 0.00013363904
0.00067100767 -0.07185484 -0.16965626 0.35578611 -0.56099904 -0.04048702 0.56098354 -0.39168018
-0.13865149 0.07892192 -0.030824065 0.2304877 0.27711517 0.18111672 -0.8557822 0.3202815
0.2671696 -0.037511226 -0.28582633 -0.12280507 0.075673044 -0.09644926 0.0040005576 0.0043424163
-0.17719099 0.0012597062 0.27336234 0.1417425 -0.25060722 0.55072105 0.11123265 0.026234532
0.06558509 0.17834076 -0.44962007 -0.5101125 0.030831728 0.44533297 0.16110736 0.022879306
0.47793397 0.083868906 -0.48676184 0.18315999 -0.46290663 -0.00014025164 0.0033448185 -0.26114038
0.62364906 0.14129174 1.4431973 0.18632057 0.14972843 0.29738978 0.29868037 -0.020345954
-8.852376e-05 -0.59171337 -0.25527778 -0.60319114 0.4969874 0.46096694 0.12953545 -0.13019387
-0.021330096 -0.46753085 0.15991838 -0.1487135 0.002943864 0.0009069104 0.14084107 -0.10060451
0.7338834 -0.4022318 0.059034485 0.14581251 0.12058958 0.035163477 -0.02426948 0.037654042
-0.07113621 0.28647825 -0.68953145 -0.4328771 -0.03915753 0.0703518 -0.33915767 -0.33212298
-0.272814 -0.3595015 0.12436163 -0.00018271388 -0.0011802135 -0.105380505
00000000: efc6 38bf 2f9b 0b3e 338b 923f 42db 22be
00000010: c456 31bf 9be2 de3e 6413 9e3d 65cf 80be
00000020: bf55 2c3e 615e f9be adef 5fbe 425f 6cbe
00000030: 8b00 8cbd f2af 623e b0aa 76bd 4af8 30bd
00000040: 9b91 53bd 0fbe 4bbe bf89 cfbd 1c3b 66be
00000050: 733f 9d3a ee8d 2bbb 72c1 503e be01 16bf
00000060: dbff a8be feeb d6be 47d8 9fbd feef 9cbe
00000070: 9c95 e8be 7363 6f3e 39b3 70bf 5d98 7b3e
00000080: cf26 ffbe a753 4dbe 4a35 303e 6415 8d3e
00000090: c800 42be dec5 973d d515 2dbe 1635 78be
000000a0: 2869 f23e c4ea 2fbe 84e1 133e 8e0a 483b
000000b0: 8cb3 c23a 4547 b7bd 6c0b aebe b693 01be
000000c0: 3a91 60be 32a2 a9bd 4227 c73c 9e59 ef3e
000000d0: fdc9 e03d d604 8a3f caf8 edbc 34d6 243e
000000e0: 803c 1bbe 8f02 743e c5c8 77bf 733b 1ebe
000000f0: 1c1f e3be c43b 143e b629 21be ae07 8a3f
00000100: 55d2 a13e f8f8 4fbe 6f31 60b7 6345 803b
00000110: 1eb6 a0bd 68ce 50bd 4d3b 64be 2c22 dbbe
00000120: ba08 043e 942a 0abd 106d b9be b1d2 fabd
00000130: 7403 793c aef8 8b3e 2164 babd 4eb0 4fbd
00000140: 4793 943e 3e42 30bf 29d1 8ebe d3d3 563f
00000150: 6ada 93be 1ac2 fcbd d767 313d 9a19 a6be
00000160: 3c29 973e b6de ceb9 34c4 d0ba 51f2 febd
00000170: f952 abbe eff1 2ebe dc64 9abe f7d3 f1be
00000180: e142 bd3d 1f04 bebe 4a7a 1fbf 22a5 923e
00000190: cac7 8a3c 6717 253d 72f7 b83d d372 693e
000001a0: 0b39 8cbe fedc d2be aaee 0cbd 5c92 873d
000001b0: c7c8 1fbe 24f8 37be 32b0 5dbd 4a4b c23e
000001c0: 97c6 9a3a a361 f13a 847c 6cbd f065 a0be
000001d0: 07ef dc3d 0964 573e 44d3 0cbe 6eb4 033e
000001e0: e09e bbbe dbe0 cb3b 799b 8dbe 23ef fa3e
000001f0: 5303 4d3e b8e5 9a3e b078 b93d 4ff3 72bf
00000200: ba5f 73be d3b8 143f d87d 343d 3694 f9bd
00000210: 09a2 8d3e c0c4 8d3d 27e8 afbe 7521 0c39
00000220: 90e6 2f3a a128 93bd 5fba 2dbe 9929 b63e
00000230: a29d 0fbf b8d5 25bd 9e9c 0f3f 4e8a c8be
00000240: a8fa 0dbe d1a1 a13d c082 fcbc f804 6c3e
00000250: 0ae2 8d3e a976 393e 8b14 5bbf f0fb a33e
00000260: 74ca 883e 5fa5 19bd d457 92be 3981 fbbd
00000270: 78fa 9a3d 3187 c5bd 1c17 833b d44a 8e3b
00000280: 8e71 35be ba1c a53a 26f6 8b3e f224 113e
00000290: 974f 80be 0efc 0c3f f2cd e33d cde9 d63c
000002a0: 7a51 863d f69e 363e 9a34 e6be bc96 02bf
000002b0: d292 fc3c af02 e43e 54f9 243e 626d bb3c
000002c0: c3b3 f43e 76c3 ab3d d938 f9be 4b8e 3b3e
000002d0: 1902 edbe 8310 13b9 be34 5b3b 31b4 85be
000002e0: 77a7 1f3f c8ae 103e b0ba b83f d2ca 3e3e
000002f0: 6952 193e 7943 983e a2ec 983e 8fac a6bc
00000300: d5a5 b9b8 877a 17bf c5b3 82be bc6a 1abf
00000310: 2275 fe3e dc03 ec3e f1a4 043e 8b51 05be
00000320: 74bc aebc 3460 efbe a5c1 233e 5a48 18be
00000330: d8ed 403b babd 6d3a a438 103e bd09 cebd
00000340: c8df 3b3f 54f1 cdbe 25ce 713d e04f 153e
00000350: abf7 f63d 9407 103d cad0 c6bc 203b 1a3d
00000360: dcaf 91bd 47ad 923e 2285 30bf 11a2 ddbe
00000370: a563 20bd 9b14 903d 13a6 adbe 060c aabe
00000380: 47ae 8bbe 9510 b8be 4fb1 fe3d e296 3fb9
00000390: 65b1 9aba bcd1 d7bd

phi_to.mlp.mlp.0.bias f4 [10]
0.07770308 0.042623166 0.04136433 0.000121204204 0.042549867 -0.016831774 0.0036033273 0.11026112
0.021516083 0.05368426
00000000: cb22 9f3d a195 2e3d a56d 293d 032f fe38
00000010: c548 2e3d cae2 89bc cd25 6c3b 95d0 e13d
00000020: 7f42 b03c 07e4 5b3d

phi_to.mlp.mlp.2.weight f4 [10, 10]
0.19990551 0.46550435 -0.40894425 0.19319715 0.23117526 0.4851195 0.41244692 0.3420784
-0.51959586 0.045336213 -0.03324346 0.0709162 -0.1653636 0.52862465 -0.09348451 -0.35843685
0.3025546 0.038968664 -0.2658304 0.3868593 -0.37825847 0.049432244 0.034133416 -0.1964821
0.14786871 -0.34411573 -0.4371304 -0.1032383 0.80244184 -0.3929516 0.16994777 -0.189579
-0.047027964 0.58017665 -0.32110474 -0.4194269 -0.03852284 -0.031632774 0.3695703 0.094452724
0.41364053 -0.3272936 -0.47063503 -0.6172106 -0.5600758 0.009983344 -0.117237985 0.003542831
-0.124999054 0.9116282 0.22743712 0.2883687 -0.1086941 -0.010662463 0.5478063 0.25781173
-0.17498422 0.18347222 -0.46558577 0.31539115 -0.407901 -0.48140666 -0.5175261 0.19693547
0.19221494 -0.072805546 -0.0384179 0.1661216 0.2491835 0.5291276 -0.008791668 0.27309754
0.10036446 0.18561876 -0.18815415 -0.05767636 -0.46298 0.1128548 -0.53081745 -0.65141076
-0.32189107 0.29579604 -0.5094239 -0.03551505 0.38278437 -0.19078065 0.4233982 0.0016457202
0.043854423 1.152507 0.29335186 -0.026580535 -0.11266163 0.15075193 0.2863055 0.30473888
-0.39421812 -0.44119933 0.18697417 -0.05089974
00000000: 08b4 4c3e 9656 ee3e 2461 d1be 79d5 453e
00000010: 35b9 6c3e 9561 f83e 3e2c d33e e624 af3e
00000020: 3c04 05bf 77b2 393d 4b2a 08bd 833c 913d
00000030: 1355 29be f253 073f cf74 bfbd 0985 b7be
00000040: 70e8 9a3e 9b9d 1f3d ec1a 88be 6c12 c63e
00000050: 18ab c1be 7779 4a3d 7bcf 0b3d 9b32 49be
00000060: e56a 173e f02f b0be 8ecf dfbe 9a6e d3bd
00000070: d46c 4d3f f430 c9be ca06 2e3e ff20 42be
00000080: 65a0 40bd 7586 143f d767 a4be 1fbf d6be
00000090: 20ca 1dbd 5e91 01bd 5238 bd3e 6e70 c13d
000000a0: b1c8 d33e 0793 a7be 13f7 f0be 8401 1ebf
000000b0: 2161 0fbf 2e91 233c 781a f0bd d72e 683b
000000c0: 81ff ffbd 7760 693f 47e5 683e 10a5 933e
000000d0: 039b debd 9cb1 2ebc 093d 0c3f e6ff 833e
000000e0: 102f 33be 24e0 3b3e 4261 eebe f37a a13e
000000f0: 66d8 d0be ef7a f6be 977c 04bf 74a9 493e
00000100: fed3 443e 131b 95bd 175c 1dbd c81b 2a3e
00000110: f629 7f3e e874 073f ee0a 10bc 71d3 8b3e
00000120: e28b cd3d d812 3e3e 7bab 40be 0c3e 6cbd
00000130: b70b edbe 6b20 e73d a7e3 07bf dbc2 26bf
00000140: e8ce a4be 9472 973e 9b69 02bf 3b78 11bd
00000150: 50fc c33e 015c 43be a6c7 d83e 35b5 d73a
00000160: b2a0 333d 5985 933f 3732 963e 6cbf d9bc
00000170: 24bb e6bd b75e 1a3e a296 923e bc06 9c3e
00000180: f5d6 c9be e1e4 e1be 2876 3f3e 3f7c 50bd

phi_to.mlp.mlp.2.bias f4 [10]
-0.060916398 -0.030578831 -0.0016438005 0.09296133 0.010100741 0.030166073 -0.1231126 0.103544965
0.015164212 -0.07280832
00000000: 7983 79bd 7580 fabc cb74 d7ba 8362 be3d
00000010: 947d 253c d71e f73c 7522 fcbd 620f d43d
00000020: 5173 783c 871c 95bd

phi_from.mlp.mlp.0.weight f4 [10, 23]
-0.36645105 -0.35471457 0.4642106 -0.5387462 0.28606096 -0.23150244 -0.18043043 0.5145294
-0.40103644 -0.44828165 -0.07822557 -0.03216269 -0.48236814 -0.37969244 -0.23591349 -0.19397426
-0.43116233 -0.1721526 -0.093003385 0.06193424 -0.007070685 0.005712673 -0.01629803 0.14400095
-0.5595661 -0.2564465 -0.26545194 0.65487766 0.48198512 0.09591992 0.22827986 -0.2701142
-0.00126546 0.15748432 0.36671862 -0.58132297 0.3518957 -0.04344237 -0.7439567 0.26146743
0.14887697 0.4433523 0.33964312 0.0014378018 0.00031019372 -0.15125374 0.11388929 0.048437808
0.18958658 0.018234836 -0.08168059 0.017262539 0.40501535 -0.3602128 0.35303587 -1.4523945
-0.32248145 -0.107434966 -0.17703632 -0.26459718 0.010983856 -0.10134253 -0.25138855 -0.15762047
0.03264677 -0.85747343 -0.0012797887 0.003311402 0.009427844 0.34712523 -0.3563576 0.25285578
0.14950664 0.1898039 0.3934889 0.12497037 0.21472962 -0.18061514 -0.3857886 0.102208346
0.41258737 -1.2747682 0.058748364 0.069828376 -0.25230268 0.21702175 -0.17967509 0.29156783
1.0121993 0.0051471787 -0.00026472405 -0.4586404 0.057426017 0.4488837 -0.4463144 -0.18286176
-0.2947198 0.16167654 0.40842307 0.16732855 -0.17402062 -0.25103423 0.12468166 0.08866336
-0.07692258 0.24493146 -0.088919215 0.23465164 -0.39004377 -0.39618212 0.4347412 0.3864025
0.00266365 0.0016526532 -0.053614218 -0.26931998 0.16380972 0.19053166 0.44902268 -0.4281222
-0.1104942 -0.55872 0.063198194 0.34681773 0.1641363 -0.19567503 0.45643958 -0.3769996
-0.2292113 0.14530958 -0.037617408 0.3753007 -0.3636815 -0.34710854 -0.12506856 0.0044769216
-0.0019623516 -0.088493995 -0.36024883 0.21336958 -0.82110643 -0.41168904 -0.21155554 0.04274862
-0.58286566 0.099255025 0.069264196 -0.57945883 0.114785776 -0.023369486 -0.37867427 -0.39858985
-0.6861947 -0.20826103 -0.47536242 0.45376885 -0.3219042 -0.7625381 0.000719789 0.00093869126
-0.091080844 0.14241116 -0.35458288 -0.21914336 -0.2005081 -0.85398287 -0.06045691 -0.01276523
-0.19372655 0.45567876 0.15336353 0.004810746 0.34522843 -0.56066394 -0.10895682 0.3464671
0.5491768 0.4329375 -0.37132046 0.10703583 -0.08121235 -0.0027519476 0.0006044132 0.039759204
0.22279735 -0.48523057 -0.1562681 0.19458611 0.5397971 0.11113992 -0.7028376 0.15207161
-0.4774061 -0.0771766 0.38610035 0.3031009 -0.49832648 -0.57791847 0.45708147 -0.25158352
-0.08431806 -0.19219084 -0.509609 0.7252963 0.0011094488 0.001139775 -0.22187406 -0.27947703
0.058184978 0.22700357 0.0870842 0.19159225 0.111010954 -0.30754238 -0.4139905 -0.66330814
-0.11215511 -0.27817485 0.28664103 -0.28501466 0.102612816 -0.063694336 -0.32981616 -0.3373415
-0.61077887 0.27559984 0.23526 -0.0016273168 0.002312488 -0.06894319
00000000: 799f bbbe 269d b5be 03ad ed3e 45eb 09bf
00000010: 9576 923e fa0e 6dbe c1c2 38be 33b8 033f
00000020: a654 cdbe 2c85 e5be ba34 a0bd 06bd 03bd
00000030: f5f8 f6be 0c67 c2be 4e93 71be 30a1 46be
00000040: 4fc1 dcbe c548 30be 8f78 bebd c2ae 7d3d
00000050: 34b1 e7bb 6031 bb3b 7283 85bc fc74 133e
00000060: b93f 0fbf f54c 83be 51e9 87be 10a6 273f
00000070: c1c6 f63e aa71 c43d 32c2 693e 694c 8abe
00000080: cbdd a5ba 9243 213e 8bc2 bb3e 95d1 14bf
00000090: ac2b b43e a0f0 31bd f273 3ebf 0fdf 853e
000000a0: 3473 183e 13ff e23e b4e5 ad3e 9f74 bc3a
000000b0: 7fa1 a239 43e2 1abe ca3e e93d b966 463d
000000c0: fc22 423e 3961 953c 2748 a7bd 2b6a 8d3c
000000d0: 2c5e cf3e d06d b8be 1ec1 b43e 10e8 b9bf
000000e0: 4a1c a5be dd06 dcbd 0249 35be 4879 87be
000000f0: a2f5 333c ac8c cfbd 00b6 80be 4367 21be
00000100: 9fb8 053d 6183 5bbf 95be a7ba 1b04 593b
00000110: 3e77 1a3c 66ba b13e 8174 b6be 5076 813e
00000120: 4518 193e f45b 423e 6177 c93e 77f0 ff3d
00000130: 15e2 5b3e 2df3 38be 1586 c5be 9c52 d13d
00000140: a73e d33e 9b2b a3bf 20a2 703d 2e02 8f3d
00000150: d12d 81be f33a 5e3e bffc 37be 6148 953e
00000160: bf8f 813f aaa9 a83b a9ca 8ab9 ead2 eabe
00000170: 8b37 6b3d 16d4 e53e 5283 e4be 1d40 3bbe
00000180: 83e5 96be 898e 253e d41c d13e 2d58 2b3e
00000190: 7632 32be 8f87 80be 1959 ff3d 2395 b53d
000001a0: 9689 9dbd 50cf 7a3e 471b b6bd 8548 703e
000001b0: d1b3 c7be 62d8 cabe 6696 de3e 8cd6 c53e
000001c0: a290 2e3b d79d d83a 959a 5bbd 4fe4 89be
000001d0: bcbd 273e bb1a 433e 4de6 e53e d532 dbbe
000001e0: c84a e2bd 4608 0fbf 0e6e 813d 1892 b13e
000001f0: 5913 283e 095f 48be 73b2 e93e 1706 c1be
00000200: 5eb6 6abe 09cc 143e b614 1abd 6a27 c03e
00000210: 7634 babe 36b8 b1be f911 00be 24b3 923b
00000220: cc9a 00bb 573c b5bd 8972 b8be 8e7d 5a3e
00000230: 0834 52bf e8c8 d2be 04a2 58be 2d19 2f3d
00000240: af36 15bf 3846 cb3d 63da 8d3d 6a57 14bf
00000250: ce14 eb3d 5d71 bfbc 98e1 c1be f813 ccbe
00000260: 75aa 2fbf 6142 55be b462 f3be 6454 e83e
00000270: a1d0 a4be b235 43bf 39b0 3c3a 8112 763a
00000280: 9888 babd 3bd4 113e e38b b5be 1e67 60be
00000290: ff51 4dbe 9f9e 5abf aaa1 77bd 4125 51bc
000002a0: 4160 46be ba4e e93e 540b 1d3e 76a3 9d3b
000002b0: c8c1 b03e ac87 0fbf c124 dfbd 2364 b13e
000002c0: da96 0c3f fca9 dd3e b71d bebe 9a35 db3d
000002d0: a952 a6bd 055a 34bb 7c71 1e3a 8cda 223d
000002e0: fd24 643e 2470 f8be bf04 20be 9541 473e
000002f0: 2530 0a3f 549d e33d 2aed 33bf a9b8 1b3e
00000300: 936e f4be c40e 9ebd f2ae c53e 0b30 9b3e
00000310: a624 ffbe 77f2 13bf 9506 ea3e 8ecf 80be
00000320: f2ae acbd adcd 44be bc75 02bf 05ad 393f
00000330: ed6a 913a 8164 953a f432 63be 9d17 8fbe
00000340: 5f53 6e3d a073 683e 3359 b23d c230 443e
00000350: b659 e33d 3276 9dbe 90f6 d3be 90ce 29bf
00000360: 94b1 e5bd ef6c 8ebe 9dc2 923e 71ed 91be
00000370: ab26 d23d 2d72 82bd aadd a8be 06b8 acbe
00000380: 015c 1cbf 6c1b 8d3e ffe7 703e b14b d5ba
00000390: 1c8d 173b 1632 8dbd

phi_from.mlp.mlp.0.bias f4 [10]
0.06489271 0.029193003 0.0674493 -0.04802158 0.11641775 0.09512926 -0.012384569 0.05090405
0.07830658 -0.08258302
00000000: 78e6 843d 2a26 ef3c dc22 8a3d 47b2 44bd
00000010: 6e6c ee3d 21d3 c23d a6e8 4abc c480 503d
00000020: 335f a03d 4921 a9bd

phi_from.mlp.mlp.2.weight f4 [10, 10]
-0.4969818 0.06143054 -0.041746873 -0.3558903 0.28804728 0.23389839 -0.6855058 -0.15611301
-0.06068234 -0.21480528 -0.01989905 -0.06901137 -0.355092 -0.035050396 -0.492054 0.45457157
0.23783526 0.58071494 0.90355265 -0.14714715 -0.28892738 0.11075523 0.28044754 -0.032000393
-0.2753536 -0.56321186 -0.7213269 0.6145795 -0.40048087 -0.56592757 0.21213096 1.2093763
0.05731569 0.026835319 0.54672337 -0.34945142 -0.41319835 -0.09196391 -0.0077535487 0.18735543
-0.2466043 1.2119921 -0.1684329 0.5446091 -0.2303591 -0.37732944 -0.21400045 -0.08698761
0.7279452 -0.7385412 -0.17826234 0.54618865 0.066254795 -0.31945607 0.5886931 -0.3604988
0.5391395 0.09159173 -0.44979993 0.035014678 0.15434991 0.6594986 -0.17769206 0.23809405
0.02540214 -0.22538796 -0.032176487 -0.09174171 -0.16819938 -0.045374773 -0.5835844 0.08422453
-0.012777251 0.76022273 -0.1862259 -0.12231595 -0.39728415 -0.40030184 -0.68448627 -0.0060041216
-0.087290086 -0.28009734 0.5126489 -0.0686419 -0.06794888 0.61132216 -0.5565281 -0.09581823
-0.6649226 0.19792135 -0.053326905 0.22300026 -0.16529396 -0.02025929 0.63332343 -0.0006225516
-0.30333474 0.21266338 0.31801674 0.028334979
00000000: 6674 febe 979e 7b3d c5fe 2abd 4137 b6be
00000010: ef7a 933e 0f83 6f3e 4f7d 2fbf 17dc 1fbe
00000020: 0c8e 78bd eaf5 5bbe 5503 a3bc d555 8dbd
00000030: 9ece b5be 0191 0fbd 80ee fbbe 9bbd e83e
00000040: 168b 733e bca9 143f 3a4f 673f bead 16be
00000050: 4aee 93be a3d3 e23d d296 8f3e d812 03bd
00000060: 26fb 8cbe a72e 10bf e1a8 38bf 1555 1d3f
00000070: d40b cdbe a1e0 10bf dc38 593e d8cc 9a3f
00000080: dbc3 6a3d bed5 db3c 10f6 0b3f 4ceb b2be
00000090: bc8e d3be 9357 bcbd 7b11 febb 1ada 3f3e
000000a0: d685 7cbe 8f22 9b3f ad79 2cbe 816b 0b3f
000000b0: 42e3 6bbe 5331 c1be ef22 5bbe 8f26 b2bd
000000c0: 9e5a 3a3f 0911 3dbf 678a 36be 05d3 0b3f
000000d0: 98b0 873d bf8f a3be 97b4 163f 4c93 b8be
000000e0: 0c05 0a3f 7294 bb3d 2d4c e6be 8d6b 0f3d
000000f0: e70d 1e3e e6d4 283f e8f4 35be edce 733e
00000100: 2618 d03c 1acc 66be 7ecb 03bd 14e3 bbbd
00000110: 753c 2cbe e6da 39bd ca65 15bf e97d ac3d
00000120: ad57 51bc f59d 423f 01b2 3ebe c980 fabd
00000130: d468 cbbe 5df4 ccbe 7e3a 2fbf 39be c4bb
00000140: 25c5 b2bd eb68 8fbe f53c 033f 2094 8cbd
00000150: c828 8bbd 9c7f 1c3f a078 0ebf 593c c4bd
00000160: 5e38 2abf e5ab 4a3e 506d 5abd 2e5a 643e
00000170: d242 29be cff6 a5bc 7c21 223f bb32 23ba
00000180: b14e 9bbe 6ec4 593e 17d3 a23e c21e e83c

phi_from.mlp.mlp.2.bias f4 [10]
-0.019128904 -0.046344403 0.07589172 -0.05536308 -0.044898953 0.081857376 -0.06920318 -0.03844304
-0.025965106 -0.05220921
00000000: 38b4 9cbc a1d3 3dbd 1e6d 9b3d 66c4 62bd
00000010: f7e7 37bd d7a4 a73d 66ba 8dbd 7376 1dbd
00000020: c6b4 d4bc 53d9 55bd

z_k.mlp.0.weight f4 [10, 33]
0.5711356 -0.6110208 0.14892936 -0.1785097 0.68234575 -0.08128377 -0.08720391 -0.12772684
-0.22284313 0.23256825 -0.41072974 -0.074790046 0.31783617 0.35164565 -0.049722932 -0.6974132
0.65045875 -0.50801116 0.39455315 0.12528688 -0.4466932 -0.06826114 0.3089375 -0.3537419
0.42490718 -0.60250676 0.5933279 0.34417287 0.022809077 -0.27724957 -0.056507763 -0.15416911
0.11001703 0.065275945 -0.45946515 -2.9372807 -0.06210562 -0.026009947 0.6264617 -0.0044674114
0.6894089 -0.51622933 0.44796252 0.13064893 -0.17258893 0.17138177 -0.6798889 -0.18536459
0.058435038 0.09452339 -0.22177581 0.018551929 0.30176374 0.11975033 0.36046648 0.39291316
0.52081245 -0.067049235 -0.6650758 0.2791834 0.023250163 -0.15895848 0.27448386 0.011924025
4.491259e-05 -0.39176646 0.0979541 -0.2683453 -1.0652382 -0.19073378 2.0308068 -0.50945216
0.17679133 -0.2677458 -0.21209691 -0.7731188 -0.44413045 -0.3150392 0.3997636 -0.3570841
0.23069504 -0.3770422 0.72486514 -0.031736802 0.5566873 0.6786158 -0.3923967 0.16711803
0.19014661 -0.46755573 0.41654044 -0.5066176 0.6270861 0.0027927782 -0.54942137 -0.02286894
0.062146805 -0.092349075 0.06502334 0.45977896 -0.15160596 -3.4732301 0.57603264 -0.85056716
0.81668776 1.3661454 1.8671249 0.014148531 0.68920237 0.18490838 -0.13423374 -0.0132334465
0.016086118 -0.3486785 -0.33400363 -0.6099126 0.25738665 -0.7106965 0.14458244 0.5789427
0.38894862 -0.031020807 0.36237484 0.65526766 -0.17180936 0.61035484 -0.13671125 -0.53089035
0.4702086 0.00524493 0.20936957 -0.4325699 0.1360819 0.2999907 1.7266405 0.6920925
2.9197524 0.07718238 0.18272348 2.0558639 0.057300605 -0.7725258 -0.013750853 0.1845115
0.7586971 0.11259177 0.11258403 -1.4087415 0.35968822 -0.34165442 0.5615716 -1.2844887
-0.08145437 -0.2663974 0.21865018 0.2922571 0.9239139 -0.1298096 0.6206565 0.580732
-0.23401144 0.23245136 -0.047444154 -0.23050494 -0.40548164 0.57508487 -0.38580462 -2.5466676
-0.34081212 0.28977463 -0.36361775 -0.019154094 1.1256963 -0.03766448 -0.13929784 -0.25080448
0.08692559 0.052028727 -0.3420268 0.11160514 -0.26738387 0.59283817 -0.25691164 0.20441504
0.6363171 0.11856679 -0.5200028 0.869922 -0.11677243 0.5489759 -0.11377255 0.27472568
0.59462464 -0.4328231 -0.38647947 0.27042812 -0.20945734 -0.13238442 0.59268177 -0.16600345
0.9251736 -0.017452992 -1.3598006 -0.10183415 0.44834998 0.2889841 -0.10632365 1.149906
0.040226467 -0.15664122 0.33865422 -0.2610514 -0.10838736 -0.2614198 0.19240221 -0.10457285
-0.1149097 -0.0019151232 -0.054636214 0.2316472 -0.5227614 0.1493671 0.13357121 0.015258425
0.14826341 0.3099274 -0.3741276 -0.01134229 0.022473715 -0.34847084 -0.10163086 -0.14792682
-0.45742142 0.18611214 -0.33583692 0.70229805 -0.59980345 -0.22877276 1.2470351 -0.32494122
-0.5108534 -0.39301524 0.3325593 0.4093011 -0.7522195 0.21334907 0.21154584 0.4731883
0.30182645 0.12754741 -0.05550699 0.42245802 -0.09337096 0.115901075 -0.0419779 0.5935747
00000000: f135 123f dc6b 1cbf f080 183e 3fcb 36be
00000010: 36ae 2e3f 1b78 a6bd f797 b2bd d3ca 02be
00000020: fd30 64be 5f26 6e3e 2b4b d2be 862b 99bd
00000030: 6cbb a23e e60a b43e 46aa 4bbd ac89 32bf
00000040: 7784 263f 050d 02bf df02 ca3e 344b 003e
00000050: f9b4 e4be 7fcc 8bbd 0e2d 9e3e a91d b5be
00000060: 6f8d d93e e23d 1abf 56e4 173f 6d37 b03e
00000070: 1ada ba3c a8f3 8dbe af74 67bd 82de 1dbe
00000080: 9c50 e13d 65af 853d 043f ebbe 68fc 3bc0
00000090: 7662 7ebd d012 d5bc cb5f 203f 5d63 92bb
000000a0: 1a7d 303f 9b27 04bf 585b e53e d5c8 053e
000000b0: 27bb 30be b47e 2f3e 330d 2ebf 37d0 3dbe
000000c0: 9459 6f3d 7b95 c13d 3319 63be 37fa 973c
000000d0: c780 9a3e a93f f53d 108f b83e ea2b c93e
000000e0: f753 053f 1c51 89bd 6842 2abf 20f1 8e3e
000000f0: 2077 be3c 03c6 22be 2689 8c3e fc5c 433c
00000100: 8760 3c38 9d95 c8be 299c c83d 8e64 89be
00000110: ba59 88bf b74f 43be bdf8 0140 756b 02bf
00000120: c908 353e fa15 89be ef2f 59be 1deb 45bf
00000130: 1165 e3be d14c a1be d1ad cc3e bad3 b6be
00000140: 523b 6c3e ad0b c1be c390 393f 73fe 01bd
00000150: 0f83 0e3f c4b9 2d3f 38e8 c8be fd20 2b3e
00000160: cbb5 423e 7763 efbe ca44 d53e b1b1 01bf
00000170: b788 203f 0b07 373b e1a6 0cbf a557 bbbc
00000180: a68d 7e3d 8321 bdbd f52a 853d 2668 eb3e
00000190: 983e 1bbe 6749 5ec0 e076 133f c5be 59bf
000001a0: 7312 513f dadd ae3f f3fd ee3f 3dcf 673c
000001b0: 916f 303f 9f58 3d3e 9274 09be 19d1 58bc
000001c0: 09c7 833c fd85 b2be 8602 abbe 3b23 1cbf
000001d0: 2fc8 833e 35f0 35bf 6b0d 143e 9735 143f
000001e0: 4624 c73e 591f febc 3289 b93e 9fbf 273f
000001f0: cbee 2fbe 3740 1c3f 09fe 0bbe 6ee8 07bf
00000200: 2ebf f03e a9dd ab3b fa64 563e cd79 ddbe
00000210: 0e59 0b3e 6298 993e 8e02 dd3f f92c 313f
00000220: 39dd 3a40 cc11 9e3d dd1b 3b3e 4693 0340
00000230: 0ab4 6a3d 40c4 45bf 424b 61bc 95f0 3c3e
00000240: f939 423f 8496 e63d 7592 e63d a451 b4bf
00000250: 0e29 b83e 54ed aebe 28c3 0f3f 206a a4bf
00000260: 8cd1 a6bd 3d65 88be d5e5 5f3e b9a2 953e
00000270: 9f85 6c3f cfec 04be 58e3 1e3f daaa 143f
00000280: b2a0 6fbe bb07 6e3e cd54 42bd 7d09 6cbe
00000290: 4a9b cfbe c338 133f 2f88 c5be 9afc 22c0
000002a0: ed7e aebe 575d 943e 1b2c babe 0ce9 9cbc
000002b0: d116 903f 1246 1abd 18a4 0ebe 7269 80be
000002c0: 0b06 b23d 131c 553d 231e afbe 3c91 e43d
000002d0: 8ae6 88be 3ec4 173f ec89 83be 2d52 513e
000002e0: ade5 223f 25d3 f23d e71e 05bf 35b3 5e3f
000002f0: 6226 efbd af89 0c3f 9501 e9bd d8a8 8c3e
00000300: 5239 183f fd9a ddbe a3e0 c5be 8e75 8a3e
00000310: fc7b 56be c88f 07be feb9 173f cffc 29be
00000320: 2dd8 6c3f 94f9 8ebc f20d aebf 6c8e d0bd
00000330: 218e e53e b9f5 933e 37c0 d9bd 1f30 933f
00000340: 82c4 243d 8e66 20be 1664 ad3e 87a8 85be
00000350: 31fa ddbd d1d8 85be 1605 453e 4a2a d6bd
00000360: c755 ebbd df04 fbba 39ca 5fbd ec34 6d3e
00000370: b1d3 05bf b0f3 183e e4c6 083e 79fe 793c
00000380: 5dd2 173e ceae 9e3e a78d bfbe 03d5 39bc
00000390: cc1a b83c c56a b2be d723 d0bd 217a 17be
000003a0: 2433 eabe 2e94 3e3e d1f2 abbe cec9 333f
000003b0: b88c 19bf 6843 6abe d99e 9f3f b25e a6be
000003c0: 4ac7 02bf 4b39 c9be 3645 aa3e ea8f d13e
000003d0: 7591 40bf 2e78 5a3e 799f 583e bd45 f23e
000003e0: ff88 9a3e ca9b 023e 4c5b 63bd 6b4c d83e
000003f0: 4639 bfbd 8b5d ed3d 05f1 2bbd 83f4 173f

z_k.mlp.0.bias f4 [10]
-0.42732856 -0.31904733 -0.33294168 -0.6143498 -0.021299545 -0.31549105 -0.27328166 -0.026022157
-0.059868377 -0.39018396
00000000: cfca dabe 2c5a a3be 5577 aabe 0746 1dbf
00000010: 627c aebc 0b88 a1be 93eb 8bbe 6b2c d5bc
00000020: 8b38 75bd 31c6 c7be

r_k.mlp.0.weight f4 [10, 33]
-0.02709466 -0.25913587 -0.477712 0.37905335 0.36854 0.18906182 -0.21072318 -0.07059409
0.17055698 0.4273211 -0.49207038 -0.18157513 0.007032225 0.16383182 -0.34317505 0.49675316
-0.24324678 0.1671894 -0.17064084 0.11418603 0.06160789 0.03722115 0.07640169 -0.6211128
0.34093782 -0.5434631 -0.28145152 0.16532332 -0.090839185 -0.2609229 -0.35822502 -0.3498798
0.29039803 -0.35549015 0.0122832665 -1.3183807 0.16500932 -0.9979335 -0.15751873 -0.55105907
0.44943702 -0.12398575 1.2024515 -0.20798804 0.21251036 0.33027598 0.5731303 -0.9345852
0.41180882 0.010757807 -0.8095736 -0.4394845 0.33187607 0.0010425202 -0.5716802 -0.48862785
-1.3927618 0.22664794 0.31994915 0.22322695 0.19600214 0.15012853 0.08245313 -0.08070101
0.21081404 -0.20167768 -0.4838057 0.54608345 -0.4715501 -0.5983399 0.35752267 0.35710225
0.2984627 -0.25054097 0.006432016 -0.15225606 0.6168912 0.11881252 0.12854771 -2.5121987
-1.518915 0.45774224 0.3169303 0.40535155 1.6122745 -0.74112666 0.042119253 -0.7841768
-0.4906152 0.7423826 -0.1537645 0.6577744 0.23790452 -0.05391187 -0.15286504 0.17818935
-0.5104993 0.10969952 0.3247696 0.5187336 0.2609556 0.27147534 0.43643144 -0.8324948
0.18323718 -0.2279967 -0.8830739 0.23123471 1.301806 -0.42013368 0.24288896 -0.018205171
-0.60224634 0.5019777 -0.20110048 0.018957121 0.09513194 0.45743644 -0.033321373 0.48935875
0.27224785 0.39178386 0.30712432 0.38191915 0.3826922 -0.13919327 0.29812646 -0.19952081
0.45307547 0.06899612 0.24412455 0.07072542 0.19632624 -0.15844843 -0.6142754 -0.21491112
0.424289 -0.99573493 0.14823766 -0.012571407 -0.28326175 1.2368116 0.107956454 0.48270354
-0.07183497 -0.818641 -0.4060629 0.3527554 0.46325907 0.64403504 0.7050382 0.00081594154
-1.2506791 0.20391887 0.1710432 -0.44524774 -0.31979612 -0.29175848 0.29293117 -0.34184977
-0.87150073 -0.48409858 -1.1999624 -0.18135394 0.25313064 0.08921297 -0.23561926 -0.83353955
-0.26512352 0.13643347 -0.15923586 -0.6884121 0.042115655 0.3423863 0.062203433 -0.072506934
-0.27064246 0.24976113 -2.0028763 -0.43318987 0.29050428 -0.12140054 0.41954485 -0.15483572
0.73129463 -0.96811026 2.434034 0.057285424 -2.6067343 0.32324448 -0.5212151 -0.0681374
-0.1667706 -0.07581748 -0.16516927 -0.25084832 -0.15438813 0.10172008 0.024480354 0.018555813
0.40123284 -0.20200007 1.8146318 -0.7769074 -0.08709254 0.58965856 -0.4319107 -0.22672601
0.1904161 -0.16288704 -0.06958521 0.2965391 0.010170994 -0.021768834 0.44586352 0.9956918
-0.72827303 0.25810573 -0.5315317 -0.023289267 -0.07174996 -0.40764076 0.1317531 -0.63689345
0.61193144 -0.44773096 -0.2916398 -0.16192052 -0.018356014 0.31535128 -0.12633052 0.340037
-0.43072227 -0.121689014 0.11849874 0.31647325 -0.07666767 0.23591805 -0.31182966 -0.28693932
0.57083195 0.26141748 -0.1537025 0.2151602 -0.5648638 -0.45560288 0.17771426 -0.24098967
-0.33931062 0.12522642 0.22834082 -0.17651904 0.18167363 0.39098665 -0.30542675 -0.024347361
00000000: 9ff5 ddbc 75ad 84be ab96 f4be 4813 c23e
00000010: 46b1 bc3e 6c99 413e d1c7 57be a293 90bd
00000020: 7da6 2e3e d5c9 da3e a6f0 fbbe d5ee 39be
00000030: 946e e63b 87c3 273e a4b4 afbe 6e56 fe3e
00000040: af15 79be b333 2b3e 79bc 2ebe 5eda e93d
00000050: 8e58 7c3d 3475 183d 7d78 9c3d 4001 1fbf
00000060: 678f ae3e 6620 0bbf 6a1a 90be 844a 293e
00000070: e509 babd b097 85be 4569 b7be 7223 b3be
00000080: 0daf 943e ce02 b6be c13f 493c b3c0 a8bf
00000090: 34f8 283e 9278 7fbf 974c 21be 3512 0dbf
000000a0: 9c1c e63e 3eec fdbd eee9 993f d1fa 54be
000000b0: 519c 593e ef19 a93e abb8 123f fa40 6fbf
000000c0: 9bd8 d23e 8341 303c 3740 4fbf 1d04 e1be
000000d0: a9eb a93e 2ca5 883a a259 12bf 6e2d fabe
000000e0: 0546 b2bf 6616 683e 60d0 a33e 9b95 643e
000000f0: c9b4 483e 4bbb 193e 30dd a83d 9246 a5bd
00000100: a3df 573e 9884 4ebe 61b5 f7be 20cc 0b3f
00000110: 046f f1be ce2c 19bf 360d b73e 1bd6 b63e
00000120: 1ad0 983e e846 80be a9c3 d23b 03e9 1bbe
00000130: 95ec 1d3f fa53 f33d 03a2 033e ddc7 20c0
00000140: cf6b c2bf 315d ea3e b044 a23e 3d8a cf3e
00000150: 035f ce3f 7aba 3dbf 3d85 2c3d d0bf 48bf
00000160: ea31 fbbe c90c 3e3f 7174 1dbe e763 283f
00000170: 3e9d 733e b1d2 5cbd a788 1cbe 4577 363e
00000180: 15b0 02bf 24aa e03d 3348 a63e bacb 043f
00000190: f99b 853e d1fe 8a3e f173 df3e 611e 55bf
000001a0: 87a2 3b3e f877 69be 2211 62bf cbc8 6c3e
000001b0: 94a1 a63f c31b d7be e2b7 783e 0323 95bc
000001c0: d12c 1abf 9c81 003f 49ed 4dbe f74b 9b3c
000001d0: 89d4 c23d 1c35 ea3e fe7b 08bd 3b8d fa3e
000001e0: 1264 8b3e e597 c83e 663f 9d3e e88a c33e
000001f0: 3bf0 c33e ae88 0ebe 08a4 983e 2f4f 4cbe
00000200: 82f9 e73e d64d 8d3d c9fb 793e 7dd8 903d
00000210: bf09 493e 4e40 22be 2741 1dbf a911 5cbe
00000220: 683c d93e 7ce8 7ebf 9dcb 173e 4df8 4dbc
00000230: af07 91be d84f 9e3f 4618 dd3d eb24 f73e
00000240: 361e 93bd 7592 51bf 7ae7 cfbe 5b9c b43e
00000250: 4b30 ed3e 7bdf 243f 627d 343f e9e4 553a
00000260: 4116 a0bf 1cd0 503e f325 2f3e 83f7 e3be
00000270: 51bc a3be 5e61 95be 13fb 953e ef06 afbe
00000280: ac1a 5fbf c5db f7be 5e98 99bf d9b4 39be
00000290: 579a 813e 4ab5 b63d 2d46 71be d962 55bf
000002a0: 45be 87be 37b5 0b3e ba0e 23be c63b 30bf
000002b0: 7781 2c3d 424d af3e 07c9 7e3d 847e 94bd
000002c0: a691 8abe 62c1 7f3e 202f 00c0 10cb ddbe
000002d0: fabc 943e d9a0 f8bd 95ce d63e 418d 1ebe
000002e0: 2036 3b3f 13d6 77bf 37c7 1b40 1fa4 6a3d
000002f0: bcd4 26c0 4d80 a53e 5a6e 05bf 9f8b 8bbd
00000300: eac5 2abe 3246 9bbd 2222 29be 316f 80be
00000310: ec17 1ebe 9e52 d03d 068b c83c 5c02 983c
00000320: 646e cd3e 1bd9 4ebe db45 e83f 67e3 46bf
00000330: 935d b2bd ddf3 163f 6623 ddbe dd2a 68be
00000340: 70fc 423e dccb 26be b182 8ebd f9d3 973e
00000350: 3ea4 263c 8e54 b2bc 3948 e43e a8e5 7e3f
00000360: 1a70 3abf 6f26 843e 7612 08bf 22c9 bebc
00000370: a5f1 92bd 4ab6 d0be 49ea 063e 730b 23bf
00000380: 8aa7 1c3f fe3c e5be d051 95be 7ece 25be
00000390: 5a5f 96bc b975 a13e ca5c 01be 5419 ae3e
000003a0: a187 dcbe 1738 f9bd 78af f23d c808 a23e
000003b0: f003 9dbd 8094 713e 23a8 9fbe b6e9 92be
000003c0: 0b22 123f 83d8 853e 3064 1dbe f552 5c3e
000003d0: ea9a 10bf c844 e9be bafa 353e ffc5 76be
000003e0: 1fba adbe 5b3b 003e 2dd2 693e 68c1 34be
000003f0: a708 3a3e 672f c83e e560 9cbe 1e74 c7bc

r_k.mlp.0.bias f4 [10]
-0.09746534 0.09499523 -0.0099263415 -0.266123 0.16343425 0.07783053 -0.16575201 -0.23973434
-0.25017333 0.22950833
00000000: e89b c7bd dc8c c23d 18a2 22bc 4641 88be
00000010: 4f5b 273e 9d65 9f3d e5ba 29be eb7c 75be
00000020: b816 80be 3b04 6b3e

correction.mlp.0.weight f4 [10, 33]
-0.11587903 0.16778572 1.3446745 -0.34429505 -0.8723383 0.50205034 0.19019929 0.0005030407
-0.07811696 -0.4305688 -0.18274485 -0.30144584 -0.26179078 0.07539664 -0.16286781 -0.28634858
-0.07612694 0.3733322 -0.2488735 0.4852741 0.297311 0.08898968 0.2951194 0.6162342
-0.09619482 -0.15084222 -0.11561819 -0.09744763 -0.373323 -0.12039499 -0.0211258 0.11938457
0.16335878 -0.47921744 -0.52228653 1.0090919 -0.2751295 -0.37536776 1.3031739 0.5925605
0.7528463 0.02598109 0.05212724 0.0022806975 0.18948336 0.18242973 0.28643766 -0.5314897
-0.123351194 -0.036423437 0.17425366 0.09360079 0.19582248 -0.41113713 0.05571566 0.27855977
0.21454233 0.113393426 -0.2690141 -0.27076668 -0.5077774 -0.0599096 0.09930944 0.047140792
0.21681988 -0.30315945 0.29182374 0.11607639 -1.6021782 0.642818 -0.93868965 0.40138543
-0.410671 -0.27676788 -0.15614484 -0.3681864 -0.0005423234 -0.009274478 -0.29402637 -1.5557348
-0.059407894 -0.17400904 0.33427727 0.16509406 0.2661411 -0.2914919 0.14066018 -0.13918371
0.23827492 -0.20897998 -0.3768726 -0.0031124055 -0.1519104 -0.20617631 -0.31517273 -0.1659738
0.023530798 -0.054323323 -0.1055286 0.3120159 -0.15387933 0.9625195 -0.38028985 0.5672397
-0.22445591 -0.06566301 -0.41543403 -0.20777543 0.635246 -0.2257685 0.11989857 0.009651424
-0.11176715 0.21687692 0.1783014 -0.12811951 -0.1770143 0.054943684 -0.25341782 -0.022570888
-0.5035766 0.007348753 0.3518382 -0.13727093 0.40996987 0.27261543 0.18049847 -0.33857706
0.24714719 -0.045375675 0.08276343 0.31389728 -0.07993981 0.84203196 0.10299931 -0.08422076
-1.5052013 0.03422535 0.7402964 -0.33656862 -0.19194236 0.3642317 -0.13990794 0.33016536
0.38777074 0.29728743 0.34502065 -0.21158248 0.06499634 -0.13446085 0.95183504 0.3028066
-0.86513436 -0.52273864 0.3309641 -0.26878235 -0.4766058 0.2723646 -0.57523084 0.42107686
-0.30503938 -0.09935329 -0.009993344 -0.26516473 -0.33575478 0.0352578 0.8922687 -0.38188285
-1.0952021 0.121834755 0.18869482 0.011372686 -0.4631319 0.14258608 -0.17957596 -0.15477905
0.048622716 -0.30496624 -0.8056299 -0.37372988 -0.22674437 0.23209389 0.17941171 0.029762788
-0.017273543 -0.41200295 -0.15697488 -0.096677855 0.46571004 -0.27443838 0.38330835 -0.029015265
0.16454636 -0.009290433 0.12136916 -0.027402092 -0.26401597 0.036675476 -0.3247499 0.43941173
-0.7227943 0.27464744 -2.0261412 0.9576502 0.2411725 0.5808318 0.104870744 -0.17786394
-0.17769042 -0.017337829 0.21994905 -0.61437833 -0.1044195 0.43392283 0.14567298 -0.32018
0.13281403 0.15542534 -0.11434994 0.16986947 0.013821045 -0.19365782 -0.20757097 -0.38548276
-0.021159973 -0.12887293 0.07235369 -0.21970819 0.058428694 -0.32787576 0.1122717 0.15177716
-0.53109926 -0.10901108 -0.4352422 0.10967633 -0.10477002 0.5171473 -0.8655458 0.2830458
0.63073355 0.15378268 0.3867263 0.20317052 -0.4699947 0.30340713 0.25714594 -0.16746974
-0.061763648 0.53519285 0.15549831 0.36292237 -0.12155398 0.3145619 -0.44830412 -0.20971152
00000000: fc51 edbd 05d0 2b3e 4b1e ac3f 7147 b0be
00000010: 9051 5fbf 5f86 003f 9ac3 423e 7dde 033a
00000020: c9fb 9fbd 8473 dcbe 7721 3bbe 1c57 9abe
00000030: 7109 86be 8e69 9a3d d2c6 26be 489c 92be
00000040: 71e8 9bbd 6625 bf3e b2d8 7ebe d975 f83e
00000050: 2639 983e 3940 b63d e419 973e 86c1 1d3f
00000060: ca01 c5bd 6276 1abe 3bc9 ecbd 9f92 c7bd
00000070: 3124 bfbe a691 f6bd 0410 adbc e67f f43d
00000080: 8647 273e fd5b f5be 92b4 05bf ec29 813f
00000090: c6dd 8cbe 3430 c0be 67ce a63f 0cb2 173f
000000a0: 89ba 403f 4bd6 d43c 5f83 553d c177 153b
000000b0: ed07 423e dcce 3a3e f5a7 923e b50f 08bf
000000c0: 8d9f fcbd be30 15bd 8d6f 323e c5b1 bf3d
000000d0: b085 483e 9180 d2be 1b36 643d 639f 8e3e
000000e0: fcb0 5b3e d03a e83d 37bc 89be eea1 8abe
000000f0: b3fd 01bf c563 75bd bf62 cb3d b416 413d
00000100: 0806 5e3e b737 9bbe ec69 953e 75b9 ed3d
00000110: 2d14 cdbf b88f 243f f74d 70bf 6482 cd3e
00000120: 7843 d2be 85b4 8dbe 6fe4 1fbe ee82 bcbe
00000130: b52a 0eba fbf3 17bc a08a 96be 5122 c7bf
00000140: b155 73bd 6d2f 32be 6426 ab3e 6b0e 293e
00000150: a543 883e 6d3e 95be 3909 103e 2d86 0ebe
00000160: 57fe 733e d9fe 55be 72f5 c0be 80f9 4bbb
00000170: 668e 1bbe e21f 53be 525e a1be 09f5 29be
00000180: a9c3 c03c 2282 5ebd 611f d8bd 8cc0 9f3e
00000190: 8b92 1dbe ae67 763f 5ab5 c2be 9f36 113f
000001a0: c5d7 65be 547a 86bd c5b3 d4be 15c3 54be
000001b0: 7b9f 223f dc2f 67be 628d f53d 0221 1e3c
000001c0: 2de6 e4bd fc14 5e3e a494 363e c331 03be
000001d0: 3d43 35be a10c 613d fbbf 81be 95e6 b8bc
000001e0: 65ea 00bf cfcd f03b 2324 b43e c090 0cbe
000001f0: 92e7 d13e 4094 8b3e 97d4 383e f959 adbe
00000200: 2714 7d3e d8db 39bd e07f a93d 25b7 a03e
00000210: 7cb7 a3bd 688f 573f 4df1 d23d ef7b acbd
00000220: 70aa c0bf e12f 0c3d 1184 3d3f b952 acbe
00000230: 8a8c 44be 947c ba3e 0744 0fbe 6f0b a93e
00000240: e389 c63e 0f36 983e 8ca6 b03e 14a9 58be
00000250: cd1c 853d 1bb0 09be 76ab 733f 7709 9b3e
00000260: 7279 5dbf 33d2 05bf 2074 a93e d79d 89be
00000270: ad05 f4be 5f73 8b3e 5442 13bf 6397 d73e
00000280: 1f2e 9cbe bd79 cbbd 1fbb 23bc acc3 87be
00000290: 0de8 abbe 7c6a 103d b96b 643f 2686 c3be
000002a0: 952f 8cbf 8084 f93d 3739 413e 8154 3a3c
000002b0: a01f edbe 1602 123e c3e2 37be 667e 1ebe
000002c0: 9d28 473d 8924 9cbe c33d 4ebf 8659 bfbe
000002d0: ad2f 68be 05aa 6d3e b4b7 373e 17d1 f33c
000002e0: 3f81 8dbc 0df2 d2be 06be 20be 0aff c5bd
000002f0: 8c71 ee3e 3083 8cbe fe40 c43e 6cb1 edbc
00000300: d77e 283e e636 18bc 6590 f83d 5a7a e0bc
00000310: 1a2d 87be 0639 163d 9e45 a6be 93fa e03e
00000320: 0c09 39bf 979e 8c3e 4cac 01c0 9028 753f
00000330: edf5 763e 65b1 143f 79c6 d63d f721 36be
00000340: 7af4 35be 1008 8ebc 533a 613e e647 1dbf
00000350: e4d9 d5bd 222b de3e 4c2b 153e a2ee a3be
00000360: 6700 083e d227 1f3e 4d30 eabd 43f2 2d3e
00000370: aa71 623c 3c4e 46be 7c8d 54be ff5d c5be
00000380: ae57 adbc 44f7 03be 2c2e 943d 2ffb 60be
00000390: ed52 6f3d 55df a7be b4ee e53d 796b 1b3e
000003a0: 1ff6 07bf 3341 dfbd 11d8 debe fc9d e03d
000003b0: aa91 d6bd c463 043f 6994 5dbf 61eb 903e
000003c0: c177 213f 3579 1d3e fd00 c63e ef0b 503e
000003d0: 25a3 f0be 2e58 9b3e a2a8 833e 307d 2bbe
000003e0: e1fb 7cbd 6602 093f f33a 1f3e f6d0 b93e
000003f0: 4bf1 f8bd 420e a13e 1e88 e5be 9ebe 56be

correction.mlp.0.bias f4 [10]
0.00023178104 0.04691312 0.1394834 0.042366207 0.5099552 -0.016604835 0.015067616 -0.1452724
0.070221774 0.05738407
00000000: 400a 7339 f927 403d bdd4 0e3e 3088 2d3d
00000010: 6d8c 023f dd06 88bc 29de 763c 4ac2 14be
00000020: 6fd0 8f3d 8f0b 6b3d

phi_neumann.mlp.mlp.0.weight f4 [10, 23]
-0.18926506 0.09473529 0.31056213 -0.16821632 0.060360588 -0.18805538 -0.21811053 -0.20095135
0.045122605 0.33717638 0.1448376 -0.3695067 1.1344726 -0.3789343 -0.03191435 -0.39443293
0.2760077 0.5841717 0.31957868 0.15741673 0.0019184814 -0.0019208259 0.30760035 0.1861503
-0.020126311 0.2768168 0.10041557 -0.49780497 -0.34452575 -0.474741 -0.019228524 0.2534971
0.39608166 0.15714942 0.1788245 -0.23289695 -0.39361608 0.024219722 -0.40815276 0.26873398
-0.3154377 -0.06164687 -0.11960057 -0.001060349 0.00035778945 -0.051075313 -0.029367534 0.4152401
-0.50589293 0.100468874 0.8542463 0.55258006 -0.06020201 0.06603175 -0.1983248 -0.49637112
-0.17815074 -0.1612533 -1.0988346 0.3926545 -0.0856743 -0.23681356 0.10563566 -1.3377173
0.23975947 0.08891436 -0.010197092 0.0010407272 -0.09228619 0.2377034 0.49452195 -0.16457032
-0.04735193 0.24351038 0.21234216 -0.40362304 0.26393658 0.24781443 -0.4575537 0.24729513
-0.058608316 0.028910229 0.062228918 0.52190846 -0.17688292 0.17783985 -0.073036514 -0.20056942
-0.6791928 -0.0011076708 0.002023583 -0.08674111 -0.36386263 0.07773186 0.17852634 0.42620715
0.3611302 0.44674507 -0.073183954 -0.32724303 -0.05180498 -0.24712822 0.21325281 0.024006112
-0.5621668 -0.26967493 0.34605604 -0.65840244 -0.30302203 -0.6901278 -0.27244636 0.28393972
-0.0003482721 -0.0010751033 -0.04596836 0.03199216 -0.09535047 0.07073281 -0.23430783 -0.19760993
-0.2855561 0.073395245 -0.2092092 0.47766525 -0.18126673 -0.38550344 0.26568255 -0.53984153
-0.2444175 0.12995088 0.31806853 -0.07020015 0.5457966 -0.16555198 -0.25286588 -0.0004466569
-0.0004229742 -0.06070468 0.31217703 -0.19920462 -0.3155124 0.3430445 -0.13463137 -0.106796555
-0.20465788 -0.9767228 -0.15416773 -0.31357825 0.35078585 0.23434125 1.02178 0.17061014
-0.4266083 0.81043005 0.07540282 0.04119682 -0.07455857 -0.2796198 -0.0051585897 0.0030082108
0.08567147 0.3907781 0.6071825 -0.20082638 -0.2223466 -0.15707932 -0.31385484 -0.0016247922
0.06878084 -0.41165268 -0.49202833 0.27129155 -0.120023765 -0.06779032 0.37950215 0.116772495
-0.29183808 -0.39912543 -0.25149256 0.45049435 -0.12104745 2.1212154e-05 -0.00035620757 -0.10664481
-0.06815668 -0.02293303 -0.81763756 0.27524287 -0.19371465 0.79482 0.36800867 1.2437135
-0.31450674 -0.58103067 0.33338952 0.0015917837 -0.99427795 0.008551229 -0.48731315 -0.1427804
0.19142997 1.2441936 -0.4502868 -0.4940735 -0.05111303 0.0008576352 -0.12015602 -0.057347894
0.4178425 -0.34529036 -0.3718546 -0.36820868 -0.1244107 0.4599573 -0.20403104 0.028921677
-0.20961834 0.19724806 -0.16462244 0.3314968 0.28896937 -0.35069683 0.033968054 -0.37253916
0.11670854 0.16501638 0.3678472 -0.00029884296 0.00041843735 -0.031650033
00000000: b3ce 41be 9304 c23d 0002 9f3e e640 2cbe
00000010: aa3c 773d 9791 40be 5e58 5fbe 31c6 4dbe
00000020: 7bd2 383d 62a2 ac3e 4f50 143e fb2f bdbe
00000030: 6636 913f ad03 c2be 9fb8 02bd 1df3 c9be
00000040: e250 8d3e 478c 153f d19f a33e da31 213e
00000050: 8e75 fb3a 39c4 fbba cb7d 9d3e 2f9e 3e3e
00000060: efdf a4bc eeba 8d3e aea6 cd3d 4be0 febe
00000070: ae65 b0be 4111 f3be 2385 9dbc 5fca 813e
00000080: 37cb ca3e c7eb 203e c51d 373e 8a7c 6ebe
00000090: 0c88 c9be 7068 c63c 66f9 d0be 8097 893e
000000a0: 0d81 a1be 6e81 7cbd 25f1 f4bd 69fb 8aba
000000b0: b095 bb39 5934 51bd 2f94 f0bc 5a9a d43e
000000c0: 3382 01bf a0c2 cd3d e3af 5a3f e375 0d3f
000000d0: 6296 76bd a73b 873d a815 4bbe 5b24 febe
000000e0: 266d 36be 961f 25be 9da6 8cbf 030a c93e
000000f0: 0276 afbd 417f 72be 8257 d83d 523a abbf
00000100: 8283 753e bb18 b63d b411 27bc 0369 883a
00000110: 8b00 bdbd 8568 733e fb31 fd3e 1f85 28be
00000120: 19f4 41bd c95a 793e 3970 593e aea7 cebe
00000130: b222 873e 11c3 7d3e 7b44 eabe ef3a 7d3e
00000140: 460f 70bd 25d5 ec3c c0e3 7e3d cb9b 053f
00000150: cc20 35be a61b 363e 2b94 95bd 1262 4dbe
00000160: 94df 2dbf 442f 91ba 179e 043b 53a5 b1bd
00000170: 344c babe e231 9f3d 9ccf 363e d337 da3e
00000180: 0fe6 b83e c5bb e43e 78e1 95bd 668c a7be
00000190: 7531 54bd 2e0f 7dbe f25e 5a3e 77a8 c43c
000001a0: 2aea 0fbf d512 8abe 422e b13e 108d 28bf
000001b0: b425 9bbe 37ac 30bf 177e 8bbe 8c60 913e
000001c0: 4a98 b6b9 7bea 8cba 5249 3cbd 360a 033d
000001d0: 1b47 c3bd 5ddc 903d 64ee 6fbe 425a 4abe
000001e0: 6934 92be 3f50 963d f03a 56be 8a90 f43e
000001f0: fc9d 39be b560 c5be 8b07 883e 0e33 0abf
00000200: 9548 7abe d811 053e e1d9 a23e 19c5 8fbd
00000210: 53b9 0b3f 7586 29be a377 81be 462d eab9
00000220: a3c2 ddb9 78a5 78bd abd5 9f3e 4cfc 4bbe
00000230: d78a a1be 87a3 af3e cedc 09be 27b8 dabd
00000240: d691 51be 810a 7abf 25de 1dbe 548d a0be
00000250: 349a b33e 27f7 6f3e b0c9 823f 6db4 2e3e
00000260: 676c dabe 5878 4f3f cb6c 9a3d ffbd 283d
00000270: 2ab2 98bd 542a 8fbe 6309 a9bb 6725 453b
00000280: 8674 af3d 1114 c83e 5070 1b3f 6ea5 4dbe
00000290: d4ae 63be 67d9 20be 95b1 a0be fbf6 d4ba
000002a0: f8dc 8c3d 24c4 d2be 23eb fbbe bae6 8a3e
000002b0: 05cf f5bd a7d5 8abd 1b4e c23e 6b26 ef3d
000002c0: cd6b 95be 2b5a ccbe a2c3 80be 32a7 e63e
000002d0: bae7 f7bd c1f0 b137 5fc1 bab9 9868 dabd
000002e0: bb95 8bbd 0dde bbbc b250 51bf a2ec 8c3e
000002f0: 225d 46be 5379 4b3f a26b bc3e 0132 9f3f
00000300: 0707 a1be 6dbe 14bf 08b2 aa3e 66a3 d03a
00000310: 0089 7ebf 741a 0c3c 1c81 f9be 0635 12be
00000320: 3806 443e bc41 9f3f fe8b e6be 34f7 fcbe
00000330: e65b 51bd edd2 603a 5c14 f6bd a0e5 6abd
00000340: 74ef d53e e6c9 b0be ba63 bebe d985 bcbe
00000350: 09cb febd 867f eb3e 83ed 50be 27ed ec3c
00000360: 31a6 56be 65fb 493e c992 28be f3b9 a93e
00000370: cbf3 933e 898e b3be 1622 0b3d 74bd bebe
00000380: e304 ef3d 0efa 283e 7856 bc3e 06ae 9cb9
00000390: b661 db39 77a3 01bd

phi_neumann.mlp.mlp.0.bias f4 [10]
-0.097341016 0.026608065 -0.16806346 0.14021198 -0.047900643 -0.0016555862 0.05699203 0.17683163
-0.7438366 0.027750053
00000000: ba5a c7bd 28f9 d93c d418 2cbe bb93 0f3e
00000010: 7733 44bd 4100 d9ba 7a70 693d 5a13 353e
00000020: 136c 3ebf 1454 e33c

phi_neumann.mlp.mlp.2.weight f4 [10, 10]
-0.12691182 0.6767743 -0.4162012 0.31023204 -0.1873463 -0.4247182 0.18430516 -0.07996683
0.62309915 -0.054831836 -0.3869654 -0.13804816 0.28089935 -0.047235712 -0.358009 -0.43236908
0.31506136 0.062346704 0.5500775 -0.1497458 -0.25080377 0.4304654 0.36669853 -0.019487808
0.42611572 0.45307475 -0.4846024 -0.23256196 -0.4196145 -0.25238866 0.10941633 0.3159039
-0.16475016 0.12808791 0.7442763 -0.4122603 -0.124045305 0.22091313 0.3317346 -0.21944784
0.16921312 0.23686182 0.049587753 0.4354287 -0.2837528 0.23248184 0.01287849 -0.13945106
0.32621652 -0.036849756 0.09175147 0.7329949 -0.431205 -0.6622591 0.61495805 0.29768443
0.0078017614 -0.2792569 -0.08764165 0.06579832 0.060786296 0.23303579 -0.29432994 -0.32764018
-0.9257939 -0.12005786 -0.014369545 0.5458861 0.060064062 0.3562715 -0.46888041 0.2512906
0.6363885 0.30137327 -0.20965634 -0.30477706 0.10743247 0.4995387 0.14112106 0.07556359
0.49611673 0.45331123 -0.09385835 0.04078139 0.36001754 0.48730975 0.13197733 -0.17659117
0.03927437 -0.14744931 0.08701646 0.27052277 -0.12450007 -0.034824703 -0.09232686 -0.42037082
0.28007743 -0.22283623 0.13970569 -0.512145
00000000: 2cf5 01be 1541 2d3f 5318 d5be bcd6 9e3e
00000010: b5d7 3fbe aa74 d9be 7eba 3c3e a6c5 a3bd
00000020: 6d83 1f3f 5997 60bd 5420 c6be 7f5c 0dbe
00000030: 0ad2 8f3e 3c7a 41bd f54c b7be 7b5f ddbe
00000040: b94f a13e 425f 7f3d e1d1 0c3f f756 19be
00000050: 5a69 80be f665 dc3e e9bf bb3e e5a4 9fbc
00000060: d72b da3e 6af9 e73e ce1d f8be b924 6ebe
00000070: b6d7 d6be 1639 81be ab15 e03d 28be a13e
00000080: 44b4 28be 7a29 033e e488 3e3f c813 d3be
00000090: 770b febd 0d37 623e 1ed9 a93e efb6 60be
000000a0: 3446 2d3e e88b 723e 871c 4b3d 83f0 de3e
000000b0: 0c48 91be b80f 6e3e 4d00 533c 42cc 0ebe
000000c0: da05 a73e c5ef 16bd 32e8 bb3d 8ea5 3b3f
000000d0: e7c6 dcbe d089 29bf e46d 1d3f 186a 983e
000000e0: eba5 ff3b c3fa 8ebe 777d b3bd 45c1 863d
000000f0: 0dfb 783d efa0 6e3e 6ab2 96be 74c0 a7be
00000100: d400 6dbf e5e0 f5bd 3d6e 6bbc 31bf 0b3f
00000110: bc05 763d 3869 b63e 1811 f0be 29a9 803e
00000120: 5bea 223f 994d 9a3e 27b0 56be bd0b 9cbe
00000130: 8e05 dc3d 89c3 ff3e 0a82 103e 15c1 9a3d
00000140: 0303 fe3e 6918 e83e ce38 c0bd 630a 273d
00000150: 3854 b83e aa80 f93e 1125 073e 51d4 34be
00000160: 29de 203d f4fc 16be b035 b23d f681 8a3e
00000170: e5f9 febd 59a4 0ebd dd15 bdbd d83a d7be
00000180: 4f66 8f3e 2e2f 64be 020f 0f3e ef1b 03bf

phi_neumann.mlp.mlp.2.bias f4 [10]
0.060821828 0.027371988 -0.014532186 -0.15003899 0.006023534 -0.0203039 -0.17305537 0.06958791
-0.043109678 0.051959068
00000000: 4f20 793d 383b e03c 6818 6ebc d2a3 19be
00000010: 1161 c53b 5d54 a6bc 6d35 31be 1b84 8e3d
00000020: c693 30bd 08d3 543d
