mixed/dsgps/results/30_ite_lamb_0_001_gamma_1/ckpt/final_model.pt (torch, 96581 bytes, 93 tensors)

laynorm.weight f4 [10]
0	0x3f800000	1.0
1	0x3f800000	1.0
2	0x3f800000	1.0
3	0x3f800000	1.0
4	0x3f800000	1.0
5	0x3f800000	1.0
6	0x3f800000	1.0
7	0x3f800000	1.0
8	0x3f800000	1.0
9	0x3f800000	1.0

laynorm.bias f4 [10]
0	0x00000000	0.0
1	0x00000000	0.0
2	0x00000000	0.0
3	0x00000000	0.0
4	0x00000000	0.0
5	0x00000000	0.0
6	0x00000000	0.0
7	0x00000000	0.0
8	0x00000000	0.0
9	0x00000000	0.0

phi_to.mlp.mlp.0.weight f4 [10, 23]
0	0xbf16d589	-0.5891958
1	0x3e420a56	0.18949255
2	0x3e9919be	0.29902452
3	0xbe98b1b3	-0.29823074
4	0xbd259c2c	-0.04043214
5	0x3e610713	0.21975355
6	0x3e5bf15d	0.21478792
7	0x3d550c87	0.0520139
8	0x3deac1ec	0.11462769
9	0xbef6fdee	-0.48240608
10	0xbe187dda	-0.14891759
11	0xbe872bd3	-0.26400623
12	0x3ed51e0b	0.41624483
13	0x3e835f9a	0.25658876
14	0xbf1a6be2	-0.60320866
15	0x3df6e4c5	0.12055353
16	0xbe8a5a8d	-0.2702221
17	0xbe59f963	-0.2128654
18	0xbe276089	-0.16345419
19	0x3eaea19c	0.34107673
20	0x3b8ed7ab	0.0043592057
21	0xbb18a9b7	-0.0023294517
22	0x3e07527b	0.13215058
23	0xbeee9727	-0.46599695
24	0xbec3e716	-0.38262242
25	0xbe333404	-0.17500311
26	0xbe2e7cb1	-0.17039753
27	0xbc6fed75	-0.0146440165
28	0x3dbf536c	0.09342083
29	0x3ec93b0c	0.39302862
30	0xbf1a2804	-0.6021731
31	0x3dfabab2	0.122426406
32	0x3c599df8	0.013282292
33	0xbdee1161	-0.116244085
34	0x3e463707	0.19356929
35	0x3eb1b120	0.34705448
36	0xbdb1a4ed	-0.08674035
37	0x3ea186b0	0.3154807
38	0x3e5bac16	0.21452364
39	0xbee6cf7e	-0.4508018
40	0x3f0a094e	0.5392045
41	0x3c830b2b	0.015996536
42	0x3e82dac0	0.25557518
43	0x3a0754e6	0.0005162492
44	0xba8fec3c	-0.0010980438
45	0xbdb2a6bd	-0.08723209
46	0xbe59e796	-0.2127975
47	0x3beada4a	0.0071671354
48	0xbe218a6e	-0.15775463
49	0xbe94c733	-0.29058227
50	0x3e32c2d7	0.17457138
51	0xbee72731	-0.45147088
52	0x3dcc81fc	0.0998573
53	0x3ed40c2e	0.41415542
54	0x3df56fa9	0.11984188
55	0xbe266a25	-0.16251428
56	0xbe86f855	-0.26361337
57	0xbd6f86cb	-0.058478158
58	0xbed64f8c	-0.41857564
59	0xbe0fc3fd	-0.14039607
60	0xbd8f70bd	-0.07003925
61	0x3e5e70ca	0.21722713
62	0xbe5e80e2	-0.21728852
63	0xbe2ac43b	-0.16676418
64	0x3e9759db	0.29560742
65	0xbefc2788	-0.4924891
66	0x39f359dc	0.00046415522
67	0x39c7e5b0	0.00038127368
68	0xbca085c5	-0.019595036
69	0xbdd79a52	-0.10527481
70	0xbea72366	-0.32644194
71	0x3f498b44	0.7872813
72	0x3e188d77	0.14897715
73	0xbe4ec68a	-0.20192924
74	0x3e2fd354	0.17170459
75	0xbdd2cbe9	-0.10292799
76	0x3ce754fe	0.02823877
77	0x3eb146b6	0.3462426
78	0x3d81ee60	0.063442945
79	0x3d9ebe77	0.07751172
80	0x3ef7032d	0.4824461
81	0x3d47646c	0.048679754
82	0xbe0ea86e	-0.13931438
83	0x3f203168	0.6257539
84	0x3df52efe	0.11971854
85	0x3d681b00	0.056666374
86	0x3f1c4f21	0.6105824
87	0xbe33a4d8	-0.17543352
88	0x3edbebb6	0.4295327
89	0xba472ff6	-0.00075983943
90	0xba0959ad	-0.0005239498
91	0xbe2670ba	-0.1625394
92	0xbed6b3ed	-0.41934147
93	0x3c3be418	0.011467956
94	0x3d5f2a73	0.054483842
95	0xbeb33a07	-0.3500521
96	0x3d67a79f	0.05655634
97	0xbeaf521f	-0.3424234
98	0xbf2d569e	-0.6771029
99	0x3d4eeb71	0.050517503
100	0x3e2e0d51	0.16997267
101	0x3de4342b	0.11142763
102	0x3dfcc28a	0.12341793
103	0x3ecde1ed	0.4021143
104	0xbf211a1a	-0.6293045
105	0xbe9db580	-0.30802536
106	0xbdf0f0d3	-0.117646836
107	0xbda9b27b	-0.082859956
108	0xbea9c357	-0.33156845
109	0x3e848f49	0.25890568
110	0x3be4c800	0.0069818497
111	0x3eb19701	0.3468552
112	0xb9eb32f1	-0.00044860647
113	0xbb317f0c	-0.0027083782
114	0x3e230e41	0.15923406
115	0xbecc36a8	-0.3988545
116	0x3dfeaaa7	0.12434893
117	0x3eb78be4	0.35848916
118	0xbe18dea1	-0.14928676
119	0x3d3ee7f1	0.046607915
120	0xbe85bda5	-0.2612125
121	0x3c0ab72f	0.008466526
122	0xbe34c28d	-0.1765234
123	0x3edab660	0.42717266
124	0x3e8ac36a	0.27102214
125	0x3e848932	0.25885922
126	0x3def2c01	0.11678315
127	0xbe76cafe	-0.24100873
128	0xbe24b0b1	-0.16083027
129	0x3db3dc39	0.087822385
130	0xbc01ea92	-0.007929461
131	0xbe578128	-0.21045363
132	0x3f030945	0.5118602
133	0x3e11794f	0.14206432
134	0xbeb30175	-0.3496205
135	0x3b03e141	0.0020123275
136	0x3b116c55	0.0022189815
137	0xbcb635c9	-0.022242444
138	0xbe925ff6	-0.28588837
139	0x3e333fa0	0.1750474
140	0x3e1889e9	0.14896359
141	0x3d7dcc0a	0.061962165
142	0x3e5f541a	0.21809426
143	0x3ea9b008	0.33142114
144	0xbdcf82e7	-0.101323895
145	0x3f02a013	0.51025504
146	0xbdac9b01	-0.08428002
147	0x3f263a84	0.6493304
148	0x3e2afa40	0.16697025
149	0x3ed4ce53	0.41563663
150	0xbe4a71c0	-0.19769955
151	0x3eca8ea3	0.39561948
152	0xbf1a1b45	-0.6019786
153	0x3e8616ba	0.26189214
154	0x3ceead53	0.029135382
155	0xbd941120	-0.07229829
156	0x3e1ecbf5	0.15507491
157	0x3e1ac77d	0.15115161
158	0x39896ba5	0.00026210878
159	0xbab24c49	-0.0013603057
160	0x3cebce37	0.028784854
161	0x3dc51ab2	0.09624232
162	0x3e9041b1	0.2817512
163	0x3ece946d	0.40347615
164	0xbe54f7a8	-0.20797598
165	0x3e737a01	0.2377701
166	0xbe9a5f85	-0.30151
167	0xbd9804fd	-0.074228264
168	0xbdf91b5f	-0.12163424
169	0x3e427e27	0.18993436
170	0xbecc58c0	-0.3991146
171	0xbf02396b	-0.5086886
172	0x3d9c7d18	0.07641047
173	0x3e94c6fe	0.2905807
174	0x3e2bde8a	0.1678411
175	0x3e117b5f	0.14207219
176	0xbdb57cfc	-0.088617295
177	0x3e058f2e	0.130429
178	0xbeaba889	-0.3352702
179	0x3e8523d5	0.260039
180	0xbea4b4c7	-0.32169172
181	0x3b39846b	0.0028307687
182	0xbaca1fb6	-0.0015420828
183	0xbe4bf953	-0.19919328
184	0x3ef06a97	0.46956322
185	0xbe90a967	-0.28254244
186	0x3f226b89	0.63445336
187	0x3d2d5248	0.042314798
188	0xbdec5a9c	-0.1154072
189	0x3e764954	0.2405141
190	0x3e8eef0b	0.2791675
191	0xbe765b3b	-0.24058239
192	0xbe6ec896	-0.23318705
193	0xbecbf37e	-0.39834207
194	0xbeaec89e	-0.34137434
195	0xbf9fa5ab	-1.2472433
196	0x3fd63a9f	1.673664
197	0x3eac9d26	0.33713645
198	0xbe7e0d49	-0.24809755
199	0x3e3df96a	0.18552175
200	0xbe5bec2c	-0.21476811
201	0xbef65b3d	-0.48116484
202	0xbe999eb8	-0.30003905
203	0x3ed48669	0.41508797
204	0x3b6bc4f6	0.0035975552
205	0xba8a2356	-0.0010539095
206	0x3e452671	0.19252945
207	0xbdb05e9d	-0.08611796
208	0x3e02db94	0.12779075
209	0x3e5edbaa	0.21763483
210	0x3ee22650	0.44169855
211	0x3ddb398b	0.10704335
212	0xbe970478	-0.29495597
213	0xbec3ddd0	-0.38255167
214	0x3eafb58f	0.34318206
215	0x3dd5e03f	0.10443162
216	0xbe888826	-0.26666373
217	0x3f4f52e8	0.8098588
218	0x3e69e7ba	0.22842303
219	0xbf043cde	-0.51655376
220	0x3e09166b	0.13387458
221	0x3f4a02ca	0.78910506
222	0xbf534e3e	-0.82541263
223	0x3f13d718	0.5775008
224	0xbdec0a45	-0.11525396
225	0xbe9bcbe9	-0.3042901
226	0xbed49d9c	-0.41526496
227	0x3ac320eb	0.001488713
228	0xba93e4a0	-0.0011283346
229	0xbe4671fe	-0.19379422

phi_to.mlp.mlp.0.bias f4 [10]
0	0x3d4f84b6	0.050663672
1	0xbc7b71b8	-0.015346937
2	0x3d0bad49	0.034100804
3	0x3d9946c0	0.074841976
4	0x3c3afc0f	0.0114126345
5	0x3d049b3c	0.032374606
6	0xbd241bde	-0.04006564
7	0x3de0239c	0.10944292
8	0x3e20e1cf	0.15711139
9	0x3e66d55f	0.22542332

phi_to.mlp.mlp.2.weight f4 [10, 10]
0	0x3e4c9f41	0.19982626
1	0x3eb5b715	0.35491243
2	0xbeb7d472	-0.3590427
3	0xbe357b94	-0.17722923
4	0x3e8520cb	0.26001582
5	0x3eee72ab	0.4657186
6	0x3ec00059	0.37500265
7	0x3eaff051	0.34363034
8	0xbf113673	-0.5672371
9	0x3f2dee90	0.6794214
10	0x3d76ad32	0.060223766
11	0x3dea1877	0.114304475
12	0xbd4d2f06	-0.050093673
13	0x3f625766	0.8841461
14	0xbe70a499	-0.23500289
15	0xbeeb7f86	-0.4599573
16	0x3eb56af1	0.35433152
17	0x3c260984	0.010134105
18	0xbe32a182	-0.17444423
19	0x3f21865c	0.6309564
20	0xbe94e16e	-0.2907824
21	0xbe215651	-0.15755583
22	0x3d843b43	0.06456616
23	0xbc9ada9c	-0.01890307
24	0x3e5ca3bd	0.21546836
25	0xbed637f5	-0.41839567
26	0xbf233d71	-0.6376563
27	0x3d4d0ec2	0.050062902
28	0x3f6bade8	0.92062235
29	0x3ebfee82	0.37486655
30	0x3e238534	0.15968782
31	0xbe8cf994	-0.27534163
32	0xbe35bbe3	-0.17747454
33	0x3eb3143e	0.3497638
34	0xbe96cd1d	-0.29453364
35	0xbea3c484	-0.31985867
36	0x3cba2eeb	0.02272745
37	0xbd638d6c	-0.055554792
38	0x3ea31ebe	0.31859392
39	0x3e50769a	0.20357743
40	0x3ed8cc88	0.42343545
41	0xbea3fcb1	-0.32028726
42	0xbef9fb1d	-0.48824397
43	0xbf1b3e70	-0.6064215
44	0xbf12c574	-0.5733254
45	0xbcde1181	-0.027107956
46	0xbe23ead3	-0.16007547
47	0x3d1f72ac	0.03892772
48	0xbe0d039c	-0.13770908
49	0xbebfaf72	-0.37438542
50	0x3e60d4d5	0.21956189
51	0x3ed3c27b	0.41359314
52	0xbdff3fcb	-0.124633394
53	0x3e3a2ce1	0.18181182
54	0x3f12b21f	0.5730304
55	0x3e536acf	0.20646213
56	0xbe017d5f	-0.12645482
57	0x3e4ca135	0.1998337
58	0xbed75497	-0.42056724
59	0xbcc4e56f	-0.024035184
60	0xbef3589a	-0.47528535
61	0xbf3766c9	-0.7164121
62	0xbee4846b	-0.44632277
63	0xbe5cedf3	-0.21575145
64	0x3e99d0db	0.30042157
65	0xbdb94e48	-0.09048134
66	0xbd539add	-0.05166136
67	0x3e1f1736	0.15536198
68	0x3e222c8a	0.15837303
69	0x3f293283	0.660927
70	0xbe051c81	-0.12999155
71	0x3ed02936	0.4065644
72	0x3e3e8d2d	0.18608542
73	0x3d4f1318	0.05055532
74	0xbe61ff14	-0.22069961
75	0xbd3288d4	-0.04358752
76	0xbef4d2a2	-0.4781695
77	0x3d3bc54f	0.045842465
78	0xbf055ba7	-0.52092975
79	0x3eebe7e4	0.46075356
80	0xbe781853	-0.24228029
81	0x3f0dac17	0.55340713
82	0xbf1ce4fb	-0.61286896
83	0xbe4547cc	-0.1926567
84	0x3e43fd22	0.19139531
85	0x3cd0b477	0.025476677
86	0x3eda8ef8	0.42687201
87	0xbe0b5e39	-0.13610162
88	0x3ed68f8c	0.41906393
89	0xbb59b450	-0.0033219047
90	0x3ea273fe	0.3172912
91	0x3e0cfed8	0.1376909
92	0xbda0ebb0	-0.07857454
93	0xbe183f37	-0.14867865
94	0x3e77d103	0.24200825
95	0x3ea810e9	0.328254
96	0xbeca6e30	-0.3953719
97	0xbed8f2ca	-0.42372733
98	0x3e8b985d	0.2726468
99	0xbd7d1065	-0.061783213

phi_to.mlp.mlp.2.bias f4 [10]
0	0xbc916808	-0.017749801
1	0x3b1283d3	0.0022356405
2	0xbd0789f9	-0.033090565
3	0x3e19f537	0.15034948
4	0x3d810315	0.06299416
5	0x3cce6497	0.02519445
6	0xbdda8de7	-0.10671597
7	0x3dde75b4	0.10862294
8	0x398a29ee	0.0002635265
9	0xbd27a646	-0.040930055

phi_from.mlp.mlp.0.weight f4 [10, 23]
0	0xbea07072	-0.3133579
1	0xbdae6546	-0.0851541
2	0xbe2ca80f	-0.16860984
3	0xbe3a9acd	-0.18223114
4	0xbd197a45	-0.03747012
5	0xbdad4c70	-0.08461845
6	0x3c88ebe3	0.016714042
7	0x3f0cca87	0.5499653
8	0xbf0f1481	-0.5589066
9	0xbebe77f1	-0.37200883
10	0x3d065aef	0.032801565
11	0x3da2eba1	0.07955099
12	0x3ea17883	0.31537256
13	0xbd67504a	-0.056473054
14	0xbf02755b	-0.5096032
15	0xbeb061ea	-0.34449703
16	0xbeacf1c7	-0.3377821
17	0xbee7369a	-0.45158845
18	0xbcce0cc5	-0.025152573
19	0x3afbcab5	0.0019210192
20	0x3c7a4db8	0.015277319
21	0xbbeaa9c5	-0.0071613514
22	0x3cc40ea9	0.023932772
23	0x3e37b439	0.17939843
24	0xbeaaa4d6	-0.33328885
25	0x3f391b1b	0.72306985
26	0x3df1a5ae	0.11799179
27	0x3e5d82c6	0.21631917
28	0x3f0e1f34	0.5551636
29	0x3dab305d	0.08358834
30	0x3f38c732	0.7217895
31	0xbe0c513e	-0.13702866
32	0xbe700c62	-0.23442224
33	0x3e1d1471	0.15339829
34	0x3ef7658a	0.48319656
35	0xbf11dd55	-0.5697835
36	0x3e8600ef	0.26172587
37	0xbee62dac	-0.4495672
38	0x3ec97a9a	0.3935135
39	0x3e6fcdfe	0.23418424
40	0x3d5cd30b	0.053912204
41	0x3e840163	0.25782308
42	0x3ea7e52e	0.32792038
43	0x3a6aff9c	0.00089644804
44	0x3a741280	0.0009310618
45	0xbdd27e08	-0.10277945
46	0x3e5f5eb7	0.21813475
47	0xbe972fb8	-0.29528594
48	0x3ef3a7b9	0.475889
49	0x3d7e5c58	0.062099785
50	0x3e606644	0.21914011
51	0x3d8dac10	0.06917584
52	0x3f2517f3	0.6448967
53	0x3e48b038	0.19598472
54	0xbd60f72b	-0.054923218
55	0xbf09d851	-0.538457
56	0xbe9ef432	-0.3104568
57	0xbe541192	-0.20709828
58	0xbf0a39c7	-0.5399441
59	0xbe94190c	-0.2892536
60	0x3efb1bd1	0.4904466
61	0x3cb64d4b	0.022253653
62	0xbdcfd591	-0.101481564
63	0xbf178ab4	-0.5919602
64	0x3e03bebf	0.12865733
65	0xbed47d2f	-0.41501758
66	0x3b85f037	0.0040874737
67	0xbaf6187c	-0.0018775607
68	0xbc741c0d	-0.014899266
69	0x3eb8b822	0.36077982
70	0xbe7a9a7d	-0.24472995
71	0x3e3d57c5	0.18490513
72	0x3e3fe12d	0.18738241
73	0x3e713328	0.23554671
74	0x3f87a397	1.0596799
75	0x3d33c810	0.043891966
76	0x3f9a1b25	1.2039534
77	0xbe8f100a	-0.27941924
78	0xbe947f21	-0.29003242
79	0x3ea11f33	0.31469116
80	0x3ef4eb30	0.47835684
81	0xbead7ed6	-0.3388583
82	0x3ddf6692	0.109082356
83	0xbcdbef35	-0.026847461
84	0xbe88e5f5	-0.26737943
85	0x3e124024	0.1428228
86	0xbefb31a2	-0.49061304
87	0x3ee50914	0.4473349
88	0x3e4cc38d	0.19996472
89	0x3ad382f4	0.001613705
90	0xba932bb4	-0.0011228235
91	0xbe67f512	-0.2265208
92	0x3dbe4ce8	0.092920125
93	0x3ee0b38b	0.4388698
94	0xbee84f80	-0.45373154
95	0xbe4dacb9	-0.2008542
96	0xbead60ae	-0.33862823
97	0x3e18f909	0.1493875
98	0x3ed37215	0.41297975
99	0x3e7633e8	0.24043238
100	0xbe2f5781	-0.17123224
101	0xbe253bbc	-0.16136068
102	0x3de7777c	0.11302087
103	0x3e0a3d5b	0.13499968
104	0xbd395131	-0.045243446
105	0x3e6c71ef	0.23090337
106	0xbd4c2c9a	-0.049847223
107	0x3e8c03bb	0.27346596
108	0xbed6b27e	-0.41933054
109	0xbf0fde8a	-0.5619894
110	0x3eda0ab9	0.42586306
111	0x3ec4ab5b	0.38411984
112	0x3b8b2f03	0.0042475476
113	0xb9ee6d97	-0.00045476548
114	0xbd3025f1	-0.043004934
115	0xbe954b99	-0.2915924
116	0x3e81d5df	0.25358483
117	0x3e4d8782	0.20071223
118	0x3ef0cdb5	0.47031942
119	0xbec4a773	-0.38409004
120	0xbd3a9e35	-0.045561034
121	0xbed6969a	-0.41911775
122	0x3e1494b9	0.14509858
123	0x3ec9851a	0.3935936
124	0x3df98c30	0.12184942
125	0xbe3390a5	-0.17535646
126	0x3efa6125	0.4890224
127	0xbea01860	-0.31268597
128	0xbe46407a	-0.19360533
129	0xbdcc1d04	-0.09966472
130	0xbde53806	-0.11192326
131	0x3eb83431	0.3597732
132	0xbea6b495	-0.32559648
133	0xbeb97407	-0.36221334
134	0xbcc8aac2	-0.024495486
135	0x3bba1229	0.0056784344
136	0xbb3c41ab	-0.0028725665
137	0xbd083590	-0.033254206
138	0xbe59f5dd	-0.21285196
139	0x3e938126	0.2880947
140	0xba8cdafd	-0.0010746416
141	0xbef0c16b	-0.47022566
142	0x3ddcb054	0.107758194
143	0x3e34c3cc	0.17652816
144	0xbf3fa2e4	-0.74857926
145	0xbe05e3a0	-0.13075113
146	0x3e9acefe	0.30236048
147	0xbf3a7b97	-0.72844833
148	0x3e8477b5	0.2587258
149	0xbd912a12	-0.070881024
150	0x3dd4a6a2	0.10383345
151	0xbea85ecb	-0.3288482
152	0xbe13c11a	-0.14429131
153	0xbf3051a6	-0.68874586
154	0xbe9717aa	-0.29510242
155	0x3e43985d	0.1910109
156	0xbf257905	-0.64637786
157	0xbebb057a	-0.36527616
158	0xbae63d3f	-0.001756586
159	0xb7fd0e3d	-3.016658e-05
160	0x3c12ab35	0.008951952
161	0x3d8d1235	0.06888238
162	0xbed27fb4	-0.41113055
163	0xbea62682	-0.32451254
164	0xbe80aecc	-0.2513336
165	0xbefb7157	-0.4910991
166	0xbda22587	-0.07917314
167	0xbe3ef364	-0.18647534
168	0x3c0781eb	0.008270721
169	0x3eef09c3	0.46687135
170	0x3d2465d7	0.040136185
171	0x3cecc1c2	0.028900985
172	0x3ea5b677	0.32365772
173	0xbf09ee98	-0.5387969
174	0xbdc843ca	-0.09778555
175	0x3f015126	0.5051445
176	0x3ef0aa41	0.47004893
177	0x3ee2a5e0	0.44267178
178	0xbe88b2fb	-0.2669905
179	0x3da9da04	0.08293536
180	0xbd58b3a8	-0.05290571
181	0xbc0ddb96	-0.00865831
182	0x3a666db2	0.00087901496
183	0x3d2b9810	0.041893065
184	0x3e4cab62	0.19987252
185	0xbe204059	-0.15649547
186	0x3e2cf1ce	0.16889116
187	0x3c182755	0.009286721
188	0xbdad01e6	-0.08447628
189	0x3ec95fc0	0.39330864
190	0xbecb04a4	-0.39651978
191	0x3d5161b2	0.05111856
192	0xbc9d638f	-0.019212512
193	0x3dd5403f	0.104126446
194	0x3ea8dadc	0.32979476
195	0x3ea0ce66	0.3140747
196	0xbf6bbd61	-0.92085844
197	0xbec43df4	-0.38328516
198	0xbcd01cd3	-0.02540437
199	0xbddc2c2b	-0.10750612
200	0x3e284ff3	0.16436748
201	0x3c389156	0.01126512
202	0x3da94a05	0.08266071
203	0x3eb964f9	0.3620985
204	0x3ab89c9c	0.0014084759
205	0xba99d62f	-0.0011736805
206	0xbdee83b7	-0.11646216
207	0xbed0bf1c	-0.40770805
208	0xbd4fdf5b	-0.050750118
209	0x3dd7c69c	0.105359286
210	0x3d010022	0.031494267
211	0x3e7f7141	0.24945547
212	0x3e28a12a	0.16467729
213	0xbe759ef2	-0.23986414
214	0xbdfbb09e	-0.122895464
215	0xbf2e8425	-0.68170387
216	0xbd7d4df6	-0.061841927
217	0xbeb121b4	-0.34596026
218	0x3e7faf30	0.24969172
219	0xbefe74ed	-0.49698582
220	0x3cf6430b	0.030061265
221	0x3e242cc1	0.16032697
222	0xbec4b21b	-0.38417134
223	0xbdd025eb	-0.10163482
224	0xbeddee53	-0.4334589
225	0x3ea24dc8	0.31699967
226	0x3e9de246	0.30836695
227	0xbc2fb842	-0.010725083
228	0x3bd304e8	0.006439794
229	0x3e3560d2	0.17712715

phi_from.mlp.mlp.0.bias f4 [10]
0	0xbd2b5cc2	-0.041836508
1	0x3d4d3c14	0.050106123
2	0x3e82c721	0.25542548
3	0x3c7521b7	0.0149616515
4	0x3de6d7a4	0.11271599
5	0x3de326a3	0.11091354
6	0xbc13d5de	-0.009023158
7	0x3d8a5b83	0.06755736
8	0x3df95912	0.12175192
9	0x3c35cb85	0.011095886

phi_from.mlp.mlp.2.weight f4 [10, 10]
0	0xbeabae7f	-0.33531567
1	0xbe9ed5e1	-0.31022552
2	0x3d937c1c	0.07201406
3	0xbf44f661	-0.76938444
4	0x3ea6930d	0.32534066
5	0x3e68e0a5	0.22741945
6	0xbf2ec9fb	-0.6827695
7	0xbe789b74	-0.2427805
8	0xbec48f0d	-0.3839039
9	0xbe20c5f8	-0.15700519
10	0xbcd96b9e	-0.026540574
11	0x3eed2aac	0.4632162
12	0xbea4abcd	-0.32162324
13	0xbda2f739	-0.0795731
14	0xbeee2c55	-0.46518198
15	0x3ee0f516	0.43936986
16	0x3e7085db	0.23488562
17	0x3f08e8d2	0.53480256
18	0x3f12e257	0.5737662
19	0xbe03d4bd	-0.12874122
20	0xbe7b15e0	-0.24520063
21	0xbda7a435	-0.08185617
22	0x3e6a13d9	0.22859134
23	0xbf11d237	-0.5696139
24	0xbeeaf983	-0.45893487
25	0xbebf8f80	-0.3741417
26	0xbf78c83a	-0.9718052
27	0x3f4f2094	0.80909085
28	0xbea7ad93	-0.32749614
29	0xbecdd71f	-0.40203187
30	0x3e377c47	0.17918502
31	0x3f5dcabb	0.8663747
32	0xbbd057e0	-0.0063581318
33	0x3e845bb8	0.25851226
34	0x3f078a82	0.5294572
35	0xbea9c20d	-0.33155861
36	0xbef2cb30	-0.47420645
37	0xbe32a877	-0.17447077
38	0xbd593f75	-0.053039033
39	0x3e2417a5	0.16024645
40	0xbd199b60	-0.037501693
41	0x3f50b3da	0.8152443
42	0xbbe3f8fe	-0.0069571724
43	0x3f8a8482	1.0821688
44	0xbe528a2b	-0.2056052
45	0xbea84604	-0.32865918
46	0xbe54da97	-0.2078651
47	0xbdf98513	-0.12183585
48	0x3e958a04	0.2920686
49	0xbf441726	-0.7659782
50	0xbe3ad649	-0.18245806
51	0xbda013c0	-0.07816267
52	0x3dc33007	0.09530645
53	0xbe1299bf	-0.14316462
54	0x3f0c8a9b	0.54898995
55	0xbeb80c37	-0.3594682
56	0x3f11057d	0.56649
57	0x3e186ab1	0.1488445
58	0xbe7982dd	-0.24366327
59	0xbc8fb82b	-0.017543873
60	0x3e835af3	0.25655326
61	0x3b434e56	0.002980133
62	0xbe286d4f	-0.16447948
63	0x3ed6d34f	0.4195809
64	0x3cb22812	0.021747623
65	0xbe5e81ca	-0.21729198
66	0x3d0e2223	0.034700524
67	0xbd884aff	-0.06654929
68	0x3e15aaad	0.14615889
69	0xbd53d30a	-0.051714934
70	0xbe648241	-0.22315313
71	0x3e43dd0d	0.19127293
72	0x3eb6bd61	0.3569136
73	0x3f576ddb	0.84152
74	0xbe43b1b7	-0.19110762
75	0xbdae91e2	-0.08523919
76	0xbea848d9	-0.32868078
77	0xbea9c48a	-0.3315776
78	0xbe839617	-0.25700447
79	0xbdded7ef	-0.1088103
80	0xbd971536	-0.073770925
81	0xbe9504c5	-0.291052
82	0x3f0f8033	0.5605499
83	0xbe901b89	-0.28146008
84	0xbcd2b458	-0.02572076
85	0x3f10abbc	0.56512046
86	0xbedff27a	-0.43739682
87	0xbe383132	-0.17987517
88	0xbf1572c5	-0.5837825
89	0x3e821b69	0.25411537
90	0xbdcc86b4	-0.0998663
91	0xbe0cce0f	-0.1375048
92	0xbda2bf9f	-0.07946705
93	0x3e7f99b0	0.24960971
94	0x3f1a546d	0.60285074
95	0x3ccfc414	0.025362052
96	0xbea6f010	-0.32605028
97	0x3e5ac735	0.21365054
98	0x3e9d3118	0.30701518
99	0x3d765f54	0.060149506

phi_from.mlp.mlp.2.bias f4 [10]
0	0xbd2d56fe	-0.04231929
1	0xbd32c155	-0.043641407
2	0x3cdf80c0	0.027283072
3	0xbd43b192	-0.047776766
4	0xbdabd4b0	-0.08390176
5	0x3dd008b4	0.1015791
6	0xbdc3ce89	-0.09560878
7	0x3cc8db99	0.024518775
8	0x3c0e39d0	0.008680776
9	0xbdae2d16	-0.08504693

z_k.mlp.0.weight f4 [10, 33]
0	0x3ee10281	0.43947223
1	0xbe53afb6	-0.20672497
2	0x3f12b6f6	0.57310426
3	0xbebff7dd	-0.37493792
4	0x3ebe1a1a	0.3712929
5	0x3db9f6c2	0.090802684
6	0x3dac1220	0.084018946
7	0xbe6f3a2a	-0.23362032
8	0xbea91406	-0.3302309
9	0x3e0389fb	0.12845604
10	0xbf0dcb5c	-0.55388427
11	0x3e39a2ca	0.18128505
12	0x3e7f307b	0.24920838
13	0xbce15347	-0.02750553
14	0x3e4745e5	0.19460256
15	0xbf3048e0	-0.688612
16	0x3f508f52	0.8146869
17	0x3e9ed0db	0.3101872
18	0xbf0e0dad	-0.5548962
19	0xbea5ae26	-0.32359427
20	0xbf3222f4	-0.69584584
21	0xbdf9f2cb	-0.12204512
22	0x3e49ba4d	0.19699974
23	0x3e30b08d	0.17254849
24	0x3ee4a65b	0.4465817
25	0xbed1fa3e	-0.41011232
26	0x3f17528e	0.59110343
27	0x3eca2f9d	0.3948945
28	0x3c414f24	0.011798654
29	0xbe68bd2d	-0.22728415
30	0xbe405833	-0.18783645
31	0xbdd54cbb	-0.10415026
32	0x3e3ecc34	0.18632585
33	0x3d3efc73	0.046627473
34	0xbed3bef3	-0.4135662
35	0x3eca2170	0.39478636
36	0x3e839b61	0.25704482
37	0x3e6ee942	0.23331168
38	0x3ed25851	0.41083005
39	0x3c07651a	0.008263851
40	0x3e796b92	0.24357441
41	0xbed5ad23	-0.41733655
42	0x3efecbf4	0.4976498
43	0x3d08c5df	0.03339183
44	0xbe878fad	-0.26476803
45	0x3e0dc942	0.13846305
46	0x3df5b642	0.119976535
47	0xbdcd746d	-0.10031972
48	0x3ebbeda9	0.36704758
49	0x3e455ab1	0.19272877
50	0xbda9d165	-0.08291892
51	0x3dc87608	0.09788138
52	0x3ecd19a7	0.40058634
53	0xbdf8a884	-0.12141517
54	0x3f149f8b	0.58055943
55	0x3e797629	0.24361481
56	0x3f0dfc08	0.55462694
57	0x3db8c4cc	0.09021911
58	0xbf241a04	-0.64102197
59	0x3ed3d234	0.4137131
60	0x3c6adf98	0.0143355355
61	0xbec7a74c	-0.38994825
62	0x3eac7c43	0.33688554
63	0x3d95a5ba	0.073070005
64	0xbd4d3cfc	-0.050106987
65	0xbef1c5ff	-0.47221372
66	0x3de079b7	0.10960715
67	0xbe94c288	-0.29054666
68	0xbfb0e2b8	-1.3819189
69	0x3d3a7a4c	0.045526788
70	0x3e29f35c	0.1659674
71	0xbf383b81	-0.71965796
72	0xbe26a5b2	-0.16274145
73	0xbf2ea12b	-0.6821467
74	0xbe960b1a	-0.29305345
75	0xbfedf35f	-1.8589896
76	0xbf135bfc	-0.5756223
77	0xbda6846b	-0.081307255
78	0x3f2c56ba	0.67319834
79	0xbf5f1660	-0.87143517
80	0xbeabe367	-0.33571932
81	0xbf0dadda	-0.553434
82	0x3f27fd8e	0.6562127
83	0x3f59fad0	0.85148335
84	0x3de2f0ab	0.1108106
85	0x3f1cb3d0	0.6121187
86	0xbe8a8dc3	-0.2706128
87	0x3daa97e3	0.08329751
88	0xbd880206	-0.06641011
89	0xbd7609a3	-0.060067784
90	0x3e351df7	0.17687212
91	0xbeb68b21	-0.35653022
92	0x3f23998c	0.6390617
93	0xbe65a37e	-0.22425649
94	0xbf88da44	-1.0691609
95	0x3e5421f6	0.2071608
96	0x3d84fb9f	0.064933054
97	0xbd88aeba	-0.066739514
98	0x3dea7621	0.114483126
99	0x3e838ade	0.25691885
100	0xbe50ddb7	-0.20397078
101	0x3d1363b8	0.03598377
102	0x3e2fdb4f	0.17173503
103	0xbee55067	-0.44787905
104	0x3f796fe8	0.9743638
105	0x3f6429de	0.89126384
106	0x3fcdf96a	1.609174
107	0x3e003fcf	0.12524341
108	0x3dcfa69b	0.10139199
109	0x3ec14af3	0.37752494
110	0xbe9172bd	-0.2840785
111	0xbe733f20	-0.23754549
112	0x3f07c973	0.5304176
113	0xbeb4f54f	-0.35343406
114	0xbe567bc1	-0.20945646
115	0xbf306014	-0.68896604
116	0xbdd1d4f6	-0.10245697
117	0x3f58e548	0.84724855
118	0x3f966274	1.1748796
119	0x3de9b187	0.11410814
120	0x3f1f2199	0.6216064
121	0x3d1d7cd7	0.038449135
122	0x3f5b5a4c	0.8568466
123	0x3f1c69c7	0.61098903
124	0xbecbe428	-0.39822507
125	0x3eb1e384	0.34743893
126	0xbe4031da	-0.18769017
127	0xbede83f7	-0.43460056
128	0x3f0ad930	0.5423765
129	0x3af4d2a0	0.0018678494
130	0x3e78c29f	0.24292992
131	0xbeba4e98	-0.36388087
132	0xbe8c4e52	-0.27403504
133	0x3ecb105d	0.39660922
134	0x404a73ae	3.1633105
135	0x3ebed874	0.37274516
136	0xbe5354cf	-0.2063782
137	0x3eeb0101	0.45899203
138	0xbf28eafa	-0.65983546
139	0xbf95efae	-1.171377
140	0x3d9cd42e	0.076576576
141	0x3e7dd4ba	0.2478818
142	0xbeac7607	-0.33683798
143	0xbe5b020c	-0.213875
144	0x3fca0b7f	1.5784758
145	0xbf0ff569	-0.5623384
146	0x3f3adac0	0.72990036
147	0xbf5776e7	-0.84165806
148	0x3ec09434	0.3761307
149	0xbd38e371	-0.04513878
150	0xbf4e87a0	-0.806757
151	0xbedb2c7b	-0.42807373
152	0xbe845efa	-0.2585371
153	0xbf1d0e17	-0.61349624
154	0x3f1583ca	0.5840422
155	0x3d9babbb	0.07601114
156	0x3f5080a6	0.814463
157	0x3d648a12	0.055795737
158	0x3e6b589e	0.22983024
159	0x3f889aca	1.0672238
160	0xbea9525e	-0.33070654
161	0xbc901ee1	-0.01759285
162	0xbd219ff0	-0.03945917
163	0xbe50a135	-0.20373996
164	0xbeb4518f	-0.35218474
165	0x3f1cab39	0.61198765
166	0xbf7342c4	-0.9502375
167	0xbf5f9736	-0.87340105
168	0xbdb53f56	-0.08849971
169	0x3f368f9b	0.71312875
170	0xbec784fb	-0.38968644
171	0xbf2d3db4	-0.67672276
172	0xbd82e298	-0.063908756
173	0x3e27822d	0.16358252
174	0xbe718415	-0.23585542
175	0xbe51a766	-0.20474014
176	0xbee8ab18	-0.45443034
177	0x3f312788	0.69200945
178	0xbec842a4	-0.39113343
179	0x3daec43d	0.08533523
180	0xbe5e4a04	-0.21707922
181	0x3f1da937	0.61586326
182	0xbdb569a2	-0.088580385
183	0x3ec8dd9f	0.39231583
184	0x3f4ccf7e	0.8000411
185	0xbd8d02c1	-0.06885291
186	0xbe82e87f	-0.25568005
187	0x3f4869d2	0.7828647
188	0xbed9e079	-0.42554072
189	0x3efe918c	0.49720418
190	0xbe5c6fe9	-0.21527065
191	0x3ea45c00	0.3210144
192	0x3eca9c8e	0.39572567
193	0xbeea8b2f	-0.45809314
194	0xbee91494	-0.45523512
195	0x3e022d7d	0.12712665
196	0xbe64cda5	-0.22344072
197	0xbe188fd2	-0.14898613
198	0x3f010f16	0.50413644
199	0xbeb71bd6	-0.35763425
200	0xbf93e2ff	-1.1553649
201	0xbd84861f	-0.06470894
202	0xbf13bdb5	-0.57711345
203	0x3cb65381	0.022256615
204	0x3e29276a	0.16518942
205	0xbe8577d2	-0.26067978
206	0xbc6ed32d	-0.014576715
207	0x3f7dca94	0.99137235
208	0xbca04c7c	-0.01956772
209	0x3e5e6062	0.21716455
210	0x3d106592	0.035253115
211	0xbdf7453f	-0.120737545
212	0xbc17e9f9	-0.009272092
213	0xbe923c9c	-0.28561866
214	0x3ecc273f	0.39873692
215	0xbecee423	-0.4040843
216	0xbea0f4fe	-0.31436914
217	0x3e3964c2	0.18104842
218	0x3d42a72e	0.047522716
219	0x3e44ec75	0.19230826
220	0xbe2f08f9	-0.17093267
221	0xbd273489	-0.040821586
222	0x3e092644	0.13393503
223	0x3e115bff	0.1419525
224	0x3dbdb100	0.09262276
225	0x3e7a8fe9	0.2446896
226	0xbee0edd0	-0.43931437
227	0x3dfe5829	0.12419159
228	0x3d0d4ad9	0.03449521
229	0xbec6e7db	-0.38848767
230	0xbe29097b	-0.16507523
231	0x3e3f30a9	0.18670906
232	0x3f10d394	0.5657284
233	0xbe1a55fb	-0.15071861
234	0xbdab94ed	-0.08378015
235	0xbec9f682	-0.39445883
236	0xbef8dde9	-0.48606804
237	0x3eafe0dd	0.34351245
238	0x3f1e6bb3	0.61883086
239	0xbc6d78bf	-0.01449412
240	0x3ec15cd0	0.37766123
241	0xbd8871fc	-0.06662366
242	0xbeaf7b63	-0.34273824
243	0x3db9d94f	0.090746514
244	0xbe096e06	-0.13420877
245	0xbea9ff43	-0.33202562
246	0x3ed411ca	0.41419822
247	0x3e2e5547	0.17024718
248	0xbf073b3c	-0.5282476
249	0x3f354c4d	0.7081955
250	0x3e85d433	0.26138458
251	0x3ed0f9ed	0.40815678
252	0xbe29e24d	-0.16590233
253	0x3e8fa7f8	0.28057837
254	0x3f06ca83	0.5265276
255	0x3f1a1f5b	0.60204095

z_k.mlp.0.bias f4 [10]
0	0xbe9158cf	-0.28388068
1	0xbecf14c0	-0.40445518
2	0xbda33674	-0.079693705
3	0xbea9d08c	-0.3316692
4	0x3eddf0da	0.43347818
5	0xbe9990a9	-0.2999318
6	0xbeaffee9	-0.3437417
7	0xbf2735d7	-0.6531653
8	0x3cc7c4b6	0.024385791
9	0xbf0ecadf	-0.55778307

r_k.mlp.0.weight f4 [10, 33]
0	0x3d5fbc55	0.054622967
1	0xbda24d6b	-0.079249226
2	0x3f8caafc	1.098968
3	0x3f13274b	0.5748183
4	0xbeac9f05	-0.33715072
5	0x3e84c970	0.25934935
6	0xbe211535	-0.15730746
7	0xbe971ed4	-0.29515707
8	0x3eccb3dd	0.39980975
9	0x3ea87525	0.32901874
10	0xbeccdabe	-0.40010637
11	0xbf00b031	-0.50268847
12	0x3d76d9e9	0.06026641
13	0x3c7a896a	0.015291551
14	0xbede006e	-0.43359703
15	0x3efc7b5c	0.49312866
16	0xbe124cc7	-0.142871
17	0x3e25001a	0.1611332
18	0x3db40900	0.08790779
19	0xbe2c948f	-0.16853546
20	0x3d5f1162	0.054459937
21	0xbc76e97a	-0.015070314
22	0xbdf74191	-0.12073053
23	0xbf8df14f	-1.1089267
24	0x3e1fa56e	0.1559045
25	0xbe90eda4	-0.28306305
26	0xbee47dce	-0.4462723
27	0x3c997c0d	0.01873591
28	0x3dbd283f	0.09236192
29	0xbdb79628	-0.08964187
30	0xbeb197cf	-0.34686133
31	0xbeb1c766	-0.3472244
32	0x3e9708de	0.29498953
33	0xbf1a78f3	-0.60340804
34	0x3ed35c53	0.41281375
35	0x3d11f3b4	0.035632804
36	0xbdf701b4	-0.12060872
37	0xbe51459b	-0.20436709
38	0x3e427199	0.18988647
39	0xbd13be2f	-0.036070045
40	0xbd556353	-0.052096676
41	0xbf144c33	-0.5792877
42	0xbea5a6c8	-0.32353806
43	0x3cb85cab	0.022505125
44	0xbd777096	-0.060410105
45	0x3ec186bf	0.37798116
46	0x3e938b0d	0.28817025
47	0x3e3b0123	0.18262152
48	0x3e08a983	0.13345914
49	0xbd2fe7f0	-0.042945802
50	0xbfcaf8d6	-1.5857189
51	0x3d735ed0	0.059416592
52	0xbf76248c	-0.96149516
53	0x3e4ed3a5	0.20197923
54	0xbd75ccb2	-0.060009666
55	0xbecd8474	-0.40140116
56	0x3ef036a9	0.46916702
57	0x3eafb837	0.34320232
58	0xbd50d0f5	-0.050980527
59	0x3eeeced7	0.4664218
60	0x3d38200e	0.044952445
61	0x3f0de5af	0.55428594
62	0x3ea7f4fc	0.32804096
63	0xbd50b618	-0.050954908
64	0x3e677ab1	0.22605397
65	0xbe2e8745	-0.17043789
66	0xbf173792	-0.5906917
67	0x3e62b90d	0.22140904
68	0xc0253d1a	-2.5818543
69	0x3e9c6d42	0.30552107
70	0xbf7eda5c	-0.9955194
71	0xbe4a8479	-0.19777097
72	0xbeb2c414	-0.3491522
73	0xbf1e11f1	-0.61746126
74	0x3f08a332	0.53374016
75	0x3f38dd46	0.72212636
76	0x3e07b1c0	0.132514
77	0xbaa38612	-0.0012475869
78	0xbe359821	-0.17733814
79	0xbfaf8740	-1.371315
80	0xbf4d2f93	-0.8015072
81	0x3ebeef33	0.3729187
82	0x3da5ab7c	0.08089349
83	0x3f7f8aea	0.9982134
84	0xbe6fa37a	-0.23402205
85	0x3f88a176	1.0674274
86	0x3e6c06d9	0.23049487
87	0xbea633ba	-0.3246134
88	0xbd78fb04	-0.060786262
89	0xbed75f92	-0.42065102
90	0xbe449726	-0.19198284
91	0x3ea4845b	0.3213223
92	0xbd48078e	-0.04883533
93	0x3e066c08	0.13127148
94	0x3cce177e	0.025157686
95	0xbe7113dc	-0.23542732
96	0xbd696e5b	-0.05699001
97	0x3deb9187	0.115023665
98	0x3eabf75c	0.33587158
99	0xbd280164	-0.04101695
100	0xbed3318b	-0.41248736
101	0xbf8c644f	-1.0968112
102	0x3ec6d542	0.38834578
103	0x3f80cdb5	1.0062777
104	0x3f36d0d2	0.71412385
105	0xbe62c6f0	-0.22146201
106	0x3ece7084	0.40320218
107	0x3d6792dc	0.05653654
108	0xbfb962a1	-1.4483224
109	0xbea54c1b	-0.32284626
110	0xbef326fd	-0.47490683
111	0xbd5cec46	-0.053936265
112	0x3e6ec526	0.23317394
113	0x3f5dd85a	0.8665825
114	0xbe3e70e2	-0.18597749
115	0xbe25e1d5	-0.1619943
116	0x3e1aac34	0.15104753
117	0x3e02d6e2	0.12777284
118	0x3e5ed3cb	0.2176048
119	0xbe46e7a5	-0.19424303
120	0x3dc49d9c	0.09600374
121	0xbdce079b	-0.100600444
122	0x3e935a55	0.28779855
123	0x3e83a478	0.25711417
124	0x3ec4607c	0.38354862
125	0xbebb5ca7	-0.36594126
126	0x3ecd872c	0.4014219
127	0x3d232fd6	0.03984054
128	0x3e8364fc	0.25662982
129	0xbdb48362	-0.08814122
130	0x3e900b66	0.28133696
131	0x3e169def	0.14708684
132	0x3e87bcd4	0.26511252
133	0x3ee3695c	0.4441632
134	0xbf9f0077	-1.2422017
135	0x3f1009fe	0.56265247
136	0x3d94a255	0.07257525
137	0xbe8d8c8d	-0.27646294
138	0x3e03e751	0.12881209
139	0xbd22d617	-0.039754953
140	0x3e87e179	0.2653921
141	0x3f0b8316	0.54496896
142	0x3ea9df18	0.3317802
143	0x3e8b97af	0.27264163
144	0xbef3b5a0	-0.47599506
145	0xbfa651be	-1.2993696
146	0xbebbb3cf	-0.3666062
147	0x3d0e2d1c	0.03471099
148	0x3f19097b	0.5978009
149	0xbd51cce3	-0.051220786
150	0x3e19d73c	0.15023512
151	0xbf42c077	-0.7607493
152	0xbef36fba	-0.47546178
153	0x3f214ffa	0.6301266
154	0xbc9f1e36	-0.019423585
155	0xbf169a11	-0.58828837
156	0xbeaf83be	-0.342802
157	0xbe8db4b5	-0.2767693
158	0x3ea3eb20	0.32015324
159	0xbf031767	-0.51207584
160	0xbf0bde52	-0.5463611
161	0xbe3ad7e5	-0.1824642
162	0xbe9cfcd3	-0.3066164
163	0xbe4d50fa	-0.20050421
164	0x3e5b2c69	0.2140366
165	0x3e82b302	0.25527197
166	0x3d49d39f	0.049274083
167	0x3fa1dd72	1.2645705
168	0xbde94a85	-0.113911666
169	0x3e795c68	0.24351656
170	0xbe49b395	-0.19697411
171	0xbf0ea2b2	-0.55717003
172	0xbeafbd16	-0.3432395
173	0x3f557e9c	0.83396316
174	0xbf252bed	-0.6452015
175	0x3d45510a	0.048172988
176	0xbf784295	-0.96976596
177	0x3e0233b5	0.12715037
178	0xbfc4fac2	-1.5389025
179	0xbf1dd06e	-0.61646163
180	0x3ee0d886	0.43915194
181	0xbda4229f	-0.08014416
182	0x3dd0b2ce	0.10190354
183	0xbefd3215	-0.49452272
184	0x3eff8851	0.4990869
185	0xbf8166b3	-1.0109466
186	0x3fa5ee19	1.2963287
187	0x3de3a409	0.111152716
188	0xc063a6ea	-3.5570626
189	0x3e387741	0.18014242
190	0xbe89852b	-0.26859412
191	0xbe79b888	-0.243868
192	0xbe8a700f	-0.2703862
193	0x3d6eccaf	0.05830067
194	0x3ded7150	0.11593878
195	0xbe9d3973	-0.30707893
196	0xbe30a09c	-0.17248768
197	0x3d84c52d	0.06482921
198	0xbed09d17	-0.4074485
199	0x3e0b40d7	0.13598953
200	0x3f65676e	0.89610946
201	0x3dc959ff	0.098316185
202	0x3ee876c4	0.4540311
203	0xbe1fd2bc	-0.15607733
204	0xbe86f44a	-0.26358253
205	0x3e2cfdb6	0.16893658
206	0x3e9c5022	0.30529886
207	0xbd21f58e	-0.03954082
208	0x3e956656	0.2917964
209	0xbebeaf22	-0.3724299
210	0xbe17615c	-0.14783233
211	0x3e99789c	0.2997483
212	0x3e870fbe	0.26379198
213	0x3caa9545	0.02082313
214	0x3e8d3b5a	0.27584344
215	0x3f068597	0.5254759
216	0xbeef46e7	-0.46733782
217	0x3d3648d5	0.04450305
218	0xbe88b9ab	-0.26704153
219	0x3d586801	0.05283356
220	0xbd33e165	-0.043916125
221	0xbeb0b116	-0.34510106
222	0x3c0af16c	0.008480411
223	0xbf1c6e65	-0.6110595
224	0x3e933724	0.28753006
225	0xbe0c2ead	-0.1368968
226	0x3e993bdf	0.2992849
227	0x3d1e9a20	0.038721204
228	0x3c92bc2a	0.01791199
229	0x3eaebad5	0.34126917
230	0xbd9a5436	-0.07535593
231	0x3f18c8b3	0.5968124
232	0x3f2fe910	0.68715
233	0xbde39404	-0.11112216
234	0x3f9dac6d	1.2318245
235	0x3f23f85a	0.6405083
236	0xbdb47c27	-0.08812743
237	0x3f6605c7	0.89852566
238	0xc0144912	-2.3169599
239	0x3fb2ed7f	1.3978728
240	0x3ec7c46b	0.39017043
241	0x3f18e9bc	0.5973165
242	0x3f1b235c	0.6060083
243	0xbf959773	-1.1686844
244	0xbf8d9352	-1.1060584
245	0xbf83f822	-1.0310099
246	0x3e80fc42	0.25192457
247	0x3ebfbd23	0.37448987
248	0xbf587b61	-0.8456326
249	0x3f06fd91	0.5273066
250	0xbf90e5c3	-1.1320118
251	0xbd827a72	-0.06371011
252	0xbe3aad5f	-0.18230198
253	0x3eae5ac5	0.34053627
254	0x3f3286fd	0.69737226
255	0xbeb1fb11	-0.3476186

r_k.mlp.0.bias f4 [10]
0	0xbdc5c24a	-0.09656198
1	0x3e9e438c	0.3091091
2	0x3b89e3d6	0.0042080684
3	0x3ef0c0bc	0.47022045
4	0xbea218fb	-0.31659684
5	0xbde386d5	-0.111097015
6	0x3e0202fb	0.1269645
7	0xbf019b43	-0.50627536
8	0xbdf2b64e	-0.11851178
9	0x3e732aa2	0.23746732

correction.mlp.0.weight f4 [10, 33]
0	0xbe4d5a46	-0.20053968
1	0xbb9de912	-0.004819044
2	0x3f98225c	1.1885486
3	0xbfcca421	-1.5987588
4	0xbeb64f4a	-0.35607368
5	0x3f07f268	0.5310426
6	0x3eae3dc1	0.3403149
7	0xbdb1e18d	-0.086855985
8	0xbe2fee8d	-0.17180844
9	0xbec2f30b	-0.38076052
10	0x3c2175b4	0.009854723
11	0xbf15ae6a	-0.5846926
12	0xbee07e6a	-0.43846446
13	0x3db02b78	0.08602041
14	0xbe710959	-0.23538722
15	0xbdf81d5c	-0.12114975
16	0xbe6b0e59	-0.22954692
17	0x3f100b5a	0.5626732
18	0xbe34904c	-0.1763317
19	0x3f23fffa	0.64062464
20	0x3f072abd	0.5279959
21	0xbe621a87	-0.22080432
22	0x3e923e49	0.28563145
23	0xbbe78073	-0.007064873
24	0xbdb2e569	-0.08735163
25	0xbe81f761	-0.25384048
26	0xbdf87bce	-0.12132989
27	0xbe15f928	-0.14645827
28	0xbecbc003	-0.3979493
29	0xbe5bcdd3	-0.21465234
30	0xbd1ca565	-0.03824367
31	0x3dd4474f	0.103651635
32	0x3e0d36bd	0.13790412
33	0xbe85ce59	-0.26133993
34	0xbf79023f	-0.9726905
35	0xbf194398	-0.59868765
36	0xbf2711c1	-0.65261465
37	0x3e55041f	0.20802353
38	0x3fceb4df	1.6148947
39	0x3f717619	0.9432083
40	0x3d0fcea5	0.03510918
41	0x3e5c7b7e	0.21531484
42	0xbe5ec3ae	-0.21754333
43	0x3d775259	0.060381267
44	0x3ed978f9	0.42475107
45	0x3db37ab9	0.08763642
46	0xbd888b94	-0.066672474
47	0xbe41af2f	-0.18914483
48	0xbe1c9d0b	-0.15294282
49	0xbde03d1b	-0.10949155
50	0xbe3f295a	-0.18668118
51	0xbdc04d58	-0.09389752
52	0x3ee81cfb	0.4533461
53	0xbf24c7f4	-0.64367604
54	0x3e74a134	0.23889619
55	0x3ecc7791	0.39934972
56	0x3e2bec88	0.16789448
57	0x3de283a8	0.11060268
58	0x3b6e8762	0.0036396612
59	0xbea1f3b4	-0.31631243
60	0xbebea98b	-0.37238726
61	0x3d922319	0.071356006
62	0x3dee185b	0.11625739
63	0x3cd87981	0.026425125
64	0x3df710b2	0.12063731
65	0xbedba4b1	-0.42899087
66	0x3ed7ff86	0.42187136
67	0x3e39bb2f	0.18137811
68	0x3cc19e26	0.023634981
69	0xbedcd626	-0.43132132
70	0xbe985ae0	-0.29756832
71	0xbea83db5	-0.3285958
72	0xbe7cc891	-0.24685885
73	0x3f378ab1	0.71696
74	0xbe8b9b51	-0.27266935
75	0xbf8a79bd	-1.0818402
76	0x3e00448b	0.12526147
77	0xbd4b8698	-0.049688905
78	0xbeba8f68	-0.36437535
79	0xbec04648	-0.3755362
80	0xbcdfb72b	-0.027309021
81	0xbe0c91c6	-0.13727483
82	0x3e68ae35	0.22722705
83	0x3f11ca71	0.56949526
84	0x3e36739b	0.17817537
85	0xbef1e348	-0.47243714
86	0x3d549217	0.051897135
87	0xbdbf88d9	-0.093522735
88	0x3e99d431	0.30044702
89	0xbb7e1774	-0.0038771303
90	0xbef92d57	-0.48667404
91	0xbe4bd79a	-0.19906464
92	0xbe9a1901	-0.300972
93	0xbe9d1770	-0.30681944
94	0xbe96988e	-0.29413265
95	0xbda5099c	-0.080584735
96	0x3cf7f86a	0.03026982
97	0xbe05f34a	-0.13081089
98	0xbe683b4b	-0.22678868
99	0x3e497501	0.1967354
100	0xbd6ae443	-0.057346594
101	0x3f9c099c	1.2190433
102	0x3e20dffd	0.15710445
103	0x3f486ab7	0.78287834
104	0xbf353581	-0.70784765
105	0x3e2df230	0.16986918
106	0xbd9faf6e	-0.077971324
107	0xbeb2a2f5	-0.3488995
108	0x3f09eedb	0.5388009
109	0xbe51cc1a	-0.20488015
110	0x3e2728a0	0.16324091
111	0x3c6e550d	0.014546645
112	0xbe3d1250	-0.18464017
113	0x3e589df4	0.21154004
114	0x3e58f3e5	0.21186788
115	0xbdfc1e93	-0.12310519
116	0xbe1c6e19	-0.15276374
117	0x3e15e84f	0.146394
118	0xbe2f3a3d	-0.1711206
119	0xbd46588a	-0.04842428
120	0xbeae1720	-0.34002018
121	0x3d3cf3b9	0.04613087
122	0x3e8da93c	0.27668178
123	0xbe0a1721	-0.13485385
124	0x3eb95e3f	0.36204717
125	0x3e830999	0.2559326
126	0x3e0903f6	0.13380417
127	0xbe9b1fff	-0.3029785
128	0x3e8b7a07	0.27241537
129	0xbd2d7ca0	-0.04235518
130	0x3d8ce643	0.068798564
131	0x3e990535	0.29886785
132	0x3e63d629	0.22249664
133	0x3e171ef2	0.14757898
134	0xbdcc5906	-0.099779174
135	0xbedaa6e2	-0.42705446
136	0xbfb32d54	-1.3998208
137	0xc068857e	-3.6331477
138	0xbdd49e3f	-0.103817455
139	0x3e3d987a	0.18515196
140	0xbf04c776	-0.51866853
141	0xbe2ef747	-0.17086516
142	0xbebb20ca	-0.36548454
143	0x3ebb7348	0.3661139
144	0x3f2be757	0.6714987
145	0xbd44bdfd	-0.04803275
146	0x3f29b560	0.6629238
147	0xbf18f8a9	-0.59754425
148	0x3ef8bc96	0.4858138
149	0x3f6c2bd4	0.92254376
150	0xbf33e304	-0.70268273
151	0xbea416e4	-0.32048714
152	0x3fbc32ab	1.4702963
153	0xbf645637	-0.89194053
154	0x3e90c97f	0.2827873
155	0xbdf78d56	-0.120875046
156	0xbed0f002	-0.4080811
157	0x3f426d9b	0.75948495
158	0xbf079566	-0.5296234
159	0xbd914bed	-0.0709456
160	0xbedf1f5e	-0.4357862
161	0x3b567cc6	0.003272818
162	0x3ca3bfa4	0.019988842
163	0xbe80c934	-0.25153506
164	0xbe9e6beb	-0.3094171
165	0x3da960c6	0.08270411
166	0x3e6253fa	0.22102347
167	0xbe4eef54	-0.20208484
168	0xbfd64ddb	-1.674251
169	0xbe4b9507	-0.19881068
170	0x3d96fd38	0.073725164
171	0xbe08ff04	-0.1337853
172	0xbe53173a	-0.20614329
173	0x3dd253d7	0.102698974
174	0xbdf54aa7	-0.119771294
175	0xbde5083a	-0.1118321
176	0x3d5fa681	0.05460215
177	0xbe5a443d	-0.21315093
178	0xbed22239	-0.41041735
179	0xbed1ab13	-0.40950832
180	0xbe4c9c09	-0.19981398
181	0x3e714c78	0.23564327
182	0x3ea1d2d0	0.3160615
183	0xbdb1903e	-0.0867009
184	0xbe8631b8	-0.26209807
185	0xbf12e314	-0.57377744
186	0xbea84a56	-0.32869214
187	0xbe6b3e86	-0.2297307
188	0x3ec97d8b	0.39353594
189	0xbe97c9ca	-0.2964614
190	0x3ec522ac	0.38503015
191	0xbbd5118f	-0.0065023373
192	0x3df60286	0.120122
193	0x3c171429	0.009221115
194	0x3e455a49	0.19272722
195	0xbdaefef9	-0.08544726
196	0xbe7c0e32	-0.2461479
197	0x3d65e6c6	0.056128286
198	0xbf213f1e	-0.62986934
199	0xbe26e91a	-0.16299859
200	0xbf7f8a24	-0.9982016
201	0xbe769342	-0.24079612
202	0xbe889ecc	-0.26683652
203	0x3fa3850c	1.2774978
204	0xbd9e44ce	-0.07727967
205	0x3d9b0271	0.07568825
206	0x3e57cf90	0.21075273
207	0xbf45a39a	-0.7720276
208	0xbe132c07	-0.14372264
209	0x3c9aa944	0.01887954
210	0x3e094768	0.13406146
211	0xbe098c57	-0.13432442
212	0xbe4d3d19	-0.20042838
213	0x3e9c306b	0.3050569
214	0x3e636764	0.22207409
215	0xbe80924b	-0.25111613
216	0xbea4d071	-0.32190278
217	0x3d519198	0.05116424
218	0xbcdaa3fa	-0.026689518
219	0x3e823ee0	0.25438595
220	0xbdf19728	-0.11796409
221	0xbd33a25a	-0.043856002
222	0xbdc12e12	-0.09432615
223	0xbe030cc9	-0.12797846
224	0xbd9f9a62	-0.07793118
225	0xba71a993	-0.0009218689
226	0xbe38a2e1	-0.18030883
227	0xbde8fa4b	-0.113758646
228	0x3d6cf7bb	0.05785344
229	0xbec0f90e	-0.37690014
230	0x3d4337c3	0.0476606
231	0x3e38eaf5	0.18058379
232	0x3deb08b4	0.11476269
233	0xbfbe85b7	-1.4884557
234	0xbeaf0c0d	-0.34188882
235	0xbf03627c	-0.5132215
236	0xbe80c209	-0.25148037
237	0x3eea1439	0.45718554
238	0xbf4cbcbd	-0.7997549
239	0x3c4d4d5d	0.012530652
240	0xbe1196c5	-0.1421767
241	0x3dbfe101	0.09369088
242	0x3eba758e	0.36417812
243	0x3e76be89	0.24096121
244	0xbe86b120	-0.2630701
245	0x3e9d0dd8	0.30674624
246	0x3e9a7692	0.30168587
247	0xbe0be1a1	-0.1366029
248	0x3c98ff1e	0.018676337
249	0x3dcca0f5	0.099916376
250	0x3d1a62d6	0.037691914
251	0x3e116379	0.14198102
252	0x3e46487d	0.1936359
253	0x3ebcb1a0	0.36854267
254	0xbf328676	-0.6973642
255	0xbe6c0724	-0.23049599

correction.mlp.0.bias f4 [10]
0	0xbd4d6f79	-0.050155137
1	0xbe20207d	-0.15637393
2	0xbe02670a	-0.12734619
3	0x3cdaf94c	0.026730202
4	0x3ef955f1	0.4869838
5	0xbb6e8eb4	-0.0036400976
6	0xbd869553	-0.0657145
7	0xbdf207b8	-0.118178785
8	0xbdad9bb8	-0.084769666
9	0x3d8927eb	0.06697067

phi_neumann.mlp.mlp.0.weight f4 [10, 23]
0	0xbef597fa	-0.4796751
1	0x3e457d9b	0.19286196
2	0x3f2b7f12	0.6699077
3	0xbd662b4e	-0.056193642
4	0x3ec63550	0.3871255
5	0x3ef295ca	0.47379905
6	0xbf2bdc53	-0.67133063
7	0x3e35b1cf	0.1774361
8	0x3e1c84af	0.1528499
9	0x3d6b6b56	0.05747541
10	0x3cc0b2ae	0.023522701
11	0xbdb34251	-0.08752883
12	0xbf00c023	-0.5029318
13	0xbea03887	-0.31293127
14	0x3ce81b61	0.028333368
15	0x3eea3b2e	0.45748276
16	0x3f184fbd	0.5949667
17	0x3f7c7baf	0.98626226
18	0xbef131bc	-0.47108257
19	0xbe2dcea8	-0.16973364
20	0x3b3a65c1	0.0028441998
21	0x399d3a70	0.00029988913
22	0xbd88dee4	-0.06683138
23	0x3de5ca73	0.11220255
24	0xbaa748cd	-0.0012762785
25	0x3eeba2d2	0.4602266
26	0x3e40ea74	0.18839437
27	0xbf0dbb26	-0.5536369
28	0xbdb0157f	-0.0859785
29	0xbf00223e	-0.5005225
30	0x3da0368f	0.07822906
31	0x3ea371c3	0.3192273
32	0x3f03b1b4	0.5144303
33	0x3cb43f0c	0.02200272
34	0x3df59cc6	0.11992793
35	0x3c85f7cb	0.016353508
36	0xbf13715f	-0.57594866
37	0x3e59ebf9	0.21281423
38	0xbeea103e	-0.45715517
39	0x3e71bb2d	0.23606558
40	0xbdc3929d	-0.09549449
41	0xbda06d64	-0.078333646
42	0xbe3f7758	-0.1869787
43	0x3a9b18f1	0.0011832995
44	0xba40861a	-0.00073442014
45	0xbc2cfeea	-0.010558823
46	0xbe221b25	-0.15830667
47	0x3f07db4e	0.5306901
48	0xbfc8115e	-1.56303
49	0x3e6f1313	0.2334712
50	0x3e163589	0.1466886
51	0x3e06d7ee	0.13168308
52	0xbe3d92bc	-0.18513006
53	0x3f0e9422	0.5569478
54	0xbe1a1f77	-0.15051065
55	0xbf1782f0	-0.5918417
56	0xbe22d31e	-0.15900847
57	0xbe82b8a7	-0.25531504
58	0x3fc203b1	1.5157377
59	0x3f0972a2	0.5369054
60	0xbeb7c87a	-0.3589514
61	0x3f115193	0.567651
62	0x3d3f03b4	0.04663439
63	0x3dcc7c40	0.09984636
64	0xbec7476d	-0.3892168
65	0x3e2ae4b0	0.166888
66	0xba9f24e7	-0.0012141735
67	0xb9a088f0	-0.00030619605
68	0x3d0e5f09	0.0347586
69	0x3ed249ff	0.4107208
70	0x3f03b79f	0.5145206
71	0xbd8ef651	-0.06980575
72	0xbda95e2a	-0.082699135
73	0x3e3a41c0	0.18189144
74	0xbddd7edc	-0.10815212
75	0xbd34b155	-0.04411443
76	0xbca85ec5	-0.020553002
77	0x3d8475e4	0.06467798
78	0x3d79f8e3	0.061028372
79	0x3ecfd603	0.40592965
80	0xbe88094a	-0.26569587
81	0x3f24598b	0.6419913
82	0x3e51db76	0.20493874
83	0x3e9398df	0.2882757
84	0x3d27a057	0.040924396
85	0x3d26e819	0.04074869
86	0xbe96aa5b	-0.29426846
87	0xbe4c90a3	-0.1997705
88	0xbdef21aa	-0.11676343
89	0xba405170	-0.0007336354
90	0xbb8b161f	-0.0042445804
91	0xbd94033f	-0.07227182
92	0xbe30859d	-0.1723847
93	0xbef1afad	-0.47204342
94	0xbf8ad90f	-1.0847491
95	0x3ebd53e9	0.3697808
96	0x3da2542c	0.07926211
97	0xbf96fc5d	-1.1795765
98	0x3cdf7889	0.027279155
99	0xbc2b03b7	-0.010437897
100	0xbd33c85c	-0.04389225
101	0x3f144da1	0.5793095
102	0x3e53beaf	0.20678209
103	0x3cad0d64	0.02112455
104	0x3fa8d027	1.3188523
105	0xbe7d9c11	-0.24766566
106	0xbce36b1a	-0.027761031
107	0x3efe7c0d	0.49704018
108	0xbe955533	-0.29166564
109	0x3e621a1b	0.22080271
110	0xbd69ecb8	-0.05711052
111	0x3ea87348	0.32900453
112	0x3a974bac	0.0011542938
113	0xbb986008	-0.0046501197
114	0x3e25b166	0.16180953
115	0x3f0502ca	0.5195738
116	0xbefc8a1e	-0.49324125
117	0x3ec15cb3	0.37766036
118	0x3e43c6cc	0.19118804
119	0x3e7c4e16	0.24639162
120	0xbe01e84c	-0.1268627
121	0x3df3a6fd	0.11897085
122	0x3e051f32	0.13000181
123	0x3e941b24	0.28926957
124	0x3e2107e1	0.15725662
125	0xbf3535ec	-0.70785403
126	0x3e479ad2	0.19492653
127	0x3f0735b0	0.52816296
128	0xbda2b329	-0.07944328
129	0xbd9174de	-0.07102369
130	0x3d441cb7	0.047878947
131	0x3e93385d	0.2875394
132	0x3d7634e3	0.06010903
133	0xbe02f1b3	-0.12787513
134	0x3d2648c7	0.04059675
135	0xba4de739	-0.0007854584
136	0xbb19c938	-0.0023465883
137	0x3e0e56fc	0.1390037
138	0xbd9fdca2	-0.07805754
139	0x3ead52f8	0.33852363
140	0x3df59c52	0.11992706
141	0xbdfde115	-0.123964466
142	0x3f0bd90d	0.5462807
143	0xbf1b91d4	-0.6076939
144	0xbe804671	-0.25053743
145	0xbefe2d66	-0.4964401
146	0xbe4cb938	-0.1999253
147	0x3ca282ba	0.019837726
148	0x3ec98e1c	0.39366233
149	0xbee755e2	-0.4518271
150	0xbd8445e3	-0.06458642
151	0xbecd2d34	-0.4007355
152	0x3dfdc21c	0.12390539
153	0x3c8f4119	0.017487096
154	0xbeb8f3cc	-0.36123502
155	0xbdf03e21	-0.117306
156	0xbe758850	-0.2397778
157	0xbf095848	-0.5365033
158	0x39caadf1	0.0003865804
159	0x3b95fd66	0.0045773266
160	0xbe6065f1	-0.21913888
161	0x3edb098b	0.42780718
162	0x3e8d91a5	0.2765018
163	0x3df4a9b6	0.11946432
164	0xbded3ea4	-0.115842134
165	0xbd8ace9d	-0.067776896
166	0xbe6a1d73	-0.22862796
167	0xbdc1eda8	-0.094691575
168	0x3dfab447	0.122414164
169	0xbefa2625	-0.48857227
170	0xbe212d8e	-0.15740034
171	0x3ec261ab	0.3796514
172	0xbd105052	-0.03523285
173	0x3f1029b1	0.56313616
174	0x3efceb7b	0.49398407
175	0x3d07e686	0.03317883
176	0x3dd025c6	0.10163455
177	0xbede6fbe	-0.43444628
178	0xbec54517	-0.38529274
179	0x3eab2597	0.33427116
180	0x3dd70c4e	0.10500394
181	0xbb896138	-0.0041924976
182	0x3b0e12a3	0.0021678589
183	0x3b9dc683	0.004814924
184	0xbd015588	-0.03157571
185	0xbe733ee4	-0.2375446
186	0xbf0c5dba	-0.54830515
187	0x3ea4d966	0.32197112
188	0x3edfc34b	0.43703684
189	0x3eeee2a8	0.466573
190	0xbdcc89e3	-0.09987237
191	0x3e896bbf	0.26840016
192	0xbc1e2cb0	-0.009654209
193	0xbdab79b7	-0.08372825
194	0x3e777b87	0.24168216
195	0x3ecff063	0.40613088
196	0x3f5e63ed	0.86871225
197	0x3db05f6e	0.08611952
198	0xbf8c02d2	-1.0938361
199	0xba3d4836	-0.0007220538
200	0xbbc84743	-0.0061120107
201	0x3e8d7295	0.27626482
202	0xbf23b040	-0.6394081
203	0x3dce7a2b	0.100818954
204	0xb9239ffc	-0.0001560449
205	0xbad569ab	-0.0016282102
206	0x3d1c1b6a	0.03811208
207	0xbe5e9e59	-0.21740092
208	0x3e687fec	0.22705048
209	0xbf2c40f5	-0.67286617
210	0xbed408f0	-0.4141307
211	0xbeacd508	-0.3375628
212	0xbdf4399d	-0.11925051
213	0x3f0224b3	0.5083725
214	0xbe3c9d45	-0.18419369
215	0xbdd600af	-0.10449349
216	0xbddfa876	-0.10920803
217	0x3e9f6434	0.31131136
218	0xbdda10e6	-0.10647754
219	0x3fcabc85	1.5838782
220	0x3e8d4230	0.2758956
221	0xbe99cc87	-0.30038854
222	0x3d8390ad	0.06424079
223	0xbee2d5be	-0.44303697
224	0xbe522f01	-0.20525743
225	0x3e0772dd	0.1322741
226	0x3ec17d54	0.3779093
227	0x3ad22325	0.0016032202
228	0x39418310	0.00018454739
229	0xbc948974	-0.018131949

phi_neumann.mlp.mlp.0.bias f4 [10]
0	0xbdd7c629	-0.10535843
1	0x3d64321c	0.05571185
2	0xbda470d0	-0.0802933
3	0x3e35c018	0.17749059
4	0xbe04f933	-0.12985687
5	0xbd766709	-0.060156856
6	0x3e67455d	0.22585054
7	0x3dc4f881	0.09617711
8	0xbd825225	-0.06363324
9	0x3d24387c	0.04009293

phi_neumann.mlp.mlp.2.weight f4 [10, 10]
0	0xbd60f795	-0.054923613
1	0x3f1ead0a	0.61982787
2	0xbedbfe09	-0.4296725
3	0x3e306300	0.17225266
4	0xbe7b5c40	-0.2454691
5	0xbee14717	-0.4399955
6	0x3e40e528	0.18837416
7	0xbd10e0b0	-0.03537053
8	0xbec87feb	-0.39160094
9	0xbddceaea	-0.10786994
10	0xbebe2d00	-0.37143707
11	0xbe91736e	-0.28408378
12	0x3e9ca96a	0.30598003
13	0x3e207391	0.15669085
14	0xbec88ae0	-0.39168453
15	0xbf15e5c5	-0.58553725
16	0x3f140ad4	0.5782902
17	0xbdafaa3b	-0.08577391
18	0x3ec15a07	0.37763998
19	0xbe5ae87e	-0.21377751
20	0xbde5022b	-0.11182054
21	0x3ed58d6f	0.41709468
22	0x3ed95c1d	0.4245309
23	0x3cf22c46	0.029562127
24	0x3c97d7fa	0.018535603
25	0x3ecda64f	0.40165946
26	0xbed46ee1	-0.41490844
27	0xbe54030b	-0.20704286
28	0xbf4fc953	-0.8116657
29	0xbe876a9a	-0.26448518
30	0x3e6e66ce	0.23281404
31	0x3ce52e1c	0.027976088
32	0x3f1aa13e	0.60402286
33	0x3e685638	0.2268914
34	0x3ea9c01b	0.33154377
35	0xbee84eb4	-0.45372546
36	0xbe3f75b8	-0.1869725
37	0x3d9cacb2	0.076501265
38	0x3dfff1ed	0.124973156
39	0xbeb636a2	-0.35588557
40	0xb9dc0742	-0.00041967077
41	0xbd56c25f	-0.05243146
42	0x3e17e16e	0.14832088
43	0xbe8ee026	-0.27905387
44	0xbddac4f5	-0.10682098
45	0xbe5aa687	-0.21352588
46	0x3d34544f	0.044025715
47	0xbd633012	-0.055465765
48	0xbf317559	-0.69319683
49	0xbe2885f4	-0.16457349
50	0x3e17c66b	0.14821784
51	0x3ed2919d	0.4112672
52	0x3dad9ae4	0.08476809
53	0xbf133beb	-0.575133
54	0x3f07c07f	0.530281
55	0x3e72b67c	0.23702425
56	0x3e30fdd9	0.17284335
57	0xbe8edbe4	-0.27902138
58	0x3d0e6fd8	0.03477463
59	0x3dcc6a4a	0.099812105
60	0xbd648894	-0.055794314
61	0x3e80f955	0.25190225
62	0x3cacb870	0.02108404
63	0xbd25649f	-0.040379163
64	0xbed82fc6	-0.42223948
65	0xbd850e8f	-0.064969175
66	0x3b6b9644	0.003594772
67	0x3ecec968	0.40388036
68	0x3dfb610e	0.12274371
69	0x3ebbf769	0.36712196
70	0xbed750ac	-0.42053735
71	0x3f1796a3	0.5921423
72	0xbec7bafd	-0.39009848
73	0xbe11ac22	-0.1422582
74	0xbc49253b	-0.012276943
75	0xbeabb376	-0.33535355
76	0xbde04a80	-0.1095171
77	0x3f03bf82	0.5146409
78	0x3e5d5b3f	0.21616839
79	0x3dcbb359	0.09946317
80	0x3f457569	0.7713228
81	0x3ef3d967	0.47626802
82	0xbd3c504c	-0.045975015
83	0xbd9ec8ca	-0.07753141
84	0x3eb7afc9	0.358763
85	0x3f22ed5f	0.6364345
86	0xbd9e2b55	-0.07723109
87	0xbd5c4ca7	-0.05378404
88	0xbf19d1a5	-0.6008552
89	0xbe49aeec	-0.19695634
90	0x3e74a71b	0.2389187
91	0x3e9d60df	0.3073797
92	0xbeac51f3	-0.33656272
93	0xbd068e42	-0.03285051
94	0xbe19ffab	-0.15038936
95	0xbf01334b	-0.5046889
96	0x3e9b52b0	0.30336523
97	0xbe45c011	-0.19311549
98	0xbe8673d5	-0.26260248
99	0xbf016442	-0.50543606

phi_neumann.mlp.mlp.2.bias f4 [10]
0	0x3cf566b9	0.029956209
1	0x3dc802c8	0.097661555
2	0x3a4586e8	0.0007535056
3	0xbc862371	-0.016374322
4	0x3dad3af7	0.08458512
5	0xbc0d717b	-0.008633013
6	0xbd832ae7	-0.06404667
7	0x3d9bcd52	0.07607521
8	0x3d0ac059	0.033874843
9	0xbc92bdaa	-0.017912704
