dirichlet/dsgps/results/constant_dataset/70_ite_gamma_1/ckpt/best_model.pt (torch, 78989 bytes, 69 tensors)

laynorm.weight f4 [10]
1.0 1.0 1.0 1.0 1.0 1.0 1.0 1.0
1.0 1.0
00000000: 0000 803f 0000 803f 0000 803f 0000 803f
00000010: 0000 803f 0000 803f 0000 803f 0000 803f
00000020: 0000 803f 0000 803f

laynorm.bias f4 [10]
0.0 0.0 0.0 0.0 0.0 0.0 0.0 0.0
0.0 0.0
00000000: 0000 0000 0000 0000 0000 0000 0000 0000
00000010: 0000 0000 0000 0000 0000 0000 0000 0000
00000020: 0000 0000 0000 0000

phi_to.mlp.mlp.0.weight f4 [10, 23]
-0.36996517 -0.028908545 0.14671232 -0.2584026 -0.8570387 0.28179684 0.2629919 -0.10163847
0.031915147 0.43343955 -0.1371088 -0.5163604 0.04922163 0.06497082 -0.7622171 0.016039697
-0.05522162 -0.52700293 0.06390741 0.2263076 0.0004974491 0.0010149946 0.20600632 -0.10730864
-0.42745894 0.18276194 -0.024653018 0.1251296 -0.47250363 -0.14261578 -0.34893802 -0.14726022
-0.10519235 -0.27490094 0.02801908 0.18957014 0.19910793 0.2513818 -0.29917917 -0.09216272
-0.4864201 0.36033744 0.55099744 -0.00021964266 -0.0007032509 0.12581687 -0.10184616 -0.4523102
-0.31362393 -0.063045524 0.05938437 -0.26994413 -0.1127747 0.36330143 0.29487023 0.2541231
-0.21678358 -0.030968161 -0.10405586 -0.08948908 -0.016752152 0.083882496 -0.05786025 -0.09955905
-0.04068068 -0.048933268 0.0011108995 -0.0009726373 0.048936583 0.21497244 0.5368875 0.26406112
-0.064598136 0.00654322 -0.0635541 -0.26344827 -0.19073425 0.3612379 0.2277117 -0.12072105
0.784496 -0.64880043 0.40580887 0.3898669 0.022023406 -0.07573634 0.18635923 -0.05413369
0.28254455 -0.0010280664 2.098904e-05 -0.16853954 -0.31173876 0.5116869 -0.36464512 0.22230847
0.1315139 -0.32454464 -0.33331513 -0.17467873 -0.22515132 -0.051158637 0.36517283 0.5357299
0.08138783 -0.17453429 0.5015698 -0.40857834 -0.23241699 -0.15133364 0.1408018 -0.39372694
-0.00046262753 0.0008517751 -0.18268818 -0.13695729 -0.9610362 0.26266375 -0.15328074 -0.6718989
-0.2708846 0.07636814 0.7412009 0.40878257 0.2820767 -0.21153915 -0.12532678 -0.46663788
-0.24840091 -0.35809928 0.06380179 -0.61765295 -0.35713914 -0.0918874 0.044078078 -0.0005321856
-0.0006908578 -0.00055655226 -0.2677468 0.09809975 -0.35742307 -0.3106119 0.5588845 -0.26844248
0.07650799 -0.28928694 0.60919094 0.26274064 0.35390463 0.13341925 -0.11892688 0.15185973
-0.6728214 -0.47801635 0.2629339 0.9424451 0.50178933 0.023136344 0.00016026864 -0.00047120842
0.21191251 -0.418371 0.98722637 0.505461 0.13984247 0.17226464 -0.310251 0.47420382
-0.2735029 0.6826861 -0.11459183 -0.041538212 0.6991392 0.3353718 0.20555729 0.08703376
0.37352547 -0.25527757 0.18003213 0.21019122 0.054209612 -0.0026000862 -0.001391871 -0.16511016
0.30226618 -0.88992494 -0.12889303 -0.08951198 -0.20654431 0.13144457 -0.25135192 0.4442633
-0.23707888 -0.7286086 -0.09884557 -0.24035606 0.5751921 0.03155283 0.2828931 -0.07623571
0.16640441 -0.27372533 -0.036651738 0.043696348 8.6816566e-05 -0.0005557912 0.11824328 -0.16021293
0.19472218 -0.3445787 0.7966184 -0.71032125 0.04011682 0.07708682 0.23328973 0.44510946
0.06478146 -0.039363485 -0.14106509 0.4112769 -0.15998699 0.1480096 0.39725763 -0.41584975
0.46026707 -0.066550545 0.29781199 0.0009921732 0.0004675123 0.06682946
00000000: 136c bdbe 9dd1 ecbc c13b 163e 584d 84be
00000010: e366 5bbf ad47 903e e0a6 863e d527 d0bd
00000020: 75b9 023d caeb dd3e 4066 0cbe 3230 04bf
00000030: 9f9c 493d 6c0f 853d a920 43bf af65 833c
00000040: 1130 62bd aae9 06bf e3e1 823d 2ebd 673e
00000050: 3e67 023a 9109 853a 52f3 523e a2c4 dbbd
00000060: e6db dabe f225 3b3e 20f5 c9bc f921 003e
00000070: ffeb f1be df09 12be 01a8 b2be 62cb 16be
00000080: 166f d7bd d1bf 8cbe 4588 e53c ad1e 423e
00000090: f3e2 4b3e 1eb5 803e 032e 99be cfbf bcbd
000000a0: 0e0c f9be 267e b83e 2b0e 0d3f e14f 66b9
000000b0: 5e5a 38ba 23d6 003e b894 d0bd 3495 e7be
000000c0: 5193 a0be 031e 81bd 063d 733d 1e36 8abe
000000d0: 6cf6 e6bd a502 ba3e 3bf9 963e 6c1c 823e
000000e0: 84fc 5dbe f1b0 fdbc 3d1b d5bd 0d46 b7bd
000000f0: cf3b 89bc 96ca ab3d dffe 6cbd 9de5 cbbd
00000100: c9a0 26bd 406e 48bd 9a9b 913a 96f8 7eba
00000110: ba71 483d bc21 5c3e 7671 093f 0533 873e
00000120: 074c 84bd 8268 d63b a728 82bd b1e2 86be
00000130: d74f 43be 2df4 b83e 422d 693e 993c f7bd
00000140: bbd4 483f c917 26bf 2ec6 cf3e a29c c73e
00000150: 6e6a b43c a71b 9bbd f4d4 3e3e 4abb 5dbd
00000160: aea9 903e 2fc0 86ba 9f11 b037 a195 2cbe
00000170: 399c 9fbe eafd 023f c4b2 babe d5a4 633e
00000180: 94ab 063e b72a a6be 48a8 aabe fbde 32be
00000190: 118e 66be b88b 51bd eff7 ba3e 9825 093f
000001a0: aaae a63d 1eb9 32be e166 003f 2e31 d1be
000001b0: b8fe 6dbe 35f7 1abe 592e 103e 9496 c9be
000001c0: d18c f2b9 a949 5f3a 9c12 3bbe 883e 0cbe
000001d0: 7806 76bf dd7b 863e a0f5 1cbe 9101 2cbf
000001e0: 63b1 8abe e666 9c3d 58bf 3d3f f34b d13e
000001f0: 5b6c 903e b89d 58be aa55 00be 29eb eebe
00000200: cf5c 7ebe ca58 b7be 83aa 823d 811e 1ebf
00000210: f1da b6be 762f bcbd 378b 343d 5f82 0bba
00000220: af1a 35ba 97e5 11ba 1c16 89be 86e8 c83d
00000230: 2800 b7be 8608 9fbe 0e13 0f3f 4b71 89be
00000240: 39b0 9c3d 6b1d 94be f0f3 1b3f f185 863e
00000250: fd32 b53e 0e9f 083e f08f f3bd 1e81 1b3e
00000260: 063e 2cbf 8fbe f4be 469f 863e 1544 713f
00000270: 4475 003f 6e88 bd3c c90d 2839 860c f7b9
00000280: 98ff 583e b934 d6be deba 7c3f e465 013f
00000290: dd32 0f3e 2466 303e 38d9 9ebe d8ca f23e
000002a0: 9208 8cbe 84c4 2e3f 1faf eabd f923 2abd
000002b0: c9fa 323f dab5 ab3e 9c7d 523e c23e b23d
000002c0: bb3e bf3e beb3 82be 585a 383e 5e3c 573e
000002d0: e60a 5e3d 3566 2abb 716f b6ba a312 29be
000002e0: a2c2 9a3e 1fd2 63bf 89fc 03be 0f52 b7bd
000002f0: 5a80 53be 6899 063e 33b1 80be 7b76 e33e
00000300: cec4 72be 1886 3abf 8c6f cabd e61f 76be
00000310: ca3f 133f 8a3d 013d 5dd7 903e 7821 9cbd
00000320: eb65 2a3e ba25 8cbe 2220 16bd f1fa 323d
00000330: 4a11 b638 84b2 11ba 8829 f23d dc0e 24be
00000340: 4065 473e 9f6c b0be 2fef 4b3f 9dd7 35bf
00000350: 8951 243d b2df 9d3d 81e3 6e3e 63e5 e33e
00000360: 24ac 843d 9b3b 21bd 5e73 10be e392 d23e
00000370: a1d3 23be d48f 173e 5a65 cb3e 42ea d4be
00000380: 20a8 eb3e a74b 88bd d07a 983e cf0b 823a
00000390: 701c f539 e2dd 883d

phi_to.mlp.mlp.0.bias f4 [10]
0.0564145 0.15409918 0.084571995 0.13755053 -0.009515761 -0.060053866 0.13103841 0.025600033
0.029604567 -0.0111103775
00000000: e412 673d 2dcc 1d3e 1534 ad3d 0cda 0c3e
00000010: ffe7 1bbc 0bfb 75bd ef2e 063e 29b7 d13c
00000020: 4785 f23c 4d08 36bc

phi_to.mlp.mlp.2.weight f4 [10, 10]
0.2418261 0.3806498 -0.5533281 -0.60117173 0.32493275 0.12761514 0.25383925 0.5104322
-0.4934005 0.17312762 -0.09069012 0.011193308 -0.15880457 0.46054062 0.0990253 -0.6934618
0.1330522 -0.007744974 -0.35832736 -0.22291392 -0.5703548 0.15417519 0.12881441 0.23437603
-0.11227779 -0.22236428 -0.5525527 0.014106152 0.5210693 -0.04340647 -0.044746812 -0.22462828
-0.4796665 0.27731052 0.5805701 -0.46599936 -0.7033894 0.048513643 0.53590584 0.16383967
0.21721105 -0.14582114 -0.6362407 -0.52659327 -0.414806 0.5486239 0.6020371 -0.34735492
-0.19354598 0.4170947 0.16997537 0.45019054 0.24183384 0.07655189 0.3554399 -0.06244724
-0.57743275 0.5136768 -0.5291212 0.050354388 -0.32034707 -0.434195 -0.16523759 -0.8402783
0.53314465 -0.60860276 0.54651093 0.29675895 0.036632344 0.42270526 -0.14381947 0.0008178207
0.021464653 -0.22969565 0.54193765 0.025458978 -0.06930323 -0.08030937 -0.6220032 -0.45440978
-0.15817803 0.52636176 -0.3870727 -0.57645476 0.2950354 -0.13782084 0.11608925 0.03608444
0.48239404 -0.34700528 0.15146361 -0.06829185 -0.020286007 -0.38518652 0.39499974 0.88174343
-0.056694888 -0.39874625 0.39078346 -0.61825234
00000000: 43a1 773e 88e4 c23e e9a6 0dbf 64e6 19bf
00000010: 965d a63e 8bad 023e 38f7 813e afab 023f
00000020: fe9e fcbe 5e48 313e bebb b9bd 2364 373c
00000030: aa9d 22be fbcb eb3e c7cd ca3d b686 31bf
00000040: d63e 083e 8dc9 fdbb af76 b7be 8c43 64be
00000050: c602 12bf 1ae0 1d3e ede7 033e 4500 703e
00000060: e6f1 e5bd 76b3 63be 1874 0dbf 7d1d 673c
00000070: cc64 053f fcca 31bd 6f48 37bd f504 66be
00000080: d996 f5be a5fb 8d3e 3ea0 143f 7897 eebe
00000090: 5411 34bf 3eb6 463d 2031 093f 96c5 273e
000000a0: 936c 5e3e 2352 15be ace0 22bf d1ce 06bf
000000b0: 7461 d4be 9e72 0c3f 1a1f 1a3f 81d8 b1be
000000c0: eb30 46be 708d d53e 060e 2e3e 607f e63e
000000d0: 4aa3 773e 3dc7 9c3d 38fc b53e adc8 7fbd
000000e0: a2d2 13bf 5380 033f 7d74 07bf 6740 4e3d
000000f0: 8804 a4be cf4e debe 0b34 29be 7b1c 57bf
00000100: 2b7c 083f 64cd 1bbf 24e8 0b3f caf0 973e
00000110: cc0b 163d d36c d83e 6945 13be 0563 563a
00000120: a4d6 af3c 5635 6bbe 6dbc 0a3f 598f d03c
00000130: daee 8dbd 3d79 a4bd 9a3b 1fbf 66a8 e8be
00000140: 6cf9 21be a5bf 063f 652e c6be 8a92 13bf
00000150: e10e 973e e820 0dbe 33c0 ed3d 47cd 133d
00000160: 5afc f63e adaa b1be 4719 1b3e 99dc 8bbd
00000170: d72e a6bc 2b37 c5be 683d ca3e f0b9 613f
00000180: e638 68bd 7828 ccbe c514 c83e c945 1ebf

phi_to.mlp.mlp.2.bias f4 [10]
-0.032904845 -0.0628866 -0.02376527 0.04664834 0.038791653 0.023585254 -0.09713225 0.08678931
0.00818873 0.026212942
00000000: 3bc7 06bd b1ca 80bd 62af c2bc 5412 3f3d
00000010: ffe3 1e3d dd35 c13c 46ed c6bd 98be b13d
00000020: 062a 063c 86bc d63c

phi_from.mlp.mlp.0.weight f4 [10, 23]
0.04503988 0.2870349 0.13916822 -0.31973943 -0.22914366 -0.25141254 -0.3525185 -0.38777688
0.037000157 -0.25247788 -0.3068031 0.22556263 -0.305354 -0.21106315 -0.08159055 -0.08254247
-0.2864187 0.15775031 -0.44806296 0.18291067 2.6797105e-05 -5.5452078e-05 -0.100315526 0.16604213
-0.37837583 0.34387922 0.33926564 -0.3553936 0.60218877 0.14919886 -0.062451255 0.1498779
-0.10502297 0.57734746 0.5420187 0.34431309 0.3705456 -0.04693009 0.29390815 0.5820572
-0.39661402 0.44918334 0.62587976 -0.001176095 -0.0013031168 0.10507441 -0.30693835 -0.6398189
0.20270945 -0.48514843 0.24021028 0.38611138 0.012596533 0.14641342 -0.10881468 -0.15089849
-0.19597645 -0.4639997 -0.18708503 -0.13437562 0.26402673 0.14156616 -0.3558042 0.0037655188
-0.17697194 -0.45612198 -0.0045720437 0.008551713 0.21459706 0.123725764 0.28542426 -0.39955094
0.33453178 -0.35014948 0.19452061 0.56254756 0.7138452 0.5463797 -0.23030494 0.12984557
1.0965114 0.3970978 -0.12657663 0.08341909 0.43524635 0.10928708 0.15140653 -0.37841824
0.63132817 -0.0016960106 -0.00067078223 -0.31061018 0.030810554 -0.16427575 -0.4964498 -0.008175046
-0.42687732 0.19206823 0.1987827 0.28614748 -0.060879484 -0.40054855 0.2584983 0.113246076
-0.09877487 -0.13524485 0.3124862 0.34388807 -0.2998796 -0.5095085 0.42939544 0.31425923
-0.0006013972 0.00041270186 0.038475215 0.18139623 0.3588284 0.39315385 -0.15680766 0.27890554
-0.23151952 -0.6933286 -0.4042047 0.26915637 -0.14728618 -0.2868822 0.56934077 -0.110818185
0.57933474 0.51449484 0.27916047 0.15179242 0.0061256876 -0.38932854 -0.24312401 0.00028734998
-0.00090409303 -0.16367915 -0.16039272 0.29361662 0.2361475 -0.3120989 0.4709974 0.37208843
-0.06883379 -0.42751357 0.043056574 -0.41546714 0.06623558 0.14732254 -0.019296257 0.19458693
-0.39723364 -0.2467734 -0.15713093 -0.010975224 -0.54665905 0.10823767 0.0002630769 -0.0017968216
-0.05559492 0.12901051 -0.5516728 0.1535367 0.047726925 -0.31032777 -0.27236488 0.2869866
0.50298536 0.30642524 -0.22118627 -0.23023205 -0.15517667 0.49432528 0.03292979 0.5379288
0.4948025 0.21500354 -0.021252764 -0.042374056 -0.12297414 -0.00080949906 -0.001325853 0.12931481
0.23323902 -0.15755522 0.05990132 0.23628047 -0.111339465 -0.27054787 0.061572373 -0.16186404
-0.43709072 -0.37240148 0.114231296 0.4390093 0.12941429 -0.56839615 0.18828098 -0.08728001
-0.07527308 -0.5717666 0.08155898 0.401025 -0.0012027133 3.4633416e-05 -0.05176911 -0.43318567
0.09917648 -0.088368826 0.24135299 -0.10527353 0.30769432 -0.42291647 -0.039767247 -0.6283622
-0.43714562 -0.19105276 0.38476488 0.43934163 -0.29616654 0.41170385 -0.09667799 -0.15222122
-0.02384486 0.09435242 0.21470848 -0.0017090942 0.00299698 -0.048072647
00000000: bd7b 383d 3df6 923e 1d82 0e3e e3b4 a3be
00000010: a3a4 6abe 25b9 80be 4e7d b4be b18a c6be
00000020: 7a8d 173d c844 81be 4c15 9dbe e4f9 663e
00000030: 5c57 9cbe f020 58be f218 a7bd 070c a9bd
00000040: 79a5 92be 4c89 213e 8268 e5be ef4c 3b3e
00000050: 58ca e037 3795 68b8 3a72 cdbd f306 2a3e
00000060: 7aba c1be f010 b03e 3ab4 ad3e 26f6 b5be
00000070: 0b29 1a3f 96c7 183e e3cc 7fbd 9879 193e
00000080: 4816 d7bd 0bcd 133f bdc1 0a3f ce49 b03e
00000090: 27b8 bd3e c439 40bd 217b 963e b301 153f
000000a0: fe10 cbbe 5cfb e53e a839 203f 3327 9aba
000000b0: 58cd aaba 4131 d73d 0627 9dbe 2ccb 23bf
000000c0: 1193 4f3e 6065 f8be aff9 753e 64b0 c53e
000000d0: b061 4e3c 66ed 153e 3bda debd 2285 1abe
000000e0: 0dae 48be 5e91 edbe 3893 3fbe c399 09be
000000f0: 832e 873e b8f6 103e f82b b6be ecc6 763b
00000100: 2238 35be d288 e9be 15d1 95bb 7c1c 0c3c
00000110: 55bf 5b3e ef63 fd3d 2123 923e f191 ccbe
00000120: c047 ab3e cb46 b3be 6930 473e 1e03 103f
00000130: 8fbe 363f 8adf 0b3f 0fd5 6bbe 3df6 043e
00000140: 7c5a 8c3f 6750 cb3e 4e9d 01be a1d7 aa3d
00000150: 9cd8 de3e e8d1 df3d 500a 1b3e 09c0 c1be
00000160: b99e 213f ac4c deba 6fd7 2fba 4c08 9fbe
00000170: 6a66 fc3c e737 28be ab2e febe a1f0 05bc
00000180: aa8f dabe 89ad 443e b18d 4b3e ec81 923e
00000190: c45c 79bd b314 cdbe e459 843e 8fed e73d
000001a0: 7b4a cabd a07d 0abe 31fe 9f3e 1912 b03e
000001b0: d289 99be 266f 02bf b8d9 db3e 96e6 a03e
000001c0: 15a7 1dba e85f d839 3098 1d3d efbf 393e
000001d0: 5bb8 b73e 764b c93e 3092 20be b5cc 8e3e
000001e0: 7413 6dbe fc7d 31bf ebf3 cebe ddce 893e
000001f0: 30d2 16be 39e2 92be 51c0 113f a5f4 e2bd
00000200: 484f 143f efb5 033f 1fee 8e3e 796f 1b3e
00000210: feb9 c83b 1256 c7be 80f5 78be 76a7 9639
00000220: a800 6dba 829b 27be fd3d 24be eb54 963e
00000230: a6d0 713e 6dcb 9fbe 9226 f13e 6082 be3e
00000240: bbf8 8cbd 0fe3 dabe 175c 303d 1cb8 d4be
00000250: 85a6 873d b8db 163e 2f13 9ebc cc41 473e
00000260: 3562 cbbe 2bb2 7cbe eee6 20be 6dd1 33bc
00000270: d9f1 0bbf b6ab dd3d 95ed 8939 5483 ebba
00000280: 80b7 63bd 551b 043e 6e3a 0dbf ba38 1d3e
00000290: 4f7d 433d 48e3 9ebe 6973 8bbe e8ef 923e
000002a0: a6c3 003f c5e3 9c3e a77e 62be f3c1 6bbe
000002b0: a2e6 1ebe 3418 fd3e 63e1 063d b4b5 093f
000002c0: c156 fd3e e329 5c3e 471a aebc 6b90 2dbd
000002d0: ded9 fbbd 9034 54ba 3fc8 adba 1a6b 043e
000002e0: 36d6 6e3e 2856 21be 165b 753d 82f3 713e
000002f0: f205 e4bd 4085 8abe 5033 7c3d b0bf 25be
00000300: 5bca dfbe 68ab bebe 19f2 e93d d4c5 e03e
00000310: 2e85 043e 6982 11bf bbcc 403e ddbf b2bd
00000320: c628 9abd 4c5f 12bf 6508 a73d 2653 cd3e
00000330: 5da4 9dba 5943 1138 d90b 54bd 83ca ddbe
00000340: 0a1d cb3d b7fa b4bd 3d25 773e a699 d7bd
00000350: 1c8a 9d3e 8288 d8be fbe2 22bd 58dc 20bf
00000360: 8dd1 dfbe 56a3 43be e7ff c43e 63f1 e03e
00000370: 24a3 97be d9ca d23e 1cff c5bd e1df 1bbe
00000380: 4c56 c3bc d73b c13d 8adc 5b3e af03 e0ba
00000390: fb68 443b d3e7 44bd

phi_from.mlp.mlp.0.bias f4 [10]
-0.08171917 0.2323191 0.21353428 -0.111152954 0.11522801 -0.12776467 -0.020473192 0.029695144
0.12521355 0.05832816
00000000: 615c a7bd 0fe5 6d3e bba8 5a3e 29a4 e3bd
00000010: aafc eb3d bed4 02be 65b7 a7bc 3b43 f33c
00000020: fb37 003e 82e9 6e3d

phi_from.mlp.mlp.2.weight f4 [10, 10]
0.0023528757 -0.7278384 0.33888936 0.39600006 0.2164569 0.22584872 -0.46304137 -0.1575826
-0.3844775 -0.34091815 0.13579555 0.21301356 -0.16155684 -0.071297884 -0.14611626 0.20974036
0.37863666 0.69612485 0.6002363 -0.4675022 -0.32141656 0.4402883 0.26265752 -0.52777016
-0.18313691 -1.0185071 0.00461531 0.3063128 -0.32722673 -0.3833191 0.120262444 0.42073557
0.04284003 -0.32780915 0.2059202 -0.2603823 -0.6688969 0.07823098 -0.009927534 0.30731517
-0.44025642 0.5939203 -0.1145263 0.8690533 -0.40338448 -0.29073277 -0.3672885 -0.09224764
0.57363945 -0.2305491 -0.20781517 0.15247786 0.21018526 0.4228101 0.45394158 -0.80537134
0.25378838 -0.05501989 0.050848067 0.16486456 0.34338507 0.0047286134 -0.23528019 0.35953784
-0.18122396 -0.05711829 -0.096830495 0.079784915 0.010194056 -0.011871969 -0.5389751 -0.63305503
0.26884383 -0.48878822 -0.45864266 -0.44170326 -0.14684995 -0.7370791 -0.18865643 0.30398673
-0.026926517 -0.27311537 0.60279334 -0.38384655 0.041710574 0.6664372 -0.33674484 -0.30519867
-0.47763246 0.110614374 -0.23293264 -0.47863305 -0.07015227 0.064717524 0.32172093 -0.17337084
-0.45656303 0.23076987 0.46118942 0.30500218
00000000: b432 1a3b 9e53 3abf e882 ad3e 85c0 ca3e
00000010: e1a6 5d3e e344 673e c213 edbe 555d 21be
00000020: 3cda c4be d38c aebe fd0d 0b3e 3a20 5a3e
00000030: 286f 25be a004 92bd 809f 15be 2dc6 563e
00000040: aadc c13e 3d35 323f 16a9 193f 735c efbe
00000050: b690 a4be 786d e13e 0c7b 863e f21b 07bf
00000060: 3e88 3bbe 715e 82bf 073c 973b 08d5 9c3e
00000070: 438a a7be 6742 c4be 284c f63d a76a d73e
00000080: 0779 2f3d 9ad6 a7be bfdc 523e d450 85be
00000090: d43c 2bbf 9037 a03d 18a7 22bc 6a58 9d3e
000000a0: 4a69 e1be 290b 183f c48c eabd 477a 5e3f
000000b0: 6988 cebe edda 94be 3d0d bcbe 55ec bcbd
000000c0: 09da 123f 1015 6cbe 80cd 54be 2823 1c3e
000000d0: ce3a 573e 917a d83e 086b e83e d12c 4ebf
000000e0: 8df0 813e 895c 61bd 1046 503d 41d2 283e
000000f0: 2bd0 af3e 7cf2 9a3b 4aed 70be 5815 b83e
00000100: c692 39be def4 69bd 114f c6bd 4666 a33d
00000110: f804 273c a682 42bc 46fa 09bf e50f 22bf
00000120: e6a5 893e 7342 fabe 36d3 eabe ee26 e2be
00000130: d55f 16be 37b1 3cbf 272f 41be 26a4 9b3e
00000140: 0095 dcbc c7d5 8bbe aa50 1a3f 8987 c4be
00000150: b5d8 2a3d a19b 2a3f d269 acbe 0043 9cbe
00000160: 3e8c f4be ca89 e23d e585 6ebe 640f f5be
00000170: feab 8fbd 9f8a 843d 9bb8 a43e 2088 31be
00000180: a1c2 e9be f04e 6c3e 0521 ec3e 3f29 9c3e

phi_from.mlp.mlp.2.bias f4 [10]
0.07571191 0.16788471 0.085192874 0.018538358 -0.026187114 0.02526769 -0.14474846 0.11079445
0.11158049 -0.01341611
00000000: d90e 9b3d f8e9 2b3e 9a79 ae3d c1dd 973c
00000010: 5c86 d6bc 30fe ce3c f138 14be 33e8 e23d
00000020: 5084 e43d 3ecf 5bbc

z_k.mlp.0.weight f4 [10, 32]
1.1929321 -0.7005217 -0.1533002 0.6072178 -0.82360303 -0.0673302 0.46372825 -0.014543928
-0.2169723 1.0602585 -0.07090189 0.3427066 -0.46753153 -1.0769464 0.8416885 -0.09138684
-0.37544873 -0.16098563 -0.49733496 -0.08993814 -0.05143247 -0.17457782 0.3529689 0.012306473
-0.10163327 -0.79731554 0.48252255 -0.8438685 -0.4897091 -0.2438203 -0.025454795 -0.17911546
0.16909368 3.5250494 0.11450818 -0.28450236 0.2634388 -0.1968586 0.43210638 0.16853045
0.0072631827 0.15602164 0.55685115 -0.009039788 -0.30751702 -0.3967607 -0.07238338 0.1443373
0.60985225 0.6290879 -0.4740313 -0.27058977 -0.38605952 -0.4360059 -0.2387196 0.21397094
0.04324563 -0.38691604 0.5866735 -0.15888983 -0.35104308 0.053201657 0.009794293 -0.23909812
0.038454454 -1.4124389 0.011355934 0.013074441 -0.2785155 1.380787 -0.3107592 -1.054542
0.6234863 0.17873143 -0.15587026 -0.5130326 -0.79881525 0.3900004 0.51045686 0.29204124
-1.1437201 -0.54442215 1.3484471 0.8710808 -0.43564433 -0.9262046 -0.3660515 -0.6051405
0.28482097 -0.45212343 0.41919035 -0.3107592 0.0039338046 0.19793244 -0.0043774922 0.07639236
0.7448034 0.3103787 0.023025235 0.4026167 0.2892075 -0.15483207 0.2727031 0.0718454
0.42971212 0.11829461 0.09562869 0.11642683 -0.116010725 -0.31229356 -0.32108197 0.11751407
0.16477224 -0.25364968 0.1449493 0.101492256 -0.05487645 -0.12118988 -0.21092087 0.22449566
0.024676848 -0.11479742 0.008982657 -0.37104908 -0.16179031 -0.16104741 0.004215234 -0.053287562
0.51665974 1.0235875 -0.18510063 -0.21251434 -0.78847367 -0.4333042 0.5851573 -0.49157164
-0.013373976 0.54820704 0.65724176 -0.030951707 -0.19109997 -0.16491002 0.25931448 0.028808849
-0.5134906 -0.79238373 0.024030048 0.30243537 0.0027127995 -0.4514976 -0.16919056 0.41528067
0.32694018 -0.005266989 0.69698614 -0.18582277 -0.16864222 -0.32446837 0.013184156 -0.49169612
0.9212819 -0.79149574 0.3131583 -0.24522457 -0.1874437 -0.60507953 0.1911428 0.9278838
-0.048670243 0.62335134 0.28667903 0.15872835 -0.50003034 -0.022197377 0.038419724 0.38280493
-0.25576955 -0.5953928 0.23468783 0.47788042 0.1456408 -0.041050285 -0.3527164 -0.2057311
-0.15581746 -0.1489387 0.08366533 0.014418768 -0.22434397 0.01272006 -0.011189622 0.30971205
-0.22837545 0.14663474 0.824575 -0.000867829 0.030344686 0.49089614 0.9374391 0.5530377
0.4964948 0.16331924 1.0200728 -0.44712767 -1.2895474 -0.059761953 0.48701692 0.09804826
0.46337426 0.76484567 0.26382884 0.25456277 0.5357475 -0.2731412 0.30068982 -0.5294081
1.1161072 0.14962085 0.34787276 0.012733981 -0.046571136 -0.1956492 0.04652714 -0.43421292
0.41681263 2.3280008 1.2971725 -1.3812445 -0.8504227 0.09323899 -1.0605563 -0.93102205
0.56532204 -0.5209106 0.23479308 0.4477576 -0.26926237 -0.54451877 0.9227141 -0.15203397
-0.04931343 -0.46904272 1.465073 -0.13190015 0.27834716 -0.6899599 -0.39678007 -0.5620031
0.5601362 -0.56190264 0.94441956 -0.061596036 -0.47213295 -0.10490765 0.020634443 -0.13546859
00000000: 00b2 983f 6455 33bf bafa 1cbe a072 1b3f
00000010: a6d7 52bf 6ae4 89bd ca6d ed3e a849 6ebc
00000020: fd2d 5ebe 8db6 873f 0335 91bd 3d77 af3e
00000030: 4b60 efbe 61d9 89bf e678 573f 0629 bbbd
00000040: d13a c0be 6bd9 24be b0a2 febe 7d31 b8bd
00000050: dbaa 52bd 87c4 32be 57b8 b43e 17a1 493c
00000060: 1b25 d0bd df1c 4cbf 320d f73e c407 58bf
00000070: 27bb fabe 07ac 79be 9386 d0bc 0b6a 37be
00000080: e526 2d3e 699a 6140 4483 ea3d 4baa 91be
00000090: 73e1 863e 4d95 49be 0c3d dd3e 3f93 2c3e
000000a0: feff ed3b 23c4 1f3e cc8d 0e3f 9e1b 14bc
000000b0: df72 9dbe 3824 cbbe bd3d 94bd 28cd 133e
000000c0: 471f 1c3f e80b 213f 3bb4 f2be be8a 8abe
000000d0: 98a9 c5be 2a3c dfbe e972 74be 331b 5b3e
000000e0: 5422 313d dc19 c6be 3c30 163f 04b4 22be
000000f0: ebbb b3be fbe9 593d 3e78 203c 23d6 74be
00000100: 6b82 1d3d ccca b4bf 3d0e 3a3c 2e36 563c
00000110: 9599 8ebe a1bd b03f d41b 9fbe 3bfb 86bf
00000120: cc9c 1f3f 5f05 373e 749c 1fbe 1b56 03bf
00000130: 287f 4cbf 22ae c73e 4dad 023f 6e86 953e
00000140: 6c65 92bf 405f 0bbf ea99 ac3f 27ff 5e3f
00000150: c60c dfbe bf1b 6dbf 1a6b bbbe 7dea 1abf
00000160: 0ed4 913e b97c e7be 1ea0 d63e d41b 9fbe
00000170: 25e7 803b cdae 4a3e 1171 8fbb 9973 9c3d
00000180: 70ab 3e3f f5e9 9e3e 6b9f bc3c c723 ce3e
00000190: 0113 943e 4c8c 1ebe be9f 8b3e ae23 933d
000001a0: 3a03 dc3e 7244 f23d fad8 c33d 3171 ee3d
000001b0: 0897 edbd f1e4 9fbe db64 a4be 37ab f03d
000001c0: 0eba 283e 5fde 81be 976d 143e 2cdb cf3d
000001d0: 21c6 60bd 6632 f8bd a4fb 57be 31e2 653e
000001e0: 1a27 ca3c e91a ebbd ff2b 133c 25fa bdbe
000001f0: 5cac 25be 9de9 24be f21f 8a3b 0f44 5abd
00000200: d043 043f ea04 833f 058b 3dbe 5c9d 59be
00000210: 69d9 49bf 0cda ddbe decc 153f 47af fbbe
00000220: 851e 5bbc 4c57 0c3f ff40 283f 6f8e fdbc
00000230: b6af 43be 2cde 28be dec4 843e 8900 ec3c
00000240: 1f74 03bf a9d9 4abf aada c43c cfd8 9a3e
00000250: 39c9 313b b22a e7be 4a40 2dbe ab9f d43e
00000260: b464 a73e b596 acbb af6d 323f 5348 3ebe
00000270: 8cb0 2cbe b820 a6be 5c02 583c 98bf fbbe
00000280: 21d9 6b3f 779f 4abf 4956 a03e 261c 7bbe
00000290: 3ef1 3fbe 7ee6 1abf f0ba 433e cb89 6d3f
000002a0: 735a 47bd f493 1f3f 98c7 923e af89 223e
000002b0: fd01 00bf 46d7 b5bc 005e 1d3d 02ff c33e
000002c0: 3af4 82be aa6b 18bf 0252 703e beac f43e
000002d0: dd22 153e 5824 28bd 3e97 b4be 2cab 52be
000002e0: 9d8e 1fbe 6383 18be bb58 ab3d b23c 6c3c
000002f0: 6dba 65be cc67 503c ad54 37bc 9492 9e3e
00000300: 41db 69be 6b27 163e 5917 533f 057f 63ba
00000310: 6b95 f83c bd56 fb3e 02fc 6f3f e193 0d3f
00000320: 9134 fe3e 293d 273e bf91 823f ebed e4be
00000330: e40f a5bf f3c8 74bd 485a f93e 87cd c83d
00000340: 643f ed3e edcc 433f 9314 873e 0d56 823e
00000350: c026 093f 2ad9 8bbe 04f4 993e 4a87 07bf
00000360: 9adc 8e3f 3536 193e 611c b23e 30a2 503c
00000370: 60c1 3ebd 4458 48be 3e93 3e3d 2851 debe
00000380: 7768 d53e f7fd 1440 c009 a63f 9fcc b0bf
00000390: 4db5 59bf 15f4 be3d 4fc0 87bf 7657 6ebf
000003a0: f2b8 103f 665a 05bf 996d 703e 7c40 e53e
000003b0: c2dc 89be 9565 0bbf fe36 6c3f cbae 1bbe
000003c0: e1fc 49bd 5e26 f0be 8387 bb3f d510 07be
000003d0: 8583 8e3e 36a1 30bf c226 cbbe 6fdf 0fbf
000003e0: 1665 0f3f dad8 0fbf 7bc5 713f 204c 7cbd
000003f0: 69bb f1be d2d9 d6bd 9009 a93c 47b8 0abe

z_k.mlp.0.bias f4 [10]
-0.46232268 -0.26787904 0.20132472 -0.44997793 -0.67086065 -0.5188141 -0.2639055 0.4744094
-0.5798113 -0.49685666
00000000: 8fb5 ecbe 7127 89be 1128 4e3e 8263 e6be
00000010: 86bd 2bbf 00d1 04bf 9f1e 87be cae5 f23e
00000020: 836e 14bf ff63 febe

r_k.mlp.0.weight f4 [10, 32]
0.67348886 -0.0016731119 -0.46032766 -0.14586748 -0.3599343 -0.13846897 -0.28485844 -0.7231771
0.39296252 -1.137405 -0.01386313 0.21307035 0.179016 -0.11135675 -0.71376216 0.28799078
0.060826696 0.52582496 0.20846191 0.06392866 0.0620844 0.87997514 0.30666572 -0.44017228
-0.16284744 0.04896187 0.056025844 -0.26102883 -0.09425795 -0.30052808 -0.13231845 0.018733168
0.40372056 0.98357034 -0.34723207 1.1035945 -0.7783312 -0.48864642 0.35991132 -2.1573708
-0.055792615 -1.1591966 -0.29767683 0.4420857 -1.2913121 0.43582365 -0.10299197 0.3983931
-0.39162323 0.37561765 -0.7072031 0.11212578 0.19292529 -0.9812367 0.42176807 0.119984455
-0.2751411 -0.02090335 -0.08811234 -0.0051155933 -0.24776816 -0.5896493 -0.18109214 -0.31075457
0.19316182 -0.2648024 0.056419488 -0.43745068 1.0150763 -0.0032480042 0.069679566 -0.030018391
0.20135485 0.19259077 -0.21629202 0.36697558 -0.57012737 -0.15338404 0.1679685 0.32707936
-0.45441046 -0.20718616 0.42523944 0.23882206 -0.53289825 -0.7828992 0.028513819 1.1752774
0.033380516 0.46188107 -0.07086456 0.41990367 0.16399214 -0.13770047 0.010897629 -0.19667874
-0.37240455 -1.6261659 0.09156183 0.037551835 0.02323529 0.33046433 -0.17627597 -0.25260794
-0.16417064 0.45607248 0.08636576 -0.1845624 0.64821184 -0.24145938 -0.76503897 0.21289152
0.2892028 -0.2946675 0.13924041 0.40612376 -0.20376433 -0.34862813 0.10219532 -0.03894191
-0.103578664 0.09949085 0.056861 0.3130317 0.09654063 -0.32149702 -0.030008476 0.12676652
0.45954525 -2.309652 0.12607577 0.1363219 0.4637827 -0.11341253 0.5389365 0.8445893
0.14758608 0.37883937 0.9978974 -0.35997358 -0.52014023 -0.22245884 1.1535218 -0.21632272
0.3555779 -0.20396475 1.2567437 1.3143277 -0.3380758 0.1923181 0.054751627 0.25367516
0.13001624 0.37963858 0.34860867 -0.37846795 0.3234949 0.028702253 0.03462984 -0.24293424
0.2535139 1.0926144 -0.34397325 0.22912379 1.5703086 0.08212072 0.09552754 -1.478863
0.1485921 2.8237128 0.6138087 -0.3678691 -2.2464964 0.39087796 -0.8960097 3.6575696
-0.8765911 0.56527287 -0.6974213 0.07385515 -0.21300511 -0.87983394 -0.0913803 -0.04907834
0.035660684 0.43138248 -0.5053925 0.9415893 0.20494373 -0.63056844 -0.17231214 -0.22767618
-0.28967637 -1.8972948 0.06031226 0.047495026 0.08605293 -0.1494153 -0.16922712 -0.60378915
-0.18123898 -0.445291 0.3783054 0.1565829 -1.4585835 -0.804698 -0.9792567 1.2000453
-1.3302642 0.29349154 -0.40071148 -0.22852854 0.23001145 -0.2570583 1.48952 0.14531603
-0.1761072 0.074488424 0.1441 0.87156063 0.02129619 0.19572902 -0.39800698 -0.12284534
-0.11023459 -0.248855 -0.0981151 -0.05038406 -0.056217253 0.42766178 -0.18782328 -1.4733362
0.13778111 -0.036323264 -0.2635177 0.3404932 -0.62563545 0.08022394 -0.4677718 1.528227
-0.6919786 0.5858595 -3.1108687 -0.8434693 0.21601959 0.6205323 -0.7154951 0.5125736
-0.2075543 -0.051947482 -0.26312196 -0.76376325 0.01667902 0.3143389 0.08270445 -0.21720673
00000000: c469 2c3f 524c dbba 11b0 ebbe 495e 15be
00000010: 4f49 b8be cfca 0dbe f7d8 91be 2222 39bf
00000020: 6232 c93e 7d96 91bf 2e22 63bc 1d2f 5a3e
00000030: f84f 373e 020f e4bd 1eb9 36bf 8773 933e
00000040: 6a25 793d 779c 063f 0a77 553e 07ed 823d
00000050: 364c 7e3d 0d46 613f 4a03 9d3e 435e e1be
00000060: 7bc1 26be 3e8c 483d 5b7b 653d 92a5 85be
00000070: 500a c1bd d1de 99be 7d7e 07be 4d76 993c
00000080: 76b4 ce3e 44cb 7b3f 67c8 b1be 9642 8d3f
00000090: b740 47bf dd2f fabe 4c46 b83e 5d12 0ac0
000000a0: cc86 64bd 8e60 94bf 1969 98be 0f59 e23e
000000b0: b749 a5bf 4724 df3e 74ed d2bd 2efa cb3e
000000c0: d782 c8be f550 c03e 430b 35bf 33a2 e53d
000000d0: 358e 453e 5432 7bbf fcf1 d73e 69ba f53d
000000e0: 4bdf 8cbe 813d abbc 3e74 b4bd b5a0 a7bb
000000f0: f0b6 7dbe 42f3 16bf 3870 39be 391b 9fbe
00000100: 36cc 453e 2e94 87be 1f18 673d 89f9 dfbe
00000110: 05ee 813f 78dc 54bb 29b4 8e3d 21e9 f5bc
00000120: f72f 4e3e 8436 453e a87b 5dbe 39e4 bb3e
00000130: def3 11bf b510 1dbe efff 2b3e f276 a73e
00000140: 7da8 e8be 9c28 54be fcb8 d93e c58d 743e
00000150: 056c 08bf 156c 48bf d095 e93c 7d6f 963f
00000160: 02ba 083d ad7b ec3e 7021 91bd 9dfd d63e
00000170: 8eed 273e 5a01 0dbe f88b 323c 2766 49be
00000180: cfab bebe 3426 d0bf c584 bb3d f4cf 193d
00000190: ef57 be3c 9f32 a93e b081 34be d455 81be
000001a0: 591c 28be 5582 e93e 88e0 b03d edfd 3cbe
000001b0: 36f1 253f 2141 77be 98d9 43bf 3c00 5a3e
000001c0: 6412 943e a9de 96be 0a95 0e3e 74ef cf3e
000001d0: 99a7 50be 637f b2be c84b d13d 8d81 1fbd
000001e0: 0d21 d4bd dcc1 cb3d 14e7 683d b145 a03e
000001f0: 18b7 c53d 429b a4be 56d4 f5bc 15cf 013e
00000200: 8449 eb3e 57d1 13c0 021a 013e f897 0b3e
00000210: ed74 ed3e d444 e8bd bef7 093f 0137 583f
00000220: ce20 173e 3cf7 c13e 3476 7f3f 754e b8be
00000230: e927 05bf 40cc 63be 9aa6 933f b483 5dbe
00000240: 4e0e b63e 23dc 50be fadc a03f e43b a83f
00000250: 4518 adbe 09ef 443e 3e43 603d b6e1 813e
00000260: fa22 053e fd5f c23e d67c b23e 8dc6 c1be
00000270: 20a1 a53e fd20 eb3c 05d8 0d3d c1c3 78be
00000280: 93cc 813e cada 8b3f 431d b0be 6d9f 6a3e
00000290: dfff c83f e82e a83d f1a3 c33d 624b bdbf
000002a0: 8728 183e b6b7 3440 9122 1d3f 5759 bcbe
000002b0: 99c6 0fc0 2821 c83e e460 65bf 9f15 6a40
000002c0: 4668 60bf b9b5 103f 348a 32bf 5e41 973d
000002d0: 031e 5abe cc3c 61bf 9825 bbbd 5f06 49bd
000002e0: f010 123d 2ade dc3e 6761 01bf ff0b 713f
000002f0: c5dc 513e ef6c 21bf 9872 30be f223 69be
00000300: 7650 94be 8eda f2bf fd09 773d 258a 423d
00000310: 853c b03d 5300 19be e049 2dbe ed91 1abf
00000320: b696 39be 2ffd e3be 3fb1 c13e 4557 203e
00000330: ddb2 babf b000 4ebf 91b0 7abf 169b 993f
00000340: 1946 aabf 8644 963e 0e2a cdbe 6303 6abe
00000350: 1f88 6b3e 259d 83be 97a8 be3f bacd 143e
00000360: 7255 34be 638d 983d f38e 133e 991e 5f3f
00000370: 5975 ae3c 306d 483e 92c7 cbbe 5696 fbbd
00000380: acc2 e1bd d8d3 7ebe 92f0 c8bd 845f 4ebd
00000390: 1044 66bd 7cf6 da3e bf54 40be 4896 bcbf
000003a0: 7e16 0d3e b4c7 14bd cbeb 86be 2055 ae3e
000003b0: a529 20bf 734c a43d c97f efbe f19c c33f
000003c0: 8225 31bf e3fa 153f 7918 47c0 9bed 57bf
000003d0: 3d34 5d3e 34db 1e3f b02a 37bf 0638 033f
000003e0: 1d89 54be e2c6 54bd ecb7 86be fd85 43bf
000003f0: 71a2 883c 07f1 a03e f360 a93d 716b 5ebe

r_k.mlp.0.bias f4 [10]
0.44578123 0.07768558 0.049796093 0.11624617 -0.384637 -0.13846388 0.01363446 -0.012781874
-0.14863546 -0.16057718
00000000: 703d e43e 9e19 9f3d fdf6 4b3d 7912 ee3d
00000010: 24ef c4be 7ac9 0dbe 1263 5f3c 116b 51bc
00000020: e533 18be 586e 24be

correction.mlp.0.weight f4 [10, 32]
-0.41664457 -0.81311554 -0.14282596 0.17726634 -0.043788712 -0.28959405 0.083805524 1.2761748
0.18194923 -0.14337881 -0.22194183 0.058355898 -0.24227603 0.05844089 0.16201788 0.38109273
0.20838393 0.37456092 0.06401957 0.3574599 0.07113733 -0.5371161 -0.28342903 0.108878784
0.24185658 0.1516071 -0.014733891 0.14864743 0.1436317 0.0049624355 0.0002462459 -0.40069303
0.23659842 -1.6619664 -0.2662472 0.089307606 0.14500429 0.10197796 -0.36631134 -0.98218
0.13042499 -0.09406376 0.11405761 -0.08343096 0.06237879 -0.24949893 0.02372392 -0.033065706
-0.08713259 -0.23535529 0.04894311 0.24000622 0.29120314 -0.3670331 -0.2875722 -0.012340071
0.29814866 0.2418688 -0.29791993 -0.0053728744 -0.058831688 -0.37480375 0.0004579194 0.2953192
-0.3592094 -0.26423952 -0.54153085 0.35732436 -0.023231396 0.47240716 -0.10472746 0.74025875
0.3090281 0.19449371 0.044399966 -0.29155576 -0.17740604 -0.029920619 -0.18401392 -0.15060677
0.08673388 0.1538736 0.09265891 -0.18515171 -0.14080141 -0.26095662 -0.094869584 0.17860879
0.118870564 0.069065906 -0.27307668 0.118925445 -0.27929693 0.4098207 0.014549511 -0.25663534
0.34686252 0.25634447 -0.4396204 -1.1341544 -0.22266975 -0.34946027 0.5712623 0.008807773
0.038205076 0.5343001 -0.329417 0.15736459 -0.3597153 -0.065188184 -0.24120747 -0.07827826
-0.07378961 0.06960664 -0.1655231 0.29391384 0.436957 0.13400266 0.05418078 0.023562303
-0.32849616 0.029855616 0.21673931 -0.060531687 0.0045689647 -0.3850184 -0.016080935 -0.26797575
0.27421734 -1.1416701 -0.121736385 0.27951533 -0.19889864 0.13655263 0.107634425 0.5602545
0.10260798 -0.48946875 0.2893925 0.15935798 -0.19877625 0.12761085 -0.06353551 -0.34370893
0.0122051565 -0.5102653 0.14029138 -0.109672256 -0.046836685 0.03544118 -0.16903353 0.43631446
0.02549952 0.17432682 -0.19774175 -0.20574078 -0.27388293 0.17107812 0.017711923 -0.2892382
0.33035976 -0.20179036 -0.20024277 0.14106756 0.45486638 -0.49818587 -0.4352892 0.46527493
-0.3226712 -0.51194257 -0.22060294 -0.0074626906 0.120089725 -0.13073596 0.2352868 0.33211592
0.21078493 -0.17185505 0.2557235 0.027821342 0.020350942 0.2776464 -0.34574488 0.4233133
0.05618533 -0.14291309 0.014323068 -0.18027 0.04292686 0.3877973 0.009267072 -0.008808105
0.32611835 0.23582797 0.31699982 0.036042385 -0.3905685 -0.2860499 -0.25310728 -0.393527
-0.009809563 0.63666844 -0.28575748 0.059654843 0.18676485 -0.041779567 0.20888756 0.32285827
-0.022794537 0.075381875 -0.021428192 0.10974794 -0.101977326 -0.40146556 -0.2020192 0.035821423
0.16215394 -0.20708123 -0.03528141 0.22002788 0.25781885 -0.24772097 -0.0016467614 0.37203547
0.6685147 -0.8386048 0.4515789 0.30576795 0.10908108 0.06145365 0.024933131 -0.7177674
-0.08086267 -0.11592684 0.271552 0.12931678 -0.5660461 -0.28157866 0.30380926 -0.09778157
0.33504626 0.10353938 -0.08319572 -0.113306694 0.056831867 0.45514882 -0.12264119 -0.0007156832
-0.21127583 -0.11736568 -0.22299767 0.07269559 -0.058876302 -0.16750985 -0.0050073355 0.27178124
00000000: 7052 d5be 5728 50bf f840 12be 4f85 353e
00000010: cb5b 33bd ac45 94be 3ba2 ab3d b259 a33f
00000020: e650 3a3e e5d1 12be b844 63be 9806 6f3d
00000030: 3517 78be b75f 6f3d 04e8 253e 961e c33e
00000040: 9962 553e 73c6 bf3e b11c 833d fc04 b73e
00000050: 73b0 913d 7180 09bf 9c1d 91be d7fb de3d
00000060: 40a9 773e e43e 1b3e 6b66 71bc 0837 183e
00000070: 3014 133e ed9b a23b 911a 8139 a327 cdbe
00000080: db46 723e 51bb d4bf 8e51 88be e8e6 b63d
00000090: 017c 143e d2d9 d03d 298d bbbe 2670 7bbf
000000a0: 218e 053e 80a4 c0bd 0997 e93d dadd aabd
000000b0: e780 7f3d a67c 7fbe ab58 c23c e86f 07bd
000000c0: 9272 b2bd fa00 71be 9278 483d 31c4 753e
000000d0: 9418 953e c3eb bbbe aa3c 93be 022e 4abc
000000e0: f1a6 983e 74ac 773e f688 98be f00e b0bb
000000f0: 7ff9 70bd 47e6 bfbe e714 f039 1434 973e
00000100: 4bea b7be 674a 87be c4a1 0abf 38f3 b63e
00000110: c54f bebc 5adf f13e 5a7b d6bd 9981 3d3f
00000120: ee38 9e3e 5c29 473e bddc 353d cc46 95be
00000130: eea9 35be 161c f5bc 256e 3cbe a938 1abe
00000140: 88a1 b13d 0a91 1d3e f4c3 bd3d 6998 3dbe
00000150: 3f2e 10be 1b9c 85be fc4a c2bd 39e5 363e
00000160: 6972 f33d 6d72 8d3d b5d0 8bbe 2f8f f33d
00000170: 0200 8fbe 05d4 d13e 1261 6e3c b565 83be
00000180: f797 b13e 953f 833e ed15 e1be f92b 91bf
00000190: 8a03 64be 75ec b2be 3f3e 123f 7a4e 103c
000001a0: ed7c 1c3d e4c7 083f 58a9 a8be 2f24 213e
000001b0: 9b2c b8be 6281 85bd 17ff 76be 5a50 a0bd
000001c0: 021f 97bd ed8d 8e3d e37e 29be e07b 963e
000001d0: d4b8 df3e fe37 093e aaec 5d3d bb05 c13c
000001e0: a630 a8be c493 f43c e9f0 5d3e 13f0 77bd
000001f0: 41b7 953b 2221 c5be 2abc 83bc 1e34 89be
00000200: 3766 8c3e 3f22 92bf ed50 f9bd a21c 8f3e
00000210: 16ac 4bbe 74d4 0b3e 706f dc3d d76c 0f3f
00000220: 2224 d23d a69b fabe 412b 943e bd2e 233e
00000230: 008c 4bbe 6bac 023e e81e 82bd 9efa afbe
00000240: 23f8 473c bfa0 02bf 8ba8 0f3e d99b e0bd
00000250: d3d7 3fbd c52a 113d 2017 2dbe 9c64 df3e
00000260: 5fe4 d03c bb82 323e d07c 4abe b6ad 52be
00000270: 623a 8cbe 1a2f 2f3e 9818 913c 0817 94be
00000280: ea24 a93e 22a2 4ebe 710c 4dbe 0474 103e
00000290: 3fe4 e83e 3812 ffbe 3ade debe 8438 ee3e
000002a0: 2935 a5be ab0e 03bf bde5 61be 9689 f4bb
000002b0: 9af1 f53d a6df 05be 06ef 703e 190b aa3e
000002c0: 01d8 573e c5fa 2fbe 31ee 823e 95e9 e33c
000002d0: 05b7 a63c ab27 8e3e 7905 b1be 85bc d83e
000002e0: 9722 663d cf57 12be 4dab 6a3c b398 38be
000002f0: 13d4 2f3d 5e8d c63e ebd4 173c df4f 10bc
00000300: fcf8 a63e e37c 713e cd4d a23e 2ea1 133d
00000310: 98f8 c7be 2275 92be 4797 81be 5f7c c9be
00000320: 4ab8 20bc b4fc 223f ce4e 92be a358 743d
00000330: 493f 3f3e 0d21 2bbd 9fe6 553e ae4d a53e
00000340: 9cbb babc d061 9a3d 2d8a afbc 87c3 e03d
00000350: 7dd9 d0bd e58c cdbe 1fde 4ebe 7cb9 123d
00000360: af0b 263e 1a0d 54be 3d83 10bd fd4e 613e
00000370: d500 843e 91aa 7dbe 25d8 d7ba 6f7b be3e
00000380: c823 2b3f ceae 56bf 5935 e73e 9e8d 9c3e
00000390: e765 df3d d3b6 7b3d 9140 cc3c 9bbf 37bf
000003a0: 549b a5bd 0d6b edbd dd08 8b3e 9e6b 043e
000003b0: 66e8 10bf 142b 90be e38c 9b3e b441 c8bd
000003c0: 2f8b ab3e 740c d43d 8562 aabd 570d e8bd
000003d0: 88c8 683d 4409 e93e 4e2b fbbd b09c 3bba
000003e0: b158 58be 6b5d f0bd 8059 64be 6de1 943d
000003f0: 4728 71bd b487 2bbe 9314 a4bb e926 8b3e

correction.mlp.0.bias f4 [10]
-0.07441915 -0.20037462 0.0007255667 -0.25610262 -0.12317927 0.052529376 0.090615116 0.1281661
-0.1711026 -0.06336119
00000000: 1169 98bd 012f 4dbe f533 3e3a e21f 83be
00000010: 6a45 fcbd 0b29 573d 6b94 b93d f93d 033e
00000020: 8535 2fbe 83c3 81bd

autoencoder.encoder.mlp.mlp.0.weight f4 [10, 1]
0.1800286 -0.20811215 0.042651355 0.0507354 -0.35262683 0.14365721 0.3278822 0.15099744
-0.063229494 0.22646433
00000000: 6b59 383e 5a1b 55be 30b3 2e3d eccf 4f3d
00000010: 818b b4be e01a 133e 2de0 a73e 139f 1a3e
00000020: 777e 81bd 44e6 673e

autoencoder.encoder.mlp.mlp.0.bias f4 [10]
0.004350642 -0.0019175109 -0.15954144 0.103741355 0.0059261518 -0.006235572 -0.0008984213 0.005791429
-0.20691344 -0.017484603
00000000: d58f 8e3b fd54 fbba d55e 23be 5976 d43d
00000010: 2a30 c23b c553 ccbb 0884 6bba 07c6 bd3b
00000020: 1ee1 53be df3b 8fbc

autoencoder.encoder.mlp.mlp.2.weight f4 [10, 10]
0.014373585 -0.3033965 0.13923432 -0.4241165 0.14411013 -0.42760727 -0.09089967 0.273358
-0.07322415 0.27836064 0.15169504 -0.36038896 0.15159911 0.10485347 0.19825861 -0.3618783
0.08082588 -0.33977976 -0.11579248 0.1463082 -0.28041983 -0.31371748 0.1431704 -0.0033901653
-0.09292428 0.7363211 -0.23098439 0.7641352 0.0056075086 -0.007984794 0.07980867 -0.0726846
-0.22610503 0.07455929 0.3113657 0.16320433 -0.22495498 -0.46338865 -0.44844204 -0.27729675
-0.15802841 -0.31338865 0.1415203 0.25755945 0.12854229 -0.0040697986 0.33383378 0.012725399
0.23719038 -0.070358105 0.2467487 -0.33602932 0.09580331 -0.22266331 0.24703662 0.5383917
-0.2619113 0.3686077 0.1471873 0.08538027 -0.43846163 -0.5948055 0.21726546 -0.091541104
0.2977291 0.50038487 -0.43601075 0.44586813 0.3508299 0.16702941 0.43586153 -0.08771495
-0.18595605 -0.38246465 0.03495822 -0.1538883 -0.22144963 -0.0015313475 0.080795966 0.17247806
-0.2621417 0.003573345 -0.07928284 -0.4119243 -0.39373437 0.18944412 0.02004302 -0.1901538
-0.39381865 0.2837753 0.52779675 -0.2439614 0.017213253 0.38875693 0.16996348 -0.16989575
0.2240115 -0.4858423 0.11199679 0.095161065
00000000: 2f7f 6b3c c956 9bbe 7193 0e3e cc25 d9be
00000010: 9b91 133e 57ef dabe 9b29 babd 94f5 8b3e
00000020: 8bf6 95bd 4985 8e3e f255 1b3e e784 b8be
00000030: cc3c 1b3e 6bbd d63d 4e04 4b3e 1d48 b9be
00000040: 0a88 a53d 9df7 adbe 9c24 edbd d1d1 153e
00000050: 3093 8fbe 949f a0be 439b 123e 892d 5ebb
00000060: 164f bebd 8a7f 3c3f 2c87 6cbe 5d9e 433f
00000070: 31bf b73b a7d2 02bc ba72 a33d aadb 94bd
00000080: 1488 67be 8bb2 983d 536b 9f3e 091f 273e
00000090: 995a 66be 4741 edbe 329a e5be d7f9 8dbe
000000a0: 33d2 21be 7a74 a0be b3ea 103e d5de 833e
000000b0: 97a0 033e f25b 85bb 43ec aa3e 317e 503c
000000c0: 09e2 723e e917 90bd b1ab 7c3e 090c acbe
000000d0: 8734 c43d da01 64be 2bf7 7c3e 0ad4 093f
000000e0: 3d19 86be 26ba bc3e 44b8 163e dadb ae3d
000000f0: 0b7e e0be 2c45 18bf d67a 5e3e e779 bbbd
00000100: f36f 983e 3919 003f cd3c dfbe d448 e43e
00000110: fa9f b33e c209 2b3e 3e29 df3e e5a3 b3bd
00000120: 436b 3ebe 68d2 c3be 5a30 0f3d e594 1dbe
00000130: b1c3 62be 7fb7 c8ba 5b78 a53d 179e 303e
00000140: 7037 86be c82e 6a3b 0b5f a2bd bee7 d2be
00000150: 8d97 c9be a4fd 413e 4231 a43c aeb7 42be
00000160: 99a2 c9be ff4a 913e b01d 073f 04d1 79be
00000170: cf02 8d3c 260b c73e e80a 2e3e 27f9 2dbe
00000180: 4563 653e 52c0 f8be 935e e53d cee3 c23d

autoencoder.encoder.mlp.mlp.2.bias f4 [10]
-0.022013152 0.053132832 0.0044451803 -0.095734626 -0.07651258 0.12003021 -0.057870917 0.05197855
-0.07225476 -0.1778745
00000000: ed54 b4bc d0a1 593d e0a8 913b 8410 c4bd
00000010: a1b2 9cbd 66d2 f53d 0e0a 6dbd 76e7 543d
00000020: 4efa 93bd bc24 36be

autoencoder.decoder.mlp.mlp.0.weight f4 [10, 10]
-0.085607894 0.3560263 -0.20674697 -1.1535563 0.20093928 0.5490747 -1.0508542 -0.8741775
-0.18173465 0.903495 -0.9918863 0.28337204 -0.77558637 0.55615044 0.46245113 0.6952022
0.18891062 -0.2094617 -1.0036684 0.21422735 0.20138595 0.8434187 0.41020235 -0.25278533
0.5195427 0.9893747 -1.1037109 -1.5418168 -0.103427276 0.47975224 -0.8426079 0.23826167
-1.1094701 0.8273246 -0.11114804 1.0340656 -0.43995 0.21761625 -0.85168225 0.95065826
0.367099 -0.15283526 -0.3078485 -0.042358708 0.09150812 -0.2538442 -0.03894029 -0.42667493
0.10028757 -0.34854198 0.26758373 0.49798203 -0.182321 0.38746387 -0.024296286 -0.44704598
-0.06585751 0.30939004 0.45677057 0.22291668 -1.2066854 0.12263044 -1.0438473 0.6094769
0.14786242 0.84139186 -0.25917533 0.7537359 -0.85258603 0.5429093 0.41148266 0.3659836
0.29826102 0.62042314 0.36702886 -0.2394369 -0.13457246 -0.0643348 0.1567336 0.0827684
-0.1572359 0.39882702 0.76892304 -0.72748077 0.93417424 0.6037588 -0.18322474 -0.80624026
-0.73305 -0.29245508 0.50624907 -0.00987844 -0.009566416 0.5585437 0.44634175 -0.14488819
0.37724805 -0.40677658 0.50025225 0.4317768
00000000: 3153 afbd 1449 b63e 7ab5 53be bca7 93bf
00000010: 07c3 4d3e 2990 0c3f 6482 86bf 19ca 5fbf
00000020: a618 3abe 734b 673f 43ec 7dbf 2416 913e
00000030: d48c 46bf e05f 0e3f 65c6 ec3e c5f8 313f
00000040: c971 413e 217d 56be 3578 80bf 6a5e 5b3e
00000050: 1e38 4e3e 4aea 573f 0b06 d23e 146d 81be
00000060: c000 053f a947 7d3f 6646 8dbf 415a c5bf
00000070: aed1 d3bd 16a2 f53e 27b5 57bf defa 733e
00000080: 1e03 8ebf 8ccb 533f 95a1 e3bd 435c 843f
00000090: 2041 e1be cbd6 5e3e d907 5abf 575e 733f
000000a0: 66f4 bb3e d980 1cbe 529e 9dbe 5380 2dbd
000000b0: 9c68 bb3d def7 81be db7f 1fbd 2375 dabe
000000c0: 9263 cd3d 1874 b2be bc00 893e 80f7 fe3e
000000d0: 5bb2 3abe aa61 c63e 0109 c7bc 36e3 e4be
000000e0: 4de0 86bd 5f68 9e3e d5dd e93e 4544 643e
000000f0: ab74 9abf ab25 fb3d ca9c 85bf ae06 1c3f
00000100: 3f69 173e 7565 573f a1b2 84be d6f4 403f
00000110: 1443 5abf 1bfc 0a3f dbad d23e 3462 bb3e
00000120: abb5 983e 0dd4 1e3f 35eb bb3e f22e 75be
00000130: 5dcd 09be f7c1 83bd c67e 203e 7b82 a93d
00000140: 7302 21be 0e33 cc3e 24d8 443f 2e3c 3abf
00000150: 0b26 6f3f f08f 1a3f 449f 3bbe c365 4ebf
00000160: 2aa9 3bbf acbc 95be 8a99 013f 2ed9 21bc
00000170: 75bc 1cbc b8fc 0e3f e886 e43e 925d 14be
00000180: a826 c13e 0545 d0be 8810 003f d911 dd3e

autoencoder.decoder.mlp.mlp.0.bias f4 [10]
0.16335441 0.023194877 -0.026661746 -0.10389556 -0.23230353 -0.048975583 -0.089974664 -0.3401702
0.039760273 -0.30769953
00000000: 6146 273e 2f03 be3c bc69 dabc 32c7 d4bd
00000010: fae0 6dbe 9f9a 48bd a344 b8bd ca2a aebe
00000020: abdb 223d cb8a 9dbe

autoencoder.decoder.mlp.mlp.2.weight f4 [1, 10]
0.7471811 -0.97566855 1.1450775 -0.98016715 -0.7124693 -0.6472402 -1.0553944 -0.17220236
0.979822 -0.660282
00000000: 4347 3f3f 6ac5 79bf e691 923f 3cec 7abf
00000010: 6364 36bf 89b1 25bf 2a17 87bf d155 30be
00000020: 9dd5 7a3f 3e08 29bf

exp_avg f4 [10]
0.0 0.0 0.0 0.0 0.0 0.0 0.0 0.0
0.0 0.0
00000000: 0000 0000 0000 0000 0000 0000 0000 0000
00000010: 0000 0000 0000 0000 0000 0000 0000 0000
00000020: 0000 0000 0000 0000

exp_avg_sq f4 [10]
0.0 0.0 0.0 0.0 0.0 0.0 0.0 0.0
0.0 0.0
00000000: 0000 0000 0000 0000 0000 0000 0000 0000
00000010: 0000 0000 0000 0000 0000 0000 0000 0000
00000020: 0000 0000 0000 0000

exp_avg f4 [10]
0.0 0.0 0.0 0.0 0.0 0.0 0.0 0.0
0.0 0.0
00000000: 0000 0000 0000 0000 0000 0000 0000 0000
00000010: 0000 0000 0000 0000 0000 0000 0000 0000
00000020: 0000 0000 0000 0000

exp_avg_sq f4 [10]
0.0 0.0 0.0 0.0 0.0 0.0 0.0 0.0
0.0 0.0
00000000: 0000 0000 0000 0000 0000 0000 0000 0000
00000010: 0000 0000 0000 0000 0000 0000 0000 0000
00000020: 0000 0000 0000 0000

exp_avg f4 [10, 23]
7.662459e-07 -9.768656e-07 -4.704504e-06 5.445856e-06 -6.1693197e-07 -1.0285859e-06 1.0410315e-06 -3.721443e-07
-5.5760493e-06 -2.8136952e-07 4.8538123e-08 -9.735311e-07 -3.7483896e-06 5.6239774e-06 -5.5751633e-07 -2.6006626e-07
1.1110104e-06 -1.5254525e-07 -4.9674013e-06 -6.624196e-08 3.4223324e-06 -9.974569e-07 -1.7480875e-06 -8.850031e-08
3.0080438e-11 7.1924615e-07 8.1691235e-07 3.7760773e-07 1.0363757e-07 3.0279776e-07 -5.2155574e-08 -9.435916e-08
-7.751198e-07 -4.3014204e-08 1.7026707e-08 1.1878358e-07 7.0378894e-07 1.0036381e-07 -3.5396744e-07 2.4540205e-07
5.6019072e-08 1.502538e-07 -6.2062963e-07 4.23807e-07 -1.2549339e-06 4.482884e-07 1.5007798e-07 -7.6098564e-07
9.381812e-06 -9.620643e-06 2.4499684e-06 7.786785e-07 -1.1568552e-06 2.5061053e-07 1.2056463e-05 3.326215e-06
1.4395844e-06 7.5705555e-07 1.1385886e-05 -9.900591e-06 3.8083608e-06 1.7244519e-06 -1.3809577e-06 -4.5555755e-08
1.2881476e-05 2.8912941e-06 -5.2008147e-07 -5.823193e-06 -7.6204224e-06 1.1232186e-06 5.2895126e-07 -3.7839745e-06
8.662013e-06 -3.2773435e-06 -4.2021597e-06 6.473415e-07 -5.4652993e-08 9.081584e-07 -3.8608355e-06 1.0417375e-06
-8.515916e-08 -4.099157e-06 8.86563e-06 -3.6716433e-06 -2.7849792e-06 4.3813458e-07 2.9063395e-07 -6.779905e-07
-3.5993285e-06 -1.1333499e-05 -9.910415e-07 4.1122244e-06 -1.8064419e-06 -1.360198e-06 -6.52024e-06 4.0811606e-06
-1.04892685e-07 2.5501495e-06 5.2657424e-07 2.1869856e-07 -1.12102625e-05 1.7100791e-06 -1.317573e-06 -7.4267626e-07
-6.9549287e-06 4.3650275e-06 9.7640765e-08 1.7891608e-06 3.546162e-07 -1.0792496e-07 -1.1469258e-05 1.6554392e-06
1.11972e-06 -5.741634e-07 -5.2078267e-06 3.1947843e-07 -4.968422e-07 1.9337314e-07 -1.0324758e-06 1.3714393e-06
3.0957307e-07 4.5539597e-08 -3.1390208e-08 2.5611058e-07 1.6787104e-06 3.55059e-07 -5.558808e-07 1.8709663e-06
-1.2092627e-06 1.5131441e-06 9.699373e-07 3.4519232e-08 -1.5269781e-07 6.5749856e-07 1.6749576e-06 2.6279554e-06
2.4412348e-06 -2.0465088e-06 -1.1003638e-06 9.619588e-07 -9.3021765e-07 -5.4568017e-07 -1.86764e-06 1.2603151e-06
-1.0245732e-06 5.480175e-07 -2.1940903e-06 -2.9453586e-06 -1.0931165e-06 1.1335219e-06 -4.0122984e-07 -1.2406708e-06
-1.1400369e-06 1.5666266e-06 -1.358431e-06 2.4685758e-07 -2.3356256e-06 -2.2330294e-06 7.2227965e-07 1.0931071e-06
1.0245529e-05 -2.2925582e-07 9.999818e-08 2.619593e-06 -4.818282e-06 1.9673348e-06 3.2362266e-06 -1.2626627e-06
2.5229486e-08 -4.7312665e-07 2.2559634e-06 -2.696793e-07 3.7772157e-08 1.8996448e-06 -4.0854106e-06 1.4338159e-06
2.6576392e-06 -1.0502401e-06 5.8982376e-08 -4.827102e-07 1.8229198e-06 -1.4658254e-06 9.820076e-07 1.6515695e-07
2.2313372e-06 1.3152211e-06 -6.749195e-06 1.7174738e-05 -6.4743176e-06 -1.3454527e-05 5.9450663e-06 -8.8158697e-07
7.122708e-06 -1.0581048e-05 1.2145653e-06 -2.982194e-08 -5.7978605e-06 1.5596936e-05 -6.548789e-06 -1.3236061e-05
5.6175645e-06 -5.1811907e-07 7.2129187e-06 -9.820845e-06 -1.4993881e-06 2.784893e-06 3.846445e-07 3.344241e-07
8.6821103e-07 6.8827057e-06 -4.8107513e-06 3.2671707e-07 -1.538726e-06 -1.1212053e-08 -1.02559365e-08 1.0517301e-05
-8.2985287e-07 8.902234e-07 9.495055e-07 5.2985733e-06 -3.4710251e-06 -3.6658793e-07 -3.1295185e-06 3.6579988e-07
-1.8096776e-07 9.968869e-06 -1.5810132e-06 -2.7536916e-07 1.4767444e-06 1.2051464e-06
00000000: 04b0 4d35 d91c 83b5 62db 9db6 8cbb b636
00000010: 3e9b 25b5 f10d 8ab5 92b9 8b35 20cb c7b4
00000020: e619 bbb6 220f 97b4 3b78 5033 46aa 82b5
00000030: d88c 7bb6 99b5 bc36 3ba8 15b5 3c9f 8bb4
00000040: 071e 9535 52cb 23b4 a7ad a6b6 e740 8eb3
00000050: 39ab 6536 5ce0 85b5 d49f eab5 8f0d beb3
00000060: 904b 042e 3812 4135 ca49 5b35 03ba ca34
00000070: 5b8f de33 3590 a234 a901 60b3 7fa2 cab3
00000080: d411 50b5 9ebe 38b3 2042 9232 f715 ff33
00000090: 02ec 3c35 9787 d733 ea08 beb4 cdbf 8334
000000a0: 9f99 7033 7355 2134 5899 26b5 9787 e334
000000b0: 336f a8b5 4aac f034 1f25 2134 8946 4cb5
000000c0: 9366 1d37 5968 21b7 236a 2436 6106 5135
000000d0: 3e45 9bb5 a68b 8634 1d46 4a37 f037 5f36
000000e0: be37 c135 7638 4b35 0206 3f37 b71a 26b7
000000f0: 2493 7f36 b773 e735 5859 b9b5 15a9 43b3
00000100: 851d 5837 0e08 4236 ba9b 0bb5 d964 c3b6
00000110: eeb2 ffb6 7fc1 9635 41fd 0d35 30f0 7db6
00000120: 1053 1137 55f0 5bb6 4700 8db6 f8c4 2d35
00000130: 9abb 6ab3 2cc8 7335 538c 81b6 d4d1 8b35
00000140: bee0 b6b3 7e8b 89b6 97bd 1437 5a66 76b6
00000150: 94e5 3ab6 c238 eb34 6d08 9c34 27ff 35b5
00000160: fe8b 71b6 0225 3eb7 ed03 85b5 bdfb 8936
00000170: df74 f2b5 0c90 b6b5 6fc8 dab6 e7f0 8836
00000180: 5d41 e1b3 3c23 2b36 e859 0d35 67d3 6a34
00000190: b613 3cb7 df85 e535 77d7 b0b5 535c 47b5
000001a0: 625e e9b6 4d77 9236 94ae d133 1923 f035
000001b0: 1462 be34 60c4 e7b3 176c 40b7 7530 de35
000001c0: 4949 9635 3520 1ab5 e4be aeb6 c884 ab34
000001d0: bc5e 05b5 01a2 4f34 9993 8ab5 4c12 b835
000001e0: 6633 a634 5197 4333 e6d1 06b3 927f 8934
000001f0: 0d50 e135 f09e be34 d637 15b5 ea1d fb35
00000200: f34d a2b5 3c17 cb35 cb2e 8235 4c42 1433
00000210: 41f5 23b4 f57e 3035 1bcf e035 ee5b 3036
00000220: 18d4 2336 c156 09b6 36b0 93b5 a71c 8135
00000230: 12b4 79b5 db7a 12b5 9fab fab5 1928 a935
00000240: 1184 89b5 7a1b 1335 2f3e 13b6 e0a8 45b6
00000250: 32b7 92b5 8423 9835 9c68 d7b4 2085 a6b5
00000260: 5f03 99b5 e144 d235 5553 b6b5 d987 8434
00000270: bebd 1cb6 27db 15b6 aee2 4135 e0b6 9235
00000280: 36e4 2b37 5c29 76b4 95be d633 44cc 2f36
00000290: baac a1b6 8e06 0436 f32d 5936 c378 a9b5
000002a0: 3ab8 d832 0802 feb4 2865 1736 71c8 90b4
000002b0: ed3a 2233 4cf7 fe35 6915 89b6 8a71 c035
000002c0: e559 3236 faf5 8cb5 cf53 7d33 9893 01b5
000002d0: 0cab f435 61bd c4b5 86cd 8335 ff55 3134
000002e0: 15be 1536 a786 b035 2577 e2b6 7812 9037
000002f0: f73d d9b6 c1ba 61b7 bb7b c736 32a6 6cb5
00000300: 99ff ee36 4185 31b7 2504 a335 9215 00b3
00000310: 3e8b c2b6 2ad6 8237 abbd dbb6 7310 5eb7
00000320: 837e bc36 df14 0bb5 8006 f236 35c4 24b7
00000330: 953e c9b5 19e4 3a36 2381 ce34 e68a b334
00000340: 020f 6935 fef1 e636 0a6c a1b6 a767 af34
00000350: 3986 ceb5 219f 40b2 1632 30b2 7773 3037
00000360: 0ec3 5eb5 b0f7 6e35 85e1 7e35 66ca b136
00000370: c2ef 68b6 76cf c4b4 b804 52b6 2763 c434
00000380: 0a50 42b4 f73f 2737 3333 d4b5 73d6 93b4
00000390: 8d34 c635 84c0 a135
