dirichlet/dsgps/results/constant_dataset/70_ite_gamma_1/ckpt/running_model.pt (torch, 80909 bytes, 69 tensors)

laynorm.weight f4 [10]
0	0x3f800000	1.0
1	0x3f800000	1.0
2	0x3f800000	1.0
3	0x3f800000	1.0
4	0x3f800000	1.0
5	0x3f800000	1.0
6	0x3f800000	1.0
7	0x3f800000	1.0
8	0x3f800000	1.0
9	0x3f800000	1.0

laynorm.bias f4 [10]
0	0x00000000	0.0
1	0x00000000	0.0
2	0x00000000	0.0
3	0x00000000	0.0
4	0x00000000	0.0
5	0x00000000	0.0
6	0x00000000	0.0
7	0x00000000	0.0
8	0x00000000	0.0
9	0x00000000	0.0

phi_to.mlp.mlp.0.weight f4 [10, 23]
0	0xbec159ba	-0.37763768
1	0xbd30e689	-0.043188605
2	0x3e118222	0.14209798
3	0xbe80ac93	-0.25131664
4	0xbf5c1065	-0.85962516
5	0x3e8db6fb	0.27678666
6	0x3e9463b6	0.28982323
7	0xbda791b2	-0.08182086
8	0x3d12bb27	0.035823014
9	0x3ee667b5	0.45000997
10	0xbdc6edcb	-0.09713324
11	0xbf092dea	-0.53585684
12	0x3d3b6452	0.04574997
13	0x3d24589d	0.04012357
14	0xbf4519da	-0.7699257
15	0x3a1a13f1	0.0005877605
16	0xbd7f8c2a	-0.06238953
17	0xbf05c61c	-0.52255416
18	0x3d83e9ae	0.06441055
19	0x3e5bc6bb	0.21462528
20	0xba821f83	-0.0009927604
21	0x3b09884d	0.0020985783
22	0x3e4eba37	0.20188223
23	0xbdc7f6b2	-0.0976385
24	0xbeddd217	-0.43324348
25	0x3e42e123	0.19031195
26	0xbc5f31b7	-0.013622693
27	0x3dda4ec6	0.10659556
28	0xbef5c62f	-0.48002765
29	0xbe19d8c6	-0.15024099
30	0xbe9ac603	-0.30229196
31	0xbe0e7b10	-0.13914132
32	0xbde56a3d	-0.11201904
33	0xbe8c3d62	-0.2739058
34	0xbccccd9e	-0.02500039
35	0x3e4e11c6	0.20123968
36	0x3e4fb83d	0.20285125
37	0x3e78c973	0.24295597
38	0xbe98e944	-0.29865468
39	0xbdbb056f	-0.09131896
40	0xbf0663dc	-0.52496123
41	0x3ec54e1b	0.38536152
42	0x3f0c4807	0.54797405
43	0xba489b70	-0.00076525565
44	0x3a39c0de	0.00070859294
45	0x3df2b7e1	0.11851478
46	0xbdb93ae5	-0.09044436
47	0xbee50635	-0.44731298
48	0xbea0fa61	-0.31441024
49	0xbd8d8fe5	-0.06912211
50	0x3d85f345	0.065405406
51	0xbe8c9a3e	-0.27461427
52	0xbdf0f436	-0.117653295
53	0x3ebfeeae	0.37486786
54	0x3e9a36bf	0.30119893
55	0x3e6f0b35	0.23344119
56	0xbe5ff1e0	-0.21869612
57	0xbd135a67	-0.035974886
58	0xbde3e85e	-0.11128305
59	0xbda464e0	-0.08027053
60	0xbc84275a	-0.016132046
61	0x3da45024	0.08023098
62	0xbd95c7f6	-0.0731353
63	0xbdccaf6a	-0.09994395
64	0xbd554db2	-0.05207605
65	0xbd1133a8	-0.035449654
66	0x3a0d3a95	0.00053874525
67	0xba0ad4b5	-0.0005295978
68	0x3d45f4f9	0.048329327
69	0x3e63fdf3	0.22264843
70	0x3f0e04f3	0.554763
71	0x3e849a6c	0.25899065
72	0xbd7cadf9	-0.06168935
73	0x3b282c33	0.002566111
74	0xbd85ca46	-0.06532721
75	0xbe8b9f80	-0.27270126
76	0xbe48c1cf	-0.19605182
77	0x3eb92e36	0.3616807
78	0x3e71385b	0.23556654
79	0xbdfbc8f3	-0.122941874
80	0x3f4a3a82	0.78995526
81	0xbf272308	-0.6528783
82	0x3ed28886	0.41119784
83	0x3ec5416d	0.38526478
84	0x3cb23304	0.021752842
85	0xbd96e60c	-0.07368097
86	0x3e382ba2	0.17985395
87	0xbd56cec0	-0.052443266
88	0x3e9100fa	0.28321058
89	0x3a50781e	0.0007952469
90	0x37d91c3a	2.588156e-05
91	0xbe2b3a72	-0.16721514
92	0xbe9f83f6	-0.31155366
93	0x3f050c24	0.5197165
94	0xbebbfba5	-0.36715427
95	0x3e63dfbe	0.2225332
96	0x3dff5ec9	0.12469251
97	0xbe9daf89	-0.30797985
98	0xbeb72c89	-0.35776165
99	0xbe4a719b	-0.197699
100	0xbe6c765e	-0.23092028
101	0xbcbcc6e1	-0.023044052
102	0x3ecc39eb	0.39887938
103	0x3f0349f1	0.512847
104	0x3db719b2	0.08940448
105	0xbe33d9f8	-0.17563617
106	0x3f02c9f6	0.5108942
107	0xbec687bf	-0.3877544
108	0xbe7a2097	-0.24426495
109	0xbe0a8b4f	-0.13529705
110	0x3e1150ce	0.14190981
111	0xbec29a37	-0.38008282
112	0xba31ad09	-0.00067777984
113	0xba9f9ce8	-0.0012177499
114	0xbe36ad00	-0.17839432
115	0xbe13e4fd	-0.14442821
116	0xbf611cd5	-0.8793462
117	0x3e8b29ae	0.27180237
118	0xbe149632	-0.1451042
119	0xbf2f9d48	-0.6859937
120	0xbe8c56ad	-0.27409878
121	0x3d5fe84f	0.054664906
122	0x3f30971e	0.68980587
123	0x3ed51877	0.41620228
124	0x3e931e2f	0.28733966
125	0xbe7d1115	-0.24713548
126	0xbdad6004	-0.08465579
127	0xbef67a27	-0.4814007
128	0xbe88bb4f	-0.26705405
129	0xbebb704c	-0.36609113
130	0x3d981c02	0.07427217
131	0xbf214348	-0.6299329
132	0xbeb2fcff	-0.34958646
133	0xbdac2453	-0.08405366
134	0x3d19c506	0.03754141
135	0x3a0514a3	0.00050766225
136	0xbb0168f0	-0.0019746386
137	0xbb834418	-0.00400592
138	0xbe94b081	-0.29040912
139	0x3d90ee01	0.07076646
140	0xbebd64c4	-0.3699094
141	0xbe98ef11	-0.29869893
142	0x3f169b87	0.58831066
143	0xbe8804c0	-0.26566124
144	0x3df08803	0.11744692
145	0xbe9e9491	-0.30972722
146	0x3f16b9db	0.5887734
147	0x3e8daf8c	0.27672994
148	0x3eaa06db	0.33208355
149	0x3ddbc4bf	0.10730886
150	0xbdfb5f94	-0.122740895
151	0x3e0d71aa	0.1381289
152	0xbf2d1d2c	-0.6762264
153	0xbf0425da	-0.51620257
154	0x3e97f194	0.29676497
155	0x3f74355e	0.9539393
156	0x3f000ae4	0.5001662
157	0x3ca32a51	0.019917639
158	0x39db9f76	0.00041889743
159	0x38df9596	0.00010661331
160	0x3e4ea3d1	0.20179678
161	0xbeed96e9	-0.46404198
162	0x3f77beba	0.967754
163	0x3f05aa57	0.5221304
164	0x3e275ca7	0.16343938
165	0x3e23ea00	0.16007233
166	0xbeaacb71	-0.33358338
167	0x3eea12f3	0.45717582
168	0xbe8535a2	-0.2601748
169	0x3f359e1a	0.7094437
170	0xbde47908	-0.111558974
171	0xbd060bfb	-0.03272627
172	0x3f404ff4	0.75122
173	0x3eaf8f01	0.3428879
174	0x3e56f75f	0.20992802
175	0x3dbfaa9c	0.09358713
176	0x3ebfb821	0.37445167
177	0xbe92dfed	-0.28686467
178	0x3e0df43e	0.13862702
179	0x3e3a510d	0.18194981
180	0x3d69ffdb	0.05712877
181	0xbae306f8	-0.0017320802
182	0x3aae47c6	0.0013296537
183	0xbe213488	-0.15742695
184	0x3e9d7a13	0.30757198
185	0xbf65d903	-0.8978426
186	0xbdf68ee0	-0.1203897
187	0xbdb321b4	-0.08746663
188	0xbe55d756	-0.20882925
189	0x3e02e4d1	0.12782599
190	0xbe7f64b8	-0.24940765
191	0x3ef0a52d	0.4700102
192	0xbe74a948	-0.238927
193	0xbf3b4e51	-0.73166376
194	0xbdd2d8c2	-0.102952495
195	0xbe6d923b	-0.23200314
196	0x3f12f27b	0.57401246
197	0x3cf4ef68	0.029899314
198	0x3e90d97b	0.28290924
199	0xbd9378db	-0.07200786
200	0x3e31fdcc	0.17381972
201	0xbe9c6334	-0.30544436
202	0xbd01cc63	-0.03168906
203	0x3d4d317f	0.05009603
204	0x396718f1	0.00022039168
205	0x3a06102e	0.00051141053
206	0x3df2b8e2	0.1185167
207	0xbe1e964d	-0.15487023
208	0x3e3969e7	0.18106805
209	0xbeb46368	-0.3523209
210	0x3f4d4c7f	0.8019485
211	0xbf32e86f	-0.69885916
212	0xbb91a935	-0.00444522
213	0x3dd376a4	0.10325363
214	0x3e5e51ac	0.21710843
215	0x3ee0b570	0.43888426
216	0x3da7f2eb	0.0820063
217	0xbd4df005	-0.05027773
218	0xbdfe6288	-0.12421137
219	0x3ed13189	0.40858105
220	0xbe32fb7d	-0.17478748
221	0x3e2d8ad2	0.16947487
222	0x3ed92169	0.42408302
223	0xbed35344	-0.41274464
224	0x3f05fe7b	0.5234143
225	0xbd703873	-0.058647584
226	0x3e9d8d1d	0.30771723
227	0x3acdc94a	0.0015700248
228	0xb95b04ce	-0.00020887257
229	0x3d79908b	0.060928863

phi_to.mlp.mlp.0.bias f4 [10]
0	0x3d6c5ba9	0.0577046
1	0x3e277ced	0.16356249
2	0x3db0ca2f	0.086323135
3	0x3e0b8d7e	0.13628194
4	0xbc0d087e	-0.008607982
5	0xbd98e332	-0.07465209
6	0x3e0ec12f	0.13940881
7	0x3c7fe828	0.015619315
8	0x3cf18127	0.02948053
9	0xbc0eb37f	-0.008709787

phi_to.mlp.mlp.2.weight f4 [10, 10]
0	0x3e7dfebc	0.24804205
1	0x3ec4129e	0.38295454
2	0xbf0dfc72	-0.55463326
3	0xbf1b493d	-0.6065863
4	0x3eaa3629	0.33244446
5	0x3dc8342b	0.09775575
6	0x3e734173	0.23755436
7	0x3f02cba7	0.51092
8	0xbef8ec66	-0.48617858
9	0x3e373031	0.17889477
10	0xbdb2bf91	-0.08727945
11	0x3c15200e	0.009101881
12	0xbe20e495	-0.15712197
13	0x3ef0a7de	0.47003073
14	0x3d7df64e	0.062002473
15	0xbf37fe83	-0.7187273
16	0x3dd69714	0.104780346
17	0xbc7db202	-0.015484335
18	0xbeb659ee	-0.35615486
19	0xbe69e8d8	-0.22842729
20	0xbf124ab6	-0.5714525
21	0x3e15bb54	0.14622241
22	0x3def937e	0.11698054
23	0x3e754e5e	0.23955676
24	0xbdd3e14a	-0.10345705
25	0xbe4ffce0	-0.20311308
26	0xbf0c1860	-0.54724693
27	0x3ce47d17	0.027891679
28	0x3f050dd3	0.5197422
29	0xbd1f8fab	-0.03895537
30	0xbd4c7b64	-0.049922362
31	0xbe6159b0	-0.2200687
32	0xbf038c59	-0.5138603
33	0x3e94b99e	0.29047865
34	0x3f11bfd1	0.56933314
35	0xbeefc31f	-0.46828553
36	0xbf3951c9	-0.7239042
37	0x3d6c7a67	0.05773392
38	0x3f040feb	0.5158679
39	0x3e2d5cdc	0.16929954
40	0x3e59c63c	0.21267027
41	0xbde48a7a	-0.11159225
42	0xbf2714ba	-0.65266
43	0xbf067e81	-0.5253678
44	0xbeda5363	-0.42641744
45	0x3f14467d	0.57920057
46	0x3f220fcc	0.63305354
47	0xbed19d1e	-0.40940183
48	0xbe479dcb	-0.19493787
49	0x3ed7a8e3	0.42121038
50	0x3e30a062	0.17248681
51	0x3ee58d21	0.44834235
52	0x3e8d8314	0.27639067
53	0x3d88a0b3	0.06671276
54	0x3ea105b9	0.3144968
55	0xbdbf73ef	-0.093482845
56	0xbf148b7f	-0.58025354
57	0x3f0b0387	0.5430226
58	0xbf0a2854	-0.53967786
59	0x3d8b2a2c	0.06795153
60	0xbea2e78d	-0.31817284
61	0xbee255f2	-0.44206196
62	0xbe1af49c	-0.15132374
63	0xbf5a0103	-0.85157794
64	0x3f088f28	0.5334344
65	0xbf1e1ee6	-0.617659
66	0x3f111161	0.56667143
67	0x3e9d1100	0.30677032
68	0x3d181d54	0.037137344
69	0x3eda3af3	0.426231
70	0xbe18fd25	-0.14940317
71	0xbc38474e	-0.011247469
72	0x3cdd538a	0.027017374
73	0xbe6ed3f7	-0.23323046
74	0x3f0882af	0.5332441
75	0x3d366c50	0.04453689
76	0xbd88606f	-0.06659018
77	0xbdacc30f	-0.08435642
78	0xbf1eff42	-0.6210824
79	0xbee716aa	-0.4513448
80	0xbe225aae	-0.15854904
81	0x3f082577	0.53182167
82	0xbec40156	-0.3828227
83	0xbf16cf39	-0.58909947
84	0x3eab6c7f	0.33481213
85	0xbe2768f3	-0.16348629
86	0x3dfe69d6	0.1242253
87	0x3d047a39	0.032343123
88	0x3ef7bb03	0.48384866
89	0xbeaef250	-0.34169245
90	0x3e0e55f5	0.13899978
91	0xbda6c021	-0.081421144
92	0xbbe7c9ac	-0.0070736017
93	0xbeccfe99	-0.40037993
94	0x3ed4fc52	0.41598755
95	0x3f70ac78	0.94013166
96	0xbd50f213	-0.05101211
97	0xbed2a899	-0.41144255
98	0x3ec7e2b8	0.3904016
99	0xbf208400	-0.62701416

phi_to.mlp.mlp.2.bias f4 [10]
0	0xbcf5efa8	-0.030021504
1	0xbd7a62dc	-0.061129436
2	0xbcc3f0e9	-0.023918586
3	0x3d473f47	0.04864433
4	0x3d1d7aed	0.03844731
5	0x3ccf14e0	0.025278509
6	0xbdc6eb4f	-0.0971285
7	0x3db4938f	0.08817207
8	0x3c1eb6f6	0.009687176
9	0x3cd32b0f	0.025777368

phi_from.mlp.mlp.0.weight f4 [10, 23]
0	0x3d5112e9	0.051043425
1	0x3e9334a0	0.28751087
2	0x3e12ea33	0.14347152
3	0xbea434b0	-0.32071447
4	0xbe70d840	-0.23519993
5	0xbe832928	-0.25617337
6	0xbeb8b680	-0.36076736
7	0xbeca4654	-0.3950678
8	0x3d169961	0.036767367
9	0xbe83951f	-0.25699708
10	0xbe9ac677	-0.30229542
11	0x3e6f769a	0.23385087
12	0xbe9d7d7d	-0.30759802
13	0xbe58ad94	-0.21159965
14	0xbdb01519	-0.08597774
15	0xbda78ebb	-0.081815206
16	0xbe96ee0e	-0.29478496
17	0x3e27d117	0.16388355
18	0xbee53971	-0.44770387
19	0x3e3b6c26	0.18302974
20	0x39ed0b4b	0.00045212577
21	0xb9a12b06	-0.00030740368
22	0xbdcdea93	-0.10054507
23	0x3e41fad6	0.18943343
24	0xbecf74bb	-0.40518746
25	0x3eab5a87	0.33467504
26	0x3eb106c5	0.34575477
27	0xbeb4f7c6	-0.35345286
28	0x3f1c4a23	0.61050624
29	0x3e1c423f	0.15259646
30	0xbce95d46	-0.028486859
31	0x3e228a6c	0.15873116
32	0xbdc9f173	-0.09860506
33	0x3f163512	0.5867473
34	0x3ef7eae6	0.484214
35	0x3eab5de0	0.33470058
36	0x3eb92514	0.361611
37	0xbd81883b	-0.06324812
38	0x3e97e5a7	0.29667398
39	0x3f135633	0.57553405
40	0xbef0c444	-0.4702474
41	0x3efaa417	0.48953316
42	0x3f21199b	0.62929696
43	0xba79d361	-0.0009530094
44	0xbb33afe3	-0.002741807
45	0x3dde45f2	0.10853185
46	0xbea25d1a	-0.31711656
47	0xbf29b121	-0.662859
48	0x3e4ee4a5	0.20204408
49	0xbef803cd	-0.484404
50	0x3e759746	0.23983487
51	0x3ec4eb7c	0.3846091
52	0x3c8c8cc9	0.017156975
53	0x3dfcc8ae	0.12342964
54	0xbdd8d924	-0.10588291
55	0xbe191239	-0.14948358
56	0xbe4c3a00	-0.19944
57	0xbeeb2fc9	-0.45934895
58	0xbe454438	-0.19264305
59	0xbe05649b	-0.13026659
60	0x3e864843	0.26227006
61	0x3e0dc772	0.13845614
62	0xbeb35a79	-0.35029963
63	0x3c086b9c	0.008326437
64	0xbe351305	-0.17683037
65	0xbeea1de1	-0.4572592
66	0xbb7b7b96	-0.0038373224
67	0x3b8d18ed	0.00430595
68	0x3e5be714	0.21474868
69	0x3e12c2b7	0.1433209
70	0x3ec95967	0.3932602
71	0xbecd1041	-0.40051463
72	0x3eb01e0f	0.34397933
73	0xbeafbf8c	-0.34325826
74	0x3e3d5263	0.1848846
75	0x3f0af4a0	0.5427952
76	0x3f32b4d5	0.6980718
77	0x3f0afc40	0.5429115
78	0xbe68101e	-0.22662398
79	0x3de11344	0.10990003
80	0x3f916059	1.1357528
81	0x3ecdae54	0.40172064
82	0xbdffb7ad	-0.12486205
83	0x3dc58e46	0.09646277
84	0x3edca2f1	0.43093064
85	0x3db5245b	0.08844825
86	0x3e10d822	0.14144948
87	0xbec5cc3e	-0.38632387
88	0x3f237eda	0.63865435
89	0xba87c0aa	-0.0010357101
90	0x3a900886	0.0010988868
91	0xbe9ee20d	-0.31031838
92	0x3ce5f393	0.028070247
93	0xbe438321	-0.1909299
94	0xbeff407e	-0.4985389
95	0xbbcd2877	-0.0062609273
96	0xbedbf76d	-0.42962208
97	0x3e445dc0	0.19176388
98	0x3e4bb7e7	0.19894372
99	0x3e96ff31	0.2949157
100	0xbd80309b	-0.06259271
101	0xbecde151	-0.40210965
102	0x3e84ca66	0.25935668
103	0x3de14fe1	0.11001564
104	0xbdc50bbe	-0.0962138
105	0xbe0c4e2a	-0.13701692
106	0x3ea11a0e	0.3146519
107	0x3eaf41db	0.3422993
108	0xbe995e97	-0.2995498
109	0xbf045ee8	-0.51707315
110	0x3edbb0f5	0.42908445
111	0x3ea1dac3	0.31612214
112	0xba947852	-0.0011327362
113	0x39b8a444	0.00035217602
114	0x3d36194f	0.04445773
115	0x3e393049	0.18084826
116	0x3ec96de0	0.3934164
117	0x3ec71b08	0.3888781
118	0xbe31f7ee	-0.17379734
119	0x3e910bd8	0.2832935
120	0xbe772ef8	-0.24139011
121	0xbf3500e1	-0.70704466
122	0xbecb257f	-0.39677045
123	0x3e87ada3	0.26499662
124	0xbe072590	-0.13197923
125	0xbe8f946c	-0.28042924
126	0x3f180d5f	0.593954
127	0xbdeeb114	-0.11654869
128	0x3f1750a6	0.59107435
129	0x3f0417ac	0.5159862
130	0x3e9496a1	0.2902117
131	0x3e24f709	0.16109861
132	0x3d152704	0.03641416
133	0xbec3e667	-0.3826172
134	0xbe784fc3	-0.24249177
135	0xbab46df7	-0.0013765682
136	0xbae16e3c	-0.001719899
137	0xbe2a70fc	-0.16644663
138	0xbe203fe4	-0.15649372
139	0x3e9b3c33	0.30319366
140	0x3e728e36	0.23687062
141	0xbea147d3	-0.3150011
142	0x3ef2cdf4	0.47422755
143	0x3ebebf29	0.3725522
144	0xbd908af6	-0.07057755
145	0xbed93e70	-0.4243045
146	0x3d3b1d04	0.04568197
147	0xbed32754	-0.41240942
148	0x3d844410	0.064582944
149	0x3e2197c4	0.1578055
150	0xbcb205a9	-0.021731215
151	0x3e476d10	0.19475198
152	0xbecb7ce5	-0.39743724
153	0xbe7db1ac	-0.24774808
154	0xbe216cbd	-0.15764137
155	0xbc1bd4eb	-0.009511213
156	0xbf0c0d29	-0.5470758
157	0x3de110f9	0.109895654
158	0x39cdbb28	0.0003924009
159	0xbad4b5f5	-0.0016228544
160	0xbd6347c8	-0.055488378
161	0x3e01688a	0.12637535
162	0xbf0de9b2	-0.55434716
163	0x3e27d152	0.16388443
164	0x3d492214	0.049104765
165	0xbe9e093c	-0.3086642
166	0xbe8b150a	-0.2716449
167	0x3e8f4584	0.27982724
168	0x3ef5ef76	0.48034257
169	0x3ea2c169	0.31788185
170	0xbe6511fd	-0.22370143
171	0xbe654a0f	-0.22391532
172	0xbe47e735	-0.19521792
173	0x3efecebf	0.4976711
174	0x3d0858a9	0.033287678
175	0x3f097d2a	0.5370661
176	0x3efd389f	0.4945726
177	0x3e54f771	0.20797516
178	0xbcf3b68a	-0.029750127
179	0xbd355acd	-0.044276047
180	0xbe0317c2	-0.12802032
181	0x3b48272b	0.0030540924
182	0x3ac7704a	0.001521596
183	0x3dfa30da	0.12216349
184	0x3e6a2948	0.2286731
185	0xbe09ee64	-0.13469845
186	0x3d74937f	0.059710976
187	0x3e74fcfb	0.2392463
188	0xbde5771a	-0.112043574
189	0xbe8c330e	-0.27382702
190	0x3d808d28	0.062769234
191	0xbe242763	-0.1603065
192	0xbee06c74	-0.43832743
193	0xbec004b3	-0.37503585
194	0x3de6401d	0.112426974
195	0x3ee731ba	0.45155126
196	0x3e0621c5	0.1309882
197	0xbf1169d6	-0.5680212
198	0x3e42ef07	0.19036494
199	0xbdb718dc	-0.089402884
200	0xbd96ae55	-0.0735747
201	0xbf1667a4	-0.58751893
202	0x3da88aaf	0.08229577
203	0x3ecd4680	0.4009285
204	0xb996011d	-0.0002861106
205	0x3a4842fd	0.00076393766
206	0xbd554855	-0.052070934
207	0xbeddc25e	-0.43312353
208	0x3dcfaea7	0.10140734
209	0xbdb71f96	-0.089415714
210	0x3e778ad2	0.2417405
211	0xbdde6732	-0.10859527
212	0x3e9dea20	0.30842686
213	0xbed86db4	-0.42271197
214	0xbd2163d9	-0.039401863
215	0xbf21015a	-0.6289269
216	0xbee1907d	-0.44055548
217	0xbe4183f4	-0.18897992
218	0x3ec5f947	0.38666746
219	0x3ee269ad	0.4422125
220	0xbe9858ac	-0.2975515
221	0x3ed2c241	0.4116383
222	0xbdc2f89f	-0.09520077
223	0xbe19eea1	-0.15032436
224	0xbc8789af	-0.016545145
225	0x3dc2ad4a	0.095057085
226	0x3e5a83a4	0.2133928
227	0xbb59e8a7	-0.0033250244
228	0x3a979030	0.0011563357
229	0xbd4214b5	-0.04738303

phi_from.mlp.mlp.0.bias f4 [10]
0	0xbda3871d	-0.07984755
1	0x3e6f8798	0.23391569
2	0x3e58cf53	0.21172838
3	0xbded801f	-0.11596703
4	0x3de9a19b	0.11407777
5	0xbe02365b	-0.12716047
6	0xbc9f01ee	-0.0194101
7	0x3ce6fcfa	0.0281968
8	0x3dfc8103	0.123292945
9	0x3d6ec485	0.058292884

phi_from.mlp.mlp.2.weight f4 [10, 10]
0	0x3bfdcc6e	0.007745317
1	0xbf3937f9	-0.7235103
2	0x3eaec985	0.34138122
3	0x3ec89dfc	0.39183033
4	0x3e5bab88	0.21452153
5	0x3e5b4b5a	0.21415463
6	0xbeeca7ab	-0.4622167
7	0xbe1dcbb1	-0.15409733
8	0xbec3b07b	-0.3822058
9	0xbeadc3f6	-0.3393857
10	0x3e14aaf6	0.14518341
11	0x3e524d46	0.2053729
12	0xbe2966b4	-0.16543084
13	0xbd8b9c1d	-0.068168856
14	0xbe1a558a	-0.15071693
15	0x3e53af45	0.20672329
16	0x3ebff7f5	0.37493864
17	0x3f3487c6	0.70519674
18	0x3f18b06c	0.596442
19	0xbef2450f	-0.47318313
20	0xbea4cae4	-0.32186043
21	0x3ee14234	0.4399582
22	0x3e862039	0.2619646
23	0xbf03b247	-0.51443905
24	0xbe37ffee	-0.17968723
25	0xbf82c7fd	-1.0217282
26	0x3bebfe05	0.0072019123
27	0x3e9cbd70	0.3061328
28	0xbea8d51f	-0.32975098
29	0xbec519bb	-0.38496193
30	0x3df791f9	0.12088389
31	0x3ed7894c	0.42096937
32	0x3d2f8f61	0.042861346
33	0xbeb2033f	-0.34768102
34	0x3e522a87	0.20524035
35	0xbe7bc3fb	-0.2458648
36	0xbf2b9982	-0.6703111
37	0x3d9f3a88	0.07774836
38	0xbbe5cb34	-0.007012749
39	0x3e9e0d3d	0.30869475
40	0xbee1cad0	-0.44100046
41	0x3f189f34	0.59617925
42	0xbde276ed	-0.110578395
43	0x3f5fabde	0.87371624
44	0xbed0868a	-0.40727645
45	0xbe93ce8b	-0.28868517
46	0xbeba3866	-0.36371154
47	0xbdb90c0c	-0.09035501
48	0x3f132dd2	0.5749179
49	0xbe664868	-0.22488558
50	0xbe629fdc	-0.22131294
51	0x3e1d35f1	0.15352608
52	0x3e544c36	0.20732197
53	0x3edda6c0	0.43291283
54	0x3ee84ad3	0.45369586
55	0xbf4ddd32	-0.8041564
56	0x3e813f7f	0.25243756
57	0xbd7f674e	-0.06235438
58	0x3d5c91e1	0.05385006
59	0x3e269c99	0.16270675
60	0x3eb1a6cf	0.34697577
61	0x3bac7d1d	0.005263938
62	0xbe6fc3eb	-0.2341458
63	0x3eb79466	0.35855407
64	0xbe3be7b0	-0.183501
65	0xbd79c899	-0.06098232
66	0xbdc2165a	-0.094769195
67	0x3da6e090	0.08148301
68	0x3bd97e16	0.006637345
69	0xbc43b7ce	-0.011945678
70	0xbf0ad29f	-0.5422763
71	0xbf2538d1	-0.6453982
72	0x3e89795d	0.26850405
73	0xbef5f3b6	-0.480375
74	0xbeef0258	-0.46681476
75	0xbee5e391	-0.44900182
76	0xbe1709da	-0.14749852
77	0xbf3be0f3	-0.7339012
78	0xbe365f6a	-0.17809835
79	0x3e9b281a	0.30304033
80	0xbccfa9c7	-0.02534951
81	0xbe8c64a8	-0.27420545
82	0x3f1a167d	0.60190564
83	0xbecd0645	-0.40043846
84	0x3d1b43d4	0.037906483
85	0x3f2ff913	0.6873943
86	0xbead3962	-0.33832842
87	0xbe9b3568	-0.30314183
88	0xbef63fea	-0.48095638
89	0x3ddb7c3b	0.107170545
90	0xbe6f06d7	-0.23342453
91	0xbef55d8f	-0.47922942
92	0xbd902e97	-0.07040136
93	0x3dabf9bd	0.08397243
94	0x3ea4bae2	0.3217383
95	0xbe53ec36	-0.20695576
96	0xbee9ee09	-0.4568942
97	0x3e6a5f80	0.22887993
98	0x3eed6bf9	0.4637144
99	0x3e9cb792	0.30608803

phi_from.mlp.mlp.2.bias f4 [10]
0	0x3da00ee6	0.07815342
1	0x3e2babfe	0.16764829
2	0x3dafc54e	0.08582555
3	0x3c93cc93	0.018041885
4	0xbcc9f5ab	-0.024653276
5	0x3cdfaa90	0.02730301
6	0xbe14ec9c	-0.14543384
7	0x3de18b5a	0.11012907
8	0x3de15d64	0.11004141
9	0xbc6924e9	-0.0142299915

z_k.mlp.0.weight f4 [10, 32]
0	0x3f9ad858	1.2097273
1	0xbf3996f9	-0.7249599
2	0xbe35c679	-0.17751493
3	0x3f1ca84e	0.6119431
4	0xbf51f5f3	-0.82015914
5	0xbd7634e1	-0.060109023
6	0x3eee3438	0.46524215
7	0xbc915fec	-0.017745934
8	0xbe74d02e	-0.23907539
9	0x3f88cfbf	1.0688399
10	0xbdab4399	-0.083625026
11	0x3eb28382	0.34865957
12	0xbef0b3bf	-0.47012135
13	0xbf907c77	-1.1287984
14	0x3f60d80c	0.8782966
15	0xbe0865d0	-0.13320088
16	0xbec1a90b	-0.37824282
17	0xbe45ac0d	-0.19303913
18	0xbef10d9c	-0.47080696
19	0xbd133f42	-0.035949
20	0xbd52b85f	-0.05144536
21	0xbe5caa69	-0.21549381
22	0x3eaeaff2	0.3411861
23	0x3cfa8232	0.03057966
24	0xbdd1d945	-0.10246519
25	0xbf4c8ed0	-0.79905415
26	0x3efb2142	0.4904881
27	0xbf57b705	-0.8426364
28	0xbefc01fd	-0.49220267
29	0xbe66b673	-0.22530536
30	0xbc8430c2	-0.01613653
31	0xbe379087	-0.17926227
32	0x3e44d87b	0.19223206
33	0x4070f6db	3.7650669
34	0x3df9b6d6	0.12193076
35	0xbe9d1eb2	-0.3068748
36	0x3e877b96	0.26461476
37	0xbe4591c3	-0.19293885
38	0x3ed8a95b	0.42316708
39	0x3df45f43	0.11932232
40	0x3c040e40	0.008060038
41	0x3e169b91	0.14707781
42	0x3f0491a6	0.5178474
43	0xbcbf6c7f	-0.023367165
44	0xbe974027	-0.29541132
45	0xbec262cf	-0.3796601
46	0xbd9addd8	-0.075618446
47	0x3e0024d4	0.12514049
48	0x3f16248f	0.58649534
49	0x3f11b9cd	0.56924134
50	0xbefa2766	-0.48858184
51	0xbe6d9c9b	-0.23204271
52	0xbec79210	-0.38978624
53	0xbeda759c	-0.42667854
54	0xbe70844e	-0.2348797
55	0x3e44fcbd	0.19237037
56	0x3d235d10	0.039883673
57	0xbec02ad3	-0.37532672
58	0x3f18b6d9	0.59654003
59	0xbe1aa81d	-0.15103193
60	0xbeb60fc0	-0.3555889
61	0x3cf3d7ea	0.029766042
62	0x3c1d0f63	0.009586188
63	0xbe735f53	-0.23766832
64	0x3da31fd9	0.07965059
65	0xbfb5e7b5	-1.4211336
66	0x3bb6b819	0.0055761454
67	0x3c9b1fc0	0.018936038
68	0xbe91cbe4	-0.2847587
69	0x3fae2e80	1.3607941
70	0xbe9066b3	-0.28203353
71	0xbf743d75	-0.95406276
72	0x3f2e38ce	0.6805543
73	0x3e16f276	0.14740929
74	0xbe2ae94b	-0.16690557
75	0xbf060c80	-0.52362823
76	0xbf483dd2	-0.7821933
77	0x3ec7abf0	0.38998365
78	0x3f05ba66	0.52237546
79	0x3e9931e2	0.2992087
80	0xbf956882	-1.1672518
81	0xbf0b688f	-0.5445642
82	0x3faee5d3	1.3663887
83	0x3f62a7b1	0.88537127
84	0xbedbdb42	-0.42940718
85	0xbf72c7c5	-0.94836074
86	0xbeba4426	-0.36380118
87	0xbf1c2e35	-0.61008006
88	0x3e9501fe	0.29103082
89	0xbee8e1e7	-0.4548485
90	0x3ed6dbef	0.4196467
91	0xbe9d2034	-0.30688632
92	0xb9beda82	-0.00036402425
93	0x3e389835	0.18026812
94	0xbc089dc8	-0.008338399
95	0x3d8e4ac7	0.069478564
96	0x3f3e3c4f	0.74310774
97	0x3e6f5439	0.23371972
98	0x3c68bb1b	0.014204766
99	0x3ed276c1	0.41106227
100	0x3e9cdcb8	0.30637145
101	0xbe2a9b1f	-0.16660737
102	0x3e93b0f6	0.28845948
103	0x3d9fe2f3	0.07806959
104	0x3eca4cca	0.3951171
105	0x3e149498	0.14509809
106	0x3d9dad23	0.07699039
107	0x3dd5fa74	0.10448161
108	0xbe00e956	-0.1258901
109	0xbeb49837	-0.3527238
110	0xbeb53b3d	-0.35396758
111	0x3de84bd4	0.11342588
112	0x3e34e945	0.1766711
113	0xbe91190a	-0.28339416
114	0x3e136860	0.14395285
115	0x3dd66b34	0.10469666
116	0xbd7f89d3	-0.0623873
117	0xbde3e97b	-0.11128517
118	0xbe4fcb28	-0.20292342
119	0x3e61e102	0.2205849
120	0x3d026867	0.031837847
121	0xbde5477e	-0.11195277
122	0x3c6b4ff1	0.014362321
123	0xbebafb52	-0.36519867
124	0xbe2281c2	-0.15869811
125	0xbe24ddef	-0.16100286
126	0x3b5575e1	0.0032571482
127	0xbd6c831d	-0.057742227
128	0x3f150a18	0.58218527
129	0x3f8192a8	1.0122881
130	0xbe3a42b3	-0.18189506
131	0xbe5611e1	-0.20905258
132	0xbf4a1d5e	-0.7895106
133	0xbed0c1c7	-0.4077284
134	0x3f1bb6e0	0.6082592
135	0xbf1860c3	-0.59522647
136	0x3b99c406	0.0046925573
137	0x3f12efaa	0.5739695
138	0x3f2d0553	0.6758625
139	0xbd04f742	-0.032462366
140	0xbe42262a	-0.18959871
141	0xbe11fa0c	-0.14255542
142	0x3e7dd9db	0.24790137
143	0x3ce35d0e	0.027754333
144	0xbf038d92	-0.51387894
145	0xbf49be0b	-0.7880561
146	0x3d08fc57	0.033443775
147	0x3ea8c665	0.32963863
148	0x3c12746a	0.008938888
149	0xbeeb157c	-0.4591483
150	0xbe31f927	-0.173802
151	0x3ecfb6da	0.40569192
152	0x3ea3dee1	0.3200598
153	0xbc33e0dd	-0.010978905
154	0x3f320f9f	0.69555086
155	0xbe47b26e	-0.1950166
156	0xbe28f87e	-0.16501042
157	0xbea68757	-0.3252513
158	0x3c5fb6cc	0.013654422
159	0xbefd7957	-0.49506637
160	0x3f82a6fb	1.0207208
161	0xbf4fe946	-0.8121532
162	0x3eadbe76	0.33934373
163	0xbe7ebade	-0.24875972
164	0xbe33eacd	-0.17570038
165	0xbf255bb3	-0.64593047
166	0x3e383e6b	0.1799256
167	0x3f5d913a	0.86549723
168	0xbd995834	-0.074875265
169	0x3f2a7545	0.6658519
170	0x3e8501a5	0.25977817
171	0x3e1d599d	0.15366216
172	0xbefe43b4	-0.49661028
173	0xbd178fc9	-0.03700236
174	0x3d08d253	0.033403706
175	0x3ec0e7bc	0.376768
176	0xbe83785f	-0.25677773
177	0xbf190ee9	-0.59788376
178	0x3e8a42ee	0.27004188
179	0x3eea3ec0	0.45751
180	0x3e239151	0.15973403
181	0xbcf82024	-0.030288763
182	0xbeb14172	-0.34620243
183	0xbe4e249e	-0.20131156
184	0xbe2ab44b	-0.16670339
185	0xbe1dac66	-0.15397796
186	0x3dcecc0d	0.10097513
187	0x3cf32c71	0.029684277
188	0xbe6eb12b	-0.23309772
189	0x3d23afb0	0.03996247
190	0xbb9808e3	-0.0046397313
191	0x3e9c7842	0.305605
192	0xbe85ceea	-0.26134425
193	0x3e797fc6	0.24365148
194	0x3f5ed2a2	0.8704015
195	0xbb4a888b	-0.003090414
196	0x3d369438	0.044574946
197	0x3efdc660	0.4956541
198	0x3f76d523	0.9641897
199	0x3f0b69a6	0.5445808
200	0x3f0f297f	0.55922693
201	0x3e335329	0.17512192
202	0x3f8146e6	1.0099761
203	0xbeef1486	-0.46695346
204	0xbfa49ece	-1.2860963
205	0xbda0c367	-0.0784977
206	0x3eeaf0e8	0.45886922
207	0x3decfd89	0.115717955
208	0x3ee67ad9	0.450156
209	0x3f3c8408	0.73638964
210	0x3e69a0a9	0.22815193
211	0x3e8cca29	0.27497986
212	0x3f0a4429	0.54010254
213	0xbe9063a7	-0.2820103
214	0x3e9d2e39	0.30699328
215	0xbf094bd0	-0.53631306
216	0x3f9020a1	1.1259958
217	0x3e154a2d	0.14579077
218	0x3eb5bee1	0.35497192
219	0x3ce190e4	0.02753491
220	0xbd300d50	-0.042981446
221	0xbe4dbdae	-0.20091888
222	0x3d46705f	0.04844701
223	0xbeddb3d4	-0.4330126
224	0x3ee59402	0.44839483
225	0x4016fdc0	2.3592377
226	0x3fa7cd6b	1.3109564
227	0xbfb2aea5	-1.3959547
228	0xbf53095c	-0.82436156
229	0x3d7da069	0.061920557
230	0xbf8a3a73	-1.0799087
231	0xbf742368	-0.95366526
232	0x3f1d6cda	0.6149422
233	0xbf01329e	-0.5046786
234	0x3e7f96a6	0.24959812
235	0x3ede27f7	0.43389866
236	0xbe91f100	-0.2850418
237	0xbf0cf9e9	-0.5506883
238	0x3f64a4f8	0.8931422
239	0xbdf85715	-0.121259846
240	0xbdb86d57	-0.0900523
241	0xbefeb163	-0.4974471
242	0x3fc08c49	1.5042812
243	0xbded019e	-0.11572574
244	0x3e85f7c2	0.26165587
245	0xbf399ce8	-0.72505045
246	0xbecb3e02	-0.39695746
247	0xbf105408	-0.5637822
248	0x3f136b7f	0.575859
249	0xbf14ce7d	-0.58127576
250	0x3f7f0658	0.99619055
251	0xbd45c355	-0.048281986
252	0xbef79d75	-0.48362318
253	0xbde429a5	-0.111407556
254	0x3cad2d37	0.021139724
255	0xbe0ba3cf	-0.13636707

z_k.mlp.0.bias f4 [10]
0	0xbeed4ec4	-0.46349156
1	0xbe82860f	-0.25492904
2	0x3e284403	0.16432194
3	0xbef74187	-0.4829218
4	0xbf31608e	-0.69287956
5	0xbf0cfff0	-0.5507803
6	0xbe7ea79d	-0.24868627
7	0x3ee675b8	0.45011687
8	0xbf1c638d	-0.610894
9	0xbeffc1a6	-0.4995243

r_k.mlp.0.weight f4 [10, 32]
0	0x3f194909	0.5987707
1	0x3c17d293	0.009266513
2	0xbeff1a19	-0.49824598
3	0xbe265f7e	-0.16247365
4	0xbec4681d	-0.38360682
5	0xbe1d09b0	-0.15335727
6	0xbea50626	-0.32231253
7	0xbf3fe636	-0.7496065
8	0x3ec4fecd	0.38475648
9	0xbf961c10	-1.1727314
10	0xbbb1acc6	-0.0054222075
11	0x3e5f79c6	0.21823797
12	0x3e5dfdb0	0.21678805
13	0xbdee63aa	-0.11640103
14	0xbf55ce8b	-0.83518285
15	0x3eaee0a2	0.34155756
16	0x3d9edbaa	0.07756741
17	0x3f0be48a	0.546456
18	0x3e66e53f	0.22548388
19	0x3d8320ed	0.064027645
20	0x3dbcc6a1	0.09217573
21	0x3f6c5677	0.92319435
22	0x3e9e906c	0.3096956
23	0xbee5669a	-0.4480484
24	0xbe2b7457	-0.16743599
25	0x3d721564	0.05910243
26	0x3d3aa564	0.045567885
27	0xbe955ed5	-0.29173914
28	0xbdaf54f0	-0.085611224
29	0xbea099fb	-0.31367478
30	0xbe06e800	-0.13174438
31	0x3c9fef69	0.01952334
32	0x3ef6a0d6	0.48169583
33	0x3f868de5	1.0512053
34	0xbe335693	-0.17513494
35	0x3f7d2760	0.98888206
36	0xbf1ba74b	-0.60802144
37	0xbef29c52	-0.47384888
38	0x3e9cbb60	0.30611706
39	0xc0115ae5	-2.2711728
40	0x3d73d6b4	0.05953093
41	0xbf90af3f	-1.1303481
42	0xbea0308f	-0.31287047
43	0x3ec63246	0.3871023
44	0xbfa850dd	-1.3149678
45	0x3ef1b5e6	0.4720909
46	0x3cf9f8d1	0.030514153
47	0x3ed57673	0.41691932
48	0xbed89d82	-0.4230767
49	0x3eaf7f10	0.34276628
50	0xbf1c428d	-0.6103905
51	0x3e22c7d5	0.15896542
52	0x3e15933a	0.14606944
53	0xbf7c5034	-0.9855988
54	0x3ed92499	0.42410734
55	0x3e1f53e3	0.15559344
56	0xbe90a6ab	-0.28252158
57	0x3a51af06	0.0007998798
58	0xbdd004ae	-0.101571426
59	0x3cdfc4b7	0.02731548
60	0xbe71c2a7	-0.2360941
61	0xbf007fa6	-0.50194776
62	0xbe1673f5	-0.14692672
63	0xbe9ee79c	-0.3103608
64	0x3e41b8f4	0.1891821
65	0xbe92880c	-0.2861942
66	0x3d5d7f1d	0.054076303
67	0xbee4ac15	-0.44662538
68	0x3f8066b9	1.0031348
69	0x3c4b03e2	0.012391062
70	0x3d5e83be	0.054324858
71	0xbcfdf876	-0.031002264
72	0x3e4cd8b5	0.20004542
73	0x3e64fdf3	0.22362499
74	0xbe608f65	-0.219297
75	0x3eba6d1a	0.36411363
76	0xbf0e2488	-0.5552449
77	0xbe15bc22	-0.14622548
78	0x3e1aac6e	0.15104839
79	0x3ea3d95f	0.32001778
80	0xbee6605d	-0.44995394
81	0xbe57ca37	-0.21073233
82	0x3edfaa04	0.436844
83	0x3e8f8bb7	0.2803628
84	0xbf06698f	-0.5250482
85	0xbf55b7de	-0.83483684
86	0x3d0ddcee	0.034634523
87	0x3f9b3c30	1.2127743
88	0x3d05b39b	0.03264199
89	0x3eebdb32	0.4606567
90	0xbd974953	-0.07387032
91	0x3eddf182	0.43348318
92	0x3e2ddc6c	0.16978616
93	0xbe07b9d5	-0.13254483
94	0x3cb7af8d	0.022422576
95	0xbe48a5f0	-0.1959455
96	0xbec4cd0c	-0.38437688
97	0xbfda407e	-1.7050931
98	0x3da953d9	0.08267946
99	0x3d27a6f6	0.04093071
100	0x3cb269ce	0.021778967
101	0x3eab119c	0.33411872
102	0xbe2fff6d	-0.17187281
103	0xbe82cfe1	-0.25549224
104	0xbe39f592	-0.18160084
105	0x3eeb1384	0.45913327
106	0x3dd56e21	0.10421396
107	0xbe3e3bc2	-0.18577483
108	0x3f25b5f5	0.6473077
109	0xbe879764	-0.2648269
110	0xbf4ff018	-0.8122573
111	0x3e591d36	0.2120255
112	0x3e9ac71f	0.30230042
113	0xbe926905	-0.2859575
114	0x3e13ee8c	0.14446467
115	0x3ed9f6d0	0.42571115
116	0xbe598130	-0.21240687
117	0xbeac2c70	-0.33627653
118	0x3de1eb91	0.11031259
119	0xbd1d90a9	-0.038468037
120	0xbde45fee	-0.1115111
121	0x3dd4a4bb	0.10382982
122	0x3d37f424	0.044910565
123	0x3eb91fd7	0.36157104
124	0x3dd8475c	0.10560486
125	0xbea52d92	-0.3226133
126	0xbd299ec5	-0.04141118
127	0x3e02dfaf	0.12780641
128	0x3ee3f11b	0.44519886
129	0xc022cd7f	-2.5437925
130	0x3e1330cf	0.14374088
131	0x3dfad562	0.12247731
132	0x3ef20400	0.47268677
133	0xbdb1a254	-0.0867354
134	0x3f03694f	0.51332563
135	0x3f674772	0.9034339
136	0x3e14c32e	0.1452758
137	0x3ec4ade6	0.38413924
138	0x3f886943	1.0657123
139	0xbec10288	-0.37697244
140	0xbee278ff	-0.44232938
141	0xbe3cf90a	-0.18454376
142	0x3f9cbd8b	1.2245344
143	0xbe8ac0f0	-0.27100325
144	0x3ed3784a	0.4130271
145	0xbe5f3b4e	-0.21799967
146	0x3fbd30de	1.4780538
147	0x3faaf655	1.3356425
148	0xbebb6a2d	-0.36604443
149	0x3e425b3b	0.18980114
150	0x3d692a73	0.05692525
151	0x3e832fdf	0.2562246
152	0x3e02ae9a	0.12761918
153	0x3ec74bb4	0.38924944
154	0x3eb4b212	0.35292107
155	0xbebe3e48	-0.37156892
156	0x3ea3631f	0.3191156
157	0x3da50fc9	0.080596514
158	0x3d671172	0.05641312
159	0xbe78a878	-0.24283016
160	0x3e9a8b87	0.30184576
161	0x3f8b80b8	1.0898657
162	0xbeb194cf	-0.34683844
163	0x3e5cc517	0.21559559
164	0x3fceff4f	1.6171664
165	0x3dd6808c	0.10473737
166	0x3dc084e6	0.09400348
167	0xbfb9d397	-1.4517697
168	0x3e26d09d	0.16290517
169	0x4035977e	2.8373713
170	0x3f2792c0	0.654583
171	0xbeba13b3	-0.36343154
172	0xc00b9c28	-2.181406
173	0x3ed1b421	0.4095774
174	0xbf5fa0f2	-0.8735496
175	0x40765188	3.8487263
176	0xbf61add9	-0.88155895
177	0x3f09df6e	0.5385655
178	0xbf25fc1a	-0.648378
179	0x3cd98229	0.026551323
180	0xbe7d3e48	-0.2473079
181	0xbf62aa2f	-0.8854093
182	0xbd93958b	-0.072062574
183	0xbd5c0770	-0.05371803
184	0x3d6088bc	0.0548179
185	0x3ee8cdc6	0.45469493
186	0xbf050ec6	-0.5197567
187	0x3f7b290a	0.98109496
188	0x3e4ebee4	0.20190006
189	0xbf11f528	-0.57014704
190	0xbe2f6118	-0.17126882
191	0xbe692931	-0.2276962
192	0xbe6f970b	-0.23397462
193	0xc00130f7	-2.0186136
194	0x3da2e3d5	0.07953612
195	0x3d0bfa1a	0.034174062
196	0x3e075efb	0.13219826
197	0xbe0f6580	-0.14003563
198	0xbe429881	-0.19003488
199	0xbf53de14	-0.8276074
200	0xbe2fb220	-0.17157793
201	0xbed2ce75	-0.4117314
202	0x3ee016ba	0.4376734
203	0x3e3a0e88	0.18169606
204	0xbfc42f05	-1.5326849
205	0xbf524a14	-0.82144284
206	0xbf83d11c	-1.029819
207	0x3fa5fa9c	1.2967105
208	0xbfaec565	-1.365399
209	0x3eabf430	0.33584738
210	0xbee076e8	-0.43840718
211	0xbeb11d57	-0.34592697
212	0x3e40ca45	0.1882716
213	0xbe80de3c	-0.2516955
214	0x3fc1b6b6	1.5133884
215	0x3e25b96e	0.16184017
216	0xbe2a5a11	-0.1663592
217	0x3daa24a8	0.08307773
218	0x3e165203	0.14679722
219	0x3f57c243	0.84280795
220	0x3ca6fb71	0.020383568
221	0x3e663a11	0.22483088
222	0xbed20393	-0.41018352
223	0xbdfd0e3d	-0.12356231
224	0xbe041402	-0.12898257
225	0xbe7ef947	-0.2489978
226	0xbdb7ed43	-0.08980801
227	0xbd6a1c39	-0.05715582
228	0xbd841f02	-0.06451227
229	0x3ed81426	0.42202872
230	0xbe37fbfd	-0.1796722
231	0xbfbd8af7	-1.4808034
232	0x3e14776b	0.1449868
233	0xbdb10fde	-0.086456046
234	0xbe88e231	-0.2673507
235	0x3eb48080	0.35254288
236	0xbf28f503	-0.6599886
237	0x3db8e93a	0.090288594
238	0xbf056ee9	-0.5212236
239	0x3fe05350	1.7525425
240	0xbf371ad2	-0.715253
241	0x3f19bc4a	0.6005293
242	0xc052df50	-3.29488
243	0xbf5d1ff2	-0.8637687
244	0x3e59ec5d	0.21281572
245	0x3f270767	0.6524567
246	0xbf38e03d	-0.7221716
247	0x3f06bb1e	0.5262927
248	0xbe4f1ff8	-0.20227039
249	0xbd55cd60	-0.052197814
250	0xbe882702	-0.2659226
251	0xbf441373	-0.7659218
252	0x3ca03812	0.019557986
253	0x3eac17cc	0.33611906
254	0x3dc063ad	0.09394012
255	0xbe5e552a	-0.21712175

r_k.mlp.0.bias f4 [10]
0	0x3ef1afff	0.47204587
1	0x3db80ec4	0.08987191
2	0x3d59a0c5	0.053131837
3	0x3dfde453	0.12397065
4	0xbec3195f	-0.38105294
5	0xbe0ecfa7	-0.139464
6	0xbcfbdb4f	-0.030744223
7	0xbc396792	-0.011316197
8	0xbe238039	-0.15966882
9	0xbe1b3a58	-0.15158975

correction.mlp.0.weight f4 [10, 32]
0	0xbee067ef	-0.43829295
1	0xbf51ac3b	-0.8190343
2	0xbe075fff	-0.13220213
3	0x3e2e10f4	0.16998655
4	0xbd189140	-0.037247896
5	0xbe940d86	-0.28916568
6	0x3dad3c04	0.08458713
7	0x3fa48526	1.2853134
8	0x3e3c90c2	0.18414596
9	0xbe0b2678	-0.13588893
10	0xbe6284ba	-0.22120944
11	0x3d667d0a	0.05627159
12	0xbe798c44	-0.24369913
13	0x3d519c82	0.051174648
14	0x3e28d264	0.16486508
15	0x3ec0a035	0.37622228
16	0x3e5a3623	0.21309714
17	0x3ec36ad5	0.38167444
18	0x3d453da9	0.048154507
19	0x3ebb13de	0.36538595
20	0x3d7d2116	0.06179913
21	0xbf0a7f00	-0.54100037
22	0xbe905c5e	-0.2819547
23	0x3ddffcc7	0.10936885
24	0x3e75929f	0.23981713
25	0x3e1c360d	0.15254994
26	0xbc6a993a	-0.014318759
27	0x3e2132fb	0.15742104
28	0x3e1559a6	0.1458498
29	0x3c51a647	0.012795991
30	0x3b89dd0f	0.0042072604
31	0xbecf2bde	-0.40463156
32	0x3e7e03eb	0.24806182
33	0xbfdb6a29	-1.7141773
34	0xbe8fa899	-0.28058317
35	0x3dd1bdc8	0.10241276
36	0x3e26e958	0.16299951
37	0x3db36768	0.087599576
38	0xbed3409f	-0.4126024
39	0xbf81a4c8	-1.0128412
40	0x3e05ace9	0.13054241
41	0xbdba84aa	-0.09107335
42	0x3dd61d54	0.10454813
43	0xbdad0fb2	-0.08450259
44	0x3d5d9802	0.054100044
45	0xbe753cb0	-0.23948932
46	0x3c3c13a6	0.011479294
47	0xbcdfac60	-0.027303874
48	0xbd9f6bbc	-0.077842206
49	0xbe547d90	-0.20751023
50	0x3cd9a831	0.026569458
51	0x3e736768	0.23769915
52	0x3e933879	0.28754023
53	0xbebdda08	-0.37080407
54	0xbe8f9b3b	-0.2804812
55	0x38ffa305	0.00012189712
56	0x3e997ccb	0.29978022
57	0x3e79c996	0.24393305
58	0xbe99faa7	-0.30074045
59	0xba304fba	-0.00067257474
60	0xbd5908b0	-0.0529868
61	0xbec0074f	-0.37505576
62	0xbb0b0171	-0.0021210576
63	0x3e9164e6	0.28397292
64	0xbeb585c4	-0.35453618
65	0xbe84c6f1	-0.2593303
66	0xbf0c8367	-0.54888004
67	0x3eb722d9	0.35768774
68	0xbccc5a55	-0.024945417
69	0x3ef436c8	0.47698045
70	0xbde16122	-0.11004855
71	0x3f444dd1	0.7668124
72	0x3e9eb789	0.309994
73	0x3e4622c6	0.19349203
74	0x3d50afd3	0.05094893
75	0xbe93f7d7	-0.28900024
76	0xbe3070c1	-0.17230512
77	0xbcef8d14	-0.029242076
78	0xbe388431	-0.18019177
79	0xbe186d2b	-0.14885394
80	0x3db3cf46	0.08779769
81	0x3e1c7409	0.15278639
82	0x3dbeba28	0.0931285
83	0xbe3a14c5	-0.18171985
84	0xbe11e2e9	-0.14246716
85	0xbe84f007	-0.25964376
86	0xbdc54916	-0.09633081
87	0x3e352ecf	0.17693637
88	0x3df1fe84	0.11816123
89	0x3d8d25a7	0.06891947
90	0xbe8b5a4a	-0.27217323
91	0x3dfb6d2f	0.122766845
92	0xbe8f0827	-0.27935907
93	0x3ed3f041	0.41394237
94	0x3c71f34c	0.014767479
95	0xbe83c42e	-0.2573561
96	0x3eb060a6	0.34448737
97	0x3e8dc97e	0.2769279
98	0xbee4e1de	-0.44703573
99	0xbf90ffc1	-1.132805
100	0xbe714468	-0.23561251
101	0xbeb26a10	-0.34846544
102	0x3f140faf	0.5783643
103	0x3c8953ad	0.016763533
104	0x3cdd3b85	0.02700592
105	0x3f067d8c	0.5253532
106	0xbeaaec1c	-0.33383262
107	0x3e21cfe3	0.15801959
108	0xbeb5c6d7	-0.35503265
109	0xbd704507	-0.05865958
110	0xbe7cd2fe	-0.24689862
111	0xbda080b3	-0.078370474
112	0xbda69075	-0.08133022
113	0x3d9cf2b6	0.07663481
114	0xbe3692bb	-0.1782941
115	0x3ea21e9e	0.31663984
116	0x3edbb7cf	0.42913672
117	0x3e06f228	0.13178313
118	0x3d533c41	0.051571134
119	0x3cdfcad1	0.02731839
120	0xbea89268	-0.329242
121	0x3ce58b42	0.028020505
122	0x3e5e48da	0.21707478
123	0xbd7e0690	-0.062017977
124	0x3b8fd203	0.004389049
125	0xbec77df5	-0.38963285
126	0xbc44e849	-0.012018272
127	0xbe88d1c7	-0.26722547
128	0x3e8e2589	0.27763012
129	0xbf90e3f3	-1.1319565
130	0xbdf15fad	-0.11785827
131	0x3e8fcb0b	0.28084597
132	0xbe50c07b	-0.20385925
133	0x3e0ceb49	0.13761629
134	0x3dea7e0e	0.11449824
135	0x3f1a1765	0.6019195
136	0x3dd79f6b	0.105284534
137	0xbef93524	-0.48673356
138	0x3e98afe1	0.29821685
139	0x3e22f3f2	0.1591337
140	0xbe49d808	-0.19711316
141	0x3e06278c	0.13101023
142	0xbd7d0c4c	-0.061779305
143	0xbeab28c7	-0.33429548
144	0x3c30c7ca	0.010789821
145	0xbf034bf0	-0.51287746
146	0x3e08f4b2	0.13374594
147	0xbddd5c41	-0.10808612
148	0xbd3a9564	-0.045552626
149	0x3d101a55	0.035181362
150	0xbe31b1e8	-0.17353022
151	0x3ee19d04	0.44065106
152	0x3cc38e4e	0.023871567
153	0x3e31c2de	0.17359492
154	0xbe4a9083	-0.1978169
155	0xbe4f16a2	-0.20223477
156	0xbe8b028b	-0.27150378
157	0x3e2f62d4	0.17127544
158	0x3c9dd996	0.019268792
159	0xbe94c9c8	-0.29060197
160	0x3eabd639	0.33561876
161	0xbe49c4e0	-0.19704008
162	0xbe4bf282	-0.19916728
163	0x3e0f275f	0.13979863
164	0x3eec44aa	0.46146137
165	0xbeff6628	-0.49882627
166	0xbee506bc	-0.447317
167	0x3ef3e464	0.47635186
168	0xbea542cd	-0.32277527
169	0xbf04c9bc	-0.5187032
170	0xbe5c536c	-0.21516198
171	0xbbee8af5	-0.0072797486
172	0x3e00b1e3	0.12567858
173	0xbe0119f1	-0.12607552
174	0x3e708ff2	0.23492411
175	0x3eab9395	0.33511034
176	0x3e56a169	0.2096001
177	0xbe2dd6be	-0.16976449
178	0x3e806680	0.250782
179	0x3cd6a227	0.026200367
180	0x3ca2b2ab	0.019860586
181	0x3e8ee7b0	0.2791114
182	0xbeafe3a2	-0.34353358
183	0x3ed952c1	0.4244595
184	0x3d63b870	0.055595815
185	0xbe140e06	-0.14458475
186	0x3c890674	0.01672671
187	0xbe385d52	-0.18004349
188	0x3d37dc66	0.044887923
189	0x3ec5ba2e	0.38618606
190	0x3c4990d2	0.012302594
191	0xbc2d7332	-0.010586547
192	0x3ec4afa0	0.3841524
193	0x3e6b1569	0.22957386
194	0x3e95acb9	0.2923334
195	0x3d0eeba8	0.034892708
196	0xbed1469a	-0.40874177
197	0xbe99d2c5	-0.30043617
198	0xbe66bb87	-0.22532474
199	0xbee2779e	-0.44231886
200	0x3ceda38a	0.029008646
201	0x3f256be6	0.64617765
202	0xbe8daa9a	-0.2766922
203	0x3d877936	0.06614916
204	0x3e3dfefb	0.18554299
205	0xbd15bb0b	-0.03655533
206	0x3e5e7e56	0.21727881
207	0x3ea41336	0.32045907
208	0xbc7bc54e	-0.015366865
209	0x3d88b20f	0.06674587
210	0xbd09dc8d	-0.0336576
211	0x3ddfb237	0.10922664
212	0xbde07777	-0.10960286
213	0xbeca0a04	-0.39460766
214	0xbe559fc2	-0.20861724
215	0x3d4f5ae1	0.05062378
216	0x3e1c4e5d	0.15264268
217	0xbe5c2adc	-0.21500725
218	0xbd1bf86c	-0.03807871
219	0x3e5cf928	0.2157942
220	0x3e85b518	0.26114726
221	0xbe796752	-0.2435582
222	0xbb13cb5a	-0.0022551627
223	0x3ec0ef8a	0.37682754
224	0x3f2fd557	0.68684906
225	0xbf689773	-0.90856093
226	0x3ef1e316	0.47243565
227	0x3ea6ee04	0.32603467
228	0x3e0d7f9b	0.13818209
229	0x3d5496ea	0.051901735
230	0x3d3e8ca6	0.04652085
231	0xbf4684ab	-0.77546185
232	0xbd4fe540	-0.05075574
233	0xbdd7039f	-0.104987375
234	0x3e856458	0.2605312
235	0x3e0b4edc	0.13604301
236	0xbf14df30	-0.5815306
237	0xbe955044	-0.291628
238	0x3e93a5c6	0.28837413
239	0xbdd58101	-0.10424996
240	0x3eaa031d	0.332055
241	0x3de4a717	0.11164682
242	0xbdc9a36f	-0.098456256
243	0xbde3d20d	-0.111240484
244	0x3d9b6081	0.07586766
245	0x3ee671ce	0.450087
246	0xbe0ab2e5	-0.13544805
247	0x3c05c355	0.008164247
248	0xbe5d024f	-0.21582912
249	0xbdfe30eb	-0.12411674
250	0xbe637a3e	-0.222146
251	0x3da6f7ec	0.08152756
252	0xbd57932b	-0.052630585
253	0xbe18614e	-0.14880869
254	0xbac62886	-0.0015118278
255	0x3e8b29ba	0.27180272

correction.mlp.0.bias f4 [10]
0	0xbda4eca4	-0.08052948
1	0xbe639d4c	-0.22227973
2	0xb8c4ff2b	-9.393537e-05
3	0xbe826790	-0.25469637
4	0xbe003a7a	-0.12522307
5	0x3d4e3134	0.050339893
6	0x3dcf55c3	0.101237796
7	0x3e035679	0.12825955
8	0xbe2e36b3	-0.17013054
9	0xbd80e08f	-0.06292831

autoencoder.encoder.mlp.mlp.0.weight f4 [10, 1]
0	0x3e344574	0.1760462
1	0xbe51ef31	-0.205014
2	0x3d2555db	0.04036508
3	0x3d499674	0.04921575
4	0xbeb40ec5	-0.35167518
5	0x3e0f8ffe	0.14019772
6	0x3ea6f31f	0.32607362
7	0x3e17dd4f	0.14830516
8	0xbd80542f	-0.06266057
9	0x3e63847e	0.2221851

autoencoder.encoder.mlp.mlp.0.bias f4 [10]
0	0x3b49bb2f	0.0030781736
1	0xbaddd45a	-0.0016924248
2	0xbe20571b	-0.15658228
3	0x3dc4d569	0.09611017
4	0x3b37151d	0.0027936168
5	0xba7d1f09	-0.00096558087
6	0xba4c195e	-0.00077857624
7	0x3ba0e5de	0.004910215
8	0xbe4e16a7	-0.20125829
9	0xbc8127ca	-0.015766043

autoencoder.encoder.mlp.mlp.2.weight f4 [10, 10]
0	0x3c947b4d	0.0181252
1	0xbe9b480a	-0.303284
2	0x3e146e6e	0.1449525
3	0xbed49e00	-0.41526794
4	0x3e13b762	0.14425424
5	0xbed9e75b	-0.42559323
6	0xbdb68ac3	-0.089131854
7	0x3e8b6832	0.27227932
8	0xbd9664e1	-0.0734346
9	0x3e8dcaa7	0.27693674
10	0x3e1bd187	0.15216647
11	0xbeb94742	-0.36187178
12	0x3e0a6780	0.13516045
13	0x3dd223bc	0.10260722
14	0x3e481e1e	0.19542739
15	0xbeb8854a	-0.3603919
16	0x3da745bd	0.081675984
17	0xbeaddb32	-0.33956295
18	0xbdf1eed5	-0.11813132
19	0x3e174b37	0.14774786
20	0xbe8ef4df	-0.27921197
21	0xbea0205b	-0.31274685
22	0x3df19e86	0.11797814
23	0xba9d6d6f	-0.0012010763
24	0xbdbc89f4	-0.09206
25	0x3f3cd53b	0.73762864
26	0xbe6b6043	-0.2298594
27	0x3f439ec0	0.7641411
28	0x3b7f1ec4	0.003892825
29	0xbbde51b4	-0.006784642
30	0x3da5809c	0.08081171
31	0xbd91d309	-0.0712033
32	0xbe672789	-0.22573675
33	0x3d99b307	0.0750485
34	0x3ea03239	0.31288317
35	0x3e278e3a	0.16362849
36	0xbe656fd5	-0.22405942
37	0xbeec681b	-0.46173176
38	0xbee4f082	-0.44714743
39	0xbe8dffcf	-0.2773423
40	0xbe21f524	-0.1581617
41	0xbea24c10	-0.31698656
42	0x3e097b73	0.13425998
43	0x3e840be9	0.25790337
44	0x3dfdc2d0	0.12390673
45	0xbb84c801	-0.0040521626
46	0x3eaad4f2	0.3336559
47	0x3c40aec9	0.011760422
48	0x3e7dbb82	0.2477856
49	0xbd8e4a27	-0.06947737
50	0x3e7d7272	0.24750689
51	0xbeacc4d5	-0.3374392
52	0x3db39f3b	0.08770605
53	0xbe679897	-0.22616802
54	0x3e7b3b35	0.24534304
55	0x3f0a37f7	0.53991646
56	0xbe8599c2	-0.2609387
57	0x3ebcdde1	0.3688803
58	0x3e170006	0.14746103
59	0x3db2fe10	0.08739865
60	0xbedfdc31	-0.4372268
61	0xbf18e485	-0.59723693
62	0x3e616930	0.22012782
63	0xbdb364af	-0.08759438
64	0x3e971bc8	0.29513383
65	0x3f0020ac	0.50049853
66	0xbedebe96	-0.4350478
67	0x3ee518cd	0.44745484
68	0x3eb2bfd5	0.3491198
69	0x3e2aff11	0.16698863
70	0x3edf66ba	0.43633062
71	0xbdb4fa25	-0.08836774
72	0xbe351653	-0.17684297
73	0xbec17d13	-0.37790737
74	0x3d0ce76d	0.034400392
75	0xbe1dbace	-0.15403292
76	0xbe625968	-0.22104418
77	0xb9a08ef5	-0.0003062409
78	0x3dab6db0	0.083705306
79	0x3e300b31	0.17191769
80	0xbe860821	-0.26178077
81	0x3b2b5758	0.002614459
82	0xbd9332c3	-0.071874164
83	0xbed23c55	-0.41061655
84	0xbeca4700	-0.39507294
85	0x3e40872e	0.18801567
86	0x3ca2bf87	0.019866718
87	0xbe42b0f9	-0.19012822
88	0xbecc8a51	-0.39949277
89	0x3e908c71	0.28232148
90	0x3f07847b	0.52936524
91	0xbe79dc79	-0.2440051
92	0x3c2b1180	0.010441184
93	0x3ec4079e	0.3828706
94	0x3e2d98ad	0.16952772
95	0xbe2bb5d6	-0.16768584
96	0x3e6756d7	0.2259172
97	0xbef827f2	-0.48467976
98	0x3ddd6136	0.10809557
99	0x3dc7aa41	0.0974927

autoencoder.encoder.mlp.mlp.2.bias f4 [10]
0	0xbcb52e9d	-0.022116954
1	0x3d60335c	0.05473648
2	0x3c04e2e2	0.008110734
3	0xbdbe4d08	-0.09292036
4	0xbda27a22	-0.07933451
5	0x3de8a399	0.11359329
6	0xbd7930f5	-0.060837705
7	0x3d5e8762	0.05432833
8	0xbd968df6	-0.07351296
9	0xbe341c93	-0.17589025

autoencoder.decoder.mlp.mlp.0.weight f4 [10, 10]
0	0xbda90fd8	-0.08254975
1	0x3ec47d86	0.38377017
2	0xbe593ba5	-0.21214159
3	0xbf941d10	-1.1571369
4	0x3e4e29dd	0.20133157
5	0x3f0e243d	0.55524045
6	0xbf88196c	-1.0632758
7	0xbf67f9a7	-0.90615314
8	0xbe404d3f	-0.18779467
9	0x3f6a5961	0.9154263
10	0xbf7bcdf5	-0.9836114
11	0x3ea75ad5	0.32686487
12	0xbf45a88d	-0.77210313
13	0x3f0f2563	0.5591642
14	0x3ef7189a	0.48260957
15	0x3f345e76	0.70456636
16	0x3e29fd21	0.16600467
17	0xbe432d46	-0.19060239
18	0xbf80d10b	-1.0063795
19	0x3e4c6e5d	0.19963975
20	0x3e5eacb6	0.21745571
21	0x3f50ceb5	0.8156541
22	0x3ed4c70d	0.41558114
23	0xbe80d69f	-0.25163743
24	0x3f03bef2	0.51463234
25	0x3f7f1a7e	0.996498
26	0xbf8e8338	-1.1133795
27	0xbfca2aa7	-1.5794266
28	0xbde66819	-0.11250324
29	0x3ef502d9	0.47853735
30	0xbf5aa41f	-0.8540668
31	0x3e737fe7	0.2377926
32	0xbf8dee4e	-1.108835
33	0x3f535a38	0.8255954
34	0xbdeedeca	-0.116635874
35	0x3f844c19	1.0335723
36	0xbee6e2cf	-0.45094916
37	0x3e51e005	0.20495613
38	0xbf5b1ce4	-0.8559096
39	0x3f7002a3	0.93754023
40	0x3ebbf466	0.367099
41	0xbe1c80d9	-0.15283526
42	0xbe9d9e52	-0.3078485
43	0xbd2d8053	-0.042358708
44	0x3dbb689c	0.09150812
45	0xbe81f7de	-0.2538442
46	0xbd1f7fdb	-0.03894029
47	0xbeda7523	-0.42667493
48	0x3dcd6392	0.10028757
49	0xbeb27418	-0.34854198
50	0x3e8900bc	0.26758373
51	0x3efef780	0.49798203
52	0xbe3ab25b	-0.182321
53	0x3ec661aa	0.38746387
54	0xbcc70901	-0.024296286
55	0xbee4e336	-0.44704598
56	0xbd86e04d	-0.06585751
57	0x3e9e685f	0.30939004
58	0x3ee9ddd5	0.45677057
59	0x3e644445	0.22291668
60	0xbf9b947d	-1.215469
61	0x3df7b542	0.12095119
62	0xbf856798	-1.0422239
63	0x3f1af8b7	0.6053576
64	0x3e190791	0.14944293
65	0x3f585b9a	0.8451477
66	0xbe831460	-0.25601482
67	0x3f3106d2	0.6915103
68	0xbf5b713e	-0.8571967
69	0x3f0d17c4	0.5511439
70	0x3ed2addb	0.41148266
71	0x3ebb6234	0.3659836
72	0x3e98b5ab	0.29826102
73	0x3f1ed40d	0.62042314
74	0x3ebbeb35	0.36702886
75	0xbe752ef2	-0.2394369
76	0xbe09cd5d	-0.13457246
77	0xbd83c1f7	-0.0643348
78	0x3e207ec6	0.1567336
79	0x3da9827b	0.0827684
80	0xbe353d87	-0.17699252
81	0x3ec69c17	0.38790962
82	0x3f44a0d8	0.7680793
83	0xbf3afa19	-0.7303787
84	0x3f6efad9	0.93351513
85	0x3f1d49c0	0.6144066
86	0xbe45a206	-0.19300088
87	0xbf4b9ac6	-0.7953304
88	0xbf3c4378	-0.7354045
89	0xbe8e832d	-0.27834454
90	0x3f01998a	0.50624907
91	0xbc21d92e	-0.00987844
92	0xbc1cbc75	-0.009566416
93	0x3f0efcb8	0.5585437
94	0x3ee486e8	0.44634175
95	0xbe145d92	-0.14488819
96	0x3ec126a8	0.37724805
97	0xbed04505	-0.40677658
98	0x3f001088	0.50025225
99	0x3edd11d9	0.4317768

autoencoder.decoder.mlp.mlp.0.bias f4 [10]
0	0x3e2dbd1c	0.16966671
1	0x3ca19b29	0.019727306
2	0xbcb99114	-0.022652186
3	0xbdc44e0c	-0.09585199
4	0xbe6de0fa	-0.23230353
5	0xbd489a9f	-0.048975583
6	0xbdb4fcdb	-0.08837291
7	0xbeae2aca	-0.3401702
8	0x3d2443e9	0.040103827
9	0xbe9d8acb	-0.30769953

autoencoder.decoder.mlp.mlp.2.weight f4 [1, 10]
0	0x3f415292	0.7551662
1	0xbf7a28be	-0.9771842
2	0x3f9309bf	1.1487349
3	0xbf7b38c5	-0.981335
4	0xbf366463	-0.7124693
5	0xbf25b189	-0.6472402
6	0xbf8741db	-1.0566972
7	0xbe3055d1	-0.17220236
8	0x3f7b77d8	0.9822974
9	0xbf29083e	-0.660282

exp_avg f4 [10]
0	0x00000000	0.0
1	0x00000000	0.0
2	0x00000000	0.0
3	0x00000000	0.0
4	0x00000000	0.0
5	0x00000000	0.0
6	0x00000000	0.0
7	0x00000000	0.0
8	0x00000000	0.0
9	0x00000000	0.0

exp_avg_sq f4 [10]
0	0x00000000	0.0
1	0x00000000	0.0
2	0x00000000	0.0
3	0x00000000	0.0
4	0x00000000	0.0
5	0x00000000	0.0
6	0x00000000	0.0
7	0x00000000	0.0
8	0x00000000	0.0
9	0x00000000	0.0

exp_avg f4 [10]
0	0x00000000	0.0
1	0x00000000	0.0
2	0x00000000	0.0
3	0x00000000	0.0
4	0x00000000	0.0
5	0x00000000	0.0
6	0x00000000	0.0
7	0x00000000	0.0
8	0x00000000	0.0
9	0x00000000	0.0

exp_avg_sq f4 [10]
0	0x00000000	0.0
1	0x00000000	0.0
2	0x00000000	0.0
3	0x00000000	0.0
4	0x00000000	0.0
5	0x00000000	0.0
6	0x00000000	0.0
7	0x00000000	0.0
8	0x00000000	0.0
9	0x00000000	0.0
