dirichlet/dsgps/results/constant_dataset/30_ite_gamma_1/ckpt/best_model.pt (torch, 80461 bytes, 69 tensors)

laynorm.weight f4 [10]
1.0 1.0 1.0 1.0 1.0 1.0 1.0 1.0
1.0 1.0
00000000: 0000 803f 0000 803f 0000 803f 0000 803f
00000010: 0000 803f 0000 803f 0000 803f 0000 803f
00000020: 0000 803f 0000 803f

laynorm.bias f4 [10]
0.0 0.0 0.0 0.0 0.0 0.0 0.0 0.0
0.0 0.0
00000000: 0000 0000 0000 0000 0000 0000 0000 0000
00000010: 0000 0000 0000 0000 0000 0000 0000 0000
00000020: 0000 0000 0000 0000

phi_to.mlp.mlp.0.weight f4 [10, 23]
-0.46542656 0.27514234 0.2351733 0.036373205 0.47640187 0.42420286 -0.07459564 0.027887534
0.3515564 0.6635391 -0.287567 -0.32670823 -0.23996325 0.124543026 0.32294658 0.03156766
0.08896037 -0.14784564 0.006579509 -0.01154904 4.6096226e-05 -0.0006665567 0.12016618 -0.08122713
-0.195333 -0.12766588 0.3401908 -0.29992196 -0.7385742 0.4412833 0.18531781 -0.19882406
0.15036766 0.45533088 0.37044924 0.38283518 -0.30665296 -1.092876 0.41787037 -0.16296896
0.014868772 0.5419532 0.5955761 -0.00042113516 0.00060561544 -0.20984952 -0.28363928 -0.31477448
-0.44397026 0.5815942 -0.3930805 -0.5996261 0.07494368 0.04467503 0.052076403 0.3939016
-0.536806 0.49423653 0.219617 -0.3398946 -0.6148403 0.26841995 -0.101343304 -0.024537666
-0.012474225 -0.17900045 0.00061001885 8.207253e-05 -0.16443782 -0.058568165 0.24307372 0.319645
-0.2078774 -0.7302353 -0.1390202 0.30262545 -0.17421305 0.10030989 -0.07725659 -0.10586933
0.23070551 -0.36130312 -0.119999185 -0.44899055 -0.16942383 0.21924983 0.48192048 -0.30533132
0.31512687 0.0010116755 0.0008812707 -0.13454588 0.03407184 -0.29178873 -0.14908348 -0.09459527
0.21120073 -0.16034846 0.021086909 0.0022883192 -0.22668235 0.24891913 -0.09638577 0.42074317
0.06120438 0.24736708 -0.56082046 0.048970416 -0.056099948 0.035790958 0.21593587 0.6347561
0.00048103757 0.0012385466 0.13820803 -0.12549607 0.28182563 -0.013413324 -0.15345542 -0.12558427
-0.2277367 0.33273816 -0.19937684 -0.05857563 -0.38895932 -0.057581563 0.20424321 -0.682785
0.082444355 -0.52194196 -0.062318686 -0.28539023 0.013640338 0.38275495 0.56444526 -1.4811825e-05
-4.677673e-06 -0.12403571 0.047535535 -0.6523991 -0.29376793 0.9276471 -0.38860893 -0.19328558
-0.19667056 0.7126174 0.55958354 -3.0769064 1.1300883 0.23713629 0.40736228 0.73865044
-3.0658598 -0.053119488 -0.1829321 0.6045162 0.40779817 -1.7631923 -0.000586836 0.0006411068
0.0054158177 -0.4737676 0.3962147 -0.26394084 -0.15175043 -0.6166548 0.06317186 0.070797555
0.33083165 0.31492317 -0.35449016 -0.43248343 0.40649134 0.19236384 -0.38528278 -0.46405914
0.15566489 0.13564973 0.111808956 0.16087435 -0.4707618 -0.00035145628 0.00074136513 -0.11345945
-0.23476978 -0.03996684 0.14755657 0.17774478 -0.298182 -0.054324787 0.12765089 -0.046374608
-0.10806882 -0.37687185 -0.2387464 -0.09991259 -0.37196413 0.25632867 0.103557035 -0.2812119
-1.01163 -0.45833406 0.29356793 0.32988578 0.0011285854 -0.00039115653 0.019907216 -0.033125572
0.14421576 -0.15953599 0.22619188 0.27051345 -0.17860135 -0.24037819 -0.0338256 0.6308899
-0.06595765 0.52118915 -0.23958114 0.099116765 0.20379096 -0.0535152 -0.17605118 0.8990881
-0.05120144 -0.43004683 0.29523617 0.00044461538 -0.0005824523 0.016118875
00000000: 644c eebe 75df 8c3e 45d1 703e 12fc 143d
00000010: f2ea f33e 1e31 d93e 99c5 98bd 6674 e43c
00000020: 33ff b33e b3dd 293f fb3b 93be 4d46 a7be
00000030: edb8 75be 6a10 ff3d 4159 a53e 174d 013d
00000040: db30 b63d d964 17be ec98 d73b 2f38 3dbc
00000050: 7257 4138 ddbb 2eba b019 f63d 695a a6bd
00000060: 6005 48be d8ba 02be 7d2d ae3e 5f8f 99be
00000070: 3313 3dbf e2ef e13e f4c3 3d3e 8998 4bbe
00000080: fbf9 193e 2121 e93e 86ab bd3e f902 c43e
00000090: 9e01 9dbe 5ce3 8bbf 1bf3 d53e 56e1 26be
000000a0: 269c 733c 72bd 0a3f ad77 183f cecb dcb9
000000b0: 2ac2 1e3a cbe2 56be 2b39 91be 1f2a a1be
000000c0: 1250 e3be 5ce3 143f d941 c9be 1981 19bf
000000d0: 127c 993d 2afd 363d 114e 553d 78ad c93e
000000e0: 1e6c 09bf 920c fd3e 47e3 603e aa06 aebe
000000f0: 2d66 1dbf 576e 893e 148d cfbd 3703 c9bc
00000100: b160 4cbc e54b 37be ace9 1f3a 5b1e ac38
00000110: 6362 28be 2ce5 6fbd 51e8 783e 82a8 a33e
00000120: d0dd 54be b3f0 3abf 505b 0ebe b9f1 9a3e
00000130: e864 32be 466f cd3d b438 9ebd 05d2 d8bd
00000140: 113e 6c3e b9fc b8be 22c2 f5bd 17e2 e5be
00000150: 717d 2dbe 0783 603e 48be f63e 6354 9cbe
00000160: 4f58 a13e 329a 843a 1305 673a 65c6 09be
00000170: ea8e 0b3d 5565 95be 57a9 18be 2abb c1bd
00000180: 0145 583e 6332 24be 74be ac3c a0f7 153b
00000190: 6b1f 68be a8e4 7e3e e765 c5bd a66b d73e
000001a0: 72b1 7a3d cc4d 7d3e ee91 0fbf 3495 483d
000001b0: 0fc9 65bd 8a99 123d 4b1e 5d3e 607f 223f
000001c0: c533 fc39 ba56 a23a 6886 0d3e 0b82 00be
000001d0: 734b 903e 8fc3 5bbc 6b23 1dbe 2a99 00be
000001e0: cf33 69be a85c aa3e 7129 4cbe 00ed 6fbd
000001f0: ad25 c7be a5da 6bbd 2225 513e ffca 2ebf
00000200: 96d8 a83d fd9d 05bf e141 7fbd ab1e 92be
00000210: b97b 5f3c 75f8 c33e 7c7f 103f 4e80 78b7
00000220: e8f4 9cb6 6f06 febd 9fb4 423d a103 27bf
00000230: c068 96be 487a 6d3f c0f7 c6be a8ec 45be
00000240: 0264 49be 186e 363f de40 0f3f 09ec 44c0
00000250: bca6 903f dbd3 723e ca91 d03e 3218 3d3f
00000260: 0c37 44c0 d293 59bd 8d52 3bbe 93c1 1a3f
00000270: ecca d03e 49b0 e1bf e6d5 19ba f30f 283a
00000280: 2c77 b13b ab91 f2be a7dc ca3e 4123 87be
00000290: 7764 1bbe 17dd 1dbf 4060 813d 4ffe 903d
000002a0: c462 a93e 9c3d a13e bc7f b5be 786e ddbe
000002b0: a21f d03e 07fb 443e c943 c5be 2999 edbe
000002c0: 9e66 1f3e c3e7 0a3e 18fc e43d 3fbc 243e
000002d0: b107 f1be aa43 b8b9 2c58 423a 6e5d e8bd
000002e0: 7d67 70be 45b4 23bd 1219 173e ba02 363e
000002f0: 50ab 98be ab83 5ebd eab6 023e 4df3 3dbd
00000300: 2f53 ddbd 59f5 c0be f079 74be f99e ccbd
00000310: 1572 bebe 833d 833e b615 d43d 02fb 8fbe
00000320: 187d 81bf c3aa eabe 894e 963e cae6 a83e
00000330: 0bed 933a 2414 cdb9 7514 a33c aeae 07bd
00000340: 4cad 133e 675d 23be d89e 673e bd80 8a3e
00000350: 46e3 36be b325 76be b68c 0abd 0082 213f
00000360: ce14 87bd a76c 053f c254 75be bbfd ca3d
00000370: 94ae 503e c132 5bbd c346 34be a32a 663f
00000380: 9ab8 51bd 192f dcbe 3229 973e 441b e939
00000390: b6af 18ba bb0b 843c

phi_to.mlp.mlp.0.bias f4 [10]
-0.020131687 0.063150406 0.051573854 0.08446083 0.06593462 0.13913158 0.0867571 -0.06080984
0.19541706 0.10581359
00000000: 35eb a4bc 0055 813d 1b3f 533d cdf9 ac3d
00000010: bb08 873d 8278 0e3e b5ad b13d bd13 79bd
00000020: 691b 483e ccb4 d83d

phi_to.mlp.mlp.2.weight f4 [10, 10]
0.7200129 -0.13785201 -0.71114147 -0.37970942 0.27826545 0.37129745 0.19169481 0.19434516
-1.0166057 -0.2409128 0.05594191 0.079824686 -0.5393925 0.51145893 -0.03439916 -0.2033601
-0.5762644 -0.08748772 -0.5684743 -0.37758037 0.15086736 0.16159898 -0.21842849 -0.30883083
-0.027135571 -0.6673129 0.31612334 -0.06233842 -0.08322977 -0.48167932 0.028411983 -0.31939825
0.0943171 0.056574896 -0.33307558 0.17579332 -2.2771256 0.19721378 0.70176744 0.29554597
-0.21029286 -0.42009354 0.059107523 -0.37085846 -0.31905463 0.6968587 0.22184484 -0.16437456
0.45382518 0.39783934 0.25604072 0.8429519 -0.18456942 0.2550322 0.41022736 -0.34215596
0.25607893 0.1783907 -0.3912318 -0.021857515 -0.03270159 -0.18482444 -1.1016479 -0.23735382
0.28336582 0.025814667 -2.2551215 0.032349546 0.5222665 0.3993449 -0.21840885 0.008258949
-0.3531501 -0.11554101 -0.39224696 -0.16071483 -0.8800227 0.0010621938 -0.797327 0.68897784
-0.17346787 0.51412547 -0.07811397 -0.23192552 0.2797956 0.7251121 0.69571084 0.16025925
0.28760827 -0.21183987 0.39766905 -0.0724349 0.41189927 -0.36259335 0.27422997 -0.55940425
-1.2256831 -0.34218213 -0.61649925 -0.3903294
00000000: c452 383f 1429 0dbe 5e0d 36bf 4669 c2be
00000010: cf78 8e3e b31a be3e a54b 443e 6b02 473e
00000020: 2320 82bf d8b1 76be 5823 653d 207b a33d
00000030: a015 0abf f9ee 023f 22e6 0cbd a13d 50be
00000040: 1086 13bf c32c b3bd 8887 11bf 3752 c1be
00000050: f97c 1a3e 347a 253e b8ab 5fbe 131f 9ebe
00000060: 6b4b debc 05d5 2abf ebda a13e 9256 7fbd
00000070: 5f74 aabd ac9e f6be 3fc0 e83c 2b88 a3be
00000080: 5329 c13d 14bb 673d e288 aabe 2a03 343e
00000090: 6dbc 11c0 69f2 493e 08a7 333f cd51 973e
000000a0: 0357 57be 8016 d7be bb1a 723d 29e1 bdbe
000000b0: 215b a3be 5565 323f 4b2b 633e ce51 28be
000000c0: c65b e83e 99b1 cb3e c517 833e b2cb 573f
000000d0: c4ff 3cbe 9593 823e 5209 d23e 112f afbe
000000e0: c71c 833e 0dac 363e 894f c8be 880e b3bc
000000f0: 1af2 05bd 9e42 3dbe cc02 8dbf e10c 73be
00000100: 5315 913e 4879 d33c e953 10c0 f580 043d
00000110: 42b3 053f ef76 cc3e 92a6 5fbe 8b50 073c
00000120: 17d0 b4be c4a0 ecbd 98d4 c8be 6e92 24be
00000130: 2b49 61bf 4f39 8b3a 9f1d 4cbf da60 303f
00000140: 90a1 31be ba9d 033f 38fa 9fbd e27d 6dbe
00000150: 5e41 8f3e f2a0 393f 1b1a 323f 001b 243e
00000160: 6441 933e 8dec 58be 479b cb3e c058 94bd
00000170: 76e4 d23e d6a5 b9be df67 8c3e 1e35 0fbf
00000180: 2fe3 9cbf 7f32 afbe e5d2 1dbf 41d9 c7be

phi_to.mlp.mlp.2.bias f4 [10]
0.025369653 -0.0076509756 -0.018609092 -0.071381114 0.009211344 0.011751578 0.023741158 0.08495868
-0.0475617 0.044241585
00000000: 05d4 cf3c 09b5 fabb 1872 98bc 4330 92bd
00000010: 2deb 163c b189 403c d17c c23c d1fe ad3d
00000020: 0fd0 42bd aa36 353d

phi_from.mlp.mlp.0.weight f4 [10, 23]
-0.37545627 -0.21953125 0.16660577 -0.10858514 0.25471708 -0.144012 0.31585026 -0.11208065
-0.2561202 -0.20394911 0.016217865 0.3032783 0.047209363 -0.36547747 0.033890717 0.048774946
-0.2555927 -0.065877736 -0.03192589 -0.6239292 -0.0020208852 0.0034680967 0.0450729 -0.05117211
-0.2986952 0.049102794 0.15871412 -0.3504423 0.17229582 0.049803272 0.44182792 -0.19085789
-0.050643332 0.42800328 0.14333482 0.44920132 -0.07965756 -0.095651194 0.54281104 0.27297455
-0.046856515 -0.02654994 0.46023408 0.00077328173 -0.0032519114 -0.072431475 0.024299646 0.26063117
0.3192068 -0.2958068 0.47415048 0.3941224 -0.0014164861 0.46491846 0.0138361 -0.39271986
-0.24426533 -0.28799173 -0.118684486 -0.3193729 0.32137153 0.34925047 -0.17403033 -0.072480045
-0.5247675 0.122362964 -0.00117827 0.0011257214 0.14496675 0.5645821 0.003130572 -0.31066087
-0.16996704 0.03722508 0.5262937 0.524384 0.012733045 -0.07126289 -0.55648345 0.17519118
0.2859545 0.15195516 -0.2395315 -0.79255795 0.35616648 0.26159284 0.120986156 -0.020083543
0.32769 4.1707754e-05 0.00059810845 -0.06706225 -0.3295301 0.08955804 -0.63297135 0.20858812
-0.46182862 0.01632985 0.350612 0.26847592 0.18855636 -0.367135 0.51997274 0.28314835
-0.1993475 -0.38151887 -0.36786634 0.29653692 -0.38043082 -0.4262871 0.17431399 -0.07061876
-0.0015534102 0.0011686586 -0.3836817 -0.586121 0.19748306 -0.29262638 0.25337777 -0.3143811
-0.31527793 -0.41510537 0.30205315 0.3706004 0.23204441 -0.4911676 0.15132059 0.069228046
-0.46565285 -0.30146345 -0.077408426 0.5025024 -0.5914263 -0.4383003 -0.18478869 0.00056711317
-0.00028593116 -0.1677802 -0.23242286 0.22963642 0.10817061 -0.055753764 -0.05169307 0.3816982
0.071792856 -0.34503886 0.00569782 -0.48386753 0.05304545 -0.21725465 0.07815028 0.061219767
-0.40532753 -0.34099692 0.09399769 -0.021184128 -0.4779992 0.24397078 0.0002964712 -0.0001616894
-0.18783957 -0.011432123 -0.09757277 0.018934382 0.25297526 -0.5107854 -0.42609945 0.45621902
0.1650581 0.31001678 -0.31457895 0.4452383 0.25432488 0.29042402 -0.3290803 -0.41958058
0.3129572 0.30651337 -0.093960546 0.24732836 0.5377657 0.0013654027 -0.0005362979 -0.15004775
0.29068068 -0.14541297 0.101640955 0.32974625 0.13995235 -0.26224804 0.035664536 -0.046993665
-0.50914794 -0.07940592 0.15421347 -0.10074737 -0.04280175 -0.2500132 0.2748207 -0.43357587
-0.25186586 -0.21796574 0.25658634 -0.15136984 0.0009924555 0.0016406466 -0.026456745 -0.67875797
-0.1096364 -0.28618738 -0.016854037 0.22050871 0.29412788 -0.11845982 -0.098407395 -0.6386706
-0.063044555 -0.269615 0.37331203 0.321114 -0.33765888 0.23109251 -0.033366024 -0.31490925
-0.2485365 0.047746137 0.31152004 0.0007300783 -0.00013847505 -0.0506852
00000000: ce3b c0be cdcc 60be b49a 2a3e e361 debd
00000010: 476a 823e e277 13be 20b7 a13e 8a8a e5bd
00000020: 3022 83be 09d8 50be 54db 843c 4b47 9b3e
00000030: 9b5e 413d dd1f bbbe fed0 0a3d 3dc8 473d
00000040: 0cdd 82be e8ea 86bd b9c4 02bd d3b9 1fbf
00000050: d470 04bb 0249 633b 5c9e 383d d999 51bd
00000060: 94ee 98be 0320 493d f485 223e 2c6d b3be
00000070: 516e 303e 84fe 4b3d 4537 e23e 4070 43be
00000080: 626f 4fbd 3f23 db3e 5dc6 123e b7fd e53e
00000090: 8123 a3bd c6e4 c3bd aaf5 0a3f 52c3 8b3e
000000a0: 9eec 3fbd 437f d9bc cda3 eb3e 0fb6 4a3a
000000b0: 051e 55bb f456 94bd 0d10 c73c 7371 853e
000000c0: 136f a33e fd73 97be dac3 f23e 69ca c93e
000000d0: 63a9 b9ba cb09 ee3e cfb0 623c 9412 c9be
000000e0: b120 7abe a773 93be da10 f3bd d884 a3be
000000f0: cf8a a43e f5d0 b23e 0235 32be 6b70 94bd
00000100: 2a57 06bf 6f99 fa3d 2e70 9aba f18c 933a
00000110: 2a72 143e 7488 103f 482a 4d3b f10e 9fbe
00000120: d70b 2ebe 5379 183d 2fbb 063f 083e 063f
00000130: 439e 503c 47f2 91bd b375 0ebf 5165 333e
00000140: a168 923e 229a 1b3e bf47 75be 14e5 4abf
00000150: 745b b63e 7fef 853e 97c7 f73d 3e86 a4bc
00000160: fcc6 a73e 5cef 2e38 61ca 1c3a ef57 89bd
00000170: 2bb8 a8be 356a b73d 690a 22bf 2098 553e
00000180: cd74 ecbe 2dc6 853c 6b83 b33e ad75 893e
00000190: eb14 413e 1ef9 bbbe ef1c 053f d2f8 903e
000001a0: c021 4cbe 7156 c3be fa58 bcbe b0d3 973e
000001b0: d4c7 c2be 4e42 dabe 5e7f 323e 92a0 90bd
000001c0: cc9b cbba ad2d 993a ee71 c4be 070c 16bf
000001d0: 0039 4a3e 20d3 95be bbba 813e 8ff6 a0be
000001e0: 1c6c a1be b188 d4be b6a6 9a3e 56bf bd3e
000001f0: 0d9d 6d3e 527a fbbe c9f3 1a3e 6fc7 8d3d
00000200: 0d6a eebe 6b59 9abe 4f88 9ebd ffa3 003f
00000210: b767 17bf e668 e0be 3f39 3dbe 52aa 143a
00000220: 08e9 95b9 93ce 2bbe 4200 6ebe cf25 6b3e
00000230: 8e88 dd3d 0f5e 64bd 1dbc 53bd f26d c33e
00000240: 2208 933d efa8 b0be c7b4 ba3b 7cbd f7be
00000250: 3046 593d 0178 5ebe 410d a03d 94c1 7a3d
00000260: 1787 cfbe 2697 aebe dc81 c03d 568a adbc
00000270: 50bc f4be 7ad3 793e b16f 9b39 2b8b 29b9
00000280: 0459 40be cd4d 3bbc 3cd4 c7bd 471c 9b3c
00000290: f985 813e d5c2 02bf b529 dabe 8a95 e93e
000002a0: fe04 293e 85ba 9e3e 7e10 a1be 46f6 e33e
000002b0: df36 823e 75b2 943e 377d a8be 44d3 d6be
000002c0: ed3b a03e 52ef 9c3e 636e c0bd a543 7d3e
000002d0: 03ab 093f 50f7 b23a 5896 0cba 1ea6 19be
000002e0: 19d4 943e 23e7 14be 2229 d03d 80d4 a83e
000002f0: ab4f 0f3e 6045 86be fa14 123d 6e7c 40bd
00000300: 8557 02bf 929f a2bd 23ea 1d3e a354 cebd
00000310: e350 2fbd bb01 80be 4cb5 8c3e a8fd ddbe
00000320: 90f4 80be 6932 5fbe 495f 833e b200 1bbe
00000330: 4815 823a f70a d73a d1bb d8bc 15c3 2dbf
00000340: 0d89 e0bd 2787 92be 7a11 8abc 09cd 613e
00000350: ee97 963e 109b f2bd d189 c9bd eb7f 23bf
00000360: 811d 81bd fa0a 8abe c122 bf3e 0e69 a43e
00000370: a0e1 acbe 84a3 6c3e d0aa 08bd c93b a1be
00000380: 5a80 7ebe 7491 433d 8e7f 9f3e ba62 3f3a
00000390: 9d33 11b9 499b 4fbd

phi_from.mlp.mlp.0.bias f4 [10]
0.05381421 0.108328715 0.043207664 0.042428095 -0.07305511 0.022075735 0.11446079 0.11834786
0.13648088 0.08851431
00000000: 4a6c 5c3d 72db dd3d 85fa 303d 15c9 2d3d
00000010: eb9d 95bd 2cd8 b43c 6b6a ea3d 5d60 f23d
00000020: a5c1 0b3e fe46 b53d

phi_from.mlp.mlp.2.weight f4 [10, 10]
-0.34917146 -0.24965492 0.10064804 -0.08186758 0.51846623 0.3478464 -0.4385859 -0.19909108
-0.1564952 -0.30573642 -0.11727576 0.22167352 -0.32761136 -0.13054006 -0.14420867 0.2591327
0.41930646 0.3473924 0.45452186 -0.40992418 -0.34032515 0.30687883 0.36800537 0.13557222
0.17342371 -0.5812152 -0.101963386 0.34066892 -0.081291236 -0.45774686 0.21366543 0.5458354
-0.028743038 0.20890534 0.5754443 -0.2466575 -0.65532786 0.20331872 -0.28273177 0.30577183
-0.3077343 0.58569455 -0.095430024 0.36437476 -0.80216247 -0.21898574 -0.35634518 -0.047176607
0.5903109 -0.27439103 -0.29506028 0.12915526 -0.116401635 -0.27936438 0.45313364 0.40653294
0.33419904 0.09834285 -0.35514098 0.10170988 0.15649216 -0.12710485 -0.18818825 0.21662562
0.4025809 -0.4635202 -0.18536319 -0.1975148 0.16463242 0.03723802 -0.3918735 -0.45432338
0.21800889 0.5692266 -0.53132445 -0.1687062 -0.114986084 -0.51522803 -0.62645715 0.08233253
0.015205498 -0.23936513 0.6253839 -0.05172231 0.094455734 0.7446726 -0.21464553 -0.28746906
-0.42241547 0.12992832 -0.12641005 -0.513005 -0.046025105 0.13668284 0.5653445 0.58146405
-0.4109713 0.23436831 0.27314356 0.25858226
00000000: 9ac6 b2be 8aa5 7fbe 8f20 ce3d 31aa a7bd
00000010: 34ba 043f ec18 b23e 558e e0be 88de 4bbe
00000020: 4740 20be 7c89 9cbe 462e f0bd 62fe 623e
00000030: adbc a7be 4bac 05be 70ab 13be 0bad 843e
00000040: 56af d63e 6bdd b13e 17b7 e83e 95e1 d1be
00000050: 193f aebe 391f 9d3e 336b bc3e 72d3 0a3e
00000060: fc95 313e 85ca 14bf 2ed2 d0bd 286c ae3e
00000070: 057c a6bd cc5d eabe 1ccb 5a3e debb 0b3f
00000080: 8576 ebbc 48eb 553e 5150 133f c993 7cbe
00000090: 91c3 27bf c832 503e 38c2 90be 208e 9c3e
000000a0: 5a8f 9dbe 14f0 153f d170 c3bd 548f ba3e
000000b0: 855a 4dbf cc3d 60be e072 b6be 423c 41bd
000000c0: 9d1e 173f fb7c 8cbe 2412 97be 4741 043e
000000d0: fb63 eebd d908 8fbe 2201 e83e 1625 d03e
000000e0: 231c ab3e fa67 c93d 0ad5 b5be 454d d03d
000000f0: 7b3f 203e c627 02be 6cb4 40be 1bd3 5d3e
00000100: 151f ce3e 8552 edbe d9cf 3dbe 5241 4abe
00000110: 6795 283e e586 183d a5a3 c8be 139d e8be
00000120: b93d 5f3e d6b8 113f e104 08bf 51c1 2cbe
00000130: d37d ebbd fce5 03bf 7f5f 20bf f59d a83d
00000140: 7b20 793c 221c 75be 2919 203f c6da 53bd
00000150: 0272 c13d dda2 3e3f 0acc 5bbe 252f 93be
00000160: d746 d8be ee0b 053e a371 01be 4c54 03bf
00000170: d284 3cbd 96f6 0b3e 6bba 103f d4da 143f
00000180: d56a d2be 3ffe 6f3e 79d9 8b3e e564 843e

phi_from.mlp.mlp.2.bias f4 [10]
-0.12535104 0.118528605 0.018253045 -0.02607082 -0.124102026 -0.13145691 -0.061622616 0.07628056
0.036039546 0.08299656
00000000: 065c 00be 20bf f23d 6987 953c 7992 d5bc
00000010: 3429 febd a49c 06be ff67 7cbd fb38 9c3d
00000020: 349e 133d 1afa a93d

z_k.mlp.0.weight f4 [10, 32]
0.25973418 -0.38654494 0.66046834 -0.65071726 1.9227134 0.22920822 0.8940896 -0.6671767
-0.5452332 0.473749 0.57833225 0.2609245 0.5141158 -0.035611868 0.35340944 0.017404115
0.06540205 -0.81835747 -0.4252767 -0.50552833 0.35899672 -0.52307284 0.22580336 -0.114208765
-0.10049246 0.27700183 0.53439796 -0.64020354 0.048753154 0.056018554 0.006019335 -0.09336734
0.04795375 0.91889715 0.30216822 -2.002019 -1.7088854 0.50064063 2.197043 -0.1187806
-0.070176035 -2.0520914 0.35815498 1.2408849 -0.05302302 -1.0601782 -0.27018 0.6791019
0.69359916 -0.35379058 -0.06106535 0.3669942 0.36920372 0.6014999 -0.97349936 0.28980193
0.11914263 1.0206081 0.06077031 -0.18408637 0.008832038 0.36744568 -0.015871044 -0.08335513
0.5317243 0.700115 1.5509219 -1.0886986 0.38429382 0.38908097 -0.15366305 0.018623624
0.13247485 0.31664053 -0.20024092 0.7641392 -0.84126866 -0.32476217 -0.70451885 1.2494175
0.12788084 0.20511107 -0.3984889 -0.56610113 -0.042515967 0.7413543 0.15437746 -0.6461829
-0.21542296 0.0017143413 -0.16291133 -0.69313794 0.4676455 0.069039784 0.11221976 0.052574746
0.0002565544 1.0451621 0.61800987 0.2348075 -1.1865218 0.16722634 0.5151667 -0.76405853
0.26281908 1.103619 1.3413728 -0.80822605 0.507285 1.0038066 0.75595826 -0.14745136
1.2223607 0.5292809 1.1021649 0.25376216 0.8968765 -0.029132675 0.1610476 -0.08384314
0.05202972 0.7685462 0.5259652 -0.075790346 0.019140208 0.90606534 0.001328051 -0.031389546
-0.8620875 0.22428884 0.18267658 1.2074962 -1.7252532 -0.30658692 0.29650542 0.18117803
-0.053476077 -0.937067 0.14525096 -0.2417272 0.55392957 0.17502923 0.3089642 -0.37382933
0.6430945 -0.29973266 0.47738606 -0.7291046 0.09712593 -0.63521224 -0.637258 0.27998197
0.868515 0.1380469 0.6681911 -0.11643772 -0.38949552 -0.2643075 -0.011006491 -0.34884924
0.49732107 0.10054352 0.09251131 -0.6630453 -0.21619812 -0.32067305 -0.13234015 -0.30539978
0.041058734 0.639078 0.68628764 1.5324794 0.18258396 -0.5044113 -0.568423 0.53849113
-0.7351823 0.05883671 -1.0237281 0.9078476 0.540186 -0.030912304 -0.49658465 -0.03546367
0.07594247 0.05037422 0.44730845 -0.16217792 -0.63036287 0.39252144 0.0020222727 0.29286844
1.5448215 -0.5342283 0.7253148 -0.94055665 -1.0455682 0.4664583 -1.3629118 0.95773435
0.17339031 -0.5454549 0.7983843 -0.015986828 -0.045275204 -0.42539847 0.055332128 -0.06571098
1.0468504 -0.34462318 -0.076553315 0.7743466 0.60839194 0.63073933 -0.5501075 -0.27172574
0.5270411 0.5102948 -0.2008398 -0.61584467 0.14172651 -0.15229431 -0.01352653 -0.417714
-0.0042354674 0.12517324 0.45498273 -0.91254705 -1.8701829 1.6231081 0.50954247 -0.2381148
-0.45058322 3.046584 -0.036403053 -0.6712857 -0.6197027 -0.76796424 -0.4369919 0.076976135
-0.29326183 0.1312657 -0.9781311 -0.06844608 0.10029506 -0.07409126 0.57833743 -0.43454817
-0.24635886 0.52070224 0.18022881 -0.25692093 -0.044667058 0.36930883 0.015297739 -0.011064521
00000000: e1fb 843e 38e9 c5be 7414 293f 6895 26bf
00000010: 791b f63f 8fb5 6a3e 0ee3 643f 18cc 2abf
00000020: 6794 0bbf 3b8f f23e 950d 143f e597 853e
00000030: 189d 033f c0dd 11bd 15f2 b43e 1393 8e3c
00000040: 83f1 853d e07f 51bf debd d9be 4e6a 01bf
00000050: 6bce b73e 1ae8 05bf ff38 673e 49e6 e9bd
00000060: fece cdbd 2fd3 8d3e 4ece 083f 61e4 23bf
00000070: 63b1 473d b673 653d d73d c53b 6037 bfbd
00000080: 276b 443d d83c 6b3f cbb5 9a3e 1421 00c0
00000090: c2bc dabf fc29 003f 5a9c 0c40 3e43 f3bd
000000a0: 74b8 8fbd 7755 03c0 1760 b73e 51d5 9e3f
000000b0: ab2e 59bd ebb3 87bf 0855 8abe 9fd9 2d3f
000000c0: b78f 313f 0a24 b5be a91f 7abd aae6 bb3e
000000d0: 4508 bd3e e6fb 193f 4137 79bf eb60 943e
000000e0: 0d01 f43d 49a3 823f 4aea 783d 2381 3cbe
000000f0: 41b4 103c d721 bc3e fe03 82bc 18b6 aabd
00000100: 151f 083f bd3a 333f 9c84 c63f 7a5a 8bbf
00000110: 29c2 c43e 9f35 c73e d959 1dbe 9290 983c
00000120: 7da7 073e b51e a23e f50b 4dbe a09e 433f
00000130: 625d 57bf 3a47 a6be 595b 34bf eaec 9f3f
00000140: 32f3 023e a308 523e bd06 ccbe 01ec 10bf
00000150: 3925 2ebd 65c9 3d3f 2015 1e3e 3e6c 25bf
00000160: d697 5cbe c0b3 e03a 3ad2 26be 7d71 31bf
00000170: 3b6f ef3e bb64 8d3d 79d3 e53d 9e58 573d
00000180: 2682 8639 dfc7 853f e535 1e3f 6171 703e
00000190: f2df 97bf 623d 2b3e f7e1 033f 5799 43bf
000001a0: 3990 863e 6343 8d3f 1bb2 ab3f e7e7 4ebf
000001b0: 6edd 013f bc7c 803f 7b86 413f 7dfd 16be
000001c0: 5176 9c3f f47e 073f bd13 8d3f 1ded 813e
000001d0: b399 653f a6a7 eebc a9e9 243e f4b5 abbd
000001e0: 1e1d 553d 72bf 443f a8a5 063f f837 9bbd
000001f0: edcb 9c3c e6f3 673f ff11 ae3a 5392 00bd
00000200: c4b1 5cbf f9ab 653e 920f 3b3e 3c8f 9a3f
00000210: 19d5 dcbf f6f8 9cbe 8fcf 973e bc86 393e
00000220: bb09 5bbd 9fe3 6fbf abbc 143e 5687 77be
00000230: 54ce 0d3f dd3a 333e 8e30 9e3e 8f66 bfbe
00000240: d7a1 243f 8f76 99be f26b f43e 99a6 3abf
00000250: f6e9 c63d 459d 22bf 5723 23bf cc59 8f3e
00000260: 0057 5e3f 2b5c 0d3e 920e 2b3f e676 eebd
00000270: f56b c7be 5053 87be 9254 34bc 5e9c b2be
00000280: dea0 fe3e c3e9 cd3d 9276 bd3d 56bd 29bf
00000290: 0a63 5dbe 422f a4be 2d84 07be 5c5d 9cbe
000002a0: 342d 283d 9e9a 233f 8cb0 2f3f 4928 c43f
000002b0: 4af7 3a3e 1921 01bf 2b84 11bf 8eda 093f
000002c0: e834 3cbf c3fe 703d 8609 83bf b368 683f
000002d0: a149 0a3f cd3b fdbc 5840 febe 5a42 11bd
000002e0: ba87 9b3d 3355 4e3d 9d05 e53e f811 26be
000002f0: 765f 21bf 92f8 c83e 1b88 043b daf2 953e
00000300: b6bc c53f 30c3 08bf 3bae 393f 52c8 70bf
00000310: 2ed5 85bf 9fd3 ee3e e573 aebf 142e 753f
00000320: 3b8d 313e efa2 0bbf ea62 4c3f cff6 82bc
00000330: 7e72 39bd d4cd d9be f1a3 623d 7a93 86bd
00000340: 32ff 853f 7372 b0be fcc7 9cbd 943b 463f
00000350: 93bf 1b3f 2278 213f d8d3 0cbf a31f 8bbe
00000360: 2aec 063f aea2 023f f3a8 4dbe ffa7 1dbf
00000370: c120 113e 0af3 1bbe 619e 5dbc 9cde d5be
00000380: adc9 8abb 6a2d 003e 7ff3 e83e af9c 69bf
00000390: 2762 efbf 02c2 cf3f 6071 023f 5ed4 73be
000003a0: d8b2 e6be 3bfb 4240 5e1b 15bd 61d9 2bbf
000003b0: d6a4 1ebf 4e99 44bf 67bd dfbe aaa5 9d3d
000003c0: 6a26 96be 846a 063e cd66 7abf 752d 8cbd
000003d0: 7f67 cd3d 29bd 97bd ec0d 143f 197d debe
000003e0: 7f45 7cbe be4c 053f e78d 383e 248b 83be
000003f0: cef4 36bd 0c16 bd3e 5ea3 7a3c f747 35bc

z_k.mlp.0.bias f4 [10]
-0.07211535 0.37963346 0.6287902 0.35676625 -0.040091675 -0.17367162 -0.34529737 0.63743263
-0.20790875 -0.17798735
00000000: 36b1 93bd 515f c23e 65f8 203f 11aa b63e
00000010: 2b37 24bd f9d6 31be d1ca b0be c92e 233f
00000020: 08e6 54be 5142 36be

r_k.mlp.0.weight f4 [10, 32]
0.03761361 -0.36427376 -0.39203426 0.6832376 -0.80777216 -0.62595767 0.42047927 0.4758815
0.34542093 1.8513899 0.17709893 0.49072114 -0.531231 -0.21317698 0.018044015 0.09964535
1.2477094 -1.7149241 -0.37292004 -0.77629274 -0.2761675 0.3459017 0.31054938 0.26576534
0.09018532 0.1862233 0.14889129 -0.5833461 -0.5297194 0.76270425 0.007580467 0.015076595
0.518504 0.6594021 0.32879165 -0.20953211 0.6877351 0.27038196 0.19440114 -0.28377596
-0.33630022 0.18835267 -0.45650014 -0.32055286 -0.464296 0.5492965 -0.0526549 0.17820108
0.03769857 0.94895625 0.14242864 -0.28116056 -0.2204789 -0.4691835 -0.059333038 0.13941588
-0.7028355 -0.013354987 -0.3653882 -0.4821315 -0.13607647 0.10814902 0.10009624 -0.2594978
-0.057391956 0.06776659 -0.07374315 -0.53949773 0.18923126 -0.5040334 0.3284514 0.011623979
0.3566772 0.016388202 -0.33852023 0.06956288 -0.29257765 -0.1420599 0.37091193 -0.0034571062
-0.31394804 0.25014922 0.35595724 0.6073274 -0.22914271 -0.41889706 -0.7107616 0.10769659
-0.25479805 -0.008379343 -0.022098368 0.28188202 0.23251328 0.0916191 0.013398554 -0.15550594
-0.20598336 0.53774774 0.36611286 0.47664168 1.2852169 0.12047522 -0.34443614 -0.3665604
0.07388588 0.08820543 0.8295326 -0.4273269 0.87719303 -0.97711825 -0.4274035 0.07616904
-0.009081012 -2.5582426 1.5324649 2.0289617 -0.14503172 -0.55946326 -0.17456275 -0.28939706
0.27999687 -0.10546263 0.14154957 0.48763567 0.07233203 -0.12967114 0.05495464 0.11850206
-0.6983098 0.2965683 0.38095272 0.8731929 -1.0305477 -0.77567446 0.18765865 -0.117997855
0.783819 -0.30813506 0.3481345 -0.7416474 -0.19461593 1.0094694 0.3165845 0.35473254
0.39021185 0.31946218 0.33256006 -1.5599289 0.0701451 -0.5687754 0.26514935 1.3060695
0.38751483 -0.08452011 0.33852285 -0.28748742 0.80381614 0.4825027 -0.21071175 -0.24734925
0.17795166 0.4152707 0.8959281 0.29324466 -1.2421677 0.8494596 -0.14274263 -0.08213664
0.6787792 3.228417 0.24159339 -0.61438465 0.6774792 0.22410744 -0.29623815 -0.36823994
-0.018187799 -1.2096643 0.68776506 1.9547111 0.6603857 -0.7403127 0.76630193 0.44907734
0.63441044 0.29971072 0.30844623 -0.4603473 -0.20891687 0.13126485 -0.01597946 -0.23481476
0.12122596 -0.49283668 0.511168 0.2692215 0.5141259 -0.023452992 -0.4176984 0.5706064
-0.18157801 -0.5645522 1.0424412 0.41045743 -0.30380216 -0.17976288 -0.09148471 0.1771503
2.2695565 3.576617 0.48409817 -0.3216588 0.013270213 0.05350412 0.048789006 -0.31445667
-0.16222623 -0.6828904 -0.12413997 0.21407138 0.029517695 -0.24960479 -0.09397131 -0.13918352
0.0017960138 -0.14001594 -0.09616571 0.18278734 0.14906974 0.34308308 0.005396953 0.32369342
0.19437711 -0.9184378 -0.24182326 -0.26672488 0.10021467 0.37021533 -0.09716858 0.55913657
0.28566745 -0.53510255 0.48959193 -0.24894032 0.12391043 0.22877677 -0.2783118 0.37054238
-0.11338168 -0.1238532 -0.31879994 0.047771093 -0.20280072 0.011268639 -0.01574608 -0.22176152
00000000: bb10 1a3d 1782 babe b7b8 c8be a9e8 2e3f
00000010: 28ca 4ebf c33e 20bf 0f49 d73e bda6 f33e
00000020: 03db b03e 58fa ec3f 6c59 353e cd3f fb3e
00000030: c1fe 07bf 114b 5abe 0bd1 933c dc12 cc3d
00000040: f1b4 9f3f a282 dbbf 60ef bebe 1fbb 46bf
00000050: d465 8dbe 071a b13e 5400 9f3e 6512 883e
00000060: 15b3 b83d 52b1 3e3e f576 183e 2c56 15bf
00000070: b19b 07bf 9640 433f 9165 f83b d303 773c
00000080: aebc 043f 93ce 283f 6157 a83e 968f 56be
00000090: 680f 303f 816f 8a3e 1811 473e 154b 91be
000000a0: 8b2f acbe 86df 403e 63ba e9be 811f a4be
000000b0: 35b8 edbe b29e 0c3f aaac 57bd 587a 363e
000000c0: d169 1a3d ccee 723f d0d8 113e 47f4 8fbe
000000d0: 39c5 61be d238 f0be 3307 73bd 09c3 0e3e
000000e0: 07ed 33bf e0ce 5abc 2a14 bbbe f1d9 f6be
000000f0: a157 0bbe 3c7d dd3d 42ff cc3d e5dc 84be
00000100: d413 6bbd 36c9 8a3d a606 97bd 861c 0abf
00000110: d7c5 413e 5508 01bf c82a a83e 8072 3e3c
00000120: 659e b63e 8d40 863c 8652 adbe fc76 8e3d
00000130: bdcc 95be 2778 11be 2be8 bd3e 9e90 62bb
00000140: ccbd a0be 8f13 803e 0740 b63e cf79 1b3f
00000150: 63a4 6abe ad79 d6be 79f4 35bf 0890 dc3d
00000160: e474 82be 8349 09bc a307 b5bc d752 903e
00000170: f617 6e3e cba2 bb3d 9c85 5b3c f33c 1fbe
00000180: 4ded 52be d6a9 093f 2573 bb3e 610a f43e
00000190: fd81 a43f b6bb f63d ef59 b0be cead bbbe
000001a0: 7b51 973d 0ca5 b43d 405c 543f 97ca dabe
000001b0: b98f 603f 6c24 7abf a2d4 dabe 83fe 9b3d
000001c0: 86c8 14bc 3fba 23c0 cf27 c43f 82da 0140
000001d0: 3283 14be fc38 0fbf 94c0 32be da2b 94be
000001e0: c05b 8f3e cbfc d7bd 5ff2 103e 62ab f93e
000001f0: d122 943d 83c8 04be 1e18 613d 35b1 f23d
00000200: 6ec4 32bf cdd7 973e 3c0c c33e 9289 5f3f
00000210: fde8 83bf 9a92 46bf 9729 403e dca8 f1bd
00000220: 5da8 483f e1c3 9dbe af3e b23e 9bdc 3dbf
00000230: 6649 47be 4b36 813f 5d17 a23e 819f b53e
00000240: d9c9 c73e 8c90 a33e 5045 aa3e c0ab c7bf
00000250: 3ca8 8f3d 449b 11bf a8c1 873e 492d a73f
00000260: 5868 c63e e118 adbd de52 ad3e 8d31 93be
00000270: e5c6 4d3f 980a f73e d2c4 57be 1f49 7dbe
00000280: f638 363e 5c9e d43e 8b5b 653f 2a24 963e
00000290: 5aff 9ebf 2f76 593f 202b 12be 4137 a8bd
000002a0: 79c4 2d3f 629e 4e40 4264 773e 5048 1dbf
000002b0: 476f 2d3f 6c7c 653e 87ac 97be f289 bcbe
000002c0: 94fe 94bc 48d6 9abf 5f11 303f f933 fa3f
000002d0: 0a0f 293f 2285 3dbf 5d2c 443f 77ed e53e
000002e0: b968 223f af73 993e aaec 9d3e a4b2 ebbe
000002f0: 4eee 55be 4b6a 063e 5be7 82bc 4873 70be
00000300: 5145 f83d 1755 fcbe e8db 023f 67d7 893e
00000310: c19d 033f 7d20 c0bc 91dc d5be 4313 123f
00000320: 96ef 39be 7e86 10bf b76e 853f 7a27 d23e
00000330: f58b 9bbe c313 38be 565c bbbd e366 353e
00000340: 6a40 1140 4be7 6440 b7db f73e 76b0 a4be
00000350: 4f6b 593c 2327 5b3d fbd6 473d 7700 a1be
00000360: a21e 26be e8d1 2ebf 193d febd 8735 5b3e
00000370: 18cf f13c 6698 7fbe 0874 c0bd 2086 0ebe
00000380: 3968 eb3a 5760 0fbe 87f2 c4bd 9b2c 3b3e
00000390: bda5 183e 96a8 af3e ecd8 b03b 25bb a53e
000003a0: cb0a 473e bd1e 6bbf 84a0 77be 2a90 88be
000003b0: 593d cd3d dd8c bd3e 5200 c7bd 9323 0f3f
000003c0: 0143 923e 7bfc 08bf cbab fa3e 36ea 7ebe
000003d0: c0c4 fd3d 7544 6a3e e27e 8ebe bbb7 bd3e
000003e0: a734 e8bd bfa6 fdbd bf39 a3be 9fab 433d
000003f0: feaa 4fbe 19a0 383c ecfd 80bc 7415 63be

r_k.mlp.0.bias f4 [10]
-0.47065747 0.2602676 0.12277486 0.05363429 -0.5253205 -0.12485433 0.08702109 -0.22034046
-0.14050111 0.08151445
00000000: 04fa f0be cb41 853e 6371 fb3d a1af 5b3d
00000010: 677b 06bf a1b3 ffbd 1d38 b23d eea0 61be
00000020: 86df 0fbe 0cf1 a63d

correction.mlp.0.weight f4 [10, 32]
-0.21971543 -0.23035766 -0.093614936 0.45173612 -0.05748815 0.42737362 -0.22718477 -0.07635984
-1.0506655 0.5249816 0.015242551 -0.21373217 0.12749349 0.026823346 0.14905463 0.3588549
0.017604005 -0.14538683 0.027743012 -0.20345855 0.10319245 -0.14074111 -0.451315 0.17191322
-0.012193285 0.42488077 -0.3565259 -0.202753 0.2597899 -0.4861127 0.0077329692 -0.28384292
-0.279788 -0.2902301 0.085833184 0.35604468 -0.24721903 0.600225 0.1781362 0.02731732
0.509111 0.29909727 0.17624702 -0.078863695 0.05737069 -0.33339718 0.3086586 -0.009735789
-0.2379719 -0.20317118 -0.108934745 -0.074565865 -0.032120094 -0.31041735 -0.033337317 0.24795243
0.23309691 -0.081703514 -0.061828516 -0.18759201 -0.16383055 -0.17420638 0.010225268 0.3204693
-0.51129186 -0.08359829 -0.41317207 0.3514383 0.19688202 0.1917695 -0.12731227 0.14180662
0.5803944 0.29957053 0.0091426065 -0.12802088 0.0011268985 -0.074426025 -0.2879983 -0.16307156
-0.04900755 0.10605742 -0.029606206 -0.14774759 -0.038294777 -0.1830216 -0.08066381 0.16364217
0.06852604 0.14920352 -0.22824967 0.11624111 -0.22282597 0.26875594 0.006478418 -0.21710333
-1.5283687 0.78016746 0.44233698 -5.332756 -0.6558198 0.14510646 -0.23684067 -0.11654399
-0.8381373 -3.0709066 -0.57420784 -0.15721077 -0.3849145 -0.17967133 0.12085204 -0.24706706
-0.048074745 0.5076717 0.0098106 -0.18927288 0.2870158 -0.19428523 0.44086918 0.116474815
-0.28083763 -0.103772186 0.40504652 0.48511302 -0.15750432 -0.013254549 0.025830444 -0.14758092
0.07482531 0.2564313 0.024602717 -0.21398315 -1.3063399 2.0997953 0.06671665 0.6520793
0.22286057 0.79721445 0.18984276 0.097055964 -0.3126699 0.08871754 -0.16209151 -0.3314538
-0.0010522689 -0.38727885 0.2695216 0.02313936 -0.031375665 0.13106014 0.14369711 0.2462119
0.11677221 0.066063836 -0.27903718 -0.112351924 -0.35129473 -0.017431613 -0.006527612 -0.22553688
0.21918456 -0.10901888 -0.69668615 0.5455094 0.60736907 -1.05976 -0.041953117 0.39262077
0.009737432 -0.53012204 -0.21872605 -0.11076203 0.13157824 -0.09722512 0.22156234 0.31492412
0.037223604 0.022301733 0.0557225 0.07775561 0.07524607 0.12501758 -0.3537818 0.6039671
0.10022493 -0.14376831 0.12108496 -0.31866774 -0.01602956 0.12187556 0.012561132 -0.06245364
-0.19844086 -0.034475565 0.4073379 0.11178498 0.53466415 0.26922056 -0.6340994 -0.28600302
-0.767054 -0.9969292 -0.16540708 -0.02381447 0.3144294 -0.007740573 0.013823605 0.23089056
0.12873875 0.14031808 -0.047195807 0.026749985 0.1027929 -0.05608278 -0.27249047 -0.16082981
0.23212439 -0.26576066 -0.32321683 -0.27959895 0.3221044 0.004003508 0.0045489236 0.32720062
0.04342954 -0.39108646 -0.034280643 -0.17476697 -0.22962372 -2.274713 -0.6927742 -0.18517737
0.1688971 0.54770124 0.03930333 -0.015598707 -0.20956148 -0.117628336 -0.05629546 -0.1997238
0.014257874 0.07124903 0.13682808 0.036665853 0.036156792 0.11994426 -0.16086908 0.1461132
-0.18144177 -0.15766136 0.1176212 0.19470485 -0.19749106 -0.12468064 -0.005249099 0.24259497
00000000: 15fd 60be e1e2 6bbe 30b9 bfbd f549 e73e
00000010: b278 6bbd b7d0 da3e 20a3 68be 8c62 9cbd
00000020: 357c 86bf 3265 063f e5bb 793c 9bdc 5abe
00000030: a78d 023e a2bc db3c c7a1 183e d4bb b73e
00000040: 4636 903c 49e0 14be 5045 e33c 7057 50be
00000050: 9056 d33d 701e 10be c212 e7be 050a 303e
00000060: 58c6 47bc f989 d93e 908a b6be 7c9e 4fbe
00000070: 2f03 853e c4e3 f8be d964 fd3b dc53 91be
00000080: 5f40 8fbe 0a99 94be 4fc9 af3d 7d4b b63e
00000090: fc26 7dbe 58a8 193f 5669 363e 93c8 df3c
000000a0: 1955 023f 4723 993e 197a 343e 4a83 a1bd
000000b0: 87fd 6a3d 09b3 aabe 8008 9e3e dc82 1fbc
000000c0: e8ae 73be 1b0c 50be 2e19 dfbd fdb5 98bd
000000d0: 5c90 03bd 06ef 9ebe b68c 08bd 3ee7 7d3e
000000e0: f5b0 6e3e 2c54 a7bd e63f 7dbd 1f18 40be
000000f0: 32c3 27be 2863 32be e287 273c 8d14 a43e
00000100: 06e4 02bf 9535 abbd 4a8b d3be b9ef b33e
00000110: 719b 493e 395f 443e 265e 02be c135 113e
00000120: ba94 143f 4f61 993e dfca 153c e817 03be
00000130: 70b4 933a ac6c 98bd 8374 93be 3bfc 26be
00000140: 24bc 48bd a234 d93d b788 f2bc 254b 17be
00000150: fcda 1cbd 046a 3bbe 1133 a5bd d091 273e
00000160: 6157 8c3d cfc8 183e 48ba 69be d20f ee3d
00000170: 7e2c 64be 619a 893e e948 d43b 5650 5ebe
00000180: 96a1 c3bf 0eb9 473f fe79 e23e f0a5 aac0
00000190: cee3 27bf ca96 143e 5c86 72be 9eae eebd
000001a0: 2b90 56bf bc89 44c0 49ff 12bf dcfb 20be
000001b0: 8313 c5be c3fb 37be 4681 f73d 26ff 7cbe
000001c0: 06ea 44bd c6f6 013f a4bc 203c c0d0 41be
000001d0: bcf3 923e b5f2 46be 9bb9 e13e 598a ee3d
000001e0: f3c9 8fbe 8386 d4bd 4262 cf3e bc60 f83e
000001f0: d048 21be 9c29 59bc 5e9a d33c 741f 17be
00000200: 033e 993d f74a 833e a38b c93c 661e 5bbe
00000210: 2536 a7bf 0c63 0640 bda2 883d abee 263f
00000220: 9035 643e 3f16 4c3f 2466 423e 47c5 c63d
00000230: 4516 a0be 8bb1 b53d 51fb 25be 50b4 a9be
00000240: 49ec 89ba 6a49 c6be bcfe 893e c18e bd3c
00000250: c583 00bd a134 063e 5625 133e f91e 7c3e
00000260: 4526 ef3d 7a4c 873d f6dd 8ebe c418 e6bd
00000270: e7dc b3be becc 8ebc 94e5 d5bb 24f3 66be
00000280: eb71 603e 4a45 dfbd 065a 32bf 81a6 0b3f
00000290: 8a7c 1b3f 37a6 87bf 08d7 2bbd 9705 c93e
000002a0: c089 1f3c 14b6 07bf b9f9 5fbe 34d7 e2bd
000002b0: 72bc 063e f71d c7bd 3de1 623e bc3d a13e
000002c0: c777 183d 20b2 b63c 473d 643d 553e 9f3d
000002d0: 9d1a 9a3d 9c04 003e e322 b5be 969d 1a3f
000002e0: ba42 cd3d 0038 13be 64fb f73d 6b28 a3be
000002f0: 6c50 83bc e599 f93d 35cd 4d3c 63cf 7fbd
00000300: 1534 4bbe 4036 0dbd 988e d03e 86ef e43d
00000310: c0df 083f 47d7 893e 5754 22bf fd6e 92be
00000320: a75d 44bf c136 7fbf 7960 29be 9016 c3bc
00000330: e4fc a03e a2a4 fdbb 677c 623c 936e 6c3e
00000340: 17d4 033e 8baf 0f3e 6450 41bd c922 db3c
00000350: 1585 d23d 0fb7 65bd df83 8bbe 92b0 24be
00000360: 04b2 6d3e c811 88be ad7c a5be 9827 8fbe
00000370: deea a43e dc2f 833b 230f 953b d786 a73e
00000380: 2ce3 313d 7c3c c8be dc69 0cbd 1df6 32be
00000390: 7b22 6bbe e694 11c0 a659 31bf 239f 3dbe
000003a0: 5df3 2c3e 2636 0c3f 87fc 203d b891 7fbc
000003b0: 4997 56be 20e7 f0bd 1196 66bd 6584 4cbe
000003c0: dc99 693c 03eb 913d a91c 0c3e ef2e 163d
000003d0: 2519 143d 56a5 f53d ddba 24be b39e 153e
000003e0: dfcb 39be fb71 21be 62e3 f03d b560 473e
000003f0: 193b 4abe 9058 ffbd a200 acbb d16a 783e

correction.mlp.0.bias f4 [10]
0.11671601 -0.062513545 0.04916818 0.10149252 0.037803154 -0.0016929614 -0.014570067 -0.0055987695
-0.06663359 0.06540454
00000000: ce08 ef3d 1a07 80bd 9364 493d 4fdb cf3d
00000010: 7bd7 1a3d 5ce6 ddba 4ab7 6ebc e275 b7bb
00000020: 3177 88bd d1f2 853d

autoencoder.encoder.mlp.mlp.0.weight f4 [10, 1]
0.42164797 -0.27794275 0.3099546 0.033500414 -0.364353 0.20088066 0.22782618 0.08621526
-0.15661114 0.17406303
00000000: 3ee2 d73e 834e 8ebe 5fb2 9e3e bb37 093d
00000010: 7a8c babe a9b3 4d3e 444b 693e a091 b03d
00000020: ac5e 20be 943d 323e

autoencoder.encoder.mlp.mlp.0.bias f4 [10]
0.017719608 0.030585453 -0.024856621 0.09506301 0.15436438 -0.015072342 -0.106978565 0.078223534
-0.0004742778 -0.061182942
00000000: b628 913c 588e fa3c 1da0 cbbc 65b0 c23d
00000010: b211 1e3e fcf1 76bc 9417 dbbd a933 a03d
00000020: 7da8 f8b9 f79a 7abd

autoencoder.encoder.mlp.mlp.2.weight f4 [10, 10]
-0.051000312 -0.16571541 0.4220379 -0.33580524 0.14421804 -0.44084495 -0.13612698 0.14010899
0.042270444 0.2670429 0.22141299 -0.37409198 0.44051132 0.4341861 0.09856486 -0.3628481
-0.018837292 -0.2220899 -0.14371927 0.030679764 -0.373091 -0.29698247 0.47797945 -0.16539803
-0.05516144 0.5780437 -0.18612191 0.52394104 0.034412675 -0.027243331 0.16859505 -0.06344238
-0.110694 0.27130264 0.23359074 0.28143328 -0.17543396 -0.33821627 -0.43345425 -0.21631506
-0.13231198 -0.18098062 0.36455294 0.19970025 0.17559922 -0.01426085 0.05308696 -0.0057761613
-0.13040017 -0.2889923 0.1804844 -0.47770923 -0.329734 -0.1614623 0.38481304 0.39881492
-0.17247076 0.3092373 -0.041927375 0.002271792 -0.47161663 -0.4977889 0.49287373 0.043114055
0.30332604 0.48739368 -0.5019747 0.4542747 0.32005838 0.13015553 0.3969208 -0.118656464
-0.5250956 -0.49488887 -0.013351491 -0.17461967 -0.34200212 -0.15454897 0.027169107 0.09927083
-0.28848493 0.046992216 0.2264282 -0.3786066 -0.3748103 0.20482375 0.005853547 -0.35730785
-0.2923185 0.30458024 0.41678765 -0.16444674 -0.06840312 0.2759048 0.15158467 -0.2549944
-0.08055056 -0.7183514 0.054545034 -0.18256652
00000000: b4e5 50bd 4db1 29be 5a15 d83e aaee abbe
00000010: e5ad 133e 6eb6 e1be df64 0bbe bb78 0f3e
00000020: c623 2d3d d9b9 883e 16ba 623e fc88 bfbe
00000030: b38a e13e a44d de3e 60dc c93d 3ac7 b9be
00000040: aa50 9abc 896b 63be 252b 13be 2154 fb3c
00000050: c905 bfbe 160e 98be b9b9 f43e 1a5e 29be
00000060: f6f0 61bd acfa 133f be96 3ebe 0021 063f
00000070: 4ef4 0c3d 682d dfbc 2ea4 2c3e 14ee 81bd
00000080: 89b3 e2bd 2ee8 8a3e 6932 6f3e 0618 903e
00000090: f6a4 33be af2a adbe b7ed ddbe b281 5dbe
000000a0: cb7c 07be fc52 39be afa6 ba3e 397e 4c3e
000000b0: 48d0 333e 57a6 69bc b671 593d f445 bdbb
000000c0: 9f87 05be ccf6 93be e7d0 383e 4e96 f4be
000000d0: e5d2 a8be 6056 25be 3706 c53e 7831 cc3e
000000e0: 2d9c 30be 5a54 9e3e 0abc 2bbd 58e2 143b
000000f0: bc77 f1be 30de febe f259 fc3e 5d98 303d
00000100: 8d4d 9b3e aa8b f93e 6a81 00bf b296 e83e
00000110: b1de a33e 7e47 053e 3439 cb3e 2902 f3bd
00000120: aa6c 06bf 1362 fdbe 36c0 5abc 80cf 32be
00000130: e71a afbe 1642 1ebe bf91 de3c 814e cb3d
00000140: 4cb4 93be e97a 403d cbdc 673e b9d8 c1be
00000150: 23e7 bfbe 51bd 513e 1ccf bf3b 0ef1 b6be
00000160: c5aa 95be f1f1 9b3e 3165 d53e ba64 28be
00000170: ef16 8cbd 6543 8d3e 0339 1b3e a08e 82be
00000180: b1f7 a4bd e1e5 37bf 9d6a 5f3d b8f2 3abe

autoencoder.encoder.mlp.mlp.2.bias f4 [10]
-0.051166207 0.06685052 0.020285543 -0.033424262 -0.05187386 0.12830456 0.021698702 0.14800474
-0.1595409 -0.03180418
00000000: a893 51bd ede8 883d de2d a63c e1e7 08bd
00000010: af79 54bd 4562 033e 7ac1 b13c 8e8e 173e
00000020: b15e 23be 1a45 02bd

autoencoder.decoder.mlp.mlp.0.weight f4 [10, 10]
0.36054942 0.41389358 0.031530745 -1.1823022 -0.0045660236 0.8459208 -0.47973448 -1.0046238
0.0013439282 0.23224834 0.44236577 -0.7398307 -0.5648572 0.02231121 -0.108169675 0.22930202
0.37257695 -0.89560354 -0.92532814 0.3453113 0.6980023 0.56347007 0.17488712 -1.0968436
0.10595025 0.9404556 -0.6537753 -1.1631655 -0.047096916 -0.040445827 0.42207175 -0.2008728
-0.7634527 0.164467 0.10892163 0.4448773 0.59400195 -0.43614605 -0.8534604 0.47174028
0.18298636 -0.75467426 -0.34629783 -0.53082776 0.3100216 -0.24611783 0.9684117 -0.79668003
-0.29251307 -0.45609003 0.250909 0.37768155 -0.23849574 0.51400506 -0.1027173 -0.3701013
-0.10384789 0.269614 0.5458258 0.17154424 -0.2002549 0.21520527 -0.55826724 0.011019373
-0.24126777 0.3081242 0.99155194 0.12840518 -0.8140704 0.096040554 0.011663858 0.18116635
0.21617119 0.022609543 0.28149837 -0.2264315 -0.42834803 0.3683597 -0.5860275 -0.33500233
1.0038472 0.8288986 0.6436946 -0.8419871 0.18737899 0.79048806 0.27465817 -1.065423
-0.38992438 -0.02845562 1.2291415 -0.5816099 -0.0002845064 0.72236717 -0.37909526 -0.38807723
1.5043497 -0.16284464 0.63439196 -1.582954
00000000: ef99 b83e dce9 d33e 6226 013d ae55 97bf
00000010: 959e 95bb 448e 583f c29f f5be 8397 80bf
00000020: bf26 b03a 82d2 6d3e c47d e23e 8b65 3dbf
00000030: 7b9a 10bf 00c6 b63c 1088 ddbd 26ce 6a3e
00000040: 68c2 be3e 4646 65bf 4ee2 6cbf a5cc b03e
00000050: 47b0 323f 933f 103f 9c15 333e 5f65 8cbf
00000060: 72fc d83d b3c1 703f d15d 27bf 9be2 94bf
00000070: b2e8 40bd 86aa 25bd ca19 d83e 99b1 4dbe
00000080: a371 43bf 0a6a 283e 4e12 df3d f5c6 e33e
00000090: 8310 183f 894e dfbe 617c 5abf f187 f13e
000000a0: c760 3b3e 5532 41bf f34d b1be 54e4 07bf
000000b0: 27bb 9e3e 5006 7cbe d4e9 773f 39f3 4bbf
000000c0: 46c4 95be a284 e9be 2577 803e 7a5f c13e
000000d0: 3a38 74be d695 033f 735d d2bd eb7d bdbe
000000e0: 34ae d4bd d90a 8a3e 3dbb 0b3f 4ba9 2f3e
000000f0: 9f0f 4dbe c55e 5c3e 9aea 0ebf 9a8a 343c
00000100: e60e 77be 75c2 9d3e 59d6 7d3f a67c 033e
00000110: eb66 50bf e9b0 c43d c419 3f3c ac83 393e
00000120: fb5b 5d3e a637 b93c 8e20 903e a9dd 67be
00000130: 6f50 dbbe a599 bc3e e605 16bf 6d85 abbe
00000140: 117e 803f b332 543f 2bc9 243f 778c 57bf
00000150: 47e0 3f3e 6d5d 4a3f ff9f 8c3e c85f 88bf
00000160: 2ba4 c7be c31b e9bc 8254 9d3f 63e4 14bf
00000170: cd29 95b9 0eed 383f c618 c2be 0fb2 c6be
00000180: 888e c03f bfc0 26be 8367 223f 3d9e cabf

autoencoder.decoder.mlp.mlp.0.bias f4 [10]
0.09488448 -0.02550695 0.09029364 -0.1405231 0.088286474 -0.19280894 0.4186064 -0.14306727
0.2750008 0.17470035
00000000: cb52 c23d f4f3 d0bc dfeb b83d 4ae5 0fbe
00000010: 8acf b43d b56f 45be 9453 d63e 3a80 12be
00000020: e8cc 8c3e a6e4 323e

autoencoder.decoder.mlp.mlp.2.weight f4 [1, 10]
0.9036081 -0.921325 1.1745484 -0.8143382 -1.3391405 -0.69049907 -0.8874119 -0.5139267
0.97823274 -3.3850744
00000000: dc52 673f f5db 6bbf 9a57 963f 7878 50bf
00000010: f568 abbf 8cc4 30bf 6d2d 63bf b390 03bf
00000020: 766d 7a3f 0fa5 58c0

exp_avg f4 [10]
0.0 0.0 0.0 0.0 0.0 0.0 0.0 0.0
0.0 0.0
00000000: 0000 0000 0000 0000 0000 0000 0000 0000
00000010: 0000 0000 0000 0000 0000 0000 0000 0000
00000020: 0000 0000 0000 0000

exp_avg_sq f4 [10]
0.0 0.0 0.0 0.0 0.0 0.0 0.0 0.0
0.0 0.0
00000000: 0000 0000 0000 0000 0000 0000 0000 0000
00000010: 0000 0000 0000 0000 0000 0000 0000 0000
00000020: 0000 0000 0000 0000

exp_avg f4 [10]
0.0 0.0 0.0 0.0 0.0 0.0 0.0 0.0
0.0 0.0
00000000: 0000 0000 0000 0000 0000 0000 0000 0000
00000010: 0000 0000 0000 0000 0000 0000 0000 0000
00000020: 0000 0000 0000 0000

exp_avg_sq f4 [10]
0.0 0.0 0.0 0.0 0.0 0.0 0.0 0.0
0.0 0.0
00000000: 0000 0000 0000 0000 0000 0000 0000 0000
00000010: 0000 0000 0000 0000 0000 0000 0000 0000
00000020: 0000 0000 0000 0000

exp_avg f4 [10, 23]
2.1981905e-06 1.2542759e-05 8.094604e-06 1.689669e-07 1.5237382e-06 3.3825297e-06 1.0829879e-07 -1.0604796e-05
5.882755e-07 -2.1817239e-07 2.8847212e-06 1.5575144e-05 1.0727484e-05 -2.5494924e-07 1.7967814e-06 3.5566534e-06
-2.2156098e-07 -9.693387e-06 2.0040359e-06 -3.2607923e-07 -3.7177158e-06 -1.6950894e-06 -1.0514455e-06 -1.1050263e-06
-4.46685e-06 -2.8018137e-06 1.7940972e-07 -6.4165624e-07 -1.1258724e-06 -4.5893078e-08 3.0925025e-06 4.4007587e-07
9.256632e-08 -1.211018e-06 -4.7191274e-06 -3.5429196e-06 1.922598e-07 -7.6564436e-07 -1.2698928e-06 1.8875737e-08
3.5157796e-06 1.0449344e-07 6.9660274e-08 6.5603876e-07 -2.598099e-06 -6.1196573e-07 1.947094e-07 -1.9880504e-06
-2.23035e-06 -2.0349678e-07 2.9816812e-07 -6.9129044e-07 2.0629587e-07 -1.4313389e-06 -8.28709e-07 4.8717675e-07
1.8555973e-07 -1.4382333e-06 -1.3942858e-06 -1.7930805e-07 3.9997303e-07 -7.8330646e-07 -1.2335268e-07 -8.505456e-07
2.397691e-07 4.206519e-07 8.18679e-07 -4.243227e-06 1.144188e-06 -1.1917205e-07 2.8165312e-06 2.6757991e-06
3.8627607e-07 3.2673228e-07 -9.014673e-07 -1.1189047e-06 -2.042496e-06 5.8114956e-06 -1.0336266e-07 3.386345e-07
4.912192e-06 4.061325e-06 2.2909724e-07 5.6578074e-07 -6.2288404e-07 -1.117811e-06 -1.8127741e-06 6.336762e-06
-3.2639795e-07 -1.4349579e-06 5.489688e-07 -3.8485755e-06 1.3078902e-06 4.117066e-06 4.8052298e-06 -6.5689115e-08
9.269602e-07 -2.0408706e-06 -1.8629452e-06 -1.9763609e-06 7.330738e-06 1.1972912e-08 1.3233985e-06 4.196662e-06
4.1568373e-06 -2.0057324e-07 7.638901e-07 -1.7760551e-06 -1.520648e-06 -2.3050284e-06 6.6653047e-06 -9.578517e-09
2.0350003e-06 5.333425e-07 -7.389617e-06 2.7296282e-06 1.7399701e-05 9.996115e-06 -8.5628943e-07 1.109975e-06
8.479622e-06 2.751495e-06 -7.987101e-06 -1.0280947e-05 -5.49318e-07 1.0254253e-06 1.05543e-05 4.6319747e-06
6.9474936e-08 7.2495607e-07 8.7459775e-06 2.9227785e-06 -7.037129e-06 -1.1646955e-05 -2.3352042e-07 8.068515e-06
-5.3062645e-06 1.375502e-05 -2.7783952e-07 6.6187204e-07 9.188202e-08 5.466115e-08 -1.3591497e-07 1.0502206e-06
5.0453366e-07 4.879335e-07 -1.7674143e-06 -1.04306636e-07 -3.107657e-07 2.6869598e-06 1.4096594e-06 1.3489016e-07
7.148822e-08 1.8352482e-06 5.5372175e-07 5.505946e-07 -1.868067e-06 -2.039333e-07 4.473115e-06 4.6825985e-06
3.8780886e-06 1.1151457e-06 4.972051e-06 3.3360354e-06 -2.6185964e-07 5.331565e-07 8.105081e-07 8.13054e-08
-2.9685334e-06 -2.932424e-07 3.1601055e-09 8.594445e-07 4.2074166e-06 2.9058178e-06 -9.287542e-08 5.3048433e-07
1.0460144e-06 1.1950507e-07 -2.9841142e-06 -1.2762972e-07 3.656537e-08 -2.4598162e-07 -3.6361502e-07 2.334696e-07
-1.2242707e-06 2.1259186e-06 -4.5640502e-07 4.7533973e-08 -6.0414527e-07 3.832353e-06 2.036587e-06 9.681019e-07
-7.126929e-06 -2.1349311e-07 -1.0695168e-06 -4.2051404e-08 -2.904956e-06 9.948938e-08 -7.3794104e-07 3.7857058e-06
2.6015207e-06 -1.3158601e-06 -1.0178168e-05 3.9615188e-08 7.882554e-06 8.675986e-09 1.0998156e-05 -4.888319e-07
2.459206e-06 5.093903e-07 -3.9902538e-08 -4.3648697e-07 3.68914e-06 1.807907e-06 1.4358951e-06 -6.922663e-06
5.509953e-08 -2.2949e-07 1.5970757e-06 -3.151467e-07 -8.298463e-08 -4.055233e-07 3.6079311e-06 2.020366e-06
-1.8697094e-07 -7.818692e-06 1.0083134e-07 -2.4531352e-07 4.0682644e-06 9.14035e-06
00000000: a084 1336 bd6e 5237 0fce 0737 456d 3534
00000010: 3f83 cc35 6bff 6236 e491 e833 41eb 31b7
00000020: fce9 1d35 c542 6ab4 2297 4136 5ea7 8237
00000030: 31fa 3337 f5df 88b4 f028 f135 d7ae 6e36
00000040: 38e6 6db4 c8a0 22b7 137d 0636 fd0f afb4
00000050: df7d 79b6 d482 e3b5 641f 8db5 6a50 94b5
00000060: f3e1 95b6 cb06 3cb6 c5a3 4034 483e 2cb5
00000070: ae1c 97b5 f91b 45b3 ca88 4f36 9143 ec34
00000080: dfc8 c633 438a a2b5 ff58 9eb6 e5c2 6db6
00000090: f96f 4e34 ae86 4db5 2f71 aab5 2f24 a232
000000a0: a2f0 6b36 e065 e033 2498 9533 a41a 3035
000000b0: 005b 2eb6 f745 24b5 5011 5134 726a 05b6
000000c0: 1fad 15b6 c580 5ab4 ea13 a034 1e91 39b5
000000d0: 2d82 5d34 6e1c c0b5 7374 5eb5 88c6 0235
000000e0: 453e 4734 5209 c1b5 4c23 bbb5 d287 40b4
000000f0: e0bb d634 6944 52b5 ed72 04b4 0c51 64b5
00000100: 9db9 8034 f5d5 e134 31c3 5b35 0b61 8eb6
00000110: 0092 9935 87eb ffb3 a303 3d36 e191 3336
00000120: 6161 cf34 be69 af34 5cfc 71b5 462d 96b5
00000130: d011 09b6 5e00 c336 39f8 ddb3 92cd b534
00000140: 68d3 a436 8446 8836 c5fd 7534 28e0 1735
00000150: 4434 27b5 b207 96b5 724e f3b5 5fa0 d436
00000160: cb3b afb4 c798 c0b5 d95c 1335 0323 81b6
00000170: c48a af35 5425 8a36 9c3c a136 f910 8db3
00000180: 38d4 7835 e4f5 08b6 4f0a fab5 9fa1 04b6
00000190: 8ffa f536 6db1 4d32 a09f b135 0dd1 8c36
000001a0: f67a 8b36 275d 57b4 210e 4d35 ca60 eeb5
000001b0: 1119 ccb5 16b0 1ab6 88a6 df36 c38e 24b2
000001c0: 0a91 0836 042b 0f35 54f4 f7b6 a82e 3736
000001d0: 93f5 9137 fdb4 2737 c3db 65b5 73fa 9435
000001e0: b343 0e37 53a6 3836 5600 06b7 557c 2cb7
000001f0: d874 13b5 58a1 8935 6012 3137 5c6c 9b36
00000200: 4032 9533 9a9a 4235 b0bb 1237 f424 4436
00000210: 7a20 ecb6 4a67 43b7 9bbd 7ab4 025e 0737
00000220: 770c b2b6 5cc5 6637 f929 95b4 80ab 3135
00000230: ad50 c533 92c4 6a33 06f0 11b4 4ef5 8c35
00000240: 4a6f 0735 89fa 0235 e537 edb5 2eff dfb3
00000250: 50d7 a6b4 9e51 3436 8733 bd35 53d6 1034
00000260: 1185 9933 a652 f635 78a3 1435 93cc 1335
00000270: 4bba fab5 c2f8 5ab4 c417 9636 371f 9d36
00000280: 8720 8236 1dac 9535 98d5 a636 a7e0 5f36
00000290: b795 8cb4 3c1e 0f35 b191 5935 1e9a ae33
000002a0: 0437 47b6 ee6e 9db4 2a29 5931 94b4 6635
000002b0: 6f2d 8d36 9201 4336 cd72 c7b3 9b66 0e35
000002c0: c864 8c35 4e51 0034 b142 48b6 970a 09b4
000002d0: 0d0c 1d33 750f 84b4 de36 c3b4 a3af 7a34
000002e0: 9f51 a4b5 01ab 0e36 d407 f5b4 2828 4c33
000002f0: 8c2c 22b5 a997 8036 4cac 0836 baef 8135
00000300: db23 efb6 8a3c 65b4 518c 8fb5 029c 34b3
00000310: c4f2 42b6 dda6 d533 ec16 46b5 ee0d 7e36
00000320: c995 2e36 9c9c b0b5 e6c2 2ab7 5c25 2a33
00000330: 503f 0437 640d 1532 b884 3837 4638 03b5
00000340: d608 2536 09bd 0835 4e61 2bb3 5056 eab4
00000350: f192 7736 36a7 f235 fbb8 c035 3949 e8b6
00000360: 93a6 6c33 bb69 76b4 1a5b d635 6f31 a9b4
00000370: 4835 b2b3 b3b6 d9b4 c91f 7236 a095 0736
00000380: 2ec2 48b4 072d 03b7 9e88 d833 a2b3 83b4
00000390: 2082 8836 8159 1937
