dirichlet/dsgps/results/constant_dataset/30_ite_gamma_1/ckpt/final_model.pt (torch, 80909 bytes, 69 tensors)

laynorm.weight f4 [10]
0	0x3f800000	1.0
1	0x3f800000	1.0
2	0x3f800000	1.0
3	0x3f800000	1.0
4	0x3f800000	1.0
5	0x3f800000	1.0
6	0x3f800000	1.0
7	0x3f800000	1.0
8	0x3f800000	1.0
9	0x3f800000	1.0

laynorm.bias f4 [10]
0	0x00000000	0.0
1	0x00000000	0.0
2	0x00000000	0.0
3	0x00000000	0.0
4	0x00000000	0.0
5	0x00000000	0.0
6	0x00000000	0.0
7	0x00000000	0.0
8	0x00000000	0.0
9	0x00000000	0.0

phi_to.mlp.mlp.0.weight f4 [10, 23]
0	0xbeee5fcc	-0.46557462
1	0x3e8ce777	0.27520344
2	0x3e728a36	0.23685536
3	0x3d1c50c4	0.03816296
4	0x3ef5ba61	0.47993758
5	0x3ed83fd7	0.42236206
6	0xbd9767b3	-0.07392826
7	0x3cf1b098	0.029503152
8	0x3eb4593f	0.3522434
9	0x3f2c2c63	0.6725523
10	0xbe952c76	-0.29135484
11	0xbea7b2f8	-0.3275373
12	0xbe7528ed	-0.23941393
13	0x3e07efe1	0.132751
14	0x3ea4bacc	0.32173765
15	0x3d03d999	0.03218994
16	0x3dba2ada	0.090902045
17	0xbe1821ae	-0.14856598
18	0x3b9fcc7b	0.004876671
19	0xbc286fa3	-0.0102805225
20	0x3a5a94fb	0.000833824
21	0x3b00aa88	0.0019632895
22	0x3df77784	0.12083343
23	0xbdaef965	-0.08543662
24	0xbe458600	-0.19289398
25	0xbe02a5bc	-0.12758535
26	0x3eb404b1	0.3515983
27	0xbe9888e1	-0.2979193
28	0xbf3d08aa	-0.73841345
29	0x3ee15758	0.4401195
30	0x3e407723	0.18795447
31	0xbe506d6e	-0.20354244
32	0x3e05e8d3	0.13077097
33	0x3ee60687	0.44926855
34	0x3ebe39ff	0.37153623
35	0x3ec76ee5	0.38951793
36	0xbe9a3605	-0.3011934
37	0xbf8b72af	-1.0894374
38	0x3ed89882	0.42303854
39	0xbe28cfcf	-0.16485523
40	0x3c83d3bc	0.016092174
41	0x3f0a6b2c	0.5406978
42	0x3f19df17	0.60106033
43	0xba85d4a0	-0.0010210462
44	0xba87b923	-0.0010354858
45	0xbe5480d0	-0.20752263
46	0xbe91b7ea	-0.28460628
47	0xbea0c3d1	-0.31399396
48	0xbee31f77	-0.44359943
49	0x3f14fbe6	0.58196867
50	0xbecad734	-0.39617312
51	0xbf1ac611	-0.60458475
52	0x3d9838f6	0.074327394
53	0x3d2b54fb	0.04182909
54	0x3d53e204	0.051729217
55	0x3ec96697	0.39336082
56	0xbf07d172	-0.53053963
57	0x3efe790c	0.49701726
58	0x3e62137c	0.22077745
59	0xbeabedda	-0.33579904
60	0xbf1d4598	-0.61434317
61	0x3e89309b	0.26794896
62	0xbdccec2d	-0.100059845
63	0xbcdfde69	-0.027327733
64	0xbc653f5a	-0.013992155
65	0xbe3b47f0	-0.1828916
66	0x39d3b8fb	0.00040382877
67	0x3a1b6bbb	0.0005928834
68	0xbe285f97	-0.16442715
69	0xbd70e053	-0.058807682
70	0x3e7bfa53	0.2460721
71	0x3ea407e0	0.32037258
72	0xbe54d5e7	-0.20784722
73	0xbf3c346b	-0.73517483
74	0xbe0fd99b	-0.14047854
75	0x3e9b3a2c	0.3031782
76	0xbe326db5	-0.17424662
77	0x3dcba694	0.09943882
78	0xbdabeba8	-0.08394557
79	0xbdd98005	-0.10620121
80	0x3e6a0185	0.22852142
81	0xbeb7ded9	-0.35912207
82	0xbde8cdf3	-0.11367407
83	0xbee8f6a5	-0.45500675
84	0xbe2d2d56	-0.16911826
85	0x3e600fbb	0.21881
86	0x3ef517ac	0.47869623
87	0xbe9c7b44	-0.30562794
88	0x3ea2ea32	0.31819302
89	0xbaa81157	-0.001282255
90	0xb9157664	-0.00014253851
91	0xbe0a18be	-0.13486001
92	0x3d1bee40	0.03806901
93	0xbe95da29	-0.29268005
94	0xbe195e0d	-0.14977284
95	0xbdbab8bd	-0.09117267
96	0x3e5465eb	0.20742004
97	0xbe1b981c	-0.15194744
98	0x3cacdc79	0.021101223
99	0x3b520113	0.0032044097
100	0xbe670cd6	-0.2256349
101	0x3e7925c3	0.24330811
102	0xbdd36b1f	-0.10323166
103	0x3ed4f44d	0.41592637
104	0x3d7e1544	0.062032
105	0x3e7ccf9e	0.24688575
106	0xbf0e705d	-0.556402
107	0x3d589e12	0.052885123
108	0xbd6cebb4	-0.05784197
109	0x3d0f1035	0.034927566
110	0x3e5fa8ac	0.21841687
111	0x3f236bd3	0.638364
112	0xba201307	-0.0006106351
113	0xb929f84e	-0.00016209597
114	0x3e0ed116	0.13946947
115	0xbe05c166	-0.13062057
116	0x3e903fb7	0.2817361
117	0xbc4fceb4	-0.012683559
118	0xbe236fa6	-0.15960559
119	0xbdfd4960	-0.12367511
120	0xbe61d334	-0.22053224
121	0x3eac9b86	0.33712405
122	0xbe508a5a	-0.20365277
123	0xbd706160	-0.058686614
124	0xbec95e35	-0.39329687
125	0xbd67da82	-0.05660487
126	0x3e5400bc	0.20703405
127	0xbf2f08df	-0.6837291
128	0x3d86327b	0.06552597
129	0xbf092de0	-0.53585625
130	0xbd9284a0	-0.071542025
131	0xbe8f9d45	-0.28049675
132	0x3c2a8228	0.010407008
133	0x3ec37e1f	0.3818216
134	0x3f109eb7	0.5649218
135	0xbac39574	-0.001492186
136	0xb98f88de	-0.0002737706
137	0xbdffa5d4	-0.12482801
138	0x3d20a2f2	0.039217897
139	0xbf23876a	-0.638785
140	0xbe97addb	-0.2962483
141	0x3f6e9b45	0.9320567
142	0xbec71725	-0.38884845
143	0xbe432d96	-0.19060358
144	0xbe46e42c	-0.19422978
145	0x3f3304d8	0.69929266
146	0x3f0fca33	0.56167907
147	0xc045266d	-3.0804703
148	0x3f937504	1.1520085
149	0x3e70ddea	0.23522153
150	0x3ed12445	0.40847984
151	0x3f3ad433	0.7298004
152	0xc045cb46	-3.0905318
153	0xbd72f91e	-0.059319608
154	0xbe3cb3e6	-0.18428001
155	0x3f1ae0f6	0.60499513
156	0x3ed368ae	0.41290802
157	0xbfe04901	-1.7522279
158	0x39ab3a83	0.00032659256
159	0xbac4127a	-0.001495912
160	0x3b0ba4b1	0.002130788
161	0xbef5d74d	-0.48015824
162	0x3eca140b	0.39468417
163	0xbe8822a4	-0.2658893
164	0xbe1f1359	-0.15534724
165	0xbf1d9f75	-0.6157144
166	0x3d93b40c	0.072120756
167	0x3d91f6c0	0.07127142
168	0x3ea9667e	0.33086008
169	0x3ea2e73c	0.31817043
170	0xbeb017a2	-0.3439303
171	0xbed9c28d	-0.42531243
172	0x3ed0673f	0.4070377
173	0x3e4400b5	0.19140895
174	0xbecd768d	-0.4012951
175	0xbeecc81d	-0.46246424
176	0x3e21cee3	0.15801577
177	0x3e08370c	0.13302249
178	0x3dec658a	0.115428045
179	0x3e2109cf	0.15726398
180	0xbeee53cf	-0.46548316
181	0xb993eca7	-0.00028214345
182	0x3aebba54	0.0017984607
183	0xbde43e63	-0.11144712
184	0xbe7272ec	-0.23676652
185	0xbd2cc9c8	-0.04218462
186	0x3e1a9ec8	0.15099633
187	0x3e349020	0.17633104
188	0xbe9b26c1	-0.30303004
189	0xbd68f846	-0.056877397
190	0x3e0505d4	0.12990505
191	0xbd490173	-0.049073648
192	0xbddd5ee4	-0.108091146
193	0xbebc641a	-0.3679512
194	0xbe6ab93a	-0.22922221
195	0xbdd42476	-0.10358517
196	0xbebe740a	-0.37197906
197	0x3e80aa1a	0.25129777
198	0x3dd12361	0.10211826
199	0xbe92a491	-0.2864118
200	0xbf818047	-1.0117272
201	0xbeec0d03	-0.46103677
202	0x3e976e21	0.2957621
203	0x3eacbde4	0.33738625
204	0x3a6eacaf	0.00091047114
205	0x3b2acef0	0.0026063286
206	0x3ca80368	0.020509437
207	0xbd131a4d	-0.035913754
208	0x3e12074b	0.14260595
209	0xbe2038e8	-0.15646708
210	0x3e650a3c	0.22367185
211	0x3e88a648	0.26689363
212	0xbe39303b	-0.18084805
213	0xbe72200c	-0.23645037
214	0xbd2207d2	-0.03955824
215	0x3f217fcc	0.6308563
216	0xbd901edb	-0.07037135
217	0x3f063f76	0.52440584
218	0xbe706faf	-0.23480104
219	0x3dcbb045	0.0994573
220	0x3e4a6412	0.19764736
221	0xbd69df37	-0.05709764
222	0xbe35ced0	-0.17754674
223	0x3f66bdcf	0.90133375
224	0xbd4be5ca	-0.04977969
225	0xbedd0b45	-0.4317266
226	0x3e98269e	0.29716963
227	0xb99a90d1	-0.00029481066
228	0xba5d8f3c	-0.00084518245
229	0x3c8a4656	0.016879242

phi_to.mlp.mlp.0.bias f4 [10]
0	0xbca9301a	-0.02065282
1	0x3d7905ee	0.06079667
2	0x3d5273d0	0.05137998
3	0x3dacb6d4	0.08433309
4	0x3d882893	0.06648364
5	0x3e0eaa7b	0.1393222
6	0x3db37e69	0.08764345
7	0xbd7780ad	-0.06042545
8	0x3e483f0b	0.19555299
9	0x3dd915e5	0.10599879

phi_to.mlp.mlp.2.weight f4 [10, 10]
0	0x3f395075	0.7238839
1	0xbe0b0c05	-0.13578804
2	0xbf369c22	-0.7133199
3	0xbec1b141	-0.37830546
4	0x3e8dbf9d	0.27685252
5	0x3ec2ac1f	0.38021943
6	0x3e3c7692	0.18404606
7	0x3e453554	0.19258624
8	0xbf82d057	-1.021983
9	0xbe74c01d	-0.2390141
10	0x3d69bf6a	0.057067312
11	0x3da6bc50	0.081413865
12	0xbf0a4c39	-0.54022557
13	0x3f032320	0.5122547
14	0xbd0f18f3	-0.034935903
15	0xbe4c8dbe	-0.19975945
16	0xbf1434a4	-0.57892823
17	0xbdb25822	-0.08708216
18	0xbf118f2d	-0.56859094
19	0xbec3353e	-0.38126558
20	0x3e1cbad6	0.15305647
21	0x3e2503e0	0.1611476
22	0xbe650f4f	-0.22369121
23	0xbe9d9c69	-0.30783394
24	0xbce592c0	-0.028024077
25	0xbf2d2715	-0.6763776
26	0x3ea6fbd3	0.32614002
27	0xbd81ead4	-0.06343618
28	0xbdaa1f7d	-0.08306787
29	0xbef58f93	-0.479611
30	0x3ce5b180	0.02803874
31	0xbea64f83	-0.32482538
32	0x3dc3b30f	0.09555637
33	0x3d6a0976	0.05713793
34	0xbea9c6df	-0.3315954
35	0x3e36d91b	0.17856257
36	0xc0128742	-2.2895055
37	0x3e4b14d2	0.19832161
38	0x3f32941d	0.6975725
39	0x3e97ec13	0.29672298
40	0xbe5b8312	-0.21436718
41	0xbed81700	-0.42205048
42	0x3d6e3b73	0.058162164
43	0xbebdd280	-0.3707466
44	0xbea30ad3	-0.31844196
45	0x3f327c46	0.69720876
46	0x3e708bea	0.23490873
47	0xbe2e7adb	-0.17039053
48	0x3eeaacca	0.45834953
49	0x3ecc7e13	0.39939937
50	0x3e828130	0.25489187
51	0x3f588536	0.84578264
52	0xbe3ce103	-0.1844521
53	0x3e8257d9	0.25457647
54	0x3ed17325	0.4090816
55	0xbeae9b25	-0.3410274
56	0x3e8381c0	0.2568493
57	0x3e36f8f4	0.17868406
58	0xbec57a10	-0.3856969
59	0xbcbba990	-0.022908002
60	0xbd047e8e	-0.032347254
61	0xbe3a96c4	-0.18221575
62	0xbf8d655c	-1.1046557
63	0xbe729545	-0.23689754
64	0x3e90cfc2	0.28283507
65	0x3d207423	0.039173257
66	0xc0124084	-2.2851877
67	0x3d04de6a	0.032438673
68	0x3f0705b5	0.52743083
69	0x3eca988d	0.39569512
70	0xbe5d3c3e	-0.21605012
71	0x3c137f77	0.009002558
72	0xbeb94115	-0.36182466
73	0xbdee7329	-0.11643059
74	0xbec99300	-0.39369965
75	0xbe1f001f	-0.1552739
76	0xbf60eae9	-0.87858444
77	0xbafe756a	-0.0019413654
78	0xbf4de1ee	-0.80422866
79	0x3f307ce4	0.6894057
80	0xbe329b48	-0.17442048
81	0x3f0487ea	0.5176989
82	0xbd96720c	-0.073459715
83	0xbe6e18f4	-0.23251706
84	0x3e8f6606	0.28007525
85	0x3f368bc1	0.71307
86	0x3f31216d	0.6919163
87	0x3e2407b8	0.1601857
88	0x3e9958da	0.299506
89	0xbe5551bd	-0.20831962
90	0x3eca55f3	0.395187
91	0xbda03dc3	-0.0782428
92	0x3ed7c212	0.4214025
93	0xbeb93df1	-0.3618007
94	0x3e8d1904	0.27558148
95	0xbf0f4285	-0.55960876
96	0xbf9e4411	-1.2364522
97	0xbeacc88e	-0.3374676
98	0xbf2157bf	-0.63024515
99	0xbec4c8af	-0.3843436

phi_to.mlp.mlp.2.bias f4 [10]
0	0x3cce3d3c	0.025175683
1	0xbbe8dbb5	-0.0071062692
2	0xbc92de42	-0.017928246
3	0xbd92f7e8	-0.071761906
4	0x3c1c27b0	0.009530947
5	0x3c45c44f	0.012070729
6	0x3cc4c530	0.024019808
7	0x3dabb7c8	0.08384663
8	0xbd41ae1a	-0.047285177
9	0x3d347388	0.04405549

phi_from.mlp.mlp.0.weight f4 [10, 23]
0	0xbec053ae	-0.37563843
1	0xbe617476	-0.22017083
2	0x3e2a38e2	0.16623262
3	0xbdd278d7	-0.102769546
4	0x3e82b0d4	0.25525534
5	0xbe145695	-0.14486153
6	0x3ea236f5	0.31682554
7	0xbde406a0	-0.11134076
8	0xbe836550	-0.25663233
9	0xbe51e5f9	-0.20497884
10	0x3c875000	0.01651764
11	0x3e9b60a5	0.3034717
12	0x3d432e09	0.047651324
13	0xbeba3062	-0.36365038
14	0x3d0e826b	0.034792345
15	0x3d48ffb3	0.04907198
16	0xbe826e62	-0.2547484
17	0xbd896e19	-0.067104526
18	0xbd01c9b1	-0.03168649
19	0xbf20027c	-0.6250379
20	0xbb68a2c1	-0.00354974
21	0x3b740b79	0.0037238284
22	0x3d3ca92e	0.04605978
23	0xbd5590fc	-0.05214022
24	0xbe990bf8	-0.29891944
25	0x3d4a4d65	0.049390215
26	0x3e249f0b	0.16076295
27	0xbeb3dc9b	-0.35129246
28	0x3e317c0c	0.17332476
29	0x3d519b3e	0.05117344
30	0x3ee26b56	0.44222516
31	0xbe43a64e	-0.19106409
32	0xbd4979b1	-0.04918832
33	0x3edb42fd	0.42824546
34	0x3e1334df	0.14375637
35	0x3ee64aa6	0.44978827
36	0xbdacabf2	-0.084312335
37	0xbdc44a89	-0.09584529
38	0x3f0b241e	0.54351985
39	0x3e8b9480	0.27261734
40	0xbd43c58f	-0.04779583
41	0xbcd5a809	-0.026081102
42	0x3eea92a7	0.45815012
43	0x395a34bf	0.0002080975
44	0xb9e6f467	-0.00044051112
45	0xbd939678	-0.07206434
46	0x3cccae54	0.02498547
47	0x3e861228	0.26185727
48	0x3ea3f191	0.32020238
49	0xbe992e5b	-0.2991818
50	0x3ef49602	0.47770697
51	0x3ec95b85	0.39327636
52	0xbb4bcb7b	-0.0031096626
53	0x3eedf624	0.46476853
54	0x3c72972b	0.014806549
55	0xbec972a1	-0.39345267
56	0xbe786986	-0.24259004
57	0xbe93d60f	-0.2887425
58	0xbdf34c7d	-0.11879823
59	0xbea236ba	-0.31682378
60	0x3ea37230	0.31923056
61	0x3eb23e9e	0.34813398
62	0xbe329555	-0.17439778
63	0xbd940ee8	-0.07229406
64	0xbf06661a	-0.52499545
65	0x3dfb40bf	0.12268209
66	0x3b2403bc	0.002502664
67	0x3ad7465d	0.0016424168
68	0x3e143d25	0.1447645
69	0x3f11a093	0.5688564
70	0x3adf7f1e	0.0017051434
71	0xbe9ee798	-0.31036067
72	0xbe27680d	-0.16348286
73	0x3d0fd1c2	0.03511215
74	0x3f072458	0.5278983
75	0x3f05eb3c	0.52312064
76	0x3c528c0b	0.012850772
77	0xbd93329e	-0.07187389
78	0xbf0e7395	-0.55645114
79	0x3e304e5b	0.1721739
80	0x3e92e79b	0.28692326
81	0x3e19ad19	0.15007438
82	0xbe6ff08b	-0.23431604
83	0xbf4a9fb6	-0.7914995
84	0x3eb5ea6f	0.3553042
85	0x3e8519a5	0.25996128
86	0x3dfb0512	0.122568265
87	0xbca19b9c	-0.01972752
88	0x3ea6e70d	0.32598153
89	0xbaab3a6e	-0.0013063678
90	0x3ad80dd7	0.0016483617
91	0xbd8c8945	-0.068621196
92	0xbeaa0afe	-0.3321151
93	0x3db50544	0.08838895
94	0xbf217eb8	-0.6308398
95	0x3e59a089	0.21252646
96	0xbee7e077	-0.4528844
97	0x3c74831b	0.014923836
98	0x3eb4bf45	0.35302177
99	0x3e88e790	0.26739168
100	0x3e41490f	0.18875526
101	0xbeb79aea	-0.35860378
102	0x3f04a440	0.51813126
103	0x3e90c0d9	0.2827213
104	0xbe4bb6d9	-0.1989397
105	0xbec17a7e	-0.37788767
106	0xbebc8337	-0.3681886
107	0x3e98403a	0.297365
108	0xbec3c48d	-0.38235894
109	0xbedb5b6a	-0.4284318
110	0x3e31185f	0.17294453
111	0xbd9bd109	-0.0760823
112	0xb99ac770	-0.00029521761
113	0x3a454fee	0.0007526864
114	0xbec4e3c9	-0.38455036
115	0xbf16790d	-0.5877846
116	0x3e48ccec	0.19609421
117	0xbe9670bf	-0.29382893
118	0x3e7fbb1d	0.24973722
119	0xbea198d9	-0.31561926
120	0xbea194ad	-0.31558743
121	0xbed47eb5	-0.4150292
122	0x3e996873	0.299625
123	0x3ebe7ac7	0.37203047
124	0x3e6deb11	0.23234202
125	0xbefb4800	-0.4907837
126	0x3e1a43ee	0.15064976
127	0x3d8d96b3	0.06913509
128	0xbeeaea34	-0.45881808
129	0xbe99def4	-0.30052912
130	0xbd999644	-0.07499364
131	0x3f006a9e	0.50162685
132	0xbf183c79	-0.59467274
133	0xbee07b9f	-0.43844315
134	0xbe3df1e3	-0.18549304
135	0xb9640fb4	-0.00021749624
136	0xba399038	-0.000707868
137	0xbe2bf2b5	-0.16791804
138	0xbe6ef487	-0.23335467
139	0x3e6bbece	0.23022005
140	0x3ddeb3ae	0.10874115
141	0xbd522a9a	-0.05131016
142	0xbd58d346	-0.05293586
143	0x3ec3a99c	0.3821534
144	0x3d92c296	0.071660206
145	0xbeb09bd0	-0.34493876
146	0x3bd0e922	0.006375448
147	0xbef8d6d3	-0.48601398
148	0x3d5d11d7	0.05397209
149	0xbe5e6538	-0.217183
150	0x3d9fceaa	0.0780309
151	0x3d8277df	0.0637052
152	0xbecedd2b	-0.40403113
153	0xbeaeb562	-0.3412276
154	0x3dc3ee97	0.09566992
155	0xbcaa6388	-0.020799413
156	0xbef51200	-0.47865295
157	0x3e7adda4	0.24498612
158	0xb9211657	-0.00015362479
159	0xbb09a556	-0.002100309
160	0xbe4095ea	-0.18807188
161	0xbc4ebb56	-0.012617907
162	0xbdc5740d	-0.096412756
163	0x3c99f3fc	0.018793099
164	0x3e8296dc	0.25505722
165	0xbf02e82a	-0.51135504
166	0xbed98815	-0.42486635
167	0x3ee93b93	0.45553264
168	0x3e292562	0.16518167
169	0x3e9e6bd5	0.30941644
170	0xbea1de46	-0.31614894
171	0x3ee3ca9b	0.44490513
172	0x3e8268de	0.25470632
173	0x3e95390a	0.2914508
174	0xbea97d3c	-0.3310336
175	0xbed8f1f7	-0.42372105
176	0x3ea0bb9e	0.3139314
177	0x3e9a9770	0.30193663
178	0xbdbfb8da	-0.093614295
179	0x3e7c2fe1	0.2462764
180	0x3f099f29	0.53758484
181	0xbaaf654f	-0.0013381633
182	0x39ff1800	0.00048655272
183	0xbe18f657	-0.14937721
184	0x3e939b26	0.28829306
185	0xbe137220	-0.14399004
186	0x3dcc207a	0.09967132
187	0x3eac0ad8	0.33602023
188	0x3e0ffe96	0.1406196
189	0xbe85d54d	-0.26139298
190	0x3d0b5738	0.034018725
191	0xbd3b7523	-0.045766007
192	0xbf020c92	-0.5080043
193	0xbd9a7fc5	-0.07543901
194	0x3e206305	0.15662773
195	0xbdd0e6d0	-0.10200274
196	0xbd31a78b	-0.043372672
197	0xbe80967a	-0.25114805
198	0x3e8bdfb6	0.27319115
199	0xbedde506	-0.43338794
200	0xbe830949	-0.25593022
201	0xbe5e03f0	-0.2168119
202	0x3e83dc7f	0.25754163
203	0xbe1d2d34	-0.15349275
204	0x3b364492	0.0027811867
205	0x3a99c6d2	0.0011732227
206	0xbcd4f10c	-0.025993846
207	0xbf2e4200	-0.6806946
208	0xbde3abe1	-0.11116768
209	0xbe9332f7	-0.2874982
210	0xbca4c305	-0.020112524
211	0x3e613b88	0.21995366
212	0x3e9671ae	0.29383606
213	0xbdf18a74	-0.11793986
214	0xbdc8b794	-0.0980064
215	0xbf239385	-0.6389697
216	0xbd81532e	-0.063146934
217	0xbe8a8325	-0.2705318
218	0x3ebf05a8	0.37309003
219	0x3ea3fe72	0.32030064
220	0xbeadb727	-0.33928797
221	0x3e6ae464	0.22938687
222	0xbd0602cb	-0.032717507
223	0xbea119d2	-0.31465012
224	0xbe7ff957	-0.2499746
225	0x3d439cf9	0.047757123
226	0x3e9ef009	0.31042507
227	0x371445cc	8.837738e-06
228	0x3afdbcda	0.001935865
229	0xbd4d2e54	-0.05009301

phi_from.mlp.mlp.0.bias f4 [10]
0	0x3d5df167	0.054185297
1	0x3ddde0b2	0.10833873
2	0x3d2dace0	0.042401195
3	0x3d2bb757	0.041922893
4	0xbd99c3f1	-0.07508076
5	0x3caeff5b	0.021361997
6	0x3deb09f7	0.1147651
7	0x3df073a5	0.117408074
8	0x3e0c5ce2	0.13707307
9	0x3db5a80a	0.088699415

phi_from.mlp.mlp.2.weight f4 [10, 10]
0	0xbeb28fc7	-0.34875318
1	0xbe7fa0cb	-0.24963681
2	0x3dd0ae1c	0.10189459
3	0xbda51555	-0.080607094
4	0x3f055a21	0.5209065
5	0x3eb26308	0.3484118
6	0xbee01a28	-0.43769956
7	0xbe4c6ce1	-0.19963409
8	0xbe1ef70c	-0.15523928
9	0xbe9c689b	-0.30548558
10	0xbdf1f6eb	-0.11814674
11	0x3e643955	0.22287495
12	0xbea84ba8	-0.3287022
13	0xbe05bbc8	-0.13059914
14	0xbe15c726	-0.1462675
15	0x3e855381	0.2604027
16	0x3ed6b539	0.41935137
17	0x3eb1c70a	0.34722167
18	0x3ee7bf77	0.45263264
19	0xbed1ffd1	-0.41015485
20	0xbeae8d96	-0.34092396
21	0x3e9cd540	0.30631447
22	0x3ebc9090	0.36829042
23	0x3e0a9865	0.13534696
24	0x3e32067d	0.17385288
25	0xbf15540d	-0.58331376
26	0xbdd0297c	-0.101641625
27	0x3eae8b9d	0.3409089
28	0xbda56a44	-0.08076909
29	0xbeea9f7b	-0.458248
30	0x3e5af976	0.21384224
31	0x3f0bd9ec	0.546294
32	0xbcf01261	-0.029305639
33	0x3e55daa1	0.20884182
34	0x3f11d047	0.5695843
35	0xbe7d1095	-0.24713357
36	0xbf27ee10	-0.6559763
37	0x3e4fd69a	0.20296708
38	0xbe90d131	-0.282846
39	0x3e9cdec2	0.306387
40	0xbe9d3ac8	-0.3070891
41	0x3f162b14	0.5865948
42	0xbdc2f932	-0.095201865
43	0x3ebb189e	0.3654222
44	0xbf4d7e02	-0.802704
45	0xbe5febf6	-0.21867356
46	0xbeb6b715	-0.35686556
47	0xbd43fe16	-0.047849737
48	0x3f16d7b6	0.589229
49	0xbe8c4802	-0.27398688
50	0xbe96b84b	-0.2943748
51	0x3e03dfa8	0.12878287
52	0xbded87c1	-0.11598159
53	0xbe8ed2f9	-0.27895334
54	0x3ee85210	0.4537511
55	0x3ed120ed	0.40845433
56	0x3eab6481	0.33475116
57	0x3dc8f383	0.09812071
58	0xbeb5ff73	-0.35546455
59	0x3dcf41e6	0.10119991
60	0x3e214fad	0.1575305
61	0xbe021530	-0.12703395
62	0xbe3ffdf5	-0.1874922
63	0x3e5e02a4	0.21680695
64	0x3ecf7250	0.405169
65	0xbeedb7cc	-0.46429288
66	0xbe3d967b	-0.18514435
67	0xbe48ad33	-0.1959732
68	0x3e28ff22	0.16503575
69	0x3d18d8db	0.037316184
70	0xbec8e5e6	-0.392379
71	0xbee9188d	-0.45526543
72	0x3e5eee11	0.21770503
73	0x3f11aff4	0.5690911
74	0xbf07716f	-0.5290746
75	0xbe2964bc	-0.16542333
76	0xbdeb199e	-0.114794955
77	0xbf03ae75	-0.51438075
78	0xbf2047cf	-0.6260957
79	0x3da78dfc	0.08181378
80	0x3c7882a7	0.015167869
81	0xbe74fd9e	-0.23924872
82	0x3f20287d	0.6256178
83	0xbd54819d	-0.05188142
84	0x3dc36fe9	0.095428295
85	0x3f3f0bdd	0.74627477
86	0xbe5b4560	-0.21413183
87	0xbe92fc58	-0.28708148
88	0xbed852e7	-0.4225075
89	0x3e046d71	0.12932374
90	0xbe02e36d	-0.12782069
91	0xbf035cb5	-0.51313335
92	0xbd40609d	-0.046967138
93	0x3e0bb5d6	0.13643584
94	0x3f0f33f7	0.5593867
95	0x3f15abfa	0.5846554
96	0xbed32d88	-0.41245675
97	0x3e70baea	0.23508802
98	0x3e8bbb79	0.27291468
99	0x3e849ac4	0.25899327

phi_from.mlp.mlp.2.bias f4 [10]
0	0xbe00fba4	-0.12595993
1	0x3df43f99	0.11926193
2	0x3c922c83	0.01784349
3	0xbcd4cf00	-0.025977612
4	0xbdfeaf51	-0.12435783
5	0xbe077b13	-0.13230543
6	0xbd7a8e11	-0.06117064
7	0x3d9c35db	0.076274596
8	0x3d11a6e8	0.035559565
9	0x3dab9a21	0.08379007

z_k.mlp.0.weight f4 [10, 32]
0	0x3e7ccfdb	0.24688666
1	0xbeca0dbd	-0.39463606
2	0x3f2719e6	0.6527389
3	0xbf2248ed	-0.63392526
4	0x3ff5944a	1.9185879
5	0x3e6b99b0	0.23007846
6	0x3f645d06	0.8920444
7	0xbf2a50c7	-0.66529506
8	0xbf0c272b	-0.54747266
9	0x3ef5e79c	0.48028266
10	0x3f1426dc	0.57871795
11	0x3e9321ad	0.2873663
12	0x3f06b068	0.52612925
13	0xbd2af6d5	-0.041739304
14	0x3eb33443	0.3500081
15	0x3c8b2b76	0.016988497
16	0x3d887f0d	0.06664858
17	0xbf4d639d	-0.8023012
18	0xbeda45e5	-0.4263145
19	0xbf04933f	-0.5178718
20	0x3eb91d20	0.36155033
21	0xbf07c287	-0.530312
22	0x3e6112b9	0.21979798
23	0xbdf259c1	-0.118335254
24	0xbdd00bff	-0.10158538
25	0x3e92b789	0.2865565
26	0x3f07ffcf	0.5312471
27	0xbf24a6f4	-0.6431725
28	0x3d549a87	0.05190518
29	0x3d44081b	0.047859292
30	0x3c049b6b	0.008093695
31	0xbdbf8797	-0.093520336
32	0x3d4e7129	0.050400887
33	0x3f67e565	0.90584403
34	0x3e9c9441	0.3058186
35	0xc0017f06	-2.023378
36	0xbfd97ca0	-1.6991158
37	0x3f033bcf	0.51263136
38	0x400ce4f9	2.2014754
39	0xbdf1c06d	-0.118042804
40	0xbd8e757b	-0.06956001
41	0xc005868f	-2.0863378
42	0x3eb8af44	0.36071217
43	0x3f9e7c5e	1.2381704
44	0xbd69759a	-0.05699692
45	0xbf87c6bb	-1.0607523
46	0xbe8a6b4b	-0.27034983
47	0x3f2ef14d	0.68336946
48	0x3f31dde7	0.6947922
49	0xbeb24ad5	-0.34822717
50	0xbd6aa03e	-0.057281725
51	0x3ebcacab	0.36850485
52	0x3ebcd131	0.3687835
53	0x3f19ad09	0.60029656
54	0xbf7a6b18	-0.9781966
55	0x3e9523ce	0.2912888
56	0x3df581f4	0.11987677
57	0x3f839f9c	1.0283084
58	0x3d792395	0.06082495
59	0xbe3cab5c	-0.18424743
60	0x3c0cd95c	0.008596744
61	0x3eb7598e	0.35810512
62	0xbc48b323	-0.012249741
63	0xbdaaaa6f	-0.08333289
64	0x3f0b118b	0.54323643
65	0x3f39b6bb	0.7254445
66	0x3fc9c6f3	1.576384
67	0xbf933f0d	-1.1503617
68	0x3ecb9ca9	0.3976796
69	0x3ed07deb	0.40721068
70	0xbe20144a	-0.1563274
71	0x3c64c25c	0.0139623545
72	0x3e065400	0.13117981
73	0x3ea3a2bf	0.31960103
74	0xbe798d3b	-0.24370281
75	0x3f47209b	0.77784127
76	0xbf5645ff	-0.83700556
77	0xbea365e3	-0.3191367
78	0xbf372e3c	-0.71554923
79	0x3fa0853c	1.254066
80	0x3dfb4b23	0.122701906
81	0x3e4267ee	0.18984959
82	0xbebf9534	-0.3741852
83	0xbf0658e7	-0.52479404
84	0xbd171af9	-0.036890958
85	0x3f43522e	0.7629727
86	0x3e21f0c2	0.15814498
87	0xbf26a825	-0.6510032
88	0xbe5cf47e	-0.21577641
89	0x3c849173	0.016182637
90	0xbe1fce61	-0.15606071
91	0xbf30591b	-0.68885964
92	0x3eea1569	0.4571946
93	0x3d91f4f5	0.071268
94	0x3dd1e75d	0.10249207
95	0x3d58d97c	0.052941784
96	0x3c6f398c	0.014601123
97	0x3f86a2d6	1.0518444
98	0x3f1f2836	0.6217073
99	0x3e168d5a	0.14702359
100	0xbf990996	-1.195605
101	0x3e373acf	0.17893527
102	0x3f06b295	0.52616245
103	0xbf429b7b	-0.76018494
104	0x3e82eae3	0.2556983
105	0x3f8a086c	1.078382
106	0x3fab6add	1.3391987
107	0xbf4e2903	-0.8053133
108	0x3f037109	0.5134435
109	0x3f8161e6	1.0108001
110	0x3f424fd8	0.7590308
111	0xbe17074e	-0.1474888
112	0x3f97efbc	1.1870036
113	0x3f112ffd	0.5671385
114	0x3f8e63ee	1.1124246
115	0x3e70bc9f	0.23509453
116	0x3f65ab7d	0.89714795
117	0xbd2ce94f	-0.042214688
118	0x3e39d8dc	0.18149132
119	0xbda55767	-0.08073311
120	0x3d61f2ea	0.0551633
121	0x3f41d735	0.75719005
122	0x3f08147a	0.53156245
123	0xbd90d0bd	-0.07071064
124	0x3cd24f61	0.025672616
125	0x3f68c267	0.90921634
126	0x3b7859c6	0.0037895306
127	0xbcfeab70	-0.031087607
128	0xbf5f28c8	-0.871716
129	0x3e6a7429	0.22895874
130	0x3e45c8a2	0.19314817
131	0x3f9bfe0c	1.2186904
132	0xbfdeffb1	-1.7421781
133	0xbe9b8ce6	-0.30380934
134	0x3e9b7353	0.30361423
135	0x3e301332	0.17194822
136	0xbd5c7227	-0.0538198
137	0xbf716914	-0.9430096
138	0x3e198e5d	0.14995714
139	0xbe7e0ff7	-0.24810778
140	0x3f0e4d9b	0.55587167
141	0x3e339128	0.17535841
142	0x3e9c883e	0.30572695
143	0xbebec63d	-0.3726062
144	0x3f23ba86	0.6395649
145	0xbe9f7052	-0.3114038
146	0x3ef2e748	0.4744208
147	0xbf3d36cd	-0.73911744
148	0x3dcc5e62	0.099789396
149	0xbf22cc52	-0.6359302
150	0xbf21f85c	-0.6326959
151	0x3e8dd34e	0.27700275
152	0x3f5d4be3	0.8644392
153	0x3e0a1d7e	0.13487813
154	0x3f2b8f3a	0.6701542
155	0xbdf00f3f	-0.11721658
156	0xbec70de6	-0.3887779
157	0xbe84fc49	-0.25973728
158	0xbc6e1d1c	-0.014533307
159	0xbeb243c4	-0.34817326
160	0x3f00d00d	0.5031746
161	0x3dd176e6	0.10227756
162	0x3dc0f25e	0.09421228
163	0xbf2aa1d2	-0.6665317
164	0xbe64dde3	-0.22350268
165	0xbea6fae3	-0.32613286
166	0xbe13dd9d	-0.14440008
167	0xbe9dbf49	-0.30810001
168	0x3d2e5d59	0.042569492
169	0x3f25531f	0.6457996
170	0x3f306b72	0.6891395
171	0x3fc47161	1.53471
172	0x3e37cc44	0.17949015
173	0xbf01a31c	-0.5063951
174	0xbf12a303	-0.57279986
175	0x3f0a8e4f	0.54123396
176	0xbf3e4cf6	-0.74336183
177	0x3d7cd53b	0.06172679
178	0xbf8423ff	-1.0323485
179	0x3f665e5c	0.8998773
180	0x3f0adf47	0.54246944
181	0xbce98902	-0.028507713
182	0xbefcdae5	-0.49385753
183	0xbd1ebf4b	-0.03875665
184	0x3d9ab937	0.07554858
185	0x3d4b0aee	0.04957097
186	0x3ee6a10c	0.45044744
187	0xbe244c8f	-0.1604483
188	0xbf215f6c	-0.6303623
189	0x3eccd8f7	0.4000928
190	0x3c013adc	0.007887568
191	0x3e955c84	0.29172146
192	0x3fc5d639	1.5456
193	0xbf0a318d	-0.5398186
194	0x3f39b394	0.7253964
195	0xbf7979d7	-0.9745154
196	0xbf869046	-1.0512779
197	0x3eec8f9e	0.4620332
198	0xbfaea3ea	-1.3643773
199	0x3f7733a2	0.9656316
200	0x3e3265ff	0.17421721
201	0xbf07c09e	-0.53028286
202	0x3f4c6040	0.79834366
203	0xbc187a6e	-0.009306533
204	0xbd244890	-0.040108263
205	0xbed99cfc	-0.42502582
206	0x3d6cfd25	0.057858605
207	0xbd8de512	-0.06928457
208	0x3f86d48d	1.0533615
209	0xbeb1c199	-0.34718016
210	0xbda24ca1	-0.07924772
211	0x3f4639b0	0.77431774
212	0x3f1c29ab	0.6100108
213	0x3f222b87	0.6334767
214	0xbf0c2722	-0.5474721
215	0xbe8b86fc	-0.27251422
216	0x3f071b2f	0.52775854
217	0x3f0275a6	0.5096077
218	0xbe4c188b	-0.19931237
219	0xbf1d7696	-0.6150907
220	0x3e0f1afe	0.1397514
221	0xbe2154d9	-0.15755023
222	0xbc3a18bf	-0.011358439
223	0xbed61dac	-0.41819513
224	0xbc05fde6	-0.00817821
225	0x3e03dd72	0.12877443
226	0x3eeb017a	0.45899564
227	0xbf64e1a5	-0.89406806
228	0xbff004e0	-1.8751488
229	0x3fcf74f6	1.6207569
230	0x3f01606c	0.50537753
231	0xbe707564	-0.23482281
232	0xbee75dcd	-0.45188752
233	0x4043a006	3.056642
234	0xbd10a0c8	-0.035309583
235	0xbf2803f3	-0.65631026
236	0xbf1aaa5f	-0.60416216
237	0xbf49da49	-0.788487
238	0xbee1485e	-0.44000524
239	0x3d92d4d1	0.07169498
240	0xbe97c104	-0.29639447
241	0x3df93366	0.121680066
242	0xbf7c1cf0	-0.98481655
243	0xbd8724ac	-0.065987915
244	0x3dd232ef	0.10263621
245	0xbdaf6bc0	-0.085654736
246	0x3f14c51d	0.5811327
247	0xbede1651	-0.433764
248	0xbe81e162	-0.25367266
249	0x3f049aa0	0.5179844
250	0x3e43ac32	0.19108656
251	0xbe830978	-0.25593162
252	0xbd51ad7c	-0.05119084
253	0x3ebf15e2	0.37321383
254	0x3c97b02f	0.018516628
255	0xbc30bcc3	-0.010787192

z_k.mlp.0.bias f4 [10]
0	0xbd961d31	-0.073297866
1	0x3ec269fc	0.37971485
2	0x3f23ace0	0.6393566
3	0x3ebab6c1	0.36467555
4	0xbd13f256	-0.03611978
5	0xbe362a28	-0.17789519
6	0xbeb1fa04	-0.3476106
7	0x3f23dee9	0.6401201
8	0xbe57caa1	-0.2107339
9	0xbe373f5d	-0.17895265

r_k.mlp.0.weight f4 [10, 32]
0	0x3d04370a	0.03227905
1	0xbebaa72b	-0.36455664
2	0xbeca0bd6	-0.39462155
3	0x3f2e7fb9	0.6816364
4	0xbf4f7844	-0.81042886
5	0xbf21eb16	-0.6324934
6	0x3ed98d17	0.42490456
7	0x3ef48aef	0.47762248
8	0x3eb53764	0.35393822
9	0x3fed4613	1.853701
10	0x3e2d9b85	0.16953857
11	0x3ef2c113	0.4741293
12	0xbf08ce6b	-0.5343997
13	0xbe59afa6	-0.21258411
14	0x3c8dee52	0.017325554
15	0x3dd3f088	0.10348612
16	0x3fa0ba39	1.2556831
17	0xbfdc9454	-1.7232766
18	0xbebcd1bb	-0.36878762
19	0xbf48ed66	-0.7848724
20	0xbe8cc673	-0.27495155
21	0x3eb1b9f5	0.34712186
22	0x3e9f03d1	0.310576
23	0x3e880f81	0.2657433
24	0x3dbe8ddd	0.09304402
25	0x3e3f362d	0.1867301
26	0x3e11b6e0	0.14229918
27	0xbf1618bc	-0.5863149
28	0xbf089205	-0.5334781
29	0x3f438163	0.76369303
30	0xbab36d6c	-0.0013689226
31	0x3c740781	0.014894367
32	0x3f075970	0.52870846
33	0x3f2898e8	0.65858316
34	0x3ea7c91c	0.32770622
35	0xbe683a85	-0.22678573
36	0x3f31aace	0.6940125
37	0x3e8b1c5c	0.27170074
38	0x3e459b0d	0.19297428
39	0xbe91a8ab	-0.28448996
40	0xbeac6526	-0.3367092
41	0x3e421eb9	0.18957032
42	0xbee991ea	-0.45619136
43	0xbea6ffc4	-0.3261701
44	0xbef05862	-0.4694243
45	0x3f0bf122	0.54664814
46	0xbd511f2e	-0.051055126
47	0x3e37a4f7	0.17934023
48	0x3d342b9f	0.043986913
49	0x3f78c171	0.9717017
50	0x3e0f8784	0.14016539
51	0xbe89e470	-0.26932096
52	0xbe63b5d3	-0.22237329
53	0xbeeee715	-0.46660677
54	0xbd897286	-0.06711297
55	0x3e0e5f1c	0.13903469
56	0xbf338447	-0.70123714
57	0xbc822a68	-0.015889362
58	0xbebb0cd6	-0.3653323
59	0xbef6ce72	-0.4820438
60	0xbe0e3c65	-0.13890226
61	0x3de246f0	0.110486865
62	0x3dd1e3dd	0.102485396
63	0xbe849ef3	-0.2590252
64	0xbd598535	-0.05310555
65	0x3d8cef71	0.06881607
66	0xbd9554a8	-0.072915375
67	0xbf0f05b8	-0.558681
68	0x3e43aa12	0.19107845
69	0xbf01e06a	-0.50733054
70	0x3ea74c2c	0.32675302
71	0x3c514381	0.012772442
72	0x3eb6f39b	0.3573273
73	0x3c8f4b6f	0.017492024
74	0xbeae8110	-0.34082842
75	0x3d87e040	0.06634569
76	0xbe976327	-0.29567835
77	0xbe1112f1	-0.14167382
78	0x3ebe5467	0.3717377
79	0xbb14000f	-0.0022583043
80	0xbe9ee092	-0.3103071
81	0x3e810e25	0.25206104
82	0x3eb80b06	0.3594591
83	0x3f16f809	0.5897222
84	0xbe6b89b2	-0.23001745
85	0xbed6a21a	-0.4192055
86	0xbf366ab2	-0.71256554
87	0x3dde99e6	0.108691975
88	0xbe83e10a	-0.2575763
89	0xbc3126bc	-0.010812458
90	0xbcb9724f	-0.022637514
91	0x3e8de704	0.27715313
92	0x3e6e0d77	0.23247324
93	0x3dbf6679	0.09345717
94	0x3c575e33	0.013145017
95	0xbe1f1f34	-0.15539247
96	0xbe4db0ec	-0.20087022
97	0x3f0a3c67	0.53998417
98	0x3ebca497	0.36844322
99	0x3ef41082	0.47668844
100	0x3fa667b1	1.3000394
101	0x3df28c4f	0.11843168
102	0xbeb0b7b5	-0.34515157
103	0xbeb9c72c	-0.3628477
104	0x3d9ef69d	0.077618815
105	0x3dbab07f	0.09115695
106	0x3f548a4e	0.83023536
107	0xbecfcf3d	-0.40587798
108	0x3f5eb31a	0.8699204
109	0xbf7fae6f	-0.9987554
110	0xbedf7d01	-0.43650058
111	0x3dabb1f7	0.083835535
112	0x3d0f2bb3	0.034953784
113	0xc023de36	-2.5604377
114	0x3fc57992	1.5427725
115	0x40006649	2.006243
116	0xbe1331ad	-0.14374419
117	0xbf10e022	-0.56592
118	0xbe24c97a	-0.16092482
119	0xbe934197	-0.2876098
120	0x3e94ece0	0.2908697
121	0xbde8d870	-0.11369407
122	0x3e0c7c95	0.137194
123	0x3effd5ed	0.499679
124	0x3d8fba87	0.07017999
125	0xbe07b35f	-0.13252018
126	0x3d7a6d25	0.061139245
127	0x3df2c5ae	0.11854111
128	0xbf331ec0	-0.69968796
129	0x3e96f9f0	0.29487562
130	0x3ec06be4	0.37582314
131	0x3f5d32b6	0.86405504
132	0xbf8587ad	-1.043203
133	0xbf48148e	-0.78156364
134	0x3e456858	0.19278085
135	0xbdf04339	-0.11731572
136	0x3f44c7b5	0.7686723
137	0xbe9b25c7	-0.3030226
138	0x3eb62ab2	0.3557945
139	0xbf3e150b	-0.7425086
140	0xbe4babf2	-0.1988981
141	0x3f80858c	1.0040755
142	0x3e9bda85	0.30440155
143	0x3ebbef29	0.36705902
144	0x3ec9de86	0.39427584
145	0x3ea08377	0.313503
146	0x3eafda8d	0.3434643
147	0xbfcb345a	-1.5875351
148	0x3d89efbe	0.0673518
149	0xbf11595b	-0.5677697
150	0x3e87c2b6	0.2651574
151	0x3fa76922	1.3078959
152	0x3ec688bb	0.38776192
153	0xbdb611aa	-0.08890088
154	0x3eab0a66	0.3340637
155	0xbe9b9251	-0.30385068
156	0x3f4ea2c0	0.80717087
157	0x3ef8b620	0.4857645
158	0xbe516914	-0.2045024
159	0xbe7d6872	-0.24746874
160	0x3e33819c	0.17529911
161	0x3ed5b752	0.41741425
162	0x3f678555	0.90437824
163	0x3ea0fa53	0.31440982
164	0xbfa0c9e6	-1.2561615
165	0x3f59415d	0.8486536
166	0xbe16f1f6	-0.14740738
167	0xbd8fea1e	-0.07027076
168	0x3f2f1f2d	0.68406945
169	0x404fe113	3.2481124
170	0x3e6de04f	0.23230098
171	0xbf1e3757	-0.6180319
172	0x3f2e3516	0.6804975
173	0x3e6c2482	0.23060802
174	0xbe9837fb	-0.2973021
175	0xbebdfe83	-0.3710824
176	0xbc7a1196	-0.015262982
177	0xbf9a112c	-1.203649
178	0x3f2ebdf0	0.6825857
179	0x3ffe21f8	1.9854116
180	0x3f29cedc	0.6633127
181	0xbf413fb3	-0.7548782
182	0x3f4592e5	0.7717727
183	0x3ee7ae15	0.45250002
184	0x3f25012b	0.6445491
185	0x3e98c6c7	0.29839155
186	0x3ea12f6a	0.31481487
187	0xbeeebde1	-0.4662924
188	0xbe595064	-0.21222073
189	0x3e04472d	0.12917776
190	0xbc817453	-0.015802538
191	0xbe70d1f1	-0.23517586
192	0x3dbec2ce	0.093145
193	0xbefd9243	-0.4952565
194	0x3f036f52	0.51341736
195	0x3e979037	0.29602215
196	0x3f036430	0.5132475
197	0xbcd68072	-0.026184294
198	0xbed230ee	-0.41052955
199	0x3f163565	0.58675224
200	0xbe3871fd	-0.18012233
201	0xbf11c7d3	-0.5694553
202	0x3f850265	1.0391356
203	0x3edaf8f6	0.42768067
204	0xbea07fb4	-0.3134743
205	0xbe2a4467	-0.16627656
206	0xbdba1a84	-0.09087089
207	0x3e2f8fbc	0.17144674
208	0x4015246f	2.3303487
209	0x4066aef2	3.6044278
210	0x3eeba8e2	0.46027285
211	0xbe9a053c	-0.3008212
212	0x3bf1329b	0.007360769
213	0x3d475274	0.048662618
214	0x3d34cf7a	0.044143178
215	0xbe9d5ff4	-0.3073727
216	0xbe34a080	-0.17639351
217	0xbf3092f8	-0.68974257
218	0xbe093545	-0.13399227
219	0x3e5d6c4b	0.21623342
220	0x3d2b67ee	0.041847162
221	0xbe834971	-0.2564197
222	0xbdb4ec95	-0.08834187
223	0xbe0e50c6	-0.13898
224	0xbac5ec7e	-0.0015100387
225	0xbe0fed46	-0.14055356
226	0xbdc44645	-0.09583715
227	0x3e390028	0.18066466
228	0x3e1922b4	0.14954644
229	0x3eae73c3	0.34072694
230	0x3bc69dc7	0.006061289
231	0x3ea65815	0.32489076
232	0x3e49f399	0.19721831
233	0xbf6aaf7e	-0.9167403
234	0xbe7b5537	-0.24544226
235	0xbe8915ca	-0.26774436
236	0x3dc558a8	0.096360505
237	0x3ec26500	0.37967682
238	0xbdc1f939	-0.094713636
239	0x3f0e906d	0.55689126
240	0x3e965554	0.29361975
241	0xbf0981a0	-0.5371342
242	0x3ef7b7a6	0.483823
243	0xbe836b52	-0.25667816
244	0x3dfc6cbd	0.12325428
245	0x3e6affcf	0.22949146
246	0xbe8e7f0c	-0.27831304
247	0x3ebd2765	0.36944118
248	0xbdebb7ff	-0.11509704
249	0xbdff08d0	-0.12452853
250	0xbea3d56d	-0.31998768
251	0x3d1d8e75	0.038465936
252	0xbe53da6c	-0.2068879
253	0x3c270c87	0.010195858
254	0xbcb4be6d	-0.022063458
255	0xbe637d2a	-0.22215715

r_k.mlp.0.bias f4 [10]
0	0xbef330ad	-0.47498074
1	0x3e87365b	0.26408657
2	0x3dfc1c66	0.12310104
3	0x3d6a1e9e	0.057158105
4	0xbf0725f5	-0.5279229
5	0xbe0304ca	-0.12794796
6	0x3dbbdd1e	0.09173034
7	0xbe63516b	-0.22199027
8	0xbe10c2c1	-0.14136793
9	0x3db1ff8b	0.08691319

correction.mlp.0.weight f4 [10, 32]
0	0xbe5d62e2	-0.21619752
1	0xbe6c0860	-0.2305007
2	0xbdc0c84f	-0.09413206
3	0x3eea020b	0.45704684
4	0xbd6fbbc7	-0.058528688
5	0x3ed8b502	0.42325598
6	0xbe63b890	-0.22238374
7	0xbda380d7	-0.079835586
8	0xbf8774fb	-1.0582575
9	0x3f07079e	0.52746
10	0x3c68e21e	0.014214067
11	0xbe597512	-0.21236065
12	0x3e048f9a	0.12945405
13	0x3ce2f298	0.027703568
14	0x3e19deb8	0.15026367
15	0x3eb6e29e	0.3571977
16	0x3c92c90a	0.017918129
17	0xbe12300b	-0.1427614
18	0x3cd16b81	0.025563957
19	0xbe502da3	-0.20329909
20	0x3dd2331a	0.10263653
21	0xbe12466c	-0.14284676
22	0xbee6f4fc	-0.45108783
23	0x3e2f3c22	0.17112783
24	0xbc6eed40	-0.014582932
25	0x3ed93bd1	0.4242845
26	0xbeb685fd	-0.356491
27	0xbe52b4e7	-0.20576821
28	0x3e85cdec	0.26133668
29	0xbef9346b	-0.48672804
30	0x3b77a4c5	0.003778742
31	0xbe90b97d	-0.28266516
32	0xbe907b3d	-0.28219023
33	0xbe945b8e	-0.289761
34	0x3db48fce	0.08816491
35	0x3eb8c6a0	0.3608904
36	0xbe723d68	-0.23656237
37	0x3f1cee00	0.6130066
38	0x3e34ecdd	0.17668481
39	0x3cfb97ef	0.030712096
40	0x3f019c38	0.50628996
41	0x3e98c213	0.29835567
42	0x3e32c703	0.1745873
43	0xbda3441d	-0.07971976
44	0x3d67ee7f	0.056623932
45	0xbeaa6bb9	-0.3328531
46	0x3e9e8fae	0.30968994
47	0xbc2f64d4	-0.010705192
48	0xbe732ef3	-0.23748378
49	0xbe4e2c38	-0.20134056
50	0xbddfef99	-0.109343715
51	0xbd8af3b7	-0.06784766
52	0xbd06dd23	-0.032925736
53	0xbe9fe754	-0.31231177
54	0xbd04f128	-0.032456547
55	0x3e7f34a6	0.24922428
56	0x3e6d7da4	0.2319246
57	0xbda778e4	-0.08177355
58	0xbd78f96b	-0.06078474
59	0xbe3e6e15	-0.1859668
60	0xbe272442	-0.16322425
61	0xbe33b737	-0.1755036
62	0x3c033093	0.008007186
63	0x3ea39f66	0.3195755
64	0xbf04a54c	-0.51814723
65	0xbda89933	-0.082323454
66	0xbed2e1a5	-0.41187778
67	0x3eb9f207	0.36317465
68	0x3e4a6c91	0.19767977
69	0x3e4bc9c3	0.19901185
70	0xbe040a0f	-0.12894462
71	0x3e0f9a8e	0.14023802
72	0x3f16a4fd	0.588455
73	0x3e97bd04	0.29636395
74	0x3c2e32bb	0.010632212
75	0xbe02ecfe	-0.12785718
76	0x3b1ad6fe	0.002362668
77	0xbd98c26a	-0.074589565
78	0xbe93088c	-0.28717458
79	0xbe26a9fa	-0.16275778
80	0xbd4a085e	-0.049324386
81	0x3ddd9ba4	0.10820702
82	0xbcee7511	-0.029108556
83	0xbe15710c	-0.14593905
84	0xbd1ba76c	-0.038001463
85	0xbe39b2ea	-0.18134657
86	0xbda7f4a8	-0.08200961
87	0x3e27e6e3	0.1639667
88	0x3d8b1b97	0.06792372
89	0x3e18fe60	0.14940786
90	0xbe68f8b8	-0.22751129
91	0x3df00f28	0.11721641
92	0xbe638abb	-0.2222089
93	0x3e8a4182	0.27003103
94	0x3ba4e63a	0.005032328
95	0xbe5d9cf0	-0.21641898
96	0xbfc0f6b8	-1.5075293
97	0x3f46e48e	0.77692497
98	0x3ee0106a	0.43762523
99	0xc0aee651	-5.465615
100	0xbf2ab69a	-0.6668488
101	0x3e520625	0.20510156
102	0xbe6b20ce	-0.22961733
103	0xbdf0e320	-0.11762071
104	0xbf5dd255	-0.86649066
105	0xc040e6d9	-3.0140898
106	0xbf0e10d1	-0.5549441
107	0xbe25bf28	-0.16186202
108	0xbec3c0fd	-0.38233176
109	0xbe378d12	-0.17924908
110	0x3df8a25c	0.121403426
111	0xbe804099	-0.25049284
112	0xbd5868b8	-0.052834243
113	0x3f01eb11	0.5074931
114	0x3c1ece7f	0.009692787
115	0xbe30c86d	-0.17263956
116	0x3e91eab1	0.28499368
117	0xbe3fa7d2	-0.18716362
118	0x3ee4c703	0.44683084
119	0x3de4df5b	0.11175414
120	0xbe8f2868	-0.27960515
121	0xbdd85693	-0.10563388
122	0x3ece6696	0.40312642
123	0x3ef66379	0.48122767
124	0xbe1fd829	-0.15609802
125	0xbbd3c531	-0.006462716
126	0x3cd38eff	0.025825022
127	0xbe168c77	-0.1470202
128	0x3da7e588	0.081980765
129	0x3e839c46	0.25705165
130	0x3ccf9c4f	0.025343088
131	0xbe4cd26f	-0.20002149
132	0xbfaa153f	-1.3287734
133	0x40088fbe	2.1337733
134	0x3d8ffe8b	0.07030972
135	0x3f258a9a	0.64664614
136	0x3e634963	0.22195964
137	0x3f4d1afe	0.8011931
138	0x3e414f8a	0.18877998
139	0x3dc23acf	0.09483873
140	0xbea153d8	-0.3150928
141	0x3dbba3a6	0.09162073
142	0xbe27bf49	-0.16381563
143	0xbea94081	-0.33057025
144	0xbbf3e4a5	-0.007443028
145	0xbec38ee2	-0.38194948
146	0x3e884c71	0.2662082
147	0x3d1fcf9b	0.039016347
148	0xbcfe4025	-0.031036446
149	0x3e0373da	0.12837163
150	0x3e12bda9	0.14330162
151	0x3e7c7366	0.24653396
152	0x3df5288b	0.119706236
153	0x3d82f18b	0.06393727
154	0xbe8e486b	-0.27789626
155	0xbde47c25	-0.11156491
156	0xbeb4573f	-0.35222813
157	0xbc9549cb	-0.018223664
158	0xbbbe1468	-0.0058007725
159	0xbe66fc34	-0.22557145
160	0x3e5ade0b	0.21373765
161	0xbddfcd0b	-0.10927781
162	0xbf329576	-0.6975931
163	0x3f0b5ce0	0.5443859
164	0x3f1b144c	0.60577846
165	0xbf888624	-1.0665936
166	0xbd28bff8	-0.0411987
167	0x3ec9131d	0.39272395
168	0x3c30bc09	0.010787019
169	0xbf08432b	-0.5322749
170	0xbe6015db	-0.21883337
171	0xbde3ccea	-0.11123069
172	0x3e07ae8e	0.13250181
173	0xbdc81575	-0.097697176
174	0x3e622dce	0.22087786
175	0x3ea12340	0.31472206
176	0x3d0dd8ec	0.0346307
177	0x3cc45273	0.023965096
178	0x3d60311d	0.054734338
179	0x3da5f03f	0.08102464
180	0x3d99b626	0.07505445
181	0x3dfeb837	0.1243748
182	0xbeb56915	-0.35431734
183	0x3f1af1a1	0.60524946
184	0x3dcda0fe	0.100404724
185	0xbe12dd9e	-0.14342353
186	0x3df72866	0.12068252
187	0xbea2a332	-0.31765133
188	0xbc81d927	-0.015850617
189	0x3df96aff	0.12178611
190	0x3c54163a	0.012944752
191	0xbd7fedb8	-0.062482566
192	0xbe47813c	-0.19482893
193	0xbd1d58f8	-0.038414925
194	0x3ed05012	0.4068609
195	0x3e008c35	0.12553485
196	0x3f06592d	0.5247982
197	0x3e8db9bb	0.27680764
198	0xbf242258	-0.64114904
199	0xbe92cfda	-0.28674203
200	0xbf460958	-0.7735801
201	0xbf801ec3	-1.0009388
202	0xbe2a3531	-0.16621853
203	0xbcc9a886	-0.024616491
204	0x3ea1aee9	0.31578758
205	0xbc093094	-0.008373398
206	0x3c59fc5e	0.013304798
207	0x3e6ce600	0.23134613
208	0x3e076236	0.13221058
209	0x3e108ccb	0.14116208
210	0xbd4247ce	-0.04743176
211	0x3cbdda55	0.023175398
212	0x3dd1cf8b	0.10244664
213	0xbd5d419f	-0.05401766
214	0xbe8a6958	-0.27033496
215	0xbe24a4a5	-0.16078432
216	0x3e705481	0.23469736
217	0xbe88d856	-0.2672755
218	0xbea5482d	-0.32281628
219	0xbe8fbdc3	-0.28074464
220	0x3ea4b672	0.32170445
221	0x3b6f9150	0.003655512
222	0x3b84cf37	0.0040530222
223	0x3ea7bfc5	0.32763496
224	0x3d17ecdc	0.03709112
225	0xbec7a2e2	-0.38991457
226	0xbd0a09c4	-0.03370072
227	0xbe279c89	-0.16368307
228	0xbe744103	-0.23852925
229	0xc012d666	-2.2943358
230	0xbf32cfb2	-0.6984817
231	0xbe420092	-0.1894553
232	0x3e2cf2c7	0.16889487
233	0x3f0cba0a	0.54971373
234	0x3d14b951	0.036309544
235	0xbc8361a5	-0.016037771
236	0xbe53bc1a	-0.20677224
237	0xbdf2ab2b	-0.11849054
238	0xbd6befe3	-0.05760182
239	0xbe4be465	-0.19911344
240	0x3c5be885	0.013422136
241	0x3d929d37	0.071588926
242	0x3e0a0ce5	0.13481481
243	0x3d19670c	0.03745179
244	0x3d12a32b	0.03580014
245	0x3df2532e	0.118322715
246	0xbe252f12	-0.16131237
247	0x3e16dada	0.14731923
248	0xbe3a067b	-0.18166535
249	0xbe20f9c6	-0.15720281
250	0x3df08d8b	0.11745747
251	0x3e484052	0.19555786
252	0xbe49d48b	-0.19709985
253	0xbdfb8dd5	-0.12282912
254	0xbb9101ab	-0.0044252477
255	0x3e7935da	0.24336949

correction.mlp.0.bias f4 [10]
0	0x3df35039	0.11880536
1	0xbd824c31	-0.063621886
2	0x3d4cbc7a	0.049984433
3	0x3ddca928	0.107744515
4	0x3d1a8d3e	0.037732355
5	0xbae21d7c	-0.0017251219
6	0xbc62549c	-0.013814118
7	0xbb98fce0	-0.004668817
8	0xbd837fae	-0.06420837
9	0x3d8a04a1	0.06739164

autoencoder.encoder.mlp.mlp.0.weight f4 [10, 1]
0	0x3ed784cb	0.420935
1	0xbe8db7f7	-0.27679417
2	0x3e9e9509	0.3097308
3	0x3d066d97	0.032819357
4	0xbeba0b9e	-0.36336988
5	0x3e4cf958	0.20016992
6	0x3e68b7ad	0.22726317
7	0x3dafcc2f	0.08583867
8	0xbe1fe205	-0.15613563
9	0x3e3166b4	0.17324334

autoencoder.encoder.mlp.mlp.0.bias f4 [10]
0	0x3c8dd925	0.017315457
1	0x3cfb22ab	0.03065618
2	0xbccb2e9c	-0.024802499
3	0x3dc24769	0.09486277
4	0x3e1bf27a	0.15229216
5	0xbc763ceb	-0.015029172
6	0xbdda8508	-0.10669905
7	0x3d9fd293	0.07803836
8	0xbab2656d	-0.001361055
9	0xbd77aa27	-0.060465004

autoencoder.encoder.mlp.mlp.2.weight f4 [10, 10]
0	0xbd500830	-0.05078906
1	0xbe295d7f	-0.16539572
2	0x3ed80c82	0.42197043
3	0xbeac263d	-0.33622923
4	0x3e1345ac	0.14382046
5	0xbee18959	-0.440501
6	0xbe0bc375	-0.1364878
7	0x3e0e989e	0.13925406
8	0x3d2f1186	0.04274132
9	0x3e888c11	0.26669362
10	0x3e62f851	0.22165038
11	0xbebfa862	-0.37433153
12	0x3ee18cde	0.44052786
13	0x3edf2262	0.4358092
14	0x3dc9648f	0.09833633
15	0xbeb99556	-0.36246747
16	0xbc995b3b	-0.01872026
17	0xbe6363c5	-0.22206028
18	0xbe133aad	-0.14377852
19	0x3cfae26c	0.030625544
20	0xbebee342	-0.3728276
21	0xbe9803f0	-0.29690504
22	0x3ef4d1dd	0.47816363
23	0xbe299a61	-0.16562797
24	0xbd60e0ac	-0.054901764
25	0x3f141f17	0.5785994
26	0xbe3e06a1	-0.18557216
27	0x3f05c8eb	0.522597
28	0x3d0dd9ad	0.03463142
29	0xbcdc195f	-0.026867567
30	0x3e2c9c97	0.1685661
31	0xbd82bec9	-0.06384046
32	0xbde26190	-0.11053765
33	0x3e8b40bb	0.27197823
34	0x3e6e37bf	0.23263453
35	0x3e8ff84f	0.28119132
36	0xbe33a550	-0.1754353
37	0xbeacb39b	-0.33730778
38	0xbeddfe59	-0.43358114
39	0xbe5d62cc	-0.2161972
40	0xbe06a04a	-0.13147083
41	0xbe398709	-0.18117918
42	0x3ebadcd1	0.36496595
43	0x3e4bfd74	0.19920903
44	0x3e335e56	0.17516455
45	0xbc5d0995	-0.013491054
46	0x3d59a6c0	0.05313754
47	0xbbc421bb	-0.0059854663
48	0xbe05f59d	-0.13081975
49	0xbe93e36b	-0.28884444
50	0x3e3916f7	0.18075167
51	0xbef492fc	-0.4776839
52	0xbea8cd7c	-0.32969272
53	0xbe23ff3f	-0.16015337
54	0x3ec4e42f	0.3845534
55	0x3ecc6aa6	0.39925116
56	0xbe308436	-0.17237934
57	0x3e9e764a	0.30949622
58	0xbd2c26db	-0.042029243
59	0x3b14e518	0.0022719558
60	0xbef1700f	-0.47155806
61	0xbefec37f	-0.49758527
62	0x3efc67a7	0.4929783
63	0x3d2d8960	0.04236734
64	0x3e9b5126	0.3033535
65	0x3ef966a0	0.4871111
66	0xbf0084c7	-0.502026
67	0x3ee8b5ed	0.45451298
68	0x3ea3e7c3	0.32012758
69	0x3e053b7b	0.13010971
70	0x3ecb339f	0.3968782
71	0xbdf3b231	-0.11899222
72	0xbf065a58	-0.52481604
73	0xbefd227f	-0.4944038
74	0xbc5ed34e	-0.013600184
75	0xbe32f0d8	-0.17474687
76	0xbeaedaf6	-0.3415143
77	0xbe1dba3b	-0.15403073
78	0x3cdc613e	0.026901837
79	0x3dcc5700	0.099775314
80	0xbe93808e	-0.28809017
81	0x3d42dc1a	0.047573186
82	0x3e6816ac	0.22664899
83	0xbec1ed87	-0.3787653
84	0xbebfafec	-0.37438905
85	0x3e523713	0.20528822
86	0x3bbc6af8	0.0057500564
87	0xbeb7710a	-0.3582843
88	0xbe953da3	-0.29148588
89	0x3e9bdd1a	0.30442125
90	0x3ed5c52d	0.41751996
91	0xbe27ce5c	-0.16387314
92	0xbd8b041e	-0.06787895
93	0x3e8c2f43	0.27379808
94	0x3e1a40f9	0.15063848
95	0xbe821cbd	-0.2541255
96	0xbda9faea	-0.08299811
97	0xbf385afb	-0.72013825
98	0x3d630193	0.055421423
99	0xbe3cd33a	-0.18439952

autoencoder.encoder.mlp.mlp.2.bias f4 [10]
0	0xbd533cf8	-0.051571816
1	0x3d870a9f	0.06593823
2	0x3ca1a315	0.019731084
3	0xbd083c86	-0.033260845
4	0xbd4fcf3b	-0.05073474
5	0x3e02f686	0.12789354
6	0x3cac3df5	0.021025637
7	0x3e1697f4	0.14706403
8	0xbe230d51	-0.15923049
9	0xbd0078ba	-0.031365134

autoencoder.decoder.mlp.mlp.0.weight f4 [10, 10]
0	0x3eb95e59	0.36204794
1	0x3ed40328	0.41408658
2	0x3cfe79c4	0.031063922
3	0xbf96bb59	-1.1775924
4	0xbb2d514f	-0.0026446169
5	0x3f58b4d6	0.84650934
6	0xbef48dba	-0.4776438
7	0xbf80c291	-1.0059377
8	0x398eeb80	0.00027259812
9	0x3e6ff496	0.23433146
10	0x3ee40366	0.44533843
11	0xbf3de531	-0.74177843
12	0xbf109b7b	-0.56487244
13	0x3cda2eed	0.026633704
14	0xbdd4c75a	-0.10389586
15	0x3e65a1de	0.22425029
16	0x3ebfcc76	0.3746068
17	0xbf65e09d	-0.8979586
18	0xbf6cf8ad	-0.9256695
19	0x3eb2182a	0.3478406
20	0x3f326ef7	0.6970057
21	0x3f101fba	0.5629841
22	0x3e31d0d5	0.1736482
23	0xbf8c9bb5	-1.0985018
24	0x3de099a4	0.109668046
25	0x3f7097db	0.93981713
26	0xbf279001	-0.6545411
27	0xbf94f6c4	-1.1637807
28	0xbd4c119d	-0.049821485
29	0xbd29da24	-0.0414678
30	0x3ed9906a	0.42492992
31	0xbe4dbfca	-0.20092693
32	0xbf436f22	-0.7634145
33	0x3e30ebb4	0.17277414
34	0x3ddd2363	0.10797765
35	0x3ee2bc5c	0.44284332
36	0x3f18a641	0.59628683
37	0xbedefac1	-0.43550685
38	0xbf5ab2ad	-0.8542889
39	0x3ef1bad6	0.47212857
40	0x3e38208f	0.1798117
41	0xbf41a56d	-0.75643045
42	0xbeb07971	-0.34467652
43	0xbf068cd7	-0.52558655
44	0x3e9fa02a	0.31176883
45	0xbe80deac	-0.25169885
46	0x3f786a8e	0.9703759
47	0xbf4d3f28	-0.80174494
48	0xbe957e02	-0.291977
49	0xbee80aef	-0.45320842
50	0x3e807725	0.250909
51	0x3ec15f7a	0.37768155
52	0xbe74383a	-0.23849574
53	0x3f0395d6	0.51400506
54	0xbdd25d73	-0.1027173
55	0xbebd7deb	-0.3701013
56	0xbdd4ae34	-0.10384789
57	0x3e8a0ad9	0.269614
58	0x3f0bbb3d	0.5458258
59	0x3e2fa94b	0.17154424
60	0xbe4b6471	-0.19862534
61	0x3e5ca8dd	0.21548791
62	0xbf0ea765	-0.55724174
63	0x3bca6af7	0.006177302
64	0xbe7657f4	-0.24056989
65	0x3e9dbf02	0.3080979
66	0x3f7dce85	0.9914325
67	0x3e04aff9	0.12957753
68	0xbf507c20	-0.814394
69	0x3dc98632	0.09840049
70	0x3c363423	0.011120829
71	0x3e3a5d0a	0.18199554
72	0x3e5d455a	0.21608487
73	0x3c55cf5f	0.013049929
74	0x3e900e1f	0.28135774
75	0xbe647420	-0.22309923
76	0xbedd0741	-0.43169597
77	0x3ebd2216	0.36940068
78	0xbf161e26	-0.5863975
79	0xbead51c7	-0.33851454
80	0x3f8093ad	1.0045067
81	0x3f541cb0	0.82856274
82	0x3f246848	0.6422162
83	0xbf56b719	-0.83873135
84	0x3e3f1b92	0.18662861
85	0x3f4a7f0a	0.79100096
86	0x3e8d7510	0.27628374
87	0xbf88b1b6	-1.0679233
88	0xbec86df9	-0.39146402
89	0xbcec2606	-0.028826725
90	0x3f9e8d6e	1.2386911
91	0xbf144578	-0.579185
92	0xbb258078	-0.0025253575
93	0x3f3b6d13	0.7321331
94	0xbec469ea	-0.38362056
95	0xbec9cfd7	-0.39416382
96	0x3fc05e4e	1.502878
97	0xbe27dbb4	-0.16392404
98	0x3f229007	0.6350102
99	0xbfca2f4b	-1.5795683

autoencoder.decoder.mlp.mlp.0.bias f4 [10]
0	0x3dc42862	0.09578015
1	0xbccde509	-0.025133627
2	0x3db9bc04	0.09069064
3	0xbe1009ea	-0.14066282
4	0x3db32f8c	0.08749303
5	0xbe456fb5	-0.19280894
6	0x3ed67d3a	0.41892415
7	0xbe12af28	-0.1432463
8	0x3e8cd377	0.27505085
9	0x3e328d3e	0.17436692

autoencoder.decoder.mlp.mlp.2.weight f4 [1, 10]
0	0x3f677617	0.90414566
1	0xbf6c04ed	-0.92195016
2	0x3f965381	1.1744233
3	0xbf5099ef	-0.81484884
4	0xbfab7c9e	-1.3397405
5	0xbf30c48c	-0.69049907
6	0xbf63258a	-0.88729155
7	0xbf0435a7	-0.51644367
8	0x3f7a8dc3	0.9787256
9	0xc05894c7	-3.3840806

exp_avg f4 [10]
0	0x00000000	0.0
1	0x00000000	0.0
2	0x00000000	0.0
3	0x00000000	0.0
4	0x00000000	0.0
5	0x00000000	0.0
6	0x00000000	0.0
7	0x00000000	0.0
8	0x00000000	0.0
9	0x00000000	0.0

exp_avg_sq f4 [10]
0	0x00000000	0.0
1	0x00000000	0.0
2	0x00000000	0.0
3	0x00000000	0.0
4	0x00000000	0.0
5	0x00000000	0.0
6	0x00000000	0.0
7	0x00000000	0.0
8	0x00000000	0.0
9	0x00000000	0.0

exp_avg f4 [10]
0	0x00000000	0.0
1	0x00000000	0.0
2	0x00000000	0.0
3	0x00000000	0.0
4	0x00000000	0.0
5	0x00000000	0.0
6	0x00000000	0.0
7	0x00000000	0.0
8	0x00000000	0.0
9	0x00000000	0.0

exp_avg_sq f4 [10]
0	0x00000000	0.0
1	0x00000000	0.0
2	0x00000000	0.0
3	0x00000000	0.0
4	0x00000000	0.0
5	0x00000000	0.0
6	0x00000000	0.0
7	0x00000000	0.0
8	0x00000000	0.0
9	0x00000000	0.0
