mixed/dsgps/results/30_ite_lamb_0_gamma_0_9/ckpt/best_model.pt (torch, 95237 bytes, 93 tensors)

laynorm.weight f4 [10]
1.0 1.0 1.0 1.0 1.0 1.0 1.0 1.0
1.0 1.0
00000000: 0000 803f 0000 803f 0000 803f 0000 803f
00000010: 0000 803f 0000 803f 0000 803f 0000 803f
00000020: 0000 803f 0000 803f

laynorm.bias f4 [10]
0.0 0.0 0.0 0.0 0.0 0.0 0.0 0.0
0.0 0.0
00000000: 0000 0000 0000 0000 0000 0000 0000 0000
00000010: 0000 0000 0000 0000 0000 0000 0000 0000
00000020: 0000 0000 0000 0000

phi_to.mlp.mlp.0.weight f4 [10, 23]
-0.4802179 0.21972942 -1.0346237 -0.11266254 0.1170023 0.09245623 0.09546897 -0.1172775
0.22906943 -0.37217095 -0.09031671 -0.25545332 -0.5171765 0.3599155 0.11613737 -0.060042202
-0.11121587 -0.21760143 -0.21570456 -0.2378091 0.0005193537 -0.0028081073 0.15227413 -0.7883742
-0.3316976 0.32711563 -0.041948013 0.13181543 -0.2536284 0.15680674 -0.3996807 0.32443115
-0.54460984 -0.1896862 0.2794258 0.31453675 0.13844559 0.15888068 0.02921352 -0.3631916
0.24304244 0.084612176 -0.22926347 0.00022413266 -0.0005684223 -0.04147322 -0.17407759 -0.32443896
-0.27579063 -0.036991064 -0.2567998 -0.324876 0.17007907 0.2725112 0.00514262 0.3512552
-0.4214459 0.06406082 0.17126782 -0.14934462 -0.17906033 0.4679373 -0.024460655 -0.115645416
0.17774355 -0.11836866 -0.0006142917 -0.0022289006 0.028048767 -0.012969585 -0.09226028 1.1880882
0.27084193 -0.36567697 -0.047506455 0.012980978 0.057071883 0.30544913 -0.07658234 -0.024173468
0.44762823 1.2590407 -0.06876679 0.040189628 0.060691062 -0.16422147 0.44768876 -0.16878052
0.16001014 -0.0005008014 -0.0004358442 -0.20409413 -0.2402161 -0.28136513 0.6321535 -0.28762844
0.12483892 -0.052371982 -0.6490694 0.09803941 0.1776687 0.15643393 0.14976954 0.4102151
0.44696522 -0.3282281 -0.51496464 0.07561099 -0.026259923 0.10339873 0.09522096 0.083689086
-0.00011239425 0.00074762636 -0.0931404 -0.27163923 -0.05733006 0.022682553 -0.07860288 0.46916324
-0.21521488 0.0803387 -0.44964817 0.5291556 0.38014144 0.1721277 0.007540898 -0.066046506
-0.07174987 0.13658512 0.2828796 -0.056486312 0.3849798 -0.0404733 -0.46320593 0.0014717075
-0.0027533153 0.011649366 -0.3566809 0.48073372 0.88026583 -0.14062457 0.5382021 -0.5242432
-0.14059496 0.24245034 0.12540464 -0.07687711 0.19123875 0.16894095 1.1266447 0.39093336
0.039396003 0.051343873 -0.37558654 0.1749629 0.09730789 -0.18132769 0.0002183468 -0.00045013984
-0.16872852 -0.04520338 0.33803302 0.6648324 -0.33960673 -0.12795478 0.08825213 -0.1844756
-0.25584087 0.34473017 -0.32318914 -0.44879857 -0.03324207 0.83983743 0.16977313 -0.17894979
-0.024484498 0.032126337 -0.25632185 0.13481286 -0.3190225 -5.392394e-05 -0.0005989534 -0.10219099
0.4875662 -0.4889889 0.26742813 0.09559437 0.026727878 0.3319252 0.0971937 0.34780437
0.10568083 -0.21550356 -0.26181212 -0.52138364 -0.09167475 0.4102751 0.27370372 0.033966787
0.20696841 -0.11288745 0.04805278 0.13777919 -0.0010368117 0.00073400233 -0.011900272 0.051626384
0.57041806 1.54315 0.31553686 -0.2821355 0.13846931 -0.20728257 -0.13791911 0.49467045
-0.13220572 0.29163128 -0.32416594 2.194779 -0.04954742 -0.24205913 -0.65406835 0.3152304
0.088756725 -0.38652408 -0.26531884 0.00010285403 -0.00085546606 -0.2871321
00000000: 1fdf f5be c000 613e 8d6e 84bf 9ebb e6bd
00000010: e79e ef3d b159 bd3d 3c85 c33d 302f f0bd
00000020: 2d91 6a3e 318d bebe f8f7 b8bd c7ca 82be
00000030: ae65 04bf d846 b83e 6ed9 ed3d d0ee 75bd
00000040: 25c5 e3bd e9d2 5ebe a8e1 5cbe 3b84 73be
00000050: 3d25 083a 3908 38bb c0ed 1b3e e4d2 49bf
00000060: 45d4 a9be b37b a73e aed1 2bbd a0fa 063e
00000070: 95db 81be f291 203e f3a2 ccbe d71b a63e
00000080: 8d6b 0bbf 193d 42be e610 8f3e f60a a13e
00000090: aec4 0d3e 9eb1 223e 3151 ef3c 40f4 b9be
000000a0: 1ee0 783e 2649 ad3d 0bc4 6abe 2705 6b39
000000b0: 2d02 15ba d3df 29bd 6541 32be dd1c a6be
000000c0: 6e34 8dbe f183 17bd 437b 83be 2656 a6be
000000d0: 3529 2e3e 9786 8b3e 6c83 a83b b9d7 b33e
000000e0: c2c7 d7be 5232 833d d560 2f3e cced 18be
000000f0: 975b 37be 7a95 ef3e b661 c8bc 81d7 ecbd
00000100: 6802 363e 456b f2bd 6b08 21ba bf12 12bb
00000110: 87c6 e53c 627e 54bc f5f2 bcbd 4613 983f
00000120: cbab 8a3e 033a bbbe 2196 42bd 2bae 543c
00000130: 35c4 693d d463 9c3e 34d7 9cbd 7007 c6bc
00000140: 872f e53e 3f28 a13f 9ad5 8cbd e19d 243d
00000150: 3197 783d ac29 28be 7637 e53e cdd4 2cbe
00000160: b3d9 233e 3748 03ba 0582 e4b9 0dfe 50be
00000170: 36fb 75be 170f 90be d0d4 213f 0944 93be
00000180: 8cab ff3d 0184 56bd 6a29 26bf e3c8 c83d
00000190: c9ee 353e 3730 203e 305d 193e b707 d23e
000001a0: a0d8 e43e 830d a8be b9d4 03bf efd9 9a3d
000001b0: 0d1f d7bc b7c2 d33d 3503 c33d 2f65 ab3d
000001c0: 34b5 ebb8 5bfc 433a 65c0 bebd 4c14 8bbe
000001d0: edd2 6abd c3d0 b93c 8cfa a0bd 2a36 f03e
000001e0: 4a61 5cbe 9e88 a43d 4938 e6be be76 073f
000001f0: e6a1 c23e 3e42 303e a319 f73b 6443 87bd
00000200: 99f1 92bd f8dc 0b3e 98d5 903e 315e 67bd
00000210: 131c c53e 55c7 25bd 5429 edbe 4fe6 c03a
00000220: f770 34bb fbdc 3e3c e19e b6be bb22 f63e
00000230: 1a59 613f e3ff 0fbe 9dc7 093f cd34 06bf
00000240: 20f8 0fbe e744 783e 136a 003e bf71 9dbd
00000250: 17d4 433e dbfe 2c3e e535 903f 6b28 c83e
00000260: b45d 213d f44d 523d e14c c0be 7929 333e
00000270: 5c49 c73d f7ad 39be 06f4 6439 bf00 ecb9
00000280: 2bc7 2cbe 2e27 39bd aa12 ad3e 7532 2a3f
00000290: efe0 adbe 9406 03be 88bd b43d 2ce7 3cbe
000002a0: 93fd 82be 7980 b03e 0c79 a5be edc8 e5be
000002b0: d628 08bd 96ff 563f 02d9 2d3e 9d3e 37be
000002c0: b793 c8bc e896 033d 9e3c 83be 620c 0a3e
000002d0: eb56 a3be 642c 62b8 1503 1dba 8249 d1bd
000002e0: 47a2 f93e c15c fabe 57ec 883e fbc6 c33d
000002f0: 6cf4 da3c 1af2 a93e 7e0d c73d 6a13 b23e
00000300: 316f d83d f7ac 5cbe 3d0c 86be 6679 05bf
00000310: f9bf bbbd 940f d23e e522 8c3e c220 0b3d
00000320: 87ef 533e 8931 e7bd fed2 443d fd15 0d3e
00000330: a1e5 87ba 106a 403a 5cf9 42bc 3076 533d
00000340: eb06 123f f085 c53f 0c8e a13e 1074 90be
00000350: e6ca 0d3e e241 54be ab3a 0dbe 7245 fd3e
00000360: f060 07be b250 953e 14f9 a5be 4277 0c40
00000370: 3cf2 4abd 59de 77be 0671 27bf e165 a13e
00000380: 16c6 b53d 7ce6 c5be dfd7 87be 56b3 d738
00000390: 5b41 60ba fb02 93be

phi_to.mlp.mlp.0.bias f4 [10]
0.03145094 0.05937675 0.04773472 0.07782703 0.039210852 0.04203228 0.020776406 0.086858466
-0.020607272 0.12524177
00000000: b3d2 003d 0935 733d 7b85 433d c763 9f3d
00000010: 8f9b 203d 0a2a 2c3d 4833 aa3c dae2 b13d
00000020: 95d0 a8bc 613f 003e

phi_to.mlp.mlp.2.weight f4 [10, 10]
0.33568147 0.6944734 -0.5084242 0.10492763 0.19516762 0.26601565 -0.11127504 0.34114528
-0.4766949 0.7697133 0.030053938 0.08267776 -0.20987965 0.39067125 -0.15154102 -0.37490556
0.38615188 0.0046755155 -0.12869853 -0.14894056 -0.29326695 -0.02950339 0.08223792 -0.3901685
0.2651089 -0.4406341 -0.60642666 -0.05298083 0.74184334 -0.95059675 0.17789862 -0.088067874
-0.061791014 0.45719358 -0.24597973 -0.45900476 -0.36428842 -0.023037905 0.36156133 0.48072958
0.36570555 -0.38604683 -0.47213006 -0.5631084 -0.551648 0.07256942 0.35700855 -0.02028987
-0.008382293 0.066322446 0.18195654 0.3710473 -0.12115483 0.18252994 0.5010893 0.25833035
-0.5031613 0.17040473 -0.364106 0.11324795 -0.28603277 -0.45783287 -0.5114583 -0.04345804
0.29913318 -0.11600472 -0.4091429 0.14813668 0.116837636 0.27642646 0.2588206 0.12708463
-0.020435806 0.10464986 -0.24307106 -0.09222304 -0.48999667 0.08095484 -0.407084 -0.9418671
-0.31915453 0.4168839 -0.45231768 -0.2546432 0.3882317 -0.034826733 0.8888813 0.18992393
0.15006985 -0.14890468 0.326839 0.11130477 -0.10093933 -0.13178107 0.16748138 0.2889721
-0.3946388 -0.45592508 0.18430106 -0.32414562
00000000: 71de ab3e 02c9 313f 1728 02bf 4ce4 d63d
00000010: 05da 473e 3433 883e 2be4 e3bd 98aa ae3e
00000020: 5b11 f4be ee0b 453f ad33 f63c f552 a93d
00000030: b1ea 56be 1006 c83e 922d 1bbe 9ff3 bfbe
00000040: b3b5 c53e 1135 993b 8cc9 03be e083 18be
00000050: 1627 96be 18b1 f1bc 5b6c a83d 2ac4 c7be
00000060: 5bbc 873e cb9a e1be c73e 1bbf 6d02 59bd
00000070: 72e9 3d3f 4f5a 73bf 0e2b 363e ee5c b4bd
00000080: 9318 7dbd 4715 ea3e 1ce2 7bbe ac02 ebbe
00000090: 0384 babe fdb9 bcbc 911e b93e 3022 f63e
000000a0: c23d bb3e eea7 c5be 08bb f1be df27 10bf
000000b0: ce38 0dbf 479f 943d d3c9 b63e f136 a6bc
000000c0: e355 09bc 10d4 873d d152 3a3e e9f9 bd3e
000000d0: 0620 f8bd 21e9 3a3e 6347 003f e043 843e
000000e0: 2ecf 00bf 947e 2e3e 1a6c babe 8bee e73d
000000f0: e372 92be 1269 eabe eeee 02bf 0f01 32bd
00000100: fc27 993e e293 edbd 2e7b d1be 24b1 173e
00000110: 9248 ef3d c587 8d3e 2284 843e 7922 023e
00000120: fe68 a7bc aa52 d63d 9fe7 78be 6fdf bcbd
00000130: d8e0 fabe a7cb a53d 506d d0be 341e 71bf
00000140: 3968 a3be ce71 d53e 2f96 e7be 9860 82be
00000150: 4ec6 c63e 7aa6 0ebd ba8d 633f 6b7b 423e
00000160: e9ab 193e 787a 18be 7157 a73e c1f3 e33d
00000170: 48b9 cebd 9ef1 06be 3d80 2b3e 27f4 933e
00000180: 190e cabe 036f e9be 6bb9 3c3e 6af6 a5be

phi_to.mlp.mlp.2.bias f4 [10]
-0.12915482 0.03384489 0.061510634 0.06746612 0.003663933 0.06874899 -0.029525906 0.15618654
-0.06889099 0.0135957375
00000000: 2941 04be f0a0 0a3d 93f2 7b3d ad2b 8a3d
00000010: 981e 703b 45cc 8c3d 50e0 f1bc 5def 1f3e
00000020: b816 8dbd a8c0 5e3c

phi_from.mlp.mlp.0.weight f4 [10, 23]
-0.43182045 -0.09438765 -0.3670901 -0.35050532 0.508411 -0.0824595 -0.061302945 -0.50911963
-0.22137994 -0.24989665 -0.100231856 0.14217886 -0.21616557 -0.25292298 -0.4576713 -0.39955375
-0.35636207 -0.29728752 -0.25712124 -0.25026405 -0.0005436716 0.00072420714 0.08065742 0.103168614
0.01503324 1.2820667 0.09358492 0.1723908 0.29009688 -0.020488964 0.38482022 -0.1860468
-0.364933 0.12713917 0.08177274 1.0732521 0.31931815 -0.6015794 0.2774604 0.43740365
0.0484699 0.1700301 0.53709865 0.0021437558 0.0002534553 -0.19657442 -0.12341742 0.08394109
-0.4089095 0.21444498 0.06252618 0.09953944 0.7866741 0.31942534 1.1454146 -0.22582313
-0.44326723 -0.14218375 0.052105717 -0.06445229 0.60985464 0.07444731 -0.14591716 0.009691173
0.032533795 -0.029639836 -0.017291155 0.011210015 0.023002736 0.30045283 0.20977604 0.60928184
-0.059698127 -0.021373924 0.4844798 0.5201551 0.07682925 0.031396277 -0.17589647 0.25840357
-0.016293043 0.25189337 0.085131206 -0.4791937 0.32852712 0.2985565 -0.21837571 0.20594469
0.68178993 0.0014155355 -0.00038897258 -0.073905766 -0.060491245 0.46737018 -0.20434955 -0.23590799
-0.39569828 0.20868881 0.43862727 0.28169912 -0.07540858 -0.21996188 0.11882894 0.05634088
0.1565466 0.29478416 0.054749705 0.108902104 -0.468591 -0.44112876 0.29197457 0.31424162
-0.0010971266 0.004654128 -0.006864666 -0.18320744 0.1664674 0.09004955 0.47195715 -0.28668028
-0.08438095 -0.5027912 0.20610031 0.41623205 0.062302727 -0.23525754 0.54667175 0.08799816
-0.23143752 -0.17971121 0.025015622 0.4363466 -0.24956986 -0.27784318 -0.11214433 -0.0017479158
0.004065201 -0.017553892 -0.27162498 0.23917818 0.20724417 0.108950965 -0.36034155 0.24762934
-0.46034122 -0.36648998 -0.33487526 -0.46617776 0.23170538 0.16518673 0.3215119 -0.06180799
-0.367525 -0.28711683 -0.14960061 -0.14622976 -0.31909198 0.13360243 0.015529795 0.0079297265
-0.037959915 0.28512165 -0.39759916 -0.020497909 -0.21926665 -0.48906875 -0.117498636 -0.15662104
-0.17403525 0.37539598 -0.038263723 0.019845411 0.37664053 0.108524196 -0.17896791 0.2777944
0.49428716 0.462288 -0.28876784 0.20473965 -0.2177335 0.0012413306 -0.00084209803 0.012897268
0.46317825 -0.11545993 1.1116887 0.13042662 0.27081218 0.099882685 -0.2963638 -0.21543595
-0.2771184 -0.022893775 0.5843469 0.3271289 1.0363272 -0.4718636 0.112269476 -0.1671839
0.12594986 -0.057286933 0.35809892 0.36606297 -0.00022880381 -0.0003755306 -0.1641494 -0.69135684
-0.28861484 -1.0669675 -0.10674731 1.1689768 0.2732174 -0.41489193 -0.16101912 -0.6703475
0.10225896 -0.36561218 0.14476146 -0.7646687 -0.038242113 0.52150446 -0.32211623 0.020810219
-0.13935053 0.07535174 0.3195469 0.00028713193 -0.00054233696 0.16942056
00000000: 9217 ddbe 504e c1bd 3cf3 bbbe 6f75 b3be
00000010: 3927 023f 87e0 a8bd cc18 7bbd aa55 02bf
00000020: 6cb1 62be e8e4 7fbe 5c46 cdbd 5697 113e
00000030: 825a 5dbe 1f7f 81be e553 eabe 4f92 ccbe
00000040: 1775 b6be 1236 98be 65a5 83be 9c22 80be
00000050: 2f85 0eba b8d8 3d3a b82f a53d 114a d33d
00000060: fb4d 763c c31a a43f 73a9 bf3d 3787 303e
00000070: 9487 943e 79d8 a7bc 2807 c53e 0d83 3ebe
00000080: 80d8 babe c530 023e 7778 a73d 5360 893f
00000090: ab7d a33e 1c01 1abf 4a0f 8e3e 5ff3 df3e
000000a0: 6088 463d 5f1c 2e3e 4c7f 093f 417e 0c3b
000000b0: 32e2 8439 ce4a 49be 46c2 fcbd 4ee9 ab3d
000000c0: 965c d1be 7797 5b3e ba0d 803d 55db cb3d
000000d0: 7963 493f b88b a33e f29c 923f 2e3e 67be
000000e0: ecf3 e2be 9e98 11be ce6c 553d 90ff 83bd
000000f0: 6f1f 1c3f d577 983d 4f6b 15be bac7 1e3c
00000100: 2842 053d 3ecf f2bc 2ea6 8dbc 36aa 373c
00000110: 3c70 bc3c f4d4 993e 88cf 563e e5f9 1b3f
00000120: 0686 74bd 5e18 afbc bd0d f83e e228 053f
00000130: a758 9d3d 6299 003d 341e 34be 794d 843e
00000140: fd78 85bc 2bf8 803e 4559 ae3d e058 f5be
00000150: b534 a83e 66dc 983e e29d 5fbe 2ae3 523e
00000160: c989 2e3f 7d89 b93a 04ef cbb9 e85b 97bd
00000170: abc5 77bd 254b ef3e 0241 51be dd91 71be
00000180: f798 cabe 85b2 553e c193 e03e de3a 903e
00000190: d06f 9abd b03d 61be 965c f33d b2c5 663d
000001a0: c04d 203e f3ed 963e 3a41 603d 1108 df3d
000001b0: 29eb efbe a1db e1be b17d 953e 47e4 a03e
000001c0: 76cd 8fba a881 983b fef0 e0bb bb9a 3bbe
000001d0: 6e76 2a3e e66b b83d 5ea4 f13e c2c7 92be
000001e0: ebcf acbd edb6 00bf f60b 533e 5e1c d53e
000001f0: 2531 7f3d 5ae7 70be aef2 0b3f 6138 b43d
00000200: f5fd 6cbe 3706 38be 90ed cc3c d268 df3e
00000210: 3e8f 7fbe 7641 8ebe edab e5bd 521a e5ba
00000220: 6135 853b 2ecd 8fbc 6e12 8bbe 20eb 743e
00000230: d137 543e af21 df3d b07e b8be 8c92 7d3e
00000240: d8b1 ebbe 93a4 bbbe c574 abbe daae eebe
00000250: 2d44 6d3e b626 293e 359d a43e 602a 7dbd
00000260: 3d2c bcbe fa00 93be e730 19be 41bd 15be
00000270: 0660 a3be 13cf 083e ae70 7e3c afeb 013c
00000280: db7b 1bbd 77fb 913e 1e92 cbbe 3beb a7bc
00000290: 7087 60be 3867 fabe 20a3 f0bd 4461 20be
000002a0: 4c36 32be e733 c03e 6cba 1cbd d892 a23c
000002b0: 07d7 c03e ef41 de3d 5d43 37be 113b 8e3e
000002c0: 3513 fd3e 03b1 ec3e 61d9 93be 45a7 513e
000002d0: 88f5 5ebe 25b4 a23a 3ec0 5cba 104f 533c
000002e0: b325 ed3e 4176 ecbd d14b 8e3f 8e8e 053e
000002f0: e5a7 8a3e 4b8f cc3d ffbc 97be 3e9b 5cbe
00000300: 77e2 8dbe ba8b bbbc c297 153f 707d a73e
00000310: 5fa6 843f 1b98 f1be 8aed e53d 4232 2bbe
00000320: 00f9 003e b4a5 6abd be58 b73e 9b6c bb3e
00000330: 0eeb 6fb9 dde2 c4b9 c816 28be c3fc 30bf
00000340: 53c5 93be 6492 88bf 559e dabd 08a1 953f
00000350: 27e3 8b3e b76c d4be 32e2 24be e59b 2bbf
00000360: 256d d13d 8531 bbbe 593c 143e 54c1 43bf
00000370: c3a3 1cbd 5181 053f 6bec a4be 317a aa3c
00000380: e8b1 0ebe 0352 9a3d a79b a33e 328a 9639
00000390: 9e2b 0eba 957c 2d3e

phi_from.mlp.mlp.0.bias f4 [10]
0.06291732 0.122817464 0.15859514 0.08746454 0.10545682 0.11896596 0.06897814 0.051092733
0.08331456 -0.14889151
00000000: ccda 803d b987 fb3d c466 223e 9c20 b33d
00000010: bff9 d73d 6da4 f33d 6944 8d3d 9d46 513d
00000020: d3a0 aa3d 0477 18be

phi_from.mlp.mlp.2.weight f4 [10, 10]
-0.49937314 -0.6234803 0.17436042 0.03561713 0.39471194 0.16058536 -0.07432085 -0.17113338
-0.61118925 -0.40204564 -0.062606 0.13537145 -0.33386108 -0.16054805 -0.5171706 0.46403593
0.31364232 0.61150235 0.6426519 -0.06375339 -0.32077727 -0.28478226 0.4275926 0.14300779
-0.31492054 -0.5322756 -0.5723692 0.5836854 -0.21926035 -0.41534156 0.21884236 0.48122567
0.021782478 0.16155133 0.45521003 -0.30229062 -0.35951275 -0.03704335 -0.19700064 0.13709123
-0.23699994 0.7921259 -0.12441691 0.53401655 -0.19274624 -0.537881 -0.055459745 -0.2422731
0.54311794 -0.535199 -0.14972356 0.26568183 0.11828854 -0.22110808 0.52602035 -0.3220144
0.30742452 0.16326511 -0.27905506 -0.018101968 0.13053016 0.116679564 -0.18217468 0.39036164
0.018435495 -0.26010364 0.19189486 -0.037796896 0.27216262 0.0039163567 -0.4327438 -0.087079674
0.25427356 0.538818 -0.3983815 -0.11170626 -0.27724576 -0.34757975 -0.3915871 -0.04834694
-0.069970906 -0.28538975 0.54924303 -0.04622522 0.03320541 0.5478886 -0.4633344 -0.17602982
-0.51302224 0.1532721 -0.15080027 -0.056115773 -0.096055515 -0.0009979137 0.4692831 -0.15803772
-0.40498418 0.2627106 0.17557938 -0.08551625
00000000: d6ad ffbe 689c 1fbf 8a8b 323e 45e3 113d
00000010: af17 ca3e 7d70 243e 8835 98bd 973d 2fbe
00000020: e676 1cbf edd8 cdbe 9337 80bd d09e 0a3e
00000030: d7ef aabe b566 24be 4b65 04bf 1e96 ed3e
00000040: ba95 a03e 6b8b 1c3f d684 243f 2391 82bd
00000050: eb3c a4be fbce 91be 6bed da3e a270 123e
00000060: 443d a1be 3743 08bf ca86 12bf 686c 153f
00000070: c985 60be a6a7 d4be 3618 603e 3663 f63e
00000080: 2b71 b23c b66d 253e 4a11 e93e d6c5 9abe
00000090: 0e12 b8be c5ba 17bd 89ba 49be a561 0c3e
000000a0: 1db0 72be c3c8 4a3f 4bce febd 4fb5 083f
000000b0: 455f 45be 92b2 09bf c229 63bd 7116 78be
000000c0: c709 0b3f cd02 09bf 2251 19be 7307 883e
000000d0: 4341 f23d 286a 62be 45a9 063f 12df a4be
000000e0: bf66 9d3e f82e 273e 4ee0 8ebe 944a 94bc
000000f0: b3a9 053e b2f5 ee3d 008c 3abe 7bdd c73e
00000100: 0906 973c 4e2c 85be 1680 443e ebd0 1abd
00000110: e658 8b3e c854 803b 9890 ddbe d456 b2bd
00000120: 2530 823e faef 093f a9f8 cbbe 40c6 e4bd
00000130: 28f3 8dbe f9f5 b1be 1b7e c8be 7107 46bd
00000140: e84c 8fbd 9b1e 92be 319b 0c3f a856 3dbd
00000150: 6502 083d 6d42 0c3f 2b3a edbe 2941 34be
00000160: 6d55 03bf 5df3 1c3e 636b 1abe a7d9 65bd
00000170: c1b8 c4bd 6dcc 82ba e045 f03e a4d4 21be
00000180: 165a cfbe 0182 863e 15cb 333e 2523 afbd

phi_from.mlp.mlp.2.bias f4 [10]
-0.095216505 -0.010676259 0.09157169 -0.060402118 -0.17165963 0.07444833 -0.042410612 0.04123619
0.037899718 -0.11341165
00000000: df00 c3bd 7aeb 2ebc f089 bb3d 3668 77bd
00000010: 8bc7 2fbe 5e78 983d c0b6 2dbd 47e7 283d
00000020: bc3c 1b3d 5e44 e8bd

z_k.mlp.0.weight f4 [10, 33]
0.8509951 0.4016585 1.5884585 -0.7446691 -1.2523162 0.62546855 0.02516209 -0.67469156
-0.3887766 -0.12018375 -0.15350679 -0.7984906 0.13503039 -1.0824703 0.13016877 -0.16495611
0.40027702 -3.9197865e-05 0.28064188 0.1611821 0.35297683 0.14304057 0.8205229 -0.56675166
0.23224084 -1.0338912 0.6103794 -0.29266688 -0.2615997 -0.123230636 -0.04544877 -0.07569007
0.23106746 -0.3277624 -1.0102007 -0.7379422 -0.29247102 3.997627 -0.5276763 0.29151845
1.9571848 -1.1272782 -1.1425381 -0.1898153 0.23206402 -0.7675362 -0.7417844 -0.31472433
0.2061728 -0.3937081 0.58480906 -0.9130247 0.648307 0.29640386 0.58522254 0.08466336
0.17527899 0.0031695548 -0.6708527 0.582667 -0.18238652 -0.64933914 0.5442352 0.0053622094
-0.021619089 -0.43119943 -0.4242017 -1.1654289 1.9635195 0.3833891 1.2452825 -0.025947398
-0.18232441 0.34152636 -0.46356627 -0.008446488 0.05725453 0.26253456 -0.32097244 -0.57799983
0.21997298 -0.5700838 0.7662046 -0.21120247 0.39404523 0.74844193 -0.030617425 -0.06175946
0.09147066 -0.015055222 0.15053602 -0.45169201 0.12539335 0.07941724 -0.47932756 0.16575691
-0.011598104 -0.1027175 0.05810045 1.5326759 0.06071411 -1.4400519 -0.31548354 -0.8674415
0.20459585 0.09850589 0.14844237 0.07030275 -0.06558938 0.039452933 -0.4533953 -0.30599055
-0.36285812 -0.0046086493 0.074982874 -0.29943258 1.2637687 -0.8869237 0.3165565 0.33700126
0.72337925 -0.17915714 -0.02418312 0.5100889 0.09078767 0.58305943 -0.22971286 -0.3328883
0.49315852 -0.00013058851 0.2942446 -0.2902244 0.7873609 -1.0159762 -0.6079302 0.3415284
1.0459472 -0.2576368 0.22242028 0.1621415 -0.69083464 0.2984727 0.1810005 0.03620035
-0.34750026 -0.7317855 0.6553773 -0.8541928 -0.040287066 -0.31050467 0.574947 0.6060856
0.29588428 -0.5211943 -0.021561021 0.014667097 0.62970674 -0.20907068 0.22656463 0.8402545
-0.1248786 0.33360478 0.015589266 -0.28319135 -0.4955048 0.66174024 -0.020885356 0.94601184
-1.1368735 1.298645 -0.37370875 0.5455889 0.62681466 -0.46772537 -0.548122 -0.4961573
-0.9091484 0.47792396 -0.9491659 0.17178483 -0.27377573 0.79543716 -0.21369442 0.5258032
0.6835132 -0.4449217 0.56519026 0.7779892 -0.6399076 0.5518777 -0.6973427 0.46728078
0.18031104 -0.5519789 -0.24246015 -0.07179231 -0.18185627 -0.09642917 -0.11324696 -0.075613774
-0.44618556 -0.35818234 0.37356567 -0.7260126 0.39185983 0.06993295 -0.091560334 0.08788408
-0.22122414 -0.73935014 -0.17555785 -0.8249324 0.055559464 -0.32777515 0.028359778 -0.13559653
-0.19298543 0.11181242 0.35330898 0.36657885 -0.3178365 0.27908486 0.034961507 -0.14413913
-0.19885726 -0.3289302 -0.47276405 0.021005353 -0.0026383658 -0.4292466 -0.20446533 0.21127169
-0.8045699 -0.20891723 -0.199382 -0.2749665 -0.9778715 -0.026158089 0.31453055 -0.15921476
0.23869047 -0.46169662 0.030313319 -0.24969414 -0.5598104 0.23895831 0.22758484 0.07882551
-0.2828142 0.1898651 0.16909768 0.336072 -0.3313883 -0.11870805 0.18735152 0.3233374
00000000: d1da 593f 2fa6 cd3e 9c52 cb3f a2a2 3ebf
00000010: e64b a0bf b51e 203f ba20 ce3c 96b8 2cbf
00000020: ba0d c7be e622 f6bd e230 1dbe e169 4cbf
00000030: 6845 0a3e 638e 8abf f64a 053e 41ea 28be
00000040: 1cf1 cc3e 6368 24b8 4bb0 8f3e ec0c 253e
00000050: 61b9 b43e 3a79 123e ca0d 523f a316 11bf
00000060: 8bd0 6d3e 8c56 84bf d341 1c3f 6fd8 95be
00000070: 65f0 85be 5860 fcbd 7d28 3abd 6503 9bbd
00000080: f39c 6c3e 79d0 a7be 424e 81bf c8e9 3cbf
00000090: c3be 95be 1fd9 7f40 cb15 07bf e841 953e
000000a0: 0885 fa3f a74a 90bf b03e 92bf f15e 42be
000000b0: 31a2 6d3e 417d 44bf 95e5 3dbf 8c23 a1be
000000c0: f61e 533e 1c94 c9be 0cb6 153f fdbb 69bf
000000d0: 73f7 253f 3fc2 973e 25d1 153f fc63 ad3d
000000e0: 567c 333e 4eb8 4f3b 01bd 2bbf aa29 153f
000000f0: 88c3 3abe 173b 26bf 0053 0b3f 79b5 af3b
00000100: 841a b1bc 2cc6 dcbe f730 d9be c62c 95bf
00000110: 9b54 fb3f 934b c43e 6b65 9f3f a38f d4bc
00000120: 40b3 3abe 8bdc ae3e 8f58 edbe 2363 0abc
00000130: ba83 6a3d ee6a 863e 8056 a4be ccf7 13bf
00000140: 9940 613e 03f1 11bf fc25 443f 7645 58be
00000150: 4cc0 c93e e499 3f3f 65d1 fabc 7df7 7cbd
00000160: f854 bb3d 2eaa 76bc 1d26 1a3e 2d44 e7be
00000170: 1d67 003e 82a5 a23d 6c6a f5be 2ebc 293e
00000180: f905 3ebc 8d5d d2bd bdfa 6d3d b92e c43f
00000190: 5caf 783d 9f53 b8bf 0f87 a1be a510 5ebf
000001a0: 9381 513e 75bd c93d 4701 183e e3fa 8f3d
000001b0: ba53 86bd 6699 213d 6e23 e8be cbaa 9cbe
000001c0: 8ac8 b9be 2704 97bb 9f90 993d 3a4f 99be
000001d0: 2cc3 a13f 6e0d 63bf b213 a23e 6e8b ac3e
000001e0: 622f 393f f874 37be ae1b c6bc 3095 023f
000001f0: e3ee b93d 6243 153f d939 6bbe 5670 aabe
00000200: 467f fc3e 96ee 08b9 3aa7 963e 4b98 94be
00000210: 7c90 493f 820b 82bf 50a1 1bbf cfdc ae3e
00000220: 99e1 853f f8e8 83be 24c2 633e 6c08 263e
00000230: 8ada 30bf 6ad1 983e 3258 393e d146 143d
00000240: 8eeb b1be 4b56 3bbf cfc6 273f 61ac 5abf
00000250: 0d04 25bd 78fa 9ebe ba2f 133f 6d28 1b3f
00000260: 257e 973e fd6c 05bf bda0 b0bc 434e 703c
00000270: 7634 213f a016 56be 8f00 683e eb1a 573f
00000280: 5ac0 ffbd 3fce aa3e 1f6a 7f3c 75fe 90be
00000290: ceb2 fdbe cf67 293f c417 abbc d52d 723f
000002a0: 1285 91bf 003a a63f c156 bfbe b7ab 0b3f
000002b0: ed76 203f b379 efbe b951 0cbf 5408 febe
000002c0: f3bd 68bf 73b2 f43e 89fc 72bf 5de8 2f3e
000002d0: 552c 8cbe c5a1 4b3f b6d2 5abe 0a9b 063f
000002e0: b9fa 2e3f c7cc e3be 4fb0 103f 4d2a 473f
000002f0: fcd0 23bf db47 0d3f 0d85 32bf 6d3f ef3e
00000300: 75a3 383e 7d4e 0dbf 7947 78be d907 93bd
00000310: 8838 3abe a87c c5bd 06ee e7bd 65db 9abd
00000320: 6f72 e4be ad63 b7be 0044 bf3e f6db 39bf
00000330: daa1 c83e 0239 8f3d fc83 bbbd 92fc b33d
00000340: 9588 62be 0d46 3dbf 70c5 33be c52e 53bf
00000350: 5292 633d 25d2 a7be c452 e83c d1d9 0abe
00000360: f99d 45be e9fd e43d eae4 b43e 39b0 bb3e
00000370: 77bb a2be 36e4 8e3e cc33 0f3d 3599 13be
00000380: 3da1 4bbe 8a69 a8be 210e f2be 6b13 ac3c
00000390: 6fe8 2cbb 36c6 dbbe 5c5f 51be 9b57 583e
000003a0: 4bf8 4dbf 66ee 55be cc2a 4cbe 69c8 8cbe
000003b0: c955 7abf 7d49 d6bc 260a a13e 3209 23be
000003c0: 466b 743e 8063 ecbe a353 f83c d2af 7fbe
000003d0: bc4f 0fbf 7db1 743e 000c 693e 456f a13d
000003e0: 06cd 90be ff6b 423e f127 2d3e a111 ac3e
000003f0: baab a9be 351d f3bd 14d9 3f3e 7b8c a53e

z_k.mlp.0.bias f4 [10]
-0.10083272 -0.5708632 -0.031636655 -0.18517832 -0.58387244 -0.57121295 -0.3317471 -0.47399694
-0.2448098 -0.49397126
00000000: 6381 cebd 1724 12bf 7095 01bd 639f 3dbe
00000010: aa78 15bf 033b 12bf c2da a9be baaf f2be
00000020: 6caf 7abe cde9 fcbe

r_k.mlp.0.weight f4 [10, 33]
-0.19895457 -0.15411864 0.26627353 0.10245693 -0.6490982 0.35569024 -0.18177968 0.2798168
-0.06790005 -0.100049034 -0.7318392 -0.15176536 0.651548 0.2294295 -0.41971228 0.44652712
-0.25577983 0.4134718 -0.02029306 -0.45067412 0.05273741 -0.16697219 -0.018904453 -0.14869559
0.23626892 -0.30622667 -0.24921598 -0.121823 -0.12395537 -0.18407683 -0.22174624 -0.34609753
0.29723626 -0.16016002 0.0029491475 0.6259029 0.07917081 1.8202028 -0.20702286 -0.53188705
1.9180298 -0.49138314 0.14818594 -0.22260475 -0.08633811 0.22770031 -0.5693351 -0.6050845
0.47818056 -0.123529725 -0.045899056 -0.4618487 0.21620712 0.1350288 0.4309965 -0.7423544
-0.5678154 0.4553102 -0.09052974 0.68457043 0.07895926 0.16519782 0.53695905 -0.026422484
0.19980314 -0.22424269 0.38572228 0.27320844 0.5398131 0.088446066 0.79172003 -0.5681154
-0.21358435 -0.08078401 0.1280926 -0.47616604 0.95745426 -0.11048662 -0.6607676 -1.1324743
-0.122188844 0.38436803 0.5536559 0.6064576 0.06671299 0.85750973 -0.38504237 -0.49713528
-0.23602405 -0.32304892 -0.34273812 -0.28948772 -0.05423272 -0.29589486 0.077937074 -0.10458814
-0.36581996 0.10464385 0.31368124 -0.1060543 0.22992443 0.476091 0.37061766 -0.2905614
0.5737242 -0.20348985 -0.513205 0.53544545 0.45793355 0.23195243 -0.09283322 -0.31224078
-0.008240269 0.15560333 0.07081036 -0.0737154 -0.20785569 0.6075428 0.011809112 0.4944776
-0.92520964 0.48872465 0.3333562 0.06859286 0.5149757 -0.7416873 0.50794446 0.13754079
0.12292997 -0.100739844 0.28141072 0.14478643 -0.09189586 1.1632314 -0.061552078 0.25756246
0.45667797 -0.0672053 0.61600107 0.38472673 -0.2285047 0.2197094 0.45584443 0.3717208
0.13955177 -0.25693393 -0.6936389 0.20512371 0.30221227 0.69005466 0.7400897 -0.82380146
-0.16768162 -0.5361154 0.056480553 0.08798021 -0.51055163 -0.25207418 0.63228744 0.18576643
-0.18432158 -0.4431536 0.064086065 -0.18256016 0.2504459 0.089094155 -0.099431984 0.80289847
0.24213383 -0.04281591 0.11656236 -0.6889918 -0.5098993 0.966507 0.23380232 -0.4133317
-0.5261426 0.8751882 -0.3906127 -0.13775462 0.3247815 -0.54073703 0.49749872 -0.23627502
0.40029424 -0.23339112 0.24831983 -0.86212254 0.25230968 -0.08022552 0.18255644 -0.48023587
-0.55708146 0.17347948 0.38850862 -0.73132586 -0.15015101 0.11075315 -0.038377978 -0.0019614603
-0.13097598 0.12067851 0.5355035 -0.31475776 -0.48333886 0.083832346 0.20561968 0.020885242
-0.15192801 0.30775484 -0.41973117 0.17961597 -0.123756014 -0.2686755 0.40991268 0.35025752
-0.17552921 0.20216195 -0.50162685 -0.27091405 -0.059898365 -0.25243843 0.16403824 -0.082865745
-0.3024936 -0.08647782 0.028418435 -0.10468134 0.02818381 0.3162892 -0.12459463 0.6841018
-0.9815801 -0.46665105 0.8692254 0.49460787 -0.07308501 -0.30283993 -0.78135705 0.29890105
0.6961428 0.61119246 -1.0382574 -1.0190103 0.19790745 -0.68049353 0.47778633 -0.23026344
-0.31617346 -0.47259519 0.87361455 -0.29900485 -0.35588107 -0.32833034 0.70032936 -0.3197817
00000000: bfba 4bbe 47d1 1dbe 0155 883e f0d4 d13d
00000010: 4d2b 26bf 081d b63e 7424 3abe 2644 8f3e
00000020: 2e0f 8bbd 82e6 ccbd d059 3bbf 6168 1bbe
00000030: dacb 263f 91ef 6a3e 87e4 d6be 349f e43e
00000040: 93f5 82be 93b2 d33e a23d a6bc c2be e6be
00000050: 2f03 583d c2fa 2abe 83dd 9abc a843 18be
00000060: 7bf0 713e bec9 9cbe 7932 7fbe 567e f9bd
00000070: 50dc fdbd a37e 3cbe 7211 63be b233 b1be
00000080: 5a2f 983e fd00 24be 7c46 413b 2c3b 203f
00000090: 4e24 a23d 68fc e83f cdfd 53be c029 08bf
000000a0: 0082 f53f 9296 fbbe 0ebe 173e 80f2 63be
000000b0: 09d2 b0bd 452a 693e f2bf 11bf d1e6 1abf
000000c0: 15d4 f43e 27fd fcbd a600 3cbd 6f77 ecbe
000000d0: 6665 5d3e fd44 0a3e 93ab dc3e f00a 3ebf
000000e0: 5a5c 11bf 6b1e e93e a867 b9bd 0240 2f3f
000000f0: 64b5 a13d 9e29 293e 2676 093f f773 d8bc
00000100: 3299 4c3e e09f 65be 647d c53e fae1 8b3e
00000110: 3131 0a3f 3623 b53d 2aae 4a3f 0370 11bf
00000120: dbb5 5abe 1672 a5bd b52a 033e 09cc f3be
00000130: b91b 753f cf46 e2bd 1128 29bf ebf4 90bf
00000140: 253e fabd e3cb c43e 65bc 0d3f ce40 1b3f
00000150: d2a0 883d c285 5b3f 4624 c5be 8488 febe
00000160: 4ab0 71be ab66 a5be 5f7b afbe bc37 94be
00000170: 2123 5ebd 887f 97be 799d 9f3d 4f32 d6bd
00000180: c14c bbbe 844f d63d d49a a03e ff32 d9bd
00000190: 4f71 6b3e 33c2 f33e 99c1 bd3e 77c4 94be
000001a0: 97df 123f a55f 50be 6761 03bf f412 093f
000001b0: 4476 ea3e f084 6d3e 581f bebd 06de 9fbe
000001c0: 3102 07bc 7b56 1f3e 0605 913d 1af8 96bd
000001d0: 1fd8 54be ed87 1b3f 017b 413c 2b2c fd3e
000001e0: 8ada 6cbf 1e3a fa3e aaad aa3e 6a7a 8c3d
000001f0: 73d5 033f 38df 3dbf a608 023f 7ed7 0c3e
00000200: b5c2 fb3d b150 cebd 1115 903e e542 143e
00000210: e633 bcbd c4e4 943f 081e 7cbd 3adf 833e
00000220: b2d1 e93e efa2 89bd 3fb2 1d3f e7fa c43e
00000230: 23fd 69be 80fb 603e 7164 e93e 3052 be3e
00000240: a9e6 0e3e d88c 83be 5292 31bf f30b 523e
00000250: 91bb 9a3e 6ca7 303f 8576 3d3f a7e4 52bf
00000260: bbb4 2bbe dc3e 09bf 2758 673d f82e b43d
00000270: 83b3 02bf de0f 81be 97dd 213f 8e39 3e3e
00000280: ccbe 3cbe 07e5 e2be 8e3f 833d 0df1 3abe
00000290: 723a 803e ff76 b63d ffa2 cbbd c18a 4d3f
000002a0: eef1 773e bc5f 2fbd 3fb8 ee3d c461 30bf
000002b0: c388 02bf 016d 773f e069 6f3e 36a0 d3be
000002c0: 48b1 06bf 550c 603f 63fe c7be 8c0f 0dbe
000002d0: c349 a63e be6d 0abf 27b8 fe3e 14f2 71be
000002e0: 5ef3 cc3e 15fe 6ebe 8e47 7e3e 10b4 5cbf
000002f0: bc2e 813e 474d a4bd 13f0 3a3e 7ae1 f5be
00000300: e49c 0ebf 9ba4 313e 9aea c63e 2c38 3bbf
00000310: 30c1 19be 8cd2 e23d 3a32 1dbd d88b 00bb
00000320: 911e 06be 4b26 f73d c216 093f ee27 a1be
00000330: 3178 f7be 4bb0 ab3d f78d 523e 8717 ab3c
00000340: 0493 1bbe 0b92 9d3e 01e7 d6be 40ed 373e
00000350: cb73 fdbd d68f 89be 13e0 d13e f454 b33e
00000360: eebd 33be 8b03 4f3e 9e6a 00bf 3fb5 8abe
00000370: fd57 75bd 9c3f 81be a4f9 273e 84b5 a9bd
00000380: 71e0 9abe 491b b1bd c7cd e83c 2c63 d6bd
00000390: bce1 e63c a8f0 a13e 782b ffbd 4c21 2f3f
000003a0: d548 7bbf e3ec eebe 8e85 5e3f 3e3d fd3e
000003b0: 98ad 95bd d60d 9bbe 0407 48bf 8f09 993e
000003c0: 6a36 323f 1c77 1c3f 9ee5 84bf ee6e 82bf
000003d0: 40a8 4a3e d334 2ebf 69a0 f43e 2eca 6bbe
000003e0: 7de1 a1be fff7 f1be 34a5 5f3f 2a17 99be
000003f0: 0b36 b6be ea1a a8be c948 333f 6dba a3be

r_k.mlp.0.bias f4 [10]
-0.07990841 -0.16194412 -0.6845033 0.24554938 -0.04852489 0.19762631 -0.2267763 0.2882209
0.03278104 0.11279033
00000000: 05a7 a3bd aed4 25be 9c3b 2fbf 4c71 7b3e
00000010: 09c2 46bd 8d5e 4a3e 0c38 68be b191 933e
00000020: 6945 063d 9efe e63d

correction.mlp.0.weight f4 [10, 33]
-0.13947728 -0.04795008 0.44464523 0.0018949967 -1.0985537 -0.015050385 0.34339878 -0.020169672
0.16143776 -0.10399189 -0.08201913 -0.3913951 -0.43499258 0.16363302 -0.00590704 -0.32039598
-0.326084 0.08213385 0.4364547 -0.13439834 0.35006833 -0.6596945 0.1591104 0.39374018
-0.05316873 -0.19994897 -0.055935107 0.11425335 -0.15360478 -0.30401295 -0.0092899995 0.0781813
0.10502661 -0.33180425 -0.66286504 0.111617744 0.5930322 -0.5233292 0.42032394 0.17198996
-0.048920434 -0.35701248 -0.46160012 0.19234724 -0.025766667 0.33577195 -0.16373838 -0.4054725
-0.1238503 -0.06403115 -0.052290555 0.14350732 0.45412582 -0.53298926 0.2619336 0.18184553
0.11806145 -0.013944303 -0.037005417 -0.31689152 -0.53895193 0.04807109 0.23573728 0.008792286
0.18310903 -0.3602461 0.17933206 -0.016356353 -1.9732302 0.64736897 -0.07244821 0.12827379
0.07911626 0.43856683 -0.22821516 -0.7116537 -0.027165484 -0.09830444 -0.2688445 0.5350362
0.098711476 -0.107922554 0.12213675 -0.037601355 -0.22146519 0.032785982 0.16382125 -0.49642703
0.27866057 -0.14957823 -0.3122319 -0.16939251 -0.10505068 -0.26072848 -0.057097677 -0.078469835
-0.0010292506 -0.2039933 -0.3415435 0.33020607 -0.43260697 0.90716416 -0.36585444 0.09640836
-0.375723 0.12294839 -0.30693626 -0.14091665 0.36455017 -0.34065562 -0.019280365 0.03207782
-0.3343524 0.1836557 0.2090547 -0.08499367 -0.20418867 -0.02279305 -0.2553094 -0.11566207
-0.5162205 0.045350466 0.22865407 -0.11568561 0.39158446 0.3524233 0.21244767 -0.28407562
0.29738972 -0.021679541 0.08220783 0.31495246 -0.630472 -0.15501596 0.5898865 -0.08886183
-0.732431 -0.47982994 0.13171893 0.09850939 0.10264382 -0.21073397 0.40612358 0.032771856
0.22609277 0.17378534 -0.07876429 -0.124051705 0.03514389 -0.001067086 -0.020737672 -0.5614971
0.6574427 -0.17348082 0.40697148 0.0033896372 -0.04346241 0.26201606 -0.20133677 0.25242764
-0.14604442 0.091100305 0.00059280096 -0.22252116 -0.27777514 0.20203137 -0.21625705 0.6333696
-0.49041408 0.43031317 -0.31448174 -0.43381387 -0.13874939 0.13516101 -0.07073281 -0.31233582
-0.19575068 -0.56405735 -0.34426078 -0.33462265 -0.26849526 0.21760525 0.21245058 0.07234687
0.41857287 -0.25761902 -0.12557784 -0.21476617 -0.024747737 -0.13757522 0.19165124 0.12160105
0.021910727 -0.05039315 0.20720452 -0.0021445889 -0.25417915 0.033827994 0.09580035 -0.5497919
0.24635975 -0.22629143 -1.4088097 -0.1047164 -0.17897713 -0.034562495 0.45908034 -0.28825867
0.08397081 0.06782404 0.15754896 -0.1615462 -0.14670199 0.31672102 0.13437432 -0.11813894
0.123081066 0.17681196 0.105850615 0.30317068 -0.21076551 -0.007280539 -0.21900326 -0.11431082
-0.22408575 -0.36484122 -0.19520509 -0.13207376 0.01298939 -0.34296158 0.09164838 0.13277724
-0.5431713 0.92841935 -0.38114136 0.43406194 -0.5541303 0.07948997 -0.5779453 0.10409996
-0.26576433 0.3431157 0.15204766 -0.058992498 -0.33418712 0.35772258 0.3295042 -0.16186616
0.0728865 0.2208755 0.050693948 0.2922877 0.23137197 0.25586158 -0.11137361 -0.1680097
00000000: 22d3 0ebe 4e67 44bd 8aa8 e33e 8a61 f83a
00000010: 689d 8cbf e495 76bc f7d1 af3e de3a a5bc
00000020: f14f 253e b3f9 d4bd a5f9 a7bd f064 c8be
00000030: 59b7 debe 6a8f 273e d88f c1bb f10a a4be
00000040: 7bf4 a6be cb35 a83d fe76 df3e b89f 09be
00000050: 283c b33e bde1 28bf d6ed 223e 5098 c93e
00000060: 74c7 59bd 6cbf 4cbe 361c 65bd a9fd e93d
00000070: 924a 1dbe 96a7 9bbe 1535 18bc 841d a03d
00000080: 3118 d73d 3fe2 a9be 86b1 29bf d897 e43d
00000090: f5d0 173f e7f8 05bf b334 d73e 231e 303e
000000a0: cb60 48bd 57ca b6be da56 ecbe adf6 443e
000000b0: 9e14 d3bc 4dea ab3e 09ab 27be 179a cfbe
000000c0: 3aa5 fdbd c322 83bd 9f2e 56bd 95f3 123e
000000d0: 2e83 e83e fc71 08bf 291c 863e b735 3a3e
000000e0: 34ca f13d a576 64bc fe92 17bd 9b3f a2be
000000f0: c1f8 09bf 31e6 443d 1d65 713e 850d 103c
00000100: ef80 3b3e 2d72 b8be d3a2 373e c2fd 85bc
00000110: cf92 fcbf f9b9 253f ba5f 94bd 345a 033e
00000120: b507 a23d d58b e03e 3cb1 69be f02e 36bf
00000130: 268a debc d753 c9bd fca5 89be 22f8 083f
00000140: 3e29 ca3d 8006 ddbd d522 fa3d e103 1abd
00000150: c5c7 62be 984a 063d c2c0 273e af2b febe
00000160: 99ac 8e3e 092b 19be dcdc 9fbe 3b75 2dbe
00000170: d024 d7bd 347e 85be 41df 69bd cbb4 a0bd
00000180: ebe7 86ba 9fe3 50be cade aebe c510 a93e
00000190: a97e ddbe e93b 683f 4651 bbbe bf71 c53d
000001a0: c45e c0be 5ecc fb3d c026 9dbe 744c 10be
000001b0: 52a6 ba3e 6a6a aebe dbf1 9dbc 0864 033d
000001c0: 3d30 abbe 3d10 3c3e 6f12 563e 2911 aebd
000001d0: d616 51be 7eb8 babc eab7 82be 3ce0 ecbd
000001e0: 0727 04bf 69c1 393d 4b24 6a3e 94ec ecbd
000001f0: c27d c83e d470 b43e e28b 593e 5c72 91be
00000200: 7743 983e 4b99 b1bc 945c a83d 7341 a13e
00000210: 9d66 21bf 81bc 1ebe cd02 173f 31fd b5bd
00000220: 9980 3bbf 45ac f5be 54e1 063e 4bbf c93d
00000230: ec36 d23d a5ca 57be 6eef cf3e c83b 063d
00000240: dd84 673e c9f4 313e 2c4f a1bd d20e febd
00000250: 0af3 0f3d 77dd 8bba 0de2 a9bc 46be 0fbf
00000260: 2a4e 283f f5a4 31be 915e d03e ad24 5e3b
00000270: a405 32bd f826 863e 3a2b 4ebe 323e 813e
00000280: ab8c 15be cc92 ba3d 3366 1b3a 96dc 63be
00000290: 8b38 8ebe 50e1 4e3e 7d72 5dbe 8324 223f
000002a0: 8e17 fbbe 0252 dc3e c003 a1be da1c debe
000002b0: 5214 0ebe a667 0a3e 5ddc 90bd 7bea 9fbe
000002c0: de72 48be 1066 10bf f342 b0be a953 abbe
000002d0: 3678 89be e9d3 5e3e a58c 593e 992a 943d
000002e0: 2f4f d63e a4e6 83be 7a97 00be aaeb 5bbe
000002f0: c4bb cabc 85e0 0cbe 3940 443e f909 f93d
00000300: 207e b33c 0c69 4ebd 6c2d 543e 3b8c 0cbb
00000310: c523 82be 398f 0a3d f932 c43d 29bf 0cbf
00000320: bb45 7c3e f1b8 67be e053 b4bf 8d75 d6bd
00000330: c845 37be 6791 0dbd 940c eb3e a496 93be
00000340: e3f8 ab3d 55e7 8a3d 8454 213e 5e6c 25be
00000350: 0c39 16be 4229 a23e 6c99 093e d4f2 f1bd
00000360: ed11 fc3d 320e 353e 35c8 d83d 3039 9b3e
00000370: ead2 57be 9691 eebb 6442 60be cb1b eabd
00000380: bc76 65be 78cc babe d8e3 47be 583e 07be
00000390: 73d1 543c a998 afbe 25b2 bb3d c2f6 073e
000003a0: 460d 0bbf e4ac 6d3f f624 c3be 5e3d de3e
000003b0: 7cdb 0dbf a3cb a23d 39f4 13bf 5c32 d53d
000003c0: 4312 88be dcac af3e 62b2 1b3e 1ea2 71bd
000003d0: 931a abbe 6a27 b73e c6b4 a83e 3ec0 25be
000003e0: 8445 953d 302d 623e 75a4 4f3d bca6 953e
000003f0: c6ec 6c3e 4a00 833e d917 e4bd bc0a 2cbe

correction.mlp.0.bias f4 [10]
-0.08476464 -0.10273544 -0.385836 0.045885388 -0.009084223 -0.1296321 -0.012176695 -0.026509969
0.009476282 0.049881242
00000000: 1599 adbd f566 d2bd 4c8c c5be 51f2 3b3d
00000010: fed5 14bc 47be 04be c380 47bc 6f2b d9bc
00000020: 6842 1b3c 4650 4c3d

phi_neumann.mlp.mlp.0.weight f4 [10, 23]
-0.3745399 0.20919645 0.6781411 -0.22048935 0.9771307 0.18652084 -0.2183591 0.26905346
-0.041456707 0.27642882 -0.10914982 -0.18952988 0.4784096 -0.30550325 -0.12822445 -0.10577479
0.4802908 -0.626958 0.37461028 -0.47769558 -0.00036864387 0.00092003564 -0.008969477 0.29846653
0.005680198 0.36264515 0.15023978 -0.37414852 -0.06974125 -0.44660276 -0.016233103 0.18852447
0.33337405 -0.053712998 0.1542484 0.7533213 -0.51341486 0.11638289 -0.24000624 0.1352666
-0.17909816 0.0023639868 -0.3681181 0.0008692858 -0.00018847051 -0.040484846 -0.07229211 0.30519754
-0.96188647 0.13674518 0.30375093 -0.06735124 -0.25685766 0.5608461 -0.1616862 -0.68178797
-0.4276728 -0.0901563 -0.6099262 0.18220304 0.6518466 0.03078521 0.07088096 0.5896715
-0.009201812 0.44950336 2.8147935e-05 -0.0020551705 -0.0028221742 0.23903497 0.26672003 -0.4648123
0.02124968 -0.25583854 0.19766693 -0.31983158 0.035452984 0.25982973 -0.29825988 0.2609038
0.009147266 0.57252175 0.18650377 0.68165165 0.4646252 0.11749671 0.07999533 -0.20781282
-0.032352842 0.0031278962 0.001092905 -0.012454409 -0.36662954 -0.24824679 0.83990574 0.17874058
0.33178216 -0.61884004 0.022211641 -0.32326385 -0.13013455 -0.18242514 -0.084409334 -1.17871
0.54382366 -0.3549772 -0.53602624 1.0142906 -0.38197336 0.19443685 0.043327786 0.21027556
-0.0013103386 -0.002373494 -0.06726036 0.2042317 -0.02574394 0.45546275 0.29527423 0.44970867
0.34079447 0.2819952 0.07156043 -0.09549911 -0.0906585 -0.4765672 0.1978717 -0.050090916
0.0088270055 0.53105426 0.07489933 -0.10596536 -0.18654923 -0.43607506 -0.06468521 0.0011109541
-0.0010072107 0.024347585 0.13755651 0.39154905 -0.028732402 0.29014102 0.4426228 -0.37753144
-0.074896686 -0.20863396 -0.12546656 -0.40183553 0.47620356 -0.17971839 0.26472983 0.014334226
0.23422837 -0.11294546 0.23574094 -0.25200775 -0.18213695 0.027008574 0.011100001 -0.0021382659
0.18169451 0.5490325 0.41014722 0.61863256 0.039912038 -0.31491864 0.33535022 0.0996061
0.03714724 -0.3792154 -0.09997979 0.7068563 0.47260377 1.0644585 0.5039004 0.31575283
0.024124574 -0.18354356 -0.3869492 0.31652734 0.07105013 0.0005383285 0.00075606134 -0.06415713
0.3392449 0.04280407 -0.34284624 0.3231139 0.32424644 -0.021866545 0.28218976 0.27140388
-0.121229135 0.26513684 0.31514335 0.3861359 1.1568485 0.026548572 -0.4152841 -0.45444098
0.24022216 0.47027642 -0.653606 0.25036284 0.0034324974 0.002369916 -0.08528234 -0.19802983
0.3379092 -0.03659884 -0.5118249 -0.27592692 0.13055733 0.6524767 -0.21782744 -0.06477732
-0.19032863 0.5042026 -0.2824673 0.75106204 0.26441228 -0.061653957 0.04588619 -0.51958126
-0.078529224 -0.10971046 0.4545422 0.00052865065 -0.0006385757 -0.045859247
00000000: b2c3 bfbe 9837 563e a89a 2d3f f6c7 61be
00000010: 3d25 7a3f 52ff 3e3e 8799 5fbe 60c1 893e
00000020: 82ce 29bd 1488 8d3e f189 dfbd 1f14 42be
00000030: 1af2 f43e ec6a 9cbe 454d 03be 74a0 d8bd
00000040: ade8 f53e 5280 20bf ebcc bf3e 8494 f4be
00000050: 8b46 c1b9 8c2e 713a b7f4 12bc 9bd0 983e
00000060: f420 ba3b a0ac b93e 75d8 193e 6590 bfbe
00000070: 80d4 8ebd 1ea9 e4be 49fb 84bc 8f0c 413e
00000080: 01b0 aa3e 2902 5cbd 4bf3 1d3e aad9 403f
00000090: 286f 03bf 275a ee3d 32c4 75be 5483 0a3e
000000a0: 8265 37be 1eed 1a3b fa79 bcbe c8e0 633a
000000b0: 2ba0 45b9 70d3 25bd e30d 94bd da42 9c3e
000000c0: 313e 76bf ee06 0c3e 3e85 9b3e 72ef 89bd
000000d0: d982 83be 9c93 0f3f 1191 25be a889 2ebf
000000e0: eef7 dabe dea3 b8bd 2024 1cbf 6f93 3a3e
000000f0: 6bdf 263f 4431 fc3c 092a 913d b6f4 163f
00000100: 32c3 16bc 4e25 e63e 3b1f ec37 0ab0 06bb
00000110: 3af4 38bb 95c5 743e 878f 883e e1fb edbe
00000120: cf13 ae3c 45fd 82be 3369 4a3e f7c0 a3be
00000130: 2637 113d 6708 853e 85b5 98be 2f95 853e
00000140: 6ade 153c c990 123f d8fa 3e3e b980 2e3f
00000150: 5be3 ed3e 1da2 f03d 97d4 a33d e2cc 54be
00000160: 6a84 04bd 64fd 4c3b ce3f 8f3a 940d 4cbc
00000170: deb6 bbbe 6834 7ebe 1004 573f c507 373e
00000180: 5adf a93e 4d6c 1ebf 30f5 b53c d782 a5be
00000190: fe41 05be a8cd 3abe cdde acbd f8df 96bf
000001a0: 0738 0b3f 92bf b5be 0439 09bf 46d4 813f
000001b0: 0392 c3be 741a 473e 7a78 313d 7a52 573e
000001c0: abbf abba 9f8c 1bbb cdbf 89bd 1d22 513e
000001d0: f5e4 d2bc 6a32 e93e 2f2e 973e 3740 e63e
000001e0: 9d7c ae3e ad61 903e 468e 923d 0a95 c3bd
000001f0: 2aab b9bd 9e00 f4be e19e 4a3e 222c 4dbd
00000200: 259f 103c 2cf3 073f d264 993d 5e04 d9bd
00000210: c306 3fbe 3b45 dfbe ae79 84bd 6f9d 913a
00000220: 6204 84ba 9674 c73c 9ddb 0c3e 1e79 c83e
00000230: 3760 ebbc 5d8d 943e 759f e23e cd4b c1be
00000240: 6f63 99bd 24a4 55be 4e7a 00be 63bd cdbe
00000250: f4d0 f33e 1908 38be ab8a 873e 1ada 6a3c
00000260: 90d9 6f3e f34f e7bd 1366 713e 2907 81be
00000270: 1c82 3abe 1641 dd3c c7dc 353c 2622 0cbb
00000280: 200e 3a3e 658d 0c3f d1fe d13e b45e 1e3f
00000290: ce7a 233d 043d a1be 06b3 ab3e 48fe cb3d
000002a0: b427 183d 8528 c2be 34c2 ccbd 89f4 343f
000002b0: 1ff9 f13e 2d40 883f 9eff 003f 5baa a13e
000002c0: e6a0 c53c d8f2 3bbe 351e c6be df0f a23e
000002d0: bb82 913d 9d1e 0d3a 6b32 463a d064 83bd
000002e0: 82b1 ad3e 5253 2f3d 8b89 afbe 2f6f a53e
000002f0: a103 a63e 7821 b3bc 2d7b 903e 73f5 8a3e
00000300: fb46 f8bd 04c0 873e 785a a13e 9bb3 c53e
00000310: 9d13 943f 647c d93c 1ea0 d4be 7dac e8be
00000320: ccfc 753e 12c8 f03e b952 27bf 8f2f 803e
00000330: c0f3 603b 9850 1b3b 82a8 aebd 55c8 4abe
00000340: 6f02 ad3e aae8 15bd f506 03bf 4b46 8dbe
00000350: d2b0 053e b708 273f 280e 5fbe f9a9 84bd
00000360: 82e5 42be 6c13 013f 8e9f 90be 9a45 403f
00000370: 0c61 873e dc88 7cbd 28f3 3b3d 4703 05bf
00000380: eed3 a0bd e1af e0bd c1b9 e83e 2595 0a3a
00000390: 1766 27ba e8d6 3bbd

phi_neumann.mlp.mlp.0.bias f4 [10]
-0.018444257 0.06385903 -0.016487835 0.29675728 -0.14092217 0.029123478 0.121588685 0.07667459
-0.5728368 0.09168007
00000000: 6918 97bc 86c8 823d 7f11 87bc 92f0 973e
00000010: e74d 10be 5c94 ee3c 7d03 f93d 9107 9d3d
00000020: 6fa5 12bf c3c2 bb3d

phi_neumann.mlp.mlp.2.weight f4 [10, 10]
-0.10584112 0.6452264 -0.54314846 0.19243479 -0.23812494 -0.35944802 0.1800225 0.018540142
0.20517907 -0.03982104 -0.077210784 -0.38606682 -0.14437367 -0.017972553 -0.37297657 -0.4660078
0.12663108 -0.010759927 0.12399084 -0.24681124 -0.23565336 0.46360934 0.24499021 -0.10192197
0.0021138012 0.5178961 -0.4428104 -0.14720413 -0.67341197 -0.23790199 0.32655564 0.0547879
-0.20032173 0.049773857 0.65993726 -0.45303425 -0.13006799 0.30504623 0.3301348 -0.36909795
0.1511214 0.12119972 0.19021735 0.5210456 0.18123293 0.18930396 -0.18859777 0.043298773
-0.11976104 -0.34454498 0.115684606 0.4513011 -0.17209068 -0.55286163 0.37775734 0.41856283
0.1029293 -0.28397366 0.41077772 0.1265469 -0.01799358 0.27150032 -0.11447905 -0.05384713
-0.55198175 -0.10685635 0.0049008885 0.44152892 0.17210975 0.4266832 -0.45815656 0.24228068
0.5458975 0.4092468 0.15795413 -0.36782572 -0.16610178 0.41952384 0.6681919 -0.051796027
0.5379628 0.45243388 -0.38766593 -0.021852456 0.5719461 0.64219934 0.04035923 0.06630227
-0.3364418 -0.12009082 0.12762345 0.2529736 -0.1434907 -0.113039315 -0.22655573 -0.45333716
0.25228193 -0.13757011 0.080983244 -0.5040289
00000000: 3bc3 d8bd 8f2d 253f c70b 0bbf a00d 453e
00000010: 06d7 73be 9209 b8be d157 383e 7fe1 973c
00000020: 761a 523e 631b 23bd b020 9ebd 8daa c5be
00000030: b1d6 13be 2d3b 93bc c9f6 bebe 9398 eebe
00000040: 94ab 013e 684a 30bc e9ee fd3d 16bc 7cbe
00000050: 1d4f 71be 345e ed3e b7de 7a3e 77bc d0bd
00000060: b387 0a3b d794 043f 0bb8 e2be aebc 16be
00000070: ba64 2cbf 949c 73be 4d32 a73e 4769 603d
00000080: 2421 4dbe acdf 4b3d a6f1 283f 1bf4 e7be
00000090: 8b30 05be 052f 9c3e 6e07 a93e 68fa bcbe
000000a0: 91bf 1a3e 8f37 f83d 56c8 423e 3f63 053f
000000b0: 2095 393e e6d8 413e c61f 41be 0e5a 313d
000000c0: 4745 f5bd 3368 b0be 0dec ec3d f010 e73e
000000d0: 8a38 30be 5788 0dbf 6969 c13e de4d d63e
000000e0: 99cc d23d ff64 91be 7551 d23e 8395 013e
000000f0: 4667 93bc 1702 8b3e fe73 eabd cf8e 5cbd
00000100: ad4e 0dbf 81d7 dabd a297 a03b 1410 e23e
00000110: 8a3d 303e 3876 da3e 7f93 eabe 6d18 783e
00000120: f0bf 0b3f cc88 d13e babe 213e a753 bcbe
00000130: 9616 2abe d4cb d63e a00e 2b3f 1228 54bd
00000140: eeb7 093f 6aa5 e73e 267c c6be ec03 b3bc
00000150: 0f6b 123f 2d67 243f b84f 253d 7cc9 873d
00000160: 1a42 acbe 2df2 f5bd b9af 023e c185 813e
00000170: 3aef 12be 2881 e7bd 3afe 67be cf1b e8be
00000180: 192b 813e 2edf 0cbe 8bda a53d 0a08 01bf

phi_neumann.mlp.mlp.2.bias f4 [10]
0.052158784 -0.17620385 -0.023829982 -0.44142655 -0.09287084 -0.13155715 -0.03210291 0.39850053
0.08439729 0.003351264
00000000: 73a4 553d c86e 34be 1837 c3bc a902 e2be
00000010: 1133 bebd ebb6 06be 577e 03bd 4308 cc3e
00000020: 7dd8 ac3d e1a0 5b3b
