mixed/dsgps/results/30_ite_lamb_0_gamma_0_9/ckpt/running_model.pt (torch, 96581 bytes, 93 tensors)

laynorm.weight f4 [10]
00000000: 0000 803f 0000 803f 0000 803f 0000 803f
00000010: 0000 803f 0000 803f 0000 803f 0000 803f
00000020: 0000 803f 0000 803f
1.0 1.0 1.0 1.0 1.0 1.0 1.0 1.0
1.0 1.0

laynorm.bias f4 [10]
00000000: 0000 0000 0000 0000 0000 0000 0000 0000
00000010: 0000 0000 0000 0000 0000 0000 0000 0000
00000020: 0000 0000 0000 0000
0.0 0.0 0.0 0.0 0.0 0.0 0.0 0.0
0.0 0.0

phi_to.mlp.mlp.0.weight f4 [10, 23]
00000000: 8a49 f2be 6d54 623e 0c58 89bf b8ac e3bd
00000010: 1dd8 013e a18f c23d abf7 c63d 0bba f5bd
00000020: 142e 683e 95a4 c2be 489b b2bd af5f 82be
00000030: 87c4 13bf 8af1 b63e 1f10 f33d e313 4fbd
00000040: dd30 e1bd e8be 60be b0f8 5ebe 828c 74be
00000050: fe62 0e3b 282d 88bb bdc5 1d3e 97c4 4abf
00000060: 47bd a9be bd53 b33e fb6e 26bd b783 073e
00000070: 7d78 80be 39f9 203e 96cb cabe 2168 a63e
00000080: afb6 0bbf 8dd1 3dbe 783a 913e 58d3 a63e
00000090: 3488 0b3e 9cbf 1b3e c002 be3b 510e babe
000000a0: 8a94 783e d04f af3d 94c1 6bbe e8ea 7339
000000b0: def3 9839 8ee7 2fbd 7c6b 31be 9da4 a9be
000000c0: e57e 8bbe 0788 30bd 5315 7cbe 288b a7be
000000d0: 2dfc 333e 072c 8d3e ba61 13bb 7f4f b63e
000000e0: 8e07 d8be 1de0 793d d331 4d3e a757 1bbe
000000f0: 4d45 40be 52e6 e93e dfeb 0dbd f971 f3bd
00000100: 331a 323e b57c debd 77a9 1f3a 9d74 f3ba
00000110: aae2 d53c 3fb7 19bc 6640 bfbd 4f62 9e3f
00000120: 7d46 8b3e 04ce b6be e064 45bd 41ef 5a3c
00000130: a069 6e3d 22df 9c3e 614f 9fbd 82a7 c4bc
00000140: 12b7 e63e 4fd1 a23f 0fa7 90bd e09f 1a3c
00000150: f23c 9a3d 5eaf 28be f51c e63e d5a3 2cbe
00000160: 0785 243e 18b0 623a 4348 193a 33cb 4ebe
00000170: e77d 7abe b0ac 8cbe 1ce1 253f 2261 96be
00000180: 275d f03d e780 efbc 059e 26bf ef86 da3d
00000190: d723 373e e0ac 1e3e cfb0 1b3e f563 d03e
000001a0: 250c e13e ba4b a3be 9f0d 07bf 09ec e83d
000001b0: 5e6a d5bc 15f2 d63d e4af c53d 7bf3 aa3d
000001c0: a178 0c3a 2e6e c43a 3376 babd ec5c 8dbe
000001d0: b682 83bd 5f53 2d3b 0a18 9dbd 0bfc f53e
000001e0: de09 6ebe 9160 9d3d b279 e6be a03b 063f
000001f0: 3ab4 c53e 81d2 2b3e 5f6a b93b 52ba a0bd
00000200: 04d6 98bd 809c 0c3e b27b 8f3e 3aa2 59bd
00000210: e43b c43e 26d2 47bd 3992 eebe 8e1f d63a
00000220: 5c85 c7ba 5563 813c a7e8 b5be 4a23 f73e
00000230: fca6 663f 3500 13be 35c7 073f 225b 09bf
00000240: 74bc 0dbe 2376 763e 35a8 fe3d 648f abbd
00000250: 9bb3 433e b49b 2d3e 8d87 923f 271e c83e
00000260: 0d41 8b3c ad95 283d b695 c1be e1f8 363e
00000270: 8232 cb3d 6b00 3bbe 4788 1b38 d90f 4138
00000280: 4d95 2bbe 78bd 44bd f79e ad3e 17da 2d3f
00000290: 77b6 adbe e03c 0cbe c577 b83d 6a5d 40be
000002a0: 6091 80be 81bc b03e 2d91 a5be 8812 e6be
000002b0: f2d4 1fbd bcee 593f da34 313e 2c71 34be
000002c0: 0888 04bd dae4 f83c e1ba 82be c48e 0b3e
000002d0: a422 a4be 4c12 8e3a 3fb0 19ba 930e cfbd
000002e0: 6411 f93e 0a6d f8be 9002 8a3e 69e4 c43d
000002f0: 22a5 313d f273 aa3e c4ff d53d 8b91 b43e
00000300: 6c69 d53d 2c99 58be 7f90 85be c761 06bf
00000310: 459c d3bd 72ad d23e e6af 923e be1f 4d3d
00000320: dfbe 583e 2551 dfbd 7b9c 353d 0201 103e
00000330: ab67 b839 5c81 05b9 a5e9 36bc 2723 813d
00000340: 6d03 123f 5e45 ce3f aca6 a03e 7dd5 88be
00000350: c66f 113e 5b03 50be 4ea1 10be 065f fd3e
00000360: e83b 08be a9c7 973e f207 abbe 6904 1040
00000370: 942d 54bd 242a 84be 06c8 2abf 35b3 a03e
00000380: fef2 b13d 02bd c4be 8639 87be 6afe 1d3b
00000390: ee5d 8cba 7dfe 94be
-0.4732173 0.22102518 -1.0729995 -0.11116928 0.12680097 0.09500051 0.09715208 -0.119983755
0.22673827 -0.3801619 -0.08721024 -0.25463626 -0.5772175 0.35731155 0.11868309 -0.050556075
-0.10995648 -0.21947825 -0.21774554 -0.23881724 0.0021726484 -0.0041557737 0.15407462 -0.7920622
-0.3315222 0.35024825 -0.040633183 0.13233839 -0.25091925 0.15720071 -0.3960845 0.3250132
-0.5457563 -0.18536969 0.2836492 0.32583117 0.13626176 0.15209812 0.0057986677 -0.36339048
0.24275413 0.08560145 -0.23023063 0.00023261795 0.00029173394 -0.042945437 -0.17326158 -0.33133402
-0.2724525 -0.043098476 -0.2461751 -0.32723355 0.17576666 0.27572653 -0.002248867 0.35607526
-0.42193264 0.061004747 0.20038538 -0.15170155 -0.18776436 0.45683533 -0.034648772 -0.11886973
0.17392807 -0.1086363 0.0006090621 -0.0018574182 0.026109058 -0.009382068 -0.09338455 1.2373751
0.27202216 -0.35704052 -0.048191905 0.013362707 0.0582062 0.30638987 -0.07778812 -0.024005655
0.45061547 1.2720126 -0.07063114 0.009437531 0.07531156 -0.16473147 0.44943967 -0.16859372
0.16066371 0.0008647456 0.00058472547 -0.20194702 -0.2446209 -0.274755 0.64796615 -0.2937098
0.117365174 -0.02923627 -0.6508487 0.10670268 0.17884766 0.15495634 0.15204166 0.4070126
0.43954578 -0.31893712 -0.5275516 0.11373145 -0.026051696 0.10495392 0.09652689 0.083472215
0.0005358551 0.0014986449 -0.09104576 -0.27609956 -0.064214155 0.0026447398 -0.07670601 0.48043856
-0.23245952 0.07684434 -0.4501472 0.5243473 0.38614064 0.1677952 0.0056584324 -0.07848038
-0.07462695 0.13731575 0.2802406 -0.053133227 0.38326943 -0.048784398 -0.46595934 0.0016336308
-0.0015222239 0.015794436 -0.35529062 0.4826911 0.9009855 -0.14355548 0.5303834 -0.5365468
-0.1384142 0.24068503 0.12434427 -0.08376959 0.19111483 0.16953927 1.1447617 0.39085504
0.016998792 0.041158367 -0.37809533 0.17868377 0.09921743 -0.18261878 3.7081798e-05 4.6029545e-05
-0.16756172 -0.048032254 0.33910343 0.67910904 -0.33928272 -0.13695097 0.09007219 -0.18785635
-0.25110912 0.34518817 -0.32337323 -0.44936013 -0.03902144 0.85129905 0.17305318 -0.17621297
-0.032356292 0.030382562 -0.25533202 0.1362868 -0.3205768 0.0010839193 -0.00058627495 -0.10110202
0.4864608 -0.4852069 0.2695508 0.09613878 0.043370374 0.33291584 0.10449174 0.3526729
0.10420498 -0.2115218 -0.26086804 -0.52492946 -0.103325404 0.41147953 0.28649825 0.0500791
0.21166562 -0.10904149 0.044338685 0.14062884 0.00035172453 -0.00012732059 -0.011164104 0.06305533
0.5703648 1.6114919 0.3137716 -0.2672538 0.14202794 -0.2031378 -0.14124033 0.4948656
-0.13304102 0.29644516 -0.334045 2.2502692 -0.05180128 -0.258134 -0.6671146 0.31386724
0.08688925 -0.38425452 -0.26411074 0.0024107941 -0.0010709146 -0.2910041

phi_to.mlp.mlp.0.bias f4 [10]
00000000: 70c1 003d 0019 793d 8777 363d aede 9e3d
00000010: 1af1 163d 4633 343d dce3 aa3c e7f3 b43d
00000020: ce6f a1bc da9f fd3d
0.031434476 0.060814857 0.044547584 0.077573165 0.036851026 0.04399421 0.020860605 0.08835583
-0.019706633 0.12384005

phi_to.mlp.mlp.2.weight f4 [10, 10]
00000000: 1aa8 af3e befc 313f ff6a 02bf dcba e03d
00000010: ebee 473e 7b0e 843e 9cfa e6bd d56f af3e
00000020: 68c5 f3be 30be 463f bcbb f73c b2d8 b13d
00000030: ee6b 55be f324 ca3e a19b 1dbe 5dc5 c0be
00000040: 4275 c73e 0160 413b 1769 01be 9993 17be
00000050: 845b 93be 6f88 edbc f0dc a53d 994f c7be
00000060: b9bc 8c3e 6b42 e2be 7c72 1dbf d6eb 52bd
00000070: ea9a 3e3f 52e3 73bf 1630 383e 566b b6bd
00000080: 2e19 82bd 7495 ed3e b91f 78be a318 ebbe
00000090: aa67 c1be 3c20 c8bc 43e4 b93e 4d8c fb3e
000000a0: 4254 ba3e 5832 cbbe eedb f1be 1b3b 12bf
000000b0: 07a6 0cbf b5da 953d 2a1f c43e c81e 9abc
000000c0: 49c1 0abc 2177 873d c5ef 373e 027a b93e
000000d0: 9c90 00be 2c8d 3a3e 5640 003f 3a5e 833e
000000e0: 85ef 00bf e2fe 2e3e e1d2 b9be 97cc ec3d
000000f0: 810b 90be ea28 e6be cbde 02bf 44ae 28bd
00000100: d31f 983e 5611 eebd 3c3c dbbe 53f8 173e
00000110: e7c2 ef3d d67d 8a3e 0a0c 853e 4c82 e23d
00000120: 6cda c0bc f18c ce3d 393d 74be d2d8 bbbd
00000130: 97b0 f0be 3780 a53d fd29 cfbe 7ff0 71bf
00000140: bd54 a3be 5239 d53e 75c4 e6be efb5 84be
00000150: 12e7 c53e 513d 12bd 5c04 693f 8763 453e
00000160: c744 183e 0e40 1ebe a61d a93e 490e e83d
00000170: af7e d4bd 3844 02be 97da 253e b68c 953e
00000180: 8842 c7be 6a1e e9be 742c 413e 174d aebe
0.3430794 0.6952628 -0.50944513 0.109731406 0.19524734 0.25792298 -0.11278269 0.3426501
-0.47611547 0.77633953 0.030240886 0.086839095 -0.20841953 0.39481315 -0.15391399 -0.37650576
0.38956648 0.0029506686 -0.12637745 -0.14802398 -0.28780758 -0.02899572 0.08098781 -0.38927916
0.27487734 -0.44191298 -0.61502814 -0.051494442 0.7445513 -0.9526874 0.17987093 -0.089071915
-0.06352459 0.46403086 -0.24230851 -0.45917234 -0.37774402 -0.024429433 0.36306962 0.49130479
0.3639241 -0.39686847 -0.47238106 -0.5712144 -0.5494084 0.07317106 0.38305026 -0.018813506
-0.008468934 0.06614519 0.17962559 0.36225897 -0.12555164 0.18217915 0.5009817 0.25657827
-0.5036548 0.17089418 -0.362937 0.1156246 -0.28133777 -0.4495309 -0.51121205 -0.041181818
0.2971178 -0.116244 -0.42819393 0.14840822 0.117070965 0.2704913 0.25985748 0.110600084
-0.023541652 0.10085476 -0.2385148 -0.091722146 -0.47009727 0.08081096 -0.40461722 -0.9450759
-0.31900588 0.41645294 -0.4507176 -0.25920054 0.38652855 -0.035703007 0.91022277 0.19276248
0.14869986 -0.15454122 0.33030432 0.1133085 -0.103757255 -0.12721336 0.16196667 0.29208916
-0.38917947 -0.45531017 0.18864614 -0.3404319

phi_to.mlp.mlp.2.bias f4 [10]
00000000: d1c5 05be e585 0b3d 0823 803d 12e1 8b3d
00000010: 5899 993b 7c55 893d cdfe eabc 1fd5 1e3e
00000020: a4c0 8bbd 36bc 543c
-0.13063742 0.03406324 0.06256682 0.06830038 0.0046874695 0.06705758 -0.028685952 0.15510987
-0.06823853 0.012984326

phi_from.mlp.mlp.0.weight f4 [10, 23]
00000000: ba6f ddbe 8376 c8bd 93a8 cdbe 2df0 b1be
00000010: 7f9a f73e 217f 9abd 12b4 84bd a2a5 fabe
00000020: 8c5f 5bbe 14ba 83be fd13 c8bd 9fe0 0d3e
00000030: 96dc 80be 0689 80be 2934 e1be 9ee0 d0be
00000040: f40e b8be c2ad 9cbe 85b6 81be 1281 85be
00000050: da9e 8cb9 bcaa 14b8 5181 a93d ca30 d23d
00000060: be73 9b3c 417c aa3f 6b3b c03d 3df5 353e
00000070: 29a1 943e 332e 97bc bb6d c43e ac5e 3fbe
00000080: 68fb bbbe f49b fd3d 58be ae3d 0989 8f3f
00000090: 6f21 a33e d6ae 1bbf 1e44 8e3e 17b3 df3e
000000a0: b18c 3e3d 9dd3 2f3e 875b 093f 7ad1 bd39
000000b0: 4d0a adba ea31 4bbe 0df1 fcbd 61f4 a33d
000000c0: 15e7 cebe 4785 5d3e 9428 2f3d ceef ba3d
000000d0: df74 483f 13cc a13e b910 933f 85f6 61be
000000e0: 72db e2be a6f0 0fbe c6b6 ad3d d46f 83bd
000000f0: 9ee0 1c3f 38ba 843d 4a8f 12be 1505 743c
00000100: bbdd 013d bec0 ebbc c31e 7ebc 4fec c13b
00000110: b263 d03c 541b 9c3e 7fa8 593e b231 1f3f
00000120: e695 65bd 80bf 23bd 6338 ff3e a99a 063f
00000130: 332e 933d 826f e83c 12c8 34be 8efc 823e
00000140: 9034 63bc 4da0 753e 6e5f ad3d 1597 f3be
00000150: e8bd ab3e a4f5 983e 93e4 5ebe eb5c 513e
00000160: 7a94 2e3f 019b 303b 0fde 383a 0d7b 95bd
00000170: 7ee9 7fbd 142e f03e bc0e 57be 2ade 72be
00000180: b274 c9be 807c 533e 3539 e13e 0edd 903e
00000190: 466d 9dbd 4f28 64be 464f f03d f7a3 6a3d
000001a0: 3f9a 2a3e a331 973e 6f5e 533d c42a e43d
000001b0: 56b1 efbe 0630 e2be d2ca 953e 2695 a03e
000001c0: c11c e538 08c3 803b d257 a3bb 9537 3cbe
000001d0: 1fae 293e b46b c83d a479 f13e 005b 92be
000001e0: 4469 a7bd f9e7 00bf 1256 533e dc97 d53e
000001f0: 22ef 843d f7e0 71be 4b5c 0c3f 9cf9 d23d
00000200: cc7f 6fbe 82af 34be 74f7 b53c ff8b e03e
00000210: c448 7ebe edd1 8ebe 70a9 e4bd e742 ddba
00000220: 8c99 6a3b e15b 77bc 8373 8bbe 4d0b 803e
00000230: cc85 7f3e 849b df3d d2b6 c1be c292 7e3e
00000240: 9012 ebbe 8d8f b8be 6303 afbe fa1c edbe
00000250: add2 6e3e 4b10 223e e686 b03e c259 7cbd
00000260: a10b d0be 1e3d 96be 255b 11be d73b 13be
00000270: e9df a4be 9b4b 0b3e a213 903c ddcb 173c
00000280: 72ac 1dbd 4994 933e e9fa ccbe c6eb f0bc
00000290: efb7 5ebe 4770 fbbe 0d95 e7bd 7c23 23be
000002a0: 246b 34be c239 c13e 850d 1abd 7e0c a23c
000002b0: 8be3 c03e bf93 e43d 64f7 38be 9b50 893e
000002c0: da1d fd3e 6be9 ec3e cb64 93be 109e 513e
000002d0: f4f5 5cbe bded b73a bb87 2d39 3e46 733c
000002e0: 0412 ed3e e678 f3bd c126 923f ede6 063e
000002f0: 4cf7 903e cff5 c43d cad2 97be 5c8c 5ebe
00000300: d61f 8dbe ba95 abbc 1978 153f 3eb4 a73e
00000310: 2d92 873f 4c93 f2be 1fc1 f63d f840 20be
00000320: af20 013e 4cc6 56bd e97b b53e 5fc3 ba3e
00000330: 4be7 56ba 57b9 dbba 5c7c 28be 8d9b 30bf
00000340: 5cc4 95be fcd9 89bf 5614 dcbd 2814 9c3f
00000350: 9986 7e3e bdb8 d4be 9401 38be 3265 2dbf
00000360: 88cd cb3d a753 bebe a59f 183e c82f 4fbf
00000370: a110 1dbd e7da fa3e dd54 9dbe 6e68 de3c
00000380: f822 09be b5c9 8a3d 96ba a13e 108b 25ba
00000390: 8dc8 d839 efe1 2a3e
-0.43249303 -0.09788229 -0.40167674 -0.34753552 0.4836006 -0.07543779 -0.06479658 -0.48954493
-0.21423167 -0.25727904 -0.097694375 0.13855217 -0.25168294 -0.2510454 -0.43985108 -0.4079637
-0.35948908 -0.30601317 -0.25334564 -0.26075035 -0.00026821234 -3.544496e-05 0.08276618 0.10263212
0.018976089 1.3319169 0.09386333 0.17769332 0.29029205 -0.018454647 0.38364968 -0.18688458
-0.36715245 0.12383261 0.08532399 1.1213695 0.31861445 -0.60813653 0.27786344 0.43691322
0.046520893 0.17170568 0.53655285 0.0003620496 -0.0013201922 -0.1984326 -0.12350664 0.08005596
-0.40410677 0.21632873 0.042763308 0.0912777 0.7830333 0.3160101 1.1489478 -0.22066696
-0.44308048 -0.14056644 0.08482127 -0.06417814 0.6128024 0.06480831 -0.14312473 0.01489379
0.0317056 -0.02877843 -0.015510264 0.0059180628 0.025438163 0.304896 0.21255682 0.62185204
-0.056051157 -0.03997755 0.49847707 0.5257974 0.07186546 0.028373484 -0.17654446 0.2558331
-0.013867512 0.23986931 0.084654674 -0.47576204 0.33543324 0.2987491 -0.21766882 0.20445602
0.6819531 0.0026947858 0.0007052132 -0.07298861 -0.062478535 0.46910155 -0.21001714 -0.23717561
-0.39346844 0.20652962 0.43988958 0.2829365 -0.07686858 -0.22281002 0.1173387 0.057285275
0.16660403 0.29530057 0.05160373 0.111409694 -0.46814984 -0.44177264 0.29256302 0.3136379
0.00010924927 0.0039294995 -0.004984834 -0.18380578 0.16570328 0.09786168 0.47163117 -0.28585052
-0.08174375 -0.5035396 0.20638302 0.41717422 0.064909235 -0.23620974 0.5482833 0.103015155
-0.23388594 -0.17645076 0.022212721 0.4385681 -0.24832445 -0.27894536 -0.1116513 -0.00168809
0.0035797087 -0.015097589 -0.27236566 0.25008622 0.24953383 0.10918334 -0.37834793 0.24860671
-0.459126 -0.3604702 -0.3418227 -0.4631117 0.23322554 0.15826528 0.3447792 -0.061609037
-0.40633872 -0.29343504 -0.14194925 -0.14378296 -0.3220208 0.1360306 0.017587487 0.009264913
-0.038494535 0.2882407 -0.4003518 -0.0294093 -0.21749853 -0.49109098 -0.11307726 -0.15931505
-0.17618996 0.37739378 -0.03761055 0.019781347 0.37673602 0.11160993 -0.18063122 0.2681931
0.49436837 0.46271834 -0.28787836 0.20470452 -0.21578199 0.0014032644 0.00016549129 0.01484829
0.46302807 -0.11888294 1.1418077 0.13174029 0.28313673 0.09617197 -0.29653007 -0.2173323
-0.2756335 -0.020945419 0.5838638 0.327547 1.0591484 -0.47378004 0.12048554 -0.15649784
0.12610124 -0.052435204 0.35446098 0.3647718 -0.00081979175 -0.001676361 -0.1645369 -0.6898735
-0.29251373 -1.0769649 -0.10746066 1.2193651 0.24856032 -0.41547194 -0.17969352 -0.67732537
0.09951311 -0.37173197 0.1490465 -0.80932283 -0.038345937 0.48995134 -0.30728808 0.027149405
-0.13392246 0.06776754 0.31587666 -0.00063149724 0.00041348152 0.1668775

phi_from.mlp.mlp.0.bias f4 [10]
00000000: d91e 803d 3a68 fc3d debf 203e 806c b43d
00000010: 66d6 db3d 7449 f33d b956 8e3d 6da2 503d
00000020: 0f19 a73d 2412 19be
0.06255884 0.12324567 0.15698192 0.08809757 0.10734253 0.118792444 0.06950135 0.05093615
0.081590764 -0.14948326

phi_from.mlp.mlp.2.weight f4 [10, 10]
00000000: ae3d 02bf dc98 20bf 929f 323e 9005 043d
00000010: ee53 c83e c0c3 263e 8e48 59bd b537 28be
00000020: 305b 1ebf d998 c9be 3284 80bd 33b1 0e3e
00000030: 85c8 aabe 08f8 24be a3e1 04bf 84a6 ee3e
00000040: 4b92 a03e 17aa 1c3f a16d 233f a2c0 8dbd
00000050: e2db a4be 85a1 91be c2fe dc3e 4d50 123e
00000060: 5c99 a2be f767 08bf 4abb 10bf f2ac 153f
00000070: 5065 68be 6cdf dbbe 65d8 5e3e 2c3d f63e
00000080: e645 ab3c 7850 253e fdc0 e93e c5de 9bbe
00000090: b256 b2be 7429 1cbd cd7c 48be 1d5c 0f3e
000000a0: a61d 71be bc05 4c3f 0a6f febd 9290 083f
000000b0: cc13 43be d684 09bf 22ea 6bbd 44d7 78be
000000c0: 6980 0b3f bcd2 0bbf 5320 1cbe 601c 8a3e
000000d0: 1fd8 ef3d 1201 63be de16 073f 55d1 a5be
000000e0: 9987 9b3e 2309 263e 5459 8dbe 1d32 67bc
000000f0: 5bf9 fb3d e7db f33d ace9 3bbe 758e c83e
00000100: c5b6 ae3c a882 85be 189d 4b3e cd6a 0dbd
00000110: 5834 8c3e 0fd8 c43b 9937 dcbe 543d b5bd
00000120: 0957 823e 9117 0a3f 4776 cdbe 86b1 e3bd
00000130: f94d 8dbe 2b6f b2be f5a6 cabe ddbb 3abd
00000140: 7ca7 8cbd d70c 93be 5352 0c3f 1f84 47bd
00000150: f055 f23c 37d4 0b3f d614 f2be 46c8 37be
00000160: 0b7c 03bf 8b47 153e 4b76 12be 0302 4cbd
00000170: 0e47 cdbd a1f9 13bb 962e f03e 10bc 21be
00000180: 75c8 ccbe 25e6 873e 22f7 2a3e 6227 9ebd
-0.50875366 -0.62733245 0.17443684 0.032231867 0.39126533 0.1628561 -0.05304771 -0.164275
-0.6185789 -0.39374426 -0.06275214 0.13934784 -0.3335611 -0.16110241 -0.51906794 0.46611416
0.31361613 0.61197037 0.63839155 -0.069215074 -0.32199007 -0.28443542 0.43163115 0.14288445
-0.3175763 -0.5328364 -0.5653578 0.5846702 -0.22694898 -0.42943895 0.21762235 0.48093545
0.020907354 0.16143978 0.4565505 -0.30443397 -0.34831768 -0.03812547 -0.19578858 0.13999982
-0.23546466 0.7969625 -0.12423523 0.53345597 -0.1905052 -0.53718317 -0.057596333 -0.24300867
0.54492813 -0.5461843 -0.15246706 0.26974773 0.11711144 -0.22168377 0.5276927 -0.3238627
0.3037689 0.16214423 -0.27607214 -0.014111069 0.1230342 0.119071774 -0.18350857 0.39171186
0.021327386 -0.26076245 0.19884145 -0.03452568 0.27383685 0.0060072015 -0.43011168 -0.08849588
0.25457028 0.5394221 -0.401293 -0.11117844 -0.2759855 -0.3485044 -0.39580503 -0.045589317
-0.068678826 -0.28720734 0.54813117 -0.048709985 0.029581994 0.5462069 -0.47281522 -0.17947492
-0.5136115 0.14578073 -0.14302938 -0.049806606 -0.10023318 -0.002257921 0.46910542 -0.15794396
-0.39996687 0.26542774 0.16695836 -0.077223554

phi_from.mlp.mlp.2.bias f4 [10]
00000000: b249 cbbd 50b8 2fbc 651e bd3d a535 7bbd
00000010: ed04 30be 6c28 993d ea0d 2dbd f779 293d
00000020: 4eef 183d ad59 edbd
-0.09926166 -0.010725096 0.09234313 -0.061330456 -0.17189379 0.07478413 -0.042249598 0.04137608
0.037337594 -0.1158937

z_k.mlp.0.weight f4 [10, 33]
00000000: 4a6d 633f ee1e d53e a787 d93f c6d7 42bf
00000010: 19ee a7bf 394b 273f d5a0 0e3d 4fc3 2cbf
00000020: 9b00 cfbe 1fce 15be 874c 22be 2510 54bf
00000030: d35f ad3d d152 96bf a6c6 153e 38c4 24be
00000040: d6b6 d23e 0988 4cbc 7e3b 953e b9e1 303e
00000050: 5636 ba3e d616 1a3e bc7c 563f 287d 14bf
00000060: 83ab 733e babd 87bf 0d2f 1d3f 1960 94be
00000070: 375b 8abe b37a f1bd e67c 3bbd 2909 9dbd
00000080: 2c81 6a3e 7b81 b6be 905b 82bf 1757 51bf
00000090: ca0f 90be c980 7e40 3389 17bf 1cbd 9e3e
000000a0: 5f0a fa3f b564 8fbf fba4 91bf 2ceb 24be
000000b0: 96c7 663e 30b9 49bf 5167 3fbf faf0 aabe
000000c0: db1f 563e f01c d4be 7a14 173f d1e1 70bf
000000d0: 5814 253f f952 9e3e fa9e 183f 5280 833d
000000e0: cdfc 2d3e a98b 413c 0a9f 2dbf 54c7 143f
000000f0: f581 3abe 6b64 27bf ef3c 093f 8492 103b
00000100: f4b0 b2bc b2f9 dcbe 4dd6 e6be c472 98bf
00000110: 4403 0640 14cb b53e 6201 ae3f 71aa 3abd
00000120: a10f 1ebe 3944 c23e 18ee fcbe ddaf 09bd
00000130: 7655 db3d b4a9 923e 8d56 a1be 76ba 13bf
00000140: 60ef 723e caa5 17bf eb50 4e3f 646e 63be
00000150: be09 c53e 6a62 413f 73d3 20bd 0dc0 81bd
00000160: 76ad d03d 4fe9 ecbb 53e1 123e fede ecbe
00000170: d709 de3d 1f95 bc3d b6f1 f8be 04af 473e
00000180: cc0d 50bb 4ef7 d0bd a7f2 733d d5cd c73f
00000190: 61f8 663d b049 c3bf 3945 a2be a3db 5cbf
000001a0: 60d6 6d3e 59f7 cb3d d853 1b3e b847 6e3d
000001b0: 5505 96bd 6a0f f63c bd35 e9be 79b3 9dbe
000001c0: bee3 c0be 3269 6bbb 62ea 993d bc38 94be
000001d0: 5595 a03f ef39 60bf fbd3 9a3e 7e87 b83e
000001e0: 2551 393f d4f5 44be 3f84 07bd f977 013f
000001f0: 8092 c93d efe1 123f 8945 67be fab1 a8be
00000200: 8d1d fc3e 5c7d 683b 2d69 953e 15f1 96be
00000210: 6820 4e3f ca9a 75bf 3698 12bf ede5 aa3e
00000220: 96d6 7d3f 5a4e 71be 9c65 6b3e 1575 2b3e
00000230: d284 33bf 8ae4 943e 6071 1b3e 9d97 063d
00000240: 3951 bcbe b41f 49bf 087e 2f3f ff16 5ebf
00000250: 27b6 32bd dd4a 9ebe 6a6d 143f 83e7 133f
00000260: 796d 9d3e 3d0a 01bf b965 f3bc c93f bb3b
00000270: 82b4 1f3f 12e6 58be 304b 5f3e 9021 463f
00000280: d151 00be 821b a83e aa51 363c 046c 91be
00000290: 3a90 febe cc7c 293f 9fb4 9dbc df66 843f
000002a0: bb51 96bf 750e a63f 8b65 c9be 97af 0f3f
000002b0: e740 2a3f 58c1 fabe ddb2 10bf 8118 f6be
000002c0: 634f 6dbf 6dd1 023f 594d 76bf 10d9 373e
000002d0: 23ce 8cbe d928 4c3f 2b8d 52be ca15 043f
000002e0: 1226 393f cfc7 d9be 551f 0f3f 103d 523f
000002f0: 24cf 2cbf 273b 0c3f 27de 32bf 23bc ea3e
00000300: f814 3f3e 8a5b 0dbf 5f45 7dbe 50ec a7bd
00000310: d982 3abe 5cb0 c6bd 1097 0ebe 1d88 9fbd
00000320: cd7a e5be aff1 b5be b6a9 a63e d500 53bf
00000330: 13f5 c53e 9ff5 973d 0d2e aabd 056e cd3d
00000340: 2fbf 55be ff51 3fbf 1a47 34be 78c4 56bf
00000350: 513d 613d 817e a4be 4f81 bf3c 1eeb 03be
00000360: 2468 4abe 07e2 d83d df6f be3e 0e8f be3e
00000370: c4ba a3be ce98 8f3e 111f 363d cbbc 13be
00000380: 8291 49be ebb3 aebe a7c5 f1be e179 bd3c
00000390: 580c d9bb a07d dbbe 4a4b 50be 5b25 5b3e
000003a0: 6a44 4ebf 2f26 9dbe fa50 4ebe d16d 85be
000003b0: 6904 84bf 12e5 98bc 49f0 a23e 98cc 25be
000003c0: f293 713e 4310 eebe 7e39 e63c 79d5 80be
000003d0: d019 0fbf 5a94 6b3e 7b6b 6c3e 416f 713d
000003e0: 098a 94be 7c34 4e3e 621c 293e db8f ad3e
000003f0: 9400 a3be c42a 10be f118 373e 8af3 a13e
0.88838637 0.4162516 1.6994523 -0.76110494 -1.3119537 0.65349156 0.03482135 -0.6748552
-0.4043015 -0.1462941 -0.15849505 -0.82837135 0.08465543 -1.1744024 0.1462656 -0.16090477
0.41155118 -0.012483605 0.2914695 0.17273606 0.3636958 0.15047774 0.8378408 -0.58003473
0.23795895 -1.0604775 0.6139992 -0.28979567 -0.27022716 -0.11790981 -0.04577341 -0.07667763
0.22900838 -0.3564566 -1.0184193 -0.81773514 -0.28137046 3.9766104 -0.59193724 0.31003654
1.9534415 -1.1202608 -1.1378473 -0.16105336 0.22537073 -0.787982 -0.74767023 -0.33386976
0.2091059 -0.41428328 0.5901562 -0.9409457 0.6448417 0.30922678 0.5961758 0.064209595
0.16990967 0.011813083 -0.678208 0.5811665 -0.18213637 -0.653876 0.536086 0.0022059986
-0.021812893 -0.43159252 -0.45085374 -1.1910024 2.0939493 0.355065 1.3594172 -0.0455727
-0.1543565 0.37942675 -0.494004 -0.033614982 0.1070966 0.28645098 -0.31511346 -0.5770639
0.23724127 -0.5923735 0.8059222 -0.2221008 0.38483995 0.7554079 -0.039264154 -0.06335459
0.10189335 -0.007229961 0.14343767 -0.4626388 0.108417206 0.0920813 -0.4862191 0.19500357
-0.0031746505 -0.102034196 0.059557583 1.560969 0.056389216 -1.5256863 -0.31693438 -0.8627264
0.23226309 0.09959287 0.15168703 0.058173865 -0.07325236 0.030036647 -0.45548812 -0.3080099
-0.37673753 -0.0035920856 0.07515408 -0.28949535 1.2545573 -0.875884 0.30239853 0.36040872
0.7238944 -0.19234401 -0.033085104 0.5057369 0.09842396 0.57376 -0.2258512 -0.32948285
0.49241295 0.003547511 0.29181805 -0.29480806 0.805182 -0.95939314 -0.57263505 0.33378544
0.9915556 -0.23565045 0.2298798 0.16743882 -0.7012454 0.2908061 0.15179968 0.032859433
-0.36780718 -0.78564 0.68551683 -0.8675384 -0.043630745 -0.3091649 0.5797945 0.57775134
0.30747584 -0.5040625 -0.029711591 0.005714391 0.6238481 -0.21181515 0.21806026 0.7739496
-0.1253121 0.32833487 0.011127869 -0.28402722 -0.4971941 0.6620605 -0.019251166 1.0343894
-1.1743692 1.2973162 -0.39335284 0.56127304 0.66505283 -0.48975635 -0.56522924 -0.4806557
-0.9269926 0.5110081 -0.96211773 0.17953897 -0.2750102 0.7974983 -0.20561664 0.5159575
0.72323716 -0.42535254 0.55907184 0.82124424 -0.6750357 0.5477776 -0.6987023 0.45846662
0.18660343 -0.552178 -0.24733494 -0.0819937 -0.18213977 -0.09701607 -0.13924813 -0.077896334
-0.44820252 -0.35535952 0.32551354 -0.82423145 0.3866354 0.074198954 -0.08309565 0.1003075
-0.20873712 -0.7473449 -0.17605248 -0.8389354 0.054990117 -0.32127765 0.023377089 -0.12882659
-0.19766289 0.10589986 0.37194726 0.37218517 -0.31978428 0.28046268 0.04446322 -0.14427488
-0.19684413 -0.34121642 -0.4722111 0.023129405 -0.006623786 -0.42869282 -0.2034122 0.21400969
-0.8057314 -0.30693194 -0.20148078 -0.26060346 -1.0313846 -0.018663917 0.31823948 -0.16191328
0.23591593 -0.46496782 0.028103586 -0.25162867 -0.5589876 0.2300581 0.23087876 0.05894399
-0.29011562 0.20137209 0.16514733 0.33898816 -0.3183638 -0.14078814 0.17880608 0.31631118

z_k.mlp.0.bias f4 [10]
00000000: 2e14 f9bd 4bd2 12bf 8c85 eabb ed97 4fbe
00000010: f44d 18bf ca93 13bf c1af a7be 8d91 fabe
00000020: 501e 7dbe d3d2 01bf
-0.12162052 -0.5735213 -0.0071570333 -0.20272799 -0.5949395 -0.57647383 -0.32751277 -0.4893917
-0.24718595 -0.5071232

r_k.mlp.0.weight f4 [10, 33]
00000000: 1f1b 50be 39b4 1dbe 1298 633e 6b77 c83d
00000010: 7ef8 2abf 88d1 bd3e 0793 3abe 14b8 943e
00000020: 2b74 85bd 70e5 bfbd 33a0 46bf 9deb 2bbe
00000030: 01cc 2f3f c677 653e 209b dbbe 2107 ea3e
00000040: 13fd 87be 7202 d93e b22a 1bbd b0da e9be
00000050: bea6 7f3d da1c 21be 0dc3 a4ba 7e5d 15be
00000060: f2b4 6b3e 11b1 9cbe e423 82be f0e5 12be
00000070: 1bff f5bd 623a 3cbe 019a 5abe d917 b1be
00000080: a269 983e 72cf 1bbe 6412 70bb fd8d 1a3f
00000090: 7ecb ad3d 5007 ed3f b768 49be 127a 0abf
000000a0: 0f49 fd3f a829 f4be 4b8c 2a3e 6220 6abe
000000b0: 28e4 b2bd 0f98 593e a2be 0dbf efec 1abf
000000c0: 4d46 f73e 856b f5bd 06e1 34bd f9bb f3be
000000d0: b4ff 603e 8b59 ff3d ddfb df3e 7f3a 3dbf
000000e0: df0c 11bf 3b20 e93e bf63 a8bd db41 353f
000000f0: 646d 7f3d d693 273e 0eac 0c3f 475f 9bbc
00000100: be3d 4d3e a866 64be 99be ce3e df5a 8c3e
00000110: e989 083f d2c5 ae3d 781b 463f 8491 0ebf
00000120: fc42 5abe b256 9abd 55fe 013e eed6 f4be
00000130: 19a0 7a3f fdf6 f4bd 2a64 37bf fff8 95bf
00000140: 7142 10be d91f cc3e 9746 163f f977 1a3f
00000150: 3723 e43c b3a7 623f f650 bebe 0b3c 0abf
00000160: de77 6ebe 687a a1be 5469 b0be 4ae9 94be
00000170: 567d b5bc 447e 9dbe f7fb 9f3d 10f0 c3bd
00000180: 8392 b6be 2690 d53d a633 a03e 0ccb e5bd
00000190: 8035 6f3e 6a01 053f 1850 bd3e 08c7 90be
000001a0: ac0d 0d3f 1ad0 4abe 7ffe 05bf 3f0d 083f
000001b0: 7563 e93e 9711 8a3e 66eb 94bd 3b7e a4be
000001c0: a4fa 103c a3ef 203e aab7 8a3d f0e9 9dbd
000001d0: 4d4f 56be e273 203f 8895 3a3c d458 f83e
000001e0: dc24 74bf b8f5 f43e 80b4 a93e 832f 8c3d
000001f0: a9bf 033f df7a 40bf 9548 073f 0ec9 0d3e
00000200: ed7d b93d 8289 ccbd 164b 903e ee05 153e
00000210: c2f5 a9bd e323 953f b577 acbd dbfa 793e
00000220: c71a f93e 7259 70bd 110d 213f 0204 cd3e
00000230: 8616 77be 5388 543e 7ab6 f23e 84d9 c13e
00000240: 0f39 223e f5f2 8cbe ae26 39bf 2362 593e
00000250: 9a51 9c3e 7a73 343f dee4 3e3f 41c7 51bf
00000260: 8767 3bbe 6fe4 15bf 181a 613d ea99 be3d
00000270: b450 01bf 21ac 85be d1c9 313f 67e6 6f3e
00000280: 26d6 43be 863d e9be 79ed af3d 920a 3bbe
00000290: f51e 803e d724 9b3d 622b a5bd 34f6 4f3f
000002a0: 4d63 6a3e 8e9b d7bc 51fc 083e 4661 2cbf
000002b0: c8e5 0bbf 6da6 7e3f 80cf 843e 7cbb bebe
000002c0: 5719 09bf 2e74 593f 8d59 d6be 2886 0abe
000002d0: a5c5 a93e db7d 0cbf 1dfa ff3e 7b76 67be
000002e0: ac3d c63e a539 70be 88a2 8a3e 5040 68bf
000002f0: 5ee4 8a3e 2bd8 bcbd 7860 343e a52f eebe
00000300: bbcd 18bf 89c0 3d3e ff73 d33e 6c5c 43bf
00000310: dabd 19be f7e0 e23d 04e8 0cbd a722 f5bb
00000320: 8bd7 ffbd b476 f93d 1138 0b3f fd9f 99be
00000330: 36de f8be c400 b13d a4bd 513e 5bc0 8c3c
00000340: c2c8 3bbe b43c 9f3e eee1 d7be 0723 273e
00000350: ff5d 0dbe 5161 8cbe 5703 d23e a9a9 af3e
00000360: e036 2fbe 8967 523e 41f8 00bf 991e 86be
00000370: 640d 85bd b10a 83be c637 2e3e 14ad acbd
00000380: 8471 a9be 22df a7bd 1c8a c63c c368 e0bd
00000390: 9ba4 0b3d 5399 a13e 3bf2 00be fea7 303f
000003a0: 6220 83bf baaf e5be 1926 643f ab97 073f
000003b0: 549b 88bd 3046 a2be 02bb 4abf 942b 993e
000003c0: d021 353f 1a0e 303f e8fa 8abf 4e7c 9ebf
000003d0: a0fe 353e c6c4 2bbf 4ee6 eb3e 2cee 47be
000003e0: 3f9b b3be 29fb f6be b881 6f3f 32eb c6be
000003f0: 4115 aebe c707 dabe 2168 2f3f 4c82 98be
-0.20322846 -0.1540078 0.22225979 0.09788402 -0.6678542 0.37073922 -0.18220149 0.2904669
-0.06516298 -0.093699336 -0.77588195 -0.16789098 0.6867066 0.22408971 -0.42891788 0.45708564
-0.26560268 0.42384678 -0.037882514 -0.45674658 0.062414877 -0.15733662 -0.0012570337 -0.14586446
0.23018244 -0.3060384 -0.25418007 -0.14345527 -0.12011548 -0.18381646 -0.2134781 -0.34588507
0.2976809 -0.15215853 -0.0036632055 0.60372907 0.08486079 1.8517857 -0.19668852 -0.54092515
1.9787921 -0.4768803 0.1665508 -0.22863916 -0.087349236 0.21249412 -0.5536901 -0.6051778
0.48295823 -0.11983398 -0.04415991 -0.4760435 0.21972543 0.12468251 0.43746844 -0.7391738
-0.56660265 0.45532402 -0.0822215 0.7080361 0.062360182 0.16364989 0.54950035 -0.01896633
0.20043084 -0.22304785 0.4037979 0.2741308 0.53335434 0.08533825 0.77385664 -0.5569079
-0.21314615 -0.07536067 0.12694676 -0.47820228 0.9790054 -0.11961172 -0.71637213 -1.1716613
-0.14087845 0.39868048 0.5870146 0.60339314 0.027848823 0.8853714 -0.37171143 -0.5399787
-0.23287913 -0.315387 -0.3445536 -0.29084235 -0.022154491 -0.30760396 0.0781173 -0.09567273
-0.35658655 0.10427885 0.31289405 -0.11220369 0.23360252 0.5195528 0.3697517 -0.2827685
0.55098987 -0.19805947 -0.52341455 0.5314521 0.45583692 0.26966545 -0.07271461 -0.32127556
0.00884882 0.15716414 0.067733124 -0.07710636 -0.20928688 0.62676823 0.01138819 0.4850527
-0.9536874 0.4784372 0.33145523 0.06845 0.51464325 -0.75187486 0.52845126 0.13846228
0.090572216 -0.09987165 0.28182286 0.14553043 -0.08298828 1.1651577 -0.0842127 0.244121
0.48653242 -0.05867905 0.6291056 0.4004212 -0.24129686 0.20755129 0.47404844 0.37861264
0.15842079 -0.27529112 -0.72324646 0.21228842 0.30531007 0.70488703 0.74567974 -0.8194466
-0.18301211 -0.58551687 0.054956526 0.093067005 -0.5051377 -0.26107886 0.6944857 0.23427735
-0.1912466 -0.4555475 0.08590216 -0.18265751 0.25023618 0.07575386 -0.08064915 0.8123505
0.22889443 -0.026319291 0.13377501 -0.6733593 -0.54647493 0.99472696 0.2593956 -0.37252414
-0.5355429 0.849429 -0.41865197 -0.13527739 0.33158603 -0.5487954 0.4999551 -0.2260379
0.38718927 -0.2345949 0.27077127 -0.90723133 0.27127355 -0.09220918 0.17614925 -0.46520725
-0.5968892 0.18530478 0.41299435 -0.763129 -0.15013829 0.11078065 -0.034400955 -0.0074809375
-0.124922834 0.12180844 0.54382426 -0.30004874 -0.48607033 0.08642724 0.20482498 0.017181566
-0.18338302 0.31101 -0.42164558 0.16321956 -0.13805388 -0.27417997 0.41018173 0.34309128
-0.17110777 0.20547308 -0.50378805 -0.2619522 -0.06496695 -0.25594094 0.17013463 -0.084314495
-0.33094418 -0.08196856 0.024235778 -0.10957482 0.034092527 0.3156229 -0.12592404 0.69006336
-1.0244257 -0.4486063 0.8912063 0.529658 -0.066702515 -0.31694174 -0.791916 0.2991606
0.7075472 0.6877152 -1.085782 -1.2381685 0.17772913 -0.6709713 0.46074146 -0.19524449
-0.3507938 -0.48238495 0.9355731 -0.38851315 -0.3400059 -0.4258406 0.68518263 -0.2978691

r_k.mlp.0.bias f4 [10]
00000000: e928 9abd cfe9 20be 0755 34bf 3dbe 7d3e
00000010: a9c2 5bbd ac8b 4b3e 710f 70be 7958 8f3e
00000020: cca9 053d b938 e13d
-0.07527334 -0.15714191 -0.7044224 0.24779601 -0.05365244 0.198775 -0.2344339 0.27997187
0.032632634 0.10997147

correction.mlp.0.weight f4 [10, 33]
00000000: dfc6 0ebe 57e7 23bd f7da d33e 9bfe 82ba
00000010: bb6f 8fbf 68d3 d0bb 509c af3e 0066 a7bc
00000020: 3a61 233e 83be cfbd a140 afbd b612 cebe
00000030: de1f e2be cdb6 253e 9fc6 08bc 80ff a3be
00000040: 9bfc a4be 3182 a73d 5dc6 dc3e 95d9 0abe
00000050: 99a9 b43e 9d9a 2abf cf8a 2d3e 9a0a ca3e
00000060: 5c6b 53bd 8cbd 49be 3ef6 61bd 1d3f ed3d
00000070: 293a 1cbe d9aa 9abe 3721 19bc 95c4 a13d
00000080: 592e d93d 6043 a2be 54f8 2ebf adf9 103e
00000090: ec48 183f 9ec4 0abf 84d3 dc3e 2558 153e
000000a0: 2de9 39bd 6d04 bcbe 13c5 f2be 40d8 403e
000000b0: 307d b3bc 5eba a83e 301c 18be 5530 d4be
000000c0: 3b92 f4bd 11be 82bd bdc4 67bd a4aa 143e
000000d0: f723 e73e 82fd 02bf 1965 823e a953 343e
000000e0: 4bb2 f83d ae52 99bc 209d 09bd be19 a1be
000000f0: b1a9 0cbf 5709 453d a4d3 6d3e befd 103c
00000100: 6aca 383e bd97 babe e3c3 4a3e 28d9 9c3c
00000110: bde7 02c0 cf9d 243f 8f78 abbd 46f1 0d3e
00000120: 85ea 943d 4d3c e13e d028 6cbe 1795 35bf
00000130: 5170 01bd 426e bebd 2115 8cbe ed60 083f
00000140: 41c9 c43d 6b91 d5bd 4487 003e ec44 1cbd
00000150: b4c6 66be db23 f63c b6a7 253e 4434 fcbe
00000160: 8aec 8e3e f5e3 1cbe ce14 a2be 8687 2ebe
00000170: ffe1 c4bd 92de 89be 0df8 69bd 8c7d 95bd
00000180: ef26 b838 2496 54be 936a b1be 39de ac3e
00000190: fb29 e0be 5075 723f 567c bbbe 69a1 c23d
000001a0: c217 c0be 23cb 063e 4dbf a0be 1d19 0ebe
000001b0: 57f5 ba3e 006c afbe 3800 c8bc 7c2a fc3c
000001c0: 26f8 abbe 51cb 373e 8472 543e 0b96 a5bd
000001d0: e405 51be 8e2b d3bc c14b 83be 09c1 f3bd
000001e0: 8769 04bf ee66 373d fd22 6c3e 9121 ebbd
000001f0: 442d c83e 7744 b53e 92d9 5e3e 0c2e 91be
00000200: b790 993e 2469 a2bc 94c3 a73d ad14 a13e
00000210: b5ae 25bf 781b e8bd dc44 0d3f b036 aabd
00000220: 2367 38bf 6850 02bf a517 013e e560 c53d
00000230: 4c89 e23d b23c 57be 0ff1 d63e 4b38 223d
00000240: 405e 6d3e 45a4 403e 60a9 aebd 382f fbbd
00000250: be13 0e3d 820c ca3a 9192 ccbc 86a9 11bf
00000260: 0236 293f 4bb5 30be 080b d23e 8179 d2ba
00000270: e872 3ebd 0f63 833e 6be4 51be ede2 6e3e
00000280: 453e 17be aa23 bd3d 74ad efba fd33 64be
00000290: 0879 8ebe 12d2 453e aedb 5fbe a721 0b3f
000002a0: 8d43 00bf d344 c83e de52 b9be bdb2 d9be
000002b0: 732e 14be 7ea7 0b3e 674f 83bd e3a7 9abe
000002c0: 205a 4fbe 1a12 16bf 6964 acbe 0490 abbe
000002d0: 9c7a 8abe 8e44 603e fa66 583e 46c8 903d
000002e0: 1953 e33e 508c 7fbe 213d 07be 130a 5ebe
000002f0: 9c55 0dbd d581 0bbe 3923 443e dbbf f83d
00000300: 7584 2f3c c2c0 57bd b155 573e d59a 60b9
00000310: fa47 81be 1455 153d 3379 d53d 4875 0dbf
00000320: 7026 833e ab86 67be ba73 b9bf f0ce cbbd
00000330: bc8c 3fbe 58cc 03bd e923 ea3e 93d7 93be
00000340: b677 c33d 8279 863d bf6c 1a3e e9f4 21be
00000350: cd95 17be 53c5 a23e 4a41 0a3e 5c21 eabd
00000360: 95e0 f43d 653c 373e dae9 dd3d 0dc7 9e3e
00000370: b16a 5cbe bd05 19bc 4bc5 61be 07be ebbd
00000380: a350 6ebe 97de babe e25b 45be fb64 00be
00000390: ac0b 593c 2051 afbe 0c18 bd3d a662 0a3e
000003a0: 9a85 0bbf 3de8 763f 5b10 c1be 08bd e63e
000003b0: 1791 12bf 7f6b b63d 19a2 15bf 04d1 db3d
000003c0: aeae 87be 7382 ad3e a928 1b3e b0d9 76bd
000003d0: 1070 a9be d88d b83e 0976 a63e 4e97 20be
000003e0: f621 923d e09c 633e 7159 2c3d c34f 953e
000003f0: bb79 743e 24f4 843e b909 e1bd 910f 2bbe
-0.13943051 -0.040015545 0.41377994 -0.0009994091 -1.1205972 -0.006372858 0.34298944 -0.02043438
0.15955058 -0.10143759 -0.08557249 -0.4024865 -0.44164938 0.16183014 -0.008348136 -0.3203087
-0.32223973 0.08179129 0.4312009 -0.13559563 0.35285643 -0.6664217 0.16947483 0.39461213
-0.051616058 -0.19701213 -0.055166475 0.115843035 -0.15256561 -0.3020847 -0.009346298 0.07898823
0.10604543 -0.31692028 -0.6834767 0.14157744 0.5948627 -0.54206264 0.43130124 0.14584406
-0.04538839 -0.36722127 -0.4741598 0.18832493 -0.02191028 0.32954687 -0.14854503 -0.41443124
-0.11941954 -0.063839085 -0.05658411 0.14518219 0.45144626 -0.5116807 0.25467756 0.17610039
0.12143382 -0.018716183 -0.03359711 -0.31464952 -0.5494643 0.04810461 0.23225266 0.008849559
0.18045965 -0.36443892 0.19801287 0.019146517 -2.0453942 0.64303297 -0.08372604 0.1386157
0.072712936 0.43991318 -0.23062444 -0.7093062 -0.031601254 -0.09298374 -0.2735987 0.53272897
0.09608699 -0.10428127 0.125516 -0.038151667 -0.22536737 0.030046394 0.16177258 -0.49258626
0.2791484 -0.15321334 -0.31656498 -0.17043886 -0.09613418 -0.2692762 -0.057121325 -0.07299337
8.781056e-05 -0.20760399 -0.34651622 0.33763292 -0.4378203 0.94710255 -0.36618298 0.09503443
-0.37518126 0.13163428 -0.3139595 -0.13876767 0.36515304 -0.34262085 -0.024414167 0.030781977
-0.3358776 0.17948653 0.20746809 -0.08085259 -0.20412403 -0.025777604 -0.25643733 -0.11902053
-0.5172352 0.044775896 0.23060222 -0.11481012 0.39097035 0.35403797 0.21762684 -0.28355443
0.2999322 -0.019825526 0.081916004 0.31461087 -0.64719707 -0.11333364 0.55183196 -0.08311212
-0.72032374 -0.5090394 0.12606676 0.09637622 0.110613436 -0.21019247 0.41980788 0.039604466
0.23180485 0.18812664 -0.085283995 -0.12264866 0.034686796 0.0015415105 -0.024972232 -0.568993
0.66098034 -0.17256658 0.4102404 -0.001605794 -0.046496302 0.25661513 -0.20497291 0.23328753
-0.14769848 0.09235318 -0.0018285946 -0.22285457 -0.27826715 0.19318417 -0.21861145 0.54348224
-0.50103074 0.3911501 -0.36196035 -0.4251918 -0.14470844 0.13638112 -0.06411629 -0.30206212
-0.20249224 -0.5862137 -0.33670357 -0.33508313 -0.2704667 0.21901152 0.21133032 0.07069449
0.44399336 -0.24955869 -0.13206913 -0.2168353 -0.03450547 -0.13623746 0.19154061 0.121459685
0.010712733 -0.052674063 0.21028782 -0.00021419984 -0.25250226 0.03645809 0.104235075 -0.5525708
0.25615263 -0.22609966 -1.4488442 -0.099515796 -0.1870603 -0.0321773 0.45730522 -0.28875408
0.095443174 0.065661445 0.15080546 -0.15816082 -0.14803238 0.3179117 0.13501468 -0.11432144
0.11956898 0.17894132 0.10835619 0.3101124 -0.21525075 -0.009339747 -0.22047918 -0.11510854
-0.23272948 -0.36497948 -0.19273332 -0.12538521 0.013247412 -0.3424158 0.09233102 0.13514194
-0.54500735 0.9644812 -0.3770779 0.45066094 -0.5725264 0.08907222 -0.58450466 0.10733226
-0.26500458 0.33888587 0.1515223 -0.060266197 -0.3309331 0.36045718 0.3251193 -0.15682718
0.07135384 0.22227812 0.042077485 0.29162416 0.23874561 0.25967515 -0.109881826 -0.16705157

correction.mlp.0.bias f4 [10]
00000000: cfed aabd 490a e3bd 8641 c9be 2151 3a3d
00000010: 2c26 22bc 5344 ffbd ae60 39bc 49fd babc
00000020: 1e15 103c bd56 463d
-0.0834614 -0.11085946 -0.39307803 0.045487527 -0.009896796 -0.12464204 -0.011314554 -0.022825854
0.008794097 0.048422564

phi_neumann.mlp.mlp.0.weight f4 [10, 23]
00000000: 23a9 bebe 264c 4d3e d6ce 2e3f c060 5dbe
00000010: 9978 7e3f c596 3a3e 9a9d 67be 1ee9 953e
00000020: 63a2 29bd 1cfc 8b3e 05ce dcbd a914 4cbe
00000030: f381 ea3e 735d 9bbe 2746 1cbe 6b8a 1dbe
00000040: 6fcc f13e 1c61 2cbf 7d69 bb3e fead f7be
00000050: 3cdf 85b9 add1 b63a 7432 1ebc 3ab4 983e
00000060: 90ce 843a 4c30 ce3e 8f96 1d3e 2551 bcbe
00000070: d5c2 68bd c7f2 e6be a53e 92bc d4a3 413e
00000080: bbd1 aa3e 784e 58bd 7866 173e 7f6b 513f
00000090: 5ca1 03bf b817 f33d f6ab 72be d1ca 073e
000000a0: 8ad2 34be b62a 06bb dc1f bebe 2e3f ccb8
000000b0: dc0d 09ba 4938 45bd 390b 62bd 3196 973e
000000c0: c7ff 76bf 5749 123e 28bf 9c3e eace 06be
000000d0: 3dcd 86be 8e62 103f a6d6 1fbe f24a 33bf
000000e0: ead1 dbbe 433c d2bd 5f16 1cbf e950 463e
000000f0: 5807 2b3f 2f2b 8d3d 6d4a 7a3d 5684 173f
00000100: 122b d03c 4019 ed3e 2a52 723b c099 2c3a
00000110: dab7 a1bc aa4f 793e 1267 873e 69d2 e8be
00000120: d8fd cc3c 0d5f 7dbe df05 553e a71a a4be
00000130: db35 143d d983 7b3e d2cf 99be 9e5c 873e
00000140: 163b 6c3c bd19 1d3f 948e 403e 6a4f 363f
00000150: 926d ee3e 8681 f83d ff23 ac3d a98b 54be
00000160: ce99 9ebc 0690 9639 07f3 7cb9 e1b8 cbbb
00000170: 7617 c1be a423 5ebe 39d4 613f 0859 373e
00000180: 02e4 a73e b473 1fbf d748 bc3c a3d4 a6be
00000190: 362c 03be a5db 39be 91d4 c1bd 0e51 9abf
000001a0: 9161 073f 5774 b5be 33b3 0abf 1f8b 833f
000001b0: 0f1d c6be 645d 463e 2c44 323d 0a8e 533e
000001c0: f292 cf3a b563 2fbb 88f8 91bd 8ad4 553e
000001d0: 642e e4bc f779 ee3e 828d 963e 9ac8 003f
000001e0: 5930 ac3e 1798 8f3e e845 933d ff38 9abd
000001f0: 1aef cfbd cacf f0be 171a 433e 0ec4 64bd
00000200: 8841 8f3c 433b 383f c28f e13d dcfb e3bd
00000210: 36b2 4cbe f0d1 eabe 81b9 19bd cd70 233b
00000220: f1b9 ca3a d732 0d3d 8555 043e 0c60 cc3e
00000230: 3ada 80bd 21b2 933e 5832 d83e 45c7 c1be
00000240: b041 8cbd 6aa8 57be b316 05be 6cf8 cebe
00000250: e800 f63e 3303 25be 27c9 c03e 1f09 f43b
00000260: 29f1 463e fe56 30be 4b9f 763e 2f44 80be
00000270: 89c9 33be 7f79 e23c cb9a ce3b debc 3fbb
00000280: 90f4 3b3e c9e0 0c3f 5a3e cd3e e98d 203f
00000290: c3f8 203d f6a4 9fbe da94 b23e f357 ca3d
000002a0: 7dbf 203d 5229 c3be 3fc0 ccbd 543d 363f
000002b0: 79a9 f13e 7dbc 8c3f c66d 003f beb3 a53e
000002c0: 7270 633d cb24 39be ea7c c4be ac08 a03e
000002d0: 37ba 903d 058c d1ba 8587 6b3b abb2 86bd
000002e0: 0cae af3e 0119 0c3d 61e2 e4be c67b aa3e
000002f0: a3ec ad3e 92ed 91bd d24f 8d3e 7b23 963e
00000300: 6911 07be e342 843e 2775 a33e a4e1 c33e
00000310: 3e67 9a3f b6d0 cf3c 9aab dbbe dfb4 00bf
00000320: 9f13 733e b43c 0c3f 30fe 29bf a0d9 653e
00000330: 215c a8ba 791e 15bb 8c2f a9bd 5560 45be
00000340: 5f12 a83e 7f51 21bd b1fb 02bf 5aa3 89be
00000350: c0a6 f43d 83a9 253f c7a3 59be cb86 89bd
00000360: fa41 44be 5326 033f f109 96be 0052 4e3f
00000370: 7935 893e c8c0 53bd 93ff fe3c 0c5a 07bf
00000380: 97d1 9abd 0982 ddbd a63c e93e a72b c63a
00000390: 9ac7 b7ba d5af 60bd
-0.37238416 0.2004858 0.68284357 -0.21618938 0.9940277 0.18221577 -0.22618714 0.29279417
-0.04141463 0.27340782 -0.107814826 -0.19929756 0.45802268 -0.30344734 -0.15261136 -0.15384834
0.47226283 -0.6733568 0.3660392 -0.48374933 -0.0002553406 0.0013947986 -0.009655584 0.29825002
0.0010132361 0.40271223 0.15389465 -0.36780658 -0.05682643 -0.451071 -0.017852137 0.18910152
0.33363137 -0.05280921 0.14785182 0.8180465 -0.5141809 0.11869758 -0.2369841 0.13260962
-0.1765844 -0.0020472235 -0.37133682 -9.739246e-05 -0.00052282005 -0.04814938 -0.055186484 0.29606774
-0.96484035 0.1428579 0.3061459 -0.13164869 -0.2632846 0.5640038 -0.15609226 -0.7003623
-0.4293359 -0.102654 -0.60971636 0.19366802 0.6680808 0.06893002 0.061106134 0.59186304
0.025411163 0.46308327 0.0036975243 0.000658419 -0.019740988 0.24346796 0.26445824 -0.4547303
0.025023386 -0.2474329 0.20803021 -0.32051584 0.036184173 0.24562015 -0.30041367 0.2643785
0.014418384 0.613674 0.18804389 0.71214926 0.4656797 0.1213408 0.08405303 -0.20756401
-0.01936045 0.00028717535 -0.00024123128 -0.0062171076 -0.37713212 -0.21693283 0.8821445 0.17905056
0.32791144 -0.62285924 0.022983951 -0.32584104 -0.12809834 -0.18150194 -0.09464372 -1.2055986
0.5288325 -0.35440323 -0.54179686 1.0276831 -0.38694045 0.19371563 0.043522045 0.20659652
0.001583664 -0.002676231 -0.07127482 0.20881858 -0.027854152 0.46577427 0.29404837 0.50306094
0.33630636 0.28045723 0.07191068 -0.075304024 -0.10153027 -0.4703353 0.19052921 -0.055851035
0.017487302 0.71965426 0.11013748 -0.11132023 -0.19989857 -0.45863295 -0.037530426 0.002493906
0.0015466792 0.034472313 0.12923248 0.39917028 -0.062916234 0.2884684 0.4222591 -0.37847343
-0.068484664 -0.21060339 -0.1299694 -0.40423906 0.48047566 -0.16114502 0.37653467 0.0074473764
0.19427933 -0.17220685 0.24084203 -0.2505202 -0.17557348 0.027645824 0.006305074 -0.002925686
0.18355012 0.55030495 0.40086633 0.6271654 0.039299738 -0.31180543 0.3487919 0.09880056
0.039245117 -0.38117462 -0.099976055 0.7118733 0.4719961 1.0995022 0.501675 0.32363695
0.055527158 -0.18080442 -0.38376552 0.31256616 0.07066768 -0.0015987164 0.003593893 -0.06577047
0.34312475 0.034203533 -0.44703963 0.33297557 0.33969602 -0.07125391 0.2759996 0.29323944
-0.13190235 0.2583228 0.31925318 0.38258088 1.2062757 0.025368076 -0.4290436 -0.5027599
0.23737954 0.54780126 -0.66403484 0.22446299 -0.0012844839 -0.0022753759 -0.08261022 -0.19275029
0.32826516 -0.03938436 -0.511653 -0.2688244 0.119458675 0.6471178 -0.21253882 -0.06715163
-0.19165793 0.51230353 -0.2930446 0.8059387 0.2679861 -0.051697522 0.031127727 -0.52871776
-0.07559507 -0.10815818 0.45554084 0.0015119211 -0.0014021278 -0.054855186

phi_neumann.mlp.mlp.0.bias f4 [10]
00000000: 13d3 8ebc 72ae 823d 926a 0abd 2b42 953e
00000010: 4d35 0fbe 19de ba3c 9d89 d73d a754 a03d
00000020: 271e 14bf 32c1 c03d
-0.017434632 0.06380929 -0.03379304 0.29152045 -0.13985176 0.022810983 0.105242945 0.07828646
-0.5785851 0.09411849

phi_neumann.mlp.mlp.2.weight f4 [10, 10]
00000000: ed5f dcbd 6016 263f 13e7 0abf 496e 443e
00000010: 7ba8 79be 986b b6be 06b0 383e 57d4 943c
00000020: 8ebc 4a3e b34c 36bd 9446 83bd 8dfc c6be
00000030: 244d 16be 61f0 71bc f399 bbbe 8dc0 f1be
00000040: 041b ff3d e6f1 38bc 4368 f03d 5bfd 6fbe
00000050: da88 71be 4a16 ef3e f5df 783e 812d cdbd
00000060: bdfa acbb 8043 053f 3f09 e2be 0760 14be
00000070: 3895 32bf b9b4 75be caee a83e af3f 613d
00000080: fbea 51be 2f1c 723d a16f 2b3f 3eb8 e8be
00000090: 4c5b 09be 3511 9c3e 9d0f a53e a30a bbbe
000000a0: 32d3 203e fef0 003e 13a4 393e a001 063f
000000b0: 3d0a 563e 6feb 3d3e b73e 3cbe 0194 433d
000000c0: a0ca fabd 2f1a b4be bf30 ef3d 8991 e83e
000000d0: f67f 37be dd86 0cbf a5fb c53e fbdd d53e
000000e0: 14f4 d23d 6a17 90be c393 cb3e 9407 ff3d
000000f0: 161c 86bc 3311 883e 856e f2bd e6d0 62bd
00000100: df19 0bbf 3308 e5bd 9df7 f53a ffd4 e03e
00000110: d906 3b3e 50a0 db3e 9b3c ebbe 4a38 813e
00000120: d0c9 0b3f 0c8c ce3e acf8 2f3e 7627 b9be
00000130: d859 28be ffde d23e 712f 363f c84a 88bd
00000140: f78b 083f 7f3b e93e b205 c6be 81d5 cdbc
00000150: caee 113f c376 243f c1c4 113d 2cd7 723d
00000160: fd7c a7be 9beb 00be 741d 033e 0c9c 843e
00000170: 0bd0 19be 3617 e4bd feab 65be e145 e6be
00000180: 8446 823e 902f 0cbe 3026 aa3d 5bea 01bf
-0.10760484 0.6487789 -0.5425884 0.19182695 -0.24380676 -0.35628963 0.18035898 0.018167658
0.1979849 -0.04450674 -0.06409946 -0.38864556 -0.14677864 -0.014766783 -0.3664089 -0.47217217
0.12456325 -0.011288142 0.11738636 -0.23436491 -0.23587361 0.46696693 0.24304183 -0.10018445
-0.005278914 0.5205612 -0.4414768 -0.14489757 -0.6975894 -0.23994721 0.32994682 0.054992374
-0.20499794 0.05910891 0.6696721 -0.45453066 -0.13413733 0.30481878 0.32238474 -0.36531553
0.15705565 0.12591931 0.18128996 0.5234623 0.20902343 0.18546842 -0.18383299 0.04774857
-0.12245679 -0.35176226 0.116792195 0.45423535 -0.17919907 -0.54893285 0.38668552 0.4177092
0.103004605 -0.28142864 0.3976117 0.12452617 -0.016370814 0.26575622 -0.11837486 -0.055375002
-0.5433635 -0.111832045 0.0018765811 0.43912503 0.18264331 0.42895746 -0.45944676 0.25238258
0.54604816 0.40341222 0.17184705 -0.3616292 -0.16440523 0.41185758 0.7116614 -0.066548884
0.5333857 0.45553204 -0.3867622 -0.02512622 0.5700499 0.64243716 0.03558803 0.059287235
-0.32712546 -0.12589876 0.12804204 0.25900304 -0.15020768 -0.1113724 -0.22428891 -0.44975188
0.25444424 -0.13690019 0.08308065 -0.50748223

phi_neumann.mlp.mlp.2.bias f4 [10]
00000000: 3e8b 503d 0394 30be 2ea6 c1bc 5eae dfbe
00000010: a9d4 b9bd 31f8 04be 7c14 08bd 67bb cb3e
00000020: 0620 a83d ebaf 963b
0.05091404 -0.17243962 -0.023638811 -0.4368772 -0.09073765 -0.12985303 -0.03322266 0.39791414
0.08209233 0.004598608
