mixed/dsgps/results/70_ite_lamb_0_001_gamma_1/ckpt/best_model.pt (torch, 78917 bytes, 93 tensors)

laynorm.weight f4 [10]
00000000: 0000 803f 0000 803f 0000 803f 0000 803f
00000010: 0000 803f 0000 803f 0000 803f 0000 803f
00000020: 0000 803f 0000 803f
1.0 1.0 1.0 1.0 1.0 1.0 1.0 1.0
1.0 1.0

laynorm.bias f4 [10]
00000000: 0000 0000 0000 0000 0000 0000 0000 0000
00000010: 0000 0000 0000 0000 0000 0000 0000 0000
00000020: 0000 0000 0000 0000
0.0 0.0 0.0 0.0 0.0 0.0 0.0 0.0
0.0 0.0

phi_to.mlp.mlp.0.weight f4 [10, 23]
00000000: 0290 dfbe 17ae 8f3e bec8 623e d17e 263d
00000010: 2ac9 2ebe f218 0abc a0b0 43be 09ce 3039
00000020: b007 423e af22 b7be 749c 3bbd 73d0 14be
00000030: 21ca 143e 0b9c 923e 2204 62be 9bb7 6abe
00000040: fb9c da3d c7a9 b0be 64b3 533e c722 00be
00000050: 547e e93a b4f6 96bb d228 6fbd 4e8d cbbe
00000060: d435 9abe 3eed 03bd 5049 883e 76a1 e93d
00000070: 78ef ecbd 8835 cf3e 31bb a3be 98e8 373e
00000080: f6bf 2fbe 0a46 06be 98d7 b53e 029b c83e
00000090: ef38 d03d 6c62 aa3e bf06 8bbe f398 9fbe
000000a0: 6a23 923e 7b7d 823e 3013 583e 59fb 15bc
000000b0: 0039 013b 26e6 003e 053e 6bbd 9a92 a5bd
000000c0: 6b2c 39be 1bfe 50bd 3b09 423e 9c6b c1be
000000d0: 553e 68bd 241c 153e 93b6 e73d 1ecc 473e
000000e0: c407 72be 73f2 083e f25f 41bd e384 8dbd
000000f0: 33da 39be 53c8 873f 7a2c c43d ee3f 86be
00000100: 986d d93d 9996 5cbe 5d87 8a39 a949 00bc
00000110: 82a0 a13e ec21 13be 080a f13d 1049 fcbc
00000120: ebcd f43e 3a4d 7ebe e684 793d 97c4 35be
00000130: 6c62 41be 6e2b f13e 8cb5 53be 31dc 3fbe
00000140: d705 c73e 23e9 cfbe 375f 8dbd 312c e93e
00000150: 587a 10bd f397 bfbe 70f0 f73e 1b74 3ebd
00000160: 74a7 833e 0290 7e3c cf38 f33b f64f 8cbe
00000170: affa 7fbe 3653 8cbe 265a 2abf 4709 a63b
00000180: 69a1 a3bd f5c5 5cbd 83ac b7be d895 17bd
00000190: baa5 3ebd 4a3b ae3d 3b4f 843e 01e1 053f
000001a0: bb09 0c3b eeec 92be 56a9 62bd 5c2e 77be
000001b0: 3ea2 8d3c c7f2 9d3d e891 303d 37af 5b3e
000001c0: 7c3b e5bb 078d 59bb 8498 3aba 6e75 b0be
000001d0: 8f33 8fbd 9ee4 04be 0639 3d3e 9990 2a3e
000001e0: cc8d debd fa1d 863f 6395 29be 8fb9 a83e
000001f0: 912c f53e 91ac 763e f5c2 77be 821d 17bd
00000200: 6e20 dfbe d7a6 aabe 7e86 86be 3b38 22be
00000210: 81cb ba3e 522a 0e3e 21aa 6dbd b337 e43b
00000220: 2cbb b4ba c677 74be d603 c7be ed92 633e
00000230: b5c2 e1be 11e6 fe3e d984 be3e cd1a 4dbf
00000240: 376a 55be c572 ce3e 8c80 5e3f 0d55 e33d
00000250: def1 7f3e b304 593e f19b 393e 2d6d 853e
00000260: 3d01 4bbc b812 e1be b5c1 41be 5d3a d83e
00000270: 57b6 433e 1433 68bd 6718 10ba 4e1e ccba
00000280: 5909 78bd 8968 8bbd bf4b b13e cee2 d13e
00000290: cd2f 99be 363f a63e 98f2 44be 0a61 af3d
000002a0: e8cb babe 5821 cd3e bad3 66be 6f2c f8be
000002b0: ad84 de3d 7afe bd3e 3c02 f33c 87f7 c7bc
000002c0: be82 5ebe ce57 a93e 51aa 4bbe 59c4 66bd
000002d0: b4db 44be 0351 6d3c 69e0 54bb 339d 9bbe
000002e0: 48f7 d23e 93ef 62be 37a4 0abd 772e 01be
000002f0: 44ef 91be dd84 bbbe d8cf d1bd 5704 933e
00000300: 74ef fb3d d891 9cbe 6db3 dabe 747b 3ebf
00000310: 8422 6b3d 9407 803e 41bd 39be ef41 37be
00000320: 878d 1ebe dfed bcbe 88b0 c13d a204 793e
00000330: 5fee 28bc 9679 cebb 161d d5bd 9551 dfbd
00000340: b260 f13e bcbe 33be d371 963e c463 78be
00000350: 7e56 3cbe f59a 4bbf 98e1 8d3e 5af7 003f
00000360: 616c c0be ef1f c13e 84ab 8ebe 0ed2 7f3e
00000370: 08b1 303e 1620 29be bbd4 373c d176 163e
00000380: 0dd1 6fbc a307 62be 8682 84be 84f7 21bc
00000390: ca84 68bb 6628 c73c
-0.43664557 0.28062508 0.2214689 0.040648285 -0.17068925 -0.008428799 -0.19110346 0.00016861422
0.18948245 -0.3576865 -0.045803502 -0.14532642 0.14530231 0.28634676 -0.22071889 -0.22921602
0.10674473 -0.3450453 0.20673901 -0.12513267 0.0017814138 -0.004607046 -0.05838854 -0.39756244
-0.30119193 -0.032208674 0.26618433 0.11407749 -0.115691125 0.4047053 -0.31978753 0.17959821
-0.17163071 -0.13112655 0.35516047 0.39180762 0.10167109 0.33278215 -0.27153584 -0.31171378
0.28542644 0.2548636 0.2110107 -0.009154164 0.0019717813 0.12587795 -0.057432193 -0.08084603
-0.1808335 -0.051023584 0.18948834 -0.37777412 -0.05670007 0.14561516 0.1131412 0.19511458
-0.23635775 0.13373737 -0.04721064 -0.06910112 -0.18149643 1.0608009 0.09578796 -0.2622065
0.106166065 -0.21541823 0.00026422265 -0.007830062 0.3156777 -0.14368409 0.117694914 -0.030796558
0.47813353 -0.24834147 0.060917757 -0.17750774 -0.18885201 0.47103447 -0.20674723 -0.1873634
0.38871643 -0.40607557 -0.069029264 0.45541528 -0.035272926 -0.37420616 0.48425627 -0.046497446
0.25713694 0.015537264 0.0074225436 -0.27404755 -0.24997972 -0.27407235 -0.66543806 0.005067024
-0.07989771 -0.053899724 -0.35873803 -0.037008137 -0.046544768 0.08507402 0.25841698 0.52296454
0.0021368104 -0.28696388 -0.055337273 -0.24138778 0.017289277 0.07712322 0.043107897 0.21453558
-0.0069956165 -0.003319563 -0.00071180635 -0.34464592 -0.06992256 -0.12977836 0.18478784 0.16656722
-0.10866889 1.0477898 -0.16560893 0.3295407 0.47885564 0.24089266 -0.24195464 -0.036893375
-0.4357943 -0.33330414 -0.26274484 -0.15841763 0.36483386 0.13883331 -0.058023576 0.0069646477
-0.0013788692 -0.23873815 -0.38870114 0.22224016 -0.44093862 0.49784902 0.3721073 -0.8011902
-0.20841299 0.40321937 0.86914897 0.111002065 0.24994609 0.21193199 0.18125893 0.26059857
-0.012390432 -0.43959594 -0.1892155 0.42232028 0.19112526 -0.056689337 -0.00054968003 -0.0015572996
-0.06055579 -0.06807048 0.34628102 0.4099335 -0.29919282 0.324701 -0.19233167 0.085634306
-0.36483693 0.40064502 -0.22541705 -0.484714 0.1086515 0.37108213 0.029664151 -0.024410022
-0.21729562 0.33074802 -0.1988919 -0.056339595 -0.19224435 0.014484647 -0.0032482392 -0.3039337
0.41204286 -0.22161703 -0.033848014 -0.12615381 -0.28502858 -0.36624804 -0.10244721 0.2871425
0.123015314 -0.3058002 -0.42715016 -0.74407125 0.057405964 0.25005782 -0.18138601 -0.17896245
-0.15483676 -0.3690023 0.09457499 0.24318174 -0.010310738 -0.0063011153 -0.10405938 -0.109042324
0.47144085 -0.17553228 0.29383716 -0.24256808 -0.18392369 -0.7953332 0.27711177 0.5037743
-0.37582687 0.37719676 -0.2786523 0.24982473 0.17255032 -0.16516146 0.0112201525 0.14693762
-0.014637244 -0.22073226 -0.2588083 -0.0098856725 -0.003547954 0.024311256

phi_to.mlp.mlp.0.bias f4 [10]
00000000: 6672 c83d 915e 453c 3174 0fbd 42a7 1e3e
00000010: e8d7 01bd e9fb 123e cf0a 7c3d 46b2 863d
00000020: 1a80 503e a11f 173e
0.09787445 0.012046472 -0.035022918 0.15493491 -0.031700045 0.14353909 0.061533745 0.06576972
0.20361367 0.14758159

phi_to.mlp.mlp.2.weight f4 [10, 10]
00000000: add8 313e e0ea f93e f76b f2be cc8b e1be
00000010: 0c6e 173e 018f b23e 2d7f 833e 80d5 cb3e
00000020: 9649 eebe ee09 2e3e 8aa9 3bbd f6d2 803d
00000030: 0161 80be 3470 063f 2293 ecbd 17d7 99be
00000040: bc54 a83e 7752 11bc c7e6 ddbe 453f 9ebd
00000050: 6276 bfbe 3073 33bd dea6 953d ad67 9dbe
00000060: 62cf 133e 37ff 00bf 6012 24bf 6e1b 06be
00000070: c710 033f 9891 01bf af16 453e 7d35 4abe
00000080: 0a4a bebc 7cc9 7a3e d111 66be 41f3 8fbe
00000090: c777 1a3e cd17 b7bc ce66 2b3d bcd6 063f
000000a0: dda0 da3e e57c a0be 7532 b6be 4c8e 9dbe
000000b0: 37a3 0cbf cf02 eabd a950 57be c7af 383d
000000c0: c7bd 493c a370 263d 1b4f 013e 8e40 083f
000000d0: 8fb6 f1bd eb55 173f 2355 f73e 30de 9a3e
000000e0: 2c91 2d3c 52b8 333d 0773 f6be 3fac 1f3e
000000f0: de25 92be cbf1 fdbe 3930 01bf f49f 90be
00000100: a212 e23c fb6f 14be bb7a 2ebd 077b 1b3e
00000110: 1bd4 4e3e 1883 003e 229a 14be 396c d93d
00000120: a59b b5bd 8529 95be f8de 7fbe 0154 23bd
00000130: 6a4a 41bf fa9d 513e 18a3 f7be a920 edbe
00000140: 5f82 a0be 0507 063f 9987 04bf 3fe3 1a3d
00000150: 8337 4d3e 4752 893e ce0c 153f f1c2 29bd
00000160: 3c30 033e 9fbd 9bbe 4b8d 5c3e fa21 bfbd
00000170: 2103 24be aa60 9abe c2e6 d43d 19dc a73e
00000180: 4cca c1be 7de3 f8be 3b75 0e3e ba2a fabe
0.17367812 0.48812008 -0.47347996 -0.4405197 0.14788073 0.34874728 0.25682965 0.39811325
-0.46540517 0.16995975 -0.045815982 0.062902376 -0.25074008 0.5251496 -0.11551501 -0.30046913
0.32877147 -0.008869759 -0.43340132 -0.077269115 -0.37395006 -0.043811023 0.07307218 -0.3074316
0.14434579 -0.50389427 -0.6409054 -0.13096401 0.51197475 -0.50612783 0.19246934 -0.19746967
-0.023228664 0.24490923 -0.22467734 -0.28115276 0.15084754 -0.022350216 0.04184609 0.5267141
0.42700854 -0.31345287 -0.3558537 -0.30772626 -0.54936546 -0.11426317 -0.21026863 0.04508951
0.012313313 0.040634762 0.12627833 0.532235 -0.118023984 0.59115475 0.48307142 0.3024764
0.010593694 0.043876953 -0.48134634 0.1559305 -0.28544515 -0.49598536 -0.50464207 -0.28247035
0.027596775 -0.14495842 -0.042597514 0.1518365 0.201981 0.12550008 -0.14511922 0.10616345
-0.088675775 -0.2913324 -0.249874 -0.039875034 -0.7550417 0.2047042 -0.48366618 -0.4631398
-0.31349465 0.5235446 -0.51769406 0.037814375 0.20040707 0.26820585 0.58222663 -0.041445676
0.12811369 -0.30418107 0.21538274 -0.093326524 -0.16016819 -0.30151874 0.10395576 0.3278511
-0.37849653 -0.4861106 0.13911907 -0.48860723

phi_to.mlp.mlp.2.bias f4 [10]
00000000: a8a4 9dbd 516f e3bc 4a2d 16be a039 ba3d
00000010: 1fe6 213e 92ca 4a3d 7ffe b2bd a4a0 4bbd
00000020: ab2f ad3d c197 12be
-0.07697421 -0.02776304 -0.14665714 0.09093022 0.1581044 0.049509592 -0.087399475 -0.049713746
0.084563576 -0.14315702

phi_from.mlp.mlp.0.weight f4 [10, 23]
00000000: e9d3 8fbe ffb9 2ebe 995c ee3e 076f 49bf
00000010: 2ad8 923e 5524 b5be aac5 b8bd e194 d0bd
00000020: d04a fabe b696 dfbe 7996 313d d192 b73e
00000030: bf70 a3bc ab5f 843c b3ab 80bd a777 bdbe
00000040: 4221 a4be 9736 9fbe 6ec5 a33d acd1 d0be
00000050: 9d84 ffbb d94d 8fbb 6be7 38bc 9592 083e
00000060: b8ae c2be fcf5 5fbe a84c 8d3c bd00 b5be
00000070: c054 1c3d 6c78 e8bd 4fc3 333e a2d4 8e3c
00000080: 128b 3fbe ee66 2e3e fe08 853e 8e66 943e
00000090: b7c1 b43e 21f1 11bc d667 a03e e560 ff3e
000000a0: e56d 113e 1567 a13e a5e9 d43e 2b59 133c
000000b0: 2ddd e6ba 23e9 79bd fdf5 a93d 3fbd adbe
000000c0: c3f4 983e 437d 89bf 7730 d7bb 145a 003f
000000d0: da1c 3f3f bb29 4f3e 17a3 69be 7032 ba3d
000000e0: 67f2 9cbe 1cc9 cabd dd65 f63e a352 8fbf
000000f0: fac6 043e a78d 423f 50d0 833e be0c 6dbe
00000100: 2fda a4be 18a5 753e 36ff 623d 9b84 0f3c
00000110: 6524 09bd 84d3 a53e c89b 8ebe b94e acbd
00000120: 0f47 233e 63bd 27be 5446 253f aea8 0d3e
00000130: 032c a03e 0eb8 39be 3835 e6be 288e 043e
00000140: 56d1 513e 7800 8b3d f6ad a13e 75f3 a53e
00000150: e441 f0be 382f d43e 201e c2be c2ac 873e
00000160: 5078 fc3e ced6 823b 9489 10ba ac22 aabe
00000170: 6233 833e be1c 953e 3d49 f73b d311 9dbe
00000180: a36e 25be 56d1 44bc 5c79 103f 382c a53e
00000190: a518 c9bd e45d 98bd 623d 293e b5b6 92bd
000001a0: a838 abbe d352 3a3e 53d8 de3d 17a2 653e
000001b0: 86de e2be 2b6d 07bf 7c95 c23e d933 853e
000001c0: 66cb 663a 38cf 323c 4375 7d3d af79 b9be
000001d0: db43 833e dae6 923e 419a 353d 40c6 12be
000001e0: c467 aabe 77f0 d2bd 31ec 4c3e 77ea 233d
000001f0: b9bf 013f e737 a4be 0a4e 533d 741d 013f
00000200: 47dd 04be 9247 51bf ca03 edbf 8b1c d23c
00000210: 1553 003c 7c5a dfbd 8344 4c3e dd26 e3bb
00000220: 353f 68bb 9f0c a3bd b1ff c4be 9295 3d3e
00000230: 951b 50be 6fc3 18bf 4dff 783d 90c4 5f3e
00000240: 8604 38be f5f1 0b3f 6572 f3be 6480 38be
00000250: 942c d03d d2ab 99bd d464 6f3f d859 11bf
00000260: 8092 a0bd 0b18 5b3e 0ffb 7bbe 84bb a23e
00000270: 5def dbbe 0cc1 b43e b668 033d 7d8a 10bc
00000280: 7746 23be 6506 ec3d a472 74be 52b5 50be
00000290: c16a 14be e0fe 0abf 68de 6abe d0ef ad3d
000002a0: 3c6f 52be 989c e43e 361e e23c 8d05 7c3d
000002b0: 1aad f13e 8f4f d43e 9946 2a3c b458 053f
000002c0: acfc cd3e fa7a 023f 19b1 d6bd 224a df3d
000002d0: d69a 4dbe 1441 abb9 bcfb 0e3a eb43 4e3e
000002e0: 4fdd 793e a26b 74be 1fc3 8dbe 8143 603e
000002f0: 30c8 7ebe fcd9 843e cf73 90be 6280 75be
00000300: 77c9 20bf fe79 283c cfe7 973e f4fa bf3e
00000310: 08b6 f0bc e7d9 c9be eba2 173e f6d9 f9be
00000320: 975d 723d 29e9 cebc d90b e03e 662b a73e
00000330: 6c87 b2ba f953 0f3a 6751 13be c609 e8be
00000340: 633f 933c c954 9ebd 3279 ac3e 6393 7ebd
00000350: ccb9 033e 157d 28bf 1e18 71bc dbc7 2ebf
00000360: ee2e 653e 9743 a2be e9fd 783e fbf6 0b3c
00000370: d819 8d3d 30f2 b8be 37d9 bfbe 7a59 a6be
00000380: 9d02 963d 1770 923d d263 f83e 32cf 3d3d
00000390: 8993 123d 119e 6f3d
-0.28091362 -0.1706314 0.4655502 -0.7868504 0.28680545 -0.35379282 -0.090220764 -0.101846464
-0.48885202 -0.4366967 0.043356393 0.358542 -0.019951222 0.0161589 -0.06282749 -0.3700535
-0.32056624 -0.31096336 0.07996641 -0.40784967 -0.007797791 -0.004373294 -0.011285643 0.13337167
-0.38023925 -0.2187118 0.017248467 -0.35352126 0.03816676 -0.11351094 0.17554973 0.017435376
-0.18705395 0.17031452 0.25983423 0.28984493 0.35304043 -0.008907587 0.3132922 0.49878612
0.14202078 0.31523958 0.41584507 0.008993427 -0.0017613523 -0.061013352 0.08298872 -0.33933446
0.29874238 -1.0741352 -0.0065670568 0.5013745 0.746534 0.20230763 -0.2281612 0.090916514
-0.30653688 -0.0990164 0.4812459 -1.1197094 0.12966529 0.75997394 0.25744867 -0.23149392
-0.3219771 0.2398876 0.05541917 0.008759643 -0.033481974 0.32387936 -0.27853227 -0.08413453
0.15945075 -0.16380839 0.6456044 0.13833877 0.31283578 -0.18136618 -0.44962478 0.12944853
0.20490012 0.06787199 0.31578034 0.32412305 -0.4692527 0.41442275 -0.3791361 0.2649899
0.4931054 0.003992892 -0.0005513665 -0.33229578 0.2562514 0.2912349 0.0075465725 -0.3067766
-0.16155486 -0.0120128 0.5643518 0.322603 -0.09819154 -0.07439783 0.16527322 -0.07163755
-0.33441663 0.18195657 0.10881104 0.22425114 -0.44310397 -0.5290095 0.38004673 0.2601612
0.00088041124 0.010913663 0.061879408 -0.3622565 0.25637707 0.2869175 0.04433656 -0.14333439
-0.33282292 -0.10299771 0.20011975 0.040018525 0.5068317 -0.320739 0.051588096 0.50435567
-0.12975036 -0.8174983 -1.8516781 0.025648376 0.007832308 -0.109059304 0.1994801 -0.006932123
-0.0035438065 -0.07961392 -0.38476327 0.18514088 -0.20323022 -0.5967321 0.06079035 0.21852326
-0.17970476 0.5466607 -0.47548214 -0.18017727 0.101647526 -0.07503475 0.93513227 -0.56777716
-0.07840443 0.2139589 -0.2460749 0.31783688 -0.42956057 0.35303533 0.032082282 -0.008822081
-0.15944849 0.11524657 -0.23871857 -0.20381668 -0.14493848 -0.5429516 -0.22936404 0.08493006
-0.20550245 0.44650722 0.027602296 0.06152873 0.4720238 0.41466948 0.010392808 0.52088475
0.40231836 0.509689 -0.104829974 0.109028116 -0.20078596 -0.0003266415 0.00054543815 0.20143096
0.24400829 -0.23869184 -0.27687928 0.2190075 -0.24881053 0.2594756 -0.28213355 -0.23974755
-0.6280741 0.010282991 0.29669043 0.3749615 -0.029383674 -0.3942406 0.14808242 -0.48799103
0.059171285 -0.025257664 0.4375904 0.32650298 -0.0013620681 0.000546753 -0.14386521 -0.45319957
0.017974561 -0.07731015 0.33686215 -0.062152278 0.12863845 -0.6581586 -0.014715223 -0.68273705
0.22381184 -0.31692192 0.24315609 0.008542771 0.06889695 -0.36122274 -0.3747041 -0.3249014
0.07324717 0.07150286 0.48513657 0.046340175 0.03578523 0.058500353

phi_from.mlp.mlp.0.bias f4 [10]
00000000: 0e4f bd3d a570 fa3d b57c ca3c 22a1 64bb
00000010: c366 ea3c a0ec a73d ff44 cd3c 63c5 bf3b
00000020: d771 053e 3281 bd3d
0.09243594 0.122285165 0.024717668 -0.0034886082 0.028613454 0.081994295 0.025057314 0.0058523878
0.13031708 0.09253158

phi_from.mlp.mlp.2.weight f4 [10, 10]
00000000: d834 91be 34a3 d2be 7d1e 2d3e f409 60be
00000010: abf9 d63e 9f4a 4a3e 2df2 97be bfdc 85be
00000020: 030f 9dbe 6fc2 85be 715d 1ebe d1a7 363e
00000030: 6707 a1bd 3dd1 02be 6150 eebe 5103 8d3e
00000040: d12c 9f3d 437a 0d3f 8500 043f ba14 8cbe
00000050: 96eb 01bf 5917 d33e 6629 5f3e f444 223d
00000060: be90 03bf 86f5 e8be d897 18bf ee57 0b3f
00000070: a9e3 8bbe 4d65 82be 7424 ac3e fe57 333f
00000080: 2075 0f3e 8c3a 2d3e 56ec 013f 7ba3 a5bd
00000090: 8da7 ebbe 765d c1bd 44e9 82be 8118 943d
000000a0: 0901 acbe 31c0 453f ab2a 81bc 8dd0 223f
000000b0: d060 35bd 4247 d2be f441 99be 7a07 8fbe
000000c0: f671 fc3e 08ba a5be 721a a7bd 8036 ab3d
000000d0: 0bb7 9bbe 395b 37be 760d 0f3f 5267 babe
000000e0: b60c b03e c124 bb3d 2b45 aebe be53 00be
000000f0: d8f5 d0bd 944d 5fbe b1a4 cbbd e585 cc3d
00000100: 9ae2 5cbe c3d0 1f3b d46d d23e ba1e f83d
00000110: 4970 493e f39b b03e c518 1bbf 3675 89be
00000120: 387c 533e 28d1 1f3f 4fb7 68be 4c3c d03c
00000130: e217 8dbe 1dc9 c5be 8907 04bf 8623 21bd
00000140: cbaf 7dbd 2fea dbbe 3fe3 513f 74ac 9cbe
00000150: a114 573e 4270 f83e 2998 c53c e059 82be
00000160: 560e cdbe 6194 c13e 0582 863c d7df 8dbe
00000170: d123 9f3e 531b 083d b945 213f 3bdb 833c
00000180: 18ba b3be d15f 3f3e b5d2 d73e 5fbc 993d
-0.2836063 -0.4114014 0.16906162 -0.21878797 0.41987357 0.19755028 -0.29676953 -0.26144978
-0.30675516 -0.26124904 -0.15465333 0.17837454 -0.0786274 -0.1277513 -0.465457 0.27541593
0.0777222 0.5526468 0.5156329 -0.27359563 -0.507501 0.4122875 0.21793136 0.03961654
-0.51392734 -0.4549982 -0.59606695 0.54431045 -0.27322128 -0.2546791 0.33621562 0.7005614
0.14009523 0.16916865 0.50751245 -0.08087822 -0.4602627 -0.094416544 -0.25568593 0.07231236
-0.3359454 0.77246386 -0.015767416 0.63599473 -0.04428178 -0.4106999 -0.2993313 -0.27935392
0.49305695 -0.32368493 -0.08159341 0.083600044 -0.30413088 -0.17905892 0.55879915 -0.36406952
0.34384698 0.091378696 -0.34037146 -0.12531945 -0.10203141 -0.21806937 -0.09943522 0.09986476
-0.21570817 0.0024385906 0.41099417 0.121152356 0.1967174 0.3449398 -0.6058467 -0.26847237
0.20652854 0.6242852 -0.22726177 0.025419377 -0.27557284 -0.3863 -0.51574 -0.03934052
-0.061935227 -0.42952105 0.81987375 -0.3060032 0.21003963 0.48523146 0.024120407 -0.25459194
-0.4005 0.37808517 0.01641942 -0.2770984 0.31082013 0.033229183 0.62997013 0.016095748
-0.35102916 0.18688895 0.42152944 0.07506632

phi_from.mlp.mlp.2.bias f4 [10]
00000000: b1df 033e a443 6fba 133e 8e3c b452 983d
00000010: 3c3a 37bd f261 a3bd fb8a 7b3b 4f8b 83bd
00000020: a8e0 013d a63e 1ebe
0.128783 -0.00091272057 0.017363584 0.07437649 -0.04473327 -0.07977666 0.00383824 -0.064230554
0.03170839 -0.15453586

z_k.mlp.0.weight f4 [10, 33]
00000000: c155 f03e 8d96 a1be 7852 c73d 4fbf 38be
00000010: 6c5a 803d 76fd 2d3f 599b 5dbe a55e 03bf
00000020: 2ae1 15be 907f 2f3e 53d9 473e 5670 13be
00000030: d6d6 393e 7809 2a3c 7686 ccbd 18e9 0bbf
00000040: cf7d 273f 63a4 d0bd 65d7 10be 2d27 dd3e
00000050: c4db a93e 3572 3dbe cbe9 8a3c 1b89 f1bd
00000060: 2552 0d3f 1788 d7bd 86ec 59be f47e 973e
00000070: 2fb5 173f 9bc1 c43d c28d f6bd 9463 b9bd
00000080: c0bb 413e 1716 b73d 1a2e f8be 559c cb3e
00000090: e6a5 8fbf ef7e 563e d8a7 30bf 3896 0e3f
000000a0: 1a35 733f 70bc 23bf 38b2 72bf 7416 89be
000000b0: 3547 803e 09b9 593e 4f5c a4bc 18d0 57be
000000c0: 6da1 1f3e c649 973e b3ca 89bd 7f7e ab3e
000000d0: 64cc 783e fc8e cbbe 7a07 2b3e f65b a23e
000000e0: e833 123e 06c7 363e b575 323e 1cc8 d1be
000000f0: c334 353e 4f71 02be 8b50 ba3e 843e 43bb
00000100: 8e19 c8bc bc88 dbbe 8a25 563d 03f6 63bf
00000110: af8f 8d3e 8f80 15be cd23 da3d c6e9 bebe
00000120: c57e 533e 2a89 2e3e 25ab e0be 86be 5fbe
00000130: 5957 c2be cf42 b7be 0b20 723e 695e d0be
00000140: fc5d 0e3f 34b4 cfbe 5132 903e aa15 003f
00000150: 602e c6be 1e6c 373e 3d87 86be 27f7 28be
00000160: d977 c0be 27da c13d 7851 f63d 2fb2 57be
00000170: 100a 2abd c66c 9abe e9af 91bd 8ee9 a73e
00000180: e43d 26bc ed58 12be 556c 573c 81da 493f
00000190: cb87 46bf f51a 4d3e faa8 84bf 370f 873e
000001a0: 3b44 373f 914f 0d3f 2a10 6bbe 65af 5bbd
000001b0: 7ded 2d3e 3bbe 3e3e 51ad 56be ef44 893e
000001c0: 78eb b4be 7f22 40be ab92 5bbe 596e 58bd
000001d0: de0f 233f abe3 96be 7c67 663e b15d b1be
000001e0: 6843 32be 857e abbe 2cd3 81be 818d d1ba
000001f0: 2efd 363e e034 8fbe 1a5b 30be e5c1 d3bc
00000200: b59e 7d3e 9798 3ebd b8be 203e c93f f6be
00000210: e127 093f ba0d 2fbf 1e5d 89bd df3f adbe
00000220: e596 d13d 33bc c9bf 0a81 fbbc 2883 59be
00000230: e77a debe 1231 3e3e 621a cf3d 2abc 163c
00000240: 6ef4 283f 661e 8cbe 2baf aebe 533b eebe
00000250: eb4e a5bd c7b5 28bd 8dd7 41bf b44e 183e
00000260: a7a0 adbe 913c a7be c4ab 6a3d 2fdb 92bd
00000270: cebf 483f 65f5 d73d 3390 6e3e d3cc a23e
00000280: e0f2 d6be 4ae7 a13e 4b5d 283b 7969 8fbe
00000290: c4a7 f0be c1bd 613e bd05 64be a5dd f2be
000002a0: f46c 83bd c3aa b93e dcd1 473f bc67 58bf
000002b0: 5170 ecbe ae89 413e afed 823e 7b0a 63be
000002c0: 734b 9abe 7274 c23d 574d 9cbe f6e9 4f3e
000002d0: 257d 32be 0fac 053f 83d8 b93d 241f 74be
000002e0: 11ed d73e 96d3 93be bf62 b63d c768 543f
000002f0: bd69 9cbe 1b7f 8fbd a921 fbbd f7ca 053c
00000300: da92 973e 9827 f93d 9472 5fbe 5d5d 9ebc
00000310: c30d 2abe e6e9 62bd 559a 6f3f d4dc 7dbe
00000320: 701a fb3e f6d2 0ebf 906c ba3f 641d a6bf
00000330: 6223 a73e cf46 4d3e 972f 713c 0df0 d7be
00000340: 6d91 4abe 6844 15bd 3154 a23e 37a7 ae3e
00000350: 8753 76be 3c0d 8bbe 4742 af3d 39d6 86be
00000360: 4fd8 c83d 4d96 b6be 9046 93be 2898 6e3e
00000370: 2193 5bbd 55d2 8b3e 50f1 773e d489 263f
00000380: 50dd d6be 4dc0 f53e 46cb 30bf d2a1 c13b
00000390: 1eee a93c 29c2 d7be 965c 6dbe d266 0f3e
000003a0: cc36 e3be 796e a73e e722 18bf 8ef8 e5be
000003b0: 8da5 ecbe 335e 363e 36cb 153f 1cf1 c0be
000003c0: fe7c f9bd e6c7 85be fd92 6fbe daa4 8b3d
000003d0: 507f 523e 2f88 63bc 7994 8d3e d8c8 2d3d
000003e0: b7a2 90be a296 dcbe 20bd ac3d 0175 92bc
000003f0: 4571 0bbf adfe 1c3e 2062 ae3d 0a74 703f
0.46940425 -0.31560174 0.097325265 -0.18041728 0.062672466 0.67964876 -0.21641292 -0.5131629
-0.14636675 0.17138505 0.19516496 -0.14398322 0.1814836 0.010378234 -0.09986584 -0.5465255
0.65426344 -0.10187604 -0.14144666 0.4319395 0.3317548 -0.18500598 0.016957184 -0.11793729
0.5520347 -0.10524004 -0.21281633 0.29589045 0.5926084 0.0960724 -0.12038757 -0.09052196
0.18919277 0.0893976 -0.48472673 0.3976771 -1.1222503 0.20946859 -0.6900611 0.55697966
0.950029 -0.6395941 -0.9480319 -0.26774943 0.25054327 0.21261992 -0.020063547 -0.21075475
0.15588923 0.29548472 -0.06728115 0.33494946 0.24296719 -0.39757526 0.16702071 0.31710786
0.14277613 0.17849359 0.17427714 -0.40972984 0.17695908 -0.12738536 0.36389574 -0.00297919
-0.024426248 -0.42877758 0.052281894 -0.8904726 0.27648684 -0.14599822 0.1065136 -0.3728773
0.20653827 0.17044511 -0.43880573 -0.21850023 -0.37957266 -0.35793158 0.23645036 -0.4069703
0.5561216 -0.40567172 0.28163388 0.50033057 -0.38707256 0.17912337 -0.26275054 -0.16500531
-0.37591437 0.094654374 0.12027258 -0.21064065 -0.041513503 -0.30161113 -0.0711363 0.32795376
-0.010146592 -0.14291735 0.013148387 0.78849036 -0.77550954 0.20029815 -1.0364068 0.26378796
0.71588486 0.55199534 -0.22955385 -0.053634066 0.16985126 0.18627255 -0.20964552 0.26810405
-0.35335898 -0.18763159 -0.21442668 -0.05283961 0.63696086 -0.29470572 0.22500414 -0.34641793
-0.17408526 -0.33494964 -0.25356424 -0.0015987606 0.17870018 -0.27970028 -0.17222252 -0.025849292
0.24767573 -0.04653224 0.15697753 -0.4809554 0.53576475 -0.6838032 -0.06707214 -0.33837792
0.10233859 -1.5760559 -0.030701179 -0.21241438 -0.43453142 0.18573406 0.10112454 0.009200135
0.6599797 -0.27366942 -0.34118018 -0.46529636 -0.08071693 -0.04118898 -0.7571953 0.14873773
-0.3391163 -0.32663396 0.057292715 -0.07170712 0.7841767 0.10544852 0.23297195 0.31796893
-0.41982174 0.31621772 0.0025690373 -0.28010157 -0.47002995 0.22045042 -0.22267814 -0.47434726
-0.064172655 0.36263093 0.78054595 -0.84533286 -0.4617944 0.18900177 0.25571963 -0.22171967
-0.30135688 0.094948664 -0.30527756 0.20304093 -0.17430551 0.52215666 0.090744995 -0.23840004
0.42173055 -0.28872365 0.08905553 0.8297238 -0.30549422 -0.07006665 -0.122622795 0.008166066
0.29604226 0.12165755 -0.21821052 -0.019331628 -0.16606812 -0.055398844 0.93594867 -0.2479127
0.49043608 -0.5579065 1.4564381 -1.2977719 0.32644182 0.20046543 0.014720819 -0.42175332
-0.19782038 -0.03644219 0.31704858 0.3411195 -0.240553 -0.27158535 0.08557563 -0.26335314
0.098068826 -0.35661545 -0.28764772 0.2330023 -0.05360711 0.27308908 0.24213147 0.6505406
-0.41965723 0.47998276 -0.6906017 0.005909183 0.020743426 -0.4214032 -0.2317985 0.14004067
-0.44377744 0.3270147 -0.59428257 -0.44916195 -0.46220055 0.17809372 0.585132 -0.37683952
-0.121820435 -0.26129073 -0.23395915 0.06818552 0.20556378 -0.013887449 0.27652338 0.042427868
-0.28249142 -0.43083674 0.0843451 -0.017878057 -0.5446971 0.15331526 0.085148096 0.9392706

z_k.mlp.0.bias f4 [10]
00000000: 986b edbe d380 b6be 57c2 6bbe bbe5 fcbe
00000010: b840 97be b2c1 a9bd 0609 18bf a41e 4cbe
00000020: 9dfc 0dbe 3357 efbe
-0.4637115 -0.3564516 -0.23023354 -0.4939402 -0.29541564 -0.082888976 -0.5938877 -0.19933563
-0.13865896 -0.46746215

r_k.mlp.0.weight f4 [10, 33]
00000000: 57e9 40bd 20a9 9ebe 3879 44be 4633 9f3f
00000010: c490 a1be 785a 8d3e fac4 e0be 01fc e8be
00000020: b65a 643e 2a3e a8bd e7fc b0be 170a e5be
00000030: 4d39 a9bd ba01 003f adcc cbbe 062e 1f3e
00000040: 567d 5cbe e6e4 4b3d 8d4f 683d 8cf8 c2be
00000050: 4e8b aa3e d015 0ebf d62e 073e 0542 d93b
00000060: 468b 09bc 04b6 2240 d45b f2be 48ae c1bd
00000070: 9a37 5fbe 3442 253f e3a5 4dbf 541b afbe
00000080: 6a4b 9c3e 7860 bebe 7381 1b3d 2141 393f
00000090: 3f20 323f e688 003f 16c2 233f 3804 ac3e
000000a0: 5803 333f 27ed 813e 18f6 433e b73e abbe
000000b0: 784f 4fbe 1ca7 c13e 22db 17bf 5149 f4be
000000c0: c501 c03e 8501 373d be3e 84be 7b0b f9bb
000000d0: e5fe 953e 7d74 283f aac8 a1bd 4fa3 f7be
000000e0: 0b62 5bbe 9031 2f3e 90d4 173f 709a b73e
000000f0: 3d87 82bc 6789 093f 0e01 1c3e 902f 993d
00000100: af17 363e 5315 82be 6d93 5dbe a901 0f3f
00000110: 7d9a 143f c14d 90bf 4af2 123f e852 e1be
00000120: 4cd0 6a3f 6bc2 d53f ba3b 37be c949 44be
00000130: 5cd7 de3e e212 9b3d 3b2a c53d fc52 1cbf
00000140: 0c15 e4be 4b8c 423e d817 983e 1f16 71bc
00000150: 8e10 1a3f 7cc6 b23e da42 83bf 17ff 993d
00000160: b0a5 293e deac a03d 8021 433e 1239 fbbe
00000170: 1ca1 cbbe aca2 0e3e 9b8c 16be d66a d7be
00000180: 264c 3c3e 5e4c e93d 09c4 aa3e 3dec b7bd
00000190: 58ab 99bd 2a6d e8be 29a7 c53e 9b8a 92bf
000001a0: ccf6 613f 63e0 d2be 963b 073e c5c3 b13e
000001b0: e225 3b3f f35c 2cbf 8cd5 06be 5a38 533c
000001c0: a8ab 5fbd 543c 463f 6f3d 89be 3aee cd3d
000001d0: 10b2 573d f65d ac3e 4626 2c3e 24a2 b63d
000001e0: fc93 7c3e 9cac 403f f415 673e b2a3 333f
000001f0: 5aeb 943e d473 8d3a 5b7f ab3e b1a6 80be
00000200: f217 bc3e 6d25 d9bd e633 863e d7c7 dc3d
00000210: 3dbe d6bd ca6f 0b3f 2043 b2be 4744 2d3e
00000220: 75f1 363d 231d 0d3e fa8d ba3e 0ada df3e
00000230: dc05 b9be 9326 d63e 94e9 443f effd 483f
00000240: 318c e5be 88e6 95be 655f 37bf fa3a 2a3e
00000250: 7c17 803e 0714 5ebd 1652 703f 672d a2be
00000260: 7f39 853e d3cc bcbd 2174 cd3e 6a01 26bd
00000270: ebf3 f8be 9f03 8dbe ec9c 003e ab4e 8ebd
00000280: ea6d 22be 4477 ddbe da75 df3c 3983 3abe
00000290: 7cbb 803e 4091 75bd 41af 283f a7ef 75bd
000002a0: 0355 5fbe 5d4b a13d 5e6b a3be 3f99 293e
000002b0: 0f65 a73e 81fc 643e 2258 b4be 6ee4 c93e
000002c0: 58cc ab3e c42a 1cbe 5ed9 62be 70d8 25bf
000002d0: 8086 ac3e e386 cdbe 1033 1abe 183f 6e3f
000002e0: ea6f eebd c176 323f 96dc 693e 497b 773f
000002f0: 9728 a83e b594 6f3e f40e ebbd 27c5 3ebe
00000300: b20c ed3d 4571 5abe 9aa7 f1bd 4d40 87bf
00000310: b12d 1dbe e954 d43d 97a2 afbd cb15 1d3f
00000320: 50c3 013c cd3d cc3d 2990 a33d d09d 3dbe
00000330: d042 9cbe de57 dc3d f5d8 443e c4ce 073e
00000340: 54b2 083f 89bb 1a3f 15d3 d3be 0f08 503e
00000350: 4245 f8bd 5c4e 8e3c 53ac a13e 7acb 9a3c
00000360: e7ba 973d 5b38 e13d 21b7 e6be 2718 34bd
00000370: 3179 f3bd 8ce7 3ebe 922f b73c 2f95 95be
00000380: 1f9e 073f b795 3dbe 032f e63d 0f0b f23d
00000390: e47b 903d 669e a63e 159b d8bd e126 9b3d
000003a0: 8692 48be 4ff7 f7be e79f 2f3f 4b84 e63d
000003b0: 2417 18bd f928 a6bd b58e 20bf f11f 273e
000003c0: d58a 483e d127 ce3d 0174 10bf 1a28 c03e
000003d0: 3131 50bd 1e4f 06bd 4f66 c83d e500 1bbd
000003e0: c7d7 1bbe f93c abbe 7cff 76be 746c bbbd
000003f0: b552 84be 39b4 2cbe 8f63 ce3d ba44 f3be
-0.04709753 -0.30988407 -0.19186866 1.2437522 -0.3155576 0.27608085 -0.4390028 -0.45504764
0.22300228 -0.08214982 -0.3456795 -0.4473426 -0.082628824 0.50002635 -0.39804593 0.155449
-0.21532187 0.04977884 0.05671649 -0.3808025 0.33309406 -0.55502033 0.1320146 0.0066301846
-0.008395022 2.5423594 -0.47335684 -0.0945707 -0.21798554 0.6455414 -0.8033125 -0.34200537
0.30526286 -0.37182975 0.03796525 0.72365004 0.69580454 0.5020889 0.63968027 0.3359697
0.6992698 0.25376245 0.19136846 -0.33446285 -0.20245159 0.37822807 -0.59318745 -0.47712186
0.3750135 0.044679184 -0.25829118 -0.0076002455 0.29296032 0.65802747 -0.07899602 -0.48366782
-0.21424119 0.1710875 0.5930872 0.35860014 -0.015933627 0.53725284 0.15234777 0.07479775
0.17782472 -0.25406894 -0.2163827 0.5586191 0.5804823 -1.1273729 0.57400954 -0.44008565
0.91724086 1.6699957 -0.17893878 -0.19168772 0.4352368 0.07571961 0.096271954 -0.61064124
-0.44547307 0.1899883 0.2970569 -0.014714747 0.6018151 0.34917057 -1.0254776 0.07519358
0.16567111 0.07845472 0.19055748 -0.4906698 -0.39771354 0.13929242 -0.14702074 -0.42073697
0.18388423 0.11391519 0.33352688 -0.08980606 -0.07503384 -0.45395786 0.38604096 -1.1448549
0.8826721 -0.41186818 0.13206324 0.34719673 0.7310468 -0.6732933 -0.13167399 0.012891853
-0.054607064 0.77435803 -0.26804683 0.10055204 0.052660048 0.33665437 0.16811475 0.089176446
0.24665827 0.7526338 0.22566968 0.70171654 0.2908581 0.0010791966 0.33495602 -0.25127175
0.3673702 -0.106028415 0.2621147 0.10780304 -0.10485504 0.5446745 -0.34816837 0.16920577
0.044663865 0.13780646 0.36436445 0.43721038 -0.36137283 0.41826305 0.7691891 0.7851247
-0.4483352 -0.29277444 -0.71629936 0.1662406 0.25017917 -0.05421832 0.93875253 -0.31675264
0.2602043 -0.092187546 0.40127662 -0.040528692 -0.48623595 -0.27541825 0.12559861 -0.069485985
-0.15862241 -0.43255055 0.027277876 -0.1821412 0.2514304 -0.059952974 0.65892416 -0.060043003
-0.21809773 0.078757025 -0.31917852 0.16562365 0.3269429 0.22361948 -0.3522349 0.3943209
0.3355434 -0.15250689 -0.22153232 -0.6478338 0.33696365 -0.40141973 -0.15058541 0.93065023
-0.1164244 0.69712454 0.22838053 0.96672493 0.32843468 0.23396571 -0.114774615 -0.18629895
0.11574687 -0.21332271 -0.117995456 -1.0566498 -0.15349461 0.10367758 -0.085759334 0.6136138
0.007920101 0.09972725 0.07986481 -0.18517232 -0.30519724 0.10758947 0.19223388 0.13262469
0.5339711 0.60442406 -0.4137198 0.20315574 -0.12122585 0.017371349 0.31576785 0.018895853
0.07408696 0.10997077 -0.4506159 -0.043968346 -0.1188835 -0.18643016 0.02236155 -0.2921538
0.5297565 -0.18514143 0.112394355 0.118185155 0.0705488 0.32542723 -0.105764546 0.07575775
-0.19587144 -0.4843087 0.68603367 0.11255702 -0.037131444 -0.08113284 -0.62717754 0.16320778
0.1958421 0.10066188 -0.5642701 0.37530595 -0.050828163 -0.032790296 0.09785139 -0.03784265
-0.15219031 -0.33444956 -0.24120897 -0.09151545 -0.2584435 -0.16865624 0.10077583 -0.47513372

r_k.mlp.0.bias f4 [10]
00000000: 83bf 03bf ecda 0b3d 02d5 e13c b3fb ee3d
00000010: 61f0 13bd 5eb8 a33e 527a 58bd 5aaf 8abd
00000020: 8e43 8fbe b2b5 053e
-0.514641 0.034144327 0.02756739 0.116691016 -0.036117915 0.31976599 -0.05285103 -0.06771727
-0.27981228 0.13057593

correction.mlp.0.weight f4 [10, 33]
00000000: c2a3 62be 7ca1 34be 164a 7d3d b83b 61be
00000010: 1905 44be ac35 d13d 0e77 dcbd be45 833e
00000020: 8a6d 58be 1299 acbe 5b68 46be 74ed 85be
00000030: abe9 5ebe 282c a43e 374f 89be f5aa 64be
00000040: 6ec6 73be 502e 993e 3a22 4d3e f65c 843e
00000050: a72f 01bd 6863 d33c ed6e 863e c04a 853e
00000060: bc52 4dbd 83bf 9abe 2029 99bd dc8c 3dbd
00000070: 7609 9abe 53e0 7ebe bae2 be3d 9a38 e13d
00000080: 6f89 153e c5e2 03bf c582 0abd bf03 a6bf
00000090: 85bf 2d3f 95ed 973c 7098 043f db4f 7d3f
000000a0: 2c37 60bd 8f17 17bd b886 20bd 0253 813d
000000b0: b959 683c 0804 9dbd 88a0 babe ca9d 87be
000000c0: 0582 9ebe efcd 2bbd 0a76 21be a633 123e
000000d0: df0e 8e3e ed2e ddbe f763 5f3e 161c d83e
000000e0: 29b2 f43d 3657 023f 4b13 e73d 93ba b9be
000000f0: d2af abbe 72fc 27be b9c1 603d 16be fe3c
00000100: 0be6 8a3e 4238 6bbe 93f2 553e 589d 183e
00000110: 3ba6 95bd c444 713e 4c73 8bbe 960f 2dbf
00000120: a264 d6be 5e59 a33e dbec 8fbe 1d3e 97be
00000130: bca8 7e3c 34ae 803d af84 80be 2d68 b23d
00000140: 67d4 193e f53c 66be 74d5 be3e 2fa0 7f3e
00000150: 9b09 923d 499c 00be 0130 0bbe 666b 88be
00000160: c835 983e b5f1 113e 8578 76be 1223 bfbd
00000170: b51d 043c 5c2d 95be bac2 debc 3e07 68bd
00000180: b4f2 b43c 8cca 8ebd 2997 0dbe 4df4 193f
00000190: c50d 953d 5b17 483f 76f2 4cbf 8694 043f
000001a0: 88d5 503f 49a6 163f 81a5 91be 8328 2abc
000001b0: d342 c23e d475 60be 0cce 3f3e 1986 b73d
000001c0: 0d32 afbe c640 c73e b2e9 613e 8652 81bd
000001d0: da15 f0bd 0332 22be 4c73 a2be 40ff df3d
000001e0: 12df 26be 4086 29be 8aef 813d d9f2 07be
000001f0: b18a 10be 8861 263e 338c 903e 1e39 e53d
00000200: a3d1 693e f023 fe3c 8bdb 153d 0e22 863e
00000210: 8d51 ebbe 12e2 6f3f 126a 3bbf 1792 843e
00000220: 9407 e3be 77f3 033e 7f6c 013d b339 623e
00000230: e63d 47be 0f7d 083e 8b99 b1bb f2b1 833e
00000240: 0e11 efbb 0e47 833d d280 823d 6848 aabd
00000250: 8a01 ccbd 8b7f 96bc 5fc1 0b3d 14ff 313e
00000260: b05a 6d3e a732 cc3e 6699 d83e e326 39bd
00000270: b872 d53c 2808 873d ca45 7a3e 07f8 3e3e
00000280: 4c3f 88be 465e 2b3e 8fe3 48bc daae 8abe
00000290: cb1e b4be e651 c1bd fbca 423e 5290 5dbc
000002a0: 932e 01bf b52a 8dbe f0a3 17bf 738d 653e
000002b0: 30d7 dcbd 91ff 1c3f 5e66 003e 2adc 43be
000002c0: d92e 0cbe c513 82be 6774 2fbe 0dd4 9dbe
000002d0: a716 70be 3aa5 563e c564 ca3d 769f f13e
000002e0: 8970 8abd 2511 923d 0866 8abe 93cb 28bf
000002f0: 4bc5 e83d 4f1f 2abe bac2 a63e 6480 d6bc
00000300: c1fa 3a3e e517 443f 81a1 bb3d ad73 d73b
00000310: 3301 85be 643b 2f3d 49ec 14be 33a9 e3be
00000320: 63b9 abbf 20cc 003f e0a9 a2be 82f7 99be
00000330: bc96 9ebe ec32 20be d544 593d 2839 cabe
00000340: 482c 89bd 3e27 aa3c 3f8f 553e 35db 383d
00000350: a749 f0bd 0314 c13e a502 853d 1894 03be
00000360: 5951 1bbd 717a 373e 2f4a 10bf 12fc c13e
00000370: 2294 da3e 4368 acbe 3d6b 9ebe 3b5c e2be
00000380: 4420 9b3d 62d3 0ebe 4e9c 5abe 658a 8bbe
00000390: 06d7 bd3c d5ff b9be 200d 893d 0963 74bd
000003a0: 0d72 1a3c bc23 f13c 4af3 86be 86ba 67bc
000003b0: dbb5 45bf 74bd 863e c4df b9be 5a47 113e
000003c0: 68b1 25bf c15b 463e 851d 623e 0297 153e
000003d0: 3238 9bbe 2ff4 dd3e 8f0b 933e ed36 03be
000003e0: 6562 ca3d 4eec 0d3e f3ff 00bc 28f8 ebbd
000003f0: 7f87 ca3d 9f84 0a3f 71ee 3cbe 4d9b 2ebe
-0.22132781 -0.17639726 0.061838232 -0.21995437 -0.1914257 0.10215315 -0.107648954 0.25639147
-0.21135536 -0.33710533 -0.19375746 -0.26157725 -0.21768825 0.3206494 -0.2681825 -0.2233084
-0.23806164 0.29918146 0.20032588 0.25852174 -0.031539585 0.025804237 0.26256505 0.26033592
-0.05012773 -0.30224237 -0.07478547 -0.046276912 -0.30085343 -0.2489026 0.093205884 0.10997124
0.14603208 -0.515179 -0.033816118 -1.2969893 0.6787036 0.018545905 0.517951 0.98949975
-0.054740116 -0.0368877 -0.039190978 0.063146606 0.014181548 -0.076667845 -0.364506 -0.2648757
-0.30958572 -0.04194444 -0.15767685 0.14277515 0.2774572 -0.43199864 0.21815477 0.42208928
0.11948044 0.50914323 0.11282977 -0.36275157 -0.33532578 -0.16404894 0.05487225 0.0310965
0.27128634 -0.2297068 0.20893316 0.14903772 -0.073070966 0.23561388 -0.27236402 -0.6760191
-0.41873652 0.3190412 -0.28110394 -0.29539576 0.015543159 0.062832266 -0.2510123 0.08711276
0.15022431 -0.22484191 0.37272227 0.24963449 0.07130738 -0.12559618 -0.13592531 -0.26644439
0.29728532 0.1425236 -0.24069412 -0.09332861 0.008063723 -0.2913617 -0.027192462 -0.05664753
0.022088386 -0.069722265 -0.13827194 0.601384 0.07278017 0.7816064 -0.80057466 0.5178913
0.8157582 0.5884748 -0.28446582 -0.010385635 0.37941608 -0.21919948 0.18730944 0.08961124
-0.34217873 0.38916606 0.22061804 -0.06314568 -0.11722918 -0.1583939 -0.3172859 0.10937357
-0.16296032 -0.16555119 0.063445166 -0.13276233 -0.14115407 0.16248143 0.28231964 0.11192535
0.22833876 0.031022996 0.036586326 0.26197857 -0.45960656 0.9370433 -0.73208725 0.25892708
-0.4434172 0.12885843 0.03159761 0.22092323 -0.19457206 0.13328956 -0.005419915 0.257217
-0.0072957342 0.06410037 0.06372227 -0.08314592 -0.09961231 -0.018371364 0.03411996 0.17382461
0.23179126 0.39882395 0.42304534 -0.0452031 0.026055679 0.065933526 0.24440685 0.18649302
-0.26610792 0.16735181 -0.012261285 -0.27086526 -0.35179743 -0.09439449 0.19022743 -0.013523178
-0.5046169 -0.27571645 -0.59234524 0.2241724 -0.10783231 0.61327463 0.1253905 -0.19126955
-0.13689746 -0.25405708 -0.17134248 -0.30825844 -0.23446141 0.20961466 0.098825015 0.47191972
-0.06759746 0.07132176 -0.2703097 -0.6593563 0.11365756 -0.16613506 0.3257044 -0.026184268
0.18259718 0.7659896 0.09161664 0.006575069 -0.25977477 0.04278125 -0.1454326 -0.44465026
-1.341595 0.5031147 -0.3177023 -0.30071646 -0.30974376 -0.15644425 0.05304416 -0.39496732
-0.06697899 0.020770665 0.20855425 0.045130927 -0.11732798 0.3771058 0.06494645 -0.12849462
-0.037919376 0.17917801 -0.56363195 0.37887627 0.4269114 -0.33673295 -0.3094119 -0.4421099
0.075745136 -0.13947824 -0.21348688 -0.27254024 0.02317382 -0.36327997 0.066919565 -0.05966476
0.009426606 0.029435985 -0.2635749 -0.014143592 -0.77230614 0.26316416 -0.36303532 0.14187375
-0.64723825 0.19370939 0.22081573 0.14608386 -0.3031631 0.4335036 0.28719756 -0.12813921
0.098820485 0.13859674 -0.007873523 -0.115219414 0.09889125 0.54108614 -0.18450333 -0.1705143

correction.mlp.0.bias f4 [10]
00000000: dfa6 2cbd e2c1 c43d 7205 863c acc8 7fbc
00000010: c725 22bd 2d2f a33c 66fe 2bbd 8c34 153c
00000020: 1486 97bc 5eae bb3d
-0.04215133 0.09607293 0.016360018 -0.015611809 -0.03958681 0.019919956 -0.04199066 0.009106766
-0.01849655 0.09164117

phi_neumann.mlp.mlp.0.weight f4 [10, 23]
00000000: ea01 03be d52a de3d 569c 5c3e 3946 853e
00000010: 1ee0 0abc 7b3a 1b3e 4201 32bf 97ad 7ebe
00000020: b818 a33e 82c7 a63e 493c 8e3e da80 98bd
00000030: 9171 9d3e 83eb 27be 6258 e93e bef4 d6be
00000040: 941f 3c3f a20d 8b3e 8c80 3a3e cd3c 9fbe
00000050: f0eb a73a e097 213a 3cec a33d 4d90 5c3e
00000060: 221f 9e3e c657 9d3e 85eb 13be 0617 d93c
00000070: 2625 2fbe 8851 863c 0649 a63e 0d7a e03a
00000080: 573f 483e a3f8 063e e2ee 5cbe 6648 ba3d
00000090: 6c23 4dbe f039 3b3e dc98 94be 35ca 82be
000000a0: 0c13 5cbe 1c59 b13e cc1a 01be ff3e 213c
000000b0: 60ca 5939 6177 2a3e 2866 a03d 7d7e 7b3e
000000c0: 0cb1 8abc 8e3c 363f 2b3d 9a3e 6830 4f3e
000000d0: dfe3 80be 2624 db3e a087 34be f770 53be
000000e0: 0689 d9be 9b5a f5be 2095 f7be 709b 9dbe
000000f0: 4af8 bbbe 428c 56bc 00eb 963e c427 df3e
00000100: f105 7b3e 2705 cc3d 2288 773b 5e66 c0ba
00000110: ba6d 0b3e 9b9f 0d3e fdae f13e 055e 983e
00000120: 2133 0abd 702a ba3e 8f98 0c3e d22b 393d
00000130: 8f3a 483d 40ad 613e beb3 47be 13ab 453d
00000140: 91d9 70be 2392 063d 675f a53d 25e2 c43d
00000150: 5def 963d cf54 4bbe c872 cb3c 96b0 4dbd
00000160: 7d9d b5be 9af0 82bc ee49 213b 28cc a13d
00000170: 30e6 d4bd 5963 54be 7867 363c 7bcf e93e
00000180: 38d6 83be aa0e 0cbf 10ec e0bd 618f dfbe
00000190: c098 3bbd 990e a6bd 1729 3e3e 594f 9b3d
000001a0: 4711 55bd 7d46 a8be 1aec 4fbe 7086 5c3e
000001b0: f792 30bd 86dd ba3e 83d0 a6bb bcd2 c63d
000001c0: 1703 453a ed83 c1b9 3304 e93b 1aef e03e
000001d0: b323 81be 41ae 513e e2fc 8c3d cca8 803d
000001e0: 44e4 19be f497 9f3d 7a95 0dbd 7754 883e
000001f0: 5dcf 66be c31e 6cbe c2c7 ed3e c651 973d
00000200: 36f2 a23c ff32 c73d 242e 463e 6b6f 8b3e
00000210: 639c 233e e663 2f3e 5cf1 7abe e500 9a3b
00000220: 211b 39ba ab87 c63d 8996 063e 8432 013f
00000230: 73b3 5dbe 4214 fd3e 1e37 4b3f e9c0 04bf
00000240: 11d3 c63d b49d 10be ac5d 58bd 06e4 55be
00000250: e04f 733e 20d8 89be 371c 95be 4dd6 fcbd
00000260: 1ca2 03be 5b92 413e 627e 11be 2788 f7be
00000270: 295b 8bbd d4db f9bd bc61 aa3b dc8c 3fbb
00000280: f8be a53d 055c 863e 48f9 933e 32a5 953e
00000290: 179d 01be ea6d a33e 5f96 c7be 4769 71be
000002a0: e83f cc3d 82ee bfbe 3514 76be 09b7 793e
000002b0: 5a38 c2be 00c1 7cbe 6025 883e 779a 2b3e
000002c0: cb5f 05bf 8e3b 03bf 46fa 0dbf c942 c03e
000002d0: a44b 3ebd 547d 99ba 74f8 833a bef0 d23c
000002e0: cf47 0f3e 996a bc3d 48a4 bfbe f409 993e
000002f0: 9861 2ebd c177 0d3f c299 313e a3f5 503d
00000300: 86d5 e2bb 40ab b33e a6fe 9d3e 9885 f53e
00000310: 00c5 0ebd 142a 0e3e 8338 bf3e ff77 cf3e
00000320: 118b a83e 5217 2d3e 6940 9abe 04e5 923e
00000330: 0462 04bb 848d edba aa44 d03d 654c 72be
00000340: 6adb fb3d a039 94bc 1c61 61be 5606 73be
00000350: 648a ab3c 0236 c63e c346 40be 7741 a73c
00000360: 7463 86bc 3eb4 4d3e 4b4e b3bd 3899 193f
00000370: 4d5c b3be 00d4 c83d eee0 8b3e a3e6 c3be
00000380: 721a d2bd 8a27 44be 957b 993d a3b4 a5bb
00000390: 43d2 2fba 1f56 32bd
-0.12793699 0.10848013 0.21544012 0.26030138 -0.008476285 0.15159027 -0.6953317 -0.24870907
0.31854796 0.32574087 0.2778037 -0.074464515 0.30750707 -0.16398434 0.45575243 -0.41983598
0.73485684 0.2715884 0.18213099 -0.31101075 0.0012811404 0.0006164294 0.080040425 0.21539421
0.30883127 0.30731028 -0.14445312 0.026500236 -0.17104015 0.016396299 0.32477587 0.0017126218
0.19555412 0.13180785 -0.21575502 0.0909584 -0.20033044 0.1828382 -0.29022872 -0.25544897
-0.21491641 0.34638298 -0.12607878 0.00984168 0.00020770123 0.16647102 0.07831985 0.2455997
-0.016930126 0.7118615 0.30124792 0.2023331 -0.25173852 0.42801017 -0.17629862 -0.20648561
-0.42487353 -0.4792069 -0.4835596 -0.30782652 -0.36712867 -0.0130949635 0.29476166 0.43585026
0.24513985 0.0996192 0.003777035 -0.0014678945 0.13616076 0.13830416 0.47203818 0.2975923
-0.033740167 0.36360502 0.13730071 0.045207806 0.04888397 0.22038746 -0.1950216 0.048258852
-0.23520495 0.03285421 0.08074837 0.09613446 0.07369874 -0.1985657 0.024835005 -0.050217234
-0.35471717 -0.015983868 0.0024610716 0.07900268 -0.10395467 -0.20741023 0.011133067 0.45666108
-0.25749373 -0.54709876 -0.10982525 -0.43664077 -0.04579997 -0.08108253 0.18570362 0.07583494
-0.05201843 -0.32866278 -0.2030491 0.21535659 -0.043108907 0.36497134 -0.0050907745 0.09708163
0.0007515414 -0.0003691012 0.0071110963 0.4393242 -0.2522255 0.20476629 0.06884171 0.062821954
-0.15028483 0.07792655 -0.03456638 0.26626942 -0.2254004 -0.2305861 0.46441466 0.07388644
0.019890886 0.097265236 0.19353539 0.27233443 0.15977626 0.17127952 -0.24506134 0.0046998137
-0.00070612325 0.09693845 0.13143362 0.50467706 -0.21650486 0.49429518 0.7938098 -0.5185686
0.097082265 -0.14122659 -0.052823707 -0.20887765 0.23760939 -0.26922703 -0.2912309 -0.12345562
-0.12854809 0.18903486 -0.14208367 -0.48346063 -0.06804497 -0.12200132 0.005199639 -0.0029228246
0.08093065 0.2624208 0.28901124 0.29227597 -0.12657581 0.31919795 -0.38981912 -0.23575316
0.09973127 -0.37486655 -0.24031146 0.24386229 -0.37933618 -0.24682999 0.26591015 0.16758142
-0.52099293 -0.5126275 -0.5546001 0.37550953 -0.046458855 -0.0011710324 0.0010068552 0.02574956
0.13992237 0.092000194 -0.37430024 0.29890406 -0.04257354 0.55260855 0.1734381 0.051015507
-0.0069224266 0.3509159 0.30858344 0.47953486 -0.034855843 0.13883239 0.37347803 0.40521237
0.329186 0.16903427 -0.30127266 0.2869035 -0.0020200023 -0.001812384 0.10169347 -0.23661955
0.12297709 -0.018093884 -0.220097 -0.23732886 0.020940013 0.3871308 -0.18776993 0.020416958
-0.016404845 0.20088288 -0.087551676 0.5999942 -0.35031357 0.09806061 0.27320045 -0.382619
-0.1025895 -0.19155708 0.074942745 -0.005056934 -0.00067070517 -0.043539163

phi_neumann.mlp.mlp.0.bias f4 [10]
00000000: 45ee 32bd 5b35 a2bc 0af1 b63c 68b1 e63c
00000010: 23f7 063d 846e 8b3d 3b3b 433e 4f2b 0a3e
00000020: 59e5 68bc 3a0b 363d
-0.043684263 -0.019800832 0.022331733 0.028160766 0.03295053 0.068081886 0.19065563 0.13493083
-0.014214837 0.0444443

phi_neumann.mlp.mlp.2.weight f4 [10, 10]
00000000: 7007 a0be acbc ec3e 22d4 1dbf 777c 4a3e
00000010: 42f5 b83d 9b98 efbe 7664 173e ad1d 7e3d
00000020: 6050 a43e 5a13 413e d2b0 d7be 1e2d 4bbd
00000030: 4964 d83d 4dc4 b53d 721b 03bf 9e17 febe
00000040: 513e 463e b35f bbbd 0689 20bd ba17 b2bd
00000050: f878 fdbd bd6f 2a3e a93a 583e 8b06 12bc
00000060: e6d0 a73e 13ea 033f 162c 13bf abcf 56bd
00000070: 93cc b9be 0c44 3cbe 616e d23e fe45 56be
00000080: 6760 013e 76af 1c3e 6d4e e73e 1f56 bdbe
00000090: 0094 a9be 6b91 783e 0a7a b43e a800 b2be
000000a0: 42d6 603e 327a 783d 3d4c acbe 0d5c b83e
000000b0: d2fd 7f3e 0523 3d3e 105f 18be 8992 36bc
000000c0: fd27 a9be 643a 9f3e b921 b23e 66a4 363e
000000d0: eb34 00be c773 03bf 4dc4 063f a70a 013f
000000e0: 283e c7bd 8b07 87be fb97 eb3e 038d 8c3e
000000f0: 4efc 433c 5db9 153f feac 0f3d bf93 98bd
00000100: 6947 2fbf 3741 d83d 62e8 93bd a260 e13e
00000110: 0fac 2b3d 0048 a23e 0546 31bf b2a2 043f
00000120: 79cb 973e 2bbf 213e 0ac6 09be e8a7 05bf
00000130: 34eb df3d b61b 233f 99c5 22bc 6b19 a93a
00000140: dc06 d13e db4f b13e cc79 e1be fe45 cf3c
00000150: f634 ad3e d221 ca3e 3510 973e 6b02 30be
00000160: 1c75 a2be b531 703d 10a9 c9bc 5d2f 523d
00000170: 70c2 9ebe 1345 b2bd c81a cfbe bc8d 00bf
00000180: 2323 b23d e8e8 bcbc 1b7d 993d 8d60 e4be
-0.31255674 0.46237695 -0.61651814 0.19774042 0.09031154 -0.46796116 0.14784417 0.06204002
0.3209257 0.18855038 -0.4212709 -0.049603574 0.10566003 0.08875332 -0.51213753 -0.49627393
0.1935971 -0.091491126 -0.039193176 -0.08695932 -0.123765886 0.16644187 0.21116127 -0.008912693
0.32776564 0.51529044 -0.57489145 -0.05244414 -0.3628889 -0.18385333 0.41099837 -0.20925137
0.12634431 0.15301308 0.45177022 -0.36979768 -0.33120728 0.24274223 0.35249358 -0.34766126
0.21956733 0.06066341 -0.33651915 0.3600773 0.24999169 0.1847039 -0.14880013 -0.011143335
-0.3303832 0.31099236 0.34791353 0.1783615 -0.12520187 -0.5134854 0.5264328 0.5040688
-0.09728652 -0.26372942 0.4601439 0.27451333 0.01196201 0.58485967 0.035077088 -0.07450055
-0.6846834 0.10559314 -0.07222058 0.44019037 0.041912135 0.31695557 -0.69247466 0.51810753
0.29647425 0.15795581 -0.13454452 -0.5220933 0.10933533 0.6371416 -0.009934806 0.0012901252
0.40825546 0.34631237 -0.44038236 0.02530193 0.33829468 0.39478928 0.29504552 -0.17188422
-0.31729972 0.058641154 -0.024616748 0.0513147 -0.3100772 -0.08704581 -0.4045012 -0.5021627
0.08698108 -0.023060277 0.07494565 -0.44604912

phi_neumann.mlp.mlp.2.bias f4 [10]
00000000: 539f bd3d 2471 293e 08af 803d 3744 f8bc
00000010: a4bc 803d d91c 863c ba13 3abd 9e29 0abd
00000020: f137 ad3d ca3b c7bc
0.09258904 0.16547066 0.062833846 -0.030305965 0.0628598 0.016371178 -0.04542897 -0.033731095
0.084579356 -0.024320502
