mixed/psignn/results/best_model/ckpt/best_model.pt (torch, 98693 bytes, 90 tensors)

autoencoder.encoder.mlp.mlp.0.weight f4 [10, 1]
0.0038316045 -0.0033266149 0.0041222963 -0.07318708 0.10273205 0.060593713 0.002104178 -0.035129875
-0.011995429 0.009219232
00000000: a81b 7b3b 5603 5abb 5414 873b 1ce3 95bd
00000010: 2e65 d23d 1d31 783d 40e6 093b 58e4 0fbd
00000020: 7a88 44bc 430c 173c

autoencoder.encoder.mlp.mlp.0.bias f4 [10]
-0.18248567 -0.30730417 -0.15818879 -1.0256078 -1.7247976 0.84235406 -0.1352269 -1.248532
-0.38797292 -0.3440655
00000000: 86dd 3abe f956 9dbe 3efc 21be 1e47 83bf
00000010: 2bc6 dcbf 84a4 573f ec78 0abe e6cf 9fbf
00000020: 63a4 c6be 5a29 b0be

autoencoder.encoder.mlp.mlp.2.weight f4 [10, 10]
-0.1576833 0.5165198 0.120110184 -0.11168003 -0.39809492 -0.0047896397 0.14367549 0.30541772
0.35860375 0.2934253 0.02837247 0.32175243 -0.19619547 -0.22034083 -0.7131797 0.23248385
0.17579077 0.054228358 0.37918827 0.08316946 0.42446795 0.22598818 0.3451017 0.108789496
0.03544453 -0.045345496 -0.13253538 -0.45584375 0.11455316 0.37510487 -0.5088237 -0.41197988
0.4631903 0.24766096 0.764859 -0.088338204 -0.46079713 -0.59907866 -0.404482 -0.08777555
-0.20897125 0.27276754 -0.056513555 0.08683154 0.23135902 0.046865642 0.1263576 -0.032909404
0.34287408 0.20360592 0.2369611 -0.21297485 0.29158622 -0.026852706 0.34308308 0.15240726
0.031840853 0.2638105 0.12090726 0.21898471 -0.074720725 0.397883 0.078241 -0.020640336
0.017044727 -0.01141114 0.28343567 0.05367121 -0.38331938 -0.16367145 0.112737924 -0.11016386
0.06300083 0.060122304 -0.04609774 -0.062260408 0.04343714 -0.10031338 -0.27004597 0.019916525
0.023261312 -0.31491825 0.16998486 -0.053691495 0.06669325 0.2828239 0.04382631 0.15857115
-0.3346925 -0.27541575 -0.014699561 -0.50877273 -0.11871095 0.38800493 -0.23922399 -0.9271247
0.24758726 0.06323699 0.15672709 -0.015080852
00000000: bb77 21be a43a 043f 54fc f53d 80b8 e4bd
00000010: 19d3 cbbe 69f2 9cbb ab1f 133e b65f 9c3e
00000020: e99a b73e d73b 963e 626d e83c bcbc a43e
00000030: 77e7 48be 07a1 61be f292 36bf 3f10 6e3e
00000040: 7f02 343e 8e1e 5e3d f724 c23e c054 aa3d
00000050: dd53 d93e 7269 673e 2cb1 b03e 07cd de3d
00000060: 492e 113d 33bc 39bd 5bb7 07be 5a64 e9be
00000070: d99a ea3d bf0d c03e 4542 02bf 07ef d2be
00000080: 4727 ed3e d69a 7d3e cdcd 433f a9ea b4bd
00000090: 9aed ebbe 385d 19bf 4418 cfbe abc3 b3bd
000000a0: 8ffc 55be 30a8 8b3e c27a 67bd bcd4 b13d
000000b0: 61e9 6c3e 30f6 3f3d e363 013e 03cc 06bd
000000c0: 318d af3e 127e 503e eea5 723e 1416 5abe
000000d0: ca4a 953e 35fa dbbc 96a8 af3e a610 1c3e
000000e0: 8e6b 023d 2b12 873e 3a9e f73d 873d 603e
000000f0: 2e07 99bd 52b7 cb3e d13c a03d ec15 a9bc
00000100: 62a1 8b3c caf5 3abc 7b1e 913e 58d6 5b3d
00000110: 7042 c4be 7d99 27be 24e3 e63d 979d e1bd
00000120: 9406 813d ce42 763d fcd0 3cbd c504 7fbd
00000130: 24eb 313d 1a71 cdbd 7743 8abe fb27 a33c
00000140: 828e be3c f73c a1be 8310 2e3e 9deb 5bbd
00000150: 7896 883d 4bce 903e 3883 333d 7a60 223e
00000160: d15c abbe 4b03 8dbe 6dd6 70bc ee3e 02bf
00000170: ba1e f3bd 95a8 c63e 22f7 74be 0b58 6dbf
00000180: 8487 7d3e 6582 813d 117d 203e ae15 77bc

autoencoder.encoder.mlp.mlp.2.bias f4 [10]
0.5396594 -0.1305627 -0.060271163 -0.20853803 0.59930366 -0.056733306 -0.22979891 -0.30717465
-0.10088284 -0.5354725
00000000: 1e27 0a3f 3ab2 05be e5de 76bd fe8a 55be
00000010: f76b 193f 2f61 68bd 6850 6bbe ff45 9dbe
00000020: aa9b cebd ba14 09bf

autoencoder.decoder.mlp.mlp.0.weight f4 [10, 10]
-1.2032712 -0.015660241 -0.089388475 -0.8799533 1.1579112 -1.0908227 -0.7728594 2.4787145
0.6843603 -0.020998593 0.27543008 2.1842582 0.044929393 0.17128003 0.22815476 2.5097754
1.241419 -0.83065933 1.6116339 -1.9950895 0.44505963 -2.3721237 0.46354356 0.80309564
0.9244169 -0.33126828 -1.2162 0.042073455 -1.0728709 3.0996745 0.46997622 -0.6160773
-0.5667635 0.44429624 0.92948055 -0.6238991 0.56628203 -1.432792 0.11050551 1.2456069
-0.52740645 0.046740502 -0.6559515 0.9445472 0.8668076 -0.7569062 0.5549906 0.07095934
0.8878308 1.1580411 0.20319352 -0.28640527 -0.175769 0.2346962 -0.16369464 -1.0142995
-0.21950535 1.0038006 -0.12764354 -0.26166585 0.32351628 -1.0707897 0.5480878 0.6681828
0.6206508 -0.73470414 -0.3233757 -0.47625458 -0.32983005 3.196729 -0.11572513 -1.5984856
0.52154106 -0.65637153 0.7372253 -0.3089485 -1.1408601 1.225553 -0.5794874 2.4481118
-0.36361745 0.5687436 -0.028062096 0.3598028 -0.19573098 1.8832871 0.6061999 -1.0926414
1.0114938 -1.5093883 0.80207783 -1.513104 0.5295541 -0.023736063 0.16380437 -0.26360828
0.13633673 -1.1032094 -0.56604344 0.8165711
00000000: ca04 9abf e849 80bc 4e11 b7bd 9f44 61bf
00000010: 6f36 943f 14a0 8bbf 1dda 45bf 42a3 1e40
00000020: 3d32 2f3f 3e05 acbc 2c05 8d3e e3ca 0b40
00000030: e207 383d 0864 2f3e 67a1 693e 29a0 2040
00000040: d1e6 9e3f 17a6 54bf 054a ce3f 185f ffbf
00000050: dbde e33e e0d0 17c0 9555 ed3e ad97 4d3f
00000060: 96a6 6c3f ff9b a9be 71ac 9bbf 3755 2c3d
00000070: d553 89bf 1161 4640 b9a0 f03e 3eb7 1dbf
00000080: 6a17 11bf cc7a e33e 70f2 6d3f dab7 1fbf
00000090: dcf7 103f ba65 b7bf b650 e23d 0c70 9f3f
000000a0: 1c04 07bf f872 3f3d 70ec 27bf d8cd 713f
000000b0: 1ae7 5d3f 9bc4 41bf dd13 0e3f 2153 913d
000000c0: e148 633f b13a 943f f611 503e b6a3 92be
000000d0: cafc 33be 3354 703e 919f 27be 91d4 81bf
000000e0: 03c6 60be 8a7c 803f fdb4 02be 11f9 85be
000000f0: eda3 a53e a30f 89bf 7b4f 0c3f 070e 2b3f
00000100: f9e2 1e3f 9215 3cbf 8091 a5be a4d7 f3be
00000110: 7cdf a8be 3597 4c40 4c01 edbd 2d9b ccbf
00000120: b783 053f f707 28bf ccba 3c3f 7f2e 9ebe
00000130: b407 92bf ecde 9c3f 4959 14bf ddad 1c40
00000140: 112c babe 2e99 113f 7be2 e5bc 1338 b83e
00000150: b46d 48be 8d0f f13f eb2f 1b3f acdb 8bbf
00000160: a178 813f a333 c1bf f954 4d3f 64ad c1bf
00000170: dc90 073f 2272 c2bc 55bc 273e aaf7 86be
00000180: db9b 0b3e f735 8dbf 39e8 10bf ce0a 513f

autoencoder.decoder.mlp.mlp.0.bias f4 [10]
-1.4444779 -0.9655593 0.6654047 2.062708 0.72293705 -0.8101234 0.9707873 0.65622735
-0.3523517 1.9746822
00000000: a7e4 b8bf e52e 77bf f657 2a3f 6803 0440
00000010: 6712 393f 3f64 4fbf 8485 783f 84fe 273f
00000020: 7167 b4be 63c2 fc3f

autoencoder.decoder.mlp.mlp.2.weight f4 [1, 10]
-1.3251443 2.0417976 -1.9881911 -2.1787713 -1.3174474 -0.55678463 -1.7258856 -1.9164088
1.8681432 -2.54304
00000000: 549e a9bf d0ac 0240 0c7d febf fd70 0bc0
00000010: 1ea2 a8bf 7089 0ebf d2e9 dcbf e24c f5bf
00000020: 511f ef3f 2bc1 22c0

deqdss.f.laynorm.weight f4 [10]
0.21692857 0.86173356 0.2737331 0.4064223 0.047614235 0.74675155 0.08572226 0.43193534
0.69153714 1.3939053
00000000: 8622 5e3e 929a 5c3f bf26 8c3e 9516 d03e
00000010: 2507 433d 1c2b 3f3f 278f af3d a126 dd3e
00000020: 9408 313f 7d6b b23f

deqdss.f.laynorm.bias f4 [10]
0.364464 -0.24693923 -0.38741273 -0.28248358 0.76962596 -0.26402205 -0.3037726 -0.28377736
0.05195203 -0.27942762
00000000: 079b ba3e a3dd 7cbe f65a c6be b0a1 90be
00000010: 3506 453f e62d 87be 1588 9bbe 444b 91be
00000020: a7cb 543d 2311 8fbe

deqdss.f.phi_to_list.0.mlp.mlp.0.weight f4 [10, 23]
-0.057481114 -0.12253859 0.119163424 0.105984144 0.1422304 -0.39103928 -0.4523053 0.12318157
-0.3355567 0.12185505 -0.17411318 -0.28652197 0.09899225 -0.43253338 -0.18551496 -0.46352357
-0.07394585 0.2895447 -0.4460763 0.31024438 -0.21291992 -0.004175553 -0.04732266 0.07094095
-0.4185361 -0.35417286 -0.027307048 -0.1977981 -0.7202075 -0.50555164 0.41463175 0.15860023
0.35305685 -0.39511487 -0.060566634 -0.5738123 0.42528096 0.37227878 -0.43786496 0.36743292
0.44060603 0.39200458 -0.0423247 0.15810175 0.018510533 -0.117427774 -0.01680908 -0.06592764
-0.029501988 0.23800331 -0.011066846 -0.024377408 0.320826 0.12039243 0.012812692 -0.11989698
0.071547955 0.0982766 0.115627185 -0.1786175 0.31482747 0.48192868 0.5308529 -0.2269676
0.32065085 -0.103278875 -0.025325637 -0.0028520618 -0.015369293 0.36836392 -0.021050917 -0.0061241174
-0.022796517 -0.026878865 -0.41502118 -0.067667924 0.25010246 -0.22881113 -0.26579225 -0.67038786
-0.5794338 -0.395511 -0.18419328 0.2146001 -0.68297267 0.09938482 0.36019033 0.03794561
0.48794398 -0.058326043 -0.0107425675 0.03999725 -0.22295466 -0.7198966 -0.12559456 0.57282436
0.3443885 -0.26225007 0.12014798 -0.23535675 0.12109493 0.76638967 0.41218337 0.04258807
-0.43388754 0.5474265 -0.34832862 -0.76976967 -0.13155177 -0.45917183 -0.14278577 -0.32277954
-0.04490848 0.020880325 0.0121384375 0.30732915 -0.6538981 -0.11575646 -0.054355957 0.153986
-0.15074752 -0.26918304 0.028404575 -0.5189614 0.7610917 0.073323995 -0.22503686 0.095752254
-0.41890836 -0.11929748 -0.27625945 0.038217798 0.08890469 -0.23615111 0.368614 0.030252675
0.002600196 -0.0044561443 0.057203073 0.3585609 0.23081452 -0.17859966 -0.38223654 0.23021537
0.029863216 -0.29802245 0.39740065 -0.42255086 -0.11637414 -0.22044237 0.10295241 0.1472621
0.06320262 -0.0090638315 0.026034312 0.26970276 0.04977574 -0.73657787 -0.017262954 -0.002634928
-0.0012841371 -0.023896763 0.40528828 -0.11234979 0.045643315 -0.16426255 -0.06806138 -0.10109508
-0.049347263 -0.15365478 0.035576463 0.21832219 0.08194914 0.04883729 -0.063725494 -0.3354109
0.19207741 0.4492901 -0.47224247 -0.017891664 0.18487537 -0.06956764 -0.012285699 -0.0047810767
-0.3158692 -0.063639246 0.09274044 0.12190316 0.23680799 -0.23678213 -0.25514168 0.23615843
0.29809967 0.73603064 -0.08034502 0.16864152 -0.36842027 0.44598058 0.45132998 -0.45233446
0.055420607 0.35062745 0.089674026 -0.041181397 -0.0889556 -0.02859583 0.35148466 -0.37380487
0.34485623 -0.24437785 0.39573458 0.22237702 -0.22660248 0.08738159 -0.00053804845 0.3720576
-0.062897466 -0.2837491 -0.16965526 -0.2942159 0.7940863 0.32911327 -0.099109694 -0.4654766
-0.39153853 0.19480842 -0.4059939 -0.050414152 -0.0107572 -0.04800237
00000000: 5171 6bbd 83f5 fabd f40b f43d 370e d93d
00000010: d9a4 113e 4d36 c8be 8f94 e7be 9e46 fc3d
00000020: 16ce abbe 248f f93d ba4a 32be 02b3 92be
00000030: 73bc ca3d 0475 ddbe a2f7 3dbe f652 edbe
00000040: ec70 97bd 343f 943e 1d64 e4be 5ad8 9e3e
00000050: ae07 5abe 14d3 88bb 68d5 41bd 7d49 913d
00000060: 5d4a d6be 2556 b5be 08b3 dfbc 968b 4abe
00000070: 855f 38bf d56b 01bf 9d4a d43e 1968 223e
00000080: dec3 b43e 7f4c cabe b814 78bd 5de5 12bf
00000090: 6dbe d93e 539b be3e d62f e0be 2b20 bc3e
000000a0: 1d97 e13e d3b4 c83e aa5c 2dbd 6de5 213e
000000b0: 67a3 973c f97d f0bd 32b3 89bc 1205 87bd
000000c0: 27ae f1bc 24b7 733e b751 35bc 21b3 c7bc
000000d0: 4e43 a43e 4e90 f63d 53ec 513c 8c8c f5bd
000000e0: bc87 923d 3e45 c93d f2cd ec3d 82e7 36be
000000f0: 1131 a13e 5bbf f63e fae5 073f 326a 68be
00000100: 592c a43e e083 d3bd b677 cfbc a8e9 3abb
00000110: 7dcf 7bbc 329a bc3e f972 acbc d2ac c8bb
00000120: c3bf babc 1131 dcbc a87d d4be 7b95 8abd
00000130: 6e0d 803e 774d 6abe ec15 88be 8a9e 2bbf
00000140: c655 14bf 6b80 cabe 2a9d 3cbe 21c0 5b3e
00000150: 4cd7 2ebf 458a cb3d de6a b83e db6c 1b3d
00000160: cbd3 f93e 4ae7 6ebd 9801 30bc 28d4 233d
00000170: 3a4e 64be 254b 38bf dc9b 00be 9ea4 123f
00000180: b153 b03e a445 86be 2510 f63d 5c01 71be
00000190: 9e00 f83d 1d32 443f b309 d33e d470 2e3d
000001a0: 8226 debe 2524 0c3f 2158 b2be a00f 45bf
000001b0: 82b5 06be 9218 ebbe 6f36 12be 5c43 a5be
000001c0: f4f1 37bd 370d ab3c 4ce0 463c 3f5a 9d3e
000001d0: de65 27bf b911 edbd 5aa4 5ebd 82ae 1d3e
000001e0: 8f5d 1abe 5cd2 89be b6b0 e83c a8da 04bf
000001f0: e8d6 423f e42a 963d 1070 66be c219 c43d
00000200: 287b d6be 3d52 f4bd e171 8dbe 448a 1c3d
00000210: aa13 b63d 99d1 71be f9ba bc3e 75d4 f73c
00000220: 0d68 2a3b d904 92bb c54d 6a3d 4b95 b73e
00000230: a45a 6c3e d4e2 36be 82b4 c3be 94bd 6b3e
00000240: b4a3 f43c 6696 98be 1978 cb3e 9658 d8be
00000250: 9155 eebd a5bb 61be b7d8 d23d e0cb 163e
00000260: 6070 813d 7780 14bc e945 d53c 7b16 8a3e
00000270: a5e1 4b3d 5e90 3cbf 0a6b 8dbc c2ae 2cbb
00000280: 7e50 a8ba 25c3 c3bc f281 cf3e a617 e6bd
00000290: 7cf4 3a3d 7134 28be c463 8bbd f00a cfbd
000002a0: 5b20 4abd ae57 1dbe a0b8 113d da8f 5f3e
000002b0: f3d4 a73d 9c09 483d 8382 82bd faba abbe
000002c0: f1af 443e 5a09 e63e c4c9 f1be 8a91 92bc
000002d0: f84f 3d3e 7b79 8ebd f549 49bc 94aa 9cbb
000002e0: 9cb9 a1be 4b55 82bd b3ee bd3d 5da8 f93d
000002f0: cb7d 723e 0477 72be eea1 82be 84d3 713e
00000300: 85a0 983e 816c 3c3f ee8b a4bd 5db0 2c3e
00000310: 95a1 bcbe 9157 e43e b914 e73e 6298 e7be
00000320: b800 633d 7185 b33e 04a7 b73d d3ad 28bd
00000330: 5b2e b6bd cd41 eabc ccf5 b33e 5a63 bfbe
00000340: ff90 b03e 303e 7abe b99d ca3e cdb6 633e
00000350: 7b0a 68be 1ef5 b23d d20b 0dba 557e be3e
00000360: 63d0 80bd 9047 91be 1cba 2dbe 77a3 96be
00000370: 3d49 4b3f 8981 a83e 06fa cabd f352 eebe
00000380: bd77 c8be dc7b 473e 6fde cfbe 127f 4ebd
00000390: f83e 30bc 229e 44bd

deqdss.f.phi_to_list.0.mlp.mlp.0.bias f4 [10]
0.015786784 -0.24632451 0.49087334 -0.12155184 -0.66500205 -0.0750002 -0.19250636 0.39825124
-0.1290655 -0.78388476
00000000: 4953 813c 7e3c 7cbe c053 fb3e 2cf0 f8bd
00000010: 933d 2abf b499 99bd 6320 45be 96e7 cb3e
00000020: bf29 04be acac 48bf

deqdss.f.phi_to_list.0.mlp.mlp.2.weight f4 [10, 10]
0.21014434 0.40848935 -0.040576432 -0.0040821517 0.36568472 -0.16951896 0.028050108 0.38939804
-0.051756024 0.13175811 0.09023638 -0.13905138 0.1804744 0.0792166 1.1459686 0.53497744
-0.5603584 0.33550572 0.013788156 0.5604991 -0.29258788 0.30808043 -0.05010195 -0.17612736
0.034015227 0.112901844 0.031049306 -4.538011e-05 -0.1843052 -0.32190377 0.29053426 -0.008826589
0.55510414 0.33312643 -0.52489454 -0.5460427 -0.017670896 0.0061299745 -0.4021446 -0.37324545
0.11044516 -0.2746463 -0.08984917 -0.30987093 -0.3014402 0.21226701 0.048062053 0.3021295
0.41644552 0.28532517 -0.5094933 -0.28443226 -0.08077511 0.010208366 -0.745011 -0.09003032
0.32811898 -0.22891992 0.49561682 -0.16715878 0.31907004 0.020299073 -0.38802832 0.19810851
0.38079765 -0.11497059 0.37128833 0.53553617 0.069202125 0.07175077 -0.053004973 0.18034156
0.47746214 -0.261312 0.34822682 -0.34517634 0.21243882 0.5741529 0.23014183 -0.28581566
-0.19171281 0.11270054 0.2645567 -0.56068784 -0.018957088 0.16400555 0.40557092 -0.28021765
-0.24800652 0.29853317 0.18578406 0.01810294 -0.3521286 0.018106956 0.1017465 0.35706973
0.19118871 0.3625236 -0.06394661 0.7962343
00000000: 1430 573e 8425 d13e 7933 26bd 92c3 85bb
00000010: 073b bb3e 6196 2dbe 57c9 e53c 2e5f c73e
00000020: 20fe 53bd 99eb 063e dacd b83d 7c63 0ebe
00000030: 48ce 383e 503c a23d 19af 923f 48f4 083f
00000040: a673 0fbf 68c7 ab3e b8e7 613c de7c 0f3f
00000050: 14ce 95be b8bc 9d3e b437 4dbd bb5a 34be
00000060: 8d53 0b3d 1539 e73d 1d5b fe3c 8656 3eb8
00000070: 81ba 3cbe 92d0 a4be e8c0 943e 669d 10bc
00000080: 4e1b 0e3f 8c8f aa3e 7d5f 06bf 74c9 0bbf
00000090: 8ec2 90bc f4dd c83b e6e5 cdbe 071a bfbe
000000a0: 1231 e23d 719e 8cbe d702 b8bd 67a7 9ebe
000000b0: 5f56 9abe 865c 593e b7dc 443d b8b0 9a3e
000000c0: 5938 d53e 2416 923e 276e 02bf 1ba1 91be
000000d0: 6c6d a5bd fe40 273c 0ab9 3ebf d161 b8bd
000000e0: 36ff a73e fc69 6abe 7dc1 fd3e ac2b 2bbe
000000f0: 265d a33e 3e4a a63c a6ab c6be f5dc 4a3e
00000100: e9f7 c23e b375 ebbd 8119 be3e e618 093f
00000110: d8b9 8d3d 11f2 923d be1b 59bd 75ab 383e
00000120: eb75 f43e b0ca 85be c94a b23e f4ba b0be
00000130: 9089 593e affb 123f 4daa 6b3e 6e56 92be
00000140: 5d50 44be 8acf e63d fa73 873e 3d89 0fbf
00000150: e54b 9bbc 12f1 273e fea6 cf3e b078 8fbe
00000160: 6cf5 7dbe 57d9 983e 2d3e 3e3e 9e4c 943c
00000170: 334a b4be 0a55 943c 7860 d03d d8d1 b63e
00000180: f9c6 433e b19c b93e 71f6 82bd 03d6 4b3f

deqdss.f.phi_to_list.0.mlp.mlp.2.bias f4 [10]
-0.056913175 0.28092277 0.046528477 -0.038951054 -0.29132172 -0.24427107 -0.57797676 0.6265639
-0.09636887 -0.04702518
00000000: ca1d 69bd 1cd5 8f3e a594 3e3d 248b 1fbd
00000010: 1f28 95be 3222 7abe 49f6 13bf 7e66 203f
00000020: 0b5d c5bd 7a9d 40bd

deqdss.f.phi_from_list.0.mlp.mlp.0.weight f4 [10, 23]
-0.03697782 -0.21324208 0.13906534 -0.035277754 0.1900057 -0.099023014 0.08758059 -0.21366362
-0.02393535 0.5615946 0.13085939 0.096057124 -0.3011536 0.06768437 -0.2601694 0.6714142
0.24465474 0.101925306 0.0574224 -0.44649032 0.00042456095 0.001082925 -0.047543045 0.3189364
-0.21654178 0.20717365 0.5530761 -0.09543997 -0.250819 0.117622174 0.019452542 -0.42029753
0.6976433 -0.29356724 0.39231208 -0.31267083 0.07157156 0.11112403 -0.7706661 0.35823968
-0.23286419 1.0653124 -0.5969733 -0.0019935665 -2.7321721e-05 0.008551871 0.10237595 -0.19547561
0.19835436 -0.13708502 -0.20143704 -0.09502984 -0.08925584 0.14187561 -0.41121277 0.5655707
-0.18753222 -0.25641465 0.053423114 0.48384446 0.26998675 0.6922864 0.16214122 -0.2042207
0.19333462 -0.67783505 -5.026113e-05 2.3332706e-05 -0.02499513 0.13992262 -0.1312527 0.05092695
-0.06727686 -0.1293083 0.19979416 -0.36051092 -0.06384554 -0.56062263 0.19913433 0.031049686
0.013974015 -0.26162028 -0.20621821 -0.49432522 0.3990643 0.37906152 0.034642953 0.37830442
-0.47353238 0.004919791 -0.0040562106 -0.07197539 0.06907315 0.7670892 -0.21470669 0.054017235
-0.2746822 -0.11018964 -0.033959996 0.117582455 0.07648648 -0.36183903 0.10287616 0.19344224
0.097343735 0.44234997 -0.06370604 -0.39820775 -0.11415457 0.386845 -0.13277704 0.33154067
-0.07642596 -0.0015207903 -0.002256815 -0.035571523 0.083053626 -0.025926065 0.24596182 0.1876878
0.37055093 0.35780096 0.15122524 -0.10723817 -0.4559001 -0.20397834 -0.009552768 0.30369836
-0.0039467993 0.19807847 0.033735134 -0.12581646 0.07220646 -0.03169612 -0.7780925 -0.18432641
-0.023900164 0.09062887 0.008040383 -0.036876705 0.24296795 -0.21772817 -0.071956255 0.3310331
0.02082022 -0.26955837 0.11537361 -0.097115904 -0.1787887 -0.48652625 0.16179284 0.23985164
0.056120552 -0.011072198 -0.11394925 0.14250286 -0.36849728 0.22619691 0.0010646997 -0.0031546694
0.02572796 -0.035323597 0.5686228 0.21784657 -0.11868628 -0.19215871 0.47708046 0.2788902
-0.18492748 0.10559782 -0.867109 0.11953961 -0.4622871 -0.15922748 0.297969 0.19065021
-0.008649731 0.1564336 -0.03506047 0.4133038 1.130927 -0.001004288 -0.0003880586 -0.03573542
0.2361664 0.5532023 -0.161222 0.05924746 0.23435424 -0.78147316 -0.1602686 0.6095241
0.38344586 -0.67603195 0.4011574 -0.73441565 0.0632271 0.12553896 -0.025817228 -0.5983116
-0.20848742 0.34447068 -0.3102906 0.38817713 -0.0012852658 9.846808e-05 -0.04173034 -0.015630087
0.10991957 0.13229915 -0.37796107 -0.05961195 0.16321 -0.31686822 -0.3746582 0.2647838
-0.34142828 0.11325148 0.22638564 -0.200523 -0.08843217 0.0044496576 0.1697371 -0.099626064
-0.16086486 0.23410225 -0.42212224 0.1424397 0.018402351 0.0043976544
00000000: 0e76 17bd 225c 5abe 2567 0e3e 687f 10bd
00000010: db90 423e 94cc cabd 745d b33d a3ca 5abe
00000020: 1114 c4bc aac4 0f3f 0100 063e 99b9 c43d
00000030: ce30 9abe 1a9e 8a3d ec34 85be cde1 2b3f
00000040: c686 7a3e 37be d03d c033 6b3d 619a e4be
00000050: 9b97 de39 eff0 8d3a 7fbc 42bd a24b a33e
00000060: 21bd 5dbe 5425 543e 6596 0d3f 0876 c3bd
00000070: 596b 80be e5e3 f03d f05a 9f3c 3d31 d7be
00000080: c098 323f 724e 96be 21dd c83e 6416 a0be
00000090: 1c94 923d ff94 e33d 604a 45bf 316b b73e
000000a0: f373 6ebe 285c 883f 3ed3 18bf 7fa6 02bb
000000b0: f330 e5b7 261d 0c3c 7baa d13d c22a 48be
000000c0: 681d 4b3e 0460 0cbe 8345 4ebe 019f c2bd
000000d0: c4cb b6bd d747 113e 7b8a d2be 3ec9 103f
000000e0: 7208 40be c848 83be 32d2 5a3d 76ba f73e
000000f0: b43b 8a3e ae39 313f 5908 263e 3b1f 51be
00000100: 83f9 453e 9986 2dbf 7acf 52b8 9bba c337
00000110: 96c2 ccbc e047 0f3e 1c67 06be c798 503d
00000120: 73c8 89bd 6569 04be d796 4c3e e394 b8be
00000130: 73c1 82bd f784 0fbf dfe9 4b3e e95b fe3c
00000140: 44f3 643c 18f3 85be de2a 53be 3218 fdbe
00000150: 2852 cc3e 5a14 c23e c5e5 0d3d 1eb1 c13e
00000160: d672 f2be 3336 a13b f6e9 84bb d567 93bd
00000170: 3976 8d3d f55f 443f 12dc 5bbe 2d41 5d3d
00000180: 25a3 8cbe 1bab e1bd a319 0bbd 12cf f03d
00000190: f2a4 9c3d f742 b9be bcb0 d23d b915 463e
000001a0: 275c c73d b27b e23e 5078 82bd e3e1 cbbe
000001b0: dfc9 e9bd 8c10 c63e b4f6 07be b3bf a93e
000001c0: 3785 9cbd 4155 c7ba 13e7 13bb 72b3 11bd
000001d0: 0518 aa3d e662 d4bc 6add 7b3e 3b31 403e
000001e0: dab8 bd3e b031 b73e cada 1a3e b09f dbbd
000001f0: bd6b e9be b3df 50be 3783 1cbc 5a7e 9b3e
00000200: 2754 81bb 15d5 4a3e da2d 0a3d 08d6 00be
00000210: fbe0 933d cad3 01bd 1231 47bf 10c0 3cbe
00000220: 47ca c3bc a19b b93d d0bb 033c 070c 17bd
00000230: 97cc 783e 22f4 5ebe cd5d 93bd 2c7d a93e
00000240: 2a8f aa3c 8e03 8abe 0049 ec3d b4e4 c6bd
00000250: 6314 37be f819 f9be 06ad 253e ab9b 753e
00000260: aade 653d 2a68 35bc 395e e9bd 45ec 113e
00000270: adab bcbe 2aa0 673e 658d 8b3a 92be 4ebb
00000280: 71c3 d23c 7aaf 10bd 4491 113f 2c13 5f3e
00000290: cb11 f3bd 41c5 44be e443 f43e b2ca 8e3e
000002a0: a15d 3dbe ab43 d83d dbfa 5dbf 2fd1 f43d
000002b0: e5b0 ecbe 870c 23be 658f 983e cf39 433e
000002c0: 9ab7 0dbc 2130 203e 919b 0fbd 8e9c d33e
000002d0: 37c2 903f 50a2 83ba 5874 cbb9 4e5f 12bd
000002e0: 9bd5 713e aa9e 0d3f 6117 25be 77ad 723d
000002f0: 8ffa 6f3e a00e 48bf 741d 24be c509 1c3f
00000300: 0453 c43e 6e10 2dbf 8164 cd3e aa02 3cbf
00000310: 367d 813d 498d 003e a77e d3bc f32a 19bf
00000320: ba7d 55be 765e b03e 69de 9ebe 27bf c63e
00000330: 5d76 a8ba a680 ce38 6fed 2abd ab0a 80bc
00000340: 831d e13d 6e79 073e 1d84 c1be a92b 74bd
00000350: 8620 273e 8d3c a2be 33d3 bfbe be91 873e
00000360: b0cf aebe 64f0 e73d a3d1 673e e755 4dbe
00000370: ed1b b5bd 6fce 913b 90cf 2d3e c008 ccbd
00000380: c2b9 24be 80b8 6f3e 6820 d8be b6db 113e
00000390: 87c0 963c 331a 903b

deqdss.f.phi_from_list.0.mlp.mlp.0.bias f4 [10]
0.15182604 -0.003296904 0.0068532494 0.20259528 0.5140275 0.08449451 0.65122616 0.28048456
-0.47809267 0.193189
00000000: 4978 1b3e df10 58bb 3991 e03b 2375 4f3e
00000010: 4e97 033f 750b ad3d c2b6 263f ac9b 8f3e
00000020: 90c8 f4be 56d3 453e

deqdss.f.phi_from_list.0.mlp.mlp.2.weight f4 [10, 10]
0.0013081271 0.43666562 -0.38991055 -0.09183303 -0.21052052 -0.50473815 0.586559 0.6324063
-0.10683176 -0.5047531 0.45089367 -0.2584106 0.54982936 0.033285275 0.5311636 -0.06200014
0.10043908 1.2771598 -0.03815793 0.07575844 0.46877515 0.6200273 -0.36567864 0.5028397
0.05293592 0.008572129 -0.54968417 -0.32643875 -0.030899249 -0.10899533 -0.7046002 0.12830283
0.4616111 -0.038036145 -0.4462046 -0.18674274 -0.9243462 0.18460247 -0.1812712 -0.39586425
0.21206908 0.31952867 0.77262396 -0.31779635 0.4014219 0.06497766 -0.12015663 0.47029096
0.32031173 0.28769243 -0.19667062 0.6592195 0.18603523 0.08914133 0.2533036 -0.03281858
0.46387008 -0.91710746 -0.017389739 -0.025113478 -0.4150264 0.233019 -0.6644636 -0.23817159
0.5197486 -0.3034885 0.11819641 0.5418943 0.50742066 0.033087544 0.027026407 0.49864337
-0.34334648 0.26475972 0.2180031 0.19438347 0.0842144 -0.5776291 0.29574475 0.6386437
-0.25052628 0.22313713 -1.030825 -0.49556625 -0.06269735 0.1602812 -0.02634062 -0.22502987
-0.05975851 -0.08648132 -0.12077387 -0.46219388 0.04722194 0.24002168 -0.3154422 -0.30446637
0.22062494 0.5793121 -0.482669 0.3567058
00000000: 7675 ab3a a392 df3e 5ba2 c7be f512 bcbd
00000010: b192 57be 8536 01bf bb28 163f 61e5 213f
00000020: 9cca dabd 8037 01bf 89db e63e 654e 84be
00000030: 9ec1 0c3f 2456 083d 56fa 073f dcf3 7dbd
00000040: 01b3 cd3d f979 a33f 7d4b 1cbd 3e27 9b3d
00000050: 4c03 f03e 1cba 1e3f 3b3a bbbe 1aba 003f
00000060: 56d3 583d 1d72 0c3c 1ab8 0cbf fb22 a7be
00000070: 6c20 fdbc f238 dfbd ae60 34bf d161 033e
00000080: 4a58 ec3e cacb 1bbd ee74 e4be 7d39 3fbe
00000090: f4a1 6cbf 6e08 3d3e 289f 39be b8ae cabe
000000a0: a328 593e 4399 a33e afca 453f 34b6 a2be
000000b0: 2c87 cd3e 0213 853d ae14 f6bd fac9 f03e
000000c0: e6ff a33e 6c4c 933e 0664 49be 9cc2 283f
000000d0: 0580 3e3e bb8f b63d 02b1 813e c66c 06bd
000000e0: 6180 ed3e 8ec7 6abf ed74 8ebc c8ba cdbc
000000f0: 577e d4be 889c 6e3e 491a 2abf 41e3 73be
00000100: 3f0e 053f d862 9bbe f610 f23d 96b9 0a3f
00000110: 52e6 013f ce86 073d 7c66 dd3c 2f4e ff3e
00000120: 1ccb afbe 968e 873e 343c 5f3e 760c 473e
00000130: 9978 ac3d 80df 13bf db6b 973e 277e 233f
00000140: fb44 80be 0f7e 643e 13f2 83bf dcba fdbe
00000150: 7867 80bd c120 243e 49c8 d7bc 3b6e 66be
00000160: 57c5 74bd 1e1d b1bd 4a58 f7bd ada4 ecbe
00000170: cb6b 413d 3ec8 753e a481 a1be 04e3 9bbe
00000180: 81eb 613e cc4d 143f 6420 f7be 25a2 b63e

deqdss.f.phi_from_list.0.mlp.mlp.2.bias f4 [10]
0.2830042 -0.24530835 0.20572603 -0.8289909 -0.26524475 0.8582642 0.1869025 0.085383385
0.1247818 -0.24793132
00000000: ede5 903e 1d32 7bbe d8a9 523e bf38 54bf
00000010: 29ce 87be 34b7 5b3f 5e63 3f3e 7cdd ae3d
00000020: 9a8d ff3d b5e1 7dbe

deqdss.f.alpha.0.weight f4 [1, 33]
-0.14668953 -0.04207479 0.15929554 -1.1591898 0.38315162 0.83146226 0.21648474 -0.6640954
-0.059015524 -0.078347705 0.072428316 0.023844538 0.044734433 0.025133079 -0.112992026 -0.03616469
-0.06468015 0.15955341 -0.16351022 0.06719794 -0.436151 -0.12520608 0.4691614 -0.15257955
0.16076954 -0.04055565 0.012502392 0.5480319 0.06571928 -0.04159824 0.07596219 0.46018115
0.6869513
00000000: c835 16be 9d56 2cbd 5f1e 233e 5560 94bf
00000010: 732c c43e b6da 543f 2dae 5d3e 2802 2abf
00000020: 43ba 71bd c374 a0bd 4c55 943d 9f55 c33c
00000030: 743b 373d e3e3 cd3c 5d68 e7bd 6d21 14bd
00000040: 0777 84bd f861 233e 396f 27be 139f 893d
00000050: 2f4f dfbe 0636 00be ec35 f03e d03d 1cbe
00000060: c5a0 243e ae1d 26bd d5d6 4c3c d24b 0c3f
00000070: d497 863d eb62 2abd 1192 9b3d dd9c eb3e
00000080: 0adc 2f3f

deqdss.f.update_list.0.mlp.0.weight f4 [10, 33]
-0.16102926 0.49027088 0.10085109 -0.3899682 -0.08600013 -0.15244867 0.6154884 -0.29000807
-0.10317266 -0.1520671 0.054569658 0.053804934 0.08801219 0.22261535 -0.090590246 -0.16852072
-0.22068927 0.41126975 0.24890682 0.18926992 -0.6448747 0.09431677 0.103835575 -0.16722661
0.3502162 0.22741757 -0.3507544 0.539221 0.17763624 0.17509854 -0.051444024 0.24271984
-0.11357795 0.009502792 -0.34337994 -0.24700321 -0.24599792 0.032131825 1.0600102 0.564006
-0.35678512 -0.4587649 0.32395554 0.29926673 -0.22817264 -0.10606302 0.2822748 -0.18242025
-0.09450523 0.34232017 -0.23092048 -0.16883588 -0.22076564 -0.41167995 -0.1487513 0.08904567
0.01802884 0.07500214 -0.07925719 0.08632095 0.20348349 -0.050734308 0.29256085 0.032119144
0.23753762 -0.38409147 -0.15392081 0.36091468 -0.33406454 -0.21617916 0.26032928 0.054749716
-0.2962835 -0.25894374 0.18065462 0.21513432 -0.11505827 -0.37219587 -0.39193654 0.2801813
0.050930075 0.17892066 0.06069197 0.29648265 0.08206392 0.064071536 0.1477374 -0.27710178
-0.29563677 0.3789685 0.0075063216 0.09963183 -0.029226407 -0.022121074 -0.16312292 -0.42062482
0.111964166 -0.057808124 0.25265825 -0.43610245 0.4616024 -0.79377955 0.23718567 0.55597425
0.3305669 0.30156246 -0.1643136 0.91980094 -0.441372 0.08352945 -0.45625088 -0.09057397
-0.22870821 0.60421246 0.87093526 1.4686099 -0.20295191 0.13421372 0.17622659 -0.059521444
0.34329432 -0.26560724 0.45924312 0.22982967 -0.5511742 -1.049309 0.13127556 -0.609021
-0.71105075 0.045873016 0.14356095 -0.41292024 -0.087256424 -0.016135817 0.008897009 0.27084506
-0.0006062685 -0.10690503 -0.038077414 0.37201825 0.120398715 0.111015745 0.14187525 0.18635403
0.07118777 0.38818178 0.23276825 -0.14158908 0.20943211 -0.112436734 0.32092324 -0.4626754
0.19769278 0.054202415 -0.011361531 0.48832723 -0.44000557 -0.059448954 -0.12550585 -0.26115286
0.24120887 0.19838175 -0.24135344 0.20422138 0.19892935 -0.26694447 -0.39002636 -2.0145133
0.5854215 0.57583827 -0.25942072 -0.2336435 1.4609077 -0.15024285 0.35422713 0.032776408
0.12268822 0.09996577 -0.48458064 0.024095949 -0.284844 -0.19540216 -0.4332088 -0.41026002
-0.03641317 0.5455324 0.7101529 -0.7382047 -0.23468842 0.4235126 -0.66078883 0.47177586
-0.38729373 -0.13233338 0.3470088 -0.05740783 -0.39147595 -0.33414084 -0.37030092 0.11022426
-0.528907 -0.06738755 0.230869 -0.0026895397 0.16889714 0.032346927 0.584704 -0.23271684
-0.07607285 0.036760353 0.21705867 0.28056747 0.035996027 -0.19451055 0.28846076 -0.22966507
0.1664248 -0.03896848 -0.08273086 0.28042024 -0.3459148 0.20013008 0.23997003 -0.14796014
0.13449748 -0.52279615 -0.23393239 0.100957 -0.0024568746 0.26996532 0.17178877 0.37796545
-0.5512488 0.47483414 -0.63982624 0.017978752 0.21054442 0.23940325 0.11723599 -0.20943445
-0.4342466 -0.11067088 -0.07071482 -0.15503718 0.13682422 -0.34992194 0.053165227 -0.4704782
0.3576224 -0.043678176 -0.40449965 0.23524892 0.1875129 0.20462732 -0.4294748 -0.45014706
00000000: dbe4 24be c904 fb3e 048b ce3d e9a9 c7be
00000010: d620 b0bd 811b 1cbe a690 1d3f f07b 94be
00000020: 304c d3bd 7ab7 1bbe 6f84 5f3d 9062 5c3d
00000030: bc3f b43d 47f5 633e 6187 b9bd b290 2cbe
00000040: 5efc 61be f391 d23e 6ee1 7e3e f9cf 413e
00000050: 8216 25bf 2729 c13d bfa7 d43d 743d 2bbe
00000060: 8a4f b33e 27e0 683e 1596 b3be 630a 0a3f
00000070: 46e6 353e 084d 333e f8b6 52bd 8d8b 783e
00000080: 8e9b e8bd 99b1 1b3c 7fcf afbe 69ee 7cbe
00000090: e1e6 7bbe a99c 033d 6aae 873f b262 103f
000000a0: 8aac b6be 3ce3 eabe 80dd a53e 7d39 993e
000000b0: 17a6 69be 9237 d9bd 5386 903e 60cc 3abe
000000c0: f58b c1bd 9744 af3e 6b76 6cbe 50e3 2cbe
000000d0: 6310 62be b7c7 d2be 4352 18be 945d b63d
000000e0: 38b1 933c b99a 993d 9851 a2bd 0ac9 b03d
000000f0: fa5d 503e c7ce 4fbd 89ca 953e 5d8f 033d
00000100: 103d 733e a3a7 c4be 6b9d 1dbe cfc9 b83e
00000110: 820a abbe 125e 5dbe e149 853e 3d41 603d
00000120: 79b2 97be 4694 84be 86fd 383e 2c4c 5c3e
00000130: aca3 ebbd 7590 bebe e8ab c8be ec73 8f3e
00000140: 0e9c 503d fa36 373e 2598 783d 93cc 973e
00000150: 2111 a83d f037 833d 7948 173e 49e0 8dbe
00000160: b45d 97be 2908 c23e 97f7 f53b c60b cc3d
00000170: 386c efbc 4137 b5bc b209 27be 235c d7be
00000180: 784d e53d 36c8 6cbd 6c5c 813e d248 dfbe
00000190: 2657 ec3e 2335 4bbf cde0 723e 5454 0e3f
000001a0: 1140 a93e 6566 9a3e d341 28be 1378 6b3f
000001b0: 83fb e1be 7d11 ab3d b799 e9be d87e b9bd
000001c0: 7c32 6abe abad 1a3f 9df5 5e3f 69fb bb3f
000001d0: a0d2 4fbe 526f 093e be74 343e c2cc 73bd
000001e0: 46c4 af3e acfd 87be ea21 eb3e 7858 6b3e
000001f0: c119 0dbf c24f 86bf 1a6d 063e cde8 1bbf
00000200: 6c07 36bf 58e5 3b3d a401 133e 486a d3be
00000210: 7fb3 b2bd 432f 84bc c3c4 113c 34ac 8a3e
00000220: feed 1eba 06f1 dabd 10f7 1bbd 2d79 be3e
00000230: 9a93 f63d 395c e33d bf47 113e 97d3 3e3e
00000240: e5ca 913d c3bf c63e cd5a 6e3e bafc 10be
00000250: 5f75 563e 3b45 e6bd 0d50 a43e cae3 ecbe
00000260: fa6f 4a3e 5a03 5e3d b725 3abc 0706 fa3e
00000270: 6948 e1be bf80 73bd 9b84 00be d4b5 85be
00000280: 75ff 763e 9624 4b3e 5b25 77be 691f 513e
00000290: 23b4 4b3e f2ac 88be 89b1 c7be c9ed 00c0
000002a0: 2fde 153f 236a 133f cbd2 84be 3e40 6fbe
000002b0: 06ff ba3f 43d9 19be 425d b53e 8e40 063d
000002c0: f643 fb3d dbba cc3d f41a f8be de64 c53c
000002d0: 13d7 91be 8117 48be 8bcd ddbe 9a0d d2be
000002e0: fa25 15bd 03a8 0b3f 95cc 353f fcfa 3cbf
000002f0: 2952 70be a5d6 d83e 7529 29bf 9b8c f13e
00000300: 5d4b c6be 6782 07be 23ab b13e 7924 6bbd
00000310: 896f c8be 8214 abbe 1598 bdbe 42bd e13d
00000320: 7366 07bf 7c02 8abd ec68 6c3e fd42 30bb
00000330: 5ff3 2c3e 367e 043d 29af 153f 534d 6ebe
00000340: 15cc 9bbd 0692 163d a144 5e3e 8aa6 8f3e
00000350: 9270 133d c62d 47be 21b1 933e 522d 6bbe
00000360: 436b 2a3e 6a9d 1fbd cc6e a9bd 3e93 8f3e
00000370: bf1b b1be e6ee 4c3e b4ba 753e dd82 17be
00000380: b5b9 093e f8d5 05bf f98b 6fbe 8bc2 ce3d
00000390: 8403 21bb e538 8a3e 65e9 2f3e b084 c13e
000003a0: a41e 0dbf 761d f33e a7cb 23bf 2d48 933c
000003b0: f598 573e 2026 753e 6c19 f03d fc75 56be
000003c0: 9255 debe 6aa7 e2bd eed2 90bd 11c2 1ebe
000003d0: a61b 0c3e f828 b3be c8c3 593d 85e2 f0be
000003e0: 491a b73e e3e7 32bd 941a cfbe 18e5 703e
000003f0: 6203 403e d389 513e 1fe4 dbbe ad79 e6be

deqdss.f.update_list.0.mlp.0.bias f4 [10]
0.22536574 -0.39336517 -0.06773708 -0.23787874 -0.09849488 -0.22985782 -0.0010644934 1.0637034
0.7940816 -0.12838513
00000000: 47c6 663e 2967 c9be bdb9 8abd 7c96 73be
00000010: afb7 c9bd d95f 6bbe 7986 8bba 6f27 883f
00000020: ef48 4b3f 6477 03be

deqdss.f.update_list.0.mlp.2.weight f4 [10, 10]
0.14262259 0.1146208 0.49250707 -0.13792725 -0.29730254 -0.081280895 -0.29456776 0.56637514
0.60123575 -0.57445705 0.08693952 -0.017164854 0.20962785 -0.17785859 -0.0761711 0.088818625
-0.03368638 0.57490724 -0.1748932 -0.1055339 -0.029220063 0.12970705 -0.40868205 0.19986734
0.047802452 -0.16140199 -0.35726148 0.8007824 0.84632266 -0.38506398 -0.42103854 0.38007817
-0.24854724 0.38102517 0.23098384 0.10229413 -0.18918918 0.28901938 0.41966093 0.26881608
-0.5563536 0.22736864 -0.12041459 0.721027 -0.18631709 1.0928476 -0.29204884 -1.2031883
-1.2425761 0.22183996 0.16511258 -0.12198471 0.39514938 0.2709879 0.34504342 0.2185539
-0.38458902 0.38410258 0.07556706 -0.22021024 0.13654083 -0.5752259 0.29549763 -0.06852868
0.013564254 0.25353572 -0.07784879 0.68222505 0.18363175 -0.31081933 -0.28963995 0.19689588
0.20130822 -0.09048397 0.11904315 0.17282996 0.0065345066 0.23047316 0.09581988 -0.20677102
0.19192636 0.19934703 0.5737448 -0.100406796 0.03887971 0.4356411 0.385507 0.12685813
-0.2718294 -0.11756833 -0.826232 0.12515292 0.14165568 0.44446012 0.21820958 0.15165408
0.03628274 0.117165096 0.5296091 0.03669134
00000000: a80b 123e 4fbe ea3d e329 fc3e cd3c 0dbe
00000010: 0a38 98be 9976 a6bd 96d1 96be f6fd 103f
00000020: 96ea 193f 9e0f 13bf 590d b23d 4f9d 8cbc
00000030: afa8 563e 9020 36be 98ff 9bbd 8ae6 b53d
00000040: bbfa 09bd 1f2d 133f 3417 33be 2822 d8bd
00000050: ea5e efbc edd1 043e c63e d1be 06aa 4c3e
00000060: 81cc 433d 9046 25be faea b6be 1300 4d3f
00000070: 9aa8 583f 1b27 c5be 5d92 d7be 9b99 c23e
00000080: 2b83 7ebe bb15 c33e 0787 6c3e 967f d13d
00000090: cfba 41be 59fa 933e ccdd d63e 43a2 893e
000000a0: 316d 0ebf 53d3 683e ed9b f6bd 3a95 383f
000000b0: e8c9 3ebe 6ee2 8b3f 6d87 95be 1302 9abf
000000c0: bc0c 9fbf 042a 633e 4613 293e 1fd3 f9bd
000000d0: 0551 ca3e edbe 8a3e 88a9 b03e 98cc 5f3e
000000e0: dae8 c4be 18a9 c43e e7c2 9a3d cb7e 61be
000000f0: 5cd1 0b3e 0142 13bf 774b 973e c458 8cbd
00000100: 9b3c 5e3c 6fcf 813e 306f 9fbd 4da6 2e3f
00000110: f609 3c3e b623 9fbe b04b 94be 139f 493e
00000120: be23 4e3e a94f b9bd e5cc f33d 56fa 303e
00000130: 6a1f d63b 2801 6c3e 373d c43d c8bb 53be
00000140: 5888 443e a121 4c3e f0e0 123f 14a2 cdbd
00000150: 5540 1f3d 5a0c df3e 2c61 c53e 19e7 013e
00000160: 392d 8bbe aac7 f0bd f183 53bf 1628 003e
00000170: 300e 113e 4790 e33e 5572 5f3e 354b 1b3e
00000180: 369d 143d 41f4 ef3d 7694 073f a949 163d

deqdss.f.update_list.0.mlp.2.bias f4 [10]
0.55497277 -0.04910529 0.78691643 -0.083261065 -1.0975894 -0.03841255 0.13109784 0.12688422
0.13539454 0.074679434
00000000: b212 0e3f a122 49bd 5b73 493f c784 aabd
00000010: cf7d 8cbf 7a56 1dbd 833e 063e f0ed 013e
00000020: dea4 0a3e 88f1 983d

deqdss.f.phi_neumann.mlp.mlp.0.weight f4 [10, 23]
-0.027942715 0.10603901 -0.2775152 0.13273042 -0.24136591 -0.23296873 0.2082062 -0.16682532
0.29498932 -0.392495 0.36291233 0.5198238 0.20696096 -0.31308883 0.07797069 0.48462847
-0.5336854 0.06799118 -0.2190202 -1.0439775 -0.0017778524 -0.003179879 -0.02100373 -0.058883995
-0.16651212 -0.15725064 -0.0051438324 -0.20882228 -0.11343357 0.39408228 -0.43132538 0.06754962
-0.9645059 0.18136027 -0.29993898 0.52505404 0.22212854 0.058036085 0.41161677 -0.35348248
0.04578055 -0.7533451 1.134523 -0.0017143246 -0.00038334017 0.03434473 0.13755377 -0.057539344
0.51765555 -0.5088404 0.11133137 0.16259074 -0.5101639 0.186237 -0.5800969 -0.021826034
0.057626255 0.0857032 0.22118287 -0.11639225 0.2702781 -0.024906827 -0.019911734 0.4107225
-0.5085245 0.025312198 0.077342875 -0.044640962 -0.2200026 0.09582054 0.97920805 0.5934024
-0.27175564 -0.0026883981 0.44315544 -0.033138536 -0.39238498 -0.70972526 0.22427116 0.1816762
0.45793396 -0.089578465 1.1075789 0.6415934 0.5425555 0.0786366 -0.8320663 -0.82358307
-0.39369813 -0.0005387013 0.0028200212 -0.16543044 -0.1845421 0.18978713 -0.10434598 0.19577962
-0.4350348 -0.36062956 -0.04093991 -0.15915689 -0.106339425 -0.1776072 0.7763151 0.4746041
0.18129712 0.35488775 0.74495745 0.50447875 -0.2208412 -0.3423046 -0.32771936 -0.7830915
-0.002361418 -0.0026718213 -0.050901126 -0.030435432 -0.048228823 0.27776384 -0.12265873 -0.26013714
-0.3616898 0.34882426 0.32535592 -0.14381991 0.13876218 0.8206489 1.0404274 -0.10907962
0.31791928 0.52507997 0.10717334 -0.5203414 -0.44046992 -0.38545522 -0.7398281 -0.0020573388
-9.5909934e-05 0.005857427 -0.25724858 -0.48057324 -0.002485765 -0.19337034 0.20162235 -0.08054476
0.17619659 -0.055247072 -0.16235273 -0.08703379 -0.08940763 0.6227322 0.22328788 -0.2197496
-0.36237454 0.7651035 0.14603832 -0.30504304 -0.3751396 -0.9348367 -0.00038094798 0.004238353
0.039429925 -0.124821894 0.22152285 -0.12837163 0.06311168 -0.034125857 -0.0061817397 0.11353115
-0.076055445 0.35986447 -0.2827432 0.4545743 -1.1044343 -0.2638976 -0.37446186 0.13845712
-0.6000576 -0.43352374 -0.10841403 -0.4323138 1.2969075 0.013965986 0.0030745056 -0.048190594
-0.026614862 0.0032405483 0.26076582 -0.24527965 -0.35506085 0.15236413 0.025366798 0.025332065
-0.14657669 0.09010838 -0.08960319 0.035658926 0.44947198 -0.3490838 -0.45867756 0.097083904
-0.13611926 0.33912674 -0.034167767 -0.047303576 -0.030154416 0.029280046 -0.36363846 -0.24433072
-0.36027646 -0.033367973 -0.08177325 -0.15622932 -0.3851214 0.19393316 -0.16012327 -0.09590735
-0.46409735 0.66076005 0.25969127 0.42393026 0.04114575 0.074796714 0.12599014 -0.33095676
-0.31226623 -1.3183846 0.46248153 -0.0025047145 0.00026033862 -0.0036423032
00000000: 1fe8 e4bc fb2a d93d 7916 8ebe 7cea 073e
00000010: a028 77be 5b8f 6ebe 0234 553e 42d4 2abe
00000020: d708 973e 1bf5 c8be a5cf b93e 2c13 053f
00000030: 93ed 533e 2e4d a0be 19af 9f3d 3921 f83e
00000040: 9b9f 08bf f63e 8b3d d546 60be 0ea1 85bf
00000050: d406 e9ba 8465 50bb 0410 acbc 5830 71bd
00000060: 2782 2abe 5006 21be 988d a8bb 82d5 55be
00000070: dc4f e8bd 27c5 c93e aed6 dcbe 7557 8a3d
00000080: dce9 76bf 82b6 393e 9a91 99be f169 063f
00000090: aa75 633e 3fb7 6d3d 6fbf d23e a8fb b4be
000000a0: 6384 3b3d 39db 40bf 0d38 913f 30b3 e0ba
000000b0: 0cfb c8b9 0fad 0c3d e5da 0c3e 60ae 6bbd
000000c0: 1385 043f 5d43 02bf b401 e43d 307e 263e
000000d0: 1a9a 02bf eab4 3e3e 3b81 14bf 83cc b2bc
000000e0: 8209 6c3d 2985 af3d c37d 623e 0f5f eebd
000000f0: e461 8a3e 6709 ccbc ef1d a3bc 384a d23e
00000100: a92e 02bf 875b cf3c f165 9e3d 71d9 36bd
00000110: 5d48 61be 8f3d c43d 61ad 7a3f 38e9 173f
00000120: 8e23 8bbe d62f 30bb 45e5 e23e 46bc 07bd
00000130: afe6 c8be 8eb0 35bf 57a7 653e 5309 3a3e
00000140: 5276 ea3e ea74 b7bd 25c5 8d3f 773f 243f
00000150: ebe4 0a3f 3a0c a13d 4c02 55bf 57d6 52bf
00000160: cd92 c9be a237 0dba 1bd0 383b 9966 29be
00000170: 9bf8 3cbe 8f57 423e 58b3 d5bd 747a 483e
00000180: e2bc debe 70a4 b8be 9bb0 27bd 06fa 22be
00000190: 7cc8 d9bd a9de 35be 96bc 463f 4fff f23e
000001a0: f4a5 393e d9b3 b53e 88b5 3e3f 8525 013f
000001b0: 3224 62be 8c42 afbe d5ca a7be af78 48bf
000001c0: 05c2 1abb b919 2fbb b37d 50bd ba53 f9bc
000001d0: 968b 45bd 1037 8e3e 8034 fbbd b230 85be
000001e0: 682f b9be 1899 b23e 0d95 a63e 8745 13be
000001f0: ac17 0e3e 0c16 523f ba2c 853f 2365 dfbd
00000200: 51c6 a23e a46b 063f b27d db3d 1835 05bf
00000210: 4685 e1be 635a c5be 6065 3dbf 6bd4 06bb
00000220: 4123 c9b8 a9ef bf3b 16b6 83be b20d f6be
00000230: 37e8 22bb e002 46be 1776 4e3e a7f4 a4bd
00000240: e16c 343e c14a 62bd cb3f 26be c63e b2bd
00000250: 591b b7bd 616b 1f3f 94a5 643e 0a06 61be
00000260: 2889 b9be d3dd 433f 128b 153e 9a2e 9cbe
00000270: 4c12 c0be 7551 6fbf f9b9 c7b9 e2e1 8a3b
00000280: 4681 213d 9fa2 ffbd e3d6 623e da73 03be
00000290: b240 813d 8ec7 0bbd 3190 cabb 0583 e83d
000002a0: f5c2 9bbd 2840 b83e b7c3 90be f6bd e83e
000002b0: 1a5e 8dbf 961d 87be 77b9 bfbe b4c7 0d3e
000002c0: 609d 19bf d3f6 ddbe 2d08 debd 3c58 ddbe
000002d0: 1101 a63f 97d1 643c a57d 493b 8063 45bd
000002e0: 6907 dabc 615f 543b 1983 853e 972a 7bbe
000002f0: 89ca b5be 5805 1c3e 08ce cf3c 3185 cf3c
00000300: 3318 16be be8a b83d e181 b7bd 180f 123d
00000310: 3121 e63e 1dbb b2be c9d7 eabe edd3 c63d
00000320: d962 0bbe 05a2 ad3e 80f3 0bbd 65c1 41bd
00000330: 6506 f7bc b5dc ef3c d22e babe d531 7abe
00000340: 2876 b8be dbac 08bd bc78 a7bd 94fa 1fbe
00000350: a22e c5be 6a96 463e 5bf7 23be 136b c4bd
00000360: 2b9e edbe 9227 293f 41f6 843e 630d d93e
00000370: 7288 283d 052f 993d 8f03 013e 2a73 a9be
00000380: 5ce1 9fbe d4c0 a8bf 61ca ec3e 2326 24bb
00000390: 0f7e 8839 b5b3 6ebb

deqdss.f.phi_neumann.mlp.mlp.0.bias f4 [10]
0.22458416 0.18468823 -0.48408762 -0.8465161 -0.60974896 -0.6050214 -0.09068704 0.077540904
0.31007862 0.5805516
00000000: 64f9 653e e91e 3d3e 55da f7be 47b5 58bf
00000010: 8218 1cbf afe2 1abf 20ba b9bd c4cd 9e3d
00000020: a0c2 9e3e 089f 143f

deqdss.f.phi_neumann.mlp.mlp.2.weight f4 [10, 10]
-0.39205053 0.3804758 -0.01444963 0.26719522 -0.25593653 -0.29722363 -0.93555856 0.5627272
-0.2105227 -0.21709907 -0.56388074 0.42405358 -0.42388943 -0.2984947 -0.050488237 -0.3794305
0.4130748 -0.43979675 0.08814536 -0.14132601 -0.70588905 0.035588138 0.45421675 1.2696171
0.76145434 1.0818518 0.54867 0.50442487 -0.028474055 0.44226223 0.13391016 -0.35083446
0.08146837 -0.6484855 -0.3623929 -0.45979497 -0.35311303 -0.63859266 0.40319505 1.2979132
0.2734344 0.36541253 -0.100391254 -0.4738612 0.27088025 0.21898781 0.24687761 0.7428098
-0.037689634 -0.6687267 0.17870314 0.101282045 0.3290162 -0.36773375 -0.5036942 0.21089251
0.10357154 0.292492 -0.31863114 0.0103292605 -0.48309553 0.29155013 -0.17177609 0.92632675
-0.04121043 0.5742168 -0.8404946 -0.42905268 -0.3323817 -0.032766733 -0.39894977 0.43508375
0.04300204 -0.54163516 -0.46973357 -0.35291067 -0.50518984 0.57623494 0.24423733 0.07291156
-0.09291238 0.35176268 0.42300013 -1.3327525 -0.08771622 -0.091204144 -0.051114302 0.4960599
0.6650465 -0.12091868 -0.6250211 0.39372432 -0.110301055 0.16730103 0.40229237 0.0684245
0.0086056655 -0.34593797 -0.06371659 0.2025595
00000000: d9ba c8be b9cd c23e 24be 6cbc d0cd 883e
00000010: 1d0a 83be b22d 98be c480 6fbf e40e 103f
00000020: 4393 57be 384f 5ebe 7d5a 10bf 8d1d d93e
00000030: 0908 d9be 4cd4 98be c1cc 4ebd b744 c2be
00000040: 8a7e d33e 0a2d e1be 8e85 b43d c4b7 10be
00000050: 25b5 34bf dec4 113d 198f e83e d082 a23f
00000060: acee 423f 1f7a 8a3f a375 0c3f fd21 013f
00000070: 6c42 e9bc 3270 e23e bf1f 093e 93a0 b3be
00000080: e4d8 a63d 2503 26bf 908b b9be 3f6a ebbe
00000090: 3bcb b4be cf7a 23bf 956f ce3e 0522 a63f
000000a0: 98ff 8b3e 5a17 bb3e ee99 cdbd ef9d f2be
000000b0: d1b0 8a3e 573e 603e 7ccd 7c3e c828 3e3f
000000c0: 7260 1abd ac31 2bbf f5fd 363e f66c cf3d
000000d0: d074 a83e 9947 bcbe 1af2 00bf 35f4 573e
000000e0: 511d d43d 83c1 953e 9f23 a3be 0f3c 293c
000000f0: 4c58 f7be 0f46 953e 12e6 2fbe c023 6d3f
00000100: 45cc 28bd dfff 123f a72a 57bf cbac dbbe
00000110: ef2d aabe 6936 06bd 2543 ccbe 4cc3 de3e
00000120: e822 303d 9aa8 0abf eb80 f0be b5b0 b4be
00000130: 1f54 01bf 2284 133f 5a19 7a3e a852 953d
00000140: d948 bebd 3d1a b43e 7993 d83e a297 aabf
00000150: 90a4 b3bd 3dc9 babd 3b5d 51bd 90fb fd3e
00000160: 7d40 2a3f 37a4 f7bd 6201 20bf 3c96 c93e
00000170: 85e5 e1bd f650 2b3e 44f9 cd3e 2522 8c3d
00000180: c7fe 0c3c c81e b1be d87d 82bd c26b 4f3e

deqdss.f.phi_neumann.mlp.mlp.2.bias f4 [10]
-0.06411925 -1.0489074 -0.061929423 1.29734 -0.6434668 0.75591755 0.278246 0.42799672
-0.5938659 -0.12113018
00000000: f450 83bd 9942 86bf b5a9 7dbd 3d0f a63f
00000010: 3dba 24bf d083 413f 4276 8e3e 6322 db3e
00000020: 9807 18bf 1a13 f8bd

deqdss.f.update_neumann.mlp.0.weight f4 [10, 25]
-0.26944736 0.3664052 0.2284296 0.15746081 0.39223757 0.16642572 0.20138027 0.28623068
0.4218274 -1.4337085 -0.15800874 -0.03139288 -0.44841713 0.64015734 0.104100615 0.27839136
-0.5098624 -0.09604247 0.11688027 -0.3820016 0.05560397 0.1450932 0.03942165 -0.0048990757
0.013153264 -0.27868244 -0.03458862 -0.2439587 -0.28124124 0.2647763 0.687954 0.5208163
-0.7482223 0.6844439 -0.8199412 -0.7183838 -0.7039983 -0.43562093 0.1498434 -0.095724225
0.48409072 -0.9005538 -0.36953756 -0.39864662 -0.68509585 0.6222448 0.26201048 -0.0025236977
0.0006842837 0.00022511392 -0.78526187 -0.5208217 -0.6868728 0.71285665 -0.13301587 -1.2243026
0.4433535 -0.046359602 0.22987598 -0.009632525 -0.2922041 -0.7759097 -0.008146524 1.0337192
-1.0288426 0.42753744 0.16782902 0.59122205 -0.66056585 -0.4342463 0.6354746 0.71172833
0.016034061 -0.032027237 0.011401544 -0.0021441763 0.47077423 0.2569848 -0.43601704 0.070362315
0.30691642 0.13848768 0.25558957 -0.110692345 0.016174396 0.37869892 0.40728587 0.12857251
-0.13159561 0.24043298 0.18559894 -0.24481513 0.12900572 0.650883 -0.3516296 -0.0156171145
-0.35136566 -0.016496746 -0.044271745 0.029181443 0.16193622 -0.26235014 -0.35773167 -0.301592
-0.00674156 0.24914403 -0.29019785 0.03331134 -0.18535125 0.17172374 0.27824512 0.32723594
-0.09170244 -0.3367939 -0.19393577 -0.21665516 -0.08043488 -0.22196881 0.34070754 0.103286326
0.39302722 -0.11359927 -0.10441562 0.39871415 -0.36091667 0.4195871 -0.3227675 -0.27723545
0.07351533 0.104274005 0.24987106 -0.14527372 -0.26358035 -0.3602041 0.018619535 0.15231235
-0.25933656 -0.34121597 -0.007131243 -0.17130154 -0.25037837 -0.1907469 -0.116152465 0.32071805
0.34485283 -0.070944615 -0.0077100713 -0.005655302 -0.025498124 -0.059505634 -0.27439505 -0.4796344
-0.30520898 0.21025154 -0.09669912 -1.0796746 0.36839458 0.010336454 0.1737272 0.9490424
0.001248299 -0.28321686 0.22528118 0.21769565 -0.3756436 0.5638873 -0.093390845 0.36686414
-0.37344244 -0.031835366 0.13730927 0.22541063 -0.0021197838 -0.0088913385 0.0060861274 -0.6023147
-0.15750855 0.027802525 -0.01595757 0.06467035 -0.4026928 0.30178413 0.39346978 0.73825896
-0.041866317 -0.27348632 -0.56989306 -0.2323328 0.48692214 -0.34213147 0.31659824 0.24593695
-0.04869604 0.14380896 0.25654647 0.8352994 0.27579403 -0.06669293 0.0471928 -0.026194647
0.1162875 0.4181397 0.21251713 0.15906076 -0.25402233 0.96534157 0.21347676 -0.19425358
0.035260547 -0.4618232 -0.4114661 -0.24772477 0.20438191 -0.025572358 0.51179415 0.09213723
-0.3745219 -0.80359906 -0.091221064 -0.20754085 -0.30270696 -0.49043277 -0.01681884 -0.021658374
-0.0003260489 0.30851027 -0.19669962 -0.6094582 0.5353603 -0.07365354 -0.7084747 -0.2705795
0.47184458 -0.036744446 1.6786054 0.10573921 -0.3667594 0.41183197 0.031437397 -0.14035857
0.2882021 -0.46968126 0.5571089 0.26616848 -0.23406214 -0.1335252 0.35018405 0.00070184114
0.0014259652 -0.0016008909
00000000: 01f5 89be 7699 bb3e 73e9 693e 683d 213e
00000010: 5dd3 c83e 816b 2a3e a136 4e3e d48c 923e
00000020: c3f9 d73e c383 b7bf 0bcd 21be d295 00bd
00000030: ee96 e5be 5ae1 233f b432 d53d 5089 8e3e
00000040: 5886 02bf eab1 c4bd ec5e ef3d b795 c3be
00000050: fdc0 633d 5093 143e 9978 213d 6d88 a0bb
00000060: ca80 573c 77af 8ebe ccac 0dbd 4fd0 79be
00000070: dafe 8fbe c290 873e c11d 303f 3854 053f
00000080: 7f8b 3fbf b737 2f3f abe7 51bf 00e8 37bf
00000090: 3c39 34bf b509 dfbe 8c70 193e 100b c4bd
000000a0: bdda f73e b28a 66bf 0734 bdbe 691b ccbe
000000b0: 7162 2fbf 6f4b 1f3f 3d26 863e 9f64 25bb
000000c0: 8061 333a 8f0c 6c39 ec06 49bf 9254 05bf
000000d0: e5d6 2fbf c67d 363f 5035 08be f3b5 9cbf
000000e0: 3bff e23e 91e3 3dbd 9c64 6b3e bdd1 1dbc
000000f0: c79b 95be 05a2 46bf 0079 05bc e950 843f
00000100: 1db1 83bf 30e6 da3e 5fdb 2b3e 545a 173f
00000110: d81a 29bf 8855 debe 77ae 223f d433 363f
00000120: dd59 833c fe2e 03bd 8bcd 3a3c 4f85 0cbb
00000130: 5209 f13e 8393 833e a03d dfbe 1e1a 903d
00000140: 2624 9d3e b7cf 0d3e a3dc 823e abb2 e2bd
00000150: 2b80 843c d3e4 c13e c687 d03e 83a8 033e
00000160: 00c1 06be 1034 763e a60d 3e3e d1b0 7abe
00000170: 131a 043e 45a0 263f cc08 b4be edde 7fbc
00000180: 33e6 b3be 2f24 87bc 4a56 35bd ec0d ef3c
00000190: 9cd2 253e c252 86be 9b28 b7be 446a 9abe
000001a0: 4ee8 dcbb 9d1f 7f3e d094 94be 7971 083d
000001b0: b8cc 3dbe 59d8 2f3e 2576 8e3e 788b a73e
000001c0: 7dce bbbd 4070 acbe 1997 46be dada 5dbe
000001d0: 0bbb a4bd cb4b 63be 3871 ae3e c887 d33d
000001e0: dd3a c93e bca6 e8bd dbd7 d5bd 4324 cc3e
000001f0: 12ca b8be 1fd4 d63e c841 a5be cef1 8dbe
00000200: 358f 963d 9c8d d53d 33de 7f3e a2c2 14be
00000210: 01f4 86be ac6c b8be ff87 983c c5f7 1b3e
00000220: c3c7 84be dcb3 aebe 34ad e9bb ac69 2fbe
00000230: 9831 80be 2853 43be 58e1 edbd 2835 a43e
00000240: 8d90 b03e 694b 91bd c4a4 fcbb 1d50 b9bb
00000250: 71e1 d0bc 2ebc 73bd 827d 8cbe a492 f5be
00000260: 5a44 9cbe 2e4c 573e 300a c6bd c732 8abf
00000270: 379e bc3e 3b5a 293c 8be5 313e 71f4 723f
00000280: f79d a33a cd01 91be 1cb0 663e 9ceb 5e3e
00000290: 5c54 c0be eb5a 103f b343 bfbd 9ed5 bb3e
000002a0: d933 bfbe cd65 02bd cd9a 0c3e 0bd2 663e
000002b0: 12ec 0abb faac 11bc 236e c73b 4c31 1abf
000002c0: ec49 21be 1fc2 e33c 73b9 82bc e371 843d
000002d0: c02d cebe 7383 9a3e df74 c93e 8afe 3c3f
000002e0: 047c 2bbd 6606 8cbe 83e4 11bf a6e8 6dbe
000002f0: dc4d f93e db2b afbe 2a19 a23e e5d6 7b3e
00000300: 8075 47bd a842 133e 0f5a 833e 2ed6 553f
00000310: e034 8d3e 4e96 88bd 3d4d 413d 2896 d6bc
00000320: 2428 ee3d 6816 d63e 179e 593e d3e0 223e
00000330: 370f 82be a020 773f a799 5a3e 69ea 46be
00000340: 5d6d 103d 1774 ecbe afab d2be 90ab 7dbe
00000350: 7e49 513e 1f7d d1bc f104 033f 72b2 bc3d
00000360: 56c1 bfbe abb8 4dbf 1cd2 babd 9785 54be
00000370: 68fc 9abe 011a fbbe aac7 89bc e76c b1bc
00000380: 8bf1 aab9 0ff5 9d3e a06b 49be 7405 1cbf
00000390: 5f0d 093f abd7 96bd 995e 35bf 6589 8abe
000003a0: 9d95 f13e 5881 16bd 8bdc d63f cd8d d83d
000003b0: e3c7 bbbe a4db d23e 80c4 003d 28ba 0fbe
000003c0: 3a8f 933e 107a f0be b09e 0e3f 3c47 883e
000003d0: fcad 6fbe d4ba 08be 534b b33e c3fb 373a
000003e0: 74e7 ba3a fcd4 d1ba

deqdss.f.update_neumann.mlp.0.bias f4 [10]
0.21740538 0.3248351 1.1400647 -0.3495133 -0.032165673 -0.13316238 0.43830442 0.7760083
-0.39490232 0.06155158
00000000: 849f 5e3e c950 a63e a4ed 913f 68f3 b2be
00000010: 27c0 03bd b85b 08be 7069 e03e 7ba8 463f
00000020: a330 cabe 821d 7c3d
