mixed/psignn/results/best_model/ckpt/running_model.pt (torch, 99269 bytes, 90 tensors)

autoencoder.encoder.mlp.mlp.0.weight f4 [10, 1]
0.0038316045 -0.0033266149 0.0041222963 -0.07290635 0.1027395 0.060363904 0.002104178 -0.035129875
-0.011995429 0.009219232
00000000: a81b 7b3b 5603 5abb 5414 873b ed4f 95bd
00000010: 1669 d23d 2440 773d 40e6 093b 58e4 0fbd
00000020: 7a88 44bc 430c 173c

autoencoder.encoder.mlp.mlp.0.bias f4 [10]
-0.18248567 -0.30730417 -0.15818879 -1.0262517 -1.7244446 0.8430671 -0.1352269 -1.248532
-0.38797292 -0.3440655
00000000: 86dd 3abe f956 9dbe 3efc 21be 375c 83bf
00000010: 9aba dcbf 3fd3 573f ec78 0abe e6cf 9fbf
00000020: 63a4 c6be 5a29 b0be

autoencoder.encoder.mlp.mlp.2.weight f4 [10, 10]
-0.1576833 0.5165198 0.120110184 -0.11219736 -0.3982608 -0.00494764 0.14367549 0.30541772
0.35860375 0.2934253 0.02837247 0.32175243 -0.19619547 -0.22059278 -0.71306944 0.23280197
0.17579077 0.054228358 0.37918827 0.08316946 0.42446795 0.22598818 0.3451017 0.10927349
0.035890684 -0.0454938 -0.13253538 -0.45584375 0.11455316 0.37510487 -0.5088237 -0.41197988
0.4631903 0.2495139 0.76386744 -0.08870951 -0.46079713 -0.59907866 -0.404482 -0.08777555
-0.20897125 0.27276754 -0.056513555 0.08688013 0.23083097 0.047018673 0.1263576 -0.032909404
0.34287408 0.20360592 0.2369611 -0.21297485 0.29158622 -0.026547516 0.34320295 0.15224402
0.031840853 0.2638105 0.12090726 0.21898471 -0.074720725 0.397883 0.078241 -0.020483233
0.016791055 -0.011618592 0.28343567 0.05367121 -0.38331938 -0.16367145 0.112737924 -0.11016386
0.06300083 0.060474437 -0.045965757 -0.06244193 0.04343714 -0.10031338 -0.27004597 0.019916525
0.023261312 -0.31491825 0.16998486 -0.053755622 0.06650235 0.2831225 0.04382631 0.15857115
-0.3346925 -0.27541575 -0.014699561 -0.50877273 -0.11871095 0.38900453 -0.23938553 -0.92748445
0.24758726 0.06323699 0.15672709 -0.015080852
00000000: bb77 21be a43a 043f 54fc f53d bbc7 e5bd
00000010: d7e8 cbbe d01f a2bb ab1f 133e b65f 9c3e
00000020: e99a b73e d73b 963e 626d e83c bcbc a43e
00000030: 77e7 48be 13e3 61be b88b 36bf a463 6e3e
00000040: 7f02 343e 8e1e 5e3d f724 c23e c054 aa3d
00000050: dd53 d93e 7269 673e 2cb1 b03e c8ca df3d
00000060: 1c02 133d b557 3abd 5bb7 07be 5a64 e9be
00000070: d99a ea3d bf0d c03e 4542 02bf 07ef d2be
00000080: 4727 ed3e 9280 7f3e d18c 433f 55ad b5bd
00000090: 9aed ebbe 385d 19bf 4418 cfbe abc3 b3bd
000000a0: 8ffc 55be 30a8 8b3e c27a 67bd 36ee b13d
000000b0: f45e 6c3e a796 403d e363 013e 03cc 06bd
000000c0: 318d af3e 127e 503e eea5 723e 1416 5abe
000000d0: ca4a 953e 2d7a d9bc 4cb8 af3e dbe5 1b3e
000000e0: 8e6b 023d 2b12 873e 3a9e f73d 873d 603e
000000f0: 2e07 99bd 52b7 cb3e d13c a03d 74cc a7bc
00000100: 658d 893c e85b 3ebc 7b1e 913e 58d6 5b3d
00000110: 7042 c4be 7d99 27be 24e3 e63d 979d e1bd
00000120: 9406 813d 0bb4 773d 9746 3cbd 1cc3 7fbd
00000130: 24eb 313d 1a71 cdbd 7743 8abe fb27 a33c
00000140: 828e be3c f73c a1be 8310 2e3e db2e 5cbd
00000150: 6232 883d 6ff5 903e 3883 333d 7a60 223e
00000160: d15c abbe 4b03 8dbe 6dd6 70bc ee3e 02bf
00000170: ba1e f3bd 9a2b c73e 7b21 75be 9f6f 6dbf
00000180: 8487 7d3e 6582 813d 117d 203e ae15 77bc

autoencoder.encoder.mlp.mlp.2.bias f4 [10]
0.53953576 -0.13036214 -0.06040653 -0.20884481 0.6012917 -0.05662492 -0.23037392 -0.30787447
-0.100300096 -0.53672934
00000000: 041f 0a3f a77d 05be d66c 77bd 6adb 55be
00000010: 41ee 193f 88ef 67bd 24e7 6bbe b9a1 9dbe
00000020: 236a cdbd 1867 09bf

autoencoder.decoder.mlp.mlp.0.weight f4 [10, 10]
-1.2032712 -0.015660241 -0.089388475 -0.8799533 1.1579112 -1.0908227 -0.7728594 2.4787145
0.6843603 -0.020998593 0.27315843 2.1883147 0.045341574 0.17163426 0.22619142 2.5132794
1.2434283 -0.8292667 1.6148975 -1.9965132 0.4460821 -2.3727782 0.46401876 0.80243325
0.9257502 -0.3323557 -1.2175452 0.04086463 -1.0737231 3.098598 0.4724427 -0.6201174
-0.5671557 0.44384107 0.9316532 -0.62743264 0.56404006 -1.4343877 0.107218504 1.2469745
-0.5277384 0.046490844 -0.65560067 0.9460218 0.8666996 -0.75728 0.5551797 0.07124461
0.8877824 1.1583011 0.20319352 -0.28640527 -0.175769 0.2346962 -0.16369464 -1.0142995
-0.21950535 1.0038006 -0.12764354 -0.26166585 0.3249625 -1.0702145 0.5490628 0.66656035
0.62217015 -0.73632705 -0.32508907 -0.47787976 -0.33204156 3.195683 -0.11477035 -1.5976224
0.5238923 -0.657272 0.7378371 -0.3081788 -1.1416888 1.2249067 -0.5818105 2.4477856
-0.36551154 0.57269055 -0.02782181 0.3597631 -0.1973565 1.8866593 0.6078254 -1.09161
1.0146244 -1.5109341 0.80454457 -1.5171392 0.5291519 -0.024212886 0.16597737 -0.26713997
0.13409433 -1.1048064 -0.5693295 0.8179313
00000000: ca04 9abf e849 80bc 4e11 b7bd 9f44 61bf
00000010: 6f36 943f 14a0 8bbf 1dda 45bf 42a3 1e40
00000020: 3d32 2f3f 3e05 acbc 6cdb 8b3e 590d 0c40
00000030: 16b8 393d e4c0 2f3e b99e 673e 92d9 2040
00000040: a928 9f3f d34a 54bf f6b4 ce3f bf8d ffbf
00000050: df64 e43e 99db 17c0 de93 ed3e 446c 4d3f
00000060: f7fd 6c3f 872a aabe 85d8 9bbf ac61 273d
00000070: c26f 89bf 6e4f 4640 02e4 f13e 04c0 1ebf
00000080: 1e31 11bf 233f e33e d380 6e3f 6d9f 20bf
00000090: ee64 103f 049a b7bf 6095 db3d dc9c 9f3f
000000a0: dd19 07bf 2f6d 3e3d 72d5 27bf 7c2e 723f
000000b0: 06e0 5d3f 1add 41bf 4220 0e3f b2e8 913d
000000c0: b545 633f 3643 943f f611 503e b6a3 92be
000000d0: cafc 33be 3354 703e 919f 27be 91d4 81bf
000000e0: 03c6 60be 8a7c 803f fdb4 02be 11f9 85be
000000f0: 7c61 a63e cafc 88bf 618f 0c3f b3a3 2a3f
00000100: 8b46 1f3f ee7f 3cbf 1372 a6be a8ac f4be
00000110: 5a01 aabe 1286 4c40 b80c ebbd e47e ccbf
00000120: ce1d 063f fa42 28bf e4e2 3c3f 9dc9 9dbe
00000130: dc22 92bf bec9 9c3f 88f1 14bf 85a8 1c40
00000140: 5424 bbbe d99b 123f 91ea e3bc de32 b83e
00000150: d317 4abe 0d7e f13f 729a 1b3f e0b9 8bbf
00000160: 36df 813f 4a66 c1bf a2f6 4d3f 9e31 c2bf
00000170: 8076 073f 1a5a c6bc f9f5 293e 92c6 88be
00000180: 0650 093e 4c6a 8dbf 94bf 11bf f263 513f

autoencoder.decoder.mlp.mlp.0.bias f4 [10]
-1.4444779 -0.9679019 0.6664868 2.0652196 0.7228518 -0.8101234 0.9718795 0.6567319
-0.3544048 1.977195
00000000: a7e4 b8bf 6bc8 77bf e19e 2a3f 8f2c 0440
00000010: d10c 393f 3f64 4fbf 18cd 783f 951f 283f
00000020: 8c74 b5be ba14 fd3f

autoencoder.decoder.mlp.mlp.2.weight f4 [1, 10]
-1.3251443 2.0448983 -1.9896008 -2.1832316 -1.3181702 -0.55678463 -1.72759 -1.91776
1.870898 -2.5475
00000000: 549e a9bf 9ddf 0240 3dab febf 11ba 0bc0
00000010: cdb9 a8bf 7089 0ebf ab21 ddbf 2979 f5bf
00000020: 9679 ef3f 3d0a 23c0

deqdss.f.laynorm.weight f4 [10]
0.21642262 0.8617302 0.27370495 0.40625492 0.04693125 0.74666506 0.08524336 0.43210122
0.69158006 1.3938944
00000000: e49d 5d3e 5a9a 5c3f 0e23 8c3e a500 d03e
00000010: fb3a 403d 7125 3f3f 1294 ae3d 5f3c dd3e
00000020: 640b 313f 226b b23f

deqdss.f.laynorm.bias f4 [10]
0.36442703 -0.24695633 -0.3874816 -0.28251255 0.77034414 -0.26406586 -0.30419934 -0.28430718
0.05204671 -0.2794306
00000000: 2e96 ba3e 1fe2 7cbe fd63 c6be 7ca5 90be
00000010: 4635 453f a433 87be 04c0 9bbe b690 91be
00000020: ee2e 553d 8711 8fbe

deqdss.f.phi_to_list.0.mlp.mlp.0.weight f4 [10, 23]
-0.057275858 -0.12298201 0.119107336 0.10582812 0.14243054 -0.3914703 -0.45251474 0.12297683
-0.3360743 0.12186037 -0.17391811 -0.2869597 0.09881379 -0.43266636 -0.1853082 -0.46394023
-0.07414825 0.28935552 -0.44644284 0.31021467 -0.21277744 -0.0044811233 -0.04752443 0.07104635
-0.41858298 -0.35424823 -0.027410133 -0.19769229 -0.720265 -0.505647 0.41452956 0.15854225
0.35294744 -0.3950535 -0.060662396 -0.5739115 0.42530733 0.37238532 -0.43795243 0.36734676
0.440514 0.39210832 -0.042447086 0.15824893 0.018382872 -0.11720706 -0.016848624 -0.06600187
-0.029583983 0.2380809 -0.011027757 -0.024505492 0.3208268 0.120385125 0.012901921 -0.119900204
0.07157167 0.09828053 0.11559873 -0.17873596 0.31481338 0.48183104 0.5308586 -0.2269692
0.32061246 -0.10325691 -0.025059754 -0.0027786621 -0.015246112 0.36856452 -0.02090193 -0.0064189727
-0.023116179 -0.026675636 -0.41476697 -0.06788198 0.24986832 -0.22868206 -0.26621112 -0.6702888
-0.57960683 -0.395738 -0.18385608 0.21480656 -0.6827127 0.09920547 0.3599337 0.03827482
0.48752674 -0.05853734 -0.010959736 0.0403524 -0.22295466 -0.7198966 -0.12559456 0.57282436
0.3443885 -0.26225007 0.12014798 -0.23535675 0.12109493 0.76638967 0.41218337 0.04258807
-0.43388754 0.5474265 -0.34832862 -0.76976967 -0.13155177 -0.45917183 -0.14278577 -0.32277954
-0.04490848 0.020880325 0.0121384375 0.30743656 -0.65403116 -0.11583318 -0.054454625 0.15409729
-0.150904 -0.26928997 0.028297385 -0.51912516 0.76103926 0.07343856 -0.22518574 0.095675915
-0.4190036 -0.1191869 -0.27640477 0.0381039 0.08879606 -0.2363541 0.3686044 0.030147938
0.0026729426 -0.004495235 0.057272375 0.35857138 0.23077905 -0.17866287 -0.3822174 0.23018348
0.02981228 -0.29802346 0.39732987 -0.42255035 -0.11636937 -0.220413 0.10295267 0.14736037
0.06325481 -0.008967595 0.025978595 0.26966572 0.049802817 -0.7366261 -0.017189026 -0.0026914517
-0.0012601207 -0.02382602 0.40548405 -0.11225463 0.04549882 -0.16419517 -0.067903176 -0.10117259
-0.0494699 -0.15376665 0.035487853 0.21840933 0.081780955 0.048736524 -0.06388741 -0.33533958
0.19208248 0.44922912 -0.4723012 -0.0178767 0.18482679 -0.06906374 -0.01232915 -0.0046938844
-0.31578717 -0.063673325 0.09264279 0.12178991 0.23689274 -0.23682576 -0.25522023 0.2360735
0.298053 0.7359541 -0.08028391 0.16858175 -0.3685796 0.44592544 0.45141572 -0.45238605
0.055350658 0.35054937 0.08968624 -0.041278344 -0.08926577 -0.028662272 0.35155797 -0.37418482
0.34522355 -0.24392983 0.3959623 0.22187792 -0.22649817 0.08766239 -0.0001681501 0.37222135
-0.06279814 -0.28384608 -0.16870786 -0.29391024 0.79382193 0.32866445 -0.09893389 -0.46508506
-0.39118657 0.19458473 -0.40590608 -0.05051092 -0.010808131 -0.04741218
00000000: 179a 6abd fedd fbbd 8cee f33d 6abc d83d
00000010: 50d9 113e cc6e c8be 03b0 e7be 47db fb3d
00000020: ee11 acbe ee91 f93d 9717 32be 62ec 92be
00000030: e25e ca3d 7286 ddbe 6fc1 3dbe 9389 edbe
00000040: 0adb 97bd 6826 943e 2894 e4be 75d4 9e3e
00000050: 54e2 59be 63d6 92bb faa8 42bd c080 913d
00000060: 8250 d6be 0660 b5be 378b e0bc d96f 4abe
00000070: 4963 38bf 1572 01bf 383d d43e e658 223e
00000080: 87b5 b43e 7444 cabe 2279 78bd ddeb 12bf
00000090: e2c1 d93e 4aa9 be3e 4d3b e0be e014 bc3e
000000a0: 0d8b e13e 6cc2 c83e ffdc 2dbd 020c 223e
000000b0: ad97 963c 410a f0bd 2006 8abc fd2b 87bd
000000c0: 1c5a f2bc 7bcb 733e c4ad 34bc bebf c8bc
000000d0: 6943 a43e 7a8c f63d 9462 533c 3d8e f5bd
000000e0: 2b94 923d 4d47 c93d 07bf ec3d 8f06 37be
000000f0: 382f a13e 8fb2 f63e 59e6 073f 9d6a 68be
00000100: 5127 a43e 5c78 d3bd 1d4a cdbc 371a 36bb
00000110: d4ca 79bc 7db4 bc3e 863a abbc 3f56 d2bb
00000120: 245e bdbc dd86 dabc 565c d4be b505 8bbd
00000130: 7bdd 7f3e a12b 6abe d34c 88be 0c98 2bbf
00000140: 1d61 14bf 2c9e cabe c544 3cbe 40f6 5b3e
00000150: 42c6 2ebf 3d2c cb3d 3b49 b83e 0fc6 1c3d
00000160: 1b9d f93e dac4 6fbd 7790 33bc 8f48 253d
00000170: 3a4e 64be 254b 38bf dc9b 00be 9ea4 123f
00000180: b153 b03e a445 86be 2510 f63d 5c01 71be
00000190: 9e00 f83d 1d32 443f b309 d33e d470 2e3d
000001a0: 8226 debe 2524 0c3f 2158 b2be a00f 45bf
000001b0: 82b5 06be 9218 ebbe 6f36 12be 5c43 a5be
000001c0: f4f1 37bd 370d ab3c 4ce0 463c 5368 9d3e
000001d0: 966e 27bf f239 edbd d00b 5fbd aecb 1d3e
000001e0: 9486 1abe 60e0 89be ebcf e73c 63e5 04bf
000001f0: 78d3 423f f566 963d 1797 66be bcf1 c33d
00000200: a487 d6be 4318 f4bd ed84 8dbe d612 1c3d
00000210: b5da b53d cf06 72be b7b9 bc3e cff8 f63c
00000220: 892c 2f3b c44c 93bb 7096 6a3d ab96 b73e
00000230: 5851 6c3e 66f3 36be 00b2 c3be 38b5 6b3e
00000240: e238 f43c 8896 98be d26e cb3e 8558 d8be
00000250: 1053 eebd f2b3 61be d9d8 d23d a3e5 163e
00000260: bd8b 813d d2ec 12bc 10d1 d43c a011 8a3e
00000270: 0afe 4b3d 8793 3cbf 00d0 8cbc 1163 30bb
00000280: a22a a5ba c92e c3bc 9b9b cf3e c1e5 e5bd
00000290: f85c 3a3d c722 28be d210 8bbd 9333 cfbd
000002a0: f3a0 4abd 0175 1dbe b65b 113d b2a6 5f3e
000002b0: c67c a73d f39f 473d 67d7 82bd a1b1 abbe
000002c0: 45b1 443e 5c01 e63e 76d1 f1be 2872 92bc
000002d0: 3c43 3d3e 4a71 8dbd 3400 4abc 28cf 99bb
000002e0: dbae a1be 2967 82bd 81bb bd3d fd6c f93d
000002f0: 0394 723e 7482 72be 3aac 82be 40bd 713e
00000300: 679a 983e 7d67 3c3f e46b a4bd b2a0 2c3e
00000310: 77b6 bcbe 5750 e43e f61f e73e 259f e7be
00000320: 5fb7 623d 357b b33e 6bad b73d 7b13 29bd
00000330: f9d0 b6bd 24cd eabc 68ff b33e 2795 bfbe
00000340: 24c1 b03e bec8 79be 92bb ca3e f733 633e
00000350: 23ef 67be 5788 b33d 7351 30b9 cc93 be3e
00000360: 509c 80bd 4654 91be c1c1 2cbe 677b 96be
00000370: ea37 4b3f b546 a83e da9d cabd a11f eebe
00000380: 9b49 c8be 3841 473e ecd2 cfbe 8ae4 4ebd
00000390: 9614 31bc 4633 42bd

deqdss.f.phi_to_list.0.mlp.mlp.0.bias f4 [10]
0.015992519 -0.24621765 0.49087155 -0.121345825 -0.66500205 -0.07489021 -0.1924665 0.39832768
-0.12898229 -0.7843201
00000000: be02 833c 7b20 7cbe 8453 fb3e 2984 f8bd
00000010: 933d 2abf 0a60 99bd f015 45be 9bf1 cb3e
00000020: ef13 04be 34c9 48bf

deqdss.f.phi_to_list.0.mlp.mlp.2.weight f4 [10, 10]
0.21011938 0.40840092 -0.040554885 -0.004181825 0.36568472 -0.16914871 0.028064534 0.38971424
-0.05154733 0.13077572 0.09049622 -0.13924971 0.18045498 0.07888766 1.1459686 0.5353805
-0.560382 0.33540347 0.013958086 0.5604532 -0.29313585 0.30804336 -0.04991922 -0.17607512
0.034015227 0.113113336 0.03129316 0.0005232943 -0.18416686 -0.32397157 0.29025182 -0.008653332
0.5551321 0.33332774 -0.52489454 -0.54629654 -0.017661856 0.006198607 -0.4022369 -0.37374818
0.11024191 -0.27436918 -0.089822926 -0.30939442 -0.3014402 0.21225768 0.048099864 0.30231068
0.41645864 0.28541133 -0.5097268 -0.28422904 -0.08076266 0.0105770845 -0.745011 -0.09047207
0.328141 -0.22883381 0.49542928 -0.1670888 0.3188705 0.020601314 -0.3880118 0.19864829
0.38079765 -0.11501101 0.37131774 0.53570956 0.06920538 0.07182108 -0.053255398 0.18046516
0.4774637 -0.2613331 0.34822682 -0.34533072 0.21240918 0.57402104 0.23008637 -0.2859865
-0.19201516 0.11289358 0.26459685 -0.56040686 -0.018957088 0.16366142 0.40560502 -0.28009897
-0.24813832 0.2985316 0.18557948 0.018018395 -0.3520128 0.01810068 0.1017465 0.3573381
0.19138333 0.36293966 -0.06378475 0.7944066
00000000: 8929 573e ed19 d13e e11c 26bd b107 89bb
00000010: 073b bb3e 5235 2dbe 98e7 e53c a088 c73e
00000020: 4b23 53bd 12ea 053e 1556 b93d 7a97 0ebe
00000030: 31c9 383e da8f a13d 19af 923f b20e 093f
00000040: 3275 0fbf 01ba ab3e 75b0 643c dc79 0f3f
00000050: e715 96be dcb7 9d3e 1978 4cbd 094d 34be
00000060: 8d53 0b3d f7a7 e73d 422d 003d b02d 093a
00000070: 3d96 3cbe 9adf a5be e39b 943e b4c6 0dbc
00000080: 231d 0e3f efa9 aa3e 7d5f 06bf 17da 0bbf
00000090: 99af 90bc af1d cb3b fff1 cdbe ec5b bfbe
000000a0: 83c6 e13d 1e7a 8cbe 15f5 b7bd f268 9ebe
000000b0: 5f56 9abe 145a 593e 5d04 453d 77c8 9a3e
000000c0: 113a d53e 6f21 923e 757d 02bf 7886 91be
000000d0: e566 a5bd 824b 2d3c 0ab9 3ebf 6c49 b9bd
000000e0: 1902 a83e 6953 6abe e8a8 fd3e 5419 2bbe
000000f0: ff42 a33e 16c4 a83c 7ca9 c6be 756a 4b3e
00000100: e9f7 c23e e48a ebbd 5c1d be3e 4324 093f
00000110: 8dbb 8d3d ee16 933d 5522 5abd dccb 383e
00000120: 1f76 f43e 74cd 85be c94a b23e 30cf b0be
00000130: cb81 593e 0bf3 123f c39b 6b3e d36c 92be
00000140: 9f9f 44be c034 e73d 3d79 873e d376 0fbf
00000150: e54b 9bbc dc96 273e 76ab cf3e 2269 8fbe
00000160: f917 7ebe 22d9 983e 8c08 3e3e 509b 933c
00000170: 063b b4be e147 943c 7860 d03d 05f5 b63e
00000180: fef9 433e 3ad3 b93e 94a1 82bd 3b5e 4b3f

deqdss.f.phi_to_list.0.mlp.mlp.2.bias f4 [10]
-0.05685519 0.2808957 0.046822324 -0.03891449 -0.2912834 -0.2442533 -0.57795 0.6265689
-0.09631655 -0.046821874
00000000: fde0 68bd 90d1 8f3e c4c8 3f3d cd64 1fbd
00000010: 1923 95be 891d 7abe 88f4 13bf d266 203f
00000020: 9d41 c5bd 4bc8 3fbd

deqdss.f.phi_from_list.0.mlp.mlp.0.weight f4 [10, 23]
-0.036947437 -0.21341392 0.13905306 -0.035263367 0.19004266 -0.09925441 0.08755085 -0.21366931
-0.024039531 0.56160825 0.1308129 0.09559128 -0.30117205 0.06780114 -0.2601473 0.6714833
0.24465936 0.10191028 0.05757169 -0.4464939 0.0005900558 0.0011684998 -0.0476785 0.3189549
-0.21667013 0.20713577 0.55295104 -0.09541283 -0.25057703 0.117542684 0.019409748 -0.4205232
0.6976293 -0.29348153 0.3922453 -0.31265485 0.07126882 0.11115383 -0.7705464 0.3582023
-0.2328874 1.0653073 -0.59699166 -0.0020196748 8.295862e-05 0.00867551 0.10243315 -0.19515629
0.19818102 -0.13717 -0.20139422 -0.09489917 -0.08927124 0.14183754 -0.41088623 0.56547225
-0.18756928 -0.25647235 0.053274702 0.4838528 0.27002022 0.6923824 0.16208774 -0.20422891
0.19342455 -0.67788666 1.9957124e-05 5.750108e-05 -0.024949152 0.13997453 -0.1313972 0.050830856
-0.06729024 -0.12927192 0.19958127 -0.3605495 -0.063834645 -0.56067073 0.19915622 0.031056652
0.013994324 -0.26162374 -0.2061447 -0.49427986 0.39909425 0.37900436 0.034606837 0.3782873
-0.47357354 0.0047540204 -0.004000767 -0.07194168 0.069069795 0.76705843 -0.21477245 0.054047126
-0.27461195 -0.110240445 -0.033987768 0.117528416 0.07655931 -0.36187932 0.10294261 0.19343057
0.09728138 0.44218594 -0.06368692 -0.3982859 -0.114170976 0.3868092 -0.13279437 0.33154142
-0.07641699 -0.0014936577 -0.0023440847 -0.03554496 0.08303319 -0.025905682 0.2459332 0.18766366
0.37043747 0.35779777 0.15127622 -0.10734602 -0.45585048 -0.20401141 -0.0095173875 0.30374262
-0.0038261127 0.19808684 0.0337939 -0.12583256 0.0722138 -0.0317064 -0.77810687 -0.1843107
-0.023910122 0.09062051 0.008030915 -0.036875695 0.2429163 -0.21770605 -0.07190173 0.33106568
0.020801287 -0.26962066 0.11547167 -0.09717009 -0.17872998 -0.4865389 0.16173014 0.23969543
0.0561322 -0.011133106 -0.11395523 0.14247341 -0.36849585 0.22619577 0.0011439411 -0.0031242315
0.02570232 -0.035327867 0.5684889 0.2178711 -0.11870787 -0.19216037 0.4771824 0.27885947
-0.18495427 0.10541459 -0.867096 0.11957508 -0.46219712 -0.15917532 0.2978931 0.19063853
-0.008673279 0.1564253 -0.035056278 0.41312596 1.1309392 -0.00088612444 -0.0003153903 -0.035780437
0.23627794 0.5528682 -0.1612323 0.05929891 0.2345177 -0.78166187 -0.16043447 0.6093638
0.38326862 -0.6760351 0.40128103 -0.7347572 0.063230865 0.12539473 -0.025678834 -0.5983139
-0.20861492 0.34432647 -0.31050336 0.3881997 -0.0012410653 9.50379e-05 -0.04192777 -0.01559739
0.10988284 0.13230397 -0.3779899 -0.059619356 0.16304305 -0.31687635 -0.3746121 0.26465344
-0.34137875 0.11323453 0.22643459 -0.20048694 -0.088339604 0.004467077 0.16978398 -0.09965168
-0.16086884 0.2340707 -0.4221427 0.14252967 0.018422948 0.0043480094
00000000: 3256 17bd 2e89 5abe ed63 0e3e 5270 10bd
00000010: 8b9a 423e e545 cbbd dc4d b33d 21cc 5abe
00000020: 8dee c4bc 8fc5 0f3f d1f3 053e 5cc5 c33d
00000030: 3933 9abe 53db 8a3d 0732 85be 54e6 2b3f
00000040: fc87 7a3e 56b6 d03d 4bd0 6b3d d99a e4be
00000050: f9ad 1a3a 5928 993a 884a 43bd 0f4e a33e
00000060: c6de 5dbe 661b 543e 338e 0d3f cd67 c3bd
00000070: a24b 80be 38ba f03d 3101 9f3c d14e d7be
00000080: d597 323f 3643 96be 60d4 c83e 4c14 a0be
00000090: 63f5 913d 9fa4 e33d 8742 45bf 4b66 b73e
000000a0: 097a 6ebe fd5b 883f 72d4 18bf 855c 04bb
000000b0: 12fa ad38 ba23 0e3c 79c8 d13d 0dd7 47be
000000c0: f7ef 4a3e 4b76 0cbe 493a 4ebe 7f5a c2bd
000000d0: d7d3 b6bd dc3d 113e ae5f d2be cac2 103f
000000e0: 2912 40be 5850 83be 9336 5a3d 8ebb f73e
000000f0: 1740 8a3e f93f 313f 54fa 253e 6221 51be
00000100: 1611 463e fb89 2dbf 9969 a737 512d 7138
00000110: 2a62 ccbc 7c55 0f3e fd8c 06be 0434 503d
00000120: 77cf 89bd dc5f 04be 085f 4c3e f299 b8be
00000130: bdbb 82bd 1e88 0fbf 9cef 4b3e 856a fe3c
00000140: 7348 653c 8cf3 85be 9917 53be 4012 fdbe
00000150: 1556 cc3e dc0c c23e e6bf 0d3d dfae c13e
00000160: 3b78 f2be 9dc7 9b3b de18 83bb 2956 93bd
00000170: 7774 8d3d f15d 443f 4fed 5bbe 8560 5d3d
00000180: f099 8cbe bec5 e1bd c236 0bbd bdb2 f03d
00000190: 21cb 9c3d 3f48 b9be 93d3 d23d aa12 463e
000001a0: 763b c73d 3266 e23e 4a6e 82bd 21ec cbbe
000001b0: 79d2 e9bd db0b c63e 3ffb 07be ccbf a93e
000001c0: 8380 9cbd d6c6 c3ba 379f 19bb 9897 11bd
000001d0: 4e0d aa3d 2738 d4bc ead5 7b3e e72a 403e
000001e0: fba9 bd3e 4531 b73e 27e8 1a3e 3bd8 dbbd
000001f0: 3c65 e9be 5ee8 50be d1ee 1bbc 2784 9b3e
00000200: 85bf 7abb 47d7 4a3e 796b 0a3d 40da 00be
00000210: d4e4 933d 92de 01bd 0332 47bf f2bb 3cbe
00000220: 29df c3bc 3f97 b93d 1994 033c f80a 17bd
00000230: 0dbf 783e 56ee 5ebe 3741 93bd 7181 a93e
00000240: 7667 aa3c b80b 8abe 697c ec3d 1d01 c7bd
00000250: fe04 37be a01b f9be 969c 253e b872 753e
00000260: e1ea 653d a267 36bc 5c61 e9bd 8de4 113e
00000270: 7dab bcbe dd9f 673e 4bf0 953a e8bf 4cbb
00000280: ac8d d23c f4b3 10bd 7d88 113f 9a19 5f3e
00000290: 1d1d f3bd b0c5 44be 4051 f43e abc6 8e3e
000002a0: a764 3dbe 9be3 d73d 01fa 5dbf c8e3 f43d
000002b0: 1aa5 ecbe dbfe 22be 7285 983e bf36 433e
000002c0: 5e1a 0ebc f42d 203e 2c97 0fbd 3f85 d33e
000002d0: 9ec2 903f ce4a 68ba f85a a5b9 828e 12bd
000002e0: d8f2 713e c588 0d3f 141a 25be 6ae3 723d
000002f0: 6825 703e fe1a 48bf ef48 24be 44ff 1b3f
00000300: c93b c43e a310 2dbf b574 cd3e 0c19 3cbf
00000310: 2f7f 813d 7a67 003e 6b5c d2bc 1a2b 19bf
00000320: 269f 55be 8f4b b03e 4cfa 9ebe 1cc2 c63e
00000330: 3eab a2ba 164f c738 74bc 2bbd 328c 7fbc
00000340: 410a e13d b17a 073e e487 c1be 6d33 74bd
00000350: c2f4 263e 9e3d a2be 28cd bfbe a880 873e
00000360: 32c9 aebe 81e7 e73d 78de 673e 734c 4dbe
00000370: 65eb b4bd 8f60 923b dadb 2d3e 2e16 ccbd
00000380: cdba 24be 3bb0 6f3e 1723 d8be 4cf3 113e
00000390: b9eb 963c bf79 8e3b

deqdss.f.phi_from_list.0.mlp.mlp.0.bias f4 [10]
0.1518563 -0.0032613005 0.0068949787 0.202632 0.514062 0.084490426 0.6512524 0.2804891
-0.47794434 0.19319583
00000000: 3880 1b3e 8bbb 55bb 46ef e13b c37e 4f3e
00000010: 9199 033f 5109 ad3d 7ab8 263f 449c 8f3e
00000020: 1fb5 f4be 21d5 453e

deqdss.f.phi_from_list.0.mlp.mlp.2.weight f4 [10, 10]
0.001264381 0.4365925 -0.38961557 -0.09188996 -0.21046063 -0.50472814 0.5865798 0.6323334
-0.1074415 -0.5047348 0.452049 -0.2586455 0.55034137 0.033249404 0.5311322 -0.06196905
0.10050124 1.2774674 -0.037954915 0.07579995 0.4692571 0.6200025 -0.36576307 0.50289047
0.05283295 0.008595269 -0.5496981 -0.32611725 -0.030266823 -0.1089813 -0.7050373 0.12856631
0.46131653 -0.03799451 -0.44623774 -0.18675601 -0.924375 0.18459618 -0.18076085 -0.3958887
0.21134403 0.3198256 0.7712906 -0.31762803 0.4014361 0.06486696 -0.12027276 0.46905732
0.32010016 0.28760037 -0.19621961 0.6589507 0.18634681 0.089099854 0.25333527 -0.03280486
0.46390218 -0.9170983 -0.01789767 -0.025088668 -0.41507438 0.23294806 -0.6641752 -0.23822981
0.51981276 -0.30347723 0.11821556 0.5418523 0.506804 0.03310661 0.027451906 0.49862245
-0.34347937 0.2648306 0.21789487 0.19439097 0.08420866 -0.5774179 0.29634324 0.638647
-0.25092277 0.22313972 -1.0311266 -0.49549058 -0.06258137 0.1602192 -0.0263471 -0.22577561
-0.06067419 -0.08650527 -0.12074915 -0.46212566 0.04682796 0.24009521 -0.315494 -0.30448285
0.22060421 0.57932013 -0.4821591 0.35668018
00000000: 96b9 a53a 0d89 df3e b17b c7be ce30 bcbd
00000010: fe82 57be dd35 01bf 182a 163f 9ae0 213f
00000020: 4a0a dcbd 4d36 01bf f772 e73e 2f6d 84be
00000030: 2ce3 0c3f 8730 083d 48f8 073f 42d3 7dbd
00000040: 98d3 cd3d 0d84 a33f 9d76 1bbd 013d 9b3d
00000050: 7742 f03e 7cb8 1e3f 4c45 bbbe 6ebd 003f
00000060: 5d67 583d 2cd3 0c3c 04b9 0cbf d7f8 a6be
00000070: 21f2 f7bc 9631 dfbd 537d 34bf e3a6 033e
00000080: ae31 ec3e 22a0 1bbd 4679 e4be f83c 3fbe
00000090: d7a3 6cbf c806 3d3e 5f19 39be ecb1 cabe
000000a0: 926a 583e 2ec0 a33e 4d73 453f 24a0 a2be
000000b0: 0889 cd3e f8d8 843d 9151 f6bd 4828 f03e
000000c0: 2be4 a33e 5b40 933e cbed 48be feb0 283f
000000d0: b3d1 3e3e fc79 b63d 29b5 813e 645e 06bd
000000e0: 9684 ed3e f4c6 6abf 229e 92bc c086 cdbc
000000f0: a184 d4be f089 6e3e 6307 2abf 84f2 73be
00000100: 7312 053f 5e61 9bbe 001b f23d d5b6 0a3f
00000110: e8bd 013f cc9a 073d d2e2 e03c 714b ff3e
00000120: 87dc afbe e097 873e d51f 5f3e 6d0e 473e
00000130: 9775 ac3d a9d1 13bf 4dba 973e 5f7e 233f
00000140: f378 80be bd7e 643e f5fb 83bf f1b0 fdbe
00000150: a92a 80bd 8110 243e e0d5 d7bc b931 67be
00000160: 8085 78bd ad29 b1bd 554b f7bd bc9b ecbe
00000170: adce 3f3d 85db 753e 6e88 a1be 2de5 9bbe
00000180: 12e6 613e 534e 143f 8fdd f6be c99e b63e

deqdss.f.phi_from_list.0.mlp.mlp.2.bias f4 [10]
0.28301436 -0.24523285 0.20575193 -0.8290224 -0.26532945 0.85829717 0.1869106 0.08540908
0.12476612 -0.24794622
00000000: 42e7 903e 521e 7bbe a2b0 523e d03a 54bf
00000010: 43d9 87be 5db9 5b3f 7e65 3f3e f5ea ae3d
00000020: 6185 ff3d 9de5 7dbe

deqdss.f.alpha.0.weight f4 [1, 33]
-0.14670175 -0.04207988 0.15932049 -1.1591604 0.3831391 0.83145654 0.21649474 -0.6640821
-0.059027992 -0.07829009 0.072409 0.023855526 0.044732187 0.025142148 -0.113091074 -0.03618113
-0.06475228 0.1595936 -0.16354822 0.06717936 -0.43612778 -0.12525971 0.46916363 -0.15256427
0.16074204 -0.040562958 0.012519136 0.5479363 0.06582307 -0.041631564 0.07612416 0.4601811
0.686951
00000000: fc38 16be f45b 2cbd e924 233e 5e5f 94bf
00000010: cf2a c43e 56da 543f ccb0 5d3e 4901 2abf
00000020: 56c7 71bd 8e56 a0bd 2b4b 943d aa6c c33c
00000030: 1939 373d e8f6 cd3c 4b9c e7bd aa32 14bd
00000040: d89c 84bd 816c 233e 2f79 27be 5595 893d
00000050: 244c dfbe 1544 00be 3736 f03e cf39 1cbe
00000060: 9099 243e 5825 26bd 101d 4d3c 8e45 0c3f
00000070: 3fce 863d dc85 2abd fce6 9b3d db9c eb3e
00000080: 05dc 2f3f

deqdss.f.update_list.0.mlp.0.weight f4 [10, 33]
-0.16095641 0.4901771 0.10082476 -0.3900262 -0.08596717 -0.15269397 0.61542624 -0.29000473
-0.10334101 -0.15202828 0.054502618 0.053812858 0.08819866 0.22268285 -0.09067004 -0.16855158
-0.22076055 0.41133615 0.2489346 0.18914954 -0.64486283 0.094168395 0.10402256 -0.1672196
0.3501413 0.22741216 -0.35077462 0.53921604 0.17757125 0.17518859 -0.05141896 0.24276279
-0.11353261 0.009334843 -0.34309858 -0.24660511 -0.24594608 0.03190535 1.0606852 0.5644297
-0.35656452 -0.45930088 0.3241275 0.29950908 -0.22807497 -0.1060518 0.2822755 -0.18241152
-0.09462659 0.342302 -0.23091663 -0.1688737 -0.22079793 -0.41158387 -0.14892958 0.08949078
0.018116975 0.07478984 -0.07934691 0.08644994 0.20340055 -0.050492883 0.29206806 0.032411963
0.23747297 -0.384195 -0.15392081 0.36091468 -0.33406454 -0.21617916 0.26032928 0.054749716
-0.2962835 -0.25894374 0.18065462 0.21513432 -0.11505827 -0.37219587 -0.39193654 0.2801813
0.050930075 0.17892066 0.06069197 0.29648265 0.08206392 0.064071536 0.1477374 -0.27710178
-0.29563677 0.3789685 0.0075063216 0.09963183 -0.029226407 -0.022121074 -0.16312292 -0.42062482
0.111964166 -0.057808124 0.25265825 -0.43655705 0.4612223 -0.79347396 0.23760888 0.5555205
0.33024308 0.30196628 -0.16389473 0.9194701 -0.44096383 0.08325773 -0.45598286 -0.09018544
-0.22907624 0.6046605 0.870661 1.469495 -0.20334193 0.13385537 0.17586863 -0.059192874
0.34235352 -0.26543465 0.45964152 0.22939752 -0.5516036 -1.0489478 0.13093556 -0.60830045
-0.71197706 0.045371346 0.14355177 -0.41294205 -0.087256424 -0.016135817 0.008897009 0.27084506
-0.0006062685 -0.10690503 -0.038077414 0.37201825 0.120398715 0.111015745 0.14187525 0.18635403
0.07118777 0.38818178 0.23276825 -0.14158908 0.20943211 -0.112436734 0.32092324 -0.4626754
0.19769278 0.054202415 -0.011361531 0.48832723 -0.44000557 -0.059448954 -0.12550585 -0.26115286
0.24120887 0.19838175 -0.24135344 0.20422138 0.19892935 -0.26695314 -0.39002258 -2.0145128
0.5854292 0.57582957 -0.2594163 -0.23363616 1.4609141 -0.15023759 0.35422954 0.032793194
0.12268523 0.09996567 -0.48458064 0.024110697 -0.2848413 -0.19538678 -0.433221 -0.4102591
-0.036413297 0.5455274 0.71014297 -0.7381965 -0.23467742 0.42351106 -0.6607985 0.47176716
-0.38731936 -0.13231465 0.34701008 -0.057410188 -0.39147595 -0.33414084 -0.37030092 0.11022426
-0.528907 -0.06738755 0.230869 -0.0026895397 0.16889714 0.032346927 0.584704 -0.23271684
-0.07607285 0.036760353 0.21705867 0.28056747 0.035996027 -0.19451055 0.28846076 -0.22966507
0.1664248 -0.03896848 -0.08273086 0.28042024 -0.3459148 0.20013008 0.23997003 -0.14796014
0.13449748 -0.52279615 -0.23393239 0.100957 -0.0024568746 0.26996532 0.17178877 0.3780626
-0.5513206 0.47463134 -0.63984805 0.01816898 0.21052416 0.23927844 0.117083326 -0.20925827
-0.43437198 -0.11077429 -0.070671484 -0.15509763 0.13680229 -0.34989646 0.05312757 -0.47047433
0.3575786 -0.04371448 -0.40458292 0.23522374 0.18763974 0.20440151 -0.42952132 -0.45007774
00000000: c2d1 24be 7ef8 fa3e 367d ce3d 84b1 c7be
00000010: 8e0f b0bd cf5b 1cbe 938c 1d3f 807b 94be
00000020: 74a4 d3bd 4dad 1bbe 233e 5f3d df6a 5c3d
00000030: 80a1 b43d f906 643e 37b1 b9bd c998 2cbe
00000040: 0e0f 62be a79a d23e b6e8 7e3e 6bb0 413e
00000050: bb15 25bf 5cdb c03d c809 d53d 9d3b 2bbe
00000060: b845 b33e bcde 683e bb98 b3be 100a 0a3f
00000070: 3dd5 353e a364 333e b09c 52bd cf96 783e
00000080: c983 e8bd 2bf1 183c 9eaa afbe 0d86 7cbe
00000090: 4ad9 7bbe 2faf 023d 88c4 873f 777e 103f
000000a0: a08f b6be 7c29 ebbe 0af4 a53e 4159 993e
000000b0: 7c8c 69be b031 d9bd 6a86 903e 16ca 3abe
000000c0: 96cb c1bd 3542 af3e 6975 6cbe 3aed 2cbe
000000d0: da18 62be 1fbb d2be ff80 18be f146 b73d
000000e0: 0d6a 943c 6a2b 993d a280 a2bd ab0c b13d
000000f0: 3c48 503e a0d1 4ebd f289 953e 68c2 043d
00000100: 1d2c 733e 35b5 c4be 6b9d 1dbe cfc9 b83e
00000110: 820a abbe 125e 5dbe e149 853e 3d41 603d
00000120: 79b2 97be 4694 84be 86fd 383e 2c4c 5c3e
00000130: aca3 ebbd 7590 bebe e8ab c8be ec73 8f3e
00000140: 0e9c 503d fa36 373e 2598 783d 93cc 973e
00000150: 2111 a83d f037 833d 7948 173e 49e0 8dbe
00000160: b45d 97be 2908 c23e 97f7 f53b c60b cc3d
00000170: 386c efbc 4137 b5bc b209 27be 235c d7be
00000180: 784d e53d 36c8 6cbd 6c5c 813e 6884 dfbe
00000190: 5425 ec3e 1c21 4bbf be4f 733e 9736 0e3f
000001a0: 9f15 a93e 539b 9a3e 05d4 27be 6462 6b3f
000001b0: 03c6 e1be 0783 aa3d 9676 e9be 25b3 b8bd
000001c0: f692 6abe 08cb 1a3f a4e3 5e3f 6a18 bc3f
000001d0: de38 50be 6211 093e e816 343e 3a74 72bd
000001e0: f648 af3e 0de7 87be 2256 eb3e 2fe7 6a3e
000001f0: e535 0dbf ec43 86bf f913 063e 94b9 1bbf
00000200: 2144 36bf 4ed7 393d 3cff 123e 246d d3be
00000210: 7fb3 b2bd 432f 84bc c3c4 113c 34ac 8a3e
00000220: feed 1eba 06f1 dabd 10f7 1bbd 2d79 be3e
00000230: 9a93 f63d 395c e33d bf47 113e 97d3 3e3e
00000240: e5ca 913d c3bf c63e cd5a 6e3e bafc 10be
00000250: 5f75 563e 3b45 e6bd 0d50 a43e cae3 ecbe
00000260: fa6f 4a3e 5a03 5e3d b725 3abc 0706 fa3e
00000270: 6948 e1be bf80 73bd 9b84 00be d4b5 85be
00000280: 75ff 763e 9624 4b3e 5b25 77be 691f 513e
00000290: 23b4 4b3e 15ae 88be 0ab1 c7be c7ed 00c0
000002a0: b0de 153f 9169 133f 37d2 84be 513e 6fbe
000002b0: 3cff ba3f e2d7 19be 935d b53e 2852 063d
000002c0: 6542 fb3d cdba cc3d f41a f8be cc83 c53c
000002d0: b8d6 91be 7913 48be 25cf ddbe 7b0d d2be
000002e0: 1c26 15bd afa7 0b3f eecb 353f 72fa 3cbf
000002f0: 474f 70be 71d6 d83e 172a 29bf 778b f13e
00000300: b94e c6be 7e7d 07be 4eab b13e f226 6bbd
00000310: 896f c8be 8214 abbe 1598 bdbe 42bd e13d
00000320: 7366 07bf 7c02 8abd ec68 6c3e fd42 30bb
00000330: 5ff3 2c3e 367e 043d 29af 153f 534d 6ebe
00000340: 15cc 9bbd 0692 163d a144 5e3e 8aa6 8f3e
00000350: 9270 133d c62d 47be 21b1 933e 522d 6bbe
00000360: 436b 2a3e 6a9d 1fbd cc6e a9bd 3e93 8f3e
00000370: bf1b b1be e6ee 4c3e b4ba 753e dd82 17be
00000380: b5b9 093e f8d5 05bf f98b 6fbe 8bc2 ce3d
00000390: 8403 21bb e538 8a3e 65e9 2f3e 6c91 c13e
000003a0: 5923 0dbf e102 f33e 15cd 23bf 1dd7 943c
000003b0: a593 573e 6805 753e 62c9 ef3d cd47 56be
000003c0: 0166 debe a2dd e2bd 36bc 90bd ead1 1ebe
000003d0: e615 0c3e a125 b3be 4b9c 593d 03e2 f0be
000003e0: 8b14 b73e f40d 33bd 7e25 cfbe 7ede 703e
000003f0: a224 403e a14e 513e 38ea dbbe 9770 e6be

deqdss.f.update_list.0.mlp.0.bias f4 [10]
0.22541282 -0.39354387 -0.06773708 -0.23835184 -0.09849488 -0.22986762 -0.0010644934 1.0638454
0.7940717 -0.12827812
00000000: 9ed2 663e 957e c9be bdb9 8abd 8112 74be
00000010: afb7 c9bd 6b62 6bbe 7986 8bba 162c 883f
00000020: 4848 4b3f 575b 03be

deqdss.f.update_list.0.mlp.2.weight f4 [10, 10]
0.14261805 0.11428726 0.49250707 -0.1379292 -0.29730254 -0.08129356 -0.29456776 0.5664433
0.6012333 -0.57413787 0.08696222 -0.016895104 0.20962785 -0.17773297 -0.0761711 0.08878001
-0.03368638 0.5749113 -0.17485954 -0.105343826 -0.029224949 0.12949957 -0.40868205 0.19991602
0.047802452 -0.16141605 -0.35726148 0.80082667 0.8463576 -0.3849776 -0.42125556 0.37958857
-0.24854724 0.3810322 0.23098384 0.10231577 -0.18918918 0.28896564 0.4195494 0.26817992
-0.5563746 0.22739168 -0.12041459 0.72093 -0.18631709 1.0928489 -0.29204884 -1.203208
-1.2426132 0.2218897 0.16503662 -0.12183811 0.39514938 0.2711699 0.34504342 0.21853772
-0.38458902 0.38408685 0.07557841 -0.22101372 0.13655631 -0.5755761 0.29549763 -0.06865912
0.013564254 0.25350747 -0.07784879 0.68228495 0.1836036 -0.31037596 -0.28977883 0.19685271
0.20130822 -0.090738066 0.11904315 0.17274171 0.0065345066 0.23024961 0.095593356 -0.20663787
0.19200571 0.19951321 0.5737448 -0.100389846 0.03887971 0.43561286 0.385507 0.12695055
-0.2717705 -0.117322 -0.82622486 0.12509112 0.14165568 0.44450682 0.21820958 0.1516861
0.03628274 0.11715543 0.52960694 0.036586557
00000000: 770a 123e 700f ea3d e329 fc3e 503d 0dbe
00000010: 0a38 98be 3d7d a6bd 96d1 96be 6e02 113f
00000020: 6dea 193f b3fa 12bf 4019 b23d 9a67 8abc
00000030: afa8 563e a2ff 35be 98ff 9bbd 4bd2 b53d
00000040: bbfa 09bd 632d 133f 610e 33be 81be d7bd
00000050: 2969 efbc 899b 043e c63e d1be c9b6 4c3e
00000060: 81cc 433d 404a 25be faea b6be fa02 4d3f
00000070: e4aa 583f c91b c5be cfae d7be 6f59 c23e
00000080: 2b83 7ebe a716 c33e 0787 6c3e ee8a d13d
00000090: cfba 41be 4ef3 933e 2ecf d63e e14e 893e
000000a0: 916e 0ebf 5dd9 683e ed9b f6bd de8e 383f
000000b0: e8c9 3ebe 79e2 8b3f 6d87 95be b802 9abf
000000c0: f30d 9fbf 0e37 633e 5cff 283e 4286 f9bd
000000d0: 0551 ca3e c8d6 8a3e 88a9 b03e 5ac8 5f3e
000000e0: dae8 c4be 08a7 c43e dac8 9a3d 6c51 62be
000000f0: 6bd5 0b3e f558 13bf 774b 973e 279d 8cbd
00000100: 9b3c 5e3c bbcb 813e 306f 9fbd 3aaa 2e3f
00000110: 9502 3c3e 99e9 9ebe e45d 94be c293 493e
00000120: be23 4e3e e1d4 b9bd e5cc f33d 34e3 303e
00000130: 6a1f d63b 8ec6 6b3e 73c6 c33d e198 53be
00000140: 259d 443e 314d 4c3e f0e0 123f 3199 cdbd
00000150: 5540 1f3d a608 df3e 2c61 c53e 53ff 013e
00000160: 8125 8bbe 8446 f0bd 7983 53bf e317 003e
00000170: 300e 113e 6696 e33e 5572 5f3e 9a53 1b3e
00000180: 369d 143d 30ef ef3d 5294 073f c9db 153d

deqdss.f.update_list.0.mlp.2.bias f4 [10]
0.55437 -0.04880168 0.78665745 -0.08413791 -1.0977001 -0.038137987 0.13049243 0.12656206
0.13543345 0.07469037
00000000: 31eb 0d3f 45e4 47bd 6262 493f 7f50 acbd
00000010: 7081 8cbf 9436 1cbd cf9f 053e 7c99 013e
00000020: 11af 0a3e 44f7 983d

deqdss.f.phi_neumann.mlp.mlp.0.weight f4 [10, 23]
-0.027924204 0.106036484 -0.277397 0.13274385 -0.24137948 -0.23294514 0.20815518 -0.1667739
0.29499206 -0.39258674 0.36281168 0.5196328 0.2069187 -0.31285787 0.077957384 0.48446915
-0.53364086 0.06800832 -0.21883763 -1.0440041 -0.0017224308 -0.0031658155 -0.02104158 -0.05875704
-0.16672009 -0.15745454 -0.005065536 -0.20866251 -0.1139039 0.3939648 -0.43143618 0.06770867
-0.9645255 0.18158193 -0.30003586 0.5249896 0.22187373 0.058177564 0.4113518 -0.35367003
0.04560702 -0.7543347 1.134601 -0.0016918388 -0.00033246234 0.034163103 0.13755377 -0.057539344
0.51765555 -0.5088404 0.11133137 0.16259074 -0.5101639 0.186237 -0.5800969 -0.021826034
0.057626255 0.0857032 0.22118287 -0.11639225 0.2702781 -0.024906827 -0.019911734 0.4107225
-0.5085245 0.025312198 0.077342875 -0.044640962 -0.2200026 0.095484816 0.97983754 0.59366393
-0.2715116 -0.0030479946 0.44289818 -0.032795228 -0.39207754 -0.71006674 0.22458051 0.1812865
0.45789865 -0.08928627 1.107926 0.6412011 0.5423714 0.07899075 -0.8317767 -0.8239211
-0.39338198 -0.0005240954 0.0030921737 -0.16567536 -0.18463226 0.18974471 -0.104436204 0.19577263
-0.4350864 -0.3606391 -0.0408231 -0.15919922 -0.1062736 -0.17772508 0.77627033 0.47470388
0.18138196 0.3548428 0.7448411 0.50433004 -0.22083613 -0.3422547 -0.32790044 -0.7830455
-0.0023737953 -0.0026559918 -0.05087891 -0.030678462 -0.04803294 0.27764964 -0.12287768 -0.26030096
-0.36162898 0.34910467 0.32533607 -0.14381292 0.1387006 0.8205773 1.0414813 -0.108804755
0.31774577 0.5248077 0.10713327 -0.5202575 -0.4403278 -0.38586769 -0.73969996 -0.0020636155
-7.549753e-05 0.005857975 -0.25732452 -0.4805839 -0.0025125442 -0.19340552 0.20156759 -0.08053672
0.1762838 -0.055265367 -0.16230483 -0.08715212 -0.08947934 0.622714 0.22335337 -0.21972454
-0.36247897 0.7649482 0.14606313 -0.3049914 -0.37526807 -0.934799 -0.000372061 0.00428662
0.039416824 -0.12495228 0.22173755 -0.12826283 0.06261326 -0.034201864 -0.0056020585 0.113618106
-0.07606782 0.35986543 -0.28302673 0.4546334 -1.1038716 -0.26383895 -0.37511757 0.13836221
-0.59947145 -0.4334574 -0.10842546 -0.43246973 1.2965786 0.013998106 0.0030816593 -0.04822725
-0.026614862 0.0032405483 0.26076582 -0.24527965 -0.35506085 0.15236413 0.025366798 0.025332065
-0.14657669 0.09010838 -0.08960319 0.035658926 0.44947198 -0.3490838 -0.45867756 0.097083904
-0.13611926 0.33912674 -0.034167767 -0.047303576 -0.030154416 0.029280046 -0.36363846 -0.24424462
-0.36022988 -0.033296112 -0.08180109 -0.15617724 -0.38509586 0.19382194 -0.16008846 -0.09596622
-0.463983 0.6607965 0.2596043 0.4238504 0.041187294 0.07490505 0.12617056 -0.33096007
-0.31231648 -1.3182135 0.4624388 -0.0025031785 0.00025073296 -0.0036491186
00000000: 4dc1 e4bc a829 d93d fb06 8ebe 01ee 073e
00000010: 2f2c 77be 2c89 6ebe a226 553e c7c6 2abe
00000020: 3309 973e 2101 c9be 74c2 b93e a806 053f
00000030: 7fe2 533e e82e a0be 1fa8 9f3d 570c f83e
00000040: b09c 08bf f247 8b3d f916 60be eda1 85bf
00000050: 30c3 e1ba 9279 4fbb 645f acbc 39ab 70bd
00000060: acb8 2abe c33b 21be ccfc a5bb a0ab 55be
00000070: 7346 e9bd c1b5 c93e 34e5 dcbe d8aa 8a3d
00000080: 25eb 76bf 9df0 393e 4d9e 99be b865 063f
00000090: de32 633e 994b 6e3d b49c d23e 3d14 b5be
000000a0: 6dce 3a3d 141c 41bf 9b3a 913f b1c0 ddba
000000b0: 574e aeb9 9cee 0b3d e5da 0c3e 60ae 6bbd
000000c0: 1385 043f 5d43 02bf b401 e43d 307e 263e
000000d0: 1a9a 02bf eab4 3e3e 3b81 14bf 83cc b2bc
000000e0: 8209 6c3d 2985 af3d c37d 623e 0f5f eebd
000000f0: e461 8a3e 6709 ccbc ef1d a3bc 384a d23e
00000100: a92e 02bf 875b cf3c f165 9e3d 71d9 36bd
00000110: 5d48 61be 8b8d c33d a2d6 7a3f 5cfa 173f
00000120: 9203 8bbe ddc0 47bb 8dc3 e23e 4a54 06bd
00000130: 63be c8be efc6 35bf 6ff8 653e 2ba3 393e
00000140: b171 ea3e b8db b6bd 85d0 8d3f c125 243f
00000150: dad8 0a3f e7c5 a13d 51ef 54bf 7eec 52bf
00000160: 5d69 c9be 7263 09ba 11a6 4a3b cda6 29be
00000170: 3d10 3dbe 704c 423e a6e2 d5bd 9f78 483e
00000180: a5c3 debe b0a5 b8be 1f36 27bd 1f05 23be
00000190: f9a5 d9bd 90fd 35be a7b9 463f 630c f33e
000001a0: 31bc 393e f5ad b53e e8ad 3e3f c61b 013f
000001b0: de22 62be 023c afbe 91e2 a7be ab75 48bf
000001c0: ad91 1bbb 2610 2ebb 6766 50bd 6651 fbbc
000001d0: 30be 44bd 1828 8e3e 4ba7 fbbd 2b46 85be
000001e0: 6f27 b9be d9bd b23e 7392 a63e b243 13be
000001f0: 8807 0e3e 5b11 523f 424f 853f 07d5 debd
00000200: 93af a23e cc59 063f b068 db3d 982f 05bf
00000210: a572 e1be 7390 c5be fa5c 3dbf b93d 07bb
00000220: 6e54 9eb8 42f4 bf3b 0ac0 83be 180f f6be
00000230: 7fa9 24bb 190c 46be bc67 4e3e 70f0 a4bd
00000240: be83 343e f05d 62bd 3d33 26be d07c b2bd
00000250: f240 b7bd 2f6a 1f3f bfb6 643e 78ff 60be
00000260: d896 b9be a5d3 433f 9391 153e d527 9cbe
00000270: 2323 c0be fd4e 6fbf 2f11 c3b9 c676 8c3b
00000280: 8973 213d fbe6 ffbd 2b0f 633e 5557 03be
00000290: 613b 803d 4117 0cbd 7991 b7bb 9cb0 e83d
000002a0: 72c9 9bbd 4840 b83e e1e8 90be b6c5 e83e
000002b0: aa4b 8dbf e615 87be 690f c0be d3ae 0d3e
000002c0: f676 19bf 21ee ddbe 2b0e debd ac6c ddbe
000002d0: 4af6 a53f 5058 653c aaf5 493b f089 45bd
000002e0: 6907 dabc 615f 543b 1983 853e 972a 7bbe
000002f0: 89ca b5be 5805 1c3e 08ce cf3c 3185 cf3c
00000300: 3318 16be be8a b83d e181 b7bd 180f 123d
00000310: 3121 e63e 1dbb b2be c9d7 eabe edd3 c63d
00000320: d962 0bbe 05a2 ad3e 80f3 0bbd 65c1 41bd
00000330: 6506 f7bc b5dc ef3c d22e babe 431b 7abe
00000340: 0d70 b8be 8161 08bd 5487 a7bd edec 1fbe
00000350: 492b c5be 4279 463e 3bee 23be f089 c4bd
00000360: 2e8f edbe f629 293f dbea 843e eb02 d93e
00000370: 02b4 283d d267 993d db32 013e 9973 a9be
00000380: f2e7 9fbe 38bb a8bf c7c4 ec3e 5e0c 24bb
00000390: cf74 8339 0d26 6fbb

deqdss.f.phi_neumann.mlp.mlp.0.bias f4 [10]
0.22456639 0.18484586 -0.48408762 -0.8468901 -0.60983145 -0.6052386 -0.09076618 0.07745698
0.31007862 0.5806305
00000000: bbf4 653e 3c48 3d3e 55da f7be cacd 58bf
00000010: ea1d 1cbf ebf0 1abf 9ee3 b9bd c4a1 9e3d
00000020: a0c2 9e3e 33a4 143f

deqdss.f.phi_neumann.mlp.mlp.2.weight f4 [10, 10]
-0.39202827 0.38058096 -0.01444963 0.26727414 -0.25587586 -0.2968278 -0.93549526 0.5622772
-0.2105227 -0.21695887 -0.5638727 0.42518076 -0.42388943 -0.29846114 -0.05049534 -0.37945473
0.41307902 -0.4412535 0.08814536 -0.1409939 -0.70589477 0.035617866 0.45421675 1.2697335
0.7614572 1.0820773 0.54869235 0.5039765 -0.028474055 0.44232014 0.13390385 -0.35181344
0.08146837 -0.6485225 -0.36238363 -0.45975253 -0.35311806 -0.63752276 0.40319505 1.2976232
0.2734395 0.36585972 -0.100391254 -0.47383085 0.27086315 0.2188949 0.24687459 0.74279606
-0.037689634 -0.66852504 0.17868409 0.1003596 0.3290162 -0.3677217 -0.5036994 0.21090952
0.10355311 0.2931332 -0.31863114 0.010042702 -0.48309955 0.29150704 -0.17177609 0.9263687
-0.04120533 0.5743733 -0.8404953 -0.42930737 -0.3323817 -0.032778356 -0.39894867 0.43481845
0.04300204 -0.54165035 -0.4697043 -0.3527652 -0.50517446 0.5760066 0.24423733 0.07277606
-0.092885755 0.3527225 0.42300013 -1.3327266 -0.08770569 -0.09122756 -0.05108736 0.49458322
0.6650465 -0.12061681 -0.6250383 0.3939879 -0.110301055 0.16742072 0.40221536 0.068530865
0.008567386 -0.34639004 -0.06371659 0.20287156
00000000: eeb7 c8be 82db c23e 24be 6cbc 28d8 883e
00000010: 2902 83be d0f9 97be 9e7c 6fbf 66f1 0f3f
00000020: 4393 57be 772a 5ebe f659 10bf 4bb1 d93e
00000030: 0908 d9be e6cf 98be 34d4 4ebd e447 c2be
00000040: 187f d33e fbeb e1be 8e85 b43d b460 10be
00000050: 85b5 34bf 0ae4 113d 198f e83e a186 a23f
00000060: dcee 423f 8281 8a3f 1a77 0c3f 9b04 013f
00000070: 6c42 e9bc c977 e23e 171e 093e e420 b4be
00000080: e4d8 a63d 9205 26bf 598a b9be af64 ebbe
00000090: e4cb b4be b134 23bf 956f ce3e 8418 a63f
000000a0: 4300 8c3e f751 bb3e ee99 cdbd f599 f2be
000000b0: 93ae 8a3e fc25 603e b1cc 7c3e e227 3e3f
000000c0: 7260 1abd 7524 2bbf f6f8 363e 5589 cd3d
000000d0: d074 a83e 0546 bcbe 72f2 00bf aaf8 573e
000000e0: a713 d43d 8e15 963e 9f23 a3be 258a 243c
000000f0: d358 f7be 6940 953e 12e6 2fbe 8026 6d3f
00000100: ecc6 28bd 210a 133f b32a 57bf 2dce dbbe
00000110: ef2d aabe 9942 06bd 0043 ccbe 86a0 de3e
00000120: e822 303d 99a9 0abf 157d f0be a49d b4be
00000130: 1d53 01bf 2b75 133f 5a19 7a3e 9d0b 953d
00000140: e33a bebd 0b98 b43e 7993 d83e c996 aabf
00000150: 0a9f b3bd 84d5 babd fb40 51bd 033a fd3e
00000160: 7d40 2a3f f205 f7bd 8302 20bf c8b8 c93e
00000170: 85e5 e1bd 5670 2b3e 2cef cd3e e959 8c3d
00000180: 395e 0c3c 095a b1be d87d 82bd 90bd 4f3e

deqdss.f.phi_neumann.mlp.mlp.2.bias f4 [10]
-0.064128034 -1.04898 -0.06195042 1.297426 -0.64353687 0.75598276 0.2783215 0.42805034
-0.59394586 -0.121127926
00000000: 8f55 83bd fa44 86bf b9bf 7dbd 0e12 a63f
00000010: d5be 24bf 1688 413f 2880 8e3e 6a29 db3e
00000020: d60c 18bf eb11 f8bd

deqdss.f.update_neumann.mlp.0.weight f4 [10, 25]
-0.2693455 0.36634594 0.22856426 0.15756565 0.39226973 0.16628288 0.20122558 0.28628904
0.42182317 -1.4337475 -0.15794304 -0.03141585 -0.44888133 0.6401137 0.10420859 0.27841204
-0.5099082 -0.09596468 0.11690282 -0.38211232 0.055642948 0.14510325 0.03945474 -0.0047650086
0.013154764 -0.27869374 -0.034597553 -0.24385467 -0.28120202 0.26474673 0.6879278 0.5208123
-0.7481739 0.68444186 -0.82002497 -0.71835285 -0.70397335 -0.43579286 0.14978617 -0.09552281
0.48405847 -0.90061164 -0.3695075 -0.3985796 -0.6851254 0.622217 0.26199964 -0.0024545032
0.0007240495 0.00021209063 -0.78517735 -0.5207752 -0.68678725 0.7127897 -0.13296174 -1.2242761
0.44324514 -0.046321396 0.22981521 -0.0095161535 -0.2922117 -0.775951 -0.008108498 1.033642
-1.028758 0.42759988 0.16784571 0.5912102 -0.6606058 -0.43427813 0.635545 0.7117652
0.016081177 -0.032042075 0.011329269 -0.0021441763 0.47077423 0.2569848 -0.43601704 0.070362315
0.30691642 0.13848768 0.25558957 -0.110692345 0.016174396 0.37869892 0.40728587 0.12857251
-0.13159561 0.24043298 0.18559894 -0.24481513 0.12900572 0.650883 -0.3516296 -0.0156171145
-0.35136566 -0.016496746 -0.044271745 0.029181443 0.16193622 -0.26235014 -0.35773167 -0.301592
-0.00674156 0.24914403 -0.29019785 0.03331134 -0.18535125 0.17172374 0.27824512 0.32723594
-0.09170244 -0.3367939 -0.19393577 -0.21665516 -0.08043488 -0.22196881 0.34070754 0.103286326
0.39302722 -0.11359927 -0.10441562 0.39871415 -0.36091667 0.4195871 -0.3227675 -0.27723545
0.07351533 0.104274005 0.24987106 -0.14527372 -0.26358035 -0.3602041 0.018619535 0.15231235
-0.25933656 -0.34121597 -0.007131243 -0.17130154 -0.25037837 -0.1907469 -0.116152465 0.32071805
0.34485283 -0.070944615 -0.0077100713 -0.005655302 -0.025498124 -0.059505634 -0.27433828 -0.47962517
-0.3051906 0.21043557 -0.09666724 -1.079742 0.36832207 0.010374232 0.1736677 0.9491843
0.0012871025 -0.2832245 0.2252289 0.21769755 -0.37574658 0.5639227 -0.09331794 0.36691207
-0.37346375 -0.031817473 0.13735712 0.22543451 -0.0020998737 -0.008956255 0.006080238 -0.6021754
-0.1575514 0.027827889 -0.015706766 0.06476084 -0.40270692 0.3016162 0.39348987 0.7382309
-0.04177067 -0.2734663 -0.56993467 -0.23246612 0.48690388 -0.34213075 0.31668273 0.24595825
-0.048666343 0.14377299 0.25649935 0.8353847 0.27582696 -0.06677918 0.04725633 -0.026237942
0.11623743 0.4180861 0.21244791 0.1590569 -0.25405464 0.96532565 0.21353842 -0.19429013
0.035333775 -0.46194857 -0.4114348 -0.24767752 0.20418079 -0.025510842 0.51169175 0.09208526
-0.37453866 -0.8035558 -0.091167964 -0.20752493 -0.30276233 -0.4904577 -0.016887018 -0.021613922
-0.00026070364 0.30846795 -0.19651651 -0.6094673 0.53485906 -0.07366086 -0.70789254 -0.27054527
0.47176182 -0.036748003 1.6786165 0.10564906 -0.36676735 0.41211662 0.031339638 -0.14006455
0.28817382 -0.46972162 0.5569507 0.2661228 -0.23408462 -0.13352846 0.350183 0.00085664296
0.0015406284 -0.001550979
00000000: a7e7 89be b291 bb3e c00c 6a3e e458 213e
00000010: 94d7 c83e 0f46 2a3e 140e 4e3e 7a94 923e
00000020: 35f9 d73e 0a85 b7bf d2bb 21be e8ad 00bd
00000030: c6d3 e5be 7ede 233f 506b d53d 068c 8e3e
00000040: 5889 02bf 2189 c4bd bf6a ef3d 3aa4 c3be
00000050: dce9 633d f295 143e 4b9b 213d ca23 9cbb
00000060: 1487 573c f2b0 8ebe 2ab6 0dbd 0ab5 79be
00000070: b6f9 8fbe e28c 873e 091c 303f f453 053f
00000080: 5388 3fbf 9537 2f3f 28ed 51bf f9e5 37bf
00000090: 9937 34bf 3e20 dfbe 8c61 193e 77a1 c3bd
000000a0: 83d6 f73e 7c8e 66bf 1630 bdbe a012 ccbe
000000b0: 6164 2fbf 9d49 1f3f d124 863e bbdb 20bb
000000c0: 24ce 3d3a a564 5e39 6201 49bf 8651 05bf
000000d0: 4ad1 2fbf 6379 363f 1f27 08be 14b5 9cbf
000000e0: 07f1 e23e 81bb 3dbd ae54 6b3e a4e9 1bbc
000000f0: c69c 95be baa4 46bf 81d9 04bc 624e 843f
00000100: 58ae 83bf 5fee da3e bfdf 2b3e 8d59 173f
00000110: 761d 29bf b459 debe 14b3 223f 3f36 363f
00000120: acbc 833c 8d3e 03bd 669e 393c 4f85 0cbb
00000130: 5209 f13e 8393 833e a03d dfbe 1e1a 903d
00000140: 2624 9d3e b7cf 0d3e a3dc 823e abb2 e2bd
00000150: 2b80 843c d3e4 c13e c687 d03e 83a8 033e
00000160: 00c1 06be 1034 763e a60d 3e3e d1b0 7abe
00000170: 131a 043e 45a0 263f cc08 b4be edde 7fbc
00000180: 33e6 b3be 2f24 87bc 4a56 35bd ec0d ef3c
00000190: 9cd2 253e c252 86be 9b28 b7be 446a 9abe
000001a0: 4ee8 dcbb 9d1f 7f3e d094 94be 7971 083d
000001b0: b8cc 3dbe 59d8 2f3e 2576 8e3e 788b a73e
000001c0: 7dce bbbd 4070 acbe 1997 46be dada 5dbe
000001d0: 0bbb a4bd cb4b 63be 3871 ae3e c887 d33d
000001e0: dd3a c93e bca6 e8bd dbd7 d5bd 4324 cc3e
000001f0: 12ca b8be 1fd4 d63e c841 a5be cef1 8dbe
00000200: 358f 963d 9c8d d53d 33de 7f3e a2c2 14be
00000210: 01f4 86be ac6c b8be ff87 983c c5f7 1b3e
00000220: c3c7 84be dcb3 aebe 34ad e9bb ac69 2fbe
00000230: 9831 80be 2853 43be 58e1 edbd 2835 a43e
00000240: 8d90 b03e 694b 91bd c4a4 fcbb 1d50 b9bb
00000250: 71e1 d0bc 2ebc 73bd 1176 8cbe 6e91 f5be
00000260: f141 9cbe 6c7c 573e 79f9 c5bd fc34 8abf
00000270: b694 bc3e aff8 293c f2d5 313e befd 723f
00000280: feb3 a83a cd02 91be 68a2 663e 1bec 5e3e
00000290: db61 c0be 3d5d 103f 7a1d bfbd e6db bb3e
000002a0: a436 bfbe 0a53 02bd 58a7 0c3e 4ed8 663e
000002b0: 099e 09bb 42bd 12bc bc3c c73b 2b28 1abf
000002c0: 2755 21be 50f7 e33c 7aab 80bc 55a1 843d
000002d0: 9a2f cebe 706d 9a3e 8177 c93e b3fc 3c3f
000002e0: b917 2bbd c603 8cbe 3de7 11bf 990b 6ebe
000002f0: 774b f93e c32b afbe 3d24 a23e 7bdc 7b3e
00000300: 5c56 47bd 3a39 133e e253 833e c6db 553f
00000310: 3139 8d3e 86c3 88bd da8f 413d f4f0 d6bc
00000320: e40d ee3d 620f d63e f28b 593e d0df 223e
00000330: 7313 82be 951f 773f d1a9 5a3e fef3 46be
00000340: 26ba 103d 8684 ecbe 95a7 d2be 2d9f 7dbe
00000350: c514 513e 1dfc d0bc 3bfe 023f 3297 bc3d
00000360: 88c3 bfbe d5b5 4dbf 45b6 babd 6a81 54be
00000370: aa03 9bbe 461d fbbe a556 8abc ae0f b1bc
00000380: 0daf 88b9 83ef 9d3e a03b 49be 0d06 1cbf
00000390: 86ec 083f 81db 96bd 7238 35bf e984 8abe
000003a0: c48a f13e 1385 16bd e8dc d63f 895e d83d
000003b0: eec8 bbbe f300 d33e fe5d 003d 156d 0fbe
000003c0: 858b 933e 5a7f f0be 5294 0e3f 3f41 883e
000003d0: e1b3 6fbe afbb 08be 304b b33e 5690 603a
000003e0: e9ee c93a 384a cbba

deqdss.f.update_neumann.mlp.0.bias f4 [10]
0.21747026 0.32480022 1.1401457 -0.3495133 -0.032165673 -0.13316238 0.4383603 0.77611744
-0.39496836 0.061547153
00000000: 86b0 5e3e 374c a63e 4bf0 913f 68f3 b2be
00000010: 27c0 03bd b85b 08be c370 e03e a2af 463f
00000020: 4b39 cabe de18 7c3d
