mixed/dsgps/results/30_ite_lamb_0_001_gamma_0_9/ckpt/best_model.pt (torch, 95941 bytes, 93 tensors)

laynorm.weight f4 [10]
1.0 1.0 1.0 1.0 1.0 1.0 1.0 1.0
1.0 1.0
00000000: 0000 803f 0000 803f 0000 803f 0000 803f
00000010: 0000 803f 0000 803f 0000 803f 0000 803f
00000020: 0000 803f 0000 803f

laynorm.bias f4 [10]
0.0 0.0 0.0 0.0 0.0 0.0 0.0 0.0
0.0 0.0
00000000: 0000 0000 0000 0000 0000 0000 0000 0000
00000010: 0000 0000 0000 0000 0000 0000 0000 0000
00000020: 0000 0000 0000 0000

phi_to.mlp.mlp.0.weight f4 [10, 23]
-0.5440597 0.40775546 0.30909643 -0.3481404 -0.16089602 0.33779776 -0.1927119 0.15008646
0.18622005 -0.2084675 -0.160268 -0.1906249 0.18954909 0.3006554 -0.16291113 -0.11974981
-0.10886632 -0.21209407 -0.06327421 -0.1898926 -0.001200563 0.0009328691 -0.016162384 -0.4421358
-0.5070717 -0.17413339 -0.010719875 -0.13410479 0.13156554 0.3726125 -0.32502174 0.21372522
-0.54788834 -0.37038723 0.3599277 -0.4673024 -0.031838547 0.17673738 0.37716 -0.13780816
0.31732714 0.03367252 -0.20049186 0.0003654126 -0.0017455665 0.10488824 -0.15158102 -0.2256613
-0.45557985 -0.019168662 -0.09769174 -0.36051214 0.18159075 0.33899513 -0.0024972486 0.047968958
0.08934243 0.19332653 -0.52399105 -0.021794012 0.024843734 0.23456907 -0.14765418 -0.3446907
0.07623505 -0.6569661 0.003431438 0.00016324516 0.043345377 -0.115040764 -0.16548598 0.6932838
0.33336988 -0.2874134 0.45148024 0.1962151 -0.15626802 0.26538372 -0.06803093 -0.117939234
0.323271 0.13083382 -0.0727022 0.32289788 0.14211603 -0.075691186 0.41898996 -0.27507856
0.12275043 -0.0012383474 -0.0005471601 -0.24130788 -0.16773602 -0.38470337 -0.43735018 -0.24541935
-0.07286145 -0.10776133 -0.6612574 0.12160883 0.085603766 -0.18980156 0.05325447 0.5916015
0.1967047 -0.35455805 -0.3858892 0.01494575 -0.13880028 -0.00550353 0.073085144 -0.110684186
0.0033948296 -0.00047352145 0.0319765 -0.49775183 0.42609835 0.20881581 -0.40228903 0.16528453
-0.6038979 -0.1150201 0.06209651 0.42403412 0.0958245 0.055937644 -0.24356548 -0.04952431
-0.022096824 -0.08050418 -0.59893405 -0.38394514 0.39483294 0.009909317 -0.3482155 0.00029758917
0.0009996624 -0.13807806 -0.17854245 0.46728078 0.15058583 0.032664694 0.24571551 -0.43923232
0.103887826 0.57725745 0.04323058 0.21783064 0.2998139 -0.028008029 0.16999069 0.5130584
-0.4216947 0.3909603 -0.093490705 0.49851674 0.121490784 -0.06213289 0.0008505069 -0.00046691595
-0.07141452 0.26904514 0.25746685 -0.29621646 -0.14184956 -0.23684007 0.24731012 0.048599865
-0.100868545 0.4104262 -0.16336 -0.32333615 0.00011988398 0.6067368 0.10668014 -0.3824322
0.45365185 0.080338664 -0.20780185 0.2580596 -0.1568064 0.009986377 -0.0026562077 -0.09924726
0.24548747 -0.3980674 -0.056875 0.19502963 -0.21092461 -0.016465886 0.059247043 0.41910514
-0.1315082 -0.3436424 -0.07438938 -0.19082715 -0.26700383 0.6748753 -0.18481234 0.012672637
0.101718314 -0.26408604 -0.031566866 -0.09597059 0.002582801 0.0011050235 -0.031380024 0.041594423
0.682628 -0.29708633 0.11873674 -0.45457202 0.7124869 0.09952034 0.3862232 0.40297112
0.026820336 0.60338247 -0.51316786 -0.03727427 0.44880047 -0.15874597 0.5654491 0.35197732
0.18074068 -0.22528617 -0.3037212 0.00037665435 -0.0016815878 0.029292626
00000000: 7f47 0bbf 53c5 d03e e341 9e3e 753f b2be
00000010: edc1 24be d4f3 ac3e 4556 45be 44b0 193e
00000020: 78b0 3e3e 8178 55be 4b1d 24be 2c33 43be
00000030: 2819 423e 81ef 993e 2dd2 26be 633f f5bd
00000040: 4ef5 debd 302f 59be e995 81bd 3573 42be
00000050: 365c 9dba c98b 743a fa66 84bc a05f e2be
00000060: 73cf 01bf 0650 32be 6aa2 2fbc c452 09be
00000070: 1eb9 063e 11c7 be3e 4069 a6be c9da 5a3e
00000080: 6942 0cbf 65a3 bdbe 7248 b83e 4342 efbe
00000090: 2369 02bd a5fa 343e 1e1b c13e 951d 0dbe
000000a0: b478 a23e 32ec 093d bd4d 4dbe d994 bf39
000000b0: 7ecb e4ba a5cf d63d 0e38 1bbe c113 67be
000000c0: c341 e9be 9907 9dbc 9b12 c8bd 0c95 b8be
000000d0: edf2 393e c590 ad3e e1a8 23bb 197b 443d
000000e0: 2af9 b63d 64f7 453e 4724 06bf 5b89 b2bc
000000f0: 1685 cb3c e032 703e a832 17be 4d7b b0be
00000100: 1f21 9c3d ee2e 28bf fae1 603b ca2c 2b39
00000110: ec8a 313d 7e9a ebbd 2875 29be 0c7b 313f
00000120: 75af aa3e d927 93be 6b28 e73e 9cec 483e
00000130: b904 20be 60e0 873e cd53 8bbd 208a f1bd
00000140: c783 a53e 4df9 053e e4e4 94bd df52 a53e
00000150: dd86 113e fb03 9bbd da85 d63e 19d7 8cbe
00000160: 9464 fb3d 0b50 a2ba 4b6f 0fba 6a19 77be
00000170: fec2 2bbe d7f7 c4be 5dec dfbe 364f 7bbe
00000180: 6238 95bd f9b1 dcbd 2a48 29bf 0d0e f93d
00000190: 0751 af3d 575b 42be 5c21 5a3d 3273 173f
000001a0: f56c 493e a288 b5be 4593 c5be 05df 743c
000001b0: a921 0ebe f556 b4bb aaad 953d 64ae e2bd
000001c0: ca7b 5e3b f942 f8b9 caf9 023d 54d9 febe
000001d0: 9029 da3e d0d3 553e d4f8 cdbe 5940 293e
000001e0: 0e99 1abf a88f ebbd e958 7e3d 001b d93e
000001f0: a33f c43d df1e 653d 3b69 79be 01da 4abd
00000200: 6604 b5bc 60df a4bd be53 19bf 7594 c4be
00000210: 8b27 ca3e b05a 223c 4d49 b2be be05 9c39
00000220: 1b07 833a 5664 0dbe d5d3 36be 6d3f ef3e
00000230: 2c33 1a3e 6acb 053d d99c 7b3e 0fe3 e0be
00000240: 24c3 d43d 25c7 133f 8c12 313d ff0e 5f3e
00000250: 3581 993e 1871 e5bc 0a12 2e3e cc57 033f
00000260: 5ee8 d7be f32b c83e 0e78 bfbd 963d ff3e
00000270: 29d0 f83d 0f7f 7ebd 8df4 5e3a 66cc f4b9
00000280: c741 92bd 49c0 893e b2d2 833e afa9 97be
00000290: 0341 11be 3486 72be dd3e 7d3e a710 473d
000002a0: 2b94 cebd 6223 d23e d847 27be 518c a5be
000002b0: 396a fb38 1a53 1b3f 1e7b da3d 27ce c3be
000002c0: 0e45 e83e 9988 a43d 02ca 54be 6320 843e
000002d0: db91 20be e79d 233c c513 2ebb 2642 cbbd
000002e0: 1161 7b3e 7ecf cbbe c3f5 68bd d9b5 473e
000002f0: 9ffc 57be 77e3 86bc 07ad 723d f394 d63e
00000300: 16aa 06be e6f1 afbe 7659 98bd 3168 43be
00000310: bab4 88be a1c4 2c3f 723f 3dbe e4a0 4f3c
00000320: b151 d03d 4936 87be 424c 01bd 3b8c c4bd
00000330: 3644 293b 70d6 903a 5788 00bd ea5e 2a3d
00000340: b5c0 2e3f b31b 98be 3f2c f33d aabd e8be
00000350: 8b65 363f 52d1 cb3d 0cbf c53e 3b52 ce3e
00000360: 52b6 db3c 4677 1a3f f85e 03bf e8ac 18bd
00000370: 2dc9 e53e 4e8e 22be 46c1 103f 5f36 b43e
00000380: 1614 393e 6bb1 66be 5881 9bbe b179 c539
00000390: b968 dcba 17f7 ef3c

phi_to.mlp.mlp.0.bias f4 [10]
-0.049797855 -0.0043132952 0.09982106 0.20106737 0.025817586 0.092627324 -0.00940124 0.036111448
-0.031402692 0.057107966
00000000: d6f8 4bbd 8b56 8dbb fc6e cc3d 9be4 4d3e
00000010: 677f d33c 65b3 bd3d a907 1abc 99e9 133d
00000020: 1ca0 00bd 0bea 693d

phi_to.mlp.mlp.2.weight f4 [10, 10]
0.25737137 0.49587297 -0.42884403 -0.1709583 0.35684487 0.62546057 0.33496267 0.34137225
-0.7118912 0.2320306 -0.01971652 0.044534136 -0.33841357 0.5946627 -0.3915044 -0.2056691
-0.0036924677 0.14245404 -0.041095305 -0.5044678 -0.4323493 0.10880959 -0.054128703 0.018041013
0.27416942 -0.31701216 -1.1880212 -0.15680026 0.59220046 -0.036248732 0.1992421 -0.20242178
0.012584525 0.2627836 -0.13014233 -0.395596 -0.1799443 -0.034981273 0.24241301 0.05739571
0.37039176 -0.34298325 -0.46433228 -0.47140008 -0.58802664 -0.008050038 -0.14780633 0.04226601
-0.08100288 -0.19342336 0.17497087 0.39613208 -0.18600702 0.14153902 0.42596406 0.1912669
0.063804604 0.1555281 -0.45242205 0.14891168 -0.32817143 -0.49399462 -0.46452186 -0.13062786
0.2476382 -0.059744347 -0.1332513 0.06259801 0.19130757 0.35588554 0.030919949 0.24775545
0.07772053 0.0039499775 -0.32067472 -0.09431679 -0.6882092 0.0967772 -0.3869802 -0.54072636
-0.41771674 0.5037115 -0.31362012 -0.029506883 0.10855476 0.029094242 0.9896594 0.114552625
0.12490468 -0.23496701 0.4350878 0.037266158 -0.18425946 -0.10722096 0.2001751 0.46147153
-0.4830946 -0.44851437 0.43539178 -1.0977194
00000000: 2ec6 833e 10e3 fd3e 7291 dbbe b10f 2fbe
00000010: 5fb4 b63e 2f1e 203f 3a80 ab3e 58c8 ae3e
00000020: 803e 36bf 6e99 6d3e 8a84 a1bc 6d69 363d
00000030: 8b44 adbe d13b 183f 4473 c8be ec9a 52be
00000040: 54fd 71bb 79df 113e 8d53 28bd cd24 01bf
00000050: e35c ddbe 90d7 de3d 0fb6 5dbd bfca 933c
00000060: ef5f 8c3e 6b4f a2be 1411 98bf 3f90 20be
00000070: 739a 173f 8d79 14bd 1f06 4c3e a847 4fbe
00000080: 532f 4e3c 928b 863e 0844 05be 8f8b cabe
00000090: 5243 38be 8648 0fbd 1e3b 783e c417 6b3d
000000a0: fda3 bd3e 809b afbe f6bc edbe 5a5b f1be
000000b0: ea88 16bf 4ee4 03bc 8b5a 17be 201f 2d3d
000000c0: d7e4 a5bd c610 46be 902b 333e d3d1 ca3e
000000d0: a078 3ebe 9bef 103e f617 da3e 78db 433e
000000e0: fdab 823d c242 1f3e dda3 e7be 4e7c 183e
000000f0: 1606 a8be ddec fcbe cfd5 edbe 4fc3 05be
00000100: de94 7d3e 7db6 74bd 0773 08be 6333 803d
00000110: 22e6 433e a136 b63e d54b fd3c 9bb3 7d3e
00000120: f12b 9f3d d06e 813b 7a2f a4be 2929 c1bd
00000130: 7a2e 30bf 2033 c63d 4522 c6be 0b6d 0abf
00000140: f8de d5be 3df3 003f d192 a0be 6bb8 f1bc
00000150: f551 de3d 0c57 ee3c 525a 7d3f 919a ea3d
00000160: 06ce ff3d 319b 70be d4c3 de3e 66a4 183d
00000170: 83ae 3cbe aa96 dbbd b4fa 4c3e ff45 ec3e
00000180: 2d58 f7be ada3 e5be aceb de3e 1282 8cbf

phi_to.mlp.mlp.2.bias f4 [10]
-0.111481465 0.026737206 0.034365695 0.10034961 0.021090034 0.04276088 -0.09285345 0.10750537
-0.025420234 -0.05664962
00000000: 6550 e4bd fc07 db3c 0bc3 0c3d 1984 cd3d
00000010: 02c5 ac3c 0826 2f3d f329 bebd c72b dc3d
00000020: 183e d0bc 6f09 68bd

phi_from.mlp.mlp.0.weight f4 [10, 23]
-0.3558857 0.006907252 0.2034676 -0.3779533 0.14607362 -0.29869226 -0.12215302 -0.42639855
-0.30077893 -0.29555592 -0.110193886 0.110979825 0.6806753 0.0093741305 -0.34728032 -0.39785957
-0.42216605 -0.16814612 -0.04486083 -0.3556295 0.0009290904 0.00060145376 -0.083606355 0.37267658
-0.69982684 0.08338255 0.049635928 -0.33128554 -0.4575397 -0.06493127 0.49414134 -0.31901628
-0.500829 0.07004568 0.67564654 0.33009303 0.1313308 -0.15832117 -0.013512281 0.28792372
-0.40846336 0.24349557 -0.42292157 0.00031042774 -0.0004278391 -0.13668911 0.01454572 -0.2682937
1.442531 -0.18264402 0.4214619 -0.21213299 0.5873981 0.09054721 0.65228367 0.028701175
-0.33735588 -0.15580238 0.7229863 -0.17044428 0.1101714 0.31340587 -0.09437595 0.29289705
0.21043392 0.332701 0.0029653131 0.0007958174 -0.07468597 0.1860973 0.120383754 0.6543265
-0.1103648 0.045249704 -0.19574307 0.37352985 0.42943722 -0.1876715 -0.2876089 0.12584595
-0.109452695 1.5578594 0.29006884 -0.529107 0.049725916 -0.05863501 -0.28721246 0.30777743
0.50645316 0.00057429966 8.372933e-05 -0.18268105 0.025236018 0.4799879 -0.19199531 -0.1687125
-0.5323888 0.24820904 0.43892196 0.33357376 -0.12671274 -0.10494901 0.13820025 0.037073586
-0.06926957 0.28614122 0.024255747 0.17956756 -0.49219832 -0.46606076 0.2996814 0.33290046
0.0020572438 0.0016708534 -0.04595735 -0.2397928 0.09888964 0.06603345 0.47975916 -0.21660742
-0.022189092 -0.5229648 0.15443005 0.3845146 0.023893625 -0.21836233 0.51377636 0.1536599
-0.2499916 -0.17458737 0.07421927 0.41619754 -0.23534067 -0.33706844 -0.023993649 0.0023888715
0.0026146863 -0.063129574 -0.076063246 0.06554416 0.45319942 0.05041057 -0.05459826 -0.50302863
-0.5497903 -0.41141096 -0.04557565 -0.76828533 0.064563766 0.3134225 0.9011535 -0.18314755
-0.6281989 -0.2713812 -0.22465962 0.179589 -0.45309943 0.010543506 0.00012381659 0.00025977535
-0.13600294 0.21439017 -0.60869753 -0.091239974 -0.17715587 -0.5153957 -0.20293155 -0.1289483
-0.08166909 0.29670998 -0.09715767 0.017062142 0.2732801 0.010299686 -0.049637683 0.3458432
0.43307018 0.49514678 -0.15054193 0.022033025 -0.23053771 -0.0009733693 0.001633214 0.0027679107
0.407397 -0.13990588 -0.17540571 0.018211808 -0.05270753 0.1012008 -0.35640487 -0.43422624
-0.29632655 -0.16329448 0.5248055 0.22372785 -0.051432732 -0.45185137 0.025894796 -0.31956604
0.041320797 -0.2328789 0.2819015 0.3815833 0.0025642766 -0.0021664326 -0.034794636 -0.34275472
-0.11285041 0.8344391 0.0079830745 0.02625495 -0.1239847 -0.2305545 0.19870324 -0.69863135
-0.052157886 -0.23804113 0.28952315 1.2487687 -0.029675893 0.15023558 -0.19714445 -0.27938437
-0.22107796 0.36335745 0.3666625 -0.0028980451 0.0023638795 -0.10411621
00000000: a736 b6be 3b56 e23b cf59 503e 1883 c1be
00000010: 5394 153e 31ee 98be 5d2b fabd e950 dabe
00000020: b2ff 99be 1b53 97be 55ad e1bd 6449 e33d
00000030: bd40 2e3f f495 193c bace b1be 40b4 cbbe
00000040: 2626 d8be 7f2e 2cbe fdbf 37bd 1215 b6be
00000050: 348e 733a e1aa 1d3a cf39 abbd 77cf be3e
00000060: da27 33bf 78c4 aa3d 0b4f 4b3d 429e a9be
00000070: a542 eabe b0fa 84bd 1800 fd3e 1a56 a3be
00000080: 5436 00bf 1c74 8f3d 2cf7 2c3f f401 a93e
00000090: 957b 063e f21e 22be 9d62 5dbc bd6a 933e
000000a0: 1c22 d1be e756 793e 2d89 d8be e8c0 a239
000000b0: 984f e0b9 3bf8 0bbe 2c51 6e3c cb5d 89be
000000c0: dba4 b83f 0907 3bbe dbc9 d73e 6439 59be
000000d0: b95f 163f d170 b93d 10fc 263f ba1e eb3c
000000e0: e9b9 acbe a98a 1fbe a115 393f f288 2ebe
000000f0: 8ba1 e13d bc76 a03e 2e48 c1bd 9af6 953e
00000100: fd7b 573e c957 aa3e b355 423b 679e 503a
00000110: f5f4 98bd 4a90 3e3e c28b f63d f181 273f
00000120: f106 e2bd c157 393d df70 48be 4e3f bf3e
00000130: 32df db3e f52c 40be 7941 93be c3dd 003e
00000140: bc28 e0bd f067 c73f e783 943e 8e73 07bf
00000150: 67ad 4b3d 442b 70bd 830d 93be 0195 9d3e
00000160: eaa6 013f 998c 163a d797 af38 be10 3bbe
00000170: c4bb ce3c f9c0 f53e 6b9a 44be f8c2 2cbe
00000180: a24a 08bf 832a 7e3e 61ba e03e 2eca aa3e
00000190: fcc0 01be 82ef d6bd 5e84 0d3e 79da 173d
000001a0: 34dd 8dbd 1a81 923e fdb3 c63c 8fe0 373e
000001b0: 6b01 fcbe 849f eebe d76f 993e ee71 aa3e
000001c0: d3d2 063b 8900 db3a c63d 3cbd 3e8c 75be
000001d0: a786 ca3d 8c3c 873d fea2 f53e 56ce 5dbe
000001e0: e6c5 b5bc 05e1 05bf e922 1e3e 19df c43e
000001f0: 90bc c33c 609a 5fbe d986 033f 0559 1d3e
00000200: ccfd 7fbe 08c7 32be 4600 983d d817 d53e
00000210: 25fd 70be 3c94 acbe 548e c4bc 9d8e 1c3b
00000220: 285b 2b3b 144a 81bd 0cc7 9bbd 043c 863d
00000230: c109 e83e 507b 4e3d 6da2 5fbd 7cc6 00bf
00000240: 0fbf 0cbf 75a4 d2be 88ad 3abd 59ae 44bf
00000250: 023a 843d ea78 a03e ffb1 663f 088b 3bbe
00000260: a5d1 20bf 7af2 8abe 2c0d 66be 2ee6 373e
00000270: a6fc e7be abbe 2c3c c3d4 0139 7532 8839
00000280: 5b44 0bbe 1989 5b3e 9ad3 1bbf 06dc babd
00000290: 5968 35be f9f0 03bf 4acd 4fbe 060b 04be
000002a0: 2042 a7bd 5fea 973e 9afa c6bd e8c5 8b3c
000002b0: 5feb 8b3e 04c0 283c e250 4bbd 5c12 b13e
000002c0: 60bb dd3e e183 fd3e aa27 1abe 9a7e b43c
000002d0: 1412 6cbe b529 7fba 9111 d63a d665 353b
000002e0: 5796 d03e 7d43 0fbe 8e9d 33be ee30 953c
000002f0: dae3 57bd 5d42 cf3d b37a b6be e752 debe
00000300: 1db8 97be ab36 27be a759 063f ea18 653e
00000310: 21ab 52bd 1059 e7be 5321 d43c 299e a3be
00000320: ff3f 293d ce77 6ebe 6555 903e e35e c33e
00000330: 6c0d 283b b5fa 0dbb d284 0ebd 8c7d afbe
00000340: 1e1e e7bd cd9d 553f 71cb 023c 9f14 d73c
00000350: b1eb fdbd 7b16 6cbe dd78 4b3e 81d9 32bf
00000360: 82a3 55bd 0ec1 73be 613c 943e a7d7 9f3f
00000370: dc1a f3bc 5bd7 193e 3ce0 49be 780b 8fbe
00000380: 4362 62be fd09 ba3e 30bb bb3e 21ed 3dbb
00000390: 51eb 1a3b e13a d5bd

phi_from.mlp.mlp.0.bias f4 [10]
0.0037820993 0.06693674 0.094156325 -0.0025736294 0.1309766 0.11189676 -0.004373079 0.09105415
0.100487694 -0.045457482
00000000: 19dd 773b 2116 893d 08d5 c03d 56aa 28bb
00000010: bb1e 063e 212a e53d 0c4c 8fbb 997a ba3d
00000020: 7ecc cd3d a031 3abd

phi_from.mlp.mlp.2.weight f4 [10, 10]
-0.35669237 -1.03548 0.16638926 -0.28555438 0.34481987 0.17322281 -0.243698 -0.36464065
-0.64940196 -0.39784294 -0.1410491 1.4898543 -0.39347866 -0.42563564 -0.53608865 0.42869738
0.324412 0.49640667 0.5670225 -0.28718525 -0.3782358 -0.24308519 0.40104234 0.43509445
-0.24459122 -0.47716832 -1.0543579 0.55976415 0.06716996 -0.4186812 0.2364434 0.921296
-0.050702196 0.19523203 0.5257453 -0.30541795 -0.48949826 -0.08679243 -0.12535957 0.1885981
-0.2680241 1.2891282 -0.08933842 0.6027442 -0.29361442 -0.43712586 -0.19142073 -0.31876573
0.38765457 -0.4484926 -0.07141758 -0.27169594 0.10634315 -0.054873403 0.5671536 -0.35526755
0.51687384 0.21570982 -0.28817317 0.03255219 0.16224982 0.34297913 -0.14430214 0.19996902
0.048923086 -0.2882177 -0.04602218 -0.093091756 0.28753418 -0.1427266 -0.35407627 -0.011443352
0.22037728 0.37618387 -0.121067435 -0.11544984 -0.79219013 -0.2593942 -0.46599102 -0.08489547
-0.08362738 -0.59916085 0.48164445 0.15573567 -0.028662184 0.621937 -0.36482105 -0.06954379
-0.5860148 0.30924916 -0.18556358 0.032892577 -0.09840557 -0.040221497 0.5530423 -0.05185734
-0.6832871 0.18640156 0.27401358 0.0869276
00000000: 62a0 b6be 9c8a 84bf f261 2a3e 2f34 92be
00000010: 3b8c b03e 5261 313e f88b 79be 2eb2 babe
00000020: 353f 26bf 12b2 cbbe 2d6f 10be 8cb3 be3f
00000030: 0976 c9be eaec d9be 1b3d 09bf 397e db3e
00000040: 5419 a63e 0429 fe3e 6328 113f f209 93be
00000050: 1fa8 c1be 53eb 78be 6c55 cd3e b3c4 de3e
00000060: 1f76 7abe 684f f4be 33f5 86bf b44c 0f3f
00000070: 6790 893d 625d d6be 381e 723e 0eda 6b3f
00000080: 1bad 4fbd e8ea 473e 3e97 063f be5f 9cbe
00000090: 849f fabe 3bc0 b1bd 425e 00be dc1f 413e
000000a0: 743a 89be 2702 a53f 10f7 b6bd 724d 1a3f
000000b0: a154 96be f6ce dfbe cc03 44be 4335 a3be
000000c0: a97a c63e d2a0 e5be 6143 92bd bb1b 8bbe
000000d0: 70ca d93d efc2 60bd fa30 113f a1e5 b5be
000000e0: d851 043f 09e3 5c3e 6f8b 93be 7255 053d
000000f0: d124 263e f69a af3e f1c3 13be aec4 4c3e
00000100: 9363 483d 4591 93be c181 3cbd e4a6 bebd
00000110: ae37 933e ec26 12be 7c49 b5be e67c 3bbc
00000120: 95aa 613e 2c9b c03e 34f2 f7bd f770 ecbd
00000130: f9cc 4abf 51cf 84be 6096 eebe addd adbd
00000140: d544 abbd 9b62 19bf 1a9a f63e 2c79 1f3e
00000150: f5cc eabc 4337 1f3f d3c9 babe f96c 8ebd
00000160: 1105 16bf e855 9e3e 6104 3ebe 5eba 063d
00000170: dc88 c9bd 4cbf 24bd 2e94 0d3f 5d68 54bd
00000180: e7eb 2ebf 0de0 3e3e 824b 8c3e 1907 b23d

phi_from.mlp.mlp.2.bias f4 [10]
-0.01599074 -0.055591274 0.12580316 -0.058934785 -0.1444685 0.06967339 -0.06955089 -0.06419912
0.0447866 -0.09814182
00000000: 03ff 82bc adb3 63bd 8bd2 003e 9a65 71bd
00000010: 8def 13be ecb0 8e3d b270 8ebd d47a 83bd
00000020: 2772 373d 94fe c8bd

z_k.mlp.0.weight f4 [10, 33]
0.85648394 0.5071405 -2.0950425 -0.2834754 0.7586172 -0.49515533 -0.047794104 -0.85957736
0.18353356 0.06544481 -0.096259065 -0.28781617 0.483941 0.095372885 -0.24984105 -0.45486972
0.7017947 -0.28040645 0.1160837 0.013024827 0.05100045 0.3277247 0.45696595 -0.31600967
0.6534634 -0.68330675 0.8006459 0.2650078 -0.25265765 0.41455325 -0.09043523 -0.1273512
0.13698456 0.114841044 -0.115583375 -0.002707185 0.0065731183 0.36577412 1.3732513 0.06691676
-0.55933166 -1.046854 -0.6977447 0.25639257 -0.14053632 -0.29329926 0.06594456 -0.29712662
0.36151487 -0.008244333 0.28799793 -0.19823067 0.13146642 0.048689865 0.5410148 0.27134538
0.24598017 0.07324965 -0.8042548 0.06617574 0.29951355 -0.5623808 0.2202675 0.017693548
-0.010108524 -0.40046585 0.2797546 -1.0482224 -0.80980134 -0.0041067475 0.41576838 -0.8125792
0.15972719 1.7569189 -1.3109595 -0.061275862 0.08023812 2.3180394 -0.53560007 -0.3835326
0.27940872 -0.4120473 0.43654174 0.6130365 -0.4707996 1.0752486 -0.13975893 0.1529611
0.43501455 0.09526641 0.6155829 -0.6115406 0.24801898 0.28846312 -0.28537408 0.1834497
-0.020195547 -0.12367687 0.016722672 0.58094126 -0.039491884 -0.4952835 0.2981811 -0.3439232
0.07608377 0.45045757 -0.21929996 0.042716287 -0.46174204 0.01874699 -0.38470262 -0.057308096
0.623448 -0.2904481 -0.15096787 -0.25950593 0.42918786 -0.1411187 -0.057879478 -0.010759555
0.5419247 0.06825304 0.455028 0.36147535 0.08303899 0.3427316 0.08748534 -0.4353798
0.3185359 -0.003579654 0.25801715 -0.3264526 0.32890567 -1.7525598 0.77433425 -0.01300244
0.3440833 -0.3976478 -0.028887458 0.57589406 -0.6833411 0.41495654 -1.5401436 1.1750238
-0.011561411 -0.4591182 0.38406563 -0.9212851 0.3516495 -0.54390943 0.33665982 2.879382
-0.553044 -0.29406065 0.48877916 -0.025490833 0.7164401 -0.3533904 0.37727737 0.6684915
-0.34157783 -0.29385912 0.07075634 -0.24137606 -0.42688698 0.79197276 -0.07613893 -0.58674365
-0.63473713 0.9825273 -1.3822404 0.2690828 0.25429413 -0.4055955 -0.5481684 -0.33539566
-0.3714687 -0.2459653 -0.4703047 0.067569114 -0.24188697 0.56095666 -0.5122802 0.7977255
0.06774188 -0.58142674 0.25757784 0.63009554 0.33505103 0.54365814 -0.37386245 0.7164568
0.42380938 -0.67767227 -0.38627073 0.065460265 -0.24827403 -0.206786 0.44035104 -0.28178567
-0.05157789 -0.13830474 0.8173013 -0.20886095 0.31045833 0.075310886 -0.002193916 0.03641692
0.12555373 -0.0006461085 0.17871188 -0.0019409624 -0.13678285 -0.3238335 0.28589332 -0.17982595
-0.2041856 -0.12188482 0.045080893 0.32493508 -0.24201779 0.3374428 0.0394417 0.21503806
-0.06557544 0.2513111 -0.40588367 -0.039295584 0.0006810863 -0.45248342 -0.23902737 0.67696863
-0.07002915 -1.5543559 -0.07307984 -0.105607495 -0.70368975 -0.1929464 0.09323522 -0.19633867
-0.8235317 -0.1671247 -0.36689058 -0.10664181 -0.010485932 -0.0061193733 0.44965944 0.08925126
-0.22531019 -0.44648203 -0.38138294 -0.06049363 -0.10479848 -0.21991868 0.2988916 0.3930832
00000000: 8842 5b3f f6d3 013f 2d15 06c0 b023 91be
00000010: bd34 423f 0085 fdbe c0c3 43bd 430d 5cbf
00000020: 39f0 3b3e ee07 863d 7923 c5bd a45c 93be
00000030: 1dc7 f73e dc52 c33d 55d6 7fbe afe4 e8be
00000040: d1a8 333f 6f91 8fbe 4abd ed3d 1666 553c
00000050: d9e5 503d 88cb a73e 71f7 e93e 05cc a1be
00000060: 6149 273f 31ed 2ebf 21f7 4c3f 1aaf 873e
00000070: 585c 81be 5340 d43e 1b36 b9bd 5a68 02be
00000080: ae45 0c3e c831 eb3d fab6 ecbd 076b 31bb
00000090: 5063 d73b bf46 bb3e b3c6 af3f a70b 893d
000000a0: 5c30 0fbf 50ff 85bf 669f 32bf e345 833e
000000b0: c1e8 0fbe 522b 96be f10d 873d fb20 98be
000000c0: 7a18 b93e 3d13 07bc 7774 933e fbfc 4abe
000000d0: 229f 063e 066f 473d f27f 0a3f c8ed 8a3e
000000e0: 3ae2 7b3e ea03 963d a4e3 4dbf 2587 873d
000000f0: d759 993e 30f8 0fbf ce8d 613e 0ff2 903c
00000100: 399e 25bc dc09 cdbe ff3b 8f3e 272c 86bf
00000110: 244f 4fbf e591 86bb 98df d43e 3105 50bf
00000120: 868f 233e b8e2 e03f 85cd a7bf 66fc 7abd
00000130: e253 a43d c25a 1440 161d 09bf 635e c4be
00000140: a90e 8f3e ddf7 d2be 6682 df3e f6ef 1c3f
00000150: a50c f1be bfa1 893f f71c 0fbe d6a1 1c3e
00000160: 3aba de3e 091b c33d d796 1d3f ed8d 1cbf
00000170: b0f8 7d3e 70b1 933e 8d1c 92be 3dda 3b3e
00000180: 2271 a5bc 4c4a fdbd fcfd 883c 91b8 143f
00000190: 3ec2 21bd cd95 fdbe 31ab 983e b416 b0be
000001a0: cfd1 9b3d 60a2 e63e 2b90 60be 46f7 2e3d
000001b0: 7469 ecbe 4a93 993c bef7 c4be e5bb 6abd
000001c0: 4a9a 1f3f 9db5 94be 5297 1abe f6dd 84be
000001d0: 83be db3e 6c81 10be 0813 6dbd d848 30bc
000001e0: 94bb 0a3f 40c8 8b3d 6ef9 e83e 4c13 b93e
000001f0: 5910 aa3d 847a af3e 842b b33d 1aea debe
00000200: 2317 a33e a198 6abb d31a 843e cc24 a7be
00000210: 5366 a83e e153 e0bf c53a 463f 3008 55bc
00000220: b02b b03e 7e98 cbbe 64a5 ecbc cb6d 133f
00000230: 71ef 2ebf 2f75 d43e 6d23 c5bf 2e67 963f
00000240: 136c 3dbc 8a11 ebbe 40a4 c43e 57d9 6bbf
00000250: 670b b43e a63d 0bbf ad5e ac3e cb47 3840
00000260: 4b94 0dbf 1e8f 96be 4341 fa3e 27d2 d0bc
00000270: 9e68 373f 96ef b4be 802a c13e 4222 2b3f
00000280: 4ae3 aebe b474 96be b3e8 903d 492b 77be
00000290: ee90 dabe babe 4a3f baee 9bbd d534 16bf
000002a0: 227e 22bf e986 7b3f 41ed b0bf 39c5 893e
000002b0: d732 823e 37aa cfbe c454 0cbf fbb8 abbe
000002c0: 2531 bebe 54de 7bbe c7cb f0be ad61 8a3d
000002d0: 38b1 77be db9a 0f3f cc24 03bf bd37 4c3f
000002e0: 41bc 8a3d 62d8 14bf 3ee1 833e f14d 213f
000002f0: cf8b ab3e 2e2d 0b3f e66a bfbe b669 373f
00000300: 8bfd d83e ee7b 2dbf 47c5 c5be 0810 863d
00000310: 8c3b 7ebe b6bf 53be b175 e13e 3646 90be
00000320: 5643 53bd c29f 0dbe a83a 513f a5df 55be
00000330: 65f4 9e3e 983c 9a3d cdc7 0fbb e929 153d
00000340: 2891 003e 9c5f 29ba 3f00 373e e467 feba
00000350: ce10 0cbe 81cd a5be 9c60 923e 4b24 38be
00000360: 0816 51be c09e f9bd bea6 383d e45d a63e
00000370: 83d3 77be 4dc5 ac3e 9f8d 213d f032 5c3e
00000380: 6b4c 86bd d9ab 803e fccf cfbe 68f4 20bd
00000390: ee8a 323a e8ab e7be 97c3 74be d14d 2d3f
000003a0: 716b 8fbd 22f5 c6bf e2aa 95bd be48 d8bd
000003b0: 0325 34bf be93 45be 1bf2 be3d 010d 49be
000003c0: f9d2 52bf bd22 2bbe 15d9 bbbe 0567 dabd
000003d0: 30cd 2bbc 0685 c8bb c339 e63e 5dc9 b63d
000003e0: b7b7 66be 4b99 e4be a044 c3be 2bc8 77bd
000003f0: 96a0 d6bd 5d32 61be 5208 993e 3442 c93e

z_k.mlp.0.bias f4 [10]
-0.69600385 -0.2749406 -0.56945163 -0.046284918 -0.3108524 -0.5748504 -0.35784453 -0.61406523
-0.2001238 -0.39673632
00000000: 4f2d 32bf 04c5 8cbe 95c7 11bf 4195 3dbd
00000010: 0c28 9fbe 6529 13bf 6637 b7be 6133 1dbf
00000020: 41ed 4cbe 0621 cbbe

r_k.mlp.0.weight f4 [10, 33]
-0.22053988 -0.053971224 0.7435321 0.08437996 -0.31392792 0.12916033 -0.082701795 -0.21673572
0.19831178 0.15531248 -0.14757855 -0.2900682 -0.33811775 0.29351014 -0.41732275 0.5124113
-0.22508135 -0.2293754 0.2794992 -0.42744723 0.06456196 -0.37368065 -0.19476956 -0.4086144
0.13806586 -0.38384926 -0.45825946 0.009756286 0.16433567 -0.29001567 -0.22485667 -0.3434679
0.30293125 -0.03516151 -0.05322127 0.2197136 0.36476842 0.011824208 -0.21437001 -0.4809718
-0.20632003 0.017431783 0.15727781 -0.21464266 -0.12809668 0.6166332 -0.07571344 -0.41818747
0.3287684 0.14344023 -0.44334313 -0.6549872 0.34207332 -0.3223039 0.34100264 -0.39990968
-0.2608205 0.37080386 -0.14520662 0.12889908 0.06408741 0.17170832 0.23543696 -0.007115153
0.20589381 -0.21014883 -0.3103746 0.39406464 0.23489626 0.006490507 -0.074806005 0.92912215
-0.11434504 -0.63291425 0.2067925 -0.38610587 0.47630164 1.3006221 0.6477015 -0.5237414
-1.2775865 0.7303071 0.05935222 0.61398923 -0.11785236 0.34873137 -1.2641987 0.009271464
-0.09324542 -0.350613 0.08819352 -0.09023557 0.53723335 0.19507323 -0.28569037 -0.28767166
-0.42798176 0.110185735 0.3258003 0.16070308 0.43369162 0.21191414 0.282679 -0.31744644
0.42163262 -0.2281068 0.11409983 0.31101352 0.10970027 -0.2582823 0.7285078 -0.45171112
-0.25452778 0.09327998 0.21685235 -0.19911222 0.04633322 0.68235224 -0.3498084 0.26327083
-0.5806138 0.26156855 0.20418881 0.29873464 0.3308599 -0.26432097 0.48076174 0.05127529
0.22990242 -0.12444307 0.25198442 0.089179955 -0.005187723 1.187988 -0.7808941 -0.8194151
0.09697928 -0.3778741 1.2348247 0.96322376 -0.7731034 0.33541346 -0.100573905 0.2602493
0.072980314 -0.7232287 -0.3636632 0.20937745 0.19527741 0.7323997 -0.2890119 -0.41660115
-0.61684716 0.4240562 0.10110216 0.24126494 -0.5590636 -0.4740276 0.32433003 -0.3542821
-0.2492181 -0.28693646 -1.3194828 -0.18157002 0.25262624 0.1887658 -0.40251836 -0.87090415
-0.10865702 0.07013049 -0.39710847 -0.47147265 0.357643 -0.04943943 -0.22909711 -0.5028075
-0.106833436 0.8904038 -0.082912445 0.006350849 0.12796535 -0.2207499 0.27490216 -1.053583
0.18163283 0.008395323 0.61356837 -0.2427654 -0.12063862 0.037054114 -0.023233436 -0.39043707
-0.0043330933 0.07934015 0.1450983 0.11220066 -0.15074822 0.1094089 -0.06354868 -0.46841404
-0.14103916 0.31701976 0.28324077 -0.10682314 -0.7038148 1.2740383 -0.5608382 0.06158247
-0.04188929 -0.31215158 0.15748009 0.37680405 0.08204124 -0.07093943 -0.028956197 0.6716332
-1.3536859 0.62820846 -0.45202148 -0.11749214 0.16389827 -0.97240883 -0.0024098353 -0.33186093
0.19248293 -0.13432486 -0.091772534 -0.45471516 -0.021923155 0.32270867 -0.11177938 -0.15980193
-0.34832832 -0.40287846 0.46362764 0.07440503 0.2711853 -0.30502367 -0.60528123 0.3372874
0.3967443 1.0960097 0.041707624 -0.489327 -0.060627427 -0.34557214 0.4823139 -0.33395493
-0.6363874 0.52590483 -0.44629392 0.43665513 0.16337132 -0.20291461 -0.23472625 -0.87676215
00000000: 35d5 61be ee10 5dbd 1f58 3e3f 67cf ac3d
00000010: 29bb a0be 9b42 043e 8f5f a9bd f8ef 5dbe
00000020: 3e12 4b3e 3c0a 1f3e d51e 17be d283 94be
00000030: c51d adbe f646 963e 54ab d5be 632d 033f
00000040: ba7b 66be 63e1 6abe 851a 8f3e 5dda dabe
00000050: 1039 843d 1253 bfbe ac71 47be e835 d1be
00000060: 2361 0d3e e487 c4be fca0 eabe d4d8 1f3c
00000070: 9c47 283e ef7c 94be d440 66be 06db afbe
00000080: ce19 9b3e 8405 10bd 8cfe 59bd 9afc 603e
00000090: edc2 ba3e 53ba 413c d083 5bbe f041 f6be
000000a0: 8f45 53be 19cd 8e3c 6f0d 213e 49cb 5bbe
000000b0: c72b 03be acdb 1d3f a60f 9bbd ab1c d6be
000000c0: 5554 a83e ffe1 123e dffd e2be 3ead 27bf
000000d0: 3c24 af3e 0405 a5be e697 ae3e f6c0 ccbe
000000e0: 448a 85be 01da bd3e 0bb1 14be 1ffe 033e
000000f0: 4340 833d 4ed4 2f3e 6316 713e 3b26 e9bb
00000100: d4d5 523e 4131 57be 6be9 9ebe d7c2 c93e
00000110: a588 703e 52ae d43b e433 99bd f3da 6d3f
00000120: bb2d eabd ab06 22bf 6ac1 533e abaf c5be
00000130: cfdd f33e c97a a63f c4cf 253f eb13 06bf
00000140: f487 a3bf 68f5 3a3f 501b 733d 662e 1d3f
00000150: 945c f1bd eb8c b23e 43d1 a1bf 57e7 173c
00000160: 74f7 bebd 8c83 b3be ce9e b43d 6dcd b8bd
00000170: 2088 093f 47c1 473e 0246 92be b349 93be
00000180: 6d20 dbbe 0fa9 e13d 4ccf a63e 598f 243e
00000190: d40c de3e 0500 593e 4dbb 903e 5788 a2be
000001a0: 3be0 d73e d494 69be 2cad e93d 2a3d 9f3e
000001b0: 89aa e03d 943d 84be 7d7f 3a3f ae46 e7be
000001c0: 7751 82be 9309 bf3d 8b0e 5e3e 13e4 4bbe
000001d0: e7c7 3d3d a3ae 2e3f 161a b3be 6fcb 863e
000001e0: 1ba3 14bf 50ec 853e df16 513e bff3 983e
000001f0: 7866 a93e 1455 87be 6726 f63e 0a06 523d
00000200: 8a6b 6b3e 02dc febd 1a04 813e fba3 b63d
00000210: c6fd a9bb fe0f 983f ade8 47bf 30c5 51bf
00000220: 139d c63d b778 c1be bc0e 9e3f d595 763f
00000230: 1bea 45bf 50bb ab3e b1f9 cdbd 653f 853e
00000240: b476 953d 8425 39bf 1032 babe 0b67 563e
00000250: cdf6 473e 8c7e 3b3f 5ef9 93be bf4c d5be
00000260: b2e9 1dbf e51d d93e a60e cf3d 280e 773e
00000270: cb1e 0fbf bfb3 f2be 960e a63e 7764 b5be
00000280: 0833 7fbe 56e9 92be d0e4 a8bf 7eed 39be
00000290: 3a58 813e d24b 413e e316 cebe 93f3 5ebf
000002a0: 9287 debd 93a0 8f3d cd51 cbbe dd64 f1be
000002b0: fc1c b73e 0081 4abd 6f98 6abe feb7 00bf
000002c0: 7dcb dabd 81f1 633f 00ce a9bd c81a d03b
000002d0: 5909 033e 430c 62be fabf 8c3e cfdb 86bf
000002e0: f5fd 393e 898c 093c d112 1d3f 7e97 78be
000002f0: 6111 f7bd 0ec6 173d 0c54 bebc 5ee7 c7be
00000300: 9ffc 8dbb 177d a23d a694 143e 76c9 e53d
00000310: be5d 1abe c611 e03d cf25 82bd f7d3 efbe
00000320: 926c 10be 6a50 a23e ef04 913e 17c6 dabd
00000330: 352d 34bf b013 a33f 1893 0fbf e63d 7c3d
00000340: 1b94 2bbd 55d2 9fbe 7642 213e 76ec c03e
00000350: 3d05 a83d b148 91bd 8c35 edbc 27f0 2b3f
00000360: 9445 adbf 45d2 203f 5c6f e7be b89f f0bd
00000370: f3d4 273e c9ef 78bf 54ee 1dbb ade9 a9be
00000380: 3f1a 453e 758c 09be 3df3 bbbd 6dd0 e8be
00000390: 3098 b3bc 123a a53e 96ec e4bd 1ea3 23be
000003a0: 1758 b2be 1646 cebe 9a60 ed3e aa61 983d
000003b0: cdd8 8a3e 102c 9cbe b6f3 1abf efb0 ac3e
000003c0: 1222 cb3e 0c4a 8c3f 9dd5 2a3d 1289 fabe
000003d0: 7754 78bd d5ee b0be d9f1 f63e 24fc aabe
000003e0: 49ea 22bf b3a1 063f a380 e4be 4391 df3e
000003f0: d04a 273e d9c8 4fbe 145c 70be 7c73 60bf

r_k.mlp.0.bias f4 [10]
0.022284126 -0.00715077 0.0075503653 0.026559336 -0.016478445 0.1709507 -0.040527526 0.36106643
-0.18457754 0.41183415
00000000: 338d b63c 0251 eabb 0e69 f73b f792 d93c
00000010: cefd 86bc b30d 2f3e 3100 26bd b3dd b83e
00000020: e501 3dbe eddb d23e

correction.mlp.0.weight f4 [10, 33]
-0.26923174 -0.05495724 -0.27479205 -0.066473275 -0.03443152 -0.18948092 0.39350206 -0.047501963
-0.10281085 -0.4141859 0.117385656 -0.32799122 -0.24986821 0.34476146 -0.18942052 -0.24980325
-0.24275845 0.12537993 0.05054954 0.45300913 0.3476902 -0.9000966 0.11717294 1.4593611
-0.042001314 -0.03911558 -0.08892325 -0.09296136 -0.38515174 -0.08543308 0.00013770907 0.114771694
0.15249135 -0.49717116 -0.92325073 -0.98054713 -0.12068512 -0.21052541 0.06475139 0.85967845
-0.14996694 0.26197168 -0.283208 0.0145160705 -0.2165944 0.23757091 -0.18322973 -0.3585617
-0.14413667 0.0002862365 -0.42609408 0.03609935 0.32304424 -0.6319297 0.09593995 0.3093598
0.040975124 0.099038884 -0.21512237 -0.37775677 -0.2780611 0.11343515 0.03791149 0.08128797
0.2549265 -0.248831 0.5446111 -0.4564084 -2.8618426 0.33308735 -0.2624939 0.1097485
0.11875518 0.41823593 -0.33496732 -0.16814852 0.34007385 -0.84147215 -0.24955106 0.2381352
0.15341844 -0.20947698 0.1637175 0.20578974 -0.13141614 -0.6145201 0.13806419 0.6670051
0.38302934 -0.4881178 -0.26446778 -0.22798446 -0.019797966 -0.24517366 -0.11330699 0.2430748
0.006076322 -0.13767056 -0.23305616 0.18015389 -0.33886614 1.0357444 -0.10931494 0.4581261
-0.3312917 0.017007768 -0.19661723 -0.20895801 0.35218692 -0.2458667 0.10513648 0.083695985
-0.17598298 0.17561089 0.1708055 -0.06297836 -0.06638636 0.0633457 -0.27260622 -0.06921687
-0.48967585 0.0625165 0.38495907 -0.09973382 0.48691094 0.32184735 0.15382795 -0.33643654
0.30186188 -0.08953594 0.124512 0.3603936 -0.5551757 1.4777545 1.9823586 -0.10498053
-0.61385274 -0.83228016 -0.04546761 -0.25889897 -0.16959101 -0.16604401 0.3355051 0.74767864
-0.20320623 0.09455021 0.04710795 -0.1296606 0.0363839 0.122764915 0.008273797 -0.4989352
0.030771134 -0.20833401 0.2662179 0.023783477 0.04582175 0.25845832 0.045988392 0.23744042
-0.3441098 0.024790578 -0.094106965 -0.24787264 -0.30440933 0.13451456 0.09385712 0.01627227
-0.22072865 -0.06346348 -0.6971149 0.12737419 -0.2344563 0.15394473 -0.18230224 -0.41522318
-0.49520308 -0.39626685 -0.35502577 -0.28020424 -0.32939926 0.23076811 0.0134598315 0.07272022
-0.11848921 -0.23169428 -0.02127805 -0.101370774 0.33534312 -0.2504872 0.30820698 0.055377692
0.11865391 -0.009862768 0.14743543 0.114046134 -0.26001137 0.034940396 -0.31778163 0.1341144
0.5541199 -0.08117225 0.5060691 -0.2802767 0.11106721 -0.24097444 -0.07220913 0.06488327
-0.019889496 -0.042542122 -0.0045261793 -0.17243513 -0.038057126 0.2961829 0.118280634 -0.31942308
-0.078201115 0.38636002 0.01618086 0.07543847 -0.015765274 -0.12156535 -0.15788251 -0.42834774
-0.026625639 -0.22055604 -0.19401768 -0.21097264 0.09068337 -0.34022084 0.09314072 -0.10551612
0.39558318 0.590081 -0.54666364 0.4174886 -0.7136584 -0.5041997 -0.868825 0.09298522
-0.13430281 0.3361873 0.30059263 0.17413592 -0.38635057 0.38685843 0.25526935 -0.14898896
0.17378925 0.17448458 -0.041465923 0.14184579 0.06087249 0.2737299 -0.18186343 -0.13359901
00000000: bed8 89be d81a 61bd 8bb1 8cbe 2423 88bd
00000010: 1108 0dbd 4907 42be 1a79 c93e 6b91 42bd
00000020: 7f8e d2bd 2d10 d4be e467 f03d 77ee a7be
00000030: 74dd 7fbe 9384 b03e 74f7 41be 6ccc 7fbe
00000040: ac95 78be 9963 003e 090d 4f3d d0f0 e73e
00000050: 7304 b23e bb6c 66bf 5ef8 ef3d 58cc ba3f
00000060: 9209 2cbd a937 20bd 651d b6bd 8762 bebd
00000070: 9c32 c5be 8af7 aebd ff65 1039 6c0d eb3d
00000080: b126 1c3e 388d febe 295a 6cbf 2305 7bbf
00000090: c329 f7bd f993 57be 609c 843d e313 5c3f
000000a0: ef90 19be 2721 863e a400 91be d0d4 6d3c
000000b0: ecca 5dbe ca45 733e 93a0 3bbe 6695 b7be
000000c0: 9098 13be 0312 9639 0129 dabe e9dc 133d
000000d0: 0e66 a53e 25c6 21bf 2a7c c43d 6864 9e3e
000000e0: 88d5 273d e6d4 ca3d 0a49 5cbe 5669 c1be
000000f0: 065e 8ebe b050 e83d 1449 1b3d 4f7a a63d
00000100: ba85 823e 8ecd 7ebe a26b 0b3f 5dae e9be
00000110: 6e28 37c0 6d8a aa3e 9a65 86be d2c3 e03d
00000120: ea35 f33d 0523 d63e d680 abbe 202f 2cbe
00000130: 291e ae3e b86a 57bf 508a 7fbe b7d9 733e
00000140: b919 1d3e 2281 56be 8fa5 273e 8cba 523e
00000150: f491 06be 3051 1dbf b360 0d3e d9c0 2a3f
00000160: 6c1c c43e 94ea f9be 5268 87be c274 69be
00000170: 582f a2bc ce0e 7bbe 7f0d e8bd 9ae8 783e
00000180: e21b c73b 83f9 0cbe 46a6 6ebe 437a 383e
00000190: dd7f adbe 4693 843f 83e0 dfbd 818f ea3e
000001a0: 119f a9be e053 8b3c 0756 49be 17f9 55be
000001b0: d851 b43e 7bc4 7bbe cb51 d73d cd68 ab3d
000001c0: e234 34be 57d3 333e a3e7 2e3e ccfa 80bd
000001d0: 92f5 87bd 64bb 813d 0b93 8bbe 93c1 8dbd
000001e0: cbb6 fabe a708 803d 5b19 c53e 3f41 ccbd
000001f0: 644c f93e 2dc9 a43e 1385 1d3e 6941 acbe
00000200: a48d 9a3e 9e5e b7bd 2600 ff3d 8385 b83e
00000210: ff1f 0ebf 0f27 bd3f edbd fd3f 0800 d7bd
00000220: 7425 1dbf 5010 55bf 3f3c 3abd 688e 84be
00000230: 44a9 2dbe 7107 2abe 53c7 ab3e de67 3f3f
00000240: 4b15 50be 8aa3 c13d 44f4 403d c0c5 04be
00000250: 4907 153d 2c6c fb3d d28e 073c 6f74 ffbe
00000260: bf13 fc3c 8355 55be b64d 883e 91d5 c23c
00000270: 96af 3b3d a654 843e 535e 3c3d 9523 733e
00000280: 292f b0be 9c15 cb3c 27bb c0bd 53d2 7dbe
00000290: 8adb 9bbe 2fbe 093e 2938 c03d 6c4d 853c
000002a0: b106 62be 24f9 81bd 1f76 32bf 616e 023e
000002b0: 5015 70be b0a3 1d3e 70ad 3abe 2298 d4be
000002c0: 428b fdbe 7de3 cabe f0c5 b5be ee76 8fbe
000002d0: 05a7 a8be 7a4e 6c3e a086 5c3c 57ee 943d
000002e0: 79aa f2bd 4441 6dbe 4e4f aebc 7b9b cfbd
000002f0: 18b2 ab3e dc3f 80be 4ecd 9d3e b8d3 623d
00000300: d200 f33d 7397 21bc 50f9 163e 0591 e93d
00000310: 3620 85be a91d 0f3d 46b4 a2be 4955 093e
00000320: cdda 0d3f a33d a6bd bf8d 013f 6d80 8fbe
00000330: 3577 e33d 01c2 76be 61e2 93bd 85e1 843d
00000340: 4cef a2bc a640 2ebd 5850 94bb d692 30be
00000350: cae1 1bbd 49a5 973e 1e3d f23d 6c8b a3be
00000360: e827 a0bd fbd0 c53e b98d 843c 7c7f 9a3d
00000370: 2d26 81bc 41f7 f8bd f4ab 21be 6550 dbbe
00000380: 031e dabc 71d9 61be 92ac 46be 3609 58be
00000390: 34b8 b93d 6d31 aebe 90c0 be3d d618 d8bd
000003a0: e189 ca3e 8c0f 173f 26f2 0bbf 11c1 d53e
000003b0: 51b2 36bf 3b13 01bf 516b 5ebf 096f be3d
000003c0: ad86 09be be20 ac3e 47e7 993e b050 323e
000003d0: becf c5be 4f12 c63e aab2 823e 9090 18be
000003e0: cff5 313e 16ac 323e 2cd8 29bd 0640 113e
000003f0: 6f55 793d 5326 8c3e 683a 3abe 2ece 08be

correction.mlp.0.bias f4 [10]
-0.028911112 0.0841979 -0.121989995 0.094494306 0.23954605 -0.038414884 -0.013771408 -0.09048453
-0.07991216 0.07864867
00000000: ffd6 ecbc f36f ac3d e4d5 f9bd 3b86 c13d
00000010: 8f4b 753e ed58 1dbd 79a1 61bc f44f b9bd
00000020: fda8 a3bd 8e12 a13d

phi_neumann.mlp.mlp.0.weight f4 [10, 23]
-0.13420254 0.2030578 1.3586935 0.07308281 0.25523943 -0.08553844 -0.630741 -0.15050054
0.24661686 0.7236298 0.14481176 0.010487481 -0.3328361 -0.34821317 0.038519613 0.25923732
0.4419899 0.23909488 0.25654227 -0.18605462 -0.003671814 0.001994643 -0.028340735 0.23628671
-0.1126652 -0.054667313 0.102928236 -0.31039217 -0.2507548 -0.44895577 0.103404224 0.14697182
0.40335593 0.16915886 0.25997955 0.03476554 -0.36786202 0.110546656 -0.55172205 0.17896436
-0.18233626 0.020478424 -0.3969571 -0.0023211387 0.00059766386 0.09093647 0.32473382 0.14315288
-0.6595616 0.25815183 0.5391313 -0.40771866 -0.23647922 0.57259846 -0.24726932 -0.32644323
-0.03398995 0.13548343 0.36168095 0.41331774 -0.7238685 0.3783397 0.23801832 0.037874915
-0.12240278 0.7023481 -0.00016622046 -0.0012890372 -0.0026838854 0.14228387 0.12322833 0.25593296
-0.08563968 0.31454253 -0.06276964 -0.3518955 -0.030986471 0.27942395 -0.41545543 0.017528327
0.08381264 0.5289248 0.10475998 -0.023249874 0.823311 0.22425114 -0.009684832 -0.060383078
-0.31629655 0.002637965 0.0023476158 -0.046905484 -0.2848768 -0.016914118 0.08003497 0.3891109
-0.003518588 -0.24825485 -0.25688478 -0.43383166 -0.057265464 -0.032748796 0.11064975 0.1809795
0.064074464 -0.49850598 -0.15564714 -0.11401598 -0.15132715 0.2894329 -0.07421246 0.3394471
7.332703e-05 0.00071566715 0.0092857005 0.12674323 -0.038763374 0.3849038 0.03595759 0.32520297
0.023422595 0.14310949 -0.10291485 0.37911153 0.19587837 -0.40596518 0.32971507 -0.059865713
-0.10507766 0.011559221 -0.4208268 0.08826929 -0.2966737 -0.38309637 -0.3309293 0.00030647437
0.00095168 -0.0007002074 0.21693318 0.10365047 0.19137208 0.40773135 0.26798883 -0.32274604
-0.15354328 -0.07920719 -0.3727302 0.118931696 0.21094751 0.008259024 -0.29382882 0.17575653
-0.40388295 0.66333324 0.30567417 -0.134179 -0.26775086 -0.0246998 0.0034241786 -0.0014033058
0.093658306 0.31952715 0.40262434 -0.6994515 -0.16812527 -0.24144214 -0.46081853 0.11158067
0.23419155 -0.4389515 -0.17591943 0.33022413 0.058768332 -0.1747665 0.43131515 -0.2420402
0.27833408 -0.38645235 -0.43464217 0.48173296 0.0971552 0.0016657455 0.0017657265 -0.027949749
-0.045344844 0.25296086 0.3391141 0.059620712 0.2837349 0.5168823 0.39131248 0.23541991
-0.021214359 0.06226546 0.22646815 0.022166025 0.30473876 0.39531076 0.5788301 0.092756316
-0.13638118 0.30244705 -0.24536176 0.16449371 -0.0018493533 -0.003895676 -0.061560944 -0.20270948
0.121648744 -0.3499666 -0.4492091 -0.24042955 -0.3011035 0.5106791 -0.15464303 -0.04489982
-0.15202469 0.13452505 -0.29297364 0.35368985 0.2843582 -0.46067512 0.17620352 -0.4851562
-0.12720893 0.011847668 0.6084485 0.0007975018 0.00020910229 0.045281857
00000000: 646c 09be 62ee 4f3e abe9 ad3f 71ac 953d
00000010: beae 823e c72e afbd 3e78 21bf d01c 1abe
00000020: 2189 7c3e cd3f 393f 8949 143e afd3 2b3c
00000030: 7e69 aabe ff48 b2be bec6 1d3d c1ba 843e
00000040: 804c e23e 4ad5 743e 8259 833e 1a85 3ebe
00000050: d1a2 70bb 8eb8 023b d42a e8bc 25f5 713e
00000060: 03bd e6bd d5ea 5fbd 0acc d23d b9eb 9ebe
00000070: ef62 80be 88dd e5be 98c5 d33d c87f 163e
00000080: ab84 ce3e fb37 2d3e 0a1c 853e 5066 0e3d
00000090: 6958 bcbe 4966 e23d a83d 0dbf 6f42 373e
000000a0: 5bb6 3abe 5ec2 a73c f63d cbbe 3f1e 18bb
000000b0: 8bac 1c3a e63c ba3d 8343 a63e ab96 123e
000000c0: 07d9 28bf 7a2c 843e 8204 0a3f 80c0 d0be
000000d0: 9c27 72be d095 123f 2b34 7dbe 9123 a7be
000000e0: 0c39 0bbd 2bbc 0a3e 3f2e b93e 629e d33e
000000f0: 724f 39bf beb5 c13e 13bb 733e ba22 1b3d
00000100: 4fae fabd 16cd 333f 774b 2eb9 e9f4 a8ba
00000110: 20e4 2fbb ddb2 113e 225f fc3d a509 833e
00000120: db63 afbd b80b a13e 5e8d 80bd a62b b4be
00000130: 57d7 fdbc a810 8f3e 93b6 d4be 9197 8f3c
00000140: f6a5 ab3d 9e67 073f 678c d63d 8576 bebc
00000150: 82c4 523f 17a2 653e 21ad 1ebc 3f54 77bd
00000160: 9ff1 a1be b5e1 2c3b 75da 193b f71f 40bd
00000170: 5fdb 91be 7a8f 8abc 60e9 a33d 8b39 c73e
00000180: 1c98 66bb 8536 7ebe 6786 83be 2f1f debe
00000190: 318f 6abd 9a23 06bd 569c e23d b152 393e
000001a0: 7939 833d 2d3c ffbe f761 1fbe 3681 e9bd
000001b0: 81f5 1abe 8d30 943e b4fc 97bd 03cc ad3e
000001c0: 26c7 9938 9c9b 3b3a 0d23 183c fac8 013e
000001d0: 58c6 1ebd 1c12 c53e 4448 133d 0181 a63e
000001e0: bee0 bf3c 4b8b 123e 05c5 d2bd e81a c23e
000001f0: 5794 483e abda cfbe 6ad0 a83e c035 75bd
00000200: f532 d7bd e362 3d3c 9c76 d7be 88c6 b43d
00000210: 9de5 97be 3525 c4be 916f a9be 4bae a039
00000220: 2a7a 793a 208e 37ba bb23 5e3e b346 d43d
00000230: 0bf7 433e 2ac2 d03e d535 893e f83e a5be
00000240: 733a 1dbe 6137 a2bd 7ed6 bebe 7692 f33d
00000250: a002 583e db50 073c bb70 96be 85f9 333e
00000260: bfc9 cebe 35d0 293f 5381 9c3e 3866 09be
00000270: a416 89be 3c57 cabc 2f68 603b 21ef b7ba
00000280: edcf bf3d 1099 a33e c724 ce3e 410f 33bf
00000290: 0829 2cbe 9c3c 77be 68f0 ebbe 6884 e43d
000002a0: e9cf 6f3e 40be e0be 3924 34be 2313 a93e
000002b0: 10b7 703d fdf5 32be 57d5 dc3e 63d9 77be
000002c0: ce81 8e3e 15dd c5be 6b89 debe b4a5 f63e
000002d0: 4ef9 c63d 2555 da3a f36f e73a dff6 e4bc
000002e0: 84bb 39bd 1684 813e 5da0 ad3e d934 743d
000002f0: b345 913e 6652 043f 1c5a c83e eb11 713e
00000300: bcc9 adbc 110a 7f3d 44e7 673e 8695 b53c
00000310: b806 9c3e 2c66 ca3e 362e 143f 06f7 bd3d
00000320: 82a7 0bbe 57da 9a3e 1d40 7bbe 0a71 283e
00000330: 0066 f2ba 994e 7fbb 5427 7cbd 1393 4fbe
00000340: fa22 f93d d22e b3be bcfe e5be 2a33 76be
00000350: 3d2a 9abe debb 023f be5a 1ebe e0e8 37bd
00000360: 5cac 1bbe efc0 093e a400 96be d616 b53e
00000370: 6697 913e 9cdd ebbe b26e 343e 6566 f8be
00000380: 0f43 02be b91c 423c 48c3 1b3f 710f 513a
00000390: 7842 5b39 7879 393d

phi_neumann.mlp.mlp.0.bias f4 [10]
-0.075590715 0.0054089325 -0.07605835 0.24321899 0.0017122291 0.08754484 0.13932282 0.22017355
0.037036553 0.15238824
00000000: 4ecf 9abd 6a3d b13b 7bc4 9bbd 660e 793e
00000010: e06c e03a b64a b33d a4aa 0e3e 2d75 613e
00000020: a4b3 173d aa0b 1c3e

phi_neumann.mlp.mlp.2.weight f4 [10, 10]
-0.16089073 0.4346206 -0.996959 0.20763436 -0.11005221 -0.5045907 0.10901727 -0.081588686
0.38110384 0.028514117 -0.44798043 -0.1365168 -0.20871228 0.1104857 -0.40965164 -0.29991046
0.38146302 0.07638247 0.08668571 -0.4129874 -0.18156146 0.24884309 -0.020781996 -0.060098067
0.22264351 0.42474908 -0.50681543 -0.16439684 -0.40716675 -0.15314178 0.12342359 0.009439922
-0.09416806 0.1928439 0.17789124 -0.12446012 0.013328757 0.22654493 0.3620268 -0.29453003
0.10690515 0.058627553 -0.55271244 0.23232049 -0.18262614 0.09988994 -0.4666372 -0.14591625
-0.44540498 0.024333196 0.16614442 0.32644767 -0.24074703 -0.56239164 0.41325596 0.45167923
0.15951739 -0.036612872 0.22696033 0.42645955 0.0008778725 0.45731384 0.3011876 -0.14275323
-0.69215685 -0.113690674 0.042439442 0.5124655 0.07818851 0.29182473 -0.5249124 0.42282426
0.17708339 0.2868534 -0.14373697 -0.38819575 -0.16267148 0.466883 0.09384214 -0.018711416
0.36382475 0.39732668 -0.88386965 0.028997943 0.46394768 0.55286217 0.1722029 -0.067013495
-0.21155855 -0.1850728 0.14352384 0.15430588 -1.0689605 -0.05139242 -0.10839068 -0.4108829
0.18967545 -0.20831592 0.26087236 -0.37272373
00000000: 8ac0 24be 9786 de3e b438 7fbf 1a9e 543e
00000010: 0e63 e1bd db2c 01bf 7244 df3d f817 a7bd
00000020: 0b20 c33e 7096 e93c b15d e5be 0fcb 0bbe
00000030: acb8 55be 5446 e23d dcbd d1be dd8d 99be
00000040: 1f4f c33e 6a6e 9c3d 4788 b13d 1673 d3be
00000050: 3feb 39be b9d0 7e3e 013f aabc 6429 76bd
00000060: a9fc 633e b678 d93e a8be 01bf a557 28be
00000070: 2978 d0be 33d1 1cbe 82c5 fc3d e7a9 1a3c
00000080: 2fdb c0bd df78 453e 1f29 363e f3e4 febd
00000090: dc60 5a3c 65fb 673e 945b b93e a4cc 96be
000000a0: 16f1 da3d 7223 703d 907e 0dbf 6ce5 6d3e
000000b0: 5902 3bbe 1993 cc3d 12eb eebe 126b 15be
000000c0: 1f0c e4be 6956 c73c c321 2a3e 2624 a73e
000000d0: 6486 76be e6f8 0fbf 4996 d33e 8042 e73e
000000e0: 8758 233e 61f7 15bd 4a68 683e e858 da3e
000000f0: 0721 663a 0a25 ea3e 4335 9a3e e72d 12be
00000100: 3131 31bf a8d6 e8bd fbd4 2d3d f030 033f
00000110: 4c21 a03d 0d6a 953e a960 06bf 6c7c d83e
00000120: 5955 353e 73de 923e c92f 13be 98c1 c6be
00000130: 5a93 26be 4a0b ef3e 4f30 c03d af48 99bc
00000140: 3d47 ba3e 676e cb3e 4845 62bf 188d ed3c
00000150: 8d8a ed3e 6088 0d3f f555 303e 5f3e 89bd
00000160: cea2 58be b983 3dbe eaf7 123e 5c02 1e3e
00000170: b3d3 88bf dc80 52bd effb ddbd 3e5f d2be
00000180: 483a 423e c550 55be 1091 853e a5d5 bebe

phi_neumann.mlp.mlp.2.bias f4 [10]
0.041577592 -0.34046996 -0.034430567 -0.42076123 0.03862104 -0.16734453 -0.09754403 0.2084072
-0.011957796 0.022549791
00000000: 444d 2a3d 1452 aebe 1107 0dbd 046e d7be
00000010: 1831 1e3d 5d5c 2bbe 2ac5 c7bd b268 553e
00000020: a2ea 43bc 57ba b83c
