mixed/dsgps/results/30_ite_lamb_0_001_gamma_0_9/ckpt/running_model.pt (torch, 96581 bytes, 93 tensors)

laynorm.weight f4 [10]
0	0x3f800000	1.0
1	0x3f800000	1.0
2	0x3f800000	1.0
3	0x3f800000	1.0
4	0x3f800000	1.0
5	0x3f800000	1.0
6	0x3f800000	1.0
7	0x3f800000	1.0
8	0x3f800000	1.0
9	0x3f800000	1.0

laynorm.bias f4 [10]
0	0x00000000	0.0
1	0x00000000	0.0
2	0x00000000	0.0
3	0x00000000	0.0
4	0x00000000	0.0
5	0x00000000	0.0
6	0x00000000	0.0
7	0x00000000	0.0
8	0x00000000	0.0
9	0x00000000	0.0

phi_to.mlp.mlp.0.weight f4 [10, 23]
0	0xbf0c1f13	-0.54734915
1	0x3ed26f2e	0.41100448
2	0x3ea33450	0.3187585
3	0xbeb2a4b0	-0.34891272
4	0xbe2467fe	-0.16055295
5	0x3eb035d1	0.3441606
6	0xbe44d468	-0.19221652
7	0x3e1b64c2	0.15175155
8	0x3e3ae767	0.18252335
9	0xbe57790a	-0.21042266
10	0xbe260b37	-0.16215216
11	0xbe42b05a	-0.19012585
12	0x3e4d22f9	0.20032872
13	0x3e9b1f3a	0.3029726
14	0xbe27575f	-0.16341923
15	0xbdeadb38	-0.11467594
16	0xbde2c671	-0.11073006
17	0xbe5c6b64	-0.21525341
18	0xbd7eec03	-0.062236797
19	0xbe42ddce	-0.19029924
20	0xbaf3a061	-0.0018587225
21	0x3ad323ee	0.001610873
22	0xbc8fb91e	-0.017544325
23	0xbee14055	-0.43994394
24	0xbf027689	-0.5096212
25	0xbe4ed7d9	-0.20199527
26	0xbc23aba1	-0.00998965
27	0xbe091f27	-0.1339079
28	0x3e0dc613	0.1384509
29	0x3ebe8278	0.37208915
30	0xbea630cd	-0.32459107
31	0x3e5962d3	0.21229105
32	0xbf0c4089	-0.5478597
33	0xbec089f2	-0.37605244
34	0x3eb8fc7c	0.3613013
35	0xbef1f234	-0.472551
36	0xbcf85ca8	-0.03031762
37	0x3e35b434	0.17744523
38	0x3ec5ba92	0.38618904
39	0xbe0d6e1a	-0.13811532
40	0x3ea2809e	0.31738752
41	0x3d027dce	0.031858258
42	0xbe4e5e02	-0.20153049
43	0x3a4d03d8	0.0007820702
44	0x3983dd89	0.00025151324
45	0x3ddaa15d	0.10675309
46	0xbe212a72	-0.15738848
47	0xbe679a2b	-0.22617404
48	0xbee943e9	-0.45559624
49	0xbc931671	-0.017955037
50	0xbddcbc18	-0.107780635
51	0xbec083ef	-0.37600657
52	0x3e3a1990	0.18173814
53	0x3eafcb9a	0.34335023
54	0xbaf9893c	-0.0019038091
55	0x3d31cc22	0.043407567
56	0x3dc8b280	0.09799671
57	0x3e456b5d	0.19279237
58	0xbf042cf7	-0.5163111
59	0xbcab6b82	-0.020925287
60	0x3c68c127	0.014206207
61	0x3e681b27	0.22666608
62	0xbe16ddac	-0.14732999
63	0xbeb0c680	-0.34526443
64	0x3d9e60be	0.07733296
65	0xbf29fc04	-0.6640017
66	0x3bbad69d	0.0057018534
67	0x3a16ba74	0.00057498296
68	0x3d284d1d	0.041089166
69	0xbdf0480a	-0.1173249
70	0xbe2697a0	-0.16268778
71	0x3f3676b4	0.71274877
72	0x3eaa2761	0.3323317
73	0xbe940274	-0.28908122
74	0x3efc7b17	0.4931266
75	0x3e47d947	0.19516478
76	0xbe21f302	-0.15815356
77	0x3e86fc82	0.26364523
78	0xbd85a3ba	-0.06525369
79	0xbdeeeae2	-0.11665894
80	0x3ea40772	0.3203693
81	0x3e2df3c8	0.16987526
82	0xbd945f34	-0.07244721
83	0x3ea70fb8	0.3262918
84	0x3e265cd8	0.16246355
85	0xbd9fa41c	-0.07794973
86	0x3ed7ee23	0.4217387
87	0xbe8e04c6	-0.27738017
88	0x3dfe5f7a	0.124205545
89	0xbb6ad3f7	-0.0035831907
90	0x3a64d7bb	0.0008729656
91	0xbe757829	-0.23971619
92	0xbe1e541e	-0.15461776
93	0xbec6f461	-0.3885832
94	0xbee0066b	-0.43754897
95	0xbe7c1b4c	-0.24619788
96	0xbd99d7c9	-0.07511861
97	0xbdba86f3	-0.09107771
98	0xbf2a8b54	-0.6661885
99	0x3e011f61	0.12609626
100	0x3dafb116	0.08578698
101	0xbe431306	-0.19050226
102	0x3d3973f1	0.045276586
103	0x3f18aa87	0.59635204
104	0x3e41d8a6	0.18930301
105	0xbeb4b065	-0.35290828
106	0xbec50a74	-0.38484538
107	0x3bd79f46	0.006580266
108	0xbe12bcdb	-0.14329855
109	0xbb9ecdf7	-0.0048463303
110	0x3d9302cc	0.07178268
111	0xbde7bf7a	-0.11315818
112	0x3a10118b	0.0005495778
113	0x39c091a2	0.000367296
114	0x3d0d1af8	0.034449548
115	0xbefd3ace	-0.49458927
116	0x3edd08e6	0.4317085
117	0x3e63f054	0.22259647
118	0xbece262c	-0.40263498
119	0x3e290849	0.16507067
120	0xbf1e3583	-0.618004
121	0xbded8891	-0.115983136
122	0x3d7090a5	0.058731694
123	0x3ed8c291	0.42335942
124	0x3db82cb7	0.08992904
125	0x3d41b1d7	0.047288742
126	0xbe77ded3	-0.24206094
127	0xbd7cfd8a	-0.06176523
128	0xbc963129	-0.018333988
129	0xbda5dc2b	-0.08098634
130	0xbf1dba64	-0.61612535
131	0xbec78473	-0.38968238
132	0x3ec96219	0.39332655
133	0x3c167148	0.009182282
134	0xbeb41613	-0.3517309
135	0x390dae66	0.00013511776
136	0x3b6e67c0	0.0036377758
137	0xbe095ae1	-0.13413574
138	0xbe379d37	-0.17931066
139	0x3eef1231	0.46693566
140	0x3e2bb02c	0.16766423
141	0x3ce1098e	0.027470376
142	0x3e793eb7	0.2434033
143	0xbee79036	-0.45227212
144	0x3ddeea0c	0.10884485
145	0x3f14500f	0.5793466
146	0x3d198572	0.03748078
147	0x3e5b198a	0.21396461
148	0x3e9923a0	0.29909992
149	0xbd06a5b8	-0.032872885
150	0x3e4f4794	0.20242149
151	0x3f047d63	0.51753825
152	0xbede0a4d	-0.43367234
153	0x3ecd7c45	0.40133873
154	0xbdc9e837	-0.098587446
155	0x3efefdd0	0.4980302
156	0x3dfd24ef	0.1236056
157	0xbd89a67f	-0.0672121
158	0x3af74dc1	0.0018867777
159	0xbb161a4c	-0.0022903858
160	0xbd8bf103	-0.06833079
161	0x3e8c7b83	0.27437982
162	0x3e8143bf	0.25247
163	0xbea0ecf0	-0.3143077
164	0xbe0dde15	-0.13854249
165	0xbe776292	-0.24158695
166	0x3e78f75d	0.24313112
167	0x3d415d84	0.047208324
168	0xbdd25816	-0.10270707
169	0x3ed3d090	0.41370058
170	0xbe249aa9	-0.16074623
171	0xbea20234	-0.31642306
172	0xbb2f927b	-0.002679019
173	0x3f20d99d	0.6283205
174	0x3dd9c587	0.106333785
175	0xbec31786	-0.38103884
176	0x3ee6732e	0.4500975
177	0x3da53d6e	0.080683574
178	0xbe5379d0	-0.20651937
179	0x3e84fce7	0.259742
180	0xbe200558	-0.15627038
181	0x3bffea71	0.00780993
182	0x3b995acc	0.0046800133
183	0xbdc57a48	-0.09642464
184	0x3e72d44d	0.23713799
185	0xbece7000	-0.40319824
186	0xbd47e77f	-0.048804756
187	0x3e4e3fbe	0.20141503
188	0xbe52a6ef	-0.20571493
189	0xbb33f6c9	-0.0027460328
190	0x3d7436a8	0.059622437
191	0x3ed4b6b0	0.4154563
192	0xbe06fde8	-0.13182795
193	0xbeaa76b4	-0.33293688
194	0xbda6235a	-0.081122115
195	0xbe5ffca3	-0.21873717
196	0xbe87b97f	-0.2650871
197	0x3f2cb0ec	0.6745746
198	0xbe41c508	-0.18922818
199	0xbb508f6e	-0.0031823772
200	0x3ddc8c53	0.10768952
201	0xbe84e7e5	-0.2595817
202	0xbd27decd	-0.040983964
203	0xbdc011ee	-0.0937842
204	0xbb07037f	-0.002060145
205	0x3a5cadaf	0.0008418215
206	0xbd00c2d5	-0.031435806
207	0x3d399608	0.045309097
208	0x3f2eb6a1	0.6824742
209	0xbe98ac63	-0.2981902
210	0x3ded852e	0.11597668
211	0xbeebfa72	-0.46089512
212	0x3f3fe60c	0.749604
213	0x3dce107a	0.100617364
214	0x3eccd558	0.40006518
215	0x3ecf719f	0.40516374
216	0x3d028f01	0.03187466
217	0x3f1c3066	0.6101135
218	0xbf030e98	-0.51194143
219	0xbd1d4b48	-0.038401872
220	0x3ee86b1a	0.45394212
221	0xbe27ebfc	-0.16398615
222	0x3f1685a5	0.58797675
223	0x3eb3af3f	0.3509464
224	0x3e3a1d56	0.18175253
225	0xbe5f065e	-0.21779773
226	0xbe9b0d02	-0.30283362
227	0xba394ac9	-0.0007068334
228	0xb8cc750c	-9.74928e-05
229	0x3d0109d1	0.031503502

phi_to.mlp.mlp.0.bias f4 [10]
0	0xbd4764bd	-0.048680056
1	0xbb63adbc	-0.0034741005
2	0x3dcb8006	0.09936528
3	0x3e4ecec5	0.20196064
4	0x3cdb9714	0.026805438
5	0x3dc1e258	0.09467
6	0xbc1808be	-0.009279428
7	0x3d0e9114	0.034806326
8	0xbd039391	-0.032123152
9	0x3d6d3bf3	0.0579185

phi_to.mlp.mlp.2.weight f4 [10, 10]
0	0x3e847ab9	0.2587488
1	0x3eff7c04	0.49899304
2	0xbeda392d	-0.42621747
3	0xbe2f23bd	-0.17103477
4	0x3eb8bfe8	0.36083913
5	0x3f20a71b	0.6275498
6	0x3ea6bc58	0.3256557
7	0x3eaf3fd9	0.342284
8	0xbf3672ce	-0.7126893
9	0x3e6de5e3	0.23232226
10	0xbc8b3d5b	-0.01699703
11	0x3ccff23b	0.02538406
12	0xbeb05c3a	-0.34445363
13	0x3f18d66f	0.597022
14	0xbecc018d	-0.39844933
15	0xbe507238	-0.20356071
16	0xbc545968	-0.012960769
17	0x3e1557f1	0.14584328
18	0xbd0a3637	-0.03374311
19	0xbf04208f	-0.5161218
20	0xbedd7dfc	-0.4326018
21	0x3dd38061	0.10327221
22	0xbd81ba4e	-0.06334363
23	0x3cae8046	0.0213014
24	0x3e910c9a	0.28329927
25	0xbea13ae8	-0.31490254
26	0xbf9a6c1e	-1.2064245
27	0xbe21972d	-0.15780325
28	0x3f169f9a	0.5883728
29	0xbd1a8238	-0.037721843
30	0x3e4da43c	0.20082182
31	0xbe4e493b	-0.20145123
32	0x3c22c5c7	0.009934849
33	0x3e85b962	0.26117998
34	0xbe046ce1	-0.12932159
35	0xbecbb8e5	-0.397895
36	0xbe356013	-0.1771243
37	0xbd141f30	-0.036162555
38	0x3e75f4f0	0.24019217
39	0x3d64cd54	0.05585988
40	0x3ebd3d36	0.36960763
41	0xbeb0136f	-0.34389827
42	0xbeed48f8	-0.46344733
43	0xbef1d8f0	-0.47235823
44	0xbf1679b1	-0.58779436
45	0xbc255c7f	-0.010092854
46	0xbe129d3b	-0.14317791
47	0x3d3542c6	0.044253133
48	0xbda23a5f	-0.0792129
49	0xbe497c83	-0.19676404
50	0x3e30cca4	0.17265564
51	0x3ec7ec7b	0.39047608
52	0xbe44ec4c	-0.19230765
53	0x3e0d3b6d	0.137922
54	0x3ed9df6b	0.42553267
55	0x3e40e123	0.18835883
56	0x3d849299	0.06473274
57	0x3e1df2a2	0.15424588
58	0xbee83a69	-0.45357063
59	0x3e1734f6	0.14766297
60	0xbea7e199	-0.32789305
61	0xbefd8884	-0.49518216
62	0xbeec7680	-0.46184158
63	0xbe03525b	-0.12824385
64	0x3e7f7fd5	0.24951108
65	0xbd711b1d	-0.058863748
66	0xbe06fa3c	-0.13181394
67	0x3d7c1e1c	0.061552152
68	0x3e4271bb	0.18988697
69	0x3eb6693d	0.35627165
70	0x3d0c684c	0.034279153
71	0x3e7f9b1b	0.24961512
72	0x3da1b098	0.07895011
73	0x3b3152f7	0.0027057508
74	0xbea60328	-0.32424283
75	0xbdbf5dd3	-0.093440674
76	0xbf310a17	-0.6915602
77	0x3dcd703f	0.10031175
78	0xbec424bf	-0.38309285
79	0xbf0beca4	-0.5465796
80	0xbed9b592	-0.4252134
81	0x3f065308	0.52470446
82	0xbe9c89a1	-0.30573753
83	0xbce4f4c4	-0.027948745
84	0x3dd8146c	0.1055077
85	0x3ce052df	0.027383266
86	0x3f8003c0	1.0001144
87	0x3dea96c1	0.11454535
88	0x3e02138a	0.12702766
89	0xbe6cbdc5	-0.23119266
90	0x3ee35b8c	0.44405782
91	0x3d071db7	0.032987323
92	0xbe39c052	-0.1813977
93	0xbdd930e7	-0.106050305
94	0x3e4b9ea8	0.19884741
95	0x3eed832d	0.46389142
96	0xbefce0a1	-0.49390128
97	0xbee47107	-0.44617483
98	0x3ee4151d	0.44547358
99	0xbf8f93e2	-1.1217005

phi_to.mlp.mlp.2.bias f4 [10]
0	0xbde98d65	-0.11403922
1	0x3cd76b0b	0.02629616
2	0x3d0a7272	0.03380055
3	0x3dcb0897	0.09913748
4	0x3cb62e8b	0.02223899
5	0x3d2e2aa4	0.042521134
6	0xbdbb47e5	-0.09144572
7	0x3ddbb70c	0.10728273
8	0xbcd3a5ad	-0.025835836
9	0xbd67a25d	-0.056551326

phi_from.mlp.mlp.0.weight f4 [10, 23]
0	0xbeb50537	-0.3535554
1	0x3b8e4be4	0.004342543
2	0x3e61a4b0	0.2203548
3	0xbec18837	-0.37799236
4	0x3e13bdac	0.14427823
5	0xbe9ea204	-0.30982983
6	0xbdfd1d3b	-0.12359091
7	0xbed891dd	-0.42298785
8	0xbe9acb65	-0.30233303
9	0xbe9a3400	-0.30117798
10	0xbde1ef56	-0.11031978
11	0x3ddb400b	0.107055746
12	0x3f36ef6a	0.71459067
13	0x3c41c454	0.011826593
14	0xbeb3147e	-0.34976572
15	0xbecf2a87	-0.40462133
16	0xbed9cfc4	-0.42541325
17	0xbe2a3ada	-0.16624013
18	0xbd3520f8	-0.044220895
19	0xbeb8d46f	-0.36099574
20	0xb9c7fbf8	-0.0003814397
21	0x39921ea9	0.00027870134
22	0xbdb04372	-0.08606614
23	0x3ec36b41	0.38167766
24	0xbf33ba8f	-0.7020654
25	0x3db2000b	0.086914144
26	0x3d5b9675	0.053610284
27	0xbeae3762	-0.3402663
28	0xbef1b336	-0.4720704
29	0xbd7f3d74	-0.062314466
30	0x3f000337	0.50004905
31	0xbea55ad8	-0.3229587
32	0xbf01a3a8	-0.50640345
33	0x3d957398	0.072974384
34	0x3f2d4371	0.6768103
35	0x3eb73881	0.35785297
36	0x3e09073c	0.13381666
37	0xbe2aafc6	-0.16668615
38	0xbbffc531	-0.0078054895
39	0x3e93290e	0.2874226
40	0xbed1c68d	-0.40971795
41	0x3e797016	0.24359164
42	0xbee27fa2	-0.44238
43	0x3b006963	0.0019594065
44	0x38db2daa	0.00010451239
45	0xbe0e8a58	-0.13919961
46	0x3c2bbd5c	0.0104821585
47	0xbe8bd9b4	-0.27314532
48	0x3fb731ba	1.431205
49	0xbe3a13ce	-0.18171617
50	0x3ed96848	0.42462373
51	0xbe64ee3b	-0.22356503
52	0x3f16444b	0.58697957
53	0x3daeab69	0.08528788
54	0x3f26e851	0.65198237
55	0x3d2715f7	0.04079243
56	0xbeb07f18	-0.34471965
57	0xbe20386e	-0.15646526
58	0x3f36b9b1	0.7137709
59	0xbe31632c	-0.17322987
60	0x3dd056d6	0.10172813
61	0x3ea62e29	0.32457092
62	0xbdbcc13f	-0.09216546
63	0x3e97e6bf	0.29668233
64	0x3e513f5f	0.2043433
65	0x3eac2be6	0.33627242
66	0x3a3ae056	0.00071287656
67	0x39859079	0.00025475377
68	0xbd97d550	-0.07413733
69	0x3e3cc885	0.18435867
70	0x3dfd695e	0.12373613
71	0x3f31c2fc	0.6943815
72	0xbde719c4	-0.11284211
73	0x3d216234	0.039400294
74	0xbe69257d	-0.22768207
75	0x3ebf4126	0.37354392
76	0x3edafc70	0.4277072
77	0xbe4445d2	-0.1916726
78	0xbe95303a	-0.29138356
79	0x3df16849	0.11787469
80	0xbde75501	-0.1129551
81	0x3fc5056e	1.5392282
82	0x3e95c814	0.2925421
83	0xbf0c8cd7	-0.54902405
84	0x3d86f8d9	0.06590433
85	0xbd83d500	-0.06437111
86	0xbe926ce7	-0.2859871
87	0x3e9d20e4	0.30689156
88	0x3effad53	0.49936923
89	0x397815b8	0.00023659214
90	0x393801d0	0.00017548283
91	0xbe3d1753	-0.18465929
92	0x3ccdae24	0.02510745
93	0x3ef63e31	0.48094323
94	0xbe472600	-0.1944809
95	0xbe2d796c	-0.1694085
96	0xbf084b35	-0.53239757
97	0x3e7c7c0b	0.24656694
98	0x3ee0bfbd	0.43896285
99	0x3eab2f82	0.33434683
100	0xbe023800	-0.12716675
101	0xbdd8eb68	-0.10591775
102	0x3e0d7cd7	0.13817154
103	0x3d191d5f	0.037381526
104	0xbd860d44	-0.06545499
105	0x3e929836	0.28631753
106	0x3cace653	0.02110592
107	0x3e3f7518	0.18697011
108	0xbefc0bf8	-0.4922788
109	0xbeee5d0c	-0.46555364
110	0x3e996cbd	0.29965773
111	0x3ea9736e	0.33095878
112	0x3b8061c8	0.0039179064
113	0x3b4d80f4	0.003135738
114	0xbd37517f	-0.044755455
115	0xbe7579d4	-0.23972255
116	0x3dc6c0af	0.0970472
117	0x3d972cfd	0.07381628
118	0x3ef62919	0.4807823
119	0xbe5e794a	-0.21725956
120	0xbc849b87	-0.016187442
121	0xbf05fbb9	-0.52337223
122	0x3e1e5041	0.15460302
123	0x3ec4f54f	0.38468406
124	0x3ccf9bda	0.02534287
125	0xbe5fc969	-0.21854176
126	0x3f039d36	0.5141176
127	0x3e206886	0.15664873
128	0xbe800941	-0.2500706
129	0xbe318fc4	-0.17339998
130	0x3d992f41	0.07479716
131	0x3ed51c95	0.4162337
132	0xbe71ac7a	-0.23600951
133	0xbeac7596	-0.3368346
134	0xbcafc3d1	-0.021455677
135	0x3b1e2455	0.0024130542
136	0x3ad63d26	0.0016345128
137	0xbd825d30	-0.0636543
138	0xbd83653f	-0.064157955
139	0x3d808eb7	0.06277221
140	0x3ef374c5	0.47550026
141	0x3d5da69e	0.054113977
142	0xbd5a36cd	-0.05327492
143	0xbefcb206	-0.4935457
144	0xbf0d2a21	-0.5514241
145	0xbed3d4fa	-0.41373426
146	0xbd39c5c3	-0.045354616
147	0xbf449d76	-0.76802766
148	0x3d885328	0.06656486
149	0x3ea32538	0.31864333
150	0x3f646854	0.8922169
151	0xbe3e9bc8	-0.18614113
152	0xbf20d323	-0.6282217
153	0xbe7ac619	-0.24489631
154	0xbe61b2f6	-0.22040924
155	0x3e35e86a	0.1776444
156	0xbee7f702	-0.4530564
157	0x3ca0833f	0.019593833
158	0xbacdccbb	-0.0015701273
159	0xb8182702	-3.6275953e-05
160	0xbe0ff71a	-0.14059106
161	0x3e5d1a2a	0.21592012
162	0xbf1c8e1b	-0.61154336
163	0xbdaf9a98	-0.08574408
164	0xbe3473fe	-0.17622373
165	0xbf046feb	-0.51733273
166	0xbe5c32c9	-0.21503748
167	0xbe0547af	-0.13015626
168	0xbda9b492	-0.08286394
169	0x3e982d74	0.29722178
170	0xbdc5b3ec	-0.09653458
171	0x3c6799bb	0.014135773
172	0x3e8b8513	0.27249965
173	0x3b7a7601	0.0038217308
174	0xbd4b9c18	-0.04970941
175	0x3eb0d902	0.34540564
176	0x3edf961f	0.4366922
177	0x3efd3f28	0.49462247
178	0xbe1a6cbb	-0.1508054
179	0x3cac8e88	0.021064058
180	0xbe696974	-0.22794133
181	0xbb06f17b	-0.002059071
182	0xb9924d87	-0.00027905052
183	0x3b2b11d9	0.0026103167
184	0x3ed0436b	0.40676436
185	0xbe10093b	-0.14066021
186	0xbe1bffb3	-0.1523426
187	0x3c92c825	0.017917702
188	0xbd5fe3a1	-0.054660443
189	0x3dbe1038	0.09280437
190	0xbeb78a14	-0.35847533
191	0xbedf7ab1	-0.43648294
192	0xbe96ad35	-0.2942902
193	0xbe25368a	-0.16134086
194	0x3f059e4a	0.52194655
195	0x3e65f144	0.22455317
196	0xbd201d81	-0.039090637
197	0xbee8573e	-0.4537906
198	0x3cfce082	0.030868772
199	0xbea95a74	-0.33076823
200	0x3d28edf0	0.04124254
201	0xbe6fdb9f	-0.23423623
202	0x3e8ff329	0.28115204
203	0x3ec44383	0.38332757
204	0x3b876bd5	0.0041327276
205	0x3a9583e7	0.0011407108
206	0xbd0cf1f2	-0.034410425
207	0xbeae56ab	-0.34050497
208	0xbdddcc0d	-0.10829935
209	0x3f51a774	0.8189614
210	0x3bbd1cfb	0.005771277
211	0x3cd240a8	0.025665596
212	0xbe016c8f	-0.12639068
213	0xbe69767c	-0.22799104
214	0x3e4d4577	0.2004603
215	0xbf32e4b2	-0.6988021
216	0xbd5b4d08	-0.05354026
217	0xbe737290	-0.23774171
218	0x3e94b62a	0.2904523
219	0x3fa371b2	1.2769072
220	0xbce8afb9	-0.028404104
221	0x3e1244f9	0.14284123
222	0xbe43b7dd	-0.19113107
223	0xbe906f4a	-0.28209907
224	0xbe640aee	-0.22269794
225	0x3ebb71b9	0.366102
226	0x3eba3c2f	0.3637404
227	0xbb05815b	-0.0020371291
228	0x3b155063	0.002278351
229	0xbdd9620c	-0.10614404

phi_from.mlp.mlp.0.bias f4 [10]
0	0x3b80b083	0.003927292
1	0x3d8c8a3c	0.068623036
2	0x3dc31546	0.09525542
3	0xbb40f9f4	-0.0029445859
4	0x3e06b904	0.13156515
5	0x3de511ef	0.11185061
6	0xbbd19079	-0.0063953963
7	0x3dba0098	0.090821445
8	0x3dce11f1	0.10062016
9	0xbd383a8a	-0.044977702

phi_from.mlp.mlp.2.weight f4 [10, 10]
0	0xbeb627b5	-0.3557717
1	0xbf84467f	-1.0334014
2	0x3e1c8417	0.15284763
3	0xbe995bfd	-0.29952994
4	0x3eaffbb5	0.34371725
5	0x3e2db7e6	0.16964683
6	0xbe65794b	-0.22409551
7	0xbebbee17	-0.36705086
8	0xbf2792c0	-0.654583
9	0xbece0b64	-0.40243065
10	0xbe179e43	-0.14806466
11	0x3fc2cbdc	1.5218463
12	0xbec94d3f	-0.39316747
13	0xbedebc26	-0.4350292
14	0xbf094139	-0.53615147
15	0x3edbe142	0.42945296
16	0x3ea8b12a	0.32947665
17	0x3efcf6de	0.49407095
18	0x3f10f268	0.5661988
19	0xbe94c053	-0.29052982
20	0xbebf96f1	-0.37419847
21	0xbe85b5f1	-0.26115373
22	0x3ed17276	0.4090764
23	0x3ee3c0c4	0.44483006
24	0xbe78c855	-0.2429517
25	0xbef0e6ce	-0.4705109
26	0xbf889034	-1.0669007
27	0x3f0f7f7c	0.560539
28	0x3d987e2d	0.07445941
29	0xbed64ba7	-0.41854593
30	0x3e797690	0.24361634
31	0x3f6c7027	0.9235863
32	0xbd60e116	-0.05490216
33	0x3e4e6a7b	0.20157807
34	0x3f06ae3b	0.52609605
35	0xbe9ca2ed	-0.30593053
36	0xbefe0976	-0.49616593
37	0xbdb3cdb8	-0.08779472
38	0xbe002186	-0.12512788
39	0x3e4282c7	0.189952
40	0xbe87ab3d	-0.26497832
41	0x3fa663df	1.2999228
42	0xbdb9d831	-0.09074438
43	0x3f1b9f58	0.60790014
44	0xbe95d029	-0.29260376
45	0xbede01ce	-0.43360752
46	0xbe4484ef	-0.19191335
47	0xbea4a9f6	-0.3216092
48	0x3ec7040d	0.38870278
49	0xbee5b378	-0.44863486
50	0xbd8675b8	-0.06565422
51	0xbe888c7b	-0.26669678
52	0x3dd9929d	0.106236674
53	0xbd642d5c	-0.05570732
54	0x3f11017c	0.5664289
55	0xbeb6d010	-0.35705614
56	0x3f0456a8	0.51694727
57	0x3e5f2a65	0.21793516
58	0xbe93ee20	-0.28892612
59	0x3d015cd7	0.03158268
60	0x3e2b7c13	0.1674655
61	0x3eb1c127	0.34717676
62	0xbe0eaca1	-0.1393304
63	0x3e42e277	0.19031702
64	0x3d4b9be7	0.049709227
65	0xbe935dc2	-0.2878247
66	0xbd4f323a	-0.05058501
67	0xbdbc008c	-0.09179792
68	0x3e944000	0.28955078
69	0xbe1632f4	-0.14667875
70	0xbeb175a7	-0.34660074
71	0xbc54cc56	-0.012988171
72	0x3e5ec8a7	0.2175623
73	0x3ec18749	0.37798527
74	0xbdf164fc	-0.11786839
75	0xbde48bf4	-0.111595064
76	0xbf4c0caa	-0.79706824
77	0xbe84b2eb	-0.25917754
78	0xbeeffaa9	-0.46870926
79	0xbdbbf123	-0.091768526
80	0xbdb0d559	-0.08634443
81	0xbf199bae	-0.60003173
82	0x3ef61d8d	0.4806942
83	0x3e2062f8	0.15662754
84	0xbcf189ab	-0.02948459
85	0x3f1f2e9a	0.62180483
86	0xbeb9250a	-0.3616107
87	0xbd8bfc06	-0.06835179
88	0xbf165db5	-0.58736736
89	0x3e9f3036	0.3109147
90	0xbe3a4bbe	-0.18192956
91	0x3cdf3422	0.027246539
92	0xbdbc0dee	-0.091823444
93	0xbd3784e5	-0.044804472
94	0x3f0d307a	0.55152094
95	0xbd5b3eac	-0.053526565
96	0xbf301395	-0.6877988
97	0x3e4176a7	0.18892919
98	0x3e8b4470	0.2720065
99	0x3db8f8d3	0.090318345

phi_from.mlp.mlp.2.bias f4 [10]
0	0xbc85d323	-0.01633603
1	0xbd625e48	-0.055265695
2	0x3dfd0268	0.123539746
3	0xbd6ffd32	-0.058591075
4	0xbe145d44	-0.14488703
5	0x3d8e98d9	0.06962747
6	0xbd8cfe98	-0.068844974
7	0xbd83fdf8	-0.06444925
8	0x3d33cb4c	0.04389505
9	0xbdd058b5	-0.101731695

z_k.mlp.0.weight f4 [10, 33]
0	0x3f5a9149	0.8537794
1	0x3f0c84d2	0.5489017
2	0xc00aa04a	-2.1660333
3	0xbe948b84	-0.29012692
4	0x3f4584d1	0.77155787
5	0xbef46e5b	-0.47740445
6	0xbd20645d	-0.039158214
7	0xbf5e0333	-0.8672363
8	0x3e3c2306	0.18372735
9	0x3d835b4e	0.06413899
10	0xbdb0c7da	-0.08631869
11	0xbe98d6b9	-0.2985132
12	0x3eeeb6c5	0.46623817
13	0x3dcaa3a6	0.09894495
14	0xbe8060e5	-0.25073925
15	0xbee76259	-0.4519222
16	0x3f33aa95	0.7018216
17	0xbe963d15	-0.29343477
18	0x3dff27c3	0.12458756
19	0x3c7ffc05	0.015624051
20	0x3d6d03de	0.057865016
21	0x3eaced22	0.33774668
22	0x3ee50d6f	0.44736812
23	0xbea03d0a	-0.3129657
24	0x3f277879	0.654182
25	0xbf31375e	-0.6922511
26	0x3f4eb2d7	0.8074164
27	0x3e84b034	0.25915682
28	0xbe858422	-0.26077372
29	0x3ede26a5	0.43388858
30	0xbdb9e119	-0.09076137
31	0xbe031385	-0.12800415
32	0x3e0afb0d	0.13572331
33	0x3df1fd6c	0.118159145
34	0xbe08c256	-0.13355383
35	0x3817f9b4	3.623376e-05
36	0x3cbc1598	0.022959515
37	0x3ebe407f	0.37158582
38	0x3fb0cb38	1.3812017
39	0x3d2e5678	0.04256293
40	0xbf1a2dfa	-0.60226405
41	0xbf8488d4	-1.0354257
42	0xbf33c505	-0.702225
43	0x3e88ada9	0.26694992
44	0xbe18e820	-0.14932299
45	0xbe9c1582	-0.3048516
46	0x3d91f18e	0.07126151
47	0xbe941583	-0.28922662
48	0x3eb9bd9e	0.3627748
49	0xbc65bb06	-0.014021641
50	0x3e94b021	0.29040626
51	0xbe522664	-0.20522457
52	0x3e122360	0.14271307
53	0x3d51087b	0.05103348
54	0x3f0aa286	0.5415424
55	0x3e87b5c8	0.26505876
56	0x3e7bdd67	0.24596177
57	0x3d998f93	0.07498088
58	0xbf502604	-0.8130801
59	0x3d8cc382	0.06873228
60	0x3e9af77d	0.30266944
61	0xbf100e9d	-0.562723
62	0x3e51b50a	0.20479217
63	0x3cae07a0	0.02124387
64	0xbc301cc0	-0.010749042
65	0xbecda944	-0.40168202
66	0x3e8f5a58	0.27998614
67	0xbf803e1a	-1.0018952
68	0xbf46d0ee	-0.7766255
69	0xbc9e9711	-0.019359143
70	0x3ed436ce	0.41448063
71	0xbf5849e3	-0.8448774
72	0x3e30d523	0.17268805
73	0x3fdfff51	1.7499791
74	0xbfa797e3	-1.3093227
75	0xbd809822	-0.06279017
76	0x3d8d81ec	0.06909546
77	0x40159e23	2.337777
78	0xbf10eace	-0.56608284
79	0xbebef04c	-0.37292707
80	0x3e92d383	0.28676996
81	0xbed581d3	-0.4170061
82	0x3edd83fa	0.43264753
83	0x3f19d913	0.60096854
84	0xbef3f300	-0.47646332
85	0x3f8c6c57	1.0970563
86	0xbe0747b4	-0.13210946
87	0x3e1bfd7c	0.15233415
88	0x3eda2ac5	0.42610756
89	0x3dd44b6f	0.1036595
90	0x3f1e5a4c	0.6185653
91	0xbf1ec01c	-0.62011886
92	0x3e7fb972	0.24973086
93	0x3e967353	0.2938486
94	0xbe8e1914	-0.27753508
95	0x3e52a959	0.20572414
96	0xbc572201	-0.013130666
97	0xbdfd28de	-0.123613104
98	0x3c8a09cc	0.016850375
99	0x3f15b1ea	0.584746
100	0xbd3afae6	-0.04564943
101	0xbf00eb94	-0.50359464
102	0x3e99dab0	0.30049658
103	0xbeb19e6f	-0.34691188
104	0x3d477962	0.048699744
105	0x3ee50778	0.4473226
106	0xbe5d9690	-0.21639466
107	0x3d2ff8a8	0.042961746
108	0xbeed537e	-0.46352762
109	0x3c930a32	0.017949197
110	0xbec8b044	-0.3919698
111	0xbd91f9b2	-0.07127704
112	0x3f213143	0.6296579
113	0xbe9744e1	-0.29544738
114	0xbe1643b8	-0.1467427
115	0xbe87b687	-0.26506445
116	0x3ed96309	0.4245837
117	0xbe0c0577	-0.1367396
118	0xbd6996e0	-0.05702865
119	0xbc1b1653	-0.009465772
120	0x3f0b0f3d	0.54320127
121	0x3d86a7b4	0.065749556
122	0x3eea7ad7	0.45796844
123	0x3eb95763	0.36199483
124	0x3da67ac1	0.08128882
125	0x3eaf3f44	0.34227955
126	0x3db4a378	0.08820242
127	0xbedea7f7	-0.43487522
128	0x3ea23cc8	0.31686997
129	0xbbb9d8b8	-0.005671587
130	0x3e836488	0.25662637
131	0xbea8295e	-0.3284406
132	0x3ea897fe	0.3292846
133	0xbfe4a10a	-1.7861645
134	0x3f5a4570	0.85262203
135	0xbc4d0a27	-0.012514628
136	0x3eb2d46d	0.34927693
137	0xbed7849f	-0.4209337
138	0xbcf08fdd	-0.029365474
139	0x3f18be9f	0.59665865
140	0xbf329828	-0.6976342
141	0x3ed8759d	0.42277232
142	0xbfc93df6	-1.5722034
143	0x3f9ccfaf	1.225088
144	0xbdd078fb	-0.10179325
145	0xbee5ff94	-0.44921553
146	0x3ec17629	0.37785462
147	0xbf6c054a	-0.9219557
148	0x3eb011ad	0.34388486
149	0xbf1310fb	-0.57447785
150	0x3ed033b7	0.40664455
151	0x403e0a8f	2.9693944
152	0xbf0db5d6	-0.55355585
153	0xbe993a1c	-0.29927146
154	0x3efd2e52	0.49449402
155	0xbd08191e	-0.03322708
156	0x3f360681	0.71103674
157	0xbeb5382c	-0.35394418
158	0x3ebc5191	0.3678098
159	0x3f2b2e1c	0.6686723
160	0xbeab9c8f	-0.33517882
161	0xbe9de8a8	-0.30841565
162	0x3d85fb23	0.06542041
163	0xbe77368b	-0.241419
164	0xbeda9d0c	-0.42697942
165	0x3f4b5ed8	0.79441595
166	0xbd957345	-0.072973765
167	0xbf1c74b7	-0.6111559
168	0xbf22c787	-0.63585705
169	0x3f7cfcd1	0.9882327
170	0xbfbc5cf6	-1.471587
171	0x3e8d1386	0.27553958
172	0x3e733964	0.23752362
173	0xbed0a459	-0.40750387
174	0xbf0e46c6	-0.5557674
175	0xbeba89e6	-0.36433333
176	0xbede641f	-0.4343576
177	0xbe887d49	-0.26658085
178	0xbeed6fc0	-0.4637432
179	0x3d86b9c9	0.065784045
180	0xbe7c0efc	-0.24615091
181	0x3f0d1c19	0.55121
182	0xbf061b59	-0.5238548
183	0x3f51bb74	0.81926656
184	0x3d80362f	0.06260335
185	0xbf177a05	-0.5917056
186	0x3e8a424d	0.27003708
187	0x3f1fbcae	0.6239728
188	0x3eaa3a71	0.33247712
189	0x3f0b90a6	0.5451759
190	0xbec07368	-0.37588048
191	0x3f38186f	0.7191228
192	0x3ed782bc	0.4209193
193	0xbf2ea58c	-0.68221354
194	0xbec511cc	-0.3849014
195	0x3d6fcac4	0.05854298
196	0xbe7ea031	-0.24865796
197	0xbe548535	-0.2075394
198	0x3ee100f6	0.43946046
199	0xbe904935	-0.28180853
200	0xbda55e28	-0.080745995
201	0xbe08f0fb	-0.13373177
202	0x3f52519c	0.82155776
203	0xbe85464a	-0.2603019
204	0x3e9ded94	0.3084532
205	0x3d9cea36	0.0766186
206	0x3a882b4a	0.0010388878
207	0x3d14d20f	0.03633314
208	0x3dff2f2f	0.124601714
209	0xbc57737c	-0.013150092
210	0x3e321226	0.17389736
211	0xbb122ebf	-0.0022305695
212	0xbe1193f3	-0.14216594
213	0xbea3c3c0	-0.31985283
214	0x3e903c13	0.28170833
215	0xbe30a81c	-0.17251629
216	0xbe61fc06	-0.22068796
217	0xbdfdaabb	-0.1238608
218	0x3d807f3a	0.062742665
219	0x3ea8c8fa	0.32965833
220	0xbe7999a8	-0.24375021
221	0x3eace875	0.337711
222	0x3d2a8cc8	0.041638166
223	0x3e5c20f1	0.21496941
224	0xbd843de7	-0.064571194
225	0x3e80fd30	0.25193167
226	0xbecff113	-0.40613613
227	0xbd1ead42	-0.03873945
228	0xbaaa63b4	-0.0012999685
229	0xbee6a7af	-0.45049807
230	0xbe7189cb	-0.2358772
231	0x3f30667f	0.68906397
232	0xbda4eb02	-0.08052637
233	0xbfcb3ac1	-1.5877305
234	0xbd8cef85	-0.06881622
235	0xbde0e73c	-0.109816045
236	0xbf3035ec	-0.6883228
237	0xbe4ba3be	-0.19886681
238	0x3dac9809	0.08427436
239	0xbe44c088	-0.1921407
240	0xbf558ca2	-0.83417714
241	0xbe24884d	-0.1606762
242	0xbeb96213	-0.36207637
243	0xbdebf737	-0.11521762
244	0xbbfae80b	-0.007657056
245	0xbc026e7c	-0.007960912
246	0x3ee9d3b2	0.45669323
247	0x3dac6c4a	0.08419092
248	0xbe619f29	-0.22033371
249	0xbef2447e	-0.4731788
250	0xbec53e89	-0.38524273
251	0xbd89be63	-0.067257665
252	0xbddb6ea2	-0.10714461
253	0xbe600ce2	-0.21879914
254	0x3e993a1d	0.2992715
255	0x3ecab0ed	0.3958811

z_k.mlp.0.bias f4 [10]
0	0xbf339a31	-0.7015715
1	0xbe8f3a4f	-0.27974173
2	0xbf119581	-0.5686875
3	0xbd4a3ce4	-0.049374476
4	0xbea09375	-0.313625
5	0xbf141f8e	-0.5786065
6	0xbeb41280	-0.35170364
7	0xbf1eb7f4	-0.6199944
8	0xbe4acd6f	-0.19804929
9	0xbeccf11a	-0.40027696

r_k.mlp.0.weight f4 [10, 33]
0	0xbe7502e0	-0.23926878
1	0xbd2631bc	-0.040574774
2	0x3f424deb	0.75900143
3	0x3d82a452	0.06378998
4	0xbea41de9	-0.3205407
5	0x3e074c94	0.13212806
6	0xbd942d26	-0.07235174
7	0xbe5aec84	-0.21379286
8	0x3e3ed37d	0.18635364
9	0x3e242d04	0.16032797
10	0xbe07182b	-0.13192813
11	0xbe929d57	-0.28635666
12	0xbeb7165c	-0.35759246
13	0x3e97fc92	0.29684883
14	0xbedacf2e	-0.4273619
15	0x3f05e1f4	0.522979
16	0xbe704781	-0.23464777
17	0xbe67ca9e	-0.22635886
18	0x3e9427d2	0.2893663
19	0xbef1b94b	-0.4721168
20	0x3d8028e1	0.06257797
21	0xbec273b8	-0.3797891
22	0xbe4ecc92	-0.20195225
23	0xbeddebae	-0.43343872
24	0x3e026035	0.12732013
25	0xbec2f0b0	-0.38074255
26	0xbef1fbcd	-0.4726242
27	0x3b468c41	0.0030296
28	0x3e397130	0.18109584
29	0xbe9f1685	-0.3107187
30	0xbe810dad	-0.25205746
31	0xbeafcc75	-0.34335676
32	0x3e9b397e	0.303173
33	0xbd282be1	-0.04105747
34	0xbd65b16f	-0.056077417
35	0x3e91ab23	0.2845088
36	0x3ebdf6f6	0.3710248
37	0x3bb7ad21	0.0056053554
38	0xbe813a4b	-0.25239787
39	0xbef9f746	-0.48821467
40	0xbe69183a	-0.22763148
41	0x3ce41aa0	0.027844727
42	0x3e2543ef	0.16139196
43	0xbe515b07	-0.2044488
44	0xbe0c917d	-0.13727374
45	0x3f1d0f37	0.6135134
46	0xbd9db07c	-0.07699677
47	0xbed3ef8e	-0.41393703
48	0x3ea82c39	0.3284624
49	0x3e181444	0.1485148
50	0xbee4398f	-0.44575164
51	0xbf396098	-0.72413015
52	0x3eb9dd81	0.36301807
53	0xbea675ce	-0.32511753
54	0x3e9c3d1b	0.3051537
55	0xbecde872	-0.40216404
56	0xbe6f4664	-0.23366696
57	0x3ebb80b6	0.36621636
58	0xbe0d1d56	-0.13780722
59	0x3e014dbd	0.12627311
60	0x3d79600d	0.060882617
61	0x3e327cb9	0.1743039
62	0x3e74a87f	0.23892401
63	0xbc690db1	-0.014224456
64	0x3e5356f2	0.20638636
65	0xbe562c21	-0.20915271
66	0xbe960437	-0.2930009
67	0x3ecf2a8b	0.40462145
68	0x3e805c5d	0.25070468
69	0xb957dcaf	-0.00020586209
70	0xbd676c4f	-0.056499775
71	0x3f5b8b18	0.85759115
72	0xbdcbc88b	-0.0995036
73	0xbf1fd9e5	-0.62441856
74	0x3e42f1f8	0.19037616
75	0xbed1bcbd	-0.40964308
76	0x3ef12f1d	0.47106257
77	0x3faa6ff7	1.3315419
78	0x3f3170ba	0.6931263
79	0xbf07ee49	-0.5309797
80	0xbfa55bd1	-1.2918645
81	0x3f3c0db6	0.7345842
82	0x3d673545	0.056447286
83	0x3f261bd0	0.6488619
84	0xbde018eb	-0.10942253
85	0x3eadad37	0.33921215
86	0xbfa00265	-1.2500731
87	0x3c972c3e	0.018453714
88	0xbdb129ca	-0.08650549
89	0xbeb7d9a8	-0.35908246
90	0x3dc6c27a	0.09705062
91	0xbdce3153	-0.100680016
92	0x3f0b5bbb	0.54436845
93	0x3e4ec105	0.20190819
94	0xbe945887	-0.2897379
95	0xbe908755	-0.2822825
96	0xbed9a76b	-0.42510542
97	0x3de11b9c	0.10991594
98	0x3ea6830a	0.3252185
99	0x3e297436	0.16548237
100	0x3edbd7fc	0.4293822
101	0x3e60d5aa	0.21956506
102	0x3e91fbaa	0.28512317
103	0xbea47ddd	-0.32127276
104	0x3ed1ee39	0.41002062
105	0xbe6a4339	-0.22877206
106	0x3dea96c0	0.114545345
107	0x3e9eb7ee	0.30999702
108	0x3dd89135	0.10574571
109	0xbe885817	-0.26629707
110	0x3f482489	0.7818075
111	0xbedc5c4e	-0.43039173
112	0xbe82f055	-0.25573984
113	0x3dc2490b	0.09486588
114	0x3e5be838	0.21475303
115	0xbe4a97eb	-0.19784515
116	0x3d5dd366	0.054156683
117	0x3f356042	0.7085
118	0xbeb5284e	-0.35382313
119	0x3e80878e	0.2510342
120	0xbf168c4f	-0.58807844
121	0x3e83ad54	0.25718176
122	0x3e51096e	0.20413753
123	0x3e9a57ed	0.30145207
124	0x3ea6c9b8	0.32575774
125	0xbe85ed89	-0.26157787
126	0x3ef78efa	0.4835127
127	0x3d4e3dd1	0.05035192
128	0x3e680b1c	0.22660488
129	0xbdf7a6db	-0.12092372
130	0x3e80b0b6	0.2513482
131	0x3db42b9b	0.087973796
132	0xbc4e93cd	-0.012608481
133	0x3f9a3764	1.2048154
134	0xbf4aaa46	-0.79166067
135	0xbf57e6f6	-0.84336793
136	0x3db1f6d8	0.0868966
137	0xbec625e2	-0.38700777
138	0x3fa117cc	1.2585387
139	0x3f7b3b31	0.98137194
140	0xbf4b7059	-0.79468304
141	0x3eaf9816	0.3429572
142	0xbe02d3f0	-0.1277616
143	0x3e780c65	0.24223478
144	0x3def69c9	0.11690099
145	0xbf391905	-0.723038
146	0xbebde225	-0.37086597
147	0x3e5b3581	0.21407129
148	0x3e3a993a	0.18222514
149	0x3f40be82	0.7529069
150	0xbea2adf3	-0.31773338
151	0xbed55c13	-0.4167181
152	0xbf1c789e	-0.6112155
153	0x3ed69c56	0.4191615
154	0x3ddf8e27	0.10915785
155	0x3e83a4f9	0.25711802
156	0xbf10459d	-0.5635622
157	0xbef05cf9	-0.46945933
158	0x3ea5f222	0.32411295
159	0xbeb73811	-0.35784963
160	0xbe806293	-0.25075206
161	0xbe90add1	-0.2825761
162	0xbfaab42e	-1.3336236
163	0xbe39b8c7	-0.18136893
164	0x3e8190fe	0.25305933
165	0x3e475d73	0.19469242
166	0xbecc4c09	-0.3990176
167	0xbf486115	-0.78273135
168	0xbdf20ece	-0.1181923
169	0x3d87b73d	0.06626747
170	0xbed5fb3a	-0.41793233
171	0xbeea9226	-0.45814627
172	0x3ec13e42	0.3774281
173	0xbd86d135	-0.06582872
174	0xbe721329	-0.23640122
175	0xbf056fa3	-0.5212347
176	0xbdc76447	-0.09735923
177	0x3f719660	0.9437008
178	0xbdacba4a	-0.08433969
179	0x3c9a2d83	0.01882053
180	0x3df57ee9	0.11987097
181	0xbe5461a2	-0.20740369
182	0x3e8eea34	0.27913058
183	0xbf8d5443	-1.104134
184	0x3e4090c8	0.1880523
185	0xbba82fe5	-0.0051326626
186	0x3f211036	0.6291536
187	0xbe809581	-0.25114062
188	0xbe22fa15	-0.15915711
189	0x3cfe9cc2	0.031080607
190	0xbcc56cf6	-0.024099808
191	0xbeccc334	-0.39992678
192	0xbc0f0aa1	-0.0087305615
193	0x3dbd7703	0.09251215
194	0x3e0eefec	0.1395871
195	0x3e014834	0.126252
196	0xbe1a6bdf	-0.15080212
197	0x3ddfd468	0.10929185
198	0xbd93f231	-0.07223929
199	0xbef6f945	-0.48237053
200	0xbe3d1d74	-0.18468267
201	0x3ea82b5d	0.32845584
202	0x3e9751d6	0.29554623
203	0xbd611d46	-0.054959558
204	0xbf3727eb	-0.71545285
205	0x3fa14228	1.2598314
206	0xbf0dae09	-0.5534368
207	0x3d8a7e84	0.06762412
208	0xbd20eb63	-0.039286982
209	0xbea3d547	-0.31998655
210	0x3e2b13c4	0.16706759
211	0x3ec08210	0.3759923
212	0x3daca746	0.084303424
213	0xbd8fed99	-0.0702774
214	0xbd068c0b	-0.0328484
215	0x3f2c1fb6	0.6723589
216	0xbfa9e119	-1.3271819
217	0x3f26d118	0.651628
218	0xbef5b35f	-0.47988412
219	0xbde22bb0	-0.11043489
220	0x3e2113e2	0.15730241
221	0xbf7e0079	-0.9921947
222	0xbb22fe62	-0.0024870862
223	0xbeab0143	-0.333994
224	0x3e467fc4	0.19384676
225	0xbe102999	-0.14078368
226	0xbdc3e3fe	-0.095649704
227	0xbeeb2423	-0.45926008
228	0xbcff92aa	-0.031197865
229	0x3ea54428	0.32278562
230	0xbde498c9	-0.11161954
231	0xbdf7c0dd	-0.120973326
232	0xbed4694e	-0.4148659
233	0xbecd0bc9	-0.40048054
234	0x3ee0e804	0.43927014
235	0x3de39e82	0.11114217
236	0x3e8c4506	0.2739641
237	0xbe85b083	-0.2611123
238	0xbf107170	-0.5642309
239	0x3e968765	0.29400173
240	0x3ebb5015	0.36584535
241	0x3f95455e	1.1661794
242	0x3e2542a4	0.16138703
243	0xbf03936d	-0.5139683
244	0xbe53b719	-0.20675315
245	0xbe74214f	-0.23840831
246	0x3ec0d0a0	0.37659168
247	0xbe54b8f9	-0.20773686
248	0xbf28b771	-0.6590491
249	0x3f1beeb5	0.60911113
250	0xbec0f0d1	-0.37683728
251	0x3e9fb626	0.31193656
252	0x3e67e0ce	0.2264435
253	0xbe2eb291	-0.17060305
254	0xbe8c52fc	-0.27407062
255	0xbf3d8a80	-0.7403946

r_k.mlp.0.bias f4 [10]
0	0x3d03a47d	0.03213929
1	0xba159498	-0.0005706041
2	0xbbe9376b	-0.007117202
3	0x3cb31f9b	0.021865657
4	0xbbdbaccd	-0.006703949
5	0x3e298998	0.16556394
6	0xbd1f9069	-0.03895608
7	0x3e700681	0.23439981
8	0xbe3e9ae9	-0.18613781
9	0x3ed4fe51	0.41600278

correction.mlp.0.weight f4 [10, 33]
0	0xbe8aa28a	-0.27077132
1	0xbd5f5814	-0.054527357
2	0xbe4f5c5a	-0.20250073
3	0xbd81842a	-0.063240364
4	0xbd17d15d	-0.0370649
5	0xbe696de7	-0.2279583
6	0x3ec8c570	0.39213133
7	0xbd4579d7	-0.0482119
8	0xbdd4217f	-0.103579514
9	0xbed5fa81	-0.41792682
10	0x3decf421	0.115700014
11	0xbea51af8	-0.32247138
12	0xbe7f48e6	-0.24930152
13	0x3eb022a3	0.34401426
14	0xbe42011c	-0.18945736
15	0xbe80700e	-0.2508549
16	0xbe77b9e3	-0.24192004
17	0x3e0198c4	0.12655932
18	0x3d4ab09c	0.049484834
19	0x3ee6bbad	0.4506506
20	0x3eb04ecf	0.34435126
21	0xbf6681c7	-0.90041775
22	0x3debe43d	0.11518142
23	0x3fbb977d	1.4655606
24	0xbd2d0949	-0.042245183
25	0xbd207e87	-0.039183166
26	0xbdb61a77	-0.088917665
27	0xbdbfd3ed	-0.093665935
28	0xbec57604	-0.385666
29	0xbdaceda0	-0.08443761
30	0xba337588	-0.00068458216
31	0x3deb3021	0.11483789
32	0x3e1c3b9e	0.15257117
33	0xbefe6dfe	-0.49693292
34	0xbf6be3e3	-0.921446
35	0xbf796068	-0.9741273
36	0xbdfb969a	-0.12284584
37	0xbe59ee41	-0.21282293
38	0x3c50a0cc	0.012733649
39	0x3f5c5c1f	0.86078066
40	0xbe1a7719	-0.15084495
41	0x3e86b719	0.26311567
42	0xbe936389	-0.28786877
43	0x3ccd130c	0.025033496
44	0xbe5f8866	-0.21829376
45	0x3e78cd6f	0.24297117
46	0xbe4030d8	-0.18768632
47	0xbeb84b7c	-0.3599509
48	0xbe11ed1c	-0.14250606
49	0x398d63df	0.00026968025
50	0xbeda87ac	-0.42681634
51	0x3d0ff755	0.035147984
52	0x3ea7a2b9	0.32741335
53	0xbf205cc2	-0.6264154
54	0x3dc1430c	0.09436616
55	0x3e9f5d47	0.31125852
56	0x3d2added	0.04171555
57	0x3dcb9c08	0.0994187
58	0xbe5e4668	-0.21706545
59	0xbec1654d	-0.377726
60	0xbe8cfacc	-0.27535093
61	0x3ded156e	0.11576353
62	0x3d291f16	0.04128941
63	0x3da306fe	0.07960318
64	0x3e81175f	0.25213143
65	0xbe815224	-0.2525798
66	0x3f0c9911	0.5492106
67	0xbeed3269	-0.46327522
68	0xc033cd4a	-2.8094049
69	0x3ea99845	0.33123985
70	0xbe8f8f4f	-0.28039023
71	0x3e1071ea	0.14105955
72	0x3dfee0d1	0.12445224
73	0x3ed491a0	0.41517353
74	0xbeac9d4d	-0.3371376
75	0xbe302226	-0.17200527
76	0x3eb83875	0.35980573
77	0xbf51e818	-0.8199477
78	0xbe6aac1a	-0.22917214
79	0x3e710dd8	0.23540437
80	0x3e1ddac5	0.15415485
81	0xbe57266a	-0.21010748
82	0x3e29282f	0.16519235
83	0x3e5519b6	0.20810589
84	0xbe020063	-0.1269546
85	0xbf1d7f9d	-0.6152285
86	0x3e21ddc7	0.15807258
87	0x3f2baafe	0.6705779
88	0x3ec49a1c	0.38398826
89	0xbf0239d6	-0.508695
90	0xbe879540	-0.26481056
91	0xbe662bc1	-0.22477628
92	0xbcb8e134	-0.022568323
93	0xbe7a1b14	-0.24424392
94	0xbde729e6	-0.11287288
95	0x3e70c858	0.23513925
96	0x3ba70c7f	0.005097925
97	0xbe0f5711	-0.13998057
98	0xbe71f527	-0.23628674
99	0x3e3ad6e8	0.18246043
100	0xbeae4c1b	-0.3404244
101	0x3f881349	1.0630885
102	0xbddfb7dd	-0.10923741
103	0x3eee76e4	0.4657508
104	0xbea736ba	-0.3265894
105	0x3c84d105	0.01621295
106	0xbe4a1d04	-0.19737631
107	0xbe55b8a5	-0.20871218
108	0x3eb4d663	0.35319814
109	0xbe7cbd0a	-0.24681488
110	0x3ddb9899	0.10722465
111	0x3db2b0ec	0.087251514
112	0xbe327d6b	-0.17430656
113	0x3e31f855	0.17379887
114	0x3e2d71e7	0.16937982
115	0xbd76c158	-0.06024298
116	0xbd87598f	-0.06608879
117	0x3d86f5f7	0.06589883
118	0xbe8c1f9c	-0.27367866
119	0xbd92cee0	-0.071683645
120	0xbefb6a82	-0.49104697
121	0x3d8276de	0.06370328
122	0x3ec5293c	0.38508022
123	0xbdcb05fb	-0.0991325
124	0x3ef8a498	0.48563075
125	0x3ea4a20d	0.32154885
126	0x3e1ddce5	0.15416296
127	0xbeabf38d	-0.33584252
128	0x3e9a704d	0.30163804
129	0xbdb4fd22	-0.08837344
130	0x3dfda7d3	0.123855256
131	0x3eb825ba	0.35966283
132	0xbf0ddc06	-0.55413854
133	0x3fc1b859	1.5134383
134	0x400c1d7e	2.1893
135	0xbdb77fae	-0.089599
136	0xbf25d572	-0.64778817
137	0xbf603818	-0.8758559
138	0xbd516b64	-0.051127806
139	0xbe9ba61b	-0.30400166
140	0xbe18a89c	-0.1490807
141	0xbe323020	-0.1740117
142	0x3ea4efb1	0.3221412
143	0x3f3f26c4	0.74668527
144	0xbe57053c	-0.2099809
145	0x3dd941a6	0.106082246
146	0x3d54d226	0.051958226
147	0xbe034a87	-0.12821399
148	0x3cfde9f3	0.030995345
149	0x3de8d20c	0.11368188
150	0x3c2f5b76	0.010702958
151	0xbee90baf	-0.45516726
152	0x3d042139	0.032258246
153	0xbe5141fc	-0.20435327
154	0x3e8b11c7	0.27162
155	0x3c6fd51d	0.0146382125
156	0x3d3be0dc	0.04586874
157	0x3e80f744	0.2518865
158	0x3d3e02ea	0.046389498
159	0x3e73aa52	0.23795441
160	0xbeaf5bb1	-0.34249642
161	0x3c7382ed	0.014862758
162	0xbdc4d3e7	-0.0961073
163	0xbe7d9585	-0.24764068
164	0xbe9b9d78	-0.30393577
165	0x3e0a8a58	0.13529336
166	0x3dbc2410	0.09186566
167	0x3cf5c388	0.030000463
168	0xbe55bf68	-0.20873797
169	0xbd795a87	-0.06087735
170	0xbf4ac338	-0.7920413
171	0x3e0015a9	0.12508263
172	0xbe789b05	-0.24277885
173	0x3e25ecba	0.16203585
174	0xbe3e9aab	-0.18613689
175	0xbedf300e	-0.4359135
176	0xbef55ad4	-0.4792086
177	0xbecf9c2b	-0.40548834
178	0xbeb41013	-0.35168514
179	0xbe900b6e	-0.2813372
180	0xbea95c20	-0.33078098
181	0x3e6b0f9f	0.22955178
182	0x3c327c59	0.010893905
183	0x3d909a38	0.07060665
184	0xbdfd4706	-0.12367062
185	0xbe65eb77	-0.22453104
186	0xbcb36dc1	-0.02190292
187	0xbdc83efb	-0.097776376
188	0x3eaddf42	0.33959395
189	0xbe7faf6a	-0.24969259
190	0x3e9dc3d5	0.3081347
191	0x3d650830	0.05591601
192	0x3df42dfb	0.119228326
193	0xbc340cbb	-0.010989363
194	0x3e192cf3	0.14958553
195	0x3de58d61	0.112086065
196	0xbe84f1c3	-0.259657
197	0x3d113efb	0.035460453
198	0xbea58052	-0.32324463
199	0x3e0cd2cb	0.13752286
200	0x3f1095c7	0.5647854
201	0xbdacbb0a	-0.08434112
202	0x3f05118b	0.51979893
203	0xbe918a7a	-0.28425962
204	0x3df128ab	0.11775335
205	0xbe794431	-0.24342419
206	0xbd951fb2	-0.07281436
207	0x3d81975b	0.06327697
208	0xbca0d8ec	-0.019634686
209	0xbd4364d9	-0.047703598
210	0xbbe1939f	-0.006884053
211	0xbe2cbfec	-0.16870087
212	0xbd25d103	-0.040482532
213	0x3e968d84	0.29404843
214	0x3df2364e	0.11826764
215	0xbea2fdb2	-0.3183418
216	0xbd9f7d23	-0.0778754
217	0x3ec4ccd2	0.38437515
218	0x3c75e11c	0.015007284
219	0x3d9782cd	0.07397995
220	0xbc6d95bd	-0.014501032
221	0xbdf92fec	-0.121673435
222	0xbe2064eb	-0.15663497
223	0xbedba039	-0.42895678
224	0xbce43904	-0.027859218
225	0xbe614373	-0.21998386
226	0xbe44dcbf	-0.19224833
227	0xbe568ebd	-0.20952888
228	0x3db3cbce	0.08779107
229	0xbead5fac	-0.33862054
230	0x3dc3037c	0.09522149
231	0xbdf8b75e	-0.121443495
232	0x3ed606d4	0.41802084
233	0x3f0ab70f	0.54185575
234	0xbf0aea6d	-0.54263955
235	0x3edcb772	0.43108708
236	0xbf3bafcf	-0.7331514
237	0xbf011e18	-0.50436544
238	0xbf60dac9	-0.8783384
239	0x3dc28029	0.09497101
240	0xbe0de7d4	-0.13857967
241	0x3eae46de	0.34038442
242	0x3e9a2c59	0.3011196
243	0x3e322f8b	0.17400949
244	0xbec6102a	-0.38684207
245	0x3ec5d5ce	0.38639683
246	0x3e827d6a	0.25486308
247	0xbe1c2509	-0.15248503
248	0x3e35138b	0.17683236
249	0x3e32f653	0.17476778
250	0xbd2b6ea8	-0.041853577
251	0x3e0ae9ec	0.13565797
252	0x3d76e598	0.06027755
253	0x3e8c23a9	0.27370957
254	0xbe3b8052	-0.18310669
255	0xbe092442	-0.13392738

correction.mlp.0.bias f4 [10]
0	0xbcec0c5d	-0.028814489
1	0x3da1b917	0.07896631
2	0xbe01dc65	-0.1268173
3	0x3dbfdf93	0.09368815
4	0x3e78d753	0.2430089
5	0xbd19defb	-0.037566166
6	0xbc3433ba	-0.010998661
7	0xbdb34c6f	-0.08754813
8	0xbda3029d	-0.07959483
9	0x3da1b1b2	0.07895221

phi_neumann.mlp.mlp.0.weight f4 [10, 23]
0	0xbe066162	-0.13123086
1	0x3e4ee85b	0.20205824
2	0x3fafbb6c	1.3729072
3	0x3d9b17c9	0.07572896
4	0x3e84f536	0.2596833
5	0xbdb64c08	-0.089012206
6	0xbf21cc4a	-0.63202345
7	0xbe1b9e16	-0.15197024
8	0x3e7d4f73	0.24737339
9	0x3f3a806b	0.728522
10	0x3e1594f1	0.14607598
11	0x3c16055e	0.009156553
12	0xbeaa6c47	-0.33285734
13	0xbeb18bdd	-0.3467702
14	0x3d09f80c	0.03368382
15	0x3e7f7a20	0.2494893
16	0x3ee1d69c	0.44109046
17	0x3e753254	0.2394498
18	0x3e82a9b8	0.2552011
19	0xbe4365c9	-0.19081797
20	0xbadff1dd	-0.0017085631
21	0x3ae48000	0.0017433167
22	0xbce03b50	-0.027372032
23	0x3e6b2784	0.22964293
24	0xbde7e7ff	-0.113235466
25	0xbd73e2b8	-0.059542388
26	0x3dd087b3	0.101821326
27	0xbe988c40	-0.29794502
28	0xbe88c64e	-0.26713794
29	0xbee5f0ec	-0.4491037
30	0x3dd55054	0.10415712
31	0x3e17afcb	0.14813153
32	0x3ecdd666	0.40202636
33	0x3e31a127	0.17346631
34	0x3e854923	0.2603236
35	0x3ba043ce	0.0048908954
36	0xbebd01e7	-0.36915514
37	0x3ddd106c	0.10794148
38	0xbf0fc1f0	-0.561553
39	0x3e36aba0	0.17838907
40	0xbe3a4e62	-0.18193963
41	0x3c9b9d92	0.018996034
42	0xbed22ee2	-0.41051394
43	0xbb1c417b	-0.002384274
44	0x3abe6ba8	0.0014527934
45	0x3dbaf1ba	0.09128137
46	0x3ea36b44	0.31917775
47	0x3e1e7ea9	0.15478005
48	0xbf320e10	-0.6955271
49	0x3e81817b	0.25294098
50	0x3f0b7df0	0.5448904
51	0xbed4953d	-0.4152011
52	0xbe737959	-0.23776759
53	0x3f1287c8	0.57238436
54	0xbe77f69c	-0.24215168
55	0xbeac7813	-0.3368536
56	0xbc92e5a9	-0.017931776
57	0x3e0c6a0b	0.13712327
58	0x3ebf9f4f	0.3742623
59	0x3ed34e89	0.41270855
60	0xbf38b6b0	-0.7215376
61	0x3ebe664c	0.3718742
62	0x3e74c3f3	0.23902874
63	0x3d16c6d4	0.03681071
64	0xbe02c069	-0.12768711
65	0x3f34a493	0.7056362
66	0x3a48532a	0.0007641787
67	0x3a907346	0.0011020682
68	0xbb04a69e	-0.0020240913
69	0x3e0edf48	0.13952363
70	0x3def77ab	0.11692747
71	0x3e83cdf0	0.25743055
72	0xbdb089f7	-0.08620065
73	0x3ea3a9c9	0.31965473
74	0xbd800f52	-0.06252922
75	0xbeb35c56	-0.35031384
76	0xbcdd1679	-0.026988255
77	0x3e8f2aea	0.27962428
78	0xbed3cf6e	-0.41369194
79	0x3d047741	0.032340292
80	0x3da8f0b2	0.08249034
81	0x3f0c9e30	0.54928875
82	0x3de04c2f	0.10952031
83	0xbcb46332	-0.022019956
84	0x3f5a0166	0.85158384
85	0x3e64bd50	0.22337842
86	0xbb937572	-0.0045000846
87	0xbd792df1	-0.06083483
88	0xbea54d71	-0.32285646
89	0x3b99f149	0.004697953
90	0x3b5f31ea	0.003405685
91	0xbd3fa4b2	-0.046787925
92	0xbe919174	-0.28431284
93	0xbc5ce981	-0.013483406
94	0x3da5e28b	0.0809985
95	0x3ec7ef07	0.3904955
96	0xba69e059	-0.0008921675
97	0xbe80d77c	-0.25164402
98	0xbe83ec18	-0.25766063
99	0xbedf2ddd	-0.43589678
100	0xbd63f147	-0.055650022
101	0xbcf82419	-0.03029065
102	0x3ddd0ce9	0.10793478
103	0x3e3b9481	0.18318368
104	0x3d9d4ce3	0.076806806
105	0xbeff880c	-0.49908483
106	0xbe1deafd	-0.15421672
107	0xbde54b54	-0.11196008
108	0xbe1aa2ed	-0.15101214
109	0x3e949c82	0.29025656
110	0xbd9b4945	-0.075823344
111	0x3eab3302	0.33437353
112	0xbaf5eb5d	-0.001876216
113	0x3a72a4ee	0.0009256144
114	0x3c016495	0.007897516
115	0x3e034a74	0.1282137
116	0xbd24fab3	-0.040278148
117	0x3ec681e7	0.38770983
118	0x3d195336	0.03743287
119	0x3ea77cef	0.32712504
120	0x3cc97958	0.024593994
121	0x3e1144a3	0.14186339
122	0xbdd232dc	-0.10263607
123	0x3ec1cd33	0.37851867
124	0x3e4a1ad1	0.19736792
125	0xbed16f29	-0.4090512
126	0x3ea7ff09	0.32811764
127	0xbd8c3a22	-0.068470255
128	0xbdd6daee	-0.10490976
129	0x3b8696c0	0.0041073263
130	0xbed6de64	-0.41966546
131	0x3db41aeb	0.08794197
132	0xbe972274	-0.29518473
133	0xbec54478	-0.385288
134	0xbea992ae	-0.3311972
135	0x39ecb134	0.00045145454
136	0x3a56c2d5	0.00081924844
137	0xb922823e	-0.00015498043
138	0x3e5c62d0	0.21522069
139	0x3ddb123d	0.10696838
140	0x3e4a77e4	0.19772297
141	0x3ed1a032	0.40942532
142	0x3e823a60	0.25435162
143	0xbea51b0e	-0.32247204
144	0xbe17dd84	-0.14830595
145	0xbda6fe97	-0.08154028
146	0xbebf957f	-0.37418744
147	0x3e0d777c	0.13815111
148	0x3e51cdef	0.20488714
149	0x3c3a1585	0.01135767
150	0xbe70f1f6	-0.23529801
151	0x3e34924d	0.17633934
152	0xbed0789b	-0.40717015
153	0x3f2cbf6e	0.674796
154	0x3e9fa289	0.31178692
155	0xbe00e2ed	-0.12586565
156	0xbe8a2aa4	-0.26985657
157	0xbc428dea	-0.011874655
158	0x3a88cd70	0.0010437202
159	0xbba7fbf1	-0.0051264693
160	0x3dbdd0eb	0.092683636
161	0x3ea3ecb8	0.3201654
162	0x3ecd123e	0.4005298
163	0xbf352cf2	-0.70771706
164	0xbe2ecc91	-0.17070223
165	0xbe75907d	-0.23980899
166	0xbef5968c	-0.4796642
167	0x3de85132	0.11343612
168	0x3e731eea	0.23742262
169	0xbee1effb	-0.44128403
170	0xbe3708fa	-0.17874518
171	0x3eab834c	0.3349861
172	0x3d744272	0.05963368
173	0xbe314c33	-0.17314224
174	0x3edc1ef8	0.42992377
175	0xbe7c5524	-0.24641854
176	0x3e900ac1	0.28133205
177	0xbec48f38	-0.38390517
178	0xbede29a9	-0.4339116
179	0x3ef68ad6	0.48152798
180	0x3dd54661	0.10413814
181	0x3b0a3529	0.0021088815
182	0x3a836e1b	0.0010027321
183	0xbcea36eb	-0.02859064
184	0xbd2ca070	-0.042145193
185	0x3e81231c	0.252221
186	0x3eabcd70	0.33555174
187	0x3d78ccf5	0.060742337
188	0x3e90b391	0.28261998
189	0x3f02d6de	0.5110911
190	0x3ec79eff	0.38988492
191	0x3e710fc3	0.23541169
192	0xbca790f0	-0.020454854
193	0x3d834f06	0.06411557
194	0x3e644140	0.22290516
195	0x3c97f909	0.018551366
196	0x3e995edc	0.29955184
197	0x3ecae86a	0.39630443
198	0x3f1740fe	0.59083545
199	0x3dda5229	0.10660202
200	0xbe0de220	-0.13855791
201	0x3e9c1d45	0.3049108
202	0xbe7acfef	-0.24493383
203	0x3e280753	0.16409044
204	0x3b03e2b5	0.0020124142
205	0xbabd24c2	-0.001443051
206	0xbd7f886f	-0.062385973
207	0xbe4bceff	-0.19903181
208	0x3df6584d	0.12028561
209	0xbeb6a4b6	-0.3567254
210	0xbee6653a	-0.44999105
211	0xbe7464ee	-0.23866627
212	0xbea27f36	-0.3173768
213	0x3f02ac66	0.5104431
214	0xbe1c6ecc	-0.1527664
215	0xbd3c60bd	-0.045990694
216	0xbe1f4596	-0.15553889
217	0x3e09e1dd	0.13465066
218	0xbe966c74	-0.29379618
219	0x3eb8e34e	0.3611092
220	0x3e91920e	0.28431743
221	0xbee9b901	-0.4564896
222	0x3e368143	0.17822747
223	0xbef86ffe	-0.48522943
224	0xbe038ac9	-0.12845911
225	0x3c590cb0	0.013247654
226	0x3f1d3eb3	0.61423796
227	0xb9bc3957	-0.00035900876
228	0x3a470df8	0.0007593329
229	0x3d337580	0.04381323

phi_neumann.mlp.mlp.0.bias f4 [10]
0	0xbd9b8f60	-0.07595706
1	0x3bec3b2e	0.007209203
2	0xbd9b8e8a	-0.075955465
3	0x3e7787d9	0.24172916
4	0x3b61d091	0.003445659
5	0x3db1e510	0.08686268
6	0x3e0f9182	0.1402035
7	0x3e5fc436	0.21852192
8	0x3d1ba9f0	0.038003862
9	0x3e1b91c0	0.15192318

phi_neumann.mlp.mlp.2.weight f4 [10, 10]
0	0xbe244ba2	-0.16044477
1	0x3ede53bf	0.43423268
2	0xbf80d454	-1.0064797
3	0x3e544279	0.20728482
4	0xbdddef3a	-0.108366445
5	0xbf01c243	-0.50687045
6	0x3ddcdc0b	0.10784157
7	0xbda9a3f2	-0.08283223
8	0x3ec2a175	0.38013807
9	0x3cef41f5	0.029206255
10	0xbee48e39	-0.44639757
11	0xbe0c12d1	-0.13679053
12	0xbe538409	-0.20655836
13	0x3de92d29	0.11385567
14	0xbecf0894	-0.40436232
15	0xbe993b92	-0.2992826
16	0x3ec58c46	0.38583583
17	0x3da40180	0.080080986
18	0x3db1da80	0.08684254
19	0xbed2bd9f	-0.41160294
20	0xbe37a301	-0.17933275
21	0x3e7e4851	0.24832274
22	0xbcbd3d9d	-0.023100669
23	0xbd7557bd	-0.059898127
24	0x3e652a30	0.22379375
25	0x3ed93c18	0.4242866
26	0xbf01856f	-0.5059423
27	0xbe277541	-0.16353323
28	0xbece590d	-0.40302315
29	0xbe1d8437	-0.15382467
30	0x3dfc8ec3	0.12331917
31	0x3c42d9a0	0.011892706
32	0xbdc1c565	-0.09461478
33	0x3e463b59	0.19358577
34	0x3e325487	0.17415057
35	0xbdfa0eab	-0.12209829
36	0x3c95d80a	0.018291492
37	0x3e693405	0.2277375
38	0x3eb7d792	0.35906655
39	0xbe958b59	-0.29207876
40	0x3ddc9776	0.107710764
41	0x3d87ef94	0.06637493
42	0xbf0c3888	-0.5477376
43	0x3e6c605e	0.23083636
44	0xbe40583c	-0.18783659
45	0x3dd28330	0.10278928
46	0xbef02f4d	-0.46911088
47	0xbe173e64	-0.14769894
48	0xbee24916	-0.44196385
49	0x3cb5d3ff	0.022195814
50	0x3e2b835a	0.16749325
51	0x3ea835cd	0.32853547
52	0xbe7630dd	-0.24042077
53	0xbf101deb	-0.5629565
54	0x3ecf4762	0.40484148
55	0x3ee84c49	0.453707
56	0x3e2728d8	0.16324174
57	0xbd09ce30	-0.0336439
58	0x3e627cd5	0.22117932
59	0x3edaad99	0.4271057
60	0xb9d0db72	-0.0003983635
61	0x3ee9b565	0.45646206
62	0x3ea06410	0.31326342
63	0xbe134114	-0.14380294
64	0xbf31eb79	-0.6949993
65	0xbde34298	-0.11096686
66	0x3d2a83cb	0.041629594
67	0x3f032202	0.51223767
68	0x3dab40ac	0.083619446
69	0x3e942082	0.28931051
70	0xbf06adb8	-0.52608824
71	0x3ed98946	0.42487544
72	0x3e37fd35	0.17967685
73	0x3e92ad64	0.28647912
74	0xbe156746	-0.14590177
75	0xbec64759	-0.3872631
76	0xbe29fe3d	-0.1660089
77	0x3eee5270	0.4654727
78	0x3dbd6bc8	0.09249073
79	0xbc9ad712	-0.018901382
80	0x3ebab3a4	0.3646518
81	0x3ecafda0	0.39646626
82	0xbf63b2ac	-0.88944507
83	0x3cee8d48	0.029120103
84	0x3eeee326	0.46657676
85	0x3f0d12ce	0.5510682
86	0x3e2f1f61	0.17101814
87	0xbd8adfbf	-0.067809574
88	0xbe56f892	-0.2099326
89	0xbe3e3a4b	-0.18576925
90	0x3e181f8f	0.14855789
91	0x3e22e369	0.15907063
92	0xbf88d419	-1.0689727
93	0xbd4cd4a8	-0.050007492
94	0xbddc4ae9	-0.107564755
95	0xbed0d9b8	-0.40791106
96	0x3e4046e4	0.18777043
97	0xbe54c49c	-0.20778126
98	0x3e8a81ef	0.27052256
99	0xbebf0b60	-0.37313366

phi_neumann.mlp.mlp.2.bias f4 [10]
0	0x3d248928	0.040169865
1	0xbead3186	-0.33826846
2	0xbd0510ce	-0.03248673
3	0xbed5e52d	-0.4177641
4	0x3d1d7e83	0.03845073
5	0xbe274fb0	-0.16338992
6	0xbdc774f1	-0.09739102
7	0x3e532a40	0.20621586
8	0xbc5246a9	-0.0128342295
9	0x3cc603b2	0.024171684
