mixed/dsgps/results/30_ite_lamb_0_gamma_1/ckpt/best_model.pt (torch, 96389 bytes, 93 tensors)

laynorm.weight f4 [10]
000000 00 00 80 3f 00 00 80 3f 00 00 80 3f 00 00 80 3f
       1.0 1.0 1.0 1.0
000010 00 00 80 3f 00 00 80 3f 00 00 80 3f 00 00 80 3f
       1.0 1.0 1.0 1.0
000020 00 00 80 3f 00 00 80 3f
       1.0 1.0

laynorm.bias f4 [10]
000000 00 00 00 00 00 00 00 00 00 00 00 00 00 00 00 00
       0.0 0.0 0.0 0.0
000010 00 00 00 00 00 00 00 00 00 00 00 00 00 00 00 00
       0.0 0.0 0.0 0.0
000020 00 00 00 00 00 00 00 00
       0.0 0.0

phi_to.mlp.mlp.0.weight f4 [10, 23]
000000 cd b4 d6 be 25 f4 c9 3e 78 39 1d 3f 20 b9 78 be
       -0.41934815 0.3944408 0.61415815 -0.2428937
000010 ad 70 b8 be 86 d0 be 3d 01 cd 21 3e 24 d0 2b 3a
       -0.36023465 0.093171164 0.15800859 0.00065541477
000020 41 d5 00 3e 79 f3 a2 be 88 df 99 3a 29 ff a0 be
       0.1258135 -0.3182638 0.0011739591 -0.31444672
000030 dc a0 26 3d 3b 58 70 3e 5b 95 4a be e2 c5 89 3e
       0.04068075 0.23471157 -0.19783537 0.26908785
000040 88 b0 6d be f0 67 2b be 5a 98 a7 bd 8d a3 92 3c
       -0.23211873 -0.16738868 -0.08183356 0.017900253
000050 76 25 64 3b 61 e2 ea ba b1 14 0c 3e 0c 9f c2 be
       0.0034812368 -0.0017920249 0.13679768 -0.38011968
000060 56 3a 8f be 36 cd 60 3e bf 83 a1 bd 01 11 b6 3e
       -0.27974194 0.21953282 -0.07886457 0.35559848
000070 28 43 14 bd 96 bf f7 3e 1a 07 ef be 10 14 78 3e
       -0.036196858 0.48388356 -0.46685106 0.24226403
000080 90 f6 92 be 12 91 d4 bd 80 4f 3e 3e ce b0 05 bf
       -0.28703737 -0.103792325 0.18585014 -0.5222291
000090 8a 86 7b be 35 88 25 3d 25 bc a6 3e bf 1c 1e bf
       -0.24563041 0.0404131 0.32565418 -0.61762613
0000a0 a2 78 08 3f 30 e7 8d bc 9a 50 a5 3d 4a 8c 73 3a
       0.5330907 -0.017322153 0.08072014 0.0009290619
0000b0 a7 cc a0 ba 61 72 3d 3d d9 48 3f be 84 9a bb be
       -0.0012268022 0.04625166 -0.18680133 -0.36641324
0000c0 aa f9 31 3f be 06 91 3c 9c 31 74 3e 1d 37 2d be
       0.6952158 0.01770341 0.2384705 -0.16915555
0000d0 65 62 13 3e f1 cc e3 3e 9f 67 91 3c 19 68 9e 3d
       0.14393003 0.44492295 0.017749606 0.07734699
0000e0 80 49 90 be 80 60 a5 3e 0b 2c 1c bf 15 87 9c bd
       -0.28181076 0.32300186 -0.61004704 -0.07642952
0000f0 de 84 87 3c f1 37 61 3f 68 78 c6 bb 50 52 8a be
       0.016542848 0.87975985 -0.006056834 -0.27015924
000100 60 2a 24 3e 8c d5 9c be 42 79 c0 3a 70 7d 0b ba
       0.1603179 -0.30631673 0.0014684575 -0.0005321121
000110 7d 01 82 bd 69 a1 d6 bd 7d 1b 03 bd 28 89 a6 be
       -0.0634794 -0.10480005 -0.032008637 -0.32526517
000120 ca 51 79 3e 6a 20 8a be 61 1b e9 bd ac bb 80 bd
       0.24347606 -0.26977855 -0.11382175 -0.062857956
000130 bf 72 b9 3d 96 89 b3 3e ab 6d 10 bd 35 77 00 be
       0.09055089 0.35065907 -0.035260838 -0.12545474
000140 ec 25 f9 3e 6e ae 51 bf 66 be 4f 3d f4 66 0c 3f
       0.48661745 -0.81906784 0.050718687 0.54844594
000150 96 da 41 be fd fd fb bc 7b 9e fb 3e 18 7d 42 be
       -0.1893104 -0.03076076 0.49144349 -0.18993032
000160 39 7c 05 be 23 fb 06 3a 21 d0 37 ba 15 46 20 be
       -0.13035668 0.00051491166 -0.00070119096 -0.15651734
000170 f2 5c d8 be 02 fe e6 bd c4 ea 7b be b8 4e cb be
       -0.42258412 -0.11278917 -0.24601275 -0.39708495
000180 ab 2c c8 bd 92 4c 30 bf f6 0b e7 be 01 9a cc 3d
       -0.09774145 -0.6886684 -0.45126313 0.099903114
000190 af 32 65 3e 49 a3 79 be 9b 80 a4 3c e3 18 46 3e
       0.22382616 -0.24378695 0.020080855 0.19345431
0001a0 d5 fc 31 3e b8 47 da be fd 4b 5e be e1 9c b9 be
       0.17381604 -0.42632842 -0.21708675 -0.36252502
0001b0 4e 4b d4 be 07 30 d5 3d 35 53 b1 3b 59 12 90 be
       -0.41463703 0.10409551 0.0054115304 -0.28138998
0001c0 f7 3d 16 3b d9 72 c1 ba b5 8e be 3d 12 65 6b be
       0.0022925118 -0.0014758959 0.09304563 -0.22987774
0001d0 5d 01 da 3d 8f 5e 33 3e 03 72 b5 bd 78 e2 54 3e
       0.10644791 0.1751654 -0.08859637 0.20789516
0001e0 fe 52 37 be c3 cc 43 3e 37 07 88 be 76 86 f3 3e
       -0.17902753 0.19121079 -0.26568004 0.47563523
0001f0 00 43 79 3e cd e1 b7 3e 9f 0b dd 3d 5c 3e 75 bd
       0.24341965 0.3591446 0.10793232 -0.059873924
000200 05 1e 08 be 23 15 b7 3c 27 b8 d2 3d d3 3c 2b be
       -0.13292702 0.022348946 0.102890305 -0.16722421
000210 63 d2 5c 3e 6f 65 80 3e 55 89 9e be af a9 b4 bb
       0.21564631 0.25077388 -0.3096415 -0.005513392
000220 aa e8 97 3b 50 e6 01 bd de 5b 56 be 28 ac bf 3e
       0.00463589 -0.031713784 -0.20933482 0.37436032
000230 03 b1 e1 3d 7f 9f ea bc ba 86 f5 3e d0 df 91 be
       0.110200904 -0.028640507 0.4795435 -0.28491068
000240 63 a7 9f bd 4d 51 e8 3e 8a f9 5e bd 18 66 85 3e
       -0.07795598 0.45374528 -0.054437198 0.26054454
000250 a2 f2 8c 3e bf a4 8a 3e fd 85 19 bf c3 11 ca 3e
       0.27528864 0.27078816 -0.59970075 0.39466676
000260 54 b5 bc be f6 b0 b8 3e 7b e0 fc bd f3 9d 39 3d
       -0.36857092 0.3607251 -0.12347504 0.045316648
000270 49 bb 8b 3e b0 be 57 3d 07 8c 2f 3a 82 94 ad b9
       0.27291325 0.05267209 0.0006696586 -0.00033107778
000280 d7 8c d3 bd 1e 48 19 bd e7 7e 7b 3e 64 01 94 bd
       -0.103295974 -0.037422292 0.24560128 -0.07226828
000290 bf 9a 83 be 46 65 85 3c 0f bd 1a be 3b 45 38 bd
       -0.25704 0.016283643 -0.15111183 -0.0449879
0002a0 48 cf 66 bd 77 2e 22 3e ad 0b 96 be dc a0 04 bf
       -0.056350023 0.15838037 -0.29305783 -0.5180795
0002b0 10 ab 88 3d 16 5e 76 3e f8 3f 84 3e 93 88 29 be
       0.066732526 0.24059328 0.25830054 -0.16556005
0002c0 97 51 9b bd e1 49 ac 3d 08 ed 80 be 5e 33 8f 3e
       -0.075839214 0.08412529 -0.2518084 0.27968878
0002d0 2a f6 54 be 89 b3 f8 b9 b4 9b 15 39 bf 07 34 be
       -0.20797029 -0.0004743601 0.00014267751 -0.1758108
0002e0 b9 fd bd 3e 6f f9 8f bd 92 a8 d5 3d 15 e6 68 3d
       0.37107638 -0.070299976 0.10432543 0.05686005
0002f0 1a b8 04 bf e9 72 b6 3e a2 55 53 be eb 9c 47 be
       -0.51843417 0.35634544 -0.20638135 -0.19493453
000300 f6 ab f0 bd b1 ef 40 be bd 53 e0 be c7 96 c1 bf
       -0.11751549 -0.18841435 -0.43813887 -1.5124139
000310 c8 29 03 bd b8 ed b6 3e 3b 0d 72 3e a1 11 2e 3e
       -0.032022268 0.3572824 0.2363786 0.16998912
000320 34 de a9 be 9f a7 ea be e1 f3 39 be 5b d4 d1 be
       -0.3317734 -0.4583101 -0.18159439 -0.40982327
000330 74 d6 d6 3a cc 11 31 39 df 28 c7 3d 36 0a 19 bd
       0.0016390816 0.00016886665 0.097245924 -0.037363254
000340 9e 3e 1e 3f 21 0f 54 be d4 ae 32 3b 71 58 f5 bd
       0.61814296 -0.20708896 0.002726485 -0.119797595
000350 53 15 3f 3e 43 36 71 3d a7 3d a7 bd d9 5d bd 3e
       0.18660478 0.05888964 -0.08166056 0.36985663
000360 e4 04 bf bc b0 bf aa 3e b3 d1 95 be ec 63 b8 be
       -0.023317762 0.3334937 -0.2926155 -0.36013734
000370 dd 7a 36 3e 87 d6 1c 3c a0 a7 9c be 8b 9e be bd
       0.17820306 0.009572632 -0.30596638 -0.093075834
000380 0d e5 35 3f 77 fa d9 bd 03 bb a9 be 28 57 a5 39
       0.7105263 -0.106434755 -0.3315049 0.0003153619
000390 82 47 6d 3a 05 73 e8 bd
       0.0009051488 -0.11350063

phi_to.mlp.mlp.0.bias f4 [10]
000000 e2 c4 a3 bd d6 19 b2 bc 20 bc c6 bc 59 d2 9b 3d
       -0.07996537 -0.021740835 -0.024259627 0.0760848
000010 78 1a 52 3a 87 5e 19 3a cc 34 8f bc d6 04 14 3e
       0.00080148084 0.00058505725 -0.01748123 0.1445497
000020 e3 b2 f9 3c 01 f3 cf 3d
       0.030480808 0.10153771

phi_to.mlp.mlp.2.weight f4 [10, 10]
000000 e5 ed 20 3e d8 99 cb 3e 47 22 d1 be dc 2e f6 3d
       0.1571575 0.3976581 -0.40846464 0.120206565
000010 64 14 84 3e 67 30 fd 3e 9f 0a 80 3e 15 32 b0 3e
       0.25796807 0.4945099 0.25008103 0.3441321
000020 82 d1 1f bf 88 f2 03 3e 23 50 b3 3d 71 f4 22 bd
       -0.6242906 0.12885487 0.08755519 -0.0397839
000030 63 c6 fc bd e0 47 b4 3e 2a 59 e4 3c a4 a0 d0 be
       -0.12342527 0.35211086 0.027874548 -0.4074756
000040 52 16 88 3e 82 e1 48 3d 2b b1 52 be b6 0b 1e 3e
       0.2657953 0.049043186 -0.20575397 0.15434155
000050 46 0c 96 be a7 5c 45 3e de 9b d6 bd 71 f6 db 3d
       -0.2930624 0.19273625 -0.10478948 0.10740364
000060 68 82 85 3e eb fb ca be 53 67 24 bf 1f a7 03 3d
       0.26076055 -0.39645323 -0.6422016 0.0321418
000070 af ee 49 3f 6d 9b bc be 59 89 72 3e c4 52 35 be
       0.7887983 -0.3683733 0.23685206 -0.17707354
000080 3f 39 1a bd b2 74 cb 3e a0 30 a6 be 13 86 91 be
       -0.03765225 0.3973747 -0.32458973 -0.28422603
000090 b2 cd f4 bd b2 09 32 3c 3d d9 90 3e 1b 65 83 be
       -0.11953296 0.010866569 0.2829074 -0.25663075
0000a0 62 e9 00 3f 52 5d 98 be 41 9e e3 be 9e 35 11 bf
       0.50356114 -0.29758698 -0.44456676 -0.5672244
0000b0 4a 72 04 bf 3e 4b e9 bc 44 ad 2a be 33 75 b6 3c
       -0.5173689 -0.028478261 -0.16667658 0.022272682
0000c0 a4 1b 07 be 53 5e 6e 3d 12 e7 4f 3e 57 0c ca 3e
       -0.13194138 0.058195423 0.2030299 0.3946254
0000d0 40 5d 34 be 92 0b 81 3e 8f 18 ff 3e ec 53 5e 3e
       -0.17613697 0.2520414 0.49823424 0.21711701
0000e0 0e 4d 11 be 69 2a 3a 3e 19 13 dc be 01 d0 1b 3f
       -0.1418955 0.1818024 -0.4298332 0.60864264
0000f0 f4 12 c0 be 09 33 1f bf 33 b5 1e bf fd c3 24 3e
       -0.3751446 -0.6218725 -0.6199524 0.16090389
000100 46 53 81 3e d5 20 8d bd e7 f2 9c bc 32 8a 25 3e
       0.25258845 -0.06891028 -0.019158794 0.16165999
000110 f3 b7 6e 3e ff df 8b 3e 89 51 aa bd ef 06 ba 3e
       0.23312359 0.27319333 -0.08316333 0.36333415
000120 0c 99 17 3d af 44 ef 3e d5 1e a9 be b3 07 70 bd
       0.03701119 0.4673209 -0.33031335 -0.058601093
000130 cb bf ec be cd 8a 35 3d 5b fd dc be 2a f1 fb 3e
       -0.46240076 0.044321824 -0.43162045 0.4920743
000140 1e 44 9f be e8 d1 12 3f db b7 05 bf aa a7 1d bf
       -0.31106657 0.5735154 -0.52233666 -0.6158396
000150 8a b6 18 3e 07 2d 09 bd 17 d2 e9 3e 25 22 86 bd
       0.14913383 -0.033490207 0.45668098 -0.06549481
000160 f5 f1 d5 3e d3 ce 3a bd 65 b2 9d 3e 73 0a dd 3d
       0.4178616 -0.0456074 0.30800167 0.10793009
000170 c8 fa 0d be 1c 22 3f bb 0a d1 90 3e cc 24 a7 3e
       -0.13865197 -0.0029164618 0.28284484 0.3264526
000180 f8 3b ed be 7a 80 e6 be b1 87 42 3e 44 c3 e0 be
       -0.46334815 -0.45019895 0.18997075 -0.43898976

phi_to.mlp.mlp.2.bias f4 [10]
000000 03 d5 31 bd e0 5a 52 3d b9 b1 1b bd 96 a8 0a 3e
       -0.043416034 0.051356196 -0.038011286 0.13540873
000010 d3 c3 3d bc 62 33 d9 3b 92 54 c9 bd e1 ed 82 3d
       -0.011582333 0.0066284398 -0.09830584 0.06393028
000020 60 e0 7c 3d 78 cb 4a bd
       0.06173742 -0.04951045

phi_from.mlp.mlp.0.weight f4 [10, 23]
000000 11 48 b3 be 9a f1 79 be 22 05 95 3e e0 de 20 be
       -0.3501592 -0.2440857 0.2910548 -0.1571002
000010 f2 92 33 3e 0f ac 4c 3d 45 30 96 bd 0c 3c 4e bb
       0.17536524 0.049968775 -0.073334254 -0.0031468896
000020 7d c4 d0 be 75 3c 8b be d2 39 32 be 6b bd 6d 3e
       -0.4077491 -0.27194563 -0.17404869 0.23216788
000030 0c fc cd 3e 4c 1b 06 be 05 66 b5 bc 8b ba 82 bf
       0.4023136 -0.1309635 -0.022143373 -1.0213178
000040 85 9c 6a be 1a 3c 7f bd 3c f1 b1 3e 15 ab 80 be
       -0.2291127 -0.062313177 0.3475436 -0.25130525
000050 cf 79 a4 39 0b 12 2b 39 ba dc 4c 3d 1b c4 a8 3e
       0.00031371272 0.00016314552 0.05001519 0.32962117
000060 a0 1e 6a be 56 b3 56 3d e2 36 80 3c ea 3e 94 3d
       -0.22863245 0.05241712 0.01565117 0.072385624
000070 49 b5 4a 3f 21 1d 1f be 35 d0 4b 3f 18 ad a7 bb
       0.7918287 -0.15538456 0.79614574 -0.00511707
000080 79 99 05 be f9 cf 55 3e 4e eb c3 3e 8b e8 e8 be
       -0.13046826 0.20880117 0.3826546 -0.45489916
000090 13 58 85 3e 43 2a 96 3c 7f ce ad be 46 e2 ca 3e
       0.26043758 0.018330699 -0.33946607 0.39625758
0000a0 65 07 3e be 10 e2 b0 3e af 9d 0f be 47 7c d8 3a
       -0.18557508 0.34547472 -0.14024995 0.001651653
0000b0 82 ae 04 3a ca 6e 0f be 91 b0 27 3e fa 33 6f be
       0.0005061404 -0.14007106 0.16375948 -0.23359671
0000c0 f2 da ea bd 80 ed 32 3e 02 57 24 be f5 74 70 bf
       -0.11467542 0.17473412 -0.16048816 -0.9392846
0000d0 86 47 56 3f 41 74 71 3e 2b 2e b8 3e 2a 7d 98 be
       0.83702886 0.23579504 0.35972723 -0.29782993
0000e0 51 6b a4 be 90 fc d7 bd ff 23 a0 3e 9e f2 2c be
       -0.32113126 -0.10546219 0.31277463 -0.16889426
0000f0 75 b5 bc 3e c4 9d f6 3d d2 5d 04 be 98 f9 38 3e
       0.3685719 0.1204181 -0.12926415 0.18063962
000100 eb 70 45 3d e9 71 45 3c a5 93 4f 3b da 99 42 ba
       0.04820339 0.012051084 0.0031673696 -0.00074234384
000110 fa 08 0b be 57 5d c9 3e ea 6b 33 be 3d 7e d8 3d
       -0.13577643 0.39329025 -0.17521635 0.10570953
000120 5e bf ee 3d 14 a2 0f be 32 ac 8a 3f c1 a1 98 3e
       0.11657594 -0.14026672 1.08338 0.29810908
000130 72 9e 57 3f fa 23 e3 3d 2b 9b 89 be 88 64 18 3e
       0.84226143 0.11090846 -0.26876196 0.148821
000140 3e 7c 6e 3e f0 17 87 be d7 e2 b0 3c 8c ff 43 be
       0.23289582 -0.2638545 0.02159254 -0.19140452
000150 ab c0 e3 be 10 5d 95 3e 75 d8 ef be 98 42 9a 3e
       -0.44482931 0.29172564 -0.4684483 0.30128932
000160 a4 1c 1f 3e 18 f0 49 3b f0 7a 2c bb 7b e1 99 be
       0.1553827 0.0030813273 -0.0026318394 -0.3005484
000170 76 6e 06 3e 32 56 da 3e 2c a5 de bd 0c 03 19 be
       0.13128075 0.42643887 -0.10871348 -0.14942569
000180 d2 05 9d be 10 a8 ed 3d 70 50 cc 3e c4 c0 71 3e
       -0.30668503 0.11604321 0.3990512 0.2360869
000190 9c fe 4d be 55 5e ae bd e2 79 dd 3d f9 38 1d 3e
       -0.20116657 -0.08514086 0.10814263 0.15353765
0001a0 69 f4 ed be d4 bb 58 3e 3b 52 41 bd 6a 9a 6b 3e
       -0.46475533 0.211654 -0.04719756 0.23008123
0001b0 d0 81 bd be 41 f1 04 bf 82 1f d5 3e 4a d2 bb 3e
       -0.37013102 -0.51930624 0.416256 0.36683875
0001c0 9e e0 8d 3b 45 2e f9 ba 02 44 4f bd 7a 10 94 be
       0.004329755 -0.0019010982 -0.050601967 -0.2891882
0001d0 52 d1 61 3e f4 87 20 be 0b f3 f7 3e 5a dc a9 be
       0.22052506 -0.15676862 0.48427615 -0.33175927
0001e0 87 cf 34 bd f9 fd d5 be a5 4a 21 3e 6f d2 d4 3e
       -0.044143226 -0.41795328 0.15751131 0.41566798
0001f0 45 15 92 3d dd 42 04 be ee 24 eb 3e 6d d1 29 bd
       0.07132963 -0.12916131 0.45926613 -0.04145949
000200 ed 42 34 be b2 cb 3d bd 03 77 19 be 4e c8 b1 3e
       -0.17603655 -0.046336837 -0.14986806 0.34723133
000210 98 0f 84 be 87 08 c5 be 70 c8 0b bb b9 b3 59 ba
       -0.25793147 -0.38483068 -0.0021329187 -0.0008304674
000220 26 59 fa 3a 6f 53 0d bd e4 72 30 be 8a 8c 35 3e
       0.0019100055 -0.034503397 -0.17231327 0.17729393
000230 a9 b9 b4 bb 68 b6 98 be f2 b8 15 3e fe 9e 06 be
       -0.0055152965 -0.29826665 0.14621332 -0.13146588
000240 b2 cd c1 be 93 8f a7 3e cd a9 61 be 94 f1 c3 be
       -0.37852246 0.32726726 -0.2203743 -0.38270247
000250 5e 18 45 3e 5c 09 8d be c5 c4 b9 bd fe 88 df be
       0.19247577 -0.27546203 -0.09070734 -0.43659204
000260 f4 04 9a be f8 14 1d 3e 86 ed c7 be 1d f0 9c 3e
       -0.30081904 0.1534003 -0.39048404 0.30651942
000270 bd 54 0c bf ab 5d 98 3d 7f 35 1d ba 05 a6 14 36
       -0.548168 0.07439741 -0.0005997046 2.2150355e-06
000280 d2 92 7b bd 49 b2 c9 3d 7e 18 f1 be d0 ff 84 bd
       -0.061419316 0.09848458 -0.47089 -0.06494105
000290 ca fb 87 be 2e 8f e7 be 93 d4 de 3d b1 ed ee bd
       -0.26559287 -0.45226425 0.10880389 -0.1166643
0002a0 24 a8 aa 3c 09 fe f7 3e b8 b4 ba bb d8 05 5b 3d
       0.020832129 0.48436 -0.005697813 0.05347237
0002b0 51 36 ce 3e bf fd 89 be 25 91 14 bd da 9c ad 3e
       0.40275815 -0.26951405 -0.036271233 0.3390873
0002c0 4a 63 14 3f eb 08 c3 3e 5e 61 fb bd aa f7 9e 3d
       0.57964003 0.3809274 -0.12274431 0.07762082
0002d0 65 d5 91 be 4d 29 ad ba 7e 0d de 39 bc 74 a4 bc
       -0.2848312 -0.0013211161 0.00042353192 -0.020075195
0002e0 12 14 99 3e 21 ba d6 bd f4 57 9f 3d 52 92 f1 3c
       0.29898125 -0.1048472 0.077804476 0.029488716
0002f0 cc b2 e0 3d d3 c5 be 3e 96 72 dd be b4 a6 fd bd
       0.10971603 0.37260303 -0.43251485 -0.12385312
000300 86 ef 12 bc 98 81 de 3d 23 e6 00 3f d8 fc a1 3e
       -0.00896824 0.10864562 0.5035116 0.31638217
000310 45 29 61 bf 95 6f 00 bf 44 47 70 3d a2 30 e7 3c
       -0.879536 -0.5017026 0.058661714 0.028221432
000320 62 21 b2 3d 51 32 e2 bc 00 ad d8 3c a6 3d b7 3e
       0.086977735 -0.027611883 0.02644968 0.35789222
000330 7c 5f c7 3a 1c 8b 93 b9 af fd 8b bd c0 24 b4 be
       0.0015210952 -0.0002814167 -0.06835496 -0.35184288
000340 98 2a 6a be eb 12 c4 3d 62 13 bf 3d dd 36 11 3e
       -0.2286781 0.09573921 0.09329869 0.14181085
000350 05 8a 4c 3e 52 c7 75 be 02 50 4b be bb 51 41 bf
       0.19974525 -0.24001816 -0.1985474 -0.75515336
000360 31 2f 83 bd 54 07 9e be c3 a8 29 3e b2 e9 28 be
       -0.064054854 -0.30864966 0.16568284 -0.16495398
000370 ce e3 88 3d 9f bf b6 3d d3 ca c0 be aa c3 d4 3c
       0.06684075 0.089232676 -0.37654743 0.025972206
000380 ad 24 a0 be de 46 8c 3e 74 7e 0d 3f 1d 9c 66 bc
       -0.3127798 0.27397817 0.5527108 -0.014075306
000390 49 e7 ef 3b 86 b0 fa 3d
       0.0073212725 0.122407004

phi_from.mlp.mlp.0.bias f4 [10]
000000 af c8 f0 bc 74 75 9e 3d 0a b4 c5 3e 54 e7 c1 bc
       -0.029392568 0.07737246 0.3861392 -0.023669876
000010 3a ad ac 3d 5b b0 cc 3d d6 95 a4 bc 71 99 29 3c
       0.08431478 0.09994575 -0.020090979 0.010351525
000020 ac 5a c9 3d 77 f7 d0 bc
       0.098317474 -0.025508625

phi_from.mlp.mlp.2.weight f4 [10, 10]
000000 b6 38 a7 be 94 6e 7e bf 57 f5 23 3e e6 46 d0 bd
       -0.32660455 -0.9938748 0.16011558 -0.10169773
000010 80 4b a9 3e 71 9a 3b 3e 5e e2 59 bf 40 bc 8f be
       0.33065414 0.18320633 -0.85111034 -0.2807331
000020 f1 01 cc bd 96 f0 0e be 6d 9a 9b bd 36 2b 16 3e
       -0.09961308 -0.13958964 -0.07597814 0.14664921
000030 dc f6 9f be b4 49 57 bd 71 0f df be d1 68 d5 3e
       -0.31243026 -0.052560523 -0.43566468 0.4168153
000040 d9 9e 8a 3e 61 2d 08 3f 8f ab 22 3f 16 fe 0c be
       0.27074316 0.5319424 0.6354303 -0.13768801
000050 3c 8e 3a bd 44 02 62 bd 58 fe d9 3e 64 46 d6 bd
       -0.0455458 -0.055177942 0.4257686 -0.10462645
000060 5a 04 9d be 44 f5 ed be 95 ab 8c bf a2 43 3e 3f
       -0.30667382 -0.46476185 -1.0989863 0.7432195
000070 e7 ab e1 bd c8 96 e1 be 4b fb 36 3e 07 d3 9d 3f
       -0.11019116 -0.4406035 0.17869298 1.2330025
000080 d8 6e df bc 60 56 c6 bc 82 f9 fb 3e 0f 34 a5 be
       -0.027274534 -0.024211109 0.49213797 -0.3226628
000090 40 1f b8 be 80 29 00 be 7e b1 6e be 9d d9 63 3e
       -0.35961342 -0.12515831 -0.23309895 0.22250982
0000a0 12 27 ce be e2 85 93 3f c7 ea 4e be a7 28 20 3f
       -0.40264183 1.1525233 -0.20206748 0.6256203
0000b0 51 f8 77 be 48 53 a3 be 1c 0c 14 ba 92 6a 2f be
       -0.24215819 -0.31899476 -0.00056475564 -0.17130497
0000c0 90 76 80 3e 1d d8 24 bf 7e ef 31 be 89 30 02 3e
       0.25090456 -0.6439226 -0.17376515 0.12713827
0000d0 82 11 c6 3d 89 54 96 be 37 8e 07 3f d3 6b b2 be
       0.09671308 -0.2936137 0.5295138 -0.34847888
0000e0 69 db f3 3e a8 06 22 3e 14 c1 97 be cf 31 11 bd
       0.47628334 0.15822852 -0.29639494 -0.03544789
0000f0 94 20 25 3d d2 b5 58 be da 02 3f be 04 f9 7d 3e
       0.040314272 -0.21163109 -0.18653432 0.24802023
000100 5d 38 66 bc c2 9d 7b be 26 6a 8a bd f3 a4 45 bd
       -0.014051524 -0.24571899 -0.067585275 -0.04825301
000110 39 cf 14 3e 69 85 a9 3d a6 30 ff be 3b b4 1c be
       0.14532174 0.08277399 -0.49841803 -0.15303127
000120 7f e6 91 3e 14 da 4c 3f d2 56 27 be 33 42 04 be
       0.28496167 0.8002026 -0.16341713 -0.12915878
000130 e1 c3 9c be d3 32 b3 be f9 88 8d be d3 10 a2 bd
       -0.30618194 -0.34999713 -0.27643564 -0.07913365
000140 88 28 07 bc 08 fe ed be 79 c0 0c 3f 70 cd 44 bc
       -0.0082494095 -0.46482873 0.5498119 -0.012011871
000150 06 a4 81 3a 50 3b 13 3f 93 2e f9 be 08 62 13 be
       0.0009890802 0.5751238 -0.48668346 -0.14392865
000160 90 54 14 bf 98 2d 97 3e 70 a7 b4 be d0 90 97 3e
       -0.5794153 0.29526973 -0.35283995 0.2960267
000170 1d 84 ae bd dc 14 2b 3d ee 54 13 3f 15 49 1e 3b
       -0.08521292 0.04176794 0.5755147 0.0024152447
000180 8a 4a 1b be c0 dc 58 3e 0f ce 77 3e 7a e8 ab 3d
       -0.15165153 0.2117796 0.24199699 0.08393951

phi_from.mlp.mlp.2.bias f4 [10]
000000 d8 15 aa bd 52 83 05 bd 7f 2e 17 3a e4 e1 1a bd
       -0.083049476 -0.03259594 0.00057671213 -0.037813082
000010 0c 6e 29 be 17 d1 c7 3d 62 45 5c bd df 47 87 3d
       -0.16545886 0.097566776 -0.053777106 0.06605505
000020 8d 61 19 3d 72 3c a6 bd
       0.037446547 -0.08116998

z_k.mlp.0.weight f4 [10, 33]
000000 71 f8 ea 3e 97 df 22 c0 4a cd 22 3f b8 d0 4b 3f
       0.4589267 -2.5448968 0.63594496 0.79615355
000010 b5 d1 ce 3e 39 1c 48 bf 71 b8 1e bf 37 ab be be
       0.4039437 -0.78168064 -0.62000185 -0.37240002
000020 68 7c 95 3c 2a bb 4d 3e cb d2 89 bf 11 cf 50 bd
       0.018247798 0.20090929 -1.0767454 -0.050978724
000030 bc 8e 55 be 9e d6 6c be d3 c1 14 3f 3d 74 9b bf
       -0.2085523 -0.23128745 0.5810825 -1.2144848
000040 90 c3 a5 3f 16 a8 45 3d 8b 6a 53 bf f0 37 ac 3d
       1.2950306 0.048256002 -0.82584447 0.08409107
000050 de d8 bd be b6 c6 a0 bd e5 e7 45 3e 03 ed 81 3e
       -0.3707952 -0.07850401 0.19326742 0.25376138
000060 9e 3b 04 3f b3 fc a2 be e2 7f 2a 3f de fc 1d 3e
       0.5165347 -0.3183342 0.66601384 0.15428492
000070 d8 77 5e be 2a ce ec bd c6 64 cb bc 49 29 91 bd
       -0.21725404 -0.1156276 -0.024828326 -0.07087953
000080 1e 41 75 3e a6 fc c0 3e 6c 4a 2b bf 32 40 b0 bf
       0.23950621 0.37692755 -0.66910434 -1.3769591
000090 ee c4 e6 3d 74 0e e0 3e 7d 1e 19 bd 64 41 2d be
       0.1126803 0.43761027 -0.03738259 -0.16919476
0000a0 61 a6 1c 3f 13 a7 29 bf 07 15 36 bf d8 f6 67 bd
       0.61191374 -0.6627056 -0.71125835 -0.056631893
0000b0 1f 2e 0d be b5 c1 09 3e 9b 9d ea 3e 08 f6 18 3e
       -0.13787125 0.134528 0.45823368 0.14937603
0000c0 b7 69 f4 3e 65 36 a9 be 50 2a 32 3a d5 93 a7 be
       0.47736904 -0.33049312 0.0006796466 -0.32729974
0000d0 e7 ab a6 3e b1 b4 a0 be 64 46 01 3f e1 f7 f8 3e
       0.32553026 -0.31387857 0.5049803 0.48626617
0000e0 d2 c8 94 bd cb f1 70 3d 0d 3c 00 bf 68 af c6 3a
       -0.07264866 0.05882434 -0.5009163 0.0015158476
0000f0 ea 27 8b 3e 29 3e cf be c6 45 bd 3e 66 d9 da 3c
       0.2717889 -0.40477112 0.36967295 0.026714992
000100 25 66 0a bd 14 14 ea be 9c a5 95 3d a6 01 d0 be
       -0.03378882 -0.45718443 0.07306978 -0.40626258
000110 11 14 bb bf 2d 3e b1 3e b0 f5 11 bc 7f d2 ff be
       -1.4615499 0.3461775 -0.008908674 -0.49965283
000120 8a 80 d1 be a2 97 c8 be 48 a0 9e be 8d 97 8f be
       -0.4091838 -0.39178187 -0.3098166 -0.28045312
000130 8d 38 b9 be 4f 35 16 3e c3 a4 43 3e 7f 35 68 be
       -0.36175957 0.14668773 0.1910582 -0.22676657
000140 ce 8c df be d2 e2 c3 be ff a7 95 3e 5b 6b 19 3b
       -0.43662113 -0.38258988 0.29229733 0.0023409936
000150 f4 9f 9c 3d 6d 77 55 3c 38 fb 65 be a5 7f 86 3d
       0.07647696 0.013028962 -0.22459114 0.06567315
000160 b9 49 25 be 28 fb 3c 3e 4d ec 71 3d 51 29 fb be
       -0.16141404 0.18455184 0.059063245 -0.4905496
000170 fe 33 38 3f 11 7c 49 be c0 a1 2d bf b9 e8 2c 3e
       0.71954334 -0.19676234 -0.67824936 0.16885652
000180 32 cf 1f 3d 23 b5 e7 bd ca 54 08 3d ca 5b 16 3f
       0.039015956 -0.11313846 0.033283986 0.5873381
000190 84 35 2b 3c 65 68 db 3e ee be 58 3f 89 5e 42 3f
       0.010449771 0.42853084 0.84666336 0.759255
0001a0 ce c1 f1 3e 13 1b 46 3f a3 72 2d 3f fc 27 c9 3e
       0.47218174 0.7738506 0.67753047 0.39288318
0001b0 3d 3a ab 3e a7 5b d2 3d 54 b6 5c 3d e8 6e 20 be
       0.3344287 0.102713875 0.05388482 -0.15667307
0001c0 8b 10 9b 3f 95 e2 62 be 36 41 c3 be 19 9e 27 bf
       1.2114424 -0.22156747 -0.3813569 -0.6547561
0001d0 69 8a 06 3f 24 61 0c 3f 60 48 c7 3e 57 d6 91 3e
       0.5255495 0.54835725 0.38922405 0.2848384
0001e0 33 cf 6d 3e 1f e8 c8 3d ef 0f 49 3e 15 67 14 3f
       0.23223571 0.098098986 0.19634984 0.5796979
0001f0 54 52 93 3d ee f0 04 be 98 5a cb be 29 5f 31 bf
       0.07193437 -0.12982532 -0.39717555 -0.6928583
000200 dd f0 b0 3e 6a 03 5c 3c 51 07 2b 3e 4c d7 f3 be
       0.34558764 0.013428548 0.1670201 -0.47625196
000210 bd 33 2f 3e 79 a0 8a 3e 74 ba 94 bf f6 1b 35 bf
       0.1710958 0.27075556 -1.1619401 -0.7074579
000220 d5 23 d3 3d f2 a7 82 3e eb fa 04 3f e1 74 96 3e
       0.10309569 0.25518757 0.5194537 0.29386047
000230 d5 34 71 bf c4 e6 30 be a0 d7 40 bc ab fe 6d 3f
       -0.9422124 -0.1727553 -0.011770159 0.9296672
000240 00 f4 26 3e 96 53 2a 3e 4d 90 d9 3e 02 55 79 be
       0.16304016 0.16633448 0.42492905 -0.24348834
000250 8a 26 82 bb bd ce 02 bf e7 8c 03 bf 03 24 71 3f
       -0.0039718794 -0.5109671 -0.51386875 0.94195575
000260 16 21 a2 be e1 e4 fd bb 75 0c a9 3d a9 d6 6f 3c
       -0.31665868 -0.0077482318 0.08254329 0.014638581
000270 cc 0b 9c 3f e4 19 5c 3d ff c8 e4 3e 18 df 16 3f
       1.21911 0.05373563 0.44684598 0.58934164
000280 30 97 b9 be c4 b4 af 3e bd ec 7a bc 25 03 75 be
       -0.3624816 0.343176 -0.015315232 -0.23926981
000290 de 52 db be 35 e7 03 3f 58 21 6f 3e 5d 6c b5 3d
       -0.4283666 0.5152467 0.23352563 0.08858559
0002a0 45 1b 8f bf 3a 43 15 be 18 27 1b 3f 81 f4 47 be
       -1.1180197 -0.14576426 0.6060653 -0.19526865
0002b0 8a ed 02 3f d9 de ca 3e 52 fa 2a be a6 d4 e1 3e
       0.51143706 0.39623144 -0.16697052 0.4410755
0002c0 4c df 22 be fa 5b b1 3d 43 5f 24 be d0 ae 74 3e
       -0.15905493 0.08660121 -0.16051964 0.2389481
0002d0 78 36 c1 bd d3 a7 e0 3e 76 56 8d be f4 24 e5 bd
       -0.09434217 0.4387804 -0.27605027 -0.11188689
0002e0 58 ab 88 3f e9 e5 af be fc e7 65 3d 4e 43 33 3f
       1.067729 -0.34355095 0.05612944 0.70024574
0002f0 8f 4c 91 be 99 58 15 3f 8b 13 3c be 77 1b ba 3e
       -0.28378722 0.58338314 -0.1836683 0.3634908
000300 80 46 8c 3e 25 fd 20 bf 9c 3e ba be ef b6 92 3b
       0.27397537 -0.6288627 -0.36375892 0.004477374
000310 84 48 3b be 0c 1d b5 bd f8 c2 20 3f fc ea eb bd
       -0.18289381 -0.08843431 0.627975 -0.11519429
000320 a2 8b 5e bf 52 4c bb bc ac e1 89 3f 44 fd f6 3d
       -0.8693181 -0.02286354 1.0771995 0.12060025
000330 bd d9 96 3c c3 af 30 bf 03 df b6 3e a8 10 92 3e
       0.018414373 -0.6901819 0.3571702 0.28528333
000340 e3 8f 5a 3e 78 38 e5 3d bd 24 8c 3e 82 41 15 be
       0.21343951 0.11192411 0.2737178 -0.1457577
000350 66 e8 e0 3d ac 5e 82 be aa 1e e2 3d 87 42 e7 be
       0.109818265 -0.25462854 0.11041005 -0.45167944
000360 d1 f4 ed be df 92 0e 3e 15 c2 37 bb cb bf 34 3e
       -0.46475843 0.13923214 -0.0028039266 0.17651288
000370 cd 64 b6 be 53 b2 15 3e e5 10 12 3e 47 57 67 be
       -0.3562378 0.14618807 0.14264257 -0.22591887
000380 06 b2 2c 3e 46 a7 66 3e 5a 59 bf be 88 d0 57 bd
       0.16864786 0.22524747 -0.37372857 -0.052689105
000390 35 da 41 3c 00 53 c7 be 40 cd 2a be 01 0c 96 3e
       0.01183181 -0.3893051 -0.16679859 0.29306033
0003a0 07 8a 8b be 84 e7 34 bf 0b 3b e9 bd 83 00 e7 be
       -0.27253744 -0.70665765 -0.11388215 -0.45117578
0003b0 a0 09 98 3f 85 83 49 3e 69 e6 c7 3e 7a a6 c2 bd
       1.1877937 0.19679077 0.39042976 -0.09504409
0003c0 45 be 15 be 71 52 22 be 75 25 f4 bd c0 a8 17 3f
       -0.14623363 -0.15851761 -0.11921207 0.5924187
0003d0 85 3a 42 be 4c 5e 09 be a1 1c a9 3e a3 ee b4 3d
       -0.18967636 -0.13414878 0.33029655 0.08834579
0003e0 d7 76 aa bd 40 21 41 3f 9a 6e ef bd 16 3f 28 bb
       -0.08323448 0.7544136 -0.116910174 -0.0025672368
0003f0 cf b1 08 be 42 33 af 3d c8 14 a2 3e cb a5 0a 3f
       -0.13349079 0.085546985 0.3165648 0.5415923

z_k.mlp.0.bias f4 [10]
000000 a0 fe 44 be 8e 0c 10 bf 9d 28 9b be 0e 6c 5d be
       -0.19237757 -0.56269157 -0.30304423 -0.21623251
000010 ce a7 af be ee b0 6c be 1c 89 b5 be dd ea 13 bf
       -0.34307712 -0.23114368 -0.3545617 -0.5778025
000020 f7 f3 b8 3c 25 45 4d bf
       0.022577269 -0.8018363

r_k.mlp.0.weight f4 [10, 33]
000000 f2 e0 c9 3d 8b 2c 3e 3e e3 9c 74 3f 48 5d 2b 3e
       0.09857358 0.1857168 0.9555189 0.16734803
000010 74 27 11 bf d8 42 fc 3e c1 87 eb 3e c8 99 ba 3e
       -0.56700826 0.49269748 0.4600201 0.3644545
000020 36 a1 a9 be da 1c 2f bc 74 70 b9 be e9 2f d7 3e
       -0.33130807 -0.010688031 -0.36218607 0.4202874
000030 38 12 99 be 9e 72 24 3e 56 85 48 be ca e7 03 3f
       -0.29896712 0.16059348 -0.19582114 0.5152556
000040 38 83 20 be f7 ce 29 3f 2b ff b3 be 99 b8 1d bf
       -0.15675056 0.6633143 -0.35155615 -0.616098
000050 83 cd 65 bd f5 08 94 be 33 c8 6a be 96 ed 9c 3e
       -0.056104194 -0.28913084 -0.22927932 0.30650014
000060 ad 7a 86 3e 01 57 8d be ba 33 a7 be 83 10 d9 3d
       0.2626547 -0.2760544 -0.32656652 0.105988525
000070 81 6c 8e bd 71 0c 9b bd ba a9 9a 3e 0a bd b6 be
       -0.06954289 -0.075707324 0.30207616 -0.356911
000080 c0 26 8d 3e 90 b0 2e bf 13 e5 1b bd 25 92 01 bf
       0.27568626 -0.68238163 -0.03806026 -0.50613624
000090 c7 8d c0 3e 5d 63 6a 3e b3 61 00 3d f1 32 88 bf
       0.37608168 0.22889467 0.031343173 -1.0640546
0000a0 f3 01 5c 3d 64 f4 22 3f 38 54 23 3f 1a a7 4c bf
       0.053712796 0.6365416 0.6380038 -0.79942477
0000b0 9a b8 0c 3e 80 8b 2a 3f d4 0c 2e be 5d cc c3 3e
       0.13742295 0.6661911 -0.16997081 0.38241854
0000c0 e2 2b 80 be 8b e4 9b bc 5d 55 46 bf 37 07 16 3f
       -0.2503348 -0.019029876 -0.77474004 0.5860476
0000d0 38 ab ff 3e ee a1 aa bb b4 f6 dd 3d 51 b8 04 bf
       0.49935317 -0.005207292 0.108380705 -0.51843745
0000e0 e3 69 d2 bf 51 61 f8 3e 2a 01 bd be 60 00 9b 3e
       -1.6438564 0.48511747 -0.3691495 0.30273724
0000f0 12 43 fe 3e 90 ca 9a 3e 24 1a 94 3d 95 09 2c bd
       0.49660546 0.30232668 0.072315484 -0.042001326
000100 dc e1 71 3e 30 5d 1a be f4 0b 86 be 85 b1 de 3e
       0.23621315 -0.1507461 -0.26180995 0.43494812
000110 99 b4 8c 3f 99 92 84 bc c6 4f c1 3e 9d 03 ae 3e
       1.0992614 -0.016183184 0.37756175 0.33987132
000120 78 ed 4e bd 01 58 cc bd 98 13 f1 3e b2 2e d4 be
       -0.050519437 -0.09977723 0.4708526 -0.41441876
000130 61 93 8d 3d f5 6a 68 3d c2 dd 8c 3e a0 03 b4 bf
       0.06912876 0.056742627 0.27512938 -1.4063606
000140 85 74 24 3f f0 ce f5 bd 4a 61 90 bd f5 80 b4 3e
       0.64240295 -0.12002361 -0.070498064 0.35254636
000150 31 55 43 3d dc bc 8a 3f 09 8e 1d 3f f5 87 83 be
       0.047688667 1.0838885 0.61544853 -0.25689664
000160 61 11 96 bd 26 dd 90 bf 43 89 b5 be 91 b3 27 3f
       -0.073275335 -1.1317489 -0.35456285 0.6550837
000170 55 2d ef bb bf 46 35 3d bb 37 d8 3d 03 7a aa bd
       -0.007299105 0.04425692 0.10557505 -0.08324053
000180 12 ad d0 3b 8f c9 eb 3d 0e 6f ab 3e ed 15 60 3e
       0.006368288 0.115130536 0.33483166 0.21883364
000190 0b e4 d9 3e 06 5d 53 bf 33 ec 03 3e ec fd 44 3e
       0.42556795 -0.8256382 0.12883072 0.19237489
0001a0 f6 c6 b5 be 9a 24 7a be 99 73 a6 be 68 4f 7b 3e
       -0.35503358 -0.24428025 -0.3251007 0.2454201
0001b0 9a 85 b6 3e d8 4c 95 be 16 38 08 bf 3b 7f 0f be
       0.35648805 -0.2916019 -0.5321058 -0.14013378
0001c0 ed d2 bc be 2a 1a 52 be 31 5c bd 3d 0c 20 f7 bd
       -0.36879674 -0.20517793 0.092461 -0.12066659
0001d0 c3 b6 25 be b7 7c 97 3e de 4d 55 3c dd 42 0b bd
       -0.16183 0.29587337 0.013019053 -0.033999313
0001e0 6f 42 a7 be ce 72 9c 3e d3 c0 c5 3e 9f 5d 37 3e
       -0.32667872 0.3055634 0.38623676 0.17906807
0001f0 90 07 81 3f 09 26 c3 be c1 cc d4 3e 5f a8 e2 bd
       1.0080433 -0.38114956 0.41562465 -0.110672705
000200 03 2e 6e 3e da 96 f5 bb 19 43 75 3e a9 67 83 3d
       0.2325974 -0.0074947895 0.23951377 0.06416256
000210 90 f9 11 3e e1 0b 87 3f 5f 06 af 3f d1 2b 18 3f
       0.14255357 1.05505 1.3673819 0.5944186
000220 8c 4f 9a 3e 0f bb 19 bf 95 4e a4 3e 42 1b 2c be
       0.30138814 -0.60051054 0.32091203 -0.16807273
000230 f5 ae b6 3e 1b 21 c1 3e bc cc ad 3e 24 90 f5 3e
       0.35680357 0.3772057 0.33945262 0.47961533
000240 00 68 26 bf 54 99 60 bf 67 af d7 3d 95 5a b9 3d
       -0.6500244 -0.8773396 0.10531502 0.0905048
000250 63 7f b6 3e 99 0b c0 3d 2b 11 32 3e 9d 17 81 3e
       0.35644063 0.09377212 0.17389362 0.25213328
000260 94 64 9d bf f9 87 9a 3f ee 25 4c be 29 a7 8a be
       -1.2296319 1.2072746 -0.19936344 -0.27080658
000270 0c b7 cf be a8 1d 7a be 2d 46 70 3e 00 7f 19 bf
       -0.4056934 -0.24425375 0.2346427 -0.5995941
000280 0d 28 fc be 5f 79 35 be 2d 7e 50 3d 75 c3 43 be
       -0.49249306 -0.1772208 0.05090158 -0.1911753
000290 09 04 6e 3e 06 10 67 3d 27 e3 3e 3e 75 3e cf be
       0.23243727 0.056411766 0.18641339 -0.40477338
0002a0 b3 16 5c bf 4c 78 5c 3e c0 eb 24 3d e8 d0 e3 be
       -0.85972136 0.21530265 0.04026389 -0.4449532
0002b0 fc ec 7a 3e 76 5f 06 3f 8e 12 88 be 01 70 12 3f
       0.24504465 0.5248941 -0.26576656 0.57202154
0002c0 88 78 f9 bd d6 0c c9 3e 1c 8d 81 bf 06 90 88 be
       -0.12181193 0.39267606 -1.0121188 -0.2667238
0002d0 58 ec 2d 3f 4f 38 80 be 26 56 5c 3e 8c 4d c7 be
       0.67938757 -0.2504296 0.21517238 -0.3892635
0002e0 56 32 2f 40 4b 3f 6f bf 4a 42 31 40 a2 e0 c7 3e
       2.7374473 -0.9345595 2.769671 0.3903857
0002f0 fe 63 0c c0 a3 3a 81 3e 1c d4 86 be 81 8f 2f be
       -2.193603 0.2524005 -0.26333702 -0.17144586
000300 d8 31 25 3d 3c 85 5c bc 45 eb ea bd b8 89 c3 be
       0.040330738 -0.0134595 -0.11470655 -0.3819101
000310 3c 91 34 be b4 5f 7b 3d 43 27 61 bf bc dd a8 3e
       -0.17633528 0.061370566 -0.87950534 0.3298167
000320 64 51 19 40 b5 81 d9 be 15 aa 15 be 38 46 c7 3e
       2.3955927 -0.4248177 -0.14615662 0.3892076
000330 64 11 cc be 50 ae ce 3e 2b 36 a1 bb 75 47 ba 3d
       -0.39857018 0.40367365 -0.0049197874 0.090956606
000340 7c c3 7b 3e cf 47 a9 3d 3a 43 9a 3d c3 c2 90 3e
       0.2458629 0.082656495 0.07532354 0.2827359
000350 8f 45 e8 3e 47 6f 1b be ee 93 03 3f e7 d5 3c 3f
       0.4536557 -0.15179168 0.513976 0.7376389
000360 d0 2d d7 be 4f 85 1d be 58 83 f0 3e 5e da 4a 3f
       -0.4202714 -0.15382884 0.46975207 0.7923945
000370 a7 5c 04 3e 1e 0f 0f c0 1f 6d 84 3e b0 df 90 bf
       0.12925969 -2.2352977 0.25864503 -1.1318264
000380 a1 42 b9 3e c0 87 3f 3d 0a 8d cf 3d 0a 29 3b 3d
       0.36183646 0.04676032 0.10134323 0.045693435
000390 f2 12 7d 3d 24 23 b1 3e d8 c1 7f bd 15 f0 27 3f
       0.061785646 0.34597123 -0.062440723 0.6560071
0003a0 1b 77 13 bf 94 f6 c8 be 49 dc a3 3e 9a fb cb 3f
       -0.57603616 -0.39250624 0.32004002 1.5936158
0003b0 68 f5 36 3e 44 04 2e bc 35 92 6c 3e ed e7 2b be
       0.17867053 -0.010621134 0.23102649 -0.16787691
0003c0 dc 71 8b be 1b b4 80 3e db 1a 19 bf 75 a6 31 3f
       -0.27235305 0.2513741 -0.59806603 0.6939462
0003d0 b3 88 5e be 84 78 ff bf ed 63 3c 3f 07 4e 1d bf
       -0.21731834 -1.9958653 0.73589975 -0.61447185
0003e0 bf 0e cd be b6 e8 4a 3f 64 d0 a8 3e 50 f2 d1 ba
       -0.40050313 0.7926134 0.3297149 -0.0016017649
0003f0 8a 12 24 bf dc 15 c3 3e cb 3c 1e 3f 6d 13 1e bf
       -0.6409079 0.38102615 0.6181151 -0.6174839

r_k.mlp.0.bias f4 [10]
000000 94 70 5a be f9 86 b8 3e 48 cc 57 be 16 91 6c bd
       -0.21332008 0.36040476 -0.21074021 -0.057755552
000010 b0 83 8b be 1f 7f 7c 3d 95 ba 00 3f e2 44 a2 be
       -0.27248907 0.06164467 0.502847 -0.31693178
000020 dd 35 27 be 6a a0 9f 3d
       -0.16329141 0.077942684

correction.mlp.0.weight f4 [10, 33]
000000 4c 43 50 be 1b b1 6f 3f 6d a2 cb 3e e8 b8 5d bf
       -0.20338172 0.93629616 0.3977236 -0.8661027
000010 f1 61 f2 be 43 d0 94 3e 42 dc 08 3f bf ff 1c be
       -0.47340348 0.2906514 0.53461087 -0.15331934
000020 13 aa dc bd 85 b8 c6 be 6c 62 98 3e 0d 64 f5 be
       -0.107746266 -0.38812652 0.2976259 -0.47927895
000030 d3 c5 87 be 0e dc 35 3e 96 57 c3 be 4f a2 a0 3c
       -0.26518115 0.17759725 -0.3815276 0.019608645
000040 f3 16 30 be 1b 67 a9 3e 36 ed b7 3d c8 51 1a 3f
       -0.17196254 0.33086476 0.08980791 0.6028104
000050 03 0c 96 3e e6 6f f7 3d 69 cd eb 3d 3f 07 57 be
       0.2930604 0.1208189 0.11513788 -0.20998858
000060 28 15 fd bc 6e 05 83 be df 10 50 be e2 79 33 bd
       -0.030893877 -0.2559008 -0.20318936 -0.04381741
000070 5d ce af be 57 47 3c be 46 31 38 3d 7d 84 d2 3d
       -0.3433713 -0.18386589 0.044968866 0.102791764
000080 1f 97 0a 3e c6 d4 4c be 79 ba a3 be f0 92 f2 be
       0.1353421 -0.20003042 -0.31978205 -0.4737773
000090 f3 34 92 3e 02 3d c7 bc b3 a2 82 3f c2 f2 c2 3e
       0.28556022 -0.024321083 1.0205902 0.38075835
0000a0 93 29 ef 3d e4 7c 06 bf 00 bf e1 be fb 44 bc bd
       0.116778515 -0.5253432 -0.44091034 -0.091928445
0000b0 5c 08 e3 3d 5d 3f 02 3e e9 2f 6e be e6 20 a6 be
       0.11085579 0.12719484 -0.23260464 -0.32446975
0000c0 2b 40 15 be b0 74 e9 bd 36 69 d4 3c 98 73 e0 bd
       -0.1457526 -0.113992095 0.025929075 -0.10959548
0000d0 cf 1b 43 3e 57 1f 1d bf 91 4f 52 bd e7 d7 8d 3e
       0.19053577 -0.61375946 -0.05134541 0.27703783
0000e0 b5 5e 2e 3e 13 ca 4a bd ae a7 a8 3d a8 45 8e be
       0.17028315 -0.04950912 0.08235107 -0.27787519
0000f0 fe 78 05 bf 31 5b 62 3d ed ce 36 3e 39 1f f9 3b
       -0.52137744 0.05526275 0.17852373 0.007602599
000100 31 6a b7 3d 89 e7 f1 be fc 28 ab 3e 3c 92 00 3f
       0.08955801 -0.4724696 0.33429706 0.50223136
000110 3d 23 8e c0 10 20 c0 3e 42 09 ee be ed 26 e9 3e
       -4.4418015 0.37524462 -0.46491438 0.4553751
000120 f8 24 00 3f 27 ee 48 3f 53 72 a4 3d 8d 69 82 be
       0.5005641 0.7848839 0.08029618 -0.25471154
000130 c3 78 e8 bd bb 10 8d 3d dd 7a 27 be 21 ca c0 bd
       -0.113511585 0.06887957 -0.16355462 -0.09413553
000140 2c d5 1d be ca 33 24 be 15 70 b2 3e b8 b0 0d 3e
       -0.1541335 -0.16035381 0.34851137 0.13836944
000150 d2 45 0a 3e 3f 7f 90 be 46 38 82 3d 0f 4c 15 be
       0.13503197 -0.2822208 0.063583896 -0.14579795
000160 fc ec 78 3e d3 4d 3c bc e9 63 a7 be 32 6a 2e be
       0.24309152 -0.011493164 -0.32693413 -0.17032698
000170 92 27 a6 bd 02 94 93 be e0 74 73 be 80 3a 83 bc
       -0.08113016 -0.28823858 -0.23775053 -0.016019106
000180 15 0c c8 3a 6a c2 39 3d d3 21 d8 3b 55 8a 39 3e
       0.001526239 0.045351423 0.006595829 0.18119176
000190 ad 94 4f bf 65 ed ac 3f d9 7e 43 be 7f cf 12 3f
       -0.81086236 1.3509947 -0.19091357 0.57347864
0001a0 ba dd 95 bf c0 03 9b bd 40 2d 80 be cc 44 75 be
       -1.170829 -0.07569075 -0.25034523 -0.23952025
0001b0 b4 8e d6 3e ab 83 5b be cc c3 1b 3e 7a e7 de bc
       0.4190575 -0.21436946 0.1521141 -0.027209986
0001c0 34 a1 75 be bd ac 41 3e 9c c7 42 3e af 41 04 be
       -0.23987275 0.1891355 0.19021457 -0.12915681
0001d0 b4 45 3a be cf 6a fe 3d e4 cb 23 be 8e 2c 24 bd
       -0.18190652 0.12422716 -0.15995747 -0.040081553
0001e0 4e 70 b5 be c8 b1 43 3d 77 6b 88 3e 35 ef 0b be
       -0.35437244 0.047776967 0.2664449 -0.13665469
0001f0 ce 9b b6 3e 39 7e 88 3e 1e 59 1b 3e d6 8e 99 be
       0.35665745 0.266588 0.15170714 -0.29991788
000200 72 89 84 3e 99 22 c4 bc ea 43 00 3e d1 84 b7 3e
       0.25886112 -0.023942279 0.12525907 0.35843518
000210 d8 ea 90 be 75 f2 00 3e a3 79 66 3f ad 01 2b be
       -0.28304172 0.1259249 0.9002935 -0.16699858
000220 32 c2 2a c0 07 e8 e4 bf 7f c1 4b 3e a2 d8 c9 3e
       -2.6681027 -1.7883309 0.19898032 0.3942309
000230 24 09 14 3f 6a 8d 24 be 3d d0 7f 3e ca f6 e4 3e
       0.5782645 -0.1606957 0.2498178 0.44719535
000240 5c 2c a8 3e e4 a4 69 3f ad 53 36 3f ab fe ac 3e
       0.32846344 0.9126723 0.7122143 0.33788046
000250 d2 3d 7e bc 95 ea 0a be d9 3d 19 bf ec 02 e7 3e
       -0.015517669 -0.13566048 -0.5986 0.45119417
000260 ac 33 b7 be c4 08 82 3e 28 9f 03 3f 02 4b be 3b
       -0.3578161 0.25397313 0.5141473 0.0058072815
000270 be a1 a5 3d bd 63 0c be 9e 97 85 be 24 e5 a6 3d
       0.080874905 -0.13709922 -0.26092237 0.08149174
000280 72 77 1a be 09 1d ed 3d 15 d9 fe bc d8 46 89 be
       -0.15084627 0.11577804 -0.031109372 -0.26811862
000290 5e 23 ae be 4f cf af 3c 91 de 3e be 57 a4 4f bf
       -0.34011358 0.021461157 -0.1863959 -0.8111014
0002a0 10 4a 6b bf ec cf 91 3d df ae 04 c0 b3 60 e0 be
       -0.91909885 0.07119736 -2.0731733 -0.43823776
0002b0 49 15 33 bf 6a d7 9d be df f9 da 3d 65 b9 a5 3d
       -0.69954354 -0.3082841 0.106921904 0.08092002
0002c0 6d c1 f5 3d 05 67 19 be 57 30 c4 be a3 53 ea be
       0.11999784 -0.14980705 -0.3831813 -0.45766935
0002d0 e4 29 e1 bd 06 77 d1 3e 3d 38 a9 3d 5a 8b 93 3e
       -0.10994318 0.4091112 0.0826268 0.28817254
0002e0 c8 e1 92 bd 85 66 41 3e f7 96 5f be d5 a8 30 be
       -0.071719706 0.18886764 -0.21834932 -0.17251904
0002f0 35 8e 1a bc 5b 34 86 bd 9c c4 40 3e 09 86 12 3d
       -0.009433319 -0.06552955 0.18825 0.035772357
000300 dc 76 cb 3e 7e 2e ed 39 39 43 35 3d 34 ea 7f bc
       0.3973912 0.00045238802 0.04425356 -0.015619803
000310 16 cc 65 be af 6e ad 3d e9 11 54 3e 66 c3 47 3f
       -0.22441134 0.08468377 0.20709957 0.7803253
000320 9f c7 5d bf 41 f5 e3 be 9b f0 86 bf 0e 13 fb 3f
       -0.8663272 -0.4452305 -1.0542177 1.961519
000330 ac 89 db ba 36 74 28 bd 9d f2 08 3e 9a 84 75 bf
       -0.0016749403 -0.041126452 0.133738 -0.9590546
000340 18 71 39 be b6 ac 5e 3d f0 01 1f 3d 00 30 fa 3b
       -0.18109548 0.05436393 0.038820207 0.0076351166
000350 ea e2 ba bd 77 f5 9e 3e 04 af 13 3e 1a de a6 be
       -0.09125312 0.3104665 0.14422232 -0.32591325
000360 c1 18 81 be 9d fb 22 3d 38 c0 2b be 07 bc bd 3e
       -0.25214198 0.03979074 -0.16772544 0.37057516
000370 16 3e d0 3c 28 a4 12 be 1d 87 78 be 47 b1 61 be
       0.02542023 -0.14320433 -0.24270292 -0.22040282
000380 a7 c2 d6 bd 99 9b 26 be 5e ec 33 be 0f 3b 48 be
       -0.10486346 -0.16270293 -0.17570636 -0.19553779
000390 e5 3b ec 3c c1 58 f6 be 33 c7 b6 bd 76 7b 8b 3d
       0.028837154 -0.4811459 -0.08924713 0.06810658
0003a0 7e 07 f2 3d 54 85 8e bf b2 e8 bd be fc 94 67 bd
       0.11817835 -1.1134439 -0.37091595 -0.056538567
0003b0 a2 14 16 bd e5 68 86 3d 42 f2 12 bf 08 23 f5 3c
       -0.03664077 0.06562976 -0.57400906 0.02992393
0003c0 16 e3 80 be d3 cc 0e 3e 54 78 85 3e 7b d9 8a 3e
       -0.25173253 0.13945322 0.26068366 0.2711905
0003d0 76 12 9c be e3 2d be 3e 7b b1 c3 3e 9c dd c1 bd
       -0.30482835 0.37144384 0.38221344 -0.09466097
0003e0 08 1f 14 3d b3 f8 d0 3d 03 6b 00 3d 10 61 b9 3e
       0.036162406 0.102036856 0.031352054 0.36206865
0003f0 30 f8 03 3e 4c 52 ce 3e 44 46 93 be 89 c2 53 be
       0.12887645 0.40297163 -0.28764546 -0.20679678

correction.mlp.0.bias f4 [10]
000000 60 16 79 bd ad 82 65 be c0 08 4a 3e 32 88 b6 3d
       -0.060812354 -0.2241313 0.197299 0.08912696
000010 8c 8a ad 3e 49 c8 83 3c b1 2b 82 be fe ff 09 be
       0.33894765 0.016086714 -0.2542396 -0.1347656
000020 64 67 22 be fb ad 6b 3b
       -0.15859753 0.0035961855

phi_neumann.mlp.mlp.0.weight f4 [10, 23]
000000 e5 87 bb be 46 b9 70 3e 91 57 ad 3e eb ab 17 3d
       -0.36627117 0.23508176 0.3385587 0.037029188
000010 72 63 88 3d 85 46 8b 3d 8b 6f 3b bf f5 9d 3d be
       0.06659593 0.0680056 -0.73217076 -0.18517287
000020 09 fa f3 3e d8 12 3c 3e 45 6d 05 3e 06 b3 d3 3d
       0.476517 0.18366563 0.13029964 0.103368804
000030 36 b2 ff be f0 30 15 bf 75 bb 86 3e 3d 90 90 bc
       -0.49940652 -0.582778 0.26314893 -0.017646903
000040 83 1b c7 3e 54 73 88 3e d5 a3 cd bd 00 39 8e be
       0.38888177 0.26650488 -0.10041014 -0.27777863
000050 ff 92 81 3b fc 53 ab ba 72 c9 4d bc 24 2e b6 3e
       0.003954291 -0.0013071294 -0.012560235 0.35582078
000060 48 32 12 be b5 89 6e bd 35 cd 8d 3e 09 84 d3 be
       -0.14276993 -0.058236796 0.27695623 -0.41311672
000070 d3 cc b6 bc bf 0b b9 be ae 1c f2 3c c3 38 43 3e
       -0.022314465 -0.36141774 0.029554691 0.19064622
000080 15 46 db 3e b9 5f c2 3d 3b c3 95 3e fd ab 46 3d
       0.42826906 0.09490914 0.29250512 0.048503865
000090 36 05 f1 be ef 6d 5d bc d7 52 0d bf 78 a4 05 3e
       -0.47074288 -0.01351498 -0.5520453 0.13051021
0000a0 d6 1d 14 bd b7 25 70 bb e5 d2 0f bd 22 97 a2 3a
       -0.036161266 -0.0036643574 -0.035113234 0.001240466
0000b0 c8 e2 cf 3a 8f 9d 29 3d 08 0a 55 bd 13 23 ee 3e
       0.0015860433 0.041410025 -0.05201152 0.46511135
0000c0 27 60 06 bf 33 a2 c6 3d 59 c3 28 3f ea 3d b6 be
       -0.52490467 0.09698906 0.65923077 -0.35594112
0000d0 e0 48 02 3e 19 7b fb 3e 55 1f 62 be 43 8e ca be
       0.12723112 0.49117354 -0.22082265 -0.39561662
0000e0 d2 78 ed be 4e 87 69 be 37 f9 04 be 8a 3f 3d 3e
       -0.4638124 -0.22805521 -0.12985693 0.1848127
0000f0 88 ec 47 be 4a be 4f be 25 c5 2b bd f2 ee 10 3f
       -0.19523823 -0.20287433 -0.04193606 0.566146
000100 0f 41 29 3d e8 13 2e 3e 81 d6 b2 b8 72 7f 12 bb
       0.04132181 0.16999781 -8.527656e-05 -0.0022353795
000110 88 e9 82 bd 91 99 f3 3e 2c 38 bb 3e 67 fe 76 be
       -0.06392199 0.475781 0.36566293 -0.24120484
000120 ee 58 b7 bc c7 24 a9 3e 5f f7 6a bd 25 e8 5e be
       -0.022381272 0.3303587 -0.057364818 -0.21768244
000130 61 89 6e be d6 58 58 3e e3 ae 5f bc 47 ec 1f 3e
       -0.23294593 0.21127638 -0.013652536 0.15617476
000140 17 cc de bd c8 c1 b4 be c3 87 29 3d 8c ca 7d 3e
       -0.10878771 -0.35304093 0.041389238 0.24784297
000150 b9 d9 50 bf 09 ca d5 3d 4e 58 3c 3e 45 48 f1 bd
       -0.8158222 0.10438926 0.1839306 -0.117813624
000160 81 f6 63 bd 1f 5a 99 bb 48 e0 01 3c c2 68 b6 bd
       -0.055655006 -0.0046799327 0.007927008 -0.089067
000170 41 ce bb be 45 78 49 3e e3 65 cc 3d 79 a8 27 3e
       -0.36680797 0.19674785 0.09980371 0.16372861
000180 6a f6 ee 3d 44 f0 1a be 8d 82 82 bd f7 8f 58 be
       0.116680935 -0.15130717 -0.06372557 -0.21148668
000190 db 2c 64 3e b4 51 dc be 6f 83 f6 3c dd 3b 3c be
       0.22282736 -0.43031085 0.03009197 -0.18382211
0001a0 3e 4f ac 3e 4f 07 2e bf ed 86 71 be 9b c4 d0 bd
       0.33654207 -0.679799 -0.23586626 -0.101937495
0001b0 51 08 e0 be 5c 4b e7 3e 27 06 0d bd 05 7f 55 be
       -0.43756345 0.45174682 -0.034429695 -0.20849235
0001c0 aa 6d 3e 3b 6e d5 4b 39 69 ad e1 3d bb 53 ef 3d
       0.0029057064 0.00019439097 0.110194035 0.11685892
0001d0 97 71 0c be 33 48 8e 3f 53 62 79 bd 35 b6 02 3e
       -0.13715206 1.1115783 -0.060884785 0.12764819
0001e0 64 8d 78 3f 2f a8 18 3e 8c 9d 10 3e 91 ed 63 3e
       0.97090745 0.14907907 0.141226 0.22258593
0001f0 f6 7e 4e bf 56 f2 ef be a6 61 7d 3e 61 b6 89 bf
       -0.80662477 -0.46864575 0.24744281 -1.0758783
000200 c4 96 ec bd 9b 82 a2 bd ba 67 06 bf c6 6f eb bd
       -0.11552194 -0.07935067 -0.52502024 -0.114959285
000210 02 55 f6 3d 23 a4 a9 3d e7 47 5b be 2f 73 4e 3b
       0.12027933 0.0828326 -0.21414147 0.003150176
000220 33 f1 48 3a 01 36 12 3e ed f6 56 3e 2f df e8 3e
       0.0007665336 0.14278413 0.20992632 0.45482776
000230 f2 79 29 3f ef 19 6b 3e b2 78 90 3e bf 63 89 3e
       0.662017 0.22959112 0.28217083 0.26833913
000240 6e 5d 93 bd a8 50 ca be f5 7f b9 be 4e e6 e7 3d
       -0.07195555 -0.3951466 -0.36230436 0.11323224
000250 e8 49 b8 3e 8d 46 bd be dc c5 c6 be a0 07 c9 bd
       0.35993886 -0.36967888 -0.3882283 -0.098159075
000260 06 a4 87 be 07 42 33 be a9 2e 03 3e 8d f1 f1 bd
       -0.26492327 -0.17505656 0.12810768 -0.1181365
000270 6c d0 26 3d c7 60 f7 3b ff f8 51 3b 4f b7 b2 bb
       0.04072611 0.0075493786 0.0032039282 -0.005453981
000280 58 9a 1a 3c bb 90 d0 3e 23 07 33 3e fd 84 48 3e
       0.0094362125 0.4073542 0.17483191 0.19581981
000290 2a b9 17 bd 4e a8 80 3d ec 91 1b be fe d3 39 be
       -0.03704182 0.062821016 -0.15192384 -0.18147275
0002a0 db a0 d0 3d 35 dd da be b1 49 8f bd ca 96 d3 3e
       0.10186931 -0.42746893 -0.069964774 0.4132598
0002b0 24 4d ca be 29 e3 6a bf 92 50 04 3f 43 2f 52 3f
       -0.3951198 -0.9175287 0.5168544 0.82103366
0002c0 ff b4 6f 3e d2 6c a8 be 18 c5 c0 be ef 24 ba 3e
       0.23408888 -0.32895523 -0.3765037 0.36356303
0002d0 86 4f 3c be a2 b1 81 b9 dc c0 24 b8 86 53 0b bc
       -0.18389711 -0.00024737144 -3.928026e-05 -0.0085038
0002e0 0c 2d 30 be 2d 78 1a 3e 52 11 4d be 05 fa af bc
       -0.17204684 0.15084906 -0.20026138 -0.021481523
0002f0 31 dd 6e bd 78 8a c6 3e a1 ed 17 3d 72 f2 2f 3f
       -0.058316413 0.38777518 0.037091855 0.6872932
000300 b0 ee ce bc 31 4f bc 3d e6 38 da bc d1 1a ac 3e
       -0.0252603 0.09194792 -0.02663846 0.3361421
000310 01 7c 44 bd 53 42 d0 bc 95 85 3c be 46 8e 8d 3d
       -0.04796982 -0.02542225 -0.18410333 0.06911902
000320 a1 e5 6b bd 51 2b 1a 3f e7 18 56 bf 2b b3 1e be
       -0.057592038 0.60222346 -0.8363175 -0.15498035
000330 10 31 68 3a af 15 a1 39 56 e1 b8 bd a6 38 7b be
       0.00088574085 0.00030724469 -0.090273544 -0.24533328
000340 91 f8 8b 3e 0b a7 90 be a1 8f e2 be 4d 60 51 be
       0.2733808 -0.28252444 -0.44250205 -0.20446892
000350 ed 13 f9 3c 2b 4c ef 3e 6c e5 77 be 9e da d2 bd
       0.03040501 0.467378 -0.24208611 -0.10295604
000360 04 3c e6 bd 82 db 86 3e f0 df 2e be 44 c9 0d bd
       -0.11241916 0.26339346 -0.17077613 -0.03461577
000370 3a 93 c4 3e c1 48 4d bd af 9d 98 3e 6d 59 c2 be
       0.38393575 -0.05011821 0.29807803 -0.3795885
000380 da 0b 6c be 27 13 cb 3d b0 8d b8 3e 3e f1 81 3b
       -0.23051396 0.099157624 0.360456 0.003965526
000390 8e dd 70 ba 30 6c cf 3c
       -0.00091882877 0.025320143

phi_neumann.mlp.mlp.0.bias f4 [10]
000000 1f ca 56 bd 56 be 22 3d 10 96 96 3d d7 9a 8d 3e
       -0.05243885 0.0397323 0.07352841 0.27657196
000010 9c 0a 09 be 04 f8 25 be d7 b7 01 3d 78 be 12 3e
       -0.13382953 -0.16207892 0.031669464 0.1433047
000020 c6 be 68 bc 62 90 f3 3c
       -0.01420564 0.029731933
