mixed/dsgps/results/30_ite_lamb_0_gamma_1/ckpt/running_model.pt (torch, 96581 bytes, 93 tensors)

laynorm.weight f4 [10]
1.0 1.0 1.0 1.0 1.0 1.0 1.0 1.0
1.0 1.0
00000000: 0000 803f 0000 803f 0000 803f 0000 803f
00000010: 0000 803f 0000 803f 0000 803f 0000 803f
00000020: 0000 803f 0000 803f

laynorm.bias f4 [10]
0.0 0.0 0.0 0.0 0.0 0.0 0.0 0.0
0.0 0.0
00000000: 0000 0000 0000 0000 0000 0000 0000 0000
00000010: 0000 0000 0000 0000 0000 0000 0000 0000
00000020: 0000 0000 0000 0000

phi_to.mlp.mlp.0.weight f4 [10, 23]
-0.4189764 0.39413688 0.61438274 -0.24339934 -0.36326498 0.09447999 0.15741521 0.00042053196
0.12504284 -0.3177426 0.0014205632 -0.31606206 0.0439761 0.23508899 -0.19694951 0.26965958
-0.23227565 -0.16836844 -0.0835895 0.018173467 0.0036739744 -0.0011115317 0.13724883 -0.3796571
-0.27918905 0.2162079 -0.07800717 0.35664693 -0.037382346 0.4847512 -0.46606395 0.24198008
-0.28827906 -0.10349239 0.1843661 -0.5215641 -0.24626942 0.037793197 0.32646447 -0.6187963
0.53281265 -0.018339343 0.07965562 0.00064811134 -0.0011960687 0.045348063 -0.18620045 -0.36539558
0.6991247 0.018851746 0.24174355 -0.1693054 0.14280698 0.44797567 0.018458225 0.0751314
-0.28054595 0.32292625 -0.6150625 -0.077568434 0.019323057 0.878764 -0.005842576 -0.2696433
0.16031286 -0.30707833 0.000543213 0.0019417125 -0.06327412 -0.10428865 -0.032038134 -0.32855445
0.24359074 -0.268842 -0.11468971 -0.062653296 0.091415815 0.3507943 -0.035317056 -0.12505065
0.4872417 -0.82045573 0.051975127 0.5484067 -0.18949664 -0.031049814 0.49135217 -0.18958852
-0.13077535 0.0010179342 -0.00025093445 -0.15694207 -0.4233609 -0.112674415 -0.24598151 -0.39696747
-0.097471826 -0.6890457 -0.45155808 0.100163534 0.22299345 -0.24392839 0.019821433 0.19399787
0.17708962 -0.42699388 -0.21641323 -0.3614243 -0.41535258 0.10237978 0.0050766123 -0.28195006
0.00321887 -0.0004938201 0.09182258 -0.23006873 0.10673493 0.17312291 -0.08914688 0.2089523
-0.17903689 0.19172128 -0.26354325 0.47450212 0.24225907 0.3594013 0.107774965 -0.061384454
-0.1337217 0.02279258 0.10366112 -0.16728306 0.21628931 0.25027898 -0.31047943 -0.0041175243
0.0031094234 -0.031882036 -0.20933491 0.37436274 0.11126276 -0.02870216 0.4814775 -0.28418496
-0.07747421 0.45444962 -0.054930877 0.26027647 0.27533382 0.27053407 -0.5999849 0.39506352
-0.36769763 0.3608224 -0.12343501 0.04547107 0.2726712 0.052290726 -4.502648e-05 0.0006926407
-0.103395484 -0.037388325 0.2441537 -0.07319676 -0.25628692 0.0144822085 -0.1510061 -0.046153426
-0.057986718 0.15850572 -0.29189774 -0.5185802 0.06647472 0.23869507 0.2591325 -0.16462572
-0.07590089 0.08340747 -0.2521209 0.28066322 -0.20767246 0.002045281 0.002344961 -0.17485963
0.37153193 -0.07107137 0.10697152 0.055238646 -0.5181717 0.35792145 -0.20674339 -0.19459407
-0.11799128 -0.18799654 -0.4376341 -1.512479 -0.03343098 0.35723954 0.23488066 0.16993137
-0.33256406 -0.45703223 -0.18378109 -0.41000554 0.0003176526 -0.0010054142 0.096698 -0.036814887
0.6181713 -0.20567542 0.0023944506 -0.11986623 0.18707624 0.059538677 -0.081643805 0.37035772
-0.0225463 0.33442652 -0.2914465 -0.3587396 0.17863227 0.011417134 -0.3064232 -0.09293146
0.7139938 -0.10681501 -0.3312744 -0.00018710324 -0.00025437959 -0.11212887
00000000: 1384 d6be 4fcc c93e 3048 1d3f ad3d 79be
00000010: defd b9be ba7e c13d 7431 213e d87a dc39
00000020: 3b0b 003e 28af a2be 3132 ba3a e3d2 a1be
00000030: 4820 343d 2bbb 703e 22ad 49be d210 8a3e
00000040: abd9 6dbe c768 2cbe f930 abbd 86e0 943c
00000050: 10c7 703b d1b0 91ba f58a 0c3e 6a62 c2be
00000060: def1 8ebe 9b65 5d3e 39c2 9fbd 6d9a b63e
00000070: 3b1e 19bd 4f31 f83e ef9f eebe a0c9 773e
00000080: 5099 93be d1f3 d3bd 78ca 3c3e 3a85 05bf
00000090: 0d2e 7cbe 0acd 1a3d 5a26 a73e 6f69 1ebf
000000a0: 6966 083f 643c 96bc 7c22 a33d 04e6 293a
000000b0: 68c5 9cba e4be 393d 55ab 3ebe 2115 bbbe
000000c0: d6f9 323f fa6e 9a3c 9f8b 773e 655e 2dbe
000000d0: fe3b 123e 115d e53e b435 973c 7ede 993d
000000e0: b8a3 8fbe 9756 a53e bc74 1dbf 33dc 9ebd
000000f0: 634b 9e3c adf6 603f 1473 bfbb b00e 8abe
00000100: 0e29 243e 5f39 9dbe 6866 0e3a 0f81 fe3a
00000110: dd95 81bd 4a95 d5bd 6b3a 03bd 4a38 a8be
00000120: da6f 793e a9a5 89be 70e2 eabd 5f50 80bd
00000130: 3738 bb3d 4f9b b33e 9ea8 10bd 470d 00be
00000140: be77 f93e 6309 52bf dfe3 543d 6264 0c3f
00000150: 680b 42be 2e5c febc 8392 fb3e 7e23 42be
00000160: f9e9 05be 346c 853a da8f 83b9 6cb5 20be
00000170: c3c2 d8be d8c1 e6bd 94e2 7bbe 523f cbbe
00000180: 4f9f c7bd 4d65 30bf 9f32 e7be 8a22 cd3d
00000190: 6558 643e 5dc8 79be 8f60 a23c 61a7 463e
000001a0: fb56 353e f19e dabe 6e9b 5dbe 9b0c b9be
000001b0: 18a9 d4be 7dac d13d b659 a63b c25b 90be
000001c0: adf3 523b b573 01ba 7a0d bc3d 2397 6bbe
000001d0: d897 da3d 2247 313e a492 b6bd 97f7 553e
000001e0: 7255 37be 9552 443e 24ef 86be f1f1 f23e
000001f0: c312 783e 7203 b83e 1fb9 dc3d 446e 7bbd
00000200: 57ee 08be 81b7 ba3c 484c d43d 404c 2bbe
00000210: f27a 5d3e 9124 803e 29f7 9ebe 4cec 86bb
00000220: 78c7 4b3b bd96 02bd e45b 56be 79ac bf3e
00000230: bbdd e33d cb20 ebbc 3884 f63e b180 91be
00000240: ccaa 9ebd 9fad e83e 33ff 60bd f542 853e
00000250: 8ef8 8c3e 7183 8a3e 9c98 19bf c445 ca3e
00000260: dd42 bcbe b7bd b83e 7fcb fcbd df3f 3a3d
00000270: 8f9b 8b3e cd2e 563d d1da 3cb8 5592 353a
00000280: 03c1 d3bd 8024 19bd 6d03 7a3e 2fe8 95bd
00000290: 0a38 83be c946 6d3c 58a1 1abe 600b 3dbd
000002a0: 7b83 6dbd 534f 223e 9f73 95be acc1 04bf
000002b0: e623 883d 7b6c 743e 04ad 843e a593 28be
000002c0: ed71 9bbd 89d1 aa3d fe15 81be 17b3 8f3e
000002d0: 17a8 54be 1f0a 063b ebad 193b 670e 33be
000002e0: 6f39 be3e de8d 91bd e213 db3d eb41 623d
000002f0: e7a6 04bf 7b41 b73e 8ab4 53be ab43 47be
00000300: 6aa5 f1bd 2a82 40be 9411 e0be e998 c1bf
00000310: ecee 08bd 1ae8 b63e 8e84 703e 7d02 2e3e
00000320: d645 aabe 2100 eabe 1c31 3cbe 3fec d1be
00000330: 9c8a a639 1ac8 83ba 9a09 c63d 35cb 16bd
00000340: 7940 1e3f 949c 52be 37ec 1c3b 6d7c f5bd
00000350: ea90 3f3e d4de 733d de34 a7bd 879f bd3e
00000360: 05b3 b8bc f439 ab3e 7a38 95be b8ac b7be
00000370: 61eb 363e ee0e 3b3c 80e3 9cbe d952 bebd
00000380: 4cc8 363f d4c1 dabd cc9c a9be 2531 44b9
00000390: 405e 85b9 d2a3 e5bd

phi_to.mlp.mlp.0.bias f4 [10]
-0.0799393 -0.022314027 -0.02468079 0.07610838 0.0006561858 0.00047293364 -0.017743818 0.14467715
0.030186843 0.10180076
00000000: 37b7 a3bd e8cb b6bc 5e2f cabc b6de 9b3d
00000010: e203 2c3a 14f4 f739 7c5b 91bc 3f26 143e
00000020: 664a f73c eb7c d03d

phi_to.mlp.mlp.2.weight f4 [10, 10]
0.15700378 0.39730546 -0.40794665 0.122834414 0.2574618 0.49409077 0.24939586 0.34380192
-0.62398475 0.12973882 0.08903937 -0.040121764 -0.12401407 0.35552567 0.028088432 -0.40658116
0.26633698 0.04921411 -0.20567124 0.1579095 -0.29157135 0.19241865 -0.1057696 0.10767906
0.25895882 -0.39575747 -0.6403878 0.0325005 0.7900634 -0.36625487 0.23724951 -0.17692326
-0.036640838 0.39672166 -0.3249393 -0.2848874 -0.12195685 0.010830239 0.28298312 -0.25679308
0.50583595 -0.29620045 -0.44402245 -0.56615347 -0.51733804 -0.028121445 -0.16732053 0.022210293
-0.13182984 0.05675135 0.20346573 0.39423254 -0.17729439 0.25388908 0.4980315 0.21719947
-0.14137542 0.18186112 -0.43052983 0.6100816 -0.3751214 -0.622423 -0.62033844 0.16232185
0.25326043 -0.068535015 -0.019190231 0.1619895 0.233758 0.2742607 -0.08307689 0.36378917
0.037084278 0.46846738 -0.3313582 -0.058915716 -0.46244207 0.044363208 -0.43097147 0.49154168
-0.31112462 0.57398546 -0.52293414 -0.61837494 0.1481709 -0.033533342 0.457238 -0.06556041
0.4175555 -0.046940695 0.30843893 0.10815055 -0.13844985 -0.0028748333 0.28312606 0.32608676
-0.46248382 -0.45034474 0.19044074 -0.44151282
00000000: 99c5 203e 9f6b cb3e 62de d0be 9c90 fb3d
00000010: 08d2 833e 77f9 fc3e a161 7f3e ce06 b03e
00000020: 77bd 1fbf 41da 043e 465a b63d b856 24bd
00000030: 17fb fdbd 7607 b63e b619 e63c 682b d0be
00000040: 525d 883e bc94 493d 7b9b 52be 07b3 213e
00000050: d748 95be 6509 453e bb9d d8bd d786 dc3d
00000060: 4096 843e b9a0 cabe 74f0 23bf 3f1f 053d
00000070: 9841 4a3f c285 bbbe 89f1 723e 5f2b 35be
00000080: b414 16bd 1a1f cb3e 725e a6be c3dc 91be
00000090: 83c4 f9bd 5171 313c 2ae3 903e 627a 83be
000000a0: 777e 013f 96a7 97be e956 e3be 6fef 10bf
000000b0: 4470 04bf f25e e6bc 1356 2bbe 5cf2 b53c
000000c0: 67fe 06be 1b74 683d 5259 503e d9d8 c93e
000000d0: a98c 35be c0fd 813e fcfd fe3e 8a69 5e3e
000000e0: b8c4 10be cd39 3a3e 686e dcbe 4f2e 1c3f
000000f0: ea0f c0be 1d57 1fbf 80ce 1ebf b337 263e
00000100: 5aab 813e 165c 8cbd d534 9dbc 93e0 253e
00000110: 425e 6f3e e66b 8c3e 3724 aabd 9342 ba3e
00000120: afe5 173d f5da ef3e c8a7 a9be 9b51 71bd
00000130: 35c5 ecbe 32b6 353d 4ba8 dcbe 5aab fb3e
00000140: ba4b 9fbe b6f0 123f 03df 05bf d24d 1ebf
00000150: 1dba 173e 425a 09bd 191b ea3e 8944 86bd
00000160: d6c9 d53e e344 40bd b5eb 9d3e 097e dd3d
00000170: ccc5 0dbe b367 3cbb e6f5 903e d8f4 a63e
00000180: aeca ecbe 9693 e6be e602 433e f80d e2be

phi_to.mlp.mlp.2.bias f4 [10]
-0.043752186 0.05120776 -0.0387842 0.13553227 -0.011718263 0.0064347098 -0.09777175 0.06362134
0.06163115 -0.049691014
00000000: 7e35 33bd 3abf 513d 2edc 1ebd f9c8 0a3e
00000010: f5fd 3fbc 42da d23b 8e3c c8bd e84b 823d
00000020: f270 7c3d ce88 4bbd

phi_from.mlp.mlp.0.weight f4 [10, 23]
-0.34968406 -0.24318866 0.2895565 -0.15731686 0.17632139 0.04929647 -0.0724357 -0.00085634756
-0.41062126 -0.2722191 -0.17484862 0.2337573 0.40118095 -0.13117863 -0.02142889 -1.0232375
-0.22842047 -0.063645996 0.3472658 -0.25124496 0.0014672654 -0.0013867854 0.049278527 0.32979074
-0.2282471 0.049482837 0.015141206 0.07272514 0.7930092 -0.15501696 0.79696834 -0.004800963
-0.13047555 0.20876431 0.3822558 -0.4560402 0.26042074 0.01702985 -0.3381481 0.3962821
-0.18557113 0.34540638 -0.13987677 0.00056219444 -0.0002307881 -0.13798422 0.16545625 -0.23410541
-0.12291834 0.17372416 -0.15621509 -0.94244355 0.83482367 0.23472139 0.3579686 -0.29850754
-0.31998983 -0.105622694 0.31713045 -0.16832928 0.37101856 0.12005157 -0.12864041 0.18490016
0.05172967 0.011655068 0.00042116616 -0.00027548257 -0.1376767 0.39499667 -0.17560248 0.105009705
0.115572736 -0.140492 1.0815699 0.2998536 0.84435195 0.11294411 -0.26773438 0.15047273
0.23304735 -0.2652127 0.021756291 -0.18941604 -0.44650137 0.29163486 -0.46706223 0.30221397
0.15507403 0.0029767756 -0.0030002021 -0.2989813 0.13114466 0.42651802 -0.10813882 -0.14959826
-0.30601266 0.116220616 0.39911234 0.23613837 -0.20136923 -0.0852773 0.10798684 0.1536357
-0.46454254 0.21188854 -0.048126273 0.22955738 -0.3701739 -0.5196121 0.41633877 0.36697158
0.0012660967 -0.0016376928 -0.05063857 -0.2890814 0.22043197 -0.15675189 0.48452964 -0.33142224
-0.044391215 -0.41812846 0.15769403 0.41561404 0.07134667 -0.12902445 0.45936546 -0.043792587
-0.17643173 -0.045454115 -0.149614 0.3473929 -0.25728914 -0.3851121 -0.0022060957 -0.00028486163
-0.0009179792 -0.03426572 -0.17213953 0.17699566 -0.006809933 -0.297884 0.1478635 -0.13366276
-0.3791455 0.32787368 -0.22020215 -0.38296378 0.19235538 -0.27628177 -0.08589361 -0.4371842
-0.29584706 0.1491383 -0.3891867 0.31394303 -0.5456187 0.07392146 -0.0007284929 -0.0012102559
-0.06164933 0.09840867 -0.47112873 -0.06260128 -0.2651112 -0.4535493 0.109842494 -0.116907254
0.020811161 0.48439705 -0.0056049707 0.05357188 0.4042213 -0.2695379 -0.03635927 0.33822864
0.5811191 0.3807334 -0.122750945 0.07765368 -0.28525499 -0.0021235223 0.00031109943 -0.020219855
0.29932985 -0.104445286 0.07584427 0.029228033 0.10916398 0.37227798 -0.4323107 -0.12232443
-0.008411748 0.108687714 0.50376755 0.31651714 -0.8791466 -0.5023024 0.059052188 0.028735675
0.08718932 -0.026506972 0.025463259 0.35779315 0.00037151232 -3.0340165e-05 -0.06873154 -0.35158256
-0.22949976 0.095603324 0.09270638 0.1410895 0.20032853 -0.24093673 -0.1988353 -0.7559568
-0.06461628 -0.3081798 0.16567788 -0.16632819 0.06789822 0.08991526 -0.37663847 0.026458077
-0.31274518 0.27416494 0.5524599 -0.014038457 0.008052115 0.12240231
00000000: ca09 b3be 7306 79be c040 943e ac17 21be
00000010: 988d 343e 18eb 493d 2b59 94bd 837c 60ba
00000020: f33c d2be 4d60 8bbe 840b 33be 135e 6f3e
00000030: 9767 cd3e b153 06be a48b afbc 72f9 82bf
00000040: 0ee7 69be d558 82bd d3cc b13e 2ea3 80be
00000050: 4251 c03a ccc4 b5ba 48d8 493d 55da a83e
00000060: 9cb9 69be 84ae 4a3d d212 783c ebf0 943d
00000070: a702 4b3f c4bc 1ebe 1e06 4c3f 6651 9dbb
00000080: 629b 05be 50c6 553e 08b7 c33e 1a7e e9be
00000090: de55 853e 2f82 8b3c bf21 adbe 7de5 ca3e
000000a0: 5c06 3ebe 1bd9 b03e db3b 0fbe 3b60 133a
000000b0: b5ff 71b9 bc4b 0dbe 5d6d 293e 54b9 6fbe
000000c0: 9cbc fbbd bfe4 313e d9f6 1fbe fb43 71bf
000000d0: 01b7 553f ce5a 703e a947 b73e fbd5 98be
000000e0: b5d5 a3be b650 d8bd ec5e a23e 835e 2cbe
000000f0: 25f6 bd3e 99dd f53d 50ba 03be 7856 3d3e
00000100: 7ee2 533d e6f4 3e3c f7cf dc39 a56e 90b9
00000110: 1ffb 0cbe 013d ca3e 23d1 33be 540f d73d
00000120: 66b1 ec3d 23dd 0fbe e270 8a3f 6986 993e
00000130: 7327 583f 3e4f e73d 7b14 89be 8615 1a3e
00000140: f7a3 6e3e f6c9 87be 403a b23c 47f6 41be
00000150: d49b e4be 2a51 953e c822 efbe cabb 9a3e
00000160: bacb 1e3e 0216 433b 0a9f 44bb 1414 99be
00000170: c94a 063e 9260 da3e e377 ddbd 4930 19be
00000180: b1ad 9cbe 1305 ee3d 7458 cc3e 42ce 713e
00000190: bc33 4ebe dda5 aebd 3428 dd3d ad52 1d3e
000001a0: 85d8 edbe 4ff9 583e 0e20 45bd 1711 6b3e
000001b0: 6f87 bdbe 4c05 05bf 5b2a d53e b3e3 bb3e
000001c0: 28f3 a53a daa7 d6ba 646a 4fbd 7a02 94be
000001d0: ebb8 613e 9183 20be 4514 f83e 2db0 a9be
000001e0: 90d3 35bd ef14 d6be 8b7a 213e 5dcb d43e
000001f0: 341e 923d fc1e 04be f331 eb3e db5f 33bd
00000200: 85aa 34be 182e 3abd 6a34 19be 7bdd b13e
00000210: 67bb 83be 6a2d c5be 2594 10bb 7b59 95b9
00000220: 8ba4 70ba 365a 0cbd 5845 30be 5a3e 353e
00000230: dc25 dfbb 4084 98be 8869 173e e4de 08be
00000240: 5c1f c2be 0fdf a73e ac7c 61be d413 c4be
00000250: cff8 443e ce74 8dbe fde8 afbd 9cd6 dfbe
00000260: 4479 97be b6b7 183e 7b43 c7be 24bd a03e
00000270: abad 0bbf 2264 973d 55f8 3eba 73a1 9eba
00000280: 0284 7cbd 7c8a c93d c937 f1be 1a35 80bd
00000290: a8bc 87be 9d37 e8be 1af5 e03d 126d efbd
000002a0: 2b7c aa3c e402 f83e e7a9 b7bb 306e 5b3d
000002b0: 18f6 ce3e df00 8abe 75ed 14bd 4e2c ad3e
000002c0: 39c4 143f 7def c23e d964 fbbd e508 9f3d
000002d0: f10c 92be cb2a 0bbb 0f1b a339 1ca4 a5bc
000002e0: c341 993e 69e7 d5bd 3e54 9b3d a16f ef3c
000002f0: 5d91 df3d 389b be3e d457 ddbe 3b85 fabd
00000300: 6ed1 09bc aa97 de3d e9f6 003f 890e a23e
00000310: c00f 61bf e496 00bf b5e0 713d 1467 eb3c
00000320: 5090 b23d 2625 d9bc 5398 d03c aa30 b73e
00000330: 8ac7 c239 0283 feb7 1fc3 8cbd a102 b4be
00000340: fc01 6bbe adcb c33d d8dc bd3d c479 103e
00000350: ec22 4d3e 1eb8 76be 7b9b 4bbe 6386 41bf
00000360: 8a55 84bd bec9 9dbe 76a7 293e f051 2abe
00000370: 390e 8b3d 7e25 b83d c2d6 c0be 9cbe d83c
00000380: 2320 a0be 595f 8c3e 036e 0d3f 8e01 66bc
00000390: 05ed 033c 10ae fa3d

phi_from.mlp.mlp.0.bias f4 [10]
-0.029480267 0.077353984 0.38567305 -0.02443073 0.08426439 0.10006876 -0.020071965 0.01018877
0.09832248 -0.026079008
00000000: 9a80 f1bc c46b 9e3d f076 c53e f422 c8bc
00000010: cf92 ac3d daf0 cc3d f66d a4bc ccee 263c
00000020: 4c5d c93d a5a3 d5bc

phi_from.mlp.mlp.2.weight f4 [10, 10]
-0.3275355 -0.9933782 0.15946361 -0.100139566 0.33045623 0.18276253 -0.85317236 -0.28212035
-0.099296965 -0.13916153 -0.0782866 0.14483836 -0.31244045 -0.053442072 -0.43604985 0.416977
0.26982304 0.531776 0.63546354 -0.13788089 -0.044097014 -0.05640669 0.42672583 -0.104275435
-0.30568177 -0.46430174 -1.0979984 0.74477667 -0.110177 -0.440735 0.17916067 1.234597
-0.027348036 -0.02592994 0.49221766 -0.32286674 -0.35902497 -0.12526982 -0.23332591 0.22236058
-0.4042757 1.1511219 -0.20249292 0.6260619 -0.24210007 -0.31879383 -0.0010071051 -0.17162955
0.25057954 -0.6454394 -0.17499135 0.13071094 0.09642281 -0.29420626 0.52954906 -0.34897822
0.4761135 0.15803565 -0.2963923 -0.035521828 0.039651204 -0.21270424 -0.1865865 0.24847247
-0.01368687 -0.24592151 -0.06732333 -0.047880057 0.14544584 0.082940616 -0.5035613 -0.15187998
0.2846516 0.80118245 -0.16321284 -0.12967958 -0.3077832 -0.35029262 -0.2760057 -0.07984646
-0.008209738 -0.4668386 0.5493783 -0.011546353 0.00061608886 0.575008 -0.4869373 -0.14419171
-0.57946676 0.2956885 -0.3549076 0.29801595 -0.085057236 0.043163177 0.57549274 0.0021074207
-0.15155706 0.21189834 0.24168634 0.08340438
00000000: bcb2 a7be 094e 7ebf 6e4a 233e f915 cdbd
00000010: 8f31 a93e 1a26 3b3e 8169 5abf 1472 90be
00000020: 355c cbbd 5c80 0ebe ba54 a0bd 8250 143e
00000030: 32f8 9fbe 13e6 5abd ed41 dfbe 027e d53e
00000040: 3f26 8a3e 7922 083f bdad 223f a630 0dbe
00000050: 129f 34bd b40a 67bd cf7b da3e 5c8e d5bd
00000060: 5282 9cbe f5b8 edbe 368b 8cbf afa9 3e3f
00000070: 7ba4 e1bd 05a8 e1be e575 373e 4607 9e3f
00000080: fd08 e0bc 076b d4bc f403 fc3e ca4e a5be
00000090: 1fd2 b7be bb46 00be fdec 6ebe 7eb2 633e
000000a0: 39fd cebe f657 933f 4e5a 4fbe 9845 203f
000000b0: 15e9 77be f238 a3be d700 84ba a8bf 2fbe
000000c0: f64b 803e 843b 25bf ef30 33be 17d9 053e
000000d0: 5279 c53d 34a2 96be 8790 073f 46ad b2be
000000e0: 26c5 f33e 19d4 213e bbc0 97be 567f 11bd
000000f0: 4d69 223d 24cf 59be 8810 3fbe 916f 7e3e
00000100: e53e 60bc d9d2 7bbe d0e0 89bd e11d 44bd
00000110: c1ef 143e c5dc a93d 65e9 00bf 6d86 1bbe
00000120: dbbd 913e 4b1a 4d3f 4421 27be b9ca 04be
00000130: c295 9dbe 8e59 b3be 9e50 8dbe 8a86 a3bd
00000140: 2382 06bc 7805 efbe 0ea4 0c3f ea2c 3dbc
00000150: 0681 213a b933 133f d94f f9be fea6 13be
00000160: ef57 14bf 7c64 973e 73b6 b5be 8c95 983e
00000170: 7d32 aebd dfcb 303d 7e53 133f a71c 0a3b
00000180: c631 1bbe e1fb 583e a07c 773e eacf aa3d

phi_from.mlp.mlp.2.bias f4 [10]
-0.083253786 -0.032619044 0.00025929883 -0.037636936 -0.1657916 0.09758288 -0.05364798 0.06645833
0.037583534 -0.08152652
00000000: f680 aabd 8c9b 05bd 80f2 8739 3029 1abd
00000010: 46c5 29be 88d9 c73d fcbd 5bbd 4e1b 883d
00000020: 31f1 193d 60f7 a6bd

z_k.mlp.0.weight f4 [10, 33]
0.45991427 -2.5600805 0.64324766 0.7944809 0.4061602 -0.7839339 -0.620387 -0.3718213
0.018307962 0.200804 -1.0804517 -0.069315195 -0.20788768 -0.23392314 0.5828587 -1.2179247
1.2962102 0.044482768 -0.826878 0.08689824 -0.36726728 -0.08087459 0.19539905 0.25285646
0.5166372 -0.31778958 0.66776794 0.15652877 -0.21792367 -0.117050506 -0.018324632 -0.07087943
0.2395065 0.37735966 -0.6686256 -1.3837569 0.11188189 0.4300049 -0.04093211 -0.16763686
0.60982215 -0.66463447 -0.71128416 -0.056997586 -0.13805647 0.13335235 0.45953912 0.15046361
0.47657362 -0.33242455 -0.0012367718 -0.32836148 0.32246253 -0.31312308 0.5057413 0.4883308
-0.07158298 0.060316782 -0.50024766 -0.00077488256 0.2746797 -0.4013372 0.371239 0.026739873
-0.033836406 -0.45727572 0.071152344 -0.4062248 -1.4652038 0.34631 -0.009073347 -0.50940025
-0.4090477 -0.3916228 -0.3104461 -0.28042504 -0.3620839 0.14994 0.18961743 -0.22472687
-0.43437305 -0.38264462 0.28826216 0.0014416978 0.072088376 0.015028614 -0.2250191 0.06601757
-0.16145007 0.18270871 0.057142273 -0.49254674 0.7196953 -0.19755936 -0.67497367 0.16746773
0.025637405 -0.11324392 0.033079047 0.5910041 0.00877869 0.43043572 0.8481212 0.7670118
0.46886277 0.7736996 0.68027335 0.3926272 0.3311246 0.10239181 0.0534913 -0.15697645
1.2125674 -0.220896 -0.38146308 -0.6572205 0.52486336 0.54681545 0.39144462 0.28669673
0.23309694 0.098849595 0.19585992 0.5805978 0.07032744 -0.13086966 -0.3972877 -0.69276446
0.3456177 0.012033891 0.16580515 -0.4781093 0.17149663 0.27330315 -1.1625117 -0.71034956
0.10458267 0.25731307 0.52327853 0.28411272 -0.9438958 -0.17416401 -0.007940845 0.9269095
0.16364457 0.17066582 0.42619082 -0.23990491 -0.0048216833 -0.5058663 -0.51539105 0.94347066
-0.3143103 -0.008168389 0.08243584 0.01426244 1.2231213 0.053862248 0.44808865 0.5909943
-0.36332995 0.3444282 -0.010563187 -0.23941767 -0.4286625 0.51552933 0.23878168 0.07277899
-1.1153712 -0.14812636 0.60841656 -0.19330493 0.51758945 0.4012664 -0.16713089 0.44509768
-0.15492739 0.08316962 -0.15684529 0.23667447 -0.091676906 0.43634737 -0.27398655 -0.11570069
1.0760078 -0.34207308 0.05614574 0.70017844 -0.28580686 0.5832408 -0.18333368 0.3630263
0.2734131 -0.6277731 -0.36341897 0.0005517717 -0.1829466 -0.088534325 0.6273641 -0.11854286
-0.86875147 -0.021222193 1.0765736 0.12128723 0.016793909 -0.69735605 0.36065784 0.2853451
0.21274191 0.10736756 0.27308604 -0.14544019 0.10985851 -0.2549436 0.11069255 -0.45718163
-0.46512926 0.14000681 -0.0013593006 0.17600696 -0.35643482 0.14632416 0.14326803 -0.22714864
0.17008744 0.22450458 -0.3735544 -0.05239977 0.012509834 -0.38925546 -0.16671574 0.2957081
-0.27414662 -0.70040286 -0.11335733 -0.4527814 1.1900234 0.19770221 0.39097917 -0.09470339
-0.14932778 -0.15870313 -0.12055442 0.5919165 -0.18952335 -0.13248903 0.32625377 0.08768063
-0.08517392 0.75573987 -0.118806496 -0.0010989128 -0.13411832 0.08555773 0.31580776 0.54270273
00000000: e279 eb3e 5cd8 23c0 e1ab 243f 1a63 4b3f
00000010: 3bf4 cf3e e4af 48bf afd1 1ebf 5d5f bebe
00000020: 94fa 953c 909f 4d3e 3e4c 8abf 20f5 8dbd
00000030: 82e0 54be 8c89 6fbe 3a36 153f f5e4 9bbf
00000040: 37ea a53f 9033 363d 47ae 53bf b4f7 b13d
00000050: 750a bcbe 94a1 a5bd b016 483e 6776 813e
00000060: 5642 043f 51b5 a2be d7f2 2a3f 1449 203e
00000070: 6227 5fbe 2db8 efbd 8a1d 96bc 3c29 91bd
00000080: 3141 753e 4935 c13e 0c2b 2bbf f21e b1bf
00000090: 5522 e53d 9a29 dc3e 6ea8 27bd ffa8 2bbe
000000a0: 4e1d 1c3f 7c25 2abf b816 36bf 4d76 69bd
000000b0: ad5e 0dbe 858d 083e b648 eb3e 2213 1a3e
000000c0: 7501 f43e 8d33 aabe 2d1b a2ba ff1e a8be
000000d0: cf19 a53e ab51 a0be 4378 013f 7f06 fa3e
000000e0: 199a 92bd bb0e 773d 3b10 00bf 7d21 4bba
000000f0: d1a2 8c3e 127c cdbe 0a13 be3e 940d db3c
00000100: 0b98 0abd 0b20 eabe 52b8 913d b2fc cfbe
00000110: cc8b bbbf 8b4f b13e 60a8 14bc 0e68 02bf
00000120: b36e d1be c982 c8be cbf2 9ebe df93 8fbe
00000130: 1063 b9be df89 193e 122b 423e cd1e 66be
00000140: 2566 debe ffe9 c3be 1997 933e 5af7 bc3a
00000150: 12a3 933d 933a 763c 686b 66be 3834 873d
00000160: 2b53 25be fe17 3b3e 040e 6a3d 162f fcbe
00000170: f43d 383f 004d 4abe 13cb 2cbf a97c 2b3e
00000180: 8905 d23c 6eec e7bd e57d 073d 0b4c 173f
00000190: 7fd4 0f3c 1262 dc3e 791e 593f e35a 443f
000001a0: c80e f03e 2d11 463f 6526 2e3f 6f06 c93e
000001b0: 2a89 a93e ccb2 d13d b219 5b3d 6fbe 20be
000001c0: 6935 9b3f 9032 62be 214f c3be 9a3f 28bf
000001d0: 725d 063f 19fc 0b3f 6e6b c83e eac9 923e
000001e0: f7b0 6e3e a871 ca3d 818f 483e 0fa2 143f
000001f0: d507 903d b202 06be 4b69 cbbe 0359 31bf
00000200: cef4 b03e cc29 453c d3c8 293e beca f4be
00000210: d09c 2f3e 64ee 8b3e 2fcd 94bf 78d9 35bf
00000220: 702f d63d 8abe 833e 95f5 053f 3977 913e
00000230: 28a3 71bf 0d58 32be 511a 02bc f149 6d3f
00000240: 7192 273e 05c3 2e3e af35 da3e a2a9 75be
00000250: 36ff 9dbb 7480 01bf abf0 03bf 4b87 713f
00000260: 48ed a0be b5d4 05bc 1fd4 a83d 02ad 693c
00000270: 3d8f 9c3f a99e 5c3d e06b e53e 674b 173f
00000280: 6206 babe e558 b03e 3811 2dbc e829 75be
00000290: a779 dbbe bbf9 033f 2f83 743e 270d 953d
000002a0: 7cc4 8ebf 70ae 17be 30c1 1b3f baf1 45be
000002b0: be80 043f ca72 cd3e 5c24 2bbe d8e3 e33e
000002c0: 49a5 1ebe d554 aa3d 0d9c 20be cb5a 723e
000002d0: 1ac1 bbbd ec68 df3e f747 8cbe 7cf4 ecbd
000002e0: a0ba 893f 3424 afbe 13f9 653d e53e 333f
000002f0: 4755 92be 454f 153f d3bb 3bbe 95de b93e
00000300: cdfc 8b3e bdb5 20bf 0d12 babe c6a4 103a
00000310: 5a56 3bbe 7c51 b5bd ef9a 203f 99c6 f2bd
00000320: 7f66 5ebf 2ada adbc 2acd 893f 7065 f83d
00000330: 6193 893c ed85 32bf 25a8 b83e c118 923e
00000340: 04d9 593e 86e3 db3d efd1 8b3e 46ee 14be
00000350: 80fd e03d f887 82be c7b2 e23d b613 eabe
00000360: 6c25 eebe f25d 0f3e 8f2a b2ba 2b3b 343e
00000370: a07e b6be 00d6 153e dbb4 123e a799 68be
00000380: 672b 2e3e 87e4 653e 8642 bfbe 24a1 56bd
00000390: 0cf6 4c3c 7e4c c7be 88b7 2abe 0d67 973e
000003a0: f25c 8cbe 9a4d 33bf e327 e8bd f7d2 e7be
000003b0: b052 983f 7372 4a3e 6c2e c83e daf3 c1bd
000003c0: 62e9 18be 1383 22be 3ce5 f6bd d787 173f
000003d0: 6912 42be 34ab 07be bc0a a73e e791 b33d
000003e0: aa6f aebd 2b78 413f d250 f3bd 6509 90ba
000003f0: 5056 09be e438 af3d 8eb1 a13e 91ee 0a3f

z_k.mlp.0.bias f4 [10]
-0.19237582 -0.56307656 -0.30399072 -0.2195431 -0.3448465 -0.23153488 -0.35437694 -0.5806371
0.023102334 -0.80410445
00000000: 2bfe 44be c925 10bf aca4 9bbe e8cf 60be
00000010: b88f b0be 7b17 6dbe e570 b5be a2a4 14bf
00000020: 1b41 bd3c cad9 4dbf

r_k.mlp.0.weight f4 [10, 33]
0.10047743 0.18660167 0.95236164 0.16556504 -0.5682583 0.4922803 0.46256283 0.37769896
-0.33746108 -0.010694084 -0.36246058 0.4284202 -0.30108258 0.15993206 -0.1958756 0.5164285
-0.15664881 0.67139196 -0.35495472 -0.6174852 -0.055003233 -0.2907542 -0.23050499 0.31053957
0.26307315 -0.2756169 -0.32596594 0.10716853 -0.07007 -0.07536814 0.3022149 -0.3569512
0.2756034 -0.6822503 -0.036021847 -0.5123872 0.374148 0.23100089 0.028417693 -1.06102
0.05223104 0.63422185 0.638062 -0.8008153 0.13491032 0.67008346 -0.17114829 0.38397115
-0.25195295 -0.02029111 -0.7762062 0.59051853 0.50136 -0.0062364717 0.11059092 -0.5205911
-1.6427807 0.48618057 -0.37077275 0.30430076 0.4968784 0.30075687 0.07465133 -0.034136023
0.2362042 -0.15076399 -0.26313296 0.43079054 1.0830576 -0.014793188 0.37745556 0.34317654
-0.05328736 -0.09752548 0.46988732 -0.4147374 0.06623137 0.059013214 0.28023124 -1.4061847
0.6400768 -0.1257075 -0.072034724 0.3502031 0.049370583 1.0884135 0.6161714 -0.25631973
-0.07323942 -1.1260599 -0.3536208 0.65435714 -0.006293089 0.045514822 0.10381254 -0.082267
0.005104569 0.11520334 0.3349767 0.21919838 0.42531273 -0.829906 0.12872966 0.19693267
-0.35720426 -0.24416597 -0.32459086 0.24493998 0.35486123 -0.2913708 -0.53343487 -0.13992257
-0.36805183 -0.21210876 0.0921387 -0.120674714 -0.16077639 0.29781726 0.010402498 -0.033026766
-0.32899562 0.30569795 0.38575864 0.17970225 1.0082253 -0.38093042 0.41682747 -0.11113599
0.23149544 -0.014927401 0.23937386 0.063902155 0.14058429 1.0550331 1.3700788 0.5952617
0.29894295 -0.60085934 0.31923586 -0.1664486 0.35672653 0.37910044 0.33698407 0.48213217
-0.65166914 -0.8777543 0.10668705 0.08911024 0.35343394 0.09279801 0.17350706 0.25939527
-1.2288209 1.2029878 -0.20128573 -0.27199018 -0.4069669 -0.24386458 0.23476714 -0.59990793
-0.4917413 -0.17842303 0.04453982 -0.19114822 0.23249343 0.057761014 0.18607269 -0.40674368
-0.86160916 0.21648549 0.039204545 -0.44350293 0.24727221 0.52439433 -0.26723424 0.57180375
-0.12152005 0.3922001 -1.0134301 -0.26674393 0.6791749 -0.2502569 0.21239921 -0.38818055
2.736062 -0.9338949 2.7727544 0.3934645 -2.2017689 0.25337237 -0.26428074 -0.17096531
0.041555468 -0.01427549 -0.11649584 -0.38335383 -0.17657597 0.060940854 -0.88442695 0.33174643
2.4159486 -0.42791104 -0.15084025 0.39413163 -0.3961685 0.40323117 -0.010076304 0.095371984
0.24605887 0.086475134 0.072561935 0.28689784 0.45848876 -0.151403 0.5121527 0.74353015
-0.42351982 -0.15932092 0.47541654 0.79230726 0.12936902 -2.233685 0.25725785 -1.1301454
0.3592646 0.04615408 0.10339657 0.0474976 0.07660331 0.3462056 -0.061949365 0.65624887
-0.575573 -0.39332587 0.31993645 1.5917746 0.1857996 -0.009686062 0.23491928 -0.17001627
-0.2758291 0.25510266 -0.5960748 0.6911261 -0.21550249 -1.9995633 0.742383 -0.6143382
-0.39540032 0.78569365 0.32791936 0.0016570977 -0.63992023 0.37735736 0.61479425 -0.6200368
00000000: 1cc7 cd3d 8214 3f3e f9cd 733f e289 293e
00000010: 6079 11bf 2a0c fc3e 09d5 ec3e c261 c13e
00000020: b3c7 acbe 3d36 2fbc 6f94 b9be e459 db3e
00000030: 7f27 9abe 3bc5 233e 9d93 48be a834 043f
00000040: 8c68 20be 58e0 2b3f a0bc b5be 8313 1ebf
00000050: 124b 61bd bcdd 94be 8009 6cbe 0bff 9e3e
00000060: 86b1 863e a91d 8dbe 02e5 a6be 2d7b db3d
00000070: dc80 8fbd 9d5a 9abd e9bb 9a3e 4fc2 b6be
00000080: e41b 8d3e f5a7 2ebf a58b 13bd cf2b 03bf
00000090: 5490 bf3e 7f8b 6c3e 39cc e83c 81cf 87bf
000000a0: 37f0 553d 5d5c 223f 0858 233f 3b02 4dbf
000000b0: ee25 0a3e 978a 2b3f 7f41 2fbe de97 c43e
000000c0: faff 80be 8b39 a6bc 73b5 46bf 392c 173f
000000d0: 2159 003f 515b ccbb 7e7d e23d 7545 05bf
000000e0: a346 d2bf a9ec f83e edd5 bdbe 4fcd 9b3e
000000f0: d866 fe3e cefc 993e cce2 983d 37d2 0bbd
00000100: 84df 713e e061 1abe 5db9 86be 9490 dc3e
00000110: a2a1 8a3f 215f 72bc db41 c13e d6b4 af3e
00000120: d943 5abd 70bb c7bd 1295 f03e 7658 d4be
00000130: 50a4 873d d7b7 713d 787a 8f3e dcfd b3bf
00000140: 13dc 233f 78b9 00be f186 93bd d24d b33e
00000150: cf38 4a3d 2251 8b3f 69bd 1d3f 573c 83be
00000160: 8dfe 95bd bb22 90bf c90d b5be f383 273f
00000170: 4236 cebb c06d 3a3d ab9b d43d 9a7b a8bd
00000180: 3a44 a73b bbef eb3d 1182 ab3e 8a75 603e
00000190: 97c2 d93e b874 54bf b5d1 033e b8a8 493e
000001a0: 7ae3 b6be a506 7abe c630 a6be 8cd1 7a3e
000001b0: 5fb0 b53e 8e2e 95be 308f 08bf dd47 0fbe
000001c0: 4a71 bcbe 0a33 59be 37b3 bc3d 4e24 f7bd
000001d0: 91a2 24be 817b 983e 3d6f 2a3c 1347 07bd
000001e0: 1d72 a8be 7184 9c3e 2882 c53e de03 383e
000001f0: 870d 813f 5009 c3be 696a d53e 449b e3bd
00000200: 240d 6d3e 0f92 74bc 6c1e 753e 22df 823d
00000210: 54f5 0f3e 530b 873f be5e af3f 1263 183f
00000220: 0d0f 993e ebd1 19bf e272 a33e 8071 2abe
00000230: dca4 b63e 7419 c23e 2d89 ac3e 07da f63e
00000240: cad3 26bf 81b4 60bf bd7e da3d 6e7f b63d
00000250: 4bf5 b43e e20c be3d d6ab 313e 75cf 843e
00000260: 014a 9dbf 81fb 993f d91d 4ebe 4c42 8bbe
00000270: f75d d0be a3b7 79be cc66 703e 9193 19bf
00000280: 84c5 fbbe 87b4 36be 636f 363d 5cbc 43be
00000290: c212 6e3e d096 6c3d d789 3e3e b540 d0be
000002a0: 6b92 5cbf 5fae 5d3e f294 203d d112 e3be
000002b0: ed34 7d3e b53e 063f edd2 88be bb61 123f
000002c0: 81df f8bd 74ce c83e 14b8 81bf a992 88be
000002d0: 68de 2d3f ac21 80be 2e7f 593e 9abf c6be
000002e0: a41b 2f40 bc13 6fbf cf74 3140 2e74 c93e
000002f0: c8e9 0cc0 06ba 813e ce4f 87be 8811 2fbe
00000300: 1136 2a3d bfe3 69bc 5f95 eebd f446 c4be
00000310: 55d0 34be 1e9d 793d ce69 62bf abda a93e
00000320: e79e 1a40 2817 dbbe de75 1abe 9fcb c93e
00000330: 99d6 cabe 5174 ce3e 1517 25bc 6352 c33d
00000340: dbf6 7b3e e019 b13d 5a9b 943d 46e4 923e
00000350: 0abf ea3e 6309 1bbe 701c 033f fe57 3e3f
00000360: 97d7 d8be 0625 23be cc69 f33e a6d4 4a3f
00000370: 5079 043e b2f4 0ec0 4db7 833e 9ba8 90bf
00000380: 88f1 b73e 100c 3d3d 95c1 d33d d88c 423d
00000390: 32e2 9c3d dc41 b13e 9ebe 7dbd edff 273f
000003a0: c158 13bf 0262 c9be b6ce a33e 45bf cb3f
000003b0: 4042 3e3e 4ab2 1ebc ae8e 703e bf18 2ebe
000003c0: 7939 8dbe d19c 823e 5c98 18bf a4ed 303f
000003d0: afac 5cbe b1f1 ffbf d00c 3e3f 4545 1dbf
000003e0: e971 cabe 3823 493f 0ce5 a73e f932 d93a
000003f0: d0d1 23bf fc34 c13e 2863 1d3f bbba 1ebf

r_k.mlp.0.bias f4 [10]
-0.2140184 0.36030847 -0.20991452 -0.058670655 -0.27192977 0.06040859 0.50826836 -0.31822428
-0.16377449 0.078719355
00000000: a427 5bbe 5a7a b83e d5f3 56be a450 70bd
00000010: 613a 8bbe ff6e 773d e01d 023f 4bee a2be
00000020: 80b4 27be 9d37 a13d

correction.mlp.0.weight f4 [10, 33]
-0.20302458 0.9390154 0.39402258 -0.86089194 -0.47753164 0.28970703 0.53151166 -0.15607661
-0.106197946 -0.3890304 0.29859495 -0.47977415 -0.26479825 0.17687678 -0.38155377 0.019351836
-0.16982926 0.32915002 0.08884386 0.60363156 0.29647928 0.11799222 0.11438164 -0.2086105
-0.030665668 -0.2550323 -0.2036146 -0.042136386 -0.34307486 -0.18400177 0.03846922 0.102733724
0.13524027 -0.19978902 -0.3202701 -0.47390616 0.28991917 -0.029513508 1.0215076 0.38083667
0.11619584 -0.5273224 -0.44416884 -0.0907089 0.11075666 0.12533599 -0.2331422 -0.3236735
-0.1460329 -0.11276336 0.025322106 -0.10865359 0.18657257 -0.6111641 -0.050726913 0.27632424
0.16970284 -0.049877796 0.08201097 -0.2770008 -0.5224933 0.055301726 0.17978339 0.0023751473
0.08873346 -0.473583 0.33607656 0.5079548 -4.44893 0.3744493 -0.47001696 0.4559811
0.5002506 0.784898 0.08026168 -0.2551816 -0.11300442 0.06800379 -0.16328019 -0.09293322
-0.15480478 -0.15978056 0.3488123 0.13817632 0.1344724 -0.28295568 0.063226186 -0.14573647
0.24286515 -0.011779387 -0.32676423 -0.17047422 -0.0812987 -0.28870496 -0.2373188 -0.016175587
0.0016007441 0.045808233 0.007138905 0.18083978 -0.8103306 1.3521054 -0.19083923 0.5725283
-1.1734517 -0.07584672 -0.25089246 -0.23977864 0.42003056 -0.21328485 0.15179129 -0.028883789
-0.24011812 0.18893145 0.19063944 -0.12913273 -0.18151152 0.123881325 -0.15913545 -0.04136043
-0.35429686 0.04795182 0.26777685 -0.13658094 0.35697106 0.26632333 0.15133257 -0.29998165
0.25902373 -0.024120325 0.12519048 0.35836267 -0.28066486 0.13661554 0.9007181 -0.16725469
-2.670197 -1.7864964 0.19710748 0.39871672 0.571631 -0.16298838 0.24921717 0.44959378
0.32905662 0.9118416 0.7127409 0.3388692 -0.015127684 -0.1363118 -0.5987893 0.4538927
-0.35890704 0.25567105 0.51529205 0.0053833863 0.08116833 -0.13808471 -0.26120922 0.079402216
-0.15157272 0.11509182 -0.028206466 -0.26844522 -0.34064218 0.020673249 -0.19270903 -0.8166015
-0.91553104 0.07362735 -2.0749974 -0.4398548 -0.6999211 -0.30873215 0.10718493 0.08255597
0.120384775 -0.15041623 -0.38417965 -0.45753565 -0.11009118 0.40981874 0.08151424 0.28860596
-0.0689727 0.19064133 -0.21904016 -0.17226249 -0.008973164 -0.06457112 0.1875279 0.03559647
0.3995009 0.00031755838 0.044026554 -0.015043264 -0.22422108 0.08494383 0.20815158 0.7810635
-0.86271757 -0.4461627 -1.055066 1.9674487 -0.001212776 -0.04120746 0.13368009 -0.9581653
-0.1799063 0.055044673 0.038032547 0.008341002 -0.09208531 0.31134617 0.14358391 -0.3258885
-0.25272214 0.039561443 -0.17037563 0.37128893 0.02399019 -0.14081383 -0.24320158 -0.21979053
-0.105863184 -0.16245122 -0.17488298 -0.1948824 0.021866618 -0.48115113 -0.08925502 0.06911014
0.11222514 -1.1103393 -0.37141362 -0.05736796 -0.035828188 0.06795245 -0.57432383 0.02990819
-0.2509749 0.1395763 0.2606383 0.27119803 -0.30425143 0.37229967 0.38205796 -0.09455563
0.036005672 0.101580605 0.030167527 0.36414057 0.12854524 0.40285614 -0.28810027 -0.20686898
00000000: ade5 4fbe 5063 703f 54bd c93e 6a63 5cbf
00000010: 077f f4be 7b54 943e 2611 083f 8cd2 1fbe
00000020: 4f7e d9bd fe2e c7be 70e1 983e f5a4 f5be
00000030: a393 87be 301f 353e 045b c3be be87 9e3c
00000040: b9e7 2dbe 5a86 a83e c5f3 b53d 9987 1a3f
00000050: 22cc 973e e8a5 f13d ec40 ea3d fe9d 55be
00000060: 9136 fbbc 9893 82be 5880 50be 3497 2cbd
00000070: 82a7 afbe f66a 3cbe e791 1d3d 0f66 d23d
00000080: 6d7c 0a3e 7e95 4cbe 71fa a3be d4a3 f2be
00000090: 4970 943e 50c6 f1bc c3c0 823f 06fd c23e
000000a0: 16f8 ed3d 9afe 06bf 196a e3be 96c5 b9bd
000000b0: 63d4 e23d 1458 003e d4bc 6ebe 88b8 a5be
000000c0: a689 15be 7af0 e6bd 4e70 cf3c c685 debd
000000d0: e10c 3f3e 4075 1cbf 06c7 4fbd 5f7a 8d3e
000000e0: 95c6 2d3e a94c 4cbd 5ef5 a73d 0dd3 8dbe
000000f0: 1fc2 05bf 1084 623d 2319 383e 5ca8 1b3b
00000100: e3b9 b53d 7979 f2be 3a12 ac3e 5309 023f
00000110: a25d 8ec0 d2b7 bf3e 10a6 f0be 5b76 e93e
00000120: 6c10 003f 13ef 483f 3c60 a43d 2aa7 82be
00000130: dd6e e7bd 9245 8b3d ec32 27be c653 bebd
00000140: 2585 1ebe 849d 23be 8797 b23e 187e 0d3e
00000150: 22b3 093e 91df 90be bb7c 813d f13b 15be
00000160: a4b1 783e 54fe 40bc a44d a7be cb90 2ebe
00000170: ef7f a6bd 23d1 93be b303 73be aa82 84bc
00000180: 0fd0 d13a 6aa1 3b3d 7aed e93b 102e 393e
00000190: d471 4fbf ca11 ad3f 5c6b 43be 3791 123f
000001a0: aa33 96bf 8655 9bbd fa74 80be 8888 75be
000001b0: 3f0e d73e 5867 5abe 2d6f 1b3e b29d ecbc
000001c0: 86e1 75be 3f77 413e fc36 433e 5f3b 04be
000001d0: 28de 39be 7eb5 fd3d 67f4 22be 8e69 29bd
000001e0: 6666 b5be 2169 443d 0c1a 893e e0db 0bbe
000001f0: e9c4 b63e 885b 883e edf6 1a3e 3297 99be
00000200: c29e 843e fd97 c5bc ef31 003e 507b b73e
00000210: 4eb3 8fbe f2e4 0b3e 7695 663f d044 2bbe
00000220: 82e4 2ac0 eaab e4bf 8bd6 493e 9924 cc3e
00000230: 6956 123f 6de6 26be c932 7f3e 2831 e63e
00000240: 1c7a a83e 736e 693f 3076 363f 4480 ad3e
00000250: 1bda 77bc 5295 0bbe 414a 19bf a064 e83e
00000260: aac2 b7be 51e7 823e 2eea 033f 1e67 b03b
00000270: 953b a63d 1466 0dbe 37bd 85be a19d a23d
00000280: e135 1bbe 43b5 eb3d 3f11 e7bc a771 89be
00000290: a768 aebe f25a a93c 8455 45be cc0c 51bf
000002a0: 3e60 6abf f0c9 963d c2cc 04c0 a634 e1be
000002b0: 072e 33bf 2412 9ebe c683 db3d 1b13 a93d
000002c0: 4b8c f63d b606 1abe 32b3 c4be 1d42 eabe
000002d0: 7c77 e1bd c3d3 d13e f0f0 a63d 29c4 933e
000002e0: 8f41 8dbd 7b37 433e 104c 60be 9465 30be
000002f0: 2d04 13bc dd3d 84bd 5007 403e 9bcd 113d
00000300: 628b cc3e f77d a639 3055 343d 0678 76bc
00000310: 369a 65be 08f7 ad3d b025 553e c7f3 473f
00000320: 0fdb 5cbf 706f e4be 670c 87bf 5cd5 fb3f
00000330: 03f6 9eba 27c9 28bd 6fe3 083e 524a 75bf
00000340: 5b39 38be 8676 613d 04c8 1b3d b3a8 083c
00000350: 3997 bcbd c468 9f3e a907 133e dcda a6be
00000360: cc64 81be 2e0b 223d f376 2ebe 9519 be3e
00000370: 1387 c43c 8031 10be d609 79be c510 61be
00000380: ccce d8bd 9d59 26be 8614 33be 408f 47be
00000390: 9f21 b33c 7159 f6be 56cb b6bd 9e89 8d3d
000003a0: 4bd6 e53d 991f 8ebf ed29 bebe abfa 6abd
000003b0: 94c0 12bd a72a 8b3d e306 13bf 0502 f53c
000003c0: c87f 80be 17ed 0e3e 6272 853e 78da 8a3e
000003d0: d8c6 9bbe 109e be3e 1a9d c33e 62a6 c1bd
000003e0: af7a 133d 7e09 d03d e421 f73c a270 ba3e
000003f0: 5da1 033e 2943 ce3e e181 93be 76d5 53be

correction.mlp.0.bias f4 [10]
-0.06108505 -0.2257026 0.19794296 0.08905068 0.33786285 0.016460799 -0.2542517 -0.13566265
-0.15970802 0.003243284
00000000: 5134 7abd 951e 67be 8fb1 4a3e 3460 b63d
00000010: 5cfc ac3e ccd8 863c 472d 82be 26eb 0abe
00000020: 808a 23be 478d 543b

phi_neumann.mlp.mlp.0.weight f4 [10, 23]
-0.3664637 0.23437442 0.33566198 0.03753353 0.06590285 0.0686007 -0.7328221 -0.18569161
0.47720394 0.18407276 0.13031816 0.1030706 -0.503073 -0.5824694 0.26335505 -0.016785309
0.3880882 0.26636282 -0.10065451 -0.2777316 0.0038347861 -0.0002469319 -0.013148356 0.3556134
-0.1438587 -0.061566763 0.27740237 -0.41309392 -0.020979593 -0.3615964 0.029262625 0.19075668
0.42878377 0.09518507 0.29238632 0.044209242 -0.47106695 -0.013065262 -0.55205697 0.13063191
-0.035450503 -0.0045870296 -0.03496513 0.0010958337 0.0016370852 0.041247945 -0.052359186 0.46508437
-0.52451533 0.09735008 0.6599987 -0.35538733 0.12704611 0.49253896 -0.22120912 -0.39555043
-0.4637136 -0.22800717 -0.13293646 0.18502475 -0.19326557 -0.20159712 -0.04193381 0.5697998
0.04190949 0.1694203 -0.00031221562 -0.0012167005 -0.064252734 0.47536916 0.36537507 -0.24582116
-0.022111874 0.32924023 -0.056347094 -0.21778889 -0.23313138 0.21106772 -0.012647972 0.15609095
-0.108590655 -0.35228878 0.041225825 0.24834903 -0.8179829 0.10452257 0.18487185 -0.11838905
-0.055495504 -0.0043821405 0.0073534697 -0.088957325 -0.3656764 0.1980215 0.082644574 0.16442986
0.12123523 -0.15460248 -0.06412831 -0.21089703 0.22357318 -0.43162295 0.029627172 -0.185302
0.35341886 -0.6788187 -0.24315785 -0.09322555 -0.437862 0.44893083 -0.033310458 -0.21069267
0.0022515457 0.001378871 0.108974986 0.117733024 -0.13506134 1.1196169 -0.06182148 0.13194394
0.97128665 0.15169416 0.140558 0.22196613 -0.8107055 -0.46958134 0.24530575 -1.0825434
-0.11514728 -0.07985108 -0.52648073 -0.116751775 0.11946841 0.081702076 -0.21453689 0.004068597
-0.003717763 0.14446242 0.2120597 0.45436493 0.6568825 0.23041093 0.28585145 0.26747307
-0.07217772 -0.39577356 -0.36265197 0.11415906 0.3606352 -0.3703497 -0.39353064 -0.09748596
-0.26645452 -0.17483094 0.12807164 -0.11770082 0.04166916 0.005673627 0.0008081059 -0.0014278975
0.007983612 0.40766788 0.18564431 0.19627406 -0.036988508 0.0649809 -0.1529953 -0.1813842
0.102066875 -0.42765453 -0.070218764 0.41368663 -0.38836965 -0.915842 0.5171055 0.8215729
0.23406464 -0.32838616 -0.3768948 0.36386204 -0.1842128 -0.00167965 -0.00025650117 -0.008937573
-0.17165671 0.15028666 -0.19853476 -0.020998592 -0.057357017 0.38755292 0.036550086 0.6883769
-0.02468938 0.09171039 -0.026473353 0.335832 -0.049846172 -0.02547768 -0.18716045 0.07057117
-0.05798786 0.6027286 -0.8361775 -0.15535887 -0.00030959054 0.0005799171 -0.09171881 -0.24538797
0.27400848 -0.28155977 -0.4423228 -0.20389555 0.030139357 0.46728936 -0.24200845 -0.10323304
-0.11223115 0.2631675 -0.17090237 -0.034846466 0.3850032 -0.04949236 0.297586 -0.3797169
-0.2310559 0.099743366 0.3605166 0.0034569902 -0.0011730329 0.02479488
00000000: 21a1 bbbe d9ff 6f3e e3db ab3e c2bc 193d
00000010: 13f8 863d 867e 8c3d 3b9a 3bbf f125 3ebe
00000020: 1354 f43e 927d 3c3e 2072 053e ae16 d33d
00000030: 64c9 00bf b71c 15bf 79d6 863e 5881 89bc
00000040: 7fb3 c63e b560 883e f423 cebd d632 8ebe
00000050: 0951 7b3b a376 81b9 346c 57bc f612 b63e
00000060: b24f 13be 6e2d 7cbd af07 8e3e 0c81 d3be
00000070: 65dd abbc 2a23 b9be 2cb8 ef3c b855 433e
00000080: 8c89 db3e 64f0 c23d a9b3 953e c014 353d
00000090: b02f f1be ae0f 56bc 9b53 0dbf 5fc4 053e
000000a0: 8c34 11bd cb4e 96bb 9937 0fbd 14a2 8f3a
000000b0: 7793 d63a 9bf3 283d 9676 56bd 8a1f ee3e
000000c0: a346 06bf 7b5f c73d adf5 283f 54f5 b5be
000000d0: 6018 023e 112e fc3e a584 62be 9685 cabe
000000e0: de6b edbe b67a 69be 7f20 08be 2177 3d3e
000000f0: 69e7 45be 7a6f 4ebe c9c2 2bbd 66de 113f
00000100: 49a9 2b3d 847c 2d3e dfb0 a3b9 b279 9fba
00000110: f096 83bd 9663 f33e 7112 bb3e 8bb8 7bbe
00000120: f623 b5bc 2d92 a83e 36cc 66bd 0d04 5fbe
00000130: feb9 6ebe 2322 583e 7139 4fbc 4ed6 1f3e
00000140: c764 debd 325f b4be 69dc 283d 354f 7e3e
00000150: 5467 51bf ee0f d63d 0c4f 3d3e f575 f2bd
00000160: 414f 63bd 0f98 8fbb 60f5 f03b 422f b6bd
00000170: f039 bbbe 26c6 4a3e 8f41 a93d 4d60 283e
00000180: 2d4a f83d 1d50 1ebe b455 83bd 64f5 57be
00000190: 5ef0 643e affd dcbe afb4 f23c cfbf 3dbe
000001a0: 51f3 b43e 10c7 2dbf 5ffe 78be 0aed bebd
000001b0: 732f e0be 43da e53e 8c70 08bd d2bf 57be
000001c0: ab8e 133b 3cbb b43a 472e df3d 031e f13d
000001d0: 854d 0abe 9b4f 8f3f 8538 7dbd 501c 073e
000001e0: 3ea6 783f b755 1b3e 70ee 0f3e 174b 633e
000001f0: 658a 4fbf f76c f0be 6e31 7b3e c890 8abf
00000200: 56d2 ebbd f788 a3bd 71c7 06bf 8e1b efbd
00000210: dbab f43d 6b53 a73d 8faf 5bbe de51 853b
00000220: b6a5 73bb f5ed 133e 2e26 593e 85a2 e83e
00000230: 7429 283f d8f0 6b3e 1f5b 923e 3bf2 883e
00000240: ead1 93bd d5a2 cabe 85ad b9be 3acc e93d
00000250: 2da5 b83e 7a9e bdbe d97c c9be b8a6 c7bd
00000260: ba6c 88be e206 33be 3625 033e 210d f1bd
00000270: 48ad 2a3d d5e9 b93b 12d7 533a 4a28 bbba
00000280: b2cd 023c d8b9 d03e 8b19 3e3e 11fc 483e
00000290: 4381 17bd b514 853d cdaa 1cbe c8bc 39be
000002a0: 7008 d13d 89f5 dabe dbce 8fbd bcce d33e
000002b0: 63d8 c6be 9f74 6abf 0761 043f 9a52 523f
000002c0: a4ae 6f3e 3b22 a8be 5bf8 c0be 204c ba3e
000002d0: 48a2 3cbe b427 dcba 017b 86b9 e66e 12bc
000002e0: c7c6 2fbe bfe4 193e b24c 4bbe 3d05 acbc
000002f0: 31ef 6abd 566d c63e 8bb5 153d 7839 303f
00000300: 6241 cabc a8d2 bb3d a5de d8bc 2cf2 ab3e
00000310: 802b 4cbd 91b6 d0bc fda6 3fbe 9e87 903d
00000320: ae84 6dbd 6c4c 1a3f bb0f 56bf 6516 1fbe
00000330: 8a50 a2b9 9405 183a 12d7 bbbd fc46 7bbe
00000340: d74a 8c3e 9a28 90be 2278 e2be ffc9 50be
00000350: d0e6 f63c 8d40 ef3e 10d1 77be d86b d3bd
00000360: 72d9 e5bd e4bd 863e 0801 2fbe 2bbb 0ebd
00000370: 241f c53e 80b8 4abd 315d 983e 416a c2be
00000380: eb99 6cbe 4046 cc3d a295 b83e ac8e 623b
00000390: 74c0 99ba a21e cb3c

phi_neumann.mlp.mlp.0.bias f4 [10]
-0.052468088 0.039546296 0.073239826 0.27652255 -0.13637455 -0.16355774 0.030017536 0.14299242
-0.014609302 0.029933563
00000000: c7e8 56bd 4cfb 213d c3fe 953d 5d94 8d3e
00000010: c5a5 0bbe ae7b 27be 56e7 f53c 9b6c 123e
00000020: db5b 6fbc 3b37 f53c

phi_neumann.mlp.mlp.2.weight f4 [10, 10]
-0.01683657 0.47773764 -0.1812951 0.244916 -0.3912365 -0.51280713 0.19316325 -0.03816053
0.45987132 -0.00037481208 -0.4748269 -0.17284092 0.2700164 0.072359435 -0.45654547 -0.5866502
0.20148687 -0.036443535 -0.027034033 -0.22186087 -0.039415434 0.27042004 0.2025851 -0.04565776
-0.005763049 0.56513464 -0.42521158 -0.18986017 -0.34924087 -0.17589776 0.24353078 0.042711187
-0.34012812 0.18440421 0.5744388 -0.39472893 -0.17140566 0.1687493 0.32708105 -0.40012255
0.27937278 -0.052288927 0.13871242 0.18726885 0.068477795 0.15749237 -0.203633 -0.10186669
-0.36649063 0.007932272 0.32937536 0.22687356 -0.18132366 -0.6247824 0.54706603 0.39189124
-0.10327926 -0.18858753 0.4463488 0.19818285 -0.1757015 0.44057867 -0.14280622 -0.0925892
-0.38459677 -0.21385935 -0.23659617 0.47303462 -0.05453877 0.32852784 -0.6081569 0.39002618
0.5059215 0.21349663 -0.03882093 -0.2643503 0.03548087 0.6253062 -0.023523387 0.039364636
0.5678655 0.44437355 -0.96457916 0.11101989 -0.08384487 0.64729744 0.11569714 -0.05467556
0.2245349 -0.10236809 0.279343 0.10324337 -0.29384986 -0.13347374 -0.22454368 -0.5723998
0.20184973 -0.16482021 0.085313 -0.50788385
00000000: d9ec 89bc 079a f43e 6ca5 39be 43cb 7a3e
00000010: 2750 c8be 5447 03bf 96cc 453e 374e 1cbd
00000020: 4174 eb3e 6d82 c4b9 831c f3be 36fd 30be
00000030: 973f 8a3e 2f31 943d 54c0 e9be b52e 16bf
00000040: 9352 4e3e d145 15bd 7a76 ddbc 7f2f 63be
00000050: 1472 21bd 7f74 8a3e 7872 4f3e a203 3bbd
00000060: f5d7 bcbb aaac 103f 55b5 d9be b46a 42be
00000070: b3cf b2be 8b1e 34be 2260 793e edf1 2e3d
00000080: 4625 aebe 75d4 3c3e 6c0e 133f e919 cabe
00000090: f784 2fbe 9ecc 2c3e 2b77 a73e dddc ccbe
000000a0: f309 8f3e ea2c 56bd a10a 0e3e 68c3 3f3e
000000b0: 163e 8c3d ae45 213e 2b85 50be 7c9f d0bd
000000c0: a9a4 bbbe 5cf6 013c e3a3 a83e 8b51 683e
000000d0: e9ac 39be bdf1 1fbf 850c 0c3f f8a5 c83e
000000e0: 1484 d3bd 171d 41be d487 e43e 72f0 4a3e
000000f0: 18eb 33be 8793 e13e cb3b 12be 689f bdbd
00000100: dee9 c4be f2fd 5abe 4446 72be 9831 f23e
00000110: 0c64 5fbd cd34 a83e 2cb0 1bbf 83b1 c73e
00000120: 1284 013f dc9e 5a3e b202 1fbd ec58 87be
00000130: 6454 113d 1114 203f 1eb4 c0bc d03c 213d
00000140: a25f 113f ee84 e33e a9ee 76bf 655e e33d
00000150: dcb6 abbd 49b5 253f 9ff2 ec3d 7bf3 5fbd
00000160: 7aec 653e 5ca6 d1bd 0c06 8f3e 4371 d33d
00000170: 7d73 96be 57ad 08be c7ee 65be cb88 12bf
00000180: b2b1 4e3e a1c6 28be 95b8 ae3d ad04 02bf

phi_neumann.mlp.mlp.2.bias f4 [10]
0.049544338 0.042666085 -0.028776754 -0.07882186 0.0072977217 -0.09846997 -0.010615561 0.09333832
0.25015843 -0.028595615
00000000: 01ef 4a3d a2c2 2e3d 3abd ebbc 5b6d a1bd
00000010: ba21 ef3b a0aa c9bd e4ec 2dbc 2928 bf3d
00000020: c414 803e 5a41 eabc
