mixed/dsgps/results/50_ite_lamb_0_gamma_0_9/ckpt/best_model.pt (torch, 95237 bytes, 93 tensors)

laynorm.weight f4 [10]
00000000: 0000 803f 0000 803f 0000 803f 0000 803f
00000010: 0000 803f 0000 803f 0000 803f 0000 803f
00000020: 0000 803f 0000 803f
1.0 1.0 1.0 1.0 1.0 1.0 1.0 1.0
1.0 1.0

laynorm.bias f4 [10]
00000000: 0000 0000 0000 0000 0000 0000 0000 0000
00000010: 0000 0000 0000 0000 0000 0000 0000 0000
00000020: 0000 0000 0000 0000
0.0 0.0 0.0 0.0 0.0 0.0 0.0 0.0
0.0 0.0

phi_to.mlp.mlp.0.weight f4 [10, 23]
00000000: 6229 2cbf 2f71 013f da47 df3e c9b7 3fbe
00000010: 19f1 83be fa61 443d c8a5 d0be 7840 9abd
00000020: efe0 5b3e cbe8 87be 371a 33be a166 893d
00000030: 933d 373f 4e59 a73e df75 3cbe 9c68 91be
00000040: 43df a7be c652 5ebe 91a7 7abe ef26 55be
00000050: 5528 bfba bfb4 123b aa62 cb3d 5e0f 5fbf
00000060: f07b 3bbe fedf 7a3f 2f54 263d f7e5 de3d
00000070: 8afc 88bd cd26 2c3d bab1 00bf ec72 be3e
00000080: 44df 29bf f574 3dbe 1c13 953e 7be1 bf3e
00000090: 43c3 2d3e 4f9b 733e a230 b6bb 4df1 f3be
000000a0: dc8e f13d 2e0e a2bd 095e aebe 5e30 cc3a
000000b0: f991 3bbb 623f 4ebd 0ae9 4ebe 4c10 4fbe
000000c0: 29e5 28bf 8798 0dbd 8178 d23c b824 adbe
000000d0: 9c9d 573d 39e8 0c3c 43cb 113e dd4b a03e
000000e0: 9a52 82be ff82 2a3e c2bf d6be c531 30be
000000f0: 9bc2 9ebc da4e 053f c12f 3dbe 27db 0bbe
00000100: 1fcb 093d 0e2f 2ebe 4037 c63a 354a a5ba
00000110: 4db1 6d3d e620 153f 6f77 4f3e a696 ef3d
00000120: ab8c 923e 4ad6 e13c c812 74bd 02d3 7bbe
00000130: d3df a1bd 66cc 1f3d 0951 853c c896 d63d
00000140: 39a4 1f3f 367d 4b3f 43d4 f6bd a026 b53d
00000150: 991c 613e b757 31be b001 013f ea6f a7be
00000160: 145f 423e e772 8e3a 6b60 fd39 fd14 ecbd
00000170: 6d5d 99bd 5b5e 29be 8ed5 cbbe d4da 86be
00000180: bbc4 473d 57a2 77be 06ae f8be 09d7 243d
00000190: 92a6 af3e db07 dd3d 3f46 573a 164d a63e
000001a0: 2287 29be df3b ccbe 0ff0 50be c221 12be
000001b0: b3a9 6fbd e3a1 e23d 0c56 2f3e 63b4 803d
000001c0: 5fb7 3db9 4a8e 85ba 699a ab3c c619 fdbe
000001d0: faca 293e 6dc9 643f 20b5 b9be 1805 483e
000001e0: eb71 34be 6444 66bd 0d83 cabe b72a 1c3f
000001f0: cc87 47bd d602 a63e 3ef7 0ebe 709e 1e3f
00000200: 12c6 95bd 0646 5cbe 13c3 e8bd 210b febe
00000210: c38b 943e 8715 cabc 012d d3be 147d 663a
00000220: 51a6 f139 f245 60be e51a 10bf 5267 c23e
00000230: 611c 233f cdc9 06be 8232 b93e 9c11 babd
00000240: 3c3f 00bf 7af8 163f 632c 1c3e 45f4 993d
00000250: f958 803d 2e76 e93e 4531 2c3f 3620 3b3d
00000260: 55df abbe a4f4 183e 07d3 a5be 3a22 7b3e
00000270: 451a 0b3e 762b da3b 5926 ff39 5ed4 4439
00000280: 124e e8bd 543e 5c3d 3d2e 933e f98f f03e
00000290: 7b5d a7be 9fb8 8dbd d6f0 383e 384c 9dbe
000002a0: 8725 d2be 8c39 4d3e 02f3 a6be 453b a8be
000002b0: f1b3 09bd 1958 eb3e 7721 183e c92a 03be
000002c0: 350c a5bd 2695 12be 8676 4fbe 964f 77bd
000002d0: af70 72be 0f2c 013a 520b 093b 2b7c 32be
000002e0: f11e fa3e f719 b6bf fc28 253f 4429 323e
000002f0: 47a4 3ebe 0836 ba3e 0510 e1bd c77a f63e
00000300: 3084 b53c 6fe3 9cbe 6b3f 8abe ade9 d8bf
00000310: 5b53 163f 7b2f c83e 76ba 9d3d 3692 cbbd
00000320: 2d22 8abd ebbf 803a e420 c03c 7931 713d
00000330: 379f 9538 c854 04bb e883 17bd ae9c e63d
00000340: b221 653f 38cd 9cbc d0dd d13d 9390 2fbf
00000350: 7993 523c 17a6 2cbe b57d 35be c71d 8f3e
00000360: 25dd 82be 9c23 0f3f 9a15 a1be 3a40 873f
00000370: e3db 303e 60fb 063a aa1c 6bbe dcbf 15be
00000380: 61c0 37bd 22b5 a9be fbb8 1dbe d552 183a
00000390: c75c 2eba c38f ccbd
-0.67250645 0.5056333 0.43609506 -0.18722452 -0.2576988 0.047945 -0.4075148 -0.07531828
0.21472524 -0.26544794 -0.17490469 0.06709028 0.7157833 0.32685322 -0.18404339 -0.28400123
-0.32787523 -0.21711263 -0.24477984 -0.20815633 -0.0014584163 0.0022385565 0.09930928 -0.87132823
-0.18308997 0.97998035 0.040607627 0.10883706 -0.06688793 0.04202919 -0.5027119 0.37197053
-0.663563 -0.18501647 0.29116142 0.37476715 0.16969018 0.23789714 -0.0055599967 -0.47645035
0.117948264 -0.07912861 -0.34056118 0.0015578379 -0.0028620942 -0.050353415 -0.20206085 -0.2022106
-0.6597467 -0.03456929 0.025692226 -0.33817077 0.052640542 0.008600288 0.14237694 0.3130788
-0.25453645 0.16651534 -0.41943175 -0.17206486 -0.019379904 0.5207344 -0.18475248 -0.13657819
0.033640977 -0.17010137 0.0015122667 -0.0012610616 0.058030415 0.58253324 0.20260404 0.11698656
0.28622946 0.027568001 -0.059588224 -0.24592212 -0.07904019 0.03901329 0.016273992 0.10477978
0.6235996 0.7948793 -0.120522045 0.08845258 0.21983565 -0.17318617 0.503932 -0.3270257
0.18981582 0.0010867984 0.00048327757 -0.11527441 -0.07488523 -0.165399 -0.39811367 -0.26338828
0.0487716 -0.24183021 -0.4857027 0.040244136 0.3430677 0.10792514 0.00082120666 0.32480687
-0.16555455 -0.39889428 -0.20404075 -0.1427069 -0.058511447 0.11066034 0.17122668 0.06284406
-0.00018092756 -0.00101895 0.020947652 -0.49433726 0.16581336 0.8936985 -0.36271 0.19533193
-0.17621581 -0.056217566 -0.3955311 0.6100268 -0.04871349 0.3242404 -0.13961503 0.61960506
-0.073131695 -0.21511087 -0.113653325 -0.49617866 0.2901288 -0.024668468 -0.41245273 0.0008792442
0.00046091017 -0.21901682 -0.5629104 0.37969452 0.6371518 -0.13162918 0.36171347 -0.0908539
-0.5009649 0.58972895 0.15251307 0.07517294 0.0626697 0.45597976 0.6726268 0.045685016
-0.33568826 0.14937073 -0.32387564 0.24524775 0.1358424 0.006658013 0.0004866596 0.0001877113
-0.11343016 0.05377038 0.28746215 0.46984842 -0.32688507 -0.06919979 0.18060622 -0.30722213
-0.41044256 0.20041484 -0.32607275 -0.3285772 -0.03361887 0.4596565 0.14856516 -0.1280929
-0.08058969 -0.14314708 -0.20260057 -0.060378633 -0.23675798 0.0004927525 0.0020911288 -0.17430179
0.4885173 -1.4226674 0.6451566 0.17398554 -0.18617354 0.36369348 -0.109893836 0.48140547
0.022157758 -0.30642268 -0.2700151 -1.6946312 0.5872094 0.39098725 0.0770158 -0.09939997
-0.067448 0.0009822821 0.023453183 0.05888507 7.13453e-05 -0.0020192135 -0.03699103 0.11260353
0.8950454 -0.019140825 0.102473855 -0.6857998 0.012852543 -0.16860233 -0.17723735 0.27952406
-0.25559345 0.5591371 -0.31461793 1.0566475 0.1727138 0.0005149152 -0.22960153 -0.1462397
-0.0448612 -0.33146006 -0.15402596 0.0005810683 -0.0006651398 -0.09988358

phi_to.mlp.mlp.0.bias f4 [10]
00000000: b9f1 1ebc 7401 a33d bedd a33d 9ffa ab3d
00000010: 3a75 623d 2ac5 163e 6c1c af3d f095 cc3d
00000020: 081c 43bd 96a6 1e3d
-0.009701186 0.079592615 0.08001278 0.083974116 0.055287577 0.1472365 0.08550343 0.09989536
-0.047634155 0.038733087

phi_to.mlp.mlp.2.weight f4 [10, 10]
00000000: 1ff8 333e 292d 3b3f d491 eabe 1984 abbe
00000010: b1c7 163e f84f 0d3f 8b9e 043f 581a 573e
00000020: 35d5 0ebf 7458 993e d923 de3d ad0c 08bd
00000030: 29d7 77be d8f3 853e 411e 8f3d 6a2e fabe
00000040: 53cf 053f 5adb 10bd d0a5 1dbe e93d 24bd
00000050: a7f6 f0be a0e9 3bbd 96b1 d93d 4576 14bf
00000060: 1328 7a3d 82a5 2ebf b4bc 13bf 49c9 99bd
00000070: ed69 483f 31f2 acbe a583 183e 11b0 21be
00000080: 7c6d 58bd 2d28 9e3e 293b a3be 4351 ddbe
00000090: bd5e 363d 86a9 f5bc 686d ac3e b06c bfbd
000000a0: c908 e33e 8d1a aebe 5788 00bf 6f39 71bf
000000b0: a920 f8be 9560 a53d 110b 83bd 94f7 9eba
000000c0: c321 5fbd 392a 183e f10a 9a3e 6a9b eb3e
000000d0: 3f19 58be d25f 303d b52b 1d3f e32d 5c3e
000000e0: 4011 cebd 9555 993e 11b2 92be ce89 ed3e
000000f0: 5857 e3be af76 19bf 4ced dbbe 3d18 ee3e
00000100: 00ed 223e 99ba 34be a044 3cbe b698 2e3e
00000110: 714b 573e d5b0 343e 4792 ec3b 1c0a 533f
00000120: ea1b 0a3e 6b8e d93e f0f7 c6be 003e a5be
00000130: d6f5 b3be 68ea 963d e621 d9be 3f4e 533e
00000140: 1fe6 3bbe 54bf fc3e aee5 edbe bf32 9f3f
00000150: f761 4c3c afe6 563e e84f c73e 41a9 5f3e
00000160: dcb0 d63e d2b3 66bf f724 693e c905 2e3e
00000170: 0dd1 77bd 560d 323e 4577 9b3d 3c70 973e
00000180: c044 c3be cada e7be 8c1c 8c3e 551c ecbe
0.1757512 0.73115784 -0.45814383 -0.3349922 0.14724614 0.5520015 0.5180442 0.21006143
-0.5579408 0.29950297 0.10846681 -0.033215214 -0.24203171 0.261626 0.06988192 -0.48863536
0.52269477 -0.03536544 -0.15395284 -0.040098105 -0.4706318 -0.0458771 0.10629575 -0.57992965
0.061073374 -0.68221295 -0.57709813 -0.07509095 0.7828663 -0.33778527 0.14893968 -0.1578982
-0.052838787 0.30890027 -0.31881073 -0.4322606 0.044523943 -0.029988062 0.3367722 -0.09346902
0.4434264 -0.34004632 -0.5020804 -0.9422826 -0.48462418 0.08075062 -0.06398595 -0.0012128227
-0.054475557 0.14859857 0.30086473 0.4601701 -0.2110338 0.04306013 0.61394817 0.2150188
-0.10061884 0.29948106 -0.2865148 0.463942 -0.44402575 -0.5994672 -0.4295448 0.46502867
0.15910721 -0.17649306 -0.18385553 0.17050442 0.21024872 0.17645581 0.007219586 0.824373
0.13487211 0.4249147 -0.38861036 -0.32273865 -0.35148495 0.07368928 -0.42408675 0.20635317
-0.18349503 0.49364722 -0.46464294 1.2437361 0.0124745285 0.20986436 0.3892815 0.21841909
0.41931808 -0.90118134 0.22768007 0.16994394 -0.0605021 0.173879 0.07591108 0.29577816
-0.3813839 -0.4528411 0.2736553 -0.46115366

phi_to.mlp.mlp.2.bias f4 [10]
00000000: 5b8d a3bc 4b1b 45bd 84fe 233d 7062 f43d
00000010: 25ed 03bd c6e3 82bc 5525 6abd 14a0 9abc
00000020: 8212 24bd beec 3dbd
-0.019964864 -0.04812173 0.040037647 0.11932838 -0.03220858 -0.015977751 -0.05716451 -0.01887516
-0.040056713 -0.046368353

phi_from.mlp.mlp.0.weight f4 [10, 23]
00000000: 2f3e b1be 1cef 00be acd1 24bf 1557 e6be
00000010: 4f97 7d3b 2cdd 2cbd 17a8 10be caee d1be
00000020: 2580 a6be 5402 09bf ac2e d8bc 0014 073d
00000030: aca3 21bf e1e3 30be e703 9abe 2cfb 16be
00000040: fe49 73be 1b47 2fbe f363 afbe 60dc bebe
00000050: 1c02 cb3b af57 163a c3e8 e03d 3621 b33e
00000060: 89a4 1ebe b09b b63e 0c9c df3d 59ae 203d
00000070: 211d 9d3e 01da 0dbe 4b9f ee3e 8c2f 73be
00000080: 0f2e fcbe 6d29 693e 95b7 803e 8471 553f
00000090: 3d15 c83e 8871 04bf 88f5 bc3e d776 fc3e
000000a0: 4fda 153e 4649 e53d 9b2c e03e 698a b339
000000b0: 2d1f 77ba 7801 01be 3cef a43d 963c 913c
000000c0: 69d0 a33e fe76 c73d 83d8 cc3d 9ae9 ca3e
000000d0: 7a46 c13e 15f8 e63e 84c8 af3e 83ec 0ebf
000000e0: 7acb 93be ee11 10be fa1e e43d e566 17be
000000f0: dc4b 8d3e 5deb d63d 5756 cfbe 7829 e6bd
00000100: 549f 32be 3ab7 613e 2bd4 af3c 2bda 1bbc
00000110: a580 df3d 8dbb 3d3f b2b3 d93d 7408 1d3f
00000120: d033 e0bd 6c36 973d bdad 863e f2b7 ec3e
00000130: 05d0 9b3e 1d8a c13c 10bb ebbd 92e2 713e
00000140: 0cb7 20bd 7004 343e 956e 543d 7753 c3be
00000150: 5615 bc3e d34a 7b3e 5be0 30be 328f 8c3e
00000160: 58f9 253f 0d0c 663b cff1 c83a db9e cebd
00000170: 7339 0ebe eb85 043f 53a9 313b 67d8 6bbe
00000180: 6a47 e6be 95ef 9b3e 42fa ee3e 457c 5c3e
00000190: 3f90 39bd db7a 8bbe ccf4 403e 70a4 133d
000001a0: 9e69 43be a7be 843e 3d83 013e 8535 183e
000001b0: 9a16 0bbf 24b9 c7be d7b7 9d3e 26df ae3e
000001c0: 390d 4fbb ece0 163c 0b09 7abd 52d7 13be
000001d0: 9396 183e aef9 5dbd 2a8a e93e 8363 80be
000001e0: 9c31 3fbe 9dc5 0dbf 125b 453e c034 d33e
000001f0: 041e ca3c bef7 5fbe d2d5 fb3e 4dac 333e
00000200: f78d 82be 84ca 35be 2108 a5bd 99ec b73e
00000210: 4bba 54be 937e a3be fd18 49be a737 72bb
00000220: 65d2 e73b 988a aebd 3dea 97be 9a48 d23d
00000230: 5215 8fbe d907 85be af9f 093e 95bb 113d
00000240: 213d 16bf 855a 14be 2df8 c8be 7c40 d3be
00000250: 9615 513d 3a69 db3d ff21 713d 7635 e6bd
00000260: 6469 d5be a0ea 94be d8db b9bd 097b 4a3e
00000270: 46c9 03be 3373 d73e a5b9 1f3e 696f 95bc
00000280: c10b e2bd 5751 be3e 5a84 eebe cb95 02bf
00000290: 75df c7bd 7f51 d6be 91de 8fbe 3814 6bbd
000002a0: 99d3 48be 4a5c f63e d9e1 83bd 249c 803d
000002b0: 0896 773e 027b 243b b3e9 a3bd 43e0 c93e
000002c0: 8862 bb3e 9048 033f 9cde bdbe f1e5 6b3e
000002d0: 1b8f 59be 691c 8f3b 7376 9a3b 35fb f13d
000002e0: 3616 003f 8623 c4bd 14b1 a83d ab5e db3d
000002f0: 94c8 0a3c 62bf 323d 0c3b 81be 720e 9cbe
00000300: bdf0 93be 78d1 68be c118 1e3f 7db8 663e
00000310: 8928 a93e bced eabe d92f 1ebd 969b 59be
00000320: 28ec 8c3d 14aa 61be 1c40 cd3e 075b 853e
00000330: ebbb 75ba 7681 3d3a 6b3c edbd f648 f6be
00000340: 0837 113e adda 993e 9e89 4a3d f55f 0f3e
00000350: 896e a03e 60c1 d0be 16b3 f4bc a6f1 2bbf
00000360: dc02 063e 97c7 79be 7683 c73e 60fd 0c3f
00000370: 6aa5 44be 8029 b33e bd00 21be 9dad 96be
00000380: ce53 7fbc 52bd 583e a5aa b53e ea96 93ba
00000390: 87bc 00bb 0cf1 13bc
-0.34617755 -0.12591213 -0.64382434 -0.44988313 0.0038694923 -0.042203113 -0.14126621 -0.41002494
-0.32519642 -0.5351918 -0.026389442 0.032978058 -0.6314037 -0.17274429 -0.30081102 -0.14744252
-0.23758695 -0.17116968 -0.34255943 -0.37277508 0.00619532 0.0005735112 0.10981896 0.34986275
-0.15492453 0.35665655 0.109184355 0.03922877 0.30686286 -0.13852693 0.46605906 -0.23748606
-0.4925389 0.22769709 0.25140062 0.83376336 0.39078704 -0.51735735 0.36906075 0.49309418
0.1463406 0.111956164 0.4378403 0.00034244664 -0.0009426948 -0.12598217 0.08053443 0.017729085
0.31994942 0.09739493 0.10002234 0.3963135 0.37749082 0.45111147 0.3433267 -0.5582964
-0.28866178 -0.1406934 0.11138721 -0.14785345 0.2759694 0.10494111 -0.4049556 -0.11238378
-0.17443591 0.22042552 0.021463474 -0.0095124645 0.10913209 0.74114305 0.10629977 0.61341023
-0.109473825 0.07383427 0.26304427 0.4623409 0.30432144 0.023625428 -0.11510289 0.23621586
-0.039237067 0.17579818 0.05186327 -0.38149616 0.36735028 0.24540262 -0.17273085 0.27453
0.64833593 0.0035102398 0.0015330854 -0.10088893 -0.13889103 0.5176684 0.0027108982 -0.2303177
-0.4497636 0.30456224 0.46675307 0.2153178 -0.04530358 -0.2724217 0.18843383 0.03604549
-0.19083259 0.25926706 0.1264772 0.14864166 -0.5433136 -0.3900844 0.3080432 0.34154624
-0.0031593575 0.009208899 -0.06104378 -0.14437607 0.1490119 -0.05419319 0.45613223 -0.2507592
-0.18671268 -0.5537966 0.19273022 0.41251183 0.024672516 -0.2187185 0.4918657 0.17546196
-0.25498936 -0.17753035 -0.08058191 0.35922697 -0.2077419 -0.31932506 -0.19638439 -0.003695944
0.0070746415 -0.085225284 -0.29670897 0.10267754 -0.27945954 -0.2598255 0.1343982 0.035579283
-0.58687025 -0.14487655 -0.39251843 -0.41260135 0.051045977 0.1071343 0.05887031 -0.112406656
-0.4168197 -0.29085255 -0.09075135 0.19773497 -0.12869748 0.42080078 0.15598162 -0.018241601
-0.11037398 0.37171432 -0.4658535 -0.51009816 -0.09759418 -0.41859052 -0.28099492 -0.05739233
-0.19611968 0.48117286 -0.064395614 0.062797815 0.24178326 0.0025097732 -0.08003559 0.3942891
0.3659861 0.51282597 -0.370839 0.23036934 -0.21245997 0.0043674004 0.0047138273 0.11815492
0.5003389 -0.09577088 0.082369 0.10711416 0.008470673 0.043639548 -0.25240362 -0.3047977
-0.28894606 -0.22736156 0.6175652 0.22531314 0.33038738 -0.45884502 -0.03861985 -0.21250758
0.06880981 -0.22037536 0.40087974 0.2604601 -0.000937401 0.0007229069 -0.115837894 -0.4810254
0.14181149 0.3004965 0.04944765 0.14001448 0.31334332 -0.40772533 -0.029870551 -0.671656
0.13087028 -0.24392544 0.38967484 0.5507412 -0.19203725 0.349926 -0.15722938 -0.2942933
-0.015583945 0.2116597 0.35481754 -0.0011260186 -0.001964362 -0.009029638

phi_from.mlp.mlp.0.bias f4 [10]
00000000: dc72 093e 294b ad3d 361f a23d 26ee 383d
00000010: 780a ac3d 7e67 fc3d 2556 823c c368 ad3c
00000020: 887d 003e e5b6 5bbd
0.13422722 0.08461601 0.07916109 0.04514899 0.08400434 0.12324427 0.015910218 0.021168118
0.12547886 -0.05364122

phi_from.mlp.mlp.2.weight f4 [10, 10]
00000000: 8d32 f1be 67b0 83bf 685e 9e3d 6b04 1d3c
00000010: e20a f63e 9abc f73c 83a6 1dbe 1b28 95be
00000020: 3251 a0be f90e 58be fa77 b0bd 6797 b23d
00000030: f196 7cbe be89 34be 7e71 05bf e966 d73e
00000040: 6b8a 9a3e 3546 113f 1670 253f 7b3d d8bd
00000050: a66f bcbe 1a62 063d 1347 a23d 5d9f 703e
00000060: 204c afbe e7c9 1abf 9a77 b1be ee9e 2f3f
00000070: eefb e2bd 2996 38bf ddb9 c23d be4e 0c3f
00000080: 78be 003e af4c f33d e2e3 d53e e5b8 bbbe
00000090: 8bca 98be f7ff b9bd 65ab 80bc 7beb 853e
000000a0: 957d e0be 7778 813f 0dfc fa3b 1a72 153f
000000b0: 4e61 3fbe f22f 1ebf f192 d5be 9291 44be
000000c0: 1f6a 193f a4f8 b9be ec92 d7bd 78c5 303e
000000d0: 642c 7c3d 78ba 84be 6124 043f 41a3 9fbe
000000e0: 58a2 0d3f 8051 993d 07cb 95be 5cae fe3c
000000f0: ef2c a83d 9871 0b3e df75 36be 9ff6 993e
00000100: e407 a9bb 00fe 98be 7c40 3ebe e282 84bd
00000110: 3f27 ab3e 0976 473e 42b6 f1be 24ef 65bd
00000120: d751 643e e68e 043f 0b83 c2be 6fd4 4ebd
00000130: 541c bdbe ff5b a5be 74d5 fcbe 1367 323d
00000140: 934d a5bd e512 9cbe 1fce fb3e b476 5f3c
00000150: be67 713d 7c59 133f 26e4 dabe c0ac bdbd
00000160: 4c43 1bbf 8ede cd3c 1af1 59be c464 cfbe
00000170: bc7e 04be 014e babc a9fe c33e 8ec9 cdbb
00000180: accc 6dbe 3b39 273e 7953 d0be c782 73be
-0.4710888 -1.0288209 0.0773285 0.009583573 0.48055178 0.0302413 -0.1539555 -0.2913216
-0.31311947 -0.21099462 -0.08616634 0.08720284 -0.24666955 -0.1763067 -0.521263 0.42070702
0.3018373 0.5674775 0.64624155 -0.105586015 -0.3680393 0.0328084 0.079237126 0.23498292
-0.34237766 -0.6046433 -0.3466156 0.6860188 -0.11083208 -0.72104126 0.09508107 0.5480765
0.12572658 0.118798606 0.41775423 -0.366645 -0.29842028 -0.090820245 -0.015706727 0.2615622
-0.4384581 1.0114888 0.0076594413 0.5837723 -0.18689463 -0.6179191 -0.4171367 -0.19196156
0.5992755 -0.3632251 -0.1052607 0.17262828 0.06156577 -0.25923514 0.5161801 -0.3117924
0.5532584 0.07486248 -0.2925646 0.031089 0.082116954 0.13617551 -0.17818402 0.3007097
-0.0051584113 -0.29881287 -0.18579286 -0.064702764 0.3342838 0.1947862 -0.47209364 -0.056136265
0.22296844 0.51780546 -0.37990603 -0.05049556 -0.36935675 -0.3229675 -0.49381602 0.04355533
-0.08071437 -0.30483165 0.49180695 0.013639141 0.058936827 0.5755842 -0.42752188 -0.09261465
-0.6064956 0.025130536 -0.21283379 -0.40506566 -0.1293897 -0.022742273 0.38280228 -0.0062801307
-0.23222607 0.16330425 -0.40688685 -0.23780356

phi_from.mlp.mlp.2.bias f4 [10]
00000000: bf31 b6bb 6f0a 30bd b7c5 4d3c d126 febd
00000010: 0e87 9dbd 34db 283d 062f 963b 495a b0bc
00000020: 9310 403c a74b 18be
-0.0055601294 -0.0429787 0.012559346 -0.124097474 -0.07691775 0.041224673 0.0045832423 -0.021527426
0.011722702 -0.14872609

z_k.mlp.0.weight f4 [10, 33]
00000000: a92c 653f 7673 bfbe 7eed 16bf e0b2 42be
00000010: 8ab3 a53e fc1d 11be 4e54 b1be d207 83be
00000020: 2d2a d73d f6a7 e93e 49d0 8dbe 920a 25bf
00000030: 8ff8 8a3e 792f 633e 4df1 94bd d5b6 e1be
00000040: 21b6 4c3f d1a0 8d3d c6e7 5cbf 16a7 bcbd
00000050: a891 babd be79 d23e bec8 393f 9894 603e
00000060: b489 133f 0e31 41be 82b6 0d3f cb4f ae3d
00000070: 1dd5 4a3d c860 063f 06a8 eeba 7617 d5bd
00000080: 2318 433e a0d4 813d 0a4b 5dbf 51c4 c1bf
00000090: df75 2bbe 73e6 123f 8aee a6be 6b35 593e
000000a0: babd bd3e 1c62 54bf 1d9d acbd 2bb3 573c
000000b0: 5b67 c6bc e787 803e b245 f43e a730 893c
000000c0: fc7a a13e 034f 3c3e 8368 983f ef18 833d
000000d0: 3a9d 7f3e d96a b7bc 1fe4 2e3f 1ad7 0d3e
000000e0: a4dd da3e f122 2ebd 2158 d0be 1ead 3c3c
000000f0: ff33 bb3d 04be eabe 6505 883e 80f3 923b
00000100: dec3 033d 5ce4 aabe 196a 19be 2b7d 7abe
00000110: a05f 27be 19d6 b63b bb25 d43e 8352 37bd
00000120: adbc 293e a92f c93e 6e00 1abf f1e3 97bf
00000130: 6171 c3be 8e81 4fbe aaf2 a53e 2217 1ebf
00000140: 9354 03be d791 fdbe cd52 4d3f a587 933f
00000150: 9a15 83be 5e1c 623e e1e1 b8bc be3f 0d3e
00000160: eee1 8c3e b38a 8c3e 1922 f73d 8926 21be
00000170: f73f bb3e 3287 16be 7944 84be 5369 843e
00000180: 09a7 4cbd 1fa6 5fbe 82ab 06be dbd5 48bf
00000190: 6ba7 abbe 31fa 7d3f 4c37 c83e 2e96 41be
000001a0: 7ffe f9bd 60fd e8be 1290 bdbe d016 86be
000001b0: c7c2 20bf 844a e1bd 494b ba3e a092 23bd
000001c0: d3f3 363f 3ba7 83be b597 673e a49b 01bf
000001d0: 1b23 123f 3a3c d5be debf ebbe fde7 a73d
000001e0: d17b 133f 82a4 13bf 54a8 703f 1182 353f
000001f0: 83f9 38bf 5d3b 7abf ea3e a93e 9361 bebe
00000200: 3b22 1d3f 40c6 abbc dd2d a03e ddcd 81be
00000210: dcb8 423f fd73 0fbe 0283 323f 02f9 47be
00000220: ee18 8d3d a760 b3be 91e3 d93c d8c4 e93e
00000230: 2bd2 69bf 5b1a c5be 7d72 5bbf e40b c13f
00000240: 5bbb 593f 13a3 10bf 2cec 56be 8fcd 81bf
00000250: 49f2 c83e c3e6 a23f 2207 62bf 2fc0 af3f
00000260: 0433 6a3f e546 fbbe 0747 043f d700 dcbe
00000270: 3f64 523f 184a 8d3f 5583 87bd f9d6 f83e
00000280: 6b43 0fbf 3bdd 8cbd ec77 9e3e affa 79be
00000290: aa6f dabe 5853 df3e f928 e2bd 87a8 b03c
000002a0: f130 d5be ecc8 713f bf86 36be 392d 96bd
000002b0: 23a4 a23e 0130 ebbe 3931 8abf e0b8 fcbe
000002c0: f361 db3e 0510 073f 9c84 96be b4f0 433f
000002d0: 81a6 02bf 9a16 933f 58ed 8d3f 7cba a93e
000002e0: a621 f23e 64fa 1bbf 9f6d a73e f72f a63f
000002f0: 1ddd 623d 5159 c83e 18c7 3fbf f0f6 673e
00000300: d136 e43e dba2 4dbe d3ac e8bd df3b 1abb
00000310: 549a 64be 05e8 1fbe b5bd 263f ead7 bbbe
00000320: fa0e 7b3f 6f6f 4abe 17b3 fc3e 280c 6dbe
00000330: 49b6 3c3d 5b62 d1bd 91f7 eebe 35fc e7be
00000340: 2ff4 ebbd 9b0f 1fbc 6a3d ad3e ce5d c53e
00000350: 337a c2be 9f99 45be 2ff9 b33d 4515 043f
00000360: 4eb2 08be 9978 a7be 71d8 8abe daaf 493f
00000370: ed7c d4bd eb40 883f 5634 6e3e e003 cfbd
00000380: cd70 7cbf 3c60 8c3e 8cbc aabe d8db ab3e
00000390: cfe3 0b3c 0207 c9be a64f 1dbe 377f 613e
000003a0: 569c d4bc deae 303e 1913 6dbe 161d 8a3e
000003b0: 9b51 32bf de87 eb3d 1a39 df3e f1d3 08be
000003c0: ed9a 3b3e 029f a0be 5e7b 9b3e 14e5 993e
000003d0: 9aac 21be 0dc5 ec3d 32e1 1a3e a0ab 8c3e
000003e0: 8632 803c 19c9 d33d 4712 4a3e 4990 c53c
000003f0: 7ee3 95bd 1d66 bf3d ceaa dd3e 12d4 713e
0.8952127 -0.37392777 -0.58956134 -0.19013548 0.3236354 -0.14171594 -0.34634632 -0.25591904
0.10506091 0.45635957 -0.2769797 -0.64469254 0.2714276 0.22186078 -0.07272587 -0.44084802
0.79965407 0.06915439 -0.8629116 -0.092115566 -0.09109813 0.41108507 0.72571933 0.21931684
0.57631993 -0.18866369 0.5535661 0.08511313 0.049519647 0.52491426 -0.0018208034 -0.104048654
0.19052176 0.06339383 -0.86442626 -1.5138036 -0.16744183 0.5738289 -0.32603866 0.21211784
0.37058812 -0.82962203 -0.084284045 0.013165276 -0.024219206 0.25103685 0.47709423 0.016746832
0.31539142 0.18389516 1.1906894 0.0640124 0.24962321 -0.022389816 0.68316835 0.13851586
0.42747223 -0.04251379 -0.40692237 0.011515884 0.09140777 -0.45848095 0.26566616 0.004484594
0.032169215 -0.3337735 -0.1498188 -0.2446181 -0.16345072 0.0055797216 0.41435036 -0.044756424
0.1657588 0.39294174 -0.60156906 -1.1866437 -0.3817244 -0.20264265 0.324117 -0.6175405
-0.12825231 -0.4952533 0.8020447 1.152577 -0.25602418 0.22081134 -0.022568645 0.13793847
0.2751612 0.2744957 0.120670505 -0.15737356 0.3657224 -0.1470001 -0.2583349 0.25861606
-0.049963985 -0.21840714 -0.13151363 -0.7845132 -0.33526167 0.99209887 0.39104688 -0.18904945
-0.122067444 -0.4550581 -0.3702398 -0.2618928 -0.62797207 -0.11000541 0.36385563 -0.039934754
0.71465796 -0.25713524 0.22616465 -0.50628114 0.57084817 -0.41647512 -0.4604482 0.08198545
0.57610804 -0.57672894 0.9400685 0.7090159 -0.72255725 -0.9774683 0.33055812 -0.37183818
0.61380357 -0.020968556 0.3128499 -0.25352374 0.76063323 -0.1400909 0.6973115 -0.19528583
0.068895206 -0.35034677 0.02659777 0.45657992 -0.91336316 -0.3849667 -0.8572157 1.5081754
0.85051507 -0.5649883 -0.2098853 -1.0140857 0.3924735 1.2726673 -0.88292134 1.3730525
0.91484094 -0.49077526 0.5167088 -0.4296939 0.82184213 1.1038237 -0.066168465 0.4860151
-0.55962247 -0.06878134 0.30950868 -0.24412034 -0.42663318 0.43618274 -0.11042971 0.021564735
-0.41638902 0.9444721 -0.17824839 -0.07332844 0.3176585 -0.45935062 -1.0796272 -0.49359798
0.42848167 0.5275882 -0.29398048 0.7653916 -0.51035315 1.1491272 1.1088057 0.3315009
0.47291297 -0.6092894 0.32700822 1.2983388 0.05538665 0.39130643 -0.7491317 0.22652793
0.44573072 -0.20081656 -0.113610886 -0.002353422 -0.22324497 -0.15615852 0.6513322 -0.36688167
0.9806973 -0.19769071 0.49355385 -0.23149168 0.04607228 -0.10223838 -0.46673253 -0.45309606
-0.11521184 -0.0097083105 0.33835918 0.3854813 -0.37983856 -0.19296883 0.087877624 0.51594955
-0.13349268 -0.32709196 -0.27118257 0.78783953 -0.1037539 1.0644811 0.23262152 -0.10108161
-0.9860962 0.2741717 -0.33346975 0.33566165 0.0085382005 -0.3926316 -0.15362415 0.22021185
-0.025953453 0.17254207 -0.23151816 0.26975316 -0.6965577 0.11500524 0.43598253 -0.13362099
0.18320818 -0.31371313 0.3036756 0.30057585 -0.15788499 0.11561022 0.15124968 0.2747469
0.015649091 0.10341091 0.19733535 0.024116652 -0.07318781 0.093456484 0.43294376 0.23616055

z_k.mlp.0.bias f4 [10]
00000000: a2ab 8bbe f1cf a3be 1e1d 2abf b772 49bd
00000010: ab62 1cbf 678f 17bf ee25 62be 03f3 04bf
00000020: bfa3 46bf ca6e b2be
-0.27279383 -0.31994584 -0.6645068 -0.049181666 -0.61088055 -0.5920319 -0.22084782 -0.51933306
-0.77593607 -0.3485015

r_k.mlp.0.weight f4 [10, 33]
00000000: 5dc9 183b 4773 83bd 427f 873d 0503 6f3e
00000010: b253 a7bd 2a90 6bbc b271 833d cc29 9a3e
00000020: 493f 273d 87da 603e 3d4e 22bf becd bbbe
00000030: 9bde 213e a726 683f fcdd 17bf d81c 9e3e
00000040: 24bf 04bf 1ece 383f 78f2 cbbe 98a4 a9be
00000050: 46d1 153f ef9f 503f ce2d 173d f8fd 95bc
00000060: 27b7 9d3e a99b dbbe 7b28 4ebe b4a4 68bd
00000070: 95f2 eebc 33e2 193e 3d82 3fbd 99f9 b2be
00000080: 9a6b 943e abcd 88be f714 52bd bb3a dc3d
00000090: 25d0 ca3e af7e 573e ccb8 283a eeff e0be
000000a0: 3b75 ab3c a7c5 c83e dd88 a53e f0c6 fbbe
000000b0: edd3 2a3e 515d 193f a481 03bf 74a4 0cbe
000000c0: b15c 093d 8ee1 c93e aa3c 10bf 9e40 73bd
000000d0: 741c 1e3f 1870 8c3f 3e57 7c3e 312b 66be
000000e0: 3c51 26bf 6ae0 e43e f010 af3e 7862 8ebd
000000f0: d8a5 523e 39ab 303e 3d72 ac3e 4d78 143e
00000100: 399e 513e 5125 5cbe 954a 1dbf 2382 313f
00000110: 8da8 853f 930b 64be 784e 133e 6233 e9bd
00000120: 8569 bf3e 8b99 a9be 022d 123e a6fd ebbe
00000130: e77e a13e d766 31be 69f3 e13e 3272 f6be
00000140: 9bfd 09bf e65b a23e bcae e53e b3a0 443c
00000150: 5c93 7fbd 11b5 423e e969 0e3f 158e 8ebe
00000160: 3b36 68be b6f4 c2bd dda2 b7be 5755 d5be
00000170: b90b 0f3f 7069 78bd 4d4a 703e 0a66 133f
00000180: 4d12 5abf 6dd4 d93d 37e2 a23e bf1e f93d
00000190: 7990 623c ff72 6fbe 2847 ed3e d490 ecbe
000001a0: 1b9f b83e 2aec b3be 0e96 b4bd d702 bb3e
000001b0: 2577 303f c596 063e 11c1 2cbe a929 d7be
000001c0: 093a 50be 4125 3c3b 911c 9a3e 9ee7 7cbe
000001d0: c84b fb3e 694c 3b3e ad34 8f3c e475 ee3e
000001e0: 6c54 5e3e 0b72 653e f913 223d c6f6 843e
000001f0: b499 f23e 4259 adbe 4d50 6f3e 8bde 70bd
00000200: 4590 033f d349 a33d 1602 873e 581d e13d
00000210: a4ce a83c 1d61 ca3e 2b88 22be 2ba7 1a3e
00000220: 8971 ea3d 7430 1fbe 23d2 f53e 3590 f43e
00000230: 183d c5be 1f66 523e 8400 e53e 0944 b53e
00000240: 6f08 87be 0f60 89be dbed 05be 90a2 a93d
00000250: 83ac a03e bd3c fb3e 7d7d 643e 3a37 c7be
00000260: dbd6 1abf ac89 543f a768 4b3e cd40 98be
00000270: ae51 f3be 51d4 1ebf 22bd bb3e daab 55be
00000280: 3925 64be c52a 98be 42e3 efbe b404 32be
00000290: b372 883e 404a b73d c5b0 c1be 1778 50be
000002a0: 2c42 f4bd 86bf 2a3e e622 0bbe 0a26 e2be
000002b0: d389 e83d ebcf fc3d 234f 47be ea5b 35be
000002c0: 2d44 47be e1f4 923e 9bbd 5cbe ca52 16bd
000002d0: 88e4 b23d 477f 71be a19f ab3e d786 83be
000002e0: a445 ed3e 8e38 84be ad7a 723e ddbb cc3d
000002f0: e7a3 c1be 6b68 813e 8904 ecbd 08f9 81be
00000300: 8eaa 1a3e e226 2bbd 46a8 afbd 9470 363e
00000310: 1869 1ebe c1e1 ce3d 3f6d 403d a5ca b5bc
00000320: 62ab 2cbf 809a 7c3e 40a6 85be a780 e4be
00000330: 9aea d7be 6530 44be 2371 9f3d 046f 963e
00000340: f831 963e 3de4 dfbc 23b1 79be 1f40 ba3e
00000350: b31f 3ebb 525c 4abe 5f19 ce3e 0fda 403e
00000360: a519 dbbe 3bc3 40be 1603 04be 31d3 5dbe
00000370: bd80 6fbe 316a 063c d0b8 bb3e 2e96 1ebe
00000380: c101 1c3e 9bac 02be 4681 0fbe b2cb 5c3d
00000390: 7db5 87bc cc6f ac3e a304 aebd 4cc6 553d
000003a0: fad4 98be cf39 0c3d c117 4bbc 9d99 ec3e
000003b0: 3b8e 13bd 5bec 4bbe e4be 5cbe 7a72 e1be
000003c0: 667d 813e 90b2 1d3f 683c 3b3c 8342 2f3e
000003d0: 693a cabe 17fd 8fbe 621f c73e 6f12 c4be
000003e0: b59b 4f3c ecb3 123f 3535 b9bc 6e9c a7bd
000003f0: 78e4 90be f149 823d 5247 1e3f 6d3c 64be
0.0023313381 -0.06418472 0.066160694 0.23340996 -0.081702605 -0.014377633 0.0641817 0.30110013
0.040831838 0.21958362 -0.6340063 -0.36680406 0.15807573 0.9068398 -0.59323096 0.3088138
-0.5185416 0.7218951 -0.39833426 -0.33133388 0.5852245 0.8149404 0.036908917 -0.018309578
0.30803797 -0.42892197 -0.2013263 -0.0567977 -0.029168407 0.15027694 -0.046755064 -0.34956053
0.28988343 -0.26719412 -0.051289525 0.107533894 0.39611927 0.2104442 0.0006436228 -0.4394526
0.020929923 0.39213297 0.3233098 -0.49175215 0.16682406 0.59908015 -0.5136969 -0.13734609
0.033535663 0.39429897 -0.56342566 -0.059387796 0.61762166 1.0971708 0.24642655 -0.22477414
-0.64967704 0.44702464 0.3419261 -0.06952375 0.20571077 0.17252816 0.33680907 0.14499016
0.20470513 -0.2149861 -0.6144193 0.693392 1.0442063 -0.2227004 0.14385402 -0.113867536
0.37385193 -0.33124956 0.14274982 -0.46091956 0.3154213 -0.17324387 0.4413102 -0.48134
-0.53902596 0.31710738 0.44859874 0.012001204 -0.062396392 0.19014384 0.55630356 -0.27842775
-0.22676937 -0.09519331 -0.35866442 -0.41666672 0.5587726 -0.060647428 0.23465843 0.57577574
-0.85184175 0.1063622 0.31813213 0.121640675 0.01382839 -0.23383711 0.4634335 -0.46204245
0.36058888 -0.35141116 -0.08817683 0.36525604 0.689318 0.13143452 -0.16870524 -0.42023972
-0.20334639 0.0028708728 0.3009992 -0.2469773 0.49081254 0.18290867 0.017481172 0.46574318
0.21711892 0.22406785 0.03956983 0.25969523 0.4738289 -0.3385716 0.23370476 -0.058805984
0.5139201 0.07973065 0.2636878 0.10991925 0.020606346 0.39527217 -0.15872256 0.15102832
0.11447436 -0.15545827 0.48011884 0.4776627 -0.38523173 0.20546769 0.44726956 0.3540347
-0.26373622 -0.268311 -0.13079016 0.082829595 0.31381616 0.49069777 0.22313495 -0.38909322
-0.60484093 0.8302257 0.1986414 -0.2973694 -0.47523254 -0.6204272 0.36667734 -0.20866337
-0.22279824 -0.2972013 -0.4685307 -0.17384607 0.2665001 0.08949709 -0.37830177 -0.2035831
-0.11926684 0.16674623 -0.13587531 -0.44169647 0.11354413 0.12344345 -0.19463782 -0.17710844
-0.19459601 0.28702453 -0.21556704 -0.036700048 0.08734995 -0.23583709 0.33520225 -0.25688812
0.46342194 -0.25824398 0.2367961 0.099967696 -0.3782036 0.25274977 -0.115243025 -0.25385308
0.15104124 -0.04178513 -0.085770175 0.17816383 -0.15469778 0.10101653 0.046979185 -0.022191355
-0.6744901 0.24668312 -0.261034 -0.44629404 -0.42171174 -0.19159086 0.07785251 0.29381573
0.29334998 -0.027330512 -0.24383979 0.36377046 -0.0029010593 -0.1976178 0.40253732 0.18833183
-0.42793003 -0.18824475 -0.12891802 -0.21662594 -0.23388954 0.008204029 0.36664438 -0.15486977
0.15235044 -0.12761156 -0.14014158 0.053905196 -0.016566033 0.33679044 -0.08496978 0.052191064
-0.29849988 0.034234818 -0.0123958 0.46210948 -0.036024313 -0.19914381 -0.21557194 -0.4403265
0.25290984 0.6160059 0.011427976 0.17115216 -0.39497688 -0.2812278 0.3889113 -0.38295314
0.012671401 0.5730579 -0.022608379 -0.081841335 -0.28299308 0.063617595 0.61827576 -0.22288676

r_k.mlp.0.bias f4 [10]
00000000: 1223 47be ae7f 18be 4c30 56be 5a52 b43c
00000010: 36b1 0cbd 28a2 8d3c 7c86 463d c909 33be
00000020: 3f9e 4cbd 5cc2 753e
-0.19446972 -0.14892456 -0.20916861 0.022011925 -0.03434869 0.017289236 0.048468098 -0.17484201
-0.049955603 0.23999923

correction.mlp.0.weight f4 [10, 33]
00000000: 12ad 84be 5648 b0be 3468 753f fb21 613e
00000010: d6cc 0ebe 8ff6 043d 0020 293e 9ef7 5f3d
00000020: 252e 3bbe 5907 cdbe ced6 693e 4edd b6bd
00000030: 21d1 b2be fc99 5a3e 3813 d2bd 8b2e 94be
00000040: ffc1 63be 7a43 bf3e f611 d63e c29c 9e3e
00000050: c7f4 1a3f 5e65 05bf ed49 283e 01ae 2f3e
00000060: 6742 46be 0b1e 3dbe c46b c4be 91a6 a63d
00000070: c2e8 93be bc6b 8e3d a020 5ebc fe64 9b3d
00000080: 75b5 c93d 9013 26bf 85ee 9bbf 746a 01bf
00000090: 02d6 cfbe 2477 b93d d90b e93e 3a0d 48be
000000a0: c758 31be e620 02be 8d91 b8bd 0942 6ebd
000000b0: b99c 2abf fd62 803e ceec 25be b017 89be
000000c0: 9fca 75be 5de5 a2bc d51f 8fbc cea7 133e
000000d0: 8fc9 983e d992 11bf 2833 d2bc 3b5b c23e
000000e0: e2af 19be 5b20 853d b497 8d3c e9fe 6dbe
000000f0: eb04 f6be 1251 8d3c 6b5e 1f3d 3b8a d63b
00000100: 226b 6e3e d272 8fbe 0d57 513e 39f3 9f3e
00000110: 11d6 dabe 5e41 a23e be9f 40be 1e6e b03e
00000120: 7ae4 043f 0e2a 2e3d e270 e5bc 3742 ebbe
00000130: 5b5c a3bd 9c61 9cbe 6ec4 9cbe 7f29 70be
00000140: f678 2ebe 0bb2 11be ad18 a13e 6407 f53a
00000150: 2920 fabe f5b8 5c3d ada4 013e 5c15 62be
00000160: 2a24 813e cfd1 bb3d ac16 64be 2bad 90bd
00000170: 3083 a03b 3a2b 83be 6115 30be 0286 1d3e
00000180: d3f9 b13b eba1 9ebd 690b 11be b9d9 c83e
00000190: 93e3 d3be 8f2f 553f be29 87be cc1f 013f
000001a0: f345 d83d 54b1 60be b4f4 e5be 4b32 00bd
000001b0: d75e 013f 01bf 7ebe d12b 4b3e 56e2 e73c
000001c0: 5898 a5be 58f2 313e b8e5 963e 46ae c0bd
000001d0: aaa3 aebe 9d86 c23d 0d28 81be 8c94 74be
000001e0: 32f5 c0be c429 98bd 7c16 163e dd96 51be
000001f0: 4339 6d3e ea36 023e 5082 323e 52ab 3cbe
00000200: 137c 463e 5262 5dbc 3c8a a83c 6968 723e
00000210: c448 a43e 8032 14bf c108 bebe 15c0 993e
00000220: f0d2 b9be 2a0c 3abf fc64 dbbd 0807 aa3d
00000230: 44dd 12be cfae 8ebd 3376 923e e5a4 6abd
00000240: d4df aebd 95f0 9e3d b563 a93e 17fe 8cbb
00000250: 28a2 d33d 4abc 30bd 62e9 bbbd 378c 29bf
00000260: 5a96 ec3c 3166 84bd a311 703e 0fc6 df3d
00000270: 2b52 59be bbaf 4a3e e29b 00bb fd59 2f3e
00000280: c544 a83a 54e2 a73e 1ffa ab3b 9f6e 84be
00000290: 1a02 a8be a586 5abc b426 1bbe 09fd 513e
000002a0: 1c48 c53d 7bd9 2bbe e55d 093e 8f9c 673e
000002b0: b2b8 b0be 167f 593e 1d2c 49be 5ea5 5fbe
000002c0: eaa3 31bd 946a 8bbe b461 b6be 20ea dfbe
000002d0: 7040 64be cca7 723e 131d db3d 73b5 133e
000002e0: 11c0 f5bd 9165 82be c859 473c 7871 09bd
000002f0: 4c14 ff3d df37 84be cac3 833e bef1 713e
00000300: 3e9e 1e3e 2661 1b3d 7d9c 763e a0cd 1fbd
00000310: 7222 83be 7e4b 243d 15cb b7bc b405 5c3c
00000320: 0e92 8fbf 925b 0e3e 67da 9fbe 31cd cbbe
00000330: 92b6 3b3c e5d4 543e d186 b4bc 480a 4cbf
00000340: 14f9 4bbe 256f 1bbd 4684 873e be94 9dbd
00000350: f104 8bbd e406 cb3e 4e07 dc3d 10ef c9bd
00000360: c31b 063d d7aa 313e 6c1f b4be a509 f93e
00000370: 6507 893d cd31 efbd 6a88 9bbe ca6f f1be
00000380: 7e3e 55bd f3b5 b5be 2514 37be 8777 69be
00000390: 9256 8e3c e108 aebe 1e3c ba3d 6c0d 0d3d
000003a0: 6076 013e c69a a03e eb2e f6bd f8fe 823e
000003b0: 5d75 e9be f9aa ac3e 130a 17bf aaf6 a0bd
000003c0: cdfa 29be 729c 663e 80c4 64bc 3ca5 473e
000003d0: 70a7 b6be 5070 433e 312e b93e e6ef fdbd
000003e0: 1b3b 853e 41d8 a9bc a41c 0abd 0fc9 a33e
000003f0: fdfa 10ba a26b 8c3e da3f 09be 5e5a 1ebe
-0.25913292 -0.34430188 0.95862126 0.21985619 -0.13945326 0.0324617 0.16516113 0.054679506
-0.18279321 -0.40044668 0.22835848 -0.08928929 -0.34925178 0.21347803 -0.10257572 -0.2894176
-0.22241972 0.37356168 0.41810578 0.30978972 0.6052975 -0.521078 0.1643445 0.17156221
-0.19361268 -0.18468492 -0.3836347 0.08137239 -0.28888518 0.069541425 -0.013557583 0.07587622
0.09849063 -0.648736 -1.2182165 -0.5055306 -0.40592963 0.090559274 0.45516852 -0.19536296
-0.17319022 -0.12707862 -0.090121366 -0.058168445 -0.6664539 0.25075522 -0.16203615 -0.26775885
-0.24003075 -0.01988476 -0.017471233 0.14419481 0.29841277 -0.56864697 -0.025659159 0.37960228
-0.150085 0.06500312 0.017284252 -0.23241772 -0.48050627 0.017250571 0.038908403 0.00654724
0.23283055 -0.28017288 0.20443363 0.31240252 -0.42741445 0.31690496 -0.18810937 0.34459013
0.5191113 0.042520575 -0.028007928 -0.45948955 -0.079766 -0.3054322 -0.30618614 -0.2345333
-0.1703833 -0.14228074 0.3146414 0.0018694219 -0.4885266 0.053887326 0.12660475 -0.2207846
0.25222903 0.09170877 -0.22274274 -0.07064279 0.0048984513 -0.25618917 -0.17195655 0.15383151
0.0054313927 -0.07745727 -0.14164509 0.3922861 -0.41384563 0.83275694 -0.26399034 0.50439143
0.10560217 -0.21942645 -0.44913256 -0.031297963 0.5053534 -0.2487755 0.19840933 0.028306168
-0.32342792 0.17377603 0.29472136 -0.0940824 -0.3410924 0.09498332 -0.2522587 -0.23884791
-0.3768707 -0.07429841 0.14657015 -0.20467706 0.23166375 0.1271626 0.17432523 -0.18424729
0.19383268 -0.013512211 0.020573728 0.23672642 0.32086766 -0.57889557 -0.37116054 0.3002936
-0.36293745 -0.7267481 -0.107126206 0.08302122 -0.14342219 -0.06966936 0.28605804 -0.057286162
-0.085387856 0.07760731 0.33083883 -0.004302751 0.10333663 -0.043148316 -0.091753736 -0.66229576
0.028880287 -0.06464804 0.23444228 0.109264486 -0.21222751 0.19793598 -0.0019624163 0.17124172
0.0012837878 0.32789862 0.0052483226 -0.25865647 -0.32814103 -0.013337766 -0.15151483 0.20506682
0.096328944 -0.16782181 0.13414724 0.22618316 -0.3451591 0.21239886 -0.19645734 -0.21840426
-0.04336921 -0.2722975 -0.35621417 -0.4373331 -0.22290206 0.23696822 0.10698905 0.14424686
-0.119995244 -0.25468114 0.012167402 -0.033555478 0.12455043 -0.25823876 0.25735313 0.23627374
0.15490052 0.037934445 0.24083133 -0.03901446 -0.25612217 0.040111057 -0.022435704 0.013429094
-1.1216447 0.13902119 -0.31221315 -0.39804986 0.011457102 0.20784338 -0.022036942 -0.7970319
-0.19919235 -0.037947793 0.26468104 -0.07694386 -0.06788052 0.39653695 0.10743581 -0.09860051
0.03274132 0.17350326 -0.35180223 0.4864017 0.066908635 -0.116794206 -0.30377513 -0.471556
-0.05206155 -0.3549038 -0.17878778 -0.22799502 0.017375264 -0.3399115 0.09093498 0.03443663
0.12642813 0.31368083 -0.12020668 0.2558515 -0.45597354 0.33724192 -0.5899975 -0.078595474
-0.16599579 0.22520617 -0.013962865 0.19496626 -0.3567462 0.19085813 0.36168054 -0.123992726
0.26021656 -0.020733 -0.03371872 0.31989333 -0.0005530564 0.27425867 -0.13403264 -0.1546416

correction.mlp.0.bias f4 [10]
00000000: 964c afbd fa6a 513e f5b9 fe3c efea 71bd
00000010: ed60 7e3d f4a5 17bd 1773 c4bc 2530 09be
00000020: fa61 343c 8833 b13d
-0.085595295 0.20450965 0.03109453 -0.05906194 0.062104154 -0.0370235 -0.02398066 -0.13397272
0.011009688 0.08652407

phi_neumann.mlp.mlp.0.weight f4 [10, 23]
00000000: 840b ccbe bdc2 bb3e 77ba c03e e832 9cbe
00000010: a88e ee3e eab0 013e 7745 d3bd 35cf 8c3c
00000020: 0252 393e 5a07 a0bd b2ae 3c3d a42a 5cbe
00000030: 7a8b 583e 1d1d e2bd 2194 9b3e 757c 9abe
00000040: 6b71 5d3d 0826 133f ab98 863e 7f17 b53e
00000050: 071f 20bb eb24 933c 2230 8cbd ddf1 b43e
00000060: 7769 bbbc 26e8 953d 4ca8 023e 6cf9 bcbe
00000070: ceea 9cbe 9aba f5be b5e0 0a3d 62d2 2c3e
00000080: b89f b93e 5800 943d a936 243d ed16 de3e
00000090: eb96 d1be 7060 b13d 8fb5 75be 9231 c53e
000000a0: 3dec 78be 18cb 8b3c 3436 8bbe 66ac 8eb9
000000b0: f338 4b3a a895 43bd 9620 77bc 1fee a6be
000000c0: ff1e fe3e 6a0f 7c3d 0229 3f3e 85f5 cb3d
000000d0: 1517 8dbf 97c2 3e3f 61b8 8d3e 3c98 00bf
000000e0: a357 0fbe 8ca5 ca3e dc5d 27bf 7b7c c8be
000000f0: 81bb e4be ecbd 163f 97e8 133f 6dbe ae3e
00000100: 5425 08bf e574 7bbe f8a7 44bb 335d 8e3b
00000110: 5bb7 163d 2d3c 89be dc24 783e 8b95 883f
00000120: 6dd8 94bd c53a 6cbe 6b39 123e 80c8 e0be
00000130: 41b6 afbd 60e1 e43e d6a0 8cbe bf83 9d3e
00000140: 2a8a e3be cabb 6e3e 014e ed3d 8507 84bd
00000150: c02b 233e 2d54 99be 6ff8 8cbd f983 adbe
00000160: 46bb 49be 688f 65bb e22c 74ba 953d 09bd
00000170: 36d6 2fbe 64e0 d8bd 4ef3 da3c 2259 473e
00000180: be60 af3e cb26 e2be 6ccb 2d3e d0a3 27be
00000190: 11ea b6be 2c2d b1be 751c 473e 3dc1 6dbc
000001a0: 49bf 59be 120f c1be 4dff f73a f062 38be
000001b0: 57fb 7cbe 73ab cd3e 9399 aabc 51e3 563e
000001c0: ea1c 0f3e a58c b2bd 599f 843c fa62 bb3e
000001d0: b451 4ebe d777 133d 7afc 703e 37e9 d33e
000001e0: 52c2 513d 38d7 7d3e 10f1 8c3e aa5d 16be
000001f0: 0f5e 003e ce2d a9be 0266 003f 3635 7cbc
00000200: d107 aebe 2e78 1a3d 2f92 bdbe 82ed 173e
00000210: f91c 1ebd 79ee 3c3d f8cf acbe f14a af39
00000220: 76e5 933b 7b37 2ebc 0f5d 9a3e 24db 093e
00000230: ddef 57be b6da 953e b9a7 dc3e 39bc ffbe
00000240: dd58 dabe b4d3 25be 7a33 83be c013 00bf
00000250: bad2 093e f2d0 923d 21f0 64be eee7 c1bd
00000260: 155f b0be 3150 dd3e 03ac 013c 5e99 c7be
00000270: 5c96 6ebe 540b bc3d f1cc 833b bcf3 95bc
00000280: a878 1c3d 032f 113e 25b8 603e 1f9b 013f
00000290: c745 46be 7784 a2be 294b 2ebc eeac a63c
000002a0: 7df7 7e3e 06d9 e8be 2ccb b3be 6969 f43e
000002b0: 9ccc 883e ea3d 2c3e 360f f83e d11f 493e
000002c0: 9e22 9dbe c647 d1be b8cf c2be adc3 9e3e
000002d0: 08be 5d3d 5f7b 053b f543 0ebb 727c 40bd
000002e0: f617 d83d 33ca 523e 0892 a2be 774f 4b3d
000002f0: fe21 bd3e fa48 4d3e a5d3 d53e 95a0 b53e
00000300: af29 c6be 184f ee3d ef53 843e 95c9 1c3e
00000310: 49dc d0bd 850e 433e 49a0 393f dbb3 a1bd
00000320: 1cd2 65bd 1e82 153f d429 62bf ef77 84bf
00000330: d7dc 20bc 8093 93bc a53e cfbc 48eb 95be
00000340: d3d8 333d 4457 7ebd 906f 0abf 9668 a2be
00000350: 3a66 853d 327d ab3e 2d47 4abe 74b4 393d
00000360: 033c 83be f3ac 953e d097 e2bd 8622 5fbe
00000370: 4c1f ef3d 18af 87be a3a7 86bd e99a fdbe
00000380: 867c 2fbe 6a09 5abd 1ffb 123f 46b5 0b3b
00000390: bad8 29bb 6109 35bd
-0.39852536 0.3667201 0.3764226 -0.30507588 0.46593213 0.12665144 -0.10315984 0.017188648
0.1809769 -0.07813902 0.04606504 -0.21500641 0.21146956 -0.11040709 0.3038645 -0.30173078
0.054063242 0.57479906 0.2628835 0.3536949 -0.0024432556 0.01796194 -0.06845118 0.35340777
-0.022877438 0.073196694 0.12759513 -0.36909044 -0.30647892 -0.47993928 0.033905704 0.1687713
0.36254668 0.07226628 0.04009119 0.43376866 -0.40935454 0.08660972 -0.2399504 0.38514382
-0.24308868 0.017064616 -0.2718979 -0.00027212797 0.00077523215 -0.047750145 -0.015083453 -0.32603547
0.49633023 0.061538137 0.18667987 0.099589385 -1.1022669 0.7451567 0.27679732 -0.5023229
-0.13998275 0.39579427 -0.65377593 -0.3915747 -0.44674304 0.5888355 0.5777678 0.34129658
-0.5318196 -0.2455631 -0.0030007344 0.0043446063 0.036795955 -0.26803723 0.2423281 1.0670637
-0.072678424 -0.23069294 0.14279716 -0.4390297 -0.08579684 0.44703197 -0.27466458 0.30764577
-0.44441348 0.23313823 0.11587144 -0.06446747 0.15934658 -0.29947034 -0.068833224 -0.3388975
-0.19700345 -0.0035028104 -0.00093145494 -0.033505995 -0.17171559 -0.10589674 0.026727345 0.19467595
0.34253496 -0.44170222 0.1697213 -0.16371083 -0.35725453 -0.34604776 0.19444449 -0.014511404
-0.21264376 -0.3770681 0.001892069 -0.18006492 -0.24705254 0.40169868 -0.020825183 0.20985152
0.13975874 -0.08718232 0.016189264 0.3659895 -0.20148355 0.03600296 0.23533812 0.41388866
0.05121071 0.2478913 0.27527666 -0.14684168 0.1253588 -0.3304276 0.5015565 -0.015393546
-0.33990338 0.03771227 -0.37025592 0.14836696 -0.03860185 0.046125863 -0.33752418 0.00033434437
0.004513438 -0.010633345 0.30149123 0.13462502 -0.21087594 0.29268426 0.43096712 -0.4994829
-0.42645922 -0.1619404 -0.2562521 -0.50030136 0.13459292 0.071687594 -0.22357227 -0.09468065
-0.34447542 0.43225244 0.007914546 -0.38984197 -0.23299545 0.09181848 0.0040222337 -0.018304698
0.038201004 0.1417809 0.21945246 0.5062732 -0.19362555 -0.31741688 -0.010638037 0.020346131
0.24899097 -0.45478076 -0.35115945 0.47736672 0.26718605 0.16820493 0.48449105 0.19641043
-0.30690473 -0.4087507 -0.38049102 0.31008664 0.054136306 0.0020367724 -0.0021707986 -0.04699368
0.10551445 0.20584945 -0.31752038 0.04963633 0.36939996 0.2004737 0.41763034 0.35474077
-0.38703677 0.1163618 0.25845286 0.15311272 -0.10198266 0.19048508 0.725102 -0.07895633
-0.05610858 0.5840167 -0.88345075 -1.0349101 -0.009818277 -0.01801467 -0.025298426 -0.29281068
0.04390795 -0.06209494 -0.5407648 -0.31720418 0.06513639 0.33493954 -0.19753714 0.04533811
-0.25631723 0.29233512 -0.11064112 -0.21790513 0.11675891 -0.26500773 -0.06574943 -0.4953225
-0.17137346 -0.053231634 0.5741443 0.0021317764 -0.0025916533 -0.044198398

phi_neumann.mlp.mlp.0.bias f4 [10]
00000000: 1f1b e5bd dab9 ba3d 58b7 d23d a348 443e
00000010: fac8 88be 70c3 17bc 353f 8f3e 86e3 023e
00000020: 8899 a3be 77ab 843e
-0.111868136 0.091174796 0.10288876 0.19168334 -0.26715833 -0.0092629045 0.2797791 0.12782106
-0.31953073 0.25912067

phi_neumann.mlp.mlp.2.weight f4 [10, 10]
00000000: 82af 9dbd 2a20 243f a6d3 7fbf b1cc 733e
00000010: ef4e 9ebe c586 abbe 95f5 133e 7817 e2bd
00000020: f566 f53e 9a04 68bd 5bbd d4be 9670 44bd
00000030: b8bb 073e 02e1 f4bd 9f77 e8be 0733 eabe
00000040: dd3c 873e dfa5 3cbe 7e26 9a3d bf8c f4be
00000050: d2e0 80be fb76 d13e b956 e23d 66b3 83bd
00000060: fd92 db3c 76f7 143f a081 dbbe 2276 74be
00000070: 95e0 aebe ebdc 62be 545c c23e c23f 84be
00000080: 2aca 2f3e 8b9e ad3d 4f1b 1e3e 1714 a8be
00000090: 774f 38be 4455 703e 2df2 843e 2600 6abe
000000a0: 0440 913e 0834 19be 237b d2bc f90a d93e
000000b0: 29d4 9bbc ae84 da3e b037 a2be 63ba 983c
000000c0: ab85 e7be d554 183e 3de1 483e 80f0 4d3e
000000d0: de85 253e ceb8 05bf 9e28 7d3e 55d4 0b3f
000000e0: 708f 3e3e c679 4fbe 2a8c 913e d4f3 f83e
000000f0: b790 06be a036 1f3f 7eda 1b3f c810 9ebe
00000100: 8a99 9cbe 19e3 53bd fe3c d13d fccb da3e
00000110: e5f7 8e3e 6efc af3e 9fbd ffbe 6d8d 753e
00000120: fbd8 a93d f068 dc3e ef6c 09bd c471 0dbf
00000130: bde6 78be b8aa db3e 62dc 37bc cb29 5d3d
00000140: 55ca a73e 9106 013f 3171 65bf 06c4 82bb
00000150: 3e4a bd3e 4f32 cb3e 9406 b23d b59a dabc
00000160: 0c4f 1ebe 6050 89be db34 7d3e 7eb4 173e
00000170: 043d 49bf 2982 3b3d b6dd f0be e1e4 96be
00000180: 7459 353e 1596 79be 00f8 033d 4daf acbe
-0.07699491 0.6411158 -0.99932325 0.23808552 -0.30919597 -0.33501258 0.14449151 -0.110396326
0.47930112 -0.056645013 -0.41550717 -0.047958933 0.13255203 -0.11956979 -0.45403764 -0.45742056
0.26413622 -0.1842265 0.07526873 -0.4776363 -0.25171524 0.40911087 0.11051697 -0.06430702
0.026803488 0.58190095 -0.42872334 -0.23873189 -0.34155717 -0.22154586 0.37961066 -0.25829893
0.17166963 0.08477505 0.15440105 -0.32827827 -0.17999063 0.23470026 0.25966015 -0.22851619
0.28369153 -0.14961255 -0.025693482 0.42391184 -0.019022064 0.42679352 -0.3168311 0.018643564
-0.45219168 0.14876111 0.19617172 0.20111275 0.16164348 -0.52235115 0.24722525 0.5462087
0.18609405 -0.20261297 0.2842725 0.48623526 -0.13141142 0.62192726 0.6088027 -0.30872178
-0.3058589 -0.05173025 0.102167115 0.42733753 0.27923504 0.34372276 -0.49949357 0.23979731
0.08293339 0.4304881 -0.033551153 -0.5525172 -0.2430677 0.42903686 -0.011221977 0.053994935
0.32771555 0.50400645 -0.8962584 -0.003990653 0.36970705 0.3968682 0.08692661 -0.026685098
-0.15459841 -0.26819134 0.24727194 0.14814946 -0.7860873 0.045778427 -0.47044152 -0.29471496
0.17709905 -0.24373658 0.032218933 -0.33727494

phi_neumann.mlp.mlp.2.bias f4 [10]
00000000: ec17 32bd ca49 45be 4290 78bd c5c4 cfbe
00000010: c75d 583c e187 583c 3060 883d e0b0 253e
00000020: eea7 53bd e09a 093a
-0.043479845 -0.1926643 -0.06068445 -0.4057981 0.013205952 0.01321599 0.06658971 0.16180754
-0.051673822 0.00052492134
