mixed/dsgps/results/50_ite_lamb_0_gamma_0_9/ckpt/running_model.pt (torch, 96581 bytes, 93 tensors)

laynorm.weight f4 [10]
000000 00 00 80 3f 00 00 80 3f 00 00 80 3f 00 00 80 3f
       1.0 1.0 1.0 1.0
000010 00 00 80 3f 00 00 80 3f 00 00 80 3f 00 00 80 3f
       1.0 1.0 1.0 1.0
000020 00 00 80 3f 00 00 80 3f
       1.0 1.0

laynorm.bias f4 [10]
000000 00 00 00 00 00 00 00 00 00 00 00 00 00 00 00 00
       0.0 0.0 0.0 0.0
000010 00 00 00 00 00 00 00 00 00 00 00 00 00 00 00 00
       0.0 0.0 0.0 0.0
000020 00 00 00 00 00 00 00 00
       0.0 0.0

phi_to.mlp.mlp.0.weight f4 [10, 23]
000000 a2 72 2b bf 10 8a 00 3f 3f 67 d5 3e 93 62 3f be
       -0.6697179 0.50210667 0.41680333 -0.18689947
000010 e0 ff 82 be f1 1f 31 3d 07 d4 d2 be 65 3b 92 bd
       -0.25585842 0.043243352 -0.4117739 -0.07140235
000020 da 59 57 3e a7 fe 89 be 26 c2 30 be b6 39 91 3d
       0.2103037 -0.26952097 -0.17261562 0.070910856
000030 27 a4 3a 3f d7 9e a6 3e 79 58 3c be 71 bc 90 be
       0.72906727 0.3254306 -0.18393125 -0.2826877
000040 92 dd a6 be 64 1b 5d be f5 29 7d be 4c 7a 5a be
       -0.3259092 -0.2159248 -0.24723037 -0.21335715
000050 da 9b fd ba 87 75 b9 3a 5d c0 c5 3d 45 2c 61 bf
       -0.0019348816 0.0014149406 0.09655831 -0.87958175
000060 9b 6b 45 be c0 01 7a 3f 3e 9b 2c 3d e0 c8 d2 3d
       -0.1927933 0.9765892 0.042140238 0.1029222
000070 02 11 85 bd 7e 5b 23 3d ed 29 00 bf 68 8a bd 3e
       -0.064973846 0.039882176 -0.50063974 0.37019658
000080 ca b1 2a bf fe 98 3d be a9 93 94 3e 7a 55 c8 3e
       -0.66677535 -0.18515393 0.29018906 0.39127713
000090 da 7a 2c 3e 7f f7 6e 3e ce 47 84 bb 6f b6 f2 be
       0.16843739 0.233366 -0.00403688 -0.4740481
0000a0 dd a5 f3 3d 0e 74 a5 bd a8 82 b0 be b5 d2 e8 ba
       0.1189687 -0.08078776 -0.34474683 -0.0017762991
0000b0 0a ae d4 ba 9c 8d 4f bd d1 de 50 be 2c 6d 58 be
       -0.0016226184 -0.05067216 -0.20397498 -0.21135396
0000c0 6f de 2a bf e5 91 2c bd 3c 53 ec 3c e0 34 b0 be
       -0.66745657 -0.042131323 0.028848283 -0.3441534
0000d0 e0 1c 6b 3d 7d 3e 0c 3c c8 1d 0d 3e ad 24 a0 3e
       0.057400584 0.00855982 0.13780892 0.3127798
0000e0 6f 90 83 be 26 1a 22 3e 89 f2 e8 be 56 92 32 be
       -0.25696132 0.15830287 -0.4549754 -0.17438635
0000f0 6b d2 8a bc 69 a6 05 3f d2 8d 3d be a8 87 0e be
       -0.016946038 0.52207047 -0.18511131 -0.13918936
000100 3e be 00 3d fd a7 2b be 9d bb 84 39 93 e6 4f bb
       0.03143143 -0.16763301 0.00025316785 -0.0031723126
000110 6f c3 7c 3d 4f 4e 1d 3f 32 52 52 3e 01 56 11 3e
       0.061709817 0.61447614 0.20539168 0.14192964
000120 53 e1 92 3e be f3 0e 3d a1 7c 67 bd db 63 79 be
       0.28687534 0.03490042 -0.05651534 -0.24354498
000130 81 c5 9d bd 4d 73 19 3d 54 b5 6b 3c a6 67 ca 3d
       -0.077036865 0.037463475 0.014386494 0.098830506
000140 f9 29 20 3f c8 d5 52 3f 79 d3 f9 bd 5f 89 9e 3d
       0.62564045 0.82357454 -0.12198538 0.07741045
000150 11 eb 65 3e 51 9e 2e be 94 ac 00 3f 76 00 a7 be
       0.22452952 -0.1705258 0.50263333 -0.3261754
000160 61 d0 44 3e 40 6f db 3a 84 38 05 bb d6 64 ee bd
       0.19220115 0.0016741529 -0.0020327875 -0.11640327
000170 00 11 57 bd ef 58 23 be 92 e5 cc be 7f 0f 88 be
       -0.052506447 -0.15951894 -0.40018898 -0.26574323
000180 da 2b 67 3d 22 f0 83 be 94 de fc be b8 9b 12 3d
       0.056438304 -0.25769144 -0.49388564 0.035793036
000190 e9 0b b1 3e 06 af d9 3d 26 94 a7 39 05 5e a7 3e
       0.345794 0.10629086 0.000319631 0.3268892
0001a0 84 29 55 be 8c 8e ce be 14 11 41 be 0d 56 1c be
       -0.20816618 -0.4034313 -0.18854171 -0.15267201
0001b0 7a 3e 5b bd f3 d5 e9 3d 4f 3c 2d 3e 0d 2b 71 3d
       -0.05352638 0.11417761 0.16917537 0.058878947
0001c0 a0 db 06 3b e9 95 0f b8 b6 a9 e8 3c a5 bf fa be
       0.0020577684 -3.423347e-05 0.028401237 -0.48974338
0001d0 f3 9f 27 3e 4f 1e 71 3f 49 54 bb be 81 2c 4b 3e
       0.1636961 0.9418687 -0.36587742 0.19841196
0001e0 a1 aa 35 be c5 87 53 bd 68 a2 c7 be 15 34 1c 3f
       -0.17740871 -0.05164315 -0.38991094 0.6101697
0001f0 c6 56 49 bd 05 44 a4 3e 56 7e 13 be 93 cc 2e 3f
       -0.04915502 0.32083145 -0.14403662 0.68280905
000200 17 ff 9e bd 61 6c 5e be de a3 f8 bd b4 9c ff be
       -0.07763498 -0.21721031 -0.1214063 -0.49924242
000210 b8 06 96 3e 9d 73 d3 bc f4 9b d0 be ee 42 00 3b
       0.29302 -0.025811965 -0.40743983 0.0019571143
000220 6c bc 50 bb 0f 28 60 be 5e f0 0f bf 47 c1 c2 3e
       -0.003185059 -0.21890281 -0.56226146 0.38038084
000230 a3 31 26 3f c7 7a 08 be 90 75 ba 3e cb 67 a4 bd
       0.6491949 -0.13328086 0.36417818 -0.080276094
000240 7d 0c 01 bf 5b 12 1a 3f b7 68 1d 3e 1a 1d aa 3d
       -0.5040968 0.6018426 0.15371977 0.08306332
000250 8c 36 5f 3d 89 61 e7 3e 4d e4 34 3f 98 77 0e 3d
       0.05449538 0.451916 0.7066086 0.034782022
000260 7e f3 ad be d9 d1 1f 3e 72 e8 a6 be 2a ad 83 3e
       -0.33974832 0.15607394 -0.32599217 0.2571805
000270 ff dd 09 3e 33 d6 ae 3b cc 9a 91 ba 7c 10 11 ba
       0.13463591 0.005335593 -0.0011108755 -0.00055337674
000280 aa 26 ea bd 56 53 9a 3d b5 b8 93 3e 36 e6 f5 3e
       -0.11433156 0.07535426 0.28851858 0.480272
000290 fd 4e a9 be 4e 4c 8e bd cd 86 3d 3e 85 90 a0 be
       -0.33068076 -0.06948148 0.18508454 -0.3136026
0002a0 95 95 d1 be b0 c7 4b 3e 97 b5 a7 be 8d 38 a5 be
       -0.40934435 0.19900393 -0.3275573 -0.32269707
0002b0 cb f9 13 bd 52 2b 00 3f 4b 7b 17 3e b0 b3 02 be
       -0.036126893 0.500661 0.14793126 -0.12763858
0002c0 a8 5c cc bd 8d 92 14 be 61 f3 49 be b9 8d 74 bd
       -0.0997861 -0.1450903 -0.19721748 -0.05970547
0002d0 fa 9a 71 be ce cd 60 b9 a1 9c c8 3a 6d be 31 be
       -0.23594275 -0.00021438973 0.0015305468 -0.17357798
0002e0 b2 25 fc 3e 73 b8 ba bf 45 92 2c 3f dd 1a 34 3e
       0.4924751 -1.458754 0.6741069 0.17588373
0002f0 b1 e0 3c be 9a ca bb 3e 4c 3e db bd f4 32 f9 3e
       -0.18445088 0.3667801 -0.107052416 0.48671687
000300 b9 ff a7 3c 46 cc 9e be d4 f0 80 be 9e 67 dc bf
       0.02050768 -0.31015223 -0.25183737 -1.7219121
000310 55 e5 1f 3f db e8 c5 3e d3 da 89 3d 5a 49 b8 bd
       0.6245931 0.38654217 0.067311905 -0.08998366
000320 38 4a 8c bd fa d9 7c 3c 84 b7 69 3c c1 03 69 3d
       -0.068500936 0.015432829 0.014264945 0.056888346
000330 cc 98 01 bb 34 85 78 3a 2c 43 19 bd 96 6e 00 3e
       -0.0019774912 0.0009480298 -0.037417576 0.12542185
000340 46 85 66 3f a3 f3 29 3c cb 75 c7 3d 1e 9b 2f bf
       0.9004711 0.010373029 0.09739264 -0.68596065
000350 a9 75 f1 3b 7d 38 2c be 00 31 36 be f0 5b 8c 3e
       0.0073687625 -0.16818424 -0.1779213 0.27413893
000360 d5 86 85 be b4 48 0e 3f 59 24 a3 be db 74 87 3f
       -0.2607943 0.55579686 -0.3186367 1.0582536
000370 75 5e 34 3e 8d a2 97 b9 d8 b4 72 be 9d 64 1b be
       0.17614157 -0.00028922074 -0.23701799 -0.151751
000380 72 62 43 bd 9b 06 a7 be 37 b8 19 be 21 d9 3d b8
       -0.047701307 -0.32622227 -0.15011679 -4.526333e-05
000390 c3 c6 b5 ba e4 8c ce bd
       -0.001386844 -0.100854665

phi_to.mlp.mlp.0.bias f4 [10]
000000 ad 30 42 bc 0a b7 a7 3d 59 76 9e 3d 3c d5 a9 3d
       -0.0118524255 0.08189209 0.07737417 0.08292624
000010 06 91 3d 3d c0 2a 14 3e a6 c7 b6 3d be 2d d1 3d
       0.046280883 0.14469433 0.08924799 0.10213803
000020 c4 7f 3b bd 7b 66 1e 3d
       -0.045776144 0.03867195

phi_to.mlp.mlp.2.weight f4 [10, 10]
000000 30 24 32 3e c5 6a 3b 3f 86 3e eb be 2d 59 ab be
       0.17396617 0.7320979 -0.4594614 -0.33466473
000010 7d 70 12 3e 8a 54 0d 3f 01 3d 05 3f 7f 0e 51 3e
       0.14300723 0.5520712 0.5204621 0.20415686
000020 d1 ef 0e bf fa 51 99 3e 4d cd e4 3d d0 09 26 bd
       -0.5583468 0.29945356 0.111719705 -0.0405367
000030 e5 ec 78 be 88 e5 6a 3e aa e6 a1 3d 0c a4 f6 be
       -0.24309118 0.22939122 0.07905324 -0.48172033
000040 5b 1c 08 3f 78 a3 17 bd f7 3a 19 be a9 c4 3b bd
       0.53168267 -0.03702113 -0.149639 -0.045841847
000050 46 41 f1 be a1 9b 36 bd 2b 63 dc 3d 0c 42 1a bf
       -0.47120112 -0.044582013 0.10761102 -0.6025703
000060 db 22 8d 3d f6 8e 30 bf 47 12 14 bf a4 90 95 bd
       0.06891414 -0.6896814 -0.5784039 -0.07302979
000070 44 51 48 3f 5f 54 af be 57 2a 19 3e 52 92 28 be
       0.78249 -0.34244058 0.14957558 -0.16462067
000080 e2 b9 5d bd 48 e5 a2 3e 28 58 a3 be ff 96 dd be
       -0.05413235 0.31815553 -0.31903195 -0.43279263
000090 0a 06 30 3d e1 57 0a bd 4c 3f ab 3e fc a3 de bd
       0.04297451 -0.033775214 0.3344673 -0.10871121
0000a0 de c4 e2 3e e5 20 ae be d7 6d 00 bf 5e f6 72 bf
       0.44290823 -0.34009472 -0.501676 -0.94907176
0000b0 38 dd f8 be 7b b8 ba 3d e8 87 75 bd 8e c5 36 ba
       -0.48606277 0.09117218 -0.059944063 -0.0006972187
0000c0 63 3a 54 bd 5b 47 1c 3e 61 f5 98 3e 7e 06 ea 3e
       -0.051813494 0.15261595 0.2987471 0.45708078
0000d0 26 e2 57 be 41 70 d1 3c 1e 1d 23 3f dd e8 47 3e
       -0.21082363 0.025566222 0.63716304 0.19522424
0000e0 65 43 cf bd 7b 1d 9f 3e d2 72 95 be 87 3e e7 3e
       -0.10120276 0.3107718 -0.29189163 0.45164892
0000f0 0e 43 e1 be 5b 05 19 bf 43 b5 db be 4c 56 02 3f
       -0.4399647 -0.59773797 -0.4291173 0.5091293
000100 0a 57 20 3e 36 65 3b be da ac 3e be 82 66 33 3e
       0.15658203 -0.18300328 -0.18620625 0.17519572
000110 af 43 58 3e 13 cb 3c 3e ab d8 48 3c f1 6f 54 3f
       0.21119569 0.18436842 0.012258689 0.8298331
000120 90 a6 09 3e 3e bb db 3e 7c a9 c0 be ce 8e af be
       0.13442445 0.42916292 -0.37629306 -0.3428864
000130 d7 62 b9 be fd 54 99 3d bf 82 de be c2 e2 55 3e
       -0.3620822 0.07486913 -0.43459126 0.20887282
000140 08 14 3f be 6a 8c 00 3f 77 6c ed be fe b5 a0 3f
       -0.18659985 0.50214255 -0.46371815 1.255554
000150 47 38 45 3c 91 70 61 3e 27 6d ca 3e 4e 8b 5d 3e
       0.012037343 0.22015597 0.39536402 0.21635172
000160 11 0f dc 3e 23 54 66 bf eb 4f 6c 3e 14 42 39 3e
       0.42980245 -0.8997213 0.23077361 0.18091613
000170 c1 fc 60 bd 5a 48 4c 3e 5a ea 94 3d e4 01 94 3e
       -0.054928545 0.19949475 0.072712615 0.28907692
000180 0b c8 c0 be 22 ef e9 be d3 de 8e 3e 9f 0e e6 be
       -0.3765262 -0.45690256 0.27904376 -0.4493303

phi_to.mlp.mlp.2.bias f4 [10]
000000 cf db aa bc ab 7d 42 bd 37 fa 2d 3d 18 c6 ef 3d
       -0.020856766 -0.047483128 0.04247495 0.11707705
000010 a4 fd fe bc 9e e5 81 bc 07 b1 62 bd b3 62 93 bc
       -0.031126805 -0.01585656 -0.055344608 -0.0179914
000020 a0 23 2b bd 82 ec 44 bd
       -0.04178202 -0.048077114

phi_from.mlp.mlp.0.weight f4 [10, 23]
000000 09 ab af be aa cd 13 be d4 00 34 bf d7 17 e9 be
       -0.34310177 -0.14433923 -0.70313764 -0.45526
000010 04 09 60 3b 1a 72 3e bd 25 0d 1b be 85 64 c9 be
       0.0034185061 -0.046495534 -0.15141733 -0.39334503
000020 22 0a a4 be ab 8d 07 bf 34 54 f2 bc 6c f2 da 3c
       -0.3203898 -0.52950543 -0.029581167 0.026726924
000030 c4 af 2d bf 2b f9 39 be b5 f9 9b be b7 89 11 be
       -0.6784632 -0.18161456 -0.3046395 -0.1421269
000040 97 5c 71 be b6 e1 31 be 81 13 b4 be 62 88 c8 be
       -0.23570476 -0.17371258 -0.3517113 -0.39166552
000050 1c 20 e2 3b 53 d3 9f 3b 28 2a df 3d 03 98 ba 3e
       0.0069008004 0.0048774867 0.108967125 0.364441
000060 73 d4 1b be d9 d2 d2 3e fc d3 e5 3d c3 51 23 3d
       -0.15217762 0.4117649 0.112220734 0.039872896
000070 a0 00 9b 3e 81 b8 12 be 5c 85 ee 3e d9 08 71 be
       0.30273914 -0.14328195 0.4658612 -0.23538531
000080 cd 6f fc be 69 cc 73 3e cc f3 83 3e 30 d2 62 3f
       -0.49304047 0.23808445 0.2577194 0.8860197
000090 d3 b9 c8 3e 69 ee 04 bf 55 90 b9 3e dc ab fb 3e
       0.39204273 -0.51926285 0.3624293 0.49154556
0000a0 04 41 15 3e bf e0 e9 3d dc 2e e0 3e 4c 09 d7 b9
       0.14575583 0.1141982 0.4378575 -0.00041014922
0000b0 3f 71 25 ba b9 f7 01 be 15 a0 9c 3d 1c c5 83 3c
       -0.00063111255 -0.12692155 0.07647721 0.0160852
0000c0 e6 d3 9f 3e c0 44 cb 3d 41 a3 d8 3d 5a 2e cb 3e
       0.31216353 0.099252224 0.10578013 0.396838
0000d0 61 3e c2 3e 98 69 e9 3e 10 6e b3 3e 95 9c 11 bf
       0.37938216 0.45588374 0.3504491 -0.5687955
0000e0 89 ad 95 be 47 6b 13 be 1b 90 f0 3d 95 14 17 be
       -0.2923396 -0.14396392 0.11746236 -0.14753945
0000f0 6c 01 8e 3e fd 64 d7 3d 30 22 d0 be 33 18 dd bd
       0.2773546 0.10517309 -0.40651083 -0.10795631
000100 78 4e 2e be 4b 0d 63 3e 20 da 8b 3c 4c 80 2e bc
       -0.17022121 0.2217304 0.017071784 -0.010650706
000110 fc f2 e4 3d e8 23 47 3f 8b 0f e4 3d 0d 7c 33 3f
       0.11179158 0.77789164 0.11135777 0.7011116
000120 7f 02 e6 bd a4 03 9d 3d f3 1b 87 3e c2 5c e9 3e
       -0.11230945 0.0766671 0.2638851 0.4557858
000130 d4 34 9c 3e 5b d6 ae 3c d0 ec eb bd ba b4 66 3e
       0.30509055 0.021342447 -0.11519778 0.22529879
000140 f9 0d 5c bd 42 53 0a 3e fb 6d 5d 3d 03 e3 c1 be
       -0.053724263 0.13508323 0.054059964 -0.3786851
000150 94 ad bb 3e 8b 9c 75 3e be ca 34 be e3 ba 8d 3e
       0.36655867 0.23985498 -0.17655465 0.27681646
000160 eb d0 26 3f 36 de c8 ba 02 6b c4 3a 5f 2c ce bd
       0.65162534 -0.0015325013 0.0014985504 -0.10067057
000170 fa a5 11 be df 90 04 3f f8 83 14 ba 58 d7 6b be
       -0.14223471 0.51783556 -0.0005665417 -0.23031366
000180 53 3a e7 be 78 c0 9a 3e aa f5 ef 3e ca 26 5d 3e
       -0.45161685 0.30224967 0.46867114 0.21596828
000190 52 14 42 bd 03 fb 8c be 25 7d 40 3e 26 74 0c 3d
       -0.04738266 -0.27535257 0.18797739 0.034290455
0001a0 e1 06 3e be e2 e7 85 3e 8c 30 ff 3d 92 9e 16 3e
       -0.18557312 0.26153475 0.124604315 0.14708927
0001b0 be 6a 0b bf a2 b0 c7 be e3 00 9e 3e 6c 82 ae 3e
       -0.5445975 -0.39001948 0.30860052 0.3408388
0001c0 e1 3b c4 ba 9b 29 08 3c a1 1b 76 bd 46 ed 10 be
       -0.0014971459 0.008310701 -0.060084943 -0.14153013
0001d0 6d e4 18 3e dd b9 45 bd 3d 3c e9 3e b1 7c 7f be
       0.14930888 -0.048272956 0.4555377 -0.2494991
0001e0 fb 57 3c be 6b 21 0e bf 4d 10 45 3e 59 f8 d3 3e
       -0.18392937 -0.5551974 0.192445 0.41400412
0001f0 b1 fb de 3c 0c 22 5f be 13 7d fc 3e ba 01 30 3e
       0.027219625 -0.21790332 0.49314174 0.17188159
000200 4a cc 83 be 3a 5f 34 be 6f 5e a0 bd 56 65 b8 3e
       -0.25741798 -0.17614451 -0.07830512 0.36014813
000210 f6 6a 54 be 70 12 a4 be a7 d4 48 be 5d 28 3c bb
       -0.20743927 -0.32045317 -0.1961237 -0.0028710582
000220 6f c4 cd 3b de 88 ad bd 55 db 92 be e2 a8 d2 3d
       0.00627952 -0.08473371 -0.28682962 0.10286118
000230 36 a1 86 be 83 14 8a be e9 6b 05 3e 89 75 30 3d
       -0.2629487 -0.26968774 0.13029446 0.04308084
000240 3a b1 17 bf fb 72 0e be 0b ab cb be ab 7f d1 be
       -0.592548 -0.13911049 -0.39778933 -0.40917715
000250 a9 c9 53 3d d3 c8 e3 3d 5d 42 59 3d a8 b0 e2 bd
       0.05170599 0.111222886 0.053041805 -0.11068851
000260 5f 60 d5 be 64 c2 91 be c2 61 ac bd 2b 3d 5d 3e
       -0.41675088 -0.2846862 -0.08417083 0.21605365
000270 86 02 f8 bd 3d 85 d5 3e 07 e7 1c 3e 9e 00 ab bc
       -0.12109856 0.41703215 0.15322505 -0.020874318
000280 77 42 e3 bd 0f 9e bf 3e 5a 49 f0 be 4b 85 04 bf
       -0.110966615 0.37425277 -0.46930963 -0.5176589
000290 47 aa c7 bd 0e ff d6 be a4 c6 8d be df 3f 77 bd
       -0.09749275 -0.41991466 -0.27690613 -0.060363647
0002a0 46 3e 49 be f8 fd f6 3e e8 9d 7e bd 60 79 85 3d
       -0.19652662 0.48240638 -0.06216231 0.06517291
0002b0 45 da 76 3e dc b8 0b bc c3 64 a7 bd 30 b7 c9 3e
       0.241067 -0.008527961 -0.08173516 0.39397573
0002c0 d1 55 bc 3e 1e 0d 03 3f 91 d0 bd be 7b b0 6a 3e
       0.36784223 0.5119189 -0.37073186 0.22918884
0002d0 36 6b 58 be 43 28 c0 3a 16 2f 83 3b 81 3f e5 3d
       -0.21134648 0.0014660436 0.004003416 0.11193753
0002e0 6c 7b 01 3f cf a2 be bd 23 80 c2 3d 3f b3 e7 3d
       0.5057895 -0.09308397 0.094970964 0.11313485
0002f0 9a 81 30 3c e6 06 33 3d 28 93 82 be 42 b5 9d be
       0.010773087 0.04370775 -0.25502896 -0.3080235
000300 fa 59 92 be 3b 6d 67 be ec e7 1f 3f dd a6 69 3e
       -0.28584272 -0.22600262 0.6246326 0.2281756
000310 84 99 bc 3e 5f be ec be d3 39 17 bd bd ec 55 be
       0.36835873 -0.46238992 -0.03692038 -0.2089109
000320 45 8d 8d 3d 41 e3 60 be 89 c5 ca 3e 5f 63 82 3e
       0.06911711 -0.2196169 0.39603832 0.2546644
000330 de 5c 16 ba 5f 61 88 ba 89 d9 ec bd e2 49 f3 be
       -0.0005735884 -0.0010404995 -0.11564929 -0.47517306
000340 af cd 17 3e 6e b8 86 3e c9 a8 37 3d a0 ee 1d 3e
       0.14824556 0.26312584 0.0448387 0.1542306
000350 da af 9e 3e a7 9a d1 be 3b 70 e6 bc f5 1f 2d bf
       0.3099354 -0.40938303 -0.028129688 -0.6762689
000360 80 69 05 3e 43 99 80 be 8f 29 c9 3e fe a9 0d 3f
       0.13028526 -0.2511693 0.3928952 0.5533751
000370 9f 59 43 be f2 5a b4 3e f1 d0 17 be 04 c7 96 be
       -0.19077156 0.35225636 -0.14825799 -0.29448712
000380 9e 05 59 bc e6 23 5d 3e a6 06 b7 3e 5b 87 bb bb
       -0.013245968 0.21595725 0.3574726 -0.0057229227
000390 86 f7 8d 3b b6 bf 9b bb
       0.0043324856 -0.0047530783

phi_from.mlp.mlp.0.bias f4 [10]
000000 d4 c5 0d 3e e4 da ac 3d cf b6 9d 3d ae f7 36 3d
       0.13844997 0.084401876 0.077008836 0.0446698
000010 b5 1a ad 3d 00 67 fc 3d 91 d2 a2 3c fb de b8 3c
       0.084523596 0.12324333 0.019875797 0.022567263
000020 44 06 ff 3d 5d e7 62 bd
       0.12452367 -0.055396426

phi_from.mlp.mlp.2.weight f4 [10, 10]
000000 aa cd f4 be 8e c7 85 bf 26 db 97 3d f3 29 1f 3c
       -0.4781316 -1.0451524 0.07414846 0.009714591
000010 84 8e f6 3e a8 82 e5 3c 9e 55 15 be b1 c1 95 be
       0.48155606 0.028016403 -0.14583442 -0.29249337
000020 f6 38 9b be bb 59 52 be 51 69 b1 bd ba 5e b5 3d
       -0.30316895 -0.20542042 -0.08662666 0.08855958
000030 96 84 7c be a2 6c 35 be c1 03 06 bf 89 31 d8 3e
       -0.24659953 -0.17717221 -0.5234948 0.42225292
000040 64 eb 99 3e 6c 0a 11 3f 56 ce 25 3f 29 ed d7 bd
       0.300624 0.5665653 0.6476797 -0.105432816
000050 a2 37 bd be b2 8b d0 3c 4a 97 80 3d 0a 30 72 3e
       -0.36956507 0.025457237 0.06278856 0.23651138
000060 7e 04 ae be 95 dc 1a bf d5 f4 ad be 9d 5a 30 3f
       -0.33987802 -0.6049283 -0.33975855 0.68888265
000070 a6 99 f3 bd 20 d1 39 bf a2 c2 c2 3d a9 d1 0b 3f
       -0.118945405 -0.72584724 0.095097795 0.5461679
000080 8c b2 0a 3e 63 ef f3 3d b6 30 d7 3e 61 3d bc be
       0.13544673 0.11910894 0.4202935 -0.36765578
000090 02 7e 98 be 7b 4d b9 bd f3 1e d4 bb 98 63 86 3e
       -0.29783636 -0.09047981 -0.006473416 0.2624786
0000a0 1a 72 e0 be f0 c0 84 3f 47 69 20 3c 98 b7 15 3f
       -0.43837053 1.037138 0.009790725 0.58483267
0000b0 0f ef 3b be 75 c2 1d bf 48 45 d7 be be b7 44 be
       -0.18352912 -0.6162484 -0.42045045 -0.19210717
0000c0 8e 78 1b 3f 22 40 bc be 75 41 da bd 72 c4 37 3e
       0.60730827 -0.3676768 -0.10657016 0.17946032
0000d0 b5 fa 69 3d 1d 9f 84 be 44 7f 04 3f 6b fa a0 be
       0.05712386 -0.25902644 0.5175669 -0.31441054
0000e0 65 55 11 3f cf 45 97 3d 76 91 96 be a2 10 dc 3c
       0.56770927 0.07386362 -0.29407853 0.0268634
0000f0 5b 6e a5 3d 23 46 11 3e 2a ef 39 be 30 2f 9a 3e
       0.08077689 0.14186911 -0.1815764 0.30114126
000100 45 ee 2d bb ac 31 99 be 7b 46 44 be 58 3b 88 bd
       -0.0026539725 -0.2992071 -0.19167511 -0.06651944
000110 1a b8 aa 3e ac 68 50 3e 08 4e f1 be fa 75 89 bd
       0.33343583 0.20352429 -0.47129846 -0.06711955
000120 8a 05 6c 3e 9a f1 04 3f d4 2d c3 be 9a 52 47 bd
       0.23048988 0.51931155 -0.38120902 -0.04866276
000130 fa d2 b9 be 32 0f a5 be c3 07 fe be 67 7d 47 3d
       -0.36293775 -0.32238156 -0.49615297 0.048703577
000140 35 83 a4 bd da f5 99 be 4c 7e fb 3e 65 28 5e 3c
       -0.08032838 -0.30070382 0.49119794 0.0135594355
000150 bc c0 66 3d 95 78 13 3f 33 9e d8 be 79 22 c0 bd
       0.05633615 0.5760587 -0.42308196 -0.09381575
000160 27 03 1d bf da 7e c3 3c 1c 94 59 be 0d 3d d8 be
       -0.61332935 0.023864198 -0.21247905 -0.42234078
000170 d1 4b 1b be 61 2d c8 bc ab 25 c2 3e a5 bb 26 bc
       -0.1516564 -0.0244357 0.37919363 -0.010176574
000180 58 9a 68 be 03 db 23 3e 75 64 e3 be ea 1b 71 be
       -0.22715127 0.16001515 -0.4441258 -0.23545805

phi_from.mlp.mlp.2.bias f4 [10]
000000 c9 6a c1 bb ac 66 35 bd cd 35 78 3c 72 31 00 be
       -0.0059026224 -0.04428737 0.015149546 -0.12518862
000010 7b a3 a0 bd 40 36 29 3d 99 b1 dc 3b 3f fc b0 bc
       -0.078436814 0.041311502 0.0067350385 -0.021604655
000020 87 c0 39 3c 69 76 1c be
       0.011337406 -0.15279545

z_k.mlp.0.weight f4 [10, 33]
000000 50 dc 65 3f aa ba bb be 11 06 16 bf ae ca 48 be
       0.89789295 -0.3666585 -0.58603007 -0.19608566
000010 16 52 a7 3e d5 1f 14 be b2 c4 ae be ed 8a 84 be
       0.32679814 -0.14465268 -0.34134442 -0.25887242
000020 3b 7a df 3d 5a 4b e1 3e 3a 22 89 be 96 41 26 bf
       0.109119855 0.440028 -0.26783925 -0.64943826
000030 fe 18 89 3e 35 6f 62 3e ed e5 8b bd 69 39 df be
       0.2677688 0.22112735 -0.06830964 -0.43598488
000040 fb 9d 4c 3f 97 23 00 3e 12 a9 5c bf 4b 57 c9 bd
       0.7992856 0.12513576 -0.8619548 -0.09831103
000050 7a 31 ca bd 82 cf db 3e 7b 5f 39 3f da 37 56 3e
       -0.09872718 0.42931753 0.72411317 0.20919743
000060 b3 b9 12 3f 21 2d 61 be 70 46 08 3f 6e db ac 3d
       0.57314605 -0.21989872 0.5323248 0.084402904
000070 00 c0 50 3d e6 e5 0a 3f 6a 55 25 3b e1 a6 d5 bd
       0.050964355 0.5425705 0.0025227913 -0.1043222
000080 66 86 42 3e f0 07 8d 3d 23 d3 5c bf 82 da c8 bf
       0.18996581 0.068862796 -0.8625967 -1.5691683
000090 f3 92 30 be 09 75 17 3f b4 1b b0 be 3c 2a 5f 3e
       -0.17243557 0.59162956 -0.34396136 0.21793455
0000a0 9f ad be 3e 93 ae 51 bf 13 1b 89 bd bc 19 aa 3c
       0.37241837 -0.81907004 -0.06694617 0.020764224
0000b0 c1 7d 83 bb 6b 1f 84 3e 22 b0 f9 3e a3 61 5f 3c
       -0.004012794 0.2580522 0.4876719 0.013634118
0000c0 7a 1b ae 3e 1a 3c 32 3e bb 48 92 3f 80 b6 b4 3c
       0.34005338 0.1740574 1.1428446 0.022059679
0000d0 b4 a0 84 3e cb dc 08 3c 4c 6f 35 3f eb 41 f4 3d
       0.25903857 0.008353422 0.7087295 0.11926635
0000e0 0e 8d f1 3e 22 91 1f bd a9 8b cb be bf ac 2c bc
       0.4717793 -0.03895677 -0.3975499 -0.010539233
0000f0 9f 67 ac 3d f3 9b ec be 0c 33 9c 3e 7f 5d 25 3c
       0.08418202 -0.4621273 0.30507696 0.010093092
000100 20 b0 01 3d 3b 72 ab be ca d9 0e be 2e a6 7f be
       0.031662107 -0.33485588 -0.13950267 -0.24965736
000110 96 86 05 be c3 8e 51 bb 34 5a da 3e 02 2a 75 bd
       -0.13039622 -0.0031975962 0.42646945 -0.059854515
000120 b2 86 2a 3e ba cb cd 3e 26 ee 1c bf 24 14 99 bf
       0.16652945 0.40194494 -0.61300886 -1.1959271
000130 88 96 b9 be 21 c7 57 be 3c 32 a3 3e 05 ef 21 bf
       -0.3624766 -0.21072055 0.31874263 -0.6325534
000140 15 b8 f6 bd f4 85 f8 be d9 ef 4f 3f 6b f7 95 3f
       -0.120468296 -0.48539698 0.81225353 1.1716131
000150 27 da 7d be 2b dd 71 3e ef 39 0c bd d6 ca 2e 3e
       -0.2479025 0.23619525 -0.034234937 0.17069563
000160 a1 89 8e 3e e0 fe 9a 3e 89 55 02 3e de 55 29 be
       0.27839378 0.3027258 0.12727942 -0.16536662
000170 92 e2 d5 3e 69 b3 15 be ef 30 88 be 36 ff 63 3e
       0.41774422 -0.14619221 -0.26599833 0.22265324
000180 20 2b 46 bd 91 f2 60 be 9b 47 09 be 5c d0 5e bf
       -0.04838097 -0.21967532 -0.13406222 -0.8703668
000190 77 aa a9 be 17 92 82 3f bf 04 bd 3e 28 51 70 be
       -0.33137867 1.0200833 0.36917683 -0.23468459
0001a0 9c ad bb bd d1 08 e9 be b7 d0 d3 be 9d 5f 89 be
       -0.09163973 -0.4551454 -0.41370174 -0.2683076
0001b0 7b d0 1d bf ce 27 3f be 94 6d b3 3e 42 0d 75 bd
       -0.6164624 -0.18667528 0.3504454 -0.059827097
0001c0 77 71 34 3f 8e de 82 be 95 e3 68 3e f8 57 06 bf
       0.70485634 -0.2556042 0.22743066 -0.5247798
0001d0 1c ca 09 3f 6a dc e2 be 25 55 ef be 70 80 ab 3d
       0.5382402 -0.44308788 -0.46744648 0.08374107
0001e0 b7 cf 14 3f 9b 24 19 bf 9b 38 7a 3f 01 04 37 3f
       0.5812945 -0.5982148 0.97742623 0.71490484
0001f0 da a5 41 bf 0b e5 79 bf fc 28 b4 3e 22 90 c7 be
       -0.75643694 -0.97615117 0.3518752 -0.38977152
000200 98 39 23 3f 50 1d 48 bc 59 9a a0 3e 21 e6 80 be
       0.63759756 -0.01221402 0.31367758 -0.25175574
000210 7d d6 3c 3f 22 a4 e4 bd 91 07 57 3f 4c d1 5c be
       0.73764783 -0.11164118 0.8399592 -0.21564215
000220 5e 52 a4 3b 4b fa b9 be c6 97 67 3d 44 5c eb 3e
       0.0050147017 -0.3632377 0.056541227 0.4596883
000230 e0 07 72 bf 36 97 d4 be 8f 18 81 bf c4 27 cf 3f
       -0.94543266 -0.41521615 -1.008562 1.618401
000240 a3 2b 6b 3f d3 f8 1c bf 4a e1 2a be f1 1c 86 bf
       0.9186346 -0.61317176 -0.16687503 -1.0477582
000250 35 89 e1 3e c5 01 ab 3f 7e 6c 63 bf 9e 3f c8 3f
       0.44049993 1.3359915 -0.8883742 1.5644414
000260 c8 a3 7a 3f e4 9d f8 be c4 52 03 3f 6e 19 e2 be
       0.9790616 -0.4855796 0.51298165 -0.44160026
000270 21 fb 4d 3f e8 cc 8e 3f 61 76 b6 bd bf 7e f4 3e
       0.8046132 1.1156282 -0.08909298 0.4775295
000280 4c 63 05 bf 5f 33 8e bd cf 0f a7 3e 75 1f 7a be
       -0.5210464 -0.06943392 0.32629248 -0.24426062
000290 21 98 da be eb a8 e1 3e f9 84 df bd 2f c8 07 3d
       -0.4269419 0.44074187 -0.109140344 0.033149894
0002a0 03 22 d5 be 82 b3 74 3f e7 6f 46 be ad d4 8e bd
       -0.4162751 0.9558641 -0.19378625 -0.069741584
0002b0 99 36 a5 3e 2f 62 ff be 29 d3 92 bf bb f3 00 bf
       0.32268217 -0.49879596 -1.1470691 -0.50371903
0002c0 4c 24 da 3e 48 16 0c 3f 84 52 94 be 15 1c 49 3f
       0.42605817 0.547215 -0.28969204 0.78558475
0002d0 5e 25 05 bf fe 07 95 3f f4 22 8f 3f 6a a4 9c 3e
       -0.5201014 1.1643064 1.1182542 0.30594188
0002e0 52 5c f3 3e 6f 06 22 bf c0 1c a7 3e 5c 38 aa 3f
       0.47531372 -0.63291067 0.32639122 1.329845
0002f0 a6 ec a5 3d 01 8c ce 3e bf d0 51 bf 60 df 72 3e
       0.08101778 0.4034119 -0.81959146 0.23718023
000300 a1 d6 ea 3e 7f 6a 53 be 92 7e ba bd 83 2c 71 bc
       0.45866874 -0.20646094 -0.091061726 -0.014720085
000310 c9 2f 65 be ab 20 21 be 16 ef 2a 3f 11 b7 c1 be
       -0.2238151 -0.15735118 0.66771066 -0.3783498
000320 e6 11 81 3f 47 2e 48 be 2e 56 f2 3e c4 4e 60 be
       1.0083587 -0.19548903 0.47331375 -0.21905047
000330 32 06 0c 3d cf 0e ec bd 60 7e f1 be 18 22 e5 be
       0.034185596 -0.11526262 -0.4716673 -0.44752574
000340 fd 69 0e be 95 26 5c 3c 61 f1 b5 3e b1 cf c5 3e
       -0.13907619 0.013436933 0.3553572 0.38635018
000350 89 a3 c6 be 1c dd 3b be 6c b3 b4 3d b4 a3 0c 3f
       -0.38796642 -0.18346065 0.088232845 0.5493729
000360 e0 85 17 be 0f ea ac be de a4 81 be 74 38 52 3f
       -0.14797163 -0.33772323 -0.25321096 0.8211739
000370 5c ba e4 bd d1 2e 8b 3f 6f 7c 82 3e 72 5a c2 bd
       -0.11168358 1.0873662 0.2548556 -0.09489907
000380 fb 0f 7d bf 1c 88 84 3e ca 8a b3 be b4 0a c2 3e
       -0.9885251 0.25885093 -0.35066825 0.3789879
000390 5d de 6f 3c 44 9f c8 be 9a a2 1b be 3a 27 6c 3e
       0.014640418 -0.3918401 -0.15198746 0.23061839
0003a0 ad c1 b0 bd ac 61 13 3e ce d5 67 be 99 f5 91 3e
       -0.08630691 0.14392728 -0.22640154 0.2850769
0003b0 a1 73 36 bf 43 30 db 3d 99 c7 e0 3e b0 bc 06 be
       -0.71270186 0.107025646 0.4390228 -0.13157916
0003c0 d8 e4 3a 3e 09 ad a0 be 8d 8b 9c 3e f0 27 9f 3e
       0.1825136 -0.31382015 0.3057522 0.31085157
0003d0 b4 46 23 be e1 91 02 3e 4b 0b 14 3e 20 3b 8d 3e
       -0.1594494 0.12750961 0.14457433 0.2758417
0003e0 a2 56 c5 3c 7a a9 e6 3d b3 bc 67 3e 24 49 97 3c
       0.024089161 0.11262794 0.22630577 0.018467493
0003f0 ba d2 a6 bd 53 0b d9 3d f7 d9 e6 3e 6b ec 77 3e
       -0.08145662 0.10597863 0.4508817 0.2421128

z_k.mlp.0.bias f4 [10]
000000 e8 a5 8d be a7 6e ad be 80 27 2e bf df d7 93 bc
       -0.2766564 -0.33873484 -0.6802902 -0.018047271
000010 29 f1 25 bf 91 d7 1a bf 3a 3a 53 be b4 42 09 bf
       -0.64821106 -0.6048518 -0.2062768 -0.53617406
000020 5f d2 4c bf 8e 9a b7 be
       -0.800085 -0.35860103

r_k.mlp.0.weight f4 [10, 33]
000000 64 08 30 bb 9d 8e 63 bd 5f 77 cf 3d 11 74 68 3e
       -0.002686047 -0.05555593 0.1013019 0.22700526
000010 48 85 97 bd 09 9d d9 bc 02 bd 8b 3d c4 81 96 3e
       -0.07398468 -0.026564138 0.0682316 0.29395878
000020 34 75 72 3d 77 2c 5f 3e 66 60 26 bf d6 75 bf be
       0.059193805 0.21794306 -0.6499084 -0.3739459
000030 95 75 2a 3e aa 51 63 3f d7 a2 1e bf 0c cc a2 3e
       0.16646416 0.88796484 -0.61967224 0.317963
000040 20 99 07 bf f6 be 35 3f 9f bf d4 be dd 79 9c be
       -0.52968025 0.7099451 -0.41552445 -0.30561724
000050 78 19 23 3f 9c 15 72 3f fe 33 e2 3c 3e b4 fb 39
       0.6371074 0.94564223 0.027612682 0.00048008742
000060 0a 2d 99 3e 92 67 de be 67 87 43 be 5d 05 99 bd
       0.29917175 -0.43438393 -0.1909462 -0.07471726
000070 5c c2 29 bc 28 65 23 3e f1 20 2d bd 80 fc b2 be
       -0.01036128 0.15956557 -0.042267743 -0.34958267
000080 67 65 94 3e 38 b1 83 be 0c 82 65 bd 18 9a 0f 3e
       0.28983614 -0.25721145 -0.056032225 0.14023626
000090 71 80 ce 3e a0 24 5a 3e 56 aa 7f bc d3 9a e4 be
       0.40332368 0.21303034 -0.015604576 -0.44649372
0000a0 e0 0f 71 3c b2 7e cd 3e f5 85 a7 3e b5 da 03 bf
       0.014713258 0.40135723 0.3271939 -0.51505595
0000b0 81 d3 3c 3e e5 df 1b 3f c6 25 03 bf 6a 38 0e be
       0.18440057 0.6088851 -0.5122951 -0.13888708
0000c0 41 fe 11 3d 8d c7 cd 3e 58 80 15 bf bf 27 99 bd
       0.035642866 0.40191308 -0.5839896 -0.07478284
0000d0 0e 7e 23 3f fb 37 90 3f e0 9b 96 3e d8 d9 56 be
       0.6386422 1.1267084 0.29415798 -0.20981538
0000e0 c4 bf 22 bf f0 f1 e7 3e 7e 2e ae 3e e7 eb 77 bd
       -0.6357386 0.4530177 0.34019846 -0.06052771
0000f0 44 7f 57 3e df 0b 2d 3e ee 9f c2 3e f7 12 18 3e
       0.21044642 0.1689906 0.38012642 0.14850985
000100 2a 39 51 3e 83 f8 5c be 11 cd 1e bf aa d6 31 3f
       0.20431963 -0.21579175 -0.62031657 0.69468176
000110 2c 39 87 3f 2d 60 68 be 92 4e 11 3e bc 20 f9 bd
       1.0564322 -0.22692938 0.14190128 -0.12164447
000120 3b 33 c4 3e 7f ca a6 be db 4b 0e 3e d2 17 ee be
       0.38320336 -0.32576367 0.13896124 -0.46502548
000130 c9 02 ae 3e 95 72 3e be d3 ab e1 3e 21 ae fe be
       0.339865 -0.18598397 0.44076404 -0.49742225
000140 da 23 07 bf d7 ae 9f 3e 61 d2 ea 3e d7 cd 25 bd
       -0.5278908 0.3118808 0.4586363 -0.040479507
000150 17 52 a4 bd f2 0d 41 3e a5 d8 11 3f 8c e8 93 be
       -0.0802347 0.18852976 0.569712 -0.28888357
000160 67 df 65 be b9 7a d8 bd c3 6d b1 be bc e9 dc be
       -0.22448502 -0.105702825 -0.34654054 -0.43147075
000170 bf a3 13 3f 88 a5 48 bd 5c 2b 62 3e f8 5e 13 3f
       0.5767173 -0.048985988 0.22086853 0.57566786
000180 05 04 53 bf 31 b9 d9 3d 5d d3 a2 3e 13 47 fd 3d
       -0.8242801 0.106310256 0.31801882 0.12367072
000190 4e ff 92 3c 44 e0 62 be 86 50 ec 3e 0e 16 ef be
       0.017944004 -0.22155863 0.46155185 -0.46696514
0001a0 5c 75 bc 3e 05 56 b2 be dd fc b5 bd fa 96 bb 3e
       0.36808288 -0.34831253 -0.088861205 0.36638623
0001b0 94 66 30 3f 50 f8 24 3e 02 dd 2e be bc 93 de be
       0.6890652 0.16110349 -0.17076495 -0.43472087
0001c0 d3 e8 4e be 62 07 67 3b b1 2a a0 3e 06 9a 81 be
       -0.20206003 0.0035252203 0.3128257 -0.25312823
0001d0 77 18 00 3f 64 23 21 3e ff b2 3e 3c f2 35 f3 3e
       0.5003733 0.15736157 0.011639356 0.47502095
0001e0 50 17 64 3e a3 90 66 3e f9 f2 07 3b 75 c9 81 3e
       0.22274518 0.22516112 0.0020744188 0.25349012
0001f0 2d 85 f6 3e dc 4b ae be 5c 1c 69 3e 57 dc 66 bd
       0.4814848 -0.3404225 0.22764724 -0.056362476
000200 8c f5 03 3f 5c 2a a2 3d 32 58 87 3e 73 bf e3 3d
       0.5154655 0.07918236 0.26434475 0.111205004
000210 82 d7 9a 3c 78 e2 d5 3e 60 94 eb bd 6e 24 f9 3d
       0.01890159 0.41774344 -0.1150291 0.121651515
000220 2b ae fd 3d 12 63 21 be 7e 01 03 3f 2f 75 fb 3e
       0.123867355 -0.15760449 0.5117415 0.4911284
000230 90 3d cf be 9b 02 3c 3e e0 3d ed 3e 05 58 b5 3e
       -0.40476656 0.18360369 0.4633627 0.35418716
000240 25 be 88 be f0 30 8c be 7f a2 f2 bd e6 fe a7 3d
       -0.2670757 -0.27381086 -0.118474 0.08202915
000250 a9 f6 9f 3e d3 d6 10 3f 7d 42 5f 3e 34 d4 cc be
       0.31242874 0.56577796 0.21802707 -0.40005648
000260 c6 d6 24 bf fe 5e 6b 3f 30 17 52 3e 55 4c a3 be
       -0.6439022 0.9194182 0.20516658 -0.31894174
000270 65 58 f6 be 34 af 23 bf d7 06 ba 3e 3a c2 58 be
       -0.48114315 -0.63939214 0.36333343 -0.21167842
000280 38 7d 5a be 61 8b 99 be 46 e5 ed be 89 2d 32 be
       -0.2133683 -0.2998915 -0.46463984 -0.17400183
000290 9d 47 88 3e c2 dd c6 3d f4 0f cf be 41 89 65 be
       0.26617137 0.09710266 -0.4044186 -0.2241564
0002a0 00 56 eb bd ff 14 2f 3e ec a2 07 be 9a f4 e9 be
       -0.114910126 0.17097853 -0.13245744 -0.4569443
0002b0 a6 37 e6 3d a0 7f 03 3e eb 0d 40 be 98 53 32 be
       0.11241083 0.12841654 -0.1875531 -0.17414701
0002c0 be af 46 be de 21 92 3e 6f c3 5a be 44 dc 13 bd
       -0.19402978 0.28541464 -0.21363614 -0.036098734
0002d0 bf 51 b9 3d 48 41 75 be 9a f5 af 3e ce 30 84 be
       0.09048795 -0.23950684 0.34367067 -0.25818485
0002e0 b7 f1 f0 3e fa 9b 84 be 86 02 78 3e 2a a8 d7 3d
       0.47059414 -0.2590025 0.24219713 0.105301216
0002f0 5a 1a c9 be 46 90 81 3e 18 87 e6 bd b4 70 82 be
       -0.39277917 0.25305384 -0.11256236 -0.2547661
000300 c1 ee 1a 3e 3f 1b 40 bd 2f 25 c5 bd 30 cf 4e 3e
       0.1513014 -0.046900984 -0.09626233 0.20196223
000310 43 6c 1e be 35 d4 ce 3d e7 dc 35 3d 81 6c 99 bc
       -0.15470986 0.10099069 0.044400122 -0.018728497
000320 66 45 2d bf 25 35 79 3e 28 58 85 be 26 95 e6 be
       -0.6768402 0.2433668 -0.2604382 -0.45035666
000330 99 8f d6 be 4e c2 3e be 72 17 94 3d 4d b4 93 3e
       -0.4190643 -0.18628809 0.07231034 0.28848496
000340 68 d1 95 3e ad 7b bc bc 13 d3 83 be 82 64 b9 3e
       0.29261327 -0.023008192 -0.25746974 0.36209494
000350 ae 23 f5 bb 49 7e 4d be 19 8d cd 3e 00 2f 52 3e
       -0.00748106 -0.20067705 0.4014671 0.20525742
000360 fe 27 e0 be fc 5b 69 be 70 33 0b be 69 39 62 be
       -0.43780512 -0.22788996 -0.1359384 -0.22092213
000370 4c 40 76 be e7 d3 01 3d 17 dc b9 3e 37 bb 1c be
       -0.24047965 0.031696226 0.36300728 -0.15305792
000380 f7 79 0f 3e 32 3e 05 be 64 60 09 be 3a 4d 6b 3d
       0.1401137 -0.13012007 -0.13415676 0.057446696
000390 e2 0d a2 bc a7 50 ac 3e e8 f2 ae bd 1e 05 93 3c
       -0.01978201 0.33655283 -0.085424244 0.017946776
0003a0 5d c3 87 be 36 e3 bb 3b cd 8c 1c bd b6 11 f4 3e
       -0.26516238 0.0057338728 -0.038220216 0.47669762
0003b0 9e 1d 27 bd 3c ee 31 be 94 36 53 be dd 2d e9 be
       -0.04079973 -0.17376035 -0.20626289 -0.45542803
0003c0 a2 c0 79 3e 0e cb 24 3f fc d2 43 3c 31 30 33 3e
       0.2438989 0.64372337 0.011952158 0.17498852
0003d0 89 2d d0 be 7b 7b 91 be 87 92 ca 3e 54 8c c5 be
       -0.4065974 -0.2841452 0.39564916 -0.38583624
0003e0 cb 99 fa 3c b1 ef 13 3f 78 c3 ad bc 56 c6 b5 bd
       0.030590912 0.57787615 -0.02121137 -0.0887572
0003f0 69 8c 8b be f5 95 68 3d cf 95 26 3f b5 93 5c be
       -0.27255562 0.056783635 0.6507234 -0.21540721

r_k.mlp.0.bias f4 [10]
000000 b7 8d 48 be 19 2a 21 be a8 09 5d be ea ac e7 3c
       -0.1958531 -0.15738715 -0.21585715 0.028280694
000010 c6 3a 1e bd df 70 87 3c 8b cd 3e 3d 80 81 40 be
       -0.03863027 0.016533313 0.04658274 -0.187994
000020 6e 8d 4c bd fa 6c 7b 3e
       -0.049939565 0.2455329

correction.mlp.0.weight f4 [10, 33]
000000 9c fa 84 be fa df b0 be 47 dc 73 3f 3e 0c 64 3e
       -0.2597245 -0.3454588 0.9525799 0.22270295
000010 f2 d3 fe bd c9 b5 71 3c a1 af 1c 3e 40 ed 5f 3d
       -0.12442769 0.014752814 0.15301372 0.05466962
000020 00 dc 39 be 26 5a cf be c8 24 6e 3e 51 49 aa bd
       -0.1815033 -0.40498465 0.23256218 -0.08314765
000030 e8 03 b2 be be 9e 5b 3e e7 06 d3 bd d5 36 96 be
       -0.34768605 0.21447274 -0.10304051 -0.2933871
000040 32 e1 60 be 55 6e b9 3e 65 5f d9 3e 6f 33 9e 3e
       -0.21960905 0.3621699 0.42455593 0.30898616
000050 fd c3 1c 3f 26 00 06 bf f0 a6 2b 3e d5 3d 2a 3e
       0.61236554 -0.52343976 0.167629 0.1662515
000060 ce f9 49 be 30 6b 3b be 87 26 c6 be 86 91 a7 3d
       -0.19724199 -0.18302608 -0.3870127 0.08182053
000070 a1 7e 91 be a9 8e 87 3d b4 9a 5c bc 33 64 94 3d
       -0.28416923 0.06619007 -0.0134646185 0.07245674
000080 8e c0 bf 3d b6 e7 26 bf 59 d5 9e bf 87 0d 08 bf
       0.09362899 -0.6519731 -1.2408859 -0.5314564
000090 d8 63 cf be 93 2d c0 3d 1e d9 ec 3e 58 b2 39 be
       -0.40505862 0.093836926 0.46259397 -0.18134439
0000a0 2d c5 31 be e9 b5 02 be 67 74 c5 bd 1a 2c 81 bd
       -0.17360373 -0.12764706 -0.096413426 -0.0630724
0000b0 16 80 2c bf 8d 39 83 3e 0c fd 26 be 3b 93 8f be
       -0.67382944 0.25629845 -0.16307467 -0.28042015
0000c0 9f 8d 76 be 74 a4 c3 bc ab 54 98 3c de 5f 13 3e
       -0.24077462 -0.023882128 0.01859506 0.14392039
0000d0 5e b9 95 3e 5e f1 12 bf aa 9a b8 bc bc 02 c5 3e
       0.29242986 -0.5739955 -0.022534687 0.3847865
0000e0 87 0e 1e be d7 67 84 3d f0 32 45 3c fa 32 76 be
       -0.15435229 0.064651184 0.01203607 -0.24042884
0000f0 f9 37 f4 be bd 38 8a 3c ae dd 2d 3d 7f da 40 3c
       -0.47698954 0.016872758 0.04244774 0.0117708435
000100 69 dd 6b 3e 5f 9f 91 be 1c 29 54 3e f3 12 97 3e
       0.2303368 -0.28441903 0.20718807 0.29506645
000110 b8 7a d8 be 07 e1 a4 3e 2d b8 3a be 54 48 ae 3e
       -0.42281127 0.32202932 -0.1823432 0.34039557
000120 c1 31 02 3f 59 93 45 3d 76 2b 2d bd 57 de ee be
       0.5085717 0.048236225 -0.042277776 -0.46654007
000130 8f 5b a0 bd 87 04 9d be 59 69 9d be 88 7b 6a be
       -0.078299634 -0.30667517 -0.30744436 -0.22898686
000140 d8 fd 2d be d5 05 11 be 48 2b a1 3e c3 ca 56 3a
       -0.16991365 -0.14162381 0.31478333 0.0008193666
000150 b6 bc fd be 89 56 50 3d 2e 5a 06 3e 32 ca 69 be
       -0.49558038 0.050863776 0.13120338 -0.22831038
000160 3a 51 81 3e 78 2d b1 3d bc 98 64 be 12 da 87 bd
       0.25257283 0.086512506 -0.22323889 -0.066333905
000170 3f 3e 33 3b b4 3e 83 be a8 a8 30 be c0 33 1f 3e
       0.0027350334 -0.25633776 -0.17251837 0.15547085
000180 ae c9 3a 3b 3f b0 a3 bd 5d 1f 14 be 4e dd d0 3e
       0.0028501558 -0.07992601 -0.14465089 0.40793842
000190 61 45 e8 be 5e 5a 4c 3f 94 3f 85 be c5 cd 08 3f
       -0.45365432 0.7982539 -0.2602507 0.5343898
0001a0 e6 15 e5 3d 7d 2a 53 be c6 5a eb be 75 0d dc bc
       0.111858174 -0.20621677 -0.45967692 -0.026861886
0001b0 61 0b 02 3f 35 42 76 be 3d c9 4e 3e 90 47 ef 3c
       0.5079861 -0.24048693 0.20193954 0.029208928
0001c0 1c 17 a6 be 68 fb 2e 3e a3 d1 96 3e 28 84 c0 bd
       -0.32439506 0.17088091 0.29456815 -0.09400207
0001d0 02 10 b0 be a2 1b d0 3d 6f 6f 85 be 6e 15 78 be
       -0.34387213 0.101615205 -0.2606158 -0.24226925
0001e0 e5 d0 c9 be 64 19 97 bd 98 ca 16 3e bd 7b 56 be
       -0.39417186 -0.0737789 0.14725721 -0.2094564
0001f0 d3 aa 67 3e d6 13 03 3e cb 33 32 3e b1 2a 38 be
       0.22623758 0.12800536 0.1740257 -0.17985035
000200 f9 84 45 3e 44 52 46 bc 7c 04 a6 3c 36 f1 71 3e
       0.19289006 -0.012104575 0.02026581 0.23627171
000210 1f 18 b3 3e 97 95 08 bf 75 b8 af be b7 d9 99 3e
       0.3497934 -0.53353256 -0.34320417 0.30048916
000220 31 6e b4 be dd f8 36 bf 84 3d b1 bd 1b ee c6 3d
       -0.3524032 -0.71473485 -0.08654311 0.09713384
000230 1b b3 10 be 62 3f 57 bd e7 f5 8e 3e 76 a9 51 bd
       -0.14130823 -0.05255068 0.27921984 -0.051187
000240 ea bd bc bd 9b 80 a8 3d 0a 81 ac 3e 42 64 cd bb
       -0.09215911 0.082276545 0.336922 -0.006268055
000250 2d e5 df 3d 7e 13 64 bd 55 1f bb bd 74 25 26 bf
       0.10932384 -0.05568265 -0.091368355 -0.649009
000260 c6 73 e6 3c 27 3d 8c bd 09 81 73 3e ef 0c e2 3d
       0.028131377 -0.068476014 0.23779692 0.11037623
000270 e8 58 5e be 66 ac 4b 3e dc 36 25 bb 28 57 35 3e
       -0.21713603 0.19889984 -0.00252097 0.17709029
000280 01 ba 9c 3c 0b cc a5 3e 81 67 ea 3b b7 e2 83 be
       0.019131662 0.32382235 0.007153452 -0.25758907
000290 a2 03 a7 be 17 c5 75 bc 26 a1 19 be 4a 1c 5f 3e
       -0.3261996 -0.015000603 -0.1500288 0.21788135
0002a0 31 5e c2 3d c7 6d 2b be 5f 66 06 3e 5d 3b 6f 3e
       0.09490622 -0.16741095 0.13124989 0.23362489
0002b0 65 32 b0 be 25 0f 48 3e 38 dc 5d be c6 f5 59 be
       -0.34413448 0.19537027 -0.21666038 -0.21285161
0002c0 a2 e9 40 bd cd a4 8b be 83 6f b4 be 6e cf e0 be
       -0.04709781 -0.2727417 -0.35241327 -0.43908256
0002d0 51 36 62 be cc f3 73 3e 26 40 b8 3d 3f 96 12 3e
       -0.22091033 0.2382347 0.0899661 0.14315127
0002e0 2d 8b 02 be 1a 48 85 be 4b e9 5c 3c 5d cc 00 bd
       -0.12748404 -0.26031572 0.013483356 -0.031444896
0002f0 f0 10 f5 3d f5 cd 83 be 9f 15 84 3e e3 0a 74 3e
       0.11966121 -0.2574307 0.25797746 0.23832278
000300 01 90 1f 3e 1f 99 10 3d 4b ce 6f 3e d7 b2 24 bd
       0.15582277 0.035302278 0.23418538 -0.040209617
000310 a1 09 83 be b1 b3 25 3d 70 db c2 bc f9 28 fe 3c
       -0.25593284 0.04045457 -0.023786277 0.031025397
000320 aa 9e 96 bf 39 19 08 3e d4 5e 9a be 0f c0 db be
       -1.176717 0.13290872 -0.30150473 -0.42919967
000330 62 64 87 3a 42 23 56 3e 7c 7c cd bc 19 74 4d bf
       0.0010329599 0.20911887 -0.025083773 -0.80255276
000340 6a 8e 47 be 1c 51 26 bd 22 8e 8a 3e d7 a8 9b bd
       -0.1948792 -0.040604696 0.27061564 -0.07600563
000350 c8 e7 91 bd a4 75 cc 3e 57 51 d9 3d b1 ad a7 bd
       -0.07124287 0.39933503 0.106112175 -0.08187426
000360 b9 c8 dc 3c 03 ed 2d 3e fd b5 b9 be ab 2a 00 3f
       0.02695118 0.16984944 -0.3627166 0.50065106
000370 b5 88 87 3d e7 d7 ee bd 64 0e 9d be df 28 f7 be
       0.06617872 -0.11662274 -0.30675042 -0.4827337
000380 ab 24 83 bd 18 9d b9 be da f4 31 be df 87 69 be
       -0.06403478 -0.36252666 -0.1737856 -0.22805737
000390 f2 fc 98 3c b4 cb af be 59 c9 ae 3d 0b 60 fe 3c
       0.018675301 -0.343351 0.08534498 0.031051656
0003a0 87 5e 02 3e 5c d2 aa 3e 4c 4a f4 bd 95 67 81 3e
       0.12731372 0.33363616 -0.119282335 0.2527434
0003b0 4f a5 e7 be 73 6b b0 3e af b5 17 bf 95 d4 a6 bd
       -0.45243308 0.34456977 -0.592616 -0.081460156
0003c0 42 05 2d be 33 b7 67 3e e7 1d 6e bc c6 31 45 3e
       -0.16896537 0.22628479 -0.014533496 0.19257268
0003d0 cc 8e b6 be 81 58 3f 3e d8 4a ba 3e 36 e1 fb bd
       -0.3565582 0.18686105 0.36385226 -0.12298815
0003e0 5f 40 88 3e 0a 01 a2 bc eb f4 15 bd a4 67 a5 3e
       0.2661161 -0.019775886 -0.036610525 0.32305634
0003f0 34 8a 2b bb 59 50 8a 3e 49 fc 06 be 72 9b 1b be
       -0.0026174905 0.27014425 -0.13182177 -0.15196016

correction.mlp.0.bias f4 [10]
000000 a7 9f be bd 7c f4 46 3e 04 ac e0 3c c8 fe 74 bd
       -0.09307795 0.19429201 0.027425773 -0.05981329
000010 11 97 8b 3d 61 44 13 bd 6a e2 11 bd 08 ca 07 be
       0.06815923 -0.035953883 -0.035616316 -0.13260663
000020 cc bb 03 3c 0e fa af 3d
       0.00804038 0.08592616

phi_neumann.mlp.mlp.0.weight f4 [10, 23]
000000 10 ba cb be 63 69 bb 3e 8e 4c bd 3e 32 db 9a be
       -0.39790392 0.3660384 0.3697247 -0.30245358
000010 b4 39 f3 3e e6 f8 fa 3d 4e 92 d6 bd 27 00 98 3c
       0.47504961 0.12254505 -0.10477124 0.01855476
000020 31 11 46 3e 22 05 89 bd 25 d7 50 3d b3 c3 61 be
       0.19342496 -0.06690432 0.050986428 -0.2204731
000030 9d 01 51 3e e2 e9 d5 bd 13 9c 9c 3e 63 4d 9b be
       0.20410772 -0.10445 0.30587825 -0.3033248
000040 30 0f 46 3d bd 12 14 3f b3 cc 84 3e 5f fc b2 3e
       0.048354328 0.5784109 0.25937423 0.3495817
000050 cb 80 87 39 a7 97 97 3c 71 aa 9c bd 2c c5 b4 3e
       0.00025845165 0.01850493 -0.076496966 0.3530668
000060 1e 47 e0 bc 13 d4 92 3d de 3c 04 3e 48 74 be be
       -0.027377661 0.07169356 0.12913844 -0.3719809
000070 ef e0 9c be 79 1e f8 be ed 04 04 3d 9e 97 2b 3e
       -0.3064036 -0.4846075 0.03223126 0.16757056
000080 db fd b8 3e ca 46 8f 3d 84 6c 30 3d 52 4e df 3e
       0.36131176 0.06995924 0.04307224 0.4361444
000090 c2 e9 d2 be 06 db ac 3d 01 78 75 be 9c 94 c6 3e
       -0.41193968 0.08440213 -0.23971559 0.38785255
0000a0 d2 2e 78 be ec 57 6e 3c cc 9f 8b be 19 94 8d 3a
       -0.2423661 0.014547329 -0.27270353 0.0010801583
0000b0 5e e4 84 3a 5d 04 5e bd 7b b2 4d bc ec 15 a9 be
       0.001013886 -0.05420338 -0.01255476 -0.33024538
0000c0 79 2e f6 3e b0 f9 66 3d 58 f2 49 3e 97 57 bd 3d
       0.4808233 0.056390464 0.19721353 0.09245222
0000d0 e8 04 8e bf fd 8c 41 3f 21 c9 94 3e cd bf 02 bf
       -1.1095247 0.75605756 0.290597 -0.51073915
0000e0 36 36 11 be 8c 4b ca 3e 9f d0 2a bf 64 d3 c6 be
       -0.14180836 0.39510763 -0.6672458 -0.38833153
0000f0 ab 88 e6 be 22 54 1c 3f 85 68 13 3f dc 56 a8 3e
       -0.45026144 0.61065876 0.5758136 0.32878768
000100 70 83 04 bf 00 93 83 be 14 b6 8e bb 70 c6 d5 ba
       -0.5176306 -0.2569809 -0.0043552015 -0.0016309749
000110 c0 49 22 3d 03 93 84 be 92 b8 89 3e f3 37 8e 3f
       0.039621115 -0.2589341 0.26898628 1.1110824
000120 a1 06 a0 bd fb e3 7a be 87 7b 09 3e 00 fc db be
       -0.07813764 -0.2450103 0.13426028 -0.42965698
000130 6b 66 ab bd d2 7d e1 3e cd 3e 8e be d8 e0 a3 3e
       -0.08369144 0.44041306 -0.27782288 0.3200748
000140 4a 2e e1 be 3a d0 72 3e f4 68 f0 3d ec d2 8a bd
       -0.43980628 0.23712245 0.11738768 -0.067785114
000150 0e 92 21 3e 8d cd 9c be 99 94 8c bd b9 bc ad be
       0.15778372 -0.30625573 -0.0686428 -0.33933046
000160 9c 07 46 be 82 32 04 bc ce 62 84 ba b6 d3 23 bd
       -0.1933884 -0.008068683 -0.0010100247 -0.039996825
000170 c7 bb 1d be 3b f7 bd bd 79 f2 d9 3c 27 2a 39 3e
       -0.15403663 -0.09275671 0.026604878 0.18082486
000180 2a 02 b7 3e a2 b5 ef be bf 28 40 3e a8 f0 1b be
       0.3574384 -0.46818262 0.18765543 -0.15228522
000190 60 54 c2 be 1c 70 b3 be a5 e6 5a 3e 64 e6 6f bc
       -0.37954998 -0.3504647 0.21377046 -0.014642332
0001a0 48 16 67 be b5 58 c0 be 5b bf 2a 3c 2f ca 43 be
       -0.22567093 -0.37567678 0.010421599 -0.19120096
0001b0 06 38 7c be c3 3b cf 3e 65 34 14 bd 6b 10 50 3e
       -0.24630746 0.40475282 -0.03618278 0.20318763
0001c0 59 98 0a 3e 43 0c e1 bd d2 b3 c1 3b c3 9e be 3e
       0.13534679 -0.10988667 0.005911329 0.372305
0001d0 fd 58 53 be 97 5b f6 3c d4 0a 76 3e 6d 3d d3 3e
       -0.20639415 0.03007297 0.24027568 0.41257802
0001e0 14 c6 27 3d 6f 6b 79 3e 19 85 8d 3e 95 41 21 be
       0.040960386 0.24357389 0.27640608 -0.15747674
0001f0 88 1e 1f 3e c2 24 a8 be 42 5a ff 3e 37 ec ae bc
       0.1553899 -0.32840544 0.4987355 -0.02135287
000200 d2 c1 ac be 19 ff 17 3d 04 de be be 99 56 15 3e
       -0.33741623 0.037108514 -0.3727876 0.14583816
000210 5e 05 1d bd 7e c5 1e 3d 46 64 a1 be 3b ab 9c 3b
       -0.038335197 0.038762562 -0.31521815 0.0047811545
000220 83 39 7e 38 64 46 d1 bb bd 85 9a 3e 25 1d 05 3e
       6.061188e-05 -0.006386565 0.3018016 0.12999399
000230 b6 c9 5b be ad e0 95 3e df f8 de 3e da a0 02 bf
       -0.21463665 0.29272977 0.4354925 -0.5102669
000240 ef 35 db be 36 3d 27 be a6 93 83 be 82 93 00 bf
       -0.42814586 -0.16331944 -0.25698584 -0.5022508
000250 8e 63 ff 3d 78 36 a1 3d 87 7f 71 be 73 7e c8 bd
       0.124701604 0.07871717 -0.23583804 -0.09789743
000260 a4 60 af be 63 0e df 3e 3e 7b 37 3c f1 02 c6 be
       -0.34253418 0.43565664 0.011198817 -0.3867412
000270 1d 3f 71 be 32 eb b8 3d d1 06 86 bb dd 37 64 bc
       -0.23559232 0.09029235 -0.004090168 -0.0139293345
000280 e6 87 34 3d 0f a4 16 3e 45 88 61 3e 8f 63 fd 3e
       0.044074915 0.14711021 0.22024639 0.4949002
000290 f3 b1 4c be f4 c5 a1 be a8 5d 30 bc 88 b3 e1 3c
       -0.19989757 -0.3159634 -0.010764517 0.027551427
0002a0 e8 2b 83 3e 7a 66 eb be a0 c4 b5 be 65 62 f5 3e
       0.25619435 -0.4597662 -0.35501575 0.47926632
0002b0 15 f2 8e 3e 73 df 2e 3e 15 ea f6 3e 1e 68 4b 3e
       0.2791907 0.17077427 0.48225465 0.19863936
0002c0 39 5b 9e be 0b 8c ce be 4b 67 c1 be 0c 79 9d 3e
       -0.30928972 -0.4034122 -0.3777412 0.30756414
0002d0 fe 72 54 3d 6f e2 da 39 37 1f aa 3a 55 16 52 bd
       0.051867478 0.00041748906 0.0012979273 -0.05129083
0002e0 32 b6 cb 3d f2 25 55 3e c7 b7 a1 be 0b ea 3f 3d
       0.099468604 0.20815256 -0.31585523 0.04685406
0002f0 4d ac bd 3e 70 00 5b 3e f3 3d d7 3e 72 e1 b4 3e
       0.37045518 0.21386886 0.4203945 0.3532825
000300 44 fa bf be a0 a5 d4 3d c8 35 86 3e fd 3e 1d 3e
       -0.37495625 0.10383153 0.26212907 0.1535606
000310 a5 fb ce bd c9 7b 42 3e 25 39 3c 3f 42 f2 ca bd
       -0.10106591 0.18992533 0.73524696 -0.09909488
000320 6a e5 5f bd 8d f4 15 3f b7 df 6a bf b0 2d 84 bf
       -0.054662146 0.5857628 -0.9174761 -1.0326443
000330 dd f8 21 3c 3a b8 e5 bb 60 eb 14 bd 70 b0 95 be
       0.009885994 -0.007010487 -0.036357284 -0.29236174
000340 28 a6 3d 3d 4f 76 7c bd b0 a8 0a bf 79 29 9f be
       0.046301037 -0.061636265 -0.54163647 -0.3108633
000350 4a 56 89 3d 75 19 ad 3e 88 eb 47 be 93 1b 3f 3d
       0.067059115 0.33808485 -0.19523442 0.046657156
000360 d1 09 83 be df ce 97 3e 44 a8 e8 bd 29 9a 5a be
       -0.25593427 0.29650018 -0.11360219 -0.2134787
000370 70 c4 f5 3d 31 2c 85 be 3b 7f 8b bd 02 95 fe be
       0.12000358 -0.26010278 -0.06811377 -0.4972306
000380 7c 54 30 be 2a 72 4f bd ee 09 13 3f e2 be ff ba
       -0.17219728 -0.050645985 0.57437027 -0.0019511844
000390 49 af d2 ba 31 6e 4c bd
       -0.0016073968 -0.049909774

phi_neumann.mlp.mlp.0.bias f4 [10]
000000 c0 2f e0 bd 65 50 b9 3d 42 88 c9 3d 9c 12 42 3e
       -0.109466076 0.09048537 0.09840442 0.18952411
000010 df 14 88 be 16 13 2c bc 42 e1 8d 3e d5 17 02 3e
       -0.26578423 -0.010502597 0.2771092 0.12704404
000020 d1 4a a7 be 00 62 83 3e
       -0.32674268 0.25660706
