dirichlet/dsgps/results/constant_dataset/30_ite_gamma_0_9/ckpt/best_model.pt (torch, 79693 bytes, 69 tensors)

laynorm.weight f4 [10]
1.0 1.0 1.0 1.0 1.0 1.0 1.0 1.0
1.0 1.0
00000000: 0000 803f 0000 803f 0000 803f 0000 803f
00000010: 0000 803f 0000 803f 0000 803f 0000 803f
00000020: 0000 803f 0000 803f

laynorm.bias f4 [10]
0.0 0.0 0.0 0.0 0.0 0.0 0.0 0.0
0.0 0.0
00000000: 0000 0000 0000 0000 0000 0000 0000 0000
00000010: 0000 0000 0000 0000 0000 0000 0000 0000
00000020: 0000 0000 0000 0000

phi_to.mlp.mlp.0.weight f4 [10, 23]
-0.06402313 0.14808795 0.24009363 -0.13700472 -0.4097444 0.1828342 -0.11459884 0.10319701
-0.0035183174 0.1754871 -0.12955703 -0.15983512 -0.08030714 0.26681384 -0.26268247 -0.06370805
-0.19899073 -0.30203336 0.20774512 0.13912128 0.0008423932 0.00090353936 0.0034648767 0.72266984
0.17880794 0.63535476 0.08817672 0.6318785 -0.3469165 -0.15688552 0.21396245 0.6701107
-0.10810527 0.34779772 0.042001367 -0.2253216 0.071192145 0.9200345 0.047025934 -0.6563869
0.12659243 0.4243657 0.1085359 -0.0031266415 0.0041178684 -0.012872261 0.45898914 -0.10341296
-0.43168482 -0.13849413 0.6947638 -0.22978847 0.056407426 0.09652012 0.03123187 0.3454992
0.35788578 0.11483512 -0.32894945 -0.24881387 -0.15585628 0.35069573 -0.08482778 0.015422981
0.06773486 -0.2401213 0.0013489141 0.00084349804 0.03661415 0.016482791 -0.010591811 0.19838901
0.2868049 -0.022655398 -0.23097226 0.1431591 -0.13802274 0.3166321 -0.1836245 -0.07051881
0.3767829 -0.22700395 0.022427164 0.3280344 -0.2993086 -0.05106216 0.37655926 -0.074436374
0.13014577 0.091632135 0.012828357 -0.3913205 -0.4279205 -0.2762955 -0.35964915 -0.26973784
0.020660289 -0.45524317 -0.45531994 0.064099036 -0.20610614 -0.02677814 0.01796216 0.40454182
0.06044523 -0.42730585 -0.30642977 -0.3133706 -0.2759666 -0.0825385 0.15569037 0.07466932
8.081952e-05 -0.0012724679 0.031783547 -0.76126206 0.040128555 8.887054e-05 0.021226052 0.6786498
-0.3870722 0.67244065 -0.35937074 0.19108869 0.30446067 -0.31183198 0.004276083 -0.24277866
-0.040737305 0.936177 0.050289236 0.08056304 0.30348113 0.34261826 -0.18731628 -0.00020254015
0.000589462 0.16608268 -0.86093974 0.12544979 -0.6268185 0.29682845 0.22725016 -0.2766034
0.247724 0.071851805 0.23769258 -0.03548084 -0.54425615 0.37918502 -0.022342388 0.3586573
0.5619285 0.33640957 0.14583264 -0.09809204 0.34827256 0.11637825 -0.0005689283 0.00028183457
0.17810515 -0.12024844 0.33955002 -0.1406592 -0.09721985 -0.20966002 0.043283727 -0.20848015
-0.17696527 0.50798476 -0.45833662 -0.60514694 0.41506577 0.39583144 0.29783845 -0.46959615
0.18679541 -0.9981657 0.04446989 0.5543736 -0.15400097 0.00047626 -0.00061113277 -0.0047231996
0.50554526 0.16281277 -0.064221755 0.27795094 -0.17754358 0.34816027 0.090129696 1.3274318
0.05676138 -0.7182213 -0.6094858 0.13899599 0.12456484 0.84604883 0.1065052 -0.0058888313
0.22143035 0.9318991 0.053134415 -0.24946007 0.002601514 -0.0005445727 0.025367988 -0.16950284
0.9799159 -0.07512771 0.23059145 -0.1357562 0.001566447 0.087622724 0.80222434 0.42686462
-0.5500234 0.17449296 -0.30110124 0.12626995 0.30307958 0.15716152 -0.1558814 0.44626045
1.1222154 -0.7105412 -0.17942908 0.0006244158 0.00046692064 0.14818545
00000000: 8f1e 83bd 5ea4 173e 1bdb 753e f74a 0cbe
00000010: 05ca d1be e338 3b3e ccb2 eabd f458 d33d
00000020: 9293 66bb e4b2 333e 99aa 04be d1ab 23be
00000030: 1278 a4bd d39b 883e 517e 86be 5e79 82bd
00000040: 3ac4 4bbe 1ea4 9abe 23bb 543e cf75 0e3e
00000050: 0dd4 5c3a 80db 6c3a fc12 633b e400 393f
00000060: 6e19 373e 9ca6 223f ff95 b43d cac2 213f
00000070: 0a9f b1be 99a6 20be f918 5b3e 608c 2b3f
00000080: 4c66 ddbd 8b12 b23e a009 2c3d b5ba 66be
00000090: 30cd 913d 6287 6b3f 449e 403d f908 28bf
000000a0: 72a1 013e 7646 d93e 1248 de3d 57e8 4cbb
000000b0: 2fef 863b 2de6 52bc a000 eb3e 2dca d3bd
000000c0: cb05 ddbe 68d1 0dbe 0adc 313f ab4d 6bbe
000000d0: 790b 673d 57ac c53d fbd9 ff3c 45e5 b03e
000000e0: ce3c b73e ad2e eb3d 106c a8be 10c9 7ebe
000000f0: ca98 1fbe 648e b33e 30ba adbd acb0 7c3c
00000100: 93b8 8a3d 5ce2 75be 0cce b03a 321e 5d3a
00000110: b8f8 153d eb06 873c 4689 2dbc 7d26 4b3e
00000120: 18d8 923e d097 b9bc fe83 6cbe 4d98 123e
00000130: d555 0dbe 9a1d a23e 1008 3cbe 2a6c 90bd
00000140: b0e9 c03e b973 68be 2cb9 b73c 20f4 a73e
00000150: fa3e 99be 8e26 51bd 60cc c03e 1972 98bd
00000160: ef44 053e a1a9 bb3d 072e 523c 295b c8be
00000170: 6518 dbbe 9b76 8dbe ef23 b8be 141b 8abe
00000180: c43f a93c a215 e9be b21f e9be 5b46 833d
00000190: 7d0d 53be d45d dbbc 6125 933c 1b20 cf3e
000001a0: 6b95 773d d5c7 dabe 5de4 9cbe 1c72 a0be
000001b0: 7f4b 8dbe f209 a9bd 4c6d 1f3e 3aec 983d
000001c0: a67d a938 f0c8 a6ba 772f 023d 12e2 42bf
000001d0: d75d 243d 0260 ba38 42e2 ad3c febb 2d3f
000001e0: 542e c6be 1225 2c3f 71ff b7be c1ac 433e
000001f0: 45e2 9b3e 71a8 9fbe 621e 8c3b f89a 78be
00000200: 29dc 26bd 4ca9 6f3f 16fc 4d3d 3cfe a43d
00000210: e161 9b3e a96b af3e d7cf 3fbe f560 54b9
00000220: 2086 1a3a 9411 2a3e 8c66 5cbf e975 003e
00000230: 2d77 20bf e6f9 973e 44b4 683e f69e 8dbe
00000240: 5cab 7d3e 0a27 933d af65 733e 5b54 11bd
00000250: 5f54 0bbf 8a24 c23e 6207 b7bc eea1 b73e
00000260: 8cda 0f3f e03d ac3e 2755 153e 7be4 c8bd
00000270: c850 b23e b857 ee3d 2224 15ba 32c3 9339
00000280: 3261 363e d044 f6bd 80d9 ad3e f708 10be
00000290: 331b c7bd 1eb1 56be 474a 313d d27b 55be
000002a0: 6236 35be 4a0b 023f 19ab eabe e9ea 1abf
000002b0: 8083 d43e 6baa ca3e 487e 983e e86e f0be
000002c0: 4c47 3f3e ca87 7fbf 0f26 363d 6eeb 0d3f
000002d0: 6eb2 1dbe 89b2 f939 6d34 20ba 12c5 9abb
000002e0: 6a6b 013f 64b8 263e b286 83bd 964f 8e3e
000002f0: fccd 35be 1042 b23e eb95 b83d 49e9 a93f
00000300: 9f7e 683d 5add 37bf 4307 1cbf f754 0e3e
00000310: da1b ff3d a896 583f 661f da3d 19f7 c0bb
00000320: a3be 623e f090 6e3f 79a3 593d 7672 7fbe
00000330: 2a7e 2a3b a8c1 0eba 87d0 cf3c 2792 2dbe
00000340: c5db 7a3f 8fdc 99bd 2a20 6c3e ac03 0bbe
00000350: 3d51 cd3a 8b73 b33d 935e 4d3f 008e da3e
00000360: 55ce 0cbf 48ae 323e f129 9abe e94c 013e
00000370: 3f2d 9b3e f3ee 203e 609f 1fbe 407c e43e
00000380: c1a4 8f3f 07e6 35bf 42bc 37be d6af 233a
00000390: 07cd f439 edbd 173e

phi_to.mlp.mlp.0.bias f4 [10]
-0.00978645 0.28980365 -0.02539483 -0.1424713 0.07509689 0.16085048 -0.034949042 0.06036429
0.011563302 -0.08019504
00000000: 5957 20bc 2561 943e d208 d0bc ffe3 11be
00000010: 66cc 993d fdb5 243e ba26 0fbd 8c40 773d
00000020: 0174 3d3c 4c3d a4bd

phi_to.mlp.mlp.2.weight f4 [10, 10]
0.07877862 0.5492752 -0.78699785 -0.34559712 0.252987 0.1336427 0.1434666 0.2711296
0.17155841 -0.14191385 0.0032202008 -0.3276529 -0.36210397 0.42506656 0.01368122 -0.2787409
0.29755396 -0.40717882 0.14129336 -0.025282362 -0.37542945 -0.09766177 0.1685128 -0.15916139
0.057090696 -0.024352903 -0.26680678 0.32056344 0.6806487 0.08911401 0.165358 0.15082426
-0.16168919 0.05754478 -0.29844818 -0.34114388 0.57388026 0.10140203 -0.44012752 -0.22291858
0.14471874 -0.03217137 -0.52771175 -0.36249164 -0.45988098 0.08643042 -0.44286057 -0.15678011
-0.31212083 -0.006902835 -0.033569757 0.39254355 0.049781196 0.4072471 0.31762266 0.7114697
-0.15946724 0.40355167 0.12778132 0.42775673 -0.2661639 -0.27251497 -0.3704022 -0.1980652
-0.034581203 0.098164245 -0.11483019 0.78071636 -0.051600844 0.070235185 -0.01149346 -0.11014379
0.11476464 -0.15821233 -0.3734685 -0.050281096 0.6215867 0.0795435 -0.2910773 0.0075701373
-0.034613572 0.2978374 -0.3139398 -0.16509278 0.03617262 0.44440556 0.08513246 0.055687252
-0.12943347 0.32216167 0.30599752 0.11561404 -0.051107377 -0.22240654 0.06844729 0.44532868
1.0868722 -0.3273671 0.23670332 -0.24598536
00000000: af56 a13d 4d9d 0c3f b178 49bf 1bf2 b0be
00000010: 8387 813e a2d9 083e e9e8 123e 80d1 8a3e
00000020: 02ad 2f3e dd51 11be 010a 533b 1fc2 a7be
00000030: b165 b9be 53a2 d93e 3227 603c 21b7 8ebe
00000040: fe58 983e be79 d0be 35af 103e f51c cfbc
00000050: 4a38 c0be e502 c8bd 9f8e 2c3e 34fb 22be
00000060: efd7 693d bd7f c7bc e69a 88be e420 a43e
00000070: fe3e 2e3f 6881 b63d 9c53 293e ad71 1a3e
00000080: da91 25be 13b4 6b3d 33ce 98be 69aa aebe
00000090: d1e9 123f deab cf3d 6558 e1be c544 64be
000000a0: 2631 143e 20c6 03bd 1e18 07bf 8198 b9be
000000b0: 8575 ebbe 6f02 b13d 9fbe e2be f78a 20be
000000c0: 4dce 9fbe 2d31 e2bb 7180 09bd 78fb c83e
000000d0: 5ee7 4b3d b182 d03e 709f a23e e122 363f
000000e0: 614b 23be 539e ce3e 1bd9 023e ee02 db3e
000000f0: a246 88be 1587 8bbe 5ba5 bdbe 9bd1 4abe
00000100: 05a5 0dbd 560a c93d 172c ebbd 07dd 473f
00000110: 685b 53bd 77d7 8f3d 114f 3cbc 1193 e1bd
00000120: b909 eb3d 6a02 22be 4337 bfbe 8df3 4dbd
00000130: 4e20 1f3f b4e7 a23d 1508 95be ea0e f83b
00000140: f6c6 0dbd 257e 983e b8bc a0be 150e 29be
00000150: be29 143d 2089 e33e ed59 ae3d 5118 643d
00000160: 358a 04be 60f2 a43e b5ab 9c3e 0ec7 ec3d
00000170: f855 51bd 8abe 63be 182e 8c3d 1f02 e43e
00000180: a11e 8b3f a99c a7be 5b62 723e 96e3 7bbe

phi_to.mlp.mlp.2.bias f4 [10]
-0.009644907 0.071066484 -0.006449007 -0.021755336 0.08575771 -0.0604897 0.10795087 0.028720899
-0.018927315 -0.01644613
00000000: ac05 1ebc 4e8b 913d 3152 d3bb 3f38 b2bc
00000010: bda1 af3d 0cc4 77bd 5915 dd3d 1748 eb3c
00000020: 750d 9bbc 09ba 86bc

phi_from.mlp.mlp.0.weight f4 [10, 23]
0.09315075 -0.11466163 0.45378536 -0.5448937 0.19465214 -0.38746518 0.18736671 -0.00013343555
-0.21708405 -0.10071748 0.5563164 -0.032893408 -0.16710852 -0.3471895 -0.2945664 -0.08276862
-0.0732515 -0.13952646 -0.20921254 -0.12645745 -0.0021379439 -0.0029144248 -0.11688069 0.19045274
-0.3389457 0.05132494 0.009558104 -0.17784336 0.15426476 0.0018165512 0.51480854 -0.11146266
-0.39462966 -0.10334303 0.19172612 0.50579596 0.20732568 -0.26905224 0.4325109 0.21627544
0.051865004 -0.008500338 0.4742455 -0.0006304178 -0.0006090218 -0.047470927 0.02728516 0.05877416
0.13447313 -0.3109554 0.343387 0.39633468 -0.00811992 0.41975838 0.10591232 -0.106275335
-0.14336507 -0.29576644 -0.121872894 -0.2710878 0.13476902 0.34087393 -0.4454862 -0.09816346
-0.38535786 -0.13108237 -0.002215322 -0.0026410506 0.087564796 0.38649657 -0.067839585 -0.31453463
-0.1897352 -0.091989696 0.54586357 0.4982983 -0.12398456 0.00019524543 -0.26909116 0.27104154
0.09140727 0.35459718 -0.22501867 -0.21041515 0.30236247 0.54877895 0.1556338 0.15099007
0.32947198 -0.0010904368 0.0019377889 -0.0805349 -0.03153344 0.2366528 -0.5113104 0.17822385
-0.5731906 0.15092415 0.31060332 0.30945325 0.14681116 -0.17529431 0.09125057 0.25927925
-0.16709532 0.028945783 0.31576934 0.30350974 -0.20731486 -0.3701478 0.4115564 0.23452957
-0.0025868537 0.00019961876 -0.0069845305 0.0753024 0.35867715 0.30243018 0.2506389 0.010221171
-0.1911676 -0.5786541 0.39912942 0.2385743 0.2348503 0.0305751 0.03666687 0.16887087
0.07884716 -0.4833569 -0.22960967 0.26779142 -0.23032495 -0.46766835 -0.028199514 -0.0006430999
-0.00091779616 -0.11076672 0.19410019 0.28445202 0.27665943 -0.21608359 0.04944931 0.0550388
0.12252087 -0.12280945 -0.19576176 -0.8377151 0.20147085 0.21486399 0.30107763 -0.10211235
-0.25151873 -0.08518031 -0.16212115 -0.29946047 -0.34935713 0.013341562 -0.0015844367 -0.0018217473
-0.013132956 0.3926274 -0.53882754 -0.14470994 -0.66554636 -0.35660824 -0.37866253 0.36398876
-0.20477925 0.17291945 -0.43376735 0.30568856 0.33697635 0.45923617 0.27537784 -0.5870676
0.3687679 0.468751 -0.39331698 0.5602269 -0.084916495 -0.0002865981 -0.0002689147 -0.2435298
0.5527342 -0.0630576 0.103627704 0.09464481 -0.093078375 -0.29664823 -0.27892318 0.00052923633
-0.57038903 -0.16991034 0.4942858 0.148209 0.15599197 -0.3183445 -0.08632036 -0.5115734
-0.177678 -0.06906343 0.22978923 0.22844422 -2.854783e-07 0.00061678904 -0.1445066 -0.6569828
-0.21513414 -0.07485731 0.39360666 0.0791106 0.24953137 -0.4434862 0.08980177 -0.49124938
-0.34443474 -0.28652233 0.33537155 0.33699238 -0.28212813 0.35517824 -0.096769534 -0.3708588
-0.19764175 0.14345418 0.28620386 0.0030295553 0.0026681584 0.11443165
00000000: d2c5 be3d b7d3 eabd 8e56 e83e 277e 0bbf
00000010: e452 473e d661 c6be 0fdd 3f3e d5ea 0bb9
00000020: 484b 5ebe f744 cebd c06a 0e3f 3dbb 06bd
00000030: 7f1e 2bbe d2c2 b1be 68d1 96be 9882 a9bd
00000040: e204 96bd 06e0 0ebe d03b 56be 107e 01be
00000050: bf1c 0cbb efff 3ebb 255f efbd 0b06 433e
00000060: 4a8a adbe 1a3a 523d 9899 1c3c 921c 36be
00000070: 95f7 1d3e 5819 ee3a 7eca 033f 8946 e4bd
00000080: e60c cabe 83a5 d3bd da53 443e d87b 013f
00000090: 2f4d 543e 37c1 89be 1272 dd3e 4f77 5d3e
000000a0: 6670 543d 0045 0bbc 4ed0 f23e 9f42 25ba
000000b0: c3a6 1fba e070 42bd 2185 df3c 2cbd 703d
000000c0: 53b3 093e 8c35 9fbe 6cd0 af3e 61ec ca3e
000000d0: 6a09 05bc 92ea d63e 8fe8 d83d e2a6 d9bd
000000e0: 4bce 12be b36e 97be 7f98 f9bd 05cc 8abe
000000f0: e400 0a3e 0787 ae3e c416 e4be ed09 c9bd
00000100: a04d c5be 753a 06be f02e 11bb 7a15 2dbb
00000110: 2c55 b33d e1e2 c53e 7bef 8abd af0a a1be
00000120: f249 42be 1865 bcbd b7bd 0b3f f420 ff3e
00000130: 9eeb fdbd ccba 4c39 51c6 89be f5c5 8a3e
00000140: bc33 bb3d c38d b53e 4b6b 66be 1277 57be
00000150: 41cf 9a3e c77c 0c3f 785e 1f3e 249d 1a3e
00000160: 8db0 a83e fdec 8eba 68fd fd3a 7bef a4bd
00000170: 3529 01bd 1d55 723e 3de5 02bf 5080 363e
00000180: 9fbc 12bf dc8b 1a3e 6607 9f3e a870 9e3e
00000190: aa55 163e 5a80 33be 94e1 ba3d 40c0 843e
000001a0: 091b 2bbe b51f ed3c 85ac a13e a165 9b3e
000001b0: 594a 54be 0384 bdbe 85b7 d23e 8528 703e
000001c0: 3488 29bb c150 5139 7dde e4bb 2538 9a3d
000001d0: 88a4 b73e 21d8 9a3e be53 803e b376 273c
000001e0: 70c1 43be ad22 14bf b15a cc3e d24c 743e
000001f0: 997c 703e a278 fa3c 0030 163d 7cec 2c3e
00000200: 9f7a a13d 8e7a f7be cc1e 6bbe f51b 893e
00000210: 4eda 6bbe 3a72 efbe ab02 e7bc b495 28ba
00000220: 4298 70ba a9d9 e2bd 33c2 463e b2a3 913e
00000230: 4ea6 8d3e 0445 5dbe 5c8b 4a3d 5d70 613d
00000240: 39ec fa3d 8583 fbbd c575 48be 7f74 56bf
00000250: 604e 4e3e 4e05 5c3e d926 9a3e 4820 d1bd
00000260: 10c7 80be 0473 aebd 1603 26be e252 99be
00000270: f0de b2be 9196 5a3c e0ac cfba b2c7 eeba
00000280: 9c2b 57bc 7506 c93e 9af0 09bf d82e 14be
00000290: 3f61 2abf 5b95 b6be 0ee0 c1be bc5c ba3e
000002a0: a7b1 51be cc11 313e c116 debe 3683 9c3e
000002b0: 2a88 ac3e 0121 eb3e 53fe 8c3e 104a 16bf
000002c0: 25cf bc3e 2200 f03e d860 c9be 086b 0f3f
000002d0: b3e8 adbd 8c42 96b9 1ffd 8cb9 e05f 79be
000002e0: fd7f 0d3f 5824 81bd c33a d43d 23d5 c13d
000002f0: e09f bebd 47e2 97be 05cf 8ebe 73bc 0a3a
00000300: 0405 12bf fafc 2dbe 0713 fd3e 1ac4 173e
00000310: 5cbc 1f3e 0dfe a2be bbc8 b0bd 79f6 02bf
00000320: 39f1 35be 2171 8dbd de4d 6b3e 48ed 693e
00000330: d743 99b4 03b0 213a 8af9 13be 0630 28bf
00000340: 204c 5cbe ca4e 99bd d086 c93e bd04 a23d
00000350: 2785 7f3e a010 e3be fee9 b73d 0a85 fbbe
00000360: c059 b0be 0eb3 92be d2b5 ab3e 448a ac3e
00000370: 1973 90be ecd9 b53e 1b2f c6bd 34e1 bdbe
00000380: 9962 4abe a7e5 123e 5089 923e 818b 463b
00000390: 45dc 2e3b 245b ea3d

phi_from.mlp.mlp.0.bias f4 [10]
0.1750538 0.13183422 0.024891526 0.15535194 0.14400579 0.079572506 0.08008779 0.0956242
0.15860876 0.12470323
00000000: 4e41 333e 8dff 063e 50e9 cb3c 9414 1f3e
00000010: 4176 133e e9f6 a23d 1105 a43d 9fd6 c33d
00000020: 566a 223e 6864 ff3d

phi_from.mlp.mlp.2.weight f4 [10, 10]
-0.08700743 -0.67895234 0.2679756 -0.13948381 0.3449693 0.14898995 -0.42593506 -0.027395232
-0.6296409 -0.46166444 0.11268175 0.056720328 -0.18155244 -0.09835912 -0.24082017 0.27816254
0.4236611 -0.19345167 0.15424462 -0.46622574 -0.4026381 0.6588623 0.47090527 0.29288006
-0.19748555 -0.41455194 -0.025398511 -0.88199043 0.33565125 -0.49307352 0.20408973 0.2735852
-0.04668802 0.052009206 0.3148211 -0.30218837 -0.60522145 -0.50947964 -0.37623897 0.22391778
-0.49405023 0.5570734 -0.024428114 0.29876712 -0.4320007 -0.3009874 -0.2790573 -0.48880076
0.6905909 -0.19069037 -0.33019122 0.19713624 -0.23508918 -0.21881905 0.5256873 -0.104729064
-0.022028536 -0.13523257 -0.7111462 0.13221912 0.21606164 -0.10377788 -0.055541378 0.29458377
-0.27021873 -0.39728758 -0.02870976 0.36080477 0.06899769 0.064191595 -0.41138113 -0.5277566
0.097483665 0.52798307 -0.3153295 -0.47951287 -0.3689251 -0.5387593 -0.43678647 0.040512174
-0.019470394 -0.2283646 0.52354485 -0.10307654 -0.1529703 0.6226901 -0.37794125 -0.23285274
-0.71618927 0.06723131 -0.46070173 -0.48634505 -0.08871238 -0.0752924 0.58016723 -0.052466955
-0.4344773 0.33463675 0.3899558 0.22474103
00000000: f430 b2bd d2cf 2dbf 1934 893e d8d4 0ebe
00000010: d19f b03e d290 183e 2914 dabe f76b e0bc
00000020: 2530 21bf 485f ecbe b0c5 e63d 9353 683d
00000030: e2e8 39be 8270 c9bd 9099 76be 526b 8e3e
00000040: 1cea d83e 3218 46be 4df2 1d3e 24b5 eebe
00000050: 9526 cebe 33ab 283f 7f1a f13e 60f4 953e
00000060: a739 4abe 2740 d4be 8a10 d0bc 20ca 61bf
00000070: 7bda ab3e 2274 fcbe e6fc 503e 5c13 8c3e
00000080: f03b 3fbd 9b07 553d 3b30 a13e 6fb8 9abe
00000090: cbef 1abf 426d 02bf 65a2 c0be b44a 653e
000000a0: 27f4 fcbe 5d9c 0e3f 781d c8bc 01f8 983e
000000b0: 322f ddbe 051b 9abe 99e0 8ebe 1844 fabe
000000c0: 91ca 303f 5644 43be d30e a9be 15de 493e
000000d0: 38bb 70be 1a12 60be 7193 063f 317c d6bd
000000e0: 3075 b4bc 687a 0abe ad0d 36bf 7364 073e
000000f0: 433f 5d3e 7f89 d4bd 5b7f 63bd afd3 963e
00000100: 1c5a 8abe 4769 cbbe bb30 ebbc 67bb b83e
00000110: a94e 8d3d e276 833d 8ca0 d2be 0e1b 07bf
00000120: 84a5 c73d e629 073f de72 a1be b682 f5be
00000130: c0e3 bcbe 21ec 09bf 7aa2 dfbe 18f0 253d
00000140: 6080 9fbc 69d8 69be 0907 063f cb19 d3bd
00000150: 3fa4 1cbe 9e68 1f3f 8481 c1be f370 6ebe
00000160: 2e58 37bf 92b0 893d 19e1 ebbe 3802 f9be
00000170: d6ae b5bd e732 9abd d785 143f 97e7 56bd
00000180: cf73 debe 8255 ab3e 49a8 c73e 8322 663e

phi_from.mlp.mlp.2.bias f4 [10]
0.11520528 0.14380236 0.051126525 -0.044851147 -0.018185347 -0.065860614 -0.038077716 0.19876516
-0.009497504 -0.11836742
00000000: bff0 eb3d ed40 133e 0c6a 513d d6b5 37bd
00000010: 70f9 94bc eee1 86bd 61f7 1bbd 1889 4b3e
00000020: 6b9b 1bbc 9e6a f2bd

z_k.mlp.0.weight f4 [10, 32]
0.16868544 -0.34089804 -0.15707506 0.10351256 -0.31932595 -0.46052516 0.2383097 0.5876995
-0.048227508 -0.10611061 0.39227533 0.123919755 0.15870252 -0.17419375 0.096302964 0.28631908
-0.37091282 -1.0989741 0.7394897 -0.10853054 0.49634078 0.10430782 -0.92409706 -0.3701186
0.3333962 0.27273893 0.99766386 -0.74111575 0.3263401 0.45743522 -0.003581313 -0.08906997
0.66225123 -0.0017995804 0.050222583 -0.21940179 0.024827005 0.15835498 -1.0207647 0.026815845
0.16630566 -0.318544 0.2619327 0.58945566 -0.28296244 -1.3414321 -0.16516095 0.53238297
0.33600676 -0.4416204 -0.9791312 0.36918 -0.059938207 0.38595727 -0.6311554 -0.55752915
-0.4916915 0.38534132 0.30200657 -0.1266184 -0.29499066 0.6421935 0.014044512 -0.09121264
0.3099828 0.14807945 -0.1502498 0.09576654 -0.03590361 -0.10532204 -1.2123251 0.07754963
0.23930246 -0.018442975 -0.3150056 0.20469153 -0.25198552 -0.7178106 -0.60580593 -0.09550744
0.24737501 0.20087211 -0.3059684 -0.018561227 0.11502539 0.16396227 -0.8860781 -0.002813107
-0.117273316 0.32523036 0.2779792 -0.7842844 0.17801815 0.36635596 -0.0092558125 -0.045763567
0.34874022 -0.06673371 0.2031376 0.11459097 0.009917749 -0.48102498 1.0303694 0.053333994
-0.21876165 -0.027744984 -0.027657464 -0.42234117 0.23184659 0.2702038 0.09129106 -0.0912749
0.042872593 0.024594253 -0.019488601 0.23936449 0.016449 0.16092707 -0.44338977 -0.3389365
0.25772175 0.059917763 0.2589847 -0.35673285 0.054304387 0.415221 0.007804995 -0.037178084
0.5760551 -0.30963612 0.0797144 -0.30743513 0.12557279 -0.55070597 0.75742894 0.14882189
-0.005784371 -0.40120798 -0.058569733 0.17500341 0.557414 -0.08352464 0.25196978 -0.53269804
-0.85542494 0.3647358 -0.19924644 -0.17225507 0.1397651 0.011116827 -0.634289 -0.20825227
0.13848895 0.118615426 -0.043620992 -0.52312183 0.1442434 -0.14323953 -0.0018042057 -0.34392348
0.24296305 -0.1965883 0.20223519 -0.05894887 -0.33206612 -0.51980597 0.61859214 0.11930611
0.017358217 0.04501742 0.03392401 0.20185001 0.060368307 -0.03325356 0.054143038 0.2199699
-0.11717724 -0.76462334 -0.57897836 0.55538887 0.32369408 -0.23329729 -0.8551703 -0.2534914
0.05645695 0.32356498 0.058393735 -0.33401734 -0.21493407 0.084893726 0.0065538916 0.33961877
1.1118134 0.2852048 0.5631365 -0.14132524 -0.04890628 0.09354333 -1.0149733 0.08797128
0.7212811 -0.21769613 0.26788032 0.406699 -0.085991755 0.12012519 -0.56625164 -0.1849297
0.585633 -0.40509874 -1.4540315 -0.3698503 0.87973857 0.0032107066 -0.8860394 -0.5375177
0.61236626 1.038519 0.32426667 -0.1884094 -0.11664498 0.8489744 2.9673247e-05 -0.46891806
-0.9465454 -0.012264605 0.058029495 -0.19028509 -0.45417762 0.054979447 -0.25317043 1.6436303
-0.12128119 -0.31459355 -0.2857695 -0.18451594 -0.3572158 -0.16419369 0.085127234 -0.048406824
0.42133376 0.36668286 -0.19449513 0.2875926 0.11990556 -0.20917019 -0.6852425 -0.32285225
0.22013922 -0.10445643 0.57107216 -0.43816808 0.2713863 0.59118664 0.022241132 -0.0763173
00000000: e0bb 2c3e 308a aebe 49d8 20be 65fe d33d
00000010: b17e a3be f4c9 ebbe 7507 743e 7973 163f
00000020: 358a 45bd 8550 d9bd 50d8 c83e a4c9 fd3d
00000030: ea82 223e d95f 32be 7d3a c53d 6a98 923e
00000040: 49e8 bdbe 2fab 8cbf 324f 3d3f 4245 debd
00000050: 6120 fe3e 579f d53d a091 6cbf 2f80 bdbe
00000060: e8b2 aa3e 70a4 8b3e e666 7f3f c3b9 3dbf
00000070: 0d16 a73e f334 ea3e 76b4 6abb 516a b6bd
00000080: 4c89 293f e6df ebba 32b6 4d3d ddaa 60be
00000090: 0162 cb3c cf27 223e 6ba8 82bf e7ac db3c
000000a0: 084c 2a3e 3318 a3be 0b1c 863e 91e6 163f
000000b0: 74e0 90be 0cb4 abbf f41f 29be 404a 083f
000000c0: 1409 ac3e 121c e2be 58a8 7abf 2905 bd3e
000000d0: c481 75bd 319c c53e 6693 21bf 3bba 0ebf
000000e0: fdbe fbbe 754b c53e 9ba0 9a3e 41a8 01be
000000f0: 0409 97be cb66 243f f41a 663c b1cd babd
00000100: 11b6 9e3e 24a2 173e 15db 19be 3f21 c43d
00000110: aa0f 13bd 15b3 d7bd 782d 9bbf 57d2 9e3d
00000120: b40b 753e b915 97bc 6a48 a1be a89a 513e
00000130: 3f04 81be 6fc2 37bf 1916 1bbf 6899 c3bd
00000140: e04f 7d3e 6bb1 4d3e e4a7 9cbe b70d 98bc
00000150: 6f92 eb3d bae5 273e 04d6 62bf 1b5c 38bb
00000160: fe2c f0bd 9884 a63e 4a53 8e3e ddc6 48bf
00000170: 644a 363e 0293 bb3e b1a5 17bc 9472 3bbd
00000180: 148e b23e afab 88bd 4e03 503e acae ea3d
00000190: 0e7e 223c e848 f6be 25e3 833f bf74 5a3d
000001a0: 0e03 60be 7349 e3bc e891 e2bc 1a3d d8be
000001b0: 3169 6d3e 2758 8a3e cff6 ba3d 56ee babd
000001c0: 2c9b 2f3d e379 c93c 8fa6 9fbc f71b 753e
000001d0: 0ec0 863c 11ca 243e fc03 e3be 1689 adbe
000001e0: 1bf4 833e 546c 753d a599 843e b0a5 b6be
000001f0: 476e 5e3d d997 d43e 0bc1 ff3b 0c48 18bd
00000200: 5978 133f a088 9ebe 4e41 a33d 2368 9dbe
00000210: 2796 003e 11fb 0cbf dde6 413f c464 183e
00000220: d28a bdbb 226b cdbe d1e6 6fbd 1834 333e
00000230: afb2 0e3f f70e abbd 2f02 813e e65e 08bf
00000240: 21fd 5abf a7be ba3e 4207 4cbe a263 30be
00000250: 951e 0f3e 5a23 363c c460 22bf 1540 55be
00000260: 0cd0 0d3e a5ec f23d edab 32bd 50eb 05bf
00000270: 8bb4 133e 62ad 12be 197b ecba bd16 b0be
00000280: 4ecb 783e 714e 49be be16 4f3e 5f74 71bd
00000290: 9204 aabe 0112 05bf 0e5c 1e3f c356 f43d
000002a0: d232 8e3c 3064 383d e7f3 0a3d c5b1 4e3e
000002b0: c244 773d e334 08bd 17c5 5d3d ca3f 613e
000002c0: 9ffa efbd 5bbe 43bf ed37 14bf f72d 0e3f
000002d0: 3bbb a53e 7ce5 6ebe 71ec 5abf a0c9 81be
000002e0: 673f 673d 4faa a53e 452e 6f3d 5204 abbe
000002f0: ad17 5cbe c3dc ad3d 07c2 d63b 83e2 ad3e
00000300: e74f 8e3f 5d06 923e b729 103f 90b7 10be
00000310: f451 48bd a593 bf3d a5ea 81bf 492a b43d
00000320: e1a5 383f bceb 5ebe 9c27 893e da3a d03e
00000330: 721c b0bd 3204 f63d def5 10bf 365e 3dbe
00000340: 0bec 153f 1a69 cfbe b41d babf 055d bdbe
00000350: 8c36 613f b86a 523b 7ad3 62bf c39a 09bf
00000360: 09c4 1c3f 31ee 843f 4806 a63e 65ee 40be
00000370: 90e3 eebd 6356 593f d0ea f837 0716 f0be
00000380: cd50 72bf 7bf1 48bc 56b0 6d3d 18da 42be
00000390: f889 e8be 2132 613d 8e9f 81be 7a62 d23f
000003a0: 4662 f8bd 6812 a1be 6150 92be bff1 3cbe
000003b0: fde4 b6be 6422 28be 3057 ae3d 3c46 46bd
000003c0: 0fb9 d73e dbbd bb3e bb29 47be 563f 933e
000003d0: 0c91 f53d b630 56be 0d6c 2fbf e44c a5be
000003e0: 2d6c 613e 41ed d5bd c931 123f 9157 e0be
000003f0: 25f3 8a3e 0258 173f 0933 b63c 3f4c 9cbd

z_k.mlp.0.bias f4 [10]
0.13329291 0.40556332 -0.16939737 -0.062469106 -0.12261417 -0.02842365 -0.64308184 -0.10366509
0.05619442 0.09530058
00000000: f07d 083e ffa5 cf3e 8176 2dbe 9bdf 7fbd
00000010: 231d fbbd b7d8 e8bc 03a1 24bf 5d4e d4bd
00000020: 1f2c 663d f32c c33d

r_k.mlp.0.weight f4 [10, 32]
0.85223746 -0.16490746 0.24458715 -0.21617621 -1.6726414 -0.01538461 0.2542849 -0.17078261
0.12619524 0.13884313 -0.17573565 -0.28670147 -0.1763534 -0.13992563 -0.13309656 -0.2608155
-0.71475923 -0.4336116 -0.10692868 -0.10048452 -0.37536308 -0.11867386 0.25770476 0.19840685
-0.71654665 0.82169926 -0.16922252 0.050632212 0.91032296 -0.12675522 0.41519675 -0.013072382
0.42466956 0.33929715 -0.29484513 0.33072665 -0.4372411 0.08456817 0.21510933 0.15055135
-0.6374002 -0.26735923 0.0063244705 0.3289094 -0.3515871 -0.017047334 -0.26397973 0.26471648
-0.0031416006 -0.33063427 0.4539992 -0.22639376 -0.108576894 -0.14974281 0.231831 -0.23368083
-0.45739046 0.12080993 -0.22090685 -0.25990087 -0.13663733 -0.23135349 -0.007707737 -0.31026822
-0.15238643 0.43297026 0.16148394 -0.05679808 0.25363776 -0.47327504 0.8311661 0.054838225
0.4509588 -0.35379976 0.49474144 0.09350641 -0.74939156 0.37755895 0.65267324 0.51768863
0.059205275 0.111260734 0.59298646 0.31507626 -0.19408804 -0.60507876 -0.47723207 0.34002203
0.24006608 -0.27250156 0.40728182 -0.15747637 -0.019774493 0.4340286 -0.030033262 -0.2585397
-0.39679295 0.069772124 -0.69121975 0.13820928 -0.6640372 -0.100470796 0.30364186 -0.31765234
-0.8426223 -0.033251144 0.033885464 -0.17139496 0.12959181 -0.07325253 -2.1063914 0.17871712
-0.39939258 -0.13146068 -0.63252324 0.4689659 -0.1057455 -0.09641465 -0.22296628 0.07261797
-0.45246097 0.8821269 -1.1343845 0.07496943 0.34258083 -0.8149719 0.04989997 0.1222823
0.83194584 0.092052765 0.16004285 -0.24342254 0.35372123 -0.3022635 0.15935437 -0.624019
0.45085716 0.43624073 0.13616303 0.13604997 -0.15743442 -0.5716066 -0.1125696 0.5857408
0.07712062 -0.85798573 -0.10191633 0.2543926 0.06566454 0.1866446 0.318721 0.3813909
0.3133109 0.5425107 0.29999152 0.32115844 0.18910284 -0.31050512 -0.13358375 -0.25007436
0.70130664 -0.23266384 -0.061457124 0.67255354 -0.6791301 0.19014715 -0.14114657 -0.553038
0.3461607 0.17031187 -0.4980668 0.64441633 0.11240506 0.16599768 -0.34679663 -0.4371573
-0.49719045 -0.19325952 0.22753812 0.20607646 0.5348641 -0.08052233 0.019507194 -0.17375411
-0.02788699 0.08308682 -0.5124705 -0.4676144 0.29929706 -0.19636306 0.16441135 -0.25558037
-0.32149523 -0.12165906 0.03587254 0.026963614 -0.10805503 0.030691829 -0.47464186 0.06361748
-0.16298164 -0.38171542 -0.25109574 0.4298264 -0.3383542 -0.60272896 -0.040330786 0.117831804
-0.48702633 -0.13976243 -0.29609707 -0.124237366 0.5166627 -0.11165703 0.73400015 -0.077269316
-0.102655455 -0.54600495 0.14485097 0.7462468 -0.030821243 -0.38375077 -0.15418026 -0.12878066
0.24932097 -0.5339102 -0.24870676 0.13411944 -0.4108044 0.29452378 -0.19454665 -0.06783313
-0.055961486 -0.24569705 -0.27138686 0.20681593 0.33604598 0.5081483 0.32367405 0.15860344
-0.37118688 0.13512196 0.11663536 -0.3108463 0.23903233 0.21160573 -0.19663452 0.26734
-0.14274561 -0.54548085 -0.46429768 -0.43942088 0.20541875 -0.32609984 -0.029867603 -0.18868762
00000000: 3c2c 5a3f 80dd 28be 0e75 7a3e 4c5d 5dbe
00000010: 1d19 d6bf bb0f 7cbc a131 823e a3e1 2ebe
00000020: 5339 013e e52c 0e3e 0cf4 33be 89ca 92be
00000030: fc95 34be aa48 0fbe 774a 08be 9c89 85be
00000040: 76fa 36bf 5702 debe 6cfd dabd d4ca cdbd
00000050: 972f c0be 480b f3bd e1f1 833e 2a2b 4b3e
00000060: 9a6f 37bf e25a 523f ab48 2dbe b963 4f3d
00000070: ed0a 693f 1fcc 01be ab94 d43e 8b2d 56bc
00000080: 4a6e d93e 5bb8 ad3e f1f5 96be 0155 a93e
00000090: 11de dfbe 1432 ad3d 9f45 5c3e 222a 1a3e
000000a0: a92c 23bf 4fe3 88be 813d cf3b d066 a83e
000000b0: 3903 b4be daa6 8bbc 5a28 87be eb88 873e
000000c0: 50e3 4dbb e548 a9be 9572 e83e c4d3 67be
000000d0: 905d debd 2e56 19be 1b65 6d3e 074a 6fbe
000000e0: 152f eabe 326b f73d 6835 62be ba11 85be
000000f0: a8ea 0bbe eee7 6cbe 2f91 fcbb 7adb 9ebe
00000100: 300b 1cbe 47ae dd3e 0c5c 253e 1ba5 68bd
00000110: cfdc 813e 1b51 f2be 4dc7 543f 0c9e 603d
00000120: 12e4 e63e 3e25 b5be c04e fd3e 4a80 bf3d
00000130: 20d8 3fbf 684f c13e 9815 273f 3e87 043f
00000140: 3b81 723d abdc e33d f6cd 173f ad51 a13e
00000150: 04bf 46be 71e6 1abf c357 f4be 5e17 ae3e
00000160: e2d3 753e 5385 8bbe 3e87 d03e 7c41 21be
00000170: 1efe a1bc ff38 de3e 5108 f6bc 515f 84be
00000180: 7228 cbbe b0e4 8e3d c7f3 30bf bc86 0d3e
00000190: 58fe 29bf a2c3 cdbd f276 9b3e 54a3 a2be
000001a0: 18b6 57bf 5a32 08bd 7ccb 0a3d 2982 2fbe
000001b0: b7b3 043e 6c05 96bd 1ecf 06c0 9f01 373e
000001c0: 2f7d ccbe a19d 06be 0bed 21bf 4c1c f03e
000001d0: 1991 d8bd 0b75 c5bd 4651 64be bbb8 943d
000001e0: f7a8 e7be 12d3 613f 8333 91bf 9389 993d
000001f0: c166 af3e 00a2 50bf e963 4c3d 246f fa3d
00000200: 67fa 543f 2986 bc3d 46e2 233e c243 79be
00000210: f31a b53e 48c2 9abe cb2d 233e b6bf 1fbf
00000220: c0d6 e63e f25a df3e 526e 0b3e af50 0b3e
00000230: 7d36 21be cf54 12bf e48a e6bd 1cf3 153f
00000240: 6af1 9d3d f4a4 5bbf 82b9 d0bd bf3f 823e
00000250: 217b 863d c31f 3f3e 662f a33e ab45 c33e
00000260: 496a a03e fbe1 0a3f 7d98 993e e16e a43e
00000270: 2da4 413e 87fa 9ebe 2eca 08be bf09 80be
00000280: d588 333f 6e3f 6ebe 77ba 7bbd 782c 2c3f
00000290: 78db 2dbf efb5 423e ba88 10be e693 0dbf
000002a0: fa3b b13e 3c66 2e3e 9d02 ffbe 78f8 243f
000002b0: a034 e63d 4cfb 293e 548f b1be 15d3 dfbe
000002c0: bf8f febe d3e5 45be c1ff 683e b505 533e
000002d0: dbec 083f e4e8 a4bd 8dcd 9f3c 99ec 31be
000002e0: 4273 e4bc 6c29 aa3d 4431 03bf 286b efbe
000002f0: 773d 993e 6613 49be 735b 283e 6edb 82be
00000300: 069b a4be 6328 f9bd 16ef 123d cce2 dc3c
00000310: f54b ddbd 6e6d fb3c 4204 f3be e249 823d
00000320: a9e4 26be 3470 c3be 9f8f 80be 3512 dc3e
00000330: c33c adbe 724c 1abf e531 25bd cd51 f13d
00000340: 845b f9be e21d 0fbe 099a 97be 2970 febd
00000350: 0244 043f 71ac e4bd 6fe7 3b3f 603f 9ebd
00000360: 063d d2bd fbc6 0bbf d053 143e 080a 3f3f
00000370: d57c fcbc fb7a c4be 6ee1 1dbe 14df 03be
00000380: ff4d 7f3e 57ae 08bf fcac 7ebe 9b56 093e
00000390: f454 d2be d2cb 963e 3d37 47be 19ec 8abd
000003a0: df37 65bd 0298 7bbe 38f3 8abe 8ec7 533e
000003b0: 380e ac3e 0216 023f 9bb8 a53e f168 223e
000003c0: 350c bebe 695d 0a3e 85de ee3d 3f27 9fbe
000003d0: e4c4 743e 2caf 583e 8f5a 49be cae0 883e
000003e0: e82b 12be a2a4 0bbf 6db8 edbe c6fb e0be
000003f0: 4b59 523e 8ff6 a6be e7ac f4bc 5437 41be

r_k.mlp.0.bias f4 [10]
-0.37070724 -0.053715542 -0.29685578 -0.020620368 -0.18535665 -0.13384782 0.08418994 0.036114164
-0.17529032 0.09766042
00000000: 57cd bdbe d404 5cbd 7bfd 97be 0cec a8bc
00000010: 22ce 3dbe 670f 09be c66b ac3d 72ec 133d
00000020: 4e7f 33be 3002 c83d

correction.mlp.0.weight f4 [10, 32]
-0.37438428 -0.23605625 -0.24065664 0.30226722 0.20229414 -0.07732569 0.115476795 0.027091676
0.07383748 0.2804935 -0.26854938 0.18573494 -0.04713046 -0.10818352 0.24402821 0.23278844
0.09162073 0.23645607 0.21475896 0.21329099 0.18826073 -0.33566776 -0.60733736 0.13970992
0.033197265 0.062937506 -0.128593 0.08394199 0.136378 -0.20908372 -0.009708694 -0.35077035
0.109022886 -0.30761406 -0.31330746 -0.06961074 -0.19379401 -0.013878068 0.63456184 0.021847855
0.23191883 -0.38718215 0.18602954 -0.03606878 0.14873096 -0.2796516 0.14710203 0.056863412
0.039227705 -0.028439285 -0.018332789 0.004404869 -0.09351969 -0.3402628 -0.23586607 0.19108492
0.29595864 0.016681774 -0.12059316 -0.20395036 -0.12918828 -0.11949961 0.008925198 0.42125297
-0.28186706 -0.10371301 -0.4101976 0.22327709 0.012113238 0.17728548 0.29818222 -0.028636731
0.23976262 -0.017139867 0.033654753 -0.26015472 -0.14347914 -0.007811279 -0.2538929 -0.12486674
0.1832285 0.11064393 0.10258645 -0.20236667 -0.082445644 -0.34416744 -0.0519008 0.14052278
0.11817172 0.3086801 -0.31544378 -0.0044988724 -0.3840159 0.43473563 0.0028599629 -0.21539953
-0.32300016 -0.23604073 -0.14993185 -0.6777032 -0.17450777 0.12688003 0.3690878 -0.21701722
-0.2010436 -0.013743569 -0.06262431 0.008732916 -0.3969223 -0.15319498 -0.2189771 0.043629616
-0.2474104 0.011972291 -0.0400357 -0.19932677 0.22887921 0.11215243 0.080881655 0.13980657
-0.28313217 -0.38529652 0.43468124 0.103298254 -0.21089071 -0.34873354 -0.004571513 -0.20847969
-0.32886085 0.3388526 -0.12419424 -0.033502705 0.009551228 0.3564974 -0.43501678 -0.25012478
-0.07012822 -0.10958287 0.31292227 0.31212786 -0.37486044 -0.07147054 0.03849179 -0.36782485
-0.025079831 -0.11882407 0.13820559 -0.08061312 0.12986207 0.29042795 -0.047696665 0.27817833
0.0038076355 0.2930195 -0.15099367 -0.09171764 -0.24549465 -0.07337668 0.0007247545 -0.24176879
0.22084087 0.06322901 -0.32697457 0.07853542 0.43848556 -0.71360344 0.08767817 0.7855976
-0.21484958 -0.1825903 -0.22920908 -0.04889822 0.0459627 -0.22041474 0.03263712 0.38093278
0.17234021 -0.21118855 0.19310603 0.041914143 -0.12905753 0.2293901 -0.16360274 0.3698637
-0.020501688 -0.047531378 -0.10136838 -0.44308087 -0.030557457 -0.13878655 0.010128617 -0.0013334565
-0.35195002 0.16063364 -0.0055467337 -0.024592817 -0.36283544 -0.030103793 -0.8019575 0.07745092
-0.23180813 0.657038 -0.09158999 -0.12009602 0.20932455 -0.040944 0.10332138 0.31802434
0.019983316 0.18423891 -0.3317308 0.060826343 0.25866836 -0.20924054 -0.28226635 0.050952207
0.2581536 -0.21564415 -0.12883486 -0.09248851 0.30391267 0.122710966 -0.008434495 0.36049446
0.24214168 -0.5189283 0.13055441 -0.2040345 -0.010395878 -0.0234158 -0.47544464 -0.47618607
-0.059942916 0.045122996 -0.020868741 -0.021425629 -0.34991515 0.0893826 0.01206089 -0.38208935
-0.013366435 0.06663474 0.14670119 0.03695035 0.123532414 0.15360613 -0.26208043 0.11836955
-0.24999411 -0.09843687 0.06739275 0.41570157 -0.3815522 -0.052450933 0.002596399 0.25361058
00000000: 4caf bfbe bbb8 71be b26e 76be c5c2 9a3e
00000010: 3226 4f3e ee5c 9ebd 197f ec3d 5def dd3c
00000020: 1b38 973d d89c 8f3e 4e7f 89be 4d31 3e3e
00000030: df0b 41bd 528f ddbd 88e2 793e 1860 6e3e
00000040: a6a3 bb3d 8a21 723e c6e9 5b3e f468 5a3e
00000050: 6cc7 403e a5dc abbe 767a 1bbf 1e10 0f3e
00000060: dbf9 073d 61e5 803d e2ad 03be c7e9 ab3d
00000070: ada6 0b3e 0b1a 56be 3711 1fbc 2c98 b3be
00000080: 6447 df3d 977f 9dbe d669 a0be 1390 8ebd
00000090: f071 46be d660 63bc a572 223f 46fa b23c
000000a0: 217c 6d3e bd3c c6be 877e 3e3e dbbc 13bd
000000b0: ee4c 183e 7f2e 8fbe eaa1 163e 9ce9 683d
000000c0: 3bad 203d 81f9 e8bc a52e 96bc b856 903b
000000d0: 4087 bfbd ed36 aebe e086 71be c4ab 433e
000000e0: e487 973e 37a8 883c 8cf9 f6bd 5dd8 50be
000000f0: ef49 04be 36bc f4bd fe3a 123c 78ae d73e
00000100: e150 90be 7d67 d4bd 6b05 d2be c0a2 643e
00000110: 9a76 463c 538a 353e 57ab 983e 9497 eabc
00000120: 5584 753e e868 8cbc 91d9 093d 0033 85be
00000130: 32ec 12be c2f5 ffbb 40fe 81be 22ba ffbd
00000140: 40a0 3b3e 4999 e23d d818 d23d 3539 4fbe
00000150: 43d9 a8bd b736 b0be ef95 54bd 34e5 0f3e
00000160: 0404 f23d 510b 9e3e d981 a1be 476b 93bb
00000170: bb9d c4be ab95 de3e 376e 3b3b b291 5cbe
00000180: 4760 a5be a9b4 71be bc87 19be f57d 2dbf
00000190: 2ab2 32be d7ec 013e 13f9 bc3e c339 5ebe
000001a0: 60de 4dbe b52c 61bc 2d41 80bd 8114 0f3c
000001b0: 6639 cbbe 25df 1cbe 883b 60be f8b4 323d
000001c0: 2759 7dbe 6e27 443c 79fc 23bd 511c 4cbe
000001d0: 505f 6a3e 2cb0 e53d 48a5 a53d 7429 0f3e
000001e0: b3f6 90be 9645 c5be 8a8e de3e 098e d33d
000001f0: bcf3 57be 348d b2be a1cc 95bb b37b 55be
00000200: 7360 a8be 177e ad3e 8d59 febd 223a 09bd
00000210: c17c 1c3c d486 b63e 85ba debe 5b10 80be
00000220: 629f 8fbd fc6c e0bd 5937 a03e 39cf 9f3e
00000230: b5ed bfbe 255f 92bd 91a9 1d3d 8a53 bcbe
00000240: 3874 cdbc 095a f3bd c485 0d3e 7e18 a5bd
00000250: 90fa 043e f9b2 943e 945d 43bd 646d 8e3e
00000260: 8689 793b a706 963e 169e 1abe 75d6 bbbd
00000270: f362 7bbe 8346 96bd 74fd 3d3a 3d92 77be
00000280: 1c24 623e 367e 813d 3669 a7be 2ed7 a03d
00000290: 2e81 e03e b7ae 36bf 9d90 b33d ed1c 493f
000002a0: 8701 5cbe f4f8 3abe c9b5 6abe 8049 48bd
000002b0: 6243 3c3d 67b4 61be 80ae 053d 9f09 c33e
000002c0: f479 303e d041 58be 96bd 453e 2aae 2b3d
000002d0: a827 04be 3de5 6a3e 7a87 27be c65e bd3e
000002e0: 28f3 a7bc 43b0 42bd 3a9a cfbd 7fdb e2be
000002f0: a253 fabc 101e 0ebe 80f2 253c 60c7 aeba
00000300: cb32 b4be 257d 243e 60c1 b5bb e076 c9bc
00000310: 91c5 b9be 3b9c f6bc 164d 4dbf 979e 9e3d
00000320: 1c5f 6dbe a433 283f 8893 bbbd e7f4 f5bd
00000330: 2d59 563e e5b4 27bd 299a d33d 16d4 a23e
00000340: 0db4 a33c 20a9 3c3e 9fd8 a9be 0b25 793d
00000350: 2e70 843e 2743 56be 3785 90be 43b3 503d
00000360: b52c 843e d2d1 5cbe 49ed 03be 9e6a bdbd
00000370: 719a 9b3e e34f fb3d d630 0abc bb92 b83e
00000380: fdf3 773e 7cd8 04bf 0eb0 053e 6cee 50be
00000390: 7953 2abc 7ed2 bfbc 7b6d f3be a9ce f3be
000003a0: b486 75bd e4d2 383d ecf4 aabc cd84 afbc
000003b0: 1428 b3be 390e b73d 0a9b 453c 37a1 c3be
000003c0: e4fe 5abc cb77 883d d638 163e 4059 173d
000003d0: 90fe fc3d ed4a 1d3e 682f 86be bc6b f23d
000003e0: 75fe 7fbe 4599 c9bd 3605 8a3d d6d6 d43e
000003f0: cf5a c3be cad6 56bd 5928 2a3b 3fd9 813e

correction.mlp.0.bias f4 [10]
0.021048183 0.058460772 0.054714426 -0.23097955 -0.0013015835 0.058020853 0.043781392 0.031561613
-0.006120615 0.038194705
00000000: 3d6d ac3c 9074 6f3d 3c1c 603d e785 6cbe
00000010: e599 aaba 46a7 6d3d 1e54 333d c046 013d
00000020: 718f c8bb 0d72 1c3d

autoencoder.encoder.mlp.mlp.0.weight f4 [10, 1]
0.4480997 -0.25100222 0.35088295 0.032608528 -0.36013547 0.22179675 0.2938799 0.07784653
-0.120066434 0.10476615
00000000: 536d e53e 5d83 80be eea6 b33e 8590 053d
00000010: ad63 b8be b01e 633e 6d77 963e 006e 9f3d
00000020: 64e5 f5bd a38f d63d

autoencoder.encoder.mlp.mlp.0.bias f4 [10]
-0.0035893489 0.001833709 -0.020265715 0.0070883827 0.06956578 -0.041557956 -0.07256771 0.014767158
0.044071928 -0.045068704
00000000: 483b 6bbb 1059 f03a 4904 a6bc aa45 e83b
00000010: 8178 8e3d ad38 2abd 619e 94bd f3f1 713c
00000020: c484 343d f699 38bd

autoencoder.encoder.mlp.mlp.2.weight f4 [10, 10]
-0.09052788 -0.21587548 0.41877574 -0.3955773 0.15324195 -0.46601132 -0.14302048 0.23865333
-0.054863118 0.2558587 0.15100546 -0.36584234 0.47955412 0.118207775 0.1446939 -0.44157407
0.052538354 -0.39437157 -0.10742452 0.057299763 -0.391314 -0.32090044 0.5097633 -0.15160629
-0.11148314 0.5734702 -0.32587948 0.6312216 0.00491472 -0.108209774 0.11304557 -0.06571538
-0.1989068 0.18949464 0.31717828 0.2267113 -0.20781495 -0.44139865 -0.39325926 -0.26803854
-0.26105112 -0.3529627 0.3268856 0.13293 0.111733854 -0.13558966 0.20131037 -0.10300439
-0.22986917 -0.23033375 0.22783507 -0.32236025 -0.21214728 -0.3592213 0.34377944 0.48294133
-0.29616836 0.3725192 -0.08893175 0.012906395 -0.41010493 -0.5485968 0.46282303 0.09020802
0.2890937 0.49309596 -0.4728265 0.4869299 0.28552708 0.12030955 0.4266447 -0.2217323
-0.50629985 -0.36687657 0.039136548 -0.12369131 -0.20292059 -0.081083715 0.059000585 0.19063357
-0.28586334 0.006318837 0.26300275 -0.42287815 -0.4132562 0.19845645 -0.01794587 -0.2015578
-0.3128906 0.29530796 0.43524745 -0.21887903 0.030084401 0.3892686 0.16412607 -0.23606698
0.13419914 -0.48872995 0.0003627059 0.013722807
00000000: ae66 b9bd 760e 5dbe c669 d63e 1c89 cabe
00000010: 75eb 1c3e 0999 eebe f673 12be 8a61 743e
00000020: 26b8 60bd e9ff 823e 2da1 1a3e b04f bbbe
00000030: 1e88 f53e eb16 f23d a32a 143e ff15 e2be
00000040: 7532 573d 12eb c9be 6301 dcbd 28b3 6a3d
00000050: 4f5a c8be 104d a4be d97f 023f ae3e 1bbe
00000060: 4651 e4bd f1ce 123f add9 a6be bd97 213f
00000070: a90b a13b 169d ddbd 7084 e73d c995 86bd
00000080: 39ae 4bbe e20a 423e 3165 a23e 0227 683e
00000090: 71cd 54be 01ff e1be 4759 c9be 593c 89be
000000a0: 7ea8 85be 87b7 b4be 8d5d a73e cd1e 083e
000000b0: b8d4 e43d 04d8 0abe 4e24 4e3e f7f3 d2bd
000000c0: d362 6bbe 9cdc 6bbe 994d 693e 670c a5be
000000d0: 233d 59be dbeb b7be dc03 b03e 1644 f73e
000000e0: 61a3 97be d6ba be3e d921 b6bd 5875 533c
000000f0: 46f9 d1be d770 0cbf 24f7 ec3e fbbe b83d
00000100: 1704 943e 1377 fc3e 5116 f2be e04e f93e
00000110: 9b30 923e da64 f63d 2d71 da3e cb0d 63be
00000120: de9c 01bf 3fd7 bbbe a54d 203d df51 fdbd
00000130: 6aca 4fbe 380f a6bd 99aa 713d 7235 433e
00000140: ae5c 92be 3f0e cf3b 4ca8 863e 7c83 d8be
00000150: 5196 d3be 2b38 4b3e 3803 93bc 2b65 4ebe
00000160: 3233 a0be 9b32 973e c1d8 de3e d321 60be
00000170: 9073 f63c 374e c73e aa10 283e 8bbb 71be
00000180: 806b 093e d03a fabe 9029 be39 a0d5 603c

autoencoder.encoder.mlp.mlp.2.bias f4 [10]
-0.028668819 0.05118387 -0.10486714 -0.045850396 -0.023753205 0.17747252 -0.097227134 0.041086093
-0.13275713 0.09638371
00000000: dfda eabc 2da6 513d 95c4 d6bd a0cd 3bbd
00000010: 1596 c2bc 5bbb 353e 051f c7bd e449 283d
00000020: 7cf1 07be d364 c53d

autoencoder.decoder.mlp.mlp.0.weight f4 [10, 10]
-0.6202127 0.34515718 -0.13033588 -0.960355 -0.23328443 0.5340331 -0.32257578 -0.4809603
0.146319 1.0012547 -0.2698362 -0.24001142 -0.7594133 0.14968666 -0.64934593 0.32933557
-0.30788246 -0.27395827 -1.0459243 0.23374325 -0.17196673 0.56552595 0.16558006 -0.12970933
0.03140441 0.75810796 -0.43460852 -0.8529785 0.10783418 0.89660484 0.42132223 -0.1494181
-1.0143036 0.4381961 -0.09652669 0.5549351 -0.24244115 -1.0517077 -0.81064045 0.09789711
2.4195127 -0.093514286 -0.5049291 0.03611599 0.5032598 0.9402507 0.4622342 -0.51336074
0.3837576 -0.5170552 0.28410533 0.4666449 -0.11242339 0.46730292 -0.09234478 -0.48735577
-0.05023749 0.3054481 0.4027139 0.1231623 -0.30264452 0.22787836 -0.81564677 0.6481272
-0.78818715 0.49018875 0.28715867 -0.013651663 -0.84925705 0.15741214 0.9913182 0.2427345
0.7615249 0.79408646 1.5404407 -0.03166935 -0.57464665 0.027105458 -0.20473236 -0.011984557
-0.74553484 0.89958924 0.8054338 -0.73841447 -0.430862 0.5160245 0.37920105 -1.1132404
-0.2503668 0.17990588 0.5133811 -0.068579085 -0.035632856 0.61131275 0.51507854 -0.15295763
0.3755635 -0.35720706 0.42509678 0.35099086
00000000: 42c6 1ebf 71b8 b03e c576 05be d3d9 75bf
00000010: 1de2 6ebe 65b6 083f a728 a5be 6e40 f6be
00000020: a6d4 153e 1d29 803f f827 8abe 8ec5 75be
00000030: e968 42bf 7647 193e 893b 26bf ac9e a83e
00000040: c5a2 9dbe 4244 8cbe d9e0 85bf 645a 6f3e
00000050: 0c18 30be 4fc6 103f d28d 293e 86d2 04be
00000060: e9a1 003d 5d13 423f 0285 debe cd5c 5abf
00000070: 2bd8 dc3d e587 653f 8cb7 d73e 0f01 19be
00000080: b3d4 81bf 3d5b e03e c9af c5bd 3a10 0e3f
00000090: 7e42 78be 5c9e 86bf 2286 4fbf 487e c83d
000000a0: 4cd9 1a40 6b84 bfbd 0943 01bf 5cee 133d
000000b0: a2d5 003f 45b4 703f f6a9 ec3e 9c6b 03bf
000000c0: e07b c43e bb5d 04bf 4176 913e 15ec ee3e
000000d0: 3c3e e6bd 5442 ef3e 431f bdbd b286 f9be
000000e0: d4c5 4dbd b263 9c3e 8430 ce3e 843c fc3d
000000f0: 39f4 9abe f258 693e 3ace 50bf aaeb 253f
00000100: a2c6 49bf 05fa fa3e 7606 933e 3aab 5fbc
00000110: e968 59bf a630 213e 08c7 7d3f 658f 783e
00000120: 4cf3 423f 4049 4b3f 292d c53f b8b7 01bd
00000130: 0b1c 13bf 440c de3c 5ca5 51be e05a 44bc
00000140: 5fdb 3ebf 7b4b 663f e930 4e3f bb08 3dbf
00000150: f299 dcbe 2e1a 043f a426 c23e a97e 8ebf
00000160: 1430 80be 3f39 383e f26c 033f 3173 8cbd
00000170: c2f3 11bd fe7e 1c3f 30dc 033f eda0 1cbe
00000180: dc49 c03e d8e3 b6be 49a6 d93e 13b5 b33e

autoencoder.decoder.mlp.mlp.0.bias f4 [10]
0.14760353 0.077480234 0.3050148 -0.28631756 0.011242635 -0.0029591254 0.25209185 0.018502885
-0.07592564 -0.2721283
00000000: 6125 173e f5ad 9e3d e62a 9c3e 3798 92be
00000010: 0733 383c e3ed 41bb 2f12 813e 5d93 973c
00000020: e77e 9bbd 6754 8bbe

autoencoder.decoder.mlp.mlp.2.weight f4 [1, 10]
0.67432314 -0.91392565 0.98058337 -0.89605415 -4.0633936 -0.63672316 -0.844622 -6.298368
0.95147663 -0.63971186
00000000: 71a0 2c3f 08f7 69bf 8307 7b3f ce63 65bf
00000010: 5207 82c0 4a00 23bf 2639 58bf 3b8c c9c0
00000020: f993 733f 28c4 23bf

exp_avg f4 [10]
0.0 0.0 0.0 0.0 0.0 0.0 0.0 0.0
0.0 0.0
00000000: 0000 0000 0000 0000 0000 0000 0000 0000
00000010: 0000 0000 0000 0000 0000 0000 0000 0000
00000020: 0000 0000 0000 0000

exp_avg_sq f4 [10]
0.0 0.0 0.0 0.0 0.0 0.0 0.0 0.0
0.0 0.0
00000000: 0000 0000 0000 0000 0000 0000 0000 0000
00000010: 0000 0000 0000 0000 0000 0000 0000 0000
00000020: 0000 0000 0000 0000

exp_avg f4 [10]
0.0 0.0 0.0 0.0 0.0 0.0 0.0 0.0
0.0 0.0
00000000: 0000 0000 0000 0000 0000 0000 0000 0000
00000010: 0000 0000 0000 0000 0000 0000 0000 0000
00000020: 0000 0000 0000 0000

exp_avg_sq f4 [10]
0.0 0.0 0.0 0.0 0.0 0.0 0.0 0.0
0.0 0.0
00000000: 0000 0000 0000 0000 0000 0000 0000 0000
00000010: 0000 0000 0000 0000 0000 0000 0000 0000
00000020: 0000 0000 0000 0000

exp_avg f4 [10, 23]
-1.8922019e-07 4.0650275e-06 6.0805414e-06 -3.099701e-06 2.7721376e-06 -7.788008e-07 5.5648803e-07 -9.607866e-07
7.192781e-06 3.0166825e-06 2.0933979e-07 4.186821e-06 6.2038657e-06 -3.284541e-06 2.5632203e-06 -9.987745e-07
5.286048e-07 -8.5916247e-07 7.173457e-06 3.2144335e-06 9.08635e-07 -1.0402281e-06 -3.894422e-06 3.911551e-08
-7.764568e-07 -3.1548785e-07 4.5050461e-07 -3.6698136e-09 -3.9647065e-07 7.595412e-09 3.8936682e-07 9.931411e-08
-1.0040046e-06 4.3836714e-08 -8.1343535e-07 -3.666108e-07 4.993467e-07 -1.6403982e-08 -4.3716608e-07 1.9069004e-08
3.992812e-07 2.1448429e-08 -9.946771e-07 -1.2860747e-07 2.780829e-08 -1.5061516e-07 -3.7730533e-07 5.477062e-07
-5.026244e-06 9.2749036e-07 -4.397069e-06 2.6386535e-06 3.8676257e-07 -3.5056032e-06 -8.813534e-06 4.0852933e-06
-3.6006415e-07 1.2533302e-06 -3.6204913e-06 4.3655132e-07 -4.122152e-06 3.291609e-06 4.266627e-07 -4.3917585e-06
-8.6771215e-06 4.136661e-06 -1.289943e-06 1.3723808e-06 -1.5556466e-06 -1.8026597e-13 7.024091e-13 -4.549643e-13
-3.5800868e-13 -1.2417644e-13 1.2872545e-12 -4.550216e-13 1.5195512e-13 -8.600791e-13 8.7878365e-13 -5.970073e-13
1.1358581e-12 -4.579652e-13 -6.012924e-13 2.2007839e-13 1.8240012e-12 -4.911442e-13 -2.4966313e-14 -8.0778233e-13
1.333635e-12 5.2819424e-12 -2.307468e-12 -2.6475256e-12 7.789111e-07 -1.33716485e-05 -7.0959395e-06 9.074198e-06
-5.163045e-07 -7.127876e-06 1.16207914e-07 6.549542e-06 -1.3655072e-06 -1.6704822e-05 4.114856e-07 -1.3330829e-05
-7.2555854e-06 8.903664e-06 -6.615652e-07 -6.749631e-06 1.7533803e-07 6.079373e-06 -1.7326893e-06 -1.6500155e-05
-1.0429981e-06 3.7715456e-08 -8.3855184e-07 7.2488024e-07 -4.61754e-06 -1.8424993e-06 2.8400166e-06 6.13592e-08
-2.7672909e-06 -1.5188553e-08 2.4423812e-06 3.481363e-07 -5.6325907e-06 1.6339578e-07 -4.668189e-06 -2.0467612e-06
2.9788782e-06 1.578457e-07 -2.5404352e-06 7.746842e-08 2.2585166e-06 3.0701267e-07 -5.8425608e-06 -1.3343356e-06
2.2478398e-06 7.1239654e-09 -3.955914e-07 7.492167e-06 4.6869936e-06 -4.8901975e-06 1.6410641e-07 2.8708318e-06
4.6416156e-07 -4.8793636e-06 8.401039e-07 9.975456e-06 -1.10965495e-07 7.5299736e-06 4.8172224e-06 -4.9629125e-06
1.5772287e-07 2.7818364e-06 5.4383185e-07 -4.607042e-06 1.4009165e-06 1.0030103e-05 6.1624455e-06 3.8945595e-06
-3.0380504e-06 2.5340265e-07 9.847901e-08 -1.1644498e-08 -3.7883296e-07 -9.759666e-08 1.2711428e-07 -8.010003e-08
-1.15234684e-07 -2.3093058e-07 5.8087056e-07 -9.504749e-08 -9.523026e-08 -2.1398635e-07 -4.057402e-08 5.1080573e-08
3.9380716e-08 -3.6371084e-08 8.189103e-08 -1.09026725e-08 -7.2696174e-08 -1.516344e-06 1.4597395e-06 1.1415075e-06
6.2221e-08 -3.575718e-07 7.4443795e-07 1.7970225e-07 3.4774465e-07 -1.0572535e-06 3.4625515e-07 -1.7508147e-07
1.1973092e-06 -4.860095e-07 8.469198e-08 -3.360012e-07 7.6356946e-07 1.680758e-07 2.4378753e-07 -1.0168429e-06
3.652525e-07 -2.4919987e-07 1.1252339e-06 -4.8494735e-07 -6.3940894e-07 4.607855e-08 -2.2973163e-06 -6.568172e-08
5.1551115e-07 -5.525391e-07 -2.30462e-07 -2.5148128e-07 9.859242e-07 -3.8787687e-07 2.2820448e-07 -8.4426586e-07
4.80879e-07 -3.8851667e-08 3.6112397e-07 -7.2876463e-07 -2.0614233e-07 -2.9937564e-07 1.055856e-06 -3.8511203e-07
1.3823451e-07 -1.1147009e-06 5.287707e-07 3.4587617e-07 1.5974822e-06 2.3886353e-06
00000000: 732c 4bb4 5266 8836 7407 cc36 7504 50b6
00000010: f608 3a36 c90e 51b5 9161 1535 60f4 80b5
00000020: 8559 f136 3672 4a36 e2c6 6034 857c 8c36
00000030: cd2a d036 fc6b 5cb6 ca03 2c36 a10d 86b5
00000040: 72e5 0d35 32a1 66b5 87b3 f036 8cb7 5736
00000050: ece8 7335 f79d 8bb5 d5ac 82b6 f5ff 2733
00000060: b46d 50b5 5260 a9b4 e2dc f134 0b30 7cb1
00000070: 83da d4b4 fa7c 0232 2b0a d134 8246 d533
00000080: 56c1 86b5 fa46 3c33 da5a 5ab5 9bd2 c4b4
00000090: d80a 0635 bde8 8cb2 a6b3 eab4 2fcd a332
000000a0: ca5c d634 983d b832 d880 85b5 5a17 0ab4
000000b0: 14df ee32 c8b8 21b4 7390 cab4 1506 1335
000000c0: 1ba7 a8b6 a7f8 7835 898a 93b6 b913 3136
000000d0: 3ea4 cf34 ce41 6bb6 d7dd 13b7 6714 8936
000000e0: d74e c1b4 1938 a835 91f7 72b6 285f ea34
000000f0: 0451 8ab6 69e5 5c36 1310 e534 eb5c 93b6
00000100: f493 11b7 a6cd 8a36 1b22 adb5 a532 b835
00000110: 9ccb d0b5 21f6 4aaa e9b5 452b a20f 00ab
00000120: 7d8a c9aa 6ccf 0baa 3b2a b52b c313 00ab
00000130: 1516 2b2a 3b17 72ab 095b 772b e90a 28ab
00000140: 9adb 9f2b dfe7 00ab af3f 29ab 47c9 772a
00000150: 495a 002c ab3e 0aab 66e0 e0a8 da5e 63ab
00000160: 44b1 bb2b 82d7 b92c a65f 22ac 954d 3aac
00000170: 5d16 5135 cb56 60b7 a819 eeb6 623d 1837
00000180: 2d98 0ab5 fd2b efb6 fa8d f933 23c4 db36
00000190: 7846 b7b5 5521 8cb7 26ea dc34 79a7 5fb7
000001a0: 0175 f3b6 f260 1537 6a96 31b5 e47a e2b6
000001b0: 8d44 3c34 6bfd cb36 c08e e8b5 d069 8ab7
000001c0: 24fd 8bb5 95fc 2133 d818 61b5 6495 4235
000001d0: 5ef0 9ab6 cb4b f7b5 1d97 3e36 94c4 8333
000001e0: b2b5 39b6 fb77 82b2 cae7 2336 7de7 ba34
000001f0: 96ff bcb6 e471 2f34 70a3 9cb6 175b 09b6
00000200: bde8 4736 4c7c 2934 587c 2ab6 b75c a633
00000210: 0591 1736 80d3 a434 370b c4b6 6c17 b3b5
00000220: 98d9 1636 10c7 f431 ab61 d4b4 3965 fb36
00000230: f844 9d36 7a16 a4b6 3a35 3034 84a8 4036
00000240: e131 f934 6ab9 a3b6 8083 6135 425c 2737
00000250: ed4b eeb3 fba9 fc36 a0a3 a136 1887 a6b6
00000260: 885a 2934 96af 3a36 d7fb 1135 3096 9ab6
00000270: 2007 bc35 f746 2837 01c7 ce36 03ae 8236
00000280: 4fe1 4bb6 650b 8834 697b d333 0b0d 48b2
00000290: 6862 cbb4 5596 d1b3 e87c 0834 7503 acb3
000002a0: f076 f7b3 b7f5 77b4 1fed 1b35 e91c ccb3
000002b0: 6481 ccb3 1fc4 65b4 9b43 2eb3 af63 5b33
000002c0: 8e23 2933 6e36 1cb3 12dc af33 764e 3bb2
000002d0: 251d 9cb3 2f85 cbb5 44ec c335 e635 9935
000002e0: 5b9e 8533 4bf8 bfb4 63d5 4735 2ef4 4034
000002f0: a9b1 ba34 f4e6 8db5 f2e4 b934 07fe 3bb4
00000300: 3bb3 a035 5276 02b5 e9df b533 a763 b4b4
00000310: 18f8 4c35 5378 3434 e7e1 8234 757a 88b5
00000320: ec17 c434 c5c9 85b4 be06 9735 542d 02b5
00000330: d9a3 2bb5 e7e7 4533 982b 1ab6 e80c 8db3
00000340: a861 0a35 3352 14b5 ea74 77b4 5303 87b4
00000350: 1954 8435 643d d0b4 5f08 7534 82a1 62b5
00000360: c115 0135 dcdd 26b3 80e0 c134 53a0 43b5
00000370: f957 5db4 e0b9 a0b4 f0b6 8d35 65c1 ceb4
00000380: 9d6d 1434 d59c 95b5 d9f0 0d35 dcb0 b934
00000390: 1269 d635 714c 2036
