dirichlet/dsgps/results/constant_dataset/30_ite_gamma_0_9/ckpt/running_model.pt (torch, 80909 bytes, 69 tensors)

laynorm.weight f4 [10]
000000 00 00 80 3f 00 00 80 3f 00 00 80 3f 00 00 80 3f
       1.0 1.0 1.0 1.0
000010 00 00 80 3f 00 00 80 3f 00 00 80 3f 00 00 80 3f
       1.0 1.0 1.0 1.0
000020 00 00 80 3f 00 00 80 3f
       1.0 1.0

laynorm.bias f4 [10]
000000 00 00 00 00 00 00 00 00 00 00 00 00 00 00 00 00
       0.0 0.0 0.0 0.0
000010 00 00 00 00 00 00 00 00 00 00 00 00 00 00 00 00
       0.0 0.0 0.0 0.0
000020 00 00 00 00 00 00 00 00
       0.0 0.0

phi_to.mlp.mlp.0.weight f4 [10, 23]
000000 63 9b 56 bd 85 77 17 3e 5e 3c 78 3e 26 f1 0d be
       -0.052394282 0.14791687 0.24241778 -0.13861522
000010 9c a5 d1 be 79 52 3b 3e 2a 2d e0 bd 22 ea dc 3d
       -0.40946662 0.1829318 -0.10946114 0.10786845
000020 f0 88 8d bb d1 ba 32 3e a7 27 10 be cc 9c 23 be
       -0.0043193027 0.17454077 -0.14077626 -0.15977782
000030 82 62 a1 bd 08 cb 87 3e 13 f3 84 be c8 7d 7a bd
       -0.07880117 0.26522088 -0.259667 -0.06115511
000040 91 37 48 be 15 ed 9a be 2c dc 55 3e 20 73 0d 3e
       -0.19552447 -0.30259004 0.2088477 0.13813448
000050 c1 0b 17 3b 06 38 32 3a 41 fb 0d 3a 20 2d 37 3f
       0.0023047777 0.0006798509 0.0005416163 0.7155323
000060 16 42 3d 3e 51 00 24 3f 5a b9 c3 3d 26 67 27 3f
       0.18482241 0.6406298 0.095568374 0.6539177
000070 62 29 b5 be 5a 54 16 be 7c d2 51 3e 36 f2 23 3f
       -0.35383135 -0.14680615 0.2049045 0.6404146
000080 b8 90 da bd 6d 99 ae 3e 60 f2 2d 3d 7b 95 69 be
       -0.10672134 0.3410143 0.042467475 -0.22810929
000090 b8 5b 96 3d 87 a3 7e 3f 50 c2 32 3d ae 04 27 bf
       0.07341713 0.9946827 0.043642342 -0.65241516
0000a0 9a 55 00 3e 7c 6b d8 3e 9e 9f d8 3d bf f0 0e 3b
       0.12532654 0.42269504 0.105773196 0.0021810976
0000b0 34 dd 22 bb c8 60 03 bc 78 98 e5 3e 6c f9 d3 bd
       -0.0024851086 -0.00801868 0.44842887 -0.10350308
0000c0 55 52 dd be e1 de 12 be 92 01 34 3f 9f 1e 6c be
       -0.43226877 -0.14342834 0.70314896 -0.23058556
0000d0 d4 d3 7b 3d 1a f9 bb 3d 79 ae f4 3c a4 7b b2 3e
       0.061481312 0.09178372 0.029868351 0.34859955
0000e0 98 45 ad 3e 70 1a f7 3d 2e 84 a9 be 88 b6 7d be
       0.33842158 0.120655894 -0.33108658 -0.24776661
0000f0 eb f2 21 be df c1 b2 3e 22 02 d1 bd 71 87 bb 3c
       -0.15815322 0.34913537 -0.10205485 0.022891732
000100 b2 d0 90 3d 1b 63 75 be 3f 29 e7 b9 de 2e 50 ba
       0.070710555 -0.23963587 -0.00044090484 -0.0007941554
000110 99 a3 0f 3d a4 2f 87 3c 4b c1 2e bc b5 36 4b 3e
       0.03506813 0.016502209 -0.010666202 0.19845088
000120 ff dc 92 3e 7e 79 b9 bc 8f aa 6c be 81 a5 12 3e
       0.28684232 -0.02264094 -0.23111938 0.14320947
000130 4b 5b 0d be 7f 2b a2 3e e1 20 3c be 5b 49 90 bd
       -0.13804357 0.3167381 -0.18371917 -0.070452414
000140 2e da c0 3e c9 61 68 be 7a 33 b8 3c 0d f1 a7 3e
       0.37666458 -0.22693552 0.022485483 0.32801095
000150 f6 59 99 be 53 f0 50 bd b7 cb c0 3e d7 3a 98 bd
       -0.29951447 -0.05101044 0.37655422 -0.07433098
000160 13 21 05 3e c0 68 ba 3d ac 93 56 3c c5 32 c8 be
       0.13000898 0.09102011 0.013096731 -0.39101234
000170 4b 1d dd be 2a 90 8d be bc 01 b9 be 2a 15 8a be
       -0.4318641 -0.2764905 -0.36134136 -0.26969272
000180 b3 c0 96 3c 6e 0f e9 be 76 ef ea be 85 3b 83 3d
       0.018402433 -0.45519584 -0.4588582 0.06407837
000190 e8 7f 54 be c0 3c db bc 12 23 95 3c 13 c1 cf 3e
       -0.20751917 -0.026762366 0.0182052 0.4057699
0001a0 a6 58 79 3d 56 84 da be e2 79 9c be 42 2a a0 be
       0.060875557 -0.4267909 -0.3056174 -0.3128224
0001b0 a3 08 8f be e8 d1 a6 bd eb ad 1f 3e 9d 01 9b 3d
       -0.27936277 -0.08145505 0.15593688 0.07568667
0001c0 73 37 8f ba 1e 46 1b ba bb a3 02 3d 47 08 45 bf
       -0.0010926559 -0.0005923229 0.031894427 -0.76965755
0001d0 09 3f 28 3d 56 3c ad bb 48 48 bd 3c 33 ee 2d 3f
       0.04107574 -0.0052867336 0.023105755 0.6794159
0001e0 b5 47 c7 be d5 09 30 3f 9f 19 b9 be 40 76 3b 3e
       -0.38921896 0.68765 -0.3615236 0.18306828
0001f0 4b c1 9b 3e 83 03 a6 be 76 92 de 3b 39 1e 79 be
       0.30420908 -0.32424554 0.006792362 -0.24327935
000200 de 9f 26 bd bd 06 72 3f 5e 7c 4a 3d 0b 11 bb 3d
       -0.040679805 0.9454153 0.049435012 0.0913411
000210 3d aa 9a 3e 75 a8 ad 3e 8c 5d 3f be a6 9c 05 3b
       0.30208007 0.33917585 -0.18688029 0.002038756
000220 b3 d8 ce b9 46 85 27 3e e5 da 5d bf 29 00 00 3e
       -0.00039452835 0.16359434 -0.8666213 0.12500061
000230 e2 af 20 bf bc c2 97 3e 3a 00 62 3e f0 bd 8c be
       -0.62768376 0.29640758 0.22070399 -0.2748866
000240 1f 24 86 3e df be 96 3d 9f d7 78 3e 1f 8f 16 bd
       0.26199433 0.073606245 0.24301003 -0.036757585
000250 c6 c0 0f bf 16 7d c2 3e f8 7a a9 bc 3d e6 b6 3e
       -0.56153524 0.37986058 -0.020688519 0.35722533
000260 d6 1f 12 3f b5 01 ad 3e 38 01 1a 3e 25 a7 cd bd
       0.5707983 0.33790365 0.15039527 -0.10041646
000270 05 60 b1 3e ca 07 ee 3d 19 23 9c ba 31 63 aa b9
       0.3464357 0.116225794 -0.0011912315 -0.0003249883
000280 0e 12 36 3e 85 e5 f2 bd 15 77 af 3e fd 4c 18 be
       0.17780325 -0.118601836 0.3427054 -0.14873119
000290 0e 77 bf bd 34 f2 6d be 1e 51 29 3d 95 e8 43 be
       -0.0934888 -0.23236924 0.041337125 -0.19131692
0002a0 0f d3 37 be 81 89 04 3f 37 52 eb be e4 b8 19 bf
       -0.17951606 0.51772314 -0.45961162 -0.60047746
0002b0 91 d8 d5 3e de 31 cd 3e b0 90 9c 3e 13 7f f4 be
       0.4176679 0.40077108 0.30579138 -0.477532
0002c0 8e 48 41 3e d9 1f 81 bf 41 7f 3d 3d 4e 15 0f 3f
       0.18875334 -1.0087844 0.046263937 0.55891883
0002d0 15 8d 1f be f2 c9 cb b8 85 3b 5f 39 4e a0 fd bb
       -0.15581162 -9.7174096e-05 0.0002128911 -0.007740057
0002e0 98 07 09 3f 58 23 37 3e fd dd 82 bd 53 9d 91 3e
       0.5352721 0.17884576 -0.06389997 0.2844034
0002f0 c0 a3 4b be 1a 0a b2 3e ce 1c cd 3d e5 79 a8 3f
       -0.19886684 0.34773332 0.1001526 1.3162199
000300 58 37 40 3d 8e f8 37 bf 7e d3 19 bf 86 7a 19 3e
       0.04692778 -0.7186364 -0.60088336 0.14988145
000310 30 d4 f6 3d 1d 0e 5e 3f 8a f7 d5 3d 2b a8 10 bc
       0.1205219 0.86740285 0.10447605 -0.008829157
000320 3c 5b 66 3e 79 28 74 3f 68 51 52 3d 0e 59 82 be
       0.2249574 0.95374256 0.051347166 -0.25458568
000330 28 ca a0 39 d5 55 42 ba 34 3c c8 3c 32 22 54 be
       0.00030668196 -0.00074133027 0.02444277 -0.2071617
000340 9b ac 77 3f 9e e0 a1 bd 3f 02 60 3e e9 e5 f1 bd
       0.9674775 -0.079041705 0.21875857 -0.1181143
000350 f2 83 fd 3a 9b c5 b0 3d 89 d1 4b 3f 14 eb de 3e
       0.0019341691 0.0863144 0.796166 0.43538725
000360 f4 8c 11 bf a1 0d 3a 3e fd 16 a6 be 0f 37 ea 3d
       -0.568557 0.18169262 -0.32439414 0.11436283
000370 1c 8f 95 3e a2 6c 28 3e 1a ba 22 be 24 fb e4 3e
       0.29210746 0.1644769 -0.15891305 0.44722855
000380 5b 18 92 3f 84 9f 36 bf 1b 12 49 be a3 09 19 b9
       1.1413683 -0.7133715 -0.19635813 -0.00014594807
000390 cc fc 48 39 8b 35 12 3e
       0.0001916766 0.14278238

phi_to.mlp.mlp.0.bias f4 [10]
000000 9e df b6 bb 45 46 93 3e 1b 8f c8 bc 84 8f 12 be
       -0.0055808565 0.2876455 -0.0244823 -0.1431256
000010 32 a7 9a 3d 23 c7 21 3e d4 fd 10 bd 9c a1 82 3d
       0.07551421 0.15798621 -0.03539832 0.06378481
000020 c0 ee fa 3b a1 b3 9e bd
       0.0076578557 -0.07749105

phi_to.mlp.mlp.2.weight f4 [10, 10]
000000 0d 0d 9d 3d d2 e9 0a 3f 79 d0 49 bf 69 f0 b0 be
       0.07668505 0.5426303 -0.7883373 -0.34558418
000010 d3 c8 81 3e 99 0a 06 3e c7 ab 14 3e f9 5a 8a 3e
       0.2534853 0.1308998 0.14518653 0.27022532
000020 bb 1a 23 3e 31 4b 18 be 3e 80 25 3c 74 b4 a7 be
       0.15928166 -0.14872433 0.010101376 -0.32754862
000030 34 10 bb be c8 a5 d9 3e 86 ac 47 3c 1a 78 8d be
       -0.365358 0.42509294 0.012187129 -0.27630693
000040 29 bc 97 3e 50 56 d6 be b3 e1 2f 3e 13 40 b2 ba
       0.29635742 -0.41862726 0.17175941 -0.0013599418
000050 94 b3 bf be b6 d2 fc bd a6 61 2c 3e 22 f9 22 be
       -0.37441695 -0.123448774 0.16834125 -0.15915349
000060 67 6e 7d 3d 55 86 b1 bc fa d8 8c be a2 62 b0 3e
       0.061872866 -0.0216705 -0.2750929 0.3445025
000070 27 51 30 3f 29 db d3 3d 2f 03 29 3e 35 c9 26 3e
       0.6887383 0.10344536 0.1650512 0.16287692
000080 80 1d 25 be e9 c1 6b 3d b5 e3 98 be b8 e4 b0 be
       -0.16124535 0.057557974 -0.29861227 -0.345495
000090 d8 87 13 3f 57 a5 cc 3d b8 7a f2 be 40 a3 76 be
       0.57629156 0.099924736 -0.47359252 -0.24085712
0000a0 e3 12 12 3e 18 66 e4 bc d4 8f 08 bf 58 97 b9 be
       0.14265017 -0.027880713 -0.53344464 -0.3624828
0000b0 a3 72 e9 be 22 3a d8 3d 85 eb de be 08 cd 2b be
       -0.45595273 0.10557963 -0.43539062 -0.16777432
0000c0 4f a9 ab be 70 02 0f bb 37 f7 1c bd 1f 53 c9 3e
       -0.3352761 -0.0021821521 -0.0383217 0.3932123
0000d0 a8 55 55 3d 06 83 d0 3e b1 b3 a1 3e 34 ec 35 3f
       0.05208364 0.40724963 0.31582406 0.7106354
0000e0 46 7c 33 be 80 af d1 3e a7 ce e0 3d bf 06 e0 3e
       -0.17527875 0.40954208 0.10976916 0.43755147
0000f0 16 13 8a be 9e 38 69 be 5b e9 be be df cd 4a be
       -0.26967686 -0.22775504 -0.3728741 -0.19805096
000100 e3 ec 1d bd 47 cb a6 3d d3 29 04 be 2e 6b 4c 3f
       -0.03855599 0.08144241 -0.1290658 0.79851043
000110 8e 7f 4d bd 66 d4 81 3d e4 f3 2c bc 7b ac eb bd
       -0.050170474 0.0633934 -0.010556195 -0.115075074
000120 75 a1 f0 3d da 03 22 be 4a 03 c0 be b7 fb 3f bd
       0.117495455 -0.15821782 -0.3750251 -0.046870913
000130 0e 1b 22 3f 16 0e a5 3d b3 83 8d be 15 b5 9d 3b
       0.6332253 0.08059327 -0.2763954 0.0048128464
000140 43 ec 06 bd 12 65 8f 3e 15 53 a3 be e3 0a 29 be
       -0.03294016 0.28006798 -0.31899324 -0.16508059
000150 8f 63 13 3d 75 82 eb 3e 8e dc a8 3d 3c bb 71 3d
       0.03598362 0.45997968 0.082451925 0.05901645
000160 30 9b 0d be 90 19 b1 3e 07 75 9b 3e 23 cd e2 3d
       -0.1382873 0.34589815 0.30362722 0.11074283
000170 a1 8c 53 bd 2c bf 63 be b9 35 89 3d 40 18 e0 3e
       -0.051647786 -0.22240895 0.066997 0.437685
000180 c4 84 8d 3f a6 a0 a8 be 79 58 86 3e 54 84 93 be
       1.1056142 -0.32935065 0.26239374 -0.28811896

phi_to.mlp.mlp.2.bias f4 [10]
000000 a7 40 1f bc 80 85 91 3d 4b 41 01 bc 8d d0 b0 bc
       -0.009720004 0.07105541 -0.007889102 -0.02158382
000010 14 9e b3 3d 47 f1 79 bd f3 b5 e0 3d a7 b0 ea 3c
       0.087703854 -0.061021116 0.10972204 0.028648688
000020 8f c7 a4 bc ad e7 84 bc
       -0.020114688 -0.016223753

phi_from.mlp.mlp.0.weight f4 [10, 23]
000000 14 37 db 3d d9 e0 eb bd 5c ef e8 3e 89 08 0d bf
       0.10703865 -0.11517496 0.45495117 -0.5509115
000010 27 9c 45 3e 37 d0 c7 be bb cf 45 3e ee 09 76 3a
       0.19297849 -0.39026043 0.19317524 0.0009385635
000020 d8 e5 5e be 3b d3 c4 bd 9f da 12 3f 2f 7c 06 bd
       -0.21767366 -0.096106015 0.5736484 -0.032833274
000030 8d ac 2b be 23 ee af be 46 af 97 be cd 19 b4 bd
       -0.16765042 -0.3436137 -0.2962591 -0.087939836
000040 33 38 a6 bd 57 f8 06 be d2 4d 57 be b4 36 02 be
       -0.08116188 -0.13180672 -0.2102578 -0.1271618
000050 55 a3 dc b9 7b 56 6d ba de cf ed bd 88 a8 44 3e
       -0.00042083362 -0.0009053719 -0.11611913 0.19204915
000060 2c c7 ad be 3c 0c 48 3d 0a 7f 24 3c ad 61 38 be
       -0.3394102 0.048839793 0.010040054 -0.1800601
000070 eb 58 1c 3e 8c 41 d2 3a e5 e0 03 3f c8 a1 e6 bd
       0.15268295 0.0016041263 0.51515037 -0.11261326
000080 fa 7b ca be c8 0e dc bd 92 17 45 3e 07 e1 01 3f
       -0.39547712 -0.10745007 0.19247273 0.5073399
000090 2b 03 53 3e ef d6 88 be 68 98 dd 3e d6 88 61 3e
       0.20606677 -0.2672648 0.4328034 0.22024855
0000a0 35 17 50 3d 62 c9 07 bc ef 29 f3 3e 60 5e a0 ba
       0.050803382 -0.0082877595 0.4749293 -0.0012235157
0000b0 29 bf 2d 3a a0 76 47 bd 58 b4 c0 3c 3f 5b 75 3d
       0.00066279114 -0.048697114 0.023523495 0.059901472
0000c0 5d ab 0a 3e 9b 54 9f be 70 9e b0 3e 91 fb cb 3e
       0.13541932 -0.31119236 0.34495878 0.39840367
0000d0 4b 48 f0 bb 9a e9 d6 3e 90 68 d9 3d 77 d9 d8 bd
       -0.0073328367 0.419751 0.10615647 -0.10588353
0000e0 d9 61 13 be 55 f4 97 be 82 5e fc bd 34 02 8a be
       -0.14392795 -0.29678598 -0.123227134 -0.26954806
0000f0 37 9d 07 3e 1d 9d ae 3e 93 e6 e4 be ac fb c9 bd
       0.13243566 0.34104243 -0.44707164 -0.09862456
000100 ac e0 c5 be 70 e3 06 be 38 c3 b3 ba 1f 18 24 3a
       -0.38647974 -0.13172698 -0.0013714796 0.0006259698
000110 f7 bd b4 3d 82 a7 ca 3e 3e 1a 92 bd 15 98 a1 be
       0.088252954 0.39580923 -0.071339116 -0.31561342
000120 30 89 43 be 51 df be bd b3 df 0b 3f 5d 17 00 3f
       -0.19095302 -0.09319938 0.5463821 0.5003565
000130 98 c2 01 be 20 d0 5e b9 da 18 8b be 94 4b 8f 3e
       -0.12671888 -0.00021249102 -0.27167398 0.2798735
000140 8c 2c b6 3d 70 9a b5 3e c9 b0 67 be 51 45 58 be
       0.088952154 0.3546939 -0.22626032 -0.21120192
000150 eb a5 9a 3e 48 0b 0d 3f 0d d1 1d 3e f0 60 1a 3e
       0.3020471 0.5509534 0.15411778 0.15076041
000160 db 80 a8 3e 0c b8 de 38 7a c1 60 3b a5 96 a5 bd
       0.3291081 0.00010620066 0.0034295009 -0.08085374
000170 c6 25 fd bc ff 77 71 3e 6a f9 02 bf e2 a4 36 3e
       -0.0309018 0.23580931 -0.51161826 0.17836335
000180 55 e1 12 bf 8f 37 18 3e 65 44 9c 3e d7 60 9f 3e
       -0.5737508 0.14864944 0.3052093 0.3112857
000190 f5 d7 16 3e 3c af 34 be 63 a3 bc 3d 58 f3 84 3e
       0.14730819 -0.17644972 0.09210851 0.25966907
0001a0 3e ed 2b be 2f f5 e7 3c 23 52 a1 3e ba d3 9b 3e
       -0.1678972 0.028315155 0.31507978 0.30434972
0001b0 c3 2f 54 be f8 66 bd be 58 8c d2 3e 2b a3 70 3e
       -0.20721345 -0.3699262 0.411227 0.23499744
0001c0 9c ba 4e bb 9a ba 42 3b 70 99 c4 bb 99 bf ae 3d
       -0.0031544333 0.0029713274 -0.0059997365 0.08532638
0001d0 5e b1 b7 3e aa 6b 9b 3e fa 7a 80 3e 15 02 04 3c
       0.35877508 0.3035558 0.25093824 0.008057137
0001e0 96 97 44 be 25 af 14 bf 39 bc cc 3e 73 c2 73 3e
       -0.1919845 -0.5807975 0.39987352 0.23804645
0001f0 ff 9f 70 3e a7 70 0d 3d 30 b4 13 3d c4 ea 2b 3e
       0.23498534 0.03453126 0.036060512 0.16788775
000200 6f ec a2 3d b3 00 f9 be 3e 4b 6c be 99 c9 87 3e
       0.079552524 -0.48633346 -0.23075578 0.26520994
000210 7f 16 6b be 88 ac ef be 13 21 f0 bc 12 41 36 ba
       -0.229578 -0.46811318 -0.029312646 -0.0006952445
000220 30 58 7d b9 c4 51 e4 bd d0 da 4b 3e 22 2e 91 3e
       -0.00024160813 -0.11148408 0.19907689 0.2835551
000230 6b 52 8f 3e ac b5 58 be 9c 87 79 3d e3 f4 61 3d
       0.27992567 -0.21163052 0.060920343 0.055165183
000240 c2 0c 0a 3e 5f e2 eb bd 00 3b 4c be 48 7f 56 bf
       0.13481429 -0.11517786 -0.19944382 -0.83787966
000250 3e 0d 48 3e 93 21 5c 3e 20 37 98 3e 68 1c d0 bd
       0.19536301 0.21497183 0.29729557 -0.10161668
000260 b5 a2 7e be 23 0e b0 bd ae 4c 25 be 78 5e 9a be
       -0.24866755 -0.08596446 -0.16142532 -0.301502
000270 f3 2a b3 be f7 8d 3c 3c d0 fd b6 3a fd 6e fa b7
       -0.34993705 0.011508456 0.001396114 -2.9854005e-05
000280 9e 30 3e bc ba 3c cb 3e 62 01 0c bf 40 e6 12 be
       -0.011608271 0.39694768 -0.5468961 -0.14345646
000290 eb be 2a bf e5 b4 a6 be 76 26 c2 be d6 d1 c3 3e
       -0.6669757 -0.32559887 -0.37919968 0.3824603
0002a0 a9 ed 53 be a3 71 1a 3e 22 c1 e0 be d6 43 9b 3e
       -0.20696129 0.15082411 -0.4389735 0.30325192
0002b0 b2 fc ad 3e e7 bd ea 3e 14 29 8c 3e 5d 44 17 bf
       0.33981854 0.4584801 0.2737509 -0.5908869
0002c0 6d 97 bc 3e e4 ef ef 3e d9 91 ca be 01 54 11 3f
       0.3683428 0.4686271 -0.39564398 0.56768805
0002d0 3a 3e a8 bd 0b df a8 ba f4 3f ea b9 52 c2 71 be
       -0.08214994 -0.0012883855 -0.00044679607 -0.23609284
0002e0 19 50 0e 3f 41 e4 80 bd f4 b0 d3 3d 79 1e c3 3d
       0.5559097 -0.06293536 0.103364855 0.095272966
0002f0 1a d9 c0 bd ed 19 98 be 4c f2 90 be 01 87 3e 3a
       -0.09416409 -0.2970728 -0.28309858 0.0007268042
000300 6d fa 11 bf 5d 3c 2f be bd 1d 01 3f 75 b3 17 3e
       -0.57022744 -0.1711287 0.50436 0.14814551
000310 68 11 21 3e 3c 83 a3 be 6e e0 b7 bd 26 42 03 bf
       0.15729296 -0.3193606 -0.089783534 -0.5127281
000320 eb 3d 35 be 10 de 91 bd fb a8 6b 3e d4 55 69 3e
       -0.17699401 -0.07122433 0.2301368 0.22786647
000330 33 04 02 ba 9c 66 68 39 f1 6d 13 be 0d f7 28 bf
       -0.0004959732 0.00022163469 -0.14397408 -0.6600197
000340 19 05 5e be 8d cf 9b bd 6e 00 ca 3e bb 5f a3 3d
       -0.21681632 -0.076079465 0.39453453 0.079772435
000350 37 50 7e 3e 5d 56 e3 be fb 9c bb 3d 1a a0 fb be
       0.24835287 -0.44401827 0.09160801 -0.49145585
000360 5a 15 b1 be 19 0b 91 be 14 ea ab 3e 8c 33 ac 3e
       -0.34586602 -0.2832878 0.33577025 0.33633077
000370 27 f3 90 be 99 e2 b5 3e 20 c3 c4 bd a6 8e bd be
       -0.2831051 0.35524443 -0.0960753 -0.37022895
000380 b6 b4 4a be e2 7c 12 3e 5b de 92 3e 98 54 83 3a
       -0.19795498 0.14305452 0.2868527 0.0010019718
000390 2d 96 23 3b 78 3b ea 3d
       0.0024961338 0.11437124

phi_from.mlp.mlp.0.bias f4 [10]
000000 5a 75 33 3e 08 ac 07 3e b8 72 ca 3c c3 d5 1e 3e
       0.17525235 0.13249218 0.024712905 0.15511231
000010 97 3a 15 3e 64 16 a3 3d bb aa a4 3d 4b 89 c1 3d
       0.14573132 0.07963255 0.08040377 0.09450015
000020 c2 b2 22 3e 55 d9 00 3e
       0.15888503 0.12582906

phi_from.mlp.mlp.2.weight f4 [10, 10]
000000 7c 82 ae bd 7e f3 2d bf 75 16 8a 3e cc 66 0e be
       -0.08520982 -0.67949665 0.26970258 -0.13906401
000010 c3 c4 b0 3e 48 51 1a 3e 39 7e d9 be 57 1a 67 bc
       0.34525117 0.15070069 -0.42479113 -0.014105401
000020 be b7 21 bf f0 9c ec be a0 05 ed 3d 38 84 6a 3d
       -0.63170993 -0.46213484 0.115733385 0.057255
000030 65 90 38 be d5 12 c9 bd 31 37 76 be 5a 0a 8f 3e
       -0.18023832 -0.09818045 -0.24044491 0.27937585
000040 52 77 d9 3e 73 2d 49 be 62 eb 15 3e 64 13 ef be
       0.42473847 -0.19646244 0.14640573 -0.4669448
000050 ec 79 d1 be 9f b4 28 3f 54 b4 f1 3e 3a 6b 96 3e
       -0.40913332 0.65900606 0.47207892 0.29378682
000060 17 c6 48 be 94 98 d6 be 02 35 53 bc b6 fa 64 bf
       -0.19606815 -0.41913283 -0.012891056 -0.89445055
000070 5a 8b ae 3e 1d 2d fd be 33 10 56 3e 63 1a 8d 3e
       0.34090692 -0.4944848 0.20904617 0.27559194
000080 a1 8e 52 bd bb 4d 51 3d c1 c7 a0 3e d4 25 9b be
       -0.051405553 0.05109952 0.314024 -0.30302298
000090 78 03 1b bf 28 a0 02 bf 40 24 c4 be 49 e5 65 3e
       -0.6055217 -0.5102563 -0.38308907 0.22450747
0000a0 9d 5d ff be b7 6d 0f 3f ce 1b b5 bc 24 93 98 3e
       -0.4987611 0.56026787 -0.022107985 0.2979976
0000b0 10 5c dd be ce 29 9b be c4 5e 8c be 00 23 fd be
       -0.432343 -0.30305332 -0.2741605 -0.49440765
0000c0 77 a9 31 3f f9 29 42 be 2d 54 a8 be b3 d9 4b 3e
       0.6939921 -0.18961324 -0.3287672 0.19907264
0000d0 c8 5a 75 be db 80 60 be d7 80 06 3f 52 fe d5 bd
       -0.23960412 -0.21924154 0.52540344 -0.104488984
0000e0 5f cf e6 bc 4a 41 15 be 06 1c 39 bf 27 61 06 3e
       -0.028175054 -0.14575687 -0.72308385 0.13122998
0000f0 ea 8a 5a 3e a2 ab d6 bd 22 7f 55 bd c0 10 98 3e
       0.21342054 -0.10481955 -0.052123196 0.2970028
000100 14 5f 8a be d8 fc cb be e2 08 e8 bc fb da b8 3e
       -0.27025664 -0.39841342 -0.028324548 0.3610457
000110 47 70 86 3d 28 a1 86 3d a2 6e d3 be 75 77 07 bf
       0.06564384 0.06573707 -0.41295344 -0.5291665
000120 a0 6c c7 3d 25 9b 07 3f e8 de a0 be 56 79 f4 be
       0.097375154 0.52971107 -0.31420064 -0.47748822
000130 5e c7 bc be 15 e5 0a bf 0c 09 de be 6a cc 21 3d
       -0.36870855 -0.542558 -0.43366277 0.039501585
000140 ae 4d aa bc dc e1 6a be 12 31 06 3f a5 ff d5 bd
       -0.020788994 -0.22937721 0.52418625 -0.10449151
000150 24 ac 1d be 90 53 1f 3f b4 af c1 be 9e b9 6e be
       -0.15397698 0.6223688 -0.37829363 -0.23312995
000160 c1 e0 36 bf f4 b7 87 3d d0 5b ee be f7 cc f8 be
       -0.714367 0.06626883 -0.46554422 -0.48593876
000170 4e b2 b8 bd 38 b5 9b bd 93 77 14 3f 19 8a 5d bd
       -0.09018384 -0.07602924 0.57994956 -0.05408678
000180 44 1a de be 5c c7 a4 3e 93 93 c9 3e b2 74 65 3e
       -0.43379414 0.3218335 0.39370403 0.22407797

phi_from.mlp.mlp.2.bias f4 [10]
000000 05 c7 ec 3d cd 23 14 3e b7 f7 57 3d 33 46 3f bd
       0.115613975 0.14466782 0.052726474 -0.046697807
000010 99 de 80 bc 46 01 89 bd 53 55 1f bd e1 c3 4b 3e
       -0.015731143 -0.06689696 -0.03889973 0.1989894
000020 e7 9d 12 bc b1 45 f3 bd
       -0.00894878 -0.11878527

z_k.mlp.0.weight f4 [10, 32]
000000 98 4c 2e 3e 2b 7c b1 be 9f 78 27 be 4f 97 d2 3d
       0.17021406 -0.34665045 -0.16354607 0.10282766
000010 12 05 9b be 7e b0 ea be d9 d0 82 3e b7 50 1b 3f
       -0.30277306 -0.45837778 0.25549963 0.60670036
000020 1d cf 54 bd ff ec e0 bd e9 19 d2 3e da f2 11 3e
       -0.05195533 -0.109827034 0.41035393 0.14252797
000030 6e 0a 24 3e 43 db 34 be f3 5e c3 3d f5 7a 9a 3e
       0.16019604 -0.17661767 0.095395945 0.30171934
000040 e7 89 bb be ad 10 92 bf 9f 28 49 3f d2 79 d5 bd
       -0.3662865 -1.1411339 0.7857761 -0.10423626
000050 df 59 00 3f de c5 ee 3d 1a 40 6c bf 53 af c7 be
       0.5013713 0.11658834 -0.9228531 -0.3900095
000060 6a 78 b8 3e 5f 79 87 3e b6 0b 80 3f f7 45 3f bf
       0.3602937 0.26459786 1.0003574 -0.7471613
000070 6b 17 a8 3e cd fd e7 3e 7a e8 84 ba 54 20 b5 bd
       0.32830366 0.45310822 -0.0010140084 -0.08844057
000080 91 7b 2c 3f 73 b5 a4 b9 3d 54 89 3d e4 03 6a be
       0.6737605 -0.00031415708 0.0670552 -0.22853047
000090 b9 b5 f9 3b e1 0f 21 3e ad fd 82 bf b4 db 8f 3b
       0.00762054 0.15728714 -1.0233666 0.0043902043
0000a0 a7 fb 35 3e f0 74 a0 be 50 41 80 3e 56 15 17 3f
       0.17771779 -0.31339216 0.2504983 0.5901693
0000b0 c1 3b 92 be 3f c9 ae bf c0 2a 1f be 4e 1c 0b 3f
       -0.28561214 -1.3655165 -0.15543652 0.54340065
0000c0 1b f4 b1 3e 32 7a de be 0d 53 7c bf a1 9c be 3e
       0.3475655 -0.43452603 -0.98564225 0.37228873
0000d0 97 6d 63 bd fd 9d c6 3e 16 e7 1e bf 18 3c 10 bf
       -0.055524435 0.3879241 -0.6207136 -0.56341696
0000e0 be d2 f8 be 83 ff c6 3e a6 dd 9e 3e 1f b2 00 be
       -0.48598284 0.38866815 0.3102848 -0.12567948
0000f0 f1 46 91 be 10 7f 22 3f 05 c7 85 3c 7d be bf bd
       -0.28374436 0.6347513 0.016330251 -0.09362505
000100 7c be a3 3e a5 7d 13 3e 92 fa 1a be 3d 69 dd 3d
       0.31981266 0.14403398 -0.15134647 0.10811088
000110 a9 fa 06 bd bd 04 e2 bd e6 c4 9c bf 46 40 a1 3d
       -0.032953892 -0.1103606 -1.2247589 0.07873587
000120 63 3b 75 3e 01 15 b6 bc 02 c5 a4 be fc a9 5a 3e
       0.23948435 -0.022226812 -0.32181555 0.21353906
000130 6e 43 88 be 2b dc 38 bf 33 56 19 bf 4b f9 c9 bd
       -0.26613945 -0.7221095 -0.59897155 -0.09862002
000140 df 69 7d 3e 11 b6 5e 3e 7d 05 9d be 31 42 cf bb
       0.24747418 0.2174914 -0.3066825 -0.0063250293
000150 4d 75 ea 3d 28 5f 34 3e e6 4f 64 bf 84 cc cb 39
       0.114481546 0.17614424 -0.89184415 0.00038871553
000160 43 67 eb bd c2 35 a5 3e b4 62 8d 3e c5 fc 48 bf
       -0.11494305 0.32267576 0.27614367 -0.78510696
000170 a6 2d 39 3e fb fb ba 3e f6 3d 36 bc 97 52 4d bd
       0.1808382 0.3652037 -0.011123171 -0.050127592
000180 33 1f d0 3e 4b 82 85 bd 2f 38 56 3e 97 a9 e3 3d
       0.40648803 -0.06518992 0.2091987 0.11116331
000190 3c b0 07 3c ea d0 fa be 28 13 89 3f b6 62 56 3d
       0.008281764 -0.48987514 1.0708971 0.05234023
0001a0 79 53 5d be 2c 10 de bc d8 a2 c5 bc 57 d5 d7 be
       -0.21613874 -0.02710732 -0.024125502 -0.42154953
0001b0 d3 b9 75 3e f8 3f 8f 3e 97 0b c4 3d 3c 83 f5 bd
       0.23996668 0.27978492 0.09572523 -0.119879216
0001c0 1b 25 d0 3c d2 52 59 3c a2 2a 02 bd ae ee 81 3e
       0.025408318 0.013264375 -0.03177894 0.2537741
0001d0 17 b1 90 3c 0b 73 25 3e 46 62 dd be b5 2f b7 be
       0.017662568 0.16157167 -0.4323904 -0.35778585
0001e0 fa f4 84 3e 74 31 ab 3d d3 9b 84 3e 84 14 b7 be
       0.25968152 0.08359042 0.25900134 -0.3575784
0001f0 f4 17 5f 3d c8 68 d4 3e 6b d0 18 3c c8 70 1e bd
       0.054466203 0.41486192 0.0093270345 -0.038681775
000200 ce 04 1a 3f 08 d1 9e be 76 6f a2 3d 97 a9 9f be
       0.6016358 -0.31018853 0.07931416 -0.31184074
000210 5c b1 ff 3d 1a c3 0d bf 81 eb 45 3f b0 82 19 3e
       0.124850005 -0.55375826 0.77312475 0.1499126
000220 82 37 c7 bb 82 7d c6 be cf 9e 86 bd bc b9 3d 3e
       -0.006079615 -0.3876763 -0.06573259 0.18527883
000230 7f 0b 15 3f 8b e8 be bd 12 7f 83 3e 48 af 03 bf
       0.58220667 -0.09321698 0.25682884 -0.5143933
000240 40 41 5d bf 4f fc ba 3e 90 7f 47 be 5e 64 26 be
       -0.8642769 0.3652062 -0.19482255 -0.16249225
000250 9b 8d 13 3e 84 a5 58 ba 5e ee 21 bf f0 30 57 be
       0.14409487 -0.000826441 -0.63254344 -0.21014762
000260 55 22 15 3e 8a 93 ed 3d 1d ac 32 bd 4a af 03 bf
       0.14563878 0.116004065 -0.04362117 -0.51439345
000270 d2 c0 19 3e a4 be 09 be 40 0d ba bb b7 16 b0 be
       0.15014961 -0.1345163 -0.005677849 -0.3439233
000280 2a 61 8f 3e 91 0e 4f be e0 44 4b 3e 3e 5e 61 bd
       0.28003818 -0.202204 0.19850492 -0.055021517
000290 9b d1 b3 be 3f 5e 07 bf c1 71 22 3f 98 c0 db 3d
       -0.35120854 -0.52878183 0.63454825 0.10730094
0002a0 2b 87 76 3c 8d 6c 1a 3d 59 39 02 3d 5d 6c 4e 3e
       0.015046875 0.03770118 0.031792972 0.20158525
0002b0 bb 3d 4d 3d f3 03 2d bd e4 8d 5f 3d bd fd 64 3e
       0.0501077 -0.042240094 0.054578677 0.22362418
0002c0 af e2 c8 bd 02 d7 41 bf 55 92 17 bf 18 79 11 3f
       -0.098088615 -0.757187 -0.5920766 0.568254
0002d0 c8 9a a9 3e 45 29 6a be 5d 13 5c bf a4 ae 89 be
       0.331259 -0.22867306 -0.85967046 -0.26891053
0002e0 85 9f 52 3d f9 9e a2 3e 9a 9d 83 3d 7d 97 a8 be
       0.05142166 0.31761912 0.064265445 -0.32928076
0002f0 2a 62 5b be 8f 3e c6 3d 5b 0a 9e 3b 5e ba ad 3e
       -0.21424165 0.09679901 0.004823012 0.3393125
000300 34 0a 8d 3f 6b 49 92 3e b5 75 0f 3f 43 11 11 be
       1.1018739 0.28571638 0.5603898 -0.14166741
000310 7f 41 ed bd 3e 7f c2 3d e8 7b 82 bf c3 1b ad 3d
       -0.11584758 0.09496926 -1.0194063 0.08452561
000320 b0 57 2f 3f f5 e9 5c be 63 82 85 3e eb 24 dc 3e
       0.68493176 -0.21573623 0.2607604 0.42996916
000330 7a 3d a3 bd b0 04 ed 3d 88 f0 13 bf 5a ae 54 be
       -0.0797071 0.1157316 -0.57788897 -0.20769635
000340 f4 e3 13 3f e5 4a d0 be 82 fa bf bf 71 ca c1 be
       0.57769704 -0.4068214 -1.4998324 -0.37849763
000350 f7 2d 63 3f 74 72 9a 3b 16 5f 65 bf 01 bf 09 bf
       0.8874201 0.004713351 -0.89598215 -0.53807074
000360 12 bc 1e 3f f0 e8 89 3f e5 55 b1 3e ca 50 45 be
       0.6200572 1.0774212 0.34635845 -0.192691
000370 26 15 f9 bd 25 6a 5d 3f 58 4a a5 bb 13 8b f0 be
       -0.12162237 0.8649009 -0.005044263 -0.46981105
000380 7e ab 72 bf a5 52 f4 ba aa e9 87 3d b3 dc 4a be
       -0.94792926 -0.0018640353 0.06636365 -0.19810753
000390 9b ed eb be ba fe 5d 3d 46 ac 84 be b9 94 d2 3f
       -0.46079716 0.054198004 -0.25912684 1.6451637
0003a0 34 41 f6 bd 13 bf 9f be 2d be 8e be 97 2d 22 be
       -0.12024155 -0.31200466 -0.27879468 -0.15837704
0003b0 33 ac ca be 6d d6 27 be e9 a1 c2 3d c3 87 3b bd
       -0.39584503 -0.1639039 0.09503538 -0.04578377
0003c0 55 54 db 3e 84 32 ae 3e e0 65 57 be 5b ac 9c 3e
       0.42837778 0.34022915 -0.21034956 0.30600247
0003d0 a3 32 00 3e df c8 53 be 1f 24 2d bf e3 bb a9 be
       0.12519316 -0.20682095 -0.6763324 -0.3315116
0003e0 d6 38 63 3e c8 9b f6 bd ce ad 12 3f 85 e9 dd be
       0.2218965 -0.12041432 0.57296455 -0.43342224
0003f0 03 0c 8a 3e 2d 07 1b 3f 62 53 f0 3c 35 92 9e bd
       0.2696229 0.60557824 0.029336635 -0.077427305

z_k.mlp.0.bias f4 [10]
000000 28 27 14 3e 92 35 c3 3e e7 21 3c be bf 5c 95 bd
       0.14468062 0.38126808 -0.18372308 -0.072930805
000010 c7 19 fb bd ac 12 fb bc dd f3 2a bf 82 06 ec bd
       -0.12260776 -0.030648552 -0.66778356 -0.11524679
000020 19 10 45 3d 7b 65 b2 3d
       0.048111055 0.08710762

r_k.mlp.0.weight f4 [10, 32]
000000 41 a8 59 3f cf 54 1e be fa 31 82 3e 01 54 69 be
       0.8502236 -0.1546204 0.25428754 -0.22785951
000010 6f de d5 bf 9d da f3 bb 89 25 82 3e a5 67 33 be
       -1.6708506 -0.007441832 0.25419262 -0.17520006
000020 71 64 fd 3d 4c 55 17 3e 6d 64 26 be 0d 66 92 be
       0.12372673 0.14778632 -0.16249247 -0.28593484
000030 87 17 24 be 9b e9 0d be f0 89 30 be cf 38 86 be
       -0.160246 -0.13858645 -0.17240119 -0.26215217
000040 df 6e 33 bf 12 6f f8 be a2 88 04 be 6a 50 f8 bd
       -0.7009105 -0.4852224 -0.12942746 -0.12124713
000050 aa ea c3 be ce de 00 be 39 3d 84 3e 5d a2 54 3e
       -0.38264972 -0.12584993 0.2582796 0.20765062
000060 3c f2 39 bf 37 5e 56 3f a4 42 3a be ba f5 86 3d
       -0.72635245 0.8373751 -0.18189484 0.06589837
000070 b9 c2 6e 3f 1b 87 0d be 30 6b d4 3e cc 53 54 bc
       0.93265873 -0.1382107 0.41488028 -0.012959432
000080 59 8a d9 3e db dd ae 3e 28 33 96 be 20 2d a8 3e
       0.42488363 0.34153637 -0.29335904 0.32846928
000090 b4 b6 e8 be 97 06 b3 3d d4 8e 5d 3e da 20 15 3e
       -0.4545189 0.08741491 0.21636516 0.14563313
0000a0 77 1b 26 bf d3 70 87 be 91 e2 b0 3b 84 0a ad 3e
       -0.6488566 -0.26453266 0.0053981026 0.33797085
0000b0 8b 0c b3 be d3 5a b8 bc d6 8a 88 be d4 05 87 3e
       -0.34970507 -0.022504246 -0.26668423 0.26371634
0000c0 5c 98 cd 3a 4e 42 a6 be 7b f0 ea 3e fe ef 66 be
       0.0015685665 -0.3247246 0.45886597 -0.22552487
0000d0 41 8c dd bd 4f 67 19 be 98 76 60 3e 74 f5 70 be
       -0.10817767 -0.14980815 0.2192024 -0.23531133
0000e0 30 5b eb be 71 56 fd 3d 18 4c 5e be 44 85 84 be
       -0.45968008 0.12370003 -0.21708715 -0.25882924
0000f0 32 57 0e be 43 55 61 be 2e 74 5c bc ac 08 9f be
       -0.1390045 -0.22005181 -0.013455434 -0.31061304
000100 05 bb 1e be 0f 0d e0 3e 6e cf 26 3e 56 bd 7f bd
       -0.1550103 0.43759963 0.16290066 -0.062436424
000110 a5 28 80 3e da 18 f0 be a6 29 54 3f eb f4 3f 3d
       0.2503101 -0.4689396 0.8287605 0.04686443
000120 1e 20 e6 3e 28 f7 b1 be c7 0d ff 3e 37 ea d7 3d
       0.44946378 -0.34758878 0.498152 0.1054272
000130 b0 e3 41 bf c0 d6 c2 3e 8c 1e 2d 3f 73 25 04 3f
       -0.7573805 0.38054466 0.67624736 0.5161964
000140 85 ef 67 3d 23 7c df 3d 42 ef 17 3f b3 18 a7 3e
       0.056624908 0.10912349 0.59349453 0.32636032
000150 27 50 46 be d9 be 1a bf 4e 8a f6 be f9 01 ad 3e
       -0.19366513 -0.6044746 -0.48152393 0.33790568
000160 fb 50 74 3e 4b 92 92 be c0 d4 d1 3e 2f 24 1e be
       0.23859017 -0.28627238 0.40982628 -0.1544349
000170 42 bf d6 bc 9e a4 e0 3e 20 01 f4 bc ed 77 84 be
       -0.026214246 0.43875593 -0.029785693 -0.25872746
000180 94 17 cd be 0f fa 86 3d f9 22 32 bf 1b e8 10 3e
       -0.4005705 0.06590664 -0.69584614 0.14151041
000190 d7 47 20 bf 96 29 d2 bd 71 78 8f 3e ba 6c 9f be
       -0.6260962 -0.10261838 0.28021577 -0.3113764
0001a0 4f 08 56 bf 61 fb 0f bd e5 30 16 3d 9c 9e 35 be
       -0.8360643 -0.035151843 0.036667723 -0.17736286
0001b0 27 74 09 3e 5d 1d 4b bd 05 80 08 c0 b9 19 30 3e
       0.13423215 -0.04958855 -2.1328137 0.17197312
0001c0 12 fe ce be 15 18 05 be cb 53 25 bf 79 88 ea 3e
       -0.40428215 -0.12997468 -0.6458098 0.45807245
0001d0 c1 04 cf bd 21 b7 cc bd b1 11 7d be 11 64 a9 3d
       -0.101083286 -0.099958666 -0.2471378 0.08271039
0001e0 6e 64 ea be 43 38 69 3f 85 dd 93 bf 63 b7 98 3d
       -0.45779747 0.91101474 -1.1551977 0.07456853
0001f0 48 ae bc 3e 98 93 56 bf 19 e9 5c 3d 5f d8 fa 3d
       0.36851716 -0.8381896 0.053933237 0.12248301
000200 f3 a0 56 3f d6 42 c0 3d 9d 03 24 3e 6f e5 79 be
       0.8383934 0.09387748 0.16017003 -0.24403928
000210 d8 b3 b4 3e fb 77 98 be 67 d4 1f 3e 6e fc 20 bf
       0.3529346 -0.29779038 0.15608369 -0.6288518
000220 0a 18 e7 3e 86 f0 e2 3e a3 19 0f 3e 75 d6 0e 3e
       0.45135528 0.4432413 0.13974623 0.13948996
000230 9e d7 2c be 3d 2e 12 bf ca 82 de bd f6 aa 17 3f
       -0.16879126 -0.57101804 -0.1086479 0.5924524
000240 43 5a af 3d c5 ff 68 bf 05 1b cf bd ba 6f 83 3e
       0.08562138 -0.91015273 -0.101125754 0.25671178
000250 9a 85 8a 3d 91 49 3d 3e 0f ad a1 3e ac 9c c2 3e
       0.06763764 0.18485095 0.31577346 0.38010156
000260 1e 1a a1 3e d4 2a 17 3f 6a fd 9b 3e 3b 8c a1 3e
       0.31465238 0.59049726 0.30466777 0.315523
000270 88 ae 47 3e ad d9 9c be be a0 03 be e4 f1 7f be
       0.19500172 -0.30634823 -0.12854287 -0.24994618
000280 ad d8 36 3f 37 cf 75 be 44 c4 84 bd 34 5d 2d 3f
       0.7142437 -0.24004827 -0.06482747 0.6772034
000290 f8 e4 2e bf 3e 44 42 3e 38 b1 12 be 0f 4e 0d bf
       -0.6831813 0.18971345 -0.14325416 -0.5519723
0002a0 ce 65 b0 3e 86 39 28 3e 26 54 01 bf 32 f3 2a 3f
       0.3445267 0.16428193 -0.50519025 0.66777337
0002b0 9d b2 e0 3d 31 d4 23 3e 9b 36 b7 be a0 32 e3 be
       0.10971568 0.15998913 -0.35783848 -0.4437456
0002c0 a8 25 00 bf aa 5a 46 be e9 87 62 3e 6e 49 57 3e
       -0.5005746 -0.19370523 0.22122158 0.21024105
0002d0 bd 85 09 3f 9b a7 9f bd 89 2b a3 3c 83 50 37 be
       0.53719693 -0.0779564 0.01991822 -0.17901807
0002e0 65 90 c3 bc c5 07 84 3d 34 48 03 bf e1 c3 f3 be
       -0.023872564 0.064467944 -0.5128205 -0.4761038
0002f0 10 88 99 3e 80 ba 45 be 82 80 26 3e 0c 0b 83 be
       0.2998662 -0.19309425 0.1625996 -0.25594366
000300 b3 a7 a5 be 63 f1 fe bd 23 0a f9 3c 05 cd e6 3c
       -0.32354507 -0.124483846 0.030400341 0.028173933
000310 3e f1 e9 bd 69 ff 04 3d 21 03 f9 be 45 a1 84 3d
       -0.114229664 0.03247014 -0.486352 0.06476072
000320 b5 b9 2a be 1d b6 c3 be ca ab 82 be 25 f4 e0 3e
       -0.16672404 -0.3822488 -0.2552169 0.43936267
000330 a4 d9 ae be 5a bb 1d bf 24 4d 0b bd e8 fa f2 3d
       -0.34150422 -0.61614 -0.034009114 0.11864263
000340 82 1e f9 be c3 2b 0b be 42 ec 9a be 4a 39 f2 bd
       -0.48656088 -0.13590913 -0.30258375 -0.11827333
000350 51 72 05 3f 1f 5f e3 bd 32 4c 3e 3f 4b 8f 98 bd
       0.5212756 -0.11102127 0.74335015 -0.07449206
000360 33 55 cf bd ef 3a 18 bf 13 25 11 3e 7b 30 41 3f
       -0.10123672 -0.59464926 0.14174299 0.754646
000370 6b 64 c5 bc 64 92 c6 be 19 4a 1c be 3c 6f 03 be
       -0.024095735 -0.38783562 -0.15262641 -0.12835401
000380 71 e0 81 3e ce a3 08 bf ce 24 7f be 12 68 09 3e
       0.25366548 -0.53374946 -0.24916384 0.13418606
000390 f2 02 d4 be 9e 9f 98 3e 52 f2 4a be a7 11 93 bd
       -0.41408497 0.29809278 -0.19819 -0.07181101
0003a0 7d 6a 6d bd eb 50 7a be cc 15 8d be ea a8 5b 3e
       -0.057962883 -0.2444493 -0.27555692 0.21451154
0003b0 74 53 ab 3e 63 da 03 3f 73 17 af 3e 7d d6 1b 3e
       0.33462107 0.51505107 0.34197578 0.1521854
0003c0 9f 8c be be 81 c5 18 3e 4c 95 df 3d e3 e3 9f be
       -0.3721666 0.14919092 0.10917148 -0.3122855
0003d0 a6 07 73 3e 5a f4 5a 3e 5a 52 4d be c1 dd 86 3e
       0.23733386 0.21382275 -0.20050946 0.2634106
0003e0 e8 90 12 be 3d d9 0e bf 87 92 ed be 88 a3 e6 be
       -0.1431309 -0.5580023 -0.46400854 -0.4504664
0003f0 42 c0 56 3e 54 98 a7 be c8 2d c2 bc 4d 59 41 be
       0.20971778 -0.32733405 -0.02370347 -0.18881722

r_k.mlp.0.bias f4 [10]
000000 40 d7 ba be b9 a8 60 bd 5c 89 98 be 70 e6 84 bc
       -0.36492348 -0.054848406 -0.29792297 -0.016223162
000010 26 f0 3c be 5e b5 0a be 06 8c b6 3d 38 d5 10 3d
       -0.18450984 -0.13545749 0.08913426 0.03535959
000020 5e fd 33 be c0 06 c2 3d
       -0.1757712 0.09473944

correction.mlp.0.weight f4 [10, 32]
000000 e6 37 c9 be 10 09 71 be 3f 66 80 be ce 09 9c 3e
       -0.3930046 -0.23538613 -0.25078008 0.3047623
000010 e3 4d 52 3e 80 75 a9 bd 5d b4 0f 3e fd 2f d4 3c
       0.20537524 -0.082743645 0.14033647 0.025901789
000020 a2 17 99 3d 64 ea 92 3e a7 00 89 be 7f 4b 45 3e
       0.07475211 0.2869445 -0.2675831 0.1926708
000030 c2 4e 38 bd c1 e0 dc bd ed fd 7e 3e 57 66 6a 3e
       -0.044996984 -0.10785056 0.24901552 0.22890602
000040 0c 14 b6 3d 03 1e 74 3e 56 93 5c 3e 70 22 5c 3e
       0.088905424 0.23839574 0.21540579 0.21497512
000050 ac b0 3c 3e 46 94 ae be 2a d1 1b bf 67 50 16 3e
       0.1842677 -0.340975 -0.60866034 0.14679109
000060 51 e6 e6 3c 1b 26 69 3d a1 fa 04 be 67 aa ab 3d
       0.028185995 0.056921106 -0.12986232 0.08382111
000070 aa 70 0a 3e e4 ce 55 be a3 1d 2d bc 94 50 b5 be
       0.1351954 -0.20879704 -0.010566148 -0.3541304
000080 95 43 02 3e 10 d9 9c be be e3 a1 be 11 d1 8f bd
       0.12721093 -0.30634356 -0.31619066 -0.07022298
000090 ad 93 4b be ad c0 4b bc f1 23 24 3f 06 5a 8d 3c
       -0.19880553 -0.012436074 0.6411734 0.01725484
0000a0 f3 6b 73 3e 9e dc c4 be a0 c7 3d 3e 8b fc 20 bd
       0.23771648 -0.38449568 0.18533182 -0.039303344
0000b0 82 ce 19 3e 76 b9 8d be 2b 7e 15 3e 38 5d 68 3d
       0.15020183 -0.27680558 0.1459891 0.056729525
0000c0 d4 5d 32 3d 2f 78 c8 bc 95 6d 88 bc e0 1e 4e 3b
       0.043546513 -0.02447137 -0.016653815 0.0031451508
0000d0 08 18 c2 bd 84 bd ae be 7a 39 72 be 04 f8 41 3e
       -0.0947724 -0.34128964 -0.23654738 0.18942267
0000e0 ac 87 97 3e 89 71 75 3c 41 71 f1 bd 21 ba 4f be
       0.29595697 0.014980682 -0.117891796 -0.20285846
0000f0 6e 55 01 be 42 94 f4 bd 75 75 1b 3c d8 1b d8 3e
       -0.12630245 -0.119423404 0.009488453 0.42208743
000100 91 07 8b be b8 8a d4 bd f2 52 cd be 97 b7 63 3e
       -0.2715421 -0.10378021 -0.40102345 0.22238003
000110 3e 8f 48 3c 59 25 34 3e 3b fb 97 3e 51 4c ec bc
       0.012241183 0.17592372 0.2968386 -0.028844984
000120 9f 9f 76 3e ab 08 f9 bc e5 90 0a 3d 0e c3 82 be
       0.24084328 -0.030399641 0.03382959 -0.2553944
000130 93 25 15 be 48 10 17 bc d4 fb 7a be e5 78 00 be
       -0.14565115 -0.00922019 -0.24510127 -0.12546118
000140 bd fe 3b 3e 7d 3b e6 3d e8 18 cf 3d bd 88 46 be
       0.18358894 0.11241815 0.10112172 -0.19388099
000150 57 01 ae bd 69 79 af be 7a 20 4c bd 1e 0d 0f 3e
       -0.08496349 -0.34272316 -0.04983566 0.13969848
000160 cb a2 f7 3d 57 8a a0 3e 70 76 a2 be b2 eb b5 bb
       0.12091597 0.31355545 -0.31730986 -0.0055517787
000170 77 cf c6 be bc 7c de 3e 7a 8b b0 3b 62 dd 5b be
       -0.38830158 0.4345454 0.0053877207 -0.2147117
000180 54 d7 a2 be 14 28 74 be 6e 5d 12 be 5c 9c 2e bf
       -0.31804907 -0.23843414 -0.14293453 -0.68207335
000190 91 39 35 be b0 03 03 3e 25 01 bd 3e eb 7a 5f be
       -0.17697741 0.12794375 0.36914936 -0.21824233
0001a0 65 50 50 be 59 b7 82 bc a5 bd 85 bd 81 59 73 ba
       -0.20343168 -0.015956568 -0.065303124 -0.00092830515
0001b0 65 a9 c9 be f7 fa 1b be 31 29 61 be 9a cf 33 3d
       -0.3938705 -0.15232454 -0.2198837 0.043899156
0001c0 dd 0d 7f be a8 1d 89 3c 26 fb 28 bd f7 c2 4c be
       -0.24907632 0.016737774 -0.04125514 -0.19996248
0001d0 45 99 67 3e 51 3e de 3d df 9b a2 3d 18 c6 0f 3e
       0.22617061 0.1085173 0.07939886 0.1404041
0001e0 be 58 92 be 9a 2e c5 be ee ab de 3e 5c a0 cf 3d
       -0.2858333 -0.38512117 0.43490547 0.10138008
0001f0 b3 d9 53 be c5 54 b2 be d6 7f 83 bb 97 c4 55 be
       -0.20688514 -0.348303 -0.004013042 -0.20875774
000200 04 2a a9 be b3 20 ad 3e d8 59 fb bd ca cf 14 bd
       -0.33039868 0.3381401 -0.12272996 -0.036330976
000210 54 08 0e 3c 8c 95 b7 3e fa 63 e0 be 46 26 7f be
       0.008668978 0.35856283 -0.43826276 -0.24916944
000220 21 d2 8e bd c5 d8 e2 bd aa 86 a0 3e e5 43 a0 3e
       -0.06973673 -0.11076502 0.3135274 0.313018
000230 cc 25 c0 be 94 ba 8f bd e9 1f 22 3d ee ed bc be
       -0.37528837 -0.07018009 0.039581213 -0.36900276
000240 f4 70 d4 bc 7c 83 e0 bd f2 1f 0d 3e c8 bc a4 bd
       -0.025932766 -0.10962579 0.13781717 -0.0804382
000250 cc 66 06 3e 0e 38 95 3e b6 9d 44 bd 03 c8 8e 3e
       0.13125151 0.2914433 -0.048001967 0.27886972
000260 ce a1 10 3b 83 81 95 3e d6 97 16 be c3 7b c2 bd
       0.00220691 0.29200372 -0.14706358 -0.09496262
000270 0a b3 7a be ba c5 99 bd 45 77 6d b9 22 d8 77 be
       -0.2448236 -0.075084165 -0.00022646513 -0.24203542
000280 8d 1f 5f 3e b8 1b 82 3d 93 d7 a5 be b2 fa a3 3d
       0.2178938 0.06352943 -0.32391033 0.08006801
000290 f2 db df 3e 93 1d 37 bf 68 37 b9 3d f2 d7 48 3f
       0.43722492 -0.715295 0.09043771 0.78454506
0002a0 9d c3 5e be c1 d3 40 be b5 c0 68 be 74 89 50 bd
       -0.21754308 -0.18830778 -0.22729762 -0.050912336
0002b0 47 74 3d 3d 73 1c 60 be 9e 71 06 3d 28 68 c2 3e
       0.04625347 -0.21885853 0.032823198 0.3797009
0002c0 0b 2a 30 3e 78 53 56 be 4a fa 45 3e 86 bc 27 3d
       0.17203538 -0.20930278 0.19333759 0.040951274
0002d0 a3 45 06 be 39 e7 6a 3e 5c c4 27 be 0b f6 bd 3e
       -0.13112502 0.22939767 -0.16383499 0.37101778
0002e0 e5 2b bb bc 68 61 30 bd 1d c6 d5 bd 50 6b e3 be
       -0.022848079 -0.043061644 -0.10438178 -0.4441781
0002f0 b2 67 0b bd b3 d5 11 be a1 cc 45 3c 0d 73 50 b8
       -0.03403444 -0.14241676 0.012072713 -4.9698214e-05
000300 70 55 b5 be a1 fd 24 3e a4 a3 1f 3a 09 e3 df bc
       -0.35416746 0.16112377 0.0006089753 -0.027329938
000310 8a 15 c3 be 72 28 e7 bc b0 68 53 bf 57 77 b3 3d
       -0.3810237 -0.028217528 -0.82581615 0.08762997
000320 7b 72 6a be 0c 21 26 3f e8 a2 bd bd e2 1f f1 bd
       -0.22895233 0.64894176 -0.092595875 -0.11773659
000330 81 15 56 3e 8b a7 22 bd 7b 1e d6 3d ba 30 a2 3e
       0.2090664 -0.039710563 0.104550324 0.316778
000340 bd 76 a5 3c a4 42 48 3e be 27 ab be e5 5b 7c 3d
       0.02019822 0.19556671 -0.33428758 0.061611075
000350 bc 1a 84 3e 2c 58 55 be da e2 90 be 2d ee 48 3d
       0.25801647 -0.20834416 -0.28298074 0.049055267
000360 89 61 84 3e af a3 64 be d2 41 03 be a9 81 c6 bd
       0.25855663 -0.22328065 -0.12818077 -0.096926995
000370 59 80 9b 3e 83 a7 fa 3d 83 82 1c bc 26 c3 b8 3e
       0.3037136 0.122389816 -0.009552601 0.36086386
000380 22 a7 80 3e 94 45 04 bf e6 84 08 3e 88 37 5a be
       0.25127512 -0.5166867 0.13331947 -0.21310246
000390 d8 a1 ff bb 43 70 b5 bc b6 0f f8 be 8e 3d f9 be
       -0.0078012757 -0.022148257 -0.48449486 -0.48679775
0003a0 41 96 62 bd 2e 36 48 3d 79 e4 9e bc a4 b4 9a bc
       -0.055319075 0.048879795 -0.019396054 -0.018884964
0003b0 19 43 b3 be e7 11 b9 3d c8 07 b1 3c c3 69 c5 be
       -0.3501213 0.09036618 0.021610156 -0.38557252
0003c0 8f f7 28 bc cf 7c 9d 3d ef e2 15 3e 0f 88 0b 3d
       -0.010312929 0.07689821 0.1463735 0.034065302
0003d0 b2 01 00 3e f8 6c 1f 3e 8e 65 86 be 91 76 f3 3d
       0.12500647 0.15568912 -0.26249355 0.11887849
0003e0 87 ef 7c be 8f 91 c2 bd 30 61 89 3d b2 bd d4 3e
       -0.24700747 -0.09500419 0.0670799 0.41550976
0003f0 e1 8e c1 be b1 aa 52 bd 3b 9f 0a 3b 28 1a 82 3e
       -0.3780432 -0.051432315 0.0021152038 0.2541058

correction.mlp.0.bias f4 [10]
000000 85 fb 7b 3c b1 fc 73 3d c1 c7 63 3d 7f e6 6c be
       0.015379791 0.059567157 0.055610422 -0.23134802
000010 1d 41 d5 ba 2a 3e 74 3d b7 a5 35 3d ec 9c 04 3d
       -0.0016270016 0.059629597 0.04434749 0.032376215
000020 fa 79 f3 bb fe 23 1c 3d
       -0.007430312 0.038120262

autoencoder.encoder.mlp.mlp.0.weight f4 [10, 1]
000000 01 b7 e4 3e 30 40 80 be 57 65 b3 3e 6c 83 fd 3c
       0.4467087 -0.2504897 0.35038254 0.030946456
000010 3c df b7 be 24 f1 61 3e 9b 45 95 3e 56 a3 9d 3d
       -0.35912502 0.22064644 0.29154667 0.076971695
000020 f7 cf f1 bd 11 db cd 3d
       -0.11807244 0.10051549

autoencoder.encoder.mlp.mlp.0.bias f4 [10]
000000 63 36 47 bb 2c 78 b6 39 3e d3 ad bc cd 65 d3 3b
       -0.0030397407 0.0003480328 -0.021218892 0.0064513446
000010 21 e4 8b 3d a8 0b 2d bd 40 da 93 bd 56 f1 65 3c
       0.068306215 -0.042247444 -0.07219362 0.01403459
000020 d6 20 38 3d 79 c3 39 bd
       0.04495319 -0.045352433

autoencoder.encoder.mlp.mlp.2.weight f4 [10, 10]
000000 71 81 b9 bd 47 10 5c be 89 93 d6 3e 2f ea ca be
       -0.09057892 -0.21490584 0.41909435 -0.39631793
000010 d6 63 1d 3e 4b 6e ee be c0 4c 12 be e0 16 71 3e
       0.15370116 -0.46568522 -0.1428709 0.23543882
000020 36 2e 60 bd a3 ff 82 3e da 41 1a 3e 3d e5 bb be
       -0.05473157 0.2558566 0.15064183 -0.36698332
000030 5d 12 f5 3e ee ca ee 3d 81 74 13 3e 68 7f e2 be
       0.47865573 0.116597995 0.14399911 -0.44237828
000040 01 94 54 3d e9 7c ca be ad 72 db bd 89 14 66 3d
       0.05189896 -0.39548424 -0.10715232 0.056171928
000050 9b 3f c8 be e6 26 a4 be dd 68 02 3f ab cb 1b be
       -0.39111027 -0.32060927 0.5094126 -0.15214412
000060 40 aa e3 bd 11 b7 12 3f b9 fa a6 be 72 a2 21 3f
       -0.11116457 0.5731059 -0.3261316 0.63138497
000070 d3 55 b9 3b ae 8a df bd 2e 64 e6 3d 5f a5 87 bd
       0.005655983 -0.10915123 0.112495765 -0.06623339
000080 8d b2 4b be 2a 3b 44 3e a0 17 a2 3e 0b 29 68 3e
       -0.1989233 0.19163194 0.3165865 0.22671907
000090 d5 ed 54 be 3b 69 e1 be b4 d6 c9 be 7c 23 89 be
       -0.2079385 -0.44025597 -0.39421618 -0.26784885
0000a0 cb 99 85 be 75 92 b4 be c2 22 a7 3e 93 5d 04 3e
       -0.26093897 -0.35267988 0.32643706 0.1292632
0000b0 bd 27 e5 3d 4b 56 0b be 7e c3 4d 3e 50 77 d8 bd
       0.1118922 -0.13607137 0.20094106 -0.10569632
0000c0 e6 83 6a be 8b a8 6c be 6a 53 69 3e ce dc a5 be
       -0.22901878 -0.23111169 0.22785726 -0.32395023
0000d0 29 cd 59 be 5d ea b8 be 49 4a af 3e 98 eb f6 3e
       -0.21269669 -0.36116305 0.34236363 0.4822662
0000e0 76 eb 97 be c2 0d be 3e cc cc b8 bd ea 4a 47 3c
       -0.2967183 0.3711987 -0.09023437 0.012163857
0000f0 a0 74 d2 be 80 57 0c bf 92 d9 ec 3e ec 48 c2 3d
       -0.41104603 -0.54821014 0.46259743 0.09486565
000100 8c 77 94 3e e0 a1 fc 3e 21 de f1 be 1a f6 fa 3e
       0.28997457 0.4934225 -0.47239783 0.49015886
000110 4f 7a 92 3e 64 1e f9 3d 13 49 da 3e ce c6 62 be
       0.2860894 0.12164 0.42633876 -0.2214615
000120 54 8b 01 bf b3 d8 ba be 93 2e 1b 3d 99 84 fc bd
       -0.5060322 -0.36493453 0.037886214 -0.123299785
000130 02 7e 4f be f5 b2 a3 bd f7 71 7b 3d a2 f7 43 3e
       -0.20262912 -0.07993118 0.061387982 0.19137433
000140 74 27 92 be ba 31 da 3b 6a 93 86 3e 66 96 d8 be
       -0.28545725 0.00665876 0.26284343 -0.42302245
000150 ed 72 d3 be b1 15 4b 3e 3f 3e 93 bc e4 69 4e be
       -0.4129862 0.19832493 -0.017974017 -0.20157582
000160 1c bf 9f be 5e be 96 3e a8 c0 de 3e ad a8 60 be
       -0.31200492 0.29442114 0.4350636 -0.21939345
000170 07 8b f0 3c e3 3b c7 3e 4c 74 27 3e 6f 71 72 be
       0.029363168 0.38912877 0.16352957 -0.23676084
000180 cf d7 08 3e 5c 0a fa be 35 30 d5 39 65 43 4d 3c
       0.13363574 -0.4883603 0.00040662443 0.012528275

autoencoder.encoder.mlp.mlp.2.bias f4 [10]
000000 87 2c e0 bc 5a 0e 57 3d 0c 52 d5 bd a6 03 38 bd
       -0.027364982 0.05250392 -0.1041604 -0.044925354
000010 53 5d c2 bc d2 f7 34 3e eb 7f c4 bd ea a0 27 3d
       -0.023726141 0.17672661 -0.09594711 0.040924944
000020 a0 08 07 be b2 96 c0 3d
       -0.13186884 0.09403743

autoencoder.decoder.mlp.mlp.0.weight f4 [10, 10]
000000 c7 cf 1d bf d1 7e b1 3e 71 26 07 be c4 35 76 bf
       -0.6164517 0.34667066 -0.13198258 -0.9617579
000010 75 44 74 be 5a 44 09 3f a3 5f a3 be df af f7 be
       -0.2385424 0.5361992 -0.31908903 -0.48376366
000020 f3 2c 13 3e 04 69 80 3f 20 6e 8e be 9c dc 75 be
       0.14372616 1.0032048 -0.27818394 -0.24009937
000030 05 ba 42 bf b3 3c 1a 3e ae 6b 26 bf 39 b8 a9 3e
       -0.76065093 0.15062217 -0.65008056 0.33148363
000040 8e 11 a0 be a4 00 8e be cc 38 86 bf 86 fe 70 3e
       -0.31263393 -0.27734864 -1.0486083 0.23534593
000050 52 81 2c be fe 40 11 3f 79 95 28 3e a5 c1 06 be
       -0.16846207 0.56739795 0.1646327 -0.13159807
000060 33 18 e0 3c 67 9c 42 3f 03 b0 dc be 65 f6 5a bf
       0.02735529 0.760199 -0.43103036 -0.8553222
000070 b7 4e d9 3d 64 07 66 3f 0a e5 d8 3e 59 26 1c be
       0.10610717 0.8985503 0.42362243 -0.15249003
000080 fc 30 82 bf 0b 08 e3 3e 16 d4 ce bd 73 6d 0e 3f
       -1.0171199 0.44342074 -0.10099046 0.55635756
000090 6c 1f 81 be 98 ca 86 bf 86 80 50 bf dd ca d2 3d
       -0.25219285 -1.0530577 -0.8144611 0.10292599
0000a0 b8 37 1a 40 ee 50 c9 bd c7 24 00 bf 33 95 80 3d
       2.4096508 -0.09829889 -0.5005612 0.062784575
0000b0 e8 2c 01 3f 57 d7 70 3f 27 a0 eb 3e b1 54 05 bf
       0.50459146 0.9407858 0.46020624 -0.52082354
0000c0 5d dc ca 3e d8 4b 02 bf 41 76 91 3e 15 ec ee 3e
       0.3962125 -0.5089698 0.28410533 0.4666449
0000d0 3c 3e e6 bd 54 42 ef 3e 43 1f bd bd b2 86 f9 be
       -0.11242339 0.46730292 -0.09234478 -0.48735577
0000e0 d4 c5 4d bd b2 63 9c 3e 84 30 ce 3e 84 3c fc 3d
       -0.05023749 0.3054481 0.4027139 0.1231623
0000f0 a3 27 9f be 81 e4 68 3e c8 2f 51 bf f9 3b 26 3f
       -0.31084928 0.22743417 -0.81713533 0.6493526
000100 eb f5 49 bf 3f e8 fb 3e 61 b8 90 3e a1 1a 88 bc
       -0.78890866 0.49200627 0.2826567 -0.01661426
000110 48 18 5a bf 69 77 22 3e 14 31 7f 3f b4 8c 68 3e
       -0.851933 0.15865864 0.9968426 0.22709924
000120 d1 21 47 3f 0c 54 4c 3f 59 ca c9 3f f7 c3 08 bd
       0.77785975 0.79815745 1.5764877 -0.03339001
000130 00 35 14 bf 97 18 81 3c d5 05 64 be 97 24 a3 bc
       -0.5789337 0.015758796 -0.2226785 -0.019914908
000140 45 fc 3f bf ff 49 67 3f 6c 62 4e 3f 31 b5 3d bf
       -0.7499431 0.90347284 0.8061893 -0.741046
000150 56 61 e9 be 15 ed 04 3f 14 a2 c0 3e 63 c7 8e bf
       -0.45582074 0.5192426 0.37623656 -1.1154598
000160 19 8d 82 be f7 0f 3b 3e f2 6c 03 3f 31 73 8c bd
       -0.25498274 0.18267809 0.5133811 -0.068579085
000170 c2 f3 11 bd fe 7e 1c 3f 30 dc 03 3f ed a0 1c be
       -0.035632856 0.61131275 0.51507854 -0.15295763
000180 dc 49 c0 3e d8 e3 b6 be 49 a6 d9 3e 13 b5 b3 3e
       0.3755635 -0.35720706 0.42509678 0.35099086

autoencoder.decoder.mlp.mlp.0.bias f4 [10]
000000 8e da 17 3e 56 d6 a0 3d 92 74 9c 3e 86 f4 91 be
       0.14829466 0.07853381 0.30557686 -0.2850687
000010 51 85 52 3c e3 ed 41 bb a2 8e 81 3e 5e a8 9b 3c
       0.012849168 -0.0029591254 0.25304133 0.019001182
000020 12 3a 97 bd 67 54 8b be
       -0.07384123 -0.2721283

autoencoder.decoder.mlp.mlp.2.weight f4 [1, 10]
000000 cb 12 2d 3f c3 8a 6a bf 53 6a 7b 3f 3a 3e 66 bf
       0.676068 -0.91617984 0.9820911 -0.899387
000010 58 81 81 c0 4a 00 23 bf 9c be 58 bf e3 a3 cb c0
       -4.047039 -0.63672316 -0.84665847 -6.3637557
000020 db 52 74 3f 28 c4 23 bf
       0.9543893 -0.63971186

exp_avg f4 [10]
000000 00 00 00 00 00 00 00 00 00 00 00 00 00 00 00 00
       0.0 0.0 0.0 0.0
000010 00 00 00 00 00 00 00 00 00 00 00 00 00 00 00 00
       0.0 0.0 0.0 0.0
000020 00 00 00 00 00 00 00 00
       0.0 0.0

exp_avg_sq f4 [10]
000000 00 00 00 00 00 00 00 00 00 00 00 00 00 00 00 00
       0.0 0.0 0.0 0.0
000010 00 00 00 00 00 00 00 00 00 00 00 00 00 00 00 00
       0.0 0.0 0.0 0.0
000020 00 00 00 00 00 00 00 00
       0.0 0.0

exp_avg f4 [10]
000000 00 00 00 00 00 00 00 00 00 00 00 00 00 00 00 00
       0.0 0.0 0.0 0.0
000010 00 00 00 00 00 00 00 00 00 00 00 00 00 00 00 00
       0.0 0.0 0.0 0.0
000020 00 00 00 00 00 00 00 00
       0.0 0.0

exp_avg_sq f4 [10]
000000 00 00 00 00 00 00 00 00 00 00 00 00 00 00 00 00
       0.0 0.0 0.0 0.0
000010 00 00 00 00 00 00 00 00 00 00 00 00 00 00 00 00
       0.0 0.0 0.0 0.0
000020 00 00 00 00 00 00 00 00
       0.0 0.0
